Models/checkpoint_vel_final_1000_700.pth (torch, 353077 bytes, 16 tensors)

0.weight f4 [32, 9]
0	0x3e028260	0.12745047
1	0xbdf80dee	-0.12112032
2	0xbeb7bc92	-0.35886055
3	0x3ea298ba	0.31757146
4	0xbf46f58d	-0.7771843
5	0x3eb2fe23	0.34959516
6	0x3c50f536	0.012753775
7	0x3e640344	0.2226687
8	0xbdb9f2b6	-0.090794966
9	0xbe19018e	-0.14942
10	0x3dc20753	0.09474053
11	0x3dcd62cd	0.100286104
12	0xbe54b1e8	-0.20770991
13	0x3f52e4ef	0.82380575
14	0xbe2814b1	-0.16414143
15	0xbd9fbeee	-0.07800089
16	0x3a77d15b	0.00094534986
17	0xbdffb477	-0.12485593
18	0x3eb331ce	0.34998935
19	0x3c1389f6	0.00900506
20	0x3acc2b28	0.0015576826
21	0xbea30475	-0.31839338
22	0xbf137352	-0.5759784
23	0xbd97b9fb	-0.0740852
24	0xbe302e07	-0.17205058
25	0x3cf4d6d4	0.029887594
26	0x3e3346b6	0.17507443
27	0x3dc314b8	0.09525436
28	0xbea6116b	-0.32435164
29	0x3e65e0df	0.22449063
30	0x3eb17c4c	0.34665143
31	0x3efb783c	0.4911517
32	0x3e721139	0.23639382
33	0xbe7099ce	-0.23496172
34	0xbe2ccb99	-0.16874541
35	0xbd985c12	-0.07439436
36	0x3e11b5bb	0.14229481
37	0xbd7b1dc0	-0.06130767
38	0x3e47e8b2	0.1952236
39	0xbe5c3a15	-0.21506532
40	0x3f91dc44	1.1395345
41	0xbe179158	-0.14801538
42	0x3e2317fe	0.15927121
43	0x3b099a01	0.0020996334
44	0xbe77a7ca	-0.241851
45	0x3dec6615	0.11542908
46	0xbe404630	-0.18776774
47	0x3db20982	0.0869322
48	0xbf77dcc6	-0.9682125
49	0x3d53ea94	0.051737383
50	0xbed28020	-0.41113377
51	0xbdd9dab5	-0.10637418
52	0x3dd7c12c	0.105348915
53	0xbdd9064e	-0.10596906
54	0x3e7fba26	0.24973354
55	0x3bc63b9e	0.0060495874
56	0x3eaa94d7	0.3331668
57	0xbea4b348	-0.3216803
58	0xbe804398	-0.2505157
59	0x3e1cd2ee	0.15314838
60	0xbe85a16a	-0.26099712
61	0x3e565efb	0.2093467
62	0x3e9538f1	0.29145005
63	0x3dbd5490	0.09244645
64	0xbe8da919	-0.27668074
65	0xbeb7fb74	-0.3593403
66	0x3e6badd5	0.2301553
67	0xbda9bb67	-0.08287697
68	0xbdde1277	-0.10843366
69	0xbdba44fc	-0.09095189
70	0x3d86649f	0.06562161
71	0x3caa66b9	0.020800935
72	0x3e129ae3	0.14316897
73	0x3e1adfc7	0.15124427
74	0x3e44a441	0.19203283
75	0xbf26a7f3	-0.6510002
76	0xbd88f29f	-0.06686901
77	0x3dd50921	0.10402132
78	0xbe8de592	-0.2771421
79	0x3d6613f6	0.05617138
80	0xbe140d84	-0.14458281
81	0xbe37e375	-0.17957862
82	0x3c02fbae	0.007994575
83	0xbf1701a6	-0.5898689
84	0xbeb9f9e5	-0.36323467
85	0x3dc8b509	0.09800155
86	0xbe516b82	-0.20451167
87	0x3e12b98c	0.14328593
88	0xbd8ebc64	-0.069695264
89	0x3d5ba3a5	0.05362286
90	0x3ce6b059	0.028160261
91	0xbe877ded	-0.2646326
92	0xbd2018d2	-0.03908617
93	0x3f90a621	1.1300699
94	0xbf4efda2	-0.8085576
95	0xbe0d4bde	-0.13798472
96	0x3e01330d	0.1261713
97	0x3df430d9	0.119233795
98	0xbe0d7a3c	-0.1381616
99	0xbd5f3564	-0.054494277
100	0x3e8c7e7b	0.27440247
101	0x3d6b25d1	0.05740911
102	0x3ebfcc2e	0.37460464
103	0xbea6e5a4	-0.32597077
104	0xbe5849e1	-0.21121933
105	0xbe93cfaa	-0.28869373
106	0x3e98cb8e	0.298428
107	0xbd2afc36	-0.041744433
108	0x3e4cbaa2	0.1999307
109	0xbd4e134c	-0.05031137
110	0xbd90b40b	-0.070655905
111	0x3eff2d20	0.49839115
112	0x3fa818d6	1.3132579
113	0xbe1823ed	-0.14857455
114	0x3d0aaf53	0.03385861
115	0x3e666a78	0.22501552
116	0x3e0326be	0.12807748
117	0x3d9fed60	0.078089476
118	0xbe8b808e	-0.27246517
119	0xbc532f84	-0.012889747
120	0xbde80219	-0.11328525
121	0x3d92be65	0.07165221
122	0x3e8c9021	0.27453712
123	0xbe149a88	-0.14512074
124	0x3e40af6e	0.18816921
125	0xbe1b6840	-0.15176487
126	0xbe7d55fc	-0.24739832
127	0x3d32ae06	0.043622993
128	0x3e662a6c	0.2247712
129	0x3e940d83	0.2891656
130	0xbf69d16e	-0.9133519
131	0x3b57b4c3	0.003291414
132	0x3e46040b	0.1933748
133	0x3dd56a1d	0.1042063
134	0x3e05845b	0.13038771
135	0x3e8db72f	0.2767882
136	0x3eaa8e21	0.3331156
137	0x3e967ae7	0.29390642
138	0xbe20eef3	-0.15716152
139	0xbf6c0316	-0.9219221
140	0xbe043b98	-0.12913358
141	0x3cbe05b0	0.023196071
142	0xbe54a259	-0.20765056
143	0x3d166c44	0.036724344
144	0xbda15be9	-0.078788586
145	0xbe0f4d9b	-0.13994448
146	0x3d1382fc	0.03601359
147	0x3dcf4af0	0.10121715
148	0x3c6c0418	0.014405273
149	0x3f9ede62	1.2411616
150	0xbdb11e84	-0.086483985
151	0x3d17b845	0.037040967
152	0xbd07f94d	-0.033196736
153	0xba879a1c	-0.0010345611
154	0xbec95b0d	-0.3932728
155	0xbe2b930a	-0.1675531
156	0xbf1c7f5c	-0.61131835
157	0xbdec311c	-0.11532804
158	0x3d99012b	0.07470926
159	0xbd8fd606	-0.070232436
160	0xbe574c4d	-0.210252
161	0x3e33a4ac	0.17543286
162	0x3e355733	0.17709045
163	0x3d0408e9	0.03223506
164	0xbed1aba3	-0.4095126
165	0x3ed7eeea	0.42174464
166	0x3f26705d	0.650152
167	0xbd8434df	-0.06455397
168	0xbe4f6e5f	-0.20256947
169	0xbdb00d7a	-0.085963205
170	0xbe0ae3d2	-0.13563469
171	0x3d906c21	0.07051874
172	0x3e5e7784	0.21725279
173	0x3ede74e1	0.43448547
174	0x3e71c4a3	0.23610167
175	0x3dda9fc6	0.106750056
176	0x3e2cf690	0.16890931
177	0x3d61a896	0.055092417
178	0xbe3e0a9a	-0.18558732
179	0x3e996358	0.29958606
180	0xbd85024c	-0.06494579
181	0xbd9fb471	-0.07798088
182	0xbea0af7d	-0.31383887
183	0xbdde99e0	-0.10869193
184	0xbf890ec1	-1.0707628
185	0x3dea3ce6	0.11437397
186	0xbe825884	-0.25458157
187	0xbde3d415	-0.11124436
188	0xbd81ff6a	-0.063475445
189	0xbe913953	-0.28364047
190	0x3ca7a24f	0.020463137
191	0xbe0e45f8	-0.13893878
192	0xbddfe5c6	-0.10932498
193	0x3e86b4b4	0.2630974
194	0x3f338541	0.70125204
195	0xbe4249af	-0.1897342
196	0x3da4780b	0.08030709
197	0x3e284240	0.16431522
198	0x3e8d1a4a	0.2755912
199	0xbe94e896	-0.290837
200	0x3e9a8941	0.3018284
201	0xbf3688f7	-0.7130274
202	0xbe56fd8d	-0.2099516
203	0xbd15631e	-0.03647148
204	0x3ddb1006	0.106964156
205	0xbdb6e685	-0.08930687
206	0xbc1453f5	-0.00905322
207	0xbcc8c546	-0.02450813
208	0x3d58f1c2	0.052964933
209	0x3cd51778	0.026012167
210	0x3e6cd3ac	0.23127621
211	0x3e50eb73	0.20402317
212	0xbe909d8a	-0.28245193
213	0x3e66e9b8	0.22550094
214	0x3e3345a3	0.17507033
215	0x3ea3a4ad	0.31961575
216	0x3e1eea19	0.15518989
217	0xbe8df7d3	-0.27728137
218	0xbe8bf0f2	-0.27332264
219	0x3f2c2857	0.67249054
220	0x3ee5fa55	0.4491755
221	0x3e42855c	0.18996185
222	0xbe48d9c3	-0.1961432
223	0xbd83961c	-0.064251155
224	0x3d82a550	0.06379187
225	0xbe09bc56	-0.1345075
226	0xbe0d1faf	-0.13781618
227	0x3d893348	0.06699234
228	0x3ed5f3f4	0.41787684
229	0x3f669763	0.9007475
230	0xbd969e1e	-0.07354377
231	0xbdff6efb	-0.1247234
232	0x3e7aace4	0.24480015
233	0xbd86c5c8	-0.065806925
234	0xbdd49ed2	-0.10381855
235	0xbcb7bfe2	-0.022430364
236	0xbead12f6	-0.3380353
237	0xbd4b3d18	-0.04961881
238	0x3ef624a2	0.48074824
239	0xbe3b4f07	-0.18291865
240	0xbea5f79c	-0.32415473
241	0x3d0d61ed	0.034517217
242	0x3e122dc6	0.14275274
243	0xbc8e6eec	-0.017386876
244	0xbd042dd0	-0.032270253
245	0x3e0ce73d	0.13760085
246	0xbf0ba009	-0.5454107
247	0x3e0a5829	0.13510193
248	0xbe25117e	-0.16119954
249	0x3e993f83	0.29931268
250	0x3e8fd979	0.28095606
251	0xbd3f9052	-0.046768494
252	0x3e9be815	0.30450502
253	0x3eced17e	0.40394205
254	0xbe0e64cf	-0.13905643
255	0xbf62e0b9	-0.8862415

0.bias f4 [32]
0	0x3d47fe70	0.048826635
1	0x3e1a8197	0.15088497
2	0xbd007342	-0.03135992
3	0xbcb2758e	-0.02178457
4	0x3e5681b3	0.20947914
5	0x3e73ded3	0.2381547
6	0x3c46e738	0.012140088
7	0xbd4e9ef3	-0.050444555
8	0x3b9f2f7d	0.004857956
9	0x3e0e9cb3	0.13926964
10	0xbee60836	-0.4492814
11	0xbd21ffa3	-0.039550435
12	0x3e6ffaa9	0.23435463
13	0xbd13e3ea	-0.036106028
14	0x3c22515e	0.009907095
15	0xbd85e120	-0.0653708
16	0x3ebf9c04	0.37423718
17	0x3cd3d007	0.025856031
18	0xbcf88d4a	-0.03034081
19	0x3f0b355c	0.54378295
20	0xbd860b5c	-0.065451354
21	0x3ef34a0b	0.47517428
22	0x3e3f0a55	0.18656285
23	0x3e5e75bb	0.21724598
24	0xbe886778	-0.2664144
25	0xbe3487d8	-0.17629945
26	0x3e8414fe	0.25797266
27	0xbe1fa9f0	-0.1559217
28	0x3d3592bb	0.044329386
29	0x3d67a2e4	0.05655183
30	0xbc86447d	-0.01639008
31	0xbe54c867	-0.20779572

2.weight f4 [64, 32]
0	0x3de6939d	0.11258624
1	0x3e46311e	0.19354674
2	0xbde386b8	-0.1110968
3	0xbdfba901	-0.12288094
4	0x3e1a6e7e	0.15081212
5	0xbe2916c6	-0.16512594
6	0xbdb63ae4	-0.08897951
7	0xbd5ebe97	-0.05438098
8	0xbe28d54e	-0.1648762
9	0xbdf4eb84	-0.119589835
10	0xbd89f55b	-0.06736251
11	0x3e3e6a5e	0.18595263
12	0xbd5e7985	-0.05431511
13	0xbe6fe6c9	-0.23427881
14	0x3d1c9fd4	0.03823836
15	0x3cb9989c	0.022655778
16	0x3c823bda	0.01589768
17	0x3c51e682	0.012811305
18	0x3e008048	0.12548935
19	0x3d73b225	0.059496064
20	0xbd132b10	-0.03592974
21	0xbd5b096b	-0.05347578
22	0xbd9c27a0	-0.07624745
23	0x3dd645a3	0.10462501
24	0x3d5f7e17	0.054563608
25	0xbe227e51	-0.15868498
26	0x3d808dc2	0.06277038
27	0xbd153120	-0.036423802
28	0xbe125492	-0.14290074
29	0x3c897562	0.016779605
30	0x3e157867	0.14596711
31	0x3be81364	0.0070823897
32	0xbe94c825	-0.29058948
33	0x3c28fc6f	0.010314091
34	0x3a932e7f	0.0011229067
35	0x3e3cfafe	0.18455121
36	0x3e69a9ee	0.2281873
37	0x3dac30bd	0.084077336
38	0xbd390b48	-0.045176774
39	0x3daac6ed	0.08338723
40	0xbd04e49a	-0.032444574
41	0xbeb27071	-0.3485141
42	0x3e2fe0d4	0.17175609
43	0x3d4a425c	0.04937969
44	0x3dfae2c0	0.122502804
45	0xbd53070e	-0.0515204
46	0xbe64ad64	-0.22331768
47	0xbe994879	-0.29938105
48	0xbe05b096	-0.13055643
49	0xbddcfe2d	-0.10790668
50	0xbe12a84f	-0.14322017
51	0x3e0ef48f	0.13960479
52	0xbad05d74	-0.0015896992
53	0xbd660df0	-0.056165636
54	0x3cb638b4	0.022243835
55	0x3e033bb1	0.12815739
56	0x3c702fb9	0.0146598155
57	0x3e74dccd	0.23912354
58	0x3dc54d91	0.09633935
59	0x3cff4b22	0.031163756
60	0x3ea1281f	0.31475922
61	0xbd82bb71	-0.06383408
62	0x3df8ee6c	0.1215485
63	0x3dd79c2d	0.10527835
64	0xbe15c2f9	-0.14625157
65	0xbd7e499f	-0.06208193
66	0x3d6a5d5d	0.057217944
67	0x3dac2e56	0.084072754
68	0xbdaa97fc	-0.0832977
69	0xbda91874	-0.08256617
70	0xbca0cc40	-0.019628644
71	0x3e0b8178	0.13623607
72	0xbbf1104f	-0.0073566805
73	0xbcd77b3e	-0.026303884
74	0x3ec2b029	0.38025025
75	0xbce5443c	-0.027986638
76	0x3eb60cb1	0.35556558
77	0xbc39b5fc	-0.011334892
78	0x3e79c698	0.24392164
79	0xbdb34ed6	-0.08755271
80	0xbdba99d1	-0.091113694
81	0x3d17c919	0.037057016
82	0x3e012ed9	0.12615527
83	0xbea2389b	-0.31683812
84	0x3dfc0cb2	0.12307109
85	0x3d06d49d	0.032917608
86	0xbe43bb2c	-0.19114369
87	0xbd0553f8	-0.032550782
88	0x3e7c0568	0.24611437
89	0xbdc305d1	-0.09522594
90	0x3c8957f7	0.016765578
91	0x3e5211fc	0.20514673
92	0xbc7cff99	-0.015441799
93	0xbd8e0582	-0.06934644
94	0x3e449eaa	0.1920115
95	0x3e75ebdc	0.24015754
96	0xbdd59658	-0.104290664
97	0x3e095c84	0.13414198
98	0x3d05c497	0.032658186
99	0xbd9628ae	-0.07331978
100	0xbe29d4d2	-0.16585091
101	0x3e763f46	0.24047574
102	0x3e1ea230	0.15491557
103	0x3cfa90bf	0.030586598
104	0x3e2a8abf	0.1665449
105	0x3e0e9c55	0.13926823
106	0xbd56c92b	-0.052437942
107	0xbddac593	-0.106822155
108	0x3cff3114	0.031151332
109	0x3da3ebc8	0.08003956
110	0x3d5f702e	0.054550342
111	0xbe3144d1	-0.17311408
112	0xbe1dca2c	-0.15409154
113	0x3e8ddcc7	0.27707502
114	0xbca07b82	-0.019590143
115	0xbdc1a9f9	-0.09456248
116	0x3bd49c39	0.0064883498
117	0xbe6e728e	-0.23285887
118	0x3e139e45	0.14415844
119	0xbca4f102	-0.020134453
120	0xbe27b365	-0.16377027
121	0x3e352f7b	0.17693894
122	0xbe83c42a	-0.257356
123	0x3ca07d54	0.019591011
124	0xbd6771af	-0.0565049
125	0x3d5228e3	0.051308524
126	0xbe45ef30	-0.19329524
127	0xbe3c5af9	-0.18394078
128	0x3dd26347	0.10272842
129	0xbcba7747	-0.022761954
130	0x3e156226	0.14588222
131	0xbcbfbc35	-0.023405174
132	0x39df27a7	0.00042563418
133	0xbe78fdf7	-0.2431563
134	0x3e71374a	0.23556247
135	0x3d7b97ba	0.061423995
136	0xbe7e56a2	-0.24837735
137	0xbd208f9d	-0.03919946
138	0x3ddb8796	0.1071922
139	0xbe1ec9ba	-0.1550664
140	0x3cd1c95c	0.025608711
141	0xbcd4c5f9	-0.025973307
142	0x3daddd74	0.084895045
143	0xbdadebff	-0.08492278
144	0x3e3d7134	0.18500215
145	0x3dd0ef39	0.10201878
146	0xbe341466	-0.17585906
147	0xbce2dbac	-0.027692638
148	0x3e113f68	0.14184344
149	0xbe373bab	-0.17893855
150	0x3c7c0009	0.015380868
151	0xbdde0b20	-0.10841966
152	0x3ddc787e	0.107651696
153	0x3d83849c	0.064217776
154	0xbc3c7d93	-0.011504549
155	0x3e52ac63	0.20573573
156	0xbd8bf1ae	-0.06833206
157	0x3da385a2	0.07984473
158	0x3dbb6dca	0.091518
159	0xbe8d6024	-0.27612412
160	0x3d1bbc87	0.03802159
161	0x3dc6a40d	0.09699259
162	0xbb5ed7ad	-0.0034003065
163	0x3d8edc3b	0.069755994
164	0x3e493e70	0.19652724
165	0xbe0f9638	-0.14022148
166	0xbd817f5d	-0.06323121
167	0xbe1f0753	-0.15530138
168	0x3d84e102	0.06488229
169	0x3c8d2b3b	0.017232528
170	0x3d30d153	0.043168377
171	0x3dc8c7f4	0.09803763
172	0x3c58f2bb	0.013241465
173	0xbcf07aa5	-0.029355356
174	0x3d3ead57	0.04655203
175	0x3e841e02	0.25804144
176	0x3e0b16dc	0.13582939
177	0x3cb6c71a	0.022311736
178	0xbdf41a95	-0.119191326
179	0x3dcafb2d	0.09911189
180	0xbdaab17f	-0.08334636
181	0x3d589e92	0.0528856
182	0xbe8c9d2e	-0.2746367
183	0x3d8f1b48	0.06987625
184	0xbe4aec5d	-0.19816728
185	0xbe2ab313	-0.16669874
186	0xbe630485	-0.22169693
187	0xbe0fd5ec	-0.14046448
188	0x3cbf33eb	0.023340186
189	0x3e206970	0.15665221
190	0x3cfe8260	0.031068027
191	0x3dba10eb	0.09085258
192	0x3e48b545	0.19600399
193	0xbc33c993	-0.010973352
194	0x3e74982f	0.23886178
195	0xbdea4fa9	-0.11440975
196	0xbe43a8b0	-0.19107318
197	0xbe6ddeef	-0.23229574
198	0xbe2332a4	-0.15937287
199	0x3d7e1941	0.062035803
200	0xbdb67e70	-0.08910835
201	0xbddd13bb	-0.10794779
202	0x3e92b8d1	0.2865663
203	0xbde79efd	-0.113096215
204	0xbeaae5f5	-0.33378568
205	0xbe093cc7	-0.13402091
206	0x3ca36782	0.019946817
207	0x3e9206f8	0.28520942
208	0xbdf70303	-0.12061121
209	0xbd928446	-0.071541354
210	0x3d946ca9	0.07247288
211	0x3df110c9	0.1177078
212	0x3d7f86f7	0.062384572
213	0xbd01d29e	-0.031695
214	0x3d62e408	0.05539325
215	0xbdcfa651	-0.10139144
216	0x3e01b832	0.12667921
217	0xbc857b89	-0.016294258
218	0xbe1a312a	-0.15057817
219	0xbcb64c25	-0.022253105
220	0xbe147332	-0.14497069
221	0xbcc606aa	-0.0241731
222	0x3cbf41a2	0.023346726
223	0xbd965352	-0.07340111
224	0x3cb03d99	0.021513747
225	0xbdc03629	-0.0938533
226	0xbd54ea5f	-0.051981326
227	0x3e4d3d77	0.20042978
228	0xbdc7893b	-0.097429715
229	0xbe012c34	-0.12614518
230	0x3e369c44	0.17833048
231	0xbdbf971e	-0.09354995
232	0x3dc9a7a8	0.09846431
233	0xbd58237e	-0.052768223
234	0xbdc9fa61	-0.09862209
235	0xbe0bc554	-0.13649493
236	0x3eaeac78	0.34115958
237	0x3dadfe8a	0.08495815
238	0xbdd32080	-0.10308933
239	0xbe28eee7	-0.16497384
240	0x3ebf1034	0.3731705
241	0x3cb0bc57	0.021574182
242	0xbd2c0ee9	-0.042006407
243	0x3d58ef7e	0.052962773
244	0xbd5c1dc4	-0.053739324
245	0xbcb652e3	-0.02225632
246	0xbcf54b73	-0.029943204
247	0xbc385fba	-0.011253292
248	0x3dc9deb6	0.09856932
249	0xbe15ea21	-0.14640094
250	0x3d7e1889	0.062035117
251	0xbd663bc6	-0.05620935
252	0x3d345cc5	0.044033784
253	0x3d175980	0.03695059
254	0xbd9f8320	-0.07788682
255	0xbd356774	-0.044288114

2.bias f4 [64]
0	0x3e4b6c77	0.19865595
1	0xbe251df1	-0.16124703
2	0xbeb5a0dd	-0.3547429
3	0x3dc736ae	0.09727226
4	0x3e257085	0.16156204
5	0xbc85ebf5	-0.016347865
6	0xbe8541b5	-0.26026693
7	0x3c2be607	0.0104918545
8	0xbdf3fc9d	-0.119134165
9	0x3dcaeebd	0.09908817
10	0x3dd1a87f	0.10237216
11	0x3d6166a0	0.05502951
12	0xbdfa6458	-0.1222617
13	0xbe14b5ac	-0.14522427
14	0xbe6058c8	-0.21908867
15	0xbe86624a	-0.26246864
16	0x3ebd947f	0.37027356
17	0xbea0de2e	-0.3141951
18	0x3d4a366e	0.049368314
19	0xbe7bb536	-0.24580845
20	0x3e6dcaae	0.23221847
21	0x3d12859e	0.03577196
22	0x3d833ee3	0.06408479
23	0xbdcadeb3	-0.09905758
24	0xbdf3ac44	-0.118980914
25	0xbe1f2b7e	-0.15543935
26	0x3d7da9db	0.061929565
27	0xbd4ddbf4	-0.05025859
28	0x3d9b892b	0.07594522
29	0xbdb7ef2d	-0.08981166
30	0xbe8e2363	-0.27761373
31	0xbc89125f	-0.016732393
32	0xbdfaab2c	-0.1223968
33	0x3e2635ee	0.1623151
34	0x3e419b41	0.18906881
35	0x3e0a9b3e	0.13535783
36	0x3bfddac8	0.007747028
37	0xbe6a8a78	-0.22904384
38	0xbcd1b871	-0.025600644
39	0xbd7a8ab1	-0.061167423
40	0xbc8ee3d5	-0.017442623
41	0xbe57b544	-0.21065241
42	0x3e1b0116	0.15137133
43	0x3dfff72c	0.12498316
44	0xbe1b809b	-0.15185778
45	0x3dec2b43	0.11531689
46	0x3dbd5e91	0.09246553
47	0x3c84ea64	0.016225047
48	0xbd32e93b	-0.043679457
49	0x3da70a56	0.08156268
50	0x3b46c4bf	0.0030329672
51	0x3e6d5335	0.23176272
52	0x3e4c4c19	0.19950904
53	0x3e5fbc82	0.21849254
54	0xbdf77728	-0.12083274
55	0x3e9ae9b8	0.30256438
56	0x3d83330e	0.06406222
57	0x3cd2fc9a	0.025755215
58	0xbcfbde91	-0.030745776
59	0xbc9ec7ca	-0.019382376
60	0xbd7e30af	-0.062058147
61	0x3decb78b	0.115584455
62	0xbe51525d	-0.20441575
63	0xbddf0406	-0.10889439

4.weight f4 [128, 64]
0	0x3e1dd985	0.15415008
1	0xbe02d9fd	-0.12778468
2	0xbd67e217	-0.0566121
3	0x3b207019	0.0024480878
4	0xbbdebcc0	-0.006797403
5	0x3dd363eb	0.10321792
6	0x3db27764	0.08714178
7	0xbd05864c	-0.03259878
8	0xbbef91da	-0.007311088
9	0xbe1c5569	-0.15266956
10	0x3d71bc84	0.059017673
11	0xbcafbf5e	-0.021453556
12	0xbde773b3	-0.11301365
13	0xbce83716	-0.02834658
14	0xbd4d2730	-0.0500862
15	0xbd9933a0	-0.0748055
16	0x3cc05f21	0.023482861
17	0xbe0d6786	-0.13809022
18	0xbce0cb70	-0.027440757
19	0xbd1ba51b	-0.037999254
20	0x3dcff58d	0.10154257
21	0x3dc3da68	0.09563142
22	0xbbe66348	-0.007030878
23	0x3d61ec0c	0.055156752
24	0x3d8f1a65	0.06987456
25	0xbd33160b	-0.043722194
26	0xbd839edb	-0.06426784
27	0x3d57dbd6	0.052699886
28	0xbd538204	-0.051637664
29	0x3b80edb3	0.003934586
30	0x3dda26bb	0.106519185
31	0xbd493296	-0.049120508
32	0x3dcd125e	0.10013269
33	0x3d407c1b	0.046993356
34	0xbe3816ef	-0.17977498
35	0xbd689b96	-0.056789003
36	0xbc161d89	-0.009162315
37	0xbbd51d51	-0.006503739
38	0x3dd8eb81	0.10591794
39	0x3d03c446	0.032169603
40	0x3dcc11e3	0.09964349
41	0xbe3f5480	-0.18684578
42	0x3d9c3765	0.07627753
43	0xbdabe1ef	-0.08392703
44	0xbd9d312a	-0.07675393
45	0xbdbbb2da	-0.091649726
46	0xbd5baca1	-0.05363143
47	0xbc609421	-0.013707192
48	0x3e001e80	0.12511635
49	0x3e0dfa2a	0.13864961
50	0xbd59aee8	-0.05314532
51	0x3d39b6be	0.045340292
52	0xbdea6b63	-0.11446264
53	0x3c8f8b3f	0.017522452
54	0xbd91c7bf	-0.07118177
55	0xbd5f9483	-0.05458499
56	0x3dca36dc	0.09873745
57	0x3dd9e1e0	0.10638785
58	0x3cc018ac	0.023449264
59	0x3d32cb31	0.04365081
60	0x3e0e6776	0.13906655
61	0xbd8d3877	-0.068955354
62	0xbe2a62d5	-0.16639264
63	0x3d77877d	0.060431946
64	0xbaf202f7	-0.0018464018
65	0xb8a13486	-7.6868615e-05
66	0xbaab49b8	-0.0013068235
67	0xba82ee96	-0.0009989317
68	0xbb04f61a	-0.002028829
69	0xbac9ec68	-0.0015405538
70	0xbb2f53c3	-0.0026752807
71	0x3a59cc24	0.00083083124
72	0x388bbf1a	6.663632e-05
73	0xbb8ca203	-0.0042917742
74	0xbb8ef948	-0.0043632127
75	0x3a030345	0.00049977406
76	0xbc13c6eb	-0.009019594
77	0x3a8977ae	0.0010487938
78	0xba2d5b89	-0.0006613066
79	0xba841856	-0.0010078053
80	0xba5a78ed	-0.00083340594
81	0xbb6cdc6f	-0.003614213
82	0xbb8294a2	-0.0039850036
83	0xb997263b	-0.00028829448
84	0xba8ea8d2	-0.0010884053
85	0xbbe5b72b	-0.0070103607
86	0xbbb8adba	-0.005635944
87	0xbb2977ec	-0.0025858833
88	0xbba99208	-0.005174879
89	0x3b2cb77f	0.002635449
90	0x3a567d9a	0.0008182168
91	0x3a2be28b	0.000655689
92	0xbb80b943	-0.003928335
93	0x3a0d6717	0.0005394085
94	0xb900a05e	-0.00012266773
95	0xb9f09277	-0.00045885492
96	0xb98f533a	-0.00027337094
97	0x39997b59	0.00029274335
98	0xbb9cb1f9	-0.004781958
99	0x39c5f2d5	0.00037755692
100	0x3a045718	0.00050483784
101	0x394bec9f	0.00019447737
102	0x3af15d96	0.0018414732
103	0xbb83a9ba	-0.0040180357
104	0xbb0867ba	-0.002081378
105	0xbae8ad6e	-0.0017751881
106	0x3b020ae1	0.001984291
107	0xbb165cf9	-0.00229436
108	0x3b054713	0.0020336553
109	0xbb33d47a	-0.0027439878
110	0xba63f102	-0.0008695276
111	0x3b8f3095	0.004369805
112	0x39cd9aae	0.00039215892
113	0x37e98b4b	2.7840628e-05
114	0x3b09495d	0.002094827
115	0x3b16620f	0.002294663
116	0xbb520131	-0.0032044167
117	0x39f66caf	0.00047001752
118	0x3b174873	0.0023083955
119	0xbb3fccf5	-0.002926645
120	0x3b3c5706	0.0028738393
121	0xbb44c684	-0.003002555
122	0xbbe12d8d	-0.006871885
123	0x3a362966	0.0006948918
124	0xba2c97de	-0.0006583909
125	0xbb1d3cb3	-0.0023992478
126	0xbaba840e	-0.0014230029
127	0xbb565e9e	-0.0032710205
128	0x3d1057d2	0.035240002
129	0x3d6ae571	0.05734772
130	0xbdb6cf1e	-0.08926223
131	0xbcf0a254	-0.02937428
132	0xbcfe529d	-0.031045252
133	0xbb896051	-0.00419239
134	0x3bb8a27f	0.0056346054
135	0x3d91fa8e	0.07127868
136	0xbccab2e7	-0.02474351
137	0x3cb6b111	0.022301229
138	0x3d5e7cd0	0.05431825
139	0x3cf1d1b0	0.029518932
140	0xbdcf18d4	-0.101121575
141	0x3c4ae82b	0.012384455
142	0xbdf76f52	-0.120817795
143	0xbd3b49d6	-0.045724712
144	0x3db9aa8f	0.090657346
145	0x3ca03e5b	0.019560983
146	0xbdfcd999	-0.12346191
147	0xbd3578ca	-0.044304647
148	0xbc7252a4	-0.014790211
149	0xbc70b381	-0.014691235
150	0x3d83d86a	0.06437762
151	0xbd920b30	-0.0713104
152	0xbd452c67	-0.04813805
153	0xbc68b3bc	-0.014203008
154	0xbd78932c	-0.06068723
155	0xbd86f8c1	-0.06590415
156	0xbd17ece8	-0.037091166
157	0x3ceb091e	0.02869087
158	0xbde965de	-0.11396383
159	0xbd64f72b	-0.05589978
160	0x3c87c699	0.01657419
161	0x3c1156b2	0.008870767
162	0xbe031d66	-0.12804183
163	0xbc68641b	-0.014184023
164	0xbd67f8c4	-0.056633726
165	0x3d3089f7	0.043100324
166	0x3c8e3f4a	0.017364163
167	0xbd02ef84	-0.0319667
168	0xbd6e56d5	-0.05818828
169	0xbcfded67	-0.030996991
170	0xbd5785a3	-0.05261768
171	0xbdf1e62e	-0.118114814
172	0x3e03ba86	0.12864122
173	0x3d88b6b3	0.06675472
174	0x3dd4f428	0.103981316
175	0xbdb94470	-0.090462565
176	0xbd4ec3ad	-0.05047958
177	0xbe2128e1	-0.1573825
178	0x3cd7b8d9	0.02633326
179	0x3e0e87f4	0.1391905
180	0x3cfa41c7	0.030548943
181	0x3e3a5f50	0.18200421
182	0xbe405143	-0.18780999
183	0xbd87d818	-0.066330135
184	0xbdbd0aac	-0.09230551
185	0xbdbf42f2	-0.09338941
186	0x3d076071	0.033050958
187	0xbdfc030a	-0.12305267
188	0x3d68ba75	0.056818444
189	0xbd03a740	-0.032141924
190	0x3dc030c7	0.093843035
191	0xbd145efa	-0.03622339
192	0x3bc92304	0.0061382074
193	0xbd02b229	-0.031908188
194	0x3be39d30	0.0069462284
195	0x3e05bcdb	0.13060324
196	0x3d981e43	0.07427647
197	0x3c8b8431	0.017030807
198	0x3c370fb2	0.011173176
199	0xbd0dbda5	-0.034604687
200	0xbda02b57	-0.078207664
201	0xbe361bfc	-0.17784113
202	0x3e5c89b2	0.21536902
203	0xbdae6610	-0.085155606
204	0xbca079be	-0.019589301
205	0xbe99171f	-0.29900452
206	0xbc3e565e	-0.011617271
207	0xbdafc02b	-0.08581575
208	0xbdb1944c	-0.086708635
209	0x3c68ed27	0.014216698
210	0x3c2b455e	0.01045355
211	0x3d1d37df	0.03838336
212	0x3d52dbbc	0.051479086
213	0xbd46fe8a	-0.04858259
214	0xbda64cce	-0.08120118
215	0x3d128a27	0.035776284
216	0x3cddd5f7	0.027079565
217	0x3d862f7a	0.06552024
218	0x3dd22a1f	0.1026194
219	0xbdba9eaf	-0.09112298
220	0x3de3b4db	0.1111848
221	0x3daae98f	0.08345329
222	0xbd0e22b4	-0.034701064
223	0xbd17034b	-0.036868375
224	0xbe12ca48	-0.14334977
225	0xbd4a7082	-0.049423702
226	0x3d4ef663	0.05052794
227	0x3e3aec7e	0.18254277
228	0x3e021575	0.12703498
229	0x3df1b29d	0.11801646
230	0x3d09c8a2	0.033638604
231	0x3d74354d	0.059621144
232	0x3b28db5f	0.002576552
233	0x3d2b9b67	0.04189625
234	0x3c371195	0.0111736255
235	0x3e28f757	0.16500603
236	0xbd0eacbe	-0.03483271
237	0xbdd8a948	-0.10579163
238	0xbd89dbc6	-0.067313716
239	0xbe4b2647	-0.1983882
240	0x3d857489	0.06516368
241	0xbbbe00c6	-0.005798432
242	0x3cabaa9d	0.020955378
243	0x3caa4c52	0.020788345
244	0x3e02a2eb	0.12757461
245	0xbcbc38a7	-0.022976233
246	0x3d7d75e5	0.06188001
247	0xbdb63c0d	-0.088981725
248	0x3ce8a50b	0.028399011
249	0xbd8f41f3	-0.06995001
250	0xbdd260c4	-0.10272363
251	0x3db7ca74	0.08974162
252	0xbb968849	-0.004593883
253	0xbd200e53	-0.03907616
254	0xbe05e6b1	-0.13076283
255	0x3c29770c	0.010343324

4.bias f4 [128]
0	0x3c9582e7	0.018250896
1	0xbb6477f6	-0.0034861541
2	0x3e2546e7	0.16140328
3	0x3d49b369	0.049243364
4	0x3d7f8bba	0.062389113
5	0xbe33a17b	-0.17542069
6	0x3d967746	0.07346968
7	0xbdb67e0f	-0.089107625
8	0xbd6bc5db	-0.057561737
9	0xbcbabe0e	-0.022795703
10	0x3b1d4dcb	0.0024002667
11	0x3d9f1654	0.077679306
12	0xbe0f6eb4	-0.14007074
13	0x3db23672	0.08701791
14	0x3d42643c	0.047458872
15	0xbb17d98e	-0.0023170444
16	0x3cdc565d	0.02689665
17	0x3d5c91ad	0.053849865
18	0x3d36f69c	0.04466878
19	0xbdd964c9	-0.10614926
20	0x3cafed8c	0.021475576
21	0xbc486e37	-0.0122333085
22	0xbe26f7b2	-0.16305426
23	0xbceb73d4	-0.028741755
24	0xbe003cbb	-0.12523167
25	0x3cf42f5b	0.029807737
26	0x3c112080	0.008857846
27	0xbc4569b9	-0.012049132
28	0x3d357663	0.044302355
29	0x3ca5bd05	0.020231733
30	0x3dd9b18f	0.1062957
31	0xbd0ee199	-0.034883115
32	0x3e0582a7	0.13038121
33	0xbdde8cf7	-0.10866731
34	0xbd17d8d1	-0.037072007
35	0xbd83315b	-0.06405898
36	0x3d664f6b	0.056228083
37	0xbdd397e8	-0.10331708
38	0xbd06c424	-0.032901898
39	0xbd1a1b3f	-0.03762364
40	0xbd0c83cd	-0.034305383
41	0x3d7b1c40	0.06130624
42	0x3d82b997	0.06383055
43	0xbd39ca21	-0.04535878
44	0x3e8aebb1	0.27132943
45	0x3c6bf3b1	0.014401362
46	0xbd66f7cc	-0.05638866
47	0xbbd91a9b	-0.006625486
48	0x3d657ff2	0.05603022
49	0xbd91e8e6	-0.071245
50	0x3c9b6289	0.018967884
51	0x3db409f0	0.08790958
52	0x3da84c98	0.08217734
53	0x3dab2d2e	0.08358227
54	0x3d1ba830	0.038002193
55	0x3c9239a2	0.017849747
56	0xbd9d5dd5	-0.07683913
57	0xbb0f2248	-0.0021840502
58	0x3de84871	0.11341942
59	0xbce6ea4c	-0.028187893
60	0xbd82fd06	-0.06395917
61	0xbdc7b965	-0.09752158
62	0xbccb0907	-0.024784578
63	0xbdea329b	-0.114354335
64	0xbc0a01d4	-0.008423287
65	0xbbf74285	-0.0075457715
66	0x3c4256f1	0.011861549
67	0xbdc5a1af	-0.09649979
68	0x3cd9733a	0.026544202
69	0x3d9b0816	0.07569902
70	0x3c5de462	0.01354322
71	0xba7451ae	-0.00093200326
72	0xb4bf0b3a	-3.558469e-07
73	0xbdc84d3b	-0.097803555
74	0x3b579f02	0.0032901173
75	0x3d2f8e31	0.042860214
76	0xa73d9a4c	-2.6312663e-15
77	0x3d81002c	0.06298861
78	0xbe144a2e	-0.14481422
79	0xbd20dfdc	-0.03927599
80	0x3d8b88af	0.0681318
81	0x3de15188	0.11001879
82	0xbda959e1	-0.08269096
83	0x3d1711f3	0.036882352
84	0xbd66c980	-0.05634451
85	0x3d0bc84b	0.03412656
86	0xbd59f759	-0.053214405
87	0x3e4f8554	0.20265704
88	0x3e0b72c4	0.13617998
89	0xa1dd3951	-1.4990714e-18
90	0x3cad3266	0.021142196
91	0xbd0e0901	-0.034676556
92	0x3e1d1b79	0.15342511
93	0x3e4842b2	0.19556692
94	0x3c3f9f39	0.0116956765
95	0xbd16f23d	-0.03685211
96	0xba12749d	-0.0005586835
97	0xbe39b517	-0.18135487
98	0x3d250824	0.040290967
99	0x3d8693f7	0.06571191
100	0x3d944cae	0.07241188
101	0xbb37dda4	-0.0028055692
102	0x3da02cc2	0.07821037
103	0x3e229195	0.15875848
104	0xbde31381	-0.110877044
105	0x3dbd583c	0.09245345
106	0x3be919cd	0.0071136714
107	0xbd64a4e2	-0.055821307
108	0x3d131f54	0.03591855
109	0x3d667640	0.056265116
110	0xbd1f0425	-0.038822312
111	0x3ca5a402	0.020219807
112	0xbd2fd772	-0.042930074
113	0x3cf52bce	0.029928114
114	0xbcb00e56	-0.02149121
115	0xbd16a74f	-0.03678065
116	0x3d51fffd	0.05126952
117	0x3dd2800a	0.10278328
118	0xbbc89654	-0.006121436
119	0x3d290bc3	0.041270982
120	0x3d8a21f9	0.06744761
121	0x3c662629	0.014047184
122	0x3d80c14d	0.06286869
123	0xbd4a68dc	-0.049416408
124	0x3d68b307	0.05681136
125	0x3da0e3c0	0.0785594
126	0x3d01514a	0.031571664
127	0xbe0e131c	-0.13874477

6.weight f4 [256, 128]
0	0xb6403fa6	-2.8647278e-06
1	0xb0374c52	-6.668347e-10
2	0xb8e2711c	-0.00010797588
3	0xb9a29752	-0.0003101179
4	0xb92c16bd	-0.00016411669
5	0x3a41e7b6	0.00073968933
6	0xb8989040	-7.2747935e-05
7	0x3a9c7225	0.0011935873
8	0xb9a95d3d	-0.0003230366
9	0xb9f6f39d	-0.00047102282
10	0xbac8dcc8	-0.0015324587
11	0xb7e958fa	-2.7817197e-05
12	0xb9b497bb	-0.00034445323
13	0xba123eff	-0.0005578845
14	0xbaff3502	-0.0019470754
15	0x00004988	2.6378e-41
16	0xb9f685a4	-0.00047020346
17	0x3b1e25e4	0.0024131471
18	0x3a340e01	0.0006868542
19	0x398c6abe	0.0002678241
20	0x3a69c861	0.00089181034
21	0xba038508	-0.00050170766
22	0x373a545a	1.1106104e-05
23	0xba4a60c8	-0.000772011
24	0x3a6aa014	0.0008950245
25	0x3acef562	0.0015789683
26	0xb8abf3a1	-8.199295e-05
27	0xb929eb9e	-0.0001620487
28	0xb946c1fd	-0.00018955018
29	0xb9b421e9	-0.0003435754
30	0xbadc24d2	-0.0016795641
31	0x3a273025	0.00063777185
32	0x3990360a	0.00027506083
33	0x36e98175	6.959012e-06
34	0xb2ab8ccf	-1.9971052e-08
35	0x3a307734	0.000673163
36	0xb702d387	-7.797854e-06
37	0xb9fa6e98	-0.00047766115
38	0x38e383a8	0.000108487264
39	0xbaa9ce47	-0.0012955152
40	0x3a9589fc	0.001140892
41	0x3b133b11	0.0022465626
42	0xbaaec6c4	-0.0013334383
43	0xbaae59d0	-0.0013301913
44	0xba0a525b	-0.0005276554
45	0x38c55303	9.409154e-05
46	0x3aaa7083	0.0013003502
47	0x37e952db	2.7814347e-05
48	0x36c317ec	5.8142377e-06
49	0x39daba0f	0.00041718825
50	0x39411c3e	0.00018416435
51	0x39fdb0c3	0.00048387618
52	0xb90e6f60	-0.00013583666
53	0xb71b61a3	-9.261453e-06
54	0xb9193398	-0.00014610437
55	0x39671af0	0.00022039912
56	0x39ddf1b9	0.00042332502
57	0xb6862539	-3.9978445e-06
58	0xbb8155f1	-0.0039470126
59	0x39e35378	0.00043359003
60	0xb9bccbd4	-0.00036010018
61	0x39168c91	0.0001435748
62	0xb9191d2e	-0.00014602087
63	0xb81a772a	-3.682744e-05
64	0xb73933a1	-1.103888e-05
65	0xb8e3773a	-0.00010846411
66	0xb8280ed8	-4.0068146e-05
67	0xb8ebb60c	-0.00011239582
68	0xb8413f3a	-4.607367e-05
69	0x3a830c30	0.0009998139
70	0xb98d382d	-0.0002693547
71	0xba005b30	-0.00048964005
72	0x0000983a	5.4609e-41
73	0x3a24a536	0.0006280722
74	0xb585f698	-9.98104e-07
75	0xb8f7392d	-0.000117885276
76	0x802b92d7	-4.001603e-39
77	0x39b86346	0.0003516918
78	0xba1fa21a	-0.00060895237
79	0x3a281393	0.0006411608
80	0x38a36194	7.790621e-05
81	0xb86a3e97	-5.584824e-05
82	0xb7a982a8	-2.0207211e-05
83	0x39fba66e	0.0004799845
84	0xb89b1f60	-7.39682e-05
85	0xba961ba4	-0.0011452329
86	0x39d32413	0.00040271934
87	0xba39eb0d	-0.0007092215
88	0xbace390e	-0.0015733556
89	0x00004c70	2.742e-41
90	0xbaa1821c	-0.0012322101
91	0xb8210736	-3.8392107e-05
92	0xbaf327be	-0.0018551273
93	0xb914b62e	-0.00014182247
94	0xbb233f81	-0.0024909677
95	0xb88528f8	-6.349565e-05
96	0x00009cdb	5.6269e-41
97	0x3a009a77	0.00049058296
98	0xba874ca7	-0.0010322527
99	0xb75f692e	-1.3316325e-05
100	0xba4dc2cd	-0.0007849157
101	0x3954655a	0.00020255652
102	0xba9276c9	-0.0011174317
103	0xbb124058	-0.0022316184
104	0xb97f2a17	-0.00024334375
105	0xbafc177b	-0.0019233072
106	0xb8855045	-6.3568856e-05
107	0xba19bf94	-0.0005865034
108	0x38155a54	3.5608493e-05
109	0x3af2591d	0.0018489693
110	0x39c82a28	0.00038178382
111	0xba48bb31	-0.0007657288
112	0x3823118d	3.8878574e-05
113	0x3a47d002	0.0007622243
114	0xb9ebf154	-0.00045002496
115	0xb84a7243	-4.8266967e-05
116	0xb5e94799	-1.738069e-06
117	0xbab3b0fe	-0.0013709364
118	0x3891638c	6.932681e-05
119	0xb9e23da2	-0.00043152
120	0xb98eaf5f	-0.00027215012
121	0xba897659	-0.0010487541
122	0xb72c446d	-1.02679305e-05
123	0xb7f4a2e7	-2.9162924e-05
124	0x38648bd5	5.4489665e-05
125	0xba8ad222	-0.0010591189
126	0xb9ce1f1e	-0.00039314566
127	0x39a6929f	0.00031771229
128	0xb7897141	-1.638441e-05
129	0x00003edb	2.2548e-41
130	0xb4672a53	-2.1528949e-07
131	0x37854e1e	1.5891212e-05
132	0xb95f4d86	-0.00021295817
133	0x343369d8	1.670918e-07
134	0xb52fcefb	-6.5493776e-07
135	0xb6f4887c	-7.2876555e-06
136	0xb7f8e7d6	-2.967186e-05
137	0xb75989d0	-1.2966295e-05
138	0x389ce9e2	7.482224e-05
139	0xb72395d1	-9.750439e-06
140	0xb920dd47	-0.00015341221
141	0x37c71c38	2.3735789e-05
142	0xb89509f5	-7.106728e-05
143	0x80000812	-2.895e-42
144	0xb8cdd86a	-9.815472e-05
145	0xb5e2875b	-1.6877706e-06
146	0xb9029560	-0.00012453413
147	0x38151c98	3.5551e-05
148	0xb8270f81	-3.9830342e-05
149	0xb8392262	-4.413946e-05
150	0x3a04ceb3	0.0005066201
151	0xb7bb4604	-2.232474e-05
152	0xb7717fc2	-1.4394465e-05
153	0xb983108c	-0.00024998595
154	0xb8861c72	-6.394916e-05
155	0xb7764852	-1.4679581e-05
156	0xb3f0a3fa	-1.1205698e-07
157	0xb7c034f2	-2.2912838e-05
158	0xb967bace	-0.00022099467
159	0xba16f407	-0.0005758409
160	0x39e78be2	0.00044163974
161	0xb2af7740	-2.042691e-08
162	0xb0f05593	-1.748662e-09
163	0x36b44a9e	5.3731046e-06
164	0xb138e0b3	-2.690325e-09
165	0x3798359e	1.814478e-05
166	0x2f2e9349	1.5877534e-10
167	0xb80d82b4	-3.3738746e-05
168	0x3813c6ef	3.5232802e-05
169	0x394464bd	0.00018729545
170	0xb8db0902	-0.000104444116
171	0xb8b5908f	-8.657679e-05
172	0xb92c53c8	-0.00016434409
173	0x365f45d4	3.3270235e-06
174	0xb89dd02f	-7.5251206e-05
175	0x36c8134e	5.962712e-06
176	0x35dd94f1	1.6509131e-06
177	0x3737c13d	1.0952642e-05
178	0x34cc9517	3.8106438e-07
179	0xb6a80cbc	-5.0082726e-06
180	0x388bb86f	6.66239e-05
181	0xb35506dd	-4.959917e-08
182	0xb6db7d37	-6.5412855e-06
183	0x39819916	0.00024718855
184	0x38880964	6.4867345e-05
185	0x3283e129	1.5352798e-08
186	0xba0956c7	-0.0005239066
187	0x37ea04da	2.7897233e-05
188	0x37602ac2	1.3361396e-05
189	0xb6bd6e36	-5.645469e-06
190	0xb0aa706b	-1.2401079e-09
191	0xba24b2d2	-0.000628275
192	0x36fc2341	7.5142893e-06
193	0xb51ad1a8	-5.767456e-07
194	0x38a6249e	7.922317e-05
195	0x373aeb16	1.1141199e-05
196	0x3656e788	3.2023254e-06
197	0xb4738c09	-2.2682083e-07
198	0xb656f897	-3.2033183e-06
199	0xb7621358	-1.34751535e-05
200	0x80008103	-4.628e-41
201	0xb88af8aa	-6.62667e-05
202	0xab02a6cf	-4.641677e-13
203	0xaf725fbe	-2.2043786e-10
204	0x0000509a	2.8914e-41
205	0xb897de58	-7.241656e-05
206	0xb829f7bd	-4.0523464e-05
207	0xb31d05b6	-3.6559605e-08
208	0xb5d1ff16	-1.5645953e-06
209	0xba19c124	-0.0005865267
210	0xb5901424	-1.0734698e-06
211	0x38d6650d	0.00010223137
212	0x2eb8b59e	8.399613e-11
213	0xb90e9f03	-0.00013601412
214	0xba58826a	-0.00082591793
215	0xb92da865	-0.00016561298
216	0xba1370a2	-0.00056243886
217	0x000060df	3.4751e-41
218	0xb9c90733	-0.0003834307
219	0xa922f475	-3.618326e-14
220	0xba295da3	-0.00064607913
221	0xba6b3679	-0.00089726556
222	0xb85dae3f	-5.2852785e-05
223	0xb2536ba1	-1.2306288e-08
224	0x00001ccf	1.0335e-41
225	0xb9d7cdea	-0.00041161414
226	0xb900bc4c	-0.00012277177
227	0xb7ad99d1	-2.0694833e-05
228	0x37fb6fb4	2.9973547e-05
229	0x38a3e58f	7.815204e-05
230	0xb8a09d09	-7.6586446e-05
231	0xb9c48bcf	-0.000374882
232	0xb839ad60	-4.4268905e-05
233	0x391306cd	0.00014021546
234	0xb1c9c1b1	-5.87189e-09
235	0x378e6395	1.697409e-05
236	0xb4c9186f	-3.7456945e-07
237	0x38d2317e	0.00010022799
238	0x3899460e	7.308657e-05
239	0x364a72c5	3.016715e-06
240	0xb492bf33	-2.7333735e-07
241	0xb7b25790	-2.1260028e-05
242	0xb9c863e4	-0.00038221397
243	0xb69db558	-4.700076e-06
244	0xb7d4ac0c	-2.5352485e-05
245	0xb9314053	-0.00016903998
246	0x37af3aef	2.0889069e-05
247	0xb63234c0	-2.6554771e-06
248	0xb79dd4d4	-1.8814964e-05
249	0xb96a714a	-0.00022358182
250	0xb763e639	-1.3583857e-05
251	0xb4592500	-2.022316e-07
252	0x3321e711	3.7695887e-08
253	0x37e590a6	2.7366284e-05
254	0x397dcfb8	0.00024205341
255	0xb744c4cf	-1.1728333e-05

6.bias f4 [256]
0	0xbb80699e	-0.0039188405
1	0xbad48b7d	-0.0016215887
2	0xbd4737b3	-0.048637103
3	0x9afa416d	-1.0350328e-22
4	0xbb0e7faf	-0.0021743586
5	0x3d57ca07	0.052682903
6	0x3c7cda9c	0.01543298
7	0xbaedbb9b	-0.0018137576
8	0x3c2c70fa	0.010524983
9	0xb5d6e485	-1.601075e-06
10	0xb48bd559	-2.6045998e-07
11	0xaf4fccdb	-1.889932e-10
12	0xb9de1d0f	-0.0004236479
13	0xa8a75c84	-1.8580847e-14
14	0x9c4ec2d0	-6.841147e-22
15	0xb9c66db2	-0.00037847232
16	0xbd607bd6	-0.0548056
17	0xbd46f35b	-0.048571926
18	0xbaf57955	-0.0018728176
19	0x9f13da3a	-3.1308974e-20
20	0xb646d695	-2.9629202e-06
21	0xba30b79b	-0.00067412265
22	0xb9ea0925	-0.0004463877
23	0xbb3dc536	-0.0028956658
24	0x3adf3fda	0.0017032579
25	0xb9358169	-0.00017309714
26	0xb9e25857	-0.00043171897
27	0x8be96b9c	-8.991025e-32
28	0xb9387614	-0.00017591595
29	0xba1bdd37	-0.00059457443
30	0x39d5089c	0.0004063294
31	0xbb26e6b5	-0.0025467102
32	0xbb6929f1	-0.0035577978
33	0xbb077dae	-0.0020674276
34	0xba360871	-0.0006944007
35	0xbcd309eb	-0.025761565
36	0xbbd0fc77	-0.0063777524
37	0xbb6e0fc3	-0.0036325313
38	0xbb57a45c	-0.0032904362
39	0xbb1d616e	-0.0024014371
40	0xbb74c8e6	-0.003735119
41	0xb9bc0792	-0.00035863795
42	0xba7b8c1c	-0.0009595768
43	0xbcf3e61d	-0.029772813
44	0xbacbc391	-0.0015545954
45	0xb1b6781f	-5.3105533e-09
46	0xb7b7395e	-2.1842014e-05
47	0xa3c13d55	-2.0951077e-17
48	0xbc4c638d	-0.012474907
49	0xbb05358d	-0.0020326108
50	0xbacadf01	-0.0015477837
51	0x9bd0a08b	-3.4514462e-22
52	0xab7a7ce5	-8.899117e-13
53	0xbabd424a	-0.0014439311
54	0xb9fc22ac	-0.00048091018
55	0xb1dd011b	-6.432072e-09
56	0xba45e087	-0.0007548411
57	0xb99930e9	-0.00029218875
58	0xb9f91ba3	-0.00047513572
59	0xbceebe8e	-0.029143598
60	0xb435a7b4	-1.6917949e-07
61	0xa1cff878	-1.4092635e-18
62	0xb22a339d	-9.907038e-09
63	0xb26762de	-1.34684495e-08
64	0xb205a009	-7.778007e-09
65	0xbb06830e	-0.0020524892
66	0xa35cba6e	-1.1965702e-17
67	0xbba76d12	-0.0051094377
68	0xafd9f9ab	-3.964947e-10
69	0xa96ca4f9	-5.2545618e-14
70	0xbb5fd444	-0.003415362
71	0xbacd8c24	-0.0015682024
72	0xb9036cc3	-0.0001253365
73	0x9040c41b	-3.8016398e-29
74	0xa95775c4	-4.7841735e-14
75	0xba859ce6	-0.0010193854
76	0xb5890b52	-1.021059e-06
77	0xbd2f046d	-0.04272883
78	0xb8f7a7f0	-0.000118091586
79	0xbb223aa3	-0.0024754188
80	0xa20f05ea	-1.9383245e-18
81	0xbaa03ea3	-0.0012225698
82	0xb914866d	-0.00014164457
83	0xb5a9e238	-1.265732e-06
84	0xbdb6c218	-0.08923739
85	0xbb86ed88	-0.0041176714
86	0xbb22334d	-0.0024749816
87	0xbadad6bc	-0.0016696076
88	0xb99cb345	-0.00029888205
89	0xb600f8c7	-1.9218294e-06
90	0xbcb7cb04	-0.022435673
91	0xbb88c433	-0.0041737794
92	0x3ce39059	0.027778791
93	0xbabd2937	-0.0014431839
94	0xb81520e9	-3.555502e-05
95	0xbb4a8cf4	-0.0030906769
96	0xbb5cc6e6	-0.0033687889
97	0xbb01e989	-0.0019823036
98	0xb519ed9a	-5.73427e-07
99	0xbdf820d7	-0.12115639
100	0x3ce895ea	0.028391797
101	0xb8a49119	-7.847156e-05
102	0xa2db910b	-5.951364e-18
103	0x3c7c2b9a	0.015391255
104	0xbd209fd0	-0.03921491
105	0xbb8d9369	-0.004320551
106	0xbd832bb5	-0.06404821
107	0xbb354c73	-0.0027663975
108	0x3c9092e2	0.017648164
109	0xb524e911	-6.1433917e-07
110	0xb7ce57cc	-2.4597997e-05
111	0xbb14464a	-0.0022624903
112	0x8db5a186	-1.1193872e-30
113	0xbb46ec93	-0.0030353412
114	0xbb63d06c	-0.003476168
115	0x3d851305	0.06497768
116	0xb6588f98	-3.227009e-06
117	0x3bb29516	0.0054499013
118	0x9f2cc5c2	-3.6585998e-20
119	0xb9c84882	-0.00038200995
120	0xbab2ff44	-0.0013656397
121	0xba4f0a48	-0.00078979554
122	0xb80b8408	-3.3263146e-05
123	0xbabf1e72	-0.0014581217
124	0xb3a2959f	-7.570929e-08
125	0xbb94e41c	-0.0045437943
126	0x9e736747	-1.288567e-20
127	0xbb362f84	-0.0027799318
128	0xb80ad587	-3.3100627e-05
129	0xbb20a942	-0.0024514948
130	0xb48eb273	-2.65794e-07
131	0xb55a1c86	-8.1252836e-07
132	0xb9b218ea	-0.00033969368
133	0xaad6bded	-3.8145824e-13
134	0xbe49bffc	-0.19702142
135	0xb968e77a	-0.00022211476
136	0xbb8afbcc	-0.0042414423
137	0xbb5f36bd	-0.0034059726
138	0x90f3dfc3	-9.619136e-29
139	0xb5c82723	-1.4912551e-06
140	0xbacfca67	-0.0015853167
141	0xbb360f43	-0.0027780093
142	0x3c22ac3c	0.009928759
143	0x3c4fe28f	0.012688293
144	0xba05b874	-0.0005101033
145	0xb8d44904	-0.00010122548
146	0xb893cf52	-7.048123e-05
147	0xb3cf2c5f	-9.64726e-08
148	0xb96a9969	-0.00022373129
149	0xb41dfa87	-1.4712906e-07
150	0xb9d5ff2c	-0.00040816644
151	0xbb81d2af	-0.003961883
152	0x3c5d5e64	0.013511274
153	0xbb3b4872	-0.0028577116
154	0x3dbacefb	0.0912151
155	0x3d4026e0	0.046912074
156	0x950c56f3	-2.8341366e-26
157	0x9dac5291	-4.5613393e-21
158	0xaa72feca	-2.1582315e-13
159	0x3ca8a79b	0.020587733
160	0xbae97105	-0.0017810172
161	0xb6cd74b5	-6.1230626e-06
162	0xbb56c83f	-0.0032773165
163	0xbd9e7158	-0.07736462
164	0xbb0f03c5	-0.0021822315
165	0xada9bcd9	-1.929694e-11
166	0xb7b9ecb0	-2.2163935e-05
167	0xb62192e3	-2.4076369e-06
168	0x9c092420	-4.537619e-22
169	0xae9f2627	-7.23726e-11
170	0xbd745aec	-0.059657022
171	0xb6adfe2d	-5.1853917e-06
172	0xbbb3d21d	-0.005487694
173	0xba2878f4	-0.0006426715
174	0xbae07d41	-0.0017127172
175	0xbb0c8259	-0.0021439998
176	0xb2b5c6b2	-2.116153e-08
177	0xb01c95a5	-5.6965127e-10
178	0xbd06fd77	-0.032956567
179	0xbd4d91b4	-0.05018778
180	0xb7e940eb	-2.7805994e-05
181	0xb2e2ec42	-2.64173e-08
182	0xb21c1907	-9.086086e-09
183	0xbb52ca87	-0.0032164173
184	0x3c79eb64	0.015253875
185	0xbb481994	-0.0030532824
186	0x3cac1bb9	0.021009313
187	0xb7f23755	-2.8874414e-05
188	0xb509c2bb	-5.131985e-07
189	0xb33aeeb6	-4.3523606e-08
190	0x950c0e7e	-2.8284207e-26
191	0xba8fbf0f	-0.0010966974
192	0x9a7b7ff1	-5.2008934e-23
193	0xb702d3f2	-7.797951e-06
194	0xbb5d08c9	-0.003372716
195	0xba844be3	-0.0010093417
196	0xb81cab0f	-3.735261e-05
197	0xbaca80c1	-0.0015449749
198	0xbc84d980	-0.016216993
199	0xb706240c	-7.995415e-06
200	0x9fa65da5	-7.0458657e-20
201	0xb48a1bdf	-2.5724782e-07
202	0xb9c48949	-0.0003748632
203	0xbb08597e	-0.0020805295
204	0xab45254d	-7.0040225e-13
205	0xbac6acef	-0.0015157739
206	0xb84e9ceb	-4.926037e-05
207	0xbb5e738b	-0.003394338
208	0xb4996734	-2.857356e-07
209	0xbb69b21e	-0.0035659145
210	0xb868d47d	-5.5511005e-05
211	0x3d30b66c	0.04314272
212	0xb93d6dc7	-0.0001806534
213	0xb6122f44	-2.1783208e-06
214	0xba80ae1a	-0.0009817511
215	0x98aec833	-4.5180095e-24
216	0xb772f885	-1.4482187e-05
217	0xb4422062	-1.8079439e-07
218	0xabc55db6	-1.4023702e-12
219	0x3cf6d614	0.030131377
220	0xb61766d5	-2.256061e-06
221	0x9fd17a25	-8.8717014e-20
222	0xb71d5e2e	-9.379857e-06
223	0xa0a2bbf6	-2.756825e-19
224	0xb418a695	-1.4216705e-07
225	0x3bd2fa1d	0.006438507
226	0x8e76223f	-3.033833e-30
227	0x3d4b9fd0	0.049712956
228	0xbcb5c205	-0.022187242
229	0xae210dde	-3.661948e-11
230	0x9088ded2	-5.398585e-29
231	0xb9cd9fd6	-0.00039219734
232	0xa3077cdc	-7.344805e-18
233	0xbc9f5c22	-0.019453112
234	0xb7535fae	-1.2598857e-05
235	0xab054e09	-4.735939e-13
236	0xb93272bd	-0.00017018146
237	0xbcd53129	-0.026024418
238	0xbb107b67	-0.002204621
239	0xb28ac021	-1.6152685e-08
240	0xb98d76a8	-0.00026982022
241	0xbb74cf34	-0.0037354948
242	0x3d09e529	0.03366581
243	0xbb919340	-0.0044426024
244	0xae5d4cbd	-5.031774e-11
245	0xbd56f98e	-0.052484088
246	0x3c7a3f7a	0.015273923
247	0xb462e45c	-2.1130967e-07
248	0xbb21a1c2	-0.0024663066
249	0xb5aee632	-1.3031006e-06
250	0xba2bd163	-0.00065543334
251	0xa5bf466c	-3.3180938e-16
252	0xb848aa16	-4.784212e-05
253	0xb7b22bf6	-2.1239724e-05
254	0xbacd4362	-0.001566034
255	0x3d2078e3	0.039177787

8.weight f4 [128, 256]
0	0x8458f90b	-2.5505033e-36
1	0x0000a9b9	6.0885e-41
2	0x05484502	9.4166295e-36
3	0x00001edf	1.1074e-41
4	0x80009ade	-5.5556e-41
5	0x06ae0c0b	6.546922e-35
6	0xa3eaf9fc	-2.5476203e-17
7	0x0000ac1c	6.1741e-41
8	0x85b0b9ca	-1.6619209e-35
9	0x8000ad0e	-6.208e-41
10	0x80006a0b	-3.8041e-41
11	0x800000b1	-2.48e-43
12	0x80000f79	-5.55e-42
13	0x8000978c	-5.4365e-41
14	0x00005593	3.0698e-41
15	0x800098e2	-5.4844e-41
16	0xa48befd9	-6.068796e-17
17	0xabbf73d9	-1.360352e-12
18	0x8000341b	-1.8692e-41
19	0x0000a995	6.0835e-41
20	0x80002d2b	-1.6203e-41
21	0x80008418	-4.7386e-41
22	0x04f304ea	5.713354e-36
23	0x80009761	-5.4305e-41
24	0x05ab996c	1.6137121e-35
25	0x80007a83	-4.3949e-41
26	0x00000f8b	5.576e-42
27	0x80005147	-2.9157e-41
28	0x00009048	5.1758e-41
29	0x0000a037	5.7474e-41
30	0x0000acae	6.1946e-41
31	0x800004a8	-1.67e-42
32	0x00008c43	5.0316e-41
33	0x8000942f	-5.3158e-41
34	0x00004926	2.6241e-41
35	0x05f6f5a6	2.3223966e-35
36	0x85fa8ecd	-2.3562344e-35
37	0x00000c1a	4.341e-42
38	0x000070eb	4.0507e-41
39	0x00001fd9	1.1425e-41
40	0x0435f7fe	2.139032e-36
41	0x80007d3a	-4.4923e-41
42	0x0000951d	5.3492e-41
43	0x860174ab	-2.4347917e-35
44	0x00009df5	5.6664e-41
45	0x00004e5f	2.8114e-41
46	0x0000aad1	6.1277e-41
47	0x800060ff	-3.4796e-41
48	0x06aa2351	6.3998785e-35
49	0x8401ae88	-1.5244018e-36
50	0x0000aa61	6.112e-41
51	0x8000157c	-7.707e-42
52	0x0000ab3e	6.143e-41
53	0x00001674	8.055e-42
54	0x00002ad1	1.536e-41
55	0x0000a53d	5.9276e-41
56	0x000092f3	5.2715e-41
57	0x00009861	5.4663e-41
58	0x80000b2d	-4.009e-42
59	0x85f9c28a	-2.348731e-35
60	0x00006e28	3.9517e-41
61	0x80004cde	-2.7575e-41
62	0x00008a7f	4.9683e-41
63	0x80008390	-4.7196e-41
64	0x8000aca9	-6.1939e-41
65	0x00009cb9	5.6221e-41
66	0x80007ae7	-4.4089e-41
67	0x859016a8	-1.3550018e-35
68	0x0000977b	5.4341e-41
69	0x0000a088	5.7588e-41
70	0x801b4491	-2.504155e-39
71	0x000092c8	5.2655e-41
72	0x000070cc	4.0464e-41
73	0x00000c26	4.358e-42
74	0x0000a5d2	5.9485e-41
75	0x00000cec	4.635e-42
76	0x800098b2	-5.4777e-41
77	0x85399e31	-8.7277134e-36
78	0x00005378	2.9943e-41
79	0x800083a4	-4.7224e-41
80	0x00008ad1	4.9798e-41
81	0x80002917	-1.474e-41
82	0x000072f1	4.1233e-41
83	0x00000274	8.8e-43
84	0x8689ba1d	-5.180714e-35
85	0x0000810a	4.629e-41
86	0x8000626c	-3.5307e-41
87	0x80003f56	-2.272e-41
88	0x80001517	-7.566e-42
89	0x800066a6	-3.6823e-41
90	0x05db42ed	2.0619246e-35
91	0x000094b6	5.3347e-41
92	0x044e728e	2.4267785e-36
93	0x8000aa52	-6.11e-41
94	0x00002341	1.2647e-41
95	0x81adea87	-6.3886694e-38
96	0x8000125a	-6.583e-42
97	0x000007c3	2.784e-42
98	0x8000aaf1	-6.1322e-41
99	0x061401a3	2.783691e-35
100	0x85bf74f7	-1.800452e-35
101	0x000004d1	1.728e-42
102	0x80008390	-4.7196e-41
103	0x05367352	8.57878e-36
104	0x06da4f37	8.211888e-35
105	0x800012f2	-6.796e-42
106	0x071e9881	1.1931416e-34
107	0x00005845	3.1665e-41
108	0x86a323f5	-6.136662e-35
109	0x80007f94	-4.5766e-41
110	0x80007b11	-4.4148e-41
111	0x0003e019	3.55898e-40
112	0x80003573	-1.9174e-41
113	0x8000ad80	-6.224e-41
114	0x80003e6f	-2.2397e-41
115	0x8537c9f1	-8.6417094e-36
116	0x800034cc	-1.894e-41
117	0x8751aeac	-1.5774744e-34
118	0x00004687	2.53e-41
119	0x87aafec3	-2.5728493e-34
120	0x00001b9d	9.906e-42
121	0x80001dab	-1.0643e-41
122	0x00002c1d	1.5825e-41
123	0x800006f3	-2.493e-42
124	0x80003fe2	-2.2917e-41
125	0x800044ac	-2.4635e-41
126	0x0000a2a8	5.835e-41
127	0x835e792c	-6.5379035e-37
128	0x800024b5	-1.3168e-41
129	0x80000453	-1.551e-42
130	0x800090bf	-5.1925e-41
131	0x80009f38	-5.7117e-41
132	0x00009ec8	5.696e-41
133	0x0000a7cc	6.0194e-41
134	0x04b703ad	4.302647e-36
135	0x00008c73	5.0384e-41
136	0x800008b4	-3.122e-42
137	0x80002f68	-1.7006e-41
138	0x0000ab22	6.1391e-41
139	0x80009162	-5.2154e-41
140	0x80000fcf	-5.671e-42
141	0x00008e08	5.0951e-41
142	0x06c3da01	7.3671175e-35
143	0x061311bd	2.766066e-35
144	0x8541bf54	-9.109958e-36
145	0x0000437a	2.4206e-41
146	0x800004cd	-1.722e-42
147	0x80003558	-1.9136e-41
148	0x0000abc7	6.1622e-41
149	0x80004859	-2.5953e-41
150	0x8000a5d3	-5.9487e-41
151	0x80003785	-1.9917e-41
152	0x066ecb46	4.4912167e-35
153	0x8000173a	-8.332e-42
154	0x8651afc3	-3.943766e-35
155	0x85e289b5	-2.1303523e-35
156	0x80005a07	-3.2296e-41
157	0x00005745	3.1306e-41
158	0x00008322	4.7042e-41
159	0x86813c7c	-4.861328e-35
160	0x80009a55	-5.5364e-41
161	0x0000086c	3.021e-42
162	0x80000dc5	-4.94e-42
163	0xa57aaf47	-2.174343e-16
164	0x00008527	4.7766e-41
165	0x8000068a	-2.346e-42
166	0x80000bb5	-4.2e-42
167	0x80007e5b	-4.5328e-41
168	0x00000966	3.372e-42
169	0x80006a9f	-3.8248e-41
170	0x84918313	-3.420971e-36
171	0x800012c6	-6.735e-42
172	0x0682f439	4.925942e-35
173	0x0000a891	6.047e-41
174	0x0000952c	5.3513e-41
175	0x0000307e	1.7396e-41
176	0x000042e0	2.399e-41
177	0x0000398d	2.0645e-41
178	0xa4be648a	-8.2569685e-17
179	0x86f242a8	-9.1128225e-35
180	0x00000f93	5.587e-42
181	0x80009d08	-5.6332e-41
182	0x00009913	5.4913e-41
183	0x80000786	-2.699e-42
184	0x0713b3e8	1.111192e-34
185	0x05928d95	1.3781783e-35
186	0x0644b849	3.6998894e-35
187	0x80007933	-4.3478e-41
188	0x000097ff	5.4526e-41
189	0x8000582e	-3.1633e-41
190	0x80005128	-2.9113e-41
191	0x8000110d	-6.117e-42
192	0x8000315c	-1.7707e-41
193	0x80009a4d	-5.5353e-41
194	0x83f04360	-1.4121401e-36
195	0x80007a70	-4.3922e-41
196	0x800053fb	-3.0127e-41
197	0x8000130a	-6.83e-42
198	0x84f792dd	-5.8204294e-36
199	0x800076e9	-4.2657e-41
200	0x8000a4ec	-5.9163e-41
201	0x00007dd6	4.5141e-41
202	0x00000ea3	5.25e-42
203	0x0000020b	7.33e-43
204	0x0000399c	2.0666e-41
205	0x00003f8d	2.2798e-41
206	0x8000382a	-2.0148e-41
207	0x0000a791	6.0112e-41
208	0x8000a87a	-6.0438e-41
209	0x800090f5	-5.2001e-41
210	0x00002dd4	1.644e-41
211	0x8660d302	-4.2284742e-35
212	0x070a9c39	1.0427876e-34
213	0x80009aef	-5.558e-41
214	0x83207602	-4.715524e-37
215	0x8000889f	-4.901e-41
216	0x00008d01	5.0583e-41
217	0x00001789	8.443e-42
218	0x000008a5	3.101e-42
219	0x8c00002e	-9.860815e-32
220	0x00005372	2.9935e-41
221	0x8000553d	-3.0578e-41
222	0x0000310a	1.7592e-41
223	0x00008c3a	5.0304e-41
224	0x0000aa0f	6.1006e-41
225	0x06d4c565	8.003558e-35
226	0x8000a1a3	-5.7984e-41
227	0x05bfc5f2	1.8034267e-35
228	0x8672a838	-4.563873e-35
229	0x8000032f	-1.142e-42
230	0x800052e1	-2.9731e-41
231	0x0000232d	1.2619e-41
232	0x80006c8d	-3.894e-41
233	0x86d2678a	-7.914536e-35
234	0x800048fb	-2.618e-41
235	0x800090c3	-5.1931e-41
236	0x00002832	1.442e-41
237	0x85be1c47	-1.7877902e-35
238	0x8000ab42	-6.1436e-41
239	0x8000799d	-4.3627e-41
240	0x800006d3	-2.448e-42
241	0x8000697f	-3.7845e-41
242	0x97baa24c	-1.2060938e-24
243	0x0535ee41	8.5543394e-36
244	0x80004b63	-2.7044e-41
245	0x85d8a2e1	-2.0372375e-35
246	0x85de4db3	-2.0905322e-35
247	0x80001c6f	-1.02e-41
248	0x00009c5c	5.6091e-41
249	0x00007b5b	4.4252e-41
250	0x0000978c	5.4365e-41
251	0x0000726b	4.1045e-41
252	0x0000294c	1.4815e-41
253	0x80008fce	-5.1587e-41
254	0x80009c92	-5.6167e-41
255	0x0620c204	3.0235196e-35
