Models/checkpoint_vel_final_1000_600.pth (torch, 353077 bytes, 16 tensors)

0.weight f4 [32, 9]
000000 24 c0 fb 3d 60 21 ea bd 4b 0e b8 be c6 c6 9f 3e
       0.12292507 -0.11432147 -0.35948405 0.3120634
000010 d0 fd 47 bf 16 4b ae 3e a6 81 43 3c e4 0c 66 3e
       -0.7812166 0.3404166 0.011932766 0.22465855
000020 ef 38 b7 bd 09 c5 16 be 3c e1 b5 3d c2 d6 c6 3d
       -0.08946406 -0.147236 0.08880851 0.097089306
000030 f9 c6 4d be 6c 5c 4c 3f 02 cd 22 be 85 b5 9a bd
       -0.20095433 0.79828525 -0.15898517 -0.07554153
000040 b5 de 08 bb 8b 3c f9 bd 83 3f b0 3e d1 f4 44 3c
       -0.0020884697 -0.12169751 0.34423456 0.012021259
000050 e8 30 1c 3c 80 1b a1 be ca f1 13 bf db 24 91 bd
       0.0095331445 -0.31466293 -0.57790816 -0.07087108
000060 a7 83 2d be e3 37 c2 3c 36 e4 30 3e 6d 94 c3 3d
       -0.16944753 0.02370829 0.17274556 0.09549794
000070 c7 6b a8 be 92 f1 6c 3e 4d 8b aa 3e b9 cc f7 3e
       -0.32894728 0.23139027 0.33309403 0.48398378
000080 17 40 65 3e 12 dc 6d be a5 a3 2e be aa 90 85 bd
       0.2238773 -0.23228481 -0.17054613 -0.06521733
000090 89 71 17 3e 86 77 8e bd e9 f3 49 3e 1a 0f 5f be
       0.14789404 -0.06956391 0.1972195 -0.21783105
0000a0 9c 63 95 3f 05 b8 16 be 26 d6 25 3e eb f4 5d 3b
       1.1671023 -0.14718635 0.16194972 0.0033867906
0000b0 91 26 7b be 70 7e ef 3d 31 8a 3b be 77 bb c3 3d
       -0.2452643 0.11694038 -0.18314435 0.095572405
0000c0 af 87 73 bf d9 39 47 3d a2 7f ce be 67 f3 d8 bd
       -0.9512891 0.048639152 -0.4033175 -0.105933
0000d0 d5 b9 cd 3d 95 ed d8 bd 3e 2c 7f 3e 12 66 03 3c
       0.1004521 -0.1059219 0.24919221 0.008019941
0000e0 d6 93 ac 3e 45 f6 a8 be 95 cb 7f be 55 c0 0c 3e
       0.3370654 -0.3300039 -0.24980004 0.13745244
0000f0 3f cf 84 be 55 65 53 3e 6a b3 94 3e aa 87 bf 3d
       -0.25939366 0.20644124 0.29043132 0.09352048
000100 55 8c 86 be e2 75 b0 be 78 91 57 3e 42 4a e7 bd
       -0.2627894 -0.34464937 0.21051586 -0.112934604
000110 b7 f5 f2 bd 81 0c ba bd 17 2d 9a 3d 60 10 e8 3b
       -0.11863273 -0.09084416 0.075281315 0.00708203
000120 5c 80 0f 3e 80 82 1a 3e 90 57 45 3e ea 68 28 bf
       0.14013809 0.15088844 0.19271684 -0.65785086
000130 29 98 45 bd 9e 3e d1 3d a1 93 92 be 6b 53 5e 3d
       -0.048240814 0.102170214 -0.28628257 0.054278772
000140 70 8d 16 be 85 b2 3b be c2 f7 96 37 e0 2c 14 bf
       -0.14702392 -0.18329819 1.7996765e-05 -0.57880974
000150 c4 e6 af be 7a a0 af 3d d7 5d 4e be da d3 15 3e
       -0.34355748 0.0857553 -0.20152985 0.14631596
000160 39 62 97 bd 40 5b 5d 3d 54 56 fa 3c ae 64 86 be
       -0.07391781 0.0540421 0.030558743 -0.26248688
000170 51 4a f1 bc f7 72 8b 3f 8c 20 44 bf 3e cf 09 be
       -0.029454382 1.089446 -0.7661216 -0.13457963
000180 ca 69 03 3e e5 5f f3 3d 9c d6 0d be 24 10 70 bd
       0.12833324 0.11883525 -0.13851398 -0.058609143
000190 f1 d8 86 3e 9d 57 2f 3d b7 53 c5 3e 9f 5a ad be
       0.26337388 0.042808164 0.38540432 -0.338582
0001a0 8f cf 4f be 22 68 96 be 3c 8d 97 3e 58 44 eb bc
       -0.20294021 -0.29376322 0.2959994 -0.028719112
0001b0 13 15 52 3e c9 1c 22 bd ed 3d 80 bd 6b fb 02 3f
       0.20515852 -0.039578233 -0.062618114 0.51164883
0001c0 f3 f5 aa 3f 45 19 1e be 02 96 05 3d 0e e9 69 3e
       1.3356308 -0.15439327 0.03261376 0.2284281
0001d0 87 67 06 3e 14 58 9e 3d 0d bf 85 be da cc 3d bc
       0.1312543 0.07731643 -0.26122323 -0.011584485
0001e0 98 b9 04 be 7a 68 80 3d 08 3d 89 3e 4c f7 13 be
       -0.12961423 0.06269927 0.26804376 -0.14449805
0001f0 1c d0 39 3e 9c d0 19 be 0f 3f 80 be 6d fd 21 3d
       0.18145794 -0.15020984 -0.2504811 0.039548326
000200 35 9f 5b 3e 64 e1 a7 3e b1 17 6a bf 2f 85 cd 3b
       0.21447451 0.32789147 -0.914424 0.0062719802
000210 2f 77 46 3e ec 13 e7 3d ba 04 06 3e de 34 8b 3e
       0.19381402 0.11283097 0.1308774 0.27188772
000220 de 59 a7 3e 1c b3 95 3e b6 bc 2c be 6d e5 67 bf
       0.3268575 0.29238212 -0.16868863 -0.9058445
000230 a5 96 05 be c7 a7 bb 3c 84 95 50 be b9 94 14 3d
       -0.13045748 0.02290715 -0.20369536 0.036274645
000240 9a 28 97 bd e7 3b 06 be 56 89 3b 3d fa 90 f6 3d
       -0.07380791 -0.13108788 0.04578527 0.12039371
000250 09 fb df 3c 67 68 9b 3f 1a 20 aa bd ef 3e 24 3d
       0.027341383 1.2141236 -0.08306904 0.04009908
000260 b3 ec fd bc 29 aa a4 ba 79 18 c2 be 81 9c 3d be
       -0.030996656 -0.0012562919 -0.37909296 -0.18516733
000270 22 5a 1f bf 89 b5 06 be f9 59 92 3d 6a 2d 8e bd
       -0.62246907 -0.13155188 0.07146067 -0.06942256
000280 6d a1 55 be 10 3c 27 3e 70 b8 30 3e c0 37 0c 3d
       -0.2086236 0.16331506 0.17257857 0.034232855
000290 47 aa d5 be ef 86 e6 3e 6d f5 23 3f c4 d2 8f bd
       -0.41731474 0.4502482 0.64046365 -0.07022622
0002a0 6e bc 54 be a0 43 aa bd 07 d6 04 be 2d 9d 8f 3d
       -0.20775005 -0.0831368 -0.1297227 0.07012401
0002b0 22 6e 59 3e 1f 46 d8 3e cd c3 81 3e cc 81 d7 3d
       0.21233419 0.42240998 0.25344697 0.10522804
0002c0 be 3f 2f 3e 61 36 46 3d 0c be 40 be b4 16 96 3e
       0.1711416 0.048391704 -0.18822497 0.29314196
0002d0 e9 13 87 bd 0c ce 94 bd b5 a5 a0 be 4b 1c d3 bd
       -0.065955944 -0.07265863 -0.31376424 -0.10308131
0002e0 d5 0e 88 bf 9f 97 fb 3d ce 5f 82 be e9 80 ef bd
       -1.0629526 0.12284779 -0.25463718 -0.116945095
0002f0 cc 10 8c bd eb 28 91 be 76 18 99 3c 72 2b 16 be
       -0.06839141 -0.2835153 0.018688422 -0.1466501
000300 16 0e de bd 14 5f 89 3e a1 6b 33 3f 67 10 3f be
       -0.108425304 0.2683035 0.70086104 -0.18658601
000310 74 e4 a7 3d e2 20 25 3e b4 f6 8b 3e 45 ce 94 be
       0.08197871 0.16125825 0.27336657 -0.2906362
000320 a0 59 98 3e 05 6a 36 bf b3 8b 4c be 3c 89 4f bd
       0.29755878 -0.7125552 -0.19975166 -0.050667986
000330 b0 fa e3 3d 6a 45 ac bd 5f f1 f5 bb 12 89 b1 bc
       0.11131799 -0.08411677 -0.0075055803 -0.021671806
000340 78 00 59 3d 6f af bb 3c 0f 55 82 3e b5 db 62 3e
       0.052978963 0.022910802 0.2545552 0.22154124
000350 d0 62 8d be af c8 62 3e be 84 31 3e f0 08 a3 3e
       -0.2761445 0.22146867 0.17335793 0.31842756
000360 fe 80 26 3e 4d 29 94 be d4 2a 90 be bb 83 2d 3f
       0.16260144 -0.2893776 -0.28157675 0.6777913
000370 fa 20 e9 3e a9 44 47 3e 24 2d 4e be d5 28 87 bd
       0.45532972 0.19459786 -0.20134407 -0.06599585
000380 97 fb 8e 3d 56 2c 0e be 31 25 0c be e2 05 93 3d
       0.06981581 -0.138841 -0.13686062 0.071788564
000390 2a c9 d3 3e fb da 6a 3f b5 2c 92 bd bc 22 08 be
       0.41364413 0.9174039 -0.071374334 -0.132945
0003a0 df a6 78 3e b8 a8 7d bd 42 1b d5 bd 37 01 8d bc
       0.24282406 -0.06192848 -0.1040559 -0.017212493
0003b0 05 fd a6 be 77 fb 1c bd f7 a8 f4 3e 0e d6 3d be
       -0.32614914 -0.038325753 0.4778516 -0.18538687
0003c0 28 55 a3 be c0 26 27 3d e6 d6 14 3e 03 ac 82 bc
       -0.31900907 0.04080844 0.14535102 -0.015951162
0003d0 33 bc a0 bc 81 97 03 3e 64 f2 0d bf 88 6e 3b 3e
       -0.01962099 0.12850763 -0.55447984 0.18303883
0003e0 82 e2 35 be c5 2d 96 3e 13 93 8e 3e 8b 28 58 bd
       -0.17762187 0.29331794 0.27846584 -0.05277304
0003f0 2f a0 96 3e d8 ea c8 3e 15 66 0c be d3 7f 5e bf
       0.29419085 0.39241672 -0.13710816 -0.86913794

0.bias f4 [32]
000000 3b 33 2f 3d 32 b2 14 3e 84 1d 2d bd b3 f9 e0 bc
       0.042773467 0.14521101 -0.042264476 -0.027462816
000010 ba 87 59 3e 13 1d 74 3e 7c 50 84 3c ec fc 82 bd
       0.21243182 0.23839216 0.01615166 -0.06395897
000020 2f 1d 81 bb e0 0d 09 3e bf 0e db be 7f c7 6f bd
       -0.0039402465 0.13384199 -0.42784688 -0.058539864
000030 17 d5 69 3e 82 ad 0d bd 06 f3 4a 3c 52 0b 8b bd
       0.22835194 -0.034589298 0.012387043 -0.067892686
000040 14 5b b7 3e 63 e1 c9 3c 24 e2 39 bd f7 f9 07 3f
       0.35811675 0.024643606 -0.04538168 0.5311579
000050 e8 44 8e bd c3 90 f3 3e 68 6b 38 3e 4c 31 5a 3e
       -0.069467366 0.47571382 0.18009722 0.21307868
000060 f4 8e 93 be ed c1 29 be 33 32 87 3e 52 11 2c be
       -0.28820002 -0.16577883 0.26405486 -0.16803482
000070 1b c1 13 3d fa 3d 73 3d 01 1c 62 3b 29 54 45 be
       0.03607283 0.059385277 0.0034501555 -0.19270386

2.weight f4 [64, 32]
000000 3c 7c df 3d b5 6a 49 3e 89 c7 f2 bd c5 8d ee bd
       0.10912368 0.19669612 -0.118544646 -0.11648134
000010 5e 83 1f 3e ab 10 21 be 00 61 d1 bd 7a f8 5a bd
       0.15577456 -0.15729015 -0.102235794 -0.053459622
000020 de f7 0d be f6 cf e7 bd a0 b9 9c bd 1b c5 2f 3e
       -0.13864085 -0.11318962 -0.07652593 0.17165034
000030 c8 85 44 bd 13 2d 7c be e0 6d f0 3c 2f 06 e0 3c
       -0.047979146 -0.2462657 0.029349267 0.027346699
000040 58 d2 45 bc d3 4b a0 bb 92 bc f6 3d 4a 80 73 3d
       -0.012074076 -0.0048918515 0.12047686 0.059448518
000050 85 07 a4 bc c7 8e 2c bd de 61 9a bd 59 6e e8 3d
       -0.020023117 -0.04212835 -0.07538198 0.11349172
000060 f2 0b 7a 3d f0 a0 28 be d5 83 8e 3d c2 c1 65 bd
       0.06104655 -0.16467643 0.06958739 -0.056092985
000070 50 f1 2a be 5c 3c 89 3c fa 50 17 3e 0d ed c6 ba
       -0.16693616 0.016752414 0.14776984 -0.0015176848
000080 3b 98 93 be 4a 0d a1 3b df da 0c 3c 8b 8e 35 3e
       -0.2882708 0.0049149143 0.008597105 0.17730157
000090 38 d4 6a 3e 7b eb 8f 3d 96 27 43 bc dd cc a4 3d
       0.22932518 0.07027336 -0.0119112935 0.08046887
0000a0 47 a3 36 bd 26 03 b2 be 5c 6f 35 3e 3d 2f 24 3d
       -0.044589307 -0.34768027 0.17718261 0.040084112
0000b0 94 e0 00 3e e2 27 3b bd 05 30 60 be 64 d0 92 be
       0.1258567 -0.045692332 -0.21893318 -0.28674614
0000c0 fe 24 ef bd b2 77 e8 bd eb 25 0f be 6c 33 0a 3e
       -0.116769776 -0.11350955 -0.13979308 0.13496178
0000d0 7f 3e 36 bb 1f d5 1d bd 48 d1 e3 3c cd e3 fe 3d
       -0.0027808247 -0.038533326 0.027809754 0.12445793
0000e0 1b 17 14 3c 9c 13 73 3e 8c 25 eb 3d e4 72 3c 3d
       0.009038712 0.23737949 0.11481771 0.046008006
0000f0 ff be 9c 3e 18 34 a5 bd a4 d1 09 3e 25 02 db 3d
       0.30614468 -0.08066577 0.13458878 0.106937684
000100 a9 b6 0f be c7 6c 64 bd 58 24 60 3d 2e c1 a6 3d
       -0.14034523 -0.0557678 0.05472216 0.08142315
000110 c6 82 b2 bd a0 46 a6 bd 9c 1e 7a bc 82 eb 08 3e
       -0.08716349 -0.081189394 -0.015266087 0.13371089
000120 2e 0e 11 bc d6 c5 fa bc 97 bc bf 3e b5 e7 e2 bc
       -0.008853478 -0.030611914 0.3744857 -0.027698377
000130 5a 54 af 3e c6 1a 19 bc e6 cc 7e 3e 3f f6 9c bd
       0.34244043 -0.009344762 0.2488285 -0.07664155
000140 a6 a8 e5 bd 0b e8 2a 3d 0b 5e fa 3d f9 77 9e be
       -0.11213808 0.0417252 0.122249685 -0.30950907
000150 14 f5 eb 3d 55 25 bf 3c 64 39 38 be 47 bb f9 bc
       0.11521354 0.023333231 -0.17990643 -0.030484809
000160 c2 2a 71 3e 66 02 be bd 5a 02 bf 3c 87 74 5d 3e
       0.23551467 -0.09277801 0.023316551 0.21626483
000170 34 79 92 bc 4f e9 9b bd 09 0a 36 3e b5 5e 6e 3e
       -0.01788006 -0.076128595 0.17777266 0.23278315
000180 b2 a0 e4 bd c7 25 16 3e 5a 5a af 3c 22 e1 95 bd
       -0.11163463 0.14662848 0.021405388 -0.07318331
000190 7b 6a 26 be cf f7 7b 3e fc f4 25 3e 99 ff 4d 3d
       -0.16251557 0.2460625 0.16206735 0.050292585
0001a0 d1 d1 1e 3e 21 42 09 3e e4 f6 57 bd e0 69 ee bd
       0.15509726 0.13404132 -0.052725688 -0.11641288
0001b0 bc e4 95 3c 3d e9 a0 3d 7c e1 5d 3d 43 1f 30 be
       0.018297546 0.07856987 0.054170117 -0.17199425
0001c0 36 62 ed bd 11 30 8b 3e e9 69 16 bd b0 11 bc bd
       -0.11590998 0.2718511 -0.036722098 -0.09183061
0001d0 64 53 50 3c 3c e4 6f be 8f b9 11 3e e4 29 61 bc
       0.012715194 -0.23426908 0.14230941 -0.013742898
0001e0 e9 b4 2b be 3e 27 30 3e 3c 5c 89 be 89 dd bd 3c
       -0.1676823 0.1720247 -0.26828182 0.023176925
0001f0 eb 50 66 bd 32 8b 86 3d e8 22 3e be c7 f9 28 be
       -0.056229513 0.06569518 -0.18568003 -0.16501532
000200 17 d1 bb 3d 72 96 0e bd 77 bf 1d 3e 94 ff cd bc
       0.0917074 -0.034811445 0.1540507 -0.025146283
000210 9d fa d8 3c 16 7b 76 be 4b 80 65 3e e0 f5 4b 3d
       0.02648669 -0.24070391 0.22412221 0.04979503
000220 05 f0 89 be db 0b 13 bd 8c 1a c7 3d e1 4d 18 be
       -0.26940933 -0.035899978 0.0972186 -0.14873458
000230 be 28 50 3d 1f 75 10 bd fe ad bf 3d e4 d2 8f bd
       0.050820105 -0.035267945 0.09359358 -0.07022646
000240 48 02 45 3e 5d 1c bf 3d 37 a6 2d be f4 ca 80 bc
       0.19239151 0.09331582 -0.16957937 -0.015721776
000250 3b 30 1c 3e a3 72 36 be 4f e4 3f bc 64 e4 e8 bd
       0.15252773 -0.17817168 -0.011712148 -0.11371687
000260 1c 69 d7 3d 6b 3d 82 3d 7b 10 49 bc bb 63 40 3e
       0.10518095 0.06359371 -0.012271996 0.18788044
000270 d4 0e a9 bd 36 70 bf 3d ed 9c b2 3d 90 ef 90 be
       -0.08254781 0.093475744 0.087213375 -0.28307772
000280 39 a2 03 3d 25 e0 d6 3d 66 d3 d3 3b a8 38 8f 3d
       0.03213713 0.10491971 0.0064644096 0.06993228
000290 e7 bb 3d 3e 1b b9 fd bd dc 0a 90 bd 94 33 f4 bd
       0.1852871 -0.12388822 -0.07033321 -0.119239
0002a0 18 59 9e 3d 03 7b 92 3c f9 41 40 3d 2a 13 ad 3d
       0.07731837 0.017880922 0.046937916 0.08450921
0002b0 6e 60 7d 3c 6a 47 78 bd 91 90 19 3d 6b 78 83 3e
       0.015464885 -0.06061498 0.037491385 0.2567781
0002c0 55 62 1b 3e 3d 6d 37 bc 08 5e 05 be 08 ef df 3d
       0.1517423 -0.011195478 -0.13024151 0.109342635
0002d0 fa cc bc bd b4 52 82 3d c6 37 88 be 6c a4 85 3d
       -0.09218784 0.063634306 -0.26605052 0.065255016
0002e0 00 26 59 be fd 68 2b be 7e df 55 be 2a 2c 0e be
       -0.21205902 -0.16739269 -0.20886037 -0.13884035
0002f0 06 f2 99 3c ab 8a 22 3e 3a ca ff 3c 0b 52 c2 3d
       0.018792164 0.1587321 0.031224359 0.09488305
000300 42 d3 40 3e 46 83 69 bc 6e 4d 72 3e ad e4 e1 bd
       0.18830588 -0.014252489 0.2366235 -0.110299446
000310 39 f0 43 be 2f c9 5c be c6 5f 1f be 84 19 82 3d
       -0.19134606 -0.2156112 -0.15563878 0.06352523
000320 d7 ad bd bd d8 d2 c4 bd ed 54 92 3e cb e1 e0 bd
       -0.09261673 -0.09610528 0.28580418 -0.109805666
000330 3f 30 a8 be fc c0 01 be 54 41 8e 3c 47 96 89 3e
       -0.3284931 -0.12671274 0.017365135 0.26872465
000340 7c 50 0d be 65 97 a2 bd b2 cb 98 3d b7 27 e7 3d
       -0.13800234 -0.079390325 0.07460727 0.11286872
000350 32 d9 56 3d e9 8e 13 bd 5d ca 54 3d e7 37 c6 bd
       0.052453227 -0.03602496 0.0519508 -0.09678631
000360 87 c8 05 3e 84 b8 1f bb 94 38 0b be 74 70 d7 bc
       0.13064776 -0.0024371454 -0.13595802 -0.026298739
000370 ef 96 19 be 55 c8 c5 bc a4 c4 23 3c 16 67 95 bd
       -0.14998983 -0.024143377 0.009995613 -0.07295053
000380 e5 36 f9 3c 68 04 c1 bd 54 49 42 bd 12 63 3f 3e
       0.030421684 -0.094246686 -0.047433212 0.18690136
000390 c1 5d e8 bd 7e 62 bc bd 95 d4 2a 3e 87 35 b5 bd
       -0.11346007 -0.091984734 0.16682656 -0.088481
0003a0 5c 4f d0 3d 0b 68 9c bc 2e 11 cd bd 04 d4 0b be
       0.101713866 -0.01909258 -0.100130424 -0.13655096
0003b0 f0 6e b1 3e 57 f3 74 3d 7a 6a be bd 02 d8 23 be
       0.3465495 0.05980238 -0.092976525 -0.16000369
0003c0 ae 44 ab 3e 99 10 d5 3b d4 32 4b bd 85 51 0a 3d
       0.33450836 0.0065022227 -0.04960902 0.03376915
0003d0 40 5b 1a bd 67 1f 35 bc 02 cd da bc 06 1c 70 bd
       -0.03768468 -0.01105485 -0.026709083 -0.058620475
0003e0 2c a3 ca 3d f7 8f e9 bd 23 b8 96 3d 3e f6 1e bd
       0.09894404 -0.11404412 0.0735934 -0.038809054
0003f0 ab b1 14 3d 39 68 75 3b 08 52 8d bd 18 0f 32 bd
       0.03630225 0.0037446155 -0.06900412 -0.043471426

2.bias f4 [64]
000000 9b 5b 5f 3e a6 2f 2e be 64 9c ae be 0f 31 ae 3d
       0.21812288 -0.17010364 -0.34103692 0.08505451
000010 bc 98 27 3e 55 34 3a bc d1 86 76 be 6a 2d f5 3c
       0.16366857 -0.011365016 -0.24074866 0.029928882
000020 1f d9 d8 bd 30 d7 ee 3d 5e ba c2 3d d9 80 6d 3d
       -0.105882876 0.116621375 0.09508203 0.057984207
000030 8f 01 f0 bd 22 74 25 be a3 83 41 be a7 b3 83 be
       -0.11719047 -0.16157582 -0.18897872 -0.25723
000040 8a d1 bf 3e f4 14 a5 be ec 9f 56 3d e7 88 79 be
       0.37464553 -0.32242548 0.052398607 -0.2436863
000050 a2 22 6f 3e 6b c7 c7 3c 06 ba 99 3d c4 9a c9 bd
       0.23353055 0.024387082 0.07506184 -0.09843972
000060 e6 17 f7 bd 84 70 0d be 3c 59 8c 3d fb 54 28 bd
       -0.12065105 -0.13812453 0.068529576 -0.04109667
000070 71 79 ac 3d 0e b5 aa bd b3 00 8d be a8 66 a1 ba
       0.084216006 -0.08335315 -0.27539596 -0.0012313919
000080 0d d1 e7 bd f2 e3 22 3e e5 3d 30 3e 5b 7a 0d 3e
       -0.1131917 0.15907267 0.17211111 0.13816206
000090 c4 d2 11 3d 80 72 66 be 0b ce 1b bd af 8a 8b bd
       0.035601392 -0.22504616 -0.038038295 -0.06813561
0000a0 7e 61 83 bc cb 55 4e be ad f6 1b 3e ea 25 f7 3d
       -0.016037699 -0.20149915 0.15230818 0.120677784
0000b0 66 ba 24 be 0e 1e 04 3e 21 3e e7 3d f4 79 c7 3c
       -0.1608673 0.1290209 0.11291147 0.024350144
0000c0 cf 3d 57 bd fd 7e a5 3d 1d 71 84 bc 52 51 77 3e
       -0.05254918 0.08080862 -0.016167218 0.24152115
0000d0 4d f6 52 3e 4a ee 4b 3e fa 67 02 be 1b 9b 99 3e
       0.20601769 0.19915119 -0.12734976 0.3000115
0000e0 fe aa 46 3d e6 d7 b2 3c 14 c4 a3 bc 9a 04 7f bc
       0.048502915 0.021831464 -0.019990958 -0.015565062
0000f0 d6 eb a1 bd 8f e9 0b 3e 76 33 41 be c3 a6 ec bd
       -0.0790631 0.13663314 -0.18867287 -0.11555245

4.weight f4 [128, 64]
000000 f2 c1 20 3e 72 6b 1c be 2f a1 38 bd ee cf c7 3b
       0.15698984 -0.15275362 -0.04507559 0.006097785
000010 2c d8 e5 3b 28 cc d9 3d 32 59 a9 3d 5e 99 3c bd
       0.007014295 0.10634643 0.08268966 -0.0460447
000020 88 7a 0b bd 20 fb 15 be 5e 19 57 3d 47 bc c3 3b
       -0.0340524 -0.14646578 0.052514426 0.005973372
000030 51 2a ee bd b7 9c 8a bc b4 7d 1f bd 13 33 97 bd
       -0.11629165 -0.01692043 -0.03893824 -0.073827885
000040 c7 bb 25 3d e1 54 20 be 06 30 cd bc 3d 00 25 bd
       0.04046228 -0.15657379 -0.025047313 -0.04028343
000050 04 54 a7 3d b6 c0 a8 3d 1f 0c 07 3c 38 65 5c 3d
       0.081703216 0.08239882 0.008242636 0.053807467
000060 90 f4 6e 3d 66 04 f3 bc 37 6a 80 bd 92 18 53 3d
       0.0583387 -0.029665183 -0.06270259 0.051537104
000070 8b d0 34 bd 26 fc da 3a e8 8c ed 3d b9 e6 47 bd
       -0.044144195 0.0016707226 0.11599141 -0.04880402
000080 96 ef b0 3d c2 fd 36 3d 0f b5 43 be ae a2 47 bd
       0.086394474 0.044675596 -0.19112037 -0.048739128
000090 c1 0e 31 ba 65 89 94 3b 0a 72 01 3e c9 68 0a 3d
       -0.00067542127 0.0045329803 0.12641159 0.033791337
0000a0 32 55 df 3d a4 19 37 be c1 d9 95 3d 6d b4 be bd
       0.109049216 -0.17880875 0.07316924 -0.09311757
0000b0 09 bf 42 bd 44 92 a8 bd 5e f1 4e bd 54 18 35 ba
       -0.047545467 -0.08231023 -0.050523154 -0.0006908227
0000c0 eb 59 0a 3e ba 0f 08 3e cb e0 31 bd a1 28 d4 3c
       0.13510863 0.13287249 -0.04342727 0.02589828
0000d0 cf b1 f1 bd 3b b1 9d 3c b0 17 99 bd 2e b8 94 bd
       -0.118014924 0.01924955 -0.07475221 -0.07261692
0000e0 e2 07 c9 3d 55 81 fa 3d f4 94 91 3c 2b 41 46 3d
       0.09815957 0.122316994 0.017771222 0.048401993
0000f0 76 54 15 3e 6e b2 91 bd cc dc 24 be 4c a7 a4 3d
       0.14583 -0.07114111 -0.16099852 0.08039722
000100 91 03 f1 b4 d0 ef 67 b6 1f 3e 99 b8 ac 2b 17 b2
       -4.4892343e-07 -3.4561272e-06 -7.3071795e-05 -8.799287e-09
000110 74 57 83 b5 ee 0a c9 a3 77 3f a6 a4 13 93 8f 36
       -9.785713e-07 -2.1797093e-17 -7.209854e-17 4.278854e-06
000120 06 e3 b2 b2 f4 0f 9a 35 55 b0 93 b1 81 3a 41 b5
       -2.0825166e-08 1.1478537e-06 -4.2983097e-09 -7.1983237e-07
000130 ee e5 8e 33 4d 14 1a b9 73 ee 3a b5 f1 c8 c7 b6
       6.654214e-08 -0.00014694147 -6.963739e-07 -5.954055e-06
000140 a3 d2 96 34 51 82 00 b2 c2 29 03 b5 a0 df 52 b6
       2.8092936e-07 -7.480211e-09 -4.886207e-07 -3.1422605e-06
000150 44 52 56 b1 0f fa 80 a1 c9 55 46 b1 f5 68 fb b1
       -3.1187861e-09 -8.739807e-19 -2.8861555e-09 -7.3169937e-09
000160 16 f1 d3 b3 32 1e f9 b0 78 bb b7 b7 16 ae 30 b6
       -9.8693064e-08 -1.8125716e-09 -2.1902597e-05 -2.6327375e-06
000170 72 19 cb b5 37 6d f7 34 f3 62 dc 34 a6 fa 22 33
       -1.5132084e-06 4.60868e-07 4.1050188e-07 3.7946528e-08
000180 d6 67 b0 b7 43 33 d3 ae 1a 4f 04 30 56 65 c7 b4
       -2.1029187e-05 -9.604275e-11 4.813373e-10 -3.714037e-07
000190 c4 40 0a ad c5 9a 14 b6 0d 0d 00 00 38 98 8c b2
       -7.858773e-12 -2.2143806e-06 4.682e-42 -1.6367366e-08
0001a0 eb c0 f6 af dd 1c a3 b5 27 4c 8e b2 0c 2a 91 b5
       -4.4884216e-10 -1.2152847e-06 -1.6565606e-08 -1.0815579e-06
0001b0 c4 88 b9 b5 dc 9c 2d b9 66 25 f3 b6 3e c3 f6 35
       -1.3823378e-06 -0.00016557 -7.246318e-06 1.8385251e-06
0001c0 bc 05 00 80 bb 5f 26 35 d5 42 ff 2e a5 26 e0 31
       -2.057e-42 6.1979125e-07 1.1607929e-10 6.5236514e-09
0001d0 31 00 7e 37 63 24 53 02 0a c8 ab 37 5c 86 f4 b5
       1.5139624e-05 1.5512274e-37 2.0477939e-05 -1.821852e-06
0001e0 4d 30 c5 b6 33 5d 7d a4 a4 c8 f6 b1 94 57 9a b2
       -5.8766805e-06 -5.4939573e-17 -7.1823525e-09 -1.7967785e-08
0001f0 d6 3f 7f b7 92 39 af a5 c0 3b c4 b6 45 fc c2 b4
       -1.5214047e-05 -3.0396672e-16 -5.848211e-06 -3.6318866e-07
000200 80 b1 fd 3c 68 86 37 3d 80 68 b8 bd fc 26 f4 bc
       0.030968428 0.044805914 -0.09004307 -0.029803745
000210 f6 c6 cc bc b2 59 53 ba 22 de 6c bc 96 8a 89 3d
       -0.024997216 -0.0008062377 -0.014457257 0.06715886
000220 eb fa e5 bc 54 26 08 3d bf b1 1b 3d a7 72 3d 3d
       -0.028073749 0.033239678 0.03801131 0.04625192
000230 2a 11 bb bd ff a5 ab 3c 7b 22 f6 bd 1f 9f 2d bd
       -0.09134133 0.020953177 -0.120182954 -0.042388078
000240 58 79 c1 3d 95 40 67 3c c4 79 f2 bd 21 4f c8 bc
       0.094469726 0.014114519 -0.11839631 -0.024451794
000250 08 4d a9 3a 3e 90 84 bc 37 54 6b 3d d8 d9 93 bd
       0.0012916634 -0.016182061 0.05745336 -0.07219285
000260 ec be 13 bd 2a 6e b7 bb 4d 2e 6d bd 00 39 66 bd
       -0.03607075 -0.0055978494 -0.057905484 -0.056206703
000270 11 80 3a bd 58 f8 e2 3c 72 fb e6 bd 0a be ad bd
       -0.04553229 0.02770631 -0.11278428 -0.08483513
000280 d0 58 39 3c 40 9d 19 3c 9a 6d 0a be 73 e9 16 3c
       0.011312678 0.00937587 -0.13518372 0.009210932
000290 56 ba 69 bd 82 88 2e 3d bf f9 e1 3b c5 bb 43 bd
       -0.05706247 0.042610653 0.006896227 -0.047786493
0002a0 5c df 6b bd 1e 79 37 bd 28 0e 2d bd 41 98 06 be
       -0.05758606 -0.04479324 -0.04224983 -0.13144018
0002b0 e5 c0 e7 3d eb 28 74 3d 16 e2 cc 3d bd 8b ac bd
       0.113160886 0.059609335 0.1000406 -0.084250905
0002c0 16 12 76 bd 1a 94 14 be d5 fd c8 3c 30 b6 0b 3e
       -0.06007584 -0.14509621 0.024535099 0.13643718
0002d0 a0 ce 6d 3c b0 44 3b 3e 7c cf 38 be 5a 1b 86 bd
       0.014514595 0.18287921 -0.18047899 -0.06548186
0002e0 f9 ec c7 bd 6a 28 c9 bd ea d6 22 3d 33 b4 12 be
       -0.09761996 -0.098221615 0.03975574 -0.14326553
0002f0 65 96 80 3d ea cd 06 bd bd d7 c0 3d 04 1f 13 bd
       0.062786855 -0.03291122 0.09416149 -0.03591825
000300 c2 b4 1c bc 09 4a d0 bc b9 70 94 3c 2c be 03 3e
       -0.00956458 -0.025425928 0.018120157 0.12865514
000310 75 91 ad 3d cb a6 ab 3c 59 a3 56 3c 61 e8 f3 bc
       0.08475009 0.020953557 0.013100469 -0.029773893
000320 31 5a 8d bd de 7d 3d be 46 1a 4d 3e 00 d2 b2 bd
       -0.06901968 -0.18505046 0.20029554 -0.087314606
000330 49 cd dd bc 0c 65 9c be 71 37 f8 bc 30 2c 69 bd
       -0.027075427 -0.30545843 -0.030299874 -0.056926906
000340 10 a7 b3 bd b4 fe 7b 3c 2c dd 50 3c 66 74 f4 3c
       -0.08772099 0.01538055 0.012748044 0.02984066
000350 95 3e 4e 3d 5d 8f aa bb 89 13 8c bd a9 32 1d 3d
       0.05035265 -0.0052050785 -0.068396635 0.03837839
000360 9c 5d ad 3c a5 17 5b 3d 0c d0 c4 3d 74 9c d8 bd
       0.0211628 0.053489346 0.09609994 -0.10576716
000370 1d 0e cf 3d 8c d3 8f 3d 46 5c df bc 18 ac 0a bd
       0.10110114 0.07022771 -0.02726568 -0.033855528
000380 e1 1a 1a be 3b e3 65 bd a5 01 37 3d 81 66 33 3e
       -0.15049316 -0.056124907 0.044679303 0.17519571
000390 23 d6 dc 3d d3 ea e8 3d 97 e6 c2 3c 0d d9 a8 3d
       0.10783031 0.11372914 0.023791594 0.08244524
0003a0 7f 9e 31 bc e1 55 34 3d 6a 6b 87 3c 13 ea 29 3e
       -0.010841011 0.044027213 0.016530711 0.16593198
0003b0 d9 1b d1 bc ea bd e1 bd 89 f2 6b bd 11 f2 39 be
       -0.025525974 -0.11022551 -0.057604346 -0.18158747
0003c0 3e d0 31 3d e3 0e 4f bc eb 3e cb 3c 9f fe 15 3d
       0.043411486 -0.012637827 0.024810275 0.03661978
0003d0 fb 17 19 3e 61 73 f5 bb cc e5 1c 3d 0f de b3 bd
       0.14950554 -0.007490561 0.03830509 -0.08782589
0003e0 fe c3 c6 3c ba 5d 80 bd 13 bb bd bd 8c af b1 3d
       0.024263378 -0.06267877 -0.09264197 0.08676061
0003f0 02 05 71 bc 82 60 1b bd 0e 4d 06 be df 89 48 3c
       -0.014710667 -0.037933834 -0.13115332 0.012239902

4.bias f4 [128]
000000 19 41 c8 3c d5 2a 62 b9 72 e5 26 3e 5f 9e 5b 3d
       0.024445103 -0.00021568996 0.16298464 0.05361783
000010 74 14 89 3d 84 22 2a be bf 8c 8e 3d 58 ee ba bd
       0.06693354 -0.16614729 0.06960439 -0.09127492
000020 1e d5 58 bd 81 fe 41 bd b9 9a a7 3c aa 81 a2 3d
       -0.05293762 -0.047361854 0.02045952 0.07934888
000030 c1 48 0c be cd 6a b8 3d 3d d3 4b 3d a4 6c 31 ab
       -0.13699628 0.09004746 0.049762 -6.30338e-13
000040 62 1b de 3c a7 18 55 3d 44 f2 24 3d cd 01 dd bd
       0.027112667 0.052025463 0.040270105 -0.10791359
000050 99 a8 9c 3c f6 f4 1d bc 57 33 2d be fd 3b 97 bc
       0.019123362 -0.009640923 -0.16914116 -0.018461222
000060 1f ff e3 bd 17 15 e4 3c 85 0c 0b 3d 47 54 67 bc
       -0.11132645 0.027842088 0.033947486 -0.014119214
000070 64 3d 4c 3d e8 d5 8c 3c 04 57 cb 3d ff 1e 0f bd
       0.049863234 0.017191842 0.09928706 -0.03494167
000080 3a dc 02 3e 08 b9 e8 bd 92 6e 18 bd b0 3a 89 bd
       0.12779322 -0.11363417 -0.037214823 -0.06700647
000090 db 6a 91 3d 8e f8 b9 bd 42 91 0f bd 32 70 bd bc
       0.07100459 -0.09080611 -0.035050638 -0.023124788
0000a0 e0 cf f0 bc c7 57 89 3d 07 7f 8d 3d bf 9c 5e bd
       -0.029395998 0.06706195 0.06908994 -0.054348703
0000b0 5e 75 88 3e d3 81 9e 3c 4d 1b 64 bd d4 13 d9 39
       0.26652044 0.019349014 -0.0556901 0.00041404238
0000c0 e3 10 70 3d d1 61 95 bd fa b0 d1 3c ca 3f 80 3d
       0.058609854 -0.072940476 0.025597084 0.06262167
0000d0 1a cf bf 3d 99 e1 bf 3d 95 f7 9c 3d 3b 14 09 3c
       0.09365673 0.09369201 0.0766441 0.00836664
0000e0 2b f6 71 bd 39 1e cf 3b ae d9 e8 3d fa b4 ae bc
       -0.059072655 0.0063207415 0.11369644 -0.02132653
0000f0 18 e4 5b bd 05 3f a0 bd 87 62 c3 bb 83 b8 00 be
       -0.053684324 -0.0782452 -0.005962673 -0.12570386
000100 5b ac 12 bc 0c 92 d8 ba 7d b7 be 3c 6f cd b6 bd
       -0.008952226 -0.0016523018 0.023280853 -0.08925902
000110 58 08 22 3d 25 90 a3 3d 09 d3 34 3b 11 5b 8f 3c
       0.03955874 0.07986478 0.0027591607 0.017499479
000120 d2 f0 40 b9 14 76 a6 bd 51 15 20 bc ac 04 47 3d
       -0.0001840026 -0.0812799 -0.009770707 0.04858844
000130 af 13 7a bb 5a 50 8c 3d 82 27 12 be 23 53 3a bd
       -0.0038158705 0.06851263 -0.14272884 -0.04548944
000140 9b 90 a0 3d d1 e9 f2 3d 1e 98 90 bd e6 02 fe 3c
       0.07840081 0.11861003 -0.07060264 0.031007241
000150 4a e5 61 bd 16 3c 02 3d ce 26 70 bd 5e d5 51 3e
       -0.055150308 0.031795584 -0.058630757 0.2049155
000160 c8 00 18 3e d8 9d 36 a7 34 e9 c6 3c 2f d1 df bc
       0.14844048 -2.5343141e-15 0.024281122 -0.027321426
000170 46 c8 1d 3e 64 cb 48 3e 65 28 18 3c 58 ce fe bc
       0.1540843 0.19608837 0.009286975 -0.031104252
000180 3a ca 1b ba c6 3f 37 be f2 dd 47 3d 7a de 8b 3d
       -0.0005942915 -0.17895421 0.048795648 0.068295434
000190 1d fb 86 3d 0c 1d 4e 3c ce 1c 9b 3d 76 35 16 3e
       0.06590865 0.0125801675 0.075738534 0.14668831
0001a0 92 ff d0 bd e8 fb d1 3d 54 9e 5e bc 2b f6 44 bd
       -0.10204996 0.102531254 -0.013587553 -0.048086327
0001b0 e7 a6 0c 3d 6f fa 45 3d 2d 6f 4b bd 65 56 0f 3d
       0.034338858 0.048334535 -0.049666572 0.0349945
0001c0 e5 8f d3 bc 16 54 c3 3c d9 65 87 bc 0f df f3 bc
       -0.02582545 0.023843806 -0.016528057 -0.029769449
0001d0 c3 31 6b 3d d5 f0 c7 3d 9e f0 73 bb 92 99 37 3d
       0.057420503 0.09762732 -0.0037222276 0.04482419
0001e0 31 d6 b7 3d 35 8d 8c 3c a4 50 a2 3d 1b 37 4c bd
       0.08976401 0.017157177 0.07925537 -0.04985724
0001f0 32 80 84 3d be 73 9e 3d 9b f1 29 3d b0 7b 0b be
       0.06469764 0.0773692 0.04149018 -0.13621402

6.weight f4 [256, 128]
000000 cb 16 00 80 57 1d 00 80 10 02 00 80 4c 06 00 00
       -8.177e-42 -1.0525e-41 -7.4e-43 2.259e-42
000010 24 0f 00 80 6a 15 00 00 47 03 00 80 1f 09 00 80
       -5.431e-42 7.682e-42 -1.176e-42 -3.272e-42
000020 51 0a 00 80 6f 19 00 00 e1 12 00 00 5c 11 00 00
       -3.701e-42 9.124e-42 6.772e-42 6.227e-42
000030 ba 00 00 00 94 10 00 80 6d 14 00 00 02 a8 00 00
       2.6e-43 -5.947e-42 7.327e-42 6.027e-41
000040 a9 1a 00 80 e5 16 00 80 76 05 00 80 09 0a 00 00
       -9.564e-42 -8.213e-42 -1.959e-42 3.6e-42
000050 7b 05 00 80 fe 00 00 80 fb 08 00 00 4f 17 00 80
       -1.966e-42 -3.56e-43 3.222e-42 -8.362e-42
000060 8d 0d 00 80 1e 0f 00 00 8a 15 00 00 02 1a 00 80
       -4.861e-42 5.423e-42 7.727e-42 -9.33e-42
000070 0d 11 00 00 7e 12 00 80 53 11 00 00 8f 00 00 00
       6.117e-42 -6.634e-42 6.215e-42 2e-43
000080 48 06 00 00 08 1f 00 80 b2 06 00 00 4c 12 00 00
       2.253e-42 -1.1132e-41 2.402e-42 6.564e-42
000090 39 10 00 80 7e 0b 00 00 5d 1e 00 80 d0 14 00 80
       -5.82e-42 4.123e-42 -1.0892e-41 -7.466e-42
0000a0 92 06 00 00 c3 08 00 80 ed 12 00 80 61 10 00 80
       2.357e-42 -3.143e-42 -6.789e-42 -5.876e-42
0000b0 8a 19 00 80 38 18 00 80 47 18 00 80 a1 10 00 00
       -9.162e-42 -8.688e-42 -8.709e-42 5.965e-42
0000c0 5b 15 00 00 83 0a 00 80 3e 06 00 80 01 01 00 00
       7.661e-42 -3.771e-42 -2.239e-42 3.6e-43
0000d0 58 0a 00 00 43 10 00 00 73 0d 00 00 56 11 00 00
       3.71e-42 5.834e-42 4.825e-42 6.219e-42
0000e0 ec 16 00 80 fc 10 00 00 07 06 00 00 dd 02 00 00
       -8.223e-42 6.093e-42 2.162e-42 1.027e-42
0000f0 3e 0f 00 00 8a 03 00 80 8c 0a 00 80 fe 01 00 00
       5.468e-42 -1.27e-42 -3.784e-42 7.15e-43
000100 43 05 00 80 45 05 00 80 50 1d 00 80 b0 16 00 80
       -1.888e-42 -1.89e-42 -1.0515e-41 -8.139e-42
000110 6a 12 00 00 30 05 00 00 4b 09 00 00 bf 13 00 00
       6.606e-42 1.861e-42 3.334e-42 7.084e-42
000120 20 3b 00 80 26 07 00 80 71 07 00 80 41 19 00 80
       -2.121e-41 -2.564e-42 -2.67e-42 -9.06e-42
000130 18 08 00 00 49 07 00 80 19 0e 00 00 1a 08 00 00
       2.903e-42 -2.613e-42 5.057e-42 2.906e-42
000140 56 12 00 80 00 0f 00 00 a1 16 00 00 56 1a 00 80
       -6.578e-42 5.381e-42 8.118e-42 -9.448e-42
000150 7c 0d 00 00 83 02 00 00 33 03 00 00 31 09 00 80
       4.837e-42 9.01e-43 1.148e-42 -3.297e-42
000160 82 0b 00 80 24 23 00 00 51 0f 00 80 44 27 00 80
       -4.128e-42 1.2606e-41 -5.494e-42 -1.4086e-41
000170 a4 15 00 80 66 1a 00 80 47 07 00 80 21 12 00 80
       -7.763e-42 -9.47e-42 -2.61e-42 -6.503e-42
000180 75 41 00 00 47 11 00 00 03 0a 00 80 d9 16 00 00
       2.3482e-41 6.198e-42 -3.592e-42 8.196e-42
000190 50 0e 00 00 d1 1a 00 80 46 03 00 80 83 06 00 00
       5.134e-42 -9.62e-42 -1.174e-42 2.336e-42
0001a0 6d 08 00 00 6f 09 00 80 b9 13 00 00 6f 00 00 00
       3.023e-42 -3.384e-42 7.075e-42 1.56e-43
0001b0 d8 1b 00 80 84 02 00 00 79 0b 00 00 ca 09 00 80
       -9.988e-42 9.02e-43 4.116e-42 -3.512e-42
0001c0 75 05 00 80 11 04 00 00 ab 04 00 00 0e 0d 00 80
       -1.958e-42 1.459e-42 1.675e-42 -4.683e-42
0001d0 85 18 00 00 9f 16 00 00 20 10 00 00 cc 03 00 80
       8.796e-42 8.115e-42 5.785e-42 -1.362e-42
0001e0 1c 12 00 80 80 13 00 80 4b 0c 00 00 f3 18 00 80
       -6.496e-42 -6.995e-42 4.41e-42 -8.95e-42
0001f0 56 02 00 00 f5 12 00 00 96 15 00 80 95 14 00 00
       8.38e-43 6.8e-42 -7.744e-42 7.383e-42
000200 44 20 73 34 76 8a 00 00 d3 55 c1 a8 71 7f 71 b1
       2.2642877e-07 4.967e-41 -2.1464525e-14 -3.5142558e-09
000210 ae 3e 09 37 b2 7e 80 ae 08 9c 8d 33 41 be 38 b4
       8.18043e-06 -5.843272e-11 6.594206e-08 -1.720555e-07
000220 3f 8c 1c 33 b3 c6 15 b0 32 ee 60 b1 59 ee 66 b4
       3.6449133e-08 -5.4488253e-10 -3.2731688e-09 -2.150713e-07
000230 50 f8 04 b5 79 7a 1f b9 2d 3a 92 36 78 aa 00 00
       -4.9535174e-07 -0.00015209046 4.3579116e-06 6.1153e-41
000240 73 2c 16 b4 51 0c d2 a8 9e 74 24 b3 a9 31 7e 33
       -1.3986009e-07 -2.3320025e-14 -3.829029e-08 5.918415e-08
000250 0e 3a 9b b3 d0 7f b3 34 e8 4b 0d b5 da 90 8a af
       -7.22831e-08 3.3434344e-07 -5.263705e-07 -2.5204977e-10
000260 7d 7b ab b4 02 4d 16 a4 cf 1b 16 b7 18 ef 51 31
       -3.1941082e-07 -3.2591293e-17 -8.947171e-06 3.0549412e-09
000270 f2 b1 46 2c 30 1d 9d a8 7c e9 0e b8 ff 9d 8a 32
       2.8236272e-12 -1.744316e-14 -3.4072888e-05 1.6137163e-08
000280 88 35 59 b7 1b 5b 91 02 92 89 c9 a9 6c c3 9c 2e
       -1.2946672e-05 2.1358127e-37 -8.950058e-14 7.1287726e-11
000290 cc f1 21 ac 54 c5 ec b3 6c 78 90 9c bc ee 0a ae
       -2.30137e-12 -1.10255e-07 -9.560249e-22 -3.1589606e-11
0002a0 1c dc 00 b4 3f 2c e6 32 50 a0 5d b7 fb 55 77 35
       -1.2001004e-07 2.6795645e-08 -1.3209952e-05 9.213979e-07
0002b0 80 19 d1 aa 92 cc 55 b1 a0 b1 43 36 c8 2e 8d 33
       -3.7143552e-13 -3.1111864e-09 2.9160656e-06 6.5743336e-08
0002c0 9b 01 10 ad 97 73 c5 b0 bc 39 5f 29 20 25 70 33
       -8.185809e-12 -1.4366489e-09 4.9566023e-14 5.591312e-08
0002d0 5f 6a 81 af 35 7c ce ae 95 b1 8e b0 51 ac 06 b6
       -2.3540545e-10 -9.389859e-11 -1.0382332e-09 -2.0067857e-06
0002e0 8c 35 94 b3 92 1f 60 ab 37 e1 49 b8 90 1b c5 b2
       -6.901527e-08 -7.96246e-13 -4.8131882e-05 -2.2946352e-08
0002f0 bc 7e 5f a8 e7 71 0e 2f 03 8d d5 ab d6 55 69 b9
       -1.2406468e-14 1.2955291e-10 -1.5173699e-12 -0.00022252588
000300 82 a9 9b af 48 55 98 b1 c3 67 1c 2a ad 1e 1c af
       -2.8314778e-10 -4.4334776e-09 1.3891583e-13 -1.4199016e-10
000310 de b5 6a 2c c9 91 2d 20 1b 76 8f aa 2f 19 24 33
       3.3354357e-12 1.4701906e-19 -2.5483855e-13 3.820713e-08
000320 80 4b 00 80 36 56 8b b3 05 a4 b6 a6 d0 43 79 a8
       -2.7084e-41 -6.4883736e-08 -1.2673244e-15 -1.3836981e-14
000330 8c 16 00 00 63 21 01 36 f6 0c e2 35 cb 0a 98 ab
       8.088e-42 1.9241932e-06 1.6842084e-06 -1.0803245e-12
000340 ea 90 00 a2 68 25 b1 b7 4e b1 f1 b3 90 22 c2 b3
       -1.7423952e-18 -2.1117463e-05 -1.12546886e-07 -9.040116e-08
000350 da 11 3e 08 cc 14 21 b4 90 9f 49 30 16 f9 40 b8
       5.719703e-34 -1.500186e-07 7.3350126e-10 -4.6008347e-05
000360 fb 5a 81 b7 dd 3d 00 00 4f 3f 4c 35 49 5a d5 9a
       -1.5420364e-05 2.2192e-41 7.608805e-07 -8.82406e-23
000370 34 18 c5 38 99 bc 3c b4 56 e1 ab af 24 89 97 25
       9.3982e-05 -1.7577476e-07 -3.126483e-10 2.6287255e-16
000380 0d a1 00 80 07 71 7e b8 51 a0 65 b7 f1 fb 09 32
       -5.7774e-41 -6.0663584e-05 -1.368679e-05 8.031734e-09
000390 d8 2a 26 b2 58 b3 30 aa 40 45 5b 37 ae 24 a0 b4
       -9.672213e-09 -1.5694163e-13 1.3069541e-05 -2.982901e-07
0003a0 94 b7 4d 33 23 8d af b1 80 8e ab 32 28 e4 8b 31
       4.7897245e-08 -5.1092157e-09 1.9971822e-08 4.071371e-09
0003b0 a6 1f 0c 2e e5 95 3f b8 3f 14 49 b0 42 2b 1b b2
       3.1860424e-11 -4.567755e-05 -7.3152145e-10 -9.032023e-09
0003c0 dd e0 97 34 ab 87 48 35 58 a8 0f 35 c6 21 87 af
       2.828955e-07 7.470323e-07 5.3516624e-07 -2.4580354e-10
0003d0 b3 0a 46 b4 0c 3f 43 b7 e2 3e 58 90 d0 ce 68 b2
       -1.844408e-07 -1.1637585e-05 -4.2646932e-29 -1.3551201e-08
0003e0 cf b9 3a 2f e1 64 a5 37 88 9a 58 b5 64 db fc a6
       1.6982614e-10 1.9716508e-05 -8.0691143e-07 -1.7545479e-15
0003f0 c0 86 05 ab f2 d6 ba b8 a7 6d 5a b5 d2 92 1c 80
       -4.7438095e-13 -8.909208e-05 -8.1370894e-07 -2.624063e-39

6.bias f4 [256]
000000 d8 e2 16 9c 54 19 0a bb 6e 82 34 bd c3 d7 2a ba
       -4.9924025e-22 -0.0021072226 -0.0440697 -0.00065171364
000010 65 0e 89 ac b5 dd 7c 3d e6 04 37 3c c5 a4 96 b4
       -3.8953723e-12 0.061734874 0.0111706015 -2.8059563e-07
000020 71 a3 f2 3b c2 99 8d b7 be 41 c3 b7 aa 3c 25 ac
       0.0074047376 -1.6880109e-05 -2.3276425e-05 -2.3481586e-12
000030 a0 99 9d 8b ff 0d 84 a8 9d 6c a3 b8 17 3b 88 a3
       -6.070535e-32 -1.4661014e-14 -7.7926765e-05 -1.4770175e-17
000040 ab 75 77 bd 01 9a 65 bd 79 4c 93 bc dc 39 03 b1
       -0.06041495 -0.056055073 -0.017980801 -1.9095898e-09
000050 f8 b1 62 a5 85 d4 ca ba dc b9 56 ae 97 dc 13 ba
       -1.9662673e-16 -0.0015474713 -4.8823043e-11 -0.00056404754
000060 4d 12 ae 3b 9e 90 ed a8 cf 6f 3d bb dd 80 6b a9
       0.00531224 -2.6375003e-14 -0.0028905754 -5.2292253e-14
000070 3c 52 a2 b1 84 ac ff b9 5f 6b 48 b1 dc 82 e8 a1
       -4.7241695e-09 -0.00048765924 -2.9164864e-09 -1.575557e-18
000080 67 ac d2 b8 ba 4b a7 ba 38 c8 5c a5 b0 05 cc bc
       -0.00010045693 -0.0012763657 -1.9149795e-16 -0.024905056
000090 a9 6e 87 3b 1d 6a 62 9d 8a ea b3 ba 49 6e 51 bb
       0.0041330648 -2.996571e-21 -0.0013726514 -0.0031956604
0000a0 f8 02 5f b9 a2 0f ba ba bc cb 2f b7 e9 26 de bc
       -0.00021268043 -0.0014195333 -1.0478248e-05 -0.027118163
0000b0 97 3a 57 bb 8f 9b cf b9 09 6e c6 b9 88 f4 d9 ba
       -0.0032841319 -0.00039598017 -0.00037847486 -0.0016628662
0000c0 36 27 89 bc 7c 6d 12 bb 2b ed 4f ba 4f ca 3e ba
       -0.01674233 -0.002234309 -0.0007931764 -0.0007278071
0000d0 06 b1 b6 b3 78 44 23 91 16 ba 2c 9a 5d c7 20 aa
       -8.507236e-08 -1.2879531e-28 -3.5719085e-23 -1.4280023e-13
0000e0 7a 12 55 ba 41 36 06 b9 0e 74 18 b2 e5 1e 9f bc
       -0.00081280584 -0.00012799447 -8.873952e-09 -0.019423911
0000f0 36 cc 37 bb ad 87 9a ba de 05 b9 a0 d4 fe c3 ba
       -0.0028045303 -0.0011789702 -3.1344102e-19 -0.0014953264
000100 87 dc 2b b5 ac b9 6b 9f cc 1c ab bb 73 b7 1d b9
       -6.4023374e-07 -4.991677e-20 -0.0052219387 -0.00015041027
000110 40 a4 f5 96 11 93 8b b8 af d0 10 bb 17 fa c3 b9
       -3.968554e-25 -6.65543e-05 -0.0022097041 -0.0003737963
000120 e3 7a e0 b7 01 59 95 84 79 83 c2 88 41 2a c9 b8
       -2.6760104e-05 -3.511147e-36 -1.1706859e-33 -9.592297e-05
000130 85 fd 4b a9 37 0e 25 bd f1 f8 cf ba cb ac f2 ba
       -4.5294948e-14 -0.04029676 -0.0015867037 -0.0018514631
000140 5f 58 07 ba cb 2f 19 08 56 f1 13 bb 5e 03 39 bb
       -0.00051630096 4.6097943e-34 -0.0022574267 -0.0028230767
000150 7d ea b4 bd 87 f4 99 3c 3a e7 af a4 c9 fe e9 b7
       -0.088337876 0.018793358 -7.6285865e-17 -2.7894408e-05
000160 d0 10 05 bb f6 a6 9f bb 66 2c 75 bc 10 03 c3 b5
       -0.002030421 -0.004872198 -0.014964199 -1.4529523e-06
000170 53 53 23 3d f8 14 21 bb a2 cb 60 b8 0d 3f f9 ba
       0.039874386 -0.0024579149 -5.359541e-05 -0.0019015983
000180 a0 32 45 b1 e1 24 d3 b5 c4 ec 8f 3b ae fc ea bd
       -2.869605e-09 -1.5731458e-06 0.0043922383 -0.11473976
000190 82 50 ee 3c 99 12 5d ba 9c 3d f7 ba 63 16 3c 3c
       0.029091123 -0.0008433252 -0.0018862966 0.011479947
0001a0 cc d9 39 bd 2d 67 31 bb 74 c7 8f bd 10 30 98 b5
       -0.045373723 -0.0027069554 -0.070204645 -1.133887e-06
0001b0 20 a2 b8 3c 86 19 cc b2 85 34 71 a7 e3 4e 7a bb
       0.022538245 -2.3760332e-08 -3.347394e-15 -0.0038193993
0001c0 af de 07 a9 db 7d 09 b9 02 de 29 bb 36 14 8e 3d
       -3.016917e-14 -0.00013112223 -0.002591968 0.06937449
0001d0 a2 d5 97 b3 7d 34 36 3c 06 6a 8e b7 c4 03 81 3b
       -7.070345e-08 0.011120913 -1.697709e-05 0.0039372165
0001e0 1b 9c b4 ba f4 02 18 99 3d 5c 93 bb 9b 4e 11 96
       -0.0013779433 -7.858812e-24 -0.0044970796 -1.173781e-25
0001f0 53 11 e3 ba 54 a9 1d b5 1e 41 82 b7 79 47 2c b9
       -0.0017323889 -5.873346e-07 -1.552753e-05 -0.00016429824
000200 df 1d 81 bb d0 15 d6 ba f3 dc 2f ba 51 76 1d b1
       -0.0039403285 -0.0016333405 -0.0006708644 -2.2913762e-09
000210 77 27 68 b6 84 4d 7d ba f2 7c 3a be 5a c7 2f bb
       -3.4593666e-06 -0.0009662735 -0.18211725 -0.0026821704
000220 79 e3 0c b9 3c e0 5c bb b2 e0 23 b4 77 be 8a ad
       -0.0001343618 -0.003370299 -1.5262302e-07 -1.5773367e-11
000230 78 a4 3b bb d8 40 a9 b3 7c 8f 60 3c e5 fd 84 3c
       -0.0028631967 -7.881471e-08 0.013706084 0.016234348
000240 c7 86 cf ba fc 32 14 a3 25 4b c9 b8 b5 3c 76 ba
       -0.0015833013 -8.0338924e-18 -9.598424e-05 -0.00093932013
000250 5e 71 3e b7 9e cd 25 b9 e8 0e 72 87 d1 b3 2f bb
       -1.1351278e-05 -0.00015812225 -1.8210437e-34 -0.002681006
000260 f9 48 9a 3c 03 5e 8c a8 9c a9 bc 3d f3 97 38 3d
       0.018833624 -1.5583893e-14 0.09212038 0.045066785
000270 70 5a 75 b9 c2 b5 3d 9f 1b 0d ad b3 4a bb 81 3c
       -0.00023398711 -4.0172653e-20 -8.058324e-08 0.015836377
000280 34 75 ab ba f7 b6 91 99 f8 a1 12 96 03 1c af bd
       -0.0013081194 -1.5066548e-23 -1.1844894e-25 -0.08550265
000290 f0 84 e1 9e 32 9f f1 8f 1f 3d 80 a5 33 6c 33 b2
       -2.3877783e-20 -2.3825755e-29 -2.2245878e-16 -1.0443773e-08
0002a0 dd 73 d3 bb 7b 7d b4 b9 c2 a8 74 bd 23 ae 18 ab
       -0.006453021 -0.00034425766 -0.059731252 -5.424291e-13
0002b0 49 eb 83 b9 eb 86 a8 ba 52 b7 cb ba d4 55 05 94
       -0.00025161568 -0.0012857592 -0.0015542305 -6.731711e-27
0002c0 21 2d e1 a5 bd 24 41 ba fe 33 46 bd c9 36 5a bd
       -3.906186e-16 -0.000736784 -0.048389427 -0.053274903
0002d0 e7 4f 9f b8 fa f1 c1 ad da 2c 3c b4 d0 d3 46 b8
       -7.596594e-05 -2.2049019e-11 -1.7525181e-07 -4.7404144e-05
0002e0 1d 97 92 3c dc 80 f2 ba 77 21 d7 3c b0 46 fc b8
       0.017894322 -0.0018501538 0.026261074 -0.00012029463
0002f0 e1 f1 1f ba 96 03 97 aa db a3 70 b9 1a 39 02 b7
       -0.00061014114 -2.6825477e-13 -0.00022949225 -7.761899e-06
000300 03 8b a8 ba 45 d4 21 92 5a c9 05 3d 72 7e 24 bb
       -0.0012858812 -5.1064285e-28 0.032662727 -0.0025099781
000310 e7 5b 85 8f e8 fa c6 b6 51 fb 8d bc c9 8b f1 ad
       -1.3150212e-29 -5.930069e-06 -0.017331751 -2.7460605e-11
000320 28 9b 37 bb cf a3 dc b8 cf 44 75 8c 9c 6d 44 bb
       -0.0028016064 -0.00010520929 -1.889482e-31 -0.002997256
000330 53 6c 92 9f f7 07 09 bb d2 89 0a 9e 37 d1 c0 b4
       -6.201261e-20 -0.0020909288 -7.33416e-21 -3.591501e-07
000340 3a 0a 3a bb 68 1c 49 bb d0 c2 18 bb 34 15 81 3d
       -0.0028387443 -0.0030687097 -0.0023309477 0.06302872
000350 3d f3 c1 bb 2a ec d3 b7 1b a4 11 bb 31 ee a3 bb
       -0.005918889 -2.5263133e-05 -0.0022223059 -0.00500276
000360 54 f5 4f bb 6f 54 eb b9 e7 e6 03 b2 fe 50 23 3d
       -0.003173192 -0.000448856 -7.677705e-09 0.039872162
000370 1d 31 41 b0 b6 30 18 a9 15 6c 3a ba ac ce ab ba
       -7.0282785e-10 -3.379303e-14 -0.00071114424 -0.0013107858
000380 b0 02 f4 ba b1 d1 e3 ba 79 1d a9 bb f4 4e 5d 3d
       -0.0018616524 -0.0017381218 -0.005160984 0.054030374
000390 27 3d 08 bd 90 e2 79 ba 04 a6 15 b5 68 89 5a ba
       -0.033261444 -0.00095323566 -5.574841e-07 -0.0008336515
0003a0 c4 25 15 ba f3 67 8d bc 5e cb 08 91 0f 67 c7 b2
       -0.00056895264 -0.01726148 -1.0791176e-28 -2.3213515e-08
0003b0 1a f9 9e b8 df 93 b7 bc 1e 50 1b b9 25 98 f1 a4
       -7.580426e-05 -0.022409378 -0.00014811798 -1.0477483e-16
0003c0 f4 5e 00 bb 17 a8 36 bb 6e 70 18 3d 1c 47 cb bb
       -0.0019587846 -0.0027871185 0.037216596 -0.0062035453
0003d0 85 8e 26 bb 8b a7 45 bd 79 1a 8b 3c 11 05 ea b8
       -0.0025414538 -0.048255485 0.016980397 -0.00011158933
0003e0 2b 1e d3 b9 55 4c 35 b8 26 5c af b5 22 38 40 bb
       -0.00040267533 -4.3224853e-05 -1.3065335e-06 -0.0029330333
0003f0 0e b9 ce b5 10 a8 98 ba db 61 51 ba 19 b7 3f 3d
       -1.5402054e-06 -0.0011646766 -0.0007987299 0.046805475

8.weight f4 [128, 256]
000000 69 1a 00 80 bb 7c 00 80 3f ee d7 83 d5 0a 00 00
       -9.474e-42 -4.4745e-41 -1.2691263e-36 3.886e-42
000010 47 00 00 00 0b e1 68 02 77 6a 50 84 7e 08 00 00
       1e-43 1.7109252e-37 -2.4499169e-36 3.046e-42
000020 8f b8 82 04 70 1a 00 80 9d 84 00 80 b4 a3 00 00
       3.0732343e-36 -9.484e-42 -4.7573e-41 5.8726e-41
000030 76 42 00 80 1c a4 00 80 52 9f 00 80 86 4f 00 00
       -2.3842e-41 -5.8871e-41 -5.7153e-41 2.8528e-41
000040 98 2b c2 82 74 27 74 82 c0 b2 00 00 1a 0a 00 00
       -2.853076e-37 -1.7937611e-37 6.4123e-41 3.624e-42
000050 02 91 00 80 6c 82 00 00 76 17 00 80 0d 9b 00 00
       -5.2019e-41 4.6787e-41 -8.416e-42 5.5622e-41
000060 1e 46 8c 02 86 70 00 80 ae 71 00 00 50 95 00 00
       2.0611396e-37 -4.0366e-41 4.078e-41 5.3563e-41
000070 a0 aa 00 80 29 1a 00 00 13 18 00 00 73 0e 00 80
       -6.1209e-41 9.384e-42 8.636e-42 -5.183e-42
000080 73 22 00 00 3d a9 00 00 b2 39 00 80 28 73 dc 83
       1.2358e-41 6.0711e-41 -2.0697e-41 -1.2956876e-36
000090 ed 77 e7 01 9c 8c 00 00 35 56 00 00 e1 a2 00 00
       8.5028084e-38 5.0441e-41 3.0925e-41 5.843e-41
0000a0 40 59 00 80 1f 93 00 80 7b 61 00 00 b4 e3 2d 03
       -3.2017e-41 -5.2777e-41 3.497e-41 5.110152e-37
0000b0 fe 50 00 80 ab 7e 00 00 41 9e 00 80 f3 54 00 80
       -2.9055e-41 4.544e-41 -5.6771e-41 -3.0474e-41
0000c0 82 55 c4 84 a8 6f 00 80 a6 8c 00 00 89 90 00 80
       -4.6157905e-36 -4.0055e-41 5.0455e-41 -5.185e-41
0000d0 32 49 00 80 4f 72 00 80 02 4c 00 00 3f 87 00 80
       -2.6258e-41 -4.1006e-41 2.7266e-41 -4.8517e-41
0000e0 97 39 00 80 79 97 00 00 16 7a 00 00 fd 55 9a 01
       -2.066e-41 5.4338e-41 4.3796e-41 5.669405e-38
0000f0 58 8b 00 00 7b 89 00 00 b3 24 00 00 46 98 00 80
       4.9987e-41 4.9319e-41 1.3165e-41 -5.4625e-41
000100 b0 a8 00 80 91 9b 00 00 dd 93 1d 80 f6 c0 8d 03
       -6.0514e-41 5.5807e-41 -2.716273e-39 8.331537e-37
000110 1d 00 00 00 b4 8c 00 00 a6 4e 00 00 d8 8f 00 80
       4e-44 5.0475e-41 2.8214e-41 -5.1601e-41
000120 62 1c 00 00 b8 25 00 80 2d 42 00 80 2f 97 00 80
       1.0182e-41 -1.3531e-41 -2.374e-41 -5.4234e-41
000130 49 89 00 00 30 99 9d 83 6a a5 00 80 06 03 00 00
       4.9249e-41 -9.262801e-37 -5.934e-41 1.085e-42
000140 5e 46 00 00 1d 2b 00 00 50 46 00 00 e3 59 00 00
       2.5243e-41 1.5466e-41 2.5223e-41 3.2245e-41
000150 db b6 59 04 8e 34 3d 01 c4 58 00 80 b4 44 00 00
       2.559219e-36 3.4751524e-38 -3.1843e-41 2.4646e-41
000160 db 9a 00 80 04 0e 00 80 f6 15 67 04 32 7b 00 00
       -5.5552e-41 -5.028e-42 2.7164003e-36 4.4194e-41
000170 7b 61 94 83 86 9c 00 00 a9 15 00 80 b8 91 00 00
       -8.721039e-37 5.615e-41 -7.77e-42 5.2274e-41
000180 8f 11 00 80 71 28 00 80 f9 7e d7 82 52 28 da 81
       -6.299e-42 -1.4508e-41 -3.166429e-37 -8.013841e-38
000190 8b 77 90 01 35 ab 00 80 20 41 00 80 ca b9 cd 03
       5.306878e-38 -6.1418e-41 -2.3362e-41 1.2091472e-36
0001a0 9c f2 74 82 c4 1d 00 00 15 73 2e 03 b7 24 00 80
       -1.7995914e-37 1.0678e-41 5.126611e-37 -1.3171e-41
0001b0 c0 f1 d6 01 56 00 00 80 d6 3d 00 80 90 53 00 80
       7.895808e-38 -1.2e-43 -2.2183e-41 -2.9977e-41
0001c0 de 2b 00 80 5f 8d 00 80 16 55 00 80 91 53 41 82
       -1.5737e-41 -5.0714e-41 -3.0523e-41 -1.4203383e-37
0001d0 49 70 00 80 ef 41 5b 02 90 62 00 00 be b7 80 04
       -4.028e-41 1.6108501e-37 3.5358e-41 3.0261396e-36
0001e0 0a 77 7f 01 ee 98 00 00 d6 02 00 80 a3 00 00 80
       4.692151e-38 5.4861e-41 -1.017e-42 -2.28e-43
0001f0 a9 03 00 80 c1 7d 00 80 51 32 00 80 9a 92 00 80
       -1.313e-42 -4.5112e-41 -1.805e-41 -5.2591e-41
000200 dc 43 00 80 e2 00 00 80 f7 66 00 80 b5 9e 00 00
       -2.4343e-41 -3.17e-43 -3.6937e-41 5.6933e-41
000210 a0 26 00 80 67 49 00 80 ff 26 4d 81 cd 61 12 00
       -1.3856e-41 -2.6332e-41 -3.7680532e-38 1.688123e-39
000220 a4 28 00 00 0d 82 00 00 25 ac 00 00 7f 6e 00 80
       1.4579e-41 4.6653e-41 6.1754e-41 -3.9639e-41
000230 eb 01 90 01 fa 1e 00 00 7a 44 b4 03 0a 1b 93 04
       5.29e-38 1.1112e-41 1.0595171e-36 3.4584365e-36
000240 49 26 00 80 f5 7b 00 00 09 3b 00 80 ab 22 00 00
       -1.3734e-41 4.4467e-41 -2.1178e-41 1.2437e-41
000250 d7 1e 00 80 f0 8b 00 80 59 01 00 80 31 5d 00 00
       -1.1063e-41 -5.02e-41 -4.83e-43 3.3431e-41
000260 21 40 11 84 48 9e 00 00 63 86 9a 81 09 79 42 02
       -1.7074115e-36 5.678e-41 -5.67635e-38 1.4287604e-37
000270 e1 08 00 00 63 13 00 00 4b 7a 00 00 f0 e5 3b 84
       3.185e-42 6.955e-42 4.387e-41 -2.2087326e-36
000280 51 91 00 00 fb 04 00 80 eb 93 00 00 ca f7 01 81
       5.213e-41 -1.787e-42 5.3063e-41 -2.3871338e-38
000290 19 4a 00 00 75 a3 00 80 99 87 00 80 36 3d 00 80
       2.6581e-41 -5.8637e-41 -4.8643e-41 -2.1958e-41
0002a0 39 04 00 80 2e 8f 00 00 d4 91 b4 83 d0 54 00 00
       -1.515e-42 5.1363e-41 -1.061293e-36 3.0425e-41
0002b0 f5 5d 3b 84 fd 4f 00 80 92 86 00 80 0f 0f 00 80
       -2.2024887e-36 -2.8694e-41 -4.8275e-41 -5.402e-42
0002c0 1b 92 00 00 b5 a7 00 80 89 12 de 82 5f 7f 85 84
       5.2413e-41 -6.0162e-41 -3.2630607e-37 -3.138512e-36
0002d0 36 41 00 00 e6 04 00 00 f6 9b 00 00 39 17 00 80
       2.3393e-41 1.757e-42 5.5948e-41 -8.331e-42
0002e0 e0 ed 93 83 d4 45 00 00 cd 26 74 81 63 0a 00 80
       -8.694497e-37 2.505e-41 -4.484356e-38 -3.726e-42
0002f0 52 58 00 00 dd 74 00 00 c4 68 00 80 45 0c 00 80
       3.1683e-41 4.1923e-41 -3.7583e-41 -4.401e-42
000300 d5 01 00 80 4e 41 00 00 f4 ea c4 04 12 37 00 00
       -6.57e-43 2.3427e-41 4.629515e-36 1.9756e-41
000310 ba a2 00 00 75 28 00 00 2d b8 d1 02 db 1a 00 00
       5.8375e-41 1.4513e-41 3.0815502e-37 9.634e-42
000320 6c 8b 00 00 be 71 00 80 07 a8 00 80 e5 73 00 00
       5.0015e-41 -4.0803e-41 -6.0277e-41 4.1575e-41
000330 65 9a 00 80 07 74 00 80 17 a4 00 80 77 39 00 80
       -5.5386e-41 -4.1623e-41 -5.8864e-41 -2.0615e-41
000340 d6 41 00 80 73 3e 00 80 6b 7d 00 80 0f 75 df 81
       -2.3617e-41 -2.2403e-41 -4.4991e-41 -8.2085233e-38
000350 15 1c 1c 02 c5 82 00 00 b2 a4 00 80 64 01 00 80
       1.1469129e-37 4.6911e-41 -5.9082e-41 -4.99e-43
000360 43 8f 00 80 5f b7 ea 81 e8 2d 00 00 da d9 b1 83
       -5.1393e-41 -8.622115e-38 1.6468e-41 -1.0453141e-36
000370 37 89 00 00 d6 a7 00 00 4a ec 0f 03 11 48 00 00
       4.9223e-41 6.0208e-41 4.229517e-37 2.5853e-41
000380 d6 ab 00 80 04 41 93 83 02 3a 00 00 64 cc 91 04
       -6.1643e-41 -8.65481e-37 2.0809e-41 3.427704e-36
000390 af 3a 07 04 b2 10 00 00 44 8d 00 80 7c 57 00 80
       1.589612e-36 5.989e-42 -5.0677e-41 -3.1383e-41
0003a0 9d 01 00 80 2a ab e0 82 97 6f 00 80 d1 7b 00 80
       -5.79e-43 -3.3012085e-37 -4.0031e-41 -4.4417e-41
0003b0 17 00 00 80 2a 4b 47 83 23 6c c5 82 17 13 00 00
       -3.2e-44 -5.856713e-37 -2.9008616e-37 6.848e-42
0003c0 65 a2 00 80 12 ef 16 03 02 9f dd 84 78 36 17 01
       -5.8256e-41 4.4355477e-37 -5.2102876e-36 2.77734e-38
0003d0 f4 52 00 00 a0 f7 75 04 2f 63 11 03 74 41 00 80
       2.9758e-41 2.8913315e-36 4.2725527e-37 -2.348e-41
0003e0 0b 13 00 80 7e 57 00 80 c0 2a 00 80 fb 5d 00 80
       -6.831e-42 -3.1386e-41 -1.5336e-41 -3.3714e-41
0003f0 67 29 00 00 4a 72 cc 01 7e 61 00 80 d2 92 8c 01
       1.4852e-41 7.510176e-38 -3.4974e-41 5.1638555e-38
