Models/checkpoint_vel_D1_1000_100.pth (torch, 353077 bytes, 16 tensors)

0.weight f4 [32, 9]
00000000: 7074 f63d cb83 d6bd 9ae6 bfbe 0f62 a83e
00000010: 850f 61bf bb57 ac3e 40de 253c d829 703e
00000020: 8ddb b2bd f66f 1fbe f75a fd3d 015f 193e
00000030: 064e 14be 252d 703f f88d 3abe c1c1 98bd
00000040: 5ec4 cdbc fbc0 efbd 51a6 b53e a4c0 b3bb
00000050: e842 01bd c4f1 8abe 15d1 0fbf 0704 5bbd
00000060: fd22 46be c5fc 253d aeae 213e a678 d03d
00000070: db31 98be 0704 743e aa27 c23e 3f68 de3e
00000080: 5683 8a3e c950 7ebe e015 2cbe dd53 e3bd
00000090: f9d6 143e 2267 5bbd 4523 3b3e ebb1 58be
000000a0: 0ed7 893f f24f 08be 4b42 2a3e 03d8 823c
000000b0: 6eb5 7dbe d6ea 8b3d cce3 23be 36b4 023d
000000c0: 0746 85bf 2359 023e c430 ebbe 6bb0 e8bd
000000d0: 735b e03d d8ec e2bd 6d41 683e 3072 f4bc
000000e0: c526 ba3e 6d4f a1be b013 85be 790d 333e
000000f0: 6f2a a0be db3e 633e 9ecc 9a3e 058b d63d
00000100: 5779 9ebe 6312 d0be 7c84 8c3e edb5 c7bd
00000110: 6051 d4bd ec1b a4bd 30d9 983d 5fa2 413d
00000120: ce24 0c3e d491 263e fbc3 3c3e 6720 1ebf
00000130: 99ab 1dbe ae90 a73d da84 85be b743 483d
00000140: 32fe 19be 41da 45be 026c 653d 937f 20bf
00000150: f5ec 0dbf f873 0a3e d423 4abe 4b8c 0e3e
00000160: a4bd aabd b703 403c 590a e93c 5545 88be
00000170: 2da9 5abd fecd a13f 3f46 75bf ee67 13be
00000180: 8f91 df3d 0625 043e e0c7 08be 2dc6 1abd
00000190: 393c 983e 8ac1 c03d d0cf 103f 623e 64be
000001a0: 337c 75be 71c3 84be e8a9 b53e e633 83bd
000001b0: 516f 303e 5d39 36bd a4c7 cbbd ea06 d23e
000001c0: e268 a43f d821 ebbd 5353 893c 5e71 6d3e
000001d0: 132c aa3d 1eef c6bb 513b adbe e0ff dbbd
000001e0: 7a76 6f3d 4cbc 073e d422 b93e 382a 81bd
000001f0: bd20 613e 1b4c 62be 69ad 80be 770d 353d
00000200: 379d 5a3e 945e 313e e8c5 68bf 9637 eeb8
00000210: 2a42 4b3e 641e da3d b180 e73d 224a 903e
00000220: 5e93 c03e d1b2 9e3e 5d40 e2bd dbe4 7abf
00000230: b28c fcbd eedd c53c 2703 56be d3ae df3c
00000240: 87bb 65bd 2dc4 0dbe f615 a83c 4bd0 893c
00000250: b549 7fbd 068f b03f 2681 b3bd 08bc 893c
00000260: a6e9 1dbd 3f18 97bb 76d2 c9be ef12 46be
00000270: b06f 2dbf 507b e8bd cf76 7a3d f0e4 4dbd
00000280: d60b 50be ad52 553e ced7 403e b63d 313d
00000290: 3534 cbbe 8a56 ac3e 01ff 383f 1fae 6bbd
000002a0: 718f 50be 8726 d4bd 0ff1 26be 6eb6 7a3d
000002b0: 9cb0 863e 067b fa3e db46 a83c 67ee 0d3e
000002c0: 3655 1b3e faab 483d 6a7b 47be e355 9a3e
000002d0: ad5b 97bd b66a 41bd 008d 99be 2c88 1ebe
000002e0: 9b38 86bf de7a 8d3d a2a7 91be 29e8 f5bd
000002f0: 4ea8 c7bb 01a5 8abe 7471 d23c 179c fdbd
00000300: bc9a 25be bc58 913e 85a1 333f 70c6 33be
00000310: bb11 c93d e7e1 ff3d 8168 883e 6601 95be
00000320: ccff a73e d5b5 2dbf 71b0 15be a130 0c3d
00000330: 0e9d 173e b0a7 a8bd 7e99 89bc aa04 fabc
00000340: 6069 963c 2e52 f6bc 959e 7b3e 13fc c43e
00000350: c474 87be 29a3 a23e 2439 103e 88e3 c03e
00000360: 81e1 0e3e 60cd 81be 95eb 6fbe cc33 193f
00000370: dd12 dc3e 2de9 2a3e feb7 1dbe 41d4 59bd
00000380: 1beb 2a3d 4722 00be cd46 20be 3c9e 143d
00000390: 1c21 0f3f 5300 6e3f d9b5 c7bd 4870 debd
000003a0: 8665 883e 93cc 70bd 22c5 b1bd f54f 35bc
000003b0: 7e03 b9be 1d51 3bbd 55bc f33e 355f 23be
000003c0: ed6d aebe 21c1 133d 8ed2 d73d cad9 1bbd
000003d0: 0efa 753c efae 033e 6a7d 20bf 3f9c 083d
000003e0: b50b e4bd 26a2 973e 23e9 a03e 6ed7 a0bd
000003f0: bcee b73e fdbe cd3e d716 46be 0636 64bf
0.120339274 -0.10474356 -0.37480623 0.32887313 -0.87914306 0.33660683 0.010123789 0.23453462
-0.08733282 -0.15570053 0.12370866 0.14977647 -0.14482889 0.93818885 -0.1821822 -0.074588306
-0.02511805 -0.1170673 0.35478452 -0.005485611 -0.031557947 -0.27137578 -0.5617841 -0.053470638
-0.19349284 0.040524263 0.15789291 0.10179262 -0.29725537 0.23829661 0.37920886 0.43438908
0.27053326 -0.24835505 -0.1680522 -0.1109998 0.1453513 -0.053565152 0.18275173 -0.2116162
1.0768754 -0.13311747 0.16626851 0.015972143 -0.24776241 0.06831901 -0.16004866 0.031910144
-1.0411996 0.12729315 -0.45935643 -0.11361774 0.109549426 -0.110803306 0.22681208 -0.029839605
0.36357704 -0.3150591 -0.25991583 0.17485608 -0.31282374 0.22191946 0.30234236 0.104757346
-0.3095195 -0.40639028 0.27444828 -0.097514965 -0.103670835 -0.08013138 0.074633 0.04727399
0.13685915 0.16266567 0.18434136 -0.6176819 -0.1539749 0.08181892 -0.2607792 0.048892703
-0.15038374 -0.19321539 0.056011207 -0.6269466 -0.5543969 0.13520801 -0.1974023 0.13920705
-0.08336952 0.011719636 0.028447317 -0.26615396 -0.053383995 1.2640989 -0.9581031 -0.14395115
0.10916435 0.12904748 -0.13357496 -0.03778665 0.29733446 0.09411915 0.56567097 -0.22289422
-0.2397316 -0.2593036 0.3548119 -0.06406383 0.17229964 -0.0444883 -0.09950188 0.410209
1.2844508 -0.114810646 0.016763365 0.23187777 0.08309188 -0.0060709855 -0.33834317 -0.10742164
0.058462597 0.13255423 0.36159384 -0.06306881 0.21985145 -0.22099344 -0.251323 0.044202294
0.21349035 0.17321235 -0.9092698 -0.00011359078 0.19849458 0.10650328 0.11303843 0.2818156
0.37612432 0.309958 -0.110474326 -0.98005456 -0.12331523 0.024153676 -0.2089964 0.027305042
-0.056087043 -0.13844366 0.020518284 0.016822955 -0.062326152 1.3793647 -0.087648675 0.016813293
-0.038552903 -0.0046110447 -0.3941838 -0.1934316 -0.67748547 -0.11351645 0.06114846 -0.05026716
-0.20317015 0.2083232 0.18832323 0.043271743 -0.39688268 0.33659774 0.72264105 -0.0575391
-0.20367219 -0.10358911 -0.16302894 0.061209135 0.26306617 0.48921984 0.020541599 0.13860475
0.15169224 0.048992135 -0.19480672 0.3014365 -0.07390533 -0.047220908 -0.29990387 -0.15481633
-1.0486025 0.06908201 -0.28448206 -0.12007172 -0.0060930615 -0.27079013 0.025688864 -0.123832874
-0.16172308 0.2838801 0.70168334 -0.17556167 0.09817835 0.12494259 0.2664223 -0.2910263
0.32812345 -0.6785558 -0.14618088 0.034226064 0.14806005 -0.08235109 -0.016796824 -0.030519802
0.018360794 -0.030068483 0.24572213 0.38473567 -0.26456273 0.31765106 0.14084297 0.37673593
0.1395321 -0.25352 -0.23429711 0.5984466 0.42983142 0.16690512 -0.15402219 -0.053180937
0.04172812 -0.12513076 -0.15652008 0.036283717 0.55909896 0.92969245 -0.097514816 -0.1086126
0.26639956 -0.058788847 -0.08680178 -0.0110664265 -0.36135477 -0.045731653 0.47604623 -0.15954287
-0.34068242 0.036072854 0.10538207 -0.038049497 0.015013231 0.128597 -0.62691367 0.033352133
-0.111350454 0.29615897 0.3142787 -0.0785359 0.35924327 0.40184775 -0.1934465 -0.89144933

0.bias f4 [32]
00000000: d400 b53d 77c4 213e 2574 08bd 5e8a 963b
00000010: 3996 613e ee95 8d3e 03c1 6a3d b5ed fd3c
00000020: 2b42 0d3b 9a3e 1d3e 065b 06bf 47c9 493d
00000030: 99c2 a03e 3f94 f7bc 523a 053d d47f 44bd
00000040: 41ce df3e 6c69 d43d bdd5 c8bc fd66 133f
00000050: 424b c5ba d448 f83e 1c30 a63e 3fb6 443e
00000060: a9c6 7cbe d993 63be 8247 783e 28c8 dcbd
00000070: da35 ca3d 3fe7 173d 1521 98bd f367 45be
0.088380486 0.15797602 -0.03331389 0.0045941314 0.22029962 0.2765345 0.057312977 0.030997137
0.0021554332 0.15355912 -0.5248264 0.04926422 0.31398466 -0.030222056 0.03252632 -0.04797347
0.43712047 0.1037167 -0.02451598 0.5757902 -0.0015052336 0.48493063 0.3245858 0.19210146
-0.24685158 -0.22224368 0.24246028 -0.10780364 0.098735526 0.037085768 -0.07428185 -0.19277935

2.weight f4 [64, 32]
00000000: 663c 293d 9894 603e d978 a0bd 088d febd
00000010: 8f7d 133e 99b4 32be b20a e3bd 1bda 90bc
00000020: 5ea7 01be 5cc3 13be a17c babc 82dc 623e
00000030: a94c 68bb f7a3 49be 708a 993d 713d 73ba
00000040: cc57 6c3d eabb 483d 3f25 053e 0c4b 4e3d
00000050: 7e60 f53b f677 a6bd f638 45bd 5d20 da3d
00000060: 77a9 93bc bef1 10be 3544 5d3d a210 e2bd
00000070: 5ba9 b0bd a2d4 56bd 637f c73d 4431 c7bc
00000080: d58c a7be 1560 5f3d 70f9 7a3a 8d83 3d3e
00000090: 6fe7 733e fa31 0d3e c3f0 ffbd 6b27 e33d
000000a0: b3b9 c6bc 5104 debe 0b46 053e 8d0b 7f3d
000000b0: d57f 023e d9d1 29bd 7ec4 79be 05d4 8bbe
000000c0: 2e31 34be 8c8f 7fbd a59f 17be 87a0 263e
000000d0: 77be b2bc 6366 09be 5b65 a93c 8e7e 033e
000000e0: 5125 9c3d b435 a33e f7c1 2b3d dae7 963c
000000f0: f8e8 bb3e d853 71bd 28c0 9c3d 1c9c ff3d
00000100: 52ec 7cbe b172 debd 683b a63d 3928 a63d
00000110: a36b c4bd 5daa aebd dfec fcbc 0598 ff3d
00000120: 48b0 0cbd 2bee f7bc eae8 d73e c09c 8fbd
00000130: 97f9 ba3e db3c 0fbd d5a0 743e fa90 b2bd
00000140: 615f a5bb 506e 793c 17ed f03d 25f6 a2be
00000150: b724 2d3e 0c5c a53d 69d1 3dbe 18ec e7ba
00000160: 1fe2 8d3e 8e09 b2bd d40e 86bc 725d 763e
00000170: 1880 b0bc b306 e0bc 2203 6d3e a83e 8c3e
00000180: 3ace c8bd 3c3d af3d 4385 503d 1bad 7dbd
00000190: 7727 52be a485 543e 4230 003e b6c4 2ebd
000001a0: c1c4 663e 6b00 203e cffd 20bb 8729 17be
000001b0: bd61 9b3d fe46 b63d 88e7 313d b936 62be
000001c0: bcc4 48be adae 8d3e 980b 103b ff48 d8bd
000001d0: f297 8e3c 7b23 8dbe 1b65 463e e2f2 463c
000001e0: 4b2f 2ebe 1a4a 213e b678 5fbe 5140 023c
000001f0: d12c 23bd 77e9 043d 9fa6 63be 4177 fcbd
00000200: 4a19 093e 5533 403b 8b2e 213e a5bd 6bbd
00000210: 563e 613d f555 92be d4a1 493e 2f8b a73d
00000220: dce1 2fbe 06f6 203d 65e8 ec3d e023 6cbe
00000230: 4096 2cbd 20ad 93bb 8349 983d 452c b3bd
00000240: 97a0 7c3e 5e3f fd3d 3f7a 80be c9bd 59bd
00000250: 7e91 283e 7955 43be 885a 8bbc 6ba8 0abc
00000260: c2cb 3b3c 8c54 dd3a 1d86 efbc b650 353e
00000270: 65e7 88bd b5b8 323a 1e78 3f3e 02b7 b4be
00000280: cee2 0c3e bb21 093e c0ac 0ebd 6c44 ad3d
00000290: 9825 3c3e 6dce 71be 1d95 ddbd cc14 51be
000002a0: 9452 323d 5386 17bd 215f 8a3d dde1 2b3e
000002b0: 2dd1 c03d 91c9 ad3c 225e b73d b7d1 643e
000002c0: 454c 3d3e fad9 04bd 2c0b 4dbd 9f32 aa3d
000002d0: 08bf 01be d18b 693d 2d38 afbe dee7 e73d
000002e0: 8718 03be 024e 0abe d546 7fbe 3328 5fbe
000002f0: 844f b43d 40f7 313e f43a efbc eaa1 133e
00000300: 050d 853e 1a7e aebb 1ae8 6d3e 1734 efbd
00000310: d754 3abe 2822 7ebe 18de 4bbe 10b8 4f3d
00000320: a038 cabd ac30 95bd de22 813e 1882 0bbe
00000330: 1e16 ccbe ce29 25be 6987 143d 8c3c ac3e
00000340: 51e6 7abd d0e1 94bd 2ac0 083d feb7 ac3d
00000350: 26d4 d43d fff6 87bc f34a 833d 10cd 29be
00000360: 33c9 d83d 5d81 0abe c424 32be 4367 503c
00000370: d028 18be f366 09bd 0af9 7f3d 0b6e 95bd
00000380: c4eb 843d 8258 21bd 5f08 f7bc 5a9e 483e
00000390: 9a51 6bbd 984a 76be aa93 463e 1066 54bd
000003a0: 36f4 c93d 7e51 2fbe 4683 8ebd 4fc2 21be
000003b0: f676 ae3e 31fd ee3d 23d4 3dbe 1d39 4cbe
000003c0: a7f2 e43e 4cad a63c 5bf1 bbbc 1dd6 233e
000003d0: 1b31 5dbd 389f 14bd c6db 6bbd 5206 ff3d
000003e0: b6ba c63d ce79 47be 0975 053d 9521 8abd
000003f0: e403 823d 3bd8 cf3c d2ac f1bd a05a b0bd
0.041317366 0.21931684 -0.0783555 -0.12429243 0.14403366 -0.17451705 -0.11086024 -0.017682126
-0.12661502 -0.14429992 -0.022764506 0.2215443 -0.0035446084 -0.19691454 0.07497108 -0.000927887
0.057700917 0.049007334 0.1300249 0.05036454 0.0074883094 -0.081283495 -0.048150025 0.10650704
-0.018025143 -0.14154717 0.054020125 -0.11038329 -0.08626052 -0.052448876 0.09741094 -0.024315484
-0.32724634 0.05453499 0.0009573912 0.18507214 0.23818754 0.13788596 -0.124970935 0.11091503
-0.02425847 -0.43362668 0.13015 0.062266875 0.12744077 -0.041459892 -0.24391362 -0.27310196
-0.17596886 -0.062392756 -0.14806993 0.16272174 -0.021819336 -0.13417964 0.020678213 0.12841246
0.07624305 0.3187691 0.041933026 0.018421102 0.3670118 -0.05891785 0.076538384 0.124809474
-0.24699524 -0.108617194 0.081167996 0.081131406 -0.095908426 -0.08528588 -0.030874668 0.12480167
-0.034347802 -0.030264935 0.42169887 -0.070123196 0.36518547 -0.034970146 0.23889478 -0.08719058
-0.0050467704 0.015224054 0.11763971 -0.31828418 0.16908537 0.08074197 -0.18536915 -0.0017694263
0.2771158 -0.08693229 -0.016364492 0.24059084 -0.021545455 -0.027346944 0.23145726 0.27391553
-0.098049596 0.085566014 0.05090834 -0.061932664 -0.20522867 0.20754105 0.12518409 -0.042668067
0.22535993 0.1562516 -0.0024565344 -0.14761935 0.075870015 0.089002594 0.043433696 -0.22091188
-0.19606298 0.2767233 0.0021979567 -0.10560798 0.017406438 -0.27566132 0.19374506 0.012142869
-0.17010228 0.15750924 -0.21823391 0.007949905 -0.039837662 0.032449212 -0.2223153 -0.123274334
0.13388553 0.0029327471 0.15740411 -0.057553906 0.05499109 -0.28581205 0.19690639 0.08180844
-0.17176002 0.039297126 0.11567763 -0.2306056 -0.042135477 -0.004506722 0.07435896 -0.08748678
0.24670635 0.12365602 -0.25093266 -0.05315951 0.16461751 -0.19075574 -0.017010942 -0.008463006
0.011462154 0.0016886159 -0.029238755 0.1770657 -0.0668476 0.00068176846 0.18698165 -0.35295874
0.13758394 0.13391773 -0.034832716 0.08460316 0.18373716 -0.23613901 -0.10819457 -0.2041809
0.043535784 -0.036993336 0.06756426 0.16785379 0.09414897 0.021214278 0.08953501 0.22345625
0.18486126 -0.03243444 -0.050059482 0.083104365 -0.12670529 0.057018105 -0.34222546 0.11323522
-0.12802325 -0.1350632 -0.24929364 -0.21792679 0.08804229 0.17379475 -0.029202916 0.14417234
0.25986496 -0.005325091 0.23233071 -0.11679857 -0.18196426 -0.24817717 -0.19908941 0.050712645
-0.098740816 -0.07284674 0.25221914 -0.13623846 -0.39860624 -0.16129228 0.03626195 0.33639944
-0.061254803 -0.07269633 0.033386387 0.08433531 0.103920266 -0.01659727 0.0641078 -0.16582131
0.10585251 -0.1352591 -0.17396837 0.012719932 -0.14859319 -0.033545446 0.06249336 -0.0729638
0.06490281 -0.03939105 -0.030155359 0.19591656 -0.05745087 -0.24051893 0.19392267 -0.051855147
0.09861033 -0.1712093 -0.06958632 -0.15796779 0.34075135 0.11669386 -0.18537955 -0.19943662
0.4471638 0.020346306 -0.022942236 0.15999646 -0.05400191 -0.036284655 -0.05758264 0.124523774
0.09703581 -0.19480059 0.032582317 -0.067446865 0.06348398 0.025371661 -0.11800541 -0.08611035

2.bias f4 [64]
00000000: 181f 1f3e 30cb cdbd 5eb6 c1be 6d48 f53d
00000010: 0a9c 1c3e d4aa cebc 3840 b4be 12ce 773c
00000020: 2837 e3bd add2 fa3c 157f e63d 7695 293d
00000030: 1516 30be 028c 31be 07f7 83be 1530 8bbe
00000040: c321 b93e c384 99be bf4a 2b3d 302b 9fbe
00000050: 83f9 7f3e 0706 303d 1cf7 8f3c c567 abbd
00000060: c78d 43be fb94 89be 6119 ea3d a6d8 82bc
00000070: 3189 da3d 8518 d9bd 59ce b1be f95b f1bd
00000080: 90ab f5bd 12a3 613e 4d56 813e 02e4 153e
00000090: d80e f3bc d737 83be 1868 193d 1b1a cbbb
000000a0: 5f68 02bd f31e 4fbe 0a58 1b3e 9ed2 1b3e
000000b0: 7266 0fbe a2fe 0e3e 605d 253d 6e91 9bbc
000000c0: 4c6c 00bd 132e f43d 78c5 6e3d acd4 883e
000000d0: 30aa 013e 22ef 803e 89f8 e2bd b64a 963e
000000e0: 9268 e73d 5924 8a3d 293f 0bbe 7700 c43c
000000f0: d44a 9cbd 72f2 003e 81f8 8ebe 7bd3 f1bd
0.15539205 -0.100485206 -0.37834448 0.11976705 0.15293899 -0.025227942 -0.35205245 0.015124815
-0.110945046 0.030618036 0.11254708 0.041402303 -0.17195924 -0.17338565 -0.25774404 -0.2718512
0.3615857 -0.29984102 0.04181933 -0.31087637 0.24997525 0.042974498 0.017573886 -0.08369402
-0.19097053 -0.26871476 0.11430622 -0.015972447 0.106706984 -0.1060038 -0.34727743 -0.117851205
-0.119956136 0.22034863 0.25261155 0.1463776 -0.029670164 -0.2562854 0.037452787 -0.0061981804
-0.031837817 -0.2022665 0.15170303 0.15217063 -0.14003924 0.13964322 0.040372252 -0.018990245
-0.03135328 0.119228505 0.05829379 0.26724756 0.12662578 0.25182444 -0.110825606 0.29353875
0.11299242 0.06745214 -0.13598312 0.023926003 -0.0763146 0.12592486 -0.27923968 -0.11807915

4.weight f4 [128, 64]
00000000: 76ed 123e 5e31 b2bd 11e6 babd 7dfd 8e3c
00000010: bff2 aabc 2cde 153e fde7 923c 39b5 adbc
00000020: 4fb3 1f3d 63d4 33be 1d44 1c3d 1176 f7bd
00000030: b638 bdbd dcc1 e3bb f36a 77bd 500c 163c
00000040: 5fa1 68bc 750a b9bd 4266 27bd 3333 be3b
00000050: cc31 0f3e e6f5 a23d 5582 edbc 1dcf 0c3e
00000060: a488 d6bc caae a1bb e107 e0bd 07e0 b3bc
00000070: 03c5 adbd 27d2 89bd b862 0a3e b991 8f3b
00000080: 94f8 273d cfa3 de3c dd5e 28be eb8c 6bbd
00000090: 1c59 37bd 84d2 43bc 64b1 353e ebd0 863d
000000a0: c941 4d3d 11d8 5dbe ac70 653d 1f78 3abd
000000b0: 27f0 6dbd 6257 22be 2523 613d af75 1bbc
000000c0: 9b6b fd3d 0eb9 e23d f079 583c 7529 b93d
000000d0: 130c 7bbd 2427 a93d f486 d7bc 520f 49bd
000000e0: 355f 023e 62ed 223e 049c 803c 7f26 343d
000000f0: 61fa 143e 736c 84bc b155 ffbd 5f0c f4bb
00000100: a927 273b 01fe cabb e808 d2bb bfaa 3ebb
00000110: 2006 b7bb b66b 923b f389 503b 2317 0abc
00000120: 4cef aa3b e97f 75bb b277 9fbb 8b88 d2ba
00000130: b703 13bc 7a6d 2ebc 5ce7 adbb bc1b 47bb
00000140: ebd3 cd3b 484f 47bb d350 0dbb c513 bcba
00000150: 712d a2ba 3a2e 833b f6b0 f43a 71f3 043b
00000160: d229 feba 6d19 973b bb78 28bb 542d 2abc
00000170: 8227 9cbb 485d f9bb 52f5 09bb 3a7b 74bb
00000180: 29d8 39bc bac2 f2bb ad10 903b c671 d0bb
00000190: 5551 963b 6e8e f6ba 627f 8dbb fe25 75bb
000001a0: dbb2 c5bb 775b 49bb 6d42 d5ba 0876 00bc
000001b0: 0e87 c4ba 4372 9ebb 8929 573a 8585 b5b9
000001c0: 8560 c6bb 0e84 0abc b0ed 85bb ecb2 3ebb
000001d0: 4e14 2cbc 9bb1 08bc 4301 a9bb b402 42bc
000001e0: 63e9 843b 3d1f 2d3b 7174 1ebb 9bfd be3b
000001f0: cbd8 95bb a724 c3bb ab55 5ebb a2e9 d1bb
00000200: d722 533d 237b 983d 950f 27bd f31e ffbc
00000210: 5c3c 733c 7ab9 4ebd 1740 35bc df35 ef3d
00000220: cebf 5fbd baae e6bc 3086 933d 4269 4b3d
00000230: 3432 70bd fac8 2abd 48dd b6bd 4cd6 e7bc
00000240: 5686 ef3d d062 76bd 7367 2dbe bba5 8fbd
00000250: 2928 efbc 144e 8bbd fa57 e83d 3482 aebd
00000260: ff46 09be d6ad 4dbd 0309 7dbd d39d 4cbc
00000270: 26af b2bb 438e 243d 0fc2 2bbe d37f 95bd
00000280: c5c2 613c 9d75 90ba 8971 3abd f1fe a8bc
00000290: 0e46 c5bd d32d e63b ba6d ad3d 87fe a83d
000002a0: dc93 f4bd 0300 d5bc 7b08 6cbd 2d9c 39be
000002b0: 9877 1d3e 1312 933c 1ab5 013d 5fde d6bd
000002c0: b772 00bd 48dd 43be 6d04 013e 8ea1 203e
000002d0: 0671 f43c 5447 423e 781d 39be 224c 8fbd
000002e0: db79 04be fc0a c2bc 7381 49bd b9fc f0bd
000002f0: ff16 3d3d 4ce7 5fbc 247d de3d 0a91 b0bd
00000300: 9b5e 803c c71f b0bd c9b1 ab3c b6d3 c53d
00000310: 6a41 813d fa61 1b3d a5a3 8b3d 0670 f3bd
00000320: 300e ebbd 23fd 8abe 65cd 323e 9b68 bebd
00000330: a7d2 c9bc 0518 7ebe bf25 393d 0f34 0abe
00000340: a31f 97bd 4cdf cb3c 30ab d2bc 85e4 743b
00000350: 65af 983d e5b5 33bd f563 00bd 9ee3 1d3d
00000360: 80b5 34bc 70e2 a23d 206a 123e eecc b0bd
00000370: 60d8 b83d a500 ee3d 9822 babc 9b80 ca3c
00000380: 462a 04be f6f5 c2bd 5e65 a93d cfca 013e
00000390: 85cc 523e ab01 e63d ba38 dc3d bc1d 903c
000003a0: a4c5 893d f52e 91bd 148d 833c 07e9 2c3e
000003b0: e572 84bd 515c e0bd cdd9 e8bd 4f2d 38be
000003c0: dcae 293d ca57 d0bc 6313 d53d c11e b53c
000003d0: 855f d33d 815c 91bc bb09 033e e256 82bd
000003e0: f1e4 66bd 076e 24be 0f44 ffbd 2e05 033e
000003f0: 7f9a a2bd f255 a7bc ee28 ddbd b874 003d
0.14348397 -0.08700822 -0.09125913 0.017454857 -0.020867703 0.14635533 0.017932886 -0.021204578
0.03898936 -0.17561488 0.038150895 -0.12083066 -0.092393324 -0.0069506 -0.06040473 0.009158209
-0.01419863 -0.09035198 -0.040869005 0.0058044433 0.1398384 0.07957058 -0.028992811 0.13750882
-0.026188202 -0.0049341666 -0.10939003 -0.02195741 -0.08484843 -0.067295365 0.1351422 0.004381385
0.041008547 0.02717772 -0.16442437 -0.057507437 -0.044762716 -0.011952046 0.1774345 0.06582817
0.050111566 -0.21664454 0.056015655 -0.045524713 -0.058090355 -0.15853646 0.054965157 -0.009488507
0.1237404 0.11070453 0.013212666 0.090411104 -0.06129081 0.082594186 -0.026309468 -0.049086876
0.12731631 0.15910867 0.015699394 0.043982025 0.14548637 -0.016164994 -0.12467516 -0.007447764
0.0025505817 -0.0061948304 -0.006409753 -0.0029093472 -0.005585447 0.0044684066 0.0031820505 -0.008428368
0.0052165147 -0.0037460274 -0.0048665637 -0.0016062421 -0.008973054 -0.010646218 -0.005307121 -0.0030381521
0.006281366 -0.0030412246 -0.0021563068 -0.0014349153 -0.0012373162 0.0040033134 0.0018668461 0.0020286704
-0.0019391126 0.0046111853 -0.0025706727 -0.010386784 -0.004765452 -0.007609997 -0.0021050763 -0.0037304894
-0.0113430405 -0.007408467 0.004396519 -0.006361219 0.0045873323 -0.0018810758 -0.0043181637 -0.0037406678
-0.006033284 -0.0030724683 -0.0016270407 -0.007840641 -0.0014993863 -0.0048353984 0.00082077883 -0.0003462249
-0.0060539865 -0.008454336 -0.0040871724 -0.0029098345 -0.010502888 -0.008343126 -0.005157621 -0.011841465
0.004056142 0.0026416325 -0.0024178291 0.005828572 -0.004572963 -0.005955297 -0.0033925574 -0.006406025
0.051546898 0.074453615 -0.040786345 -0.031142687 0.014845934 -0.050469853 -0.0110626435 0.11680197
-0.05462628 -0.028159488 0.072033286 0.04966093 -0.058641627 -0.041695572 -0.08928925 -0.028300427
0.116955444 -0.06015283 -0.16933994 -0.070140325 -0.029193955 -0.068020016 0.11344905 -0.08520928
-0.13405989 -0.05021461 -0.061776172 -0.0124888 -0.005453008 0.040174734 -0.16773246 -0.07299771
0.013779347 -0.001102138 -0.04551843 -0.020629378 -0.096325025 0.0070245056 0.08468194 0.08251672
-0.119422644 -0.026000982 -0.057625275 -0.18125983 0.15377653 0.017952954 0.031666853 -0.10491633
-0.0313594 -0.19127381 0.12599345 0.15686628 0.02983905 0.18972522 -0.18077648 -0.06996943
-0.12937109 -0.023686878 -0.049195718 -0.11766953 0.04616451 -0.013665985 0.108637124 -0.08621414
0.015670111 -0.08599811 0.020958798 0.09659521 0.06311305 0.037935235 0.06818322 -0.11886601
-0.114773154 -0.27146253 0.17461164 -0.09297296 -0.02463658 -0.2481385 0.045202013 -0.13496421
-0.07379081 0.02488675 -0.025716394 0.0037367654 0.07455329 -0.04387464 -0.031345326 0.03854715
-0.011029601 0.07953346 0.14298296 -0.08632837 0.09025645 0.11621217 -0.022721574 0.024719527
-0.12906751 -0.095195696 0.082712874 0.12675022 0.2058583 0.11230787 0.10753007 0.017592303
0.0672715 -0.070890345 0.016058482 0.16885768 -0.06467227 -0.10955108 -0.11369667 -0.17986034
0.041426525 -0.025432486 0.10404088 0.022109391 0.10320953 -0.017744305 0.1279668 -0.06364228
-0.05637068 -0.16057597 -0.12464153 0.12794945 -0.07939624 -0.020426724 -0.10798822 0.03136131

4.bias f4 [128]
00000000: e61b bfbb d867 06bc cf77 543e 31d0 8b3d
00000010: f78b bc3c 0b68 42be 6262 843d c2f3 0bbe
00000020: 7408 cfbd ef44 53bd 096c 1b3c 9f81 1b3d
00000030: c501 ffbd 09ef 7c3d 6b31 2e3b 76c7 e5bb
00000040: 1fc9 353d c87e 823d 54bf 80bc c453 09be
00000050: 313e 503c 9cd0 cabd 31c3 3ebe 4660 0abd
00000060: a87f 04be 7eed 8f3c 02b4 7ca5 252a 113d
00000070: 7745 c63c 5be3 0b3d ad03 283e 0dff afbc
00000080: 1874 1a3e ddae fbbd 9691 fbbb f453 a0bd
00000090: 3564 aebd fabb 05be d1d1 e239 8a9f 14be
000000a0: 3445 7bbd cd2a 2b3d d48b be3c cd15 7fbd
000000b0: edd3 903e 434b b13c d189 b2bc fbb4 253d
000000c0: 5095 fe3d cfa6 33bd 8baf 8ebb 4adc 023e
000000d0: 2df6 b63b 7488 c43d c468 a3bd b337 d73d
000000e0: a6df 11be 03a5 0ebd e5c8 db3d b814 08be
000000f0: 0fcb 68bd c6af 38be 15c7 44bd dd27 c4bd
00000100: 947c 95bd 115d 22bd 6441 05bd 3c5d 92bd
00000110: ad8c ad3c 7732 dd3d cc86 433d 5147 0bbd
00000120: 36e5 7c8f f535 05be e827 e33c af31 d9bc
00000130: 62e0 fbba 64de 813d e3c7 44be cd48 afbc
00000140: bf16 423d cd45 0f3e 35e1 90bd f251 b43d
00000150: fbe2 e1bd e8dc 7e3d d9f4 5cbd 9a3d 6a3e
00000160: d7cc 263e af3a a6ba 8100 f73c e67f b4bd
00000170: c18f 103e 25bf 573e 424a 7c3c c5bb 1fbd
00000180: b464 16a6 f59d 48be 3663 03bd 1473 0d3d
00000190: ce88 093e b531 cdbc 0462 873d 7724 313e
000001a0: a8a4 2fbe 73da 7e3d 3359 87ba 39a3 ffbd
000001b0: 05ba ad3c bf22 db3c c529 a3bd 3938 cebd
000001c0: 9028 84bd 8c8d 4bbc 2228 103b c621 42bd
000001d0: a037 0cbc 41a9 923d 6d4a b23c d58c 063c
000001e0: 9422 a33d 5a10 e53b 9883 4c3d 88b2 1ebd
000001f0: c84f 5b3d fc77 853d 6f5e 973b 305e 1ebe
-0.005832183 -0.008203469 0.20748828 0.06826819 0.02301596 -0.18985002 0.064640775 -0.13667205
-0.10109034 -0.051579412 0.009486207 0.037965413 -0.124515094 0.0617514 0.0026579748 -0.007012303
0.044381257 0.06371838 -0.015716232 -0.1341086 0.01271014 -0.0990307 -0.18629147 -0.03378322
-0.12939322 0.0175693 -2.1918505e-16 0.035440583 0.024203045 0.03415237 0.16407652 -0.021483922
0.15083349 -0.12289212 -0.0076772673 -0.07828513 -0.08515207 -0.13059989 0.00043262405 -0.14513984
-0.061345294 0.041788865 0.023260035 -0.06227665 0.28286687 0.021642333 -0.021794232 0.0404558
0.12430823 -0.043860253 -0.0043544224 0.12779346 0.0055835457 0.09596339 -0.07978967 0.10508671
-0.14245471 -0.034825336 0.10731677 -0.13289154 -0.056834277 -0.18035802 -0.048041422 -0.09577916
-0.07299152 -0.039639536 -0.032533064 -0.07146689 0.021185244 0.10800641 0.047735974 -0.03400356
-1.2468704e-29 -0.13008864 0.02772899 -0.026512949 -0.0019216652 0.06341246 -0.19216876 -0.021397019
0.047384974 0.1399147 -0.07074205 0.08804692 -0.11029621 0.06222239 -0.053944442 0.22875062
0.16289078 -0.0012682284 0.030151607 -0.08813457 0.14117338 0.2106901 0.015398564 -0.03899743
-5.217818e-16 -0.19591506 -0.032077037 0.034533575 0.13431093 -0.025048116 0.06610492 0.17299066
-0.17152655 0.06222005 -0.0010326266 -0.12482304 0.021206865 0.026749967 -0.07966951 -0.10069317
-0.06453049 -0.012423884 0.0021996577 -0.04739549 -0.008558184 0.07161189 0.021764005 0.008212288
0.0796558 0.0069904746 0.049930185 -0.03874448 0.053542882 0.06517026 0.0046194117 -0.15465617

6.weight f4 [256, 128]
00000000: 9135 cc9a a40b 0000 c10f 0000 54d0 a30a
00000010: 3d85 149e e210 0000 6ca8 8882 ad44 948e
00000020: a713 0080 7fae 3faa d60d 0080 4f17 0080
00000030: 103c 0f10 95d9 a013 ab07 0080 b0a1 0000
00000040: 2204 0080 7002 0000 b90b 0000 9600 0000
00000050: aa79 8b9e 3029 f0ae 040c 0080 1a12 0080
00000060: 894b 8d0b 1d19 d69c 6755 0000 ef0d 0000
00000070: f60b 0080 4f0d 0080 b6c1 0200 1004 0000
00000080: 1e03 0000 18a2 93a0 a204 0080 0e10 0000
00000090: 1214 0080 2600 0000 d61a 0080 1d04 0000
000000a0: c76f 3fa9 0203 0000 9c07 0080 2367 9a99
000000b0: 7985 0000 e90e 0080 8b55 6baa 8f6b 12a3
000000c0: 0b09 0000 2e35 0000 a715 0000 5000 0080
000000d0: 1b09 0000 5303 0000 be4f 419a 820e 0000
000000e0: c404 0080 be10 0080 48d4 1a80 1c0d 0080
000000f0: 940c 0000 aa18 0000 dc0b 0080 6b10 0080
00000100: a41e 0080 0f46 1488 f300 0080 2d03 0000
00000110: db06 0000 e419 0000 1e15 0080 8a00 0000
00000120: 421b 0080 b409 0080 d11e 0080 411d 0000
00000130: f287 0000 bb08 0000 e771 9ea4 b03e 840b
00000140: be08 0000 46c4 62aa b002 0000 3308 0000
00000150: 8317 0080 5212 8c8d 7304 0000 f202 0000
00000160: 5668 5caa 9e99 0080 43d5 068e 1d13 0080
00000170: 1c5f c99e 9fc9 da99 820a 0000 3207 0000
00000180: 1b41 0000 1e04 0000 6316 0080 320d 0000
00000190: 3258 5b9e 510c 0080 2013 0080 b058 bf9f
000001a0: 7cef adad c111 0000 f277 0000 2600 0080
000001b0: f211 0080 1617 91a4 7f11 0080 d40e 0000
000001c0: c70a 0000 4f0f 0080 cc6a b09d 5d15 0000
000001d0: c512 0000 c79b b39d 3411 0080 0003 0000
000001e0: 8910 0000 ca92 0cac 559c f58d 9202 1796
000001f0: f39f 260b 050e 0080 2dbd 0480 4f07 0080
00000200: d76f 893b f20c 66b2 0b78 52bb 4a1f 943a
00000210: ac46 023b d23e 0aba a56a 5bba 41ae 31ba
00000220: 8e63 3fb9 d8f1 61bb aafe ba3a 201a 43ba
00000230: 4f52 d339 31ca cfba 9846 4d3a 8958 0080
00000240: 29d2 d33a d902 83b9 06f7 13bb b6e4 1fbb
00000250: 657f b2b8 493e 67bb 7a9a 26bb b4ec 97ba
00000260: 724c 44bb 2140 10bb 0339 0080 6433 ab3a
00000270: 428b 7cbb 7c0e 0fbb 736e 03bb fc2f 86bb
00000280: 7d80 3bbb 7056 0cbb ad7d 3bb9 4822 f13a
00000290: 99ea 0dbb 0485 0d3b 66dc 25ba 3262 03bb
000002a0: 7049 25bb fb02 bfba 40a3 b9ba f642 9eba
000002b0: 2929 42bb 0802 5ebb 485d 853b 76a0 0bbb
000002c0: 8a4b 72ba d7e5 ae39 6434 a9ba 7491 98bb
000002d0: 4cc0 053a 0422 6cba b686 1dbb 38b8 89bb
000002e0: 1db1 01bb 28fb 8f3a b900 29bb eb12 0c3b
000002f0: 3dac 19bb eae0 21bb f49d 37ba 5b91 6cbb
00000300: 2ca9 1dbb 237d f0ba 9578 f037 0887 bfba
00000310: e419 1fbb fbc1 2ebb 6c74 c4ba 2a2f 09bb
00000320: 770c 0080 45ae 03ba 1f97 133a 1985 4134
00000330: 3468 0080 44a9 0cbb 915b 7bbb 2aa3 16bb
00000340: f0a3 0abb b21e 1fbb aee8 a1ba 8b3c 2b39
00000350: 94cc f4ba 5156 22bb 60a1 2bbb 124b e4ba
00000360: 9367 1a3a 91d4 469e 7366 af3a 00cb 9aba
00000370: c3c7 d03a 0c89 7abb 4546 1bbb 08a1 5c3b
00000380: 5749 0000 abd7 b5ba 3347 1d39 b135 343a
00000390: 017f 3dbb 42a5 1c39 8454 8f3a d45f 66ba
000003a0: 5e1f 2fbb cddd 83ba a025 0000 d6fb 12bb
000003b0: df66 3f39 13f1 dd3a a546 f5ba 7c30 99ba
000003c0: 054f 5039 f063 3fbb e0a8 29bb a134 47b8
000003d0: 93c9 80ba 71bf e5ba 11cf e5b7 e6fc fcb9
000003e0: f968 b7ba b2cc 15bb fd01 9bba 16bd c8ba
000003f0: 87b4 dc3a c9e9 42ba 3e9d 01bb e08b afba
-8.4458964e-23 4.176e-42 5.651e-42 1.5774693e-32 -7.862608e-21 6.056e-42 -2.0080073e-37 -3.655095e-30
-7.05e-42 -1.7024748e-13 -4.963e-42 -8.362e-42 2.8248048e-29 4.060423e-27 -2.751e-42 5.8003e-41
-1.483e-42 8.74e-43 4.205e-42 2.1e-43 -1.4767517e-20 -1.0921253e-10 -4.31e-42 -6.494e-42
5.442488e-32 -1.4167824e-21 3.0637e-41 4.998e-42 -4.291e-42 -4.774e-42 2.53161e-40 1.457e-42
1.118e-42 -2.5010033e-19 -1.662e-42 5.76e-42 -7.2e-42 5.3e-44 -9.627e-42 1.476e-42
-4.250747e-14 1.079e-42 -2.73e-42 -1.5964883e-23 4.7881e-41 -5.349e-42 -2.0901872e-13 -7.937452e-18
3.244e-42 1.9077e-41 7.767e-42 -1.12e-43 3.266e-42 1.193e-42 -3.997588e-23 5.204e-42
-1.71e-42 -6.006e-42 -2.463875e-39 -4.703e-42 4.512e-42 8.848e-42 -4.254e-42 -5.89e-42
-1.0992e-41 -4.4619483e-34 -3.4e-43 1.139e-42 2.459e-42 9.288e-42 -7.575e-42 1.93e-43
-9.778e-42 -3.481e-42 -1.1055e-41 1.0494e-41 4.8768e-41 3.132e-42 -6.8714535e-17 5.093887e-32
3.136e-42 -2.0140928e-13 9.64e-43 2.941e-42 -8.434e-42 -8.632577e-31 1.596e-42 1.057e-42
-1.9576124e-13 -5.5107e-41 -1.6619457e-30 -6.857e-42 -2.1321039e-20 -2.2622106e-23 3.77e-42 2.581e-42
2.3355e-41 1.477e-42 -8.031e-42 4.734e-42 -1.1612002e-20 -4.418e-42 -6.861e-42 -8.103837e-20
-1.9774175e-11 6.369e-42 4.3028e-41 -5.3e-44 -6.438e-42 -6.2922835e-17 -6.276e-42 5.32e-42
3.866e-42 -5.492e-42 -4.6697237e-21 7.664e-42 6.733e-42 -4.7541975e-21 -6.171e-42 1.076e-42
5.932e-42 -1.997668e-12 -1.5136926e-30 -1.2198494e-25 3.209077e-32 -5.029e-42 -4.35205e-40 -2.622e-42
0.0041942406 -1.3390705e-08 -0.0032115008 0.0011300829 0.001987855 -0.0005273643 -0.0008370078 -0.000677798
-0.00018252266 -0.0034476425 0.001426657 -0.00074425526 0.0004030638 -0.0015853104 0.00078306487 -3.176e-41
0.0016160655 -0.0002498839 -0.0022577657 -0.0024397797 -8.5114305e-05 -0.0035284928 -0.0025421665 -0.0011590929
-0.0029952792 -0.002201088 -2.0452e-41 0.001306158 -0.0038535153 -0.0021828702 -0.0020054847 -0.0040950757
-0.002861052 -0.0021413825 -0.00017880528 0.0018397057 -0.0021654724 0.0021594176 -0.00063270924 -0.0020047543
-0.0025220774 -0.0014573032 -0.0014163032 -0.0012074399 -0.0029626584 -0.0033875722 0.004069958 -0.002130536
-0.00092428236 0.0003335911 -0.001290929 -0.0046560112 0.0005102202 -0.0009007754 -0.0024036593 -0.004202869
-0.0019789406 0.0010984885 -0.0025787784 0.002137358 -0.002344861 -0.002470071 -0.0007004433 -0.003609738
-0.0024057133 -0.001834784 2.866638e-05 -0.0014612386 -0.0024276907 -0.0026665914 -0.001498831 -0.0020932653
-4.472e-42 -0.00050232216 0.0005630124 1.8022946e-07 -3.7381e-41 -0.0021463195 -0.0038354138 -0.0022985437
-0.0021154843 -0.002427977 -0.0012352669 0.00016330385 -0.0018676692 -0.0024770687 -0.0026188716 -0.0017417392
0.00058900676 -1.05259904e-20 0.0013381973 -0.0011809766 0.0015928674 -0.003822866 -0.0023693007 0.0033665318
2.631e-41 -0.0013873478 0.0001499921 0.0006874456 -0.0028914812 0.00014938883 0.0010935222 -0.0008788083
-0.0026721577 -0.0010060609 1.3497e-41 -0.0022427938 0.00018253502 0.0016932808 -0.001871307 -0.0011687423
0.00019865863 -0.0029203855 -0.002588801 -4.749431e-05 -0.0009825699 -0.0017528367 -2.739535e-05 -0.0004825361
-0.0013993076 -0.0022857604 -0.0011826154 -0.0015315141 0.0016838469 -0.00074353494 -0.0019777562 -0.0013393126

6.bias f4 [256]
00000000: 23b5 b3b7 fcab 54bb 0f4c 15bd 4440 0bbb
00000010: 0d05 09bd 3baf af3c 1cca fb3c 0b94 9a9e
00000020: 178e f8b9 73da 8dbb 1fe4 15b7 06e2 d6b9
00000030: d6b1 7f3a c2c8 dfb1 8abf 86bd b099 18be
00000040: 2b04 52bc cc97 0ebd 468f 92b7 10ab d5bd
00000050: 3df7 5fbb 07e3 5bba 7325 7cbd 1c42 ffba
00000060: b755 4ebc 6315 a1b8 82cc d3b6 6852 2cbc
00000070: c5fe 2bbd 376d 8bbd c91b 9bbb 6e40 67bb
00000080: c4f8 a6af 3a76 a9bd a7ae 53b9 23b3 febc
00000090: 2d9e 40bd 0595 7cba 683a 50bd 85b4 67a0
000000a0: e207 e0b0 f7c3 18ba 9e38 0aa1 05de 1abc
000000b0: 4f28 d1b7 022f 61b3 9d85 eaa9 4190 5ebd
000000c0: f324 a33b f61e a6bb a5bc 10bd 4fe7 8cbd
000000d0: f6ff feba f329 6cbd ad4f d5ba bc45 cbbd
000000e0: 0d1f 43bd b848 afbc 5e41 dfbb 23dd 47bd
000000f0: 1e44 09b8 6730 bbba ea28 f3bb eaf3 5ebc
00000100: ea31 86a1 626e 60bb c8d0 18bd f806 343d
00000110: eb57 d6a3 a35f bdbc aad7 dfbb 431f 8dbb
00000120: 9464 55bb 9f92 acbb 7361 42bb 7f43 0bbd
00000130: 3482 a6b4 4901 a3bc ff1b 843b a949 47ba
00000140: dc42 91ba b52d 7aaa bfe9 bcbd b27b fbbc
00000150: ba05 c9bd 6ed0 a6bd 093c b7bc 2361 65bd
00000160: 0f61 1cbd e3a3 b5ab 0612 16bb 41aa bebc
00000170: dae7 5d3c bbfa bfb5 26f7 b7bd b5c5 46b9
00000180: bfb7 83bb 3527 c8bb 78ce 52bd eb70 0ebe
00000190: 7ea7 ed3a 92e6 a93b a54c 4ebd eba3 c33c
000001a0: 4dad c53c 58b8 c2b1 3349 94bd 133c 03bb
000001b0: cb26 26bb d84b 85bd f855 82bb a64b 24bd
000001c0: 1460 b1bb cce2 60bd 3b40 5abd 8f6a 203d
000001d0: 728e abbb 816a 6ebd 8042 7db0 ecf4 acbb
000001e0: 373c 07bc 4efe c1b7 b1b9 cdbb 0ed2 9fb8
000001f0: 01cb 6fbd b463 50ba a8ad 8ebd 8644 a3a8
00000200: 5c70 64bd 6d6a a8ad e376 96bd 6fc4 36a9
00000210: a593 8fbb 577b eaba 4bf9 61be 5fbc c2a1
00000220: 759a 88bb 8da1 1d9d 8bdd a5bb b218 67bd
00000230: b48c 1bbd 7ebd 99a7 0063 a6bb b215 913c
00000240: 94b2 01b6 0ba1 96a1 081c 82bb 2f61 86bb
00000250: 8fc2 95bb 837f b4bd 8936 d5b1 c7ad 8bbb
00000260: 749c 21bb 9f54 78bd 2e0e 9e3d 4cb9 893d
00000270: f2dc 89bd 6517 d3bc f346 92bd 22ea 2a3c
00000280: f20a 8dba ed65 29bd 5e75 8bbd 408f 5fbd
00000290: 708d 06bd 9559 e4bc ce3c 99ba e175 6ebd
000002a0: 87a9 46ba be11 cdb5 64f5 9dbd 6785 f9ba
000002b0: 46b4 953b 8b0d 82bb 3ec0 79bc 63cb 9fbb
000002c0: 865f b3b6 ab9a 99b7 b0e0 b9bc ce07 87bd
000002d0: f63e cab1 6498 3ebd 4d76 8cb5 1651 e1bd
000002e0: e323 3abd 9677 b3bd 42ad 06bc 3bd5 769a
000002f0: 4bba 1fbd 4688 ccbd e1e1 94bd 4958 9eb8
00000300: 78da 83bb 1f90 22bb 1904 37bc 1be2 e0bb
00000310: 0c9b f9b9 76f0 f7ba 05d8 77bd 5b0e a1bd
00000320: 5edf cabb c01e 4ebd 156d 47a1 4f2f 29bb
00000330: eb3a 24b8 3655 96bd 2848 6fbd 35f8 27bd
00000340: 2359 0ebb 814d c9bb 264a 57bd a948 5fbc
00000350: eac0 babc 5c6c 9db9 7871 72b7 2af5 ffbd
00000360: c78a 97bb 6b88 48bb f84e 94bd f2d0 3db6
00000370: c07f 61bb 30e1 b2bd af92 08b2 c763 33bd
00000380: 7557 98bd 0fe3 08be 7051 e9b2 34e1 433d
00000390: d460 b0bc 4a6c a2b6 8023 23bb 066b 88bd
000003a0: cb6e c3bb 6c22 89bb 89a7 b83c f5b3 1ebb
000003b0: 0026 9fbb 3e48 3dbd 4ae8 8ab3 ee8c 66bd
000003c0: d434 41bd f3d3 33bd 950e 483d 8f8c 6dbc
000003d0: 965d 9b9f 9c95 f1bd ce34 be3c e08d 9ebb
000003e0: e12f 19bc 4b91 96bb 830c fdbc 506a 18bb
000003f0: 8f5f b9b6 1c27 a5bc b09d a2bb 6ada 6a3d
-2.1422811e-05 -0.0032451143 -0.03644949 -0.0021248022 -0.033452082 0.021445861 0.030736022 -1.6366613e-20
-0.0004740811 -0.0043290197 -8.934206e-06 -0.0004098566 0.00097539776 -6.5129777e-09 -0.06579502 -0.14902377
-0.0128183765 -0.034812734 -1.7471273e-05 -0.10433018 -0.0034174465 -0.0008388017 -0.06155915 -0.0019474658
-0.012593678 -7.681062e-05 -6.312098e-06 -0.010517694 -0.041991014 -0.068079405 -0.004733537 -0.0035286206
-3.0371983e-10 -0.08274503 -0.00020187591 -0.031091278 -0.04702585 -0.0009635243 -0.05083695 -1.962619e-19
-1.6300385e-09 -0.0005827541 -4.683115e-19 -0.009452348 -2.4933512e-05 -5.2429648e-08 -1.0414866e-13 -0.05433679
0.00497877 -0.005069609 -0.035336155 -0.06880056 -0.0019454944 -0.057657193 -0.0016274356 -0.0992541
-0.047637034 -0.02139698 -0.0068132123 -0.048794877 -3.2726784e-05 -0.0014281393 -0.007420649 -0.013607958
-9.093405e-19 -0.003424548 -0.037308484 0.04395196 -2.3239161e-17 -0.023116892 -0.006831129 -0.004306705
-0.003256117 -0.005266502 -0.0029660135 -0.033999916 -3.1014645e-07 -0.019898074 0.0040316577 -0.0007602224
-0.0011082548 -2.2220318e-13 -0.09224271 -0.030698631 -0.098155454 -0.081452236 -0.022367494 -0.05600084
-0.0381785 -1.2906311e-12 -0.0022898926 -0.023274543 0.013544047 -1.4303581e-06 -0.08982687 -0.00018956403
-0.004019707 -0.0061081895 -0.051466435 -0.13910262 0.0018131582 0.005184957 -0.050366063 0.023881873
0.024130488 -5.6671006e-09 -0.07240524 -0.002002482 -0.0025352712 -0.06508607 -0.0039775334 -0.040111206
-0.0054130647 -0.05490379 -0.05328391 0.039164122 -0.0052354867 -0.05820704 -9.2135366e-10 -0.0052782204
-0.008254102 -2.3125813e-05 -0.0062782397 -7.6208365e-05 -0.05854321 -0.0007949427 -0.06966716 -1.8126353e-14
-0.055771217 -1.9146651e-11 -0.073468946 -4.0582497e-14 -0.0043816143 -0.0017889541 -0.22067754 -1.3195813e-18
-0.0041688033 -2.0862297e-21 -0.0050618104 -0.056420036 -0.03797598 -4.267148e-15 -0.0050777197 0.01771054
-1.9326444e-06 -1.0207023e-18 -0.0039706267 -0.0041009407 -0.0045703123 -0.088133834 -6.205316e-09 -0.0042626592
-0.0024659904 -0.060627576 0.07717548 0.06724796 -0.06731595 -0.025767991 -0.07142439 0.010431798
-0.0010760708 -0.04135697 -0.068094954 -0.054579973 -0.03284973 -0.027874747 -0.0011691095 -0.058217887
-0.0007578362 -1.5278854e-06 -0.0771282 -0.0019036949 0.0045686094 -0.0039688996 -0.015243588 -0.0048765405
-5.345736e-06 -1.8311044e-05 -0.022690147 -0.065932855 -5.8861316e-09 -0.04653205 -1.0465243e-06 -0.11001794
-0.04544438 -0.087630436 -0.008220019 -5.1043854e-23 -0.038996022 -0.099869296 -0.072696455 -7.5504715e-05
-0.0040238462 -0.002480514 -0.011170411 -0.0068628914 -0.000476085 -0.0018916267 -0.060508747 -0.07864066
-0.006191178 -0.050322294 -6.756819e-19 -0.0025815552 -3.915552e-05 -0.073404714 -0.058418423 -0.041008193
-0.002172061 -0.0061432724 -0.052560948 -0.013628163 -0.022797067 -0.00030026108 -1.4450743e-05 -0.12497933
-0.004624698 -0.003059889 -0.072416246 -2.8284817e-06 -0.003440842 -0.08734357 -7.949594e-09 -0.043796327
-0.07438556 -0.13367866 -2.7161803e-08 0.047822192 -0.021530546 -4.8405827e-06 -0.0024892986 -0.06661038
-0.0059641353 -0.0041850116 0.022540824 -0.002421615 -0.004856825 -0.046211474 -6.468379e-08 -0.056286745
-0.04716952 -0.043903302 0.04884203 -0.014498844 -6.579988e-20 -0.11796114 0.023218539 -0.00483869
-0.009349794 -0.004594957 -0.030889755 -0.0023256727 -5.524554e-06 -0.02016025 -0.0049626455 0.057337202

8.weight f4 [128, 256]
00000000: f353 0080 58c9 a0a9 7331 b539 5529 1025
00000010: deca 0633 9976 b3b9 c447 343b 2405 0000
00000020: 29d1 9439 e515 0080 e16a 0000 53ac 0000
00000030: fa0c d1b9 5ea7 0000 30f3 c438 25e0 7434
00000040: 65b5 7aba dcf7 abba c410 0000 e820 58b7
00000050: 7007 0eb1 2627 0080 a9a5 3936 f888 0080
00000060: e093 03b8 1810 0000 3d71 0080 61fa e638
00000070: 707d eab0 814c bc36 52a2 bb98 c794 ba87
00000080: 1a11 0000 db35 5733 6ead 0080 0e99 ed37
00000090: b840 cdb7 848f 0080 02a2 90b8 b691 0080
000000a0: 0f7d e828 bc2b 0000 4387 0000 29d3 5238
000000b0: 5536 0000 1a93 0000 d613 0080 bbed 7236
000000c0: 54b4 a33a 09c1 ab0c 2f89 86b6 19e2 54aa
000000d0: d314 0080 a266 b938 5d40 0000 e479 b5a5
000000e0: a00e 2f36 61fb 85b7 6b03 0080 c8af d0b9
000000f0: 6357 0000 a72e 0080 4354 ac0f 04c7 b6b8
00000100: de29 0000 0142 89b3 01b6 be15 a636 2b38
00000110: c913 0080 b616 d5b9 624b fd35 ef0e 9738
00000120: b906 0000 8c70 0080 7859 0000 2897 0938
00000130: ce4b 0000 3cdf 37b9 e3df 3fb8 291b 0000
00000140: 3104 0080 9c47 0080 b72e 0fb3 eaf7 5737
00000150: c3a0 9938 cf8a 1cb5 0db6 d7b8 1a8f 3eb7
00000160: d6ad 4139 88a0 0000 0705 0000 0c1b 0080
00000170: 801e b6b7 d092 0000 5a61 2525 a81c 0080
00000180: 4a23 feb8 7c98 0000 779c 0836 9fc6 69b9
00000190: bb14 b9b7 fb13 27b9 5f66 6b38 df7a c139
000001a0: c889 38b7 8f67 0000 15ba cdba aa27 0080
000001b0: 4655 97b7 bbeb edb5 06c7 02ad b1a1 9139
000001c0: 1b08 0080 644e cbb8 351b b9b5 ca65 4938
000001d0: bb16 0080 cc55 2cb5 322f 0080 11ac 0e3b
000001e0: a4f9 a0ab a05b 0000 da10 0000 940d 0000
000001f0: 3ebf ac25 5517 0000 05a1 9eb8 3e87 0000
00000200: 783e d1b7 c1a9 0080 8871 3a3a 1ac4 8900
00000210: 3817 0080 6d0a 0000 7860 e1b7 0b3c 0080
00000220: 199f 1e33 1421 0080 481a d61c ac08 c033
00000230: f8fc 0900 e793 0080 dbb8 1c17 98f6 fdb6
00000240: bae5 8a29 a6a0 0000 841e 0000 18af 3225
00000250: 2a30 0000 3faa d6b3 5d93 0080 6717 0000
00000260: c654 29b9 c9de bdb0 ba3d eab7 f24d a7b8
00000270: dc16 b1b7 b176 00b9 76d8 e2af 8b3f d139
00000280: 2a97 0080 0226 3131 2ab6 82a9 52b7 41ba
00000290: d68a d4b8 30e7 07b9 239b 0080 8325 a3b8
000002a0: 97e3 bdb7 8a6d 0080 440b 2139 f902 0000
000002b0: b829 9d39 a707 0000 bfbe a6b6 b104 0080
000002c0: 9c77 0080 7989 0000 9809 bbb9 bff4 09ba
000002d0: 2249 0000 0de5 ef2f 669e 0080 d7ec 64b5
000002e0: 6899 fdb8 ce5f e936 3f1a 1ab8 ec0f 0000
000002f0: 0500 1cb7 2852 9ab2 e39f e3b4 3f20 0000
00000300: b638 46b8 fe5c 9927 9cd5 3439 1e04 0000
00000310: f524 0080 bd4e 9b36 057f 84b7 0a92 06b7
00000320: cb0a 0000 0309 0f37 5a8c 0000 a084 0000
00000330: ee38 0080 3104 0cb8 4234 b12f 62a8 95b8
00000340: d613 0080 d308 0000 938d 62b2 de31 c8b6
00000350: 10f5 2838 4136 0000 a93c 0080 1d62 ad36
00000360: b9a2 0080 58d2 41b4 0830 bfb8 2126 0000
00000370: 7c97 3134 8b15 a024 73ac 0080 6fb9 d4b8
00000380: 0526 69af de0c 6cb5 c833 0080 070e c3b9
00000390: 48b0 92b9 cb54 0000 0692 0000 f845 adb8
000003a0: 33ce 8fa9 e0b4 8103 0f69 0a39 1800 ce86
000003b0: 6834 1238 916b 76b8 ad9c 0000 627a 2db9
000003c0: ac76 dab8 aa2f 8f37 fa14 ddb9 012f b3b6
000003d0: 4578 0000 709e 84b9 72b6 8c37 3a19 0080
000003e0: f185 6730 9e7b b52c e3ab 09b9 63d3 46b8
000003f0: faa2 0000 e3c8 6038 2a49 ce80 41ab 6336
-3.0115e-41 -7.140355e-14 0.00034559853 1.2504013e-16 3.1383813e-08 -0.00034229903 0.0027508596 1.844e-42
0.00028384596 -7.854e-42 3.8341e-41 6.1818e-41 -0.00039873255 6.004e-41 9.3913055e-05 2.2805814e-07
-0.0009563773 -0.0013120132 6.014e-42 -1.2882265e-05 -2.0667947e-09 -1.4044e-41 2.7663575e-06 -4.9135e-41
-3.1370553e-05 5.773e-42 -4.0622e-41 0.00011013891 -1.7061392e-09 5.611743e-06 -4.850227e-24 -2.8073613e-34
6.135e-42 5.010757e-08 -6.2215e-41 2.8323873e-05 -2.4468041e-05 -5.1484e-41 -6.8966314e-05 -5.2271e-41
2.581141e-14 1.5689e-41 4.8523e-41 5.026456e-05 1.949e-41 5.277e-41 -7.116e-42 3.6199187e-06
0.0012489655 2.64629e-31 -4.0094815e-06 -1.8907826e-13 -7.47e-42 8.840604e-05 2.3089e-41 -3.148109e-16
2.6085545e-06 -1.5971893e-05 -1.226e-42 -0.0003980382 3.1348e-41 -1.6736e-41 1.6992966e-29 -8.715506e-05
1.5019e-41 -6.391566e-08 7.702754e-26 4.0820472e-05 -7.098e-42 -0.00040643447 1.8871908e-06 7.203023e-05
2.412e-42 -4.0374e-41 3.2095e-41 3.280412e-05 2.7194e-41 -0.00017535401 -4.574646e-05 9.743e-42
-1.504e-42 -2.5689e-41 -3.333727e-08 1.2872721e-05 7.325553e-05 -5.831652e-07 -0.000102859085 -1.1358201e-05
0.00018470673 5.7588e-41 1.803e-42 -9.703e-42 -2.1710293e-05 5.2666e-41 1.4344453e-16 -1.028e-41
-0.00012118237 5.4701e-41 2.0356654e-06 -0.00022294604 -2.2063372e-05 -0.00015933804 5.6123707e-05 0.00036903375
-1.0999334e-05 3.715e-41 -0.0015695716 -1.4229e-41 -1.8040311e-05 -1.7726483e-06 -7.4338365e-12 0.00027777025
-2.908e-42 -9.694396e-05 -1.3791492e-06 4.8016933e-05 -8.154e-42 -6.4199844e-07 -1.693e-41 0.002177004
-1.1437973e-12 3.2869e-41 6.045e-42 4.871e-42 2.9966835e-16 8.37e-42 -7.564019e-05 4.8516e-41
-2.494383e-05 -6.0896e-41 0.00071122544 1.2651811e-38 -8.33e-42 3.74e-42 -2.6867012e-05 -2.154e-41
3.693194e-08 -1.1866e-41 1.4168126e-21 8.942274e-08 9.17268e-40 -5.3057e-41 5.063964e-25 -7.568695e-06
6.168282e-14 5.763e-41 1.0947e-41 1.5498363e-16 1.7278e-41 -9.996119e-08 -5.2864e-41 8.395e-42
-0.00016148677 -1.3814879e-09 -2.7923717e-05 -7.977699e-05 -2.1110689e-05 -0.00012251247 -4.1262965e-10 0.0003991093
-5.4227e-41 2.5778495e-09 -5.80476e-14 -0.00073896826 -0.00010134808 -0.00012960727 -5.5653e-41 -7.779433e-05
-2.2636536e-05 -3.9295e-41 0.00015358353 1.066e-42 0.00029976456 2.745e-42 -4.9693913e-06 -1.683e-42
-4.2908e-41 4.9316e-41 -0.00035674567 -0.0005262605 2.6235e-41 4.3636597e-10 -5.6823e-41 -8.5281266e-07
-0.00012092554 6.9550942e-06 -3.6740905e-05 5.712e-42 -9.298329e-06 -1.796532e-08 -4.2398378e-07 1.1568e-41
-4.7259695e-05 4.2566853e-15 0.00017245713 1.477e-42 -1.3258e-41 4.6285263e-06 -1.5794774e-05 -8.021025e-06
3.872e-42 8.525562e-06 5.0349e-41 4.7577e-41 -2.0423e-41 -3.3382505e-05 3.2233244e-10 -7.1362374e-05
-7.116e-42 3.166e-42 -1.3187122e-08 -5.96627e-06 4.0282554e-05 1.9463e-41 -2.1761e-41 5.1672237e-06
-5.8374e-41 -1.8051048e-07 -9.116536e-05 1.3678e-41 1.6539519e-07 6.9425434e-17 -6.1863e-41 -0.000101434875
-2.1204734e-10 -8.7935575e-07 -1.8576e-41 -0.0003720375 -0.0002797863 3.0418e-41 5.2383e-41 -8.2623155e-05
-6.3862456e-14 7.623465e-37 0.00013199843 -7.7488725e-35 3.485792e-05 -5.875115e-05 5.6205e-41 -0.00016544157
-0.000104171544 1.7069124e-05 -0.00042168034 -5.3400877e-06 4.3145e-41 -0.00025295047 1.6774258e-05 -9.05e-42
8.422765e-10 5.1580537e-12 -0.00013129371 -4.7403748e-05 5.8465e-41 5.3592852e-05 -1.8944359e-38 3.3925319e-06

8.bias f4 [128]
00000000: f462 f8ba 3c2c 18b0 616d b5b9 1441 83a1
00000010: 8e05 83bb 178e 853d 0b12 34bb edd1 d8bc
00000020: c2fa 053e 1a28 9c8e 456e 69ae a845 01b3
00000030: f573 4daa 750a 863d ab4e 74ba d008 19bd
00000040: 681b 8d3d 49f8 2ab4 6471 32b9 35d9 4d96
00000050: 754c c0b9 443d 03bb de36 abbb 7bed 67bb
00000060: c868 cbac 28ed e6ba 250d fbb1 523b a288
00000070: 57fa 4e3e 6ad7 d5b1 81e2 d7b2 f652 2da0
00000080: 6788 243e c290 35b4 5f97 30ad 988b 16b5
00000090: 63b8 22ba d31c b0b7 c839 1a3e d7a3 709c
000000a0: dfa0 0a3d ef8e 17bd 6bd8 069e 1acf c282
000000b0: 588f a5ab 342e 743d b8d3 6cb2 d8b9 9991
000000c0: 6f15 53b8 5dba 869e 3bd3 e4b9 6bd4 47b9
000000d0: 0ffa 1eba f487 283e 1109 203e 1fb1 7bbb
000000e0: d7cd 8ea5 1da8 a2b5 6faa 08bd 730e f2a8
000000f0: 083f 9cb3 7411 5f82 e3a3 58bb 9e78 10bd
00000100: 4e80 27bd d0b6 c4ba be44 2fbb 75d6 e0a4
00000110: be87 653e a7ff 8681 b353 d3b9 15d4 d7bb
00000120: 8d26 8aba 2faf 35bd 2f0b 259e 7a5b 90a9
00000130: a919 aeb9 cf33 7bbd c3fb 96bc 2790 35bb
00000140: a7d1 27b4 4412 81ba d5db 52b8 0c98 1a3d
00000150: bd3d ffba 2c24 1ab5 e231 d390 a0cd 009f
00000160: f7c8 0bba f9ab c2b8 b958 38bb 02c8 89ae
00000170: 5f74 b5b1 af35 69a4 6337 90ba 8ff8 39b8
00000180: efc5 c0b6 091c 91b4 1704 a3b9 ba60 17ba
00000190: f84c 5086 9c7f 00bb b330 a43d cf87 1cae
000001a0: 80e9 1bb0 66ec 8b3d 8a82 3e92 c4a3 f2b7
000001b0: f0a8 97bc f403 f6b8 783f 60a9 3dec 173e
000001c0: 749e 473e dde2 37ba 1cf9 273e f987 f23d
000001d0: 4c80 d2b7 a359 003e f773 8c3d f35d caa9
000001e0: 3dd0 44bb 1330 adb5 80c0 1fb8 2bc7 2dbb
000001f0: 1257 28b9 48f2 aaaf 817a a63d c0f8 8dbc
-0.0018950389 -5.536014e-10 -0.00034604504 -8.894131e-19 -0.003998465 0.06521242 -0.0027476575 -0.026467288
0.13083938 -3.8495586e-30 -5.3076005e-11 -3.0098505e-08 -1.8247888e-13 0.06544963 -0.0009319584 -0.03736192
0.06889993 -1.592281e-07 -0.00017017644 -1.6628307e-25 -0.0003667806 -0.002002553 -0.0052250465 -0.0035389352
-5.78124e-12 -0.0017618285 -7.306556e-09 -9.7639665e-34 0.20212685 -6.2236056e-09 -2.5132296e-08 -1.468112e-19
0.16067658 -1.6909601e-07 -1.0038053e-11 -5.608249e-07 -0.00062072853 -2.0994257e-05 0.15061104 -7.9621097e-22
0.033844825 -0.037001546 -7.138655e-21 -2.8624608e-37 -1.1763741e-12 0.059614375 -1.3785147e-08 -2.4253679e-28
-5.032628e-05 -1.426488e-20 -0.00043644928 -0.00019057251 -0.00060644833 0.16458112 0.15628459 -0.0038405133
-2.4772556e-16 -1.2118868e-06 -0.033365663 -2.6873664e-14 -7.2757814e-08 -1.6388461e-37 -0.0033056668 -0.03527128
-0.040893845 -0.0015008096 -0.0026743854 -9.750782e-17 0.22415063 -4.959067e-38 -0.00040307417 -0.0065865614
-0.0010540053 -0.04435652 -8.73734e-21 -6.410753e-14 -0.00033206985 -0.061328705 -0.018430596 -0.002770433
-1.5629358e-07 -0.0009847363 -5.0272636e-05 0.03774266 -0.0019473355 -5.742211e-07 -8.330168e-29 -2.7275143e-20
-0.00053323753 -9.282673e-05 -0.0028129055 -6.265567e-11 -5.281023e-09 -5.0569293e-17 -0.0011002835 -4.4338925e-05
-5.7450884e-06 -2.7028753e-07 -0.0003109283 -0.0005774606 -3.9177e-35 -0.001960731 0.08017101 -3.5590916e-11
-5.6720495e-10 0.06832199 -6.011433e-28 -2.8924907e-05 -0.018513173 -0.000117309304 -4.9793042e-14 0.14836212
0.19494039 -0.0007014701 0.16403621 0.11842341 -2.5093694e-05 0.12534194 0.06858056 -8.9868996e-14
-0.0030031346 -1.2903496e-06 -3.8087834e-05 -0.0026516418 -0.00016054165 -3.109497e-10 0.081288345 -0.017330527
