Models/checkpoint_vel_D2_1000_500.pth (torch, 353077 bytes, 16 tensors)

0.weight f4 [32, 9]
0.110429205 -0.11975989 -0.2948882 0.0641769 -1.2384678 0.21930204 0.014388629 0.2817323
-0.035747457 -0.07796564 0.1405562 0.25974512 -0.0563612 1.4085771 -0.0334254 -0.027248655
-0.09564266 -0.058006305 0.387986 -0.023970993 -0.012096197 -0.07594552 -0.3234512 0.04096817
-0.14302352 0.030429596 0.09663684 0.105503485 -0.213653 0.33060443 0.1792056 0.30773264
0.25848556 -0.24971843 -0.16581479 -0.09168883 0.11523189 -0.12641992 0.1242697 -0.24363157
0.98854524 -0.1088239 0.19040957 0.011892306 -0.1967981 0.029207043 -0.09374037 0.075277746
-1.3213128 0.10918359 -0.49479964 -0.048087325 0.07004685 -0.060726725 0.17637846 -0.017848505
0.37734735 -0.34299493 -0.17168431 0.12880462 -0.2662168 0.23013654 0.26823312 0.09737484
-0.36568534 -0.41813415 0.34252247 -0.053136457 -0.09117257 -0.05716371 0.05752814 0.04382524
0.13673282 0.15276407 0.18461098 -0.50412273 -0.12435745 0.09608252 -0.19220226 0.078277275
-0.1622415 -0.15969226 0.058374066 -0.66749996 -0.58154005 0.19668178 -0.1854549 0.14398883
-0.060658526 0.010009821 0.02412385 -0.27681178 -0.041963264 1.4146471 -1.2110038 -0.20488375
0.077342786 0.12529385 -0.12048251 -0.03819148 0.2561941 0.09924775 0.75064206 -0.06166836
-0.1592611 -0.22122245 0.33300954 -0.07512972 0.15777871 -0.001035839 -0.08370577 0.15595122
1.4917146 -0.08046354 -0.014618637 0.2744169 0.058285214 0.0032246618 -0.40375322 -0.012140005
0.067862876 0.15120393 0.41817647 -0.025940252 0.27692083 -0.26753962 -0.26264447 0.013882497
0.22840847 -0.025814548 -0.9790896 0.04688886 0.19005749 0.10317839 0.09983818 0.23990805
0.32743046 0.2758096 -0.13367824 -1.4373446 -0.13080451 0.08805344 -0.21472706 0.0016944275
-0.008535176 -0.2005948 -0.053972974 0.060331307 -0.09958477 1.4218366 -0.03784665 -0.0069302297
-0.05552484 -0.014870268 -0.38053182 -0.14860107 -0.9140343 0.040891893 0.0074042673 0.008260335
-0.15894108 0.18785682 0.23984084 0.047357414 -0.3763356 0.07124981 0.79981685 -0.07407264
-0.20273995 -0.13011815 -0.1727675 0.052955672 0.26096478 0.41090438 -0.24491481 0.0010980378
0.116171196 0.018310308 -0.25663075 0.31798604 -0.04539133 -0.07254673 -0.24404348 -0.28003228
-1.1163673 0.027961135 -0.30239925 -0.1955749 -0.008514975 -0.22851571 0.018946543 -0.022792164
-0.28518435 0.36170146 0.79649 -0.102625914 0.056155726 0.060397845 0.28470665 -0.32409418
0.38506043 -0.55393845 -0.035704885 0.110514276 0.17354856 -0.063519284 -0.017630879 -0.018428907
0.044293128 0.040702425 0.24253401 0.7105361 -0.24361871 0.3405991 0.16349666 0.3355075
0.12930037 -0.21765277 -0.21807046 0.4753722 0.47973284 0.13536434 -0.14917774 -0.04195327
0.029740265 -0.12299484 -0.1968837 0.019801827 0.52300787 1.1054071 -0.12113154 -0.08835431
0.2809475 -0.059017498 -0.037668593 -0.03439494 -0.3210066 -0.14112478 0.5142335 -0.087428786
-0.24799119 0.04925127 0.03860675 -0.05667784 0.10661912 0.22244653 -0.6365815 -0.10240977
-0.05238822 0.31953183 0.35715535 -0.121403754 0.39858997 0.43311644 -0.20450963 -0.83895606
00000000: b528 e23d ac44 f5bd 96fb 96be 2e6f 833d
00000010: 1d86 9ebf b790 603e 49be 6b3c 373f 903e
00000020: ed6b 12bd 73ac 9fbd f7ed 0f3e 50fd 843e
00000030: 00db 66bd 414c b43f 12e9 08bd 9238 dfbc
00000040: 4de0 c3bd 0598 6dbd 1aa6 c63e d15e c4bc
00000050: 212f 46bc 5389 9bbd 659b a5be 3dce 273d
00000060: c274 12be 7d47 f93c 89e9 c53d 3612 d83d
00000070: dac7 5abe fc44 a93e ac81 373e 228f 9d3e
00000080: 3858 843e 30b6 7fbe 5acb 29be 5ac7 bbbd
00000090: b2fe eb3d 3974 01be 1d81 fe3d 8e7a 79be
000000a0: 4d11 7d3f 11df debd bafa 423e f2d7 423c
000000b0: 7185 49be 9c43 ef3c f3fa bfbd 382b 9a3d
000000c0: c720 a9bf a59b df3d 6156 fdbe 37f7 44bd
000000d0: b974 8f3d 96bc 78bd 8e9c 343e 0737 92bc
000000e0: ac33 c13e 089d afbe 03ce 2fbe 5ce5 033e
000000f0: 924d 88be eaa8 6b3e da55 893e 766c c73d
00000100: 1c3b bbbe ae15 d6be 1b5f af3e 9da5 59bd
00000110: afb8 babd 7f24 6abd a0a2 6b3d 1882 333d
00000120: b003 0c3e 2f6e 1c3e a90a 3d3e 300e 01bf
00000130: 1eaf febd eac6 c43d abd0 44be d64f a03d
00000140: a322 26be 5e86 23be a519 6f3d 47e1 2abf
00000150: cfdf 14bf f366 493e e4e7 3dbe cf71 133e
00000160: 1375 78bd 3b00 243c 619f c53c 46ba 8dbe
00000170: ace1 2bbd 2813 b53f 2c02 9bbf 0ccd 51be
00000180: e565 9e3d 084d 003e 89bf f6bd ab6e 1cbd
00000190: e02b 833e 6842 cb3d 142a 403f f697 7cbd
000001a0: 5815 23be 2388 62be 3a80 aa3e 9cdd 99bd
000001b0: be90 213e fdc4 87ba ee6d abbd adb1 1f3e
000001c0: 81f0 be3f 12ca a4bd 0283 6fbc 5f80 8c3e
000001d0: 7abc 6e3d d954 533b beb8 cebe dfe6 46bc
000001e0: b1fb 8a3d 34d5 1a3e 3a1b d63e a780 d4bc
000001f0: 91c8 8d3e f4fa 88be 5679 86be 6a73 633c
00000200: e9e3 693e 0879 d3bc 9ea5 7abf 890e 403d
00000210: 6e9e 423e 314f d33d f677 cc3d 75aa 753e
00000220: f7a4 a73e ea36 8d3e f3e2 08be e8fa b7bf
00000230: 9ef1 05be 5d55 b43d 69e1 5bbe 8d17 de3a
00000240: 1fd7 0bbc b968 4dbe c412 5dbd f61d 773d
00000250: 1af3 cbbd befe b53f 1705 1bbd fb16 e3bb
00000260: 046e 63bd 6da2 73bc 11d5 c2be e12a 18be
00000270: 27fe 69bf 427e 273d 7f9f f23b 5b56 073c
00000280: 73c1 22be 8a5d 403e d698 753e d9f9 413d
00000290: 0faf c0be 6ceb 913d ccc0 4c3f 65b3 97bd
000002a0: 109b 4fbe b13d 05be f7e9 30be 0ce8 583d
000002b0: 2d9d 853e 0f62 d23e f3ca 7abe 09ec 8f3a
000002c0: 2aeb ed3d 80ff 953c 1b65 83be 11cf a23e
000002d0: 42ec 39bd 6193 94bd 89e6 79be 6460 8fbe
000002e0: 20e5 8ebf c00e e53c 13d4 9abe c944 48be
000002f0: 6582 0bbc 0600 6abe c835 9b3c a2b6 babc
00000300: af03 92be ef30 b93e c5e6 4b3f 892d d2bd
00000310: 8c03 663d bb63 773d 12c5 913e acef a5be
00000320: a426 c53e e9ce 0dbf 493f 12bd 4f55 e23d
00000330: b7b6 313e 6616 82bd a26e 90bc 38f8 96bc
00000340: b66c 353d 96b7 263d d65a 783e b2e5 353f
00000350: 2f77 79be 0163 ae3e ab6b 273e a4c7 ab3e
00000360: 5167 043e 5ee0 5ebe dd4d 5fbe fc63 f33e
00000370: 8b9f f53e f39c 0a3e 0dc2 18be 31d7 2bbd
00000380: dba1 f33c b8e4 fbbd e19b 49be 7137 a23c
00000390: d8e3 053f fb7d 8d3f d013 f8bd 1bf3 b4bd
000003a0: 5ad8 8f3e 55bc 71bd 624a 1abd b5e1 0cbd
000003b0: fa5a a4be 0483 10be cfa4 033f dd0d b3bd
000003c0: 67f1 7dbe b3bb 493d 1d22 1e3d 0627 68bd
000003d0: 205b da3d 06c9 633e 01f7 22bf 37bc d1bd
000003e0: 0895 56bd ad99 a33e 11dd b63e 88a2 f8bd
000003f0: fc13 cc3e 70c1 dd3e f96a 51be d3c5 56bf

0.bias f4 [32]
-0.08545169 0.0074792514 0.024619805 0.020124046 0.21688388 0.3967784 0.054867793 0.020649962
0.051401727 0.14934872 -0.5731497 0.08542197 0.46368742 0.035072394 0.060081676 -0.21056871
0.5637593 0.09969072 0.004301315 0.5006503 0.0029150003 0.54190296 0.48281017 0.11441323
-0.18523706 -0.14006959 0.07651868 -0.0038499746 0.20794778 0.15132345 -0.15681837 -0.16664262
00000000: 4c01 afbd 8214 f53b 79af c93c 2fdb a43c
00000010: cf16 5e3e 8a26 cb3e 0dbd 603d 1c2a a93c
00000020: 9e8a 523d dfee 183e f0b9 12bf b7f1 ae3d
00000030: 7068 ed3e 12a8 0f3d 3418 763d 539f 57be
00000040: 8852 103f a62a cc3d 0cf2 8c3b 9e2a 003f
00000050: 9709 3f3b 27ba 0a3f e532 f73e 7c51 ea3d
00000060: c9ae 3dbe 676e 0fbe d3b5 9c3d db4f 7cbb
00000070: 43f0 543e 89f4 1a3e ff94 20be 5da4 2abe

2.weight f4 [64, 32]
0.056723054 0.36758617 0.032829497 -0.088478364 0.08456397 -0.10747571 -0.14260621 -0.03307273
-0.14816952 -0.23423533 0.028051466 0.30442 0.05599099 -0.22351612 0.04769424 0.03688447
0.040752705 -0.21656615 0.020032594 0.0051306463 -0.10927897 -0.010372033 0.010200243 0.0904614
-0.019423205 -0.07433063 0.025346963 -0.12510152 -0.10608097 -0.11252522 0.23466629 -0.063085094
-0.3856693 0.065600075 -0.052398555 0.21850708 0.18372308 0.09790936 -0.14709932 0.17851332
-0.09351954 -0.47465417 0.23235865 0.048111755 0.07140189 0.06670045 -0.32483187 -0.29711658
-0.29161686 -0.020222805 0.01716958 0.2038798 -0.0010167622 -0.2950304 0.07081767 0.1687345
0.085557885 0.2576054 0.15983579 0.10684557 0.3876029 -0.14141867 0.018237036 0.010076059
-0.13510257 -0.26557052 0.098243475 0.14091806 -0.21204196 -0.21301828 -0.09602936 0.120900795
-0.06163914 0.03495724 0.5578362 -0.13541219 0.38040394 -0.102239795 0.071544014 -0.08649049
-0.025549786 0.0012710596 0.09859699 -0.2960337 0.18191434 0.11263579 -0.08749972 0.11526804
0.2294665 -0.0325709 0.050883617 0.21782002 -0.116385 -0.03458873 0.15833867 0.12407889
-0.064148374 0.0013357042 0.1461436 -0.10259586 -0.13090901 0.08382928 0.13329577 -0.06792474
0.21515058 0.20717023 -0.0006353366 -0.25300238 0.00020205733 0.09342478 0.06759521 -0.29554865
-0.16899404 0.22907832 -0.07685673 -0.015648732 0.10540011 -0.3687943 0.2177139 -0.015137511
-0.04672579 0.13208877 -0.15733925 0.06494066 -0.10157652 -0.0016899782 -0.24515443 -0.110608205
0.29495138 0.08456127 0.0770537 -0.113578245 0.16320826 -0.23964176 0.24898283 0.15039591
-0.1251833 0.20132743 0.014415565 -0.20151739 -0.12042302 -0.008687326 0.16568293 0.042456277
0.3962086 0.02925243 -0.31683317 -0.14253443 0.3233037 -0.1790193 -0.06126707 -0.084069595
-0.118114136 -0.14371559 -0.016340287 0.08799676 -0.08085969 -0.06164134 0.38715357 -0.35501352
0.10564038 0.22988679 -0.04121998 0.088240996 0.2248364 -0.2666698 -0.064524904 -0.1995994
0.08566081 -0.038850006 0.026100498 0.24552752 0.011317146 0.034169123 0.10543725 0.37744534
0.09366515 0.05884708 0.0757259 -0.04508043 -0.29366043 -0.068055056 -0.49702135 0.23901762
-0.032364946 -0.06653248 -0.20145115 -0.15140651 0.0675216 0.14231552 -0.08547159 0.05775255
0.41545102 0.030095272 0.22345185 -0.017956063 -0.17597999 -0.21155488 -0.18277411 0.05284556
-0.057519164 0.059249714 0.114235945 -0.13708387 -0.6799078 -0.17610653 0.16531982 0.5512202
-0.106573 -0.025285829 -0.055861313 -0.06467558 0.120958194 0.008512678 -0.022444282 -0.33403108
0.12227596 0.025517419 -0.100791804 -0.050676543 -0.044859122 -0.052227236 0.07332175 0.11143354
0.07812215 0.033531643 0.020087877 0.18259533 -0.11036863 -0.26197794 0.1902052 -0.019604625
0.039264664 -0.1888061 -0.013629534 -0.26709488 0.5035549 0.04313695 -0.0076771504 -0.182065
0.6053684 -0.025404517 0.030103296 0.18382195 -0.101205185 -0.07810072 -0.09551831 0.06466955
0.022372479 -0.2336316 -0.034701932 -0.11840714 -0.090362 -0.016991775 -0.13970529 -0.11741746
00000000: 6f56 683d 4134 bc3e 3978 063d 2534 b5bd
00000010: e02f ad3d 3a1c dcbd 5d07 12be 4577 07bd
00000020: c0b9 17be 63db 6fbe 30cc e53c f0dc 9b3e
00000030: cf56 653d 69e1 64be 095b 433d 2c14 173d
00000040: 4fec 263d 84c3 5dbe 651b a43c fb1e a83b
00000050: a7cd dfbd 76ef 29bc ec1e 273c d443 b93d
00000060: 6a1d 9fbc a83a 98bd 6fa4 cf3c 9d1a 00be
00000070: fb40 d9bd 9f73 e6bd 5c4c 703e c232 81bd
00000080: 7276 c5be 5559 863d de9f 56bd 52c0 5f3e
00000090: e721 3c3e b484 c83d 34a1 16be 32cc 363e
000000a0: 2c87 bfbd df05 f3be 6def 6d3e d510 453d
000000b0: 273b 923d 3f9a 883d 5d50 a6be aa1f 98be
000000c0: ce4e 95be 4caa a5bc 38a7 8c3c dec5 503e
000000d0: e144 85ba 390e 97be db08 913d bdc8 2c3e
000000e0: f938 af3d dbe4 833e feab 233e dad1 da3d
000000f0: e373 c63e 0ed0 10be d665 953c 0e16 253c
00000100: 5458 0abe dcf8 87be e033 c93d d34c 103e
00000110: 8721 59be 7721 5abe 0bab c4bd d69a f73d
00000120: 5379 7cbd 532f 0f3d 5ace 0e3f 7ea9 0abe
00000130: 4ec4 c23e 1963 d1bd ab85 923d ed21 b1bd
00000140: c94d d1bc af99 a63a 38ed c93d bb91 97be
00000150: c147 3a3e 98ad e63d 0e33 b3bd a611 ec3d
00000160: 44f9 6a3e 1069 05bd 576b 503d 360c 5f3e
00000170: 425b eebd eaac 0dbd 8823 223e 131d fe3d
00000180: 3960 83bd cc12 af3a aba6 153e c71d d2bd
00000190: 030d 06be b0ae ab3d b07e 083e 201c 8bbd
000001a0: 6f50 5c3e 6f24 543e b88c 26ba 8789 81be
000001b0: 5adf 5339 7e55 bf3d 5c6f 8a3d 2752 97be
000001c0: c60c 2dbe 8293 6a3e 1067 9dbd c531 80bc
000001d0: 03dc d73d 9bd2 bcbe 65f0 5e3e 5303 78bc
000001e0: 8b63 3fbd 4742 073e 8a1d 21be 9cff 843d
000001f0: 5a07 d0bd 4282 ddba c309 7bbe 8e86 e2bd
00000200: de03 973e 762e ad3d 55ce 9d3d b69b e8bd
00000210: 1120 273e a664 75be 5bf5 7e3e 6301 1a3e
00000220: 0d30 00be c728 4e3e 432f 6c3c 935a 4ebe
00000230: 58a0 f6bd 4955 0ebc c9a8 293e a2e6 2d3d
00000240: dbdb ca3e cba2 ef3c f537 a2be 8cf4 11be
00000250: 1088 a53e d650 37be 2ef3 7abd ae2c acbd
00000260: d3e5 f1bd 2e2a 13be 11dc 85bc a537 b43d
00000270: c499 a5bd a17b 7cbd fe38 c63e 55c4 b5be
00000280: fc59 d83d 7167 6b3e 48d6 28bd b2b7 b43d
00000290: 833b 663e f288 88be a225 84bd c963 4cbe
000002a0: ef6e af3d 2f21 1fbd b6d0 d53c 916b 7b3e
000002b0: 8d6b 393c ecf4 0b3d 7cef d73d 8440 c13e
000002c0: 84d3 bf3d a309 713d 2e16 9b3d 42a6 38bd
000002d0: a95a 96be 7360 8bbd 9579 febe 09c1 743e
000002e0: 1b91 04bd 2e42 88bd 3649 4ebe 4f0a 1bbe
000002f0: c448 8a3d 29bb 113e bb0b afbd f08d 6c3d
00000300: ffb5 d43e 5c8a f63c 90d0 643e 9818 93bc
00000310: 1934 34be d8a1 58be 2329 3bbe 9674 583d
00000320: 3799 6bbd d4af 723d 89f4 e93d b75f 0cbe
00000330: 700e 2ebf 4555 34be 9949 293e c41c 0d3f
00000340: f242 dabd 3a24 cfbc d5ce 64bd a174 84bd
00000350: eeb8 f73d c278 0b3c 12dd b7bc 1f06 abbe
00000360: d26b fa3d e809 d13c ef6b cebd 3592 4fbd
00000370: 33be 37bd 3aec 55bd b729 963d 4537 e43d
00000380: 81fe 9f3d 7a58 093d 558f a43c 45fa 3a3e
00000390: f308 e2bd f921 86be 27c5 423e e199 a0bc
000003a0: fcd3 203d 6356 41be 694e 5fbc a9c0 88be
000003b0: f9e8 003f 5fb0 303d 9b90 fbbb 3f6f 3abe
000003c0: 6cf9 1a3f 221d d0bc 309b f63c d23b 3c3e
000003d0: aa44 cfbd 45f3 9fbd 1b9f c3bd 7871 843d
000003e0: 7d46 b73c 1f3d 6fbe 9d23 0ebd 717f f2bd
000003f0: b60f b9bd 5632 8bbc e70e 0fbe 9178 f0bd

2.bias f4 [64]
0.1131295 -0.061762273 -0.27441245 0.17221144 -0.09246207 -0.04819537 -0.8139984 0.11515368
-0.13872132 0.10355786 -0.000632166 0.24773303 -0.48056757 -0.18573894 -0.16638212 -0.6762421
0.45237607 -0.39411652 0.15634471 -0.5510888 0.5088285 0.12805195 -0.43569767 0.052414622
-0.41374305 -0.7162201 0.023276618 0.2173615 0.2789859 -0.25011158 -0.7755319 -0.18452218
0.073052324 0.17967609 0.5179756 0.11105825 -0.0645689 -0.63192636 0.22355494 0.34567684
-0.27596948 -0.24133247 0.001169796 0.2949167 -0.14553756 0.31207383 0.2826769 -0.37822253
-0.21472819 0.17202194 0.17069645 0.34564987 0.08398341 0.41754138 -0.0020012166 0.2756575
0.025127525 0.26576808 -0.5462567 0.016361695 -0.1721365 0.3160929 -0.34801075 -0.09175128
00000000: 70b0 e73d 70fa 7cbd ca7f 8cbe 3258 303e
00000010: c15c bdbd 8268 45bd 3362 50bf b1d5 eb3d
00000020: f60c 0ebe 2516 d43d f1b7 25ba baad 7d3e
00000030: f40c f6be 5932 3ebe 1360 2abe 341e 2dbf
00000040: d69d e73e a4c9 c9be d418 203e 2814 0dbf
00000050: 9642 023f 0d20 033e c413 dfbe b7b0 563d
00000060: 21d6 d3be 335a 37bf 9bae be3c 0394 5e3e
00000070: 3dd7 8e3e a00e 80be 4289 46bf 62f3 3cbe
00000080: 759c 953d 02fd 373e 0d9a 043f 8272 e33d
00000090: b33c 84bd edc5 21bf 96eb 643e 8efc b03e
000000a0: df4b 8dbe dc1f 77be d753 993a 52ff 963e
000000b0: cc07 15be 24c8 9f3e 07bb 903e 62a6 c1be
000000c0: b5e1 5bbe 8526 303e 0dcb 2e3e 05f9 b03e
000000d0: 7eff ab3d fcc7 d53e d826 03bb fb22 8d3e
000000e0: 3dd8 cd3c c112 883e 7bd7 0bbf f608 863c
000000f0: 8d44 30be eed6 a13e 772e b2be 18e8 bbbd

4.weight f4 [128, 64]
0.06427029 -0.073324606 -0.09423833 0.0085114725 0.03177336 0.17262886 4.196398e-05 0.033260554
0.08087062 -0.09664184 0.10271606 0.024117768 -0.02048597 0.081839375 -0.071632996 -0.0049710907
-0.03293095 -0.17514879 -0.04509253 0.0011406695 0.03611846 0.08473497 -0.06298178 0.010713373
0.00136548 0.015826713 -0.1335586 0.060216777 -0.045828924 -0.082522415 0.038148355 -0.09750684
0.15530172 0.11329444 -0.061756514 -0.060582418 0.11012877 -0.12329758 0.1832185 0.10565429
0.02857542 -0.23028207 0.051130906 -0.069566086 -0.08285633 -0.0755745 0.0008831238 -0.047670323
0.071624935 0.04464283 0.038176905 0.08782503 -0.15134962 0.081638895 0.048392095 -0.1326914
0.09242576 0.15515946 -0.011871629 0.00083140464 0.12216684 -0.15132876 -0.07704687 -0.13502951
-3.0559127e-05 -0.00018692105 -0.001381679 0.0019625695 -0.0011643672 -0.002768172 1.33393705e-05 -0.0014411327
-0.0007207416 -0.0007286124 0.00030454563 -9.906556e-06 0.00040967888 -0.0029044375 0.00024051813 -0.0021850434
-0.0013042233 -0.0013906562 -0.0023414285 -0.00035325618 -0.00069167884 -0.0006144133 0.00106527 0.00033653947
0.0007191923 -0.002791427 -0.0018596939 -0.00038068448 -0.003273964 -0.00040262382 -0.0007652741 6.406608e-05
-0.0044683837 -0.0022575182 -0.0030095356 -0.0010156935 -2.2624095e-06 -0.00010945641 -0.00057941396 -0.00024750296
-0.0001408878 -0.0020933151 -0.00044764567 -0.0010321713 -1.986772e-05 -0.0026530363 0.0012992196 -0.00031180592
0.00019541591 -0.00037044784 -0.00047985627 0.00023932672 0.0002483877 -0.0008240053 0.00038118212 -0.00071944785
-0.002862828 2.5287607e-05 9.9974044e-05 -0.0005808431 -0.0028150799 -0.0012209377 -0.004099792 -0.0027622946
0.023573192 0.16559209 -0.17404617 -0.02455545 -0.010967198 0.041017313 -0.16005479 0.18896852
-0.08605933 -0.10504786 0.10869112 0.038334012 0.024011504 -0.019405078 -0.09776907 0.047271308
0.08028235 0.014126329 -0.1836324 -0.24723262 -0.14641078 -0.022764776 -0.095632195 -0.031369414
-0.078783564 -0.17885399 0.009022546 -0.104922175 0.074565485 0.07855459 -0.25501084 0.059126075
-0.13031149 -0.025060726 -0.03498399 -0.104942 -0.09385073 -0.023348484 0.04943286 0.17544019
-0.02642448 -0.01514289 -0.08231491 -0.13357815 0.15270354 0.06586418 0.016221417 -0.030769762
-0.092179745 -0.14320123 0.0004191412 0.09616966 0.03891558 0.13641313 -0.090122804 -0.07635374
-0.22739097 -0.0684433 -0.022155968 -0.036716245 0.16362664 0.030804306 0.073617354 -0.18248788
0.06164185 -0.07056103 0.01091176 0.06476115 0.08420312 0.043776106 -0.026066465 -0.13200423
-0.12886822 -0.19805315 0.17912152 -0.047668878 0.10027119 -0.13057157 0.026028855 -0.0038433103
-0.13208435 -0.030427666 -0.10825806 0.10796178 0.037014082 0.06341953 -0.06884635 0.09203399
0.031457137 -0.097313635 0.17761116 -0.028625218 0.10522782 0.10844891 0.09379804 -0.07568313
-0.050872944 -0.019019146 0.07100974 0.089118555 0.15109774 -0.003259841 -0.0025810357 0.043386072
0.08379699 -0.07342436 0.055279084 0.09745828 0.062487423 -0.09577774 -0.19620632 -0.048102904
0.0029233324 0.0914565 0.032954272 0.085853584 0.077012956 -0.033608343 -0.030952787 -0.067781605
-0.08935834 -0.05206955 -0.0793065 0.08942289 -0.15248889 -0.06852859 -0.15643887 0.078523844
00000000: 24a0 833d 362b 96bd 0700 c1bd b473 0b3c
00000010: c824 023d 9fc5 303e 7b02 3038 383c 083d
00000020: 7f9f a53d 28ec c5bd cc5c d23d a092 c53c
00000030: 31d2 a7bc 679b a73d 52b4 92bd 88e4 a2bb
00000040: 9be2 06bd 345a 33be f2b2 38bd 8482 953a
00000050: f3f0 133d 8789 ad3d 97fc 80bd 2587 2f3c
00000060: e8f9 b23a 06a7 813c 96c3 08be dea5 763d
00000070: 1cb7 3bbd 8301 a9bd 7341 1c3d abb1 c7bd
00000080: 6a07 1f3e ea06 e83d 66f4 7cbd 4525 78bd
00000090: 318b e13d 7183 fcbd a19d 3b3e 4761 d83d
000000a0: 0017 ea3c 10cf 6bbe a46e 513d aa78 8ebd
000000b0: 94b0 a9bd cec6 9abd 6f81 673a f541 43bd
000000c0: 18b0 923d 66db 363d 635f 1c3d 9cdd b33d
000000d0: 65fb 1abe 4b32 a73d ca36 463d 41e0 07be
000000e0: b849 bd3d 1fe2 1e3e 3981 42bc 9ff2 593a
000000f0: 9c32 fa3d edf5 1abe c0ca 9dbd 2d45 0abe
00000100: 9d2c 00b8 3d00 44b9 7419 b5ba 749e 003b
00000110: ae9d 98ba 386a 35bb 29cc 5f37 64e4 bcba
00000120: 26f0 3cba 5a00 3fba 6cab 9f39 5634 26b7
00000130: 2bca d639 6058 3ebb 9833 7c39 f232 0fbb
00000140: 79f2 aaba ae46 b6ba a772 19bb 3e35 b9b9
00000150: c851 35ba 9410 21ba 88a0 8b3a 9071 b039
00000160: 2e88 3c3a 60f0 36bb f9c0 f3ba 9b96 c7b9
00000170: 0090 56bb 4117 d3b9 ad9c 48ba 375b 8638
00000180: 856b 92bb dff2 13bb a13b 45bb 0521 85ba
00000190: e6d3 17b6 f68b e5b8 d0e3 17ba 49c3 81b9
000001a0: 48bb 13b9 0030 09bb fcb1 eab9 ec49 87ba
000001b0: 9ba9 a6b7 90de 2dbb 934a aa3a e279 a3b9
000001c0: 8fe8 4c39 ab38 c2b9 3895 fbb9 c7f3 7a39
000001d0: 083a 8239 0f02 58ba 66d9 c739 5499 3cba
000001e0: 499e 3bbb b920 d437 28a9 d138 b843 18ba
000001f0: 347d 38bb df07 a0ba 8c57 86bb 9d07 35bb
00000200: 911c c13c f990 293e 2939 32be 8328 c9bc
00000210: c3af 33bc c501 283d 67e5 23be f780 413e
00000220: e03f b0bd 5523 d7bd 7399 de3d 2004 1d3d
00000230: c6b3 c43c 66f7 9ebc 263b c8bd 8f9f 413d
00000240: 136b a43d 1e72 673c 220a 3cbe 8c2a 7dbe
00000250: b5ec 15be 327d babc d0da c3bd 377d 00bd
00000260: 4759 a1bd 8025 37be 4dd3 133c 70e1 d6bd
00000270: cab5 983d 3be1 a03d c890 82be 2f2e 723d
00000280: 6070 05be 274c cdbc 5f4b 0fbd d5eb d6bd
00000290: d034 c0bd 5245 bfbc 1c7a 4a3d 98a6 333e
000002a0: 2778 d8bc e219 78bc b894 a8bd b6c8 08be
000002b0: 515e 1c3e cde3 863d c7e2 843c de10 fcbc
000002c0: bcc8 bcbd 58a3 12be 2ec0 db39 99f4 c43d
000002d0: f165 1f3d e2af 0b3e 4e92 b8bd 5a5f 9cbd
000002e0: 2ed9 68be 002c 8cbd 6f80 b5bc c663 16bd
000002f0: be8d 273e 5059 fc3c b2c4 963d 1ade 3abe
00000300: 2a7c 7c3d 4d82 90bd 3dc7 323c 7ea1 843d
00000310: af72 ac3d 934e 333d 5789 d5bc 1e2c 07be
00000320: 08f6 03be 72ce 4abe a26b 373e 7140 43bd
00000330: fb5a cd3d 8eb4 05be 773a d53c 0ce0 7bbb
00000340: 1f41 07be 7143 f9bc 67b6 ddbd 111b dd3d
00000350: 149c 173d 19e2 813d 51ff 8cbd 517c bc3d
00000360: 33d9 003d 5f4c c7bd b3df 353e 6f7f eabc
00000370: af81 d73d 761a de3d 3019 c03d c2ff 9abd
00000380: 2660 50bd 0ace 9bbc 8e6d 913d ca83 b63d
00000390: 5eb9 1a3e 0ea3 55bb 9826 29bb 98b5 313d
000003a0: c29d ab3d 835f 96bd 526c 623d 3598 c73d
000003b0: d0f2 7f3d 1f27 c4bd 4fea 48be 8d07 45bd
000003c0: 6195 3f3b 8c4d bb3d 0ffb 063d 01d4 af3d
000003d0: f8b8 9d3d e7a8 09bd b390 fdbc 15d1 8abd
000003e0: 8101 b7bd e146 55bd 726b a2bd 5923 b73d
000003f0: 0c26 1cbe b858 8cbd 8331 20be 1cd1 a03d

4.bias f4 [128]
0.012496608 -0.003976896 0.11946088 0.027610697 0.053426117 -0.08598031 -0.0013077975 -0.34109354
-0.01923821 -0.13116367 -0.0038934264 -0.0116592245 -0.19074497 0.09905882 -0.04057245 -0.002758395
0.24296363 0.16273007 -0.16118461 -0.0014330784 -0.016748365 -0.16071433 -0.18195681 -0.064926594
-0.21441947 -0.08938301 -0.0048663495 0.19689834 -0.0052155303 0.06885901 0.44002974 -0.09556109
0.18427266 -0.09384869 -0.02080166 -0.11324813 -0.5019877 -0.13609488 -0.22459485 -0.34039885
-0.22861743 0.034920234 -0.13000359 -0.030912349 0.25563005 -0.04478542 -0.06613794 0.14626595
0.18229298 -0.10277979 0.03968824 0.1861767 -0.025870526 0.3072633 -0.60824287 0.14982362
-0.20033923 -0.11805953 -0.0181168 -0.24785861 0.043685105 -0.18407792 -0.14092714 -0.28441226
-0.51599395 -0.088168725 0.019281898 -0.07304952 0.10154961 0.08112068 0.04077393 0.06782034
-0.0028473241 -0.21385476 0.040829536 -0.03232625 -0.0042032963 0.092479914 -0.13807124 -0.25803575
-0.14154778 0.27179185 0.018315507 0.10424965 -0.18103556 0.1893314 -0.2264316 0.29695898
0.28649312 -0.0050228518 0.022986874 -0.15827192 0.19781297 0.1924635 -0.09730904 -0.051958196
-0.0025456678 -0.3777055 -0.32145214 0.09477769 0.2336958 -0.026871376 0.09107571 0.12289834
-0.3347649 -0.060458556 -2.3571107e-07 -0.16864207 0.04638057 -0.101146445 -0.33301592 -0.20187502
-0.09600458 -0.08150869 0.0036007739 -0.11078524 0.076516986 0.0024460605 0.088070065 0.011526613
0.06752781 -0.042090423 0.11930982 -0.028750181 0.13040803 -0.03204939 0.123156875 -0.22578745
00000000: 93be 4c3c 9f50 82bb e8a7 f43d d42f e23c
00000010: 58d5 5a3d 7216 b0bd 676a abba d0a3 aebe
00000020: 7399 9dbc c54f 06be db28 7fbb 5506 3fbc
00000030: a652 43be 5adf ca3d 4c2f 26bd 30c6 34bb
00000040: 75cb 783e b6a2 263e 940d 25be 22d6 bbba
00000050: de33 89bc 4c92 24be e352 3abe 3cf8 84bd
00000060: c790 5bbe 710e b7bd e675 9fbb b89f 493e
00000070: 0ae7 aabb f405 8d3d 944b e13e 88b5 c3bd
00000080: f9b1 3c3e be33 c0bd 3e68 aabc a3ee e7bd
00000090: 4482 00bf 755c 0bbe 31fc 65be c248 aebe
000000a0: b01a 6abe 8508 0f3d a91f 05be e53b fdbc
000000b0: f1e1 823e eb70 37bd 5473 87bd bec6 153e
000000c0: 03ab 3a3e 367e d2bd 2390 223d 1ba5 3e3e
000000d0: 6dee d3bc 9e51 9d3e ceb5 1bbf 5d6b 193e
000000e0: ba25 4dbe 32c9 f1bd af69 94bc a6ce 7dbe
000000f0: 27ef 323d ec7e 3cbe 344f 10be 7c9e 91be
00000100: 2e18 04bf ce91 b4bd 12f5 9d3c fd9a 95bd
00000110: 3ef9 cf3d 9922 a63d 9002 273d 64e5 8a3d
00000120: 2c9a 3abb befc 5abe df3c 273d 8868 04bd
00000130: cebb 89bb 1c66 bd3d 8c62 0dbe 431d 84be
00000140: e7f1 10be 4d28 8b3e 670a 963c d780 d53d
00000150: 6361 39be 17e0 413e afdd 67be 020b 983e
00000160: 3aaf 923e bc96 a4bb f84e bc3c 0912 22be
00000170: 7c8f 4a3e 2715 453e f649 c7bd 1ed2 54bd
00000180: 38d5 26bb 9e62 c1be 6095 a4be ce1a c23d
00000190: f44d 6f3e 5c21 dcbc e785 ba3d 20b2 fb3d
000001a0: 4e66 abbe 64a3 77bd c417 7db4 82b0 2cbe
000001b0: 8df9 3d3d de25 cfbd 1081 aabe 53b8 4ebe
000001c0: 0d9e c4bd 07ee a6bd f6fa 6b3b 5fe3 e2bd
000001d0: f0b4 9c3d 164e 203b 145e b43d 1eda 3c3c
000001e0: 054c 8a3d 0267 2cbd b558 f43d 8085 ebbc
000001f0: af89 053e 3946 03bd ac39 fc3d d334 67be

6.weight f4 [256, 128]
-6.662e-42 -1.7518e-41 -4.165e-42 -2.374e-42 -5.34e-42 -3.36e-43 -3.046e-42 -5.241e-42
-3.725e-42 -4.096e-42 -3.306e-42 -1.0874e-41 -5.937e-42 -3.803e-42 -2.442e-42 6.1587e-41
-6.519e-42 -1.914e-42 -5.395e-42 8.61e-42 -2.168e-42 8.062e-42 7.612e-42 7.511e-42
-7.044e-42 -3.53e-43 -5.1384e-41 3.415e-42 8.064e-42 -7.009e-42 8.59e-43 -3.708e-42
7.498e-42 2.803e-42 9.111e-42 -7.463e-42 2.235e-42 9.68e-42 -8.269e-42 -6.052e-42
-1.387e-42 2.039e-42 -6.87e-42 7.113e-42 -8.995e-42 2.742e-42 -4.61e-42 8.064e-42
-1.784e-42 6.075e-42 4.623e-42 -6.265e-42 7.81e-42 -3.37e-42 -5.025e-42 -7.665e-42
7.922e-42 1.1074e-41 4.294e-42 4.195e-42 -8.587e-42 2.808e-42 -2.705e-42 5.625e-42
-7.559e-42 2.127e-42 -5.576e-42 8.638e-42 -2.061e-42 -4.298e-42 -2.765e-42 2.822e-42
-8.62e-43 -1.293e-42 -8.657e-42 -3.676e-42 3.5035e-41 7.606e-42 4.228e-42 4.103e-42
8.043e-42 1.677e-42 -9.387e-42 8.457e-42 -7.205e-42 2.538e-42 -3.25e-43 -4.191e-42
2.653e-42 -3.9774e-41 -1.582e-42 -4.9e-42 -3.149e-42 -1.778e-42 7.71e-43 9.219e-42
2.2101e-41 -4.872e-42 6.878e-42 -4.375e-42 3.71e-42 5.806e-42 -2.824e-42 -5.57e-42
-3.174e-42 5.653e-42 3.1664e-41 -1.833e-42 -6.121e-42 1.149e-42 -1.111e-42 -4.877e-42
-8.405e-42 -1.49e-42 -2.609e-42 -7.496e-42 -9.63e-43 6.94e-43 4.16e-42 -1.86e-42
1.0143e-41 7.86e-43 -1.4903e-41 3.01e-42 9.68e-43 -1.202e-42 5.885e-42 6.809e-42
-5.5517568e-15 -1.5934e-41 -5.388e-42 8.668e-42 -1.0982945e-21 4.473e-42 3.666e-42 -4.243e-42
-2.2863668e-22 -5.625e-42 4.907e-42 -3.373e-42 -2.367e-42 -2.905e-42 -2.0980191e-14 5.0403e-41
-2.2005306e-11 -6.768e-42 -1.649496e-37 -2.8355111e-12 3.982e-42 9.657975e-39 -2.499827e-19 -2.1193209e-13
-2.204e-42 3.241e-42 -2.6144e-41 -9.887722e-31 -2.1818454e-21 -6.498495e-23 -7.150919e-08 -4.3511045e-21
-1.2494404e-16 -3.192e-42 -3.072e-42 -7.8095906e-13 -1.0664e-41 -2.2871905e-22 7.5286525e-23 2.193452e-35
-3.09e-42 2.3189742e-15 6.899e-42 2.0734115e-35 -6.793e-42 -6.67e-43 -1.2040269e-38 -1.0717045e-17
-3.8054966e-07 -7.12936e-12 6.606e-42 -6.180244e-22 -1.8007088e-23 -3.138545e-08 -5.333289e-23 3.52e-43
-8.916596e-11 -7.829e-42 -2.0051902e-16 -6.3785723e-17 -5.556e-42 -2.025628e-14 -2.1255667e-18 -1.9144832e-24
-3.154e-42 -6.0209824e-27 -1.8104837e-27 -6.683e-42 -4.529234e-33 -7.04736e-26 -5.17e-43 -1.6521576e-20
-1.32e-42 -6.545419e-16 -1.295103e-16 7.015e-42 3.0185e-41 -6.9e-43 -2.7287924e-17 -3.96e-42
1.66358e-40 -6.779125e-10 3.8e-44 3.42e-43 5.831e-42 2.8323366e-34 -5.1047944e-26 -3.2361686e-07
-3.352744e-12 5.6247e-41 -3.7090003e-13 -5.675e-42 -8.109666e-09 -1.2628241e-19 -5.087e-42 6.01e-43
-2.4988e-41 -7.535419e-12 5.59e-43 3.803e-42 -2.7046556e-18 -4.874e-42 -1.4439117e-11 -2.0370887e-11
-4.5656516e-14 -1.795e-42 5.7351e-41 -3.4495948e-22 -3.7304244e-13 -6.239e-42 6.597e-42 -5.0031897e-12
-1.7521908e-14 5.013779e-13 6.466e-42 1.817e-42 -1.5789593e-25 -3.363e-42 -4.5e-42 -1.5293804e-38
-2.878e-42 -5.741e-42 -8.609873e-17 6.7957245e-35 9.63e-43 -3.434911e-18 2.42e-42 -3.97e-43
00000000: 9212 0080 d530 0080 9c0b 0080 9e06 0080
00000010: e30e 0080 f000 0080 7e08 0080 9c0e 0080
00000020: 620a 0080 6b0b 0080 3709 0080 501e 0080
00000030: 8d10 0080 9a0a 0080 cf06 0080 aeab 0000
00000040: 2c12 0080 5605 0080 0a0f 0080 0018 0000
00000050: 0b06 0080 7916 0000 3815 0000 f014 0000
00000060: a313 0080 fc00 0080 3d8f 0080 8509 0000
00000070: 7b16 0000 8a13 0080 6502 0000 560a 0080
00000080: e714 0000 d007 0000 6619 0000 ce14 0080
00000090: 3b06 0000 fc1a 0000 0d17 0080 df10 0080
000000a0: de03 0080 af05 0000 2713 0080 d413 0000
000000b0: 1319 0080 a507 0000 da0c 0080 7b16 0000
000000c0: f904 0080 ef10 0000 e30c 0000 7711 0080
000000d0: c515 0000 6509 0080 020e 0080 5e15 0080
000000e0: 1516 0000 df1e 0000 f80b 0000 b20b 0000
000000f0: f017 0080 d407 0000 8a07 0080 ae0f 0000
00000100: 1215 0080 ee05 0000 8b0f 0080 1418 0000
00000110: bf05 0080 fb0b 0080 b507 0080 de07 0000
00000120: 6702 0080 9b03 0080 2218 0080 3f0a 0080
00000130: aa61 0000 3415 0000 c90b 0000 700b 0000
00000140: 6c16 0000 ad04 0000 2b1a 0080 9317 0000
00000150: 1614 0080 1307 0000 e800 0080 af0b 0080
00000160: 6507 0000 e06e 0080 6904 0080 a90d 0080
00000170: c708 0080 f504 0080 2602 0000 b319 0000
00000180: 9c3d 0000 950d 0080 2c13 0000 320c 0080
00000190: 580a 0000 2f10 0000 df07 0080 870f 0080
000001a0: d908 0080 c20f 0000 4458 0000 1c05 0080
000001b0: 1011 0080 3403 0000 1903 0080 980d 0080
000001c0: 6e17 0080 2704 0080 4607 0080 e514 0080
000001d0: af02 0080 ef01 0000 990b 0000 2f05 0080
000001e0: 461c 0000 3102 0000 8b29 0080 6408 0000
000001f0: b302 0000 5a03 0080 6810 0000 fb12 0000
00000200: eb05 c8a7 6b2c 0080 050f 0080 2a18 0000
00000210: 36f8 a59c 780c 0000 380a 0000 d40b 0080
00000220: d033 8a9b ae0f 0080 ae0d 0000 6709 0080
00000230: 9906 0080 1908 0080 07f9 bca8 818c 0000
00000240: 8b8f c1ad de12 0080 8c84 6082 0788 47ac
00000250: 1a0b 0000 812a 6900 5190 93a0 449d 6eaa
00000260: 2506 0080 0909 0000 e148 0080 fe6f a08d
00000270: 07db 249d bc1f 9d9a 9890 99b3 4d61 a49d
00000280: f90c 10a5 e608 0080 9008 0080 08d2 5bab
00000290: ba1d 0080 8f40 8a9b 1a08 b61a 713f e905
000002a0: 9d08 0080 8619 2727 3b13 0000 a17b dc05
000002b0: f012 0080 dc01 0080 5f1b 8380 d0b1 45a3
000002c0: 594e ccb4 91d7 faac 6a12 0000 52c9 3a9c
000002d0: 6427 ae99 abcc 06b3 76f3 809a fb00 0000
000002e0: f913 c4ae d315 0080 c52e 67a5 7214 93a4
000002f0: 7d0f 0080 cd73 b6a8 d2d6 1ca2 3f20 1498
00000300: cb08 0080 0484 ee93 f970 0f93 a112 0080
00000310: 1423 bc89 f37b ae95 7101 0080 b80a 9c9e
00000320: ae03 0080 aba8 3ca6 b250 15a5 8e13 0000
00000330: 2554 0000 ec01 0080 caaf fba3 0a0b 0080
00000340: bdcf 0100 da57 3ab0 1b00 0000 f400 0000
00000350: 4110 0000 b63d bc07 f5c6 7c95 90bd adb4
00000360: abed 6bac cb9c 0000 54cc d0aa d20f 0080
00000370: b052 0bb2 8416 15a0 2e0e 0080 ad01 0000
00000380: a845 0080 8390 04ad 8f01 0000 9a0a 0000
00000390: 8091 47a2 960d 0080 0004 7ead 292f b3ad
000003a0: 619e 4da9 0105 0080 df9f 0000 e583 d09b
000003b0: 1501 d2aa 6411 0080 6412 0000 ba08 b0ac
000003c0: c5d2 9da8 1620 0d2b 0612 0000 1105 0000
000003d0: 3877 4396 6009 0080 8b0c 0080 e788 a680
000003e0: 0608 0080 0110 0080 b887 c6a4 4ea9 b406
000003f0: af02 0000 a273 7da2 bf06 0000 1b01 0080

6.bias f4 [256]
-6.1371845e-31 -1.8442932e-05 -0.03811102 -8.80167e-05 -0.0024788897 0.0019065834 -0.013412732 -0.0032030784
0.0070378846 -0.00084241066 -0.0016810104 -2.4465365e-07 -0.14361341 -0.0008967859 -0.14645809 -0.30270457
0.019819967 0.03429708 -1.6021681e-06 -0.28009978 -0.0043287342 -7.0464835e-29 -0.3488819 -0.056565944
0.0140953045 -0.00438715 -0.006394609 0.08425376 -0.22390749 -0.06587021 -0.0075756134 -6.9105425e-07
-0.0009365017 -0.002337778 -0.0001789761 -0.021514012 -0.080768764 -0.00061059627 -0.0299587 -5.362317e-07
-0.0032883214 -0.0037288754 -0.00156287 -0.065425 -0.0007317516 -0.0076751513 -0.0020316965 -0.10547915
-0.032879397 -2.3297017e-18 -0.04645611 -0.16246015 -0.0013020678 -0.17769167 -0.0046379203 -7.3728936e-24
-0.07763172 -0.030616594 -0.00010341209 -0.076918714 -5.319912e-18 -0.0022947004 -9.5664573e-11 0.07726393
-0.006880786 -0.0041028014 -0.008807344 0.024559248 -0.00048037493 -0.050571542 -3.74586e-06 0.009881182
-7.182878e-11 -1.5167636e-07 -0.0071321363 -0.1522948 -0.0022700264 -0.019394238 0.010688682 -0.00808426
-0.002150961 0.00012660047 -0.09355951 -0.02859853 -0.06873338 -0.00011701197 -0.04288605 -0.01630142
-0.10340135 -0.0069147283 -0.008826747 -7.6016444e-21 0.020304935 -1.1363065e-09 -2.2761585e-06 -5.6167735e-20
-0.057477377 -0.006777768 -0.068616316 -0.13622494 0.030775739 -0.12226549 -0.04566526 0.059976332
0.042066354 -0.001544412 -0.011776451 -0.0056800065 -0.03417907 -0.043991398 -0.005694943 -0.10726022
-0.005696183 -0.08954537 -0.003423081 0.015566901 -0.004780322 -0.14650989 -5.6111917e-18 -0.10689811
-0.002185928 -0.004547424 -1.9769412e-05 -0.0032307515 -0.003961907 -0.0021666093 -0.08346649 -0.005963521
-0.0030698879 -0.012694259 -0.20710899 -0.0010032112 -0.00032123137 -3.1562124e-08 -0.23240374 -7.083445e-06
-0.0024973338 -0.00048554115 -0.0060270187 -0.0028225263 -1.2159606e-12 -5.4765194e-05 -0.00013324653 0.020395221
-0.0037923283 -0.0032262334 -1.2926665e-08 -1.6003067e-22 -0.004396137 -0.3779437 -0.0008159277 -7.542571e-09
0.022024274 -0.124547474 0.048974004 0.07017362 -0.0039250674 -0.11567414 -6.530916e-14 0.036200978
-0.008940498 -0.007962938 -0.0005100759 -0.02724042 -0.0202375 0.052595016 -2.2850237e-11 -0.09966133
-0.0041493042 -1.766295e-07 -0.049557928 -8.528488e-10 -0.009900363 -0.0037398562 0.0071158223 -0.004760636
-0.0005874172 -0.0043528345 0.00010366966 -0.14778318 -0.0019491096 0.011366177 -7.0066044e-25 -0.24457759
-0.07086369 -0.09425693 -0.022894377 -4.080279e-19 -0.2582288 -0.28992394 -0.057414 -0.000905704
0.049922135 -1.3353132e-07 -0.004187968 -3.9953183e-11 -1.7147016e-12 -1.36339375e-08 -0.11282621 -0.21672726
-0.00019264921 -0.014536121 -0.0066581042 0.014185971 -5.3416956e-05 -0.16680254 -0.00094560406 -0.12736088
-1.2465276e-10 -0.0012851062 -0.20720637 0.032790918 -0.07870443 -2.6047226e-06 -6.276714e-07 -0.22599442
-0.0015602557 -0.006504782 -0.2626348 -5.8545407e-08 -0.000697523 -0.30903113 -0.003234868 -0.10406651
-0.17906973 -0.48700935 -7.759577e-16 0.0590446 -0.02379179 -3.8804566e-28 -0.00066703034 -0.0015440955
-7.898561e-05 -0.0021247596 0.013310267 -0.0024399278 -0.08137954 -0.060985953 -0.06846533 -0.09797966
-0.15239558 -0.041687123 0.036500897 -0.07886965 -0.00603332 -0.11963422 0.0372429 -0.0030265083
-0.006082868 -8.757914e-17 -0.027758662 -1.1165465e-05 -5.9890235e-15 0.06016882 -0.004012017 0.10022553
00000000: bc29 478d e5b5 9ab7 4d1a 1cbd 9b95 b8b8
00000010: de74 22bb 53e6 f93a 13c1 5bbc bdea 51bb
00000020: 0e9e e63b 39d5 5cba 5955 dcba f158 83b4
00000030: 650f 13be 4816 6bba 1cf9 15be 18fc 9abe
00000040: 7c5d a23c 187b 0c3d 140a d7b5 3d69 8fbe
00000050: 0ed8 8dbb 4ba6 b290 a6a0 b2be b1b1 67bd
00000060: feef 663c 15c2 8fbb de89 d1bb 3c8d ac3d
00000070: 0148 65be f6e6 86bd da3c f8bb e380 39b5
00000080: 917f 75ba 6835 19bb 88ab 3bb9 273e b0bc
00000090: 186a a5bd 6c10 20ba f36b f5bc 90f1 0fb5
000000a0: e180 57bb 2660 74bb 37d9 ccba 8bfd 85bd
000000b0: 05d3 3fba d67f fbbb 3626 05bb 7405 d8bd
000000c0: 8cac 06bd d2e6 2ba2 c348 3ebd f45b 26be
000000d0: 25aa aaba cef4 35be b2f9 97bb cd9c 0e99
000000e0: 61fd 9ebd a7cf fabc f1de d8b8 8f87 9dbd
000000f0: 2645 c4a2 af62 16bb 5e5e d2ae 8d3c 9e3d
00000100: 3778 e1bb cb70 86bb ae4c 10bc 7a30 c93c
00000110: d5da fbb9 1b24 4fbd 6361 7bb6 aee4 213c
00000120: 02f4 9dae 7bdc 22b4 b2b4 e9bb 2bf3 1bbe
00000130: b9c4 14bb aae0 9ebc 951f 2f3c d873 04bc
00000140: 23f7 0cbb 0ec0 0439 219c bfbd 7747 eabc
00000150: 16c4 8cbd 5364 f5b8 48a9 2fbd 8e8a 85bc
00000160: 16c4 d3bd f294 e2bb 0f9e 10bc 4c97 0f9e
00000170: 8956 a63c 3b2c 9cb0 1bc0 18b6 509f 849f
00000180: 666d 6bbd 0a18 debb b686 8cbd 8d7e 0bbe
00000190: 671d fc3c 5466 fabd 7f0b 3bbd bea9 753d
000001a0: c54d 2c3d de6d caba 04f2 40bc 591f babb
000001b0: 5aff 0bbd 5330 34bd a59c babb 3fab dbbd
000001c0: 0ca7 babb 9063 b7bd c555 60bb 510c 7f3c
000001d0: 3fa4 9cbb b006 16be 3504 cfa2 65ed dabd
000001e0: c941 0fbb 8f02 95bb 7dd6 a5b7 04bb 53bb
000001f0: e2d2 81bb acfd 0dbb 7bf0 aabd a469 c3bb
00000200: 2c30 49bb 95fb 4fbc 6114 54be 2f7e 83ba
00000210: f26a a8b9 ec8e 07b3 3ffb 6dbe 54ae edb6
00000220: 4faa 23bb 3b90 feb9 4c7e c5bb 22fa 38bb
00000230: 9921 abab aeb3 65b8 18b8 0bb9 e113 a73c
00000240: b688 78bb 376f 53bb 1314 5eb2 1877 419b
00000250: 780d 90bb d681 c1be fbe3 55ba 9494 01b2
00000260: 406c b43c bf12 ffbd f798 483d 30b7 8f3d
00000270: da9d 80bb 90e6 ecbd 2b10 93a9 7a47 143d
00000280: 2b7b 12bc fc76 02bc 9db6 05ba 4d27 dfbc
00000290: 1dc9 a5bc df6d 573d 29fe c8ad 3d1b ccbd
000002a0: e3f6 87bb 8ca7 3db4 41fd 4abd e66d 6ab0
000002b0: 2235 22bc 6018 75bb d82b e93b 1cff 9bbb
000002c0: e7fc 19ba 39a2 8ebb 3a69 d938 7954 17be
000002d0: 4479 ffba 3439 3a3c 0ad8 5897 8c72 7abe
000002e0: fb20 91bd c709 c1bd fd8c bbbc 6fdb f0a0
000002f0: 9136 84be e970 94be f12a 6bbd c46c 6dba
00000300: 277b 4c3d cf60 0fb4 393b 89bb 49b7 2fae
00000310: a352 f1ab b13a 6ab2 6e11 e7bd c0ed 5dbe
00000320: e101 4ab9 e928 6ebc 3a2c dabb 466c 683c
00000330: 050c 60b8 49ce 2abe 6ae2 77ba e46a 02be
00000340: a20e 09af 0271 a8ba e82d 54be c54f 063d
00000350: ca2f a1bd cbcc 2eb6 407d 28b5 156b 67be
00000360: 7e81 ccba 1126 d5bb 1278 86be 5b73 7bb3
00000370: fad9 36ba 5439 9ebe 1400 54bb d320 d5bd
00000380: 0e5e 37be 4a59 f9be 93a7 5fa6 c0d8 713d
00000390: 00e7 c2bc 02f4 f591 a6db 2eba 3f63 caba
000003a0: 14a5 a5b8 8d3f 0bbb 4e13 5a3c 32e7 1fbb
000003b0: 51aa a6bd 68cc 79bd 8d37 8cbd 8fa9 c8bd
000003c0: 960d 1cbe 1ec0 2abd f781 153d 6986 a1bd
000003d0: 28b3 c5bb c902 f5bd 038c 183d 6258 46bb
000003e0: cc52 c7bb 99f1 c9a4 2266 e3bc 4f53 3bb7
000003f0: fec6 d7a7 9573 763d 3d77 83bb 0b43 cd3d

8.weight f4 [128, 256]
2.186e-41 1.875e-41 0.0003865149 -9.609e-42 5.082212e-18 -0.002477217 -0.0018872517 1.3216395e-18
-0.0036430603 5.3566e-41 5.3792e-41 5.52e-42 -0.000652705 1.6034477e-19 -0.0014757215 0.00061483827
-0.0039288397 -0.0023263183 -2.5380605e-12 -0.0005657427 -5.4836886e-07 -5.5962e-41 -0.00021636371 -0.0010052952
-0.00062293984 3.029048e-10 3.7841893e-33 -0.00031167618 -0.00087357697 -0.0015296177 3.1922848e-16 -1.6884e-41
-5.8618e-41 5.8182e-41 4.5594e-41 0.00035554316 -0.00058086135 1.0911357e-24 0.00037931136 6.0005e-41
6.1604e-41 -2.5904445e-05 5.342e-41 0.0011551348 3.2785e-41 9.391518e-09 9.289e-42 -0.0024746654
-0.0015358779 1.783023e-39 -0.0010563831 -0.0013445072 1.5333e-41 9.5439405e-05 2.2779852e-24 -4.3439e-41
-0.0024934534 -0.0010565913 5.6597e-41 -0.00044566017 -2.9077e-41 1.8453519e-23 -3.5391e-41 1.197738e-05
2.3894087e-21 -5.4653e-41 -1.09137154e-07 0.00065947825 -5.5898e-41 0.0039229803 1.969e-41 -0.0035255654
3.3128285e-14 3.123154e-11 -2.5718905e-10 -0.00078437635 -5.4539e-41 0.0016974631 -0.0020203802 -5.9911727e-05
3.9346e-41 1.371364e-07 -0.0015427374 6.16704e-06 -0.0005477503 2.185e-42 -0.0001919778 -0.0025346912
7.367666e-05 -2.3148675e-12 -9.137627e-27 -2.8463e-41 0.0026811461 -3.492e-42 3.1609e-41 1.0262e-41
-0.00079444546 2.682284e-12 -3.221781e-05 -0.0047709164 -0.0021174336 0.00059188606 0.00021171701 -0.00055351364
0.00013412524 -5.2205e-41 -0.0031174792 1.6754662e-11 -0.00045859843 -0.000655091 3.1482e-41 4.322158e-05
4.576836e-09 -0.0006414051 4.9822e-41 0.000594006 -9.071167e-05 0.0006781107 -3.555e-42 -0.0013125303
2.543e-41 -6.652e-42 -6.1247e-41 3.1342158e-33 1.3773299e-05 3.5858e-41 -0.00073580653 5.9851413e-06
-3.939765e-24 -9.0868895e-08 -0.0027855693 5.5061e-41 -5.524e-41 5.4377e-41 -0.0056361435 4.274e-42
-3.985e-42 -3.474e-42 -4.855838e-13 -4.2965e-41 3.0054e-41 -3.975167e-11 1.1077e-41 0.0004169852
5.2366426e-07 -5.7893e-41 1.3835e-41 2.4786e-41 -5.2168e-41 0.0019313446 4.7114593e-11 3.5547e-41
0.0014516249 0.00046276115 5.4702592e-05 0.0023036469 -4.3056e-41 -5.2102034e-05 -8.646e-42 -0.0007490487
2.9377022e-06 8.026604e-14 -5.0613e-41 -0.0010009801 0.0003919154 -0.0007074743 -4.515e-42 -0.002861756
-4.9366e-41 3.937e-41 0.003980811 -5.084e-42 -0.00052653695 2.465664e-18 -0.00060427864 -5.7599e-41
5.271e-41 -5.6389404e-10 -0.0041363686 -0.0006127285 2.9287e-41 0.0005961304 5.7564e-41 -0.00018739744
0.0017893098 0.001139124 -0.00052638905 6.1636e-41 0.0008764849 -0.00045060288 0.00035657678 -3.3864e-41
6.595382e-05 4.5417e-41 -5.406e-42 -2.0282e-41 5.7637e-41 2.951e-42 -0.00044201023 0.00023898018
-2.2325e-41 -0.0011617189 8.0743375e-06 -1.5616544e-05 2.6403e-41 0.0020129322 -7.186e-42 -0.0015070817
4.0182e-41 -3.057e-41 0.00049407134 -0.0016521366 -0.00019339079 -5.0672e-41 -4.019e-42 -0.0005968971
-4.9307e-41 4.2410555e-08 -0.0008217826 -2.4974e-41 -5.4924e-41 -9.181056e-05 -4.3587e-41 0.00028305722
0.0003770141 -0.00048540242 -4.5043e-41 -0.0005689842 -0.002613708 -2.7258e-41 3.0524e-41 -0.0013094957
-2.2534e-41 -4.4829e-41 -0.0005213597 -4.2936e-41 0.0016456568 0.0010455685 -0.0009602119 -0.0010328225
-0.0010473094 -0.00013191417 0.0011871067 -8.65668e-05 -1.540291e-11 0.0011946181 0.00039058604 2.365e-41
7.218162e-18 -3.63e-42 2.4728295e-05 1.4415e-41 2.9269e-41 -0.0012545985 -6.1060535e-05 -0.00022929058
00000000: f03c 0000 4434 0000 27a5 ca39 c91a 0080
00000010: 2380 bb22 ce58 22bb a95d f7ba 210a c321
00000020: 69c0 6ebb 5295 0000 f395 0000 630f 0000
00000030: 4b1a 2bba 3c4d 3d20 ff6c c1ba 192d 213a
00000040: 7fbd 80bb 2575 18bb a299 32ac 5a4e 14ba
00000050: 9f33 13b5 009c 0080 b1df 62b9 1cc4 83ba
00000060: c94c 23ba 1086 a62f 6730 9d09 7868 a3b9
00000070: c200 65ba 747d c8ba cf05 b825 112f 0080
00000080: 67a3 0080 30a2 0000 197f 0000 3268 ba39
00000090: f244 18ba 57d8 a817 4fde c639 45a7 0000
000000a0: baab 0000 5f4d d9b7 ea94 0000 e467 973a
000000b0: 645b 0000 5558 2132 e519 0000 ff2d 22bb
000000c0: 834f c9ba 586a 1300 5676 8aba 2d3a b0ba
000000d0: be2a 0000 a426 c838 2540 3018 1779 0080
000000e0: 3569 23bb 527d 8aba c59d 0000 7fa7 e9b9
000000f0: 0e51 0080 b378 b219 a862 0080 75f2 4837
00000100: e389 341d 5a98 0080 c95e eab3 d6e0 2c3a
00000110: d29b 0080 588c 803b e336 0000 2c0d 67bb
00000120: 5032 1529 975b 092e 2464 8daf 9b9e 4dba
00000130: 0898 0080 697d de3a 5b68 04bb ba49 7bb8
00000140: ae6d 0000 c43f 1334 ad35 caba 78ee ce36
00000150: e696 0fba 1706 0000 a64d 49b9 101d 26bb
00000160: db82 9a38 f2e4 22ac 46fd 3494 584f 0080
00000170: 2bb6 2f3b bc09 0080 1d58 0000 9b1c 0000
00000180: 5542 50ba bcbf 3c2c 9c21 07b8 5955 9cbb
00000190: a4c4 0abb cd28 1b3a 5a00 5e39 ac19 11ba
000001a0: f8a3 0c39 8791 0080 9f4e 4cbb 2560 932d
000001b0: 0a70 f0b9 6aba 2bba c257 0000 d148 3538
000001c0: 4642 9d31 f823 28ba e28a 0000 11b7 1b3a
000001d0: 753c beb8 3dc3 313a e909 0080 3509 acba
000001e0: e346 0000 8b12 0080 bbaa 0080 b330 8209
000001f0: de13 6737 f563 0000 24e3 40ba f9d3 c836
00000200: 8b69 9898 b423 c3b3 198e 36bb 7d99 0000
00000210: fd99 0080 9597 0000 66af b8bb ea0b 0000
00000220: 1c0b 0080 af09 0080 00ae 08ab c577 0080
00000230: c753 0000 67d4 2eae e11e 0000 ce9e da39
00000240: ef91 0c35 62a1 0080 9126 0000 1845 0000
00000250: 6c91 0080 2c25 fd3a 5136 4f2e 1763 0000
00000260: 7344 be3a c09e f239 7670 6538 c8f8 163b
00000270: 0678 0080 2288 5ab8 1a18 0080 cf5b 44ba
00000280: 5725 4536 39be b429 178d 0080 5233 83ba
00000290: ff79 cd39 cc75 39ba 960c 0080 4c8c 3bbb
000002a0: 9d89 0080 bf6d 0000 7771 823b 2c0e 0080
000002b0: 4c07 0aba 13ef 3522 7468 1eba 90a0 0080
000002c0: ef92 0000 8400 1bb0 608a 87bb 839f 20ba
000002d0: a451 0000 a245 1c3a 77a0 0000 1e80 44b9
000002e0: 4687 ea3a a94e 953a 5ffd 09ba d1ab 0000
000002f0: e8c3 653a e53e ecb9 edf2 ba39 665e 0080
00000300: b050 8a38 9b7e 0000 120f 0080 8a38 0080
00000310: aba0 0000 3a08 0000 9cbd e7b9 c196 7a39
00000320: 3c3e 0080 d144 98ba 0477 0737 4600 83b7
00000330: 9a49 0000 66eb 033b 0814 0080 4589 c5ba
00000340: 0370 0000 3755 0080 9184 013a 818c d8ba
00000350: f2c8 4ab9 418d 0080 340b 0080 1679 1cba
00000360: 7389 0080 e626 3633 e66c 57ba 9e45 0080
00000370: 1b99 0080 6b8a c0b8 8179 0080 4c67 9439
00000380: faa9 c539 9c7d feb9 907d 0080 e227 15ba
00000390: be4a 2bbb fc4b 0080 1755 0000 62a3 abba
000003a0: d13e 0080 f77c 0080 dbab 08ba b077 0080
000003b0: 14b3 d73a 750b 893a bbb6 7bba c65f 87ba
000003c0: df45 89ba 7152 0ab9 b198 9b3a 328b b5b8
000003d0: 457c 87ad bb94 9c3a 92c7 cc39 ed41 0000
000003e0: ce26 0523 1e0a 0080 9c6f cf37 2f28 0000
000003f0: 9751 0000 5771 a4ba a00d 80b8 b96d 70b9

8.bias f4 [128]
8.0856e-05 -0.00024416545 -0.0043934984 -3.6417287e-06 -0.00034555438 0.06738344 -0.003759424 -0.001641432
0.055639457 -2.4768858e-30 -0.0016903328 -0.00029998514 -0.0008800075 0.058953363 -2.817675e-07 -0.0022187817
0.044037595 -0.004004488 -2.3256144e-09 -1.4802994e-23 -2.7488173e-10 -4.1046707e-05 -1.3262816e-06 -1.1770735e-05
-0.004862113 -1.2800982e-06 -7.692948e-21 -1.5801654e-17 0.13235043 -0.0006697239 -3.531328e-14 -0.00030808587
0.12994853 -0.00072837144 -8.4960544e-16 -1.6818357e-23 -5.111513e-10 -1.3945375e-11 -9.28918e-05 -1.3670288e-17
-5.3543525e-09 -5.206342e-06 -0.00043331625 -0.00010011244 -3.6747203e-08 0.025261266 -0.00014521944 -1.7800087e-06
-1.07548814e-07 -2.1519031e-07 -5.729348e-06 -0.0018402954 -2.5400269e-07 0.09328718 0.10856895 -0.0024493488
-0.0030444013 -1.1214347e-06 -2.8780445e-05 -0.000428758 -0.00023884416 -2.2511286e-07 -0.0003357654 -5.954071e-13
-7.067451e-10 -0.006854665 -1.1732579e-05 -1.0674698e-06 0.15102413 -4.212608e-27 -0.00036316508 -0.001044243
-8.226359e-05 -6.0934094e-19 -2.7786888e-07 -0.0033060038 -0.0012835162 -0.03492254 -0.0093365 -0.0026979216
-8.58842e-08 -2.1106466e-33 2.2592601e-09 -0.00058239663 -2.8607698e-14 -0.001883392 -6.2509865e-11 -8.08607e-11
-1.6148017e-11 -0.004090343 -0.0011139514 -2.3999062e-30 -6.6612133e-06 -2.0068387e-10 -1.1807987e-17 -0.00050756655
-1.8184047e-21 -7.381101e-23 -0.000114279115 -3.2602577e-07 -1.3684412e-15 -1.964893e-09 0.056611348 -0.0022163622
-7.9656694e-16 0.045788627 -0.0025736007 -0.00018551973 -0.011366682 -1.2839875e-16 -0.0016077512 0.07572849
0.15916786 -0.0022569883 -0.00075697567 0.37492839 -0.0035225553 0.14709221 -0.0013543466 -0.00014414896
-6.5363555e-09 0.00036266333 -8.9283725e-10 -1.0609302e-21 -0.00030047976 -9.975697e-05 -0.00075882627 -0.005084018
00000000: 3c91 a938 5503 80b9 56f7 8fbb 6c64 74b6
00000010: 862b b5b9 5400 8a3d ab60 76bb 5225 d7ba
00000020: 33e6 633d e8f2 488e 288e ddba 5347 9db9
00000030: 4eb0 66ba 1579 713d d545 97b4 fb68 11bb
00000040: c460 343d 1438 83bb a4d0 1fb1 702a 8f99
00000050: 2a1e 97af 9129 2cb8 b002 b2b5 ec7a 45b7
00000060: 5c52 9fbb d7cf abb5 d050 119e 9abe 91a3
00000070: df86 073e 6990 2fba 7109 1fa9 9686 a1b9
00000080: 3a11 053e 2ef0 3eba d1e1 74a6 3ca8 a299
00000090: 1381 0cb0 6354 75ad e8ce c2b8 1c2c 7ca3
000000a0: 62f9 b7b1 23b2 aeb6 b92e e3b9 75f3 d1b8
000000b0: fad3 1db3 b7f0 ce3c 0c46 18b9 a2e8 eeb5
000000c0: 96f5 e6b3 100f 67b4 b93e c0b6 1136 f1ba
000000d0: dd5d 88b4 590d bf3d 6659 de3d 4185 20bb
000000e0: 9484 47bb 3484 96b5 896d f1b7 edca e0b9
000000f0: 3e72 7ab9 8db6 71b4 ab09 b0b9 9a97 27ab
00000100: c444 42b0 199d e0bb 0bd7 44b7 fc45 8fb5
00000110: 12a6 1a3e ece0 a693 3167 beb9 fbde 88ba
00000120: ee84 acb8 80d8 33a1 022e 95b4 8aa9 58bb
00000130: a83b a8ba f00a 0fbd 1ff8 18bc 9dcf 30bb
00000140: 576f b8b3 7d58 2f89 5341 1b31 faab 18ba
00000150: 6ed6 00a9 26dc f6ba ed75 89ae 87d0 b1ae
00000160: 1a0a 8ead 4908 86bb 0202 92ba 1ab4 428e
00000170: 6383 dfb6 7da7 5caf a4d1 59a3 370e 05ba
00000180: 1065 099d cd76 b29a 22a9 efb8 a408 afb4
00000190: 9236 c5a6 c306 07b1 4de1 673d 6340 11bb
000001a0: 4498 65a6 db8c 3b3d dba9 28bb 1388 42b9
000001b0: 523b 3abc 9f08 14a5 2ebb d2ba 8a17 9b3d
000001c0: e6fc 223e fbe9 13bb c76f 46ba 9df6 bf3e
000001d0: acda 66bb 579f 163e 5584 b1ba b126 17b9
000001e0: 6496 e0b1 d923 be39 d66b 75b0 c052 a09c
000001f0: b689 9db9 9e34 d1b8 f8eb 46ba d697 a6bb
