Models/checkpoint_vel_D2_1000_0.pth (torch, 353077 bytes, 16 tensors)

0.weight f4 [32, 9]
0	0x3dfb06ab	0.12257131
1	0xbdee2bb6	-0.11629431
2	0xbec85b82	-0.39132315
3	0x3e8399cc	0.25703275
4	0xbf80ba0b	-1.0056776
5	0x3e944d71	0.28965333
6	0x3c5c150c	0.013432752
7	0x3e82fa70	0.25581694
8	0xbd61d833	-0.055137824
9	0xbe0dac4a	-0.13835254
10	0x3e1962e3	0.14979129
11	0x3e6e2e78	0.23259914
12	0xbe197a8d	-0.14988156
13	0x3f905775	1.127669
14	0xbe0b85cb	-0.13625257
15	0xbda5b1ac	-0.08090529
16	0xbd38dcc1	-0.045132402
17	0xbde690a5	-0.112580575
18	0x3ec5744d	0.38565293
19	0xbc9101ae	-0.017700996
20	0xbc7e0924	-0.015505109
21	0xbe5b7cab	-0.21434276
22	0xbee5eb97	-0.44906303
23	0xbc8ebbd4	-0.017423548
24	0xbe3518d0	-0.17685246
25	0x3d3fa92e	0.0467922
26	0x3e061d90	0.13097215
27	0x3dd4ce64	0.103909284
28	0xbe87dc9f	-0.26535508
29	0x3e97346b	0.2953218
30	0x3eac7705	0.33684555
31	0x3ea09c14	0.31369078
32	0x3e9668f0	0.29376936
33	0xbe8bc08f	-0.27295348
34	0xbe413bcb	-0.18870465
35	0xbdca3488	-0.09873301
36	0x3e0ad548	0.13557923
37	0xbdafeda2	-0.08590247
38	0x3e278059	0.16357554
39	0xbe76a808	-0.24087536
40	0x3f8ba862	1.0910761
41	0xbdef49d8	-0.116840065
42	0x3e379780	0.17928886
43	0x3c943be8	0.018094972
44	0xbe7b61e6	-0.24549064
45	0x3d420c6d	0.04737513
46	0xbe12d714	-0.14339858
47	0x3d0cffbe	0.034423582
48	0xbf9a2e33	-1.2045349
49	0x3e42f5e9	0.1903912
50	0xbf0363c2	-0.51324093
51	0xbdbdb6fc	-0.09263417
52	0x3dc13fdd	0.09436009
53	0xbdd23c29	-0.10265381
54	0x3e5b608d	0.2142355
55	0xbd25c06f	-0.040466722
56	0x3ec26b4f	0.37972495
57	0xbedd5964	-0.43232262
58	0xbe8f4b57	-0.27987167
59	0x3e173b81	0.14768793
60	0xbea36dab	-0.31919608
61	0x3e6be995	0.23038323
62	0x3ea9d9a1	0.3317385
63	0x3df3d52a	0.11905892
64	0xbeb7e5bf	-0.3591747
65	0xbee70408	-0.45120263
66	0x3eb0847c	0.34476078
67	0xbd905a73	-0.07048502
68	0xbdcf98e0	-0.101365805
69	0xbda630c6	-0.081147715
70	0x3d9a9aa3	0.07549026
71	0x3d65146e	0.055927686
72	0x3e1f20ea	0.155399
73	0x3e336d54	0.17522174
74	0x3e4faec2	0.20281509
75	0xbf0831ad	-0.532008
76	0xbe48f4f6	-0.19624695
77	0x3da60648	0.08106667
78	0xbe7530b0	-0.23944354
79	0x3d8b6ba4	0.0680764
80	0xbe20cb71	-0.15702607
81	0xbe4cee16	-0.20012698
82	0x3d48e7a9	0.049049053
83	0xbf34ea74	-0.7067025
84	0xbf0bc43a	-0.5459629
85	0x3dff7293	0.12473025
86	0xbe308247	-0.17237197
87	0x3e239c6c	0.15977639
88	0xbdb4ba17	-0.08824556
89	0xbab57b84	-0.0013846015
90	0x3cf6002b	0.030029377
91	0xbe973b90	-0.2953763
92	0xbd5c5732	-0.053794093
93	0x3fb8daa4	1.4441724
94	0xbf8c71f5	-1.0972277
95	0xbe28b061	-0.16473533
96	0x3dda4699	0.10657997
97	0x3e0fbd92	0.14037159
98	0xbe12f375	-0.14350684
99	0xbd2ac8f9	-0.04169557
100	0x3e9de773	0.30840644
101	0x3de98957	0.114031486
102	0x3f243b9e	0.6415347
103	0xbe417ab8	-0.1889447
104	0xbe775d4e	-0.24156687
105	0xbe830fc3	-0.25597963
106	0x3eb4068c	0.35161245
107	0xbd5a279f	-0.053260442
108	0x3e34233c	0.17591566
109	0xbcd66e9e	-0.026175793
110	0xbdacedc0	-0.08443785
111	0x3e8cc05a	0.27490503
112	0x3faf33a2	1.3687632
113	0xbdd8ee3a	-0.10592313
114	0xbbcba25e	-0.006214424
115	0x3e812362	0.25222307
116	0x3d8a54ab	0.067544304
117	0xbbbda39e	-0.005787327
118	0xbedad752	-0.427424
119	0xbddc0222	-0.10742594
120	0x3dcba519	0.09943599
121	0x3dfd7bb6	0.123771116
122	0x3eebfee5	0.46092907
123	0xbd6d2bff	-0.057903286
124	0x3e858807	0.26080343
125	0xbe893793	-0.26800212
126	0xbe867855	-0.2626368
127	0x3d1f1e91	0.03884751
128	0x3e509f65	0.20373304
129	0x3dc96dbb	0.098353826
130	0xbf7cb54a	-0.98714125
131	0x3cf2190f	0.029552964
132	0x3e5aff9f	0.21386574
133	0x3dce384c	0.100693315
134	0x3db3c4e8	0.08777791
135	0x3e942bb8	0.28939605
136	0x3ed608dc	0.41803634
137	0x3eb13e0d	0.34617653
138	0xbd6baa02	-0.05753518
139	0xbf91e1fd	-1.1397091
140	0xbdecc1b7	-0.11560386
141	0x3d49256c	0.049107954
142	0xbe6331bd	-0.22186942
143	0x3cecbba4	0.028898068
144	0xbd02c5a5	-0.03192677
145	0xbe42826e	-0.18995067
146	0xbcbdba5e	-0.023160156
147	0x3d57b5b0	0.052663505
148	0xbdd533f3	-0.10410299
149	0x3fc099df	1.5046958
150	0xbd830110	-0.06396687
151	0x3b9fdd7b	0.0048786975
152	0xbd5aba90	-0.053400576
153	0xbc876977	-0.016529782
154	0xbed4a361	-0.41530898
155	0xbe5db621	-0.21651508
156	0xbf48c842	-0.7843057
157	0xbd88b3de	-0.06674932
158	0x3d447e1f	0.04797184
159	0xbc4c1b8c	-0.01245774
160	0xbe4abd33	-0.19798736
161	0x3e61454a	0.21999088
162	0x3e56bc60	0.20970297
163	0x3d5672d8	0.052355617
164	0xbed686e6	-0.41899794
165	0x3e9a9e90	0.301991
166	0x3f504263	0.813513
167	0xbd573a5b	-0.052545886
168	0xbe6a4244	-0.22876841
169	0xbe0ddbb0	-0.13853335
170	0xbe3b044b	-0.18263356
171	0x3d50c424	0.050968304
172	0x3e930f1c	0.28722465
173	0x3efdbc71	0.49557832
174	0xbe14192d	-0.14462729
175	0x3ddc87c0	0.1076808
176	0x3e0dd883	0.13852124
177	0x3cf040b6	0.029327732
178	0xbe81b761	-0.2533522
179	0x3eadbb45	0.33931938
180	0xbd7d237c	-0.06180142
181	0xbd7a135d	-0.061053623
182	0xbea0423c	-0.31300533
183	0xbe74577c	-0.23861498
184	0xbf8b8819	-1.0900909
185	0x3d0fda10	0.03512007
186	0xbea2f597	-0.31827995
187	0xbe14404f	-0.14477657
188	0xbc295130	-0.010334298
189	0xbe8b80c7	-0.27246687
190	0x3ceece27	0.029151035
191	0xbd6e7443	-0.058216345
192	0xbe663a2f	-0.22483133
193	0x3e98003a	0.29687673
194	0x3f49ce69	0.7883058
195	0xbe20dbcf	-0.1570885
196	0x3dcfe119	0.10150356
197	0x3dd99799	0.10624618
198	0x3e955eaa	0.29173785
199	0xbe9d0a14	-0.30671751
200	0x3ec42134	0.38306582
201	0xbf234232	-0.6377288
202	0xbe0ae572	-0.13564089
203	0x3dbfbeda	0.09362574
204	0x3e31c478	0.17360103
205	0xbdb8f19b	-0.090304576
206	0xbc306395	-0.01076593
207	0xbcd08edf	-0.025458751
208	0x3ce0f34d	0.027459765
209	0x38aab1a3	8.139319e-05
210	0x3e8c5138	0.27405715
211	0x3f14f3c9	0.58184487
212	0xbe918de9	-0.2842858
213	0x3ec3769c	0.3817643
214	0x3e3124ae	0.17299148
215	0x3ec98497	0.3935897
216	0x3e04b45a	0.12959424
217	0xbe671668	-0.22567141
218	0xbe4f50c3	-0.20245652
219	0x3f0ca5fc	0.5494077
220	0x3eed2e6d	0.46324483
221	0x3e221cb6	0.15831265
222	0xbe17c5c5	-0.14821537
223	0xbd57e890	-0.052712023
224	0x3cf4d555	0.02988688
225	0xbdfbc8ec	-0.12294182
226	0xbe47ed95	-0.19524224
227	0x3c8cad88	0.01717259
228	0x3f260187	0.6484608
229	0x3f85a6cf	1.0441531
230	0xbdc407b6	-0.09571783
231	0xbdbb92d0	-0.09158862
232	0x3e95d1d0	0.29261637
233	0xbd675465	-0.05647697
234	0xbd9e5f40	-0.07733011
235	0xbd3f7c8f	-0.046749648
236	0xbecaab27	-0.39583704
237	0xbd0113b5	-0.031512935
238	0x3ef51fec	0.47875917
239	0xbe0b32e7	-0.13593636
240	0xbead8b15	-0.33895174
241	0x3d2ea5f3	0.04263873
242	0x3d6413e3	0.055683028
243	0xbd71e1e7	-0.059053328
244	0x3db91074	0.09036341
245	0x3e2445a7	0.16042195
246	0xbf379d13	-0.7172405
247	0xbd9fdb83	-0.078055404
248	0xbdaa8d5d	-0.08327744
249	0x3e9e8b81	0.30965808
250	0x3eb5b0fb	0.35486588
251	0xbdbec4f5	-0.0931491
252	0x3eca97a2	0.39568812
253	0x3ee50653	0.44731387
254	0xbe82c0ac	-0.25537622
255	0xbf61a31a	-0.881395

0.bias f4 [32]
0	0x3d4dfde4	0.050290957
1	0x3e123280	0.14277077
2	0x3c4884c5	0.012238686
3	0x3d687f7a	0.056762196
4	0x3e63944c	0.2222454
5	0x3eb92941	0.36164287
6	0x3d986b11	0.07442296
7	0x3d0b5cd0	0.03402406
8	0x3d353728	0.044242054
9	0x3df8e18f	0.12152397
10	0xbf1d951a	-0.61555636
11	0x3db623aa	0.08893521
12	0x3eb04c9e	0.34433454
13	0x3b993c0e	0.0046763485
14	0x3d6b30e9	0.05741969
15	0xbc808c47	-0.01569189
16	0x3efc9e02	0.493393
17	0x3dcceec6	0.1000648
18	0xbd9be947	-0.076128535
19	0x3f11291f	0.5670337
20	0xbc82bb42	-0.015958432
21	0x3f0a880a	0.5411383
22	0x3eddeb1e	0.43343443
23	0x3dd9780f	0.106186025
24	0xbe6dbdb1	-0.23216893
25	0xbe453b95	-0.1926101
26	0x3e1c72b3	0.1527813
27	0x3abaf837	0.0014264648
28	0x3e164c1d	0.14677472
29	0x3c8d3c5f	0.017240701
30	0xbddb7f24	-0.107176095
31	0xbe2c27b3	-0.16812019

2.weight f4 [64, 32]
0	0x3c0e7426	0.008694684
1	0x3e87d537	0.26529858
2	0xbd0fae98	-0.035078615
3	0xbe041902	-0.12900165
4	0x3e1a2689	0.15053762
5	0xbe08bae6	-0.13352546
6	0xbd71454c	-0.058903977
7	0xbb2f1097	-0.002671277
8	0xbd4048a7	-0.046944287
9	0xbe17d9e4	-0.14829212
10	0x3d6c082b	0.057624977
11	0x3e6669a7	0.2250124
12	0x3bf7f641	0.0075671976
13	0xbe60c632	-0.21950606
14	0x3da56645	0.08076147
15	0xbcf2848c	-0.029604219
16	0x3da5b776	0.08091633
17	0xbd96bb9d	-0.07360003
18	0x3deb4934	0.11488572
19	0x3d1a0785	0.037604827
20	0xbc9976f6	-0.018733483
21	0xbd3d4e5c	-0.046217307
22	0xbd1e2b01	-0.03861523
23	0x3e08b7d0	0.13351369
24	0xbd654a30	-0.055978954
25	0xbd6ed508	-0.05830863
26	0x3d3e8c9b	0.04652081
27	0xbe2b6417	-0.167374
28	0xbd782495	-0.060581762
29	0xbe11a331	-0.14222409
30	0x3df553be	0.11978863
31	0xbd91e8a2	-0.07124449
32	0xbec592d4	-0.38588583
33	0x3d5c8e4f	0.053846654
34	0x3be288a4	0.0069132615
35	0x3e318ca5	0.17338808
36	0x3e74e21b	0.23914377
37	0x3ded00d0	0.115724206
38	0xbe00ea7f	-0.12589453
39	0x3de75125	0.11294774
40	0xbd43578a	-0.047690906
41	0xbee0737e	-0.43838114
42	0x3e0d7232	0.13813093
43	0x3d954ed8	0.07290429
44	0x3dc2fbf9	0.09520716
45	0xbc125252	-0.0089307595
46	0xbe9e8d1e	-0.3096704
47	0xbe7aafab	-0.24481075
48	0xbe5b44be	-0.21412942
49	0xbca18801	-0.019718172
50	0xbe06006a	-0.13086095
51	0x3e3d76ef	0.18502401
52	0x3c1583d4	0.009125669
53	0xbe8bf263	-0.27333364
54	0xbc800e05	-0.015631685
55	0x3e25eef9	0.16204442
56	0x3deb0234	0.114750296
57	0x3eada940	0.3391819
58	0x3df43a59	0.119251914
59	0x3d80951a	0.06278439
60	0x3ec4ea84	0.3846017
61	0xbd1dcca0	-0.038525224
62	0x3b95cb53	0.0045713573
63	0x3ddb436e	0.107062206
64	0xbe5d775f	-0.21627568
65	0xbe1bcd16	-0.15214953
66	0x3e01ff53	0.12695055
67	0x3e16d8bc	0.14731115
68	0xbe4ca5a5	-0.19985063
69	0xbe18bcfe	-0.14915845
70	0xbdc072fb	-0.09396931
71	0x3e27db47	0.16392241
72	0xbd8e06bc	-0.06934878
73	0xbb759449	-0.0037472418
74	0x3efc8408	0.49319482
75	0xbdf79c4a	-0.12090357
76	0x3e9868dc	0.297675
77	0xbd99f7e9	-0.07517988
78	0x3e2dd533	0.1697586
79	0xbd58c88c	-0.05292563
80	0xbd3b05f6	-0.04565998
81	0x3ce7eec1	0.028312089
82	0x3e0de0f2	0.13855341
83	0xbeb67220	-0.35633945
84	0x3e274b23	0.16337256
85	0x3deca9d6	0.11555831
86	0xbe1acacb	-0.15116422
87	0x3db3f02b	0.08786043
88	0x3eaa2277	0.3322942
89	0xbd876187	-0.06610399
90	0x3ccfc53d	0.025362605
91	0x3e83624a	0.25660926
92	0xbd993634	-0.074810416
93	0x3b9dc98a	0.004815285
94	0x3e35dbd9	0.17759646
95	0x3e748eb4	0.23882562
96	0xbddde1d9	-0.10834093
97	0x3d96c417	0.0736162
98	0x3ded987c	0.1160135
99	0xbd177710	-0.03697878
100	0xbe66057e	-0.22463033
101	0x3e4c1dcf	0.19933246
102	0x3e0f7051	0.14007689
103	0xbdb0b9ff	-0.08629226
104	0x3e792f61	0.2433448
105	0x3e1ddbe5	0.15415914
106	0x3c8665e6	0.01640601
107	0xbe835e37	-0.25657818
108	0x3dae44cf	0.08509218
109	0x3dfc0324	0.123052865
110	0x3da14b3d	0.07875679
111	0xbe81a486	-0.25320834
112	0xbe0f2e39	-0.13982476
113	0x3e754749	0.23952974
114	0xbd913f83	-0.07092192
115	0xbdacdba9	-0.08440334
116	0x3cabcdab	0.020972094
117	0xbeb00348	-0.34377503
118	0x3e73850c	0.23781222
119	0x3b2af248	0.0026084352
120	0xbe0dcd7b	-0.13847916
121	0x3e3cfa4e	0.18454859
122	0xbe0f01fc	-0.139656
123	0x3c93a733	0.018024063
124	0xbd7e834c	-0.062136933
125	0x3b459c0b	0.0030152823
126	0xbe5c6bcb	-0.21525495
127	0xbe11d48b	-0.14241235
128	0x3e4a07bd	0.19729514
129	0x3db7d01e	0.08975242
130	0x3e0d346f	0.13789533
131	0xbdc917f8	-0.09819025
132	0x3e2cb9bd	0.16867729
133	0xbe9d97ff	-0.30780026
134	0x3e7b65ca	0.24550548
135	0x3e2d8ea9	0.16948952
136	0xbe283e25	-0.16429956
137	0x3d863fc6	0.065551326
138	0x3d384a67	0.04499283
139	0xbe7eafd7	-0.24871765
140	0xbddd3815	-0.108017124
141	0xbc7e14ef	-0.015507921
142	0x3dc9b0d2	0.09848179
143	0xbc3c1ac9	-0.011480995
144	0x3ea88ca5	0.32919803
145	0x3d9ccf5f	0.076567404
146	0xbeaaefa2	-0.3338595
147	0xbe0202be	-0.12696359
148	0x3e8e6665	0.27812496
149	0xbe3c58fa	-0.18393317
150	0xbd4c326b	-0.04985277
151	0xbcc983f4	-0.024599053
152	0xbe0fe825	-0.140534
153	0x3ad81e96	0.0016488608
154	0xbd9ebf17	-0.07751291
155	0x3dc84332	0.097784415
156	0xbd9725bc	-0.07380244
157	0xbd0831b9	-0.033250544
158	0x3ead6935	0.3386933
159	0xbed89a41	-0.42305186
160	0x3e3fe068	0.18737948
161	0x3e492dca	0.19646373
162	0xbd2ce060	-0.04220617
163	0x3d8c46a2	0.0684941
164	0x3e82f918	0.25580668
165	0xbe884bfb	-0.26620468
166	0xbdcbda3c	-0.09953734
167	0xbe2d9082	-0.16949657
168	0x3dea83a8	0.11450893
169	0xbd52c2f4	-0.051455453
170	0xbc94e4b2	-0.018175457
171	0x3e652b73	0.22379856
172	0x3d8c5441	0.06852008
173	0xbc05705d	-0.008144465
174	0x3de547fb	0.1119537
175	0x3e8dc56f	0.27689692
176	0x3e0fd24f	0.1404507
177	0x3da879cc	0.08226356
178	0xbc4e4b53	-0.012591201
179	0x3d1e3681	0.038626198
180	0xbe3b4a77	-0.18290125
181	0xbc08e047	-0.008354253
182	0xbee86334	-0.45388186
183	0x3e5c646f	0.21522687
184	0xbc55bd82	-0.01304567
185	0xbdaa664f	-0.08320295
186	0xbe95fec0	-0.2929592
187	0xbe28c09e	-0.16479728
188	0x3ca8b587	0.020594371
189	0x3e568410	0.20948815
190	0xbd3e4145	-0.046448965
191	0x3dfc9ee3	0.12334993
192	0x3eaa9925	0.33319965
193	0xbcca5ca6	-0.024702381
194	0x3e629923	0.2212873
195	0xbdf4729b	-0.11935922
196	0xbe3f9aab	-0.18711345
197	0xbe5cf356	-0.215772
198	0xbe5c3722	-0.21505406
199	0x3d05564a	0.032552995
200	0xbd8c7cca	-0.06859739
201	0xbd816598	-0.063182056
202	0x3e4c1f2b	0.19933765
203	0xbdfd51c3	-0.123691104
204	0xbf035834	-0.5130646
205	0xbe2a8117	-0.16650806
206	0x3e3f9913	0.18710737
207	0x3ee80e07	0.45323202
208	0xbdf5aea3	-0.119962
209	0xbd190c61	-0.03736532
210	0xbd9834cc	-0.07431945
211	0xbbf9324e	-0.0076048737
212	0x3e4ab890	0.19796968
213	0x3c71077f	0.01471126
214	0x3d511f44	0.051055208
215	0xbe8f0b64	-0.27938378
216	0x3dd92273	0.10602274
217	0xbd8e19cc	-0.06938514
218	0xbe72f112	-0.23724774
219	0xbd64e8de	-0.055886142
220	0xbdea810b	-0.11450394
221	0xba02c97c	-0.000498913
222	0x3db41208	0.08792502
223	0x3c70fdfd	0.014708993
224	0x3dd651e3	0.104648374
225	0xbc9e90c9	-0.019356148
226	0x3bcb4196	0.006202887
227	0x3e6c3ec1	0.23070814
228	0xbd5c6f65	-0.05381717
229	0xbe834eb9	-0.25645998
230	0x3e03422c	0.12818211
231	0xbca79ca3	-0.020460432
232	0x3da2cb3a	0.07948919
233	0xbe47c654	-0.1950925
234	0xbd2ce11b	-0.042206865
235	0xbe37d308	-0.17951596
236	0x3eeffbc0	0.46871758
237	0x3d864b2f	0.06557309
238	0xbe11d2d3	-0.1424058
239	0xbe401519	-0.18758048
240	0x3f1aa285	0.60404235
241	0x3b981e55	0.0046422877
242	0xbbac75fa	-0.0052630873
243	0x3e3f97e3	0.18710284
244	0xbdec1c5b	-0.11528846
245	0xbd311c65	-0.04323997
246	0xbd956938	-0.072954595
247	0x3dea656e	0.114451274
248	0x3d8649da	0.06557055
249	0xbe55e3e3	-0.20887713
250	0x3d612066	0.05496254
251	0xbe11167f	-0.14168738
252	0xbb96583e	-0.004588156
253	0xbd9079ab	-0.07054456
254	0xbe16b6d1	-0.14718176
255	0xbdf5f06a	-0.12008746

2.bias f4 [64]
0	0x3dc3ef30	0.09567106
1	0xbda3270b	-0.07966431
2	0xbe9f716a	-0.31141216
3	0x3e191d32	0.14952543
4	0x3df4fe3d	0.119625546
5	0xbda0dec4	-0.07854989
6	0xbf0379c6	-0.51357687
7	0x3ce635fc	0.028101914
8	0xbd3784ca	-0.044804372
9	0x3d759a3f	0.059961554
10	0x3cc0e3e2	0.023546163
11	0x3e116baa	0.14201227
12	0xbe9b018a	-0.30274612
13	0xbe27dffd	-0.16394038
14	0xbe7416f3	-0.2383688
15	0xbed6a05d	-0.41919222
16	0x3ec9de8d	0.39427605
17	0xbea3b8eb	-0.3197702
18	0x3ddc7ba0	0.10765767
19	0xbed232fd	-0.41054526
20	0x3ec16e90	0.37779665
21	0x3d1cd236	0.03828641
22	0xbe608511	-0.21925761
23	0x3d09a0b8	0.03360054
24	0xbe89fa8b	-0.26948962
25	0xbf0069c6	-0.501614
26	0x3ded4997	0.11586302
27	0x3e366c07	0.17814647
28	0x3e7bb909	0.24582304
29	0xbe49eb08	-0.19718564
30	0xbf078885	-0.5294269
31	0xbe375fc1	-0.17907621
32	0xbd39be21	-0.045347337
33	0x3e4e61c8	0.20154488
34	0x3edd80e8	0.4326241
35	0x3e4094be	0.1880674
36	0xbd802ea8	-0.06258899
37	0xbebe7a99	-0.3720291
38	0x3e259efd	0.1617393
39	0x3e5cc428	0.21559203
40	0xbe2727d9	-0.16323794
41	0xbe4adf70	-0.19811797
42	0x3dac36e4	0.08408907
43	0x3e626ec9	0.22112574
44	0xbe2dd09f	-0.16974114
45	0x3e648807	0.22317515
46	0x3e4975f1	0.19673897
47	0xbde1e2ad	-0.11029563
48	0xbdac669d	-0.084180094
49	0x3e31306d	0.17303629
50	0x3e1736ff	0.14767073
51	0x3eaed8e4	0.3414985
52	0x3c2b030f	0.010437741
53	0x3ec4974a	0.38396674
54	0xbd8c2323	-0.06842639
55	0x3e7ba069	0.2457291
56	0x3de33d53	0.11095681
57	0x3e561f08	0.20910275
58	0xbeb55e38	-0.35423446
59	0x3d62f6a8	0.05541101
60	0xbde459c9	-0.11149938
61	0x3e767063	0.2406631
62	0xbeae124c	-0.33998334
63	0xbe0843ea	-0.13307157

4.weight f4 [128, 64]
0	0x3dcc3947	0.09971862
1	0xbdcad6cc	-0.099042505
2	0xbdcaec7c	-0.09908387
3	0x3d0c8fa6	0.03431668
4	0x3b07c1a5	0.0020714786
5	0x3e2994ab	0.16560619
6	0x3db0dd67	0.08635979
7	0xbd1867fc	-0.037208542
8	0xb957557a	-0.0002053584
9	0xbe1bc93f	-0.15213488
10	0x3d83f8ec	0.064439625
11	0x3a903234	0.001100129
12	0xbda2e534	-0.07953873
13	0x3d7e3739	0.062064383
14	0xbd202ba7	-0.03910413
15	0xbc826bbf	-0.015920518
16	0xbd0455d3	-0.03230841
17	0xbe0de5e3	-0.13857226
18	0xbdc61dff	-0.0967369
19	0x3c544348	0.012955494
20	0x3daecd49	0.08535249
21	0x3df0ac13	0.117515706
22	0xbd942f38	-0.07235569
23	0x3d88a7dd	0.066726424
24	0xbd6b746c	-0.057484075
25	0xbcadd6da	-0.021220613
26	0xbe2d7d7d	-0.16942401
27	0xbcaba94a	-0.020954747
28	0xbd88f484	-0.06687263
29	0xbe02d0dd	-0.12774988
30	0x3d88aff9	0.06674189
31	0xbb913c76	-0.0044322563
32	0x3db5f9d0	0.088855386
33	0x3dca572f	0.0987991
34	0xbd5e05f9	-0.054204915
35	0xbd221d54	-0.03957875
36	0x3c8ada22	0.016949717
37	0xbdc5bbf7	-0.09654992
38	0x3e01ff85	0.12695129
39	0x3d81ae3c	0.06332061
40	0xbbb5e615	-0.0055511096
41	0xbe3d8004	-0.18505865
42	0x3dbf7b7e	0.09349726
43	0xbd11a45b	-0.035557132
44	0xbdcbcba9	-0.099509545
45	0xbe212f21	-0.15740635
46	0x3cfdfa0c	0.03100302
47	0xbc98d182	-0.018654589
48	0x3d00bdfc	0.031431183
49	0x3cef18c3	0.029186612
50	0x3d05dafa	0.032679535
51	0x3de96639	0.113964505
52	0xbd5e3407	-0.054248836
53	0x3e5b06f0	0.21389365
54	0x3ca61d00	0.0202775
55	0xbd84c8d6	-0.06483619
56	0x3dd767a8	0.10517818
57	0x3e4b0a17	0.19828068
58	0xbd14ae19	-0.036298845
59	0x3d609279	0.054827187
60	0x3dfdcae4	0.12392214
61	0xbdd81fd5	-0.105529465
62	0xbdb8283f	-0.08992051
63	0xbe314cef	-0.17314504
64	0xbb11c922	-0.0022245129
65	0xbb139197	-0.0022517198
66	0xbbaa97ef	-0.0052061
67	0xbb2b8df0	-0.002617713
68	0xbba09e8c	-0.0049017128
69	0x3a0963c8	0.0005241004
70	0xbb2bb115	-0.0026198078
71	0xbb1a5cc2	-0.0023553823
72	0xbba6f133	-0.005094671
73	0xbb6f1da3	-0.003648617
74	0xba7955d9	-0.00095113885
75	0x3b543f66	0.0032386421
76	0xbb8b5115	-0.004251609
77	0xbbd21e08	-0.0064122714
78	0xbb81cd8a	-0.0039612697
79	0xbb8f566d	-0.0043743164
80	0xbb045efc	-0.0020198217
81	0xbb181777	-0.0023207346
82	0xbb87ad89	-0.00414056
83	0xbb8093a9	-0.0039238525
84	0x3bb5226b	0.0055277846
85	0xbb52240c	-0.0032064943
86	0xbb72c796	-0.0037045232
87	0x39ee55bd	0.00045458777
88	0xbbc50d55	-0.006013552
89	0xbb0f54ea	-0.002187068
90	0xbb76380f	-0.0037570035
91	0xba003781	-0.0004891083
92	0xba5c6f3a	-0.0008408908
93	0xbb7492e5	-0.0037319001
94	0x38a3a87b	7.8038276e-05
95	0x39b097cc	0.00033682433
96	0xbadf8207	-0.0017052301
97	0x3902dbc5	0.00012479637
98	0xbbbe24b9	-0.0058027175
99	0xbb32adb5	-0.0027264182
100	0x3b9759f0	0.0046188757
101	0x398e1986	0.00027103367
102	0x3b7f2a7d	0.0038935237
103	0xbbe5f938	-0.0070182346
104	0xbbad2005	-0.005283358
105	0xbbe327e5	-0.006932246
106	0xbab0e448	-0.0013495767
107	0xbb26b11f	-0.0025435162
108	0xbb795b0a	-0.0038048648
109	0xbb171d37	-0.0023058185
110	0xbbb4e6ae	-0.005520663
111	0xbb012ab3	-0.0019709289
112	0x3b7b8fc0	0.0038385242
113	0x3921357b	0.0001537408
114	0xbb1d0b59	-0.0023963063
115	0x3af7d792	0.001890885
116	0xbb806973	-0.0039188205
117	0xbb0653ee	-0.0020496803
118	0xbb0af620	-0.002120383
119	0xbb383bdb	-0.0028111849
120	0xba87ed73	-0.0010370448
121	0xbb44eae0	-0.0030047223
122	0xbb80bb24	-0.003928559
123	0x3bebd994	0.007197568
124	0xbbd2f063	-0.0064373477
125	0xb83abb57	-4.452033e-05
126	0xbb6d0230	-0.0036164634
127	0xba4f650d	-0.0007911481
128	0xbc3f9427	-0.011693037
129	0x3e04ad17	0.12956654
130	0xbd518daf	-0.05116051
131	0xbcd0c5a2	-0.025484864
132	0x3c3ee4da	0.011651242
133	0x3d8124de	0.0630586
134	0xbdcbe275	-0.099553026
135	0x3e03fe67	0.12890016
136	0xbe08f856	-0.13375983
137	0xbda3ca70	-0.07997596
138	0x3d93a9ff	0.072101586
139	0x3d808eb1	0.06277216
140	0x3da61eeb	0.08111366
141	0xbc98160c	-0.0185652
142	0xbde79ea9	-0.11309559
143	0xbcd470e1	-0.025932731
144	0x3d9e61e7	0.07733517
145	0x3d294d2f	0.041333374
146	0xbe3dd85a	-0.18539563
147	0xbdea070a	-0.11427124
148	0xbd9d82e5	-0.07690982
149	0xbd92623b	-0.07147642
150	0xbd0c42a8	-0.034243256
151	0xbdbc006b	-0.09179767
152	0xbdd39c5e	-0.10332559
153	0xbd4bf698	-0.049795717
154	0x3d0993ad	0.0335881
155	0x3b967eae	0.004592738
156	0x3d919ba2	0.07109763
157	0xb69d2a4a	-4.6838877e-06
158	0xbe26ebb5	-0.16300853
159	0x3c87953e	0.016550656
160	0xbd9feefa	-0.07809253
161	0xbda666bb	-0.08125063
162	0xbc8293e2	-0.015939657
163	0xbd9455db	-0.07242938
164	0xbdc0c240	-0.0941205
165	0xbc8773a6	-0.016534638
166	0x3d3ac673	0.045599412
167	0x3e5602c3	0.20899491
168	0xbcefa3e7	-0.02925296
169	0xbcbc1a04	-0.022961624
170	0xbd5b1f26	-0.053496502
171	0xbdf6b4d8	-0.12046212
172	0x3e417b9c	0.1889481
173	0x3c15a299	0.009133005
174	0x3d3cc752	0.046088524
175	0xbda8dc37	-0.08245128
176	0xbdfb63ed	-0.12274919
177	0xbdb07d0f	-0.08617603
178	0x3cf00d2b	0.029303154
179	0x3dc9f5de	0.098613486
180	0x3d3a0a46	0.045419954
181	0x3e108f0e	0.14117071
182	0xbe0d21f0	-0.13782477
183	0xbe0cb4dc	-0.13740867
184	0xbe299822	-0.1656194
185	0xbd9c3573	-0.07627382
186	0xbd226827	-0.03965011
187	0xbda19aae	-0.07890831
188	0x3d794281	0.06085444
189	0xbe073f05	-0.13207634
190	0x3d80aaea	0.06282599
191	0xbdf92eec	-0.12167153
192	0x3dab2042	0.08355762
193	0xbd0ff71b	-0.035147768
194	0xbafacf1f	-0.0019135213
195	0x3dd87411	0.10569013
196	0x3d1e5386	0.038653873
197	0x3d492758	0.049109787
198	0x3bcc10aa	0.0062275724
199	0xbe19dcdb	-0.15025656
200	0xbca1aff6	-0.019737225
201	0xbe541d5d	-0.20714326
202	0x3e341cbe	0.1758909
203	0xbd79e354	-0.061007813
204	0x3c749823	0.01492885
205	0xbde96509	-0.11396224
206	0x3d26bc97	0.040707197
207	0xbdb6bef3	-0.089231394
208	0xbdb696b4	-0.08915463
209	0xbb8f39e7	-0.004370916
210	0xbcedf2be	-0.029046413
211	0x3df038dd	0.11729596
212	0x3d811560	0.06302905
213	0x3c588bfb	0.013216968
214	0xbdacf86a	-0.08445819
215	0x3d95830a	0.07300384
216	0xbc34975a	-0.011022413
217	0xbd07e9ed	-0.033182073
218	0x3e2fead8	0.1717943
219	0xbda7c08c	-0.08191022
220	0x3dccade3	0.09994104
221	0x3d22ab44	0.039714113
222	0x3d847158	0.06466931
223	0xbda003c9	-0.07813222
224	0xbe1c9d4d	-0.1529438
225	0xba99d273	-0.0011735692
226	0x3d61628e	0.05502563
227	0x3d9be440	0.076118946
228	0x3e41efbf	0.18939112
229	0x3c57c74f	0.013170077
230	0xbc718713	-0.014741677
231	0x3b0a24f7	0.0021079162
232	0x3e0a19ab	0.13486354
233	0xbddf9918	-0.10917872
234	0x3d93f471	0.07224358
235	0x3dec4b56	0.11537807
236	0x3d956c57	0.07296055
237	0xbe03b3ba	-0.12861529
238	0xbe470893	-0.19436865
239	0xbe0929f7	-0.13394915
240	0xbcc57fc1	-0.02410877
241	0xbc076686	-0.00826419
242	0x3d13ba34	0.03606625
243	0x3d82dafd	0.06389425
244	0x3d8a8b4b	0.06764849
245	0xbc1f295a	-0.009714449
246	0x3d61147e	0.054951183
247	0xbd965e81	-0.07342244
248	0xbdc21f24	-0.09478596
249	0xbdb984d2	-0.090585366
250	0xbd8b8b22	-0.06813647
251	0x3e24d0fa	0.16095343
252	0xbe25b072	-0.1618059
253	0x3d4f2ceb	0.050579946
254	0xbe0f5d1f	-0.14000367
255	0x3d06fec1	0.032957796

4.bias f4 [128]
0	0x3c251a0b	0.01007701
1	0xbb6d2ba2	-0.0036189337
2	0x3e2522ec	0.16126603
3	0x3d9d9a8a	0.076954916
4	0xbce8b164	-0.028404899
5	0xbe0b8074	-0.1362322
6	0xbc2603a5	-0.010132705
7	0xbe5387eb	-0.20657317
8	0xbd120d23	-0.03565706
9	0xbdcd77a6	-0.10032587
10	0xbd796867	-0.06089058
11	0x3d4073c6	0.04698541
12	0xbddbde7a	-0.107357934
13	0x3dbdd976	0.09269993
14	0xbd36285d	-0.044472087
15	0xb9e48b10	-0.00043591158
16	0x3de08844	0.109634906
17	0x3da139fd	0.078723885
18	0xbd9934ae	-0.07480751
19	0xbd51da85	-0.051233787
20	0xbc322b0a	-0.010874519
21	0xbdb100e3	-0.08642747
22	0xbe11ff8b	-0.14257638
23	0xbd1004b0	-0.03516072
24	0xbde49841	-0.11161853
25	0xbd13ce64	-0.0360855
26	0xb90c51b3	-0.00013381876
27	0x3db2c1c9	0.08728368
28	0x3cef9a51	0.029248388
29	0x3d93c6bc	0.0721564
30	0x3e860ac2	0.26180083
31	0xbcd747eb	-0.02627941
32	0x3e3573a1	0.1771989
33	0xbdbea569	-0.09308893
34	0xbcfd1361	-0.03089303
35	0xbdd3a042	-0.10333301
36	0xbebad8d0	-0.3649354
37	0xbe2396ce	-0.15975496
38	0xbde9b367	-0.114111714
39	0xbe931d31	-0.2873321
40	0xbe263b51	-0.16233565
41	0x3d2b0f59	0.041762684
42	0xbd17028f	-0.036867674
43	0x3a5502ce	0.0008125723
44	0x3e92cd9d	0.28672495
45	0x3d364c50	0.04450637
46	0xbd570121	-0.05249131
47	0x3dab296d	0.08357511
48	0x3e3253dd	0.17414804
49	0xbcec01c9	-0.028809445
50	0x3d170a02	0.03687478
51	0x3e12e245	0.14344127
52	0xbd8c1c36	-0.06841318
53	0x3e1b0fca	0.15142742
54	0xbea8fe28	-0.33006406
55	0x3e30afbd	0.17254539
56	0xbe52ba52	-0.20578888
57	0xbde7d1af	-0.11319291
58	0x3d6de113	0.058075976
59	0xbe4ce647	-0.20009719
60	0x3c54cc82	0.012988212
61	0xbe5322f7	-0.20618807
62	0xbdc1d3be	-0.09464215
63	0xbdcce197	-0.10003965
64	0xbe9eaf64	-0.30993187
65	0xbd681e6e	-0.056669645
66	0x3c04a504	0.008095983
67	0xbd8e2472	-0.06940545
68	0x3ad38bd1	0.0016139691
69	0x3d741735	0.059592444
70	0x3dc03e38	0.09386867
71	0xbc837e39	-0.016051399
72	0xb31d8df2	-3.668351e-08
73	0xbe377f4a	-0.1791965
74	0x3da8fdf1	0.082515605
75	0xbd8b1f97	-0.06793135
76	0xa506a7ef	-1.1679545e-16
77	0x3da65846	0.081223056
78	0xbe2a6581	-0.16640283
79	0xbe2a01fb	-0.16602318
80	0xbdddab3a	-0.108236745
81	0x3e4e2f3f	0.2013521
82	0x3c1c8291	0.009552614
83	0x3d65a1bc	0.056062445
84	0xbe24557f	-0.16048239
85	0x3df4d44b	0.11954554
86	0xbdfa840d	-0.12232218
87	0x3e83e161	0.25757888
88	0x3e52900d	0.20562764
89	0xbc18b851	-0.009321288
90	0x3d858b1f	0.06520676
91	0xbdd90bb2	-0.10597934
92	0x3e079770	0.13241363
93	0x3e45f375	0.19331153
94	0xbd02a3ed	-0.031894613
95	0xbdd1818f	-0.102297895
96	0xbb7f60d5	-0.0038967628
97	0xbe46ef1f	-0.19427155
98	0xbde91355	-0.113806404
99	0x3d73bfbe	0.05950903
100	0x3e2d6c5e	0.1693587
101	0xbd3482e5	-0.044070143
102	0x3ced0669	0.02893372
103	0x3d9cab08	0.07649809
104	0xbe90684a	-0.28204566
105	0x3d050359	0.032473896
106	0xbb0277ef	-0.0019907912
107	0xbe30a8b8	-0.17251861
108	0x3cc4e24d	0.02403369
109	0xbcc4692a	-0.023975927
110	0xbe18a406	-0.1490632
111	0xbe77f9ac	-0.24216336
112	0xbd59288c	-0.053017184
113	0xbda0bcd4	-0.07848516
114	0x3b78c99a	0.003796196
115	0xbd923b79	-0.0714025
116	0x3d11739a	0.035510637
117	0x3d2d507e	0.04231309
118	0xbcd91129	-0.02649744
119	0x3cc1f1ca	0.023674864
120	0x3d3ede07	0.04659846
121	0xba79291f	-0.0009504724
122	0x3d8f5cdd	0.07000134
123	0xbcd3b3d2	-0.025842581
124	0x3cf644f1	0.03006217
125	0x3d5be96f	0.053689416
126	0x3d867568	0.06565362
127	0xbe7c97ef	-0.24667333

6.weight f4 [256, 128]
0	0xbbdd79c6	-0.0067589013
1	0x0000246f	1.307e-41
2	0xbab9e56b	-0.0014182752
3	0x3b8ad556	0.0042368574
4	0xbc0121fe	-0.0078816395
5	0x3a1bc268	0.00059417496
6	0xbbf46c06	-0.0074591665
7	0xbbc87f70	-0.0061187074
8	0x3b3bc95f	0.0028653962
9	0xbba5573c	-0.0050457995
10	0xbba73142	-0.0051023075
11	0xbbf87aed	-0.0075830133
12	0xbb521e6f	-0.0032061597
13	0xbb09887f	-0.00209859
14	0x3b3732c0	0.0027953833
15	0x00001f25	1.1173e-41
16	0x3a1cb8b2	0.00059784495
17	0xbb062c3c	-0.0020473143
18	0x3c09ee78	0.008418672
19	0x3c19f86c	0.009397607
20	0x3b367257	0.0027839148
21	0x3b4633db	0.003024331
22	0xbabf5198	-0.001459646
23	0x3b65f239	0.0035087003
24	0xbc02ffd1	-0.007995562
25	0x3bce6b14	0.006299386
26	0x00009c4f	5.6073e-41
27	0xbb8e9bd3	-0.004352072
28	0xb9f18d22	-0.00046072254
29	0xbbdc8acf	-0.0067304145
30	0x3abd1ded	0.0014428474
31	0xbb80147c	-0.003908692
32	0xbbe511b0	-0.006990634
33	0xbb6d3886	-0.003619702
34	0x3b7db7e3	0.0038714341
35	0xbb888f5d	-0.004167481
36	0xbb911995	-0.0044280984
37	0x3af3c0ee	0.0018596926
38	0x3ae4acac	0.001744648
39	0x3b7bf6d4	0.0038446682
40	0x3acc356c	0.0015579886
41	0x3ab1711a	0.0013537735
42	0xbbcac500	-0.006188035
43	0xbb5f7aae	-0.0034100222
44	0xbb1df393	-0.002410148
45	0xbaccc4fb	-0.001562267
46	0xbae1a4a8	-0.0017215209
47	0xbbac015c	-0.0052491855
48	0x3bb37a4e	0.0054772263
49	0x3b47648e	0.0030424925
50	0xbbc72970	-0.006077938
51	0xbbe24386	-0.006905022
52	0x3a4de5f7	0.0007854397
53	0x3b68881c	0.0035481518
54	0xb94c97e7	-0.00019511544
55	0xbbde1232	-0.0067770714
56	0x3bbf8e99	0.0058458564
57	0xbacb69ac	-0.0015519164
58	0xba43a2f9	-0.00074629445
59	0xbc08990f	-0.008337273
60	0xbb93121e	-0.0044882437
61	0x3b336b2a	0.0027377107
62	0xbc048e03	-0.008090499
63	0xbb464b6f	-0.0030257364
64	0xbaa31ee6	-0.0012445122
65	0x398f6f8d	0.00027358197
66	0x3b6ba1d4	0.0035954611
67	0xbb85ac68	-0.0040793903
68	0x3b096113	0.0020962402
69	0xbbc96b2b	-0.0061468086
70	0xbc157844	-0.009122912
71	0x3ba5f537	0.0050646323
72	0x800045bb	-2.5015e-41
73	0xbb180780	-0.002319783
74	0x3b6269db	0.0034547958
75	0x3c1fed86	0.00976122
76	0x0000862e	4.8135e-41
77	0xbba9e245	-0.005184444
78	0x3a9be972	0.0011895134
79	0x3bdb5140	0.0066930354
80	0x39be392e	0.00036282226
81	0xbbe7f351	-0.007078566
82	0xbaf54cea	-0.0018714939
83	0x3b392880	0.00282529
84	0xbbbab89d	-0.005698277
85	0xbb78c2f0	-0.0037957989
86	0xbb992806	-0.0046739606
87	0xbb376474	-0.0027983459
88	0xbbf982a9	-0.007614453
89	0x00004fc2	2.8612e-41
90	0xbb0896c3	-0.0020841814
91	0xb9fe258e	-0.00048474636
92	0xbaed78f2	-0.001811771
93	0xbbec800e	-0.0072174137
94	0xbb7f2651	-0.003893275
95	0x3bd9cd84	0.006646814
96	0x00002525	1.3325e-41
97	0xbb9bde69	-0.004756738
98	0xbb706733	-0.0036682605
99	0xba689abb	-0.00088731543
100	0xbba32a05	-0.0049793744
101	0x38d7c32d	0.00010288353
102	0x3c179364	0.009251449
103	0x3a1e9b9f	0.0006050411
104	0x3b590cdf	0.0033119244
105	0x3aeedb4c	0.0018223315
106	0x00003b8e	2.1364e-41
107	0x39b1a008	0.00033879303
108	0xba41e419	-0.0007396355
109	0xb8852102	-6.3480824e-05
110	0x3bc4ad55	0.006002108
111	0x3bf94803	0.0076074614
112	0x3b1a6e8a	0.0023564422
113	0x3b369fba	0.00278662
114	0xbbb7ea22	-0.0056126276
115	0xba65071d	-0.00087367167
116	0x3857c495	5.1443076e-05
117	0xbb242edc	-0.0025052344
118	0xbb04a7da	-0.002024165
119	0xbbc4d9c1	-0.0060074036
120	0x3be97cfb	0.0071254945
121	0x39833ed1	0.0002503307
122	0xba74617e	-0.0009322389
123	0x3bb9e7c0	0.0056733787
124	0xbbb1301a	-0.0054073455
125	0x3b61b565	0.0034440395
126	0xbae9e64f	-0.0017845127
127	0x3b62f526	0.0034630983
128	0x80000828	-2.926e-42
129	0x00008db0	5.0828e-41
130	0x80000cc1	-4.575e-42
131	0x80000197	-5.7e-43
132	0x80000133	-4.3e-43
133	0x8000154f	-7.644e-42
134	0x000005fa	2.144e-42
135	0x000001f2	6.98e-43
136	0x80000bbe	-4.212e-42
137	0x800000b3	-2.51e-43
138	0x00000581	1.974e-42
139	0x00000133	4.3e-43
140	0x06817265	4.8692494e-35
141	0x0000008e	1.99e-43
142	0x80000f85	-5.567e-42
143	0x80006a5e	-3.8157e-41
144	0x00000040	9e-44
145	0x00000186	5.47e-43
146	0x00001418	7.208e-42
147	0x80000328	-1.132e-42
148	0x80000625	-2.204e-42
149	0x00000e47	5.122e-42
150	0x80001450	-7.287e-42
151	0x0000020a	7.31e-43
152	0x80000f47	-5.48e-42
153	0x0000024f	8.28e-43
154	0x8000a951	-6.0739e-41
155	0x00000822	2.918e-42
156	0x0000031c	1.115e-42
157	0x00000e35	5.097e-42
158	0x80000afc	-3.94e-42
159	0x00000bc9	4.228e-42
160	0x80000d3e	-4.75e-42
161	0x00000b1a	3.982e-42
162	0x80000d6f	-4.819e-42
163	0x00001337	6.893e-42
164	0x800001be	-6.25e-43
165	0x00000f51	5.494e-42
166	0x000012b9	6.716e-42
167	0x800009aa	-3.467e-42
168	0x80068c26	-6.01289e-40
169	0x800f618f	-1.41253e-39
170	0x8000103f	-5.828e-42
171	0x80000b28	-4.002e-42
172	0x00000646	2.25e-42
173	0x00000d8f	4.864e-42
174	0x0f43a05e	9.645128e-30
175	0x00000e57	5.144e-42
176	0x800002ec	-1.048e-42
177	0x80000187	-5.48e-43
178	0x00000e7a	5.193e-42
179	0x800009d2	-3.523e-42
180	0x800006af	-2.398e-42
181	0x0000087e	3.046e-42
182	0x0000063b	2.235e-42
183	0x8000111e	-6.14e-42
184	0x8000025d	-8.48e-43
185	0x000010a7	5.974e-42
186	0x0000020f	7.38e-43
187	0x80001344	-6.911e-42
188	0x00000f3e	5.468e-42
189	0x80000dcd	-4.951e-42
190	0x8000065a	-2.279e-42
191	0x000010c3	6.013e-42
192	0x8000141b	-7.212e-42
193	0x00000dee	4.997e-42
194	0x00000acf	3.877e-42
195	0x8000131f	-6.86e-42
196	0x800014be	-7.441e-42
197	0x8000097c	-3.402e-42
198	0x80001124	-6.149e-42
199	0x800010fd	-6.094e-42
200	0x80004a29	-2.6604e-41
201	0x80000e73	-5.183e-42
202	0x0000128c	6.653e-42
203	0x00000771	2.67e-42
204	0x000098b8	5.4785e-41
205	0x00001126	6.152e-42
206	0x800011c8	-6.379e-42
207	0x00001269	6.604e-42
208	0x80000075	-1.64e-43
209	0x8e83cc72	-3.2490867e-30
210	0x8000085e	-3.002e-42
211	0x00001349	6.918e-42
212	0x00000779	2.68e-42
213	0x80000fe7	-5.705e-42
214	0x800000a9	-2.37e-43
215	0x000005b9	2.053e-42
216	0x000e4c40	1.31305e-39
217	0x8000a42a	-5.8891e-41
218	0x800004e5	-1.756e-42
219	0x000008dc	3.178e-42
220	0x000007df	2.824e-42
221	0x00000d1d	4.704e-42
222	0x00001508	7.545e-42
223	0x0000025d	8.48e-43
224	0x80001d16	-1.0434e-41
225	0x80000445	-1.532e-42
226	0x800003b1	-1.324e-42
227	0x80000f5a	-5.507e-42
228	0x8001f375	-1.79171e-40
229	0x000012c1	6.728e-42
230	0x0000063a	2.234e-42
231	0x800009b4	-3.481e-42
232	0x0000127a	6.628e-42
233	0x00000d8b	4.858e-42
234	0x800041b9	-2.3577e-41
235	0x00000343	1.17e-42
236	0x00000855	2.989e-42
237	0x0000123d	6.543e-42
238	0x80001276	-6.623e-42
239	0x80000f4a	-5.485e-42
240	0x0000017c	5.32e-43
241	0x00000e53	5.139e-42
242	0x800011b3	-6.349e-42
243	0x00000424	1.485e-42
244	0x00000664	2.293e-42
245	0x80000b9a	-4.162e-42
246	0x80000bce	-4.235e-42
247	0x0000024d	8.25e-43
248	0x800017f9	-8.6e-42
249	0x0002d882	2.6134e-40
250	0x0000184a	8.713e-42
251	0x80000974	-3.391e-42
252	0x00000bc2	4.218e-42
253	0x0000017d	5.34e-43
254	0x800004d8	-1.738e-42
255	0x00000f6b	5.531e-42

6.bias f4 [256]
0	0xbbc0d397	-0.0058845985
1	0xaf30793b	-1.6050176e-10
2	0xbd229dd2	-0.03970129
3	0x9e225802	-8.594408e-21
4	0xba82ca79	-0.0009978554
5	0xbbac2067	-0.005252886
6	0xbb88828f	-0.0041659544
7	0xa606c42f	-4.675647e-16
8	0x3cc5bfdf	0.024139343
9	0x9320b234	-2.02827e-27
10	0xbb956179	-0.004558739
11	0xb71178ae	-8.670771e-06
12	0xbdaef998	-0.085437
13	0xb02c9bae	-6.279447e-10
14	0xbda4d38f	-0.08048164
15	0xbe80b9b5	-0.25141683
16	0x392d216f	0.0001651102
17	0x3cdc7e27	0.026915623
18	0x0d0b2037	4.287146e-31
19	0xbe866d91	-0.26255468
20	0xb76f6496	-1.426893e-05
21	0xa8942ad8	-1.6449881e-14
22	0xbe51349f	-0.2043023
23	0x8f5ccad4	-1.0885901e-29
24	0x3c4c898e	0.0124839675
25	0xbbaed74f	-0.0053357254
26	0xa18c94f3	-9.526196e-19
27	0xbd08ff9a	-0.033446886
28	0xbe18626e	-0.14881298
29	0xbd5bd582	-0.053670414
30	0xb36d55c5	-5.525887e-08
31	0xbb9746c6	-0.004616591
32	0xbb142e65	-0.002261066
33	0xbbbf44df	-0.0058370675
34	0xaec0789a	-8.752572e-11
35	0xbd0cad74	-0.034345105
36	0xbd5100d4	-0.05102618
37	0xbb9c865e	-0.00477676
38	0xbd21f140	-0.039536715
39	0xb9cb036a	-0.0003872172
40	0xba294597	-0.0006457208
41	0xaa89dc9b	-2.4489164e-13
42	0xb8d07cee	-9.941483e-05
43	0x3bc31f36	0.0059546484
44	0xbb86af7d	-0.0041102753
45	0xbbb812cb	-0.0056174747
46	0xb888404f	-6.496964e-05
47	0xbd8aede0	-0.06783652
48	0xbcca2c0a	-0.024679203
49	0xb35937a0	-5.057484e-08
50	0xbd1d4778	-0.038398236
51	0xbe08eb7e	-0.13371083
52	0xbb7a6f30	-0.0038213246
53	0xbe27da0c	-0.16391772
54	0xb9304e70	-0.00016813888
55	0xbb60484d	-0.0034222782
56	0xbdb81d36	-0.089899465
57	0xbd06a837	-0.032875266
58	0xbb6b4dda	-0.0035904557
59	0xbda70d4e	-0.081568345
60	0xb8e94507	-0.00011123163
61	0xaabc8ff5	-3.34954e-13
62	0xb8284c15	-4.012518e-05
63	0x3c0e1cce	0.00867386
64	0xb98cd154	-0.00026858842
65	0xbb3d26ee	-0.0028862315
66	0xbba8ce3c	-0.005151538
67	0x3d3562d1	0.04428369
68	0xb7b1deba	-2.120376e-05
69	0xbd6ad8bc	-0.0573356
70	0xb79775d2	-1.8055467e-05
71	0xbcede38e	-0.02903917
72	0xbb691436	-0.0035565025
73	0xb0f5c30a	-1.788153e-09
74	0xbb35fa7f	-0.0027767716
75	0xbd63a899	-0.05558071
76	0xbaf4c437	-0.0018674199
77	0x39f0f9e1	0.00045962541
78	0x3c2d8347	0.010590381
79	0xbb2d658c	-0.0026458232
80	0x959bfc38	-6.300193e-26
81	0xaf5326d9	-1.920414e-10
82	0xbdd310b7	-0.103059225
83	0xbd2bb3f5	-0.041919667
84	0xbdaf5119	-0.0856039
85	0xb2c14206	-2.2498181e-08
86	0xbcce4db5	-0.025183538
87	0xbdbfff53	-0.09374871
88	0xbd623b4c	-0.05523233
89	0xbb016a9e	-0.0019747387
90	0xbb9162d9	-0.0044368324
91	0xbb4a0da6	-0.003083089
92	0x3cfdf4a9	0.031000452
93	0xb2096667	-7.997733e-09
94	0xbb2ff714	-0.002685015
95	0xb99505e6	-0.0002842389
96	0xbc2bd515	-0.010487814
97	0xbaea9c10	-0.0017899293
98	0xbcb1652a	-0.021654684
99	0xbe03c662	-0.12868646
100	0x3c558be5	0.013033842
101	0xbd459c06	-0.0482445
102	0xbcc4244d	-0.02394309
103	0x3d3f9d07	0.046780612
104	0x3d1a4e6d	0.03767245
105	0xbbaba8a6	-0.0052386103
106	0xbce6a55a	-0.028155018
107	0xb96bee33	-0.00022500083
108	0xbd05456e	-0.032536916
109	0xbd822412	-0.06354536
110	0xbacda85b	-0.0015690433
111	0xbdc16899	-0.094437785
112	0xbadc13be	-0.0016790552
113	0xbd735ccd	-0.059414674
114	0xb9fa8560	-0.00047783088
115	0x3d2d0174	0.042237714
116	0x8bba2475	-7.169945e-32
117	0xbddccdec	-0.10781464
118	0xba7f243f	-0.0009732879
119	0xbd9f5ad1	-0.07780994
120	0xbb11b3c3	-0.002223239
121	0xbb4c47ba	-0.0031170682
122	0xbab135d0	-0.0013520066
123	0xbb2788fc	-0.0025563827
124	0xbba1f399	-0.004942369
125	0xbacb0b22	-0.0015490989
126	0xbdcc14ca	-0.09964903
127	0xa792a873	-4.0705773e-15
128	0xbaf85597	-0.0018946406
129	0xbbdb0d94	-0.0066849682
130	0xbe48eeb2	-0.19622305
131	0xb2df37af	-2.5985939e-08
132	0xbb3d92cd	-0.0028926611
133	0xbbae9c83	-0.0053287162
134	0xbe4110be	-0.18854043
135	0xbb955427	-0.004557151
136	0xa6990ded	-1.0620282e-15
137	0xbbbfdd32	-0.005855226
138	0xa9f770d6	-1.09885774e-13
139	0xb2abea26	-2.0013498e-08
140	0xb8a8525c	-8.026205e-05
141	0xbb0b95cd	-0.0021299005
142	0xb70186ae	-7.720357e-06
143	0x3c96a14c	0.01838746
144	0xb5e0879e	-1.672877e-06
145	0xbb935126	-0.0044957576
146	0xbb92d616	-0.0044810874
147	0xb12fa82b	-2.5561444e-09
148	0x928068d5	-8.103779e-28
149	0xbe7c3c7f	-0.24632452
150	0xacf33965	-6.9128475e-12
151	0xbb9d73df	-0.0048050727
152	0x3c803f28	0.015655115
153	0xbe056635	-0.1302727
154	0x3d339543	0.04384352
155	0x3db03f03	0.086057685
156	0xbb7e7988	-0.0038829762
157	0xbd4ed4bc	-0.050495848
158	0xb0ad3679	-1.2602889e-09
159	0x3a7c5d33	0.0009626925
160	0xbb27ec6a	-0.0025623091
161	0xb817d64e	-3.6200792e-05
162	0xb4a0d5d7	-2.995791e-07
163	0xbd23c940	-0.03998685
164	0xbc413972	-0.011793481
165	0xb953e913	-0.00020209355
166	0xbbc7d0be	-0.006097882
167	0xbd95509e	-0.07290767
168	0xab7908ee	-8.8474963e-13
169	0xbba64f0f	-0.0050753425
170	0xbd85ca98	-0.06532782
171	0xa9ddba0c	-9.8466455e-14
172	0xbba707e9	-0.0050973785
173	0xb833f535	-4.2905293e-05
174	0x3d06a3b5	0.032870967
175	0xbc107230	-0.008816287
176	0x8a12836f	-7.054364e-33
177	0xba854444	-0.001016744
178	0xbbd072e2	-0.0063613513
179	0xbe04c6d4	-0.12966472
180	0xa23cc7bd	-2.5584492e-18
181	0xbc955fb3	-0.01823411
182	0xbb48a74b	-0.0030617293
183	0xbe471a23	-0.19443564
184	0xbdbb1db3	-0.09136524
185	0xbd72c8f4	-0.059273675
186	0xbc8e8918	-0.017399356
187	0xa3027f44	-7.074264e-18
188	0xbe37fe80	-0.17968178
189	0xbe695d74	-0.22789556
190	0xbd03e8b1	-0.032204334
191	0x9cfea8df	-1.6851962e-21
192	0xbb9d397c	-0.0047981124
193	0xa2ac513d	-4.6706708e-18
194	0x9c6645ae	-7.6190675e-22
195	0xb4483081	-1.8644097e-07
196	0xb7e6e846	-2.7526297e-05
197	0xbb80f9f1	-0.0039360453
198	0xbdd14460	-0.102181196
199	0xbe020e04	-0.12700659
200	0xb461202f	-2.0966466e-07
201	0xbd13cb03	-0.03608228
202	0xba719465	-0.0009215533
203	0xbc1f2d78	-0.00971543
204	0xbb241eb3	-0.0025042712
205	0xbe21d73b	-0.1580476
206	0xbb111897	-0.00221399
207	0xbd8a19fa	-0.06743236
208	0xb93dec63	-0.00018112505
209	0xbb154688	-0.0022777636
210	0xbde1b978	-0.110217035
211	0x3c639954	0.013891537
212	0xbc8a0d37	-0.016852004
213	0xb0640560	-8.2953555e-10
214	0xb06dc6c6	-8.650257e-10
215	0xbe1e5172	-0.15460756
216	0xbb080cef	-0.0020759662
217	0xbbc91a20	-0.0061371475
218	0xbe350385	-0.17677124
219	0xb3798d4b	-5.8103335e-08
220	0xb7f2d50e	-2.894786e-05
221	0xbe7cbf1b	-0.24682276
222	0xbb440f02	-0.0029916172
223	0xbd510265	-0.051027674
224	0xbe0ad7b8	-0.13558853
225	0xbeacf118	-0.3377769
226	0xbb810520	-0.0039373785
227	0x3d63a5d6	0.055578075
228	0xbd1668bf	-0.036720987
229	0xba88d8fa	-0.0010440641
230	0xb8a1ec6b	-7.7211145e-05
231	0xb4502f0f	-1.938863e-07
232	0xa2be8593	-5.164103e-18
233	0xb58627cb	-9.995359e-07
234	0x3cd78c12	0.026311908
235	0xbba318c8	-0.0049773194
236	0xbcaa4d98	-0.020788953
237	0xbd28282d	-0.04105394
238	0xbb3057de	-0.0026907842
239	0xbe027ce3	-0.12742953
240	0xbdb59124	-0.08865574
241	0xbd206dd0	-0.039167225
242	0x3d89e6d4	0.0673348
243	0xbd3e4def	-0.046461042
244	0xa5c25935	-3.3714084e-16
245	0xbdd12fcf	-0.10214197
246	0x3a51a6c5	0.0007997568
247	0xbaa60cc7	-0.0012668603
248	0x9577c2f1	-5.0035034e-26
249	0xb90874ef	-0.00013013532
250	0xbc7e8f54	-0.015537102
251	0xbb919bb2	-0.004443609
252	0x9c8fafcf	-9.508392e-22
253	0x3ce29bbf	0.027662156
254	0xbb1a5540	-0.0023549348
255	0x3d9a992d	0.07548747

8.weight f4 [128, 256]
0	0x000007e6	2.833e-42
1	0x00009df7	5.6667e-41
2	0x8490e48e	-3.406413e-36
3	0x000092ca	5.2658e-41
4	0x800063d5	-3.5813e-41
5	0x2938c48e	4.102669e-14
6	0x9a07ab87	-2.8055904e-23
7	0x80005f02	-3.4082e-41
8	0x84d8dcfe	-5.0984305e-36
9	0x000069c6	3.7944e-41
10	0x00003103	1.7582e-41
11	0x00009a32	5.5315e-41
12	0x0000063c	2.236e-42
13	0x00009379	5.2903e-41
14	0x00372b4c	5.066484e-39
15	0x80001165	-6.24e-42
16	0xb3d2f420	-9.823293e-08
17	0xb0233a31	-5.938175e-10
18	0x80009674	-5.3972e-41
19	0x000000a9	2.37e-43
20	0x80002679	-1.3801e-41
21	0x000045b3	2.5003e-41
22	0x00000c14	4.333e-42
23	0x00009b22	5.5651e-41
24	0x91f791c9	-3.9059576e-28
25	0x00000d4e	4.773e-42
26	0x00000530	1.861e-42
27	0x0001ad73	1.54057e-40
28	0x80001ef1	-1.11e-41
29	0x00000fe7	5.705e-42
30	0x80006d22	-3.915e-41
31	0x00004119	2.3353e-41
32	0x000049a7	2.6421e-41
33	0x80001ac9	-9.609e-42
34	0x000099d9	5.519e-41
35	0x80000497	-1.647e-42
36	0x8e031544	-1.6157236e-30
37	0x0000979f	5.4391e-41
38	0x80000950	-3.34e-42
39	0x8000111d	-6.139e-42
40	0x000095be	5.3717e-41
41	0x80009a77	-5.5412e-41
42	0x00003287	1.8126e-41
43	0x0a19ff70	7.4147245e-33
44	0x80001ad8	-9.63e-42
45	0x00000864	3.01e-42
46	0x8000a256	-5.8235e-41
47	0x00000b5e	4.078e-42
48	0x2300e419	6.9871955e-18
49	0x80009b2c	-5.5665e-41
50	0x00000e17	5.054e-42
51	0x80001360	-6.95e-42
52	0x800087ac	-4.867e-41
53	0x80000a27	-3.642e-42
54	0x80000b04	-3.952e-42
55	0x00007cbb	4.4745e-41
56	0x048d98a4	3.328912e-36
57	0x80001055	-5.859e-42
58	0x00003a7f	2.0984e-41
59	0x0000124d	6.565e-42
60	0x80006f38	-3.9898e-41
61	0x80002691	-1.3835e-41
62	0x8000abe6	-6.1666e-41
63	0x8000187c	-8.783e-42
64	0x80008966	-4.9289e-41
65	0x8000390d	-2.0466e-41
66	0x0000678b	3.7144e-41
67	0x800002e7	-1.041e-42
68	0x8000a662	-5.9687e-41
69	0x9e194003	-8.11299e-21
70	0x0000977d	5.4344e-41
71	0x02637afd	1.6712622e-37
72	0x8000516a	-2.9206e-41
73	0x00002d1e	1.6185e-41
74	0x8000ab69	-6.149e-41
75	0x00002905	1.4715e-41
76	0x00003aa6	2.1039e-41
77	0x00001099	5.954e-42
78	0x80000154	-4.76e-43
79	0x0000a5ba	5.9451e-41
80	0x800088de	-4.9099e-41
81	0x00002b29	1.5483e-41
82	0x800004b0	-1.682e-42
83	0x00000cbc	4.568e-42
84	0x95aa43fd	-6.876972e-26
85	0x80006935	-3.7741e-41
86	0x8000145e	-7.306e-42
87	0x0000006f	1.56e-43
88	0x87ed49b6	-3.570312e-34
89	0x80000a5f	-3.72e-42
90	0x80001fe3	-1.1439e-41
91	0x00000f91	5.584e-42
92	0x00000fd7	5.682e-42
93	0x00005089	2.889e-41
94	0x8000300b	-1.7235e-41
95	0x80000b01	-3.947e-42
96	0x80000020	-4.5e-44
97	0x80002433	-1.2986e-41
98	0x80001aa0	-9.551e-42
99	0x9141a91a	-1.5277124e-28
100	0x1712d1bc	4.7439866e-25
101	0x8000160d	-7.91e-42
102	0x0000156d	7.686e-42
103	0x1bad75fd	2.8696697e-22
104	0xa315fef2	-8.131293e-18
105	0x80009a96	-5.5455e-41
106	0xaf0e3f03	-1.2937211e-10
107	0x800083d4	-4.7291e-41
108	0x8000034d	-1.184e-42
109	0x80000c0a	-4.319e-42
110	0x80005823	-3.1617e-41
111	0x00000d40	4.753e-42
112	0x80005f0e	-3.4099e-41
113	0x10af079a	6.903704e-29
114	0x000097c0	5.4438e-41
115	0x800012c4	-6.732e-42
116	0x00001b81	9.867e-42
117	0x800014d9	-7.479e-42
118	0x0000a8e6	6.059e-41
119	0x2393cd47	1.602471e-17
120	0x8000a390	-5.8675e-41
121	0x00000dac	4.905e-42
122	0x80003d5d	-2.2013e-41
123	0x80007094	-4.0385e-41
124	0x800089e7	-4.947e-41
125	0x00008f19	5.1334e-41
126	0x80001202	-6.46e-42
127	0x000093b9	5.2993e-41
128	0x800084f5	-4.7696e-41
129	0x00006970	3.7824e-41
130	0x954c5114	-4.126143e-26
131	0x000067ce	3.7238e-41
132	0x0000287d	1.4524e-41
133	0x80001eb3	-1.1013e-41
134	0x8896235e	-9.036111e-34
135	0x00002ac6	1.5344e-41
136	0x8000a24f	-5.8225e-41
137	0x8000a3c3	-5.8747e-41
138	0x00000af4	3.929e-42
139	0x0000a6ee	5.9883e-41
140	0x800071f9	-4.0886e-41
141	0x0000926c	5.2526e-41
142	0x800027ed	-1.4323e-41
143	0x00000525	1.846e-42
144	0x80009a91	-5.5448e-41
145	0x800053d1	-3.0068e-41
146	0x00006109	3.481e-41
147	0x00008a83	4.9689e-41
148	0x00003465	1.8796e-41
149	0x00000ead	5.265e-42
150	0x000000ae	2.44e-43
151	0x0000490d	2.6206e-41
152	0x8000131b	-6.854e-42
153	0x800007bb	-2.773e-42
154	0x0000033d	1.162e-42
155	0x1128fde0	1.3331094e-28
156	0x0000a042	5.749e-41
157	0x9af1fa80	-1.0007997e-22
158	0x000031cc	1.7864e-41
159	0x800001a7	-5.93e-43
160	0x800099a5	-5.5117e-41
161	0x80008b32	-4.9934e-41
162	0x80005c31	-3.3072e-41
163	0xb2e8e3da	-2.711197e-08
164	0x97ccad97	-1.3227011e-24
165	0x00001348	6.917e-42
166	0x80000348	-1.177e-42
167	0x00000c37	4.382e-42
168	0x00004204	2.3682e-41
169	0x0000909f	5.188e-41
170	0x00001339	6.896e-42
171	0x00004bc4	2.718e-41
172	0x00000188	5.5e-43
173	0x00008e3f	5.1028e-41
174	0x80001515	-7.563e-42
175	0x0000a62f	5.9615e-41
176	0x80005bd7	-3.2946e-41
177	0x00003769	1.9877e-41
178	0xb2ebf04e	-2.7466879e-08
179	0x80000e73	-5.183e-42
180	0x00002e64	1.6642e-41
181	0x8000036a	-1.225e-42
182	0x00009e84	5.6865e-41
183	0x000015ae	7.777e-42
184	0x00000524	1.844e-42
185	0x00000009	1.3e-44
186	0x80001461	-7.31e-42
187	0x00000e69	5.17e-42
188	0x9ea290eb	-1.7212354e-20
189	0x80000719	-2.546e-42
190	0x800010b2	-5.989e-42
191	0x80008c53	-5.0339e-41
192	0x00000893	3.076e-42
193	0x80002702	-1.3993e-41
194	0x00000321	1.122e-42
195	0x80001e6a	-1.091e-41
196	0x00009a0d	5.5263e-41
197	0x00008831	4.8856e-41
198	0x9282adcd	-8.246999e-28
199	0x00002cc3	1.6057e-41
200	0x80000529	-1.851e-42
201	0x97a2328d	-1.0481765e-24
202	0x0000928d	5.2573e-41
203	0x8000612a	-3.4856e-41
204	0x0000081a	2.906e-42
205	0x80000913	-3.255e-42
206	0x00008d35	5.0656e-41
207	0x000000ba	2.6e-43
208	0x00002f20	1.6905e-41
209	0x80003a4e	-2.0916e-41
210	0x8000299d	-1.4928e-41
211	0x8000124a	-6.561e-42
212	0x0000024a	8.21e-43
213	0x80009bb4	-5.5856e-41
214	0x800095e0	-5.3765e-41
215	0x00001946	9.066e-42
216	0x0000a5f4	5.9533e-41
217	0x80002e89	-1.6694e-41
218	0x000009ec	3.559e-42
219	0x00001622	7.94e-42
220	0x00000a3e	3.674e-42
221	0x800007f7	-2.857e-42
222	0x0000113c	6.183e-42
223	0x8000040a	-1.449e-42
224	0x80001ae0	-9.641e-42
225	0x800005ed	-2.126e-42
226	0x8000986e	-5.4681e-41
227	0x09fae7c2	6.0403255e-33
228	0x80000e80	-5.202e-42
229	0x000069e8	3.7992e-41
230	0x800074ab	-4.1853e-41
231	0x000044c6	2.4671e-41
232	0x800064c3	-3.6146e-41
233	0x800045b7	-2.5009e-41
234	0x80000a8d	-3.785e-42
235	0x000096cc	5.4096e-41
236	0x0000133e	6.903e-42
237	0x00001462	7.312e-42
238	0x000030fb	1.7571e-41
239	0x800013e8	-7.141e-42
240	0x800013ee	-7.15e-42
241	0x000019aa	9.207e-42
242	0x00000aa5	3.819e-42
243	0x80001051	-5.853e-42
244	0x80007d9b	-4.5059e-41
245	0xa032438a	-1.5099533e-19
246	0x80000e4d	-5.13e-42
247	0x8000033e	-1.163e-42
248	0x8000176e	-8.405e-42
249	0x8000ad7d	-6.2236e-41
250	0x000013fa	7.166e-42
251	0x000005c0	2.063e-42
252	0x800091df	-5.2329e-41
253	0x9d1e80f0	-2.0977785e-21
254	0x00000ce3	4.623e-42
255	0x80000458	-1.558e-42
