Models/checkpoint_vel_D2_1000_600.pth (torch, 353077 bytes, 16 tensors)

0.weight f4 [32, 9]
0	0x3de1eadb	0.11031123
1	0xbdf3808a	-0.11889751
2	0xbe90e45a	-0.28299218
3	0x3d0d4ee9	0.034499083
4	0xbfa1a0ea	-1.2627232
5	0x3e5c452c	0.21510762
6	0x3c5bb274	0.013409246
7	0x3e90a942	0.28254133
8	0xbd167de6	-0.03674116
9	0xbd988228	-0.074467
10	0x3e0c7706	0.13717279
11	0x3e84a6f1	0.25908616
12	0xbd30eb79	-0.043193314
13	0x3fb8f048	1.4448328
14	0xbccf8d6e	-0.025335994
15	0xbce05a69	-0.02738686
16	0xbdce3457	-0.10068577
17	0xbd58ae0b	-0.052900355
18	0x3eca4c4d	0.39511338
19	0xbca9b698	-0.02071695
20	0xbc7e3b5e	-0.015517084
21	0xbd6ee740	-0.058326006
22	0xbe9c81e8	-0.3056786
23	0x3d32782f	0.043571647
24	0xbe0a23c5	-0.13490207
25	0x3cf5a25b	0.029984644
26	0x3dbdf079	0.09274382
27	0x3ddbce7e	0.10732745
28	0xbe64097f	-0.22269247
29	0x3ea8c8ed	0.32965794
30	0x3e3663f2	0.17811564
31	0x3e959435	0.29214635
32	0x3e84b3d9	0.25918463
33	0xbe7d1612	-0.2471545
34	0xbe2c8960	-0.1684928
35	0xbdb7d22f	-0.08975636
36	0x3de3611c	0.111025065
37	0xbdff4a2a	-0.124653175
38	0x3df49a5f	0.119435064
39	0xbe6b279f	-0.22964333
40	0x3f7af808	0.98034716
41	0xbddc9ff6	-0.10772698
42	0x3e4370c8	0.19085991
43	0x3c3c9527	0.01151017
44	0xbe468d3c	-0.19389814
45	0x3cea334d	0.028588915
46	0xbdb1eb7b	-0.086874925
47	0x3db35856	0.08757083
48	0xbfab6b9a	-1.3392212
49	0x3db54eaa	0.088528946
50	0xbef9b426	-0.48770255
51	0xbd31c50c	-0.04340081
52	0x3d8ca6a3	0.06867721
53	0xbd70085a	-0.058601715
54	0x3e2ef2a2	0.17084745
55	0xbc859c3b	-0.016309848
56	0x3ec4344a	0.38321143
57	0xbeb44170	-0.35206175
58	0xbe2a4ad2	-0.16630104
59	0x3e006887	0.12539874
60	0xbe8829d3	-0.2659441
61	0x3e6e269f	0.2325692
62	0x3e89d2bb	0.26918587
63	0x3dbe8944	0.09303525
64	0xbebe3787	-0.3715174
65	0xbed19d3e	-0.4094028
66	0x3eab1aef	0.33418986
67	0xbd54020b	-0.05175976
68	0xbdb577f2	-0.088607684
69	0xbd503851	-0.050834958
70	0x3d61e895	0.055153448
71	0x3d2f6638	0.042822093
72	0x3e087811	0.13327052
73	0x3e17187a	0.14755431
74	0x3e35b1ee	0.17743656
75	0xbf0083d2	-0.5020114
76	0xbe048420	-0.12941027
77	0x3db43001	0.087982185
78	0xbe3f41f1	-0.18677498
79	0x3d9ee0d1	0.07757724
80	0xbe23f3d3	-0.1601098
81	0xbe263b5f	-0.16233586
82	0x3d77728c	0.060411975
83	0xbf2c394d	-0.67274934
84	0xbf16ce71	-0.58908755
85	0x3e4ff96d	0.20309992
86	0xbe3f99ab	-0.18710963
87	0x3e12d2b1	0.14338185
88	0xbd783139	-0.060593817
89	0x3c31c841	0.010850967
90	0x3caae90c	0.020863079
91	0xbe8deb04	-0.27718365
92	0xbd22862e	-0.039678745
93	0x3fb43ce2	1.408108
94	0xbf9a8463	-1.2071651
95	0xbe574bf4	-0.21025068
96	0x3d9c6ce0	0.07637954
97	0x3df71abb	0.12065645
98	0xbdf5918c	-0.119906515
99	0xbd1e7e4a	-0.038694657
100	0x3e814239	0.25245836
101	0x3dc1aa00	0.09456253
102	0x3f43a294	0.7641995
103	0xbd5453de	-0.051837794
104	0xbe236735	-0.15957339
105	0xbe60a2d0	-0.21937108
106	0x3ea8e9a6	0.3299076
107	0xbd95a71f	-0.073072664
108	0x3e1ce03d	0.15319915
109	0x3a337c7a	0.00068468566
110	0xbdc54105	-0.09631542
111	0x3dc4b882	0.096055046
112	0x3fc24b8e	1.5179307
113	0xbd90294e	-0.07039128
114	0xbba72aaf	-0.005101524
115	0x3e8c0f67	0.273555
116	0x3d4627c7	0.04837778
117	0x3a9e19c2	0.001206212
118	0xbecc942a	-0.3995679
119	0xbc3516d8	-0.01105281
120	0x3d4f1077	0.05055281
121	0x3e1e46aa	0.15456644
122	0x3ecdfbba	0.40231115
123	0xbcf52f7a	-0.029929865
124	0x3e8f7630	0.28019857
125	0xbe8720a7	-0.263921
126	0xbe871f3e	-0.26391023
127	0x3bd47c69	0.0064845574
128	0x3e696dc9	0.22795786
129	0xbd07f543	-0.033192884
130	0xbf783556	-0.96956384
131	0x3d35e88b	0.044411223
132	0x3e407970	0.18796325
133	0x3dd3cc8e	0.1034175
134	0x3dcc852a	0.099863365
135	0x3e6be8bc	0.23038
136	0x3ea4b732	0.32171017
137	0x3e8b1a6e	0.27168602
138	0xbe0dbc34	-0.13841325
139	0xbfbcc769	-1.4748355
140	0xbe08c362	-0.13355783
141	0x3db94d1e	0.09047912
142	0xbe59b9a4	-0.21262223
143	0xba67da9e	-0.0008844527
144	0xbbb1a70d	-0.0054215253
145	0xbe47b099	-0.1950096
146	0xbd6e4672	-0.05817265
147	0x3d93e019	0.072204776
148	0xbddf43eb	-0.10901626
149	0x3fb4ea1c	1.4133945
150	0xbd1a44c3	-0.037663233
151	0xbb8cb473	-0.004293972
152	0xbd61cbd0	-0.05512601
153	0xbc6a93ec	-0.014317494
154	0xbec31895	-0.38104692
155	0xbe16e891	-0.14737155
156	0xbf6ad6de	-0.9173411
157	0x3d280ced	0.041027952
158	0x3be734f2	0.007055872
159	0x3c61bb48	0.0137775615
160	0xbe26d247	-0.16291152
161	0x3e3b91c5	0.18317325
162	0x3e76b918	0.24094045
163	0x3d4fce54	0.05073388
164	0xbebee51e	-0.37284178
165	0x3d8e4256	0.06946246
166	0x3f4ca11d	0.7993334
167	0xbda2fd9c	-0.079585284
168	0xbe51b70d	-0.20479985
169	0xbe048724	-0.12942177
170	0xbe2ad282	-0.16681865
171	0x3d47163c	0.04860519
172	0x3e87f10b	0.2655109
173	0x3ed14aa0	0.40877247
174	0xbe838885	-0.25690094
175	0xbba49cf1	-0.0050235917
176	0x3de841a8	0.11340648
177	0x3c8c7a1f	0.017148076
178	0xbe834d73	-0.25645027
179	0x3ea00047	0.31250212
180	0xbd3f9152	-0.046769448
181	0xbd88d2bd	-0.0668082
182	0xbe792394	-0.24329978
183	0xbe886123	-0.2663661
184	0xbf8f27bb	-1.1184
185	0x3cabd6f3	0.02097652
186	0xbe963369	-0.29336098
187	0xbe4b24f1	-0.19838311
188	0xbbd94d3d	-0.006631522
189	0xbe6d1285	-0.23151596
190	0x3c709a79	0.014685267
191	0xbccac256	-0.02475087
192	0xbe8a00a4	-0.26953614
193	0x3eb073bd	0.344633
194	0x3f4e98a8	0.80701685
195	0xbdc06e14	-0.09395996
196	0x3d4a1c8a	0.049343623
197	0x3d72d572	0.05928559
198	0x3e91d429	0.28482178
199	0xbea5e804	-0.32403576
200	0x3ec3d466	0.38247985
201	0xbf118781	-0.5684739
202	0xbcea81a1	-0.028626265
203	0x3dec4d9e	0.11538242
204	0x3e314a38	0.17313468
205	0xbd85982b	-0.06523164
206	0xbc8869ac	-0.01665195
207	0xbc90f4cf	-0.017694859
208	0x3d199deb	0.037504118
209	0x3d37b646	0.044851564
210	0x3e78187e	0.24228093
211	0x3f34573b	0.70445603
212	0xbe72c057	-0.23706184
213	0x3eac1457	0.33609268
214	0x3e2bb3ed	0.16767855
215	0x3eab3c59	0.3344448
216	0x3dfaffdf	0.12255835
217	0xbe65eacd	-0.2245285
218	0xbe63172a	-0.22176805
219	0x3ef3a31b	0.47585377
220	0x3ef879cb	0.4853042
221	0x3e016ed3	0.12639932
222	0xbe15a05e	-0.14611956
223	0xbd1b3a33	-0.0378973
224	0x3ce47e19	0.02789216
225	0xbe0079f5	-0.12546523
226	0xbe50b30f	-0.20380805
227	0x3c42d353	0.011891204
228	0x3f050ac8	0.51969576
229	0x3f8c0a7d	1.0940701
230	0xbdf4a751	-0.119459756
231	0xbdad7e6f	-0.08471381
232	0x3e8f93f0	0.28042555
233	0xbd626073	-0.055267762
234	0xbd091b86	-0.033473514
235	0xbd171a8f	-0.036890563
236	0xbea34bfb	-0.31893906
237	0xbe21e1df	-0.15808819
238	0x3f04de5a	0.5190178
239	0xbdb93ac8	-0.09044415
240	0xbe7bc724	-0.24587685
241	0x3d58ebe2	0.05295933
242	0x3d20b235	0.03923245
243	0xbd5ff0c1	-0.05467296
244	0x3dddef19	0.1083662
245	0x3e64d5a1	0.22347118
246	0xbf1f8100	-0.62306213
247	0xbde89288	-0.113560736
248	0xbd67d2aa	-0.05659739
249	0x3ea2d5e3	0.31803808
250	0x3eb5d47e	0.3551368
251	0xbdf9488b	-0.121720396
252	0x3ecabb8f	0.3959622
253	0x3ede6c49	0.4344199
254	0xbe4d128d	-0.20026608
255	0xbf55c911	-0.8350993

0.bias f4 [32]
0	0xbdc1789c	-0.094468325
1	0xba1790ff	-0.0005781799
2	0x3cdadb18	0.0267158
3	0x3bce4cbb	0.006295768
4	0x3e618eab	0.2202708
5	0x3ed0feee	0.40819496
6	0x3d43a1b6	0.04776164
7	0x3cb9a335	0.022660831
8	0x3d52e006	0.051483177
9	0x3e1a93ad	0.15095396
10	0xbf142373	-0.5786659
11	0x3db377c9	0.087630816
12	0x3efaeb76	0.49007767
13	0x3d280949	0.04102448
14	0x3d773c8b	0.060360473
15	0xbe6bc629	-0.23024811
16	0x3f0f4141	0.55958945
17	0x3dbe825f	0.0930221
18	0x3a181748	0.0005801809
19	0x3f00c612	0.5030223
20	0xbb696a01	-0.0035616162
21	0x3f06fb17	0.5272688
22	0x3efc0a48	0.49226594
23	0x3ded6d96	0.115931675
24	0xbe413904	-0.18869406
25	0xbe048c66	-0.12944183
26	0x3d8145e0	0.06312156
27	0xbc1f049a	-0.009705687
28	0x3e592e43	0.21209054
29	0x3e24198b	0.16025369
30	0xbe284869	-0.16433872
31	0xbe2575f2	-0.16158274

2.weight f4 [64, 32]
0	0x3cfd4ff8	0.030921921
1	0x3ebdab8b	0.3704494
2	0x3d14da22	0.03634084
3	0xbd945540	-0.07242823
4	0x3da06a94	0.07832828
5	0xbddb05d0	-0.10694468
6	0xbe2f99d1	-0.1714852
7	0xbd1c52c9	-0.038164888
8	0xbe0fe501	-0.14052202
9	0xbe6ffd83	-0.23436551
10	0x3c8c843c	0.017152898
11	0x3ea172ba	0.31532842
12	0x3d81386f	0.06309592
13	0xbe5af2d7	-0.21381699
14	0x3d5ea8b9	0.054360125
15	0x3d35a4b2	0.04434652
16	0x3cbd3921	0.02309853
17	0xbe686793	-0.2269576
18	0x3c6a4f6c	0.014301162
19	0xb9fb6ed3	-0.0004795702
20	0xbdd3a0ad	-0.10333381
21	0xbc2841be	-0.01026958
22	0x3c96231b	0.018327286
23	0x3dbdc54b	0.09266146
24	0xbcbacdda	-0.022803236
25	0xbd9ece64	-0.0775421
26	0x3bf634f4	0.0075136367
27	0xbde4dd9d	-0.11175082
28	0xbdd51bc1	-0.10405684
29	0xbdee5c18	-0.11638659
30	0x3e816f21	0.25280097
31	0xbd79e300	-0.0610075
32	0xbece3207	-0.40272543
33	0x3d794015	0.06085213
34	0xbd5a5d9b	-0.053311925
35	0x3e65590b	0.22397248
36	0x3e33398f	0.17502426
37	0x3db65b66	0.089041516
38	0xbe1239b1	-0.1427982
39	0x3e422027	0.18957578
40	0xbdc805b1	-0.097667105
41	0xbeea9255	-0.45814767
42	0x3e6ce0b6	0.23132595
43	0x3d7a969f	0.0611788
44	0x3d778667	0.06043091
45	0x3d97a9b2	0.07405414
46	0xbea84bba	-0.32870275
47	0xbe98e36d	-0.29861012
48	0xbe961c59	-0.29318503
49	0xbd290979	-0.0412688
50	0x3ccbb623	0.024867123
51	0x3e54a845	0.20767315
52	0xbbf35a5a	-0.007426542
53	0xbe929396	-0.28628224
54	0x3dd035ff	0.10166549
55	0x3e2e68c4	0.17032152
56	0x3dc2c9c0	0.09511137
57	0x3e85d21a	0.26136857
58	0x3e1b7608	0.15181744
59	0x3de6bd4c	0.11266574
60	0x3ec3a008	0.38208032
61	0xbe179f20	-0.14806795
62	0x3c9055f3	0.017619109
63	0x3c3968ed	0.01131652
64	0xbe0598a2	-0.13046506
65	0xbe8cab87	-0.27474615
66	0x3dc5820a	0.096439436
67	0x3e135844	0.1438914
68	0xbe6408cd	-0.22268982
69	0xbe6085fb	-0.2192611
70	0xbdafda26	-0.085865304
71	0x3de26075	0.11053554
72	0xbd8c33e6	-0.06845836
73	0x3ce27dea	0.027647931
74	0x3f0e884b	0.55676717
75	0xbe0223a4	-0.12708908
76	0x3ec01586	0.3751642
77	0xbdd0b11d	-0.10190032
78	0x3d88351b	0.06650754
79	0xbd9b2688	-0.07575709
80	0xbcb70ea1	-0.022345843
81	0x3bdf32d6	0.00681148
82	0x3dd87042	0.105682865
83	0xbe92435e	-0.28567022
84	0x3e37691f	0.17911194
85	0x3df0b00a	0.11752327
86	0xbdb52e1f	-0.088466875
87	0x3df3918f	0.118929975
88	0x3e6a5470	0.22883773
89	0xbd1863ee	-0.037204675
90	0x3d38eba6	0.045146607
91	0x3e5b224a	0.21399799
92	0xbdef9349	-0.11698014
93	0xbd135d03	-0.035977375
94	0x3e1f20dc	0.15539879
95	0x3e0341ce	0.12818071
96	0xbd5f3dc9	-0.054502282
97	0x3948a6d9	0.00019135642
98	0x3e10b550	0.14131665
99	0xbdcd35ce	-0.10020028
100	0xbdecfb53	-0.11571374
101	0x3d9379e9	0.07200987
102	0x3e0540fb	0.1301307
103	0xbd943c8f	-0.07238113
104	0x3e55cb86	0.2087842
105	0x3e50d375	0.20393164
106	0xbb97b770	-0.0046300218
107	0xbe7c5c3b	-0.24644558
108	0xbc8cbb8a	-0.01717927
109	0x3db298c0	0.08720541
110	0x3d733f40	0.05938649
111	0xbe9bfce9	-0.30466393
112	0xbe28a9fd	-0.16471095
113	0x3e6c5590	0.23079515
114	0xbdafa96e	-0.08577238
115	0xbcce8271	-0.025208684
116	0x3dcdd483	0.10050299
117	0xbebac0f0	-0.36475325
118	0x3e617c01	0.2201996
119	0xbc89d399	-0.01682453
120	0xbd359bf0	-0.044338167
121	0x3e01f459	0.12690867
122	0xbe13b685	-0.14425094
123	0x3d89ced6	0.06728904
124	0xbdc8b564	-0.098002225
125	0x3c879df4	0.01655481
126	0xbe768539	-0.24074258
127	0xbdd5da10	-0.10441983
128	0x3ea189c1	0.3155041
129	0x3db2153b	0.08695456
130	0x3d888bc4	0.06667283
131	0xbdebe8d3	-0.11519017
132	0x3e2b1d80	0.16710472
133	0xbe68d2c9	-0.22736658
134	0x3e755864	0.239595
135	0x3e1faded	0.15593691
136	0xbdfefd93	-0.12450709
137	0x3e4f8375	0.2026499
138	0x3c6af65f	0.014340966
139	0xbe4a0458	-0.1972822
140	0xbdd8846a	-0.10572131
141	0xbbd49d01	-0.006488443
142	0x3e1e5aab	0.15464275
143	0x3d541369	0.051776323
144	0x3eca4789	0.39507702
145	0x3ce28480	0.027651072
146	0xbea12375	-0.31472364
147	0xbe18349d	-0.1486382
148	0x3ea4d873	0.32196388
149	0xbe3d59ac	-0.18491238
150	0xbd81bbb9	-0.063346334
151	0xbd9c4c90	-0.07631791
152	0xbdccabf8	-0.09993738
153	0xbe126d53	-0.14299516
154	0xbcb1e81a	-0.02171712
155	0x3da2f5ac	0.079570144
156	0xbda7872f	-0.08180081
157	0xbd91c828	-0.07118255
158	0x3ec72816	0.3889777
159	0xbeb5d887	-0.3551676
160	0x3db1f3af	0.08689057
161	0x3e6ed2d5	0.23322614
162	0xbd3f9186	-0.04676964
163	0x3da01d13	0.078180455
164	0x3e62969f	0.2212777
165	0xbe8764c6	-0.26444072
166	0xbd6e9955	-0.058251698
167	0xbe3c5f5e	-0.18395755
168	0x3da3f5ec	0.0800589
169	0xbd2389c0	-0.03992629
170	0x3cb72a2a	0.022358973
171	0x3e80f4fa	0.25186902
172	0xbc8a7fb9	-0.016906606
173	0x3d081b65	0.03322925
174	0x3dc9e424	0.098579675
175	0x3ec737e5	0.38909832
176	0x3dbc8111	0.09204305
177	0x3d6d3e51	0.057920758
178	0x3d961535	0.07328264
179	0xbd16f073	-0.036850404
180	0xbe98226e	-0.29713768
181	0xbd883bfb	-0.06652065
182	0xbefb2df9	-0.49058512
183	0x3e78a7fe	0.24282834
184	0xbd1d34b5	-0.038380343
185	0xbd6f8116	-0.058472715
186	0xbe51959a	-0.20467225
187	0xbe13b079	-0.14422788
188	0x3d883b82	0.06651975
189	0x3e1627b4	0.14663583
190	0xbdaf55ae	-0.08561264
191	0x3d589a1a	0.052881338
192	0x3ed6d969	0.41962746
193	0x3cfaf965	0.030636499
194	0x3e5cb7ae	0.21554443
195	0xbc1e2941	-0.00965339
196	0xbe237a8d	-0.15964718
197	0xbe59b5f9	-0.21260823
198	0xbe42a50c	-0.19008273
199	0x3d4d180c	0.05007176
200	0xbd61aa16	-0.055093847
201	0x3d9851ff	0.074375145
202	0x3dc41d44	0.095758945
203	0xbe114df2	-0.1418989
204	0xbf33e88d	-0.7027672
205	0xbe2fe06f	-0.17175458
206	0x3e272cc5	0.16325672
207	0x3f119b47	0.5687756
208	0xbdd2f141	-0.10299922
209	0xbc2e26c2	-0.010629358
210	0xbd5ae0e3	-0.053437125
211	0xbd891cda	-0.06694956
212	0x3df78291	0.120854504
213	0xbb0722de	-0.0020620148
214	0xbcdaf0ab	-0.026726088
215	0xbeae5741	-0.34050944
216	0x3df710d7	0.12063759
217	0x3d041a97	0.03225192
218	0xbdb5e171	-0.0888089
219	0xbd5d74b4	-0.054066375
220	0xbd157aa4	-0.036493912
221	0xbd5e8afc	-0.054331765
222	0x3da22280	0.079167366
223	0x3de7d435	0.11319772
224	0x3da0f124	0.07858494
225	0x3cdb368c	0.026759408
226	0x3cb84010	0.022491485
227	0x3e342182	0.17590907
228	0xbdf91edf	-0.12164091
229	0xbe8b98fe	-0.2726516
230	0x3e4c04b7	0.19923674
231	0xbc8e4807	-0.01736833
232	0x3d03b746	0.032157205
233	0xbe41a59b	-0.1891083
234	0xbc83c13e	-0.016083356
235	0xbe8d9f36	-0.2766053
236	0x3f014ed6	0.5051092
237	0x3d2d5924	0.04232134
238	0x3b26eb1e	0.002546973
239	0xbe39b0cf	-0.18133853
240	0x3f181d18	0.59419394
241	0xbcab7ab8	-0.02093254
242	0x3cfb9ec7	0.03071536
243	0x3e3578c7	0.17721854
244	0xbdc7fe29	-0.09765274
245	0xbd94f085	-0.07272438
246	0xbdc197c6	-0.094527766
247	0x3d7f58bb	0.06234048
248	0x3c024a1f	0.007952242
249	0xbe6a0d62	-0.22856668
250	0xbd3c0f45	-0.045913
251	0xbdef565d	-0.11686394
252	0xbdc74a91	-0.09731019
253	0x3b154e40	0.0022782236
254	0xbe101774	-0.14071447
255	0xbdde5dcf	-0.10857736

2.bias f4 [64]
0	0x3ddc4030	0.1075443
1	0xbd8118ab	-0.06303533
2	0xbe86a9e5	-0.26301494
3	0x3e2c848a	0.16847435
4	0xbde7c55c	-0.1131694
5	0xbd4c1a59	-0.049829815
6	0xbf57ed60	-0.8434658
7	0x3dd8f983	0.105944656
8	0xbe1268d1	-0.14297797
9	0x3dd58299	0.104253
10	0xbb87dd54	-0.0041462574
11	0x3e8308f5	0.2559277
12	0xbefc81ab	-0.4931768
13	0xbe41bd16	-0.18919787
14	0xbe264f06	-0.16241083
15	0xbf362ccc	-0.71162105
16	0x3ee68335	0.45021978
17	0xbec8833b	-0.3916262
18	0x3e191ead	0.14953108
19	0xbf0dbbb5	-0.55364543
20	0x3f049405	0.5178836
21	0x3e0b3c4e	0.13597223
22	0xbeefbe10	-0.46824694
23	0x3d35e00b	0.044403117
24	0xbeda9818	-0.42694163
25	0xbf3bcf3b	-0.73363084
26	0x3cdf66ae	0.027270641
27	0x3e483259	0.19550456
28	0x3e9158a7	0.2838795
29	0xbe83be7e	-0.25731272
30	0xbf4b9668	-0.79526377
31	0xbe39e2ff	-0.18152998
32	0x3da06f3c	0.07833716
33	0x3e2d8649	0.16945757
34	0x3f05a3cc	0.5220306
35	0x3dd1f3e9	0.102516
36	0xbd4b1e2a	-0.049589314
37	0xbf2b8fe5	-0.6701644
38	0x3e53d770	0.20687652
39	0x3eb66063	0.35620412
40	0xbe917912	-0.28412682
41	0xbe79547f	-0.24348639
42	0xbae68200	-0.001758635
43	0x3e9d19b8	0.30683684
44	0xbe0a778c	-0.13522166
45	0x3ea0be31	0.31395105
46	0x3e95752e	0.29190964
47	0xbed1f20b	-0.41004977
48	0xbe667889	-0.22506918
49	0x3e27f73a	0.16402903
50	0x3e2baa79	0.16764249
51	0x3eb44c39	0.35214403
52	0x3d96cb51	0.07362998
53	0x3ed59027	0.41711542
54	0x3b4cd827	0.0031256767
55	0x3e8d1bbc	0.27560222
56	0x3cae729e	0.021294888
57	0x3e8219c4	0.25410283
58	0xbf0fec54	-0.56219983
59	0x3c2787b7	0.010225228
60	0xbe2b1412	-0.16706875
61	0x3e9e461d	0.30912867
62	0xbeb18997	-0.34675285
63	0xbda2b539	-0.07944722

4.weight f4 [128, 64]
0	0x3d3c0064	0.04589881
1	0xbd97990c	-0.07402238
2	0xbd8f899a	-0.07008667
3	0xbbe6edbe	-0.007047384
4	0x3cc3f291	0.023919376
5	0x3e217071	0.15765549
6	0x3a2580d0	0.0006313445
7	0x3d31c20d	0.043397952
8	0x3da7f8e7	0.08201771
9	0xbdb55405	-0.08853916
10	0x3de782ce	0.11304246
11	0x3d33da18	0.043909162
12	0x3bef055d	0.0072943405
13	0x3d8c3b7c	0.06847283
14	0xbdb29864	-0.087204725
15	0xbc9ca0c8	-0.019119635
16	0xbd1dca80	-0.038523197
17	0xbe1e90cf	-0.15484928
18	0xbcacb3dc	-0.021081857
19	0xbbb4d07c	-0.0055180173
20	0x3d03e240	0.03219819
21	0x3da9f1dd	0.08298085
22	0xbd80d60b	-0.062908255
23	0xbc4e68fe	-0.012598274
24	0x3d160358	0.036624283
25	0x3c0db82a	0.008649865
26	0xbe00a1bd	-0.12561698
27	0x3dc9429e	0.09827159
28	0xbd2818f0	-0.041039407
29	0xbd8add28	-0.067804635
30	0x3cd2a001	0.025711061
31	0xbdd6b7e6	-0.104842946
32	0x3e14156e	0.144613
33	0x3ddb58f6	0.10710327
34	0xbd731e84	-0.059355274
35	0xbd8fde11	-0.07024778
36	0x3de33989	0.11094958
37	0xbe0978bb	-0.13424961
38	0x3e4924d2	0.19642952
39	0x3de4501d	0.11148093
40	0x3d4aa5ce	0.04947453
41	0xbe6d65a0	-0.23183298
42	0x3d47930d	0.048724223
43	0xbd8c26a5	-0.06843308
44	0xbdaee34b	-0.085394464
45	0xbdbd73b3	-0.092505835
46	0x3c4e043a	0.01257425
47	0xbd59da68	-0.053186804
48	0x3d6c43cd	0.057681847
49	0x3d321023	0.04347242
50	0x3d30ade3	0.04313458
51	0x3db9fd17	0.09081476
52	0xbe2610af	-0.16217302
53	0x3d65ff0e	0.056151442
54	0x3d2b5027	0.041824486
55	0xbdf67131	-0.12033308
56	0x3dca925c	0.09891197
57	0x3e235cf7	0.15953432
58	0x3cceb192	0.025231156
59	0xbb8ee083	-0.00436026
60	0x3df82e65	0.12118224
61	0xbe0ea195	-0.13928826
62	0xbd729dd3	-0.059232544
63	0xbe18920b	-0.14899461
64	0xba8fa3c7	-0.0010958844
65	0x37ecc355	2.822435e-05
66	0xbbe73dc0	-0.0070569217
67	0xbb182a55	-0.0023218591
68	0xbb7d157b	-0.003861754
69	0xbb853c92	-0.0040660584
70	0xb8a61357	-7.919099e-05
71	0xbb55c539	-0.0032618775
72	0xbbd1efc6	-0.006406757
73	0xbb9261ec	-0.0044672396
74	0xbb3c4af6	-0.0028731204
75	0x39fd421d	0.0004830518
76	0x3b27a0e2	0.0025578071
77	0xbb3af66b	-0.0028528224
78	0xbaa86b74	-0.0012849406
79	0xbb3055f9	-0.0026906712
80	0x38c179ec	9.225667e-05
81	0xb9fcd2d0	-0.00048222253
82	0xbb3a3fc6	-0.002841936
83	0xbbc8b295	-0.0061248043
84	0xbae81e71	-0.0017709268
85	0x398b710f	0.0002659638
86	0x3a0324fa	0.00050027634
87	0xbb1726bd	-0.0023063861
88	0xbb7831c8	-0.0037871469
89	0x3ad59f08	0.0016298005
90	0xbafd39a5	-0.0019319548
91	0xb9a4ab72	-0.00031408254
92	0x3b77df48	0.0037822295
93	0xbb63b1a2	-0.0034743329
94	0xba70645c	-0.0009170228
95	0x39bc7348	0.00035944046
96	0xbbbdafb5	-0.005788768
97	0xbb74199c	-0.003724671
98	0xbbddda7e	-0.006770431
99	0xba80eacb	-0.0009835599
100	0x3a74cc75	0.0009338328
101	0xbac60f05	-0.0015110677
102	0x3b858507	0.004074696
103	0x3ac86fc3	0.0015292097
104	0xbb546330	-0.0032407753
105	0xbbc7a95a	-0.0060931863
106	0xbb050036	-0.0020294315
107	0xbb81dcef	-0.003963105
108	0xba9fc1bb	-0.0012188473
109	0xb9f62c24	-0.00046953664
110	0x3b8c0b98	0.004273843
111	0xbae2bdd1	-0.0017299001
112	0xb8579d0d	-5.140626e-05
113	0xbb323f21	-0.0027198272
114	0x3a91d1a8	0.0011125105
115	0x3aa7c290	0.0012799073
116	0x3ab74b93	0.0013984315
117	0xba515bbf	-0.00079863885
118	0xbaeec2c9	-0.001821601
119	0xbb8002d5	-0.0039065876
120	0xbb4ae130	-0.0030956976
121	0x3a146e64	0.00056622014
122	0xbae2059f	-0.0017244107
123	0xbbdfc86f	-0.0068293135
124	0xbb23bb41	-0.0024983438
125	0xbb5a4593	-0.003330563
126	0xbbc72278	-0.006077107
127	0xbbe431a4	-0.0069639254
128	0x3ca43c8f	0.020048408
129	0x3e22e87a	0.15908995
130	0xbe33f533	-0.17574005
131	0xbcb622d4	-0.022233404
132	0xbabd385b	-0.0014436351
133	0x3d46afc1	0.048507456
134	0xbe1e80d6	-0.15478835
135	0x3e2491bc	0.16071218
136	0xbdc6e15b	-0.09710952
137	0xbdd7b6fd	-0.10532949
138	0x3de1756a	0.11008723
139	0x3d2b37b4	0.04180117
140	0x3ccd584e	0.025066521
141	0xbbf0c5a0	-0.0073477775
142	0xbdbd8df1	-0.09255589
143	0x3d4ce627	0.050024178
144	0x3da48176	0.08032505
145	0x3cbec67b	0.023288002
146	0xbe3fa9b1	-0.18717076
147	0xbe813228	-0.2523358
148	0xbe17a66e	-0.14809582
149	0xbc8a764a	-0.016902108
150	0xbdd923ac	-0.10602507
151	0xbd0d65ba	-0.034520842
152	0xbdb7b5ad	-0.08970199
153	0xbe3976b0	-0.18111682
154	0x3c1f476c	0.009721618
155	0xbdf66c3c	-0.12032363
156	0x3d9b1691	0.075726636
157	0x3d86948a	0.065713
158	0xbe7dac85	-0.24772842
159	0x3d7704ef	0.06030744
160	0xbe026889	-0.1273519
161	0xbbdec15b	-0.006797952
162	0xbceaa4c1	-0.028643014
163	0xbddc09b4	-0.10744038
164	0xbded8a24	-0.11598614
165	0xbcb84a6b	-0.022496423
166	0x3c973ef3	0.018462634
167	0x3e3ecb12	0.18632153
168	0xbd1bcbd3	-0.03803618
169	0xbcb3d27b	-0.02195095
170	0xbdc35789	-0.095381804
171	0xbe00aeb8	-0.1256665
172	0x3e17a273	0.14808063
173	0x3d7b0dd0	0.06129247
174	0x3cb0242a	0.02150162
175	0xbba77a98	-0.00511105
176	0xbd87b7ad	-0.0662683
177	0xbe19ae9c	-0.15008014
178	0x3c32aa6d	0.0109048905
179	0x3dd115c5	0.1020923
180	0x3d45fce4	0.04833688
181	0x3e0a044a	0.13478199
182	0xbdcc60bd	-0.09979389
183	0xbd7df0fd	-0.061997402
184	0xbe5c9efd	-0.21545024
185	0xbd5c9d53	-0.053860974
186	0xbd0f38c6	-0.034966253
187	0xbd2c343b	-0.042042
188	0x3e28fd72	0.16502932
189	0x3cd151bf	0.025551675
190	0x3d93fca1	0.072259195
191	0xbe3ba97d	-0.18326373
192	0x3d773ea1	0.060362462
193	0xbd931e6c	-0.07183537
194	0x3cb0daa2	0.021588627
195	0x3d89b2c9	0.06723554
196	0x3da0c20b	0.07849511
197	0x3d34d613	0.04414947
198	0xbd09f33e	-0.03367924
199	0xbe04f90e	-0.12985632
200	0xbe107447	-0.14106856
201	0xbe471410	-0.19441247
202	0x3e47a7a8	0.1949755
203	0xbd8b2d83	-0.0679579
204	0x3dade7e3	0.084914945
205	0xbdf6584d	-0.12028561
206	0x3cf45af3	0.029828524
207	0xbc2be4d4	-0.010491569
208	0xbde6ffce	-0.112792596
209	0xbb94839d	-0.004532291
210	0xbdc97304	-0.098363906
211	0x3db643be	0.088996395
212	0x3c7ed5fe	0.015553949
213	0x3d85717a	0.065157846
214	0xbd90d930	-0.07072675
215	0x3dd1fbdb	0.10253116
216	0x3ccb61c3	0.02482689
217	0xbdb67c34	-0.089104086
218	0x3e42685c	0.18985122
219	0xbc5a01b0	-0.013306066
220	0x3de9b59d	0.11411593
221	0x3db331d7	0.087497406
222	0x3dd9ffd4	0.106444985
223	0xbd9d3049	-0.07675225
224	0xbd1ca065	-0.0382389
225	0xbbc70a2a	-0.0060742097
226	0x3d3b82f4	0.045779184
227	0x3daf5edb	0.08563014
228	0x3e0b96df	0.13631772
229	0x3b943b97	0.004523705
230	0x3cb29293	0.021798408
231	0x3c93007a	0.017944563
232	0x3da3353f	0.0796914
233	0xbd581b5d	-0.05276047
234	0x3d56e4f2	0.052464433
235	0x3dc5aa3f	0.096516125
236	0x3d920ec7	0.07131725
237	0xbd9f9b51	-0.07793296
238	0xbe5ac044	-0.21362406
239	0xbd2427bd	-0.04007696
240	0xbc0784a1	-0.008271367
241	0x3d8b0ce2	0.067895666
242	0x3c9ad71d	0.018901402
243	0x3d9f9d62	0.0779369
244	0x3dace8c4	0.08442834
245	0xbc19c20a	-0.009384641
246	0xbc825fad	-0.015914762
247	0xbda3e400	-0.08002472
248	0xbdd18fb0	-0.10232484
249	0xbcf88d0e	-0.030340698
250	0xbda786ee	-0.08180033
251	0x3d2868d4	0.041115597
252	0xbe1445b8	-0.1447972
253	0xbd8d93e3	-0.06912973
254	0xbe1c3025	-0.1525274
255	0x3dad7f8e	0.08471595

4.bias f4 [128]
0	0x3bbf85a9	0.005844791
1	0xbbbff316	-0.0058578355
2	0x3debb81d	0.11509726
3	0x3c9452ed	0.018105948
4	0x3d735ac6	0.05941274
5	0xbda8270a	-0.08210571
6	0xbb9e036f	-0.0048221867
7	0xbeb1096e	-0.34577507
8	0xbc93ff38	-0.018066034
9	0xbe0bb6bd	-0.13643928
10	0xbbc4aa4d	-0.0060017467
11	0xbc6376bb	-0.013883288
12	0xbe497bfb	-0.19676201
13	0x3dd450a2	0.10366942
14	0xbd4cd256	-0.05000528
15	0xbb5a36e1	-0.003329687
16	0x3e6c3cd8	0.23070085
17	0x3e18b3df	0.14912365
18	0xbe2c23d1	-0.16810538
19	0x3c9a4a75	0.018834332
20	0xbd0203c1	-0.03174186
21	0xbe30a741	-0.17251302
22	0xbe266296	-0.16248545
23	0xbd7a9e4a	-0.061186112
24	0xbe67edc1	-0.2264929
25	0xbdb23f79	-0.08703513
26	0xbb27a50c	-0.0025580553
27	0x3e572f52	0.21014145
28	0xbb4f869f	-0.0031665934
29	0x3d48f1d3	0.049058747
30	0x3eeade73	0.4587284
31	0xbdbd9bd9	-0.09258241
32	0x3e40630a	0.1878778
33	0xbdd5f243	-0.104465984
34	0xbcd89bc7	-0.026441468
35	0xbdef7874	-0.116928965
36	0xbf02ccbc	-0.5109365
37	0xbe11c35b	-0.14234678
38	0xbe60a609	-0.21938337
39	0xbeafc916	-0.34333104
40	0xbe6794e7	-0.22615395
41	0x3cb2c26d	0.021821225
42	0xbe03962a	-0.12850252
43	0xbced16d4	-0.02894155
44	0x3e81818d	0.25294152
45	0xbd68e19f	-0.056855794
46	0xbd8533a4	-0.0650399
47	0x3e1e9998	0.15488279
48	0x3e29e63d	0.16591735
49	0xbddfb4b1	-0.10923136
50	0x3cebe7f9	0.028797137
51	0x3e44fd93	0.19237356
52	0xbcca4b6a	-0.024694163
53	0x3e980a01	0.29695132
54	0xbf244224	-0.6416342
55	0x3e1a908b	0.15094201
56	0xbe42f842	-0.19040015
57	0xbe02aa0a	-0.12760177
58	0xbccdc660	-0.025119007
59	0xbe785937	-0.24252783
60	0x3d6db3fb	0.05803297
61	0xbe31d790	-0.17367387
62	0xbe08702f	-0.13324045
63	0xbe969f04	-0.29418194
64	0xbf05cf19	-0.5226913
65	0xbda985f3	-0.08277502
66	0x3c535921	0.012899668
67	0xbd996c8c	-0.07491407
68	0x3ddee2d7	0.1088311
69	0x3da61a95	0.08110539
70	0x3cb5844e	0.022157814
71	0x3d62e300	0.055392265
72	0xbb655b4a	-0.003499704
73	0xbe51280e	-0.20425436
74	0x3d03e88a	0.03220419
75	0xbcdc9295	-0.026925365
76	0xb8395031	-4.418212e-05
77	0x3db03480	0.086037636
78	0xbdfc08bd	-0.12306354
79	0xbe866ac1	-0.26253322
80	0xbe03143a	-0.12800685
81	0x3e8bc486	0.27298373
82	0x3c9655b4	0.018351413
83	0x3df1435c	0.11780426
84	0xbe2a8629	-0.1665274
85	0x3e534877	0.20633112
86	0xbe704cd1	-0.23466803
87	0x3e98f1f2	0.2987209
88	0x3e935965	0.2877914
89	0xad116dad	-8.266649e-12
90	0x3cd895b9	0.02643858
91	0xbe1b7106	-0.15179834
92	0x3e45a711	0.19302012
93	0x3e410d67	0.18852769
94	0xbdc7eff8	-0.09762567
95	0xbd84340f	-0.06455242
96	0x8a0000b3	-6.163107e-33
97	0xbec72f23	-0.3890315
98	0xbebe4ccc	-0.37167966
99	0x3dc8cefd	0.09805105
100	0x3e75658a	0.23964515
101	0xbc8d85a8	-0.017275646
102	0x3dafdaf2	0.085866824
103	0x3dfb6181	0.12274457
104	0xbeaf9c20	-0.342988
105	0xbd9d09bd	-0.07667873
106	0x987ed33a	-3.2935373e-24
107	0xbe302e52	-0.1720517
108	0x3d783287	0.06059506
109	0xbdd60303	-0.10449793
110	0xbeb1fb23	-0.34761915
111	0xbe4349f1	-0.19071175
112	0xbdc59d26	-0.09649114
113	0xbdb84236	-0.08997004
114	0x3b5d92f5	0.0033809517
115	0xbdca6e9b	-0.098843776
116	0x3daf680b	0.085647665
117	0x3bb383a2	0.0054783383
118	0x3dc5f334	0.09665528
119	0x3bfd5988	0.00773162
120	0x3d593c9f	0.05303633
121	0xbd22cde1	-0.039747123
122	0x3def7a3b	0.116932355
123	0xbd28710d	-0.04112344
124	0x3e105d36	0.14098057
125	0xbd1da789	-0.038489852
126	0x3e0b9152	0.13629654
127	0xbe59ce91	-0.21270205

6.weight f4 [256, 128]
0	0xafe81809	-4.2217632e-10
1	0x000023c0	1.2825e-41
2	0xb367af7e	-5.3943488e-08
3	0xb9552849	-0.0002032827
4	0xaf7d9af6	-2.3065269e-10
5	0xb6ff8439	-7.614985e-06
6	0xb7dfadfc	-2.666469e-05
7	0xb7c5de3d	-2.3587718e-05
8	0xb6a51d78	-4.920814e-06
9	0xb85caaed	-5.2611274e-05
10	0x3a7f5c53	0.00097412354
11	0xb85dffe8	-5.2928837e-05
12	0xbaafe8a5	-0.0013420774
13	0x37a833b4	2.0051237e-05
14	0xb9fb17b7	-0.0004789212
15	0x8000253f	-1.3361e-41
16	0xb694930e	-4.427863e-06
17	0xb48f3918	-2.6677367e-07
18	0xb7be9ec7	-2.2723701e-05
19	0x3a3c6b8f	0.00071876583
20	0x395f00be	0.00021267214
21	0xb81c9e7a	-3.734089e-05
22	0x3988fb76	0.00026127294
23	0x3a1c507f	0.00059629226
24	0xb404a233	-1.2352466e-07
25	0x39a56d70	0.0003155279
26	0x80000ceb	-4.634e-42
27	0x383fe6f2	4.5753033e-05
28	0xb99f3d43	-0.00030372487
29	0xb978038f	-0.00023652449
30	0x3b127c99	0.0022352098
31	0xb652c7f2	-3.1408822e-06
32	0xb86b02d4	-5.6031e-05
33	0xb68b6d2d	-4.1552325e-06
34	0x39f5dcb2	0.00046894472
35	0xb53af8d6	-6.9652503e-07
36	0x8eb0c82a	-4.35801e-30
37	0xb8d4ee3b	-0.00010153322
38	0x363d76bc	2.8232307e-06
39	0xb7703724	-1.4317953e-05
40	0xb7b5e28e	-2.168238e-05
41	0xb983834a	-0.00025084085
42	0xb772bbbd	-1.4468035e-05
43	0x375a157b	1.2998814e-05
44	0xb8857d55	-6.365279e-05
45	0xb8858cf2	-6.368187e-05
46	0xabc24ea6	-1.3806358e-12
47	0xb9e9c1fb	-0.0004458575
48	0xba308dfc	-0.00067350245
49	0xb7bfeb3c	-2.2878514e-05
50	0xb32e29fa	-4.055071e-08
51	0xb67dbac0	-3.780864e-06
52	0x3898f267	7.293076e-05
53	0xb9943b0c	-0.00028272753
54	0xb743f27b	-1.1679363e-05
55	0xb8c24ff6	-9.265535e-05
56	0xb9e79c26	-0.00044176093
57	0xb6a5733c	-4.9307982e-06
58	0x38997300	7.317029e-05
59	0xb6116e44	-2.1670867e-06
60	0x3a32af0b	0.00068162446
61	0xb910a067	-0.00013792665
62	0xb807ade3	-3.2348453e-05
63	0xba1985e4	-0.0005856438
64	0x3870a710	5.7376048e-05
65	0xae9fd099	-7.267537e-11
66	0x3931198f	0.00016889557
67	0xb9408870	-0.00018361374
68	0xb31d9eda	-3.6698886e-08
69	0x33e72cc7	1.0764921e-07
70	0x3114d67a	2.165875e-09
71	0xb4b8cdc8	-3.4422396e-07
72	0x000031c6	1.7855e-41
73	0xb735b9f2	-1.08317345e-05
74	0x9ef5a6cf	-2.6009374e-20
75	0xb3d0dd82	-9.726047e-08
76	0x00000cb6	4.56e-42
77	0xb65294b4	-3.1378995e-06
78	0x3a88f8e9	0.0010450158
79	0xb543b250	-7.290264e-07
80	0xb80b2c57	-3.3181477e-05
81	0x388f7171	6.8399015e-05
82	0xb8ad356e	-8.259235e-05
83	0xb881b2f2	-6.1845305e-05
84	0xb3ccb225	-9.5318946e-08
85	0x39a27125	0.00030983347
86	0xb9662ab9	-0.00021950425
87	0xb98b28d1	-0.00026542557
88	0xb9a94bf2	-0.00032290776
89	0x000090e4	5.1977e-41
90	0xba7c91a0	-0.0009634737
91	0xb418934c	-1.420969e-07
92	0xb92545a4	-0.0001576157
93	0xb89b70a2	-7.4119554e-05
94	0xb94ca61b	-0.00019516835
95	0xb334a230	-4.2057025e-08
96	0x80004676	-2.5277e-41
97	0xb99bedb7	-0.00029741015
98	0xb792fe30	-1.7522922e-05
99	0xb14b9c88	-2.9629366e-09
100	0xb92ffb13	-0.00016782833
101	0x37ff5bc0	3.0441093e-05
102	0xb8a9cacb	-8.096321e-05
103	0x3aba6c6d	0.0014222987
104	0xb99ed38c	-0.00030293723
105	0xb93d1c1f	-0.0001803492
106	0x000063d2	3.5809e-41
107	0xb78a493d	-1.6484986e-05
108	0xb1af4174	-5.1006115e-09
109	0xb7846e0d	-1.5786873e-05
110	0xb874efab	-5.839734e-05
111	0x3a2ab379	0.0006511729
112	0xb889c4f3	-6.569354e-05
113	0xb974efba	-0.00023358958
114	0xb9e3510d	-0.00043357202
115	0xb19de893	-4.595742e-09
116	0xb9007e4f	-0.00012254085
117	0xb5821106	-9.690709e-07
118	0xb6aaa2c9	-5.0853455e-06
119	0xb550a84f	-7.773096e-07
120	0x3916245f	0.00014318664
121	0xb8aa0363	-8.1068625e-05
122	0x390b05ea	0.00013258276
123	0x377f588f	1.5219804e-05
124	0xb642ca89	-2.9026144e-06
125	0xb6c10d74	-5.7534144e-06
126	0xb6e34e55	-6.7742462e-06
127	0x376c6fed	1.4092756e-05
128	0x00000f21	5.427e-42
129	0x80005f37	-3.4157e-41
130	0x80000afe	-3.943e-42
131	0x000011f1	6.436e-42
132	0x00001728	8.307e-42
133	0x80001047	-5.839e-42
134	0x00000055	1.19e-43
135	0x000008f0	3.206e-42
136	0x00000ea5	5.253e-42
137	0x80000c3c	-4.389e-42
138	0x000006f9	2.501e-42
139	0x00001668	8.038e-42
140	0x80000596	-2.004e-42
141	0x80000c8d	-4.502e-42
142	0x80000e6d	-5.175e-42
143	0x80007272	-4.1055e-41
144	0x8000069c	-2.371e-42
145	0x0000176f	8.406e-42
146	0x00000adb	3.894e-42
147	0x80000849	-2.972e-42
148	0x000005bd	2.059e-42
149	0x0000177f	8.429e-42
150	0x00000792	2.716e-42
151	0x800006cf	-2.442e-42
152	0x00000710	2.534e-42
153	0x8000138d	-7.013e-42
154	0x0000237a	1.2727e-41
155	0x00000227	7.72e-43
156	0x80000fa1	-5.607e-42
157	0x00001848	8.71e-42
158	0x800013ca	-7.099e-42
159	0x80000223	-7.67e-43
160	0x800017b7	-8.507e-42
161	0x80001578	-7.702e-42
162	0x00001e41	1.0853e-41
163	0x80000fb9	-5.64e-42
164	0x00001c2c	1.0106e-41
165	0x800014c3	-7.448e-42
166	0x80001352	-6.931e-42
167	0x80000527	-1.848e-42
168	0x00000db6	4.919e-42
169	0x000003d9	1.38e-42
170	0x80000c61	-4.441e-42
171	0x000002be	9.84e-43
172	0x80001e92	-1.0967e-41
173	0x0000004b	1.05e-43
174	0x80000be8	-4.271e-42
175	0x800018d4	-8.907e-42
176	0x0000153b	7.616e-42
177	0x00001560	7.668e-42
178	0x80001592	-7.738e-42
179	0x8000078f	-2.712e-42
180	0x80001b9a	-9.902e-42
181	0x000014e6	7.497e-42
182	0x00000e49	5.125e-42
183	0x800015fc	-7.887e-42
184	0x0000003e	8.7e-44
185	0x80000860	-3.004e-42
186	0x00000aef	3.922e-42
187	0x000010f9	6.089e-42
188	0x80000d64	-4.804e-42
189	0x8000143a	-7.256e-42
190	0x800014d8	-7.477e-42
191	0x8000134f	-6.927e-42
192	0x80000de4	-4.983e-42
193	0x00000ed1	5.315e-42
194	0x0000084c	2.976e-42
195	0x80001295	-6.666e-42
196	0x80001793	-8.457e-42
197	0x000013c7	7.095e-42
198	0x00001e74	1.0925e-41
199	0x00001484	7.36e-42
200	0x80001964	-9.108e-42
201	0x000012eb	6.786e-42
202	0x80000cf3	-4.645e-42
203	0x80000867	-3.014e-42
204	0x80005325	-2.9827e-41
205	0x80000f39	-5.461e-42
206	0x00000c29	4.362e-42
207	0x80000265	-8.59e-43
208	0x00000116	3.9e-43
209	0x00000e27	5.077e-42
210	0x00000455	1.554e-42
211	0x8000024b	-8.23e-43
212	0x80001f96	-1.1331e-41
213	0x80000e78	-5.19e-42
214	0x80000a12	-3.613e-42
215	0x00000eb7	5.279e-42
216	0x000005c5	2.07e-42
217	0x00001c1a	1.0081e-41
218	0x80001248	-6.558e-42
219	0x800001ab	-5.98e-43
220	0x000015f0	7.87e-42
221	0x80001435	-7.249e-42
222	0x000011c2	6.37e-42
223	0x00001711	8.275e-42
224	0x00004e04	2.7987e-41
225	0x0000015d	4.89e-43
226	0x800017d0	-8.542e-42
227	0x800013a2	-7.043e-42
228	0x00000772	2.671e-42
229	0x80000a78	-3.755e-42
230	0x8000001a	-3.6e-44
231	0x00000bc5	4.222e-42
232	0x00000047	1e-43
233	0x8000133f	-6.904e-42
234	0x00007995	4.3615e-41
235	0x000000a8	2.35e-43
236	0x80000d1c	-4.703e-42
237	0x00000583	1.977e-42
238	0x800000d9	-3.04e-43
239	0x80000552	-1.909e-42
240	0x80001335	-6.89e-42
241	0x80000362	-1.214e-42
242	0x8000137e	-6.992e-42
243	0x000018db	8.916e-42
244	0x000004c3	1.708e-42
245	0x80000373	-1.237e-42
246	0x00002b68	1.5571e-41
247	0x0000044a	1.539e-42
248	0x8000151e	-7.575e-42
249	0x0000053d	1.879e-42
250	0x0000151d	7.574e-42
251	0x00000ddc	4.972e-42
252	0x00001703	8.255e-42
253	0x80000985	-3.415e-42
254	0x80000622	-2.2e-42
255	0x800005db	-2.1e-42

6.bias f4 [256]
0	0xbbb47709	-0.005507354
1	0x97c7be67	-1.2908138e-24
2	0xbcfdd59e	-0.03098565
3	0x9adab2c7	-9.045152e-23
4	0xb7c483f3	-2.3426464e-05
5	0x3b550435	0.0032503728
6	0xbc8900a8	-0.016723946
7	0xbbdaaa8f	-0.006673164
8	0x3c3e2e8a	0.011607775
9	0xbb65dbcf	-0.0035073643
10	0xbb8eff14	-0.004363904
11	0x8ebf6c26	-4.718928e-30
12	0xbe07b87f	-0.13253973
13	0xad5ccd47	-1.2551133e-11
14	0xbe0cd4f9	-0.13753118
15	0xbe9a119e	-0.30091566
16	0x3cbe9c8f	0.023268012
17	0x3d152ad0	0.036417782
18	0xb415e9b7	-1.3961731e-07
19	0xbe8fbefe	-0.28075403
20	0xb8f42a7c	-0.0001164274
21	0xb88bd9ca	-6.668603e-05
22	0xbeb3ef3a	-0.35143453
23	0xbd801126	-0.06253271
24	0x3c6567f9	0.01400184
25	0xb3c9c7f6	-9.3961646e-08
26	0xaed8d53d	-9.8604215e-11
27	0x3dc03c29	0.09386475
28	0xbe73bdad	-0.23802824
29	0xbd8a8f33	-0.06765594
30	0xa55cd99a	-1.9155685e-16
31	0xbbd9d401	-0.0066475873
32	0xac0a7d43	-1.9680514e-12
33	0x9dfd81b9	-6.7102672e-21
34	0xbb8ff606	-0.004393342
35	0xbca76369	-0.020433145
36	0xbdca75df	-0.098857634
37	0xb8ee2a33	-0.000113565846
38	0xbd003c71	-0.03130764
39	0xa909749f	-3.0521264e-14
40	0xb80ab2cd	-3.3068285e-05
41	0xbacd471f	-0.0015661455
42	0xbb645a42	-0.0034843837
43	0xbd7c4fc7	-0.06159952
44	0xb9f0d59d	-0.00045935521
45	0xbb11d53b	-0.002225234
46	0xb3b87c8f	-8.590825e-08
47	0xbdcded17	-0.10054987
48	0xbd0404c6	-0.032231115
49	0xba93b2d0	-0.00112685
50	0xbd6688c7	-0.056282785
51	0xbe29f593	-0.16597585
52	0xac28d5f7	-2.399301e-12
53	0xbe38bd94	-0.18041068
54	0xb82c1f3f	-4.1037096e-05
55	0xa812e6eb	-8.1547004e-15
56	0xbdabae87	-0.08382898
57	0xbcd560a9	-0.026047068
58	0xb76dc90f	-1.4173113e-05
59	0xbda802c5	-0.08203653
60	0xba50191f	-0.00079383136
61	0xbb4493e2	-0.0029995372
62	0xbb0ecca9	-0.0021789467
63	0x3d9de5c0	0.07709837
64	0xa9072efe	-3.001678e-14
65	0xbab0e042	-0.0013494568
66	0xb7c97c81	-2.4019044e-05
67	0x3d05c641	0.032659773
68	0xbb8c003d	-0.0042724893
69	0xbd6cc5a0	-0.057805657
70	0x9fdaf3b5	-9.272977e-20
71	0x3c57b7db	0.013166393
72	0xbadf0bd2	-0.0017017073
73	0xbb925787	-0.0044660005
74	0xa511e275	-1.2653472e-16
75	0xbe10518a	-0.14093605
76	0xbbc92c9a	-0.00613935
77	0xbcc188c3	-0.023624783
78	0x3c08a335	0.008339693
79	0xbb049855	-0.0020232399
80	0xbb810204	-0.003937008
81	0xb498d1ca	-2.8464848e-07
82	0xbdc72f20	-0.09725785
83	0xbc20d0b2	-0.009815382
84	0xbd8f303d	-0.069916226
85	0xb869f11c	-5.577608e-05
86	0xbd17abec	-0.03702919
87	0xbc911692	-0.017710958
88	0xbdc41162	-0.09573628
89	0xbb60869f	-0.0034259928
90	0xaa095ba1	-1.2199835e-13
91	0xb80cb0f8	-3.3543416e-05
92	0x3c8ab7a7	0.016933275
93	0xba7d283d	-0.000965718
94	0xbb38cee9	-0.00281995
95	0xb41608e2	-1.397307e-07
96	0xbd68c101	-0.056824688
97	0xa307c1f2	-7.359434e-18
98	0xbd8f09fa	-0.06984325
99	0xbe07aa37	-0.13248526
100	0x3d06b50e	0.03288751
101	0xbdf2ccbf	-0.118554585
102	0xbd5e2c9e	-0.05424177
103	0x3d8b33a6	0.067969605
104	0x3d3b81c7	0.045778062
105	0xaf0aa7c1	-1.2610625e-10
106	0xbc9f053d	-0.019411677
107	0xac8b402b	-3.9577417e-12
108	0xbcf7a5f5	-0.030230502
109	0xbd0a8316	-0.03381642
110	0xa2e123af	-6.1024154e-18
111	0xbdec91a2	-0.11551215
112	0xb88022c8	-6.109994e-05
113	0xbdb18366	-0.086676404
114	0x9eadd843	-1.8406531e-20
115	0x3c59f461	0.013302893
116	0xb7fc0ea4	-3.0047559e-05
117	0xbe1a0686	-0.15041551
118	0xbb29a0d3	-0.0025883212
119	0xbdf10733	-0.11768951
120	0xb90b1d0c	-0.00013266894
121	0xb2041c60	-7.689863e-09
122	0xbb59cb8c	-0.0033232896
123	0xb0b9976e	-1.350356e-09
124	0xa5ae90bb	-3.0282262e-16
125	0xbaab419c	-0.0013065818
126	0xbda9173b	-0.08256384
127	0xbb07a706	-0.002069892
128	0xbb494400	-0.0030710697
129	0x3ae8e8fb	0.0017769629
130	0xbe561714	-0.20907241
131	0xbb4165b4	-0.0029510083
132	0xb8b947df	-8.8348745e-05
133	0x981ba506	-2.0116596e-24
134	0xbe73b5f1	-0.23799874
135	0xbabfb791	-0.0014626851
136	0xbb864508	-0.0040975846
137	0xbad868ea	-0.0016510759
138	0xbb0726b5	-0.0020622436
139	0xbbe50bbd	-0.0069899247
140	0xb893718d	-7.030657e-05
141	0xbb3088de	-0.0026937048
142	0xbabc9d09	-0.0014390062
143	0x3c88a189	0.016678588
144	0xa93f782f	-4.2514762e-14
145	0xbbb5e0c3	-0.0055504753
146	0xbb7d81eb	-0.0038682173
147	0xbbb5e3a4	-0.0055508185
148	0xb255318a	-1.2409496e-08
149	0xbec452ff	-0.3834457
150	0xa51c85d7	-1.357619e-16
151	0xbb4875d7	-0.0030587816
152	0x3c8bbb89	0.017057197
153	0xbe085cce	-0.13316652
154	0x3d1820b2	0.037140556
155	0x3d85a326	0.06525259
156	0x96604b35	-1.8118307e-25
157	0xbdf11259	-0.11771078
158	0xb943e108	-0.0001868048
159	0x3d16536b	0.036700647
160	0x9855f3cb	-2.7652689e-24
161	0xbb0ec448	-0.0021784473
162	0xa8391984	-1.0275096e-14
163	0xbce62d7d	-0.028097862
164	0xbccfc635	-0.025363067
165	0x3d5258ff	0.051354405
166	0xbb3dc399	-0.0028955697
167	0xbdd8c4ea	-0.105844334
168	0x9fff79bb	-1.0819809e-19
169	0xbc0d89e7	-0.0086388355
170	0xbd4b1ab3	-0.04958601
171	0xbb6ed916	-0.0036445311
172	0xbbffb601	-0.007803679
173	0xbb062bfa	-0.002047299
174	0x3bea45cf	0.007149435
175	0xb6b4b1fb	-5.3851377e-06
176	0xb8a65d61	-7.93289e-05
177	0xbb105100	-0.0022020936
178	0x3b68883e	0.0035481597
179	0xbe17810d	-0.14795323
180	0xbb3f4829	-0.0029187298
181	0x3c838410	0.016054183
182	0x9ad5f288	-8.8486566e-23
183	0xbe70c6a8	-0.23513281
184	0xbd97774b	-0.073958
185	0xbdbc3f99	-0.09191818
186	0xbc5698d2	-0.013097959
187	0xba6a76e6	-0.0008944109
188	0xbe894e08	-0.26817346
189	0xbe98a1bf	-0.29810902
190	0xbd5e703d	-0.054306258
191	0xbb8bca12	-0.004266032
192	0x3d3c78de	0.046013705
193	0xbb6aec73	-0.00358465
194	0xbbddcd98	-0.0067688935
195	0xbb95a369	-0.004566599
196	0xbb5fc3a3	-0.0034143708
197	0xbbc7827c	-0.006088553
198	0xbdecc257	-0.11560505
199	0xbe5de3be	-0.21668908
200	0xbc067d84	-0.008208636
201	0xbc9ce410	-0.019151717
202	0xbbb413c4	-0.0054955203
203	0x3c6b9f30	0.014381215
204	0x990533f5	-6.8864315e-24
205	0xbe251f93	-0.16125326
206	0xaaa9808d	-3.010963e-13
207	0xbdf813ec	-0.12113175
208	0xbbdc3cab	-0.0067210994
209	0xba8e9bbf	-0.0010880156
210	0xbe593812	-0.21212795
211	0x3d10caec	0.03534977
212	0xbda69908	-0.08134657
213	0xbba9d8c6	-0.005183312
214	0xbbc88c63	-0.006120251
215	0xbe651b34	-0.22373658
216	0xb9b2a3c4	-0.0003407282
217	0xbba474a3	-0.005018787
218	0xbe842884	-0.2581216
219	0xb84c184b	-4.8660015e-05
220	0xbaefcb76	-0.0018294889
221	0xbea2e379	-0.31814173
222	0xb82f236b	-4.1756237e-05
223	0xbde5e853	-0.11225953
224	0xbe47a470	-0.19496322
225	0xbefd0337	-0.49416515
226	0xbb58d650	-0.0033086725
227	0x3d6234c7	0.055226114
228	0xbccc75ae	-0.024958458
229	0xae0d27f4	-3.2095174e-11
230	0xba2b6cbb	-0.00065393344
231	0xb4ea73a0	-4.3670025e-07
232	0xbb9a8344	-0.004715355
233	0x9a55e92f	-4.4235732e-23
234	0x3caef754	0.02135817
235	0xbb31cadd	-0.0027128973
236	0xbdac77af	-0.08421265
237	0xbd7cb1f5	-0.06169315
238	0xbd7ae83f	-0.061256643
239	0xbdc5f056	-0.09664981
240	0xbe19a782	-0.15005305
241	0xbd10376e	-0.035209112
242	0x3cff09aa	0.031132538
243	0xbdb3d3ee	-0.08780657
244	0xbb414974	-0.0029493244
245	0xbdf27031	-0.11837805
246	0x3d2819e7	0.041040327
247	0xba97b22b	-0.0011573484
248	0xbbc4c785	-0.00600523
249	0xae8625db	-6.100339e-11
250	0xbd16b80d	-0.03679662
251	0xb9e94a69	-0.00044496663
252	0xbb6c7fd6	-0.0036086938
253	0x3d8de156	0.06927745
254	0xbb72522f	-0.0036975255
255	0x3dbc23b6	0.09186499

8.weight f4 [128, 256]
0	0x00000a5a	3.713e-42
1	0x8000a296	-5.8325e-41
2	0x800010da	-6.045e-42
3	0x0000989d	5.4747e-41
4	0x00001d8b	1.0598e-41
5	0xada9537d	-1.9250152e-11
6	0xa777bbe6	-3.4379996e-15
7	0x80009659	-5.3935e-41
8	0x28bcac09	2.0946801e-14
9	0x80003e01	-2.2243e-41
10	0x00002063	1.1618e-41
11	0x80007c5a	-4.4609e-41
12	0x2b468b5c	7.053713e-13
13	0x800093e1	-5.3049e-41
14	0x0ac51aaf	1.8980447e-32
15	0x8000015f	-4.92e-43
16	0xb586fe09	-1.0057712e-06
17	0xb4cdb4fb	-3.8315906e-07
18	0x00003885	2.0275e-41
19	0x80000d43	-4.757e-42
20	0x0000a8c7	6.0546e-41
21	0x0000291c	1.4747e-41
22	0x8000126a	-6.606e-42
23	0x000007c9	2.793e-42
24	0x00001059	5.864e-42
25	0x80006d89	-3.9294e-41
26	0x00000a16	3.618e-42
27	0x0000017c	5.32e-43
28	0x9016e16f	-2.9755952e-29
29	0x80000922	-3.276e-42
30	0x00003b67	2.131e-41
31	0x000007ec	2.842e-42
32	0x8000519c	-2.9276e-41
33	0x8000a39b	-5.869e-41
34	0x80009f39	-5.7118e-41
35	0x80000319	-1.111e-42
36	0x80000e7d	-5.197e-42
37	0x0000aa65	6.1126e-41
38	0x976980d9	-7.544899e-25
39	0x8000070f	-2.532e-42
40	0x000019b5	9.222e-42
41	0x00005002	2.8701e-41
42	0x80002a2b	-1.5127e-41
43	0xa1f3213e	-1.647512e-18
44	0x80005cd1	-3.3296e-41
45	0x00000ea3	5.25e-42
46	0x80000ff2	-5.72e-42
47	0xa2c22e36	-5.2632733e-18
48	0xaf1ed7c3	-1.444667e-10
49	0x80004398	-2.4248e-41
50	0x80000a3f	-3.676e-42
51	0x000011bf	6.366e-42
52	0x8000625c	-3.5285e-41
53	0x80001167	-6.243e-42
54	0x0000ab87	6.1532e-41
55	0x00009698	5.4023e-41
56	0x25adfbc5	3.0181322e-16
57	0x80000b25	-3.998e-42
58	0x8000a5aa	-5.9429e-41
59	0x0cdf7a78	3.4432298e-31
60	0x80001142	-6.191e-42
61	0x8000ac76	-6.1867e-41
62	0x0000256c	1.3424e-41
63	0x000003dd	1.386e-42
64	0x0000243b	1.2997e-41
65	0x80001a94	-9.534e-42
66	0x800001b0	-6.05e-43
67	0x0008f14f	8.21249e-40
68	0x00002e5e	1.6633e-41
69	0xadb8c309	-2.1004991e-11
70	0x0000002c	6.2e-44
71	0x29d17bb6	9.302925e-14
72	0x80001553	-7.65e-42
73	0x00001b26	9.739e-42
74	0x80003dcb	-2.2167e-41
75	0x00000f38	5.46e-42
76	0x000002c5	9.94e-43
77	0x98f2ae8b	-6.2731777e-24
78	0x0000072a	2.57e-42
79	0x000013e1	7.131e-42
80	0x000010e0	6.054e-42
81	0x0000743b	4.1696e-41
82	0x8b0a61e4	-2.6651478e-32
83	0x00000761	2.647e-42
84	0x25887b04	2.3675598e-16
85	0x80008cec	-5.0553e-41
86	0x00001259	6.582e-42
87	0xa9f9b07f	-1.10884385e-13
88	0x0000121f	6.5e-42
89	0x80009c3a	-5.6044e-41
90	0x0000985e	5.4659e-41
91	0x00001fce	1.141e-41
92	0x00000c16	4.336e-42
93	0x00001aea	9.655e-42
94	0x00007ac8	4.4046e-41
95	0x80000024	-5e-44
96	0x000001d3	6.54e-43
97	0x80005832	-3.1639e-41
98	0x00000478	1.603e-42
99	0x297adc67	5.570232e-14
100	0x192adb15	8.833037e-24
101	0x00001117	6.13e-42
102	0x15dc9c91	8.910431e-26
103	0xa33932fa	-1.0039665e-17
104	0xa883cac6	-1.463186e-14
105	0x8000994f	-5.4997e-41
106	0x31e4a0b4	6.653943e-09
107	0x80001100	-6.098e-42
108	0x2359c349	1.1804947e-17
109	0x0f172334	7.451655e-30
110	0x0000a5b6	5.9446e-41
111	0x1071e296	4.7703425e-29
112	0x00008734	4.8502e-41
113	0x28c7f09e	2.219779e-14
114	0x800089c3	-4.942e-41
115	0x8000087a	-3.041e-42
116	0x8000586d	-3.1721e-41
117	0x1ce0d4d3	1.487809e-21
118	0x800013d3	-7.112e-42
119	0xadb7dd92	-2.0903088e-11
120	0x00001003	5.744e-42
121	0x00008c50	5.0335e-41
122	0x00003032	1.7289e-41
123	0x8000a2a8	-5.835e-41
124	0x8000132e	-6.88e-42
125	0x00003e6c	2.2393e-41
126	0x04d3ccf8	4.9794096e-36
127	0x0000042b	1.495e-42
128	0x8000a465	-5.8974e-41
129	0x80000e57	-5.144e-42
130	0xa69a05b9	-1.0687448e-15
131	0x800087dd	-4.8739e-41
132	0x00007815	4.3077e-41
133	0x80002da4	-1.6373e-41
134	0xa7c00260	-5.329328e-15
135	0x00008cb7	5.0479e-41
136	0x80003ad5	-2.1105e-41
137	0x8000044e	-1.544e-42
138	0x800044b2	-2.4643e-41
139	0x00008bfa	5.0214e-41
140	0x000077e3	4.3007e-41
141	0x0000074b	2.616e-42
142	0x00006ae7	3.835e-41
143	0x80c9a247	-1.8517149e-38
144	0x80002539	-1.3353e-41
145	0x00001b91	9.889e-42
146	0x00000532	1.864e-42
147	0x00003f26	2.2653e-41
148	0x00009d5d	5.6451e-41
149	0x131a361c	1.946421e-27
150	0x800009c4	-3.503e-42
151	0x00001cc5	1.032e-41
152	0x822db9eb	-1.2763389e-37
153	0x800003b6	-1.331e-42
154	0x09b7cc2a	4.4247642e-33
155	0xa3825bab	-1.4133451e-17
156	0x8000841a	-4.7389e-41
157	0x0000043b	1.518e-42
158	0x00005950	3.2039e-41
159	0x00000887	3.059e-42
160	0x0000319f	1.78e-41
161	0x00008e38	5.1018e-41
162	0x800088ef	-4.9123e-41
163	0xb5737103	-9.068901e-07
164	0x03489d97	5.895562e-37
165	0x000841ba	7.58262e-40
166	0x00001628	7.948e-42
167	0x8026c3cb	-3.559986e-39
168	0x8000844b	-4.7458e-41
169	0x800050ec	-2.9029e-41
170	0xa2de695c	-6.0284774e-18
171	0x00004388	2.4226e-41
172	0x97a58135	-1.0695492e-24
173	0x80007030	-4.0245e-41
174	0x00000fb2	5.63e-42
175	0x0000344e	1.8763e-41
176	0x800098b3	-5.4778e-41
177	0x0000041d	1.476e-42
178	0x336a55b1	5.4560306e-08
179	0x800008a3	-3.098e-42
180	0x00009198	5.2229e-41
181	0x054bea56	9.588055e-36
182	0x00009893	5.4733e-41
183	0x80000d8c	-4.86e-42
184	0x97b86de6	-1.1918464e-24
185	0x000007ec	2.842e-42
186	0x80000580	-1.973e-42
187	0x8000026a	-8.66e-43
188	0x9d7b08c3	-3.3224103e-21
189	0x8a6877f0	-1.11929514e-32
190	0x00000121	4.05e-43
191	0x0000a99e	6.0847e-41
192	0x800011de	-6.41e-42
193	0x00000502	1.796e-42
194	0x8000a634	-5.9622e-41
195	0x000092dd	5.2685e-41
196	0x80007ee3	-4.5518e-41
197	0x80004cc7	-2.7543e-41
198	0x1d2d74ba	2.2956706e-21
199	0x000008b0	3.116e-42
200	0x00002f42	1.6953e-41
201	0x000012ea	6.785e-42
202	0x00006bb0	3.8631e-41
203	0x000000a4	2.3e-43
204	0x00006b6e	3.8539e-41
205	0xa0b367aa	-3.0392379e-19
206	0x800085cd	-4.7999e-41
207	0x800011a4	-6.328e-42
208	0x00009ca0	5.6186e-41
209	0x0000a6f0	5.9886e-41
210	0x00000a8c	3.784e-42
211	0x8ef577ad	-6.0512407e-30
212	0x0000108a	5.933e-42
213	0x80000e23	-5.071e-42
214	0x00002410	1.2937e-41
215	0x8000103a	-5.821e-42
216	0x8000a962	-6.0763e-41
217	0x00003e56	2.2362e-41
218	0x12b61c0a	1.1492727e-27
219	0x0000aa34	6.1057e-41
220	0x80008c77	-5.0389e-41
221	0x00000a1d	3.628e-42
222	0x8000a7b2	-6.0158e-41
223	0x80000b1f	-3.99e-42
224	0x800005dc	-2.102e-42
225	0x9f07572f	-2.865948e-20
226	0x80003df0	-2.2219e-41
227	0x1e981268	1.6101239e-20
228	0x8023f73c	-3.302933e-39
229	0x000025fe	1.3629e-41
230	0x8000241a	-1.2951e-41
231	0x00008df8	5.0929e-41
232	0x0000791b	4.3444e-41
233	0x80003178	-1.7746e-41
234	0x8000041b	-1.473e-42
235	0x00001c5d	1.0175e-41
236	0x14fcf18d	2.5540772e-26
237	0x80000b02	-3.949e-42
238	0x00000a38	3.666e-42
239	0x16736593	1.9661435e-25
240	0x8000061f	-2.196e-42
241	0x80001488	-7.365e-42
242	0x143f8d04	9.670846e-27
243	0x1c8e4066	9.413418e-22
244	0x00009b6a	5.5752e-41
245	0x25c3e338	3.3981077e-16
246	0x00000417	1.467e-42
247	0x000066be	3.6857e-41
248	0x8000a3d0	-5.8765e-41
249	0x80002c35	-1.5858e-41
250	0x80000b8f	-4.146e-42
251	0x80007e86	-4.5388e-41
252	0x0000a400	5.8832e-41
253	0x1710a337	4.6734916e-25
254	0x80009ae8	-5.557e-41
255	0x99140736	-7.652877e-24
