Models/checkpoint_vel_D1_1000_300.pth (torch, 353077 bytes, 16 tensors)

0.weight f4 [32, 9]
00000000: ea99 f43d 5dfb d4bd 0739 c3be 7dea 9a3e
00000010: c3a1 6fbf 69d0 9e3e 0f61 883c 78f6 783e
00000020: dc6a 8ebd 8129 1abe 11ab 133e dc80 393e
00000030: 0378 0abe 5fc5 803f a278 2abe baaf a4bd
00000040: 0e53 eebc 6ba0 eebd 3b1e b93e 4ef2 9ebb
00000050: 069e 09bd c887 83be 8563 07bf 7cee debc
00000060: 62b6 48be 07dc 293d 39fc 123e 7d38 da3d
00000070: 7c50 95be c291 8d3e b925 c23e 12c4 c33e
00000080: 4aa3 943e 96d2 83be 3743 37be 7c85 e5bd
00000090: 0ce8 0f3e ab7d 94bd 0760 2c3e 208d 55be
000000a0: 6f18 8d3f 71ab f0bd fc86 283e c11a 853c
000000b0: 14ef 80be c799 683d a264 26be f1af 0a3d
000000c0: 2ce8 8ebf 4945 193e 7b6d f0be 0c52 d2bd
000000d0: 831c dd3d edfb f6bd ea37 6c3e 294f 07bd
000000e0: fa3d c43e e2f0 cdbe 1a2b 77be faea 253e
000000f0: 086d a1be acd2 6c3e c378 a63e 08d1 e03d
00000100: 2d61 a8be acfa dcbe 941a 983e 26e2 d5bd
00000110: 6dfe ebbd 156e a9bd def6 a13d 5bc8 483d
00000120: 80bd 0c3e ed99 273e 8b3e 3c3e a139 1dbf
00000130: 9436 32be 4666 9f3d c474 80be b1b9 803d
00000140: 93b4 22be 9016 45be e77c 6e3d d7bd 28bf
00000150: fb43 19bf 822a 183e fa9b 37be 8813 153e
00000160: cee0 acbd d0bd af3b 5204 e63c 3e22 8bbe
00000170: db67 50bd 03ff a93f d89c 82bf 9f4a 19be
00000180: d390 e03d 8010 083e f12e 0ebe 4346 33bd
00000190: d2bc 9f3e 018d c13d a4c0 253f e633 6cbe
000001a0: 36f4 74be 3557 89be 077d ba3e 37fc 83bd
000001b0: 9168 303e 79e4 b7bc 261f b7bd 1a51 b43e
000001c0: ff5a a93f 70c3 ecbd 4f99 ff37 b1b4 7a3e
000001d0: 121b 943d 8840 78bb 88cb babe 14a0 e1bd
000001e0: 5ab5 b83d 0a15 203e f1f5 cd3e 9659 73bd
000001f0: ac7c 6c3e e269 7abe 98b1 82be 405f 5e3d
00000200: 973a 513e 4a5c f93d 8e79 72bf e66c 533a
00000210: b888 4d3e 1707 d53d d948 db3d 7372 943e
00000220: ca5e ca3e 397d a33e aa7f c9bd a197 85bf
00000230: c328 f0bd c4a0 f03c e60b 5dbe db1c cb3c
00000240: 3e9f 24bd 9b07 20be 0278 113c 6a90 e93c
00000250: 68a5 99bd 5230 b83f f43f a1bd d729 843c
00000260: ec78 41bd ed3d 2fbc df92 c9be 9f16 57be
00000270: f866 3fbf 0ec1 82bd 49c9 2b3d e5ed 04bd
00000280: 4444 4cbe 92a8 603e 8683 4d3e 27ff 513d
00000290: 5cc2 cfbe 4fde a33e 552b 443f 2afa 84bd
000002a0: 2a05 5ebe 002f e8bd a785 30be c989 623d
000002b0: e784 8d3e 6fcb 013f 85e9 81bd 3e14 083e
000002c0: c8fd 163e 8074 1e3d 7f14 60be 7865 a03e
000002d0: 460f 89bd d21c 6fbd 2475 a4be 5f5b 4cbe
000002e0: df4d 86bf 192a 643d 65c6 99be 5ea1 01be
000002f0: 407a 46bc 850a 8cbe eb04 fe3c 120c bfbd
00000300: ae03 2dbe 2cf8 983e d72d 393f 5b40 27be
00000310: d626 da3d 7f35 ea3d f088 8c3e 0072 99be
00000320: 1feb b73e da1a 2cbf 75d3 f8bd 4437 543d
00000330: f0e3 1f3e 0dc8 b0bd f22d 00bc 046f d2bc
00000340: 063c 9a3c 06ed c5bc 7eae 773e d9a4 ee3e
00000350: ca05 8dbe d9bf b33e 147a 1e3e d9dc c43e
00000360: c436 073e e789 6cbe 0217 64be d3ef 163f
00000370: d9f7 ed3e 8397 2d3e 80ed 1abe e366 55bd
00000380: 77ff 043d 464e 01be 426c 32be 766d 933c
00000390: d17d 1c3f ea4d 7a3f c280 dabd adcf c3bd
000003a0: 3acc 903e cc59 74bd b937 afbd 4ca8 a8bc
000003b0: 93f3 bcbe a10a 46bd 436c fe3e 0d61 15be
000003c0: ab2b adbe f21f eb3c 5066 c53d f906 5bbd
000003d0: 997e 773d 91cb 123e a595 31bf 8b45 00bd
000003e0: e6b5 fabd 9fec 943e 6103 a63e b51e 98bd
000003f0: ac72 be3e 57db d53e 0264 59be 2d52 68bf
0.11943419 -0.10399506 -0.38129446 0.30257025 -0.93606204 0.3101838 0.016647844 0.2431277
-0.069539756 -0.15054895 0.14420725 0.18115562 -0.13522343 1.0060233 -0.1664758 -0.0804133
-0.029092338 -0.11651691 0.36155877 -0.0048506623 -0.03359797 -0.2568953 -0.5288623 -0.027213328
-0.19600824 0.0414696 0.14354028 0.106553055 -0.29162967 0.27650267 0.37919405 0.38235527
0.2903083 -0.25746602 -0.17896734 -0.11207101 0.14053363 -0.07250532 0.16833507 -0.20854616
1.1023082 -0.1175145 0.16457742 0.016248109 -0.25182402 0.05678728 -0.16249326 0.033859197
-1.1164603 0.14967836 -0.46958527 -0.102695554 0.10796454 -0.1205977 0.23068205 -0.033034477
0.38328534 -0.40222842 -0.24137536 0.16202918 -0.31528497 0.2312724 0.3251401 0.109773695
-0.3288664 -0.43159997 0.29707778 -0.10443525 -0.11523137 -0.082729496 0.07908414 0.0490192
0.13744164 0.16367312 0.18383233 -0.6141606 -0.17403632 0.07783179 -0.25089085 0.06285418
-0.15889196 -0.19246888 0.058224585 -0.6591467 -0.59869355 0.14859965 -0.17930594 0.14558232
-0.084413156 0.0053632036 0.028078232 -0.27174562 -0.050880294 1.3280948 -1.0204115 -0.14969872
0.10965123 0.13287544 -0.13885094 -0.04376818 0.31198746 0.094507225 0.6474707 -0.23066673
-0.23921284 -0.26824346 0.36423513 -0.064445905 0.17227389 -0.022447811 -0.08941488 0.35218126
1.3230895 -0.11560714 3.0469759e-05 0.24482991 0.07231726 -0.003788026 -0.36483407 -0.110168606
0.09018965 0.15633026 0.402267 -0.059411608 0.23094434 -0.24454454 -0.25526118 0.054290056
0.20432507 0.12175806 -0.9471673 0.00080652384 0.20071685 0.10401743 0.10707254 0.28993568
0.39525443 0.31931475 -0.09838803 -1.0436898 -0.11726525 0.029373534 -0.2158657 0.024794033
-0.040190928 -0.15627901 0.00887871 0.028511245 -0.07502252 1.4389746 -0.07873526 0.016133232
-0.04723446 -0.010695917 -0.39369866 -0.21004723 -0.7476649 -0.063844785 0.041940007 -0.032453436
-0.19947916 0.21939304 0.20069703 0.051268723 -0.40577972 0.32005545 0.7662862 -0.064930275
-0.21681657 -0.113370895 -0.17238484 0.055307183 0.2764046 0.5070104 -0.063433684 0.13288972
0.14745247 0.03868532 -0.21882819 0.31327415 -0.06692366 -0.058377095 -0.3212062 -0.1995673
-1.0492514 0.05570421 -0.30034176 -0.12659213 -0.012114108 -0.27351776 0.031008204 -0.09328474
-0.16895935 0.2987684 0.7233557 -0.16333143 0.106519386 0.11435985 0.27448225 -0.29969788
0.3592157 -0.6722847 -0.12149707 0.051810518 0.15614295 -0.08631907 -0.007823454 -0.025687702
0.01882745 -0.024160873 0.24187657 0.46610144 -0.2754348 0.35107306 0.15476257 0.38449743
0.13204485 -0.2309948 -0.22274402 0.5895969 0.46478155 0.16952328 -0.15129662 -0.052100074
0.032470193 -0.12627515 -0.1742411 0.017996531 0.6112948 0.9777514 -0.1066909 -0.095610954
0.28280813 -0.05965595 -0.0855555 -0.020588063 -0.36904582 -0.04834998 0.49691972 -0.14587803
-0.3382238 0.028701756 0.09638655 -0.053473447 0.060423467 0.14335467 -0.69368964 -0.03131632
-0.122417256 0.29086778 0.32424453 -0.07427732 0.37196863 0.41768906 -0.21229556 -0.9075039

0.bias f4 [32]
00000000: 917a c53d 2222 133e b789 b5bc 41f5 f23b
00000010: 9567 663e 3158 963e 0343 b93d 7910 003d
00000020: 8012 6ebc 147c 103e 160b 0dbf 10b9 413d
00000030: 7222 ad3e e582 d7bc 96eb 3a3d 7ad1 1ebd
00000040: 4202 ef3e b525 043e d202 12bd a6bc 113f
00000050: 6fd1 523b 2404 003f 1551 bd3e 409b 173e
00000060: 83fe 80be 8a3b 54be 9482 643e 61f4 92bd
00000070: 916e f93d e90d 683d cd82 d3bd 86a8 3dbe
0.09642518 0.1436849 -0.022160394 0.0074144905 0.22500451 0.2936416 0.090459846 0.03126571
-0.014530778 0.14109832 -0.5509504 0.04729563 0.33815342 -0.026307533 0.04563483 -0.03877399
0.4668141 0.12905009 -0.03564722 0.5692848 0.003216829 0.5000632 0.36975923 0.14805317
-0.25194177 -0.20725837 0.22315437 -0.07175518 0.12179292 0.05665389 -0.10327683 -0.18521318

2.weight f4 [64, 32]
00000000: bae6 6c3c 737b 653e a42c 96bd 615e 0bbe
00000010: aa29 1d3e 1959 21be 44c7 d3bd db00 bcbc
00000020: 35e3 c1bd 8f71 18be d5de d03b 91db 7e3e
00000030: 63c4 05bd 1026 3ebe 6fb8 b63d 5e52 dabc
00000040: bbe2 623d 09c8 ea3c 6848 0f3e 8954 0a3d
00000050: a951 b0ba 4dfd 7dbd f618 a5bc 9c12 013e
00000060: f1cc 28bd 244a d4bd fc57 3d3d e50a 11be
00000070: ca98 83bd 0ba6 d4bd 0b60 c03d c938 4ebc
00000080: 2151 b1be e0b2 163d 3a8d b2bb e51e 333e
00000090: 7a45 853e 6348 123e bda0 14be 6b5b 003e
000000a0: fe57 18bd 5ded e7be 882a 023e 4f01 a13d
000000b0: 1e68 da3d 14ac 6abd 4c26 93be 031c 87be
000000c0: b1a3 64be 0192 aebc 6fd4 15be 42df 283e
000000d0: 7ba5 863c fdec 2cbe cbe9 66bb ae54 293e
000000e0: 52d7 b93d 72f4 b13e f439 643d 4eaa b03c
000000f0: 6337 cb3e 9fcd 64bd 5b44 743d 04a1 ea3d
00000100: ebf4 63be 8d43 e0bd fdaa e43d 0d17 cc3d
00000110: dffd 08be dd33 eebd 389d 74bd 1a3f 123e
00000120: 3d77 79bd 96a4 c0bc dda3 ee3e 5261 c4bd
00000130: 940f b73e 935e 58bd 3baf 5a3e 350a adbd
00000140: 08d5 0ebc 5e47 ef3c 9b9e 133e 6c7c a5be
00000150: ac10 3d3e fc46 ad3d 85c6 3cbe 468c d63c
00000160: 2c6e 8f3e 62e6 96bd ad74 51bc 654b 813e
00000170: 140a 43bd cad3 6fbc 5f9d 5a3e 2aba 833e
00000180: 3ac7 d7bd 3732 a03d 8893 7f3d c72b 6cbd
00000190: bb88 67be 23ea 373e b08a df3d b8ca 11bd
000001a0: 78a1 7e3e 5eb9 193e f5b9 9e3c 622e 33be
000001b0: 877c d03d c95a a93d 7507 883d 37d9 82be
000001c0: f570 2ebe dc3e 923e 4883 20bd ec84 f2bd
000001d0: d3cb 953c a520 98be 2c9b 7e3e e659 f83a
000001e0: c3fa 15be 0464 393e edb6 49be 7f14 37bc
000001f0: ff12 dcbc ade2 7d3c daf7 5bbe 6046 3dbe
00000200: d545 253e 0933 d13c 14ec 2e3e 6e12 8ebd
00000210: f053 b13d 9bab a2be ea10 5f3e 522f ed3d
00000220: ef68 16be 1fb8 813d b9b0 c53d b5f4 81be
00000230: bd54 95bd eb30 883a 04a3 a13d bfbe 4abd
00000240: 6f8f 8d3e 1b0d f23d 6bc5 97be f184 02be
00000250: 7272 5b3e ba62 3abe 4d4f 36bd 664a 92bc
00000260: ea34 58bd 58fe 2b3b b91a 9fbd bfc9 243e
00000270: df13 a9bd 9abc e0bc f212 883e 8b53 c5be
00000280: 7421 203e dba2 303e c4fb 16bd 5486 bb3d
00000290: a911 663e b127 81be 06bf eabd c5d2 62be
000002a0: 2642 7f3d 30cf 28bd bee3 c13c 2181 643e
000002b0: 5ef9 f33d 3736 b1bc b221 d33d d0fd 7b3e
000002c0: 7fd7 483e 4ad6 a03c e409 12bd f44b bd3d
000002d0: 62d2 01be bd91 1d3d f3d4 c3be c3de 193e
000002e0: c686 c5bd 3f1f fcbd b471 97be 9ebc 53be
000002f0: 9fbd 843d dfe6 453e 7dba 85bd 60f1 063e
00000300: 742e 933e 2669 0dbd 1bfb 6b3e cd81 f7bd
00000310: 76bc 44be 73c1 7abe c126 59be c647 1b3d
00000320: 666b afbd bea4 66bd 8e48 723e 17b6 fdbd
00000330: 8e3a e9be ed56 2ebe 8596 cc3d 8aca c33e
00000340: fb22 b3bd e836 6dbd 5907 153c ff52 843d
00000350: 7902 023e a1f9 b43c 6940 773d 029f 56be
00000360: 329d db3d e520 d7bd 8705 5fbe 09ce 36bb
00000370: f6e2 16be e0e1 89bc 6535 aa3d 4ac5 03bd
00000380: d1de 9d3d de13 f8bc 8da1 50bc 6646 5e3e
00000390: 9759 81bd 1a94 7ebe b8cb 1f3e 1d91 d8bc
000003a0: 4f56 b43d 32fe 29be 2212 79bd b169 4abe
000003b0: 7e59 c93e df93 eb3d 1443 42be 2e2d 53be
000003c0: cb06 013f c82a b4bc 738b 1fbc 9cc0 3a3e
000003d0: 5ccb 93bd 6f4c 1bbc c47c a5bd 8c83 173e
000003e0: 3ad7 ce3d 8c22 5dbe 7fb7 313d d3ad dbbd
000003f0: 250b 3e3d 059e e9bb 1da9 05be a21c f4bd
0.014459306 0.22410373 -0.07332733 -0.13610221 0.15347925 -0.15756644 -0.10340741 -0.022949627
-0.094671644 -0.14887069 0.00637422 0.24888445 -0.032657992 -0.18569207 0.08921897 -0.026650604
0.05539201 0.028659837 0.13992465 0.033772025 -0.0013452071 -0.062009145 -0.020153504 0.12604755
-0.041211072 -0.10365704 0.046226487 -0.14164312 -0.064256266 -0.10383233 0.09393319 -0.012586781
-0.3463221 0.036791682 -0.0054489644 0.17492254 0.2602957 0.14285426 -0.14514442 0.12534873
-0.03719329 -0.4529828 0.12711537 0.07861578 0.1066439 -0.057293013 -0.28740156 -0.2638856
-0.22328068 -0.021309854 -0.14631818 0.16491416 0.01643633 -0.16887279 -0.0035234566 0.16536209
0.09074272 0.3475681 0.05571933 0.021565583 0.39690694 -0.055860158 0.0596355 0.114564925
-0.22261398 -0.10950384 0.11165426 0.09965334 -0.13378094 -0.11630986 -0.059720248 0.14281884
-0.06090473 -0.02351598 0.46609393 -0.09588875 0.35754073 -0.052824568 0.21355908 -0.084492125
-0.008717783 0.029208835 0.14415972 -0.3232149 0.18463391 0.08460805 -0.18435104 0.026189934
0.28013742 -0.07368161 -0.012784165 0.25252834 -0.047617033 -0.014637897 0.21349095 0.2572797
-0.10536046 0.07822078 0.062396556 -0.057658937 -0.22610752 0.1796041 0.109151244 -0.03559372
0.24866283 0.15012118 0.01937578 -0.17498162 0.10180002 0.08269269 0.06642047 -0.25556347
-0.17035277 0.28563583 -0.0391877 -0.11841759 0.018285668 -0.29712406 0.24863881 0.001894769
-0.14646439 0.18104559 -0.19698687 -0.01117432 -0.026864527 0.015495938 -0.21481267 -0.18483877
0.1613992 0.02553703 0.17082244 -0.06937109 0.08658588 -0.3177155 0.21783796 0.11581291
-0.14688466 0.063339464 0.09652848 -0.2538201 -0.07291553 0.0010390555 0.07892421 -0.049498316
0.27648494 0.11818906 -0.29642805 -0.12746026 0.21430376 -0.18201724 -0.04450922 -0.017857742
-0.052784838 0.002624413 -0.07768769 0.16092585 -0.08255743 -0.027433682 0.26576954 -0.385403
0.15637761 0.17249624 -0.036861196 0.091564804 0.22467674 -0.25225595 -0.11462216 -0.22150715
0.062318943 -0.041213214 0.023668166 0.22314884 0.119127974 -0.021632297 0.10309161 0.2460854
0.19613455 0.019633431 -0.035653964 0.092430025 -0.12677911 0.038469065 -0.38248405 0.15026383
-0.096448466 -0.12310647 -0.29578936 -0.2067742 0.0648148 0.19326352 -0.065297104 0.13178015
0.28746378 -0.034524105 0.23045008 -0.120853044 -0.19212517 -0.24487858 -0.2120619 0.037910245
-0.085654065 -0.056309454 0.2366049 -0.123882465 -0.45552486 -0.17025347 0.09989647 0.38240463
-0.08746906 -0.05791369 0.00909599 0.06461143 0.12696256 0.022091689 0.06036416 -0.20959094
0.10723342 -0.10504321 -0.21779452 -0.0027893803 -0.14735016 -0.016831338 0.083109654 -0.03217057
0.077085145 -0.03028291 -0.012733829 0.21706542 -0.06315916 -0.24861184 0.15605056 -0.026436383
0.088055246 -0.16600874 -0.06080831 -0.1976688 0.3932609 0.115028135 -0.18970901 -0.20622703
0.5040099 -0.021993056 -0.009737837 0.18237537 -0.07216522 -0.009478672 -0.08080438 0.14796275
0.10099645 -0.2159521 0.043387886 -0.10726514 0.046397347 -0.007129433 -0.13052793 -0.11919524

2.bias f4 [64]
00000000: 9f9e 033e 5b9b d5bd 9ed8 bfbe bf85 303e
00000010: 92fe 133e 5361 5abd e488 d6be e416 bb3b
00000020: 51db bcbd ebbb 763d 14ac ab3d 5ca0 2b3d
00000030: 0090 6ebe f895 3ebe a471 85be 1ffa b6be
00000040: 1770 bc3e e67a a2be 5cf7 cd3d 59fa b1be
00000050: 46ff 943e a737 5f3d 816f 34bd 32b0 31bd
00000060: 6c29 8dbe 79ef b4be 0805 ee3d f917 ac3c
00000070: aed5 343e c7de 06be 2ef0 dcbe c6e3 26be
00000080: 152c aebd 9f30 633e 7ef6 9d3e 0344 1c3e
00000090: fd48 59bc 3bd7 96be bc05 aa3d 1cf1 783d
000000a0: f459 84bd 785c 68be e8b7 1a3e 409e 2f3e
000000b0: 54c7 27be 2466 373e 1ef5 cd3d 73e0 15bd
000000c0: abe7 0dbd 2fbe 1f3e de2e ca3d 23b1 a83e
000000d0: c99d 9f3d e0c6 a03e 24f1 b6bd 844f 983e
000000e0: 2744 f83d 016f e43d 4b6f 67be 84bc c53c
000000f0: c4eb 07be 19b8 303e cfe7 a0be 0163 24be
0.12853478 -0.10430022 -0.37469953 0.1723852 0.1445258 -0.05331547 -0.41901314 0.005709516
-0.09221519 0.060237806 0.08382431 0.041900977 -0.23297119 -0.18611896 -0.26063263 -0.35737702
0.36804268 -0.3173439 0.10056946 -0.34761313 0.29101008 0.054496434 -0.04405165 -0.043380924
-0.27570665 -0.35338953 0.116220534 0.021007525 0.17659637 -0.1317092 -0.43151993 -0.16297826
-0.08504502 0.22186516 0.3085212 0.1526032 -0.013262031 -0.29461083 0.08301875 0.060776815
-0.0646247 -0.22691524 0.15109217 0.17150211 -0.16384631 0.17910057 0.10056518 -0.036591005
-0.034644764 0.15599893 0.098722205 0.32947645 0.07793767 0.3140173 -0.08932713 0.29748166
0.12122374 0.11153985 -0.22601049 0.024137743 -0.13273531 0.17257728 -0.31426856 -0.16053392

4.weight f4 [128, 64]
00000000: b230 f23d 6096 98bd bb1f 04be 05c1 283d
00000010: d62c d1bc 1f97 453e 157e 1b3d 6303 cebc
00000020: 4138 9f3c 46b6 41be 5d4f 7d3d d833 c3bd
00000030: 4786 a0bd bda9 0e3d 1a19 3bbd 06e9 ca3c
00000040: 649a 4bbc 65d5 c9bd aa96 3dbd 9797 103c
00000050: 671f 013e d7da 833d a45e e5bc a5c5 773d
00000060: ed91 933c 7394 83bc 94f9 22be 83da 3abd
00000070: 3101 74bd 6485 1dbe 0904 d83d 1817 c63b
00000080: cd6f 233d b8e9 973c 332f afbd 55b7 87bd
00000090: b7b0 0ebd 7f2f 54bd e16b 183e 306d db3d
000000a0: e6b0 2e3d effa 71be 70b3 703d f308 05bd
000000b0: f099 58bd e11c 47be acb8 443d 01c6 90bc
000000c0: 088a 053e c9c0 973d c03f 693c 68ec c83d
000000d0: bba8 50bc 3478 3a3e b4bc 2cbd c547 26bd
000000e0: c9af 0c3e 0356 4c3e 20c4 02bd 0be7 a23c
000000f0: 39d0 323e a7ad 7cbd d0c7 0ebe 11dc 11bd
00000100: d8e8 9fbb c13c b6bb a6fc dbbb 1bfc c6bb
00000110: 9acb 903a 46c3 00bb b7a1 af39 c4ac f6b9
00000120: 011e ddbb 7cc7 50bb f624 b9bb 3f36 c7bb
00000130: 6fc6 aabb 21a0 3fbb 6026 94bb 8155 a7ba
00000140: 670c aebb a22c 22bc fbed 0c3b 030e 8fb8
00000150: d36c 93bb 74d0 88bb b6da a2ba 8d26 b6bb
00000160: 35e3 f6bb 93ee 0dbc 079c 2abb 08fa 13bb
00000170: 822e 8a3a 63a2 03bb b4ee 75ba d76f 79bb
00000180: 45b6 8ebb 6a24 473b e16f dbb7 9d2d 5f3a
00000190: bf3a 86ba c29d 81bb 6a6f bc3a f4d8 bdbb
000001a0: 1144 89b8 310d b2bb 7761 5abb 441d c0bb
000001b0: 9f7a 17b9 28e7 e939 513a 0fbc 0bb4 75bb
000001c0: 57b7 4cbb ea2b 0dbc 5f33 1cbb 5ef7 ebbb
000001d0: 1bb4 35bc 2a6e 5fbb 7254 b2ba 49e0 cabb
000001e0: 8d26 763b 1182 c2b9 e6ae 93bb 9524 91bb
000001f0: 6fdb 69bb 64bd b3bb 868c d6ba 892f 013a
00000200: e2c4 413d dfb7 863d 6441 75bd 568c 8dbd
00000210: d9bc c53c de22 1ebc cda2 97bd 1bca 0b3e
00000220: ed8d a1bd b54c 72bd bc46 6f3d ceb4 8d3d
00000230: 14de fe3b 0c3d e9bc cd59 aebd 1883 f0bc
00000240: aafe e83d 93bc d03c d61f 3fbe 3281 30bd
00000250: 936c 7dbd 0cc1 69bd b01d 5e3d 0adc a8bd
00000260: 1118 31be 880d 2bbd 52af 06bd e32f 033b
00000270: aa81 353c 2b12 393d bd53 39be 40b9 3abd
00000280: 21bd 5bbc 4db7 89bd 2a17 05bc 14f1 163c
00000290: a0f9 07be 1ada 08ba 4e99 713d a61e 123e
000002a0: 8568 40bd e8fb 39bd d892 9fbd 7446 2abe
000002b0: 260d 483e a50e 933c aadd 7a3c edec b9bd
000002c0: 8e16 d0bd 876c 1abe 3ae9 723d b7d3 133e
000002d0: 9512 3e3d 9332 3a3e 912a 37be 0eae e3bd
000002e0: 324f 46be 97e0 a9bd 7787 49bd 6e37 d1bd
000002f0: ca0b 653d 73d8 57bd cbfe 913d d384 a7bd
00000300: 0c17 9c3d 2c92 b4bd 311c c53c 33d1 fd3d
00000310: f8bd 433d 7534 0e3d 195e a73d 5908 12be
00000320: db6d 8cbd 7b39 78be be00 273e 6b77 f9bd
00000330: 357e 75bc 0c4d 43be 0285 853d 345d 0cbe
00000340: 605f b9bd 1735 48bc 65f7 9abc ece3 a53c
00000350: e9e3 af3d 9075 2b3d 27cb 9bbc c53c 8f3d
00000360: cb24 44bd bc08 263d b1b1 473e e0be bfbd
00000370: 8d4f 9f3d 326b d83d 4c20 c13c 79aa 93bd
00000380: f9b6 22be 997d 89bd 5d5a 993d 426d f73d
00000390: 7dd1 613e e4d2 ab3d 1b54 d03d 7aad a4bb
000003a0: 41c9 d43d bd1b f1bd a794 b83c df50 0c3e
000003b0: 81aa 3e3c 1286 13be 78d4 2bbe 767d 0dbe
000003c0: 8a37 3f3d 2a44 2c3c ffcb 7d3d 29fb 9a3c
000003d0: aba8 a43d 8cf8 00bd 5049 fc3d ef6a 46bd
000003e0: d1c6 e2bd cd1f 9bbd dd59 f9bd cbd7 293e
000003f0: 2366 11be 453c c63b bb6b f1bd 62b9 8d3d
0.11825694 -0.07450557 -0.12902729 0.041199703 -0.025534075 0.1929593 0.037962038 -0.0251481
0.019436004 -0.18917188 0.061843265 -0.09531373 -0.07838111 0.034829844 -0.045678236 0.024769317
-0.012426946 -0.09855155 -0.046286263 0.008825204 0.12609635 0.06438225 -0.02799923 0.060491223
0.018013919 -0.016061997 -0.15915519 -0.045618545 -0.05957145 -0.15382916 0.10547645 0.0060452335
0.039901543 0.018544063 -0.085539244 -0.06626765 -0.034836497 -0.05180311 0.14884903 0.10714185
0.042649172 -0.2363088 0.058764875 -0.032479238 -0.05288118 -0.1944461 0.04802768 -0.01767254
0.13040936 0.07409818 0.014236391 0.09810716 -0.012735541 0.18209916 -0.04217215 -0.04059579
0.13738932 0.19954686 -0.03192532 0.01988556 0.17462243 -0.061689045 -0.1394341 -0.035610262
-0.004880052 -0.0055614416 -0.0067134677 -0.006072534 0.0011047006 -0.0019647642 0.00033499088 -0.00047049497
-0.0067479615 -0.0031857183 -0.005650158 -0.0060794647 -0.0052116434 -0.0029239731 -0.004521176 -0.0012766571
-0.005311537 -0.009898337 0.0021504152 -6.821381e-05 -0.004499057 -0.00417524 -0.00124248 -0.005558795
-0.0075344094 -0.008662838 -0.002603294 -0.002257945 0.0010542425 -0.0020085804 -0.0009381578 -0.0038061047
-0.0043552243 0.0030386695 -2.6158932e-05 0.0008513572 -0.0010240896 -0.003955574 0.0014376466 -0.005793685
-6.5453474e-05 -0.0054337014 -0.0033322254 -0.0058628637 -0.00014446162 0.00044613448 -0.008741931 -0.0037491347
-0.0031237209 -0.008616427 -0.002383433 -0.0072011193 -0.011090304 -0.0034092763 -0.0013605489 -0.0061912877
0.00375596 -0.0003709947 -0.0045069335 -0.0044294097 -0.003568377 -0.0054852236 -0.0016368784 0.0004928043
0.047306903 0.065780394 -0.059876814 -0.069115326 0.024137901 -0.009651868 -0.07404099 0.13651316
-0.07888398 -0.059155185 0.058417067 0.069192514 0.0077779386 -0.028471492 -0.08513222 -0.029359385
0.11376698 0.025480544 -0.18664488 -0.04309196 -0.061871123 -0.05706887 0.05422753 -0.08245094
-0.17294337 -0.04176095 -0.032882042 0.0020017556 0.011078278 0.045183342 -0.1809835 -0.045586824
-0.013411791 -0.06724415 -0.0081231985 0.009212751 -0.13278818 -0.0005220488 0.058984093 0.14269504
-0.046974678 -0.045406252 -0.0779168 -0.16628438 0.19536266 0.017951319 0.015311638 -0.09078393
-0.10160552 -0.15080462 0.059304453 0.14436232 0.04640444 0.18183355 -0.17887332 -0.11117183
-0.19366148 -0.0829479 -0.049201455 -0.102156505 0.055919446 -0.052696656 0.07128676 -0.08179631
0.07621583 -0.088169426 0.024061294 0.12393417 0.04778859 0.034717996 0.081722446 -0.14260997
-0.06856891 -0.24240677 0.16308877 -0.1218098 -0.014983703 -0.1907236 0.0651951 -0.13707429
-0.090513945 -0.012219689 -0.018916795 0.020250283 0.08588392 0.041860163 -0.019017769 0.06994013
-0.04788665 0.040535673 0.19501378 -0.093625784 0.07778845 0.10567321 0.02357497 -0.072102495
-0.15890111 -0.06713409 0.074879386 0.12081386 0.2205257 0.083898336 0.10172292 -0.005025563
0.10389949 -0.11772869 0.02253182 0.13702725 0.011637331 -0.14406613 -0.16780269 -0.13817391
0.046683826 0.010514298 0.061962124 0.01891859 0.08039983 -0.031487033 0.12318671 -0.048441824
-0.110730775 -0.07574425 -0.12175343 0.16586225 -0.14199118 0.006049665 -0.11788126 0.069201246

4.bias f4 [128]
00000000: 58b3 5036 c94d 86bb d6d5 583e fc38 9a3d
00000010: f0dc 063c b958 25be fa89 ff3c e8ee 44be
00000020: 0a9a b9bd cdbf 94bd b37e a3bb ca68 303d
00000030: 1337 dabd 88e1 3a3d a66b dabc 7b2c a1bb
00000040: bbdf 453d 549e c13d 95d5 90bd ebd1 f0bd
00000050: 2379 a4ba 7226 01be df75 4bbe d334 56bc
00000060: 683e 08be 2a9b c939 986d 6ebb 2923 443d
00000070: ef82 053d bd8b 883d 2963 673e 0949 babb
00000080: f85b 2f3e 1357 f3bd 846b 27bc 8211 cfbd
00000090: 938e 58be ae48 39be c34d 3cbd 606b 55be
000000a0: f73b ddbd c1e9 323d a5bf 6fbb 81db 55bd
000000b0: 7f1a 943e 42ed f63c faae 00bd 54b8 6e3d
000000c0: 72b5 213e 5ef6 9cbc 1563 563b 7fac 0f3e
000000d0: 3ebe 41bc 6edf e13d f499 30be 2d25 303e
000000e0: c7d5 4dbe 2021 a8bd f504 bd3d 7bf5 2abe
000000f0: 692b 063c f2ec 63be 0137 b0bd 8079 e5bd
00000100: c735 1fbe eedb 9fbd b9b8 0abc 2e53 9abd
00000110: c2e8 923b 938d bd3d 55eb 6e3d f226 debc
00000120: 8bfc efba 8417 28be d01a 613d f9fd 56bd
00000130: 1fb0 a6ab ab24 473d 6ec7 4cbe adac aabd
00000140: d720 a73c 9cf7 383e 8a73 79bd 472b b23d
00000150: 6c72 2dbe dfd6 da3d 0ffa 86bd ea00 7c3e
00000160: f247 503e 3870 8fbb 83ee 593d 6dea dcbd
00000170: cc2f 1e3e 3177 633e 1b86 00bb 298b 4fbd
00000180: 8bce b0b8 36aa 4dbe 9227 a7bd 456f 4b3d
00000190: f31a 233e faa9 bdbc 1958 4d3d 06df 2b3e
000001a0: c2e1 54be 0260 873d 75f8 08bb 04c6 1dbe
000001b0: 4491 20bb 4939 203c f365 11be 6bee 19be
000001c0: 79db 43bd 7c78 3cbd c7eb b7bb c03c 2ebd
000001d0: 0744 913c 3448 fc3c 7d34 a53c 7230 8d3c
000001e0: 7047 283d b8a0 8cbb 7b78 393d ce9b 3fbd
000001f0: 0538 3c3d c84c 683d 22ce 843a be11 3bbe
3.1098807e-06 -0.004098628 0.21175322 0.075304 0.008231387 -0.16147126 0.031193722 -0.1923176
-0.09062584 -0.072631456 -0.004989469 0.043068685 -0.10655036 0.04562524 -0.026662659 -0.0049186326
0.04830907 0.09454027 -0.070719875 -0.11758789 -0.0012548309 -0.12612322 -0.19869183 -0.013074118
-0.13305056 0.00038453314 -0.003638124 0.047885094 0.03259557 0.06667278 0.2259642 -0.005684976
0.17124927 -0.118818425 -0.010218505 -0.10110761 -0.21148138 -0.18094131 -0.045972597 -0.20841742
-0.10802453 0.043679956 -0.0036582735 -0.05221129 0.28926465 0.03014243 -0.03141687 0.058281258
0.15791872 -0.019160446 0.0032712866 0.14030646 -0.011825142 0.11028944 -0.17246228 0.17201681
-0.20101081 -0.08209443 0.09229461 -0.16695206 0.008189061 -0.22258356 -0.08604241 -0.11204815
-0.15547858 -0.0780562 -0.008466893 -0.075353965 0.0044833133 0.09255519 0.0583299 -0.02711818
-0.0018309517 -0.1641522 0.05495721 -0.0524883 -1.1843893e-12 0.048618954 -0.19997951 -0.083337165
0.020401401 0.18063205 -0.060901202 0.08699661 -0.1693818 0.10685515 -0.06590664 0.24609724
0.20339945 -0.004377391 0.053205978 -0.10786901 0.1544792 0.22213437 -0.0019611183 -0.050669823
-8.4308056e-05 -0.20084462 -0.08161844 0.04966666 0.15928249 -0.02315234 0.050132845 0.16784295
-0.20789245 0.06610109 -0.0020900045 -0.15407568 -0.0024500648 0.009779283 -0.14199047 -0.15032355
-0.047816727 -0.04601334 -0.0056128236 -0.042538404 0.017732633 0.030796148 0.02016663 0.017235015
0.041083753 -0.00429162 0.045280915 -0.046779446 0.045951862 0.05671385 0.0010132233 -0.18268487

6.weight f4 [256, 128]
00000000: 6705 0080 3d06 0080 160f 0000 f6a3 d58b
00000010: 9c02 0000 cdab 811b 6a0a 0080 2404 0000
00000020: 400c 0000 ef0c 0000 d55c 3a27 b625 8b8a
00000030: df2a b12d 5d09 0000 8a0c 0000 3797 0000
00000040: f013 0080 5306 0000 4a09 0000 fc0d 0080
00000050: bc9d 3b9f 0c10 0080 9dd3 11aa 416c 2b1b
00000060: 120a 0000 330f 0080 7491 0000 fa0b 0000
00000070: 2f03 0080 1804 0000 a66c 0200 ad0e 0080
00000080: 7c07 0080 5e10 0000 350b 0080 2d09 0000
00000090: 6918 0000 2511 0080 b50d 0000 ca47 a3a3
000000a0: 5bb6 f4a4 cd67 50a3 4e06 0080 320b 0000
000000b0: 2e0d 0080 5e0b 0000 c707 0080 e20b 0080
000000c0: b647 2f8c 7041 478b ba0c 0080 5c04 0000
000000d0: 4313 0080 5411 0000 c50d 0000 8e76 1703
000000e0: de12 0000 b606 0080 2db5 5c89 4d00 0099
000000f0: 5d0c 3e04 ba0a 0080 bc00 0000 c93a 0c1a
00000100: dd00 0080 2b0d 0080 9106 0000 a2bc bc0a
00000110: e203 0000 ac16 0000 2c01 0000 740f 0000
00000120: 5a1f 0000 580a 0000 a20b 0080 b604 0000
00000130: 7133 0000 1413 0080 284a c59c 150b 0080
00000140: da0d 0000 2508 0000 4cc1 b20c 1601 0000
00000150: 4203 0080 ea0e 0000 5405 0080 0713 0000
00000160: cc06 0080 c00f 0080 7d0c 0000 8808 0000
00000170: 1f04 0080 6d0b 0080 1e33 a015 0e09 0000
00000180: ae30 0080 07ed 259f 7950 858d 240c 0000
00000190: 20bc b79b 6505 0000 4e07 0000 505f 939d
000001a0: 8514 0000 d0a1 da1a 225b 0080 6bcb c096
000001b0: 5106 0080 1545 2a80 db05 0080 c2d6 ab0a
000001c0: a313 0080 0d00 0000 a101 0000 4c0a 0000
000001d0: 230b 0000 a20c 0080 e313 0080 4504 0080
000001e0: 760e 0080 9c84 9397 fa12 0000 7d44 0680
000001f0: 0e01 0000 9712 0000 d000 0080 dd16 8f91
00000200: b608 0080 fa05 0000 9102 0000 cc10 0080
00000210: bc01 0000 2b05 0000 a612 0080 1609 0000
00000220: cc02 0080 9803 0080 3c0e 0080 c614 0000
00000230: b005 0080 150c 0000 de0d 0000 6f92 0000
00000240: 9b02 0080 c415 0080 5508 0000 0507 0080
00000250: 640f 0080 7e06 0080 0d13 0080 220a 0000
00000260: f203 0080 bf0e 0080 736a 0080 7e00 0000
00000270: 4307 0000 cf01 0080 fd07 0000 6211 0080
00000280: 9909 0080 a927 0000 1224 0080 8b0d 0000
00000290: 2a0e 0080 5500 0080 8e10 0080 5205 0080
000002a0: 3e11 0000 7106 0000 7c02 0080 ca13 0000
000002b0: 9b02 0000 5a0b 0000 8e0d 0000 7a15 0080
000002c0: ec15 0080 9110 0000 a815 0080 1416 0080
000002d0: 430e 0000 6214 0000 1404 0080 6608 0080
000002e0: ca01 0000 b616 0080 4e13 0000 ba05 0080
000002f0: ee0f 0080 f914 0000 c215 0080 6810 0000
00000300: e301 0080 cb0c 0000 a015 0080 6d0d 0000
00000310: af05 0080 830a 0080 620f 0080 f500 0080
00000320: 1f25 0000 c104 0080 011f 0080 291c 0000
00000330: 5535 0000 cb05 0000 c30d 0000 1812 0080
00000340: d012 0080 a800 0080 2817 0000 930a 0000
00000350: 6108 0000 4302 0000 ea14 0080 a709 0080
00000360: 8707 0080 ee19 0080 4709 0000 050b 0000
00000370: 9000 0080 d007 0000 8913 0080 2805 0000
00000380: 5006 0080 2913 0000 1908 0000 ba04 0000
00000390: 5916 0080 3f0d 0080 e714 0000 ef00 0000
000003a0: 9b0e 0080 5c02 0000 220d 0080 890f 0080
000003b0: 7c17 0080 8603 0080 871b 0080 a30f 0080
000003c0: 8a18 0080 3911 0080 c10a 0080 081a 0080
000003d0: 6f0c 0000 c015 0000 420a 0000 ce17 0000
000003e0: 5412 0000 e50d 0080 7e10 0080 bd14 0080
000003f0: 8808 0080 f408 0080 5315 0000 6013 0000
-1.938e-42 -2.238e-42 5.412e-42 -8.2291317e-32 9.36e-43 2.1452283e-22 -3.736e-42 1.485e-42
4.394e-42 4.64e-42 2.586301e-15 -1.3399398e-32 2.0141609e-11 3.359e-42 4.498e-42 5.4246e-41
-7.152e-42 2.269e-42 3.332e-42 -5.017e-42 -3.9729265e-20 -5.757e-42 -1.2952005e-13 1.4179767e-22
3.613e-42 -5.452e-42 5.2179e-41 4.296e-42 -1.142e-42 1.469e-42 2.22647e-40 -5.265e-42
-2.685e-42 5.871e-42 -4.02e-42 3.292e-42 8.757e-42 -6.15e-42 4.917e-42 -1.77029e-17
-1.06127054e-16 -1.1297683e-17 -2.262e-42 4.016e-42 -4.728e-42 4.078e-42 -2.79e-42 -4.263e-42
-1.3503089e-31 -3.8375236e-32 -4.565e-42 1.564e-42 -6.91e-42 6.216e-42 4.94e-42 4.4511006e-37
6.768e-42 -2.407e-42 -2.6566725e-33 -6.617506e-24 2.234007e-36 -3.848e-42 2.63e-43 2.8998808e-23
-3.1e-43 -4.724e-42 2.356e-42 1.8174697e-32 1.393e-42 8.133e-42 4.2e-43 5.544e-42
1.1247e-41 3.71e-42 -4.173e-42 1.69e-42 1.8454e-41 -6.844e-42 -1.3055535e-21 -3.975e-42
4.969e-42 2.922e-42 2.7541579e-31 3.9e-43 -1.169e-42 5.35e-42 -1.911e-42 6.826e-42
-2.438e-42 -5.65e-42 4.48e-42 3.06e-42 -1.478e-42 -4.099e-42 6.4704134e-26 3.248e-42
-1.7463e-41 -3.5136173e-20 -8.216131e-31 4.355e-42 -3.0396383e-22 1.935e-42 2.62e-42 -3.9009127e-21
7.361e-42 9.042411e-23 -3.2692e-41 -3.1147648e-25 -2.266e-42 -3.881873e-39 -2.1e-42 1.6547484e-32
-7.044e-42 1.8e-44 5.84e-43 3.694e-42 3.995e-42 -4.532e-42 -7.134e-42 -1.532e-42
-5.188e-42 -9.533128e-25 6.808e-42 -5.75582e-40 3.78e-43 6.669e-42 -2.91e-43 -2.2575512e-28
-3.125e-42 2.144e-42 9.2e-43 -6.026e-42 6.22e-43 1.854e-42 -6.69e-42 3.26e-42
-1.003e-42 -1.289e-42 -5.106e-42 7.452e-42 -2.04e-42 4.334e-42 4.975e-42 5.253e-41
-9.35e-43 -7.808e-42 2.989e-42 -2.518e-42 -5.521e-42 -2.329e-42 -6.834e-42 3.635e-42
-1.415e-42 -5.29e-42 -3.8187e-41 1.77e-43 2.605e-42 -6.49e-43 2.866e-42 -6.236e-42
-3.443e-42 1.4227e-41 -1.294e-41 4.858e-42 -5.081e-42 -1.19e-43 -5.939e-42 -1.909e-42
6.185e-42 2.311e-42 -8.91e-43 7.099e-42 9.35e-43 4.072e-42 4.863e-42 -7.704e-42
-7.864e-42 5.943e-42 -7.769e-42 -7.92e-42 5.116e-42 7.312e-42 -1.463e-42 -3.013e-42
6.42e-43 -8.147e-42 6.925e-42 -2.054e-42 -5.714e-42 7.524e-42 -7.805e-42 5.885e-42
-6.77e-43 4.589e-42 -7.758e-42 4.816e-42 -2.039e-42 -3.771e-42 -5.518e-42 -3.43e-43
1.3317e-41 -1.705e-42 -1.1122e-41 1.0102e-41 1.9132e-41 2.078e-42 4.937e-42 -6.491e-42
-6.749e-42 -2.35e-43 8.307e-42 3.793e-42 3.006e-42 8.11e-43 -7.503e-42 -3.463e-42
-2.7e-42 -9.302e-42 3.328e-42 3.953e-42 -2.02e-43 2.803e-42 -7.008e-42 1.85e-42
-2.264e-42 6.873e-42 2.905e-42 1.696e-42 -8.017e-42 -4.752e-42 7.498e-42 3.35e-43
-5.24e-42 8.46e-43 -4.711e-42 -5.573e-42 -8.425e-42 -1.264e-42 -9.875e-42 -5.61e-42
-8.803e-42 -6.178e-42 -3.858e-42 -9.338e-42 4.46e-42 7.802e-42 3.68e-42 8.54e-42
6.575e-42 -4.984e-42 -5.916e-42 -7.44e-42 -3.06e-42 -3.212e-42 7.65e-42 6.95e-42

6.bias f4 [256]
00000000: 6864 40b5 06e9 a7a5 ea5b 37bd 4650 55bb
00000010: 5870 faba 671f de3b b005 f63b f601 31b5
00000020: c806 97bb a838 7fae d339 82bb b373 f3ba
00000030: d40e 61bd b48c 8bbb bc4a cdbd 21c6 75be
00000040: 4e7f 1d3b d87f 82bc 7c8e a1bb dd29 58be
00000050: 1d12 1cbb 053c 4bbb cbd3 00be 9d10 f1ab
00000060: 6eb3 4f3c a414 83bb 27e1 75bb 6645 7bbc
00000070: b878 d6bd afc3 6fbd f878 823b e8fd 8dbb
00000080: 321a e3bb 32bf a78f cad5 e1ba 236a 4abd
00000090: 15bd 80bd 1527 44b7 b218 56bd 5c40 b5ba
000000a0: 2a0e e5bb bd2f 65bb e0de 3eba 3cde 4c39
000000b0: b7b6 c0b2 3c9f 58bb 8d42 bab4 f1ce 70bd
000000c0: fb23 26bc 9a50 aeb0 a757 85bd 6c0d c8bd
000000d0: 7540 d9b9 0ac8 f1bd 82ab 0bbc 154d 8bbb
000000e0: 1485 66bd 0af3 b9bc e4a7 e389 cc56 96bd
000000f0: 01e6 d7bb 24d9 42ad c4b3 acb1 b043 203a
00000100: d994 848f 3a07 5ab7 2277 2abb 8d6f 0f3d
00000110: ed94 2abb e57d b4bc 7864 78b8 78f5 89bc
00000120: 9fee 05bc 7368 bfba 0e14 f3bb 6d78 69bd
00000130: f0d4 83b6 bbd9 07bd 6fb3 b63c 59f3 fe88
00000140: a99c 8cba 17f2 c7b6 9527 d0bd 7b04 70bd
00000150: 2914 d0bd 6cd8 64bd 19fb 1cbd d5e1 90bd
00000160: e679 52bd 1e42 07bb 169e 3fbb 3132 85b2
00000170: 1fec b53c 774d 3fb6 f3e5 1bbe 2a5c 80bb
00000180: 9672 273c 9976 0793 13e9 5fbd df8d 02be
00000190: aeaf 9cb9 d4d3 6abb 4264 c8bc a220 023d
000001a0: 05b1 233c 6837 1fa0 a143 58bd baba 3abb
000001b0: 8fc8 223b 7f55 9dbd 4ba8 4091 330f 85bd
000001c0: 6b51 2194 cea3 8cbd b70c 94bd 7762 ff3c
000001d0: 917a 2aaa 7350 9ebd 5f60 74bb fb7d 10bd
000001e0: ec7b cbba 39ff 678c 3ffc aea1 d6e5 a5ba
000001f0: dbc2 84b6 45fd feb7 6f10 fbbd fc54 4dbb
00000200: b579 adb7 a5e8 4bb4 0af5 ccbd 230c a1ba
00000210: 9cc2 a1bb cfad d9b0 0fd7 5dbe bfab 6db4
00000220: 40fa d5b2 0884 e3b4 dcce 96ba 534c ddbd
00000230: 8f80 85b3 c9d3 f0b9 9d74 c8ae 4b00 243c
00000240: 9cec a0b9 cded 75ba ad69 a0b8 7d04 22bb
00000250: 1fa4 92bb 9eda 1ebe c5ea 9cb4 e58c 46b0
00000260: cb75 753c af2b b0bd 0924 783d 8fd4 a63d
00000270: a658 aabb a17b 39bd 68b6 41bb 9d61 44bc
00000280: 0327 0a9f d6d0 8bbd 32c1 8dbb 2b4d 3ebd
00000290: be3a 6cbc c742 afbc 08b5 66b0 605a 5dbd
000002a0: d42a a9bb 1b36 8cb7 6b43 9bbd dc50 62b7
000002b0: f42c 83ba 3015 13b9 bbde 88ba 1412 78b8
000002c0: 8e13 d7b8 48c5 9ca4 c640 e0bc 3e14 96bd
000002d0: 8b06 8cb5 fe18 1cbd 5590 f5b9 4e5a 0bbe
000002e0: 5627 c0bd fe8c cfbd ef1b d83b 4156 86ba
000002f0: 48f1 cebd 72f4 29be 552f 97bd 782e a2b5
00000300: 9834 643b d645 a7bb c177 98b6 ad94 c9bb
00000310: 5ff4 42b4 8d28 aca6 a907 a8bd e68c 1bbe
00000320: 42a9 d996 2f6b 3dbd 998c eda8 dbbe feba
00000330: 9835 32bb 38f9 0abe 78fa 25bb 0dce 68bd
00000340: d5f0 8aa8 e96c 9cbb e2eb afbd 7f31 b1bc
00000350: bf3e 15bd 45a6 00bb 8d3f b491 3d0d ecbd
00000360: 7cdd 54b7 de4c daba 62f3 12be 605c b5b0
00000370: 02ee 08bb 97da 1ebe a440 08bb da3e a1bd
00000380: 67c5 d4bd de39 68be 8155 0bba 762e 5f3d
00000390: ab02 d2bc 5a06 2bbb e8fa 27ba 4a75 d0bd
000003a0: 70b3 70a6 ed3a 688b d21d 063d d116 93ba
000003b0: d865 03bd 4454 1dbd 8989 69b7 6a06 c5bd
000003c0: b83a 69bd 91d6 34bd 1458 713d 609f 11bc
000003d0: be97 10b8 2a69 0dbe 0467 bb3c 11bb c6af
000003e0: 4ee6 01bb 14d1 2ebb 549b 11bd 4105 1cbb
000003f0: f538 9abb 16a7 1b3c 7d08 6dba ff95 553d
-7.1671684e-07 -2.9127785e-16 -0.04476539 -0.0032549067 -0.0019106967 0.006778646 0.007508002 -6.594049e-07
-0.0046089627 -5.8030608e-11 -0.0039741783 -0.001857391 -0.05494578 -0.0042587165 -0.1002402 -0.24001361
0.0024032178 -0.015930101 -0.0049303155 -0.2110972 -0.0023814507 -0.0031011116 -0.12580793 -1.7128691e-12
0.012677057 -0.0040002633 -0.0037518234 -0.01533637 -0.10472244 -0.058536228 0.0039817058 -0.0043332465
-0.006930613 -1.6541117e-29 -0.0017229852 -0.049417626 -0.062860645 -1.169161e-05 -0.052269645 -0.0013828385
-0.006990214 -0.0034971081 -0.0007281136 0.00019537745 -2.243483e-08 -0.0033053895 -3.4693622e-07 -0.058791105
-0.010140414 -1.2683075e-09 -0.06510859 -0.09768185 -0.0004143749 -0.118057325 -0.008524777 -0.0042511323
-0.056279257 -0.022698898 -5.4806146e-33 -0.07340774 -0.006588698 -1.1075838e-11 -5.026296e-09 0.0006113602
-1.3073539e-29 -1.2995495e-05 -0.002601095 0.035018492 -0.0026028708 -0.022032687 -5.9221376e-05 -0.016840681
-0.0081745675 -0.0014603272 -0.007418162 -0.056999613 -3.9288934e-06 -0.03316663 0.022302357 -1.534428e-33
-0.0010727841 -5.958845e-06 -0.101638 -0.058598023 -0.10160095 -0.05587046 -0.038325403 -0.07074324
-0.051385783 -0.0020638774 -0.0029238514 -1.5506062e-08 0.022207318 -2.8506308e-06 -0.15224437 -0.003917237
0.0102201905 -1.7097869e-27 -0.054665636 -0.12749432 -0.0002988553 -0.0035831826 -0.02446187 0.031769402
0.009990935 -1.3486156e-19 -0.05279887 -0.0028492645 0.002483878 -0.07682323 -1.5197989e-28 -0.0649704
-8.14448e-27 -0.06867181 -0.07228988 0.031174881 -1.5141557e-13 -0.07730188 -0.0037288887 -0.035276394
-0.0015524602 -1.7872396e-31 -1.1857468e-18 -0.0012656997 -3.9565907e-06 -3.0397097e-05 -0.12258994 -0.0031331172
-2.0679881e-05 -1.8990484e-07 -0.10007675 -0.0012286942 -0.0049365293 -1.5838227e-09 -0.2166407 -2.2134826e-07
-2.4910264e-08 -4.237811e-07 -0.0011505741 -0.10805573 -6.21668e-08 -0.0004593416 -9.115662e-11 0.0100098355
-0.00030693866 -0.00093814434 -7.649078e-05 -0.0024721914 -0.004475131 -0.15513083 -2.9228082e-07 -7.2232204e-10
0.014981697 -0.08602082 0.06058124 0.08146011 -0.005198556 -0.045283917 -0.0029558185 -0.011986163
-2.9254906e-20 -0.06826942 -0.004326009 -0.04646031 -0.014418302 -0.021394147 -8.3930773e-10 -0.054041266
-0.005162576 -1.6714495e-05 -0.07581218 -1.3489476e-05 -0.0010007904 -0.00014026905 -0.0010442355 -5.9144644e-05
-0.00010255641 -6.798842e-17 -0.027374636 -0.0732808 -1.0432717e-06 -0.038109772 -0.00046837577 -0.13608667
-0.09382503 -0.10134314 0.006595127 -0.0010249094 -0.101046145 -0.16597155 -0.07382075 -1.2083465e-06
0.0034821387 -0.0051047606 -4.543894e-06 -0.0061517567 -1.815656e-07 -1.1945889e-15 -0.08204586 -0.15190467
-3.5165058e-25 -0.046244796 -2.637326e-14 -0.0019435541 -0.002719259 -0.13571632 -0.0025326293 -0.05683713
-1.5425522e-14 -0.0047737253 -0.08589913 -0.021630047 -0.036436792 -0.0019630354 -2.8438159e-28 -0.115259625
-1.2687753e-05 -0.0016654988 -0.14350656 -1.3195738e-09 -0.0020893817 -0.15513073 -0.0020790482 -0.07873316
-0.10389214 -0.22678325 -0.000531517 0.054487668 -0.025636038 -0.0026096315 -0.00064079324 -0.10178621
-8.350991e-16 -4.4725906e-32 0.032743283 -0.001122201 -0.032079548 -0.03841044 -1.3919905e-05 -0.09620364
-0.056940764 -0.04414994 0.05892189 -0.008888096 -3.4473596e-05 -0.13809648 0.02287627 -3.614891e-10
-0.001982111 -0.0026674913 -0.035548523 -0.0023806843 -0.004706497 0.009500286 -0.00090420974 0.052145

8.weight f4 [128, 256]
00000000: a06e 0080 333c 0000 8c6f dd8e 29bb d30b
00000010: c690 0000 0ea1 9090 a32b cb88 fb7c 0080
00000020: ddc1 020e 5f33 0080 0e72 0080 d460 0000
00000030: 6c8e 3790 7b38 0080 30c8 ce0c bfef 0f0d
00000040: a759 f010 77cf 208f 3d2c 6605 d89c 1908
00000050: 04dd 440d 0002 0000 5d5d 358f aea8 0080
00000060: 4f55 b08f c69d 0080 d804 0080 0717 a88a
00000070: fdae 8690 c1fd a30d 6576 0000 5836 0080
00000080: f246 0080 3242 0000 fca6 0080 72d4 020f
00000090: a071 728d c892 0080 1ff8 9f8e e930 0080
000000a0: 2729 0080 a024 0000 d363 0080 bb19 8b8e
000000b0: 8e9a 0000 cf30 0000 8937 0000 add1 298f
000000c0: af66 268e d201 0080 5fc6 5f8e 77cd 8705
000000d0: 2155 0080 6c72 1b0c f6dc bf87 e3f3 0f06
000000e0: dcef 620c 9fa6 b68e 579b 0080 4864 0f91
000000f0: c982 0080 fd97 0080 0e5b 0080 9fe5 870f
00000100: ac0c 0080 e997 0000 c30d 0080 5776 cc0e
00000110: 5a16 0080 86dd d40f 7591 0000 397c 210f
00000120: 8616 220b ae7f 0000 ae59 0080 2944 d00a
00000130: 7212 0080 eeb6 d60d fe2d 928f 6909 0000
00000140: 5e1c 0000 9e26 0080 0542 9290 ecd7 2e8e
00000150: 6bbe 5a8f eba2 8007 7eb5 cf0a c142 3610
00000160: 8500 e08c ef94 0000 9341 0000 9595 0080
00000170: 33b1 6390 b701 0080 c79b c98d c318 0000
00000180: 83b7 0d8a 4b40 0000 e337 3e8e eee9 bb8e
00000190: 6b0f db0f ee5e f28d 583b 868c c398 d590
000001a0: 0303 300e 5783 0080 b0e8 d38f 0860 0080
000001b0: 057f 2d10 354d d80c b98d 0000 6ff4 6e08
000001c0: 5655 0080 3cd0 ad0c 3ffa ac0f 96dd 078f
000001d0: 4e8e 0080 503e cc09 5aa4 0080 2cf1 198d
000001e0: 568f 0000 1604 0000 73a7 0000 39a6 0000
000001f0: 6204 0000 f031 0000 ac98 130d 748c 0000
00000200: 2811 0000 be08 0080 c6ba 890c 54a4 0000
00000210: 6e7d 5404 ff01 0080 85b3 388f 6e45 0080
00000220: f81a 0080 5359 0080 a796 1c00 b6e9 528f
00000230: 4447 0080 634e 0080 452a 0000 b8f3 d20d
00000240: eb4d 3691 2a5d 0080 c204 0080 536f cf0d
00000250: 7b28 ba0a c9f2 c407 0974 0000 047c 0080
00000260: 1426 8d0d 7c93 f80e 80f6 6e11 64bb 148f
00000270: 2514 0080 3cd5 520f 5b5a 0000 64f7 3e0d
00000280: c32f 0000 75da da07 e83a 0000 d541 7a90
00000290: e1c9 5910 ddc6 968d 2e4b 0080 9606 2e0b
000002a0: de8d 0080 1291 0000 28ca 0d90 2937 0080
000002b0: 1ee4 a50e 0ead 0080 6608 b90f 680d 0080
000002c0: 52ab 0080 44a6 0080 4ab9 8910 f56e 3090
000002d0: 5302 0000 12c1 b90f a59d 0080 7e10 1e0a
000002e0: 639f 9d0d f27a 178d 9008 f80f a02e 0080
000002f0: cae1 2590 33ee 3e02 7ff1 bb8f 9774 0080
00000300: ce58 098f 6323 0080 0f51 0080 9512 0000
00000310: 2812 0000 ca83 0000 b72a 448c 1c09 9c09
00000320: 3249 0000 2eb7 350f a11e 0080 6395 0000
00000330: 1fa2 0080 5e2b 8f0d 5837 0080 ec2a a70e
00000340: 70a2 0000 a50f 0000 7cbc 468e bd75 2190
00000350: 6d7c 3010 340e 0000 7193 0000 d16a 040d
00000360: ee52 0080 c24d 0000 c0e9 fb0f aa4d 0000
00000370: 3f11 0000 c781 890e b938 0080 fb88 8b8e
00000380: f501 170e a634 7c8f 2404 0080 6059 9d8e
00000390: 0e5d 3d91 085f 0000 b228 0000 93cd 798f
000003a0: ec7c 0000 047a 0000 bab2 8b8c d197 0080
000003b0: 07d1 350e e112 b38e a1a2 0000 fb0b d20e
000003c0: 308d 978a 65e8 758c 3e71 3e0e a276 6e90
000003d0: 5d35 0000 b044 b30e f8d6 218d 0f1d 0000
000003e0: 7c27 0000 bc9e 0000 22e7 ca8f f26b 0080
000003f0: d8a9 0000 ed8f dc0d 9d42 0000 f6ab e410
-3.9685e-41 2.1595e-41 -5.4588122e-30 8.155585e-32 5.1935e-41 -5.704613e-29 -1.2227877e-33 -4.4835e-41
1.6117079e-30 -1.8428e-41 -4.0915e-41 3.4735e-41 -3.6200104e-29 -2.0261e-41 3.185981e-31 4.435386e-31
9.480144e-29 -7.928565e-30 1.0822673e-35 4.622613e-34 6.06632e-31 7.17e-43 -8.94197e-30 -6.0511e-41
-1.73878e-29 -5.6598e-41 -1.738e-42 -1.6186473e-32 -5.312329e-29 1.010674e-30 4.2472e-41 -1.9495e-41
-2.545e-41 2.3746e-41 -5.9903e-41 6.45041e-30 -7.470878e-31 -5.2655e-41 -3.943546e-30 -1.7546e-41
-1.4763e-41 1.3139e-41 -3.581e-41 -3.4290923e-30 5.5444e-41 1.7509e-41 1.9922e-41 -8.3727254e-30
-2.051052e-30 -6.53e-43 -2.7582384e-30 1.2770815e-35 -3.0538e-41 1.1975198e-31 -2.8868355e-34 2.707449e-35
1.7482587e-31 -4.5026914e-30 -5.5725e-41 -1.1311612e-28 -4.6917e-41 -5.4523e-41 -3.2664e-41 1.3400475e-29
-4.546e-42 5.4495e-41 -4.937e-42 5.040384e-30 -8.018e-42 2.0990142e-29 5.218e-41 7.961837e-30
3.121701e-32 4.5803e-41 -3.2171e-41 2.005531e-32 -6.617e-42 1.3232807e-30 -1.4414427e-29 3.376e-42
1.0176e-41 -1.3853e-41 -5.7688565e-29 -2.1551118e-30 -1.0784903e-29 1.9355054e-34 2.0001645e-32 3.5944597e-29
-3.4512977e-31 5.3427e-41 2.3524e-41 -5.366e-41 -4.4904366e-29 -6.15e-43 -1.2425083e-30 8.883e-42
-6.823418e-33 2.3064e-41 -2.3446217e-30 -4.6324325e-30 2.1601006e-29 -1.4937255e-30 -2.0681685e-31 -8.4249053e-29
2.1695125e-30 -4.7116e-41 -2.0895834e-29 -3.445e-41 3.4216086e-29 3.3326537e-31 5.084e-41 7.190785e-34
-3.0613e-41 2.6780197e-31 1.70569e-29 -6.69869e-30 -5.105e-41 4.9169812e-33 -5.8958e-41 -4.7437065e-31
5.1419e-41 1.466e-42 6.007e-41 5.963e-41 1.572e-42 1.7914e-41 4.5481644e-31 5.0385e-41
6.155e-42 -3.136e-42 2.1220602e-31 5.895e-41 2.4978075e-36 -7.16e-43 -9.1064746e-30 -2.4907e-41
-9.675e-42 -3.2043e-41 2.625438e-39 -1.03988105e-29 -2.5565e-41 -2.812e-41 1.5163e-41 1.3000922e-30
-1.4381279e-28 -3.3421e-41 -1.707e-42 1.278416e-30 1.7926376e-32 2.9633499e-34 4.1626e-41 -4.4488e-41
8.698963e-31 6.1278742e-30 1.8850848e-28 -7.3330535e-30 -7.226e-42 1.0394867e-29 3.2413e-41 5.8846056e-31
1.7134e-41 3.2929392e-34 2.1132e-41 -4.9354522e-29 4.2951226e-29 -9.292338e-31 -2.697e-41 3.3516136e-32
-5.0892e-41 5.2041e-41 -2.7963082e-29 -1.9788e-41 4.089531e-30 -6.208e-41 1.8245643e-29 -4.809e-42
-6.1458e-41 -5.9645e-41 5.4322455e-29 -3.4795358e-29 8.34e-43 1.8316776e-29 -5.6552e-41 7.610525e-33
9.714243e-31 -4.6678457e-31 2.4457986e-29 -1.6726e-41 -3.2714454e-29 1.4027355e-37 -1.8532645e-29 -4.1825e-41
-6.771725e-30 -1.2694e-41 -2.9078e-41 6.666e-42 6.513e-42 4.7277e-41 -1.5112145e-31 3.75642e-33
2.6258e-41 8.959268e-30 -1.0988e-41 5.359e-41 -5.8158e-41 8.823496e-31 -1.9854e-41 4.121001e-30
5.8272e-41 5.612e-42 -2.4496136e-30 -3.1842354e-29 3.4805734e-29 5.095e-42 5.2892e-41 4.0804216e-31
-2.975e-41 2.7894e-41 2.4840548e-29 2.786e-41 6.187e-42 3.389808e-30 -2.0348e-41 -3.4398053e-30
1.861313e-30 -1.2434699e-29 -1.485e-42 -3.8789553e-30 -1.4938146e-28 3.4091e-41 1.4599e-41 -1.231624e-29
4.4814e-41 4.3771e-41 -2.1523908e-31 -5.4461e-41 2.2410615e-30 -4.4145087e-30 5.834e-41 5.1780534e-30
-1.459388e-32 -1.8944047e-31 2.3473832e-30 -4.7028615e-29 1.9143e-41 4.419305e-30 -4.9870715e-31 1.0424e-41
1.4164e-41 5.6943e-41 -2.0007767e-29 -3.8723e-41 6.0928e-41 1.3593196e-30 2.3896e-41 9.019509e-29

8.bias f4 [128]
00000000: 6ba6 6d92 0ee0 2bb2 9732 94b7 b705 3cbb
00000010: 09fe b0a5 99e6 723d 3539 07b9 e8e2 03b8
00000020: ce0a f13d 24e0 34a0 e702 3ebb f6db 07b4
00000030: 6e8c 5eb9 4e41 633d 8403 39bb a5d9 84bc
00000040: 79e0 613d 3cc3 a9b8 176c 30ba 9f77 898d
00000050: a7e2 0cb7 bc63 60b7 f1e7 349f 6606 d2b4
00000060: a25d a2b9 c025 51ba 8ab1 e0a4 5eb4 1db6
00000070: f079 3e3e 7cc2 dfb4 44ab f795 e031 02b5
00000080: 40e4 1a3e ca8b dea3 05a8 52bb f449 d08b
00000090: 6398 c8ba 6a6f 80ae f876 033e 47de 00bb
000000a0: 722c 779a a43c babc 0291 0eba 9197 8da0
000000b0: 00ac 82bb 200d 673d aef9 4d86 c6c9 4caf
000000c0: 50d7 4ba0 00f6 bfb8 bc00 04b8 6c2d 0d9f
000000d0: 75ac 90b8 d9f1 1e3e 7171 0c3e 1d7f 83bb
000000e0: 7a78 74bb 131a 75bb cbc6 33bb 8429 88b4
000000f0: 060f 01ab fa64 daa9 1366 54bb c8a5 989a
00000100: 97bb 13bd 678a 3eb5 b19c 53bb e772 2bbb
00000110: fba2 583e 4e11 d092 965e 10b2 5124 0593
00000120: f67b a4b9 8ff7 0dbd eacb 0dba 1df3 d3a8
00000130: 9d28 d98e fd56 7fbd 884e a6bc 63ed 2ebb
00000140: 966c 0b9d 592e 3db9 b258 f9b3 54a7 73b5
00000150: a1d0 dfb8 48aa 6aaf 1dcb dcb3 73e0 909d
00000160: de4a 87ba 11e9 2fb6 1181 95bb b57a 39b9
00000170: 93a5 79a3 24c6 8f9f 7caf 2293 71db 30ad
00000180: 21af 3e93 e05a e69f 54aa c09d 9ef4 daa8
00000190: 886b 4eb3 9b90 43b8 9049 9b3d d39a 9d8c
000001a0: e623 58b8 55dd 5a3d 7521 84bb dd33 fcb9
000001b0: f964 a0bc dfd7 0699 4948 a6ba a2f5 043e
000001c0: a60c 343e 1aa8 b2b9 4779 123e e2c4 403e
000001d0: 1826 ba9c 72fc e53d 5276 ec3c a901 4aad
000001e0: 15af 6bba b866 5cb1 a870 43bb 44f7 90b6
000001f0: cc36 d5bb b72f 8db2 59ff b386 7722 47bc
-7.498914e-28 -1.0004454e-08 -1.7666533e-05 -0.002868993 -3.0703274e-16 0.059301946 -0.00012895915 -3.1444157e-05
0.11769639 -1.5320755e-19 -0.002899343 -1.2652876e-07 -0.00021223884 0.0554822 -0.0028230855 -0.016217062
0.055145714 -8.094913e-05 -0.0006729974 -8.472075e-31 -8.397422e-06 -1.3374662e-05 -3.830834e-20 -3.9120204e-07
-0.0003096881 -0.00079783425 -9.744528e-17 -2.349981e-06 0.18601203 -4.1678493e-07 -1.00032715e-25 -4.850135e-07
0.15126133 -2.4128491e-17 -0.0032143604 -8.022996e-32 -0.0015304204 -5.840557e-11 0.12838352 -0.0019663738
-5.1114305e-23 -0.022733994 -0.0005438478 -2.3986627e-19 -0.003987789 0.056409 -3.873965e-35 -1.8625376e-10
-1.726601e-19 -9.153411e-05 -3.1471936e-05 -2.9895483e-20 -6.898578e-05 0.15521945 0.1371515 -0.004012956
-0.0037303255 -0.0037399575 -0.0027431722 -2.536218e-07 -4.5850856e-13 -9.6986614e-14 -0.0032409474 -6.313356e-23
-0.03606757 -7.098192e-07 -0.003228944 -0.0026161016 0.21155922 -1.3130911e-27 -8.4034095e-09 -1.6804865e-27
-0.00031372876 -0.03465992 -0.00054091087 -2.353114e-14 -5.353374e-30 -0.062338818 -0.020301118 -0.0026691786
-1.8452634e-21 -0.0001804171 -1.16110996e-07 -9.076805e-07 -0.00010672329 -2.1342672e-10 -1.02814944e-07 -3.8348558e-21
-0.0010321995 -2.6212695e-06 -0.004562505 -0.00017688687 -1.3533379e-17 -6.089065e-20 -2.0533795e-27 -1.00531675e-11
-2.4067717e-27 -9.755913e-20 -5.099809e-21 -2.4308948e-14 -4.806091e-08 -4.6626297e-05 0.0758239 -2.4282862e-31
-5.1531846e-05 0.053433735 -0.0040323087 -0.00048103827 -0.019579398 -6.9712325e-24 -0.0012686338 0.12984326
0.1758295 -0.0003407605 0.14304076 0.18825105 -1.2318295e-21 0.11229791 0.028865013 -1.1482739e-11
-0.0008990628 -3.2072602e-09 -0.0029821787 -4.32032e-06 -0.0065067764 -1.6436259e-08 -6.7707516e-35 -0.012154213
