Models/checkpoint_vel_D2_1000_400.pth (torch, 353077 bytes, 16 tensors)

0.weight f4 [32, 9]
0	0x3de2fd31	0.11083449
1	0xbdf88fd8	-0.12136811
2	0xbe9b7381	-0.3036156
3	0x3db34335	0.08753053
4	0xbf9acf73	-1.2094558
5	0x3e659898	0.22421491
6	0x3c87acf1	0.016561957
7	0x3e8e8b01	0.27840427
8	0xbd1a6785	-0.03769638
9	0xbda83dc7	-0.08214908
10	0x3e1301fd	0.14356227
11	0x3e84904a	0.25891334
12	0xbd8b98ba	-0.0681624
13	0x3faf22c1	1.3682481
14	0xbd348a5a	-0.044077255
15	0xbce9a803	-0.028522497
16	0xbdbe1b1f	-0.09282517
17	0xbd7412c5	-0.059588213
18	0x3ec264fa	0.37967664
19	0xbcbf6665	-0.023364255
20	0xbc80a2e8	-0.01570268
21	0xbdaa404a	-0.083130434
22	0xbeab4681	-0.33452228
23	0x3d144b7d	0.036204804
24	0xbe13a6da	-0.14419118
25	0x3d0c3525	0.03423037
26	0x3dd23e1e	0.10265754
27	0x3dd20796	0.10255353
28	0xbe5b03b9	-0.21388139
29	0x3eaad725	0.33367267
30	0x3e433c10	0.19065881
31	0x3e999cf1	0.3000255
32	0x3e8a4f0b	0.2701343
33	0xbe7c5f48	-0.24645722
34	0xbe292fd7	-0.16522156
35	0xbdc1eed0	-0.09469378
36	0x3decfd9b	0.11571809
37	0xbdf22059	-0.11822576
38	0x3e08e14c	0.13367194
39	0xbe85700f	-0.26062056
40	0x3f7ea2fe	0.99467456
41	0xbdddc9a5	-0.10829476
42	0x3e40f364	0.18842846
43	0x3c17fddc	0.009276833
44	0xbe4d7b4e	-0.20066568
45	0x3d032bc3	0.032024156
46	0xbdccd9da	-0.100024894
47	0x3d7a5ebc	0.061125502
48	0xbfa58ee0	-1.2934227
49	0x3e04d3e5	0.12971456
50	0xbf007034	-0.5017121
51	0xbd6c612c	-0.057709858
52	0x3d99c025	0.07507352
53	0xbd8d5265	-0.06900481
54	0x3e323bcb	0.17405622
55	0xbcdee859	-0.027210401
56	0x3ec138ce	0.3773865
57	0xbeb385d5	-0.35063043
58	0xbe41d389	-0.1892835
59	0x3e03f193	0.12885122
60	0xbe897541	-0.2684727
61	0x3e6c95d4	0.2310403
62	0x3e8905b5	0.26762167
63	0x3dd53f14	0.10412422
64	0xbeb76ee0	-0.35826778
65	0xbed7e7f1	-0.42169145
66	0x3eaef1e2	0.34168917
67	0xbd0c31e0	-0.034227252
68	0xbdc5d8a8	-0.096604645
69	0xbd74a3f6	-0.059726678
70	0x3d739496	0.059467874
71	0x3d3d23af	0.04617661
72	0x3e0ae501	0.1356392
73	0x3e1c0f54	0.15240222
74	0x3e39a9fd	0.18131252
75	0xbf01f50c	-0.50764537
76	0xbe0d871b	-0.1382107
77	0x3dd10141	0.10205317
78	0xbe477387	-0.19477664
79	0x3da4d521	0.080484636
80	0xbe267ccd	-0.16258545
81	0xbe265a87	-0.16245471
82	0x3d6cb34f	0.05778819
83	0xbf2ad988	-0.66738176
84	0xbf12291b	-0.5709397
85	0x3e36a64e	0.17836878
86	0xbe3de013	-0.18542509
87	0x3e148ca1	0.1450677
88	0xbd843aaf	-0.064565055
89	0x3c213650	0.009839609
90	0x3cd803f8	0.02636908
91	0xbe8bef09	-0.27330807
92	0xbd37806d	-0.04480021
93	0x3fb58e41	1.4184037
94	0xbf9a1370	-1.2037182
95	0xbe4c68f0	-0.19961905
96	0x3da5ba42	0.080921665
97	0x3e0453f8	0.12922657
98	0xbdf96756	-0.12177913
99	0xbd16fa54	-0.036859825
100	0x3e83c601	0.25737002
101	0x3dc66aeb	0.09688362
102	0x3f3cf396	0.7380918
103	0xbd8674cb	-0.06565245
104	0xbe220ba1	-0.15824749
105	0xbe657118	-0.22406423
106	0x3eaa52f6	0.3326642
107	0xbda7f3e1	-0.08200813
108	0x3e208bbe	0.15678307
109	0xbaeb7bc4	-0.0017965962
110	0xbda95f6f	-0.08270156
111	0x3e28244a	0.16420093
112	0x3fbca3bb	1.4737467
113	0xbdab7c2b	-0.083732925
114	0xbc3611ea	-0.0111126695
115	0x3e88fed4	0.26756918
116	0x3d6a451d	0.057194818
117	0x3aa11a0e	0.001229109
118	0xbed0708c	-0.40710866
119	0xbcf6294d	-0.03004899
120	0x3da8afd5	0.08236662
121	0x3e1924d0	0.14955449
122	0x3ed6b8dd	0.41937914
123	0xbd0a181c	-0.0337144
124	0x3e8e860e	0.2783665
125	0xbe883965	-0.2660629
126	0xbe8825e8	-0.2659142
127	0x3c904b63	0.017614072
128	0x3e5ab2a7	0.21357213
129	0xbc5b70e6	-0.013393616
130	0xbf7a9195	-0.9787839
131	0x3d55a97a	0.05216358
132	0x3e4100c3	0.18847947
133	0x3dc649a7	0.09682017
134	0x3dc93fc2	0.09826614
135	0x3e7f5742	0.2493563
136	0x3eadca5d	0.33943453
137	0x3e90661b	0.282029
138	0xbe05d8d9	-0.13071002
139	0xbfb2dc34	-1.3973451
140	0xbdfe7b76	-0.12425892
141	0x3dac80ae	0.08422981
142	0xbe58fff3	-0.21191387
143	0x3aa9071b	0.0012895794
144	0xbc199e13	-0.009376067
145	0xbe490049	-0.19629015
146	0xbd6d48b4	-0.057930663
147	0x3d7e4e5e	0.062086456
148	0xbdcafe77	-0.099118166
149	0x3fb759e7	1.4324311
150	0xbd24567a	-0.040121533
151	0xbba07239	-0.004896429
152	0xbd6e885b	-0.058235507
153	0xbc657f56	-0.01400741
154	0xbec417e2	-0.3829947
155	0xbe132097	-0.14367901
156	0xbf68a494	-0.90876126
157	0x3d1701e4	0.036867037
158	0x3c2a7cce	0.010405732
159	0x3c279ed2	0.010230737
160	0xbe2b0835	-0.1670235
161	0x3e43c8f8	0.19119632
162	0x3e7577c1	0.23971464
163	0x3d27aefe	0.04093837
164	0xbec29a56	-0.38008374
165	0x3dc16da3	0.0944474
166	0x3f4ca9e4	0.7994673
167	0xbd896978	-0.0670957
168	0xbe4fa1dd	-0.2027659
169	0xbe051665	-0.12996824
170	0xbe2e92d6	-0.17048201
171	0x3d590180	0.052979946
172	0x3e8640df	0.26221368
173	0x3ed7bf39	0.4213808
174	0xbe717a3f	-0.2358179
175	0x3b6eacc9	0.0036418906
176	0x3dee9e79	0.1165132
177	0x3c7c6b49	0.015406438
178	0xbe835ff9	-0.2565916
179	0x3ea10398	0.31448054
180	0xbd423184	-0.047410503
181	0xbd8e768c	-0.06956205
182	0xbe77b82a	-0.24191347
183	0xbe905dbd	-0.28196517
184	0xbf8f3b43	-1.118996
185	0x3d153e42	0.036436327
186	0xbe9ae5f8	-0.30253577
187	0xbe484bbe	-0.19560143
188	0xbba745ef	-0.0051047723
189	0xbe6bd610	-0.23030877
190	0x3ca8249c	0.02052527
191	0xbcbae048	-0.022812024
192	0xbe981487	-0.2970316
193	0x3ebccc86	0.3687479
194	0x3f48bfae	0.7841748
195	0xbdd500e7	-0.10400563
196	0x3d7acf88	0.061233073
197	0x3d88ab95	0.06673352
198	0x3e91c465	0.2847015
199	0xbea76020	-0.32690525
200	0x3ec0e185	0.37672058
201	0xbf0debc7	-0.5543789
202	0xbd4752f0	-0.04866308
203	0x3ddd3671	0.108013995
204	0x3e34a24f	0.17640041
205	0xbd8041a9	-0.06262524
206	0xbc8b0c38	-0.0169736
207	0xbc86430f	-0.016389398
208	0x3d2543bb	0.040347796
209	0x3d0f9f27	0.03506389
210	0x3e78ba0d	0.24289723
211	0x3f36fc97	0.7147917
212	0xbe78a875	-0.24283011
213	0x3eadec18	0.33969188
214	0x3e2886ae	0.16457626
215	0x3ead17ae	0.3380713
216	0x3e072a99	0.13199843
217	0xbe5e6c9c	-0.21721119
218	0xbe5bd1fb	-0.2146682
219	0x3ef941ca	0.48683006
220	0x3ef4e9f6	0.47834748
221	0x3e147f5e	0.14501712
222	0xbe1a1e9a	-0.15050736
223	0xbd2e7e6d	-0.042601038
224	0x3cd81773	0.026378369
225	0xbdfb6a89	-0.12276179
226	0xbe48dcb3	-0.1961544
227	0x3c5a3211	0.013317601
228	0x3f0a6e19	0.54074246
229	0x3f8eb558	1.1149092
230	0xbdf3f840	-0.11912584
231	0xbdb5d3f9	-0.08878321
232	0x3e903303	0.2816392
233	0xbd77f25e	-0.060533874
234	0xbd210e37	-0.039320197
235	0xbd07e61f	-0.033178445
236	0xbea8b4af	-0.3295035
237	0xbdea48b0	-0.11439645
238	0x3f036d2e	0.5133847
239	0xbdbb85e5	-0.09156398
240	0xbe81d170	-0.253551
241	0x3d4d0de6	0.050062083
242	0x3d4230d7	0.04740986
243	0xbd53aefe	-0.051680557
244	0x3de95918	0.113939464
245	0x3e69ee9c	0.22844929
246	0xbf2a6467	-0.6655945
247	0xbdd90b57	-0.10597866
248	0xbd43e719	-0.047827814
249	0x3e9f6a65	0.3113586
250	0x3eb90ff8	0.36144996
251	0xbdff1e07	-0.12456899
252	0x3ecd63ed	0.401153
253	0x3edcb8c4	0.43109715
254	0xbe595f0f	-0.21227668
255	0xbf57b067	-0.84253544

0.bias f4 [32]
0	0xbda40d9a	-0.08010407
1	0x3c935c81	0.017988445
2	0x3cb63d3a	0.022245992
3	0x3cf170ba	0.029472698
4	0x3e5eb851	0.21749999
5	0x3ec5af10	0.38610125
6	0x3d3f1c2b	0.046657722
7	0x3c28f871	0.010313139
8	0x3d7c1a99	0.061548803
9	0x3e1310f0	0.1436193
10	0xbf135249	-0.5754743
11	0x3db13a84	0.08653739
12	0x3eeaeb89	0.45882824
13	0x3ceb00f4	0.028686978
14	0x3d492818	0.049110502
15	0xbe434803	-0.19070439
16	0x3f0f90b3	0.5608017
17	0x3deb9a21	0.11504007
18	0x3bf9abd1	0.007619359
19	0x3f01d312	0.5071269
20	0xbb5572bc	-0.0032569608
21	0x3f0eafc1	0.5573693
22	0x3ef106dd	0.4707555
23	0x3df0e914	0.11763206
24	0xbe42a41d	-0.19007917
25	0xbe20ac56	-0.15690741
26	0x3dae498a	0.0851012
27	0x3bfe758b	0.007765477
28	0x3e52cade	0.205852
29	0x3e08a387	0.1334363
30	0xbe0c2260	-0.13684988
31	0xbe31930e	-0.17341253

2.weight f4 [64, 32]
0	0x3d2dc8de	0.04242789
1	0x3eb98e76	0.36241502
2	0x3cf0bae8	0.029385999
3	0xbdc8775b	-0.0978839
4	0x3dca3e75	0.09875194
5	0xbdf29f40	-0.11846781
6	0xbdecb8bc	-0.11558673
7	0xbd532524	-0.051549092
8	0xbe293473	-0.16523914
9	0xbe6cf178	-0.23138988
10	0x3d41d816	0.047325216
11	0x3e973b47	0.29537413
12	0x3d523f6a	0.051330008
13	0xbe64bc87	-0.22337542
14	0x3d39b010	0.045333922
15	0x3d2de5f8	0.042455643
16	0x3d9dab7e	0.07698725
17	0xbe5765de	-0.21034953
18	0x3d06a403	0.032871258
19	0x3c21d291	0.009876863
20	0xbdd9e914	-0.10640159
21	0xbc98aacf	-0.018636135
22	0xbc43648f	-0.0119258305
23	0x3dce476d	0.10072217
24	0xbc665a54	-0.014059622
25	0xbd95aa58	-0.07307881
26	0x3cbfdc27	0.023420407
27	0xbe21aab7	-0.15787779
28	0xbdf3fa0c	-0.11912927
29	0xbde3905b	-0.11111518
30	0x3e4b8ff8	0.19879138
31	0xbd762ee0	-0.060103297
32	0xbec4adb1	-0.38413766
33	0x3d8d84e3	0.06910112
34	0xbd3b7627	-0.045766976
35	0x3e5ac136	0.21362767
36	0x3e437e99	0.19091262
37	0x3dd95837	0.10612529
38	0xbe0e1746	-0.13876066
39	0x3e2854d6	0.16438612
40	0xbd9e9e15	-0.077449955
41	0xbef6ca45	-0.48201194
42	0x3e6743ef	0.22584508
43	0x3d127053	0.035751652
44	0x3da39f9d	0.07989428
45	0x3d8141e8	0.06311399
46	0xbea0e106	-0.3142168
47	0xbe969cf2	-0.29416615
48	0xbe9672b4	-0.29384387
49	0xbc4d6424	-0.012536082
50	0x3bf902a7	0.007599193
51	0x3e51637b	0.20448105
52	0x3b6788be	0.0035329307
53	0xbe9a5703	-0.3014451
54	0x3d63b4fc	0.055592522
55	0x3e316c17	0.17326389
56	0x3dc0ed84	0.094203025
57	0x3e87c915	0.265206
58	0x3e264e49	0.16240801
59	0x3dd00bf1	0.10158528
60	0x3ec729cd	0.3889908
61	0xbe018089	-0.12646689
62	0x3c5e6cc3	0.0135757355
63	0x3c94afce	0.018150236
64	0xbe15c4cb	-0.14625852
65	0xbe82010c	-0.25391424
66	0x3dd88d58	0.10573834
67	0x3e10656b	0.14101188
68	0xbe49a794	-0.19692832
69	0xbe482164	-0.19543988
70	0xbdcaa7e9	-0.098953076
71	0x3e0b8459	0.13624705
72	0xbd608332	-0.054812618
73	0x3ceca128	0.028885439
74	0x3f0bd1dc	0.54617095
75	0xbe110f0e	-0.14165899
76	0x3ec01690	0.37517214
77	0xbde71099	-0.112824626
78	0x3db6ec78	0.089318216
79	0xbdd05963	-0.10173299
80	0xbcb9af09	-0.022666471
81	0xbc2dcc09	-0.010607728
82	0x3dc31fe3	0.09527566
83	0xbe9c7ac0	-0.305624
84	0x3e449826	0.19198665
85	0x3de04172	0.10949983
86	0xbdadc80c	-0.084854215
87	0x3dd82da8	0.10555583
88	0x3e6ff561	0.23433448
89	0xbd172d83	-0.036908638
90	0x3d686be4	0.056743518
91	0x3e58c749	0.21169771
92	0xbdde8f5e	-0.10867189
93	0xbced5d3c	-0.028975122
94	0x3e2c9888	0.16855061
95	0x3e0df986	0.13864717
96	0xbd951375	-0.07279102
97	0x3c23fb73	0.010008681
98	0x3e19f2b5	0.15033992
99	0xbdc3b900	-0.0955677
100	0xbe172ca3	-0.14763121
101	0x3dc8145c	0.09769508
102	0x3e067758	0.13131464
103	0xbd75c4d9	-0.06000218
104	0x3e609106	0.21930322
105	0x3e4a40d6	0.19751295
106	0x3b4603ca	0.003021466
107	0xbe817fe0	-0.25292873
108	0x3cc28934	0.023747064
109	0x3ddc4b00	0.107564926
110	0x3dadacf7	0.08480256
111	0xbe98d1b4	-0.2984749
112	0xbe1932d1	-0.14960791
113	0x3e67253a	0.22572795
114	0xbd8a8d6d	-0.06765256
115	0xbc2d6ef6	-0.010585537
116	0x3db90208	0.090335906
117	0xbebe0b9c	-0.37118232
118	0x3e5dd798	0.21664274
119	0xbcf4618a	-0.029831666
120	0xbd5d805e	-0.0540775
121	0x3e1499ee	0.14511845
122	0xbe371ce6	-0.17882118
123	0x3d61fdf6	0.055173837
124	0xbdbf2d9d	-0.09334872
125	0xbbed64d0	-0.007244684
126	0xbe83d9e0	-0.25752163
127	0xbdebfb50	-0.115225434
128	0x3e8d8028	0.27636838
129	0x3d9c842b	0.076423965
130	0x3dba3434	0.09091988
131	0xbe0002c5	-0.12501056
132	0x3e3450ca	0.17608944
133	0xbe82c836	-0.25543374
134	0x3e841068	0.25793767
135	0x3e19fcba	0.15037814
136	0xbe03f62a	-0.12886873
137	0x3e4b6973	0.19864444
138	0x3c385592	0.01125087
139	0xbe54dd19	-0.20787467
140	0xbdfcd927	-0.12346106
141	0xbbad15e5	-0.005282151
142	0x3e2e13fe	0.16999814
143	0x3d0298fb	0.031884175
144	0x3ecab63f	0.39592168
145	0x3d2e00f7	0.04248139
146	0xbea292ae	-0.31752533
147	0xbe0c3d1a	-0.13695183
148	0x3ea50694	0.3223158
149	0xbe412ad8	-0.18864
150	0xbd6b7451	-0.057483975
151	0xbdb85495	-0.09000508
152	0xbe070098	-0.1318382
153	0xbe0e2886	-0.13882646
154	0xbc9b8134	-0.018982507
155	0x3dba0208	0.09082419
156	0xbd9f2734	-0.07771149
157	0xbd6754e9	-0.05647746
158	0x3ec5860d	0.38578835
159	0xbeb4ad9b	-0.352887
160	0x3dfe3ffc	0.12414548
161	0x3e65030b	0.22364442
162	0xbd4a7b8c	-0.04943423
163	0x3dd8a2d2	0.105779305
164	0x3e684992	0.22684315
165	0xbe8706e7	-0.26372454
166	0xbd91887a	-0.07106109
167	0xbe579d45	-0.21056087
168	0x3db3e3b7	0.087836675
169	0xbd25f55a	-0.04051719
170	0x3caf9706	0.021434318
171	0x3e7f3ac8	0.24924767
172	0x3d287580	0.04112768
173	0x3cf4a166	0.029862117
174	0x3dde116f	0.10843169
175	0x3ebc5cdf	0.36789605
176	0x3dce0bdb	0.10060855
177	0x3d845112	0.064607754
178	0x3d8cab9e	0.06868671
179	0xbd37aeb8	-0.04484436
180	0xbe90fe45	-0.28318992
181	0xbd887b9a	-0.066642
182	0xbf00114c	-0.5002639
183	0x3e6de95e	0.23233554
184	0xbd1681dc	-0.036744937
185	0xbd90fb63	-0.07079198
186	0xbe542d91	-0.20720507
187	0xbe24928a	-0.16071525
188	0x3d761980	0.060082912
189	0x3e1ad6c8	0.15120995
190	0xbdb851ad	-0.089999534
191	0x3d71a4b9	0.058994982
192	0x3ecfc479	0.40579584
193	0x3bb10915	0.005402694
194	0x3e664369	0.22486652
195	0xbcd0b304	-0.025475986
196	0xbe37b230	-0.17939067
197	0xbe576eb8	-0.2103833
198	0xbe3f53c0	-0.18684292
199	0x3d57cfda	0.052688457
200	0xbd72ea6e	-0.0593056
201	0x3d2621a9	0.040559445
202	0x3e030779	0.1279582
203	0xbe106367	-0.14100419
204	0xbf29e12b	-0.66359204
205	0xbe3606ea	-0.17776075
206	0x3e2f9198	0.17145383
207	0x3f0892c2	0.53348935
208	0xbde481b5	-0.11157552
209	0xbcc8ebc7	-0.02452649
210	0xbd5a5279	-0.05330131
211	0xbd6a3bab	-0.05718581
212	0x3dfb29c3	0.12263825
213	0x3c697707	0.01424957
214	0xbc5d2e06	-0.013499742
215	0xbea62e72	-0.3245731
216	0x3de93764	0.11387518
217	0xbc73ddc1	-0.014884413
218	0xbdf4469a	-0.11927529
219	0xbd545684	-0.05184032
220	0xbd54e725	-0.05197825
221	0xbd5e94af	-0.054341014
222	0x3d7e0cec	0.062024042
223	0x3dcac5b5	0.09900991
224	0x3da66a96	0.081257984
225	0x3d0d5fe4	0.034515277
226	0x3cb200e4	0.02172894
227	0x3e4355fd	0.1907577
228	0xbdefe708	-0.117139876
229	0xbe8467ca	-0.25860435
230	0x3e301528	0.1719557
231	0xbbe12313	-0.0068706363
232	0x3d520f9a	0.05128441
233	0xbe3e5001	-0.18585207
234	0xbc134af4	-0.008990038
235	0xbe818bba	-0.25301915
236	0x3f014e3f	0.5051002
237	0x3d372cde	0.044720523
238	0xbcb4a309	-0.022050397
239	0xbe39f613	-0.18160276
240	0x3f1a87d8	0.6036353
241	0xbd10a428	-0.0353128
242	0x3cf16eef	0.029471843
243	0x3e385ee6	0.18004951
244	0xbdd1529a	-0.10220833
245	0xbdb21258	-0.08694905
246	0xbdc417e3	-0.095748685
247	0x3d90b292	0.070653096
248	0x3d13d62f	0.036092933
249	0xbe8061dd	-0.25074664
250	0xbca0217a	-0.019547213
251	0xbe099090	-0.13434052
252	0xbd91764a	-0.0710264
253	0xbd3da978	-0.046304196
254	0xbe151bfe	-0.1456146
255	0xbe02cc9a	-0.12773362

2.bias f4 [64]
0	0x3deeb8ea	0.11656363
1	0xbd5f36b1	-0.054495517
2	0xbe930661	-0.28715804
3	0x3e4088a6	0.18802127
4	0xbd8eb056	-0.06967227
5	0xbd311c25	-0.04323973
6	0xbf474111	-0.7783366
7	0x3ddb022c	0.106937736
8	0xbdf76efc	-0.120817155
9	0x3dc1ca27	0.094623856
10	0xbb4fa259	-0.003168246
11	0x3e777062	0.24163964
12	0xbeee7146	-0.46570796
13	0xbe435a33	-0.19077377
14	0xbe38e53a	-0.18056193
15	0xbf229797	-0.6351256
16	0x3ee65935	0.44989935
17	0xbecbc2fd	-0.39797202
18	0x3e1b984b	0.15194814
19	0xbf0bb6aa	-0.545756
20	0x3efcc890	0.49371767
21	0x3dd6b1ac	0.10483107
22	0xbecf4ac8	-0.4048674
23	0x3d847120	0.064668894
24	0xbec9ade1	-0.39390472
25	0xbf317f69	-0.6933504
26	0x3d077482	0.033070095
27	0x3e6d7e52	0.23192719
28	0x3e91c06d	0.28467122
29	0xbe7ae300	-0.24500656
30	0xbf430040	-0.76172256
31	0xbe435b83	-0.19077878
32	0x3d848aa2	0.064717546
33	0x3e467b79	0.19383039
34	0x3f04a86e	0.51819503
35	0x3df547f6	0.11976616
36	0xbd97f037	-0.07418864
37	0xbf172b5a	-0.59050524
38	0x3e71b0f8	0.23602664
39	0x3eb08b10	0.34481096
40	0xbe89fe41	-0.26951793
41	0xbe719807	-0.2359315
42	0x3bbfe4a8	0.0058561154
43	0x3e91445b	0.28372464
44	0xbe208746	-0.15676603
45	0x3ea1f373	0.3163105
46	0x3e8bfbeb	0.27340636
47	0xbeae90d8	-0.34094882
48	0xbe4d7963	-0.20065837
49	0x3e2fff62	0.17187265
50	0x3e2cc6c9	0.16872706
51	0x3eaca46f	0.33719203
52	0x3dc4ff59	0.09619016
53	0x3ed50e06	0.41612262
54	0xbc41d86f	-0.011831387
55	0x3e909712	0.28240258
56	0x3d0c9dc0	0.03433013
57	0x3e88620c	0.26637304
58	0xbf071a39	-0.5277439
59	0x3cd7383e	0.026271936
60	0xbe36ef42	-0.17864707
61	0x3ea20e6b	0.31651625
62	0xbeafdc53	-0.34347782
63	0xbde30f31	-0.11086882

4.weight f4 [128, 64]
0	0x3d9eb203	0.07748797
1	0xbdd03190	-0.10165703
2	0xbde0dd57	-0.10979717
3	0x3d20445f	0.039127704
4	0x3d21e0b0	0.03952092
5	0x3e2663d5	0.1624902
6	0x3c8c5b85	0.017133484
7	0x3cd346a8	0.025790527
8	0x3dc7d8c4	0.09758142
9	0xbdc84d00	-0.097803116
10	0x3d9f68bb	0.077836476
11	0x3c012c60	0.007884115
12	0xbd1fd70f	-0.039023455
13	0x3d87d033	0.06631508
14	0xbda01e92	-0.07818331
15	0xbbfc8486	-0.0077062277
16	0xbcea742d	-0.02861985
17	0xbe403ce6	-0.18773231
18	0xbd3df030	-0.04637164
19	0x3c22d804	0.009939197
20	0x3d4a2744	0.049353853
21	0x3dc8a1d3	0.097964905
22	0xbd73fec9	-0.059569154
23	0x3cb9656d	0.022631371
24	0xbb2f12f2	-0.0026714173
25	0x3cd434a1	0.025904002
26	0xbe136d9b	-0.1439728
27	0x3c96a75b	0.018390348
28	0xbd41d24b	-0.04731969
29	0xbdce361a	-0.10068913
30	0x3d0e4143	0.034730207
31	0xbd9dc787	-0.077040724
32	0x3e280aa5	0.1641031
33	0x3e028b70	0.12748504
34	0xbd816228	-0.0631755
35	0xbd105c3b	-0.035244208
36	0x3dcd5395	0.10025708
37	0xbdbd7677	-0.09251111
38	0x3e2ea2f6	0.17054352
39	0x3db9123f	0.09036683
40	0x3c522859	0.012827002
41	0xbe73ab4c	-0.23795813
42	0x3d5deb0f	0.054179247
43	0xbda374cd	-0.07981262
44	0xbdb61ba5	-0.088919915
45	0xbd9909ab	-0.07472547
46	0x3bd57aeb	0.006514897
47	0xbd4d84d8	-0.050175518
48	0x3d798915	0.060921747
49	0x3d508451	0.050907437
50	0x3d0894af	0.03334492
51	0x3db09759	0.08622617
52	0xbded1288	-0.115758
53	0x3dc82988	0.097735465
54	0x3d3d1a5d	0.04616772
55	0xbe1245f6	-0.142845
56	0x3daf0aec	0.08547005
57	0x3e1e5835	0.15463336
58	0xbc83e434	-0.016100027
59	0x3c43e0b1	0.011955426
60	0x3de2395d	0.110460974
61	0xbe3fe169	-0.18738331
62	0xbdb345a7	-0.087535195
63	0xbe0f07fe	-0.13967893
64	0xb485f91b	-2.4954429e-07
65	0xb582191d	-9.693064e-07
66	0xb9332530	-0.00017084624
67	0xb4ae82ed	-3.2505287e-07
68	0xbabbffb0	-0.0014343169
69	0x3a942b27	0.0011304364
70	0xba5ace31	-0.0008346765
71	0xb8827ae0	-6.22177e-05
72	0xb9dec19d	-0.00042487393
73	0xba234617	-0.0006228401
74	0xb6d83054	-6.4429278e-06
75	0xae03ea55	-2.999408e-11
76	0xb5f97ba5	-1.8587931e-06
77	0xba880571	-0.0010377598
78	0xba982afb	-0.0011609489
79	0xba79fd46	-0.0009536337
80	0xbaeae549	-0.0017921116
81	0xb6704eca	-3.5808648e-06
82	0xb9da2525	-0.00041607875
83	0x3911b0d3	0.0001389415
84	0xab1ef3d5	-5.647126e-13
85	0x357c6136	9.4018776e-07
86	0xba504068	-0.00079441676
87	0x8000074d	-2.619e-42
88	0xba55cea0	-0.00081560947
89	0xb5daf60c	-1.6313875e-06
90	0xb6c8b155	-5.9811086e-06
91	0xba88dcba	-0.0010441758
92	0xb910d3e4	-0.00013811846
93	0xb7f63a72	-2.9352701e-05
94	0xb92d3d11	-0.00016521315
95	0xb85f3c4b	-5.3223495e-05
96	0xb98132c0	-0.0002464261
97	0xb8165f71	-3.5851674e-05
98	0xbacb35e2	-0.0015503729
99	0xb958f8af	-0.00020692007
100	0xb03e59d1	-6.9249234e-10
101	0xb39aaaf4	-7.20228e-08
102	0xb4f9439e	-4.6429062e-07
103	0xb8daa253	-0.00010425285
104	0xb8ba6286	-8.8875226e-05
105	0xb6f1021d	-7.1826057e-06
106	0x00000677	2.319e-42
107	0xb5b628f4	-1.3571976e-06
108	0xa56347c8	-1.9713432e-16
109	0x383c65c0	4.4917455e-05
110	0xba3d44e9	-0.0007220046
111	0xb8e99c72	-0.00011139446
112	0x00000047	1e-43
113	0xba834908	-0.0010016272
114	0xb328efc1	-3.9333603e-08
115	0xb739c025	-1.1071596e-05
116	0xb9c6a121	-0.00037885553
117	0xb07ef59e	-9.2753705e-10
118	0xb945edf0	-0.00018876023
119	0xbaddc4f5	-0.001691966
120	0xbaa5cb58	-0.0012649102
121	0x9a43405d	-4.0377047e-23
122	0xb90bc18f	-0.00013328179
123	0xb9704050	-0.00022912142
124	0xb9d2220a	-0.00040079682
125	0xb9ace918	-0.00032980065
126	0xb9b9500b	-0.00035345586
127	0x39a513d1	0.00031486017
128	0x3cd8ab58	0.02644889
129	0x3e265645	0.16243847
130	0xbe1cfefd	-0.15331645
131	0xbcb0d9bf	-0.021588204
132	0xbc1c9dfe	-0.009559153
133	0x3d016f3a	0.031600215
134	0xbe1f595f	-0.15561436
135	0x3e3984a3	0.18117003
136	0xbdd246d0	-0.10267413
137	0xbdd08a10	-0.10182583
138	0x3deb6af6	0.114950106
139	0x3d35d87c	0.04439591
140	0x3c28f854	0.010313112
141	0xbcc8ec88	-0.02452685
142	0xbdc18e78	-0.09451002
143	0x3d3c46d3	0.04596598
144	0x3d9c0c10	0.07619488
145	0x3b5ba4ee	0.0033515054
146	0xbe331b00	-0.17490768
147	0xbe7d60bf	-0.24743937
148	0xbe14e904	-0.14542013
149	0xbd005ca1	-0.031338338
150	0xbdc5ae04	-0.096523315
151	0xbcc75437	-0.024332149
152	0xbd8a4687	-0.06751733
153	0xbe26d459	-0.16291942
154	0xbc1502e8	-0.009094931
155	0xbdacda82	-0.084401146
156	0x3d938bc2	0.07204391
157	0x3db56cd5	0.08858649
158	0xbe8bc238	-0.27296615
159	0x3d8a63d8	0.06757325
160	0xbe085b98	-0.1331619
161	0xbd52571a	-0.051352598
162	0xbd45d623	-0.04829992
163	0xbdf9b1d5	-0.12192122
164	0xbd6ed3ee	-0.05830758
165	0xbcb1351c	-0.02163177
166	0x3d6f9cd1	0.05849916
167	0x3e35a7a2	0.17739728
168	0xbc1ba818	-0.009500526
169	0xbc89d876	-0.01682685
170	0xbda444c7	-0.08020931
171	0xbe06d5d1	-0.13167502
172	0x3e2914c2	0.16511825
173	0x3d825d80	0.0636549
174	0x3c39ce12	0.011340635
175	0xbd052cb1	-0.032513324
176	0xbdd221d6	-0.1026036
177	0xbdfc9326	-0.12332754
178	0x3ce3c6a5	0.027804682
179	0x3da1199d	0.078662135
180	0x3d095596	0.033528887
181	0x3e295788	0.16537297
182	0xbdb46bb5	-0.08809606
183	0xbdaff729	-0.08592064
184	0xbe70fd43	-0.23534112
185	0xbd665cfc	-0.05624102
186	0xbc360c89	-0.011111387
187	0xbcc64e31	-0.024207206
188	0x3e0c533a	0.13703623
189	0xbbb4a41e	-0.0055127284
190	0x3d8dfce4	0.06933001
191	0xbe3fb7e5	-0.18722494
192	0x3d785f24	0.06063761
193	0xbd923434	-0.07138863
194	0x3c88f908	0.01672031
195	0x3db160fb	0.08661076
196	0x3d7fb08b	0.062424224
197	0x3d4ab8ad	0.049492527
198	0xbc5806c5	-0.013185208
199	0xbdf46b4a	-0.11934526
200	0xbe04dbb6	-0.12974438
201	0xbe54ee65	-0.20794065
202	0x3e335c3c	0.17515653
203	0xbd049ea1	-0.032377843
204	0x3db5bba6	0.08873682
205	0xbde7100a	-0.11282356
206	0x3cd671f8	0.026177391
207	0xbb51f0cb	-0.0032034393
208	0xbe29a895	-0.16568215
209	0xbd34835e	-0.044070594
210	0xbdc47818	-0.095932186
211	0x3df3df85	0.11907867
212	0x3d422f73	0.047408532
213	0x3d6ecc49	0.05830029
214	0xbdb76762	-0.089552656
215	0x3dbbf8c7	0.0917831
216	0x3cea2261	0.028580846
217	0xbdb84886	-0.08998208
218	0x3e333804	0.17501837
219	0xbd250bbd	-0.040294398
220	0x3de59ffb	0.112121545
221	0x3dbf81ac	0.09350905
222	0x3dd78d67	0.10525017
223	0xbd8aea98	-0.067830265
224	0xbd3d23b4	-0.046176627
225	0xbb66fc1a	-0.003524548
226	0x3dad4c0a	0.08461769
227	0x3dbd7171	0.09250153
228	0x3e2a8dea	0.16655698
229	0xbc257c1e	-0.010100393
230	0xbcba83bd	-0.022767896
231	0x3d2f28f4	0.042763665
232	0x3db2a384	0.087225944
233	0xbd99d89e	-0.075120196
234	0x3d3fafe5	0.046798605
235	0x3dc1bcd6	0.09459846
236	0x3d7470df	0.059677955
237	0xbdc74b4a	-0.09731157
238	0xbe448725	-0.19192179
239	0xbd84aba7	-0.064780526
240	0x3c3b2028	0.011421241
241	0x3da21417	0.07913988
242	0x3d2740a8	0.040833145
243	0x3db6acc6	0.08919673
244	0x3da7c03f	0.08190965
245	0xbd48c79f	-0.0490185
246	0xbd62155c	-0.05519615
247	0xbd8bc12b	-0.06823953
248	0xbd831222	-0.06399943
249	0xbd7eac24	-0.062175885
250	0xbd946a3c	-0.07246825
251	0x3dda147d	0.10648439
252	0xbe2037d4	-0.15646297
253	0xbd330034	-0.043701366
254	0xbe28e25e	-0.16492602
255	0x3d8d7226	0.06906538

4.bias f4 [128]
0	0x3c60192f	0.013677879
1	0xbb1aee3c	-0.0023640534
2	0x3e087af7	0.13328157
3	0x3d18fd82	0.03735114
4	0x3d5282fe	0.051394455
5	0xbdd1e69e	-0.10249065
6	0xbbcbd0a6	-0.006219941
7	0xbeab5f60	-0.33471203
8	0xbcb93409	-0.02260782
9	0xbdf53427	-0.11972838
10	0xbc3399a7	-0.010961927
11	0xbba5feb3	-0.005065763
12	0xbe3bf80a	-0.18356338
13	0x3dc4884b	0.09596308
14	0xbcd502ca	-0.026002306
15	0xbae99fb3	-0.0017824083
16	0x3e7d6f40	0.2474947
17	0x3e2f4acf	0.17118381
18	0xbe1c9310	-0.15290475
19	0xbc89e42b	-0.016832432
20	0xbbab3e31	-0.0052259197
21	0xbe22ee27	-0.1591116
22	0xbe3a5ef3	-0.18200283
23	0xbd776f55	-0.06040891
24	0xbe53171a	-0.20614281
25	0xbdab8928	-0.0837577
26	0xbaa0c872	-0.0012266769
27	0x3e46fb12	0.19431713
28	0x39f7a8c9	0.00047237266
29	0x3da57e74	0.0808076
30	0x3ed661a1	0.4187136
31	0xbde3c0ee	-0.11120783
32	0x3e3e6c4d	0.18596001
33	0xbdcd2101	-0.100160606
34	0xbc9619fc	-0.018322937
35	0xbdf28ab1	-0.118428595
36	0xbefaf9b5	-0.49018636
37	0xbe059473	-0.1304491
38	0xbe62ee74	-0.22161275
39	0xbeb09c80	-0.344944
40	0xbe6e3a92	-0.2326453
41	0x3d35f58f	0.044423636
42	0xbe0555e2	-0.13021043
43	0xbd2b5233	-0.04182644
44	0x3e83783f	0.25677678
45	0xbce558bb	-0.027996412
46	0xbd8c146a	-0.06839831
47	0x3e05b8d9	0.13058795
48	0x3e4c6d20	0.19963503
49	0xbdbf72c7	-0.09348064
50	0x3d438248	0.047731668
51	0x3e3fe48d	0.18739529
52	0xbceb71fa	-0.028740872
53	0x3e9c887e	0.30572885
54	0xbf11d518	-0.5696578
55	0x3e27b971	0.16379334
56	0xbe522a0b	-0.2052385
57	0xbdd9695a	-0.10615797
58	0xbc21ed8e	-0.009883298
59	0xbe7c6271	-0.24646927
60	0x3d1d418e	0.038392596
61	0xbe4f40d1	-0.20239569
62	0xbe1a46df	-0.15066098
63	0xbe88c716	-0.2671439
64	0xbf009e06	-0.50241125
65	0xbdae0f19	-0.084989734
66	0x3cd01384	0.02539993
67	0xbd81c17d	-0.06335733
68	0x3dabef99	0.08395309
69	0x3d9cd2cd	0.076573946
70	0x3d24e871	0.040260736
71	0x3da8622d	0.082218505
72	0xbba283eb	-0.0049595735
73	0xbe5ff351	-0.21870162
74	0x3d3ad5d8	0.045614094
75	0xbd2940c3	-0.041321527
76	0xb77b5d4f	-1.4982491e-05
77	0x3dc2a18b	0.09503468
78	0xbe1b823e	-0.15186402
79	0xbe822554	-0.25419104
80	0xbe15436f	-0.14576505
81	0x3e86f8b1	0.2636161
82	0x3c04f8b3	0.008115935
83	0x3db8db0d	0.090261556
84	0xbe3b773e	-0.18307206
85	0x3e3a7fc4	0.18212801
86	0xbe66ad6d	-0.22527094
87	0x3e94a4b7	0.29031917
88	0x3e936ded	0.28794804
89	0x86ca6cbd	-7.614373e-35
90	0x3ca07b67	0.019590093
91	0xbe256751	-0.16152693
92	0x3e486889	0.19571127
93	0x3e4dc867	0.20095979
94	0xbdb499a8	-0.0881837
95	0xbd52a676	-0.05142828
96	0xbb63194e	-0.0034652534
97	0xbeba9ce2	-0.36447817
98	0xbe88cf0c	-0.26720464
99	0x3dcb4e33	0.09927025
100	0x3e63d53c	0.22249311
101	0xbd331ccb	-0.04372863
102	0x3db7f0db	0.089814864
103	0x3e015c57	0.12632881
104	0xbeaac8e7	-0.333564
105	0xbd5c62df	-0.05380523
106	0x9e8209da	-1.376836e-20
107	0xbe37fd3f	-0.179677
108	0x3d491012	0.04908759
109	0xbdb21a38	-0.08696407
110	0xbea1a75d	-0.31573
111	0xbe5d4c3b	-0.21611111
112	0xbdbfbc71	-0.09362114
113	0xbda0e5b5	-0.07856313
114	0x3c16a8b2	0.0091954935
115	0xbde5b7fb	-0.11216732
116	0x3d879e39	0.066219755
117	0x3b1cf38d	0.0023948879
118	0x3d9b5a59	0.07585592
119	0x3c4042f2	0.011734711
120	0x3d992477	0.07477658
121	0xbd29324f	-0.041307744
122	0x3de6b4b7	0.11264937
123	0xbd04797a	-0.03234241
124	0x3dfa4a98	0.12221259
125	0xbbd9536b	-0.0066322586
126	0x3df7713d	0.12082145
127	0xbe5f76ce	-0.21822664

6.weight f4 [256, 128]
0	0x80000509	-1.806e-42
1	0x00002e00	1.6502e-41
2	0x8000173f	-8.339e-42
3	0x00001693	8.098e-42
4	0x80001b25	-9.738e-42
5	0x000004ae	1.679e-42
6	0x00000cc9	4.586e-42
7	0x000012af	6.702e-42
8	0x00000a98	3.8e-42
9	0x00000c20	4.35e-42
10	0x8000017e	-5.35e-43
11	0x000019f4	9.31e-42
12	0x00121785	1.661476e-39
13	0x80001608	-7.903e-42
14	0x8000037e	-1.253e-42
15	0x00009586	5.3639e-41
16	0x00000b8d	4.144e-42
17	0x800009d8	-3.531e-42
18	0x000010ed	6.072e-42
19	0x00000e67	5.167e-42
20	0x00000a08	3.599e-42
21	0x00000e4d	5.13e-42
22	0x000010ee	6.073e-42
23	0x000003f9	1.425e-42
24	0x80001556	-7.654e-42
25	0x80001b5e	-9.817e-42
26	0x00005309	2.9787e-41
27	0x80001144	-6.194e-42
28	0x80001455	-7.294e-42
29	0x000004f3	1.775e-42
30	0x000005e8	2.119e-42
31	0x80002163	-1.1977e-41
32	0x00000815	2.899e-42
33	0x000018db	8.916e-42
34	0x800001a3	-5.87e-43
35	0x800019c9	-9.25e-42
36	0x8000045e	-1.567e-42
37	0x00000a0d	3.606e-42
38	0x000015e7	7.857e-42
39	0x00000545	1.89e-42
40	0x000008a0	3.094e-42
41	0x00000d78	4.832e-42
42	0x000006a8	2.388e-42
43	0x00001005	5.747e-42
44	0x80001cf7	-1.039e-41
45	0x80001433	-7.246e-42
46	0x00001a8f	9.527e-42
47	0x80000af6	-3.932e-42
48	0x80000530	-1.861e-42
49	0x000003b7	1.333e-42
50	0x00000e35	5.097e-42
51	0x80001291	-6.66e-42
52	0x80001ac8	-9.607e-42
53	0x000006d9	2.456e-42
54	0x00000f6d	5.534e-42
55	0x00000d57	4.785e-42
56	0x00001311	6.84e-42
57	0x00001639	7.972e-42
58	0x000004e1	1.75e-42
59	0x800013d9	-7.12e-42
60	0x0000072f	2.577e-42
61	0x80000196	-5.69e-43
62	0x80000322	-1.124e-42
63	0x00000513	1.82e-42
64	0x0000158b	7.728e-42
65	0x80000990	-3.43e-42
66	0x00001490	7.376e-42
67	0x80000326	-1.13e-42
68	0x000013a2	7.043e-42
69	0x000006e9	2.479e-42
70	0x80000e0f	-5.043e-42
71	0x80000a3f	-3.676e-42
72	0x8000821e	-4.6677e-41
73	0x8000026e	-8.72e-43
74	0x80001829	-8.667e-42
75	0x000014c7	7.454e-42
76	0x8000719f	-4.076e-41
77	0x0000135b	6.943e-42
78	0x8015274d	-1.942644e-39
79	0x80000811	-2.894e-42
80	0x80000f80	-5.56e-42
81	0x000005d1	2.087e-42
82	0x000001b2	6.08e-43
83	0x80001284	-6.642e-42
84	0x800016a9	-8.129e-42
85	0x0000051d	1.834e-42
86	0x0000133e	6.903e-42
87	0x800014d4	-7.472e-42
88	0x000007a3	2.74e-42
89	0x00000f45	5.478e-42
90	0x80000234	-7.9e-43
91	0x80001366	-6.959e-42
92	0x800006d2	-2.447e-42
93	0x80000b61	-4.082e-42
94	0x80000fb1	-5.629e-42
95	0x00000c36	4.38e-42
96	0x80009c10	-5.5985e-41
97	0x8000019b	-5.76e-43
98	0x8000131a	-6.852e-42
99	0x8000046d	-1.588e-42
100	0x0000125f	6.59e-42
101	0x8000027c	-8.91e-43
102	0x80000c69	-4.452e-42
103	0x800000c7	-2.79e-43
104	0x0000070e	2.531e-42
105	0x80000f09	-5.394e-42
106	0x80004ee1	-2.8296e-41
107	0x00001479	7.344e-42
108	0x80000518	-1.827e-42
109	0x800012d3	-6.753e-42
110	0x00000376	1.242e-42
111	0x8000070b	-2.527e-42
112	0x80000557	-1.916e-42
113	0x80000764	-2.651e-42
114	0x80000241	-8.09e-43
115	0x80001921	-9.015e-42
116	0x000013fb	7.168e-42
117	0x00001b9f	9.909e-42
118	0x00001681	8.073e-42
119	0x000015fc	7.887e-42
120	0x00000083	1.84e-43
121	0x80001773	-8.412e-42
122	0x80000ad1	-3.88e-42
123	0x800008d5	-3.168e-42
124	0x80001895	-8.818e-42
125	0x80000bf2	-4.285e-42
126	0x80000745	-2.608e-42
127	0x0000064b	2.257e-42
128	0x80001315	-6.845e-42
129	0x0000a8bb	6.0529e-41
130	0x800016ff	-8.25e-42
131	0x000013ce	7.105e-42
132	0x00001c71	1.0203e-41
133	0x00001109	6.111e-42
134	0x00000903	3.233e-42
135	0x80001161	-6.234e-42
136	0x80000ffe	-5.737e-42
137	0x80000334	-1.149e-42
138	0x0000144a	7.278e-42
139	0x000004ba	1.696e-42
140	0x80001427	-7.229e-42
141	0x80001238	-6.536e-42
142	0x80000a18	-3.621e-42
143	0x8000ab89	-6.1535e-41
144	0x00001894	8.817e-42
145	0x00001663	8.031e-42
146	0x800015b7	-7.79e-42
147	0x00001501	7.535e-42
148	0x00000c86	4.493e-42
149	0x0000144f	7.285e-42
150	0x800005b0	-2.04e-42
151	0x000005bf	2.061e-42
152	0x800008b1	-3.118e-42
153	0x000017dc	8.559e-42
154	0x00004d55	2.7742e-41
155	0x000013b9	7.075e-42
156	0x80000026	-5.3e-44
157	0x00001839	8.69e-42
158	0x80001413	-7.201e-42
159	0x000001f7	7.05e-43
160	0x0000087b	3.042e-42
161	0x80001cca	-1.0328e-41
162	0x80000c5f	-4.438e-42
163	0x000013f4	7.158e-42
164	0x00001952	9.083e-42
165	0x0000219d	1.2058e-41
166	0x00000c7d	4.48e-42
167	0x000010d8	6.042e-42
168	0x00000ec3	5.296e-42
169	0x00000b08	3.957e-42
170	0x000008f3	3.21e-42
171	0x00000383	1.26e-42
172	0x80000b4c	-4.053e-42
173	0x00000002	3e-45
174	0x000006c5	2.428e-42
175	0x80001078	-5.908e-42
176	0x80000f55	-5.5e-42
177	0x00000097	2.12e-43
178	0x000010f3	6.08e-42
179	0x00000bc3	4.22e-42
180	0x00001799	8.465e-42
181	0x8000177d	-8.426e-42
182	0x800007cd	-2.798e-42
183	0x00000500	1.794e-42
184	0x00001007	5.75e-42
185	0x00001482	7.357e-42
186	0x80000470	-1.592e-42
187	0x00000881	3.05e-42
188	0x000008a9	3.107e-42
189	0x8000127d	-6.632e-42
190	0x000011c0	6.368e-42
191	0x000002d5	1.016e-42
192	0x800014e9	-7.501e-42
193	0x80000382	-1.258e-42
194	0x80001e70	-1.0919e-41
195	0x00001598	7.746e-42
196	0x800017cf	-8.541e-42
197	0x00000154	4.76e-43
198	0x80001a06	-9.335e-42
199	0x800005ab	-2.033e-42
200	0x0000155a	7.66e-42
201	0x800003d6	-1.376e-42
202	0x00001b61	9.822e-42
203	0x80000127	-4.13e-43
204	0x00003900	2.0448e-41
205	0x800003cd	-1.363e-42
206	0x800002ac	-9.58e-43
207	0x00001412	7.2e-42
208	0x8000131f	-6.86e-42
209	0x00000367	1.22e-42
210	0x00001788	8.441e-42
211	0x800000f4	-3.42e-43
212	0x000003c2	1.348e-42
213	0x00000861	3.006e-42
214	0x00000ebe	5.289e-42
215	0x000000b5	2.54e-43
216	0x80001916	-8.999e-42
217	0x000004b9	1.694e-42
218	0x00000dba	4.924e-42
219	0x8000145c	-7.304e-42
220	0x000018ba	8.87e-42
221	0x000019fd	9.323e-42
222	0x800007ee	-2.845e-42
223	0x800001a4	-5.89e-43
224	0x0000758f	4.2172e-41
225	0x000001ec	6.9e-43
226	0x8000033f	-1.164e-42
227	0x00000147	4.58e-43
228	0x000014c7	7.454e-42
229	0x00000714	2.539e-42
230	0x800009ee	-3.562e-42
231	0x800005fd	-2.148e-42
232	0x0000083e	2.957e-42
233	0x000008b1	3.118e-42
234	0x000069ba	3.7928e-41
235	0x800015bf	-7.801e-42
236	0x80000c82	-4.487e-42
237	0x000003a2	1.303e-42
238	0x00001520	7.578e-42
239	0x000006da	2.458e-42
240	0x80001fb7	-1.1377e-41
241	0x00000ba9	4.183e-42
242	0x80001e3d	-1.0847e-41
243	0x80000659	-2.277e-42
244	0x0000053b	1.876e-42
245	0x800001cc	-6.45e-43
246	0x80002df6	-1.6488e-41
247	0x80000d33	-4.735e-42
248	0x800016e2	-8.209e-42
249	0x80000f22	-5.429e-42
250	0x80000469	-1.582e-42
251	0x80000b9d	-4.166e-42
252	0x800006ea	-2.48e-42
253	0x00000db2	4.913e-42
254	0x800015e5	-7.854e-42
255	0x00001f81	1.1301e-41

6.bias f4 [256]
0	0x9c8a3d09	-9.147851e-22
1	0x933bdfdc	-2.371309e-27
2	0xbd1ed854	-0.038780525
3	0xa12a5265	-5.770729e-19
4	0xba1135a9	-0.0005539307
5	0xbbb6e447	-0.005581412
6	0xbba39751	-0.0049924036
7	0x8d38bde6	-5.692796e-31
8	0x3b67be41	0.0035361203
9	0xbb439a50	-0.0029846616
10	0xac4441cc	-2.78898e-12
11	0xb8ff461d	-0.00012172407
12	0xbe12e029	-0.14343323
13	0xb5938a51	-1.0992609e-06
14	0xbe1978bd	-0.14987464
15	0xbe997cd9	-0.29978064
16	0x3c81ea3c	0.015858762
17	0x3d0a5c57	0.03377947
18	0x9e281cbb	-8.899787e-21
19	0xbe8fffdf	-0.28124902
20	0xbb50e7d7	-0.0031876469
21	0x9129483a	-1.3354006e-28
22	0xbeabdd88	-0.33567452
23	0xbd6d4e0f	-0.05793577
24	0x3c35ea18	0.011103176
25	0xbb831414	-0.0040001962
26	0xb9bd1050	-0.00036061043
27	0x3d8cb160	0.06869769
28	0xbe5ce85b	-0.21573012
29	0xbd80c1ab	-0.06286939
30	0xb6092199	-2.0434147e-06
31	0xbb9293c9	-0.004473184
32	0x9f91d18b	-6.175655e-20
33	0xbbbbdcac	-0.0057330932
34	0xa8411273	-1.0717653e-14
35	0xbcaceca5	-0.021108935
36	0xbd89078d	-0.06690893
37	0xbbb3cfe6	-0.00548743
38	0xbcd56b55	-0.026052156
39	0xbb65e5b7	-0.0035079548
40	0xb6802b05	-3.8197054e-06
41	0xb9ae9563	-0.00033299168
42	0xb51eda57	-5.9177313e-07
43	0xbd6b9032	-0.057510562
44	0xbb91e15b	-0.0044519133
45	0xbb684c84	-0.0035445997
46	0xbba43787	-0.005011502
47	0xbdce8edd	-0.10085843
48	0xbd103600	-0.03520775
49	0xbabe8618	-0.0014535813
50	0xbd0df86a	-0.034660734
51	0xbe25d5fe	-0.16194913
52	0xbb4c95ed	-0.0031217292
53	0xbe369648	-0.17830765
54	0xbbee1a17	-0.0072662937
55	0xb86b3425	-5.607693e-05
56	0xbda05c4c	-0.07830104
57	0xbcf20199	-0.029541777
58	0xbb90e8fa	-0.004422304
59	0xbd9e96c9	-0.07743604
60	0xb098fea6	-1.1131831e-09
61	0xba0d6e5b	-0.00053951674
62	0x99aba0e6	-1.7745972e-23
63	0x3d9b0f7f	0.07571315
64	0xbba28a17	-0.0049603092
65	0xafbb33b3	-3.4051836e-10
66	0xacbe4899	-5.4081848e-12
67	0x3ce30629	0.027712898
68	0xb6161053	-2.2361244e-06
69	0xbd6c62fb	-0.057711583
70	0xbbcca6bf	-0.0062454636
71	0x3bd3e106	0.006466034
72	0xafce3f0d	-3.7515982e-10
73	0xbab9fd58	-0.0014189882
74	0xb63a4ae4	-2.7759752e-06
75	0xbe1e24bf	-0.15443705
76	0xbb23d5b4	-0.0024999203
77	0xbc543287	-0.0129515
78	0x3c18fef6	0.009338131
79	0xbcf3172d	-0.029674137
80	0xa80e1cf8	-7.888865e-15
81	0xb39d55f6	-7.3265184e-08
82	0xbdc15882	-0.0944071
83	0xbd2ba0f3	-0.04190154
84	0xbd9d5061	-0.07681347
85	0xb598ca06	-1.1383679e-06
86	0xbd6cfa28	-0.057855755
87	0xbcb6d7ee	-0.02231976
88	0xbdd8d466	-0.10587387
89	0xbc099e0e	-0.0083995
90	0xb2bc7437	-2.1938929e-08
91	0xbac71c1b	-0.0015190871
92	0x3cdf42a3	0.027253455
93	0x99e556b0	-2.3713058e-23
94	0x3b7b9bb0	0.0038392358
95	0xb78c5b13	-1.673171e-05
96	0xbd55ff12	-0.052245207
97	0xbc0b20e1	-0.008491726
98	0xbd82aa2d	-0.06380115
99	0xbe107002	-0.14105228
100	0x3cd7b932	0.026333425
101	0xbdf32685	-0.118725814
102	0xbd1ebd52	-0.03875477
103	0x3d4c6381	0.04989958
104	0x3d324d90	0.043531
105	0xbb90e7a6	-0.004422146
106	0xbc8c8f8a	-0.017158289
107	0xbbb29a5c	-0.00545053
108	0xbd231aae	-0.039820366
109	0xbd3531cb	-0.04423694
110	0xba022742	-0.00049649563
111	0xbde05086	-0.109528586
112	0xb9a557ff	-0.00031536815
113	0xbdccb0f1	-0.099946864
114	0xba078acf	-0.00051705254
115	0x3c386b30	0.011256024
116	0xb4a78d47	-3.1208967e-07
117	0xbe13e3d3	-0.14442377
118	0xbb951d66	-0.0045506237
119	0xbdc7ef6f	-0.09762465
120	0xa917ce08	-3.370744e-14
121	0x92bf3b2f	-1.20683845e-27
122	0xbab9d421	-0.0014177599
123	0xb7f5c2d3	-2.9296998e-05
124	0xb72dac76	-1.0351758e-05
125	0xac0ff393	-2.0456733e-12
126	0xbda74b09	-0.08168609
127	0xb5ff7ad9	-1.9034734e-06
128	0xbb55b082	-0.0032606428
129	0xba4ec938	-0.00078882603
130	0xbe5fb994	-0.21848136
131	0xb7924d46	-1.744054e-05
132	0xba9b717e	-0.0011859385
133	0xbaa55d22	-0.0012616257
134	0xbe649bc6	-0.22325048
135	0xb85ee7aa	-5.314468e-05
136	0xbb401027	-0.0029306503
137	0xba88a6f8	-0.0010425737
138	0xbb6712f2	-0.0035259095
139	0xbb8546bb	-0.0040672696
140	0xa96522a3	-5.0878257e-14
141	0xb40d4884	-1.315803e-07
142	0xbb0b26b6	-0.002123279
143	0x3cb06ec7	0.021537198
144	0x9f894f17	-5.81526e-20
145	0xbb3c9ea4	-0.002878108
146	0xb22f8443	-1.02164135e-08
147	0xad7e55e1	-1.4457297e-11
148	0xa2e364fa	-6.1635386e-18
149	0xbebc8a3e	-0.3682422
150	0xbb8640ee	-0.0040970957
151	0xbb51f91b	-0.0032039348
152	0x3cc185c9	0.023623364
153	0xbdfdf527	-0.12400275
154	0x3d6bfa97	0.057612028
155	0x3d960111	0.07324422
156	0xbb9765a4	-0.004620271
157	0xbde01834	-0.109421164
158	0xb1907dc6	-4.2052504e-09
159	0x3d124397	0.03570899
160	0xbbc8c634	-0.0061271433
161	0xbb57e92b	-0.0032945375
162	0xba0c634b	-0.0005355372
163	0xbd0ebde1	-0.03484905
164	0xbc8b5d5e	-0.017012294
165	0x3d593a91	0.05303437
166	0xbb072291	-0.0020619968
167	0xbdda4e5d	-0.10659478
168	0x945f5917	-1.1276193e-26
169	0xbb612cbb	-0.0034358937
170	0xbd5e672c	-0.05429761
171	0xba0577b7	-0.0005091386
172	0xbc00f2dd	-0.007870403
173	0xb9b4901f	-0.00034439654
174	0x3c47e5e8	0.01220081
175	0xbb5dafea	-0.0033826777
176	0xa3b47319	-1.9564385e-17
177	0xb993798f	-0.00028128593
178	0x3afb4e60	0.0019173138
179	0xbe199128	-0.14996779
180	0xbb4b78f5	-0.0031047438
181	0x3bb339b9	0.0054695276
182	0xbb8fff2f	-0.004394434
183	0xbe865801	-0.26239017
184	0xbd9efce6	-0.0776308
185	0xbdb5b5fb	-0.08872601
186	0xbd106f93	-0.035262655
187	0xbb794fc2	-0.0038041924
188	0xbe836c68	-0.25668645
189	0xbe922c91	-0.28549626
190	0xbd7c2d2b	-0.061566513
191	0xb88b97fb	-6.656345e-05
192	0x3d3ab4f2	0.04558272
193	0xbb65a7cc	-0.0035042642
194	0xb859f68c	-5.1966446e-05
195	0xa12cf040	-5.8593835e-19
196	0xba9d27bc	-0.0011989991
197	0xbbdf487b	-0.0068140603
198	0xbde38671	-0.11109627
199	0xbe58ea99	-0.21183242
200	0xbb9209d0	-0.004456736
201	0xbcbe49ae	-0.023228493
202	0xbb922039	-0.0044594076
203	0x3c1b0549	0.009461709
204	0xb59b95cb	-1.1591995e-06
205	0xbe20c041	-0.15698339
206	0xb22b17d1	-9.958925e-09
207	0xbe103e80	-0.14086342
208	0xb711215a	-8.650439e-06
209	0xbb7be1a3	-0.003843405
210	0xbe4ead9e	-0.20183417
211	0x3d056ba2	0.03257335
212	0xbd9a5c10	-0.07537091
213	0x95eb804a	-9.511815e-26
214	0xba9d0036	-0.0011978212
215	0xbe64e5f7	-0.2235335
216	0xa4513d94	-4.537181e-17
217	0xbb731655	-0.0037092168
218	0xbe835e58	-0.25657916
219	0xbac71da2	-0.0015191326
220	0xbb8c1437	-0.0042748707
221	0xbe98489c	-0.29742897
222	0xb7aea3d1	-2.08187e-05
223	0xbdb39702	-0.08769037
224	0xbe2d1a29	-0.1690451
225	0xbef22952	-0.4729715
226	0xa1c7d45f	-1.3540979e-18
227	0x3d7c3694	0.061575487
228	0xbd0126c8	-0.031531125
229	0xbb83f933	-0.0040275096
230	0xbb29b14c	-0.002589303
231	0xae0845ca	-3.0984805e-11
232	0xbb2fff8c	-0.0026855199
233	0xa6ad4060	-1.2021735e-15
234	0x3bf80c4c	0.0075698253
235	0xaa840917	-2.3454218e-13
236	0xbda97206	-0.08273701
237	0xbd415379	-0.047198746
238	0xbd9b0257	-0.07568806
239	0xbdd294b8	-0.10282272
240	0xbe1d71e8	-0.15375483
241	0xbd203fac	-0.039123222
242	0x3d155488	0.03645757
243	0xbd99775e	-0.074934706
244	0xbbb10b47	-0.0054029557
245	0xbde2bc00	-0.110710144
246	0x3d2b3a42	0.041803606
247	0xa10dad47	-4.800199e-19
248	0xbba05497	-0.0048928964
249	0xbb961e8a	-0.0045812773
250	0xbcad9481	-0.021188976
251	0xb3335edd	-4.1762963e-08
252	0xbb8c2d49	-0.0042778593
253	0x3d5fde31	0.054655258
254	0xb9a819d1	-0.00032062692
255	0x3dc666a2	0.096875444

8.weight f4 [128, 256]
0	0x0000a732	5.9978e-41
1	0x80005b07	-3.2654e-41
2	0x80002a3d	-1.5152e-41
3	0x80008890	-4.899e-41
4	0x8000133b	-6.899e-42
5	0x0000068f	2.353e-42
6	0x000001b8	6.17e-43
7	0x00001f52	1.1236e-41
8	0x80001a44	-9.422e-42
9	0x000091ee	5.235e-41
10	0x00000754	2.629e-42
11	0x8000a4ca	-5.9115e-41
12	0x000009a9	3.465e-42
13	0x80000790	-2.713e-42
14	0x0000098b	3.423e-42
15	0x00001cfa	1.0395e-41
16	0x00000c94	4.512e-42
17	0x000012d3	6.753e-42
18	0x00003ddd	2.2192e-41
19	0x0000202a	1.1538e-41
20	0x8000763e	-4.2417e-41
21	0x000053a7	3.0009e-41
22	0x000003eb	1.406e-42
23	0x8000288b	-1.4544e-41
24	0x000003d9	1.38e-42
25	0x80000c1b	-4.343e-42
26	0x000017ad	8.493e-42
27	0x000016d2	8.186e-42
28	0x00001aee	9.66e-42
29	0x00000110	3.81e-43
30	0x000006d5	2.451e-42
31	0x8000117d	-6.274e-42
32	0x80005730	-3.1277e-41
33	0x00005347	2.9874e-41
34	0x800006d0	-2.444e-42
35	0x8000115f	-6.232e-42
36	0x0000008e	1.99e-43
37	0x0000212a	1.1897e-41
38	0x000007ae	2.755e-42
39	0x000050fa	2.9049e-41
40	0x800008ea	-3.198e-42
41	0x80003d91	-2.2086e-41
42	0x800079b7	-4.3663e-41
43	0x00000088	1.9e-43
44	0x000029a0	1.4932e-41
45	0x8000adc9	-6.2342e-41
46	0x000063af	3.576e-41
47	0x000015c7	7.812e-42
48	0x800018b4	-8.862e-42
49	0x80000b57	-4.068e-42
50	0x80001d82	-1.0585e-41
51	0x00001998	9.181e-42
52	0x00006d18	3.9135e-41
53	0x000010d2	6.034e-42
54	0x0000a653	5.9666e-41
55	0x00007fca	4.5842e-41
56	0x00000d06	4.672e-42
57	0x0000156a	7.682e-42
58	0x800081f9	-4.6625e-41
59	0x80002804	-1.4355e-41
60	0x00003868	2.0235e-41
61	0x0000731e	4.1296e-41
62	0x00006b75	3.8548e-41
63	0x000013e0	7.13e-42
64	0x800023c0	-1.2825e-41
65	0x000093c0	5.3003e-41
66	0x000098c8	5.4808e-41
67	0x00000c0c	4.322e-42
68	0x00007adb	4.4072e-41
69	0x00000afb	3.939e-42
70	0x00004578	2.492e-41
71	0x00000383	1.26e-42
72	0x000026a8	1.3867e-41
73	0x800031fb	-1.793e-41
74	0x80007044	-4.0273e-41
75	0x00000bb5	4.2e-42
76	0x00009a46	5.5343e-41
77	0x8000148f	-7.375e-42
78	0x80002ae1	-1.5382e-41
79	0x00001037	5.817e-42
80	0x000001e2	6.75e-43
81	0x000009d4	3.526e-42
82	0x00001817	8.642e-42
83	0x00001a80	9.506e-42
84	0x00000bed	4.278e-42
85	0x000034a4	1.8884e-41
86	0x00001f6b	1.127e-41
87	0x000013e5	7.137e-42
88	0x00001a49	9.43e-42
89	0x00003f45	2.2697e-41
90	0x000010d3	6.035e-42
91	0x00000d4a	4.767e-42
92	0x0000359b	1.923e-41
93	0x80000c7d	-4.48e-42
94	0x00009e5b	5.6807e-41
95	0x8000129c	-6.676e-42
96	0x0000260b	1.3647e-41
97	0x00003552	1.9128e-41
98	0x00003415	1.8684e-41
99	0x00000135	4.33e-43
100	0x800002f8	-1.065e-42
101	0x00001bcf	9.976e-42
102	0x000006f4	2.494e-42
103	0x00000239	7.97e-43
104	0x0000053b	1.876e-42
105	0x00007634	4.2403e-41
106	0x80000f47	-5.48e-42
107	0x0000294a	1.4812e-41
108	0x00000aa7	3.821e-42
109	0x0000098b	3.423e-42
110	0x00006066	3.4581e-41
111	0x80001a98	-9.54e-42
112	0x000061e4	3.5117e-41
113	0x800000f8	-3.48e-43
114	0x8000a160	-5.789e-41
115	0x00001ec3	1.1035e-41
116	0x8000068b	-2.347e-42
117	0x000012f2	6.796e-42
118	0x80008424	-4.7403e-41
119	0x000002a1	9.43e-43
120	0x8000a256	-5.8235e-41
121	0x00005800	3.1568e-41
122	0x80002ef1	-1.684e-41
123	0x000027a9	1.4227e-41
124	0x0000317b	1.775e-41
125	0x8000ac5f	-6.1835e-41
126	0x8000039e	-1.298e-42
127	0x0000032b	1.136e-42
128	0x00004abf	2.6814e-41
129	0x8000344a	-1.8758e-41
130	0x800000da	-3.05e-43
131	0x00001e4a	1.0866e-41
132	0x80005715	-3.1239e-41
133	0x00006545	3.6329e-41
134	0x0000104b	5.845e-42
135	0x80004285	-2.3863e-41
136	0x0000a991	6.0829e-41
137	0x000087a3	4.8657e-41
138	0x00003012	1.7244e-41
139	0x80009a83	-5.5428e-41
140	0x0000047b	1.607e-42
141	0x80002fc8	-1.714e-41
142	0x80009df4	-5.6663e-41
143	0x800022e7	-1.252e-41
144	0x00006ce8	3.9068e-41
145	0x80008ff5	-5.1642e-41
146	0x80004f01	-2.8341e-41
147	0x00000cbc	4.568e-42
148	0x80006a9d	-3.8246e-41
149	0x00000618	2.186e-42
150	0x000056db	3.1158e-41
151	0x00007a4e	4.3875e-41
152	0x000007fd	2.866e-42
153	0x80001b6d	-9.839e-42
154	0x00000317	1.108e-42
155	0x00000a3e	3.674e-42
156	0x80004b65	-2.7046e-41
157	0x800007ce	-2.8e-42
158	0x00002b80	1.5605e-41
159	0x000048ca	2.6112e-41
160	0x000062da	3.5461e-41
161	0x00004102	2.332e-41
162	0x800023db	-1.2863e-41
163	0x00000107	3.69e-43
164	0x000020fe	1.1835e-41
165	0x800016bf	-8.16e-42
166	0x800044c1	-2.4664e-41
167	0x8000234f	-1.2666e-41
168	0x8000929b	-5.2592e-41
169	0x80009aa2	-5.5472e-41
170	0x800002f2	-1.057e-42
171	0x0000221a	1.2233e-41
172	0x000008ce	3.159e-42
173	0x80009a73	-5.5406e-41
174	0x800013b0	-7.063e-42
175	0x0000990e	5.4906e-41
176	0x800013fc	-7.169e-42
177	0x00001276	6.623e-42
178	0x000009a7	3.463e-42
179	0x000000d3	2.96e-43
180	0x00006693	3.6797e-41
181	0x80000ca0	-4.529e-42
182	0x000086d2	4.8364e-41
183	0x80002047	-1.1579e-41
184	0x80000813	-2.896e-42
185	0x80002d3b	-1.6226e-41
186	0x00001f63	1.126e-41
187	0x80009e26	-5.6733e-41
188	0x0000033e	1.163e-42
189	0x80000b17	-3.978e-42
190	0x80002838	-1.4428e-41
191	0x80005ebb	-3.3983e-41
192	0x00000436	1.51e-42
193	0x00000e3e	5.109e-42
194	0x00000459	1.56e-42
195	0x80000b6c	-4.097e-42
196	0x80002724	-1.4041e-41
197	0x0000a380	5.8653e-41
198	0x80001d94	-1.061e-41
199	0x000005de	2.105e-42
200	0x00008001	4.5919e-41
201	0x00002630	1.3699e-41
202	0x80002b2d	-1.5489e-41
203	0x80000c6d	-4.458e-42
204	0x00009b22	5.5651e-41
205	0x80001682	-8.074e-42
206	0x80003581	-1.9194e-41
207	0x80001ce2	-1.0361e-41
208	0x00000087	1.89e-43
209	0x0000783b	4.313e-41
210	0x0000207d	1.1655e-41
211	0x00001a2d	9.39e-42
212	0x8000078c	-2.707e-42
213	0x80007989	-4.3599e-41
214	0x80008984	-4.9331e-41
215	0x8000050f	-1.815e-42
216	0x80007bf5	-4.4467e-41
217	0x80008c60	-5.0357e-41
218	0x000015a4	7.763e-42
219	0x8000559a	-3.0708e-41
220	0x80007f83	-4.5743e-41
221	0x0000211c	1.1877e-41
222	0x80007b8b	-4.4319e-41
223	0x80000af4	-3.929e-42
224	0x80000f3c	-5.465e-42
225	0x000012a7	6.691e-42
226	0x0000a7ab	6.0148e-41
227	0x00001333	6.887e-42
228	0x8000074e	-2.62e-42
229	0x000097f6	5.4513e-41
230	0x80009067	-5.1802e-41
231	0x0000ad4a	6.2164e-41
232	0x0000874b	4.8534e-41
233	0x8000a369	-5.862e-41
234	0x80001cdc	-1.0353e-41
235	0x00002886	1.4537e-41
236	0x00000530	1.861e-42
237	0x80002198	-1.2051e-41
238	0x00002355	1.2675e-41
239	0x80003357	-1.8417e-41
240	0x0000178f	8.451e-42
241	0x800021e8	-1.2163e-41
242	0x8000050c	-1.81e-42
243	0x00000c47	4.404e-42
244	0x8000a613	-5.9576e-41
245	0x8000057d	-1.969e-42
246	0x800033fd	-1.865e-41
247	0x800007ac	-2.752e-42
248	0x80008e2d	-5.1003e-41
249	0x00007821	4.3094e-41
250	0x80000480	-1.614e-42
251	0x0000ac39	6.1782e-41
252	0x80002645	-1.3729e-41
253	0x00001731	8.32e-42
254	0x800099e2	-5.5203e-41
255	0x000000a5	2.31e-43

8.bias f4 [128]
0	0x9ea985ec	-1.794896e-20
1	0xb9dfc74c	-0.00042682362
2	0xbab2a8b1	-0.0013630596
3	0xad96edba	-1.7158597e-11
4	0xb961ae7a	-0.0002152267
5	0x3d8d18fc	0.06889531
6	0xbaa250ae	-0.0012383664
7	0xa700082a	-1.7767994e-15
8	0x3d680052	0.05664093
9	0xb9de9a08	-0.00042457902
10	0xb337a256	-4.275565e-08
11	0x39cddc71	0.0003926489
12	0xb03c40cf	-6.84861e-10
13	0x3d65e7d1	0.05612928
14	0xafa0b604	-2.923316e-10
15	0x9564cb30	-4.620452e-26
16	0x3d349bbf	0.044093844
17	0xb47667cb	-2.2948295e-07
18	0xbad49d27	-0.0016221151
19	0xb8baa80a	-8.900471e-05
20	0xba3df0ed	-0.00072456786
21	0xba1b7ec5	-0.0005931671
22	0xbb6acb06	-0.0035826578
23	0xac81c731	-3.688515e-12
24	0xb9989ea7	-0.00029109904
25	0xba8fe886	-0.0010979332
26	0x8d79a201	-7.6924054e-31
27	0xb1c6e0a0	-5.7880953e-09
28	0x3e11b047	0.142274
29	0xad186abc	-8.6638995e-12
30	0xa507c5c6	-1.1776392e-16
31	0x847c0c60	-2.962814e-36
32	0x3dfeff7a	0.12451072
33	0xb3b5da5d	-8.468189e-08
34	0xbaa19fd8	-0.0012330962
35	0xb72d9521	-1.0346325e-05
36	0xbb19aea2	-0.0023450037
37	0xb84b0673	-4.8404978e-05
38	0xbb44adc2	-0.0030010794
39	0xa6557a08	-7.4064603e-16
40	0xa8ee6938	-2.646894e-14
41	0xbb6e0974	-0.0036321552
42	0xb001cc72	-4.722046e-10
43	0xb8596348	-5.1829295e-05
44	0xbaae4149	-0.0013294603
45	0x3cf90e20	0.030402243
46	0xb166788a	-3.3537924e-09
47	0xa751d7c5	-2.9121545e-15
48	0xb3cef428	-9.637034e-08
49	0xba50d82e	-0.00079667836
50	0xa0a65922	-2.8180477e-19
51	0xba207e74	-0.00061223586
52	0xaf928980	-2.6654945e-10
53	0x3dc6113f	0.09671258
54	0x3de409da	0.111346915
55	0xae524c3b	-4.7816178e-11
56	0xba4ce779	-0.00078164745
57	0xae24b91c	-3.7453693e-11
58	0xb9926877	-0.00027925122
59	0xb994e409	-0.0002839866
60	0xbb0a37ae	-0.0021090317
61	0xb917853e	-0.00014450119
62	0xb539c0cf	-6.9198444e-07
63	0xba2568b5	-0.0006309853
64	0xac9dbb32	-4.4829912e-12
65	0xb1703c7f	-3.4958985e-09
66	0xa481d3da	-5.630372e-17
67	0xbb4f0860	-0.0031590685
68	0x3e1f2df3	0.15544872
69	0xa9a2b4c2	-7.225602e-14
70	0xb39fe8ec	-7.446383e-08
71	0x350c6d80	5.231341e-07
72	0xbacb08e4	-0.001549032
73	0xba7b3171	-0.00095822575
74	0xb8a50f29	-7.870637e-05
75	0xb79194e3	-1.7354678e-05
76	0xbaffea65	-0.0019524811
77	0xbd24d6c8	-0.040243894
78	0xbc250cc4	-0.010073844
79	0xbb832210	-0.0040018633
80	0x932ad2ce	-2.1560951e-27
81	0xba522a9c	-0.00080172135
82	0xaf8ea448	-2.5946378e-10
83	0xb2ad2bbb	-2.0159737e-08
84	0xb75a5ac7	-1.3014948e-05
85	0x906a6240	-4.6224052e-29
86	0x9f0ce7be	-2.9837846e-20
87	0xb7a114a0	-1.92023e-05
88	0xb8a92b56	-8.06662e-05
89	0xb9738e2a	-0.00023227246
90	0xb09a7263	-1.1237485e-09
91	0xb5509294	-7.769934e-07
92	0xbbaa2575	-0.0051924535
93	0xb807f1f5	-3.241185e-05
94	0xba37d36c	-0.00070124003
95	0xaa8a7b0c	-2.4599105e-13
96	0xbb73ac93	-0.003718172
97	0xbba27c8f	-0.004958696
98	0xa31be07d	-8.450104e-18
99	0x9d13905d	-1.9529922e-21
100	0x95889a8c	-5.5173795e-26
101	0xb1706930	-3.4984389e-09
102	0x3d63c848	0.055610925
103	0xb7d212de	-2.5042737e-05
104	0xb6c84ff2	-5.9697713e-06
105	0x3d450d14	0.048108175
106	0xbad77c31	-0.001644021
107	0x1b2399a9	1.3532694e-22
108	0xbc36caba	-0.011156732
109	0xbb84b1e9	-0.004049529
110	0xbb0494ce	-0.0020230296
111	0x3da10896	0.07862966
112	0x3e237cea	0.1596562
113	0xb983a41c	-0.00025108538
114	0x9e30d480	-9.361306e-21
115	0x3ebf4094	0.37353957
116	0xb9d53079	-0.0004066264
117	0x3e157089	0.1459371
118	0xb4392f54	-1.7246686e-07
119	0xb460f42b	-2.0950453e-07
120	0xb9403a5d	-0.00018332289
121	0xba89c7b2	-0.0010511784
122	0xba958c78	-0.0011409661
123	0xaaa24184	-2.8822441e-13
124	0xa90b2c74	-3.0902757e-14
125	0xad6b1776	-1.3363413e-11
126	0xbb4000bd	-0.0029297315
127	0xbc0737e9	-0.008253076
