Models/checkpoint_vel_D2_1000_100.pth (torch, 353077 bytes, 16 tensors)

0.weight f4 [32, 9]
0.11034834 -0.12616922 -0.36199787 0.16790758 -1.0810269 0.26729366 0.015214289 0.2589136
-0.046910398 -0.114590734 0.16567081 0.25544572 -0.09294457 1.2097926 -0.096533805 -0.0571558
-0.06543188 -0.08349892 0.37593618 -0.008948601 0.0066922335 -0.14890903 -0.43091723 0.0049932553
-0.16977337 0.04290715 0.12238814 0.10416947 -0.24891658 0.31777817 0.26868615 0.31798568
0.28815246 -0.2602168 -0.1734215 -0.10005367 0.12328407 -0.11146195 0.14871469 -0.31994513
1.0393201 -0.12449024 0.18453719 0.014483551 -0.22127928 0.037752282 -0.13119397 0.04641902
-1.2523956 0.12267727 -0.50600916 -0.08340328 0.08552312 -0.085551135 0.19221881 -0.052250605
0.3602894 -0.35095176 -0.25735962 0.14927302 -0.2951963 0.23016734 0.291776 0.11056563
-0.34854254 -0.44191882 0.3409255 -0.039680675 -0.09863259 -0.06737831 0.062324833 0.045932002
0.13648345 0.16389832 0.19016196 -0.5263991 -0.19348195 0.09824648 -0.2063694 0.08041639
-0.15663998 -0.18346182 0.05664805 -0.69022393 -0.57471216 0.13428976 -0.19334766 0.16135062
-0.0838601 0.016437737 0.030048927 -0.28167048 -0.054887004 1.4197226 -1.1737698 -0.17912559
0.094834 0.13773946 -0.12917024 -0.041121196 0.27995792 0.106153004 0.7156381 -0.09115335
-0.18509696 -0.24280237 0.34392336 -0.07802732 0.16807528 -0.02166593 -0.08747929 0.20269392
1.401597 -0.091844 -0.0069430335 0.25007328 0.06082148 0.0022382205 -0.4238731 -0.06800394
0.1133812 0.12602435 0.42617035 -0.04159571 0.27373254 -0.26750946 -0.2573604 0.03071658
0.21176308 0.06050029 -0.98551154 0.04474539 0.1995437 0.096068054 0.091950335 0.2730128
0.37555194 0.31816393 -0.10615745 -1.2454076 -0.121109046 0.066801585 -0.20488818 0.015057379
-0.019716298 -0.1893877 -0.027622024 0.06235198 -0.074099794 1.4579378 -0.048990473 0.00311696
-0.051739246 -0.020248905 -0.39459524 -0.18021894 -0.8661497 -0.021719528 0.043151326 0.0019076917
-0.192418 0.20436715 0.2325904 0.056462444 -0.4044948 0.21019931 0.80521053 -0.039037123
-0.21439858 -0.12708767 -0.16649203 0.05446212 0.2812397 0.4673283 -0.19579093 0.039138053
0.11044838 0.015176762 -0.2468201 0.33385563 -0.051904686 -0.05932277 -0.26405528 -0.26039875
-1.1074308 0.03577198 -0.30119988 -0.17602898 -0.012213856 -0.25243562 0.034172006 -0.04207548
-0.30230618 0.3634443 0.75460666 -0.124487884 0.08293034 0.082310885 0.2853346 -0.30909798
0.3690451 -0.5819709 -0.071651466 0.08042853 0.18081944 -0.078518465 -0.013452775 -0.023368122
0.044128943 0.03343466 0.2788528 0.6577739 -0.25517115 0.35654938 0.16568796 0.3662173
0.1266416 -0.21680251 -0.2018112 0.52933973 0.4595652 0.14757271 -0.13755526 -0.05017157
0.024296775 -0.119231455 -0.19936106 0.026849076 0.6424028 1.0856931 -0.10660355 -0.085052975
0.28276366 -0.059326127 -0.06059059 -0.03488473 -0.34955063 -0.02976341 0.49324486 -0.11892119
-0.29532847 0.050401874 0.07041008 -0.05333082 0.09473824 0.177281 -0.6932659 -0.069990635
-0.07217488 0.30808532 0.35870704 -0.10304763 0.3928866 0.4390472 -0.21802625 -0.85798824
00000000: 4ffe e13d 8132 01be c957 b9be f7ef 2b3e
00000010: 175f 8abf b7da 883e 5a45 793c 5390 843e
00000020: 1e25 40bd 8cae eabd 9ca5 293e c8c9 823e
00000030: b959 bebd 7cda 9a3f 84b3 c5bd 331c 6abd
00000040: 2601 86bd 7b01 abbd b57a c03e 279d 12bc
00000050: 864a db3b 9c7b 18be 2fa1 dcbe 769e a33b
00000060: 12d9 2dbe 68bf 2f3d a2a6 fa3d ce56 d53d
00000070: fde3 7ebe d2b3 a23e 3b91 893e 05cf a23e
00000080: b888 933e 233b 85be 6895 31be f0e8 ccbd
00000090: 5c7c fc3d 2a46 e4bd aa48 183e d9cf a3be
000000a0: 7108 853f bdf4 febd 51f7 3c3e 6a4c 6d3c
000000b0: 0997 62be 23a2 1a3d b657 06be df21 3e3d
000000c0: 804e a0bf 383e fb3d d189 01bf 57cf aabd
000000d0: bf26 af3d 6f35 afbd 02d5 443e bb04 56bd
000000e0: da77 b83e f3af b3be a4c4 83be 07db 183e
000000f0: f823 97be fdb0 6b3e aa63 953e 3c70 e23d
00000100: 2b74 b2be 2f43 e2be ca8d ae3e 3488 22bd
00000110: e2ff c9bd a4fd 89bd 5348 7f3d 3223 3c3d
00000120: 51c2 0b3e f6d4 273e d1b9 423e 17c2 06bf
00000130: 2220 46be 7335 c93d 8052 53be 59b1 a43d
00000140: 3b66 20be 6add 3bbe c907 683d 84b2 30bf
00000150: 5620 13bf 4183 093e eefc 45be 1939 253e
00000160: d8be abbd 6fa8 863c 2b29 f63c 1d37 90be
00000170: 32d1 60bd 78b9 b53f 173e 96bf b36c 37be
00000180: 5438 c23d 930b 0d3e 3445 04be b36e 28bd
00000190: a556 8f3e bf66 d93d 0f34 373f 9cae babd
000001a0: 0f8a 3dbe 2fa1 78be b916 b03e cacc 9fbd
000001b0: ed1b 2c3e c07c b1bc 5828 b3bd ff8e 4f3e
000001c0: 8867 b33f b518 bcbd 6382 e3bb 9b09 803e
000001d0: f21f 793d 1caf 123b e505 d9be a645 8bbd
000001e0: 6734 e83d 870c 013e 0033 da3e 4360 2abd
000001f0: ac26 8c3e 00f7 88be bec4 83be 56a1 fb3c
00000200: 6cd8 583e 27cf 773d 7c4a 7cbf f146 373d
00000210: 2f55 4c3e 54bf c43d 7550 bc3d 55c8 8b3e
00000220: 5848 c03e 62e6 a23e 1469 d9bd 8469 9fbf
00000230: 0508 f8bd 45cf 883d 35ce 51be 3ab3 763c
00000240: 1384 a1bc d9ee 41be 9547 e2bc ca64 7f3d
00000250: a2c1 97bd b59d ba3f 3caa 48bd e945 4c3b
00000260: 88ec 53bd 08e1 a5bc 6308 cabe 508b 38be
00000270: fdbb 5dbf 27ed b1bc 72bf 303d 830b fa3a
00000280: 3909 45be 9f45 513e 2e2c 6e3e 2a45 673d
00000290: f119 cfbe 7d3e 573e 4722 4e3f 64e5 1fbd
000002a0: 4d8b 5bbe 4523 02be e37c 2abe ac13 5f3d
000002b0: a6fe 8f3e a845 ef3e 6b7d 48be 394f 203d
000002c0: c332 e23d f4a7 783c 69be 7cbe 20ef aa3e
000002d0: 029a 54bd 6ffc 72bd 4132 87be fc52 85be
000002e0: 4bc0 8dbf a485 123d df36 9abe f140 34be
000002f0: a01c 48bc 3e3f 81be f2f7 0b3d 5757 2cbd
00000300: e0c7 9abe 5f15 ba3e e72d 413f 81f3 febd
00000310: 62d7 a93d 9c92 a83d 6017 923e 1742 9ebe
00000320: 7bf3 bc3e 0bfc 14bf 01be 92bd b7b7 a43d
00000330: bb28 393e 4ace a0bd 0769 5cbc 816e bfbc
00000340: 8dc0 343d c8f2 083d cbc5 8e3e df63 283f
00000350: cba5 82be a48d b63e 1baa 293e d580 bb3e
00000360: 56ae 013e 7a01 5ebe 98a7 4ebe cf82 073f
00000370: 214c eb3e 4d1d 173e 49db 0cbe b480 4dbd
00000380: 080a c73c 9f2f f4bd 4e25 4cbe 98f2 db3c
00000390: 8374 243f fef7 8a3f f652 dabd 4130 aebd
000003a0: 66c6 903e f4ff 72bd d72d 78bd 4ae3 0ebd
000003b0: 4df8 b2be 65d2 f3bc 978a fc3e f48c f3bd
000003c0: 4b35 97be 3272 4e3d 2933 903d 6b71 5abd
000003d0: 1f06 c23d 2789 353e e079 31bf 4057 8fbd
000003e0: 6cd0 93bd 5cbd 9d3e 73a8 b73e a30a d3bd
000003f0: 6f28 c93e cbca e03e 4642 5fbe 1ea5 5bbf

0.bias f4 [32]
-8.803432e-05 0.09809601 0.012196128 0.036129076 0.24276376 0.37358472 0.045965154 0.015803229
0.027869929 0.11111867 -0.58847207 0.09724048 0.39590538 0.026011491 0.044303115 -0.098200716
0.5588181 0.10300416 -0.010345036 0.54864514 -0.018836927 0.5721517 0.44452447 0.10617118
-0.20612366 -0.19259484 0.15988953 0.02280284 0.18259561 0.07120498 -0.11177171 -0.19446655
00000000: 119f b8b8 90e6 c83d 45d2 473c 15fc 133d
00000010: 1097 783e 7f46 bf3e f545 3c3d c675 813c
00000020: 7a4f e43c 2f92 e33d 1ba6 16bf 0426 c73d
00000030: 1cb4 ca3e 0d16 d53c 2f77 353d 751d c9bd
00000040: b40e 0f3f d8f3 d23d 3a7e 29bc 0274 0c3f
00000050: e64f 9abc 8978 123f b698 e33e 4770 d93d
00000060: 1512 53be 9537 45be 15ba 233e 06cd ba3c
00000070: 58fa 3a3e ebd3 913d 91e8 e4bd 3d22 47be

2.weight f4 [64, 32]
0.041670904 0.30969143 -0.0127595635 -0.1274318 0.13533534 -0.13839878 -0.08738238 -0.054060668
-0.09916342 -0.1945677 0.08213207 0.24119689 0.035453837 -0.21362945 0.069503985 0.011683404
0.09417966 -0.10990792 0.062923074 0.03600302 -0.085685864 -0.05236498 -0.061411522 0.12808642
-0.034468938 -0.053070996 0.044530272 -0.18659042 -0.095411636 -0.09575348 0.12714407 -0.04076129
-0.37626472 0.051516615 -0.0046599475 0.18377113 0.23089479 0.11580842 -0.10979159 0.13138257
-0.051323697 -0.46806306 0.18553516 0.064786956 0.0866408 0.027738638 -0.2933661 -0.28588626
-0.25525096 -0.006659727 -0.0728435 0.19328201 0.01700765 -0.31149593 0.0040215817 0.16707939
0.13110556 0.28514966 0.10764204 0.092864715 0.38538474 -0.08209255 0.011514485 0.07963806
-0.20699023 -0.16458403 0.123169705 0.14011386 -0.19517936 -0.16011597 -0.07774393 0.15549329
-0.060766257 0.008406924 0.50786835 -0.13328993 0.32186806 -0.08954503 0.15673101 -0.050357793
-0.04496027 0.013915503 0.1147068 -0.36310276 0.20664063 0.111665085 -0.11267104 0.098946735
0.27316058 -0.063717276 0.031376794 0.22257915 -0.116904855 0.0076348754 0.17242107 0.19592008
-0.10627626 0.05188997 0.13370407 -0.0629423 -0.20900974 0.17807588 0.1337544 -0.05480514
0.2387971 0.16053073 -0.0013868462 -0.24679416 0.059918746 0.14120294 0.11982795 -0.30095518
-0.11912642 0.2579224 -0.07084225 -0.047735788 0.043973602 -0.3568648 0.22979559 -0.001679679
-0.08834547 0.17384714 -0.18763657 0.04207005 -0.08277018 0.0074425116 -0.20932633 -0.14530271
0.22908638 0.078540176 0.13478456 -0.11407204 0.14677423 -0.29720122 0.2548553 0.15347321
-0.14547753 0.12749593 0.019223474 -0.24605154 -0.12365775 -0.016677208 0.14788549 0.0020383291
0.36515892 0.07198376 -0.31820717 -0.13793151 0.30923924 -0.19106098 -0.05666251 -0.07003415
-0.14211461 -0.070629776 -0.024172965 0.09362192 -0.06421396 -0.04537779 0.35623118 -0.40041012
0.17980683 0.20110293 -0.059597194 0.098288395 0.24959026 -0.27550575 -0.11072515 -0.13659184
0.064171866 -0.037971437 0.0040654317 0.22275463 0.0888147 0.019416286 0.1136147 0.30980518
0.11969672 0.058053054 0.05173543 -0.0112091545 -0.18553519 -0.043305792 -0.47422674 0.22933927
-0.026565183 -0.06448905 -0.24341133 -0.17319088 0.04678124 0.16768633 -0.09621456 0.088723615
0.36359584 -0.023650683 0.22879285 -0.07642042 -0.17404585 -0.211286 -0.20337236 0.04442068
-0.053262316 -0.042844485 0.16180505 -0.14630413 -0.56274 -0.17130746 0.19127235 0.46984914
-0.12043086 -0.027948633 -0.062061004 -0.020581793 0.1858469 0.04552175 0.024879247 -0.2906365
0.11548332 -0.026611852 -0.18202938 -0.04915743 -0.08577331 -0.03652635 0.061931927 0.0328696
0.09615526 0.03017044 0.0132849505 0.21850845 -0.08864627 -0.23420264 0.15374394 -0.00507817
0.052427676 -0.18555492 0.0014945896 -0.21495779 0.5129448 0.057218295 -0.09867446 -0.17699185
0.5914525 -0.043532353 0.0009212601 0.17824018 -0.11268795 -0.07950564 -0.07843046 0.0864327
0.04620356 -0.25081962 0.049311697 -0.15505272 -0.012366233 -0.07935351 -0.14322121 -0.13673091
00000000: 1caf 2a3d e08f 9e3e 7d0d 51bc 7b7d 02be
00000010: 5995 0a3e 69b8 0dbe 89f5 b2bd b86e 5dbd
00000020: 3116 cbbd c13c 47be dc34 a83d 51fc 763e
00000030: 0b38 113d aec1 5abe 1b58 8e3d c06b 3f3c
00000040: 44e1 c03d 6717 e1bd d0dd 803d e777 133d
00000050: 127c afbd a97c 56bd a68a 7bbd 1629 033e
00000060: 4d2f 0dbd f960 59bd 6065 363d 8f11 3fbe
00000070: 2d67 c3bd 671a c4bd 0e32 023e 4ff5 26bd
00000080: c5a5 c0be 1603 533d 79b2 98bb 802e 3c3e
00000090: af6f 6c3e f72c ed3d 6ada e0bd 2789 063e
000000a0: cc38 52bd f6a5 efbe eefc 3d3e 06af 843d
000000b0: bb70 b13d 243c e33c 1534 96be af5f 92be
000000c0: 41b0 82be d739 dabb f92e 95bd b8eb 453e
000000d0: a153 8b3c 657c 9fbe 79c7 833b dc16 2b3e
000000e0: 8940 063e 23ff 913e 6e73 dc3d db2f be3d
000000f0: 2651 c53e 2420 a8bd 40a7 3c3c 4719 a33d
00000100: 3ff5 53be b788 28be 6640 fc3d 027a 0f3e
00000110: 19dd 47be 71f5 23be 3638 9fbd a239 1f3e
00000120: 0ae6 78bd 32bd 093c a903 023f 287d 08be
00000130: e4cb a43e 6263 b7bd 187e 203e f943 4ebd
00000140: 4328 38bd dafd 633c 66eb ea3d 9be8 b9be
00000150: 9a99 533e aab0 e43d 13c0 e6bd 96a4 ca3d
00000160: b4db 8b3e 347e 82bd f484 003d caeb 633e
00000170: d06b efbd fa2d fa3b 268f 303e 469f 483e
00000180: 5ea7 d9bd 948a 543d b8e9 083e e5e7 80bd
00000190: a606 56be 8659 363e eaf6 083e 5b7b 60bd
000001a0: 3a87 743e 2b62 243e d6c6 b5ba 9cb7 7cbe
000001b0: 5c6d 753d 8197 103e 5b68 f53d cc16 9abe
000001c0: 8df8 f3bd 680e 843e be15 91bd 9a86 43bd
000001d0: aa1d 343d fcb6 b6be 894f 6b3e ad28 dcba
000001e0: 78ee b4bd fc04 323e cd23 40be a551 2c3d
000001f0: 6a83 a9bd 50e0 f33b a459 56be 3cca 14be
00000200: 9f95 6a3e acd9 a03d f704 0a3e 9a9e e9bd
00000210: fc4b 163e c22a 98be 657c 823e 1528 1d3e
00000220: 10f8 14be 4b8e 023e 8c7a 9d3c eff4 7bbe
00000230: 4640 fdbd a49e 88bc 4b6f 173e 7d95 053b
00000240: 1cf6 ba3e 396c 933d 0dec a2be eb3d 0dbe
00000250: 9b54 9e3e 7da5 43be f316 68bd 106e 8fbd
00000260: 7e86 11be 58a6 90bd 6206 c6bc d9bc bf3d
00000270: 9c82 83bd 10de 39bd ef63 b63e 8e02 cdbe
00000280: 481f 383e eded 4d3e 301c 74bd 6d4b c93d
00000290: 9794 7f3e 170f 8dbe dec3 e2bd bbde 0bbe
000002a0: 8a6c 833d f087 1bbd 5037 853b ca19 643e
000002b0: 7be4 b53d e70e 9f3c d3ae e83d c99e 9e3e
000002c0: 8e23 f53d 0ac9 6d3d 88e8 533d 9aa6 37bc
000002d0: f0fc 3dbe 6a61 31bd d9cd f2be ead7 6a3e
000002e0: 3a9f d9bc d612 84bd d240 79be f358 31be
000002f0: af9d 3f3d f7b5 2b3e 240c c5bd bab4 b53d
00000300: 3c29 ba3e 14bf c1bc ac48 6a3e 4f82 9cbd
00000310: 1339 32be 5b5b 58be d840 50be 75f2 353d
00000320: 9629 5abd b37d 2fbd 39b0 253e c0d0 15be
00000330: bb0f 10bf 396b 2fbe e6dc 433e 1190 f03e
00000340: 74a4 f6bd 88f4 e4bc ae33 7ebd 269b a8bc
00000350: a64e 3e3e 0475 3a3d 90cf cb3c 4fce 94be
00000360: 8582 ec3d 1901 dabc e965 3abe 4d59 49bd
00000370: eba9 afbd a79c 15bd 55ac 7d3d 46a2 063d
00000380: 0ded c43d 0028 f73c 1fa9 593c aec0 5f3e
00000390: 2d8c b5bd d1d2 6fbe 0d6f 1d3e c766 a6bb
000003a0: 67be 563d 1c02 3ebe 1be6 c33a e51d 5cbe
000003b0: 5a50 033f bb5d 6a3d d615 cabd 5a3d 35be
000003c0: 6e69 173f fb4e 32bd b880 713a 9884 363e
000003d0: f1c8 e6bd dad3 a2bd 26a0 a0bd a103 b13d
000003e0: f23f 3d3d 6e6b 80be 10fb 493d 24c6 1ebe
000003f0: be9b 4abc 1884 a2bd 95a8 12be 3003 0cbe

2.bias f4 [64]
0.09380876 -0.07746106 -0.30828315 0.16676095 0.05285711 -0.09548741 -0.6205123 0.07255163
-0.060335215 0.06979639 0.0106979655 0.19134477 -0.35340562 -0.18458872 -0.22474521 -0.49435508
0.42062393 -0.36428645 0.10534842 -0.47445062 0.40895748 0.05491316 -0.3009413 0.058283664
-0.31096825 -0.5747127 0.09406673 0.23008038 0.27214482 -0.22092052 -0.6387411 -0.18222535
0.0050515556 0.19648406 0.5013392 0.15085693 -0.06688116 -0.44413435 0.2091196 0.28074044
-0.23258874 -0.22531682 0.046879712 0.25135237 -0.17450345 0.28212506 0.21366511 -0.18277948
-0.1348792 0.1944073 0.16227727 0.33910584 0.058594342 0.4033486 -0.037657805 0.25904542
0.06976714 0.24143441 -0.44234827 0.041904 -0.1385409 0.31110397 -0.34188455 -0.14860687
00000000: cf1e c03d e7a3 9ebd 4ad7 9dbe 62c3 2a3e
00000010: b280 583d e78e c3bd e5d9 1ebf f395 943d
00000020: 0f22 77bd 69f1 8e3d 8546 2f3c e2ef 433e
00000030: 95f1 b4be d304 3dbe 9c23 66be 1c1c fdbe
00000040: 055c d73e c183 babe eac0 d73d 31eb f2be
00000050: e062 d13e 9fec 603d fa14 9abe daba 6e3d
00000060: 3b37 9fbe 5f20 13bf 0fa6 c03d 319a 6b3e
00000070: 9156 8b3e fd38 62be 8984 23bf 4899 3abe
00000080: 8587 a53b 1e33 493e c457 003f 3d7a 1a3e
00000090: fdf8 88bd 9465 e3be 7323 563e 36bd 8f3e
000000a0: be2b 6ebe 74b9 66be f104 403d 42b1 803e
000000b0: 08b1 32be b272 903e 07cb 5a3e 8b2a 3bbe
000000c0: c61d 0abe b512 473e 032c 263e 489f ad3e
000000d0: 9f00 703d b583 ce3e 123f 1abd 9aa1 843e
000000e0: 13e2 8e3d 953a 773e 797b e2be 87a3 2b3d
000000f0: aadd 0dbe 0549 9f3e 7e0b afbe 662c 18be

4.weight f4 [128, 64]
0.11508596 -0.10229666 -0.08299409 0.059167188 0.048791487 0.14988959 0.06726439 -0.027165
0.038412225 -0.10950274 0.03894331 0.011995322 -0.09487735 0.053867362 -0.03524129 -0.007912097
-0.05024899 -0.18839584 -0.06402592 0.030113524 0.086596824 0.1180711 -0.030138252 0.052358296
-0.049007677 0.04325362 -0.16999432 -0.0040083104 -0.034455035 -0.13223873 0.046446364 -0.02442941
0.14335102 0.12391952 -0.04781108 -0.06815913 0.046448536 -0.06959194 0.14781047 0.06707172
0.006418651 -0.23442955 0.0712056 -0.06679646 -0.06466872 -0.11384647 0.04228094 -0.0358534
0.0122005595 0.034255598 0.06670661 0.06691563 -0.076216705 0.15223454 0.0536655 -0.109869115
0.08613952 0.21997999 -0.0147962775 0.053462703 0.09481791 -0.18517469 -0.09125802 -0.18643002
-1.6295532e-08 -4.076386e-08 -2.7840376e-06 -1.2082433e-09 -7.167959e-07 -2.0265224e-10 2.7557439e-08 -4.97791e-13
-3.6449126e-13 -1.9505722e-11 -4.6443024e-08 -8.1221184e-13 -1.746095e-10 -4.529392e-10 -8.626997e-23 -1.8373883e-10
-3.1378633e-08 -2.1214417e-07 3.5952415e-11 5.4151928e-14 -5.2428706e-10 7.663555e-19 -1.7394599e-07 -3.1475458e-11
-8.3080427e-16 -6.4836945e-07 -7.0664456e-08 4.9064082e-37 5.656949e-07 -6.990761e-11 -3.1436579e-12 2.2857508e-14
1.0480765e-08 -8.1295344e-13 -1.563708e-10 -2.221631e-10 -1.3120177e-08 -2.1136292e-07 7.8731263e-19 1.5162506e-09
-1.1451433e-10 -2.1859735e-06 -5.0561914e-07 -5.488095e-09 8.348665e-22 3.794571e-08 -4.0217166e-12 -2.030264e-05
-4.848e-42 -3.1004005e-35 2.6294664e-23 -3.880815e-15 -1.7671782e-07 8.075195e-18 -1.575592e-13 -3.3632745e-07
-1.2492757e-08 5.1564795e-28 7.4584996e-08 -8.549817e-08 -1.3194832e-09 -1.3377901e-14 -2.028392e-08 -1.1526443e-11
-0.003940288 0.13559256 -0.08890413 -0.020689525 0.0014872401 0.05311807 -0.10488639 0.16149987
-0.13181534 -0.10420001 0.107582875 0.048812047 0.05641467 -0.012725384 -0.10284782 0.0379749
0.07012365 0.030610967 -0.1451009 -0.13523246 -0.15144326 -0.050783124 -0.08448804 0.0012043174
-0.064819396 -0.0897871 -0.010126223 -0.03182217 0.079476565 0.035143234 -0.2180265 0.045143355
-0.09173565 -0.07473903 -0.039867133 -0.1467823 -0.055625286 -0.040429935 0.07736993 0.19339995
-0.030855305 -0.003410992 -0.0605961 -0.15822186 0.16334458 0.045874532 -0.0021992193 -0.04649368
-0.119587585 -0.082835175 0.043780062 0.07368224 0.036607713 0.1941676 -0.13486332 -0.12061425
-0.267301 -0.08897537 -0.01966029 -0.027381537 0.10015886 -0.09883507 0.056267347 -0.1458139
0.068831444 -0.04686888 0.008434608 0.11983417 0.033414688 0.056649275 0.03923808 -0.08388263
-0.12800364 -0.20527138 0.16085553 -0.062653735 0.09954162 -0.10394454 0.030257719 -0.08909673
-0.13524027 -0.015674526 -0.06489861 0.10517275 0.027274085 0.06159129 -0.09484149 0.07082162
0.09607786 -0.05095558 0.17460847 0.0036507775 0.14076263 0.07396711 0.0734846 -0.06254529
-0.09455376 -0.009677789 0.12481517 0.07281472 0.21714875 0.0045840642 0.03365149 0.010583039
0.078642316 -0.13189471 0.063768476 0.11936858 0.071277045 -0.10852483 -0.2079813 -0.11256546
-0.0059412415 0.055423714 0.04886193 0.07670523 0.07980985 -0.025225524 -0.041550625 -0.09991109
-0.0650674 -0.05486829 -0.061817877 0.1599963 -0.1312875 -0.0020144903 -0.15241404 0.026613386
00000000: 30b2 eb3d e980 d1bd cef8 a9bd 4b59 723d
00000010: 95d9 473d a87c 193e eac1 893d 2289 debc
00000020: 2356 1d3d f942 e0bd 0583 1f3d 0788 443c
00000030: 0e4f c2bd 06a4 5c3d 2c59 10bd bda1 01bc
00000040: e3d1 4dbd d7ea 40be 0620 83bd a3b0 f63c
00000050: ad59 b13d 43cf f13d 7fe4 f6bc a775 563d
00000060: 46bc 48bd b52a 313d fe12 2ebe 2558 83bb
00000070: b920 0dbd 9769 07be 8b3e 3e3d 3020 c8bc
00000080: 9cca 123e 84c9 fd3d 8dd5 43bd 0497 8bbd
00000090: d240 3e3d 3886 8ebd a15b 173e e65c 893d
000000a0: 8c53 d23b 4d0e 70be 3ed4 913d 95cc 88bd
000000b0: 0971 84bd 5728 e9bd c72e 2d3d 04db 12bd
000000c0: dbe4 473c 994f 0c3d 7a9d 883d 100b 893d
000000d0: 8117 9cbd 5fe3 1b3e 5bd0 5b3d 0f03 e1bd
000000e0: eb69 b03d 6f42 613e 166c 72bc b5fb 5a3d
000000f0: e42f c23d 6f9e 3dbe 7ce5 babd 83e7 3ebe
00000100: 41fa 8bb2 5714 2fb3 67d5 3ab6 480f a6b0
00000110: d769 40b5 89d1 5eaf 73b7 ec32 9f1d 0cab
00000120: ba30 cdaa fb92 abad a578 47b3 089e 64ab
00000130: 34fc 3faf 8601 f9af 8696 d09a e205 4aaf
00000140: 2cc5 06b3 bfc9 63b4 d21e 1e2e ece0 7329
00000150: 6c1d 10b0 2f30 6221 e9c5 3ab4 376e 0aae
00000160: 8976 6fa6 9c0b 2eb5 32c0 97b3 d8f4 2603
00000170: 42da 1735 7cba 99ae 1b37 5dac d3e1 cd28
00000180: e40e 3432 78d3 64ab 78ee 2baf 5a45 74af
00000190: 2667 61b2 fff2 62b4 a95f 6821 5364 d030
000001a0: d6d1 fbae bdb2 12b6 e2b9 07b5 cb91 bcb1
000001b0: ab52 7c1c c0f9 2233 6780 8dac 964f aab7
000001c0: 840d 0080 77d8 2486 6f4e fe19 33d2 8ba7
000001d0: d3bf 3db4 08f6 1423 5965 31aa 7e90 b4b4
000001e0: ba9f 56b2 556a 2312 892b a033 1e9b b7b3
000001f0: 3059 b5b0 aefe 70a8 d03c aeb2 7cc6 4aad
00000200: 881d 81bb c7d8 0a3e 5e13 b6bd 147d a9bc
00000210: 7fef c23a 5592 593d adce d6bd 3960 253e
00000220: 9afa 06be d166 d5bd 6954 dc3d 24ef 473d
00000230: 1213 673d 217e 50bc e1a1 d2bd 928b 1b3d
00000240: fd9c 8f3d dac3 fa3c 5595 14be 617a 0abe
00000250: f113 1bbe f701 50bd 1108 adbd 30da 9d3a
00000260: 08c0 84bd 4de2 b7bd 75e8 25bc f757 02bd
00000270: 9cc4 a23d 5af2 0f3d 5742 5fbe 3de8 383d
00000280: e7df bbbd c710 99bd b84b 23bd 194e 16be
00000290: 57d7 63bd dc99 25bd 2074 9e3d a30a 463e
000002a0: 44c4 fcbc f38a 5fbb 9e33 78bd e904 22be
000002b0: cd43 273e efe6 3b3d c720 10bb 2870 3ebd
000002c0: 56ea f4bd 7da5 a9bd b952 333d b7e6 963d
000002d0: f8f1 153d dfd3 463e 9c19 0abe 9b04 f7bd
000002e0: addb 88be b838 b6bd 9e0e a1bc 3f4f e0bc
000002f0: 1720 cd3d 0b6a cabd 9778 663d 3d50 15be
00000300: 80f7 8c3d 95f9 3fbd 4f31 0a3c 9e6b f53d
00000310: d7dd 083d 1209 683d 1cb8 203d a8ca abbd
00000320: 6313 03be a932 52be 50b7 243e 9a50 80bd
00000330: 7adc cb3d e0e0 d4bd 09df f73c 5978 b6bd
00000340: 6d7c 0abe dd67 80bc 90e9 84bd d064 d73d
00000350: e76d df3c 2647 7c3d 413c c2bd ed0a 913d
00000360: 78c4 c43d ccb6 50bd 90cc 323e e241 6f3b
00000370: 1424 103e 117c 973d 187f 963d bf17 80bd
00000380: 67a5 c1bd 978f 1ebc 199f ff3d e21f 953d
00000390: 3e5c 5e3e eb35 963b 25d6 093d 7c64 2d3c
000003a0: 390f a13d 680f 07be 0c99 823d 8477 f43d
000003b0: b3f9 913d 4442 debd 0df9 54be b888 e6bd
000003c0: bfae c2bb fa03 633d 7223 483d a217 9d3d
000003d0: 5973 a33d c2a5 cebc fd30 2abd 309e ccbd
000003e0: 0f42 85bd 92bd 60bd be34 7dbd 12d6 233e
000003f0: 3b70 06be 8a05 04bb 6d12 1cbe 5104 da3c

4.bias f4 [128]
0.010197604 -1.711843e-05 0.1571349 0.056125477 0.013718967 -0.13801973 -0.017294517 -0.2862249
-0.056001756 -0.10543099 -0.044366248 0.024429962 -0.13383529 0.09423416 -0.019833783 -0.0050669354
0.17950246 0.12524587 -0.1151377 -0.0271825 -0.005332224 -0.12677369 -0.15752354 -0.042943697
-0.15875465 -0.064894296 -3.8245573e-05 0.13490176 0.023129424 0.072420165 0.32067904 -0.08836113
0.2042377 -0.08447873 -0.016343454 -0.1246075 -0.43740845 -0.14776213 -0.16662583 -0.33484697
-0.1852952 0.050150312 -0.08378568 -0.02978169 0.27759644 0.038146317 -0.06094588 0.10749619
0.20979795 -0.04922819 0.046075933 0.18884669 -0.057160046 0.23430438 -0.42585382 0.20256445
-0.21560727 -0.0912741 0.027074216 -0.22856306 0.037813503 -0.23540421 -0.15241532 -0.16176918
-0.38872582 -0.10658146 0.015427493 -0.054920286 0.011527889 0.07194291 0.0818281 0.036594026
-2.1405923e-07 -0.21648882 0.07418576 -0.08288453 -0.0054042065 0.08692956 -0.17084187 -0.21611989
-0.12132252 0.24131808 0.024502708 0.056783885 -0.18407694 0.14745031 -0.17154868 0.27699617
0.25115928 -0.0005096803 0.047476918 -0.12409239 0.16099784 0.2149617 -0.041571997 -0.099245824
-0.005109479 -0.25682747 -0.12214839 0.068094134 0.21226312 -0.07743316 0.053199176 0.12804747
-0.30381435 -0.004024806 -0.00014800631 -0.1824539 0.048735563 -0.06344702 -0.20873477 -0.25113165
-0.06922712 -0.06465642 0.003872255 -0.10179049 0.06627345 0.041608196 0.019740632 0.011016579
0.05625496 -0.025477298 0.10334801 -0.013667191 0.061079554 0.049921278 0.115032606 -0.24828269
00000000: da13 273c 8c99 8fb7 f9e7 203e d4e3 653d
00000010: 85c5 603c 0b55 0dbe 3bad 8dbc 128c 92be
00000020: 1962 65bd 34ec d7bd 62b9 35bd 5821 c83c
00000030: 1e0c 09be d7fd c03d 757a a2bc 8908 a6bb
00000040: 7ecf 373e 7440 003e 51cd ebbd d6ad debc
00000050: f0b9 aebb f6d0 01be da4d 21be bbe5 2fbd
00000060: 9490 22be 4de7 84bd df69 20b8 b023 0a3e
00000070: eb79 bd3c 0651 943d 0b30 a43e aef6 b4bd
00000080: b023 513e 2f03 adbd b5e2 85bc 3832 ffbd
00000090: 00f4 dfbe f54e 17be f69f 2abe 1071 abbe
000000a0: 06be 3dbe 6a6a 4d3d d497 abbd bbf8 f3bc
000000b0: 1f21 8e3e 503f 1c3d 63a2 79bd f626 dc3d
000000c0: 46d5 563e 80a3 49bd 1eba 3c3d 0761 413e
000000d0: a720 6abd 7ded 6f3e 8309 dabe 0e6d 4f3e
000000e0: 27c8 5cbe eaed babd bfca dd3c 6f0c 6abe
000000f0: 55e2 1a3d cd0d 71be c312 1cbe d2a6 25be
00000100: 1207 c7be 6147 dabd 98c3 7c3c 18f4 60bd
00000110: 79df 3c3c ce56 933d 7e95 a73d 9ee3 153d
00000120: 27d8 65b4 3faf 5dbe b4ee 973d 5dbf a9bd
00000130: c515 b1bb 2008 b23d 2cf1 2ebe 884e 5dbe
00000140: f177 f8bd 161c 773e e7b9 c83c 3896 683d
00000150: aa7e 3cbe 37fd 163e 75aa 2fbe 71d2 8d3e
00000160: f397 803e 119c 05ba 2877 423d 2724 febd
00000170: 9edc 243e eb1e 5c3e 6647 2abd 6541 cbbd
00000180: 6b6d a7bb e47e 83be ef28 fabd f074 8b3d
00000190: 815b 593e 4795 9ebd 61e7 593d e01e 033e
000001a0: 8e8d 9bbe 85e2 83bb 2432 1bb9 32d5 3abe
000001b0: f19e 473d 83f0 81bd 91be 55be 5494 80be
000001c0: f3c6 8dbd 966a 84bd a9c5 7d3b 8877 d0bd
000001d0: 60ba 873d 5b6d 2a3d 1bb7 a13c e27e 343c
000001e0: 9a6b 663d c4b5 d0bc 1fa8 d33d 5bec 5fbc
000001f0: 8e2e 7a3d 417a 4c3d 3796 eb3d d13d 7ebe

6.weight f4 [256, 128]
0.00028113942 -2.9143e-41 7.413426e-05 -2.5621532e-05 -0.00018088598 -0.000659863 0.00035716014 0.0019194159
-0.0001623537 0.00056147523 -0.0010832815 -4.717571e-06 0.00018487118 -0.0004609451 -9.021702e-05 -1.4672e-41
-0.00039008984 -0.00024109609 1.51239055e-05 -2.6365611e-05 0.00012454749 -0.00058589113 -0.00030936618 -0.00015343614
0.0014297151 -8.35398e-05 5.9743e-41 -5.97781e-05 -0.00023424564 -0.0003885767 -0.0013520132 -0.00025027388
-0.00054239266 9.359571e-06 -3.675564e-06 0.0005855917 -0.00041428272 -3.808157e-06 -0.0001253303 -0.000715022
-0.0021684386 -0.0007060142 0.00011160478 -0.00012607033 -6.944898e-05 -0.00038859388 -0.00013230505 -0.0014481538
-0.0007260632 -0.0005584907 -5.1799885e-05 -0.00014911073 -0.0003189435 -0.0012604094 -0.001533609 -4.420974e-05
0.0010607543 -0.000104473336 0.00032200763 4.348113e-05 0.00016595321 -0.00047200354 -9.02849e-06 -0.00013994187
-0.00029592827 -0.0017778666 -1.0332111e-06 0.00079524727 -6.8174063e-06 -2.8088723e-05 6.752714e-05 -0.00015797018
-1.9136e-41 -0.00021498666 3.3454253e-06 -1.1552239e-07 4.1013e-41 -0.00028338013 -3.1989211e-06 -0.0009972616
0.0010499378 -0.0020442791 -0.00026577755 5.396695e-05 0.00041423333 -0.00038024763 0.0003351959 -0.00094959367
-0.0008073121 3.9337e-41 -0.0007653961 -0.00047573578 -0.000845063 -0.00053032336 -0.000647688 -6.451016e-05
5.4663e-41 -0.00082666124 -0.00095499284 -0.00018914888 0.002406694 -2.0653728e-05 -0.00018565755 -0.00030252407
-0.0018560557 -0.0008314642 -5.308e-41 -0.00028496896 -4.4799137e-05 -0.00016671812 -0.0005959872 0.00014060774
-1.0667571e-05 -0.0001590069 -0.00087568216 6.6950006e-06 0.00046214036 -0.00024096812 -2.2672832e-06 -0.000686061
-3.7364727e-05 -0.00057140324 -0.000101757454 -0.0011657597 -9.502846e-06 -0.00038837935 1.5225033e-05 7.927982e-05
-3.949e-42 3.0555e-41 2.866e-42 -1.1664e-41 -4.057e-42 3.566e-42 5.382e-42 1.997e-42
-2.44e-43 1.977e-42 8.059e-42 -8.605e-42 4.89521e-33 -2.315e-42 7.758e-42 -5.982e-41
6.356e-42 -2.693e-42 4.243e-42 -9.924e-42 7.54e-42 -4.04e-43 -4.434e-42 -5.162e-42
5.62e-42 2.087e-42 -6.917e-42 7.472e-42 -5.521e-42 5.377e-42 3.18e-42 3.945e-42
-7.634e-42 -7.294e-42 1.1121e-41 2.849e-42 -9.117e-42 7.45e-42 -8.668e-42 -6.114e-42
-3.674e-42 -3.216e-42 -4.153e-42 -4.452e-42 3.293e-42 -4.97e-42 -3.649e-42 5.82e-42
6.695e-42 -4.62e-42 -5.37e-43 -6.887e-42 9.689e-42 6.063e-42 2.242e-42 -3.287e-42
2.888e-42 7.294e-42 -5.76e-42 2.95e-42 -2.438e-42 4.79e-43 1.0316e-41 7.116e-42
-4.089e-42 -2.87e-42 -1.028e-41 -6.522e-42 2.898e-42 -4.998e-42 9.579e-42 1.69e-42
-3.4119e-41 7.077e-42 8.37e-42 5.989e-42 -3.189e-41 -9.75e-43 2.683e-42 1.546e-42
4.086e-42 4.061e-42 -5.902e-42 2.64e-42 1.127e-42 4.956e-42 2.468e-42 6.971e-42
-1.689e-42 2.6876e-41 -6.673e-42 1.0332e-41 2.727e-42 -5.487e-42 1.0807e-41 7.96e-43
-2.3074e-41 1.558e-42 -5.772e-42 -4.934e-42 -2.9149238e-36 3.073e-42 -4.64e-43 -4.254e-42
2.04e-42 3.428e-42 -1.7256e-41 3.978e-42 7.291e-42 -4.619e-42 -3.244e-42 6.976e-42
-5.59e-42 -1.228e-42 3.831e-42 -9.261e-42 -1.725e-42 -4.408e-42 -3.617e-42 -6.935e-42
-2.34e-43 -6.401e-42 -2.947e-42 -2.943e-42 -3.188e-42 5.235e-42 7.468e-42 1.57e-42
00000000: e565 9339 3d51 0080 8778 9b38 d2ed d6b7
00000010: 36ac 3db9 a8fa 2cba 3941 bb39 e994 fb3a
00000020: 7d3d 2ab9 f72f 133a e5fc 8dba a04b 9eb6
00000030: fbd9 4139 01ab f1b9 e532 bdb8 e628 0080
00000040: f984 ccb9 bdce 7cb9 aebc 7d37 b82b ddb7
00000050: f698 0239 7d96 19ba 6d32 a2b9 b3e3 20b9
00000060: 4765 bb3a 1732 afb8 8aa6 0000 3fba 7ab8
00000070: d69f 75b9 e2b9 cbb9 0936 b1ba 3137 83b9
00000080: 5b2f 0eba 0d07 1d37 b5a9 76b6 6582 193a
00000090: 1634 d9b9 a48f 7fb6 196b 03b9 5070 3bba
000000a0: 5d1c 0ebb d013 39ba 5c0d ea38 bf31 04b9
000000b0: 23a5 91b8 30bc cbb9 5ebb 0ab9 facf bdba
000000c0: 4755 3eba ad67 12ba b443 59b8 9b5a 1cb9
000000d0: df37 a7b9 5234 a5ba 6103 c9ba d96d 39b8
000000e0: 0209 8b3a b218 dbb8 22d3 a839 825f 3638
000000f0: ba03 2e39 3e77 f7b9 1279 17b7 5cbd 12b9
00000100: d226 9bb9 4e07 e9ba ddac 8ab5 2478 503a
00000110: 13c1 e4b6 13a0 ebb7 5b9d 8d38 cca4 25b9
00000120: 5835 0080 0b6e 61b9 f881 6036 1b15 f8b3
00000130: 5472 0000 a392 94b9 0cad 56b6 8cb6 82ba
00000140: 119e 893a 50f9 05bb 0f58 8bb9 925a 6238
00000150: 752d d939 f95b c7b9 3bbd af39 27ee 78ba
00000160: cca1 53ba a86d 0000 dda4 48ba 2d6c f9b9
00000170: 3887 5dba 6605 0bba 9bc9 29ba a149 87b8
00000180: 6198 0000 4cb4 58ba 7c58 7aba 4456 46b9
00000190: a0b9 1d3b 8b41 adb7 12ad 42b9 189c 9eb9
000001a0: e546 f3ba 9ef6 59ba f793 0080 e367 95b9
000001b0: b5e6 3bb8 0ed1 2eb9 063c 1cba 1a70 1339
000001c0: def8 32b7 17bb 26b9 098e 65ba 9ea5 e036
000001d0: 6e4b f239 63ac 7cb9 a127 18b6 c6d8 33ba
000001e0: 12b8 1cb8 39ca 15ba 9e66 d5b8 68cc 98ba
000001f0: 6a6e 1fb7 659f cbb9 056f 7f37 0743 a638
00000200: 020b 0080 2d55 0000 fd07 0000 8420 0080
00000210: 4f0b 0080 f109 0000 010f 0000 9105 0000
00000220: ae00 0080 8305 0000 7716 0000 fd17 0080
00000230: cd56 cb09 7406 0080 a015 0000 c1a6 0080
00000240: b811 0000 8207 0080 d40b 0000 aa1b 0080
00000250: 0515 0000 2001 0080 5c0c 0080 640e 0080
00000260: ab0f 0000 d105 0000 4813 0080 d414 0000
00000270: 640f 0080 fd0e 0000 dd08 0000 ff0a 0000
00000280: 4815 0080 5514 0080 001f 0000 f107 0000
00000290: 6a19 0080 c414 0000 2a18 0080 0b11 0080
000002a0: 3e0a 0080 f708 0080 940b 0080 690c 0080
000002b0: 2e09 0000 db0d 0080 2c0a 0080 3910 0000
000002c0: aa12 0000 e10c 0080 7f01 0080 3313 0080
000002d0: 021b 0000 e710 0000 4006 0000 2a09 0080
000002e0: 0d08 0000 5514 0000 0e10 0080 3908 0000
000002f0: cc06 0080 5601 0000 c21c 0000 d613 0000
00000300: 660b 0080 0008 0080 a81c 0080 2e12 0080
00000310: 1408 0000 ef0d 0080 b41a 0000 b604 0000
00000320: 1c5f 0080 ba13 0000 5517 0000 b210 0000
00000330: e558 0080 b802 0080 7b07 0000 4f04 0000
00000340: 640b 0000 520b 0000 7410 0080 5c07 0000
00000350: 2403 0000 d10d 0000 e106 0000 6f13 0000
00000360: b504 0080 eb4a 0000 9a12 0080 cd1c 0000
00000370: 9a07 0000 4c0f 0080 201e 0000 3802 0000
00000380: 5240 0080 5804 0000 1710 0080 c10d 0080
00000390: 6bf9 7784 9108 0000 4b01 0080 dc0b 0080
000003a0: b005 0000 8e09 0000 1a30 0080 170b 0000
000003b0: 5314 0000 e00c 0080 0b09 0080 7213 0000
000003c0: 950f 0080 6c03 0080 ae0a 0000 d119 0080
000003d0: cf04 0080 4a0c 0080 150a 0080 5513 0080
000003e0: a700 0080 d811 0080 3708 0080 3408 0080
000003f0: e308 0080 980e 0000 d114 0000 6004 0000

6.bias f4 [256]
-0.0048323637 -1.6743482e-17 -0.032959506 -1.2318119e-14 -0.00051633845 -0.01407552 -0.0072932784 -4.6837086e-23
0.0130686 -1.7472486e-21 -0.0021987113 -8.2564604e-08 -0.10881254 -0.004900493 -0.09097568 -0.28463215
-0.0012401969 0.027629469 -0.004667232 -0.28657222 -0.0018437728 -4.408037e-17 -0.26276296 -4.329574e-07
-0.0016465477 -2.2243318e-31 -0.0026472467 0.004086109 -0.18994702 -0.0866195 -0.0009477132 -2.2802764e-08
-1.0565031e-13 -0.005972772 -0.008350098 -0.029319687 -0.059199538 -0.0011425671 -0.043930124 -4.3011555e-06
-0.0051747393 -0.0055424143 -0.0065742233 -0.024364527 -3.9810173e-05 -0.00023535921 -0.0022543233 -0.076229945
-0.03230293 -0.0041293874 -0.034931 -0.1514565 -6.540979e-08 -0.19373968 -2.0937969e-05 -1.3400007e-21
-0.09225466 -0.019840373 -0.0021309394 -0.10185353 -0.000491478 -0.0036164373 -8.4750684e-07 0.05665855
-0.004017392 -0.0074270535 -0.0018045909 0.048695795 -0.0006104774 -0.047350343 -0.0033229722 0.011352572
-0.0017942046 -3.674421e-05 -1.3244343e-24 -0.0998438 -0.0024625757 0.009445508 0.026886689 -0.0052883965
-2.416155e-06 -2.1974443e-05 -0.09734629 -0.055983998 -0.08056877 -0.0022778036 -0.035283055 -0.055375516
-0.088126734 -0.0003995739 -4.208782e-13 -1.83707e-05 0.014145044 -0.0025747775 -1.6658556e-14 -0.0063244463
-0.013813237 -0.0040028784 -0.024170963 -0.12884076 0.011055197 -0.0642761 -0.0056636464 0.0572975
0.031029321 -0.005859764 -0.031239925 -0.00017513672 -0.044575248 -0.060505208 -0.00483684 -0.0868421
-2.5250965e-15 -0.08376939 -2.196492e-05 0.017966269 -1.0064848e-22 -0.11983889 -3.3332539e-25 -0.091760986
-2.0662151e-10 -3.1726264e-11 -0.0033426322 -0.0053323493 -0.0044703386 -3.981803e-15 -0.102432095 -0.00023287171
-0.0037689472 -6.717425e-05 -0.22787425 -1.0006218e-05 -0.001442501 -1.9664059e-20 -0.1921361 -0.0022012314
-5.6850276e-05 -2.5366854e-30 -0.0039439998 -2.9257314e-22 -0.003120023 -1.6476204e-10 -1.125132e-05 0.038757667
-0.0006728958 -0.00020744333 -1.8280884e-20 -0.0044601187 -3.4865282e-18 -0.30325565 -0.0002186199 -0.0026559061
0.035986915 -0.13904859 0.065157205 0.10346502 -0.00036121628 -0.060692165 -0.005767274 0.020207945
-3.8091463e-19 -1.3735824e-09 -9.157009e-05 -0.03285914 -0.002423416 0.012436219 -0.006971409 -0.09303109
-0.0002136631 -1.3410765e-19 -0.07745816 -0.0037256852 0.008822277 -0.005547891 0.025639655 -1.5093768e-06
-2.585215e-11 -0.0041590477 -0.0045249043 -0.15959546 -5.236134e-12 -0.017290637 -1.6087264e-12 -0.24747248
-0.088283785 -0.05655745 -0.0416393 -0.005444318 -0.21557607 -0.26920563 -0.054382533 -0.004180467
0.014231959 -0.001349991 -1.5437976e-07 -1.4028609e-05 -0.006053039 -0.0015270405 -0.10577839 -0.18085259
-0.002819997 -0.058727156 -0.006670285 -0.004148493 -0.0043768524 -0.13425687 -0.0014360481 -0.1398079
-0.00021109475 -1.522581e-15 -0.16606574 0.025111938 -0.07767637 -3.6100556e-07 -0.005113786 -0.21814479
-0.0006620762 -3.27937e-07 -0.21751836 -0.0010377044 -2.4290537e-07 -0.2717856 -0.0018461023 -0.032469127
-0.17849979 -0.38650447 -0.00037593098 0.060573217 -0.03563995 -0.0040899655 -0.00031236137 -0.00090096786
-0.0042541856 -0.0034414567 0.016909387 -8.8395606e-14 -0.06238224 -0.05606506 -0.055361174 -0.11993898
-0.12889995 -0.043403525 0.060712356 -0.035035428 -0.0009310005 -0.096926205 -0.0086496975 -0.001959386
-0.0009739715 -0.00048311034 -0.022863742 -0.0028926164 -2.912472e-07 0.037318595 -1.9922734e-13 0.09667631
00000000: ce58 9ebb 6e6e 9aa3 8c00 07bd 4ce7 5da8
00000010: e35a 07ba 039d 66bc 74fc eebb 817d 629a
00000020: ae1d 563c b404 049d 4118 10bb 5f4e b1b3
00000030: 1cd9 debd 5194 a0bb 7551 babd 4ebb 91be
00000040: 1a8e a2ba 3257 e23c 94ef 98bb 98b9 92be
00000050: c0aa f1ba ea48 4ba4 de88 86be 3671 e8b4
00000060: f9d0 d7ba 0d5e 908c 6e7d 2dbb c4e4 853b
00000070: 7981 42be 9065 b1bd f56f 78ba cfdf c3b2
00000080: 42e7 eda9 3eb7 c3bb d9ce 08bc d72f f0bc
00000090: 377b 72bd 31c2 95ba 13f0 33bd a552 90b6
000000a0: dc90 a9bb 249d b5bb 956c d7bb 1e98 c7bc
000000b0: d9f9 26b8 c2ca 76b9 45bd 13bb 721e 9cbd
000000c0: 1450 04bd d04f 87bb cf13 0fbd 6a17 1bbe
000000d0: 6a77 8cb3 b263 46be f2a3 afb7 c47e ca9c
000000e0: 03f0 bcbd 4788 a2bc 3ba7 0bbb 9598 d0bd
000000f0: 88d6 00ba c001 6dbb 3a80 63b5 cc12 683d
00000100: 54a4 83bb a45e f3bb 0688 ecba 3e75 473d
00000110: 7208 20ba 6ff2 41bd 39c6 59bb 2300 3a3c
00000120: 842b ebba cc1d 1ab8 3ff2 cc97 e87a ccbd
00000130: 2a63 21bb 55c1 1a3c 7941 dc3c 494a adbb
00000140: 3a25 22b6 c255 b8b7 7e5d c7bd 7a4f 65bd
00000150: 3d01 a5bd 3447 15bb f784 10bd 70d1 62bd
00000160: ca7b b4bd e77d d1b9 f1ee ecaa c71a 9ab7
00000170: 9dc0 673c 99bd 28bb 040c 96a8 4d3d cfbb
00000180: ea50 62bc 942a 83bb 2f02 c6bc d5ee 03be
00000190: db20 353c 30a3 83bd 1c96 b9bb c9b0 6a3d
000001a0: 3431 fe3c 4303 c0bb dfea ffbc e8a4 37b9
000001b0: 8994 36bd 4fd4 77bd 5b7e 9ebb 45da b1bd
000001c0: cff3 35a7 498f abbd 4e41 b8b7 ff2d 933c
000001d0: 645a f39a 186e f5bd 8451 ce96 2fed bbbd
000001e0: c92e 63af 9988 0bae 1010 5bbb fdba aebb
000001f0: eb7b 92bb a775 8fa7 ebc7 d1bd 062f 74b9
00000200: 7100 77bb e7df 8cb8 de57 69be 61e0 27b7
00000210: 4d12 bdba c7b8 b99e 53bf 44be 8942 10bb
00000220: 8572 6eb8 e5cc 4d8e ab3c 81bb 80d9 b09b
00000230: 4d79 4cbb 6428 35af 0dc4 3cb7 5cc0 1e3d
00000240: 4665 30ba 2585 59b9 77a8 ac9e 3026 92bb
00000250: 54a1 80a2 5344 9bbe 553d 65b9 b60e 2ebb
00000260: 0467 133d c162 0ebe 2471 853d 78e5 d33d
00000270: a161 bdb9 5998 78bd 67fb bcbb 228b a53c
00000280: 31da e0a0 a2c8 bcb0 5109 c0b8 4e97 06bd
00000290: 2cd2 1ebb 48c1 4b3c 6b70 e4bb 1687 bebd
000002a0: c00a 60b9 8d53 1ea0 62a2 9ebd a02a 74bb
000002b0: 508b 103c 15cb b5bb 410a d23c cb95 cab5
000002c0: de65 e3ad 9f48 88bb a645 94bb fe6c 23be
000002d0: e73a b8ac 18a5 8dbc 7a68 e2ab 6d69 7dbe
000002e0: 21ce b4bd c9a8 67bd f88d 2abd 4066 b2bb
000002f0: f9bf 5cbe 52d5 89be 38c0 5ebd 4dfc 88bb
00000300: 2a2d 693c 2ef2 b0ba 96c3 25b4 6b5c 6bb7
00000310: 9258 c6bb fa26 c8ba 57a2 d8bd 6c31 39be
00000320: b3cf 38bb e38b 70bd 6892 dabb 15f0 87bb
00000330: b36b 8fbb a27a 09be c739 bcba cd29 0fbe
00000340: 5159 5db9 536d dba6 230d 2abe 8db7 cd3c
00000350: ca14 9fbd 3ad0 c1b4 8c91 a7bb 5961 5fbe
00000360: 2f8f 2dba 510f b0b4 22bd 5ebe 9503 88ba
00000370: a968 82b4 7b27 8bbe eaf8 f1ba 59fe 04bd
00000380: a6c8 36be eae3 c5be 9a18 c5b9 9f1b 783d
00000390: 32fb 11bd 1e05 86bb 6fc4 a3b9 ee2e 6cba
000003a0: b266 8bbb 108a 61bb 8e85 8a3c 990c c7a9
000003b0: 8584 7fbd 7aa4 65bd 66c2 62bd 91a2 f5bd
000003c0: 59fe 03be e5c7 31bd 85ad 783d 4f81 0fbd
000003d0: 630e 74ba 3f81 c6bd 76b7 0dbc 0b69 00bb
000003e0: 1f52 7fba f949 fdb9 be4c bbbc 0d92 3dbb
000003f0: b65c 9cb4 62db 183d 5f4f 60aa 3bfe c53d

8.weight f4 [128, 256]
2.8989e-41 2.153e-41 -1.0207125e-07 2.8382e-41 3.542e-42 1.1990624e-06 0.0003262914 7.608e-42
1.7516562e-05 1.5e-43 5.088e-42 -4.04e-43 -3.2734555e-05 -3.7877e-41 -2.1368544e-26 5.454171e-27
-0.00032157695 -0.00013289308 -8.260744e-32 -1.1457888e-26 -1.2975e-41 4.8454e-41 4.8513174e-28 5.542e-42
-3.207412e-22 1.803e-42 -5.214e-41 -2.8341523e-26 1.1044423e-09 2.6709724e-26 5.3577e-41 -4.96e-41
-2.812e-42 6.1347e-41 -5.7208e-41 -2.4872328e-26 2.0008367e-19 2.6176e-41 9.267098e-17 -1.8727e-41
-8.238e-42 -1.4148e-41 -5.0916e-41 -4.3367615e-07 5.071e-42 -5.769e-41 2.2627e-41 -2.3437166e-14
-3.0973293e-05 3.6417e-41 3.2503618e-19 9.440875e-27 5.857e-41 2.2668172e-25 -5.744e-42 2.115e-42
-9.063752e-09 3.9181926e-26 7.117e-42 -4.9596545e-17 -8.355e-42 5.7488e-41 -2.2114e-41 -1.0521043e-27
-3.2974042e-29 -4.2587e-41 5.456e-41 -3.2495615e-13 -3.817e-42 -3.75932e-05 -1.8736488e-29 -5.151583e-09
-5.4428e-41 3.2772e-41 5.4229e-41 7.208026e-21 2.8256e-41 -5.186999e-18 1.7379633e-26 4.6875e-41
-5.598e-42 2.915e-41 1.3730402e-24 -5.158551e-12 -1.3332437e-12 2.8598e-41 -3.3502383e-27 -4.410987e-13
1.0156474e-26 5.7518e-41 1.3014e-41 -4.8464e-41 -1.3461528e-11 5.6853794e-28 5.221e-41 -1.0075629e-27
3.2629996e-26 -4.251176e-34 -1.4995687e-26 8.3927276e-10 1.1284823e-09 1.8791966e-26 5.193426e-26 -1.8090904e-15
-2.8945718e-07 -1.5955e-41 -0.00025388843 -4.046e-42 -1.0495942e-15 -6.932671e-28 5.42e-41 -2.1729367e-07
3.3805e-41 5.2927285e-12 5.3699e-41 -8.9177476e-20 5.4467e-41 1.2078555e-25 -1.3705e-41 9.397039e-05
-3.0887e-41 5.7686e-41 -3.2119e-41 -4.1473257e-27 8.255029e-28 2.2694e-41 -7.2660117e-26 6.0573e-41
-5.7459e-41 5.0982e-41 -3.1028462e-06 -2.4174e-41 2.9188e-41 -5.3485e-41 1.0210135e-05 5.6447e-41
4.344e-42 2.8868e-41 1.9527e-41 8.163e-42 -1.9643e-41 -3.0309e-41 4.86e-41 3.4386005e-22
-3.9482e-41 4.6401e-41 5.5866e-41 -7.1470355e-35 6.0214e-41 -1.7626798e-26 5.4952e-41 2.7763e-41
-8.535909e-23 -4.8918392e-20 -8.715749e-14 -3.478412e-09 -1.08e-43 1.7368054e-10 5.2386e-41 -9.4010465e-27
3.8382e-41 2.6211e-41 -9.64e-43 -0.0004303596 -9.5551355e-20 2.1052596e-26 -1.7194061e-27 7.116303e-25
-5.9444e-41 -5.1348e-41 -8.597154e-11 4.6247e-41 -1.3154289e-09 1.4652973e-27 2.1421034e-19 -1.0374e-41
3.3729e-41 -4.9463e-41 -0.0002773921 -2.536801e-12 -6.1616e-41 -4.1729985e-23 3.5059e-41 6.4128495e-25
-1.4059641e-07 -2.2976545e-13 4.993858e-27 -6.1325074e-30 -1.1634144e-10 3.0094531e-27 -6.191556e-26 -4.3063e-41
4.001782e-27 -5.0061e-41 -1.2366e-41 4.9694e-41 -5.1407e-41 -5.1304e-41 -2.4343956e-11 2.5577885e-27
2.3617e-41 -1.7758216e-19 5.223454e-27 3.7142672e-27 1.9411589e-28 -6.358125e-07 4.9921e-41 -2.5673324e-26
-4.88e-41 -5.3371e-41 2.9279455e-27 -2.3359197e-16 1.4024334e-19 3.596e-42 -4.779782e-13 2.018227e-26
-1e-43 -6.0501e-41 1.1420776e-26 5.7633e-41 -1.8082e-41 5.651278e-27 -2.0511e-41 2.720072e-26
-4.0074323e-24 -4.900869e-25 -3.9936e-41 -1.4537137e-07 4.2926554e-22 7.5341535e-32 1.5333e-41 -3.238e-42
4.528e-41 -2.2747e-41 -3.262051e-27 6.0196e-41 1.3339285e-26 6.0397655e-15 -1.1137661e-25 5.623951e-07
7.349882e-23 -6.726079e-27 -1.9106217e-10 -2.188849e-25 8.890905e-29 -5.5081813e-08 7.8210376e-26 -1.3922e-41
-8.88e-43 1.2103e-41 -2.459376e-26 -2.3279495e-35 1.7342e-41 -1.3730936e-26 1.956e-41 -7.877351e-22
00000000: cf50 0000 043c 0000 4332 dbb3 1e4f 0000
00000010: e009 0000 78ef a035 1712 ab39 3515 0000
00000020: 88f0 9237 6b00 0000 2f0e 0000 2001 0080
00000030: 764c 09b8 9669 0080 b29f d394 dd0f d813
00000040: 5499 a8b9 3759 0bb9 1076 d68b 65f2 6294
00000050: 2b24 0080 1287 0000 90be 1912 730f 0000
00000060: 4ce0 c19b 0705 0000 5891 0080 2657 0c95
00000070: 1ccb 9730 9942 0415 5a95 0000 448a 0080
00000080: d707 0080 03ab 0000 799f 0080 d852 f694
00000090: 9437 6c20 f848 0000 4baf d524 3434 0080
000000a0: f716 0080 7027 0080 ef8d 0080 ffd3 e8b4
000000b0: 230e 0000 d1a0 0080 133f 0000 6d1a d3a8
000000c0: 52e9 01b8 8465 0000 14de bf20 ecfe 3a14
000000d0: 45a3 0000 274f 8c16 0310 0080 e505 0000
000000e0: ceb6 1bb2 fe04 4215 d713 0000 44b9 64a4
000000f0: 4a17 0080 41a0 0000 a53d 0080 6cb6 a692
00000100: c132 2790 b776 0080 1798 0000 1eef b6aa
00000110: a40a 0080 64ad 1db8 b402 be8f ce01 b1b1
00000120: b997 0080 5b5b 0000 2b97 0000 e027 081e
00000130: c44e 0000 d25d bfa2 9b1e ac14 ab82 0000
00000140: 9b0f 0080 4251 0000 ba77 d417 1980 b5ac
00000150: 2ba3 bbab b84f 0000 74b7 8493 0651 f8aa
00000160: 712b 4914 56a0 0000 4724 0000 1987 0080
00000170: 55d1 6cad 472d 3412 8a91 0000 9ba7 9f92
00000180: 6f93 2115 0145 0d88 9582 9494 92b2 6630
00000190: f118 9b30 4b1b ba14 3f95 8015 d45b 02a7
000001a0: b166 9bb4 7a2c 0080 541c 85b9 470b 0080
000001b0: 3143 97a6 82b4 5b92 1697 0000 3b51 69b4
000001c0: 3c5e 0000 a938 ba2c b195 0000 7a90 d29f
000001d0: d597 0000 7886 1516 3426 0080 f811 c538
000001e0: 1a56 0080 cea0 0000 8959 0080 e14a a493
000001f0: 60ce 8212 433f 0000 d2e5 b395 daa8 0000
00000200: 2ca0 0080 1e8e 0000 7e3a 50b6 6343 0080
00000210: 5d51 0000 1895 0080 324c 2b37 5a9d 0000
00000220: 1c0c 0000 7950 0000 6f36 0000 c116 0000
00000230: c236 0080 7d54 0080 7a87 0000 c4d9 cf1b
00000240: 0f6e 0080 5981 0000 bb9b 0000 3400 be86
00000250: daa7 0000 3e91 ae94 2f99 0000 644d 0000
00000260: b862 ce9a b502 679f df42 c4a9 df08 6fb1
00000270: 4d00 0080 baf6 3e2f 0892 0000 f834 3a94
00000280: fe6a 0000 1149 0000 b002 0080 e3a1 e1b9
00000290: 409d e19f ac7e d014 b339 0893 293d 5c17
000002a0: b5a5 0080 238f 0080 ad0d bdae eb80 0000
000002b0: 8aca b4b0 852f e812 1ae5 7c20 eb1c 0080
000002c0: 065e 0000 e289 0080 f06e 91b9 f282 32ac
000002d0: c3ab 0080 38cb 499a bb61 0000 d477 4617
000002e0: d9f6 16b4 b158 81aa bdd3 c513 99c3 f88e
000002f0: 69d6 ffae f66e 6e13 a64b 9995 0b78 0080
00000300: e486 9e13 8d8b 0080 7922 0080 878a 0000
00000310: 4d8f 0080 048f 0080 b721 d6ad 1da6 4a13
00000320: d641 0000 eaa6 51a0 1eec ce13 2523 9313
00000330: 3512 7611 b4ac 2ab5 298b 0000 9c41 fe94
00000340: 0988 0080 c794 0080 caf9 6713 17a8 86a5
00000350: f391 2520 060a 0000 f689 06ab 22e0 c714
00000360: 4700 0080 a7a8 0080 3736 6214 a8a0 0000
00000370: 6832 0080 c5de df13 2d39 0080 02b1 0615
00000380: b007 9b98 afac 1797 536f 0080 6117 1cb4
00000390: d0bc 011c 0a99 c30b be2a 0000 0709 0080
000003a0: 397e 0000 693f 0080 2139 8193 cda7 0000
000003b0: 1b1b 8414 019b d927 a8e0 0996 7ff7 1635
000003c0: 91b5 b11a 4639 0594 3813 52af b27b 8796
000003d0: 4669 e110 1893 6cb3 b7a3 c115 cf26 0080
000003e0: 7a02 0080 bd21 0000 9790 f394 d08c f785
000003f0: 5830 0000 0ffc 8794 8636 0000 0d14 6e9c

8.bias f4 [128]
-0.001402625 -0.0038924224 -0.0057592737 -3.820681e-06 -7.545858e-26 0.06479916 -2.4182175e-19 -0.00035105296
0.05336712 -0.00564198 -2.4411542e-05 -3.5060944e-29 -0.0026220854 0.061711453 -1.5150302e-05 -0.000146988
0.04738379 -0.00014960582 -4.4439027e-27 -4.9130534e-07 -0.00012379329 -0.0020007866 -0.005423449 -6.9454796e-16
-7.640177e-36 -6.2414115e-12 -1.4147814e-06 -7.707789e-08 0.17838913 -0.0013352407 -0.0066228556 -2.1965988e-27
0.12832536 -2.242381e-09 -4.1892395e-10 -1.9443236e-05 -0.0021748012 -5.3335544e-17 0.020296426 -8.4486135e-18
-0.0005726038 -0.0019216882 -0.0005282283 -0.0027441054 -2.0522216e-11 0.037546985 -0.0084405495 -0.0017886978
-0.0026164332 -8.834722e-32 -0.0029231862 -0.0024220732 -2.5821666e-07 0.11926522 0.11112172 -1.5839292e-07
-0.0010042128 -4.4098165e-08 -0.0066157724 -0.0009998216 -2.1328386e-05 -0.003001797 -0.0033288167 -3.127061e-05
-6.6659018e-06 -5.0389015e-05 -2.4489696e-06 -1.0932536e-06 0.18711181 -0.0037205075 -4.339457e-05 -3.9880198e-13
-0.0010810008 -5.0007267e-15 -1.2001962e-23 -0.0003435045 -1.5804316e-28 -0.053092867 -0.012493036 -2.1963412e-08
-1.690439e-27 -4.6576033e-06 -7.8591256e-08 -0.0041094706 -1.6729593e-06 -0.004922503 -1.6091551e-22 -0.0049016885
-3.2199665e-09 -0.0010755871 -2.9200487e-06 -6.916442e-27 -2.0262947e-05 -0.004755604 -4.969248e-25 -4.6802073e-18
-0.0007986756 -0.004745751 -1.3462284e-11 -1.552058e-23 -0.00018848956 -0.0007132135 0.059013367 -0.00091818394
-8.049815e-18 0.054480404 -2.4044664e-21 -9.274729e-13 -0.01061793 -0.0052806195 -0.00027006312 0.0921104
0.15923408 -4.816241e-13 -5.9778544e-19 0.35552508 -8.728595e-20 0.12238995 -2.1463513e-33 -0.0053378963
-8.518138e-08 -2.1369535e-32 -2.214159e-14 -3.178441e-05 -1.1739883e-05 -4.5926088e-27 -2.7010546e-33 -0.0102243135
00000000: 49d8 b7ba 0318 7fbb 4ab8 bcbb 6633 80b6
00000010: 8fd3 ba95 6cb5 843d 12bf 8ea0 880d b8b9
00000020: 7b97 5a3d 5ce0 b8bb 63c7 ccb7 b5c7 3190
00000030: 4bd7 2bbb 26c5 7c3d 0d2e 7eb7 ca20 1ab9
00000040: 8115 423d 82df 1cb9 870a b093 3fe2 03b5
00000050: 82ce 01b9 a11f 03bb 30b7 b1bb 9830 48a6
00000060: 157d 2285 a399 dbac 85e3 bdb5 0586 a5b3
00000070: a4ab 363e 3e03 afba 8a04 d9bb 5108 2e93
00000080: b967 033e 6218 1ab1 4e4e e6af 081a a3b7
00000090: 1c87 0ebb 7ff7 75a4 b144 a63c 73d9 1ba3
000000a0: ca1a 16ba 28e1 fbba cd78 0aba 73d6 33bb
000000b0: ec83 b4ad deca 193d 3b4a 0abc bd72 eaba
000000c0: 7778 2bbb cd5c e58b ed92 3fbb a5bb 1ebb
000000d0: 07a1 8ab4 5341 f43d c993 e33d b712 2ab4
000000e0: ca9f 83ba 7266 3db3 1fc9 d8bb 720c 83ba
000000f0: 5cea b2b7 ccb9 44bb 4728 5abb 9028 03b8
00000100: a9ab dfb6 cb58 53b8 fa58 24b6 e8bb 92b5
00000110: 3d9a 3f3e c2d3 73bb 9102 36b8 6c81 e0aa
00000120: 5eb0 8dba 902b b4a7 d626 6899 6518 b4b9
00000130: f057 4891 e877 59bd 97af 4cbc 0eaa bcb2
00000140: 2dee 0593 8248 9cb6 00c6 a8b3 bda8 86bb
00000150: 728a e0b5 f34c a1bb f088 429b 589e a0bb
00000160: 4046 5db1 b7fa 8cba 0ef6 43b6 87fe 0894
00000170: 59fa a9b7 e6d4 9bbb 70ca 1997 4fab aca2
00000180: 365e 51ba 3f82 9bbb bdd4 6cad 181b 9699
00000190: 48a5 45b9 f3f6 3aba 00b8 713d 48b2 70ba
000001a0: 2d7e 14a3 d826 5f3d 25ad 359d bc87 82ab
000001b0: d4f6 2dbc 0c09 adbb 4297 8db9 61a4 bc3d
000001c0: 420e 233e ad90 07ab 646f 30a1 6207 b63e
000001d0: 1f19 ce9f 95a7 fa3d d84f 3289 85e9 aebb
000001e0: f5ec b6b3 f8e9 dd8a 086f c7a8 4050 05b8
000001f0: 6af6 44b7 96ee b593 1465 6089 e183 27bc
