Models/checkpoint_vel_D2_1000_300.pth (torch, 353077 bytes, 16 tensors)

0.weight f4 [32, 9]
0.10842372 -0.117918886 -0.3179897 0.11859945 -1.1756369 0.23508821 0.014854944 0.27519184
-0.039994188 -0.08970052 0.14883412 0.25368124 -0.077235386 1.3233061 -0.05991752 -0.03560113
-0.0867177 -0.06383162 0.37375873 -0.018082371 -0.0019681496 -0.0939541 -0.35845363 0.029638201
-0.15588297 0.037632477 0.10620719 0.10320607 -0.21712516 0.33304095 0.22655971 0.2992918
0.2757761 -0.25061968 -0.16969793 -0.09304256 0.118370205 -0.120776884 0.1392821 -0.28735587
1.0036144 -0.1071712 0.1888264 0.008507498 -0.2057947 0.03303936 -0.10790525 0.05703788
-1.2826331 0.13672704 -0.5048962 -0.068532 0.076979004 -0.07889588 0.17618042 -0.03887767
0.36798468 -0.3265923 -0.22032265 0.13339855 -0.2696679 0.22980113 0.27287385 0.10750199
-0.35669675 -0.4223776 0.33456784 -0.030182676 -0.09912994 -0.06275825 0.06171172 0.043986395
0.13535385 0.15481423 0.182707 -0.51276296 -0.14766069 0.09711563 -0.1993206 0.0812184
-0.15876272 -0.16307147 0.05989919 -0.67376167 -0.57497495 0.1606907 -0.18998486 0.15320794
-0.06917658 0.012159024 0.027169805 -0.27344337 -0.049597364 1.4196672 -1.1966156 -0.19611788
0.088464506 0.13390307 -0.12175858 -0.040067505 0.26579595 0.1015374 0.7334876 -0.06466865
-0.15685564 -0.23125677 0.33094046 -0.08142876 0.15838037 -0.006199235 -0.077769816 0.16595727
1.4507239 -0.09188536 -0.00653031 0.2599686 0.057900313 0.0019794716 -0.40586272 -0.05456861
0.107846834 0.14578652 0.4182831 -0.0363257 0.27700618 -0.2701137 -0.25997013 0.021939598
0.21488687 0.0047560325 -0.98415387 0.044587113 0.19229363 0.099732086 0.09725399 0.25347203
0.34904307 0.2941426 -0.11950344 -1.3611412 -0.12300959 0.081385724 -0.20767224 0.0049427906
-0.01607537 -0.19753408 -0.053450827 0.051866323 -0.09504379 1.4386414 -0.043390535 -0.0036487777
-0.05625794 -0.011290802 -0.38370115 -0.15007997 -0.90031844 0.019460203 0.022345696 0.008945821
-0.17742355 0.19929554 0.23720483 0.04724869 -0.39983395 0.1304597 0.79533154 -0.057605673
-0.20517434 -0.13509172 -0.16746497 0.05232576 0.26444343 0.43198562 -0.22804034 -0.0009023335
0.11912115 0.01513168 -0.2557457 0.32114318 -0.04655423 -0.066340946 -0.23846665 -0.2735181
-1.1193355 0.034879707 -0.30237877 -0.19311392 -0.0071125575 -0.2340316 0.027800182 -0.02458218
-0.2929582 0.38194028 0.7780708 -0.11074111 0.06609025 0.07229329 0.2832 -0.32698077
0.37311155 -0.5587332 -0.05354374 0.09801879 0.17787454 -0.06479795 -0.01671181 -0.019368365
0.044138726 0.03849744 0.25367743 0.7126627 -0.24112092 0.34089604 0.1641689 0.34120867
0.13059807 -0.21506442 -0.21196435 0.4911352 0.47776186 0.13897972 -0.15102006 -0.044875264
0.025520872 -0.12214032 -0.1937733 0.016833777 0.5632206 1.1109775 -0.115809314 -0.08551835
0.28156617 -0.06555795 -0.046149243 -0.032695547 -0.32194522 -0.090148896 0.5114966 -0.10378597
-0.2634336 0.055346802 0.054889034 -0.051413823 0.1088876 0.21276695 -0.67665815 -0.10887793
-0.055028632 0.31614166 0.36011767 -0.11660969 0.39864963 0.43131346 -0.21482526 -0.842965
00000000: 410d de3d 757f f1bd 8ccf a2be 45e4 f23d
00000010: 457b 96bf f7ba 703e 2762 733c f2e5 8c3e
00000020: f2d0 23bd e8b4 b7bd f967 183e 82e2 813e
00000030: 962d 9ebd 1862 a93f 136c 75bd 7ed2 11bd
00000040: 0d99 b1bd 27ba 82bd 4e5d bf3e 7b21 94bc
00000050: 12fc 00bb 026b c0bd 3c87 b7be d0cb f23c
00000060: c99f 1fbe 8324 1a3d 2883 d93d b45d d33d
00000070: 0f56 5ebe 5884 aa3e 45ff 673e c63c 993e
00000080: 8632 8d3e 3951 80be 4bc5 2dbe 198d bebd
00000090: 146c f23d df59 f7bd f89f 0e3e 4f20 93be
000000a0: 7076 803f 937c dbbd b55b 413e 0863 0b3c
000000b0: d9bb 52be 4854 073d 6dfd dcbd 8da0 693d
000000c0: 522d a4bf 2c02 0c3e e140 01bf 815a 8cbd
000000d0: 2ba7 9d3d 2a94 a1bd a468 343e 313e 1fbd
000000e0: 7d68 bc3e 1b37 a7be 439c 61be a199 083e
000000f0: e911 8abe fd50 6b3e 1fb6 8b3e 012a dc3d
00000100: f5a0 b6be e041 d8be 7a4c ab3e a941 f7bc
00000110: a304 cbbd 6687 80bd 6ec5 7c3d 142b 343d
00000120: 339a 0a3e 9f87 1e3e 8b17 3b3e 6f44 03bf
00000130: 5d34 17be 8fe4 c63d b31a 4cbe d555 a63d
00000140: b292 22be 35fc 26be da58 753d a57b 2cbf
00000150: 8f31 13bf 1a8c 243e 648b 42be 8be2 1c3e
00000160: 73ac 8dbd a536 473c 3693 de3c c500 8cbe
00000170: 9b26 4bbd a8b7 b53f b32a 99bf 20d3 48be
00000180: e12c b53d e31d 093e 905c f9bd d31d 24bd
00000190: 6816 883e d7f2 cf3d d8c5 3b3f ff70 84bd
000001a0: c49e 20be 93ce 6cbe 0771 a93e 1fc4 a6bd
000001b0: 772e 223e f422 cbbb c845 9fbd b4f0 293e
000001c0: 52b1 b93f 642e bcbd 36fc d5bb 9b1a 853e
000001d0: e128 6d3d 06ba 013b 3dcd cfbe 5683 5fbd
000001e0: cdde dc3d 1049 153e 3429 d63e 42ca 14bd
000001f0: c1d3 8d3e 584c 8abe ce1a 85be acba b33c
00000200: 4e0b 5c3e 7ed8 9b3b 82f1 7bbf faa0 363d
00000210: 9fe8 443e 5640 cc3d 1a2d c73d 16c7 813e
00000220: c6b5 b23e dc99 963e 38be f4bd e039 aebf
00000230: 74ec fbbd 8fad a63d 08a8 54be 22f7 a13b
00000240: 7fb0 83bc 6046 4abe 41ef 5abd c871 543d
00000250: 52a6 c2bd 6725 b83f 46ba 31bd 5520 6fbb
00000260: ba6e 66bd 0efd 38bc 7a74 c4be 90ae 19be
00000270: 457b 66bf 016b 9f3c 520e b73c 7e91 123c
00000280: 85ae 35be 2114 4c3e d3e5 723e d887 413d
00000290: 09b7 ccbe 3a97 053e d99a 4b3f edf3 6bbd
000002a0: 3919 52be 7c55 0abe f07b 2bbe 8953 563d
000002b0: 2165 873e 382d dd3e 6883 69be 938a 6cba
000002c0: caf5 f33d deea 773c 1af1 82be e16c a43e
000002d0: a6af 3ebd c3dd 87bd 9a30 74be 900a 8cbe
000002e0: 6346 8fbf 06de 0e3d 64d1 9abe a8bf 45be
000002f0: 7510 e9bb fba5 6fbe 35bd e33c 9160 c9bc
00000300: 9efe 95be ad8d c33e a62f 473f 3ccc e2bd
00000310: 535a 873d 810e 943d 97ff 903e 066a a7be
00000320: 7a08 bf3e 2409 0fbf ae50 5bbd 13be c83d
00000330: be24 363e cab4 84bd 35e7 88bc 68aa 9ebc
00000340: cfca 343d 7eaf 1d3d 02e2 813e 1071 363f
00000350: 67e8 76be ed89 ae3e e41b 283e e7b2 ae3e
00000360: 80bb 053e d939 5cbe 2f0d 59be 1376 fb3e
00000370: 349d f43e b350 0e3e 01a5 1abe 20cf 37bd
00000380: 2611 d13c b424 fabd 826c 46be fde6 893c
00000390: 3a2f 103f 8334 8e3f 6f2d edbd 3f24 afbd
000003a0: 7129 903e 3f43 86bd fd06 3dbd c4eb 05bd
000003b0: 01d6 a4be fc9f b8bd 71f1 023f bd8d d4bd
000003c0: c5e0 86be 54b3 623d 53d3 603d 4d97 52bd
000003d0: 7600 df3d 94df 593e 7839 2dbf 64fb debd
000003e0: b465 61bd 52dd a13e 5861 b83e 10d1 eebd
000003f0: ce1b cc3e 1ed5 dc3e 27fb 5bbe 8ecc 57bf

0.bias f4 [32]
-0.053477403 0.03350923 0.018903283 0.039471135 0.22626531 0.3772031 0.046459123 0.01423811
0.052849073 0.13362424 -0.5795322 0.087321706 0.44964945 0.032447845 0.04666867 -0.1662865
0.56742734 0.107474744 0.0077261785 0.5137705 -0.012407816 0.5780602 0.45642075 0.11264001
-0.18982486 -0.16491124 0.11082926 0.019050686 0.2031247 0.11144744 -0.13845012 -0.18752111
00000000: 1f0b 5bbd f940 093d 0fdb 9a3c 7cac 213d
00000010: 18b2 673e c420 c13e ec4b 3e3d f646 693c
00000020: 4578 583d cbd4 083e 395c 14bf b9d5 b23d
00000030: 7438 e63e 08e8 043d a627 3f3d 0247 2abe
00000040: eb42 113f b81b dc3d e22b fd3b 7786 033f
00000050: 274a 4bbc c1fb 133f fbaf e93e ceaf e63d
00000060: 7361 42be 7ede 28be 73fa e23d 2f10 9c3c
00000070: ecff 4f3e 8e3e e43d dec5 0dbe 8905 40be

2.weight f4 [64, 32]
0.029345112 0.3513714 0.026439523 -0.11935121 0.114616655 -0.13364145 -0.101633504 -0.07748666
-0.13553934 -0.23421334 0.09755983 0.2768438 0.056975204 -0.23249443 0.073236145 0.03097805
0.08945711 -0.19095847 0.036339168 0.02139027 -0.10428305 -0.026550576 -0.04038645 0.123785906
-0.026072955 -0.06306939 0.02995797 -0.18039516 -0.10809188 -0.105261244 0.17865598 -0.05146405
-0.3720751 0.0659593 -0.03851514 0.2009986 0.20816965 0.11578034 -0.113572545 0.15073438
-0.06885086 -0.48802578 0.2185301 0.03679605 0.08126024 0.057115886 -0.31262258 -0.2972912
-0.28925544 -0.011410378 -0.016017586 0.20169713 0.0057274727 -0.3165236 0.042826474 0.1822108
0.096398026 0.26370737 0.15154904 0.099561 0.3938376 -0.11933458 0.009402058 0.042742435
-0.15588488 -0.21902488 0.107788876 0.1491632 -0.19792832 -0.18401423 -0.10059058 0.14880317
-0.0621064 0.018752884 0.53165615 -0.14376502 0.35881025 -0.109572046 0.1069802 -0.09700015
-0.034970686 -0.013193988 0.095049776 -0.3243345 0.1968285 0.119224094 -0.085343115 0.09556185
0.25051725 -0.042145 0.061496623 0.21169956 -0.09478164 -0.013985537 0.16886249 0.18182929
-0.07981689 0.015973667 0.14751628 -0.09581742 -0.16468218 0.11729394 0.12853007 -0.058586437
0.22647068 0.19410178 0.000888499 -0.250738 0.027727563 0.12876001 0.11084512 -0.3040231
-0.14618227 0.23362783 -0.06780027 -0.013431823 0.07675488 -0.37121227 0.21678351 -0.033825435
-0.07456849 0.15453364 -0.18264607 0.04771384 -0.085691676 -0.00574086 -0.24626309 -0.10927161
0.2595278 0.06369097 0.10387613 -0.13465175 0.17125191 -0.2751715 0.2575179 0.14812307
-0.14029598 0.1803274 0.020779496 -0.22322288 -0.11402767 -0.014339702 0.16773926 0.021244738
0.3920659 0.07018312 -0.31469882 -0.13069247 0.3172198 -0.19898658 -0.058645964 -0.090205565
-0.13994087 -0.11993177 -0.028586857 0.0937007 -0.07671664 -0.04823114 0.3788005 -0.359071
0.13951364 0.21512985 -0.054448586 0.119460694 0.22371897 -0.25924477 -0.08315241 -0.18768066
0.0765648 -0.03922977 0.0140081765 0.24673313 0.06363035 0.034733012 0.11154931 0.35290098
0.09981015 0.06650369 0.06814206 -0.044322997 -0.25968093 -0.06293399 -0.49962503 0.22656868
-0.05005775 -0.06744223 -0.22540909 -0.17236593 0.065406784 0.15351027 -0.09976193 0.0657502
0.39594966 -0.018787425 0.22456072 -0.032267287 -0.17636204 -0.21425858 -0.19571008 0.050618507
-0.057850365 0.008480034 0.14659727 -0.14510451 -0.63618 -0.17282823 0.17568073 0.5131043
-0.112726845 -0.025366228 -0.051511806 -0.04931731 0.1397646 0.042190503 -0.0023696688 -0.31793168
0.113159895 -0.034702078 -0.1427258 -0.046897393 -0.06300614 -0.053794287 0.051946163 0.092135824
0.08415132 0.0452528 0.021332543 0.20263664 -0.10832311 -0.25401822 0.15942967 -0.0041606054
0.057309136 -0.1885397 -0.00405054 -0.23000382 0.5116614 0.050429843 -0.04129325 -0.18096286
0.60913175 -0.036969624 0.018557739 0.18446195 -0.10470073 -0.08284102 -0.08900934 0.08065107
0.038554657 -0.24933931 -0.002255579 -0.15598334 -0.05730072 -0.055809066 -0.14242384 -0.13596831
00000000: 2965 f03c f4e6 b33e b397 d83c 686e f4bd
00000010: 23bc ea3d 4ed9 08be 3a25 d0bd 53b1 9ebd
00000020: d3ca 0abe 9fd5 6fbe 73cd c73d 78be 8d3e
00000030: d55e 693d 0513 6ebe d5fc 953d aec5 fd3c
00000040: 4a35 b73d 9e8a 43be 61d8 143d a63a af3c
00000050: 5a92 d5bd 9880 d9bc 436c 25bd 7783 fd3d
00000060: f396 d5bc 862a 81bd 6b6a f53c 82b9 38be
00000070: 475f ddbd 3593 d7bd 98f1 363e f8cb 52bd
00000080: a180 bebe ab15 873d 0dc2 1dbd 94d2 4d3e
00000090: 6d2a 553e 3e1e ed3d b998 e8bd 1d5a 1a3e
000000a0: ae01 8dbd 84de f9be 5bc6 5f3e 74b7 163d
000000b0: c56b a63d 59f2 693d 1110 a0be 8d36 98be
000000c0: 4a19 94be 98f2 3abc 5037 83bc b189 4e3e
000000d0: 86ad bb3b 620f a2be d06a 2f3d 7895 3a3e
000000e0: 546c c53d a704 873e ac2f 1b3e a3e6 cb3d
000000f0: 15a5 c93e b065 f4bd 170b 1a3c b112 2f3d
00000100: 49a0 1fbe 0f48 60be 6ac0 dc3d 3dbe 183e
00000110: b9ad 4abe 3a6e 3cbe 6f02 cebd dc5f 183e
00000120: 4863 7ebd a69f 993c 9e1a 083f 2337 13be
00000130: fab5 b73e 4f67 e0bd 6f18 db3d 04a8 c6bd
00000140: 6c3d 0fbd 992b 58bc 75a9 c23d 2c0f a6be
00000150: 698d 493e c32b f43d 5fc8 aebd eeb5 c33d
00000160: cc43 803e 3ca0 2cbd e2e3 7b3d c5c7 583e
00000170: e01c c2bd 9823 65bc 4aea 2c3e 7531 3a3e
00000180: 0a77 a3bd 35db 823c 820e 173e ec3b c4bd
00000190: 72a2 28be ce37 f03d 639d 033e 55f8 6fbd
000001a0: eee7 673e 9ec2 463e 29ea 683a bb60 80be
000001b0: ea24 e33c aad9 033e c402 e33d eaa8 9bbe
000001c0: ceb0 15be 223c 6f3e deda 8abd 2611 5cbc
000001d0: aa31 9d3d 890f bebe 7ffc 5d3e 8a8c 0abd
000001e0: 5db7 98bd 113e 1e3e 9207 3bbe 966f 433d
000001f0: 1e7f afbd d31d bcbb 642c 7cbe cbc9 dfbd
00000200: d4e0 843e 6970 823d 02bd d43d 26e2 09be
00000210: a95c 2f3e 47e3 8cbe 63d9 833e 93ad 173e
00000220: c0a9 0fbe bfa7 383e c339 aa3c 8a94 64be
00000230: 5787 e9bd 12f1 6abc d7c3 2b3e 7209 ae3c
00000240: ddbc c83e 2bbc 8f3d 3420 a1be 3fd4 05be
00000250: a26a a23e 23c3 4bbe c036 70bd b2bd b8bd
00000260: a94c 0fbe ca9e f5bd fc2e eabc 27e6 bf3d
00000270: 9d1d 9dbd 048e 45bd 24f2 c13e 27d8 b7be
00000280: aadc 0e3e 004b 5c3e 7b05 5fbd cfa7 f43d
00000290: 9616 653e bbbb 84be d04b aabd 5c2f 40be
000002a0: 02ce 9c3d 65af 20bd 8d82 653c 9ca7 7c3e
000002b0: a150 823d 3444 0e3d f773 e43d 70af b43e
000002c0: 4469 cc3d 1633 883d 108e 8b3d 088c 35bd
000002d0: e6f4 84be 89e3 80bd dace ffbe 9f01 683e
000002e0: 5b09 4dbd 271f 8abd a4d1 66be b280 30be
000002f0: fef3 853d cc31 1d3e fc4f ccbd 0aa8 863d
00000300: eab9 ca3e 16e8 99bc 3ff3 653e b42a 04bd
00000310: 4098 34be 9a66 5bbe 3968 48be 5a55 4f3d
00000320: 81f4 6cbd d7ef 0a3c 981d 163e 4796 14be
00000330: b1dc 22bf e2f9 30be a6e5 333e ce5a 033f
00000340: 55dd e6bd d6cc cfbc 0bfe 52bd f300 4abd
00000350: 741e 0f3e f3cf 2c3d 724c 1bbb f1c7 a2be
00000360: 60c0 e73d c423 0ebd b626 12be 7b17 40bd
00000370: 5d09 81bd 6657 5cbd 80c5 543d b5b1 bc3d
00000380: 8757 ac3d 005b 393d 96c1 ae3c fb7f 4f3e
00000390: 82d8 ddbd ad0e 82be 8841 233e b055 88bb
000003a0: fcbc 6a3d 8d10 41be 64ba 84bb 1f86 6bbe
000003b0: 3efc 023f 868f 4e3d 1c23 29bd 544e 39be
000003c0: 0ff0 1b3f 766d 17bd 6606 983c 98e3 3c3e
000003d0: 566d d6bd 8da8 a9bd 874a b6bd 632c a53d
000003e0: 7deb 1d3d ce52 7fbe 56d2 13bb 19ba 1fbe
000003f0: 29b4 6abd 0c98 64bd 8ed7 11be 473b 0bbe

2.bias f4 [64]
0.11355108 -0.051551238 -0.3031743 0.19104725 -0.04154504 -0.045530163 -0.7321299 0.101887435
-0.08390003 0.07745565 -0.013122798 0.23489982 -0.43375146 -0.1888911 -0.2022031 -0.59401166
0.44517535 -0.3881844 0.14254712 -0.5328898 0.4693136 0.07981053 -0.3727911 0.07121469
-0.36535788 -0.6608728 0.05799206 0.24434602 0.2834987 -0.23858476 -0.7367202 -0.18801995
0.0476842 0.20065542 0.524477 0.13016212 -0.083893016 -0.5473015 0.23945042 0.33663172
-0.2617802 -0.23259987 0.017433276 0.27144918 -0.17449784 0.3131036 0.25635904 -0.29848078
-0.18316597 0.17708012 0.1575662 0.33102036 0.098692164 0.41382602 -0.015528063 0.2865283
0.04736063 0.25922042 -0.50728184 0.037675615 -0.17389353 0.32201743 -0.34143943 -0.13487533
00000000: 788d e83d 6427 53bd a939 9bbe e4a1 433e
00000010: 222b 2abd d67d 3abd dd6c 3bbf 5caa d03d
00000020: c7d3 abbd 11a1 9e3d 0101 57bc 9489 703e
00000030: ac14 debe ab6c 41be 540e 4fbe 2611 18bf
00000040: 06ee e33e 1bc0 c6be dff7 113e 776b 08bf
00000050: df49 f03e b473 a33d 7ade bebe 02d9 913d
00000060: 3010 bbbe f62e 29bf 1589 6d3d d835 7a3e
00000070: be26 913e 904f 74be b299 3cbf 4d88 40be
00000080: 8250 433d 9d78 4d3e 2044 063f 3849 053e
00000090: 1ad0 abbd f31b 0cbf 7e32 753e fe5a ac3e
000000a0: 0e08 86be a92e 6ebe 3bd0 8e3c 63fb 8a3e
000000b0: 90af 32be 1d4f a03e 7e41 833e 79d2 98be
000000c0: dc8f 3bbe 7e54 353e 0959 213e 807b a93e
000000d0: 1e1f ca3d 01e1 d33e 6b69 7ebc d6b3 923e
000000e0: 38fd 413d 8ab8 843e 39dd 01bf bf51 1a3d
000000f0: 2511 32be 78df a43e 26d1 aebe c21c 0abe

4.weight f4 [128, 64]
0.07970864 -0.10316832 -0.106446095 0.054265957 0.05146637 0.15777048 0.03913405 0.0041887774
0.087628536 -0.09411227 0.07096101 0.020876935 -0.05368292 0.05898445 -0.09261395 0.007291715
-0.03154651 -0.20346864 -0.030044887 0.022892809 0.055250976 0.11384275 -0.05426836 0.033347167
-0.006317742 0.052070964 -0.15290509 -0.0028213926 -0.054066632 -0.11956084 0.0369305 -0.055972163
0.15994872 0.12803781 -0.06726162 -0.039754868 0.09189891 -0.06288895 0.16531482 0.058070842
0.0035836366 -0.24412291 0.055549897 -0.07273265 -0.08744435 -0.07727756 0.025009133 -0.05055246
0.054884773 0.050107952 0.053789586 0.06881025 -0.103293166 0.10408316 0.04963523 -0.12673011
0.06851928 0.17383793 -0.03350363 0.026497597 0.10942373 -0.18741 -0.09129698 -0.13934635
-6.94e-43 -3.384388e-14 -9.6896344e-20 3.5999623e-21 -2.3965179e-11 -4.9292136e-36 -1.4970003e-10 -1.2143799e-15
-5.028299e-16 1.6064398e-10 4.9e-43 4.544e-42 -2.1882351e-23 -2.130739e-15 -6.943818e-23 -2.3343313e-20
-3.0974767e-09 1.5601401e-12 -1.6042532e-28 -4.0182588e-17 2.5100209e-36 -6.032016e-34 -4.2170667e-09 1.058e-42
-2.6594357e-18 -1.5193036e-13 -3.872e-42 -1.45065505e-11 -6.867239e-32 -1.079e-42 -7.344064e-14 -6.4666447e-19
-2.5222018e-12 6.409398e-20 -1.5047083e-10 2.4369292e-15 -5.0144886e-26 -1.3722131e-30 4.056755e-14 1.2292058e-19
-6.633762e-16 -2.1513134e-20 1.6518065e-36 -1.9896127e-25 -1.604661e-31 -1.0847197e-11 -6.784368e-08 -1.2615418e-28
-4.046e-42 -6.2801608e-21 1.534e-42 7.383793e-29 -8.415452e-14 -6.3985375e-29 -2.5896676e-10 -1.4747338e-15
-7.122097e-10 -4.034709e-21 -2.5609575e-12 -1.9199714e-14 9.914643e-37 -8.895959e-19 -2.2120307e-12 5.1337312e-36
0.01619731 0.15711088 -0.13567483 -0.031256106 0.04366118 0.03255838 -0.15073597 0.1778545
-0.09271622 -0.09823082 0.11918504 0.046433892 0.0137358485 -0.025429916 -0.1005325 0.06371503
0.074143745 0.0008090625 -0.16364942 -0.21050383 -0.1456946 -0.037740234 -0.10288435 -0.023723232
-0.07060502 -0.14811292 -0.017793095 -0.067515805 0.07902041 0.071916506 -0.26424503 0.06760597
-0.11774258 -0.055889275 -0.04017089 -0.12481906 -0.039414637 -0.0257578 0.07250619 0.17943572
0.00207547 -0.00901118 -0.07251469 -0.13243373 0.16874744 0.06333802 0.0034748844 -0.033081565
-0.09510457 -0.12465668 0.030657368 0.08285872 0.035719443 0.17147863 -0.0946226 -0.10146821
-0.24435605 -0.08013929 -0.005418313 -0.02779761 0.12906083 -0.038615484 0.057511367 -0.19055238
0.071256734 -0.06850835 0.017555354 0.1016154 0.057258554 0.054717407 -0.01157776 -0.099738285
-0.16250432 -0.2031627 0.16737764 -0.03635995 0.1039437 -0.10052619 0.02815307 -0.031237427
-0.16400506 -0.05649845 -0.090430476 0.11657899 0.060509447 0.057489615 -0.08715426 0.09391715
0.042913586 -0.09039899 0.18004225 -0.030275889 0.12802146 0.09351208 0.10495048 -0.052207958
-0.069143385 0.0010952624 0.086689636 0.090909906 0.1693785 -0.006744491 -0.036260307 0.02914305
0.087882064 -0.09344838 0.05710425 0.0953287 0.05246971 -0.09951802 -0.1984498 -0.0756875
0.0015205046 0.077481374 0.050772484 0.07390542 0.0856962 -0.050595637 -0.0718898 -0.09259068
-0.05908904 -0.09109648 -0.06786101 0.106975116 -0.15023963 -0.030999975 -0.16703999 0.056995917
00000000: 493e a33d ea49 d3bd 6900 dabd fb45 5e3d
00000010: 66ce 523d 968e 213e 074b 203d 0342 893b
00000020: 9776 b33d efbd c0bd 0254 913d 1b06 ab3c
00000030: 9fe2 5bbd ae99 713d 62ac bdbd 57ef ee3b
00000040: ea36 01bd 155a 50be b220 f6bc b389 bb3c
00000050: d94e 623d 6326 e93d 8048 5ebd 0a97 083d
00000060: 1005 cfbb 5d48 553d 2793 1cbe 1de7 38bb
00000070: f974 5dbd 50dc f4bd 7044 173d 1143 65bd
00000080: 99c9 233e 581c 033e 76c0 89bd 00d6 22bd
00000090: 7f35 bc3d eccb 80bd 4a48 293e b1db 6d3d
000000a0: 72db 6a3b 5bfb 79be 4a88 633d dbf4 94bd
000000b0: 0616 b3bd b343 9ebd f4df cc3c 1910 4fbd
000000c0: dbce 603d ff3d 4d3d 7852 5c3d 63ec 8c3d
000000d0: 5e8b d3bd 8d29 d53d 504e 4b3d 8ac5 01be
000000e0: d653 8c3d 9202 323e 1a3b 09bd 7d11 d93c
000000f0: 8c19 e03d 68e8 3fbe e9f9 babd cfb0 0ebe
00000100: ef01 0080 566b 18a9 3fca e49f b300 881d
00000110: c9cc d2ad 62aa d184 d098 24af b602 afa6
00000120: 4cee 10a6 43a1 302f 5e01 0000 ab0c 0000
00000130: 14a2 d399 3289 19a7 27e4 a79a ab78 dc9e
00000140: 63db 54b1 f991 db2b fe5c 4b91 3a4f 39a4
00000150: 6a87 5504 b872 4888 b6e5 90b1 f302 0000
00000160: 523b 44a2 f20e 2baa cb0a 0080 b233 7fad
00000170: a248 b28b 0203 0080 a65f a5a9 96dc 3ea1
00000180: f37b 31ac 6f56 971f c671 25af 6999 2f27
00000190: 324e 7895 81a7 de8d 33b3 3629 771e 1120
000001a0: 8634 3fa6 912f cb9e 2985 0c04 584d 7696
000001b0: 024c 508c 6fd3 3ead 75b1 91b3 5feb 1f91
000001c0: 470b 0080 fd41 ed9d 4704 0000 8e33 bb10
000001d0: c77f bda9 e238 a290 555e 8eaf 1388 d4a6
000001e0: 4dc5 43b0 506d 989d 1c36 34ac 87ef aca8
000001f0: 5cb0 a803 fc47 83a1 67a8 1bac 625d da04
00000200: 39b0 843c ade1 203e 58ee 0abe 6706 00bd
00000210: 11d6 323d f05b 053d 885a 1abe 7d1f 363e
00000220: 00e2 bdbd 3d2d c9bd 4917 f43d 7731 3e3d
00000230: 530c 613c 6652 d0bc fce3 cdbd 077d 823d
00000240: add8 973d 4417 543a b793 27be 518e 57be
00000250: f730 15be 8195 1abd 08b5 d2bd 3957 c2bc
00000260: 5d99 90bd eaaa 17be d3c2 91bc ba45 8abd
00000270: 74d5 a13d f648 933d 204b 87be 0075 8a3d
00000280: 0623 f1bd 27ec 64bd 3b8a 24bd 23a1 ffbd
00000290: 3e71 21bd 0602 d3bc 207e 943d ffbd 373e
000002a0: 9c04 083b a1a3 13bc 9582 94bd b59c 07be
000002b0: 21cc 2c3e 5db7 813d e3ba 633b 8980 07bd
000002c0: 2fc6 c2bd 004c ffbd 2925 fb3c d5b1 a93d
000002d0: 8d4e 123d 1898 2f3e 7ec9 c1bd 91ce cfbd
000002e0: 7938 7abe 1120 a4bd 1b8c b1bb d0b7 e3bc
000002f0: 8628 043e 452b 1ebd 0a91 6b3d 2a20 43be
00000300: 0def 913d 1b4e 8cbd 3fd0 8f3c bc1b d03d
00000310: f287 6a3d 5c1f 603d a5b0 3dbc 9643 ccbd
00000320: 8867 26be e209 50be 0b65 2b3e 2cee 14bd
00000330: 6fe0 d43d ade0 cdbd 44a1 e63c a2e5 ffbc
00000340: f1f0 27be eb6a 67bd 9d33 b9bd f7c0 ee3d
00000350: c1d8 773d 3b7a 6b3d ef7d b2bd a257 c03d
00000360: 28c6 2f3d 1b23 b9bd ff5c 383e 2405 f8bc
00000370: 0f18 033e 4383 bf3d 47f0 d63d 03d8 55bd
00000380: 0c9b 8dbd e88e 8f3a 568a b13d f92e ba3d
00000390: 8f71 2d3e e400 ddbb b085 14bd 68bd ee3c
000003a0: 83fb b33d dd61 bfbd 25e6 693d b23b c33d
000003b0: 7bea 563d 1bd0 cbbd 6d36 4bbe 0c02 9bbd
000003c0: ab4b c73a 8eae 9e3d cff6 4f3d ba5b 973d
000003d0: 7d81 af3d 5f3d 4fbd f63a 93bd 2fa0 bdbd
000003e0: 5907 72bd cb90 babd b7fa 8abd c515 db3d
000003f0: 6bd8 19be a9f3 fdbc 880c 2bbe 8d74 693d

4.bias f4 [128]
0.007858482 -5.0389787e-08 0.13889845 0.042306844 0.047537513 -0.11167455 -0.012762574 -0.32522133
-0.032501962 -0.11167863 -0.02064783 -0.0010679322 -0.17098789 0.08903151 -0.013694099 -1.0900838e-05
0.24465951 0.1616868 -0.14286843 -0.026599577 -0.0032449022 -0.16016327 -0.18107171 -0.0557672
-0.19763342 -0.08153506 -0.0015782716 0.18178776 0.008680346 0.078967676 0.3921226 -0.11273441
0.18924803 -0.099451125 -0.009865756 -0.12372081 -0.48141164 -0.13107747 -0.210654 -0.34974587
-0.2170229 0.04466566 -0.13141587 -0.0496793 0.26651338 -0.009650662 -0.068856135 0.12837014
0.21805058 -0.09217541 0.045235552 0.18775694 -0.03831933 0.2910501 -0.5288439 0.17601334
-0.21773729 -0.07715184 -0.0007297971 -0.24762514 0.04351237 -0.21848316 -0.15405002 -0.2407874
-0.47821686 -0.08586883 0.017665489 -0.05744828 0.05574083 0.068797335 0.04261591 0.078023545
-4.2361636e-26 -0.23038198 0.05415201 -0.05594334 -0.00063556945 0.092037 -0.15671147 -0.24425405
-0.148614 0.25864953 0.0038997578 0.07396085 -0.18450807 0.17048053 -0.21248904 0.28754014
0.2862168 -0.003212097 0.023016755 -0.15900111 0.18687789 0.21174 -0.06723843 -0.06606057
-2.2090958e-06 -0.34041542 -0.21053746 0.09378491 0.21435128 -0.06302983 0.081069455 0.13639164
-0.33224177 -0.046080593 -1.6958716e-13 -0.18032473 0.045602772 -0.071394145 -0.29318613 -0.23010646
-0.09791216 -0.065965705 0.018959288 -0.1092913 0.06684281 0.006005571 0.05373929 0.016692186
0.0908245 -0.03556847 0.10172788 -0.03435535 0.11383603 0.01776049 0.12490904 -0.22726998
00000000: ddc0 003c 286c 58b3 653b 0e3e f149 2d3d
00000010: b2b6 423d a0b5 e4bd 1d1a 51bc 6983 a6be
00000020: c720 05bd c4b7 e4bd a325 a9bc dcf9 8bba
00000030: 7317 2fbe 2756 b63d 375d 60bc bee2 36b7
00000040: 0688 7a3e 3991 253e 1a4c 12be 5be7 d9bc
00000050: 6da8 54bb d701 24be dd6a 39be 266c 64bd
00000060: 6a60 4abe dbfb a6bd 02de ceba 9226 3a3e
00000070: 0338 0e3c ceb9 a13d 4bc4 c83e 4ce1 e6bd
00000080: 3cca 413e 08ad cbbd fba3 21bc 5661 fdbd
00000090: 967b f6be 2c39 06be afb5 57be e411 b3be
000000a0: 403b 5ebe 57f3 363d e291 06be 867c 4bbd
000000b0: 7174 883e cf1d 1ebc 7204 8dbd 7673 033e
000000c0: a748 5f3e 76c6 bcbd ea48 393d 5b43 403e
000000d0: bbf4 1cbd 8504 953e 5062 07bf d73c 343e
000000e0: 86f6 5ebe c901 9ebd db4f 3fba 7291 7dbe
000000f0: 073a 323d 0dba 5fbe 4abf 1dbe f990 76be
00000100: d7d8 f4be ffdb afbd 37b7 903c e34e 6bbd
00000110: 7f50 643d 9ee5 8c3d 058e 2e3d cfca 9f3d
00000120: c1c3 5195 41e9 6bbe 7fce 5d3d d824 65bd
00000130: 589c 26ba e57d bc3d f978 20be bc1d 7abe
00000140: 452e 18be b66d 843e 1493 7f3b c978 973d
00000150: afef 3cbe 7392 2e3e ba96 59be 7638 933e
00000160: 028b 923e 0c82 52bb a28d bc3c 30d1 22be
00000170: eb5c 3f3e 5fd2 583e 4db4 89bd c44a 87bd
00000180: fa3f 14b6 ee4a aebe 2297 57be 4e12 c03d
00000190: e77e 5b3e c915 81bd be07 a63d 40aa 0b3e
000001a0: 981b aabe 01bf 3cbd 2cf0 3eaa 0ca7 38be
000001b0: f9c9 3a3d 1837 92bd 7e1c 96be 07a1 6bbe
000001c0: 2c86 c8bd 0719 87bd 8250 9b3c 1ed4 dfbd
000001d0: e2e4 883d 62ca c43b bb1d 5c3d 0dbe 883c
000001e0: 3202 ba3d 3eb0 11bd b556 d03d 32b8 0cbd
000001f0: dd22 e93d 727e 913c 50d0 ff3d 76b9 68be

6.weight f4 [256, 128]
-0.00082326774 -2.377e-42 0.00061626587 0.0007263744 -0.00014082812 0.0015429163 -0.001356593 -0.0017946279
-0.0005944905 -0.0017479982 -0.0011489379 0.00010480032 -0.000109165914 0.0015298271 -0.0014528715 2.4427e-41
-0.0015006171 0.0003905352 0.0002584207 -0.00065605924 0.0011125619 -0.001816583 -0.0030501487 -0.0009524751
-0.0010910453 0.0021410151 5.9771e-41 -0.00028203966 0.00017684189 -0.0022834002 -0.0015925708 -0.0014381949
-0.0021353308 -0.0001551652 -0.0009198708 -0.000683633 -0.00018344469 -0.00014167035 -0.0012388618 7.039568e-05
-0.00032685787 0.0002892754 -0.0006168323 -0.00038641688 -9.7387485e-05 -1.3406942e-07 -0.00022076389 -0.0023920415
-0.0023627135 -0.0013051197 -0.00023434823 1.1669554e-05 -0.0004230754 -0.003535636 0.0025407781 -0.0004264909
-0.0037906189 -7.1534625e-05 0.001234584 -0.0014483241 0.0003623525 -0.0014425023 -0.0003034641 0.00036329307
-0.00033639467 -0.002365849 -6.15648e-05 -0.0010293484 -0.0006565557 -0.00038008016 -0.00012618654 -0.0007475681
-3.62e-43 -0.004632138 -0.00035055346 0.00013167731 5.5131e-41 9.348776e-05 -0.004195107 0.0012286454
0.0023237825 -0.002872616 0.000112956644 -0.0004508797 -0.00025449265 -0.0011423151 -0.0024616015 -0.003656589
-0.0012495262 7.864e-42 -0.0020154018 0.00026673905 -0.00040920312 -0.0011745077 -0.0019778092 -0.0005061552
5.736e-42 -0.0006904533 -0.0014269351 -0.00148877 -0.0013331643 0.0013272908 0.00027765517 -0.0014838184
0.0053714393 -0.0022931919 5.7991e-41 -0.0012755595 -0.00067458564 -0.0018428401 0.00039084058 -0.0006831525
-5.7380084e-06 -0.0015580998 -0.00073453283 -0.00013284235 -0.00096021494 -0.0003778695 -0.00028848083 9.936929e-05
-0.00015120095 -0.00090767595 -0.0016741904 -0.0008918516 -0.00031863066 0.00013325347 -0.0018968796 -3.4118708e-05
-0.00018905776 -2.7234e-41 1.290889e-05 2.7214943e-05 -0.0001790556 -8.569874e-05 5.464297e-05 -0.0006090966
0.00014729884 -9.209647e-05 -8.9505494e-07 5.4058866e-08 -0.00043364512 -0.00032164014 -1.7342487e-05 3.0688e-41
-0.00030954558 -1.6373656e-06 -0.0005053412 -2.9474882e-05 -5.9528847e-06 0.0005124995 -7.002787e-05 -2.763224e-05
2.3375334e-05 1.5351785e-05 1.4735e-41 -7.804632e-05 9.740989e-05 -2.2765158e-05 -0.001218572 -2.4179499e-06
-0.00033462784 3.272195e-07 -5.9191125e-06 0.00010301744 -3.9412498e-05 1.2354195e-06 7.295037e-06 -6.6697605e-05
-0.00045053897 -0.0002134765 0.00076817645 6.615291e-05 -2.6213536e-06 0.00012739682 -0.00020693276 0.00018929555
-0.00080599514 -3.202437e-05 -7.646212e-08 -1.4396353e-05 -2.8424293e-07 -0.0008497656 0.0006675537 -4.5022472e-05
0.00025046666 0.00030490456 0.00046829644 -2.51929e-05 -6.861056e-05 -0.00025897234 -2.9534133e-06 -0.00013082052
-0.00018114316 -0.0012442614 1.3242853e-08 -2.290056e-05 6.9237512e-06 8.485146e-06 3.439336e-08 0.00044635317
5.1988e-41 -8.5278625e-05 3.5019223e-09 -2.35987e-10 5.839e-42 -0.0002861886 -0.00030558193 -0.0002866109
0.00022203327 -0.0007045506 5.692305e-06 -2.3197477e-05 0.0009922431 -7.558359e-05 -0.0016615456 -0.00033289788
-0.00021627524 -5.11e-42 3.3971268e-05 0.000142283 -0.000115722556 -0.00031266906 -0.0001052723 -0.00015688218
-1.5749e-41 -0.00024566895 -0.00025119857 1.193779e-05 -1.755321e-05 -1.0416023e-05 0.000445689 -5.0265513e-05
0.00035423282 -0.00016956247 4.889e-42 -1.5518659e-05 -5.9751546e-06 -0.00048376177 0.0005217581 5.448383e-05
-1.278096e-06 -0.00033727865 -6.472935e-05 -4.0758136e-06 -0.0001064205 6.880247e-05 -3.538438e-06 -3.1984928e-05
-2.3393616e-08 0.0017875795 -3.419259e-05 0.00014090186 4.332874e-05 -0.00027079546 -3.322412e-05 -3.8409019e-07
00000000: 90d0 57ba a006 0080 e78c 213a 296a 3e3a
00000010: 43ab 13b9 ae3b ca3a b5cf b1ba b839 ebba
00000020: 95d7 1bba 161d e5ba f597 96ba 3ec8 db38
00000030: 01f0 e4b8 7b84 c83a 476e beba 1844 0000
00000040: 5bb0 c4ba bfc0 cc39 a47c 8739 64fb 2bba
00000050: 62d3 913a 691a eeba 01e5 47bb 86af 79ba
00000060: 6801 8fba 4650 0c3b 9ea6 0000 b9de 93b9
00000070: a26e 3939 19a5 15bb cfbd d0ba d081 bcba
00000080: e8f0 0bbb d7b3 22b9 7c23 71ba d635 33ba
00000090: 0f5b 40b9 588d 14b9 4e61 a2ba 65a1 9338
000000a0: 1f5e abb9 e3a9 9739 eab2 21ba ff97 cab9
000000b0: 823c ccb8 b9f4 0fb4 db7c 67b9 ccc3 1cbb
000000c0: c1d7 1abb 8d10 abba 60bb 75b9 5ac8 4337
000000d0: 38d0 ddb9 21b6 67bb 2f83 263b a49a dfb9
000000e0: 086c 78bb dc04 96b8 c4d1 a13a b1d5 bdba
000000f0: 21fa bd39 5812 bdba 431a 9fb9 5f78 be39
00000100: 215e b0b9 5c0c 1bbb 5a1c 81b8 33eb 86ba
00000110: b51c 2cba 7f45 c7b9 f150 04b9 72f8 43ba
00000120: 0201 0080 31c9 97bb 7dca b7b9 dc12 0a39
00000130: af99 0000 dc0e c438 1c77 89bb 800a a13a
00000140: 9a4a 183b 8042 3cbb 23e3 ec38 0d64 ecb9
00000150: 6d6d 85b9 bcb9 95ba d252 21bb 62a3 6fbb
00000160: 24c7 a3ba ec15 0000 d514 04bb 1cd9 8b39
00000170: 508a d6b9 f0f1 99ba 229e 01bb 80af 04ba
00000180: fd0f 0000 89ff 34ba ff07 bbba d522 c3ba
00000190: 92bd aeba 7df8 ad3a 3f92 9139 af7c c2ba
000001a0: e602 b03b 6049 16bb a8a1 0000 ad30 a7ba
000001b0: add6 30ba 748b f1ba bce9 cc39 9715 33ba
000001c0: 1e89 c0b6 2739 ccba aa8d 40ba 994b 0bb9
000001d0: efb6 7bba c91c c6b9 3e3f 97b9 7b64 d038
000001e0: b28b 1eb9 1af1 6dba 8270 dbba 26cb 69ba
000001f0: e20d a7b9 f5b9 0b39 b8a0 f8ba af1a 0fb8
00000200: ce3d 46b9 eb4b 0080 4393 5837 a54b e437
00000210: dfc0 3bb9 29b9 b3b8 7130 6538 c8ab 1fba
00000220: 3b74 1a39 ea23 c1b8 b543 70b5 5a2e 6833
00000230: dd5a e3b9 cfa1 a8b9 b57a 91b7 8c55 0000
00000240: 814a a2b9 74c3 dbb5 e078 04ba d440 f7b7
00000250: e4be c7b6 4259 063a eddb 92b8 c9cb e7b7
00000260: 2616 c437 b5c7 8037 1329 0000 cdac a3b8
00000270: 8948 cc38 cef7 beb7 7eb8 9fba 1044 22b6
00000280: fd70 afb9 b5ac af34 ca9c c6b6 110b d838
00000290: d94e 25b8 b1d0 a535 e4c7 f436 01e0 8bb8
000002a0: 5136 ecb9 a9d8 5fb9 735f 493a 93bb 8a38
000002b0: 83ea 2fb6 d395 0539 17fc 58b9 a37d 4639
000002c0: 6b49 53ba e851 06b8 7f33 a4b3 de87 71b7
000002d0: 0d9a 98b4 cec2 5eba c5fe 2e3a 83d6 3cb8
000002e0: 1151 8339 99db 9f39 af85 f539 5755 d3b7
000002f0: 04e3 8fb8 aec6 87b9 4133 46b6 de2c 09b9
00000300: 3ff1 3db9 7c16 a3ba af82 6332 941a c0b7
00000310: 9252 e836 6d5b 0e37 e6b7 1333 8204 ea39
00000320: ec90 0000 9dd7 b2b8 78a6 7031 38bc 81af
00000330: 4710 0000 950b 96b9 8336 a0b9 4444 96b9
00000340: 9ad1 6839 97b1 38ba 8700 bf36 3498 c2b7
00000350: 270e 823a a282 9eb8 38c8 d9ba cc88 aeb9
00000360: f1c7 62b9 3f0e 0080 5f7c 0e38 cd31 1539
00000370: 13b0 f2b8 bbed a3b9 a3c5 dcb8 bd80 24b9
00000380: e72b 0080 21cd 80b9 4db3 83b9 6b48 4837
00000390: 3b3f 93b7 7ac0 2eb7 5dab e939 2fd4 52b8
000003a0: 53b8 b939 94cc 31b9 a10d 0000 112e 82b7
000003b0: 307e c8b6 68a1 fdb9 98c6 083a 9185 6438
000003c0: 0b8b abb5 c6d4 b0b9 4ebf 87b8 f9c2 88b6
000003d0: 122e dfb8 0b4a 9038 e775 6db6 8e27 06b8
000003e0: 1bf3 c8b2 374d ea3a 046a 0fb8 0ebf 1339
000003f0: e1bb 3538 8df9 8db9 215a 0bb8 f434 ceb4

6.bias f4 [256]
-0.005396809 -0.0049955435 -0.042330034 -0.0027340634 -5.866894e-07 -0.019773228 -0.001765731 -6.1678325e-06
0.0015431659 -0.002396055 -0.0033347206 -0.0032850506 -0.13156478 -0.0034840563 -0.14280169 -0.2953954
0.009633577 0.029077213 -0.0016481791 -0.285755 -2.5022894e-07 -0.0032460503 -0.31623158 -0.050509233
0.0027120807 -0.007986899 -1.212125e-10 0.041806515 -0.21430731 -0.06174621 -1.0811851e-08 -0.0021903669
-4.387859e-09 -0.0040878947 -0.0016894282 -0.023551863 -0.059095755 -8.888917e-08 -0.019878428 -1.7850378e-16
-0.0017617191 -1.5313573e-06 -0.0009241581 -0.040353253 -8.7745104e-07 -2.1314703e-05 -0.005568178 -0.09239376
-0.033399176 -4.65262e-14 -0.02457012 -0.16142991 -8.316128e-12 -0.18561648 -1.7557599e-07 -0.0049933866
-0.0786998 -0.03128014 -0.00037008795 -0.08606289 -1.17821114e-32 -0.004485509 -1.262811e-06 0.07847548
-0.0013105351 -1.1533384e-08 -2.7111656e-07 0.030403644 -4.0914624e-06 -0.05882577 -0.004767053 0.018001411
-2.5820417e-09 -0.006322025 -3.1850835e-08 -0.14716905 -0.005418101 0.0028579142 0.0057165963 -0.0015807294
-0.0025390966 -2.1062924e-31 -0.0976961 -0.057220776 -0.07118885 -1.0624645e-14 -0.061017144 -0.02245014
-0.115527235 -6.828102e-08 -3.23297e-30 -0.0007750413 0.018039279 -0.0027008639 -0.00015934708 -0.007845888
-0.03809431 -0.0012950439 -0.048163984 -0.1365712 0.025153546 -0.10211797 -0.03786678 0.05027011
0.039805304 -0.0010063405 -0.020294094 -1.6803634e-15 -0.04105245 -0.065954976 -1.1059075e-22 -0.09692386
-0.008544173 -0.099566735 -2.4359088e-23 0.0024574003 -2.2526908e-10 -0.14050688 -0.0018846139 -0.09250011
-2.4799805e-08 -2.8135303e-09 -1.2702982e-13 -0.0020854385 -0.005619261 -1.7698843e-05 -0.091452114 -8.476747e-16
-0.0001462033 -0.0005788137 -0.22727974 -0.00024898644 -0.0007225795 -0.0074280384 -0.21625225 -1.288741e-08
-0.0032825028 -0.003286358 -7.447624e-17 -6.910775e-12 -0.0039114077 -0.0052310564 -1.0020408e-05 0.02745964
-0.005600685 -2.1533548e-08 -4.887915e-22 -0.0012273227 -0.0065467246 -0.35329506 -0.0014006213 -0.00042474046
0.0298084 -0.12713481 0.057466052 0.086440854 -5.263907e-06 -0.09599525 -2.5441013e-06 0.032039266
-1.5315885e-10 -2.2103488e-06 -3.8937552e-13 -0.02984648 -0.016941348 0.04568495 -0.0027016858 -0.1134405
-2.605254e-18 -0.0015771091 -0.06605218 -1.0414436e-19 -4.1619583e-05 -2.3109584e-07 0.011818223 -0.001282305
-6.1059e-05 -1.2582234e-11 0.0043795384 -0.15204923 -2.4250148e-06 0.0039116265 -0.0034234822 -0.2701378
-0.08046058 -0.08178272 -0.031933837 -0.0017766877 -0.24525602 -0.28188443 -0.058661126 -1.5650063e-08
0.043850154 -7.3270683e-09 -0.0031070318 -1.3251231e-09 -1.0720464e-22 -0.0025676496 -0.110869735 -0.20506962
-1.2809337e-11 -0.028555393 -4.7797413e-12 0.013346647 0.00054216967 -0.14321257 -0.0019790607 -0.16187198
-2.5935262e-06 -0.0049600815 -0.19100955 0.028725524 -0.07525562 -8.001868e-14 -7.350318e-11 -0.22407201
-0.0002300446 -5.916538e-34 -0.24908066 -2.4981024e-05 -2.0948564e-06 -0.29172134 -0.000788376 -0.068773575
-0.16474567 -0.44969633 -0.0044951905 0.06934361 -0.034928933 -0.0034315947 -0.004251759 -0.0010936579
-0.0034598 -0.0070801764 0.004178775 -0.0036730694 -0.078258954 -0.046901595 -0.07784906 -0.11492781
-0.14564331 -0.044491153 0.03792877 -0.06370058 -0.0005032834 -0.10670823 0.03566313 -0.0035380074
-0.003086975 -3.7759628e-16 -0.020971034 -4.7544596e-13 -1.0879877e-27 0.048589107 -0.0065215146 0.09931038
00000000: b7d7 b0bb a8b1 a3bb 4262 2dbd f92d 33bb
00000010: fd7c 1db5 77fb a1bc 1a70 e7ba 47f5 ceb6
00000020: 0e44 ca3a 2207 1dbb 548b 5abb 014a 57bb
00000030: ebb8 06be c454 64bb 9b3a 12be 113e 97be
00000040: 27d6 1d3c 5633 ee3c b707 d8ba 7b4e 92be
00000050: 3457 86b4 b0bb 54bb 1be9 a1be c5e2 4ebd
00000060: 2abd 313b 7cdb 02bc 4946 05af 4f3d 2b3d
00000070: 6073 5bbe 98e9 7cbd 06bf 39b2 428c 0fbb
00000080: 04c4 96b1 bff3 85bb ce6f ddba d6ef c0bc
00000090: 640e 72bd 57e3 beb3 16d8 a2bc 04cd 4da5
000000a0: 7ce9 e6ba 0989 cdb5 3343 72ba 7449 25bd
000000b0: fa89 6bb5 facc b2b7 4375 b6bb f138 bdbd
000000c0: 93cd 08bd 0e89 51a9 4747 c9bc e24d 25be
000000d0: 834c 12ad 3f12 3ebe f685 3cb4 909f a3bb
000000e0: 5c2d a1bd 9b1f 00bd 5d08 c2b9 be41 b0bd
000000f0: 73b4 748a 2dfb 92bb db7d a9b5 c1b7 a03d
00000100: 43c6 abba 5c24 46b2 fa8d 91b4 1011 f93c
00000110: 6549 89b6 4af3 70bd f034 9cbb b277 933c
00000120: c26f 31b1 fd28 cfbb 5dcc 08b3 7cb3 16be
00000130: 538a b1bb d84b 3b3b 4952 bb3b 7a30 cfba
00000140: f966 26bb c9b4 888c e514 c8bd 5560 6abd
00000150: 76cb 91bd 8765 3fa8 1ded 79bd 5be9 b7bc
00000160: 8b99 ecbd e3a1 92b3 1425 838e 242c 4bba
00000170: 1cc7 933c fa00 31bb 6816 27b9 0a8c 00bc
00000180: c708 1cbd 76be a9ba 9947 45bd 52d9 0bbe
00000190: cf0e ce3c 3a23 d1bd 321a 1bbd 08e8 4d3d
000001a0: e30a 233d 2fe7 83ba cd3f a6bc 782a f2a6
000001b0: 9d26 28bd 6713 87bd 2eb2 059b 0480 c6bd
000001c0: dcfc 0bbc a5e9 cbbd 2e96 eb99 560c 213b
000001d0: 9caf 77af 09e1 0fbe 2605 f7ba b370 bdbd
000001e0: 5907 d5b2 2658 41b1 da05 0faa daab 08bb
000001f0: c721 b8bb fa77 94b7 3f4b bbbd 5a53 74a6
00000200: 264e 19b9 88bb 17ba 05bc 68be 658a 82b9
00000210: 7d6b 3dba e766 f3bb 3b71 5dbe 6e67 5db2
00000220: 421f 57bb f05f 57bb 03bb aba4 ba26 f3ac
00000230: 442b 80bb 4869 abbb 531d 28b7 0af3 e03c
00000240: f385 b7bb c6f8 b8b2 69ba 139c 1ede a0ba
00000250: e885 d6bb 17e3 b4be 0d95 b7ba b3af deb9
00000260: bf30 f43c a12f 02be 8661 6b3d e707 b13d
00000270: 9ea0 b0b6 2899 c4bd 54bb 2ab6 9b3b 033d
00000280: 6266 28af 8155 14b6 ed32 dbaa 9b80 f4bc
00000290: 95c8 8abc 2420 3b3d c40e 31bb 7e53 e8bd
000002a0: db3b 40a2 00b7 ceba 5e46 87bd 67e7 f59f
000002b0: b090 2eb8 2423 78b4 38a1 413c 0413 a8ba
000002c0: cd0c 80b8 5859 5dad 3b82 8f3b cbb2 1bbe
000002d0: 70bd 22b6 1a2d 803b 805c 60bb 804f 8abe
000002e0: 84c8 a4bd b37d a7bd 0ecd 02bd bfdf e8ba
000002f0: 6524 7bbe 2853 90be a646 70bd da6e 86b2
00000300: 389c 333d 93c1 fbb1 589f 4bbb a01f b6b0
00000310: 3b9a 019b 0346 28bb ac0f e3bd c5fd 51be
00000320: 2058 61ad 00ed e9bc 152c a8ac e5ab 5a3c
00000330: 6420 0e3a 51a6 12be 21b3 01bb c5c1 25be
00000340: 710c 2eb6 2e88 a2bb 0298 43be ca51 eb3c
00000350: 9e1f 9abd a12f b4a9 9da2 a1ae 2273 65be
00000360: 2138 71b9 579c 4488 000f 7fbe 578e d1b7
00000370: 5c95 0cb6 805c 95be 05ab 4eba 29d9 8cbd
00000380: 17b3 28be 993e e6be 644c 93bb 0604 8e3d
00000390: a411 0fbd 9be4 60bb 5752 8bbb 1259 8fba
000003a0: d0bd 62bb d300 e8bb 1bee 883b e1b7 70bb
000003b0: 3b46 a0bd e31b 40bd 546f 9fbd 465f ebbd
000003c0: 8523 15be 5b3c 36bd 335b 1b3d 7375 82bd
000003d0: c7ee 03ba d889 dabd 8113 123d eadd 67bb
000003e0: d94e 4abb 60ab d9a5 72cb abbc 7ed3 05ab
000003f0: 0666 ac92 5f05 473d 6eb2 d5bb 3e63 cb3d

8.weight f4 [128, 256]
-3.416e-42 -1.445e-42 7.732e-42 -5.8485e-41 -5.1976e-41 -3.603e-42 6.32e-43 -4.9345e-41
4.851e-42 4.348e-42 5.9028e-41 5.3405e-41 -2.413e-42 2.8626e-41 -2.835e-42 -1.74e-42
-8.8354064e-13 -1.1393791e-14 -2.812e-42 -4.058e-42 2.3336e-41 -2.4048e-41 -1.246e-42 7.833e-42
-8.011e-42 -2.2756e-41 1.8675e-41 5.189e-42 -7.783e-42 9.131e-42 -6.95e-42 -2.5918e-41
-5.6485e-41 -4.61e-43 2.1113e-41 -3.61e-42 -7.431e-42 -2.808e-42 -5.602e-42 -3.3169e-41
-4.1766e-41 5.6901e-41 1.3004e-41 7.58e-43 4.8638e-41 6.0811e-41 -4.4147e-41 -3.52e-42
6.152e-42 -2.7386e-41 6.732e-42 -5.682e-42 -3.4154e-41 7.622e-42 2.3426e-41 -3e-42
-3.97e-43 -6.712e-42 -5.27e-43 5.466e-42 6.2335e-41 5.5997e-41 -1.319e-42 -1.083e-42
-2.951e-41 -3.6215e-41 -1.3876e-41 2.073e-42 3.2514e-41 -6.377e-42 -1.1484e-41 9.58e-43
2.532e-42 2.2579e-41 3.155e-41 2.5e-44 -1.4115e-41 -3.122e-42 7.822e-42 5.9091e-41
5.484e-41 3.4213e-41 4.211e-42 -7.927e-42 -4.273e-42 2.7182e-41 1.051e-42 3.527e-42
-9.101e-42 2.0004e-41 -6.1092e-41 -5.0367e-41 -6.697e-42 7.856e-42 1.7387e-41 -3.4974e-41
-8.135e-42 -5.2525e-41 1.911e-42 6.744e-42 -2.016e-42 5.775e-42 3.824e-42 6.403e-42
-7.86e-43 1.2529e-41 -3.790478e-15 -5.2246e-41 -3.506e-42 -2.587e-42 -1.3252e-41 -7.253e-42
1.045e-42 -2.913e-42 -4.713e-42 9.06e-42 -1.127e-41 -6.827e-42 -4.412e-41 -8.0745884e-35
-3.962e-41 4.37e-43 3.295e-41 1.352e-41 -3.7629e-41 8.79e-43 6.819e-42 -2.161e-42
-2.075e-41 1.36e-42 -4.7e-43 6.1283e-41 -1.4669e-41 -2.0613e-41 -6.938e-42 2.525e-42
-8.17e-43 -6.075e-42 -8.458e-42 -8.802e-42 -4.8541e-41 3.1468e-41 -1.79e-41 -4.392e-42
3.9248e-41 2.3969e-41 -5.8221e-41 -4.183e-41 -4.7378e-41 1.8e-43 2.2096e-41 -5.5152e-41
-6.39e-42 -7.413e-42 6.387e-42 -1.418e-42 -5.4753e-41 -5.51e-43 -2.4712e-41 3.377e-42
2.8145e-41 3.4032e-41 -6.1067e-41 -4.9847648e-12 -9.183e-42 1.13e-41 1.4732e-41 -3.87e-43
1.8036e-41 4.1606e-41 1.038e-42 2.601e-41 -6.808e-42 5.6227e-41 -2.277e-42 4.2336e-41
4.9163e-41 -2.797e-42 -8.7657137e-16 -2.385e-42 1.7023e-41 -6.788e-42 4.7318e-41 4.61e-43
5.72e-43 7.16e-43 7.215e-42 8.516e-42 4.337e-42 8.367e-42 -9.118e-42 2.7031e-41
8.943e-42 3.44e-42 -1.5292e-41 5.1303e-41 3.1692e-41 -5.6795e-41 7.38e-43 7.894e-42
5.9883e-41 -1.759e-42 -5.8211e-41 1.959e-42 5.5427e-41 7.106e-42 -5.6185e-41 9.099e-42
-3.7038e-41 1.0988e-41 -8.79e-43 7.269e-42 1.0887e-41 4.005e-42 -6.2171e-41 6.904e-42
2.709e-42 2.5854e-41 7.765e-42 5.3772e-41 1.9112e-41 5.65e-43 2.403e-42 -2.319e-42
1.127e-42 -5.134e-42 1.6031e-41 -4.823e-42 -5.053e-42 -3.2991e-41 1.1383e-41 -6.1053e-41
-7.865e-42 5.8986e-41 -6.987e-42 -7.964e-42 -8.4e-43 -2.16e-43 1.79e-42 -6.796e-42
8.779e-42 -8.576e-42 -2.07e-43 -6.688e-42 2.3333e-41 6.676e-42 3.71e-42 -4.1494e-41
-1.986e-42 1.2885e-41 8.55e-42 -3.6591e-41 -8.185e-42 -7.004e-42 5.6523e-41 -1.04e-42
00000000: 8609 0080 0704 0080 8e15 0000 08a3 0080
00000010: e390 0080 0b0a 0080 c301 0000 8e89 0080
00000020: 860d 0000 1f0c 0000 8ca4 0000 df94 0000
00000030: ba06 0080 cc4f 0000 e707 0080 da04 0080
00000040: d0b1 78ab 9640 4da8 d707 0080 500b 0080
00000050: 0d41 0000 0943 0080 7903 0080 d615 0000
00000060: 5516 0080 6f3f 0080 0f34 0000 770e 0000
00000070: b215 0080 7419 0000 6013 0080 4048 0080
00000080: 759d 0080 4901 0080 db3a 0000 100a 0080
00000090: b714 0080 d407 0080 9e0f 0080 765c 0080
000000a0: 6d74 0080 9e9e 0000 4024 0000 1d02 0000
000000b0: 9587 0000 84a9 0000 107b 0080 d009 0080
000000c0: 2611 0000 574c 0080 c412 0000 d70f 0080
000000d0: 355f 0080 3f15 0000 4d41 0000 5d08 0080
000000e0: 1b01 0080 b612 0080 7801 0080 3d0f 0000
000000f0: c4ad 0000 199c 0000 ad03 0080 0503 0080
00000100: 4352 0080 f464 0080 ae26 0080 c705 0000
00000110: a35a 0000 c711 0080 0320 0080 ac02 0000
00000120: 0f07 0000 f13e 0000 f357 0000 1200 0000
00000130: 5927 0080 b408 0080 ce15 0000 b9a4 0000
00000140: df98 0000 5f5f 0000 bd0b 0000 1916 0080
00000150: e90b 0080 c64b 0000 ee02 0000 d509 0000
00000160: 5f19 0080 c337 0000 4daa 0080 678c 0080
00000170: ab12 0080 e615 0000 7830 0000 7e61 0080
00000180: ad16 0080 6b92 0080 5405 0000 cd12 0000
00000190: 9f05 0080 1910 0000 a90a 0000 d911 0000
000001a0: 3102 0080 ed22 0000 fd90 88a7 a491 0080
000001b0: c609 0080 3607 0080 f124 0080 3814 0080
000001c0: ea02 0000 1f08 0080 230d 0080 4119 0000
000001d0: 6b1f 0080 0813 0080 fd7a 0080 cda8 d686
000001e0: 726e 0080 3801 0000 da5b 0000 b025 0000
000001f0: e568 0080 7302 0000 0213 0000 0606 0080
00000200: d839 0080 cb03 0000 4f01 0080 d5aa 0000
00000210: e428 0080 7639 0080 5713 0080 0a07 0000
00000220: 4702 0080 ef10 0080 9417 0080 8918 0080
00000230: 5087 0080 b857 0000 e631 0080 3e0c 0080
00000240: 686d 0000 d142 0000 4ca2 0080 9b74 0080
00000250: 1284 0080 8000 0000 983d 0000 be99 0080
00000260: d011 0080 aa14 0080 ce11 0000 f403 0080
00000270: a198 0080 8901 0080 e344 0080 6a09 0000
00000280: 754e 0000 de5e 0000 3baa 0080 c562 afac
00000290: 9919 0080 801f 0000 1129 0000 1401 0080
000002a0: 4732 0000 fb73 0000 e502 0000 8148 0000
000002b0: fa12 0080 bd9c 0000 5906 0080 0476 0000
000002c0: 0c89 0000 cc07 0080 8da7 7ca6 a606 0080
000002d0: 742f 0000 ec12 0080 e783 0000 4901 0000
000002e0: 9801 0000 ff01 0000 1d14 0000 bd17 0000
000002f0: 170c 0000 5317 0000 6b19 0080 5a4b 0000
00000300: ee18 0000 9709 0000 a12a 0080 038f 0000
00000310: 5858 0000 529e 0080 0f02 0000 0116 0000
00000320: eea6 0000 e704 0080 45a2 0080 7605 0000
00000330: 829a 0000 cf13 0000 9f9c 0080 5d19 0000
00000340: 3f67 0080 a11e 0000 7302 0080 4314 0000
00000350: 591e 0000 2a0b 0000 4fad 0080 3f13 0000
00000360: 8d07 0000 1248 0000 a515 0000 e595 0000
00000370: 4735 0000 9301 0000 b306 0000 7706 0080
00000380: 2403 0000 500e 0080 b02c 0000 720d 0080
00000390: 160e 0080 f75b 0080 bb1f 0000 31aa 0080
000003a0: ed15 0080 6ea4 0000 7a13 0080 3316 0080
000003b0: 5702 0080 9a00 0080 fd04 0000 f212 0080
000003c0: 7918 0000 e817 0080 9400 0080 a512 0080
000003d0: 0b41 0000 9c12 0000 580a 0000 ab73 0080
000003e0: 8905 0080 eb23 0000 d517 0000 0066 0080
000003f0: d116 0080 8613 0080 909d 0000 e602 0080

8.bias f4 [128]
-2.3069446e-05 -0.00070359674 -8.0296786e-29 -3.7959982e-12 -0.0012217173 0.06804311 -2.1238317e-35 -2.8063078e-16
0.057478804 -1.6171875e-24 -2.578517e-32 -4.0535446e-07 -2.4115196e-12 0.058091376 -1.9580296e-27 -3.2002647e-21
0.04299251 -0.001160677 -8.731607e-21 -0.0004070908 -0.00093658146 -1.6012035e-30 -3.28899e-06 -0.00032988327
-1.5460882e-05 -2.1745843e-10 -1.2585153e-15 -2.319577e-14 0.15438536 -0.0021683795 -2.2981654e-09 -0.0023685324
0.117782824 -6.18587e-12 -5.0430515e-10 -0.0052363886 -3.610285e-05 -9.2981004e-32 -0.0013507644 -1.4244015e-23
-5.8245294e-31 -0.0041215722 -0.0021457695 -1.3706193e-37 -7.085669e-05 0.033047177 -0.003949021 -1.0919119e-07
-1.526345e-07 -2.1698268e-05 -0.0015731405 -1.8184023e-06 -6.8307975e-07 0.10358425 0.1120938 -2.634633e-05
-0.0014007605 -0.001964886 -5.997248e-27 -1.1107525e-11 -4.0734078e-05 -6.835197e-08 -3.5728746e-08 -6.29857e-06
-1.0143955e-06 -0.0005129493 -7.702512e-05 -1.9615167e-05 0.16115096 -0.0031388917 -0.003811051 -2.7581905e-26
-7.637415e-12 -0.0012347258 -0.00023053335 1.1589997e-35 -8.3173116e-05 -0.043923244 -0.013780547 -3.7015634e-05
-0.0008844816 -0.0017384699 -8.4626554e-05 -5.9812795e-15 -0.00017057161 -0.0055432227 -1.6582618e-21 -3.2485176e-10
-2.9379938e-13 -0.0005635614 -6.5621674e-24 -6.9153666e-06 -7.9156054e-10 -0.004370092 -9.9006456e-11 -1.8279259e-07
-0.0007855155 -0.002860021 -2.4676984e-15 -9.958377e-07 -0.00020276725 -1.0010925e-31 0.057041857 -5.152523e-15
-3.461496e-09 0.049535688 -4.7068615e-36 -3.018148e-05 -0.013124643 -1.5455413e-32 -3.2881948e-15 0.080826014
0.15840258 -2.3990052e-07 -1.5534728e-14 0.37216207 -0.0048338883 0.14386356 -1.7979361e-17 -0.0054399827
-0.0010211867 -1.3020777e-17 -3.083556e-14 -4.586674e-26 -0.0017403743 -2.5753855e-06 -6.602753e-28 -0.00998697
00000000: 4285 c1b7 9471 38ba 9893 cb90 508f 85ac
00000010: 0822 a0ba 305a 8b3d 33d8 e185 cbc5 a1a5
00000020: e56e 6b3d 663f fa97 5fe2 058b 7e9f d9b4
00000030: 13b2 29ac 39f1 6d3d 8f21 1b93 1fce 719d
00000040: ea18 303d dc21 98ba 76ef 249e cd6e d5b9
00000050: eb84 75ba b2e7 018e 6bb8 5cb6 2ff4 acb9
00000060: feb1 81b7 1b19 6faf 055f b5a6 ceed d0a8
00000070: 3217 1e3e 5f1b 0ebb c1ed 1db1 6139 1bbb
00000080: 1f38 f13d 5da5 d9ac 529f 0ab0 0396 abbb
00000090: 246d 17b8 7a64 f18b 220c b1ba 79c2 8999
000000a0: 4c04 3d8d 410e 87bb 0aa0 0cbb 1d8f 3a82
000000b0: e598 94b8 7a5c 073d ca66 81bb 7e7c eab3
000000c0: dae3 23b4 ad04 b6b7 d631 ceba d40f f4b5
000000d0: e25c 37b5 fb23 d43d 6f91 e53d 5002 ddb7
000000e0: b999 b7ba 51c5 00bb 5293 ed93 d867 43ad
000000f0: e2d9 2ab8 e5c8 92b3 2c74 19b3 4e58 d3b6
00000100: 5d26 88b5 7277 06ba 8c88 a1b8 408b a4b7
00000110: c204 253e ddb5 4dbb d3c2 79bb 3894 0895
00000120: dc5b 06ad 86d6 a1ba 53bb 71b9 f27d 7605
00000130: 3a6d aeb8 dce8 33bd cec7 61bc 3c41 1bb8
00000140: 8edc 67ba 5fdd e3ba 8979 b1b8 917f d7a7
00000150: 78db 32b9 eca3 b5bb e596 fa9c d296 b2af
00000160: f464 a5aa f7bb 13ba 8fdc fd98 8c0a e8b6
00000170: 1f95 59b0 fd32 8fbb aeb7 d9ae a545 44b4
00000180: 0eeb 4dba 316f 3bbb 00d1 31a7 b9a8 85b5
00000190: eb9d 54b9 01f3 018c b9a4 693d a3a3 b9a7
000001a0: 48df 6db1 efe5 4a3d 2f35 c884 3c2e fdb7
000001b0: be08 57bc 897f a08a 7df0 6ca7 1c88 a53d
000001c0: 4934 223e adcb 80b4 a5ec 8ba8 078c be3e
000001d0: 9865 9ebb f850 133e 91d4 a5a3 e241 b2bb
000001e0: 57d9 85ba e230 70a3 fbde 0aa9 001f 6395
000001f0: 451d e4ba c9d4 2cb6 e53f 5192 63a0 23bc
