Models/checkpoint_vel_final_1000_300.pth (torch, 353077 bytes, 16 tensors)

0.weight f4 [32, 9]
0	0x3e0178dd	0.12643762
1	0xbdeb96ab	-0.11503347
2	0xbea5e70b	-0.32402834
3	0x3e89821c	0.26857078
4	0xbf41af5f	-0.7565822
5	0x3e963fef	0.29345652
6	0x3c837283	0.016045814
7	0x3e5fb9c4	0.21848208
8	0xbdb4301d	-0.087982394
9	0xbe05a60a	-0.1305162
10	0x3d8054ae	0.06266151
11	0x3dadef25	0.08492879
12	0xbe33cfe4	-0.17559773
13	0x3f2ac199	0.66701657
14	0xbe064a36	-0.13114247
15	0xbd7d6898	-0.061867326
16	0xbc5b4875	-0.013383974
17	0xbdd57c30	-0.104240775
18	0x3ea68550	0.32523584
19	0x3d2373c4	0.039905325
20	0x3d1abdfb	0.037778836
21	0xbe958942	-0.29206282
22	0xbf08cf46	-0.53441274
23	0xbdb9251f	-0.090402834
24	0xbe1f4f2c	-0.15557545
25	0x3c50a50a	0.012734661
26	0x3e2e7c31	0.17039563
27	0x3ddae56d	0.10688291
28	0xbeb9f835	-0.3632218
29	0x3e5c06b3	0.2148693
30	0x3e978e00	0.29600525
31	0x3edf52a2	0.4361773
32	0x3e462132	0.193486
33	0xbe6a93ef	-0.22907995
34	0xbe38e6c8	-0.18056786
35	0xbd72a0bb	-0.059235316
36	0x3e1f554d	0.15559883
37	0xbd910215	-0.07080475
38	0x3e55fb4c	0.20896643
39	0xbe71bffa	-0.2360839
40	0x3f972016	1.1806667
41	0xbe24aa40	-0.1608057
42	0x3e2e0550	0.16994214
43	0x39dff0c7	0.00042713268
44	0xbe7de771	-0.24795319
45	0x3dfd1964	0.123583585
46	0xbe3914fa	-0.18074408
47	0x3e0dd6a1	0.13851406
48	0xbf58e6ed	-0.84727365
49	0x3d057c8d	0.032589484
50	0xbec2b9d8	-0.38032413
51	0xbdd41bcf	-0.103568666
52	0x3db66b1d	0.08907149
53	0xbdc00bd2	-0.093772545
54	0x3e7d9741	0.2476473
55	0x3cfa8c16	0.030584376
56	0x3ea1f10e	0.31629223
57	0xbeccb567	-0.3998215
58	0xbe38f15f	-0.18060826
59	0x3e144139	0.14478005
60	0xbe82647d	-0.2546729
61	0x3e4ee638	0.20205009
62	0x3e8c5509	0.27408627
63	0x3df3f000	0.11911011
64	0xbe651fcd	-0.22375412
65	0xbe952580	-0.29130173
66	0x3e514af4	0.20438749
67	0xbe2380f0	-0.15967155
68	0xbe1feff8	-0.15618885
69	0xbdcc0b68	-0.09963113
70	0x3ddca400	0.10773468
71	0xbccd06c2	-0.025027636
72	0x3e0fc6a4	0.14040619
73	0x3e094bd5	0.13407834
74	0x3e340011	0.1757815
75	0xbf1d5e58	-0.6147208
76	0x3d71fd4a	0.059079446
77	0x3ddf4a62	0.10902859
78	0xbe9a4b59	-0.3013561
79	0x3d8c67f6	0.068557665
80	0xbe199001	-0.1499634
81	0xbe446fa9	-0.1918322
82	0xbcfa2baa	-0.030538399
83	0xbf06d355	-0.5266622
84	0xbe85c7a7	-0.26128885
85	0xbc67ab0b	-0.014139901
86	0xbe5075c8	-0.2035743
87	0x3e1fbdeb	0.15599792
88	0xbda95e1b	-0.08269902
89	0x3d9878c3	0.074449085
90	0x3d3e8b2d	0.046519447
91	0xbe8038cc	-0.25043333
92	0xbb98ef8f	-0.0046672295
93	0x3f6b7995	0.91982394
94	0xbf18dd78	-0.59712934
95	0xbe02179a	-0.12704316
96	0x3e0af299	0.13569106
97	0x3dcf2594	0.10114589
98	0xbe0cf93f	-0.13766955
99	0xbd8929a0	-0.066973925
100	0x3e5c2872	0.21499804
101	0xb8e58e8f	-0.000109461245
102	0x3eda0085	0.4257852
103	0xbea8b1f6	-0.32948273
104	0xbe539e63	-0.20665888
105	0xbe950442	-0.2910481
106	0x3e96dbc3	0.2946454
107	0xbc654be5	-0.013995145
108	0x3e5daabb	0.2164716
109	0xbca4a1f7	-0.020096762
110	0xbcca9e9f	-0.02473384
111	0x3f08673e	0.53282535
112	0x3fa760ac	1.3076377
113	0xbe4008fa	-0.18753424
114	0x3d0ed6f4	0.034872964
115	0x3e724520	0.23659182
116	0x3e0efbaf	0.13963197
117	0x3dc39f81	0.09551907
118	0xbe74d86b	-0.23910682
119	0xbd00180f	-0.031272944
120	0xbe4a22cb	-0.19739835
121	0x3da4b1eb	0.08041748
122	0x3e48037f	0.19532584
123	0xbe1c7965	-0.15280683
124	0x3e3e8098	0.18603742
125	0xbe1f7aa7	-0.15574132
126	0xbe85cae6	-0.26131362
127	0x3d0fa9af	0.035073932
128	0x3e636920	0.22208071
129	0x3eeea122	0.4660731
130	0xbf79ceb8	-0.9758105
131	0x3ccf5c37	0.025312526
132	0x3e608f7c	0.21929735
133	0x3e069070	0.13141036
134	0x3e1829a6	0.14859638
135	0x3e846d3c	0.2586459
136	0x3e9c05fe	0.30473322
137	0x3e8aea6e	0.2713198
138	0xbe5140a8	-0.2043482
139	0xbf5e2402	-0.86773694
140	0xbe0e6aee	-0.13907978
141	0x3c5c6fff	0.013454436
142	0xbe56101a	-0.2090458
143	0x3d3fa996	0.04679259
144	0xbd47b426	-0.048755787
145	0xbddb604e	-0.10711728
146	0x3d63f08c	0.055649325
147	0x3e4bfcd2	0.19920662
148	0x3cfce101	0.030869009
149	0x3f831ea4	1.0243726
150	0xbd9a1982	-0.075243965
151	0x3d6d9bc6	0.058009885
152	0xbc514449	-0.012772628
153	0xbbea0aab	-0.007142385
154	0xbeabb4e1	-0.33536437
155	0xbe5fce7a	-0.21856108
156	0xbf286c18	-0.6578994
157	0xbe33d079	-0.17559995
158	0x3d80ede3	0.06295373
159	0xbd85a18c	-0.06524953
160	0xbe4f0dd3	-0.20220117
161	0x3e053546	0.13008603
162	0x3e241715	0.1602443
163	0x3d19ea7f	0.03757715
164	0xbecac7c6	-0.3960554
165	0x3ee5d608	0.44889855
166	0x3f196594	0.5992062
167	0xbdbff968	-0.09373742
168	0xbe5752e2	-0.21027711
169	0xbd933deb	-0.07189544
170	0xbdfb4a43	-0.12270024
171	0x3d8e67d6	0.06953399
172	0x3e3c315c	0.18378204
173	0x3ec1788d	0.37787285
174	0x3eaa4c35	0.33261266
175	0x3e2c6916	0.16836962
176	0x3e284596	0.16432795
177	0x3d15a430	0.036533535
178	0xbe24449a	-0.16041794
179	0x3e8da97e	0.27668375
180	0xbd90d2b1	-0.07071436
181	0xbda04e05	-0.07827381
182	0xbea0bf6a	-0.31396037
183	0xbd1c8ef3	-0.038222264
184	0xbf76246c	-0.96149325
185	0x3e1b7520	0.15181398
186	0xbe8c79b3	-0.274366
187	0xbe02e15e	-0.12781283
188	0xbd5b26c4	-0.053503767
189	0xbe89a21a	-0.26881486
190	0x3b2f1923	0.0026717864
191	0xbe299b04	-0.1656304
192	0xbdbbbca9	-0.091668434
193	0x3ea1fb8b	0.31637225
194	0x3f2d36de	0.67661846
195	0xbe37ee29	-0.17961945
196	0x3dac40f8	0.08410829
197	0x3e204b65	0.1565376
198	0x3e90ad0b	0.2825702
199	0xbe9b0336	-0.30275887
200	0x3e8fce23	0.28086957
201	0xbf3082b9	-0.68949467
202	0xbe01d282	-0.12677959
203	0xbdd8b1c1	-0.10580779
204	0x3dd1bd65	0.10241202
205	0xbd959b11	-0.07304967
206	0x3b89d3f3	0.0042061745
207	0xbc60c0bd	-0.013717827
208	0x3d8f36ae	0.06992851
209	0x3d928d7a	0.07155891
210	0x3e81f823	0.25384626
211	0x3e1a6146	0.1507617
212	0xbe89a5c7	-0.2688429
213	0x3e644c50	0.22294736
214	0x3e316c11	0.1732638
215	0x3e9df488	0.30850625
216	0x3e3c3011	0.18377711
217	0xbea42753	-0.32061252
218	0xbe942b19	-0.2893913
219	0x3f34b62d	0.7059048
220	0x3ed94287	0.4243357
221	0x3e5b5e1f	0.21422623
222	0xbe6b36fe	-0.22970197
223	0xbdac4f08	-0.084135115
224	0x3d938493	0.07203021
225	0xbe1626ef	-0.1466329
226	0xbe08dc67	-0.13365327
227	0x3dcb4aee	0.09926401
228	0x3ec37853	0.38177738
229	0x3f79492a	0.97377264
230	0xbd88c49e	-0.06678127
231	0xbe191efa	-0.14953223
232	0x3e7b8ed5	0.24566205
233	0xbd6ac444	-0.05731608
234	0xbdcbe33b	-0.0995545
235	0x3aa8eb5c	0.0012887525
236	0xbe9f353f	-0.3109531
237	0xbcee2cf8	-0.029074177
238	0x3ec69569	0.38785866
239	0xbe43b01f	-0.19110154
240	0xbe95edec	-0.29283082
241	0x3c914266	0.017731857
242	0x3e21284e	0.15738031
243	0xbb844553	-0.0040365844
244	0xbd2f90b5	-0.042862613
245	0x3da41292	0.080113545
246	0xbf11ebb6	-0.5700029
247	0x3e8000d5	0.25000635
248	0xbe486ffb	-0.19573967
249	0x3e906238	0.28199935
250	0x3e8cb31c	0.274804
251	0xbd83d888	-0.064377844
252	0x3e8568a5	0.260564
253	0x3eb2f7a1	0.3495455
254	0xbe0b24c5	-0.13588245
255	0xbf416421	-0.7554341

0.bias f4 [32]
0	0xbc1c39f9	-0.009535306
1	0x3dda0e44	0.10647252
2	0xbcc3690d	-0.023853803
3	0xbdcc917b	-0.09988686
4	0x3e7f699f	0.24942635
5	0x3e806ffd	0.2508544
6	0x3d1e775c	0.03868805
7	0xbdcd7119	-0.10031337
8	0xbcebd59c	-0.02878838
9	0x3de7a9e6	0.113117024
10	0xbeabb925	-0.33539692
11	0xbe0dc3c2	-0.13844207
12	0x3e324544	0.17409235
13	0xbcf77dd1	-0.030211361
14	0x3d565de0	0.05233562
15	0xbda07631	-0.07835043
16	0x3e9952a4	0.29945862
17	0x3c9070ff	0.017632006
18	0xbdae5cef	-0.085138194
19	0x3efe976d	0.49724904
20	0xbd129509	-0.035786662
21	0x3eeedac4	0.4665128
22	0x3e2b1b61	0.16709663
23	0x3e53dacf	0.20688938
24	0xbeabd64b	-0.3356193
25	0xbe1537c9	-0.14572062
26	0x3e9058e9	0.28192833
27	0xbe538eca	-0.20659938
28	0x3c80c8e9	0.015720801
29	0x3db4f1af	0.0883516
30	0x3d383543	0.04497267
31	0xbdbf16e4	-0.09330538

2.weight f4 [64, 32]
0	0x3ddb865e	0.10718988
1	0x3e33a0e9	0.17541851
2	0xbde6b9ca	-0.11265905
3	0xbe1bb148	-0.15204346
4	0x3e332f60	0.17498541
5	0xbe208cbd	-0.15678687
6	0xbe0405bb	-0.12892811
7	0xbd949ec1	-0.072568424
8	0xbda1ab99	-0.07894058
9	0xbdd95aef	-0.10613047
10	0xbd629bd9	-0.05532441
11	0x3e25cd7f	0.16191672
12	0xbd8a2819	-0.06745929
13	0xbe65a06a	-0.22424474
14	0x3ca9d1fe	0.020730015
15	0x3c779ee0	0.015113562
16	0xbbb291d2	-0.005449512
17	0xbb88c6d9	-0.004174095
18	0x3ddb0646	0.10694556
19	0x3d8530ae	0.065034255
20	0xbc5a2404	-0.013314251
21	0xbc589e99	-0.013221406
22	0xbde5c360	-0.112189054
23	0x3dfa3966	0.12217979
24	0x3d801d63	0.06255605
25	0xbe00617d	-0.12537189
26	0x3d130047	0.035888936
27	0xbd97b0e3	-0.07406785
28	0xbe785d5a	-0.24254361
29	0xbd354e39	-0.044264052
30	0x3e12c018	0.1433109
31	0x3cf72d2f	0.030172912
32	0xbe846351	-0.25857022
33	0xbd16fd61	-0.036862735
34	0x3cc32799	0.023822593
35	0x3e12485a	0.14285412
36	0x3e47fc94	0.19529945
37	0x3d75ba9c	0.059992418
38	0x3befeb17	0.007321726
39	0x3d741282	0.059587963
40	0xbd948230	-0.07251394
41	0xbe8e516a	-0.2779649
42	0x3e3b9fe7	0.18322717
43	0x3cf34727	0.029697014
44	0x3e003d81	0.12523462
45	0xbc7d45ea	-0.015458563
46	0xbe483b98	-0.19553983
47	0xbe692398	-0.22767484
48	0xbd89469c	-0.06702921
49	0xbde8dd1e	-0.113703
50	0xbe078d33	-0.13237457
51	0x3df10185	0.11767868
52	0x3ca9ffa7	0.020751787
53	0xbd9709e8	-0.07374936
54	0x3d5718c7	0.052513864
55	0x3e017772	0.12643221
56	0xbcf5f6c0	-0.030024886
57	0x3e575015	0.21026643
58	0x3e0d52d2	0.13801125
59	0x3d8cf4d5	0.068826355
60	0x3e9551e6	0.29164046
61	0xbdf11ddd	-0.11773274
62	0x3e336f79	0.17522992
63	0x3dd3e186	0.103457496
64	0xbda3d4f4	-0.07999602
65	0xbc32bbdc	-0.010909047
66	0x3d445e53	0.047941517
67	0x3d8fe6d3	0.07026448
68	0xbde799c6	-0.11308627
69	0xbda15515	-0.07877556
70	0xbc3ac606	-0.0113997515
71	0x3e10d6f8	0.14144504
72	0xbc5686b5	-0.01309364
73	0xbd4729bf	-0.048623797
74	0x3eabb023	0.3353282
75	0xbc646ccc	-0.013941955
76	0x3e8ff92f	0.281198
77	0x3cd49406	0.02594949
78	0x3e8e7cb9	0.2782953
79	0xbcd70ae7	-0.026250316
80	0xbdefe2d1	-0.11713184
81	0x3d40322b	0.046922844
82	0x3d8cbbc9	0.06871755
83	0xbe8adac4	-0.2712003
84	0x3d891e4b	0.06695231
85	0xbbe6f52d	-0.00704827
86	0xbe196c2c	-0.1498267
87	0xbd1c2481	-0.03812075
88	0x3e435cef	0.1907842
89	0xbd63771e	-0.05553352
90	0x3caf9d6b	0.021437367
91	0x3e657703	0.2240868
92	0x3cbfab47	0.023397101
93	0xbdb509b9	-0.08839745
94	0x3df8d5d1	0.12150157
95	0x3e477f3e	0.19482133
96	0xbe0cc42f	-0.13746713
97	0x3e32a124	0.17444283
98	0x3b2163e7	0.0024626197
99	0xbdb993aa	-0.09061368
100	0xbe2bc803	-0.16775517
101	0x3e823ed0	0.25438547
102	0x3deb792f	0.11497723
103	0x3e06953f	0.1314287
104	0x3dec16e9	0.11527807
105	0x3df12563	0.11774709
106	0xbd8240da	-0.06360026
107	0xbe0acea5	-0.13555391
108	0x3bf0d631	0.0073497524
109	0x3d8738dd	0.06602643
110	0x3c40ca83	0.011767033
111	0xbdf56d9c	-0.11983797
112	0xbcc3c0bf	-0.02389562
113	0x3e591087	0.21197711
114	0xbceadb22	-0.028668944
115	0xbd91bdb1	-0.07116259
116	0x3cf72155	0.030167261
117	0xbe5273fd	-0.20552059
118	0x3e1cb607	0.15303813
119	0x3d95cd0c	0.073145
120	0xbe30a28a	-0.17249504
121	0x3e2948ce	0.16531679
122	0xbe83031b	-0.25588307
123	0x3d84eb0a	0.06490143
124	0xbd48963c	-0.0489714
125	0x3dffacc3	0.124841236
126	0xbe12e935	-0.14346774
127	0xbdb6ccf6	-0.08925812
128	0x3d87f946	0.06639342
129	0xbdbc1a0e	-0.09184657
130	0x3e2619bb	0.16220753
131	0xbd1dbdf1	-0.03851122
132	0x3dcbeab4	0.099568754
133	0xbe380cda	-0.17973652
134	0x3e3c9f2d	0.18420096
135	0x3cd4175c	0.025890045
136	0xbea53801	-0.3226929
137	0xbd4554d7	-0.048176613
138	0x3d665d45	0.056241293
139	0xbdb84693	-0.08997836
140	0x3d465790	0.04842335
141	0xbcd81153	-0.026375448
142	0x3df68172	0.120364085
143	0xbca0eca4	-0.019644089
144	0x3e153199	0.14569701
145	0x3deb7871	0.11497582
146	0xbe2dae41	-0.16961004
147	0xbc1cf4bf	-0.009579836
148	0x3e1f1bcb	0.15537946
149	0xbe3adc48	-0.18248093
150	0xbd9b9f43	-0.07598736
151	0xbde6db0c	-0.112722486
152	0x3e2ea171	0.17053773
153	0x3d9e07cb	0.0771633
154	0x3c70eb44	0.014704529
155	0x3e39d248	0.18146622
156	0xbe12fb31	-0.14353634
157	0x3d8af5ce	0.06785165
158	0x3d6a2709	0.057166133
159	0xbe69684a	-0.2279369
160	0x3da21743	0.07914593
161	0x3da5e400	0.08100128
162	0x3c3f22e9	0.011666038
163	0x3d973387	0.07382875
164	0x3e347f64	0.1762672
165	0xbdd9ef4a	-0.10641344
166	0xbdd6a656	-0.10480945
167	0x3c403a31	0.011732624
168	0x3d54078c	0.05176501
169	0x3d84f546	0.06492095
170	0x3d885444	0.066566974
171	0x3d7db1a9	0.061937008
172	0x3d5b9db5	0.053617198
173	0xbe2b7231	-0.1674278
174	0x3ba48ac3	0.0050214245
175	0x3e5c77b3	0.21530037
176	0x3e570815	0.20999177
177	0xbca31a15	-0.019909898
178	0xbe20d08b	-0.15704553
179	0x3e1ae75d	0.1512732
180	0xbdf6ece3	-0.12056901
181	0xbbb84792	-0.005623766
182	0xbe50aa43	-0.2037745
183	0x3d9ff930	0.078112006
184	0xbe8288e8	-0.25495076
185	0xbde44c8d	-0.111474134
186	0xbe0c14de	-0.13679835
187	0xbe0b11fb	-0.13581078
188	0xbcce9123	-0.025215691
189	0x3ddd43a6	0.108039185
190	0xbba03443	-0.0048890426
191	0x3dd20398	0.10254592
192	0x3e1a4329	0.15064682
193	0xbd16c127	-0.0368053
194	0x3e68b617	0.22725712
195	0xbdca19c0	-0.09868193
196	0xbe1d2822	-0.1534734
197	0xbe1dd4f8	-0.15413272
198	0xbe111483	-0.14167981
199	0x3d860a2b	0.06544908
200	0xbda4433f	-0.08020639
201	0xbdbebbc4	-0.09313157
202	0x3e83afc3	0.25720033
203	0xbd6342ff	-0.055483814
204	0xbe8d9226	-0.27650565
205	0xbdc97bff	-0.098381035
206	0xbcbde7ae	-0.023181763
207	0x3e4cbc16	0.19993624
208	0xbe86fb66	-0.26363677
209	0xbddd6ca4	-0.10811737
210	0x3da404d3	0.08008733
211	0x3dd4c244	0.10388616
212	0x3d5a7306	0.05333235
213	0xbd1af320	-0.03782952
214	0x3d0869f4	0.03330417
215	0xbc8ac896	-0.01694135
216	0x3e0dcff4	0.13848859
217	0xbbf9419c	-0.007606698
218	0xbe199f94	-0.1500228
219	0xbd5f7655	-0.05455621
220	0xbe10307f	-0.14081
221	0xbc91f2a8	-0.017815903
222	0xbc8e6f00	-0.017386913
223	0xbd9a5293	-0.07535281
224	0xbad2bf47	-0.0016078734
225	0x3c4c082c	0.01245312
226	0xbd8b496d	-0.06801114
227	0x3e2dec8a	0.16984764
228	0xbdc655d3	-0.096843384
229	0x3cacc6bf	0.021090863
230	0x3e13f672	0.1444948
231	0xbd824ca4	-0.06362274
232	0x3d77056b	0.0603079
233	0xbcbcaf4f	-0.023032812
234	0xbddb71ed	-0.10715089
235	0xbd5763b3	-0.052585315
236	0x3eabbccc	0.33542478
237	0x3c04f7b9	0.008115702
238	0xbd0a9180	-0.033830166
239	0xbe1210d7	-0.14264236
240	0x3e49e6a7	0.19716893
241	0xbcbc14fd	-0.022959227
242	0xbb680eb9	-0.0035409166
243	0xbca7eb36	-0.0204979
244	0xbcf91f29	-0.030410366
245	0xbd38b78a	-0.04509691
246	0xbd923e8e	-0.071408376
247	0xbd816c2e	-0.06319462
248	0x3e00c2f9	0.12574376
249	0xbd7503ed	-0.059818197
250	0x3dbe6a2f	0.09297597
251	0xbda54b1b	-0.08070966
252	0x3b22e513	0.0024855777
253	0xbd8d827d	-0.06909654
254	0xbd789cef	-0.06069654
255	0x3b5fbe03	0.0034140355

2.bias f4 [64]
0	0x3e888cd7	0.26669952
1	0xbe58d439	-0.21174707
2	0xbe988fa2	-0.29797083
3	0x3ca26397	0.019822879
4	0x3e37608c	0.17907923
5	0x3d32d553	0.043660473
6	0xbe12e685	-0.14345749
7	0x3d1d9e9b	0.038481336
8	0xbd440a19	-0.047861192
9	0x3e20cec6	0.15703878
10	0x3ded0f84	0.11575225
11	0x3d5f1f44	0.054473177
12	0xbdd818ba	-0.10551591
13	0xbe1b149e	-0.15144584
14	0xbdc82c16	-0.09774034
15	0xbe3fb382	-0.1872082
16	0x3ec16acc	0.37776792
17	0xbe9748d8	-0.29547763
18	0x3dc56bf5	0.09639732
19	0xbe663d7c	-0.22484392
20	0x3e53ccd7	0.20683609
21	0x3c24751b	0.010037686
22	0x3df5b6ac	0.119977325
23	0xbd930b01	-0.07179833
24	0xbde4cd80	-0.111720085
25	0xbd1df085	-0.038559455
26	0x3dd13a87	0.10216241
27	0xbc9f4c03	-0.019445425
28	0x3daccdad	0.08437667
29	0xbd64c5ab	-0.055852573
30	0xbe581918	-0.21103323
31	0x3db970b3	0.09054699
32	0xbda841d3	-0.0821568
33	0x3e2f63ff	0.17127989
34	0x3dda3b07	0.1065579
35	0x3e062a47	0.13102065
36	0x3e0dc703	0.13845448
37	0xbe3e1149	-0.18561281
38	0xbdb054f8	-0.086099565
39	0xbd418421	-0.04724515
40	0x3aad4214	0.0013218545
41	0xbe258ca4	-0.16166931
42	0x3e2e8858	0.17044199
43	0x3dd51807	0.104049735
44	0xbe2d84f7	-0.16945253
45	0x3e122e0d	0.1427538
46	0x3e388ddf	0.1802287
47	0x3d39fefa	0.04540918
48	0xbda14199	-0.0787384
49	0x3d5f2ed1	0.054488007
50	0xbd73abbf	-0.05948996
51	0x3e68e180	0.22742271
52	0x3e377dff	0.17919157
53	0x3da62460	0.08112407
54	0xbe02c9b0	-0.1277225
55	0x3e8900b8	0.2675836
56	0xbbbbf0e0	-0.0057355016
57	0x3be51a73	0.0069916784
58	0x3d32a898	0.043617815
59	0xbc99f2ff	-0.018792627
60	0xbda35439	-0.079750486
61	0x3e60d9de	0.2195811
62	0xbddddbf9	-0.10832972
63	0xbdcac60c	-0.09901056

4.weight f4 [128, 64]
0	0x3e38a1e8	0.18030512
1	0xbe3b5f57	-0.18298088
2	0xbd12d0b6	-0.035843574
3	0xbd4dec21	-0.05027402
4	0x3d0202a3	0.031740796
5	0x3de2e07d	0.11077974
6	0x3daa3e78	0.08312696
7	0xbd57aa44	-0.052652612
8	0xbd1ded2c	-0.038556263
9	0xbdb6e1fe	-0.08929823
10	0x3c83d82b	0.016094288
11	0x3d05866c	0.032598898
12	0xbdb558a4	-0.088547975
13	0xbd439534	-0.047749713
14	0xbd79b7fe	-0.060966484
15	0xbdfa8cd4	-0.12233892
16	0x3d4cbf67	0.049987223
17	0xbdf6b0ec	-0.12045464
18	0xbdb65142	-0.089022174
19	0xbd61e99a	-0.05515442
20	0x3c299625	0.010350739
21	0x3d8ecfa2	0.069731966
22	0xbb7b8ce5	-0.003838354
23	0x3dee7c02	0.11644746
24	0x3c8d4b50	0.017247826
25	0xbd928b93	-0.07155528
26	0xbc72cf3c	-0.014819916
27	0x3cf37f7d	0.029723877
28	0xbd54dc80	-0.051968098
29	0xbd5890a9	-0.052872334
30	0x3d8bba0f	0.06822597
31	0x3c263ed1	0.010146813
32	0x3d9444c7	0.07239681
33	0x3d5dd308	0.054156333
34	0xbe040990	-0.12894273
35	0xbd26b1e7	-0.040697005
36	0xbc9f7244	-0.019463666
37	0x3cb3e5fa	0.021960247
38	0x3e0493dd	0.1294703
39	0xbd6a7969	-0.057244692
40	0x3dd25508	0.10270125
41	0xbe1b7e9e	-0.1518502
42	0x3d5541c2	0.052064665
43	0xbda47f9b	-0.08032151
44	0xbda3a66c	-0.07990727
45	0xbdbc6192	-0.091982976
46	0xbdb0bc13	-0.08629622
47	0x3d0aab43	0.033854734
48	0x3e0ede83	0.13952069
49	0x3dd34a3a	0.10316892
50	0xbd3b158c	-0.045674846
51	0xbd1a25df	-0.037633773
52	0xbd95b80c	-0.07310495
53	0x3d2d5313	0.042315554
54	0xbdb2f379	-0.08737845
55	0xbd4873e7	-0.048938658
56	0x3de5abab	0.11214384
57	0x3e252932	0.16128996
58	0x3cf75bff	0.030195234
59	0x3d6364b6	0.055515967
60	0x3e19da3d	0.15024658
61	0xbdc88e93	-0.09792819
62	0xbe47732d	-0.1947753
63	0x3d382344	0.044955507
64	0xbb33d22b	-0.0027438502
65	0xbba48064	-0.005020188
66	0xbbbcbfaf	-0.005760155
67	0xbb50cd7d	-0.0031860762
68	0xba8bb893	-0.0010659866
69	0xbba7e832	-0.0051241154
70	0xbba735ac	-0.0051028337
71	0xbb4a1aa9	-0.0030838645
72	0x3a88f56a	0.0010449116
73	0x3a8d4931	0.0010779259
74	0xbb3e81d1	-0.0029069076
75	0xbaad68a9	-0.0013230044
76	0xbb33d1da	-0.0027438314
77	0xbaded946	-0.0017002008
78	0x3b022a27	0.001986155
79	0xbb9f1cf2	-0.0048557455
80	0x3ba93dfc	0.00516486
81	0xbb957a90	-0.0045617297
82	0xba929af9	-0.0011185101
83	0x3a089744	0.00052105286
84	0xbac08e17	-0.0014690784
85	0xba0bce68	-0.0005333186
86	0x3a22943c	0.0006201898
87	0xbb8063c1	-0.0039181416
88	0x3b330485	0.0027315926
89	0x399b53e5	0.0002962641
90	0xbbb2e121	-0.0054589664
91	0xbb5189f9	-0.0031973107
92	0xbb429733	-0.0029692173
93	0xbba45d7a	-0.005016026
94	0x3a521013	0.00080132595
95	0xbab09bc1	-0.0013474153
96	0xbbedabb0	-0.0072531328
97	0xbb9d94f2	-0.0048090154
98	0xbbd82816	-0.0065965755
99	0x3a27281b	0.00063765206
100	0xbb5c2f3b	-0.0033597487
101	0xbbafb1a0	-0.0053617507
102	0x3a3ed5de	0.00072797935
103	0xb990068c	-0.00027470698
104	0xbbc4945b	-0.0059991307
105	0xbbf50dce	-0.0074784523
106	0xbb120a94	-0.0022284137
107	0xbbd70b8b	-0.0065626553
108	0xbbd1a726	-0.0063980995
109	0xbbd732d8	-0.0065673403
110	0xbab95606	-0.0014140017
111	0x3aefc30a	0.0018292379
112	0x3a28566b	0.00064215687
113	0xb9160056	-0.0001430524
114	0x3b874ffc	0.004129408
115	0xb97c2185	-0.0002404508
116	0xbb223391	-0.0024749974
117	0x3a73ed4d	0.0009305075
118	0xbb13118d	-0.002244088
119	0xbb1e9656	-0.0024198494
120	0x3acff2e7	0.0015865237
121	0xbac25f31	-0.0014829395
122	0xbaf29c22	-0.0018509666
123	0xbb5e1086	-0.003388436
124	0xbbb54120	-0.005531445
125	0xba380e45	-0.00070211693
126	0xbbcaf0c6	-0.006193253
127	0xba3837b2	-0.0007027342
128	0x3cb49ae9	0.022046523
129	0xbb3da7b6	-0.0028939075
130	0xbdf31102	-0.11868478
131	0xbb058a19	-0.0020376502
132	0xbcb1ea89	-0.02171828
133	0x3ce082fd	0.02740621
134	0xbcb02577	-0.02150224
135	0xbbdc5136	-0.0067235483
136	0x3d341363	0.0439638
137	0x3dc98f73	0.09841814
138	0x3bf2cb0f	0.0074094604
139	0x3d345f8c	0.044036433
140	0xbdc83ca4	-0.09777191
141	0x3bdeb0d4	0.006795982
142	0xbdbf8227	-0.093509965
143	0xbcfd7a85	-0.03094221
144	0x3dad93ff	0.08475494
145	0x3d1d749b	0.03844128
146	0xbd14d86f	-0.03633922
147	0xbd0be8e5	-0.034157652
148	0x3ca354f3	0.019937968
149	0xbca9ed01	-0.020742895
150	0x3d7dc53e	0.061955683
151	0xbcf57c41	-0.029966475
152	0xbc60399c	-0.01368561
153	0x3d822bef	0.06356036
154	0xba8a151a	-0.0010534853
155	0xbd126567	-0.035741236
156	0xbd23b738	-0.039969653
157	0x3c5b36c4	0.013379756
158	0xbd63be4c	-0.055601403
159	0xbd96c92f	-0.073625915
160	0x3d66bd46	0.05633285
161	0x3d8646ce	0.06556474
162	0xbdf614a0	-0.12015653
163	0x3ca321cc	0.019913577
164	0xbd177625	-0.036977906
165	0x3ccc3064	0.024925418
166	0xbcb5461a	-0.022128154
167	0xbc2232c1	-0.009899796
168	0xbd69300f	-0.056930598
169	0xbd6f3c41	-0.058407072
170	0x3d0da87a	0.0345845
171	0xbe032067	-0.1280533
172	0x3da3135b	0.07962676
173	0x3b4882e8	0.0030595604
174	0x3c00e055	0.007865985
175	0xbdb4b0f2	-0.08822812
176	0xbd15110f	-0.03639322
177	0xbdf0899c	-0.11744997
178	0x3cd05702	0.025432114
179	0x3da002ff	0.078130715
180	0xbd448df3	-0.047986936
181	0x3dde0b8b	0.108420454
182	0xbe5dc0ee	-0.21655628
183	0xbd5b51be	-0.053544752
184	0xbe44e14a	-0.19226566
185	0xbda5e4c3	-0.081002735
186	0xbb3f4fb6	-0.0029191799
187	0xbdf56f71	-0.119841464
188	0x3df92d6b	0.12166866
189	0xbd5076ce	-0.05089455
190	0x3dfee887	0.12446695
191	0xbcefb8b0	-0.02926287
192	0xbc861894	-0.016369142
193	0x3c240ea9	0.010013261
194	0x3cabda1c	0.020978026
195	0x3d92e2a8	0.071721375
196	0x3d81684c	0.06318721
197	0x3ce29a2f	0.027661411
198	0x3cd3478d	0.025790954
199	0xbd90c226	-0.07068281
200	0xbdcb3121	-0.0992148
201	0xbdeb8b33	-0.115011595
202	0x3dd0ab09	0.10188872
203	0xbd8c84bc	-0.068612546
204	0xbca1eb91	-0.019765647
205	0xbe4df382	-0.20112422
206	0xbd49b748	-0.049247056
207	0xbc15177e	-0.009099839
208	0xbdabee72	-0.08395089
209	0x3c64b7c2	0.013959827
210	0xbb04566b	-0.002019311
211	0x3c201197	0.009769819
212	0x3d13e458	0.036106437
213	0xbd17cf44	-0.0370629
214	0xbd5cccee	-0.053906374
215	0x3c95528e	0.018227842
216	0xbc81fa15	-0.015866319
217	0x3d0956f9	0.03353021
218	0x3d2822d3	0.041048836
219	0xbd9b680f	-0.07588207
220	0x3d045e47	0.032316472
221	0x3d937fd1	0.072021134
222	0xbd702640	-0.058630228
223	0xbddb076c	-0.10694775
224	0xbe210430	-0.15724254
225	0x3d834c4f	0.06411039
226	0x3cee41c8	0.029084101
227	0x3e055a3f	0.13022707
228	0x3dda36ce	0.106549844
229	0x3d5f07af	0.054450687
230	0x3d3f7091	0.04673821
231	0x3e099bad	0.13438292
232	0xbbf8c317	-0.007591616
233	0x3cb5fbff	0.022214888
234	0xbcaa12a1	-0.020760836
235	0x3e077e17	0.13231693
236	0xbb937a85	-0.0045006895
237	0xbded7f53	-0.11596551
238	0xbd782951	-0.060586277
239	0xbd9a1d1f	-0.07525086
240	0x3d47dcb0	0.04879445
241	0xbce17184	-0.027519949
242	0xbd1ac142	-0.03778196
243	0x3c99061c	0.018679671
244	0x3e1e95d2	0.1548684
245	0xbd2d13b9	-0.042255137
246	0xbcb46b74	-0.022023894
247	0xbd449443	-0.047992956
248	0x3c4bc23d	0.012436447
249	0xbd74a9ff	-0.059732433
250	0xbd23404b	-0.039856236
251	0x3ced8a15	0.028996507
252	0xbd332f3e	-0.043746226
253	0xbc0b3f0f	-0.008498921
254	0xbe1fde20	-0.15612078
255	0x3cdf23a1	0.027238669

4.bias f4 [128]
0	0x3d416f41	0.04722524
1	0xbbcfdcfb	-0.0063434816
2	0x3e34805f	0.17627095
3	0x3d92d8bb	0.07170244
4	0x3d542f0f	0.05180269
5	0xbe13d80f	-0.14437889
6	0x3d37f8a2	0.04491485
7	0xbde5f437	-0.11228221
8	0xbd24255b	-0.040074687
9	0xbdc8b2be	-0.09799717
10	0x3d15df7e	0.036590092
11	0x3d2a4263	0.041567218
12	0xbde8c784	-0.113661796
13	0x3dc2a354	0.095038086
14	0x3d501d14	0.05080898
15	0xbb23c1af	-0.002498727
16	0x3dc4eb20	0.09615159
17	0x3d7aa550	0.06119281
18	0x3d6bd393	0.05757482
19	0xbd959494	-0.0730373
20	0x3bdd7492	0.006758281
21	0x3d2bbbc4	0.041927114
22	0xbe317328	-0.17329085
23	0x3d4c029e	0.049807183
24	0xbd8dbd8d	-0.069209196
25	0xbaa77945	-0.001277723
26	0x3d1d7267	0.03843918
27	0xbb9a31ca	-0.0047056424
28	0x3d825d0d	0.06365404
29	0x3dc9fb41	0.09862376
30	0x3daed579	0.085368104
31	0xbc31a1f6	-0.010841837
32	0x3e0c5f50	0.13708234
33	0xbd85c272	-0.06531228
34	0x3c6ecdbe	0.01457542
35	0xbdc37c15	-0.09545151
36	0x3de1a652	0.11018051
37	0xbd5c8623	-0.05383886
38	0xbd77941e	-0.06044399
39	0x3d4ef2cb	0.050524514
40	0xbc90e6b0	-0.017688125
41	0x3d45b4a3	0.04826797
42	0x3da2894e	0.07936345
43	0xbd23121f	-0.039812203
44	0x3e7c19a5	0.24619158
45	0x3ccc2451	0.02491966
46	0xbd2bcb38	-0.04194185
47	0x3aec2e7c	0.0018019225
48	0x3d528fe4	0.051406756
49	0xbda92525	-0.08259038
50	0x3bb09af9	0.005389568
51	0x3c56d52f	0.01311235
52	0x3dd78dc2	0.10525085
53	0x3dcaaac3	0.098958515
54	0x3e1ab7ca	0.15109172
55	0xbcec670b	-0.028857728
56	0xbc72679b	-0.014795209
57	0x3cc18d99	0.02362709
58	0x3df0a727	0.11750632
59	0x3ca324b8	0.01991497
60	0xbd6be9a3	-0.05759586
61	0xbd682ff4	-0.056686357
62	0x3d3cb037	0.04606649
63	0xbe0da7a9	-0.13833489
64	0xbbdc0ce2	-0.006715403
65	0x3ced58da	0.028973032
66	0x3d2a0f81	0.041518692
67	0xbcf6424f	-0.030060915
68	0x3dd5d87d	0.104416825
69	0x3d99a6e5	0.07502536
70	0x3c0aecc6	0.008479303
71	0x3d3398de	0.043846957
72	0xb7b34fd9	-2.1375645e-05
73	0xbc28b6e4	-0.010297511
74	0xbd1a9e48	-0.037748605
75	0x3d271d1c	0.040799245
76	0xbba51362	-0.005037711
77	0x3d7a00ba	0.06103585
78	0xbe185060	-0.1487441
79	0xbd2d73bd	-0.042346705
80	0x3debafbb	0.11508127
81	0x3e03b13b	0.12860577
82	0xbd7d36e9	-0.061819945
83	0x3d8cecb4	0.06881085
84	0xbc82ed04	-0.015982158
85	0x3d2ba460	0.041904807
86	0xbd7de16f	-0.06198257
87	0x3e41061c	0.18849987
88	0x3e1c6301	0.15272142
89	0xb6468150	-2.957957e-06
90	0xbbc2cba0	-0.005944684
91	0x3ba54e01	0.005044699
92	0x3e29b31a	0.16572228
93	0x3e4ec65b	0.20192854
94	0x3ca5917d	0.020210976
95	0xbcfac243	-0.03061021
96	0x3dc6e94f	0.09712469
97	0xbe44b0e6	-0.19208106
98	0x3d9a51de	0.07535146
99	0x3d32efd4	0.04368575
100	0x3d0abcb5	0.03387137
101	0x3d4bc40c	0.04974751
102	0x3da30a31	0.07960928
103	0x3dd82271	0.10553444
104	0xbd9c401d	-0.07629416
105	0x3daf114a	0.085482195
106	0xbcc83781	-0.024440529
107	0xbd00191c	-0.031273946
108	0xbb66dcbb	-0.003522678
109	0x3d05853f	0.032597777
110	0xbd448486	-0.047977947
111	0x3d6f66d5	0.058447678
112	0xbd0a848f	-0.033817824
113	0x3ce7b57c	0.02828478
114	0x3d7fc325	0.062441964
115	0x3cf8993b	0.030346503
116	0x3d7e7d09	0.06213096
117	0x3d77bc17	0.06048211
118	0x3c8ea428	0.01741226
119	0x3c0d3d03	0.008620503
120	0x3e0ccccd	0.1375
121	0x3c7eeb29	0.015558996
122	0x3e3093b7	0.17243849
123	0xbd0d1d82	-0.03445197
124	0x3d84d2ae	0.064854965
125	0x3dadfddd	0.08495686
126	0x3dbeb276	0.093113825
127	0xbdfe49b7	-0.12416404

6.weight f4 [256, 128]
0	0x80000766	-2.654e-42
1	0x00003e59	2.2366e-41
2	0x800007d8	-2.814e-42
3	0x80001840	-8.699e-42
4	0x00001433	7.246e-42
5	0x0000044c	1.541e-42
6	0x800018eb	-8.939e-42
7	0x800017c5	-8.527e-42
8	0x0000169b	8.11e-42
9	0x0024639a	3.341808e-39
10	0x8000130d	-6.834e-42
11	0x000012db	6.764e-42
12	0x8000156d	-7.686e-42
13	0x80001289	-6.649e-42
14	0x80003199	-1.7792e-41
15	0x00009d6e	5.6475e-41
16	0x800009ea	-3.556e-42
17	0x000004d7	1.736e-42
18	0x0000148c	7.371e-42
19	0x00000c6c	4.456e-42
20	0x800001ff	-7.16e-43
21	0x000016b9	8.151e-42
22	0x8000014c	-4.65e-43
23	0x800014d7	-7.476e-42
24	0x80000fe8	-5.706e-42
25	0x0000184f	8.72e-42
26	0xa2aaf1bd	-4.6334543e-18
27	0x00000fe4	5.7e-42
28	0x000013d2	7.11e-42
29	0x00001155	6.218e-42
30	0x000006a2	2.38e-42
31	0x023c2f0a	1.3825558e-37
32	0x8008c8a4	-8.0666e-40
33	0x00000cad	4.547e-42
34	0x000001ad	6.01e-43
35	0x000012fa	6.808e-42
36	0x00000fcc	5.667e-42
37	0x80001bad	-9.928e-42
38	0x80000e5c	-5.151e-42
39	0x80000c94	-4.512e-42
40	0x000010e4	6.059e-42
41	0x00004186	2.3505e-41
42	0x000002d3	1.013e-42
43	0x80000ef9	-5.371e-42
44	0x000007d2	2.805e-42
45	0x80001519	-7.568e-42
46	0x000010d9	6.044e-42
47	0x80000bc7	-4.225e-42
48	0x00000be2	4.263e-42
49	0x00000be6	4.268e-42
50	0x80000b03	-3.95e-42
51	0x800005e2	-2.11e-42
52	0x000016a2	8.119e-42
53	0x80000add	-3.897e-42
54	0x80000d51	-4.777e-42
55	0x00001787	8.44e-42
56	0x80000a40	-3.677e-42
57	0x000009a0	3.453e-42
58	0x97db5cc7	-1.4175964e-24
59	0x00000ac4	3.862e-42
60	0x00001357	6.938e-42
61	0x80001472	-7.334e-42
62	0x00000554	1.911e-42
63	0x00003dce	2.2171e-41
64	0x80001507	-7.543e-42
65	0x000014d5	7.473e-42
66	0x0000260f	1.3653e-41
67	0x800007b6	-2.766e-42
68	0x800019b3	-9.219e-42
69	0x80001be7	-1.001e-41
70	0x00003662	1.9509e-41
71	0x000019b8	9.226e-42
72	0x8000aade	-6.1296e-41
73	0x80000dc5	-4.94e-42
74	0x0000217b	1.201e-41
75	0x80000c33	-4.376e-42
76	0x8000668a	-3.6784e-41
77	0x80000047	-1e-43
78	0x000012d7	6.758e-42
79	0x00000e03	5.026e-42
80	0x80000e6c	-5.174e-42
81	0x80000700	-2.511e-42
82	0x00001cc9	1.0326e-41
83	0x8000122f	-6.523e-42
84	0x8000174d	-8.359e-42
85	0x80000496	-1.645e-42
86	0x069517c2	5.608248e-35
87	0x91d6f25b	-3.391261e-28
88	0x80000fcd	-5.668e-42
89	0x80001b68	-9.832e-42
90	0x0000060b	2.168e-42
91	0x0000225d	1.2327e-41
92	0x8000024e	-8.27e-43
93	0x800014ad	-7.417e-42
94	0x00000aa9	3.824e-42
95	0x000006e2	2.469e-42
96	0x000012f9	6.806e-42
97	0x80000129	-4.16e-43
98	0x800006ba	-2.413e-42
99	0x00001b8d	9.883e-42
100	0x800014a0	-7.399e-42
101	0x8000145a	-7.301e-42
102	0x8000107d	-5.915e-42
103	0x800005be	-2.06e-42
104	0x8000080f	-2.891e-42
105	0x8000110c	-6.115e-42
106	0x0000104b	5.845e-42
107	0x0000127e	6.634e-42
108	0x000028fb	1.4701e-41
109	0x00000310	1.099e-42
110	0x80001551	-7.647e-42
111	0x80000612	-2.178e-42
112	0x800006f5	-2.496e-42
113	0x80001313	-6.843e-42
114	0x00001165	6.24e-42
115	0x80000465	-1.576e-42
116	0x000001e1	6.74e-43
117	0x0e26e147	2.0569547e-30
118	0x80001382	-6.998e-42
119	0x80000dca	-4.947e-42
120	0x80000513	-1.82e-42
121	0x00000c87	4.494e-42
122	0x00000fe9	5.707e-42
123	0x80000015	-3e-44
124	0x8000125b	-6.585e-42
125	0x92cd8218	-1.2969389e-27
126	0x00000cf8	4.652e-42
127	0x00001f53	1.1237e-41
128	0x800009a5	-3.46e-42
129	0x00005a5b	3.2413e-41
130	0x80000334	-1.149e-42
131	0x0000082d	2.933e-42
132	0x8000128c	-6.653e-42
133	0x8000180a	-8.624e-42
134	0x000018e6	8.932e-42
135	0x80000bfa	-4.296e-42
136	0x80000302	-1.079e-42
137	0x8000143f	-7.263e-42
138	0x0000175d	8.381e-42
139	0x80000aa3	-3.816e-42
140	0x0000150f	7.554e-42
141	0x00000303	1.08e-42
142	0x0000130f	6.837e-42
143	0x00001a6a	9.476e-42
144	0x00000817	2.902e-42
145	0x80000bcb	-4.23e-42
146	0x800013f0	-7.152e-42
147	0x8000023d	-8.03e-43
148	0x800008d1	-3.163e-42
149	0x0000073e	2.598e-42
150	0x0000036e	1.23e-42
151	0x0000167b	8.064e-42
152	0x80000b76	-4.111e-42
153	0x00000cf3	4.645e-42
154	0x800012e7	-6.781e-42
155	0x000002a4	9.47e-43
156	0x800020e2	-1.1796e-41
157	0x00000640	2.242e-42
158	0x80000692	-2.357e-42
159	0x00000f93	5.587e-42
160	0x0000094b	3.334e-42
161	0x800007bc	-2.775e-42
162	0x00000ea3	5.25e-42
163	0x80000115	-3.88e-43
164	0x00001754	8.369e-42
165	0x800016b2	-8.142e-42
166	0x00001544	7.629e-42
167	0x800018ee	-8.943e-42
168	0x000016e8	8.217e-42
169	0x0000166a	8.04e-42
170	0x0000129a	6.673e-42
171	0x00001422	7.222e-42
172	0x00000ac7	3.866e-42
173	0x800019bd	-9.233e-42
174	0x80001558	-7.657e-42
175	0x00000b0f	3.967e-42
176	0x00001585	7.72e-42
177	0x0000249c	1.3133e-41
178	0x80001baa	-9.924e-42
179	0x80000dab	-4.903e-42
180	0x8000034e	-1.185e-42
181	0x00001a86	9.515e-42
182	0x000014ac	7.416e-42
183	0x80001505	-7.54e-42
184	0x80000678	-2.32e-42
185	0x800014ff	-7.532e-42
186	0x00000b47	4.046e-42
187	0x000008a3	3.098e-42
188	0x80000f51	-5.494e-42
189	0x00000d78	4.832e-42
190	0x800019be	-9.235e-42
191	0x000005ad	2.036e-42
192	0x00000a7b	3.76e-42
193	0x00000f58	5.504e-42
194	0x8000154b	-7.638e-42
195	0x0000132e	6.88e-42
196	0x00000623	2.201e-42
197	0x00001966	9.111e-42
198	0x00002ac4	1.5341e-41
199	0x800017de	-8.562e-42
200	0x80000975	-3.393e-42
201	0x00001812	8.635e-42
202	0x80000ae5	-3.908e-42
203	0x80001164	-6.239e-42
204	0x00001fbc	1.1384e-41
205	0x80000e44	-5.118e-42
206	0x00000697	2.364e-42
207	0x80000665	-2.294e-42
208	0x800018ca	-8.893e-42
209	0x80001277	-6.624e-42
210	0x000024e3	1.3232e-41
211	0x80001952	-9.083e-42
212	0x800005b1	-2.042e-42
213	0x80000bec	-4.277e-42
214	0x80001638	-7.97e-42
215	0x8000047a	-1.606e-42
216	0x80000c49	-4.407e-42
217	0x80002c0a	-1.5798e-41
218	0x00001318	6.85e-42
219	0x8000191b	-9.006e-42
220	0x8000141c	-7.214e-42
221	0x800015c8	-7.814e-42
222	0x00000191	5.62e-43
223	0x000019f9	9.317e-42
224	0x80000c0b	-4.32e-42
225	0x000011f4	6.44e-42
226	0x00000344	1.171e-42
227	0x00001a04	9.333e-42
228	0x000006f3	2.493e-42
229	0x800014bf	-7.442e-42
230	0x00000e82	5.204e-42
231	0x80000e5d	-5.153e-42
232	0x000002e7	1.041e-42
233	0x00000b5a	4.072e-42
234	0x800006c0	-2.421e-42
235	0x0000155b	7.661e-42
236	0x00000fb3	5.632e-42
237	0x00000fca	5.664e-42
238	0x8000103f	-5.828e-42
239	0x80001123	-6.147e-42
240	0x80001288	-6.648e-42
241	0x80001530	-7.6e-42
242	0x00000d4d	4.771e-42
243	0x80001724	-8.301e-42
244	0x80001970	-9.125e-42
245	0x0000077d	2.686e-42
246	0x80001d1e	-1.0445e-41
247	0x00000e20	5.067e-42
248	0x000004e6	1.757e-42
249	0x8000136f	-6.971e-42
250	0x0000010d	3.77e-43
251	0x8000102e	-5.804e-42
252	0x8000003c	-8.4e-44
253	0x000013f1	7.154e-42
254	0x8000124a	-6.561e-42
255	0x80001394	-7.023e-42

6.bias f4 [256]
0	0xb293bb2d	-1.719817e-08
1	0xa1c60897	-1.3419276e-18
2	0xbcecacce	-0.028890993
3	0xbb6c4c5c	-0.0036056256
4	0xbb9f5d02	-0.0048633823
5	0x3da34deb	0.07973846
6	0x3cb82241	0.022477271
7	0xaaac6386	-3.0622396e-13
8	0x399d1988	0.00029964396
9	0xb8dc5c55	-0.00010507616
10	0xb3450a63	-4.5877083e-08
11	0xbb30517a	-0.0026904033
12	0xbba87c66	-0.0051417826
13	0xb9b5f398	-0.00034704502
14	0x99b63c85	-1.8842803e-23
15	0xbb1c0ed1	-0.0023812542
16	0xbda34b4b	-0.07973345
17	0xbda469d6	-0.08027999
18	0x3c5ea03a	0.013588006
19	0xbb33ce59	-0.0027436225
20	0x97e06f20	-1.4503713e-24
21	0xb3c310ad	-9.0834284e-08
22	0xba4f3373	-0.000790409
23	0xbb6d5b91	-0.0036217908
24	0x3cd43b1b	0.02590709
25	0xbb0a393b	-0.002109124
26	0xbad9802c	-0.0016593984
27	0xb93dd479	-0.00018103597
28	0xb2c9e530	-2.3503702e-08
29	0xb27069fc	-1.3993937e-08
30	0xbb892bc7	-0.004186127
31	0xb4699ce0	-2.1756887e-07
32	0xb9f0259e	-0.00045804394
33	0xb98453f3	-0.0002523955
34	0xbc91e0f5	-0.017807463
35	0xbcf7401a	-0.030181933
36	0xb971ce03	-0.00023060296
37	0xac3cf264	-2.685096e-12
38	0xbb622611	-0.0034507553
39	0xba649e28	-0.0008721077
40	0xbd34e483	-0.04416324
41	0xbdd4442e	-0.10364567
42	0xbba65518	-0.005076062
43	0xbc41f2fe	-0.011837719
44	0xb77084bb	-1.43360185e-05
45	0x9fb7536e	-7.764154e-20
46	0xb46fa585	-2.2318825e-07
47	0xbb2dbaf6	-0.0026509142
48	0xb93bb2f9	-0.00017900382
49	0xbb374712	-0.0027965945
50	0xbb4036d1	-0.0029329548
51	0xba4dab7a	-0.00078456814
52	0xb22b3d44	-9.96744e-09
53	0x3ca43b7e	0.0200479
54	0xba9b9606	-0.0011870272
55	0xb4c8ef33	-3.7426943e-07
56	0xbb5571d3	-0.0032569065
57	0xbb07dc52	-0.0020730686
58	0xab349723	-6.415859e-13
59	0xbd185c1d	-0.03719722
60	0xb3bbb116	-8.740078e-08
61	0xbcb4d59f	-0.022074519
62	0xbb8bf802	-0.004271508
63	0xba03551b	-0.0005009935
64	0xb899d572	-7.335366e-05
65	0xb88b59f6	-6.644793e-05
66	0xad585bee	-1.2298591e-11
67	0xbc8cbc7a	-0.017179716
68	0xb8b4e32c	-8.625383e-05
69	0xb89f0202	-7.582085e-05
70	0xb9533657	-0.00020142771
71	0xa0a60c22	-2.8129523e-19
72	0xb9b7f904	-0.0003509001
73	0xb0e9e67a	-1.7018487e-09
74	0xaa3c3738	-1.6716912e-13
75	0xbb2f6df3	-0.0026768416
76	0xa3db04de	-2.3746089e-17
77	0xbd1f9baa	-0.038966812
78	0xb32b54a2	-3.9891013e-08
79	0x9afddf18	-1.04998775e-22
80	0xb61cc2dd	-2.3359237e-06
81	0xb792e71b	-1.7512173e-05
82	0xbd58b690	-0.05290848
83	0xbac23c65	-0.0014819024
84	0xbd97089f	-0.07374691
85	0x3d28bbd5	0.041194756
86	0xbd0775be	-0.033071272
87	0xb9d1ff73	-0.0004005391
88	0xb620110c	-2.385178e-06
89	0xbac5daf4	-0.001509516
90	0x3be993ee	0.0071282303
91	0xbab89f8c	-0.0014085635
92	0x3d82e5df	0.06391501
93	0xbb1100e0	-0.0022125766
94	0xbb844d3f	-0.0040375288
95	0xbaccf74c	-0.0015637665
96	0xbab160f5	-0.0013532924
97	0x3c9e404f	0.019317774
98	0x3d01a721	0.031653527
99	0xbdc9501b	-0.09829732
100	0x3c3fa415	0.011696835
101	0xb5c495eb	-1.464677e-06
102	0xb934a1db	-0.00017226434
103	0xbc7a8ff1	-0.015293107
104	0xbd94f4ec	-0.07273278
105	0xafe3fa6a	-4.146899e-10
106	0xbdbcfa1f	-0.09227394
107	0xbad6ebd9	-0.0016397192
108	0x3cbe168b	0.023204109
109	0xb4e127d2	-4.193849e-07
110	0xbb4acf56	-0.0030946336
111	0x398d5c8f	0.00026962577
112	0xb3c637cf	-9.230245e-08
113	0xbb1426cc	-0.0022606133
114	0xbadad449	-0.0016695346
115	0x3d98a7ca	0.07453878
116	0xba544eaf	-0.0008098883
117	0x3c83a23f	0.016068576
118	0xba4202fa	-0.0007400956
119	0x3c749cdd	0.014929977
120	0xb6765f54	-3.6712345e-06
121	0xb9ac8249	-0.00032903466
122	0xb77639ab	-1.46761695e-05
123	0x3a57fa80	0.00082389265
124	0xba562fe0	-0.0008170586
125	0xb330a4c9	-4.1128065e-08
126	0xbb1cc141	-0.00239189
127	0xb9af08e6	-0.0003338523
128	0xb96a4a05	-0.00022343553
129	0xb9d35586	-0.00040308776
130	0xad3e3407	-1.0811802e-11
131	0xbbb18d3d	-0.0054184482
132	0xba2b895c	-0.00065436005
133	0x3c8c985f	0.0171625
134	0xbe05609b	-0.13025133
135	0xab83110f	-9.312845e-13
136	0x3d05765c	0.03258358
137	0xb65fc66b	-3.3345084e-06
138	0xbaf2fd78	-0.0018538674
139	0xba596481	-0.00082928693
140	0xb84fdf39	-4.9560538e-05
141	0xba182645	-0.00058040424
142	0x3e2ab52d	0.16670676
143	0x3c8ae027	0.016952587
144	0xb82649d8	-3.9646256e-05
145	0xbaa4a30a	-0.0012560796
146	0xbb0bafe4	-0.0021314556
147	0xb430a262	-1.6450352e-07
148	0xaf9899e4	-2.7757985e-10
149	0xa53cdb85	-1.6380777e-16
150	0xb78d1bf5	-1.6821528e-05
151	0xbb1808f4	-0.0023198696
152	0x3ccae614	0.024767913
153	0x948b9336	-1.4093478e-26
154	0x3da11437	0.07865184
155	0x3c9c61e7	0.019089652
156	0xab8a9594	-9.847006e-13
157	0xb80d5a06	-3.370086e-05
158	0x3cf4621f	0.029831944
159	0xbc9e5470	-0.019327372
160	0xb5949320	-1.1069678e-06
161	0xa3338697	-9.73211e-18
162	0xbbdb8716	-0.006699453
163	0xbdf48433	-0.119392775
164	0xba8c9f66	-0.0010728657
165	0xb1791fe5	-3.6252399e-09
166	0xbb5a3bd9	-0.0033299832
167	0xb918ab52	-0.00014559671
168	0xb61424af	-2.2075071e-06
169	0xbb224d6e	-0.002476539
170	0xbda1188e	-0.078660116
171	0x3cf82884	0.030292757
172	0xbc23e1a0	-0.010002524
173	0xbb15bb62	-0.0022847285
174	0xb25cad60	-1.2845106e-08
175	0xbb7cfdd2	-0.0038603437
176	0xb843191a	-4.6515e-05
177	0xb06eeeed	-8.692343e-10
178	0xbdb8e7e8	-0.090286076
179	0xbd5d5651	-0.054037396
180	0xb8ac72a1	-8.2229504e-05
181	0xb9f8edbe	-0.00047479378
182	0xa533cab8	-1.5594459e-16
183	0x9d4d6f67	-2.7189118e-21
184	0x3d1eb44b	0.03874616
185	0xb82ebec9	-4.1662515e-05
186	0xbca359d6	-0.019940298
187	0x3d1230e0	0.035691142
188	0xae9d54c8	-7.1545936e-11
189	0xbb3b8ee3	-0.0028619103
190	0xb8c6ee76	-9.4857925e-05
191	0xbaebce4a	-0.0017990556
192	0xb38e56bf	-6.628169e-08
193	0xbafa6e37	-0.0019106333
194	0x3d6853c4	0.05672051
195	0xb8b7e330	-8.768437e-05
196	0xbae62f88	-0.0017561773
197	0xa4c0010a	-8.326849e-17
198	0xbc0ef27f	-0.008724808
199	0x90b95870	-7.3105893e-29
200	0xbb9da223	-0.004810588
201	0xbb0340ad	-0.0020027563
202	0xb331bb35	-4.1381288e-08
203	0xb7a9e7cb	-2.0254307e-05
204	0x8b93400c	-5.671871e-32
205	0x3ca61eb6	0.020278316
206	0xb02f9349	-6.3873934e-10
207	0xb3acffc0	-8.055895e-08
208	0xac0b028c	-1.9754502e-12
209	0xb2e1f437	-2.6304503e-08
210	0xb1fee001	-7.4178392e-09
211	0x3db5a730	0.08869779
212	0x3c3dfc79	0.011595839
213	0xb873b169	-5.810094e-05
214	0xbaa7bc4b	-0.0012797205
215	0xbcf19d25	-0.029493878
216	0xbac5002d	-0.001502996
217	0x99897227	-1.4211574e-23
218	0xba9cb891	-0.001195686
219	0x3d2be61f	0.041967507
220	0x3bb96c42	0.0056586573
221	0xaae1a668	-4.0083496e-13
222	0xae02664b	-2.9649432e-11
223	0xb906d644	-0.00012859056
224	0xbb0419b8	-0.002015693
225	0x3c9f8d08	0.019476429
226	0xa75339c6	-2.9313451e-15
227	0x3d904314	0.07044044
228	0xbcff7b9f	-0.031186877
229	0xacc0c4d4	-5.4788205e-12
230	0xbafb4d86	-0.0019172884
231	0xb82c89c3	-4.1136296e-05
232	0xba051ed5	-0.00050781417
233	0xbd001e5e	-0.03127896
234	0xbb798b92	-0.0038077575
235	0xb5c7a31f	-1.487413e-06
236	0xa9389364	-4.0984048e-14
237	0x39c9590e	0.00038404058
238	0xbb2bbe10	-0.0026205815
239	0xba1f70cb	-0.0006082176
240	0xbb247435	-0.002509368
241	0xbbd6d1e8	-0.0065557845
242	0x3d2a7f30	0.0416252
243	0xbc802939	-0.015644656
244	0xb705954b	-7.962178e-06
245	0x3b4cfea3	0.0031279705
246	0x3d346db6	0.04404994
247	0xb4dcfcce	-4.1162133e-07
248	0xba9e681e	-0.0012085473
249	0xbdb297ba	-0.08720346
250	0xb82a9a3c	-4.06748e-05
251	0x9b0b63b4	-1.1530026e-22
252	0xb8bfa455	-9.138199e-05
253	0x3d089b52	0.03335125
254	0xbb2ae2e3	-0.0026075176
255	0x3d061d1a	0.032742597

8.weight f4 [128, 256]
0	0x8000885b	-4.8915e-41
1	0x80007fac	-4.58e-41
2	0x00000313	1.103e-42
3	0x80007698	-4.2543e-41
4	0x000099cb	5.517e-41
5	0x80000c6d	-4.458e-42
6	0x8000051a	-1.83e-42
7	0x0000a3e8	5.8798e-41
8	0x000016a3	8.12e-42
9	0x80006cb5	-3.8997e-41
10	0x0000912a	5.2075e-41
11	0x80007855	-4.3167e-41
12	0x000079af	4.3652e-41
13	0x00004ebd	2.8246e-41
14	0x0000ab66	6.1486e-41
15	0x00007aaa	4.4004e-41
16	0x00000b31	4.015e-42
17	0x00000985	3.415e-42
18	0x00002145	1.1935e-41
19	0x00003065	1.736e-41
20	0x0000244a	1.3018e-41
21	0x80000973	-3.39e-42
22	0x80000317	-1.108e-42
23	0x800033f2	-1.8634e-41
24	0x80000779	-2.68e-42
25	0x00003e7a	2.2412e-41
26	0x000096aa	5.4048e-41
27	0x00001f3e	1.1208e-41
28	0x0000a61d	5.959e-41
29	0x8000a52b	-5.9251e-41
30	0x80007174	-4.07e-41
31	0x00005446	3.0232e-41
32	0x0000364c	1.9478e-41
33	0x80000d0c	-4.68e-42
34	0x80002694	-1.3839e-41
35	0x80001737	-8.328e-42
36	0x0000152a	7.592e-42
37	0x00000fc5	5.657e-42
38	0x8000948e	-5.3291e-41
39	0x00000a00	3.587e-42
40	0x000008ed	3.202e-42
41	0x800002f9	-1.066e-42
42	0x8000933b	-5.2816e-41
43	0x80000d67	-4.808e-42
44	0x00009bde	5.5915e-41
45	0x8000208a	-1.1673e-41
46	0x0000975a	5.4295e-41
47	0x00004c78	2.7432e-41
48	0x80000aba	-3.848e-42
49	0x800093ff	-5.3091e-41
50	0x000026f3	1.3972e-41
51	0x8000538b	-2.997e-41
52	0x0000aaa2	6.1212e-41
53	0x0000225d	1.2327e-41
54	0x80008e1b	-5.0978e-41
55	0x000039c3	2.0721e-41
56	0x800060a2	-3.4665e-41
57	0x8000acca	-6.1985e-41
58	0x80005557	-3.0614e-41
59	0x800002c7	-9.96e-43
60	0x0000049e	1.656e-42
61	0x80001528	-7.59e-42
62	0x8000080a	-2.884e-42
63	0x00004504	2.4758e-41
64	0x80005c9b	-3.322e-41
65	0x0000a7bd	6.0173e-41
66	0x00007442	4.1705e-41
67	0x000013c3	7.089e-42
68	0x0000aae0	6.1298e-41
69	0x00001a52	9.442e-42
70	0x800058f5	-3.1912e-41
71	0x80008ed5	-5.1238e-41
72	0x0000154e	7.643e-42
73	0x0000063b	2.235e-42
74	0x0000734c	4.1361e-41
75	0x8000076e	-2.665e-42
76	0x800045ed	-2.5085e-41
77	0x00000228	7.74e-43
78	0x000096f1	5.4148e-41
79	0x800020d1	-1.1772e-41
80	0x80002dfe	-1.6499e-41
81	0x8000aa27	-6.1039e-41
82	0x80001a07	-9.337e-42
83	0x8000012d	-4.22e-43
84	0x00001e22	1.081e-41
85	0x00001504	7.539e-42
86	0x800002ba	-9.78e-43
87	0x8000362a	-1.943e-41
88	0x000029be	1.4974e-41
89	0x00003789	1.9922e-41
90	0x80000d3d	-4.749e-42
91	0x80005632	-3.0921e-41
92	0x00000c54	4.422e-42
93	0x800090c7	-5.1936e-41
94	0x80007c9a	-4.4699e-41
95	0x80009880	-5.4707e-41
96	0x80005e2f	-3.3787e-41
97	0x800017fc	-8.604e-42
98	0x800008c4	-3.145e-42
99	0x000012e3	6.775e-42
100	0x000012a5	6.688e-42
101	0x8000757f	-4.215e-41
102	0x00003874	2.0252e-41
103	0x00001037	5.817e-42
104	0x80000036	-7.6e-44
105	0x00002c30	1.5851e-41
106	0x0000071b	2.549e-42
107	0x80005e1a	-3.3757e-41
108	0x80001b48	-9.787e-42
109	0x800017f2	-8.59e-42
110	0x0000ad69	6.2208e-41
111	0x00002213	1.2224e-41
112	0x80003c30	-2.1591e-41
113	0x00008bfa	5.0214e-41
114	0x0000a104	5.7762e-41
115	0x800012b4	-6.71e-42
116	0x00006572	3.6392e-41
117	0x8000056f	-1.949e-42
118	0x00001f74	1.1283e-41
119	0x00000eb8	5.28e-42
120	0x80000c9a	-4.52e-42
121	0x800012e6	-6.78e-42
122	0x8000a3d5	-5.8772e-41
123	0x00000478	1.603e-42
124	0x8000a13f	-5.7844e-41
125	0x8000974d	-5.4276e-41
126	0x80003062	-1.7356e-41
127	0x80002fbd	-1.7125e-41
128	0x800030c1	-1.749e-41
129	0x800071d0	-4.0828e-41
130	0x8000342b	-1.8714e-41
131	0x80002623	-1.3681e-41
132	0x8000a09b	-5.7614e-41
133	0x800028d2	-1.4644e-41
134	0x800018d7	-8.911e-42
135	0x000027ce	1.4279e-41
136	0x800020cf	-1.177e-41
137	0x80009df0	-5.6657e-41
138	0x8000210a	-1.1852e-41
139	0x00009609	5.3822e-41
140	0x80003a8d	-2.1004e-41
141	0x8000a610	-5.9572e-41
142	0x80000e97	-5.234e-42
143	0x00002118	1.1872e-41
144	0x8000a10e	-5.7776e-41
145	0x000070b8	4.0436e-41
146	0x00003552	1.9128e-41
147	0x80004b1c	-2.6944e-41
148	0x80000823	-2.919e-42
149	0x80009717	-5.4201e-41
150	0x0000223a	1.2278e-41
151	0x000018c7	8.888e-42
152	0x00000074	1.63e-43
153	0x00009c3f	5.605e-41
154	0x800008a0	-3.094e-42
155	0x0000163e	7.979e-42
156	0x00003316	1.8326e-41
157	0x00002074	1.1642e-41
158	0x800010f4	-6.082e-42
159	0x800002fd	-1.072e-42
160	0x8000101e	-5.782e-42
161	0x80008d0b	-5.0597e-41
162	0x0000ad5a	6.2187e-41
163	0x800011ed	-6.43e-42
164	0x00002a41	1.5158e-41
165	0x80009309	-5.2746e-41
166	0x8000693a	-3.7748e-41
167	0x0000aac5	6.126e-41
168	0x00008c76	5.0388e-41
169	0x00000638	2.231e-42
170	0x00002142	1.193e-41
171	0x000005f0	2.13e-42
172	0x000006ad	2.395e-42
173	0x00007bd5	4.4423e-41
174	0x0000180d	8.628e-42
175	0x80000678	-2.32e-42
176	0x80005185	-2.9244e-41
177	0x80000479	-1.604e-42
178	0x000014a4	7.404e-42
179	0x80001568	-7.679e-42
180	0x80004f22	-2.8388e-41
181	0x000023e6	1.2878e-41
182	0x0000ab85	6.153e-41
183	0x80008eaa	-5.1178e-41
184	0x80001434	-7.248e-42
185	0x8000577c	-3.1383e-41
186	0x0000135a	6.942e-42
187	0x000012be	6.723e-42
188	0x00008c99	5.0437e-41
189	0x8000947e	-5.3269e-41
190	0x80006fab	-4.0059e-41
191	0x80001fd5	-1.1419e-41
192	0x80009a6c	-5.5396e-41
193	0x8000a1eb	-5.8085e-41
194	0x8000053e	-1.88e-42
195	0x00009fc6	5.7316e-41
196	0x000085b1	4.796e-41
197	0x80002cab	-1.6024e-41
198	0x80000a17	-3.62e-42
199	0x00002dc9	1.6425e-41
200	0x00002c76	1.595e-41
201	0x00000c11	4.329e-42
202	0x000018e4	8.929e-42
203	0x80000164	-4.99e-43
204	0x80004305	-2.4042e-41
205	0x00002a63	1.5205e-41
206	0x80000eda	-5.328e-42
207	0x000027dd	1.43e-41
208	0x80003f73	-2.2761e-41
209	0x80007ad3	-4.4061e-41
210	0x80000050	-1.12e-43
211	0x000007f0	2.847e-42
212	0x00000064	1.4e-43
213	0x80001a41	-9.418e-42
214	0x80000fa8	-5.616e-42
215	0x80001beb	-1.0015e-41
216	0x0000908b	5.1852e-41
217	0x000004c8	1.715e-42
218	0x8000363d	-1.9457e-41
219	0x80001356	-6.936e-42
220	0x8000099a	-3.444e-42
221	0x800004ca	-1.718e-42
222	0x0000977a	5.434e-41
223	0x000004ae	1.679e-42
224	0x8000ac82	-6.1884e-41
225	0x800016af	-8.137e-42
226	0x800037d0	-2.0022e-41
227	0x800013cc	-7.102e-42
228	0x00000c43	4.399e-42
229	0x00001397	7.028e-42
230	0x8000728b	-4.109e-41
231	0x8000a433	-5.8904e-41
232	0x8000169f	-8.115e-42
233	0x80001ec7	-1.1041e-41
234	0x80000d58	-4.787e-42
235	0x000051d8	2.936e-41
236	0x8000ac24	-6.1752e-41
237	0x00001f5f	1.1254e-41
238	0x000096da	5.4115e-41
239	0x80002633	-1.3703e-41
240	0x80000ce0	-4.619e-42
241	0x000011f4	6.44e-42
242	0x8000148e	-7.374e-42
243	0x80001900	-8.968e-42
244	0x0000338f	1.8496e-41
245	0x00000e71	5.18e-42
246	0x0000189d	8.83e-42
247	0x00009fe8	5.7364e-41
248	0x800014c1	-7.445e-42
249	0x00001472	7.334e-42
250	0x80007813	-4.3075e-41
251	0x00000a46	3.685e-42
252	0x80007566	-4.2115e-41
253	0x00001e34	1.0835e-41
254	0x0000821f	4.6679e-41
255	0x00001464	7.315e-42

8.bias f4 [128]
0	0xa29d9322	-4.271072e-18
1	0xb88035a2	-6.1135055e-05
2	0x954baec1	-4.113338e-26
3	0xb923a92c	-0.00015607913
4	0xb7146753	-8.8455445e-06
5	0x3da6b8a7	0.081406884
6	0xba95a1b5	-0.001141599
7	0xa6e468b2	-1.5849056e-15
8	0x3dde93a6	0.108680055
9	0x3e6bd969	0.23032154
10	0x3e121629	0.14266266
11	0xb9ba8ddc	-0.00035582378
12	0xb11d58ac	-2.289691e-09
13	0x3dd8bee9	0.10583288
14	0xba041843	-0.00050390157
15	0xbb9fb3e5	-0.00487374
16	0x3daa54c7	0.08316951
17	0x3e533962	0.20627359
18	0xb013d048	-5.3774274e-10
19	0x3e122e97	0.14275585
20	0x3e6a21f3	0.22864513
21	0x3e098934	0.13431245
22	0x3e6389c6	0.22220525
23	0xbac12184	-0.001473472
24	0xbad38875	-0.001613869
25	0x3db0b18e	0.08627616
26	0x9fccc279	-8.671909e-20
27	0x3d0e8be6	0.034801386
28	0x3e213bee	0.15745518
29	0xb003bc85	-4.7925425e-10
30	0xb557cd66	-8.0392635e-07
31	0xb984eb39	-0.00025352256
32	0x3e2fec31	0.17179944
33	0xba8b6942	-0.0010636228
34	0xb4155f02	-1.391127e-07
35	0xb39df3e3	-7.355245e-08
36	0x3df7b5cb	0.12095221
37	0x3d8c5fc5	0.06854204
38	0x3e38e789	0.18057074
39	0xbafcd2c2	-0.0019288885
40	0x3e16c6ea	0.14724317
41	0xba09a4b3	-0.00052506773
42	0x3d4c793f	0.049920317
43	0xb0ea3612	-1.7041109e-09
44	0xba0e6646	-0.000543211
45	0x3db45068	0.08804399
46	0x3dd98bdd	0.1062238
47	0x3e10fe72	0.14159563
48	0xb4159e46	-1.3934286e-07
49	0xbbe4d0ad	-0.006982884
50	0xb9e314e3	-0.00043312376
51	0xba634cc6	-0.0008670803
52	0x3da68969	0.08131678
53	0x3e21a5a6	0.15785846
54	0x3de65288	0.1124621
55	0x3d8be476	0.06830685
56	0xbb915dae	-0.0044362163
57	0xae7cfc36	-5.7522175e-11
58	0xb75ae0a3	-1.3046115e-05
59	0x3e2526e7	0.16128121
60	0xbaa854d7	-0.0012842667
61	0xb25b3600	-1.2759756e-08
62	0xb8908410	-6.8910536e-05
63	0x9395ff87	-3.7864857e-27
64	0xba93d676	-0.0011279124
65	0x3c3c0dab	0.011477868
66	0xa9e58825	-1.019326e-13
67	0xbac09a80	-0.0014694482
68	0x3e5a53a0	0.21320963
69	0xb958f41a	-0.000206903
70	0xb39a1260	-7.174526e-08
71	0xb708aa51	-8.145887e-06
72	0xb98254b3	-0.00024858638
73	0x3da86470	0.08222282
74	0x3e00dec4	0.12584978
75	0x3d898d5c	0.06716415
76	0xb49cfba6	-2.9240363e-07
77	0x3d40b31b	0.04704581
78	0xb8558189	-5.0903796e-05
79	0x3deeadaf	0.11654221
80	0x3cd2d284	0.025735147
81	0x982ef034	-2.2610244e-24
82	0xb4953107	-2.7789085e-07
83	0x3dd8c287	0.10583978
84	0xbb62bdae	-0.0034597921
85	0xbaf2ff99	-0.0018539309
86	0xba018802	-0.0004941226
87	0xb594446f	-1.1046776e-06
88	0x8f70be0f	-1.18695175e-29
89	0xb87ace6b	-5.9796886e-05
90	0x3ce01380	0.027353048
91	0xb37cfec0	-5.8905016e-08
92	0xbb02f9e5	-0.0019985375
93	0x9ad34cb2	-8.739146e-23
94	0xbb5794cc	-0.0032895086
95	0x3e0eddad	0.1395175
96	0xb72b2a41	-1.0202232e-05
97	0xa21b5233	-2.1049933e-18
98	0xb5328d11	-6.6515446e-07
99	0xb1f076cf	-6.9984263e-09
100	0x3e01cd45	0.1267596
101	0x3da60195	0.081057705
102	0x3dc51dc9	0.09624822
103	0x9c9231d8	-9.674354e-22
104	0xb6e8eeee	-6.941954e-06
105	0x3d9f2547	0.07770782
106	0xb6b06683	-5.2571427e-06
107	0xb1e2f12f	-6.604885e-09
108	0xaf6794bb	-2.1062167e-10
109	0xb814c0cb	-3.5465502e-05
110	0xbb3360c2	-0.0027370905
111	0x3ddb4afa	0.1070766
112	0x3de9d292	0.11417116
113	0xa06b8c2a	-1.9951651e-19
114	0x3dc0a5a5	0.09406594
115	0x3e6ee31a	0.2332882
116	0xb708929a	-8.140365e-06
117	0x3dab154e	0.08353673
118	0x3e000852	0.12503174
119	0x3daa9f49	0.083311625
120	0x3d71920c	0.05897717
121	0xb6cf7d98	-6.1837018e-06
122	0xaf6d0383	-2.1556272e-10
123	0x3d8833a9	0.066504784
124	0xba371ab8	-0.00069848774
125	0x8f7737f5	-1.2188817e-29
126	0x3e4d3e8f	0.20043395
127	0x3e38393b	0.17990582
