Models/checkpoint_vel_1000_1000.pth (torch, 154875 bytes, 14 tensors)

0.weight f4 [32, 9]
000000 ae 86 2a 3e e5 49 08 be 86 b5 62 3d 2e 61 60 3e
       0.16652939 -0.13309439 0.055348895 0.21912071
000010 87 5d 3c bf d5 3c 02 3e 6e e4 44 bd e7 a2 ba 3d
       -0.7358021 0.12718518 -0.04806941 0.091131024
000020 4f 9e 68 3b 2a 53 93 3c fd f1 4d 3e 00 87 66 3c
       0.003549475 0.017983992 0.20111842 0.014070272
000030 c1 6e 52 3f a2 34 df bc 4b 48 24 bd 29 ef 75 3c
       0.8220025 -0.027246777 -0.040108006 0.0150106335
000040 50 f2 04 3c 27 83 33 bd 92 9d 6b 3e c7 e8 41 3e
       0.008114412 -0.04382625 0.23009327 0.18936454
000050 90 cc 66 3e ba 0c 91 3e 38 88 9b be 99 a5 94 bc
       0.22538972 0.28330022 -0.30377364 -0.01814537
000060 b2 a3 86 3c 91 04 68 bc 8f 31 28 3e 34 9f 62 3e
       0.016435478 -0.014161245 0.16425155 0.22131044
000070 17 15 40 be cc 38 60 3e 8d 0a 5b 3e d6 f6 66 3e
       -0.18758045 0.21896666 0.21390744 0.22555098
000080 7f fd 60 3e 7e 57 fb bd 57 c8 38 be 18 79 a9 be
       0.21971701 -0.12272547 -0.18045174 -0.331002
000090 bd fe 37 3e d7 86 39 bd 18 8a 2f 3e 68 f8 b0 bd
       0.17968269 -0.04529461 0.17142522 -0.0864113
0000a0 7d 4f 16 3f e5 ae 85 3e 21 53 4d 3e 31 e6 b0 bd
       0.5871504 0.26109996 0.20051242 -0.086376555
0000b0 14 9f 0f be 5e b3 02 bc 37 6b 6b be 39 65 ee 3d
       -0.14025527 -0.007977335 -0.22990118 0.116404004
0000c0 38 55 27 bf e3 cb 8a 3d 21 cb 5a be 78 47 1d bb
       -0.6536441 0.067771696 -0.2136655 -0.0023998898
0000d0 c0 3c 94 3d 6d 05 95 3d 1b ae 23 3e 1e 5f e6 3d
       0.0723815 0.072764255 0.15984385 0.11248611
0000e0 97 72 39 3e ac db ba ba b1 bf a4 3e f4 3d 4a 3d
       0.18110119 -0.0014256141 0.321775 0.04937549
0000f0 64 89 7e be e7 9e 9f 3d bd e5 3b 3e 38 bd 4d 3e
       -0.24857098 0.0779398 0.18349357 0.20091712
000100 c1 7c b9 be 30 41 05 bd 92 20 c0 3e 98 7a 1a 3e
       -0.36227992 -0.03253287 0.3752485 0.15085828
000110 83 bd c6 be 3b fa 89 bb 30 8e 9c 3d 56 f2 e3 3c
       -0.3881646 -0.004210738 0.076443076 0.027825516
000120 be 15 2d 3d 1a de 45 bd 30 dc a5 bd a7 ed 0b 3f
       0.042257063 -0.048307516 -0.08098638 0.54659504
000130 01 42 9e 3e 29 e9 04 3d d2 32 10 be 19 25 57 3d
       0.30909732 0.03244892 -0.14081886 0.052525613
000140 62 a0 c0 bc 26 56 f7 bd 43 71 f5 3e 77 3e 0a 3e
       -0.023513976 -0.120769784 0.47937974 0.13500391
000150 b1 15 36 be ef 6c 0f be ca 39 e1 be 65 bc ad 3c
       -0.17781712 -0.14006399 -0.43989402 0.021207998
000160 4e bd 72 bd dd 6b e0 3d a9 8f 19 3e 5f 88 7c be
       -0.059262566 0.10958073 0.14996208 -0.24661396
000170 b4 c0 d3 3d af 3e e0 bc 72 2f eb be 4a 3f 6e be
       0.103394896 -0.02737364 -0.45934635 -0.2326633
000180 9f 67 85 3e ad 2d 05 be c2 d7 1e be 13 07 ec bd
       0.2605562 -0.13005705 -0.15511993 -0.11524787
000190 dd 55 cf 3d 37 d2 d0 be b5 de 6d bd 41 2d 89 be
       0.10123799 -0.4078538 -0.058073718 -0.26792338
0001a0 f9 96 32 be 75 81 2b be eb 8c 96 3e 46 c6 a2 3d
       -0.17440404 -0.16748603 0.29404387 0.07947974
0001b0 b0 2b 5f 3e bc f1 a3 3d 49 96 22 3e 70 87 24 3e
       0.21794009 0.080050915 0.15877642 0.1606729
0001c0 3a 57 93 3e 7e 35 b8 bd 63 3b 7d 3d 00 22 66 3e
       0.28777486 -0.08994578 0.061824214 0.22473907
0001d0 42 61 5d 3e 29 9e 94 3d 1e 9b 99 be 9b 78 72 be
       0.21619132 0.07256729 -0.30001158 -0.2367882
0001e0 3d fd 8e bc 66 47 03 bc 46 df 11 3f 9c 67 ab bd
       -0.017454738 -0.008012628 0.56981313 -0.08369371
0001f0 90 00 d0 3d e0 5d ac bd 34 b3 94 be 93 cf a4 bd
       0.10156357 -0.08416343 -0.2904297 -0.08047404
000200 fc b4 36 3d 9e 05 64 3e 03 07 31 bf 7f 96 f1 bd
       0.044606194 0.22267768 -0.69151324 -0.11796283
000210 c4 07 c4 3d 8c 54 8a 3d c1 00 75 3d 26 5d 96 3e
       0.09571794 0.06754407 0.059815172 0.29367942
000220 ff 40 01 3e 7e 85 0e 3e f8 87 43 be 15 93 08 bf
       0.1262245 0.1391811 -0.19094837 -0.5334943
000230 83 5a 3c 3b a5 bd 51 3c 17 56 a6 bd 61 ae 43 3d
       0.0028740473 0.012801562 -0.08121889 0.047773723
000240 d4 c1 cd 3d a7 b8 13 be 53 df 72 be 22 fa 51 bd
       0.100467354 -0.14425908 -0.23718004 -0.051263936
000250 b9 40 fd bd 75 9d 51 3e a3 17 c5 bc e4 c6 9f 3e
       -0.123658605 0.20470221 -0.024059122 0.3120643
000260 b8 01 59 ba c8 67 0b bc 1c c7 7b be 54 88 57 3d
       -0.0008278149 -0.00850863 -0.24587673 0.052620247
000270 3a b9 37 3f e7 e8 cf bc e8 d8 16 3d dd d9 df bd
       0.7176701 -0.025379611 0.03682795 -0.10930226
000280 f5 c6 bb bb 26 a9 ff 3a a7 39 36 3e 2d 06 2f 3e
       -0.0057305046 0.0019505366 0.1779543 0.170922
000290 ab e5 2b be 83 e6 7d 3c 00 e6 03 be df 0f fe be
       -0.1678683 0.015496853 -0.12880707 -0.49621484
0002a0 74 58 83 be a5 f0 6b bd f8 13 0d be 17 91 18 3e
       -0.25653422 -0.057602543 -0.13777149 0.14899097
0002b0 3c 54 60 bc 48 9d 02 bf c6 4d 43 3e b5 78 98 3d
       -0.013691958 -0.5102124 0.19072637 0.07444898
0002c0 29 4a 1f 3e e8 10 7f 3d 02 28 88 be 04 cc b2 3d
       0.15555634 0.062271982 -0.26593024 0.08730319
0002d0 e8 73 ad bc fc cd e7 bc 11 c0 92 bd d1 58 bd be
       -0.021173432 -0.028296463 -0.0716554 -0.36981824
0002e0 8a bc 06 be a6 9a ef bc c3 6f af be 76 95 c6 be
       -0.1315786 -0.029248547 -0.34264955 -0.38785905
0002f0 09 5e 09 3d 2b 74 83 be 01 78 5a 3e 7e 99 0e 3c
       0.033536945 -0.25674567 0.2133484 0.008703588
000300 fa ba 80 bd 87 65 3a 3e 5a 3c 08 3f 74 2b 42 be
       -0.06285663 0.18202792 0.5321709 -0.18961889
000310 53 b9 c6 3c 44 ba 2f 3d ea 34 86 3e 7b 20 a0 3d
       0.024258291 0.042902246 0.26212245 0.07818695
000320 21 95 16 be 49 3a cb be bd a2 fc 3e 32 bf 44 be
       -0.14705326 -0.39692906 0.4934291 -0.1921356
000330 8b 28 70 3c 22 47 81 bc 3b df 66 3d a3 b0 a3 bc
       0.014658104 -0.01578099 0.056365233 -0.019981688
000340 c1 25 36 bc ee cc 63 bc b4 7f 1b 3e f5 b2 f8 3e
       -0.0111174 -0.0139038395 0.15185434 0.48574033
000350 5f 1e a8 bd c9 d0 9c 3e d8 ad b9 3e 6a 1b f5 3d
       -0.08208918 0.3062804 0.36265445 0.119681194
000360 5b 6a 5e 3e cf 3f a6 be 11 f8 b5 3d a0 0f c3 bd
       0.21720259 -0.32470557 0.088852055 -0.095244646
000370 00 8b 15 be 08 bf 91 3e 8c dc 8c bd d5 09 46 bd
       -0.14603806 0.28466058 -0.068780035 -0.04834922
000380 84 c1 3d 3e 08 22 06 be 48 75 36 bd fe a5 a8 3e
       0.18530852 -0.1309892 -0.044545442 0.32939142
000390 72 35 2e 3e bc f6 17 3e 3c 0c 3e bd c1 ac 5f be
       0.17012575 0.14840215 -0.046398386 -0.21843244
0003a0 5b 8d f2 3e 45 ec 53 bd 2a 69 64 be 94 18 f8 bd
       0.4737347 -0.051738996 -0.22305742 -0.12114063
0003b0 82 2e 88 bd 56 33 96 3b 4e af 65 3f 16 49 54 be
       -0.06649496 0.0045837564 0.8972062 -0.20731005
0003c0 2c 5b 8f bd ef e8 6f bd ee b4 0f 3c 92 73 0a be
       -0.069998115 -0.058571752 0.008771164 -0.13520649
0003d0 4c be 87 3d 58 2c f4 bd 69 9a 5e be c2 14 45 bc
       0.06628093 -0.119225204 -0.2173859 -0.012028875
0003e0 e9 99 6b be 4f 52 2f 3e 25 79 4d 3e 92 ec b2 be
       -0.23007931 0.17121242 0.20065744 -0.34946114
0003f0 07 ce 54 bd 93 b9 53 3e 44 b6 19 3c 9a 64 ef be
       -0.051954295 0.2067626 0.009381834 -0.4675644

0.bias f4 [32]
000000 1b 4b 7e 3d 83 37 38 3e 49 da 24 3d b9 7e 4b 3d
       0.062083345 0.17989926 0.040247235 0.0496814
000010 fb 03 4a 3e ad 2c 84 3e 02 9b 5f 3e 4e dd df 3d
       0.19728081 0.25815335 0.21836475 0.109308824
000020 a7 93 da 3d 27 a3 b2 3d f9 ad 4e bd c5 dd 8e bd
       0.10672694 0.08722525 -0.050458882 -0.06975893
000030 d6 74 95 3d 9a 1c 77 3d e9 6f 81 3e cd 80 11 3e
       0.07297675 0.06033001 0.25280693 0.1420929
000040 df 02 bb 3d 11 22 b2 3e dd 42 25 be f8 aa 66 3e
       0.09131407 0.34791616 -0.16138788 0.22526157
000050 37 17 b7 3d 2e 4e 1d 3e 02 70 67 3e 2a e0 d0 3b
       0.08939975 0.15361854 0.22601321 0.0063743787
000060 0d 91 ed bc 2b 62 10 bd e1 0e 01 3e 20 64 0a be
       -0.02899983 -0.03524987 0.12603332 -0.13514757
000070 ef 04 42 bc 82 9b 09 3e 31 86 91 3e cc 7c 8d 3e
       -0.011841997 0.13438228 0.28422692 0.27634275

2.weight f4 [64, 32]
000000 8b b1 f6 3c 4f 0e 24 3e 10 93 49 3d 5b d0 39 bd
       0.030113956 0.16021083 0.049212515 -0.04536472
000010 96 2e 14 bc 37 67 19 be 04 ac a9 bc 56 bc 0e 3d
       -0.00904431 -0.1498078 -0.020711906 0.03484758
000020 31 25 8d bc 9f b2 5b 3c cc 5b 77 3e 83 7b 4b 3c
       -0.017229648 0.013409286 0.24156111 0.012419584
000030 26 90 8a 3b c0 58 09 be b8 32 2e 3d e6 39 bb 3c
       0.0042286096 -0.13412762 0.042528838 0.022854757
000040 99 14 69 bc 50 f0 91 3b 3d 17 9e 3c 02 96 9c 3d
       -0.014226102 0.0044536963 0.01929819 0.07645799
000050 38 27 a6 ba c8 dd c0 bc f8 15 ee bc d5 e7 18 3e
       -0.0012676483 -0.023543254 -0.02906321 0.14932187
000060 17 fe e4 bd 74 fe 20 bd 33 c0 6d 3d 50 d7 bb bd
       -0.11181276 -0.039305165 0.058044624 -0.09171927
000070 35 7d 42 be 9e cf 1a bd d5 2c 08 3e 25 56 aa 3d
       -0.18993075 -0.037795655 0.13298352 0.08317212
000080 94 e6 0d be e2 d0 80 bd 0c 8a 12 3e 82 29 f6 3c
       -0.1385749 -0.06289841 0.14310473 0.03004909
000090 dc 9c 7a 3e a7 f4 3b 3d 9c e8 03 3d bd a8 3c 3c
       0.244739 0.045887616 0.032204255 0.01151484
0000a0 73 b9 47 3d 35 c7 1b be 65 33 bc bc 86 f3 62 bd
       0.048760843 -0.1521271 -0.022973726 -0.055408023
0000b0 33 b6 b9 3d 25 e0 ce 3d 3b 02 0b be 78 a0 43 bd
       0.09067955 0.10101346 -0.1357507 -0.047760457
0000c0 99 19 b6 3c 87 d9 dc bc 6a 58 42 bd 6c 41 0d bd
       0.022229003 -0.026959194 -0.0474476 -0.03448622
0000d0 e1 e2 43 3d 47 d3 fa 3d 50 d3 13 3e ed 11 51 bd
       0.04782379 0.12247329 0.14436078 -0.051042486
0000e0 e4 8d 8c bd 53 c4 8b 3d 2d 0e 6b 3d d6 dd 07 be
       -0.06863001 0.06824555 0.057386566 -0.13268217
0000f0 6f ed 5a 3e 4c 72 24 bd 57 77 e8 3d 20 2a 5a bc
       0.21379636 -0.040148064 0.11350887 -0.013315707
000100 a0 eb 00 ba 1f fb 0e 3d 60 5e aa 3d ac 6e 14 3e
       -0.00049179234 0.034907456 0.08318782 0.14495343
000110 44 cc e0 3d 51 ac a7 bc 46 74 ed 3d 89 2f 1e 3e
       0.109764606 -0.020467909 0.11594443 0.1544782
000120 93 76 23 bd ab cc 05 bc 10 52 47 3d 32 4a b5 bd
       -0.039908003 -0.008166472 0.048662245 -0.08852042
000130 6e d2 46 3e 54 63 08 be 92 33 8c 3e 77 c1 71 3d
       0.1941621 -0.1331914 0.27383095 0.059022393
000140 e5 a1 6a bd 4b d1 ab 3d 6a c2 b7 3c 09 bd 9c bd
       -0.0572833 0.08389529 0.022431571 -0.07653243
000150 54 c0 a3 bc 1e 6e e2 3c c6 27 d3 bd a6 04 19 be
       -0.01998917 0.027640399 -0.103103206 -0.1494318
000160 55 2d d8 3d cc d3 b7 3d 4d 34 20 bc d9 1f ff 3c
       0.105555214 0.08975944 -0.0097780945 0.031143116
000170 7d 01 35 be f6 b3 1f bd 16 1d e1 bd 4a 22 7b 3d
       -0.17676349 -0.038989983 -0.10991876 0.061311997
000180 d1 cf 6e bd d4 b2 39 3e a4 89 ce bd 16 26 26 3d
       -0.058303658 0.18134624 -0.100848466 0.040563665
000190 2e 72 d1 bc 9f 09 48 3e ee 5a 54 3c 37 27 97 bb
       -0.02556714 0.1953492 0.012961132 -0.004612829
0001a0 ea 53 af bd 27 fb 3e 3c 22 d7 c8 3c 0b 73 67 be
       -0.08560927 0.011656559 0.024516646 -0.22602479
0001b0 a5 d4 8d 3d 97 6a a6 bd 01 91 93 3d 78 d4 5b be
       0.06925324 -0.08125799 0.07205392 -0.21467769
0001c0 57 d5 a5 3b cc 20 96 bc 39 91 05 bc 5b 73 02 bd
       0.0050608325 -0.018326186 -0.0081523 -0.031848293
0001d0 d6 ea 62 3d 88 30 46 bc ac 15 c3 bd 12 ca c2 bc
       0.05539974 -0.012096532 -0.09525618 -0.023777995
0001e0 25 33 52 bb 0d 5a 62 3e b6 84 c1 bd 24 20 42 bc
       -0.0032073942 0.22104664 -0.09449141 -0.011848483
0001f0 60 a9 cf 3c 8d b8 0c 3e 8e 60 57 bc a8 63 3b 3d
       0.025349319 0.13742276 -0.013145579 0.045749336
000200 51 13 27 3d c2 97 89 bd d6 95 59 3d db f5 8d 3d
       0.040789906 -0.06718399 0.05312141 0.06931659
000210 d7 d8 9a bc 45 7a 0f 3d 24 96 b3 3c 81 e0 7c 3c
       -0.018902225 0.035028715 0.021922179 0.015434385
000220 76 94 47 bd 3e 14 75 3d a9 76 e1 3c 46 86 1d bc
       -0.048725568 0.059833758 0.027522402 -0.009614533
000230 04 74 8f 3d 12 33 70 bd d8 b7 6c 3d 7f b3 00 3e
       0.0700455 -0.058642454 0.057792515 0.12568472
000240 81 36 ac bd fe a1 c7 bd ca 9a c9 bb 37 79 a4 bd
       -0.08408833 -0.097476944 -0.0061524855 -0.080309324
000250 1c a8 05 bd a6 35 0e be 31 d9 2c 3c e7 57 24 3d
       -0.032631025 -0.13887653 0.010549829 0.040122893
000260 38 79 35 3d a1 24 a6 3d 6a ff 07 3e ac c9 02 3e
       0.044305056 0.08112455 0.13281026 0.12772244
000270 dc 73 83 be e1 dd cc 3c f0 ee 5b 3b 5e ca 1f bd
       -0.2567433 0.025008144 0.0033559166 -0.03901135
000280 b5 d8 74 bd 45 88 bb 3d 81 c7 6a 3d fe e3 ae 3d
       -0.05977698 0.09156851 0.057319168 0.0853958
000290 f9 ec 39 3e 39 ed 58 bd 97 f6 d9 bd 7f cc 88 3c
       0.18156804 -0.05296061 -0.106427364 0.016699074
0002a0 68 be 0d bb 7d ac 4b 3d e2 e4 0c 3e 73 09 b9 bd
       -0.0021628384 0.049725045 0.13759187 -0.090350054
0002b0 36 57 5b 3d 43 db 7c bd 61 f5 eb 3d 8c c4 d3 3a
       0.053549968 -0.06173254 0.11521412 0.0016156598
0002c0 0f e7 9a bd e4 00 93 bd 65 57 69 bc 71 4d b3 3c
       -0.07563602 -0.07177904 -0.014242028 0.021887513
0002d0 4a ea 90 3d e1 b3 99 bd 07 4a 5b bd 01 17 fd 3c
       0.07075937 -0.07505012 -0.053537395 0.030894758
0002e0 0e b3 a5 bd e5 e6 46 be a2 60 6e bd be e7 e0 3c
       -0.080907926 -0.19424017 -0.058197625 0.027454253
0002f0 67 0f 21 3e 22 be ed bd 3c 3c f5 bd b1 ae 32 3e
       0.15728532 -0.116085306 -0.119743794 0.17449452
000300 6e 47 da 3d 98 92 6f 3d 31 be b7 3d 2d 3f 29 bd
       0.106581554 0.058489412 0.08971823 -0.041320015
000310 29 12 90 3c 18 96 b4 bd 9f a2 96 bd ad 68 1e bd
       0.017586784 -0.088176906 -0.07355236 -0.038674045
000320 61 37 9f 3c d8 47 c0 3c ce 99 2d 3d 4d 3f 9e 3d
       0.019435586 0.023471758 0.042383008 0.077269174
000330 76 23 d3 bc 26 6f 22 bd b2 c8 01 be f1 51 78 3d
       -0.025773745 -0.03965678 -0.12674215 0.06062502
000340 74 c7 3d bd c3 56 af 3c c1 8a 33 be e3 8a d0 3d
       -0.04633279 0.021403676 -0.17533399 0.101827405
000350 2c e6 77 3a 94 10 c0 3d e0 b9 1e 3d 02 18 df bc
       0.00094566005 0.09378162 0.038751483 -0.027233128
000360 d4 73 59 3d f7 ad 2e bd 98 6b bc bd 76 91 06 3d
       0.053088978 -0.042646375 -0.092002094 0.032853566
000370 80 f3 28 3d 1e 25 0a be ce ab 9e 3d a4 20 24 bd
       0.041247845 -0.13490722 0.07747613 -0.04007019
000380 31 96 2c 3d 5d ba 0c be ca 96 89 bd 4c 08 d6 3c
       0.04213542 -0.13742967 -0.06718214 0.026127003
000390 f6 f3 14 be 25 b1 ca 3d 7c d9 99 3d f4 4d a1 3d
       -0.14546189 0.09897069 0.07512185 0.078761965
0003a0 38 84 0a 3e 19 c1 7e 3d e0 e1 25 bd c8 3d b9 3d
       0.13527 0.06219587 -0.040498614 0.09044987
0003b0 16 12 91 3d 73 6b 45 be 4d a1 c6 bd aa 0c 5a bd
       0.07083528 -0.1927927 -0.096987344 -0.053234734
0003c0 f5 0d 30 bd eb 34 b0 bd 7f 48 52 3c 19 2f 40 3c
       -0.04298206 -0.08603843 0.012834667 0.011729979
0003d0 cf 88 a5 bd 13 bc c2 3d c1 5b 71 3d de 00 da bd
       -0.08082735 0.095085286 0.058925394 -0.10644697
0003e0 07 93 1d be c8 99 a5 3d fb 65 83 bd 13 bc 51 bd
       -0.15388118 0.08085972 -0.064159356 -0.051204752
0003f0 64 2d 41 be a3 96 fa bd ac 09 17 3e 92 45 1c 3d
       -0.18864971 -0.12235763 0.14749783 0.038152285

2.bias f4 [64]
000000 4e 02 ec 3d 7b ce 81 bd 74 2b 4f be 7b 97 85 3c
       0.11523877 -0.06338211 -0.2023142 0.016307583
000010 77 65 d5 3d 30 2a 50 bc be ab bf bd 07 c7 ae 3e
       0.104197435 -0.012705371 -0.09358929 0.3413622
000020 e3 4c 19 be 5c 0a 14 3e 30 3d 9d 3d 6e 1a 13 bd
       -0.14970736 0.14457077 0.07677686 -0.035913877
000030 d5 a9 db bc dd b7 36 3d c4 b5 59 be b8 6e 8a bd
       -0.02681438 0.04460894 -0.21260744 -0.06759399
000040 d7 76 27 3e d3 fa a9 3c 56 da 87 3d 38 c2 b9 3d
       0.16353928 0.020749485 0.06633441 0.090702474
000050 49 49 73 3d b4 7c 0a 3e a0 0d 99 3d 69 92 d9 bd
       0.059396062 0.13524133 0.07473302 -0.10623629
000060 2f d5 e2 bd 56 53 71 3d d1 d5 97 3d 36 f6 47 3d
       -0.11075818 0.058917366 0.07413829 0.04881879
000070 52 44 d7 3d 8b 40 ab 3d c8 aa 26 be b9 eb 00 3e
       0.10511078 0.0836192 -0.16276085 0.12589921
000080 3c 03 00 3e 01 9e 3e 3d e1 2d 4c 3d 21 80 73 3d
       0.12501234 0.046537403 0.04984844 0.059448365
000090 a4 c3 1a 3d 04 f9 58 be 4d 24 8b bd 88 fc 32 3d
       0.037784234 -0.21188742 -0.06794033 0.043697864
0000a0 27 95 16 3e 09 55 69 3d 3a eb 6a 3e dc 91 2e be
       0.14705335 0.05696586 0.22941294 -0.17047828
0000b0 98 fe 2e 3c 2e bf 56 bd da 75 b3 3d 7f 20 0d be
       0.010680817 -0.052428417 0.08762713 -0.13781928
0000c0 51 e4 ad bd 31 2d 8c bd 30 64 82 bb 1c 75 84 bd
       -0.084908135 -0.06844557 -0.0039792284 -0.06467649
0000d0 fd de 7f 3d ea 71 13 3e 03 4c be bd 4b fa b6 3e
       0.062468518 0.14398924 -0.09291842 0.35737833
0000e0 4b 3b 19 bd c2 fa a1 3d 86 61 d0 3d a5 6d a4 bd
       -0.03741006 0.079091564 0.10174851 -0.080287255
0000f0 9f 5f b7 bd e7 11 da 3d 1b f7 d1 bd 01 fb 21 bb
       -0.08953785 0.10647946 -0.1025221 -0.002471626

4.weight f4 [128, 64]
000000 b9 10 00 80 8f 0e 00 00 e4 00 00 00 b3 03 00 80
       -5.999e-42 5.223e-42 3.2e-43 -1.327e-42
000010 f8 12 00 00 49 01 00 00 1a 0b 00 00 e4 08 00 80
       6.805e-42 4.61e-43 3.982e-42 -3.19e-42
000020 19 00 00 80 76 0d 00 00 aa 0d 00 80 6c 10 00 80
       -3.5e-44 4.829e-42 -4.902e-42 -5.891e-42
000030 94 02 00 00 f4 11 00 00 68 00 00 80 41 00 00 80
       9.25e-43 6.44e-42 -1.46e-43 -9.1e-44
000040 ac 08 00 00 f1 13 00 00 b3 12 00 00 2b 05 00 00
       3.111e-42 7.154e-42 6.708e-42 1.854e-42
000050 a3 09 00 00 d5 06 00 00 3f 13 00 00 85 09 00 00
       3.457e-42 2.451e-42 6.904e-42 3.415e-42
000060 85 0a 00 00 50 01 00 80 54 14 00 80 26 04 00 80
       3.774e-42 -4.71e-43 -7.292e-42 -1.488e-42
000070 7d 03 00 80 7b 05 00 80 72 12 00 00 0f 10 00 80
       -1.251e-42 -1.966e-42 6.617e-42 -5.761e-42
000080 9c 11 00 80 28 07 00 80 29 c3 12 00 90 09 00 80
       -6.317e-42 -2.567e-42 1.723049e-39 -3.43e-42
000090 5e 09 00 80 ed 07 00 80 19 07 00 00 d5 01 00 80
       -3.36e-42 -2.843e-42 2.546e-42 -6.57e-43
0000a0 f7 04 00 80 01 10 00 00 4f 05 00 00 cc 00 00 00
       -1.781e-42 5.741e-42 1.904e-42 2.86e-43
0000b0 a1 10 00 80 ab 12 00 00 ca 07 00 80 f9 0f 00 80
       -5.965e-42 6.697e-42 -2.794e-42 -5.73e-42
0000c0 85 07 00 80 65 04 00 80 0a 15 00 00 d2 15 00 80
       -2.697e-42 -1.576e-42 7.547e-42 -7.828e-42
0000d0 57 00 00 80 b8 0b 00 00 c1 0c 00 80 eb 0e 00 80
       -1.22e-43 4.204e-42 -4.575e-42 -5.352e-42
0000e0 9f 05 00 00 ec 01 00 00 70 0d 00 80 2c 0f 00 00
       2.016e-42 6.9e-43 -4.82e-42 5.443e-42
0000f0 ad 10 00 00 8e 00 00 00 f0 0f 00 80 7d 0a 00 00
       5.982e-42 1.99e-43 -5.717e-42 3.762e-42
000100 3f 2a 59 3c c5 7e 34 bd 37 78 cf 3b 1a 57 f4 3c
       0.013254701 -0.04406621 0.0063314694 0.02982669
000110 5e 1c d7 bc 98 61 4b 3c da 3a 40 3b 62 a0 32 bc
       -0.026258644 0.012413405 0.0029331953 -0.010902496
000120 13 0c 41 3b 9f 0a 63 3c 6e d4 ca 3c 07 86 20 3b
       0.002945666 0.013857513 0.024759497 0.002449395
000130 3f 09 bb bb bc a5 de 3c 2c 23 31 bd 59 30 01 3b
       -0.0057078893 0.027178638 -0.043246433 0.0019712655
000140 d8 b1 b3 bc 22 25 e4 bc 64 be 82 bc ca 6c 5f 3b
       -0.021935388 -0.027849738 -0.015959926 0.0034091943
000150 02 6a 5f bb 40 84 c1 bc 4e 80 e2 3c 26 5e 85 bb
       -0.0034090285 -0.023622632 0.027649071 -0.0040700613
000160 43 3e 99 39 e6 ae e3 3c 41 ef 36 bd 54 87 9f 3c
       0.00029228823 0.027793359 -0.044661764 0.01947371
000170 1c 34 21 bc ff dd b2 bc 6f 1a fc bc 7e 88 e3 3c
       -0.009839084 -0.021834372 -0.030774323 0.027775045
000180 99 7c 47 bb fe d9 a9 3c 4d 6d 9d ba 30 ea 26 bc
       -0.0030439256 0.02073383 -0.0012010724 -0.010187671
000190 6b a8 72 bb 6a da 6e 3d 65 1a fe bb c7 67 4b 3c
       -0.0037026654 0.058313765 -0.0077546113 0.012414879
0001a0 ad 9e e2 3c 4b 73 9c 3c 91 38 bd bb 75 70 98 3c
       0.027663553 0.019097945 -0.0057745655 0.018608311
0001b0 7a 32 a9 3a 23 fa 98 3d 47 70 25 3c 37 5a ab bc
       0.001290872 0.07469585 0.01009757 -0.020917041
0001c0 02 1a 78 bc 95 7d e5 3b 18 74 88 bc 78 0d 83 3a
       -0.0151429195 0.007003496 -0.01665692 0.0009998521
0001d0 98 73 45 bc 58 2c 59 bc d3 ec 79 3c f5 28 bc 3b
       -0.0120514855 -0.013255201 0.015254217 0.005742187
0001e0 20 ac f6 bc 8f 92 69 bc 58 07 ba bc 13 6a 1d 3c
       -0.030111372 -0.014256134 -0.02270858 0.00960781
0001f0 de 79 49 3c 59 2e 63 bc 0d 78 5a 3b 02 c0 23 3c
       0.012297122 -0.013866031 0.0033335716 0.009994509
000200 22 75 c6 3c f0 d1 2a bd b1 37 07 bd 5b 49 2d 3c
       0.024225775 -0.04170412 -0.033012096 0.010576571
000210 a8 fe 88 bd a0 6a 10 3d 39 f5 11 3d ac 74 04 bd
       -0.06689197 0.035257936 0.035634253 -0.03233783
000220 55 26 42 3d bb ee 33 b9 93 db c2 3c 43 be 20 3d
       0.047399838 -0.00017159704 0.023786342 0.039243948
000230 f5 36 6f bd e5 b9 0a 3d 5d 61 a3 bd 17 b1 91 3c
       -0.05840202 0.03386869 -0.07977555 0.017784638
000240 30 e1 93 bc 6d 9e 3f ba 3f 06 bf 3c f4 73 03 3d
       -0.018051714 -0.0007309679 0.023318408 0.032093003
000250 03 ae 1c 3c ee 42 eb bc fb 27 25 3c 09 23 7e bc
       0.009562972 -0.028718438 0.010080333 -0.015511283
000260 13 65 ee 3b db 93 6a bd e0 4a 1b 3d 04 1b d5 3b
       0.0072752326 -0.057269912 0.037913203 0.0065034647
000270 6d 60 a9 3c 07 2a be 3c e7 ca 03 bd d2 ae 09 bd
       0.020675862 0.0232134 -0.032175925 -0.033613987
000280 ab 2a 9e 3d 0f bb 29 3d 38 b3 85 bd 4b bf 07 3d
       0.07722982 0.04143816 -0.06528324 0.033141416
000290 5a fe 6e 3c f7 25 8d bc 1b 90 bc 3d 52 95 4a bc
       0.014587009 -0.017230017 0.092071734 -0.012364702
0002a0 3b 8f a0 3b f0 16 ea bc b5 60 ed 3c 90 5e 12 3e
       0.004899887 -0.02857539 0.028976778 0.14293885
0002b0 d5 f3 cd 3c 69 29 ac 3c 62 b3 8b 3b 73 dd 7b bb
       0.025140682 0.02101584 0.0042633275 -0.0038431555
0002c0 30 9d ef 3c fe 02 fc 3c d1 74 80 bc 95 58 6a ba
       0.029249758 0.030763146 -0.015680702 -0.00089395914
0002d0 2b be 9a bd b2 1f a8 bc 13 69 87 bd 34 5f 35 3b
       -0.07555803 -0.020522926 -0.06611838 0.0027675154
0002e0 8e 0c f9 3c 60 6b 82 3d ff d2 51 3d 8b 83 b4 bd
       0.030401494 0.063681364 0.051226612 -0.08814152
0002f0 10 78 e9 bc 96 d0 e4 3c e4 fc 49 3c 45 9c 67 bd
       -0.028499633 0.027931493 0.01232836 -0.056545515
000300 cb 64 17 3d cf 06 92 bd 8d 14 35 bd 75 ca a4 3b
       0.036961358 -0.07130205 -0.044209052 0.0050290176
000310 04 e7 9d 3d 8c bc 69 3d 1f b2 30 3d a6 35 c1 3d
       0.07710078 0.057064578 0.04313862 0.09434061
000320 b8 94 c6 3c 74 ad a9 bc 99 5c 41 3b 0f cf 70 3d
       0.024240837 -0.020712592 0.0029504655 0.058791216
000330 f5 07 91 bc 61 e6 a0 bd 0b 3c d9 3d 46 9b e3 bc
       -0.01770399 -0.07856441 0.106071554 -0.027784001
000340 57 81 c0 3d a0 de 1b bd 29 f5 01 be 1a be a2 bd
       0.093996696 -0.03805411 -0.12691177 -0.07946415
000350 e1 8e 9b bc 0e 91 91 3d 21 c9 84 3c c4 f2 88 3d
       -0.018989028 0.07107745 0.016209187 0.06686929
000360 5b b2 86 3d 94 26 47 bd 78 5a 0e 3e 18 b7 61 3c
       0.06576987 -0.048620775 0.13901699 0.013776563
000370 6c ce 5d 3d 9a 1c 93 bd 66 00 b5 3c 63 18 c4 3b
       0.054151937 -0.0718319 0.022094917 0.0059843524
000380 7b b5 00 bd 4e 59 9d bd 36 22 87 3d a9 5f 8f bc
       -0.031423073 -0.07683049 0.06598322 -0.017501669
000390 29 e9 61 3d ac 15 49 3d 06 41 c9 3d 6d f3 ff bd
       0.055154 0.049092934 0.09826855 -0.12497602
0003a0 42 c6 61 3d 23 e3 a6 3c 15 c6 7f 3c fe bd 7d 3d
       0.055120714 0.02037198 0.015611191 0.06194877
0003b0 81 6f 85 3c ff 53 d8 bd 87 d4 ba 3d d4 c2 d1 3d
       0.01628852 -0.10562896 0.091225676 0.10242239
0003c0 72 36 75 3d 17 b1 51 bd 93 a2 cd bd 2a 1a 55 bd
       0.059866376 -0.051194277 -0.10040774 -0.052026905
0003d0 96 de 33 3d 8c 3d 7a bd 80 68 81 bb 40 0b a2 3d
       0.043913446 -0.061093852 -0.003949225 0.07912302
0003e0 61 e5 93 3d 71 88 c6 3d 74 6b ec 3d b5 d4 ec bd
       0.07221485 0.09693993 0.115439326 -0.11564008
0003f0 a1 88 91 3c 06 5f 35 3d 0d de 10 3d a7 5e c9 bd
       0.017765345 0.044280075 0.035368014 -0.098325066

4.bias f4 [128]
000000 d3 04 16 9b 7b cc ac 3c 2e 61 9c 3c 15 73 ff bb
       -1.2409268e-22 0.021093598 0.019089308 -0.0077957013
000010 45 01 83 bd 9f 68 8c bd 44 0c 30 b8 d0 80 aa ad
       -0.063967265 -0.068558924 -4.1973093e-05 -1.9383967e-11
000020 2d 80 20 bd 55 81 c5 bd a9 c5 c5 3d 04 a8 12 3d
       -0.039184738 -0.09643809 0.09656841 0.035804763
000030 b6 5e 9a ba 2e b9 a9 3d 83 05 5a 3d a8 b5 16 bd
       -0.0011777494 0.08287273 0.053227913 -0.036794335
000040 45 25 27 8d 44 49 80 bc c0 aa fd 3c c1 35 46 bc
       -5.150571e-31 -0.015659936 0.030965209 -0.012097777
000050 a8 54 70 bd f5 79 cd 3d 22 da 82 bd a5 35 86 3d
       -0.058674484 0.10033027 -0.06389262 0.06553201
000060 df b8 9a 3d b6 c6 82 bd 82 ca 8b bb f4 55 9a ad
       0.075547926 -0.06385557 -0.004266084 -1.7545944e-11
000070 05 42 ea 3d 42 4b 9b 3c d0 1c 2a bc 40 76 91 3e
       0.114383735 0.018956784 -0.010382846 0.2841053
000080 b5 95 26 bb 06 d3 85 bc b9 12 f0 ba 54 eb 79 ba
       -0.0025418822 -0.016335975 -0.0018316127 -0.0009533663
000090 7d bc 80 3d 96 06 9b bc 1e a2 73 3d d2 26 a0 3d
       0.06285951 -0.018924039 0.05948078 0.078199044
0000a0 9e 9f c1 3d 59 f0 8c b4 22 35 aa 3b 4b 16 0f bd
       0.09454273 -2.6251908e-07 0.005194322 -0.03493337
0000b0 1b fd 04 3e 5e d0 f6 ba d3 16 52 b3 49 55 65 bc
       0.12987177 -0.0018830409 -4.8915194e-08 -0.013997384
0000c0 c0 ce 55 af 74 38 da bd 52 83 a8 3d f7 fa 1b 3e
       -1.944569e-10 -0.10655299 0.08228172 0.15232454
0000d0 9c d6 30 3e b5 89 5a ba fd 56 9b 3d 97 c6 17 3d
       0.17269367 -0.000833656 0.07584951 0.037054624
0000e0 89 54 ab 3d 87 5e bb 3d 7b ce ab 3d cb 20 f2 9a
       0.08365733 0.09148889 0.083889924 -1.00141834e-22
0000f0 bb 4f 82 bc 04 da b3 3b 85 7b 90 3d 5c e5 ca bd
       -0.01590716 0.005488636 0.070548095 -0.09907028
000100 89 30 43 3d 5b 84 2f 3d 13 38 81 3d b8 55 9e bd
       0.04765371 0.042850833 0.063095234 -0.07731193
000110 a5 55 89 b8 c5 28 36 3c 98 0a 8a b7 a3 40 1e 3e
       -6.5486216e-05 0.011118119 -1.6455815e-05 0.15454344
000120 ee 97 8e 3d e9 cf 86 3d ee b5 1c bc 84 28 aa bc
       0.06962572 0.065826245 -0.00956486 -0.020771272
000130 d7 e7 9b b1 a5 e8 3e 3b 8b c2 9f bc eb 56 68 3d
       -4.537451e-09 0.0029130366 -0.019501945 0.056723516
000140 c8 31 1d 3e b4 3d 47 bd 06 96 02 bd 3f 5f df 3d
       0.15351021 -0.04864283 -0.031881355 0.109068386
000150 58 79 62 bd a2 07 d0 ad 9f 86 9c a6 dd 2a 64 3c
       -0.055291504 -2.3650252e-11 -1.0861164e-15 0.013926235
000160 af 01 2c 3c a2 00 f0 a5 93 28 64 bc b0 49 e1 ba
       0.010498448 -4.1633792e-16 -0.013925689 -0.0017188098
000170 b3 aa f2 3c 28 2b a2 3d c8 27 d4 3d a5 4b 6b bc
       0.029622411 0.07918388 0.1035915 -0.014361297
000180 6a b8 06 3d 5d 7e 1e be b6 c9 eb 3b 89 b2 0a 3c
       0.032890715 -0.15477891 0.0071956767 0.008465418
000190 a5 56 c2 3d e3 d2 12 b1 8b 84 df 3d a1 47 47 3d
       0.094891824 -2.1365671e-09 0.109139524 0.048652295
0001a0 28 d9 77 ba 76 9c a4 3d e2 c4 40 3d 88 a3 d0 bd
       -0.0009454661 0.08037655 0.047062762 -0.10187441
0001b0 37 13 23 3d ba 0f 89 bb e1 56 fb bc 3c bc 32 bd
       0.039813247 -0.004182783 -0.030681076 -0.043636546
0001c0 55 14 d2 3d 27 95 70 3d d0 26 8f 3d 22 0b eb 3b
       0.10257784 0.058735993 0.06989825 0.007172958
0001d0 53 36 a2 bc f2 c3 d2 3b 85 16 05 a1 d2 ca 1c be
       -0.019801294 0.00643205 -4.5091957e-19 -0.15311745
0001e0 4b 65 2a bc f8 38 b5 bc 2b 41 0a 3e b6 51 b7 ba
       -0.010400127 -0.022121891 0.13501422 -0.0013986144
0001f0 ef f8 0a bc cd 51 38 3d 67 1d 6a 3e c4 86 a6 3d
       -0.008482202 0.044999886 0.22862779 0.08131173

6.weight f4 [128, 128]
000000 c5 a4 00 00 65 14 00 80 d5 14 00 00 e7 01 00 80
       5.9108e-41 -7.316e-42 7.473e-42 -6.82e-43
000010 9a 0e 00 80 53 05 00 80 da a0 00 80 27 01 00 00
       -5.238e-42 -1.91e-42 -5.7703e-41 4.13e-43
000020 7e 07 00 00 5b 06 00 80 5e 03 00 80 30 03 00 80
       2.688e-42 -2.28e-42 -1.208e-42 -1.143e-42
000030 86 5a 00 80 14 0f 00 80 b7 02 00 00 5b 00 00 80
       -3.2474e-41 -5.409e-42 9.74e-43 -1.28e-43
000040 77 a9 00 80 f2 00 00 00 ac 09 00 80 32 0d 00 00
       -6.0793e-41 3.39e-43 -3.47e-42 4.734e-42
000050 1b 03 00 00 0e 18 00 00 d9 18 00 80 79 03 00 00
       1.114e-42 8.629e-42 -8.914e-42 1.246e-42
000060 c0 27 00 00 8e 08 00 80 37 34 00 00 ae a8 00 00
       1.426e-41 -3.069e-42 1.8731e-41 6.0511e-41
000070 31 02 00 80 f5 0b 00 00 9c 1e 00 80 8c 0a 00 00
       -7.86e-43 4.29e-42 -1.098e-41 3.784e-42
000080 7e 0a 00 80 a4 11 00 00 27 ac 00 00 4f 0d 00 80
       -3.764e-42 6.328e-42 6.1757e-41 -4.774e-42
000090 f8 14 00 80 1a 08 00 00 41 15 00 80 5b 15 00 80
       -7.522e-42 2.906e-42 -7.624e-42 -7.661e-42
0000a0 26 03 00 80 dc 8e 00 80 4f 0a 00 00 eb 0a 00 80
       -1.13e-42 -5.1248e-41 3.698e-42 -3.917e-42
0000b0 ff 06 00 00 11 aa 00 00 b2 8d 00 80 9e 10 00 00
       2.51e-42 6.1008e-41 -5.083e-41 5.961e-42
0000c0 16 8e 00 00 f2 13 00 00 77 16 00 00 43 0b 00 00
       5.0971e-41 7.155e-42 8.059e-42 4.04e-42
0000d0 02 0a 00 80 29 ab 00 80 21 0e 00 00 16 03 00 80
       -3.59e-42 -6.14e-41 5.068e-42 -1.107e-42
0000e0 3b 1a 00 80 6f 0d 00 00 3e 0d 00 00 7c 8d 00 80
       -9.41e-42 4.819e-42 4.75e-42 -5.0755e-41
0000f0 4b 13 00 80 9f 03 00 80 e5 11 00 80 d7 03 00 80
       -6.921e-42 -1.299e-42 -6.42e-42 -1.377e-42
000100 81 1a 00 80 c4 0b 00 80 3d 0d 00 00 19 01 00 80
       -9.508e-42 -4.221e-42 4.749e-42 -3.94e-43
000110 52 0e 00 00 7e 10 00 80 2d 96 00 80 b9 05 00 80
       5.137e-42 -5.916e-42 -5.3873e-41 -2.053e-42
000120 ba 01 00 00 7a 0b 00 80 70 0d 00 80 a1 0c 00 80
       6.2e-43 -4.117e-42 -4.82e-42 -4.53e-42
000130 24 0c 00 80 3c 15 00 80 27 04 00 00 31 09 00 00
       -4.355e-42 -7.617e-42 1.49e-42 3.297e-42
000140 59 0a 00 00 46 11 00 00 10 0c 00 80 76 44 00 00
       3.712e-42 6.197e-42 -4.327e-42 2.4559e-41
000150 e3 10 00 80 ef 2d 00 00 de a5 00 80 ef 14 00 00
       -6.058e-42 1.6478e-41 -5.9502e-41 7.51e-42
000160 34 10 00 00 1a a5 00 00 f7 11 00 80 be 0e 00 00
       5.813e-42 5.9227e-41 -6.445e-42 5.289e-42
000170 b9 05 00 00 78 17 00 00 1f 14 00 00 0e 19 00 80
       2.053e-42 8.419e-42 7.218e-42 -8.988e-42
000180 c4 08 00 00 d1 06 00 80 50 11 00 80 01 02 00 80
       3.145e-42 -2.445e-42 -6.21e-42 -7.19e-43
000190 68 0b 00 80 74 8b 00 80 b3 09 00 80 78 15 00 80
       -4.092e-42 -5.0026e-41 -3.48e-42 -7.702e-42
0001a0 c3 07 00 80 f7 04 00 80 09 17 00 00 ad 11 00 80
       -2.784e-42 -1.781e-42 8.263e-42 -6.341e-42
0001b0 a3 14 00 80 21 0a 00 80 0d 13 00 00 67 19 00 80
       -7.403e-42 -3.634e-42 6.834e-42 -9.113e-42
0001c0 1b 00 00 80 a8 0f 00 00 18 1d 00 80 88 05 00 00
       -3.8e-44 5.616e-42 -1.0437e-41 1.984e-42
0001d0 d2 12 00 80 21 05 00 00 3c 9e 00 80 45 0f 00 00
       -6.751e-42 1.84e-42 -5.6764e-41 5.478e-42
0001e0 28 23 00 80 3d 09 00 00 82 14 00 80 52 05 00 80
       -1.2612e-41 3.314e-42 -7.357e-42 -1.909e-42
0001f0 4a 12 00 00 7a 04 00 00 e1 1f 00 80 d7 08 00 80
       6.561e-42 1.606e-42 -1.1436e-41 -3.171e-42
000200 5e 93 00 80 97 fb 81 91 7d c1 52 95 3d 0b d0 a7
       -5.2865e-41 -2.0507666e-28 -4.2561798e-26 -5.774378e-15
000210 88 e4 da 11 a2 3a 8f 10 ee 92 00 00 70 49 00 00
       3.4535179e-28 5.649389e-29 5.2708e-41 2.6344e-41
000220 a4 49 1a 8f d9 5f 27 14 9d 06 c8 90 6c 8d 27 0f
       -7.606969e-30 8.450248e-27 -7.889628e-29 8.2609726e-30
000230 c5 0b 00 80 dd 7e 06 16 51 b2 55 90 a6 e2 14 92
       -4.222e-42 1.0864465e-25 -4.2144213e-29 -4.697993e-28
000240 39 99 00 80 f1 6c b8 10 48 2e b5 90 7b 5b 26 12
       -5.4966e-41 7.2743054e-29 -7.146322e-29 5.2493122e-28
000250 38 25 19 91 3d 50 80 93 99 72 15 91 3d 8d f0 96
       -1.2081041e-28 -3.2390864e-27 -1.1789341e-28 -3.8863225e-25
000260 82 19 fd 11 a1 a3 dd 12 52 9a 00 80 66 8a 00 00
       3.9932082e-28 1.3987398e-27 -5.536e-41 4.9648e-41
000270 7a 06 14 15 cb f9 e9 a4 04 6c 07 92 96 97 84 ae
       2.989347e-26 -1.0147081e-16 -4.273163e-28 -6.029592e-11
000280 21 95 00 00 bf e6 8b a4 78 4e 00 00 f4 0a 00 80
       5.3497e-41 -6.067254e-17 2.8149e-41 -3.929e-42
000290 f3 d7 6c 11 8b 12 44 91 82 92 83 92 69 a3 f7 91
       1.8683662e-28 -1.5467388e-28 -8.303379e-28 -3.9070438e-28
0002a0 3a d4 27 90 57 0e 00 80 60 6e 69 12 7c e6 24 a1
       -3.3098436e-29 -5.144e-42 7.3657884e-28 -5.5870405e-19
0002b0 30 de dd 10 58 a0 00 00 c2 05 00 80 27 13 99 93
       8.7511464e-29 5.752e-41 -2.066e-42 -3.8641516e-27
0002c0 29 07 00 80 e3 a4 04 95 f5 d1 11 92 16 be 21 90
       -2.569e-42 -2.678726e-26 -4.6012725e-28 -3.1898088e-29
0002d0 d0 1a a7 10 87 a1 00 80 b3 95 83 10 46 00 51 90
       6.5911197e-29 -5.7945e-41 5.190104e-29 -4.1218193e-29
0002e0 cc 18 51 11 be 4c 28 14 92 47 06 90 89 7a 00 00
       1.6494834e-28 8.496967e-27 -2.6481976e-29 4.3957e-41
0002f0 89 d8 89 97 ef 25 5c 91 86 c5 68 10 01 da 7e 11
       -8.908079e-25 -1.7366629e-28 4.59061e-29 2.0104245e-28
000300 32 88 bf 10 b9 93 06 15 6a ba 54 11 77 4f 11 a7
       7.554606e-29 2.7177617e-26 1.6781294e-28 -2.016587e-15
000310 3b 9e 00 80 86 c7 2f 0f d1 0d 00 80 42 d0 56 1f
       -5.6762e-41 8.666593e-30 -4.956e-42 4.548853e-20
000320 31 d1 79 a2 64 29 a9 12 5a d5 a1 11 7e e1 ea 92
       -3.3856538e-18 1.0675603e-27 2.553281e-28 -1.4823064e-27
000330 4e a8 00 00 61 9d 45 91 32 cf 34 93 0e 47 4a 12
       6.0376e-41 -1.5589056e-28 -2.282135e-27 6.3827543e-28
000340 8c 29 8d a3 df ec 8b 10 ba 43 31 12 f0 87 0b 90
       -1.5304846e-17 5.519079e-29 5.593483e-28 -2.751764e-29
000350 2a 9f fd 0f 75 00 00 80 43 8b 00 80 83 ec b0 91
       2.5009034e-29 -1.64e-43 -4.9958e-41 -2.7913665e-28
000360 25 34 93 14 7c a6 00 80 4d 29 46 1d 8f 2d b9 11
       1.4863774e-26 -5.9723e-41 2.6226434e-21 2.921593e-28
000370 65 a8 1b 92 e7 21 63 11 a8 cc e4 90 af 87 25 92
       -4.911694e-28 1.791759e-28 -9.0245466e-29 -5.2232063e-28
000380 80 01 92 91 0d 90 1c 17 ef c0 9e 10 ac 31 69 11
       -2.3035663e-28 5.0588136e-25 6.261727e-29 1.8395765e-28
000390 ce eb a9 11 b6 8e 00 80 ca 69 26 16 22 14 c7 92
       2.6808824e-28 -5.1195e-41 1.3442754e-25 -1.2563629e-27
0003a0 a1 b7 e8 12 25 ee 0e 12 5f 93 93 10 be 92 1e 91
       1.4686526e-27 4.5100835e-28 5.820834e-29 -1.2509221e-28
0003b0 20 19 eb 13 ef 65 d8 91 71 80 bb a6 7b a8 0c 10
       5.9347115e-27 -3.4141613e-28 -1.3010546e-15 2.7739924e-29
0003c0 27 8d af 91 9f 2c 98 98 01 40 54 91 6c 60 37 ae
       -2.7697124e-28 -3.9336135e-24 -1.6743574e-28 -4.1695022e-11
0003d0 42 67 65 11 63 a6 db 90 2e aa 00 80 bc c8 b5 11
       1.8096733e-28 -8.663663e-29 -6.1049e-41 2.8680477e-28
0003e0 20 66 8b 90 c3 79 72 10 69 50 4e 12 9c 5f 41 92
       -5.498318e-29 4.7819887e-29 6.510125e-28 -6.101791e-28
0003f0 53 b8 1e 92 6e da 0a 92 f0 6f 82 91 c0 c4 46 1a
       -5.0083206e-28 -4.3814357e-28 -2.057937e-28 4.1104374e-23

6.bias f4 [128]
000000 8a 40 58 a8 3a 0f e1 b7 62 74 28 8e 13 dd 9f 3d
       -1.2004403e-14 -2.682918e-05 -2.0763635e-30 0.078058384
000010 0a 03 84 b8 ba 4d 2d bc fe e7 ca 97 a7 cb 95 b4
       -6.2948166e-05 -0.0105776135 -1.3112507e-24 -2.790159e-07
000020 fd 4e e1 ba 68 d5 8c bb 2d 37 ce a3 19 31 7d aa
       -0.0017189678 -0.004297901 -2.2357933e-17 -2.2487948e-13
000030 34 8d 92 b9 ae 83 94 b7 23 ba b5 3d e8 20 e5 b9
       -0.00027952495 -1.7704293e-05 0.088733934 -0.000437028
000040 48 48 71 a4 2d f8 1d a5 19 2b 35 ba 5c 3c 55 ba
       -5.231977e-17 -1.3701665e-16 -0.0006911024 -0.00081342994
000050 e2 e7 d2 3d e9 44 f0 ba 5d 83 20 3c 81 c4 8b 3d
       0.102981344 -0.0018331084 0.009796944 0.068245895
000060 20 a4 f7 3d 95 5b 34 bb ad bb bb 3d 8c 26 85 b0
       0.12091851 -0.0027520407 0.09166656 -9.687979e-10
000070 b3 f0 c7 3d b0 bc 90 9f 1f 7c 26 af dc 80 08 bb
       0.097627066 -6.129853e-20 -1.5141709e-10 -0.002082876
000080 9f d1 8f b1 6e fe b0 ae 74 a8 9f 3d 74 a9 df a6
       -4.185679e-09 -8.048749e-11 0.07795802 -1.5519664e-15
000090 b1 7a 44 bd 53 84 5f 3e 34 c0 fd bc bf cd 16 b9
       -0.04796857 0.21827821 -0.030975439 -0.00014381761
0000a0 8e 0e 8e b4 90 0b 98 ad 11 01 28 a5 2e ef 71 a8
       -2.646015e-07 -1.7285534e-11 -1.4572039e-16 -1.3430051e-14
0000b0 d2 33 e0 ad 81 9e e8 a5 44 b5 78 3e f0 0e 0f b2
       -2.5488864e-11 -4.035299e-16 0.24287897 -8.327092e-09
0000c0 a9 d7 9f ae ec 61 8d 3c 16 39 91 b8 d7 56 3e 3c
       -7.268792e-11 0.017258607 -6.924772e-05 0.011617384
0000d0 bf 1b 19 3e cb a4 fe 3d 5a ff bc b6 29 20 05 3e
       0.1495199 0.124337755 -5.6325634e-06 0.1300055
0000e0 92 8e e0 b6 86 f9 2c b7 01 90 f3 3d 86 92 b2 3d
       -6.6923176e-06 -1.0310096e-05 0.11892701 0.087193534
0000f0 67 2b 84 b3 55 50 74 3d c0 ee 41 3d 09 25 ff b8
       -6.154624e-08 0.059646923 0.04734683 -0.00012166246
000100 15 8a 1e 3d d8 bc 92 ab 4b d9 39 ba ed 00 8a af
       0.038705904 -1.0426339e-12 -0.0007089569 -2.5102712e-10
000110 d0 81 91 b6 63 84 b9 97 99 ac f3 b8 7e 3f 59 3e
       -4.336449e-06 -1.1988764e-24 -0.00011619292 0.21215627
000120 7d 62 14 af 00 ed 19 b3 85 1d 21 3e 6e d1 24 b8
       -1.3495512e-10 -3.583864e-08 0.15733917 -3.9295694e-05
000130 47 2d b9 a2 34 39 19 9b a0 e0 13 3e 8c 69 b5 b5
       -5.019229e-18 -1.2674347e-22 0.14441156 -1.3516269e-06
000140 75 1e 07 3e 6b b3 5b a8 ee 5c c3 3c bb 61 a5 3d
       0.13195212 -1.2195847e-14 0.023848023 0.08075281
000150 88 3b 0b 8b 24 a5 ea 96 4f 64 5d b8 f1 fe b3 3d
       -2.6815213e-32 -3.7908957e-25 -5.2783926e-05 0.087888606
000160 5a 80 4e 91 f9 09 29 3e fd 9c 06 bc ea db fa 3d
       -1.6290086e-28 0.1650771 -0.00821614 0.122489765
000170 df e0 2e bb bb 95 33 b8 58 71 62 ba 86 84 b5 3b
       -0.0026684327 -4.2816373e-05 -0.00086381054 0.0055394797
000180 54 a0 1a b5 cd 60 80 3b 70 96 00 b6 a4 1e e7 3d
       -5.760278e-07 0.0039177896 -1.9161052e-06 0.11285141
000190 88 27 a1 3d 23 6c 76 bb fe 32 6b b6 02 e9 ab 3d
       0.07868868 -0.0037601076 -3.504741e-06 0.08394052
0001a0 51 90 96 b9 a4 51 82 b3 00 d6 19 b7 ac 56 d3 a6
       -0.00028717754 -6.068447e-08 -9.169336e-06 -1.4664559e-15
0001b0 91 65 b2 3d 15 46 3b 3d 0e a8 9d b8 dd 6e a3 b7
       0.087107785 0.045721132 -7.517646e-05 -1.9482739e-05
0001c0 a6 c2 74 a0 3f 39 43 3e 77 46 a2 99 f5 78 af b2
       -2.0732008e-19 0.19064806 -1.6778868e-23 -2.0427686e-08
0001d0 0b 77 a2 9f d1 32 0a a0 6f e9 47 3d 50 45 0d 19
       -6.880661e-20 -1.1705868e-19 0.048806604 7.303527e-24
0001e0 a8 c6 bf 94 67 78 4e bb a6 00 a7 a7 7e 79 8f 3d
       -1.9364427e-26 -0.003150487 -4.6352514e-15 0.07005595
0001f0 fd 76 30 b7 8d 7a 1a 3e b1 9f 5b 93 c9 4b 13 b9
       -1.0518122e-05 0.15085812 -2.772042e-27 -0.00014047245

8.weight f4 [64, 128]
000000 d8 14 00 00 f3 a4 8f 8f 09 c0 1e 8b 52 72 10 3d
       7.477e-42 -1.4164425e-29 -3.0574164e-32 0.035265274
000010 32 ee 22 86 38 59 2b 3c be 03 00 80 e8 11 00 00
       -3.0643812e-35 0.010458283 -1.342e-42 6.424e-42
000020 45 63 84 b8 7f 61 bc ba 25 0a 00 80 53 08 00 00
       -6.312741e-05 -0.0014372318 -3.639e-42 2.986e-42
000030 b1 f5 95 28 32 58 77 8a 4f 74 71 bc 38 43 1b b2
       1.6648875e-14 -1.1909205e-32 -0.014737203 -9.037471e-09
000040 2f 13 00 80 36 01 00 80 a5 17 1a a4 19 1d 59 b7
       -6.882e-42 -4.34e-43 -3.3413455e-17 -1.2940983e-05
000050 82 7d 07 3e 46 f4 30 3a 92 26 7b bc 33 53 92 3d
       0.13231471 0.0006750267 -0.01532902 0.07144775
000060 d4 8a c6 bd 94 e1 41 36 19 db f1 bc b5 04 00 80
       -0.09694448 2.8890545e-06 -0.02952342 -1.689e-42
000070 1b 36 32 3c de 16 00 00 9d 08 49 2d 84 c9 16 2f
       0.010877158 8.203e-42 1.142744e-11 1.3714013e-10
000080 b0 0b 00 00 8a 07 00 00 d7 f7 c0 3c c0 12 00 80
       4.193e-42 2.705e-42 0.02355568 -6.726e-42
000090 d0 82 e6 bd 7a d2 20 3e ca 0c 1c bc f4 33 04 29
       -0.11255419 0.1570529 -0.0095245335 2.935495e-14
0000a0 0d be 8d 8c 4e 10 00 00 37 02 00 00 0f 64 20 85
       -2.1838872e-31 5.849e-42 7.95e-43 -7.541542e-36
0000b0 64 1c 00 00 4b 10 00 00 b2 76 bb 3d ec 18 00 80
       1.0185e-41 5.845e-42 0.09153499 -8.94e-42
0000c0 30 16 00 00 b3 65 5c bc 50 42 b9 37 25 78 07 3d
       7.96e-42 -0.013451981 2.2084598e-05 0.033073563
0000d0 80 7c bf 39 4b a7 ee 3c 63 11 00 80 f8 25 8e ba
       0.0003652312 0.029132506 -6.237e-42 -0.0010845056
0000e0 0b 5a cb 35 9e 2a 00 00 86 b2 80 3d f6 ba eb bc
       1.5150885e-06 1.5288e-41 0.06284051 -0.028775673
0000f0 21 08 00 00 52 49 17 bd 1d 9a 40 3c 5b fe 02 24
       2.916e-42 -0.036935158 0.0117554935 2.8404704e-17
000100 c7 b1 f6 3c 9f 0f 60 2a 76 3b 31 22 b8 0d 00 00
       0.030114068 1.9900616e-13 2.4019451e-18 4.921e-42
000110 9b 43 00 80 47 05 00 00 b2 5a 91 8a 63 42 9e 3d
       -2.4252e-41 1.893e-42 -1.3997108e-32 0.07727506
000120 5d 14 00 00 5d e4 00 80 32 cf 86 3d 86 ea 13 a5
       7.305e-42 -8.1921e-41 0.06582488 -1.2829677e-16
000130 d9 0e 00 00 4d 17 00 80 5d 42 9a 3b 61 6d 8a 15
       5.326e-42 -8.359e-42 0.004707618 5.5910326e-26
000140 d8 e6 05 3e e0 1d 8a a3 70 27 4e 3e 13 67 83 bb
       0.13076341 -1.4974643e-17 0.20132232 -0.00401009
000150 26 4a 0e 87 29 63 83 94 fd dd 43 a5 68 89 c4 bc
       -1.0704683e-34 -1.3266731e-26 -1.6988766e-16 -0.023991302
000160 44 3d 88 10 75 44 05 3e 48 50 ee ba 5f 75 a2 bc
       5.3736936e-29 0.13014396 -0.0018181885 -0.019831358
000170 03 e1 c0 b6 d0 0e 00 00 57 65 46 b4 fe 82 d3 bc
       -5.7482407e-06 5.314e-42 -1.8477054e-07 -0.025819298
000180 6e 0a 00 80 bf 4f 7b bc 50 b1 96 06 3b 9f a9 3c
       -3.741e-42 -0.015338837 5.6684266e-35 0.02070581
000190 c7 9e c5 bc 1d 98 2c 39 3d 0b 8e a1 d1 a4 05 bd
       -0.024123562 0.00016459865 -9.625269e-19 -0.032627884
0001a0 1e c9 08 9d bc 10 00 00 7e 1d f7 12 4b 0e 00 80
       -1.8103425e-21 6.003e-42 1.5595162e-27 -5.127e-42
0001b0 20 28 ff bd 00 b8 42 bc 8a 0e 6b 96 f6 12 00 80
       -0.12458825 -0.011884689 -1.8987737e-25 -6.802e-42
0001c0 1f 04 00 00 32 40 ef 3c aa 16 00 00 27 02 00 00
       1.478e-42 0.029205415 8.13e-42 7.72e-43
0001d0 17 0f 00 00 4c 1e 3e 1f 66 da 88 bc 18 71 da 98
       5.413e-42 4.0259126e-20 -0.016705703 -5.6465875e-24
0001e0 6d 13 00 00 29 88 93 38 e9 7b 4e 26 de cd a6 bc
       6.969e-42 7.034868e-05 7.1638537e-16 -0.020361837
0001f0 f6 09 00 00 79 4c ad bc b7 0b 00 80 88 57 31 30
       3.573e-42 -0.021154629 -4.202e-42 6.4516614e-10
000200 ae 04 00 80 72 df 6b 2f b4 aa 43 8a 62 d6 46 3d
       -1.679e-42 2.1452509e-10 -9.421014e-33 0.048544295
000210 bf b2 10 b2 68 5f 02 3e 6e 03 00 00 36 f9 cc 24
       -8.422545e-09 0.12731707 1.23e-42 8.889308e-17
000220 e4 35 1a b8 d9 b5 5b be bc 03 00 80 df 12 00 80
       -3.676665e-05 -0.21456088 -1.34e-42 -6.77e-42
000230 23 8b c5 a7 d7 cb 09 0c 55 8c 18 bb 3f 51 4e b7
       -5.4829336e-15 1.0615437e-31 -0.0023277004 -1.2297473e-05
000240 65 00 00 80 5e 05 00 00 03 e7 fc b4 f1 88 e6 38
       -1.42e-43 1.925e-42 -4.710674e-07 0.00010992762
000250 ee ef 9f 3c 8e c2 2b 39 6f 97 74 bd cb cd 09 bc
       0.019523587 0.00016380308 -0.05971473 -0.008410881
000260 1f 9a 48 bb b5 51 38 3a 1f 41 81 bc c8 c7 92 18
       -0.0030609441 0.0007031218 -0.015778122 3.7941843e-24
000270 19 f1 c8 bb b3 12 00 00 0e a9 a8 2c 27 5e 0f b4
       -0.0061322567 6.708e-42 4.793616e-12 -1.3352165e-07
000280 d1 08 00 80 ca 5d 9a 0e 4e 7c 16 3c 30 09 00 80
       -3.163e-42 3.8054247e-30 0.00918491 -3.296e-42
000290 b3 d6 f0 bc 52 21 7e 3d 10 22 0a 3e c0 41 1e 30
       -0.029399252 0.062043495 0.13489556 5.75735e-10
0002a0 d1 28 2a ad dc 13 00 00 7f 07 00 00 2e 7c 77 06
       -9.672444e-12 7.124e-42 2.689e-42 4.654677e-35
0002b0 2b 17 00 00 ff 0b 00 00 e0 20 83 bd 26 35 00 80
       8.311e-42 4.303e-42 -0.06402755 -1.9066e-41
0002c0 e0 0e 00 80 14 4d e6 bc 11 c7 98 37 b7 13 85 bb
       -5.336e-42 -0.028112926 1.821251e-05 -0.004061188
0002d0 9c fb 61 3b dd f5 84 3c a1 e0 83 22 7e fb 8a bb
       0.0034482246 0.016230518 3.5745456e-18 -0.004241406
0002e0 47 96 83 b5 f1 f7 d6 2a 20 be 17 bd f9 dd 29 bc
       -9.803997e-07 3.818608e-13 -0.03704655 -0.010367864
0002f0 0a 00 ae 82 47 ba 53 be a4 e8 ba b9 ae 93 f2 b0
       -2.5567025e-37 -0.20676528 -0.00035650015 -1.764979e-09
000300 b9 e0 0f 3e 66 67 08 2a 44 16 6d ab 5f f6 91 02
       0.14050569 1.21151e-13 -8.4230214e-13 2.1447245e-37
000310 cf 84 45 8f a2 0f 00 80 7a 93 58 32 c0 24 87 3c
       -9.738428e-30 -5.608e-42 1.2606387e-08 0.016497016
000320 8c 10 00 00 11 c6 8e 00 68 a1 97 3c 51 b0 f3 b2
       5.936e-42 1.3111693e-38 0.018509582 -2.8369103e-08
000330 b1 0d 00 00 62 04 00 80 b0 ec 90 3c e9 f0 ad 28
       4.912e-42 -1.572e-42 0.017690986 1.9311336e-14
000340 d4 09 40 3c 86 f1 a7 a6 89 ed 71 bb d4 97 53 3c
       0.011721093 -1.1653418e-15 -0.0036915264 0.012914617
000350 cc ec b7 88 d6 df a4 94 ea 00 44 b3 5e 8c a3 bc
       -1.1069583e-33 -1.6648056e-26 -4.5635637e-08 -0.019964393
000360 68 87 9d 10 dc c9 13 bc 3e d6 03 3d 81 c0 bb 3c
       6.213421e-29 -0.009020295 0.03218674 0.022918941
000370 9b 37 5b ba 62 ba 04 00 25 c4 48 35 0d b9 2c 3d
       -0.0008362473 4.34204e-40 7.4791234e-07 0.042168666
000380 26 46 82 a9 b0 07 26 be 03 52 81 9c d1 ff 55 ba
       -5.7853285e-14 -0.1621387 -8.557703e-22 -0.0008163425
000390 49 bf 69 3d ef 27 a7 3a 76 7f 96 ab 90 bd 71 3b
       0.05706719 0.001275299 -1.0693519e-12 0.003688667
0003a0 c2 0c d2 2a b8 c0 80 15 1d aa da 2c ee 0b 00 80
       3.7312346e-13 5.2002845e-26 6.214819e-12 -4.28e-42
0003b0 46 ce 59 bb 62 aa 3c bc c9 58 05 9b 03 95 85 2b
       -0.003323452 -0.011515232 -1.103019e-22 9.491577e-13
0003c0 3d 0f 00 00 48 43 35 3d d4 03 00 80 09 09 91 99
       5.466e-42 0.044253618 -1.373e-42 -1.4996298e-23
0003d0 61 0c 00 00 73 54 e2 9b 7b e2 9c bb 14 63 5e 99
       4.441e-42 -3.7443138e-22 -0.0047877408 -1.149714e-23
0003e0 d1 02 00 80 46 ed 88 3a 1a b8 b1 a6 85 fe aa 3d
       -1.01e-42 0.001044669 -1.2331743e-15 0.08349327
0003f0 8b 2d b3 2c 65 da a2 bb bf 06 00 80 a2 b5 c9 34
       5.0925423e-12 -0.0049698823 -2.42e-42 3.7571323e-07

8.bias f4 [64]
000000 29 23 9a 3d e9 df e7 3d aa fa 8b b6 66 5c a3 b3
       0.075262375 0.11322004 -4.171704e-06 -7.607086e-08
000010 bb 8a 14 3e a4 90 f6 3c 62 04 5f 3d b5 9d e1 3d
       0.14506046 0.030098267 0.05444754 0.11016408
000020 07 b1 e7 ae 12 98 78 b4 49 e4 3b 3d 92 b7 cb 3d
       -1.053611e-10 -2.3152123e-07 0.045872007 0.09947123
000030 91 5f d7 99 f7 ec ee a3 86 c4 0f aa b7 61 ac 3d
       -2.2269078e-23 -2.590437e-17 -1.2769134e-13 0.08417075
000040 5d 5f c5 b8 fc ce 20 3d 0c 23 12 3e 3f 88 2a b6
       -9.411455e-05 0.039259896 0.14271182 -2.541128e-06
000050 41 2a 2d 3d 19 cf 16 3e 1d 6c 24 a8 a8 46 62 a1
       0.042276625 0.14727439 -9.127272e-15 -7.666529e-19
000060 19 ce a3 3d e8 3e c4 3d 99 37 da 3d fa 74 ba a4
       0.079982944 0.09582311 0.10655136 -8.086281e-17
000070 1d ac c0 3d 4e 45 a9 3d 57 7a a4 3d 4c 85 1b 3e
       0.09407828 0.08265172 0.08031147 0.15187567
000080 2a c3 91 3d a5 e3 9f 3d e2 a8 a8 aa 3f 07 db 3d
       0.07117303 0.078070916 -2.995998e-13 0.106947415
000090 cb 96 d0 3d f8 d4 cd 3d 5e a3 c5 3d db 1a ce 3d
       0.101850115 0.10050386 0.096503004 0.10063716
0000a0 e2 99 90 97 07 ac 9d 3d 6f 59 cc 3d 80 20 07 3e
       -9.344627e-25 0.07698827 0.099779956 0.13195992
0000b0 42 ed 1c 3e a2 a1 a3 3d 78 15 cf 3d 59 62 f2 3d
       0.15324882 0.079898134 0.10111517 0.118351646
0000c0 b6 71 f4 3d 99 7d 3e 3d e5 02 a3 b5 21 06 5c b0
       0.11935751 0.046506498 -1.2145289e-06 -8.0044243e-10
0000d0 fb 12 d5 3d 50 c2 8e 3d 7c 74 6e 05 dc 33 3c bb
       0.10404011 0.06970656 1.1212101e-35 -0.0028717434
0000e0 21 07 5f ba 1a 03 07 3e e5 aa a3 3d 45 7d 93 3d
       -0.0008507837 0.13184777 0.0799158 0.07201628
0000f0 00 68 2f b6 41 5b c3 3d 20 3b 65 3d 76 fe 77 98
       -2.6137568e-06 0.0953889 0.05596459 -3.2052472e-24
