Models/checkpoint_vel_D1_1000_200.pth (torch, 353077 bytes, 16 tensors)

0.weight f4 [32, 9]
0	0x3df615e6	0.120158955
1	0xbdce2587	-0.100657515
2	0xbec0ce57	-0.37657425
3	0x3e9e1b37	0.30880138
4	0xbf6b3b55	-0.9188741
5	0x3ea3f7c8	0.3202498
6	0x3c6d6d74	0.014491428
7	0x3e72fefc	0.23730081
8	0xbd9b62ac	-0.075871795
9	0xbe1e2864	-0.15445095
10	0x3e06cf16	0.13164935
11	0x3e30e683	0.17275433
12	0xbe097f70	-0.1342752
13	0x3f7973bd	0.9744223
14	0xbe357a1f	-0.17722367
15	0xbd9aa43e	-0.07550858
16	0xbce53738	-0.027980432
17	0xbdee37d1	-0.1163174
18	0x3eb7e8ab	0.359197
19	0xbc265de3	-0.01015422
20	0xbce41380	-0.02784133
21	0xbe811f3b	-0.2521914
22	0xbf0b7260	-0.544714
23	0xbd1ae472	-0.03781552
24	0xbe467e8e	-0.19384214
25	0x3d2c8535	0.042119224
26	0x3e1c6bbb	0.15275471
27	0x3dd70daa	0.10500653
28	0xbe992adc	-0.29915512
29	0x3e84cf8e	0.25939602
30	0x3ec1f8c8	0.37885118
31	0x3ecdb699	0.40178373
32	0x3e925a1c	0.28584373
33	0xbe8451c2	-0.25843626
34	0xbe35c2bd	-0.17750068
35	0xbde271e5	-0.1105688
36	0x3e0febf4	0.14054853
37	0xbd8b92cb	-0.06815108
38	0x3e32fef5	0.17480071
39	0xbe578e71	-0.21050431
40	0x3f8ba9bc	1.0911174
41	0xbdf82190	-0.121157765
42	0x3e2868aa	0.16446176
43	0x3c9bfed1	0.019042404
44	0xbe8156cc	-0.25261533
45	0x3d6d81c8	0.057985097
46	0xbe264c8f	-0.16240142
47	0x3d030dfb	0.031995755
48	0xbf8b24f4	-1.0870652
49	0x3e15487d	0.14578433
50	0xbeedcd50	-0.46445704
51	0xbdd78148	-0.10522705
52	0x3de0b1be	0.10971402
53	0xbdf37ec5	-0.11889414
54	0x3e6b8a06	0.2300187
55	0xbd0967b6	-0.033546172
56	0x3ec2ff94	0.38085616
57	0xbebb6abc	-0.3660487
58	0xbe7e0897	-0.24807964
59	0x3e33dfa2	0.17565778
60	0xbe9f1d25	-0.31076923
61	0x3e6bd5de	0.23030803
62	0x3e9f6268	0.31129766
63	0x3dd9e738	0.106398046
64	0xbea3ed64	-0.32017052
65	0xbed36697	-0.41289207
66	0x3e97f10b	0.2967609
67	0xbdde2e13	-0.10848632
68	0xbdd5103f	-0.10403489
69	0xbdabc556	-0.08387248
70	0x3d9d85c4	0.076915294
71	0x3d4111c0	0.04713607
72	0x3e0dd8e1	0.13852264
73	0x3e2612cf	0.16218112
74	0x3e3b0d89	0.18266882
75	0xbf1f995d	-0.6234339
76	0xbe2d43ae	-0.16920349
77	0x3d93d5de	0.07218526
78	0xbe809f68	-0.25121617
79	0x3d71c325	0.059023995
80	0xbe1cf5db	-0.15328161
81	0xbe4542bc	-0.19263738
82	0x3d6ff8a7	0.058586743
83	0xbf25a72e	-0.6470822
84	0xbf18bedc	-0.5966623
85	0x3e0f92e2	0.14020875
86	0xbe3cc0f5	-0.18432982
87	0x3e1405bb	0.14455311
88	0xbda7cad4	-0.08192983
89	0x3c36b3bd	0.011151251
90	0x3cdb804a	0.026794571
91	0xbe887974	-0.2665516
92	0xbd5a307d	-0.0532689
93	0x3fa5c4d6	1.2950695
94	0xbf80ca33	-1.0061706
95	0xbe16944e	-0.14705011
96	0x3ddadb78	0.106863916
97	0x3e06b911	0.13156535
98	0xbe0cf70b	-0.13766114
99	0xbd2b12d8	-0.041766018
100	0x3e9d0388	0.30666757
101	0x3dc750e5	0.09732226
102	0x3f20620b	0.626496
103	0xbe6bd46c	-0.23030251
104	0xbe7a4b92	-0.2444289
105	0xbe87473f	-0.26421544
106	0x3eb8b899	0.36078337
107	0xbd89a5c9	-0.06721074
108	0x3e2e785f	0.17038105
109	0xbd00e478	-0.031467885
110	0xbdb76c69	-0.089562245
111	0x3ec1ac68	0.37826848
112	0x3fa81d83	1.3134006
113	0xbdfa1ccc	-0.12212524
114	0x3c2a2a7d	0.010386107
115	0x3e71e732	0.2362335
116	0x3d9da98e	0.076983556
117	0xbba3c3c8	-0.004997704
118	0xbeb39638	-0.35075545
119	0xbdccc1dc	-0.09997913
120	0x3dad7ec7	0.084714465
121	0x3e0d0c24	0.13774163
122	0x3ec62539	0.38700274
123	0xbd7916f1	-0.060812894
124	0x3e660f0f	0.22466682
125	0xbe6dbefe	-0.23217389
126	0xbe81b472	-0.2533298
127	0x3d589197	0.05287322
128	0x3e563b7b	0.20921127
129	0x3e185cc0	0.14879131
130	0xbf6eeb68	-0.9332795
131	0x399e87ad	0.00030237195
132	0x3e4adfc1	0.19811918
133	0x3dd230a0	0.10263181
134	0x3de21b1b	0.11040326
135	0x3e937193	0.28797588
136	0x3ec5269d	0.38506022
137	0x3ea4205e	0.32055944
138	0xbddddef2	-0.10833539
139	0xbf8242f0	-1.0176678
140	0xbdf4d2ce	-0.1195427
141	0x3cdffda3	0.027342623
142	0xbe5a4e31	-0.2131889
143	0x3ccb1324	0.0247894
144	0xbd440aec	-0.04786198
145	0xbe115b8e	-0.14195082
146	0x3ca69fcb	0.020339867
147	0x3cae1dca	0.021254439
148	0xbd98fbb2	-0.07469882
149	0x3fb39e62	1.403271
150	0xbda5747e	-0.0807886
151	0x3c6c4940	0.014421761
152	0xbd340ba7	-0.043956425
153	0xbb4c8a13	-0.0031210228
154	0xbeca791d	-0.39545527
155	0xbe55cbd0	-0.2087853
156	0xbf3730ed	-0.7155903
157	0xbd93158e	-0.071818456
158	0x3d3ed805	0.04659273
159	0xbd34093e	-0.043954127
160	0xbe508fa3	-0.20367293
161	0x3e5c8ee5	0.21538885
162	0x3e47a0aa	0.19494882
163	0x3d46ceae	0.04853695
164	0xbecc2350	-0.3987069
165	0x3ea539df	0.32270715
166	0x3f3f46ea	0.7471758
167	0xbd80e36a	-0.06293376
168	0xbe574dbb	-0.21025746
169	0xbddf70fb	-0.10910221
170	0xbe325be1	-0.17417862
171	0x3d665e7c	0.05624245
172	0x3e8c0942	0.27350813
173	0x3efe17c5	0.4962751
174	0xbcd0a057	-0.025467081
175	0x3e0172f1	0.12641503
176	0x3e1ce02f	0.15319894
177	0x3d2f89cd	0.042856026
178	0xbe551953	-0.20810442
179	0x3e9d4a3b	0.30720696
180	0xbd934cc3	-0.071923755
181	0xbd57fbb2	-0.05273027
182	0xbea22173	-0.31666145
183	0xbe387b7b	-0.18015854
184	0xbf861f44	-1.0478292
185	0x3d84a710	0.06477177
186	0xbe958140	-0.29200172
187	0xbdf68705	-0.12037472
188	0xbc2ebf09	-0.0106656635
189	0xbe883a9c	-0.26607215
190	0x3cb328ff	0.021870134
191	0xbddf812d	-0.1091331
192	0xbe2d2982	-0.16910365
193	0x3e9d659f	0.30741593
194	0x3f365a76	0.7123178
195	0xbe2ccfdf	-0.16876172
196	0x3dd0770c	0.101789564
197	0x3df0c22d	0.11755786
198	0x3e8a811f	0.27051637
199	0xbe9720aa	-0.29517108
200	0x3eb17b47	0.34664366
201	0xbf2b14f9	-0.66828877
202	0xbe076713	-0.13222913
203	0x3d3a16b1	0.045431796
204	0x3e1f880b	0.1557924
205	0xbdb17836	-0.086655065
206	0xbc24c538	-0.010056786
207	0xbcca18fe	-0.02467012
208	0x3c6b4e19	0.014361882
209	0xbce539d2	-0.027981672
210	0x3e7f51f2	0.24933603
211	0x3ee088fa	0.43854505
212	0xbe87c7b3	-0.26519546
213	0x3eab81bf	0.33497426
214	0x3e15d61e	0.1463246
215	0x3ec5acde	0.3860845
216	0x3e0aa4c6	0.13539419
217	0xbe76d8e1	-0.2410617
218	0xbe678ad9	-0.2261156
219	0x3f19becf	0.60056776
220	0x3ee481a3	0.44630155
221	0x3e339bdf	0.17539929
222	0xbe1c7fa9	-0.15283073
223	0xbd5b4253	-0.05353005
224	0x3d14d307	0.036334064
225	0xbe020ecc	-0.12700957
226	0xbe28a8aa	-0.1647059
227	0x3ccb43ba	0.024812568
228	0x3f1937b9	0.5985065
229	0x3f73e899	0.9527679
230	0xbdd31994	-0.10307613
231	0xbdd0f891	-0.1020366
232	0x3e8e5cad	0.2780508
233	0xbd65551f	-0.05598938
234	0xbdac0b05	-0.08400539
235	0xbca69c4f	-0.020338206
236	0xbeb9bce0	-0.36276913
237	0xbd2d370d	-0.04228883
238	0x3f022e66	0.5085205
239	0xbe1c28ef	-0.1524999
240	0xbeac2ca7	-0.33627817
241	0x3d084d99	0.033277128
242	0x3dc30b5b	0.0952365
243	0xbd438391	-0.047732893
244	0x3d31e1e3	0.043428313
245	0x3e0d337d	0.13789172
246	0xbf2ba9aa	-0.6705576
247	0xbc57f325	-0.013180529
248	0xbdf6cd2b	-0.120508514
249	0x3e984e6d	0.29747334
250	0x3ea54514	0.32279265
251	0xbda15de4	-0.07879236
252	0x3ebbf3f8	0.3670957
253	0x3ed39e03	0.4133149
254	0xbe54d840	-0.20785618
255	0xbf6625e4	-0.89901567

0.bias f4 [32]
0	0x3dc0a764	0.09406927
1	0x3e16b808	0.1471864
2	0xbd023939	-0.031792853
3	0x3b626eb6	0.0034550852
4	0x3e5e5dec	0.21715516
5	0x3e92c801	0.28668216
6	0x3d9b75cb	0.075908266
7	0x3d0155e6	0.03157606
8	0xbc6b5cba	-0.014365369
9	0x3e151397	0.14558254
10	0xbf09523b	-0.536411
11	0x3d3ff44b	0.046863835
12	0x3ea31b25	0.31856647
13	0xbd021e36	-0.031767093
14	0x3d251b03	0.040308964
15	0xbd22764d	-0.0396636
16	0x3ee70837	0.45123455
17	0x3dfea79f	0.12434315
18	0xbce3c80c	-0.02780535
19	0x3f11cf69	0.5695711
20	0x3b6fb831	0.0036578292
21	0x3ef80811	0.48443654
22	0x3eb4dd77	0.35325214
23	0x3e2255bd	0.15853019
24	0xbe819108	-0.25305963
25	0xbe606289	-0.21912588
26	0x3e667e96	0.22509226
27	0xbdd7d78e	-0.10539161
28	0x3debb15f	0.1150844
29	0x3d188e2b	0.037244957
30	0xbdbea865	-0.093094625
31	0xbe4168e9	-0.18887676

2.weight f4 [64, 32]
0	0x3ce671ea	0.02813049
1	0x3e62ba27	0.22141324
2	0xbdb47c25	-0.08812741
3	0xbe030a58	-0.12796915
4	0x3e1aa266	0.15101013
5	0xbe308c18	-0.17240942
6	0xbde8ef24	-0.113737375
7	0xbc61fd5d	-0.013793317
8	0xbdc9a63e	-0.09846161
9	0xbe12e0dc	-0.1434359
10	0x3bbee70d	0.0058258832
11	0x3e7133fd	0.23554988
12	0xbcd452fb	-0.025918474
13	0xbe423eb5	-0.18969233
14	0x3dbc4a9a	0.091939166
15	0xbcaa78ea	-0.02080961
16	0x3d69f218	0.057115644
17	0x3d4158d2	0.047203846
18	0x3e0f6126	0.14001903
19	0x3d2b35e2	0.041799434
20	0x3bd9c8fe	0.0066462746
21	0xbd8a0b3d	-0.06740425
22	0xbd0825ca	-0.033239163
23	0x3ded8291	0.11597169
24	0xbd19c270	-0.037538946
25	0xbdfd0b8c	-0.12355718
26	0x3d51a129	0.051179085
27	0xbe07689a	-0.13223496
28	0xbd9f0137	-0.077639036
29	0xbd6ef2d4	-0.058337048
30	0x3dc172a4	0.09445694
31	0xbca4078d	-0.020023132
32	0xbeabb85f	-0.335391
33	0x3d1a855f	0.03772485
34	0xbb2bcaae	-0.0026213336
35	0x3e38b25a	0.18036786
36	0x3e804ed7	0.2506015
37	0x3e14e7f7	0.14541613
38	0xbe13248a	-0.14369407
39	0x3df62c5e	0.12020181
40	0xbd08f69b	-0.033438306
41	0xbee36fa5	-0.44421116
42	0x3dfe8af5	0.12428848
43	0x3d9b2682	0.07575704
44	0x3dee2eb6	0.11630003
45	0xbd71e672	-0.05905766
46	0xbe87bc3d	-0.26510802
47	0xbe8a34eb	-0.26993498
48	0xbe519b87	-0.20469485
49	0xbd0da033	-0.034576606
50	0xbe1a65c1	-0.15077879
51	0x3e29c1ae	0.16577789
52	0x3b0c639a	0.0021421672
53	0xbe2496f2	-0.16073206
54	0x3c13d163	0.00902209
55	0x3e1ba5b9	0.15199937
56	0x3db58d8f	0.08864891
57	0x3eacc1f1	0.33741716
58	0x3d5f41f6	0.054506265
59	0x3cc0e475	0.023546437
60	0x3ec42ad2	0.3831392
61	0xbd632992	-0.055459566
62	0x3d81d919	0.06340236
63	0x3df71ad0	0.12065661
64	0xbe6cfa99	-0.2314247
65	0xbdd96a6d	-0.10616002
66	0x3dcb71ac	0.099337906
67	0x3dbbc30f	0.09168064
68	0xbdf0fd92	-0.11767115
69	0xbddb71ef	-0.107150905
70	0xbd2bd8cd	-0.041954804
71	0x3e07bd10	0.13255715
72	0xbd47c01b	-0.04876719
73	0xbc9e76be	-0.01934373
74	0x3ee3785c	0.44427764
75	0xbda7908d	-0.08181868
76	0x3eba1a3e	0.36348146
77	0xbd567a3e	-0.052362673
78	0x3e67f964	0.22653729
79	0xbdb060e7	-0.08612233
80	0xbc0d101a	-0.008609796
81	0x3cc24a9d	0.023717219
82	0x3e027459	0.12739696
83	0xbea48ae9	-0.3213723
84	0x3e3853fa	0.18000785
85	0x3dab4be3	0.083640836
86	0xbe40131b	-0.18757288
87	0x3c261585	0.010136967
88	0x3e9062c1	0.28200343
89	0xbda123cc	-0.07868156
90	0xbca53e8f	-0.020171432
91	0x3e802ff6	0.2503659
92	0xbcf4c81d	-0.029880578
93	0xbc46aace	-0.012125684
94	0x3e6925b0	0.22768283
95	0x3e87f2f0	0.26552534
96	0xbdce4c7c	-0.10073182
97	0x3da3ca0e	0.07997523
98	0x3d61b021	0.05509961
99	0xbd72e1cd	-0.05929737
100	0xbe607e08	-0.21923077
101	0x3e3db831	0.18527295
102	0x3de925dd	0.11384175
103	0xbd238eb8	-0.03993103
104	0x3e747e30	0.23876262
105	0x3e227284	0.15863997
106	0x3c86961c	0.016429
107	0xbe2b6aec	-0.16740006
108	0x3dc5411e	0.09631561
109	0x3dbb03cd	0.09131584
110	0x3d3af311	0.045641962
111	0xbe7aaa9b	-0.24479143
112	0xbe433ace	-0.19065401
113	0x3e90491c	0.28180778
114	0xbc838d66	-0.016058635
115	0xbdf8e949	-0.121538706
116	0x3c8d6e1c	0.017264418
117	0xbe930d3d	-0.28721038
118	0x3e686810	0.22695947
119	0x3c0ea75b	0.008706893
120	0xbe239f0a	-0.15978637
121	0x3e2d09a4	0.16898209
122	0xbe4dc777	-0.20095621
123	0xbc4932ef	-0.01228021
124	0xbccfcc54	-0.025365986
125	0x3d03c362	0.032168753
126	0xbe5b4ee3	-0.21416812
127	0xbe269a19	-0.16269721
128	0x3e17be2f	0.14818643
129	0x3cb49d96	0.0220478
130	0x3e2f7bad	0.17137022
131	0xbd7692e0	-0.060198665
132	0x3d97818f	0.07397758
133	0xbe9efed8	-0.31053805
134	0x3e54791b	0.20749323
135	0x3dcbfea7	0.099606805
136	0xbe164258	-0.14673746
137	0x3d2befcb	0.04197673
138	0x3dd1a445	0.1023641
139	0xbe7a03b6	-0.24415478
140	0xbd6ee742	-0.058326013
141	0x3b047a34	0.002021444
142	0x3d94708f	0.07248031
143	0xbd98a0be	-0.07452534
144	0x3e87591d	0.26435176
145	0x3e001c6f	0.12510847
146	0xbe901882	-0.28143698
147	0xbdd3c21e	-0.10339759
148	0x3e469d99	0.19396056
149	0xbe32d79e	-0.17465064
150	0xbd050163	-0.032472026
151	0xbc30e8d4	-0.010797698
152	0xbcda4fbe	-0.026649352
153	0x3aef9b20	0.0018280484
154	0xbd4d34a5	-0.050099034
155	0x3e3718bb	0.17880528
156	0xbdb83c08	-0.08995825
157	0xbbb08b64	-0.0053877104
158	0x3e6b0fd3	0.22955255
159	0xbeb85156	-0.35999554
160	0x3e15313e	0.14569566
161	0x3e1c51cd	0.1526558
162	0xbcf49ab5	-0.029858926
163	0x3db724c3	0.089425586
164	0x3e50f88f	0.20407318
165	0xbe75c2f4	-0.2400015
166	0xbe010492	-0.125994
167	0xbe612fd0	-0.21990895
168	0x3d4a45ed	0.049383093
169	0xbd16bd08	-0.036801368
170	0x3d2962a8	0.04135385
171	0x3e5126b5	0.20424922
172	0x3def0e49	0.116726466
173	0x3ab3eea4	0.0013727737
174	0x3dd42426	0.10358457
175	0x3e6c8f82	0.23101619
176	0x3e4e5084	0.20147902
177	0xbb5ebb02	-0.0033985977
178	0xbd26cb60	-0.040721297
179	0x3db5b75a	0.08872862
180	0xbe07d46b	-0.13264625
181	0x3d71e16b	0.059052866
182	0xbeb8babf	-0.36079976
183	0x3e07d8bd	0.13266273
184	0xbdce9613	-0.10087218
185	0xbe05b8de	-0.13058802
186	0xbe9016ff	-0.28142545
187	0xbe5d5a91	-0.2161658
188	0x3da48ac6	0.080342814
189	0x3e3d31f3	0.18476085
190	0xbd5a0b32	-0.053233333
191	0x3e0b2016	0.13586459
192	0x3e8d699f	0.27619645
193	0xbd04c371	-0.03241295
194	0x3e6d1a8a	0.23154655
195	0xbdeff6f9	-0.11717028
196	0xbe402b6f	-0.18766569
197	0xbe802f26	-0.2503597
198	0xbe51856e	-0.20461056
199	0x3d36c9e9	0.04462615
200	0xbdbc8399	-0.09204788
201	0xbd6e8b86	-0.05823853
202	0x3e78fa01	0.24314119
203	0xbe01b0ac	-0.12665051
204	0xbedc74a4	-0.4305774
205	0xbe329baa	-0.17442194
206	0x3d935011	0.07193006
207	0x3eb8c996	0.36091298
208	0xbd9d30b0	-0.07675302
209	0xbd67f0f0	-0.05662626
210	0x3c507c46	0.012724942
211	0x3d9b11ee	0.07571779
212	0x3ded5803	0.115890525
213	0x3c7ca9bc	0.015421327
214	0x3d862fe8	0.06552106
215	0xbe440be4	-0.19145161
216	0x3de7f1c8	0.11325413
217	0xbdff7497	-0.124734096
218	0xbe45e398	-0.19325101
219	0x3c50287c	0.012704965
220	0xbe20a11c	-0.15686458
221	0xbce3255e	-0.027727779
222	0x3da6c19f	0.08142399
223	0xbd24725c	-0.040148124
224	0x3d9439e6	0.07237606
225	0xbd0df901	-0.034661297
226	0xbc8bc28d	-0.017060542
227	0x3e581392	0.21101215
228	0xbd75c9c4	-0.06000687
229	0xbe7ec990	-0.24881577
230	0x3e2f0d8c	0.17095011
231	0xbd02aefb	-0.031905156
232	0x3daba64c	0.08381328
233	0xbe24aec7	-0.16082297
234	0xbd80179b	-0.062545024
235	0xbe44dcb6	-0.1922482
236	0x3ec257c7	0.37957594
237	0x3df6b838	0.12046856
238	0xbe4e7ddc	-0.20165199
239	0xbe5186d5	-0.2046159
240	0x3ef47405	0.47744766
241	0xbc3a4203	-0.0113682775
242	0xbc640fe3	-0.013919803
243	0x3e2ec033	0.17065506
244	0xbd82d3d8	-0.06388062
245	0xbc978969	-0.01849814
246	0xbd901ce7	-0.07036763
247	0x3e0f69e7	0.14005242
248	0x3dd770c3	0.105195545
249	0xbe4d5353	-0.20051317
250	0x3d226167	0.03964367
251	0xbdbe10db	-0.09280559
252	0x3d3bf11a	0.04588423
253	0x3c3a5390	0.011372462
254	0xbdfabc5c	-0.12242958
255	0xbde94b1d	-0.1139128

2.bias f4 [64]
0	0x3e0fed64	0.14055401
1	0xbdc5ad15	-0.096521534
2	0xbec02529	-0.3752835
3	0x3e1f9bef	0.15586828
4	0x3e114417	0.1418613
5	0xbd1511e8	-0.03639403
6	0xbec77c25	-0.38961902
7	0x3ba9b950	0.0051795617
8	0xbdb906cf	-0.09034502
9	0x3d183f40	0.037169695
10	0x3dc51574	0.096232325
11	0x3d270f1d	0.040785898
12	0xbe531fab	-0.20617549
13	0xbe3c7ab1	-0.18406178
14	0xbe879f6d	-0.2648882
15	0xbea4b02a	-0.32165653
16	0x3eba22f6	0.36354798
17	0xbea0104e	-0.3126244
18	0x3d9c5703	0.07633784
19	0xbead3bc4	-0.3383466
20	0x3e8a7791	0.27044347
21	0x3d4933b5	0.049121577
22	0xbc212fd4	-0.009838063
23	0xbd762fd9	-0.060104225
24	0xbe7684a5	-0.24074037
25	0xbea44191	-0.32081273
26	0x3df8b5a5	0.12144021
27	0x3a8fad62	0.0010961706
28	0x3e1a1e40	0.15050602
29	0xbdf266a2	-0.11835982
30	0xbec99b70	-0.39376402
31	0xbe112737	-0.14175116
32	0xbdd1397b	-0.10216042
33	0x3e65671f	0.22402619
34	0x3e901ca5	0.28146854
35	0x3e173fc1	0.14770414
36	0xbc93c085	-0.018036136
37	0xbe902843	-0.28155717
38	0x3d858598	0.065196216
39	0x3cea4bab	0.028600534
40	0xbd31ed94	-0.043439463
41	0xbe5d3692	-0.21602848
42	0x3e1f6e58	0.15569437
43	0x3e25c784	0.1618939
44	0xbe1fe020	-0.1561284
45	0x3e25bdc0	0.16185665
46	0x3d9b95f7	0.07596963
47	0xbce05d4f	-0.027388243
48	0xbcf6cbc3	-0.030126458
49	0x3e0e2303	0.13880543
50	0x3da00c13	0.07814803
51	0x3e990b8a	0.29891616
52	0x3dd7dc4f	0.105400674
53	0x3e93798e	0.28803676
54	0xbdd453ce	-0.10367547
55	0x3e98c394	0.29836714
56	0x3df37fd5	0.118896164
57	0x3da0fe9c	0.07861063
58	0xbe4117f7	-0.18856798
59	0x3cc86bfe	0.024465557
60	0xbdec260a	-0.11530693
61	0x3e20acf8	0.15690982
62	0xbe9867f6	-0.29766816
63	0xbe142986	-0.14468965

4.weight f4 [128, 64]
0	0x3e08b999	0.1335205
1	0xbd920fbd	-0.07131908
2	0xbe010655	-0.12600072
3	0x3ca82d86	0.02052952
4	0xbd143b70	-0.036189497
5	0x3e3b64a9	0.18300118
6	0x3ccaf1f0	0.024773568
7	0xbc603bab	-0.013686101
8	0x3cf8a193	0.030350482
9	0xbe3d0b65	-0.18461378
10	0x3d2c3e87	0.04205182
11	0xbdef842b	-0.11695131
12	0xbda3aa68	-0.07991487
13	0x3c49f0d7	0.012325487
14	0xbd0cc6c0	-0.03436923
15	0x3cb3d07a	0.021949995
16	0xbc4ff08c	-0.012691628
17	0xbdcd9376	-0.100378916
18	0xbd56ce58	-0.05244288
19	0x3c082e73	0.008311856
20	0x3e0c692d	0.13711996
21	0x3d94a44a	0.07257898
22	0xbd10ea4b	-0.03537969
23	0x3daa22f8	0.08307451
24	0x3bb814b0	0.0056177005
25	0xbbe2b6f3	-0.006918782
26	0xbe09e44f	-0.13465999
27	0xbd344a35	-0.04401608
28	0xbd98714e	-0.07443486
29	0xbe01ea8b	-0.12687127
30	0x3e032f5f	0.1281104
31	0x3c45824b	0.01205499
32	0x3d20b24e	0.039232545
33	0x3c8705c0	0.016482234
34	0xbe0a2daa	-0.13493982
35	0xbd5b125a	-0.0534843
36	0xbd415b19	-0.047206018
37	0xbd000611	-0.031255785
38	0x3e1b774d	0.15182228
39	0x3dc41729	0.0957473
40	0x3d2a934e	0.041644387
41	0xbe60adc6	-0.2194129
42	0x3d7dc857	0.061958637
43	0xbd50c389	-0.050967727
44	0xbd5d74fb	-0.05406664
45	0xbe375b8a	-0.17906013
46	0x3d62fadf	0.05541503
47	0xbc48dfb9	-0.012260371
48	0x3dfd7ffb	0.12377926
49	0x3dbf2292	0.09332766
50	0x3ccd6abb	0.025075307
51	0x3dc1ab1f	0.09456467
52	0xbd0ae3c2	-0.033908613
53	0x3e0c5352	0.13703659
54	0xbcdead51	-0.027182253
55	0xbd350661	-0.044195537
56	0x3e0ae8b4	0.13565332
57	0x3e4d7670	0.20064712
58	0xbcdc1d98	-0.02686958
59	0x3ce42a83	0.027852302
60	0x3e1b4c2e	0.15165779
61	0xbd4bde63	-0.04977263
62	0xbe0289a4	-0.12747818
63	0xbca1f3ab	-0.01976951
64	0x3aab02b3	0.0013047069
65	0x397fc049	0.00024390327
66	0x3ba07ac7	0.0048974487
67	0xbb31a6c2	-0.0027107452
68	0xbb201b29	-0.0024430251
69	0xb9f1903f	-0.00046074574
70	0xb9e5ddca	-0.0004384353
71	0xbbdd9b23	-0.0067628785
72	0xbbbfb831	-0.0058508147
73	0xbc14df26	-0.009086406
74	0xbb84ae46	-0.0040490953
75	0x3ad8b0fd	0.0016532239
76	0xbc310724	-0.010804925
77	0xba9b49df	-0.0011847577
78	0xbadf8622	-0.0017053524
79	0xb940b17d	-0.00018376666
80	0xbc22282a	-0.009897271
81	0xbb078b4f	-0.00206824
82	0xbbb26b39	-0.005444911
83	0xbba8c045	-0.0051498734
84	0xbb8c4be3	-0.0042815073
85	0xbac82053	-0.0015268422
86	0xbaefff19	-0.0018310278
87	0xbb411da3	-0.0029467128
88	0xbb3d58ea	-0.0028892108
89	0xb946da90	-0.00018964172
90	0xba7c4fc5	-0.00096249237
91	0xba946436	-0.0011321369
92	0x3a6e314a	0.0009086324
93	0x3b030eb5	0.001999778
94	0xbb98b938	-0.0046607517
95	0xbb5323a4	-0.0032217288
96	0x3b8d1f9f	0.004306748
97	0xbb8e2f34	-0.004339123
98	0xbc0dc708	-0.00865341
99	0xbac802b7	-0.0015259598
100	0xba8d1625	-0.0010764046
101	0x3a31a5d8	0.0006776727
102	0xb98341dc	-0.00025035336
103	0xbacb9da0	-0.0015534647
104	0xba9ad984	-0.0011814092
105	0x39f1e25f	0.00046135762
106	0xbb8e1098	-0.004335474
107	0xbb8190d8	-0.0039540343
108	0x3b00900f	0.0019617116
109	0xbb84a380	-0.004047811
110	0xb8ddaaba	-0.000105699015
111	0x3a8a9aba	0.0010574677
112	0xbae1f686	-0.0017239607
113	0xb9101fe6	-0.00013744793
114	0xbb2a30bb	-0.0025968987
115	0xbb706616	-0.0036681942
116	0xbb53b938	-0.0032306444
117	0x39b3249d	0.0003416882
118	0xbb945924	-0.004527228
119	0xbc0bce4b	-0.008533071
120	0xbbeedf3d	-0.0072897957
121	0xbad9efc4	-0.0016627242
122	0x396c1fcd	0.0002251856
123	0xbb378328	-0.002800176
124	0x39dc051b	0.00041965474
125	0xbb21f6e0	-0.00247138
126	0x3bb04f0b	0.0053805164
127	0xb8fb0d57	-0.000119710974
128	0x3d38b908	0.045098335
129	0x3da0d156	0.07852428
130	0xbd77c99d	-0.060495008
131	0xbd76511f	-0.060135957
132	0x3d23ee89	0.040022407
133	0xbce671de	-0.028130468
134	0xbd50315f	-0.050828334
135	0x3e024e67	0.1272522
136	0xbd9106c9	-0.07081372
137	0xbd146710	-0.0362311
138	0x3d8b5572	0.06803407
139	0x3da109ae	0.078631744
140	0xbceb82f7	-0.028748972
141	0xbd212450	-0.03934127
142	0xbda73030	-0.08163488
143	0xbc83d97c	-0.016094916
144	0x3dfcc19a	0.12341614
145	0xbbe9bee3	-0.007133351
146	0xbe2604e3	-0.16212802
147	0xbd1e609c	-0.038666353
148	0xbd493334	-0.049121097
149	0xbd79de6c	-0.061003134
150	0x3df0d212	0.11758818
151	0xbda43e5e	-0.08019708
152	0xbe26d490	-0.16292024
153	0xbd1c10e4	-0.038102046
154	0xbd0c7896	-0.034294687
155	0x38c8f438	9.5822325e-05
156	0x3ad5c130	0.0016308185
157	0x3d4afc8f	0.049557265
158	0xbe3b6864	-0.1830154
159	0xbd6313b1	-0.0554387
160	0x3c130ba8	0.008974947
161	0xbd37be6f	-0.044859346
162	0xbbd0ac32	-0.0063681835
163	0xbc03ef60	-0.008052677
164	0xbe06f92b	-0.13180988
165	0x3c6604c8	0.014039226
166	0x3d6d3ca3	0.057919156
167	0x3df7fd68	0.1210888
168	0xbdaf21b5	-0.08551351
169	0xbd4caa74	-0.049967244
170	0xbd9ac42e	-0.075569496
171	0xbe2d76c9	-0.16939844
172	0x3e357451	0.17720152
173	0x3c985d50	0.018599182
174	0x3bd50d54	0.006501833
175	0xbdc4f516	-0.09617059
176	0xbd71f04e	-0.059067063
177	0xbe38c5ea	-0.18044248
178	0x3de31e75	0.110897936
179	0x3e1972df	0.14985226
180	0x3cff1daf	0.031142084
181	0x3e32fc01	0.17478944
182	0xbe38b8e5	-0.18039282
183	0xbdb28623	-0.08716991
184	0xbe268577	-0.1626185
185	0xbd98eaeb	-0.07466682
186	0xbd33ca29	-0.043893967
187	0xbde1cd88	-0.1102553
188	0x3d7fc104	0.062439933
189	0xbcd78846	-0.026310097
190	0x3dabbced	0.08385644
191	0xbdafb346	-0.085791156
192	0x3d2cf78e	0.042228274
193	0xbdde50d4	-0.108552605
194	0x3cdd5348	0.02701725
195	0x3ddf731c	0.10910627
196	0x3d695292	0.05696351
197	0x3d0376bf	0.032095667
198	0x3d4fc90b	0.05072884
199	0xbe137507	-0.14400111
200	0xbde56afb	-0.112020455
201	0xbe7c8663	-0.2466064
202	0x3e29814a	0.16553226
203	0xbdf23c2a	-0.11827882
204	0xbc93d8b6	-0.018047672
205	0xbe5e5bb5	-0.21714671
206	0x3d361d0b	0.04446129
207	0xbe0a9f28	-0.13537276
208	0xbd9a37c5	-0.075301684
209	0xbb8f46c8	-0.0043724515
210	0xbcc1fbc6	-0.023679625
211	0x3c6a88e0	0.01431486
212	0x3dad8dbc	0.08474299
213	0x3c8d8759	0.017276453
214	0xbca86594	-0.020556249
215	0x3d87eae2	0.06636597
216	0xbce9eee2	-0.028556291
217	0x3d631ea9	0.05544916
218	0x3e35a0a3	0.1773706
219	0xbdc6a30a	-0.09699066
220	0x3dc5434c	0.096319765
221	0x3df2a4dc	0.11847851
222	0x3ac9a679	0.0015384696
223	0xbd14bb0f	-0.036311205
224	0xbe0ec107	-0.13940822
225	0xbdb939dc	-0.09044239
226	0x3da1fd57	0.07909649
227	0x3e0421c8	0.12903512
228	0x3e601dba	0.2188634
229	0x3dd0f2cc	0.1020256
230	0x3dbef9ad	0.093249656
231	0x3b9d6861	0.0048037027
232	0x3d9da8b1	0.07698191
233	0xbddf3ca3	-0.109002374
234	0x3c65276a	0.013986448
235	0x3e0f41a5	0.13989885
236	0xbc81a41e	-0.015825327
237	0xbe1071a5	-0.14105852
238	0xbe101f0c	-0.14074343
239	0xbe158bdc	-0.14604133
240	0x3d63dc7b	0.05563019
241	0x3bd66ee1	0.0065439795
242	0x3d97f702	0.0742016
243	0x3c93a195	0.018021384
244	0x3da0eaea	0.07857306
245	0xbcee563c	-0.029093854
246	0x3e018a81	0.12650491
247	0xbd4896ad	-0.04897182
248	0xbdc1051b	-0.09424802
249	0xbd88f83d	-0.06687973
250	0xbe038025	-0.12841852
251	0x3e26bfbd	0.1628408
252	0xbddbcf1b	-0.107328616
253	0xbcd1a500	-0.025591373
254	0xbde15479	-0.1100244
255	0x3d7146bf	0.05890536

4.bias f4 [128]
0	0xbb5d9436	-0.0033810264
1	0xbba2cc5e	-0.00496821
2	0x3e55d84e	0.20883295
3	0x3d96bbd1	0.07360042
4	0x3c5f0875	0.013612856
5	0xbe333bc3	-0.17503266
6	0x3d362fb8	0.044479102
7	0xbe31d250	-0.17365384
8	0xbdc175e0	-0.09446311
9	0xbd76daa5	-0.06026711
10	0x3b9603ab	0.004578074
11	0x3d20abd8	0.039226383
12	0xbde84667	-0.11341553
13	0x3d469ef5	0.048491437
14	0xbc201920	-0.009771615
15	0xb70f09cc	-8.525745e-06
16	0x3d2e7dc2	0.0426004
17	0x3da7265c	0.08161613
18	0xbd317649	-0.043325696
19	0xbe10e68e	-0.1415045
20	0x3b0735b3	0.0020631372
21	0xbdf41f0d	-0.11919985
22	0xbe494905	-0.19656761
23	0xbc9a5371	-0.018838616
24	0xbe07a75b	-0.13247435
25	0x3ba68765	0.0050820583
26	0x9d5f3cae	-2.9545175e-21
27	0x3d30cc6c	0.043163702
28	0x3d01731c	0.031603917
29	0x3d6277b7	0.05528995
30	0x3e5427c0	0.20718288
31	0xbc94dbbc	-0.018171184
32	0x3e2877af	0.16451906
33	0xbdf9e3b0	-0.12201631
34	0xbc9ee384	-0.019395597
35	0xbdde3135	-0.10849229
36	0xbe2230bf	-0.15838908
37	0xbe218fc1	-0.15777494
38	0xbcd3bbb1	-0.025846334
39	0xbe3629fe	-0.17789456
40	0xbdbad671	-0.09122933
41	0x3d3c1fad	0.045928646
42	0x3b1d811a	0.002403325
43	0xbd86aec5	-0.065763034
44	0x3e92390b	0.28559145
45	0x3d153c2d	0.03643434
46	0xbce80257	-0.028321428
47	0x3d514f6e	0.05110114
48	0x3e1670a8	0.14691412
49	0xbd012467	-0.031528857
50	0x3b8248ba	0.003975955
51	0x3e076e8b	0.13225763
52	0xbb5c4f4f	-0.0033616608
53	0x3dd9b74b	0.106306635
54	0xbe0a9b1f	-0.13535737
55	0x3e1213b3	0.14265327
56	0xbe3ca4d1	-0.18422247
57	0xbd9ad449	-0.075600214
58	0x3dcc30d0	0.09970248
59	0xbe25397f	-0.16135214
60	0xbc963a53	-0.018338358
61	0xbe5af8b6	-0.21383938
62	0xbd9979d9	-0.07493944
63	0xbde42cc0	-0.11141348
64	0xbdf9586f	-0.121750705
65	0xbd82a079	-0.06378264
66	0xbcbe41fd	-0.023224825
67	0xbd8f12a4	-0.06985977
68	0x3c8f4a5a	0.017491508
69	0x3dd3cd1e	0.103418574
70	0x3d5a9f59	0.053374622
71	0xbd06bf0a	-0.032897033
72	0xb63615ce	-2.7132805e-06
73	0xbe1e6504	-0.15468222
74	0x3d3883c2	0.04504753
75	0xbd1c6b31	-0.038188163
76	0xa69f25b3	-1.104306e-15
77	0x3d4e376d	0.050345827
78	0xbe4a1c8d	-0.19737454
79	0xbd684408	-0.056705505
80	0x3d13351c	0.03593932
81	0x3e33bce7	0.1755253
82	0xbd83b10b	-0.06430253
83	0x3db3fecc	0.08788833
84	0xbe17cd2c	-0.1482436
85	0x3dc3bcf5	0.09557525
86	0xbd68fb4c	-0.05688028
87	0x3e73e941	0.23819448
88	0x3e439592	0.19100025
89	0xb9596298	-0.00020731462
90	0x3d37d51f	0.044880982
91	0xbdd96495	-0.106148876
92	0x3e15ab25	0.14616068
93	0x3e5ea6c0	0.21743298
94	0x3b924c82	0.004464687
95	0xbd471e09	-0.048612628
96	0xb3c78649	-9.291086e-08
97	0xbe4be848	-0.19912827
98	0xbd7bd501	-0.061482433
99	0x3d27cac6	0.040964864
100	0x3e1c64b7	0.15272795
101	0xbd10ac7f	-0.035320755
102	0x3d7f148a	0.062275447
103	0x3e35e6eb	0.1776387
104	0xbe41204e	-0.1885998
105	0x3d79f291	0.061022345
106	0xb922381b	-0.00015470425
107	0xbe134712	-0.1438258
108	0x3b23dc79	0.0025003238
109	0x3c8660b0	0.016403526
110	0xbdf93512	-0.121683255
111	0xbe04f1b0	-0.12982821
112	0xbd77bfd6	-0.060485683
113	0xbd0781a9	-0.033082638
114	0x3a7ccca1	0.0009643529
115	0xbd445211	-0.047929827
116	0x3c0e12ce	0.008671476
117	0x3d4d7c95	0.05016764
118	0x3cd40682	0.02588201
119	0x3c4f9ebb	0.012672122
120	0x3d8a8dc2	0.067653194
121	0x3aad5c92	0.0013226441
122	0x3d3fbe3a	0.046812274
123	0xbd4aa5d4	-0.049474552
124	0x3d317094	0.043320253
125	0x3d7d5e84	0.061857715
126	0x3c01760d	0.007901681
127	0xbe2fc5e8	-0.17165339

6.weight f4 [256, 128]
0	0x801a6116	-2.422551e-39
1	0x800017d7	-8.552e-42
2	0x80000eea	-5.35e-42
3	0x0000131b	6.854e-42
4	0x00000463	1.574e-42
5	0x00000810	2.892e-42
6	0x05135c34	6.928842e-36
7	0xa1942c59	-1.0040609e-18
8	0x80004b24	-2.6955e-41
9	0xa0b41ead	-3.0513486e-19
10	0x800011e8	-6.424e-42
11	0x0000065e	2.284e-42
12	0xaed42671	-9.6474724e-11
13	0x201bfcad	1.3212614e-19
14	0x00000284	9.02e-43
15	0x000070ff	4.0535e-41
16	0x800000e7	-3.24e-43
17	0x80001061	-5.876e-42
18	0x80000680	-2.332e-42
19	0x00000f17	5.413e-42
20	0x80000be6	-4.268e-42
21	0xb1c11f90	-5.6206275e-09
22	0x11172c35	1.1925422e-28
23	0x00000cc1	4.575e-42
24	0xa8f9a652	-2.7716683e-14
25	0x000063f2	3.5854e-41
26	0x0000ab78	6.1511e-41
27	0x000013a6	7.049e-42
28	0x9e0bdb69	-7.403972e-21
29	0x80000351	-1.19e-42
30	0xa45f3cca	-4.8406907e-17
31	0xa3203341	-8.684471e-18
32	0x80000897	-3.081e-42
33	0x00000cab	4.544e-42
34	0x96534f89	-1.7069541e-25
35	0x8000109e	-5.961e-42
36	0x872c7c55	-1.297638e-34
37	0x9eb68cf1	-1.9328292e-20
38	0x000008e2	3.187e-42
39	0xa3cee645	-2.2432088e-17
40	0x1338ec2c	2.3340507e-27
41	0x00000b5f	4.079e-42
42	0x80000b7d	-4.121e-42
43	0x800009d9	-3.533e-42
44	0x0000137e	6.992e-42
45	0x80000e36	-5.098e-42
46	0x9a170562	-3.1230416e-23
47	0xac28ebdc	-2.4005164e-12
48	0x00000a9e	3.809e-42
49	0xaa88614b	-2.4225964e-13
50	0x00000dc1	4.934e-42
51	0x0000038d	1.274e-42
52	0x800012f1	-6.795e-42
53	0xa80f49f1	-7.954128e-15
54	0xa35ea075	-1.2068622e-17
55	0x80000556	-1.914e-42
56	0xb04610c1	-7.205579e-10
57	0x80001231	-6.526e-42
58	0xa4caa2c6	-8.7879284e-17
59	0xa4233ea2	-3.5398043e-17
60	0x00001118	6.132e-42
61	0x940844ae	-6.87979e-27
62	0x00000ed6	5.322e-42
63	0x90740b99	-4.812945e-29
64	0x00038244	3.22237e-40
65	0xa9d983d5	-9.659605e-14
66	0x00001532	7.603e-42
67	0xa2fa7c7e	-6.7894447e-18
68	0x0000084c	2.976e-42
69	0x8000092a	-3.287e-42
70	0x000009ec	3.559e-42
71	0x00000c45	4.401e-42
72	0x000073ed	4.1586e-41
73	0xa64291cd	-6.750487e-16
74	0x80000116	-3.9e-43
75	0x00000ed1	5.315e-42
76	0x0000a4dc	5.914e-41
77	0x80000de5	-4.984e-42
78	0x9758852a	-6.996144e-25
79	0xa40820a3	-2.9517943e-17
80	0x80000803	-2.874e-42
81	0xacebdffc	-6.703969e-12
82	0x95c1ddae	-7.830183e-26
83	0x0000025e	8.49e-43
84	0x0000055e	1.925e-42
85	0x00000f86	5.569e-42
86	0x84af28a0	-4.117961e-36
87	0x8d42acbe	-5.9988796e-31
88	0x91010cc6	-1.0180242e-28
89	0x80009755	-5.4288e-41
90	0x92b982eb	-1.1707415e-27
91	0xa73e3221	-2.6394972e-15
92	0x8df30fab	-1.4979803e-30
93	0xab2ba851	-6.098499e-13
94	0x8000046a	-1.583e-42
95	0x9c58769d	-7.162171e-22
96	0x80005997	-3.2139e-41
97	0xb22fbcc9	-1.0229265e-08
98	0x80000e61	-5.158e-42
99	0x8000089d	-3.09e-42
100	0x91080337	-1.0729499e-28
101	0xa6ca7508	-1.4048287e-15
102	0x8c37c362	-1.4156603e-31
103	0x80000084	-1.85e-43
104	0xb32dae41	-4.0438184e-08
105	0x00000e26	5.076e-42
106	0x000051e0	2.9371e-41
107	0x9b893875	-2.2701233e-22
108	0x00000c51	4.418e-42
109	0x00718af6	1.0427261e-38
110	0x80003dc5	-2.2159e-41
111	0x922bccef	-5.4210686e-28
112	0x000008b5	3.123e-42
113	0x97950b0e	-9.63169e-25
114	0xabc99bf8	-1.4325199e-12
115	0x80000f89	-5.573e-42
116	0xaf07de26	-1.2357101e-10
117	0x823cf276	-1.3881641e-37
118	0x8000046c	-1.586e-42
119	0x00000a6c	3.739e-42
120	0x80001367	-6.96e-42
121	0xb0cd11e4	-1.4920798e-09
122	0x800001b2	-6.08e-43
123	0xb1077c47	-1.971573e-09
124	0x800012c0	-6.726e-42
125	0x800012cb	-6.742e-42
126	0x0000128a	6.65e-42
127	0x800015e0	-7.847e-42
128	0x2583e0c3	2.2877182e-16
129	0x00000c52	4.42e-42
130	0x80001258	-6.58e-42
131	0xb21f800b	-9.284132e-09
132	0xa60a7f5a	-4.805096e-16
133	0x00001198	6.311e-42
134	0xaa13320e	-1.3073589e-13
135	0xadf77eb6	-2.813692e-11
136	0xac5f282f	-3.1712512e-12
137	0xaec26fd3	-8.8419626e-11
138	0xb0689cc5	-8.462389e-10
139	0x33981655	7.082114e-08
140	0xb2cc20c6	-2.376363e-08
141	0xb4f52fa7	-4.5669478e-07
142	0x35bffbcb	1.430389e-06
143	0x000031cf	1.7868e-41
144	0xaf9099b7	-2.6302668e-10
145	0x311b65e4	2.2613387e-09
146	0x14c23a79	1.9612057e-26
147	0xa8a021f3	-1.7778292e-14
148	0xacbac8a4	-5.3087135e-12
149	0xb50b801b	-5.1967953e-07
150	0xb30a9433	-3.2265415e-08
151	0xa6085e38	-4.731217e-16
152	0xa869273e	-1.29426075e-14
153	0x288a1f8e	1.5334762e-14
154	0x80002b2d	-1.5489e-41
155	0xb1a8a501	-4.9082023e-09
156	0xb176184b	-3.581152e-09
157	0xb12763c2	-2.4358404e-09
158	0xb1c1729e	-5.6300697e-09
159	0xb5c4448a	-1.4623085e-06
160	0xaa94a913	-2.64074e-13
161	0xab8305a8	-9.30968e-13
162	0xab35ef8c	-6.4636556e-13
163	0xb2eb7bc1	-2.7413877e-08
164	0x80001079	-5.909e-42
165	0xad541273	-1.2054901e-11
166	0x35d4e193	1.5860882e-06
167	0xacd8975f	-6.155895e-12
168	0xafa6b22a	-3.0321817e-10
169	0x2f3d5738	1.7220436e-10
170	0x2e280413	3.8202396e-11
171	0xb073c159	-8.867765e-10
172	0xa2a82b32	-4.5582226e-18
173	0xaaa2d210	-2.892274e-13
174	0xb1bee01e	-5.555207e-09
175	0xb4934f8f	-2.743877e-07
176	0x29ecee0b	1.0521799e-13
177	0xa8413df9	-1.072709e-14
178	0xa4ab4135	-7.4269894e-17
179	0xa73652a5	-2.5302376e-15
180	0xac2fcc62	-2.498245e-12
181	0xac4ab002	-2.880363e-12
182	0xb1aeedde	-5.091109e-09
183	0x3692ff17	4.3808354e-06
184	0xb028731c	-6.1281624e-10
185	0x23df9821	2.4242138e-17
186	0x389edf86	7.5756616e-05
187	0xaa10d6f1	-1.2864342e-13
188	0xab5ebff7	-7.913665e-13
189	0xae6bb8ee	-5.3597064e-11
190	0x2f8fad48	2.6134672e-10
191	0xb554aee5	-7.923066e-07
192	0x30ba8ad0	1.3572734e-09
193	0xb5016533	-4.820351e-07
194	0x8c8e6fe3	-2.1945904e-31
195	0x9dc1b36d	-5.1272197e-21
196	0x248813f6	5.9014413e-17
197	0x83b1576a	-1.0423194e-36
198	0x9f01a08d	-2.7449617e-20
199	0xaca33a99	-4.6392443e-12
200	0x800018db	-8.916e-42
201	0xb22befdf	-1.000805e-08
202	0xb08272aa	-9.491334e-10
203	0xaed498fe	-9.667821e-11
204	0x800047ea	-2.5798e-41
205	0xa2f9ff62	-6.7761982e-18
206	0x310047d9	1.8667292e-09
207	0xb7c7be29	-2.3811199e-05
208	0xb058e9f8	-7.891283e-10
209	0xb5d7b58d	-1.6071587e-06
210	0xab96f485	-1.0726009e-12
211	0xb2c0ed10	-2.2459545e-08
212	0xa6878389	-9.403159e-16
213	0xa9229207	-3.6097885e-14
214	0x38068e02	3.2080345e-05
215	0xa586d0f9	-2.33869e-16
216	0xb30addb1	-3.2332256e-08
217	0x0000973a	5.425e-41
218	0x38336485	4.277054e-05
219	0xb5b04959	-1.3134369e-06
220	0xb0a476d6	-1.1966346e-09
221	0xa8e5cf9c	-2.5514143e-14
222	0x36383f40	2.7454953e-06
223	0xa964d6ad	-5.081237e-14
224	0x800027cb	-1.4275e-41
225	0x36054656	1.9859485e-06
226	0xb5c0445d	-1.4325011e-06
227	0xb62c21e6	-2.5649729e-06
228	0xaea0aab8	-7.3062834e-11
229	0x33f0c015	1.12108104e-07
230	0x36d99c27	6.4852825e-06
231	0x291fcbcf	3.5481868e-14
232	0xb7eed5a8	-2.8471302e-05
233	0xb3b672f8	-8.495948e-08
234	0x8000a3fb	-5.8825e-41
235	0x354a6fc2	7.5413493e-07
236	0xb069e56e	-8.5090945e-10
237	0xad06702c	-7.641925e-12
238	0xaf77cbc2	-2.2536908e-10
239	0xb3b4532b	-8.397031e-08
240	0x90a88259	-6.646515e-29
241	0xaf58e368	-1.9725876e-10
242	0xb1c99fea	-5.86805e-09
243	0xa1a40332	-1.1113918e-18
244	0xa75a635d	-3.0307442e-15
245	0xb6a6c163	-4.9696987e-06
246	0x1300056c	1.6158545e-27
247	0xb27fcac2	-1.4889055e-08
248	0xa3254260	-8.958723e-18
249	0x3224f82b	9.602483e-09
250	0x93b685cd	-4.6075197e-27
251	0xb0647c77	-8.312279e-10
252	0xa8979821	-1.6830343e-14
253	0xb6eea31f	-7.1119425e-06
254	0x35370f14	6.8194754e-07
255	0x972e9af9	-5.6418035e-25

6.bias f4 [256]
0	0xb5627e93	-8.437575e-07
1	0xba870bfd	-0.0010303255
2	0xbd43540a	-0.047687568
3	0xb502a9e3	-4.867599e-07
4	0xbad3da95	-0.0016163165
5	0x3c7e8515	0.015534659
6	0x3c975bca	0.018476386
7	0xbbc05b01	-0.0058702235
8	0xbba0128f	-0.004885025
9	0xbb80c19c	-0.00392933
10	0xbb5f725a	-0.0034095258
11	0xbb225d44	-0.002477483
12	0xbcf2bb24	-0.029630251
13	0xa6698079	-8.1012227e-16
14	0xbda9d68e	-0.08292876
15	0xbe614555	-0.21999104
16	0xbaedbdf0	-0.0018138271
17	0xbccc4235	-0.024933914
18	0xbab6dbf9	-0.0013951055
19	0xbe2f2f22	-0.17107823
20	0xb8db7741	-0.000104649465
21	0xba05629f	-0.0005088243
22	0xbdbbf890	-0.09178269
23	0xb7ef4ddb	-2.8527274e-05
24	0x3b7a36db	0.003817967
25	0xb55c36ff	-8.2036416e-07
26	0xbb7124e4	-0.003679567
27	0x3b8a4cf7	0.0042206007
28	0xbda28337	-0.079351835
29	0xbd786aec	-0.060648844
30	0xbb90a77a	-0.004414496
31	0xb2342fcc	-1.0488247e-08
32	0xbac9b38f	-0.0015388596
33	0xb91925f7	-0.0001460536
34	0xb35abc87	-5.0928545e-08
35	0xbd43c77b	-0.04779766
36	0xbd55d0f7	-0.052201238
37	0xbbd578d3	-0.0065146475
38	0xbd5a3b4c	-0.053279206
39	0xbb50a420	-0.0031836107
40	0xbbd4b19e	-0.0064909
41	0xbb94b849	-0.00453857
42	0xb9a42755	-0.00031309822
43	0xbc3a8fe7	-0.011386848
44	0x8f5fb9b2	-1.10305125e-29
45	0xbb1572b3	-0.0022803962
46	0xbbd62bfd	-0.0065360055
47	0xbd77568e	-0.06038528
48	0xbbcc371b	-0.006232155
49	0xbb90fd28	-0.00442471
50	0xbd53ad2c	-0.05167882
51	0xbdb3c6de	-0.08778165
52	0xaeeb19ad	-1.0691124e-10
53	0xbddd7237	-0.108128004
54	0xbc10ebb1	-0.008845256
55	0xbdc9fed6	-0.09863059
56	0xbd6eda53	-0.05831368
57	0xbd0d91c3	-0.034562837
58	0xba85bcaf	-0.0010203327
59	0xbd834e0e	-0.06411372
60	0xb18a850d	-4.0314547e-09
61	0xae7af7f6	-5.7063652e-11
62	0xb9cd8afe	-0.00039204204
63	0xbbdb861e	-0.0066993376
64	0xaddb8a44	-2.495882e-11
65	0xb61646ba	-2.239291e-06
66	0xb5a3d620	-1.2206765e-06
67	0x3d0c4ec2	0.034254797
68	0xb1560839	-3.1145773e-09
69	0xbc8426bd	-0.016131753
70	0xbae60196	-0.001754808
71	0xbc95684c	-0.01823821
72	0xbb07e055	-0.0020733078
73	0xbb9bb532	-0.004751825
74	0xb2332927	-1.0428528e-08
75	0xbd3b7ce5	-0.045773406
76	0xbbc8b235	-0.0061247596
77	0xbcdc053c	-0.026857965
78	0x3c14f5c9	0.009091803
79	0xbbdc0fa9	-0.006715734
80	0xb98972ce	-0.00026216212
81	0xbb9b8351	-0.0047458787
82	0xbdd2beee	-0.10290323
83	0xbd710ed7	-0.058852043
84	0xbdc85fc0	-0.09783888
85	0xbde1caa3	-0.11024978
86	0xbced79db	-0.02898877
87	0xbd809d71	-0.062800296
88	0xbd4f999a	-0.050683595
89	0xb51d8dfd	-5.869368e-07
90	0xb6195c17	-2.285238e-06
91	0xbb3ef17b	-0.0029135633
92	0x3c9f04e3	0.01941151
93	0xb85692be	-5.115824e-05
94	0xbe03a695	-0.12856515
95	0x91cd28b3	-3.236838e-28
96	0x3c1935a2	0.009351166
97	0xb406713f	-1.2520921e-07
98	0xbd5cd337	-0.053912368
99	0xbe09198f	-0.13388656
100	0xba6fe47c	-0.0009151173
101	0x3b8c97c7	0.004290554
102	0xbcf598d4	-0.0299801
103	0x3ced82bb	0.028993001
104	0x3c514bc8	0.012774415
105	0x98380f7b	-2.3789258e-24
106	0xbd84a71c	-0.06477186
107	0xbb149a8d	-0.0022675127
108	0x3ae9ea8c	0.001784639
109	0xbdc0cf98	-0.09414595
110	0xaf058c0b	-1.2146033e-10
111	0xbd33ea95	-0.043924887
112	0xb2348988	-1.050865e-08
113	0xbd8cf51c	-0.068826884
114	0xbda40f44	-0.08010724
115	0x3d0b4fa8	0.034011513
116	0xba8da13f	-0.0010805501
117	0xbd989c64	-0.07451704
118	0xb91c4b5e	-0.00014905396
119	0xbca657cb	-0.020305535
120	0xa80db756	-7.866827e-15
121	0xbb120b3d	-0.002228453
122	0xba9c2de5	-0.0011915533
123	0xbbe649b1	-0.0070278277
124	0xbb6ad56e	-0.003583278
125	0xb5d3c706	-1.5778649e-06
126	0xbddf7f33	-0.10912933
127	0xbc01e3f6	-0.007927885
128	0xbd88bf1e	-0.06677078
129	0xb9ed5c18	-0.00045272778
130	0xbdc590dc	-0.0964677
131	0x9d1f7676	-2.1104718e-21
132	0xb9c95425	-0.000384004
133	0xba176ef3	-0.00057767256
134	0xbe60de3d	-0.21959777
135	0xbadce04b	-0.0016851512
136	0x9f9750b1	-6.408448e-20
137	0xbbb72ccb	-0.0055900565
138	0xaa57edf1	-1.9178389e-13
139	0xbdb9deb7	-0.090756826
140	0xbb978779	-0.004624304
141	0xba33c085	-0.0006856996
142	0xbbaa4b16	-0.005196939
143	0x3c4227d0	0.011850312
144	0xbb621395	-0.0034496535
145	0x96bb7b51	-3.0289303e-25
146	0xba998329	-0.0011712062
147	0xabd33afa	-1.5008821e-12
148	0xb1c8e1da	-5.8464424e-09
149	0xbe063dfd	-0.13109584
150	0xb677bd2d	-3.6915983e-06
151	0xbc1c53bb	-0.009541447
152	0x3bc66d0f	0.0060554813
153	0xbd9cc89f	-0.07655453
154	0x3d998b96	0.07497327
155	0x3d9f62f9	0.077825494
156	0xbd9b3bda	-0.07579775
157	0xbd0e7458	-0.034778923
158	0xbd49d5f5	-0.04927631
159	0x3bb0e1fa	0.0053980323
160	0x930d4efe	-1.7835648e-27
161	0xbd87356b	-0.066019855
162	0xbbbeeddc	-0.005826695
163	0xbd4cd626	-0.050008915
164	0xbbcea016	-0.006305705
165	0xbccb2394	-0.024797238
166	0xba9b4b1d	-0.0011847947
167	0xbd259f9e	-0.040435426
168	0xbb48f969	-0.0030666238
169	0xb4ba9567	-3.4753904e-07
170	0xbda0ae8d	-0.07845793
171	0xbba10775	-0.004914219
172	0xbb01e01d	-0.001981742
173	0xbb5e8163	-0.0033951632
174	0xbb8527e9	-0.0040635956
175	0xbc0ef556	-0.008725485
176	0xb483381f	-2.4441485e-07
177	0xba5601c6	-0.00081637164
178	0xbcede6f6	-0.029040795
179	0xbd836be4	-0.06417063
180	0xb598e80b	-1.1392416e-06
181	0xbd1f8dfe	-0.038953774
182	0xb3ad6327	-8.073976e-08
183	0xbe016285	-0.12635238
184	0xbd990c68	-0.074730694
185	0xbdd2ee04	-0.10299304
186	0xba9de822	-0.001204733
187	0xb76ce1e4	-1.411929e-05
188	0xbd8d96c5	-0.06913523
189	0xbe105a96	-0.14097056
190	0xbd89522f	-0.067051284
191	0xb45005db	-1.937364e-07
192	0xbc4ed1d3	-0.012623268
193	0xb8e69c07	-0.00010996317
194	0xb702c817	-7.795191e-06
195	0xb93d3e71	-0.00018047706
196	0xbac1d81f	-0.001478914
197	0xb41753b9	-1.4093429e-07
198	0xbd9bebb1	-0.07613314
199	0xbe06162c	-0.13094395
200	0xbb06ba81	-0.0020557942
201	0xbd4f880c	-0.050666854
202	0xbb5e0322	-0.003387638
203	0xbb260caf	-0.002533715
204	0xb6853aba	-3.9705455e-06
205	0xbde8632c	-0.113470405
206	0xa5b7326d	-3.177961e-16
207	0xbd826e99	-0.06368751
208	0xbbaa9c51	-0.0052066226
209	0xbac36e83	-0.0014910254
210	0xbd9f76fc	-0.07786366
211	0xbc9b1142	-0.018929128
212	0xbd0ed6bb	-0.03487275
213	0xa8a4f221	-1.8312664e-14
214	0x936cc2e7	-2.9883482e-27
215	0xbdf07b00	-0.117422104
216	0xb5abf3e5	-1.2811475e-06
217	0xbbb26d4d	-0.0054451586
218	0xbdecbbba	-0.115592435
219	0xb71c6181	-9.3210265e-06
220	0xb045f21c	-7.201224e-10
221	0xbe035291	-0.12824465
222	0xba5a0322	-0.0008316507
223	0xbd842e9a	-0.06454201
224	0xbdab230c	-0.08356294
225	0xbe450bab	-0.19242732
226	0xb92cabcb	-0.00016467196
227	0x3d3d1a18	0.046167463
228	0xbca6bb79	-0.020353066
229	0xb9825bf5	-0.00024864046
230	0xb4dc6a18	-4.1055387e-07
231	0xbdba7856	-0.091049835
232	0xbb64fc42	-0.0034940396
233	0xb3600e5c	-5.2167124e-08
234	0x3cea8007	0.028625501
235	0xa6041091	-4.581915e-16
236	0xbcaa69d8	-0.020802423
237	0xbd24f55a	-0.040273048
238	0xb7077837	-8.074617e-06
239	0xbdae375b	-0.08506652
240	0xbd271827	-0.040794518
241	0xbd29b1fc	-0.041429505
242	0x3d5ff2d7	0.05467495
243	0xbbca719e	-0.006178095
244	0xba5f5054	-0.0008518745
245	0xbe08b51a	-0.13350335
246	0x3c9ca502	0.01912165
247	0x918c6425	-2.2149824e-28
248	0xb1e98332	-6.7961077e-09
249	0xbb23e769	-0.0025009757
250	0xbd13cf5e	-0.036086433
251	0xa879ef87	-1.3874216e-14
252	0xbb7f2c0f	-0.0038936173
253	0xbb8c1465	-0.004274892
254	0xbbe583d3	-0.00700424
255	0x3d684a3f	0.05671143

8.weight f4 [128, 256]
0	0x00008bd4	5.0161e-41
1	0x00000158	4.82e-43
2	0x00000fe0	5.695e-42
3	0x800089b3	-4.9397e-41
4	0x80009dc4	-5.6596e-41
5	0xab9d6fdd	-1.1186569e-12
6	0x000000af	2.45e-43
7	0x00001f40	1.121e-41
8	0x9db363df	-4.748417e-21
9	0x0000298f	1.4908e-41
10	0x0000294f	1.4819e-41
11	0x80009aa6	-5.5477e-41
12	0xa807407b	-7.507987e-15
13	0x8000051b	-1.831e-42
14	0x800012f1	-6.795e-42
15	0x00000316	1.107e-42
16	0xb65efa42	-3.3226247e-06
17	0xb7c65522	-2.3643082e-05
18	0x00000f45	5.478e-42
19	0x00001103	6.103e-42
20	0x00009d07	5.6331e-41
21	0x0000ab6a	6.1492e-41
22	0x8000045b	-1.562e-42
23	0x0000298c	1.4904e-41
24	0x80000a21	-3.634e-42
25	0x00002d3e	1.623e-41
26	0x00000609	2.165e-42
27	0x000014ed	7.507e-42
28	0x00000bd7	4.247e-42
29	0x00000714	2.539e-42
30	0x00000026	5.3e-44
31	0x8000a7cf	-6.0198e-41
32	0x8000171d	-8.291e-42
33	0x0000954a	5.3555e-41
34	0x000013d5	7.114e-42
35	0x800011bb	-6.36e-42
36	0x12c4ac6f	1.2411847e-27
37	0x800027b6	-1.4246e-41
38	0x80000e1f	-5.066e-42
39	0x00000f31	5.45e-42
40	0x0000aae4	6.1304e-41
41	0x80007978	-4.3575e-41
42	0x000034e2	1.8971e-41
43	0xa523f2c9	-1.4220255e-16
44	0x000094e6	5.3415e-41
45	0x80002f60	-1.6995e-41
46	0x00000a0b	3.603e-42
47	0x846516a7	-2.6929222e-36
48	0x80470ac8	-6.524188e-39
49	0x0000a163	5.7895e-41
50	0x00000905	3.236e-42
51	0x800012f8	-6.805e-42
52	0x80008790	-4.863e-41
53	0x800002f6	-1.062e-42
54	0x80000431	-1.504e-42
55	0x80000c6a	-4.453e-42
56	0x00000710	2.534e-42
57	0x0000043d	1.52e-42
58	0x0000a993	6.0832e-41
59	0x800010da	-6.045e-42
60	0x000008ae	3.114e-42
61	0x80000766	-2.654e-42
62	0x00001138	6.177e-42
63	0x8000095f	-3.362e-42
64	0x8000067e	-2.329e-42
65	0x800021fa	-1.2188e-41
66	0x80004f37	-2.8417e-41
67	0x80000996	-3.439e-42
68	0x00004947	2.6287e-41
69	0x9a0d400f	-2.9209863e-23
70	0x800048cf	-2.6119e-41
71	0x00000390	1.278e-42
72	0x0000654e	3.6341e-41
73	0x00000a74	3.75e-42
74	0x8000a21e	-5.8157e-41
75	0x00001630	7.96e-42
76	0x00003c10	2.1546e-41
77	0xa1952d3c	-1.0108606e-18
78	0x80000640	-2.242e-42
79	0x80003322	-1.8343e-41
80	0x80000fb2	-5.63e-42
81	0x80000bc0	-4.215e-42
82	0x800007ce	-2.8e-42
83	0x80000fa4	-5.611e-42
84	0x975db835	-7.1641453e-25
85	0x800012de	-6.768e-42
86	0x00000c1e	4.347e-42
87	0x84902e2a	-3.3896632e-36
88	0x80000982	-3.411e-42
89	0x0000a6c4	5.9824e-41
90	0x8000a26a	-5.8263e-41
91	0x00007ffe	4.5915e-41
92	0x00000130	4.26e-43
93	0x8000a8cd	-6.0554e-41
94	0x00000cfb	4.657e-42
95	0x0000aaad	6.1227e-41
96	0x000000c2	2.72e-43
97	0x8000885a	-4.8914e-41
98	0x800009e2	-3.545e-42
99	0x1c1ffa55	5.2932234e-22
100	0x80001287	-6.646e-42
101	0x96386256	-1.4894431e-25
102	0x80000ba4	-4.176e-42
103	0x80000372	-1.236e-42
104	0xabe23dde	-1.6075437e-12
105	0x80003eab	-2.2481e-41
106	0xb3b6acaf	-8.5064464e-08
107	0x00009f4d	5.7146e-41
108	0x80001463	-7.313e-42
109	0x812e4586	-3.2008633e-38
110	0x8000790f	-4.3428e-41
111	0x80000ab1	-3.835e-42
112	0x8000aca3	-6.193e-41
113	0xa1a9071d	-1.1453768e-18
114	0x000a0ee9	9.23704e-40
115	0x000008bb	3.132e-42
116	0x80003e7d	-2.2417e-41
117	0x00000ab9	3.847e-42
118	0x800026c9	-1.3913e-41
119	0x00000b40	4.036e-42
120	0x00004bd0	2.7196e-41
121	0x80007013	-4.0205e-41
122	0x80004b61	-2.7041e-41
123	0x8000877b	-4.8601e-41
124	0x80002ee6	-1.6824e-41
125	0x00006e8d	3.9658e-41
126	0x00000032	7e-44
127	0x80001d62	-1.054e-41
128	0x8000029e	-9.39e-43
129	0x0000a592	5.9395e-41
130	0x800008b6	-3.125e-42
131	0x000050d2	2.8993e-41
132	0x00005fdc	3.4388e-41
133	0x80006813	-3.7335e-41
134	0x236cc4db	1.2835271e-17
135	0x800005ac	-2.035e-42
136	0x000088ae	4.9031e-41
137	0x80004fa9	-2.8577e-41
138	0x800028bf	-1.4617e-41
139	0x00001e84	1.0947e-41
140	0x80000b9a	-4.162e-42
141	0x00004acf	2.6836e-41
142	0x00002651	1.3745e-41
143	0x800cd202	-1.177363e-39
144	0x80005e5d	-3.3851e-41
145	0x0000369f	1.9594e-41
146	0x8000895e	-4.9278e-41
147	0x00002ec6	1.6779e-41
148	0x00001d9a	1.0619e-41
149	0x00001d1d	1.0444e-41
150	0x000089eb	4.9476e-41
151	0x8000a204	-5.812e-41
152	0x9c618c8e	-7.462792e-22
153	0x80001374	-6.978e-42
154	0x000013ac	7.057e-42
155	0x80385e6a	-5.176657e-39
156	0x80001449	-7.277e-42
157	0x800009a6	-3.461e-42
158	0x80000612	-2.178e-42
159	0x000005e3	2.112e-42
160	0x000051cb	2.9342e-41
161	0x80000d19	-4.699e-42
162	0x0000925a	5.2501e-41
163	0xb712111b	-8.706261e-06
164	0x80f9c554	-2.2937827e-38
165	0x80011019	-9.761e-41
166	0x00004f06	2.8348e-41
167	0x800013be	-7.082e-42
168	0x80000b6e	-4.1e-42
169	0x00008e61	5.1076e-41
170	0x0e228337	2.003122e-30
171	0x80008102	-4.6279e-41
172	0x0000066c	2.304e-42
173	0x000088c5	4.9064e-41
174	0x0000125a	6.583e-42
175	0x80001123	-6.147e-42
176	0x80002aa7	-1.5301e-41
177	0x00005a7b	3.2458e-41
178	0xb6982823	-4.5346255e-06
179	0x80000b9d	-4.166e-42
180	0x000006f0	2.489e-42
181	0x000006eb	2.482e-42
182	0x800054f7	-3.048e-41
183	0x80001555	-7.652e-42
184	0x000014a8	7.41e-42
185	0x800007ca	-2.794e-42
186	0x0c9cd0d5	2.4161292e-31
187	0x800034a3	-1.8882e-41
188	0x1dbdaa21	5.0203793e-21
189	0x000009dd	3.538e-42
190	0x80000cbb	-4.567e-42
191	0x8000a1ef	-5.8091e-41
192	0x80000141	-4.5e-43
193	0x00009dbf	5.6589e-41
194	0x0000a6cc	5.9835e-41
195	0x800007aa	-2.75e-42
196	0x8000297c	-1.4882e-41
197	0x00004504	2.4758e-41
198	0x80000cfd	-4.66e-42
199	0x00001eb2	1.1011e-41
200	0x00000995	3.437e-42
201	0x013b0707	3.4351517e-38
202	0x8000acce	-6.199e-41
203	0x0000337b	1.8468e-41
204	0x0000999f	5.5109e-41
205	0x99f2ec12	-2.5117562e-23
206	0x80000f88	-5.572e-42
207	0x8000000a	-1.4e-44
208	0x00008dc4	5.0856e-41
209	0x80000795	-2.72e-42
210	0x00000d4e	4.773e-42
211	0x80000555	-1.913e-42
212	0x0000045c	1.564e-42
213	0x0000aba5	6.1574e-41
214	0x000065dd	3.6542e-41
215	0x80001019	-5.775e-42
216	0x80002e51	-1.6615e-41
217	0x800044ac	-2.4635e-41
218	0x80000c8f	-4.505e-42
219	0x0000a79b	6.0126e-41
220	0x0000941f	5.3136e-41
221	0x80000099	-2.14e-43
222	0x80001d66	-1.0546e-41
223	0x86cd5337	-7.72347e-35
224	0x00001445	7.271e-42
225	0xa3604b88	-1.2159059e-17
226	0x0000a175	5.792e-41
227	0x0000003c	8.4e-44
228	0x07e6d1e9	3.4729928e-34
229	0x80005636	-3.0927e-41
230	0x00001453	7.291e-42
231	0x80001433	-7.246e-42
232	0x80000b9a	-4.162e-42
233	0x80008dc1	-5.0852e-41
234	0x80000b43	-4.04e-42
235	0x00007c17	4.4515e-41
236	0x0000035a	1.202e-42
237	0x80001337	-6.893e-42
238	0x80002400	-1.2914e-41
239	0x00000f5e	5.513e-42
240	0x00000d51	4.777e-42
241	0x800005ea	-2.122e-42
242	0x000008c5	3.146e-42
243	0x80000ee8	-5.347e-42
244	0x80003e12	-2.2267e-41
245	0xa2b48128	-4.8925847e-18
246	0x000011d3	6.394e-42
247	0x00005f5e	3.4211e-41
248	0x80005a54	-3.2404e-41
249	0x000010fd	6.094e-42
250	0x8004c26e	-4.3709e-40
251	0x8000527a	-2.9587e-41
252	0x800072b5	-4.1149e-41
253	0x00021d4c	1.94181e-40
254	0x80006ced	-3.9075e-41
255	0x80000289	-9.1e-43
