Models/checkpoint_vel_D1_1000_400.pth (torch, 353077 bytes, 16 tensors)

0.weight f4 [32, 9]
0	0x3df5b569	0.11997492
1	0xbdd78263	-0.10522916
2	0xbec3af11	-0.38219503
3	0x3e96439b	0.29348454
4	0xbf74846e	-0.9551457
5	0x3e9879a1	0.29780295
6	0x3c807036	0.015678506
7	0x3e7bbfc4	0.24584872
8	0xbd8b90ac	-0.06814703
9	0xbe18082c	-0.14846867
10	0x3e16c79c	0.14724582
11	0x3e490949	0.19632448
12	0xbe0d0061	-0.13769676
13	0x3f83f28c	1.0308394
14	0xbe23567c	-0.1595096
15	0xbda5032e	-0.08057247
16	0xbd000d06	-0.03126242
17	0xbdef15e2	-0.11674096
18	0x3ebc1630	0.36735678
19	0xbbc85574	-0.0061137024
20	0xbceba56a	-0.028765399
21	0xbe84764c	-0.25871503
22	0xbf021c17	-0.5082411
23	0xbcf66bff	-0.030080793
24	0xbe46fe88	-0.19433033
25	0x3d363bc9	0.04449061
26	0x3e0c7f05	0.13720329
27	0x3dd6e88a	0.10493572
28	0xbe95610e	-0.2917561
29	0x3e902597	0.2815368
30	0x3ec15701	0.3776169
31	0x3ebde61c	0.37089622
32	0x3e9347a1	0.28765586
33	0xbe8268b5	-0.2547051
34	0xbe3afe3d	-0.18261047
35	0xbde066fe	-0.10957144
36	0x3e0e6165	0.1390434
37	0xbd99c15d	-0.07507584
38	0x3e2c77b2	0.16842535
39	0xbe57cd78	-0.21074474
40	0x3f8df31b	1.1089815
41	0xbdef50e6	-0.11685352
42	0x3e2d0911	0.1689799
43	0x3c623cf5	0.013808479
44	0xbe823097	-0.25427696
45	0x3d5e6c17	0.0543023
46	0xbe22df01	-0.15905382
47	0x3d2051f5	0.03914066
48	0xbf91fb02	-1.1404727
49	0x3e1fae4c	0.15593833
50	0xbef33111	-0.47498372
51	0xbdc72c40	-0.09725237
52	0x3dd77712	0.10520758
53	0xbdf87ed4	-0.121335655
54	0x3e63d99f	0.22250985
55	0xbd023eb3	-0.031798076
56	0x3ec64f00	0.38732147
57	0xbed70166	-0.41993254
58	0xbe785f2a	-0.24255052
59	0x3e231426	0.15925655
60	0xbe9f794a	-0.31147224
61	0x3e6f70bc	0.23382849
62	0x3ea8a040	0.3293476
63	0x3deb4b34	0.11488953
64	0xbeada591	-0.3391538
65	0xbedd714c	-0.432505
66	0x3e9e25ab	0.30888113
67	0xbdc15064	-0.094391614
68	0xbde93d31	-0.113886245
69	0xbdb0cf8c	-0.086333364
70	0x3da6d437	0.081459455
71	0x3d594fa1	0.053054456
72	0x3e11638c	0.1419813
73	0x3e2b3696	0.16720042
74	0x3e434d4c	0.19072455
75	0xbf18efd2	-0.59740937
76	0xbe36f3c9	-0.17866434
77	0x3da683d3	0.08130612
78	0xbe7f9826	-0.24960384
79	0x3d86aa2f	0.06575429
80	0xbe26a876	-0.162752
81	0xbe4667c8	-0.19375527
82	0x3d7041b3	0.058656406
83	0xbf2d9aba	-0.6781422
84	0xbf1554ef	-0.58332723
85	0x3e21815f	0.15772007
86	0xbe35a142	-0.17737296
87	0x3e1ae044	0.15124613
88	0xbda227cd	-0.07917748
89	0x39321cf6	0.00016986192
90	0x3cf8bec2	0.030364398
91	0xbe8e9b1e	-0.2785272
92	0xbd5a8792	-0.053351946
93	0x3facea5f	1.3509024
94	0xbf849dd0	-1.036066
95	0xbe1aeffc	-0.1513061
96	0x3de4f2d3	0.111791275
97	0x3e0b9538	0.13631141
98	0xbe0fd9d4	-0.14047939
99	0xbd3e8594	-0.04651411
100	0x3e9d3114	0.30701506
101	0x3dc66c29	0.09688599
102	0x3f287223	0.6579916
103	0xbe5aefc7	-0.2138053
104	0xbe700ebc	-0.2344312
105	0xbe8a0209	-0.26954678
106	0x3eba17f9	0.36346415
107	0xbd816004	-0.06317142
108	0x3e2ffde5	0.17186697
109	0xbc9e66d2	-0.019336138
110	0xbdb4c218	-0.08826083
111	0x3eac6bf5	0.33676115
112	0x3faa3a45	1.3299032
113	0xbde4a51a	-0.11164303
114	0x39f198aa	0.00046080846
115	0x3e7d3325	0.24726541
116	0x3d941c04	0.07231906
117	0x3986f73d	0.0002574268
118	0xbec3d96e	-0.38251823
119	0xbdea3487	-0.114358
120	0x3dddad58	0.10824078
121	0x3e25a20c	0.16175097
122	0x3ed6270a	0.4182666
123	0xbd7510ed	-0.059830595
124	0x3e75db55	0.2400945
125	0xbe7e31e2	-0.24823716
126	0xbe85bbbf	-0.261198
127	0x3d4ff408	0.050769836
128	0x3e4c8228	0.19971526
129	0x3dd62d0a	0.10457809
130	0xbf73561f	-0.95053285
131	0x3ba5d2b6	0.005060519
132	0x3e4d256a	0.20033804
133	0x3dd61f79	0.10455222
134	0x3dd25f25	0.10272054
135	0x3e956ec1	0.2918606
136	0x3ecafe55	0.39647165
137	0x3ea6bb29	0.32564667
138	0xbdc0e01f	-0.09417748
139	0xbf888efb	-1.0668634
140	0xbdf215d0	-0.11820567
141	0x3d01f01e	0.031723134
142	0xbe613603	-0.2199326
143	0x3cc99fcf	0.024612335
144	0xbd2ae289	-0.041719947
145	0xbe28dc3a	-0.1649026
146	0xbb6a31a9	-0.0035735166
147	0x3d0f2b9c	0.0349537
148	0xbd9117c9	-0.07084615
149	0x3fb905a8	1.4454851
150	0xbd99a9e7	-0.075031094
151	0x3c59f6c3	0.0133034615
152	0xbd4f5968	-0.050622374
153	0xbc204227	-0.009781397
154	0xbecf75cd	-0.40519562
155	0xbe587866	-0.21139678
156	0xbf44ece4	-0.76923966
157	0xbd7c4d14	-0.061596945
158	0x3d1e8027	0.038696434
159	0xbce12653	-0.027484095
160	0xbe47098a	-0.19437233
161	0x3e5f64e5	0.21815832
162	0x3e4fabff	0.20280455
163	0x3d42f66c	0.047598287
164	0xbecccd21	-0.4000025
165	0x3ea4919e	0.32142347
166	0x3f4897dd	0.78356725
167	0xbd741956	-0.059594475
168	0xbe6295e0	-0.22127485
169	0xbdf57e59	-0.119869895
170	0xbe2fb11e	-0.17157409
171	0x3d7042ca	0.058657445
172	0x3e91816f	0.28419062
173	0x3effdc1c	0.49972618
174	0xbdaf9baa	-0.085746124
175	0x3e0453ed	0.1292264
176	0x3e0ff3f6	0.14057907
177	0x3d23b557	0.03996786
178	0xbe657cbd	-0.22410865
179	0x3ea3f908	0.32025933
180	0xbd882140	-0.06646967
181	0xbd6d0643	-0.0578673
182	0xbea2bcb7	-0.31784603
183	0xbe59386c	-0.2121293
184	0xbf87ae3b	-1.0600046
185	0x3d55d1f5	0.052202184
186	0xbe9cf10b	-0.3065265
187	0xbe017fee	-0.12646458
188	0xbc40447d	-0.011735079
189	0xbe8af469	-0.27139595
190	0x3d0bcae4	0.03412904
191	0xbdb596fd	-0.08866689
192	0xbe4102c8	-0.18848717
193	0x3e94c30d	0.29055062
194	0x3f3b83c0	0.7324791
195	0xbe216309	-0.15760435
196	0x3dd7ca52	0.105366364
197	0x3ded2731	0.11579741
198	0x3e8ecc6f	0.27890345
199	0xbe994b6a	-0.2994035
200	0x3ebc91b3	0.3682991
201	0xbf2c1ce9	-0.67231613
202	0xbdfad713	-0.122480534
203	0x3d6b2123	0.05740465
204	0x3e26d474	0.16291982
205	0xbdb1c35b	-0.08679839
206	0xbb8cbe8c	-0.004295176
207	0xbce16494	-0.02751378
208	0x3cae073a	0.02124368
209	0xbcb325fa	-0.021868695
210	0x3e6d92f5	0.23200591
211	0x3efaaa0d	0.48957863
212	0xbe8eb02a	-0.27868778
213	0x3eb66c8f	0.356297
214	0x3e215737	0.15755926
215	0x3ec87868	0.39154363
216	0x3e07c1a6	0.13257465
217	0xbe6c7699	-0.23092116
218	0xbe5317c9	-0.20614542
219	0x3f15b373	0.5847694
220	0x3eeb4ab6	0.45955437
221	0x3e2e3b00	0.17014694
222	0xbe1828b0	-0.14859271
223	0xbd4736b2	-0.048636146
224	0x3cf1faef	0.0295386
225	0xbe028ef7	-0.1274985
226	0xbe3883d2	-0.18019035
227	0x3c7f46da	0.015580857
228	0x3f1e653a	0.6187321
229	0x3f7f4266	0.9971069
230	0xbdd795dd	-0.10526631
231	0xbdc3a59b	-0.09553071
232	0x3e90db08	0.28292108
233	0xbd73d5d7	-0.059530105
234	0xbdad6e1d	-0.08468268
235	0xbccc72fd	-0.024957174
236	0xbec15f55	-0.37768045
237	0xbd5a4b2b	-0.053294342
238	0x3ef3fb9f	0.4765291
239	0xbe14b391	-0.14521624
240	0xbeb05397	-0.34438774
241	0x3cf27343	0.029595977
242	0x3db0614b	0.08612307
243	0xbd6494b0	-0.055805862
244	0x3d891beb	0.06694778
245	0x3e21ba94	0.1579383
246	0xbf368399	-0.7129455
247	0xbd0cdd53	-0.03439076
248	0xbdfb9115	-0.122835316
249	0x3e95b80a	0.29241973
250	0x3ea9d70e	0.33171886
251	0xbda6662e	-0.08124958
252	0x3ec1b068	0.378299
253	0x3ed6be49	0.4194205
254	0xbe616f45	-0.22015102
255	0xbf67a2aa	-0.9048258

0.bias f4 [32]
0	0x3db0e127	0.086366944
1	0x3e15e111	0.14636637
2	0xbc801259	-0.015633749
3	0x3c8bd30e	0.017068412
4	0x3e67d0c7	0.22638236
5	0x3e9ec364	0.31008446
6	0x3dc1a733	0.09455719
7	0x3d0201f1	0.031740133
8	0xbb90b7d8	-0.004416447
9	0x3e11792d	0.14206381
10	0xbf1033c2	-0.56328976
11	0x3d7e7927	0.06212726
12	0x3eaed0b5	0.34143606
13	0xbc8ed3f7	-0.017435057
14	0x3d544c78	0.05183074
15	0xbd2c467f	-0.042059418
16	0x3ef6d38a	0.48208266
17	0x3df7a8ee	0.12092768
18	0xbd1f409f	-0.038879987
19	0x3f12f147	0.5739941
20	0xba81ed84	-0.0009912704
21	0x3f025bf8	0.50921583
22	0x3ec4d761	0.3844557
23	0x3e0fc9a0	0.14041758
24	0xbe788830	-0.24270701
25	0xbe566d97	-0.20940243
26	0x3e5e35bf	0.2170019
27	0xbd58b069	-0.052902613
28	0x3e04d9f7	0.12973772
29	0x3d6ca5d0	0.05777532
30	0xbde3ad56	-0.111170456
31	0xbe39c689	-0.18142141

2.weight f4 [64, 32]
0	0x3c27bd60	0.010238022
1	0x3e66bdac	0.22533292
2	0xbd909dcc	-0.07061347
3	0xbe0e55c9	-0.13899912
4	0x3e23ee3b	0.16008846
5	0xbe14baa4	-0.14524323
6	0xbdcc3d9b	-0.09972688
7	0xbc02ff6c	-0.007995468
8	0xbda1e5b4	-0.079051405
9	0xbe18bf24	-0.14916664
10	0x3c9c84af	0.019106237
11	0x3e7e986e	0.24862835
12	0xbd17745e	-0.03697621
13	0xbe4903b6	-0.19630322
14	0x3dc4ba9c	0.096059054
15	0xbcded383	-0.027200466
16	0x3d390549	0.045171056
17	0xbc984806	-0.018589031
18	0x3e0bf177	0.1366633
19	0x3d04d595	0.03243025
20	0x3ba633a0	0.005072072
21	0xbd687333	-0.056750488
22	0xbc89b0f2	-0.016808007
23	0x3e11e166	0.14246139
24	0xbcc7014b	-0.024292609
25	0xbda3a172	-0.079897776
26	0x3d36f891	0.044670645
27	0xbe1338bc	-0.14377111
28	0xbd98b761	-0.07456852
29	0xbdff2147	-0.12457519
30	0x3dda1af1	0.1064967
31	0xbc4573d9	-0.012051546
32	0xbeb76719	-0.35820845
33	0x3d143258	0.036180824
34	0xbc18a292	-0.0093161035
35	0x3e320824	0.17385918
36	0x3e86846a	0.262729
37	0x3e07c322	0.13258031
38	0xbe1226d5	-0.14272626
39	0x3e022f7f	0.12713431
40	0xbd0f4241	-0.034975294
41	0xbee80a10	-0.45320177
42	0x3dfceb94	0.123496205
43	0x3da4d03c	0.0804753
44	0x3dd37e33	0.10326805
45	0xbd6c3b93	-0.057674002
46	0xbe989c9e	-0.2980699
47	0xbe8630d1	-0.2620912
48	0xbe741874	-0.23837453
49	0xbbea2d88	-0.007146541
50	0xbe101a1e	-0.14072463
51	0x3e2f9c97	0.17149578
52	0x3ce7ae19	0.028281258
53	0xbe370bb2	-0.17875555
54	0xbc2a2d29	-0.010386744
55	0x3e3528d9	0.17691363
56	0x3dd92633	0.10602989
57	0x3eb6280b	0.35577425
58	0x3d89b076	0.067231104
59	0x3cf9d1b0	0.030495495
60	0x3ece69b6	0.40315026
61	0xbd492fb8	-0.049117774
62	0x3d4b42d7	0.04962429
63	0x3df624cb	0.120187365
64	0xbe59ed3a	-0.21281901
65	0xbde2aec9	-0.11068494
66	0x3dfb8fec	0.1228331
67	0x3dde6a2e	0.10860096
68	0xbe1262f5	-0.14295562
69	0xbdfc736d	-0.12326703
70	0xbd887edf	-0.06664824
71	0x3e171429	0.14753784
72	0xbd917dfc	-0.07104108
73	0xbcd83fec	-0.026397668
74	0x3ef35bee	0.47531074
75	0xbdcb1c49	-0.09917504
76	0x3eade746	0.3396551
77	0xbd569daa	-0.052396454
78	0x3e4e8538	0.20168006
79	0xbdacea69	-0.08443148
80	0xbcb47800	-0.022029877
81	0x3d0bcca3	0.034130704
82	0x3e1ce235	0.15320666
83	0xbea6f216	-0.32606572
84	0x3e424c9b	0.18974535
85	0x3dbb5725	0.09147481
86	0xbe3a6541	-0.18202688
87	0x3d3064f0	0.04306501
88	0x3e917c46	0.28415126
89	0xbd8f62ac	-0.07001242
90	0xba3cbde5	-0.00071999273
91	0x3e85120a	0.25990325
92	0xbd534228	-0.051576763
93	0xbc60452a	-0.013688365
94	0x3e541fb5	0.2071522
95	0x3e7c86a6	0.2466074
96	0xbddb426a	-0.10706027
97	0x3dbb6b1c	0.09151289
98	0x3d8e5e7f	0.069516174
99	0xbd5ff56f	-0.054677423
100	0xbe6e27d0	-0.23257375
101	0x3e36f2f5	0.17866118
102	0x3de815f5	0.11332313
103	0xbd416d0f	-0.047223147
104	0x3e80d13e	0.2515964
105	0x3e10e530	0.14149928
106	0x3cbc9976	0.023022395
107	0xbe3bda7c	-0.18345064
108	0x3dbb86b8	0.09156555
109	0x3dab5e3d	0.08367584
110	0x3d87cf48	0.06631333
111	0xbe837ab0	-0.2567954
112	0xbe26235b	-0.16224425
113	0x3e8e4223	0.27784833
114	0xbd3a838e	-0.045535617
115	0xbddcfc94	-0.10790363
116	0x3c9df15f	0.019280134
117	0xbe9dbe55	-0.30809274
118	0x3e83f4f9	0.25772837
119	0xbbea6539	-0.00715318
120	0xbe140c3e	-0.14457795
121	0x3e42f144	0.19037348
122	0xbe3b23d6	-0.18275389
123	0xbc1d3291	-0.0095945755
124	0xbd1a5761	-0.037680987
125	0x3ada1d7c	0.0016640867
126	0xbe5bc81f	-0.21463059
127	0xbe42be66	-0.19017944
128	0x3e296987	0.16544162
129	0x3d1c0cc6	0.03809812
130	0x3e2c467f	0.16823767
131	0xbd9abfd4	-0.075561196
132	0x3ddad034	0.10684243
133	0xbea4f599	-0.32218626
134	0x3e630793	0.22170858
135	0x3e04b701	0.12960435
136	0xbe12cab4	-0.14335138
137	0x3d894773	0.06703081
138	0x3db2bd76	0.08727543
139	0xbe7f0320	-0.24903536
140	0xbda08307	-0.078374915
141	0xbad55b58	-0.0016277833
142	0x3dcb4c8e	0.09926711
143	0xbd220cfd	-0.039563168
144	0x3e960a85	0.293049
145	0x3e00561d	0.1253285
146	0xbea073c5	-0.31338325
147	0xbe0273f0	-0.12739539
148	0x3e6574f8	0.22407901
149	0xbe3d1ca5	-0.18467958
150	0xbd391dfb	-0.045194607
151	0xbcf6db48	-0.030133858
152	0xbd8ad660	-0.0677917
153	0x39558f06	0.00020366543
154	0xbdaaf6d9	-0.08347864
155	0x3e1d84b6	0.15382656
156	0xbdab2eec	-0.08358559
157	0xbd0dfc30	-0.034664333
158	0x3e94785a	0.2899807
159	0xbececcea	-0.40390712
160	0x3e26c74a	0.1628696
161	0x3e405d1e	0.18785521
162	0xbd247460	-0.040150046
163	0x3dacfbe0	0.08446479
164	0x3e73ff03	0.23827748
165	0xbe85fe51	-0.2617059
166	0xbdd859fb	-0.105640374
167	0xbe4db502	-0.2008858
168	0x3d928239	0.07153744
169	0xbd1b6faa	-0.037948288
170	0x3ce6e119	0.028183507
171	0x3e641e83	0.22277264
172	0x3de2aa41	0.110676296
173	0xbcbce9bd	-0.023060674
174	0x3de28121	0.11059786
175	0x3e819518	0.25309062
176	0x3e39b69a	0.18136063
177	0x3d2fe235	0.042940337
178	0xbcf37814	-0.029720344
179	0x3db814ab	0.08988317
180	0xbdf47223	-0.11935832
181	0x3cc331e0	0.023827493
182	0xbed24869	-0.4107087
183	0x3e23813e	0.1596727
184	0xbd93d71c	-0.07218763
185	0xbdefbb15	-0.11705605
186	0xbe9c87ea	-0.30572444
187	0xbe509537	-0.20369421
188	0x3d2cf68a	0.042227305
189	0x3e4ffbf2	0.20310953
190	0xbd9c2d6c	-0.07625851
191	0x3dff496a	0.124651745
192	0x3e97fa81	0.29683307
193	0xbd52760e	-0.051382117
194	0x3e6b7604	0.22994238
195	0xbe00ff68	-0.1259743
196	0xbe430799	-0.19045867
197	0xbe746209	-0.23865522
198	0xbe5b0f8f	-0.21392654
199	0x3d1c5ae1	0.038172606
200	0xbd9f36ab	-0.07774099
201	0xbd608143	-0.054810774
202	0x3e67b9c1	0.22629453
203	0xbdf34e72	-0.11880197
204	0xbef47a96	-0.47749776
205	0xbe2c07bc	-0.16799825
206	0x3dffde60	0.124935865
207	0x3ecb69fc	0.39729297
208	0xbdcc184d	-0.099655725
209	0xbd47edc7	-0.048810747
210	0x392a86e8	0.0001626272
211	0x3d5b4fcb	0.053542893
212	0x3e13843f	0.14405917
213	0x3cdb951f	0.026804505
214	0x3d6f8986	0.058480762
215	0xbe65bd91	-0.22435595
216	0x3dd66c4f	0.10469877
217	0xbde366ea	-0.11103614
218	0xbe61dd21	-0.2205701
219	0xbc5cfa2b	-0.013487379
220	0xbe0b7ccb	-0.13621823
221	0xbbe0871b	-0.0068520433
222	0x3da939e7	0.08262997
223	0xbce24a70	-0.027623385
224	0x3da5e8e7	0.08101063
225	0xbca27761	-0.019832315
226	0xbb95f471	-0.004576259
227	0x3e617370	0.22016692
228	0xbd8326da	-0.06403895
229	0xbe81430f	-0.25246474
230	0x3e18004d	0.14843865
231	0xbc9082f4	-0.017640568
232	0x3dbc35e5	0.09189967
233	0xbe304364	-0.17213207
234	0xbd89c1db	-0.06726428
235	0xbe4c4c90	-0.19951081
236	0x3ed1948a	0.4093364
237	0x3de18cac	0.11013159
238	0xbe3cd58d	-0.18440838
239	0xbe516395	-0.20448144
240	0x3f060d51	0.5236407
241	0xbd0d24b5	-0.034458835
242	0xbbb90a35	-0.0056469687
243	0x3e369b63	0.17832713
244	0xbda388e6	-0.07985096
245	0xbc0fd9cd	-0.008779955
246	0xbda54669	-0.0807007
247	0x3e173b23	0.14768653
248	0x3dd3d771	0.103438266
249	0xbe59386c	-0.2121293
250	0x3d38bc90	0.045101702
251	0xbdfe31f8	-0.124118745
252	0x3d233348	0.039843827
253	0xbccf65ed	-0.025317157
254	0xbdfa304d	-0.12216244
255	0xbdfdac5b	-0.1238639

2.bias f4 [64]
0	0x3e0050d8	0.1253084
1	0xbde19a73	-0.11015787
2	0xbec15709	-0.37761715
3	0x3e357202	0.17719272
4	0x3e0ca0a9	0.13733162
5	0xbd8b88ab	-0.06813177
6	0xbee53b67	-0.44771883
7	0x3b9960f9	0.0046807495
8	0xbdbb0f27	-0.091337495
9	0x3d8ad2e0	0.067785025
10	0x3d87c050	0.066284776
11	0x3d5e87be	0.054328673
12	0xbe7eaf4d	-0.2487156
13	0xbe402e17	-0.18767582
14	0xbe83cefa	-0.25743848
15	0xbec2b58a	-0.38029128
16	0x3ec13275	0.37733808
17	0xbea3a802	-0.31964117
18	0x3ddf297b	0.10896584
19	0xbeb72657	-0.35771438
20	0x3e9e065e	0.30864233
21	0x3d6cfb64	0.057856932
22	0xbd9e4d12	-0.07729544
23	0xbcd80e15	-0.026373902
24	0xbe91c06d	-0.28467122
25	0xbec3b18f	-0.38221404
26	0x3de7b4b9	0.11313767
27	0x3d48504c	0.048904702
28	0x3e465b66	0.19370803
29	0xbe138b75	-0.14408667
30	0xbee62c09	-0.4495547
31	0xbe34a6ea	-0.17641798
32	0xbda52195	-0.08063046
33	0x3e600439	0.21876611
34	0x3ea80854	0.32818854
35	0x3e27fe37	0.16405569
36	0xbc5924eb	-0.013253431
37	0xbe9b6330	-0.30349112
38	0x3dd17c7a	0.1022882
39	0x3db7d95c	0.08977005
40	0xbdac3869	-0.08409197
41	0xbe6b9ec2	-0.2300978
42	0x3e0dd59a	0.13851014
43	0x3e35ef9b	0.17767183
44	0xbe2ea7ad	-0.1705615
45	0x3e45b5e4	0.19307667
46	0x3dee094f	0.11622869
47	0xbd3237b7	-0.043510165
48	0xbd51ac7b	-0.05118988
49	0x3e283d55	0.16429646
50	0x3de6ab3e	0.112631306
51	0x3eb43609	0.35197476
52	0x3d8c0f2e	0.06838833
53	0x3eaada1a	0.33369523
54	0xbdaa5ea8	-0.083188355
55	0x3e960578	0.29301047
56	0x3dfdb3ae	0.12387787
57	0x3e0603b2	0.13087347
58	0xbe82b38f	-0.25527617
59	0x3ce5a277	0.02803157
60	0xbe0f2637	-0.13979422
61	0x3e2e85df	0.17043255
62	0xbea566dc	-0.32305038
63	0xbe21aa36	-0.15787587

4.weight f4 [128, 64]
0	0x3dd1d061	0.10244823
1	0xbd806e20	-0.06271005
2	0xbe01da85	-0.12681015
3	0x3d5ba04c	0.053619668
4	0xbcd6cfcd	-0.026222134
5	0x3e4af7fe	0.19821164
6	0x3d0fecb9	0.035137866
7	0xbcbf050a	-0.023317832
8	0x3c79ae1c	0.015239265
9	0xbe391aff	-0.18076704
10	0x3dacaa3e	0.084309086
11	0xbd8d718c	-0.06906423
12	0xbd92f43b	-0.071754895
13	0x3d2b90e7	0.041886237
14	0xbd2edde0	-0.042692065
15	0x3b15780f	0.0022807156
16	0xbcb0d7dc	-0.021587305
17	0xbdc7611c	-0.09735319
18	0xbd452825	-0.048133988
19	0x3b4c065b	0.0031131718
20	0x3df84081	0.12121678
21	0x3d8d4833	0.068985365
22	0xbcf8537d	-0.030313248
23	0x3d2cbda7	0.042173054
24	0x3c5f6bdb	0.013636555
25	0xbcc8630e	-0.024461295
26	0xbe2dce49	-0.16973223
27	0xbd29af8e	-0.041427188
28	0xbd2024c1	-0.03909755
29	0xbe32fa6b	-0.1747834
30	0x3dc3f43a	0.09568067
31	0xbbd9f306	-0.006651285
32	0x3d25d2c5	0.04048421
33	0x3ca5b3b4	0.02022729
34	0xbd90035b	-0.0703189
35	0xbd7cefa2	-0.06175197
36	0xbccfb7bf	-0.025356172
37	0xbd7675e8	-0.060171038
38	0x3e130d19	0.14360465
39	0x3dd769f2	0.10518254
40	0x3d405930	0.046960056
41	0xbe75f1f2	-0.24018076
42	0x3d8d6104	0.0690327
43	0xbc313e00	-0.010818005
44	0xbd406bd1	-0.04697782
45	0xbe47c058	-0.19506967
46	0x3d7367de	0.059425227
47	0xbc43bfd0	-0.011947587
48	0x3dcac2b8	0.09900421
49	0x3d495d98	0.049161524
50	0x3c047b70	0.00808607
51	0x3dd97807	0.106185965
52	0xbcacb7d7	-0.021083755
53	0x3e5f652e	0.2181594
54	0xbd1e5830	-0.03865832
55	0xbcf28670	-0.02960512
56	0x3e0705b7	0.13185774
57	0x3e46d89f	0.19418572
58	0xbccd4e3a	-0.025061715
59	0x3c4ac208	0.012375362
60	0x3e318cb4	0.1733883
61	0xbda454f5	-0.08024017
62	0xbe0aed21	-0.1356702
63	0xbd88e527	-0.06684332
64	0xb0de534d	-1.6176301e-09
65	0xaefeefe3	-1.1593195e-10
66	0x9dab7baa	-4.539119e-21
67	0x20639566	1.927708e-19
68	0xaa481fe4	-1.7774633e-13
69	0x31f9e5a2	7.27296e-09
70	0xaaea55b4	-4.1626219e-13
71	0x2d925c38	1.6639232e-11
72	0xb1f8a9bf	-7.237048e-09
73	0xafc15020	-3.5163428e-10
74	0x93f55088	-6.1926105e-27
75	0x28a4c2be	1.8292114e-14
76	0x282637ea	9.2269755e-15
77	0xb4f8f81e	-4.637413e-07
78	0x000005d8	2.096e-42
79	0x80000f0e	-5.4e-42
80	0xb265d0ca	-1.33770275e-08
81	0xad6ece52	-1.3574546e-11
82	0xa8733c87	-1.35023345e-14
83	0xa9bff45f	-8.5244955e-14
84	0xa9c0455b	-8.538544e-14
85	0x33bf49d7	8.907562e-08
86	0xb12b41f4	-2.4921265e-09
87	0xa5876b70	-2.349157e-16
88	0xa267d385	-3.1418315e-18
89	0xb182946f	-3.800373e-09
90	0x26a54501	1.1467878e-15
91	0xb192aa3e	-4.2685135e-09
92	0xb022c209	-5.9210997e-10
93	0x2ba5d5ff	1.1783351e-12
94	0xa84b7d51	-1.1295937e-14
95	0xa5cdb780	-3.5686176e-16
96	0xb12fc100	-2.557556e-09
97	0xaee30352	-1.0323355e-10
98	0xb1b00d35	-5.1237756e-09
99	0x9ea8bf75	-1.7866877e-20
100	0xafdadc38	-3.9810444e-10
101	0x2a03b634	1.1698352e-13
102	0x26497e81	6.990733e-16
103	0xa9a085dd	-7.128649e-14
104	0xb0ed2110	-1.7253416e-09
105	0xae5ed66b	-5.0667397e-11
106	0x2d52387e	1.1949662e-11
107	0xab122f13	-5.193495e-13
108	0x24bd8d60	8.220518e-17
109	0xafca99f3	-3.6852973e-10
110	0xb0dbe253	-1.5998672e-09
111	0xb0731e50	-8.844596e-10
112	0x275b0069	3.0392578e-15
113	0xafb337c2	-3.259953e-10
114	0x9cba6f04	-1.2337144e-21
115	0xb0b2393d	-1.2967473e-09
116	0xa6586413	-7.507568e-16
117	0xb000135d	-4.6593646e-10
118	0xb1dbc9eb	-6.3966943e-09
119	0xa7ab0cb7	-4.747582e-15
120	0xb2657bdd	-1.3357718e-08
121	0x26ff79f4	1.7727235e-15
122	0x1dc91689	5.3227558e-21
123	0x29e25597	1.00512636e-13
124	0xade298f5	-2.5761152e-11
125	0x2d62e6d1	1.2897864e-11
126	0x9f22a7c2	-3.44436e-20
127	0x000006e6	2.475e-42
128	0x3d046880	0.03232622
129	0x3d8a740e	0.06760417
130	0xbd92a997	-0.07161253
131	0xbd4565bb	-0.04819272
132	0x3d2ab0a0	0.04167235
133	0x3ac1e828	0.0014793919
134	0xbda23e78	-0.07922071
135	0x3e042605	0.12905128
136	0xbdb7022c	-0.08935961
137	0xbd9b6cff	-0.07589149
138	0x3d87c6ef	0.066297404
139	0x3d7bfb97	0.06151923
140	0x3cef8743	0.029239303
141	0xbcb19892	-0.021679197
142	0xbdb0e2d7	-0.08637016
143	0xbcf86452	-0.030321274
144	0x3dd02bc7	0.101646
145	0x3d41b28d	0.04728942
146	0xbe371d46	-0.1788226
147	0xbd60c06c	-0.054871008
148	0xbd8cc377	-0.068732195
149	0xbd91cc8d	-0.07119093
150	0x3d1bea92	0.0380655
151	0xbd9463dc	-0.07245609
152	0xbe2a7c87	-0.16649066
153	0xbd1f0e0a	-0.038831748
154	0xbc8b97db	-0.017040184
155	0x3bb23e54	0.005439559
156	0x3c888b87	0.016668094
157	0x3cf83f2d	0.030303562
158	0xbe3ba009	-0.18322767
159	0xbcef1a52	-0.029187355
160	0xbd15654f	-0.03647357
161	0xbdb1cc2d	-0.086815216
162	0xbc1268d9	-0.00893613
163	0x3cba3800	0.022731781
164	0xbe05ff41	-0.13085653
165	0xbc0b2840	-0.008493483
166	0x3d9b6761	0.07588077
167	0x3e1b2db8	0.15154159
168	0xbd06d7eb	-0.03292076
169	0xbd1e918d	-0.038713027
170	0xbda10fee	-0.078643665
171	0xbe23a5a6	-0.15981159
172	0x3e5489e4	0.20755726
173	0x3d00f756	0.031485878
174	0x3ce8a483	0.028398758
175	0xbdb29415	-0.08719651
176	0xbdfd0549	-0.12354524
177	0xbe03a2ed	-0.1285512
178	0x3d52d445	0.051471967
179	0x3e1395f7	0.14412676
180	0x3d51f51b	0.05125914
181	0x3e35a7ef	0.17739843
182	0xbe332304	-0.17493826
183	0xbdf394ec	-0.11893639
184	0xbe5e760f	-0.21724723
185	0xbdb030b7	-0.086030416
186	0xbd4a2162	-0.049348243
187	0xbdb34ae8	-0.087545216
188	0x3d31c468	0.0434002
189	0xbd4f8757	-0.05066618
190	0x3d88fb9c	0.06688616
191	0xbd9d2af9	-0.07674212
192	0x3dc4e18d	0.09613333
193	0xbd9060a9	-0.070496865
194	0x3c1046d3	0.008805948
195	0x3e027ba4	0.12742478
196	0x3d3b382f	0.045707878
197	0x3d286be1	0.041118506
198	0x3d933376	0.0718755
199	0xbe1a8c5b	-0.15092604
200	0xbd02c73c	-0.031928286
201	0xbe760393	-0.24024801
202	0x3e276385	0.16346557
203	0xbddea025	-0.10870389
204	0xbc4d8ef6	-0.012546292
205	0xbe2ef36e	-0.17085049
206	0x3d6d7727	0.05797496
207	0xbe0e11b6	-0.13873944
208	0xbda7a061	-0.08184887
209	0xbc870593	-0.01648215
210	0xbbaf31e5	-0.005346524
211	0x3ce760f0	0.028244466
212	0x3db2bd7a	0.08727546
213	0x3d35f4fa	0.04442308
214	0xbc8f8776	-0.017520647
215	0x3d8b4e85	0.06802086
216	0xbd68fc91	-0.05688149
217	0x3d0dd1b1	0.034623805
218	0x3e4e190e	0.20126745
219	0xbdb01272	-0.08597268
220	0x3d89cde3	0.06728723
221	0x3dacedfb	0.08443829
222	0x3d135469	0.03596917
223	0xbda379d7	-0.079822235
224	0xbe2f035a	-0.17091122
225	0xbd839b11	-0.06426061
226	0x3dbf275c	0.09333679
227	0x3dedbfb2	0.116088286
228	0x3e61060a	0.2197496
229	0x3da66ed1	0.08126605
230	0x3da455ed	0.080242015
231	0xbc6596d9	-0.014013016
232	0x3df7f8ad	0.12107978
233	0xbdf253c6	-0.11832385
234	0x3cb31556	0.02186076
235	0x3df50e08	0.11965567
236	0x3c9ca2d7	0.019120617
237	0xbe11d682	-0.14241984
238	0xbe364f65	-0.17803724
239	0xbe17bcb9	-0.14818086
240	0x3d378e80	0.044813633
241	0xbba77159	-0.0051099476
242	0x3d21ff14	0.039549902
243	0x3cbc5d34	0.022993661
244	0x3d84d86f	0.06486594
245	0xbcdb9a82	-0.026807074
246	0x3deb07b9	0.11476082
247	0xbd45052c	-0.048100635
248	0xbdf59c74	-0.11992732
249	0xbda9b42f	-0.082863204
250	0xbe01a29c	-0.12659687
251	0x3e1cb9c4	0.15305239
252	0xbe2c2f1d	-0.16814847
253	0x3cb3b87c	0.021938555
254	0xbe0343ed	-0.1281888
255	0x3d8c40b5	0.068482794

4.bias f4 [128]
0	0xbbfe0799	-0.0077523706
1	0xb39192c0	-6.778782e-08
2	0x3e596372	0.21229342
3	0x3d902f60	0.07040286
4	0xbb0aab8c	-0.0021159379
5	0xbe1e303e	-0.1544809
6	0x3ca116da	0.019664217
7	0xbe5725a6	-0.21010455
8	0xbdb376b5	-0.08762876
9	0xbda57584	-0.08079055
10	0xbc136e47	-0.00899846
11	0x3d2dd04e	0.042434983
12	0xbdd070a1	-0.10177732
13	0x3d3dfd1a	0.046383955
14	0xbd02713c	-0.03184627
15	0xbb3c0191	-0.0028687457
16	0x3d66fe16	0.05639466
17	0x3db5e51d	0.088815905
18	0xbda91496	-0.082558796
19	0xbdc4afc5	-0.09603838
20	0xbb838cd0	-0.004014589
21	0xbe031493	-0.12800817
22	0xbe482be7	-0.19547997
23	0xbc9526cd	-0.018206978
24	0xbe025b4e	-0.12730142
25	0xbb64ca8a	-0.0034910762
26	0xaea627d5	-7.5558816e-11
27	0x3d6264f2	0.05527205
28	0x3d038f5c	0.03211914
29	0x3da1ff75	0.07910053
30	0x3e6d486e	0.23172161
31	0xba80d7e5	-0.0009829967
32	0x3e36f7eb	0.1786801
33	0xbdebcfa2	-0.11514212
34	0x3b11e511	0.0022261778
35	0xbdb49ee6	-0.0881937
36	0xbe7dc336	-0.24781498
37	0xbe449014	-0.19195586
38	0xbd6b5131	-0.057450477
39	0xbe6b6bf3	-0.22990398
40	0xbdece46d	-0.11567006
41	0x3d48afd0	0.048995793
42	0xbc42062f	-0.011842295
43	0xbd2c4f8b	-0.042068046
44	0x3e95115d	0.2911481
45	0x3d52e549	0.051488195
46	0xbcfff9d7	-0.031247063
47	0x3d7ee2f6	0.062228166
48	0x3e2641eb	0.16236083
49	0xbca2ff9d	-0.019897277
50	0x3ac63a4a	0.0015123573
51	0x3e1b35d0	0.15157247
52	0xbcc08f36	-0.023505788
53	0x3df26c7b	0.11837097
54	0xbe577c6b	-0.21043555
55	0x3e4600d4	0.19336253
56	0xbe4db1b3	-0.20087318
57	0xbdc33d14	-0.09533134
58	0x3db050f5	0.08609191
59	0xbe36f70a	-0.17867675
60	0x3c9f9c04	0.019483574
61	0xbe67777f	-0.22604178
62	0xbdc02517	-0.09382074
63	0xbddf9ea3	-0.109189294
64	0xbe3a5776	-0.18197426
65	0xbdae6869	-0.085160084
66	0xbc182365	-0.009285782
67	0xbda572c6	-0.08078532
68	0xbb568c7a	-0.003273754
69	0x3dbaaac5	0.09114603
70	0x3d832524	0.064035684
71	0xbcc6688f	-0.02421978
72	0xa8e13d8e	-2.5006713e-14
73	0xbe26e132	-0.16296843
74	0x3d70c89d	0.05878507
75	0xbd842016	-0.064514324
76	0xb686989f	-4.0112786e-06
77	0x3d38e448	0.04513958
78	0xbe3f79a6	-0.18698749
79	0xbdeb683f	-0.11494493
80	0xb891d310	-6.953452e-05
81	0x3e3cbd76	0.18431649
82	0xbd3eb407	-0.046558406
83	0x3da36396	0.07977979
84	0xbe35f3f8	-0.17768848
85	0x3de9097a	0.11378761
86	0xbd9c4219	-0.076297946
87	0x3e82b785	0.2553064
88	0x3e543d49	0.20726503
89	0xbbc091fd	-0.005876778
90	0x3d67eeb6	0.056624137
91	0xbdde172b	-0.10844263
92	0x3e25a096	0.1617454
93	0x3e657d75	0.2241114
94	0xbacf2c03	-0.0015805963
95	0xbd3c439c	-0.045962915
96	0xb83d1809	-4.5083496e-05
97	0xbe55d62a	-0.20882478
98	0xbdc94af6	-0.09828751
99	0x3d6e7f1d	0.058226693
100	0x3e28f886	0.16501054
101	0xbcd1f264	-0.025628276
102	0x3d2ba74f	0.041907605
103	0x3e2129e6	0.15738639
104	0xbe69ab8e	-0.22819349
105	0x3d85fbbd	0.06542156
106	0xa6102604	-5.0011557e-16
107	0xbe27f724	-0.1640287
108	0xbc117644	-0.008878294
109	0x3c25810a	0.010101566
110	0xbe155687	-0.14583789
111	0xbe263f31	-0.16235043
112	0xbd41dc1d	-0.047329057
113	0xbd868819	-0.06568927
114	0xbb07b878	-0.0020709317
115	0xbcf4d5c5	-0.02988709
116	0x3c89274f	0.016742377
117	0x3cdeac85	0.027181873
118	0x3bf6890d	0.007523662
119	0x3ca401a9	0.020020323
120	0x3d0c96f6	0.034323655
121	0xbc421274	-0.01184522
122	0x3d2e2132	0.042512126
123	0xbd381693	-0.044943403
124	0x3d474b17	0.048655596
125	0x3d7e44a1	0.06207717
126	0xbaf8bf0e	-0.0018977837
127	0xbe4f91ad	-0.20270415

6.weight f4 [256, 128]
0	0x800009bb	-3.49e-42
1	0x00005625	3.0903e-41
2	0x00000481	1.616e-42
3	0x000010c0	6.009e-42
4	0x80001318	-6.85e-42
5	0x0000109b	5.957e-42
6	0x80000626	-2.206e-42
7	0x00000626	2.206e-42
8	0x80000394	-1.284e-42
9	0x00001583	7.717e-42
10	0x0000079e	2.733e-42
11	0x800013f8	-7.163e-42
12	0x00000f52	5.496e-42
13	0x00000324	1.127e-42
14	0x800001ea	-6.87e-43
15	0x80001324	-6.866e-42
16	0x000001e2	6.75e-43
17	0x00000734	2.584e-42
18	0x00001276	6.623e-42
19	0x800010ba	-6e-42
20	0x8000046f	-1.59e-42
21	0x0000042d	1.498e-42
22	0x0000105d	5.87e-42
23	0x00000780	2.69e-42
24	0x8000142f	-7.24e-42
25	0x80001551	-7.647e-42
26	0x80006ca9	-3.898e-41
27	0x00000878	3.038e-42
28	0x00001259	6.582e-42
29	0x000012d3	6.753e-42
30	0x00000cfa	4.655e-42
31	0x00000c4e	4.414e-42
32	0x000006ca	2.435e-42
33	0x80001c50	-1.0157e-41
34	0x000013f9	7.165e-42
35	0x8000157f	-7.711e-42
36	0x000008b0	3.116e-42
37	0x00000cd7	4.606e-42
38	0x00000cd6	4.605e-42
39	0x80000bf1	-4.284e-42
40	0x000000be	2.66e-43
41	0x00001280	6.637e-42
42	0x00000fd3	5.677e-42
43	0x80000bdf	-4.259e-42
44	0x0000147f	7.353e-42
45	0x00000f68	5.527e-42
46	0x00000cf5	4.648e-42
47	0x800002b8	-9.75e-43
48	0x00000157	4.8e-43
49	0x80001224	-6.508e-42
50	0x80001ab2	-9.576e-42
51	0x00000129	4.16e-43
52	0x000013f7	7.162e-42
53	0x80000071	-1.58e-43
54	0x80000f05	-5.388e-42
55	0x80000119	-3.94e-43
56	0x00001085	5.926e-42
57	0x800003d6	-1.376e-42
58	0x800009f7	-3.575e-42
59	0x8000176e	-8.405e-42
60	0x000003a2	1.303e-42
61	0x800009fa	-3.579e-42
62	0x80000211	-7.41e-43
63	0x80000ea0	-5.246e-42
64	0x0000067b	2.325e-42
65	0x8000044e	-1.544e-42
66	0x00000220	7.62e-43
67	0x00000e02	5.025e-42
68	0x00000c33	4.376e-42
69	0x80000bed	-4.278e-42
70	0x80000132	-4.29e-43
71	0x80000ce3	-4.623e-42
72	0x8000783d	-4.3133e-41
73	0x0000089f	3.093e-42
74	0x00001395	7.025e-42
75	0x80001d76	-1.0569e-41
76	0x80003ed3	-2.2537e-41
77	0x8000129c	-6.676e-42
78	0x800005a0	-2.018e-42
79	0x80000539	-1.874e-42
80	0x800008c2	-3.142e-42
81	0x00000dce	4.952e-42
82	0x80001592	-7.738e-42
83	0x80000ce7	-4.628e-42
84	0x8000052b	-1.854e-42
85	0x80000f21	-5.427e-42
86	0x00001293	6.663e-42
87	0x00001133	6.17e-42
88	0x0000084a	2.974e-42
89	0x00002264	1.2337e-41
90	0x00000a96	3.798e-42
91	0x8000080c	-2.887e-42
92	0x80001324	-6.866e-42
93	0x00000279	8.87e-43
94	0x80000486	-1.623e-42
95	0x800007bf	-2.779e-42
96	0x800040a9	-2.3196e-41
97	0x80000ae1	-3.903e-42
98	0x80001470	-7.332e-42
99	0x0000070e	2.531e-42
100	0x00001362	6.953e-42
101	0x80000f78	-5.549e-42
102	0x00001012	5.765e-42
103	0x800014f2	-7.514e-42
104	0x80000c4a	-4.408e-42
105	0x80001144	-6.194e-42
106	0x80003ad4	-2.1104e-41
107	0x000010f4	6.082e-42
108	0x0000170e	8.27e-42
109	0x0000007c	1.74e-43
110	0x800014b5	-7.428e-42
111	0x80001326	-6.869e-42
112	0x00000226	7.71e-43
113	0x800008eb	-3.199e-42
114	0x8000037a	-1.247e-42
115	0x80001ab4	-9.579e-42
116	0x00000dde	4.975e-42
117	0x80000920	-3.273e-42
118	0x00000a52	3.702e-42
119	0x80000e59	-5.147e-42
120	0x000017f7	8.597e-42
121	0x800001da	-6.64e-43
122	0x000016d0	8.184e-42
123	0x0000108c	5.936e-42
124	0x800001a4	-5.89e-43
125	0x8000014b	-4.64e-43
126	0x00000ea9	5.259e-42
127	0x000005f2	2.133e-42
128	0x39c51169	0.0003758774
129	0x80002e96	-1.6712e-41
130	0xb74cf8b8	-1.2217257e-05
131	0xb9c5ca81	-0.00037725645
132	0x391f1d26	0.0001517428
133	0xb813fbe8	-3.5282137e-05
134	0xb9935da7	-0.000281078
135	0xba6b79cb	-0.0008982687
136	0x380502c2	3.171224e-05
137	0xba81b9c6	-0.0009897284
138	0xb8eb27d0	-0.00011213089
139	0xb9bedd52	-0.0003640452
140	0xba988455	-0.0011636118
141	0xb820edba	-3.8368373e-05
142	0xb84d37cb	-4.892777e-05
143	0x8000178d	-8.448e-42
144	0xbab800dd	-0.0014038343
145	0x39124274	0.00013948401
146	0xb95723d6	-0.00020517348
147	0x38dd85b1	0.00010563003
148	0xb9c741f7	-0.00038005385
149	0xb9e49fe3	-0.00043606674
150	0xba8c6761	-0.0010711962
151	0xba2c199f	-0.0006565097
152	0xbac164be	-0.0014754755
153	0x388e8a14	6.796807e-05
154	0x80006cf2	-3.9082e-41
155	0x3894a7a9	7.088419e-05
156	0xbab2942e	-0.0013624483
157	0xb88a971d	-6.6085e-05
158	0xbab1037d	-0.0013505068
159	0xb9177125	-0.00014442632
160	0xba4c8f84	-0.0007803368
161	0xb8ef3efb	-0.00011408139
162	0xb85bba70	-5.2387302e-05
163	0xb9d70539	-0.00041011887
164	0x3a2e65f7	0.0006652767
165	0x37719fce	1.4401927e-05
166	0xb9b91072	-0.00035298202
167	0xb956cf9e	-0.00020485974
168	0xb9e1d792	-0.00043075957
169	0xbab764fe	-0.001399189
170	0xb8c7f692	-9.534987e-05
171	0x399a206b	0.00029397322
172	0xb962f43c	-0.00021644024
173	0xbaa54387	-0.0012608626
174	0xba32f8e3	-0.0006827248
175	0xb8f96f9a	-0.00011894033
176	0xba51ca81	-0.0008002893
177	0xb99e6b47	-0.00030216036
178	0xb9bed8c3	-0.00036401124
179	0xbab01912	-0.0013435206
180	0x37ae980a	2.0813215e-05
181	0xba9900b8	-0.0011673188
182	0x3a8da3fd	0.0010806319
183	0xba4275c8	-0.00074180635
184	0xbae5b866	-0.0017526268
185	0x3a086821	0.00052035047
186	0xba845476	-0.0010095972
187	0xb98bf0ad	-0.00026691463
188	0xb94e6006	-0.00019681462
189	0xb925b614	-0.00015803456
190	0xb89cd075	-7.477488e-05
191	0xba0f184a	-0.00054586364
192	0xb8a099fb	-7.6580756e-05
193	0xbb2c717f	-0.0026312766
194	0x37186add	9.084787e-06
195	0xbad5886b	-0.0016291266
196	0xba342cb6	-0.00068731175
197	0xb888edb5	-6.529262e-05
198	0xb7cf93d2	-2.4745157e-05
199	0xba28c1d9	-0.0006437577
200	0x00002173	1.2e-41
201	0xbaf3cf1a	-0.001860115
202	0xb801f71e	-3.0986143e-05
203	0x37b30e22	2.1345044e-05
204	0x800040e9	-2.3285e-41
205	0xba998f6b	-0.0011715716
206	0xba5f2643	-0.00085124763
207	0xb9ebd7bc	-0.00044983428
208	0xb9c57521	-0.00037662036
209	0xbb2c2212	-0.0026265425
210	0x3710f2d9	8.639611e-06
211	0xb9b043f9	-0.0003361998
212	0xb97d80ea	-0.00024175984
213	0x39ae18de	0.00033206394
214	0xbafe2940	-0.0019390956
215	0xbaad1e92	-0.0013207963
216	0xba80f4ed	-0.0009838619
217	0x00002a93	1.5273e-41
218	0xba3ec83b	-0.00072777615
219	0xba6a2a3d	-0.00089326856
220	0xbae6eccf	-0.0017618182
221	0xbabb618d	-0.001429604
222	0xb9f910dc	-0.00047505542
223	0xbacdf227	-0.0015712426
224	0x8000238d	-1.2753e-41
225	0xba71e92d	-0.00092281663
226	0xb9ec4e37	-0.00045071702
227	0xba31bfb8	-0.00067805825
228	0xba3a9a7b	-0.00071183563
229	0xb806304b	-3.1993066e-05
230	0xb9c91612	-0.0003835415
231	0x38574518	5.1324343e-05
232	0xbb85449f	-0.004067018
233	0xba2312a4	-0.0006220734
234	0x00007f7c	4.5733e-41
235	0xbb8422d0	-0.0040324703
236	0xb9298a0d	-0.00016168524
237	0xbaa35670	-0.0012461673
238	0xb91e7d41	-0.00015114715
239	0xb9333b04	-0.00017092755
240	0xb7051ad1	-7.933661e-06
241	0xbaa892a8	-0.001286109
242	0xbada96ef	-0.0016677062
243	0xb67f786d	-3.8068058e-06
244	0xb9fc2bbb	-0.00048097767
245	0xb9d94923	-0.00041443956
246	0x352cfb18	6.444038e-07
247	0x3b8f5dac	0.00437518
248	0x36ac2b33	5.1310285e-06
249	0xbafbcf4f	-0.0019211563
250	0xb7df004e	-2.6583813e-05
251	0xbb2c38a9	-0.002627889
252	0x393adb51	0.00017820044
253	0xbb0c21ab	-0.0021382372
254	0x39c2ec77	0.00037178744
255	0xb877cb55	-5.9078757e-05

6.bias f4 [256]
0	0x9e1114e4	-7.680556e-21
1	0xbb55b0e4	-0.0032606656
2	0xbd1984c6	-0.03748014
3	0xbac37ace	-0.0014913918
4	0xbb483354	-0.0030548172
5	0x3b636c0d	0.0034701854
6	0xbb8bd88b	-0.0042677573
7	0xbb3506ed	-0.0027622536
8	0x3ac0658e	0.0014678703
9	0xb727fcb5	-1.0012814e-05
10	0xbbd7271b	-0.006565941
11	0xbbcf56fb	-0.0063275076
12	0xbd721930	-0.059106052
13	0xbb51f851	-0.0032038877
14	0xbddfbf2c	-0.10925135
15	0xbe840f06	-0.25792712
16	0x3b9d742c	0.0048051085
17	0xbc0acb33	-0.008471298
18	0x98b64d94	-4.712423e-24
19	0xbe6f66e5	-0.23379095
20	0x9c81d160	-8.590626e-22
21	0xb9821a2e	-0.00024815038
22	0xbe1ec663	-0.15505366
23	0xb887b947	-6.471812e-05
24	0x3c07f5a6	0.008298313
25	0x87bd4966	-2.84807e-34
26	0xbb6ae483	-0.003584177
27	0xbce45390	-0.027871877
28	0xbdf585d4	-0.11988416
29	0xbd6dc4ca	-0.058049
30	0xb6778612	-3.6883907e-06
31	0xba9fe7f3	-0.0012199864
32	0xbb6f686d	-0.0036530748
33	0xb990a948	-0.00027591945
34	0xaf87097b	-2.4563093e-10
35	0xbd384a51	-0.04499275
36	0xbd8cde8c	-0.06878385
37	0xa363b252	-1.23434555e-17
38	0xbd2a403e	-0.041565172
39	0xa59f9659	-2.7683983e-16
40	0xa59f220d	-2.7605177e-16
41	0xad7ef709	-1.4493081e-11
42	0xbb1d2c57	-0.0023982727
43	0x3b9cb4be	0.0047822883
44	0xb3dc3d58	-1.0255707e-07
45	0xb9346d26	-0.00017206799
46	0xb3f526c2	-1.14157515e-07
47	0xbd675ffd	-0.056488026
48	0xbc5f164b	-0.013616155
49	0xa61b03ed	-5.378175e-16
50	0xbd87fe4e	-0.06640302
51	0xbddb4420	-0.10706353
52	0xbb54aa15	-0.003245001
53	0xbe01bb9b	-0.12669222
54	0xbb8f004a	-0.004364048
55	0xbb3452b7	-0.0027515122
56	0xbd8287f2	-0.06373586
57	0xbc41e02a	-0.01183323
58	0xa823ac76	-9.085714e-15
59	0xbda656df	-0.08122038
60	0xbb39baae	-0.002834003
61	0xb7c33596	-2.3270764e-05
62	0xbafa3279	-0.0019088528
63	0x3c07b5ed	0.008283121
64	0xb13a1c18	-2.7082532e-09
65	0xb0eaf644	-1.7095734e-09
66	0xb0e2f0cb	-1.6512102e-09
67	0x3d160132	0.036622234
68	0xb34e265e	-4.7998007e-08
69	0xbd04d4a5	-0.032429356
70	0xbb11a8b0	-0.002222579
71	0xbbf66c98	-0.0075202696
72	0xb96c262f	-0.00022520938
73	0xb325ba0e	-3.8586272e-08
74	0xbab4cc17	-0.0013793734
75	0xbd826597	-0.06367033
76	0xbb667ce2	-0.003516965
77	0xbcfce240	-0.030869603
78	0x3c7f17a3	0.0155696
79	0xbbad5101	-0.0052891974
80	0xbb82b70d	-0.0039891065
81	0xb7292725	-1.0082299e-05
82	0xbddb6824	-0.107132226
83	0xbd7d08f1	-0.061776105
84	0xbdd54cc3	-0.10415032
85	0xb28c432b	-1.632869e-08
86	0xbd1be2ff	-0.038058277
87	0xbda50339	-0.08057255
88	0xbd44ad96	-0.048017107
89	0x974ae7f5	-6.556249e-25
90	0xb605b9a9	-1.9926613e-06
91	0xbb53e7c6	-0.0032334193
92	0x3cc0ca46	0.023533951
93	0xb8ad57ba	-8.265623e-05
94	0xbe2c1392	-0.1680434
95	0xa3765216	-1.3353069e-17
96	0x3ad8f0c2	0.0016551244
97	0xad32d97f	-1.0166422e-11
98	0xbd60c6a7	-0.05487695
99	0xbe04f8cb	-0.12985532
100	0x3b309e84	0.0026949951
101	0xbc8d1b54	-0.017224945
102	0xbce5ac75	-0.028036335
103	0x3d0b1117	0.033951845
104	0x3beeeb7f	0.007291257
105	0xbaadb87c	-0.0013253833
106	0xbd310d50	-0.043225586
107	0xabaf437d	-1.245323e-12
108	0x3a36767b	0.0006960404
109	0xbd7edde4	-0.06222333
110	0xa112f610	-4.9792385e-19
111	0xbd8f642a	-0.07001527
112	0xbb42e305	-0.0029737365
113	0xbd80789b	-0.06273004
114	0xbb0d726c	-0.0021583093
115	0x3d07b6ab	0.03313319
116	0xbb66536c	-0.0035144938
117	0xbd316eae	-0.043318443
118	0xb690a754	-4.311014e-06
119	0xbd35ddd1	-0.044400994
120	0xbbce115f	-0.006288692
121	0xbba28bd6	-0.0049605174
122	0xbb954989	-0.004555885
123	0xae53381f	-4.802569e-11
124	0xbb305804	-0.002690793
125	0x999ca854	-1.6198009e-23
126	0xbde156cd	-0.11002884
127	0xba6aedcf	-0.0008961828
128	0xb2006bca	-7.475089e-09
129	0xad0550a4	-7.5780805e-12
130	0xbde3d7c2	-0.11125137
131	0xbb196510	-0.0023406185
132	0xa931e1f4	-3.9497878e-14
133	0xbb4ba859	-0.0031075685
134	0xbe55145c	-0.20808548
135	0xba694ca6	-0.0008899666
136	0xbad7fbec	-0.0016478277
137	0xbbaa0e91	-0.0051897247
138	0xbb67048f	-0.003525052
139	0xbdd3b9f1	-0.103382
140	0x94ef1aa9	-2.4143348e-26
141	0xb923c570	-0.00015618443
142	0xad614293	-1.2804552e-11
143	0x3c5f5bf5	0.013632764
144	0xbb83693b	-0.004010347
145	0xb7b1861b	-2.1162492e-05
146	0xbb223e4b	-0.0024756368
147	0xba0226f8	-0.0004964913
148	0xbb4f1f19	-0.003160423
149	0xbe36ab22	-0.1783872
150	0xa685f01b	-9.29381e-16
151	0xba574a6d	-0.00082126894
152	0x3cbbfd3d	0.022947902
153	0xbdb8f0a0	-0.090302706
154	0x3d5eda0c	0.054407164
155	0x3db0e942	0.086382404
156	0xb195bc60	-4.3578865e-09
157	0xbd520df2	-0.05128283
158	0xbb19434f	-0.0023386066
159	0xbcc43447	-0.023950709
160	0xa4970d2f	-6.5508145e-17
161	0xbd6df496	-0.058094583
162	0x9bbdb1a1	-3.1382217e-22
163	0xbd476abe	-0.04868578
164	0xbc86c431	-0.016450973
165	0xbcb7b022	-0.022422854
166	0xa89b56a2	-1.7246028e-14
167	0xbd8d34b6	-0.068948194
168	0x9a90a294	-5.9819663e-23
169	0xb7a22cf6	-1.9332841e-05
170	0xbd90a863	-0.07063367
171	0xb31a6875	-3.5950922e-08
172	0xbc1761a5	-0.009239589
173	0x8f36b7fb	-9.008726e-30
174	0x3b068d0e	0.0020530852
175	0xb1c8a552	-5.839561e-09
176	0xb883110c	-6.249742e-05
177	0xaf30995e	-1.6061594e-10
178	0xbcb75d06	-0.022383224
179	0xbdae6250	-0.08514845
180	0xb86c0151	-5.626801e-05
181	0xbcc377d1	-0.023860844
182	0xb3c80c50	-9.3154654e-08
183	0xbe13add1	-0.14421774
184	0xbddc0350	-0.10742819
185	0xbdcfc8e7	-0.10145741
186	0xbc148146	-0.009064024
187	0xb78b5ac6	-1.6612361e-05
188	0xbe009167	-0.12555467
189	0xbe3d5aea	-0.18491712
190	0xbd898049	-0.067139216
191	0xa89e7a4e	-1.7594565e-14
192	0xbb8f4899	-0.004372668
193	0xbb3d5523	-0.0028889857
194	0xb83f7511	-4.5646975e-05
195	0xbbfbdb81	-0.007686079
196	0xab33340c	-6.3665804e-13
197	0xb59f105e	-1.1851187e-06
198	0xbdb5becf	-0.088742845
199	0xbe28a683	-0.16469769
200	0xb989b5a9	-0.00026266024
201	0xbd401030	-0.046890438
202	0xb8d77082	-0.00010272955
203	0xbb670016	-0.0035247854
204	0xafdf9664	-4.0670323e-10
205	0xbe1ca8f0	-0.1529882
206	0xba8f51f9	-0.0010934464
207	0xbd5954b9	-0.053059313
208	0xb45ec318	-2.0746336e-07
209	0xb88d9125	-6.750439e-05
210	0xbdc6378b	-0.09678563
211	0xbc8a26f0	-0.01686427
212	0xbcfe6c7e	-0.031057592
213	0xb7185917	-9.080649e-06
214	0xa6ee3133	-1.6527903e-15
215	0xbe07eee9	-0.1327473
216	0x9c846f30	-8.763769e-22
217	0xbb5d3c20	-0.003375776
218	0xbe26ed3d	-0.16301437
219	0xbaa83151	-0.001283208
220	0x88383318	-5.5430546e-34
221	0xbe3490dc	-0.17633384
222	0xa6c3e7aa	-1.3593636e-15
223	0xbda869f8	-0.08223337
224	0xbdf0da59	-0.117603965
225	0xbe85607c	-0.26050174
226	0xad16edd5	-8.579322e-12
227	0x3d75cb21	0.060008172
228	0xbccacc8c	-0.024755739
229	0xaa2648bb	-1.4768995e-13
230	0xbb1c7906	-0.0023875847
231	0xbde27a44	-0.110584766
232	0xbb3655f9	-0.002782224
233	0xb2ca00d9	-2.351628e-08
234	0x3ce0d0cd	0.027443314
235	0xb660dc30	-3.3506767e-06
236	0xbd24cd30	-0.040234745
237	0xbd1d2d72	-0.03837342
238	0x9386532f	-3.390838e-27
239	0xbdca1a5d	-0.0986831
240	0xbd828c98	-0.063744724
241	0xbd45919b	-0.048234563
242	0x3d86e2d9	0.065862365
243	0xbc7cd82d	-0.0154324
244	0xba6dad8a	-0.0009066692
245	0xbe113ad5	-0.14182599
246	0x3cef72c3	0.029229527
247	0x9dc26c57	-5.1463393e-21
248	0xbb20a663	-0.0024513237
249	0xba6df0d8	-0.0009076721
250	0xbceb542a	-0.028726656
251	0xb772ae24	-1.4464869e-05
252	0x902f3e16	-3.4560494e-29
253	0x3c5f67de	0.013635604
254	0xbb7ee94d	-0.0038896382
255	0x3d448156	0.047974907

8.weight f4 [128, 256]
0	0x00009ff8	5.7386e-41
1	0x0000998b	5.5081e-41
2	0x00000103	3.63e-43
3	0x8000a424	-5.8883e-41
4	0x00004815	2.5858e-41
5	0x80000860	-3.004e-42
6	0x17025acf	4.211988e-25
7	0x80003dbe	-2.2149e-41
8	0x00001297	6.669e-42
9	0x000010f9	6.089e-42
10	0x800094b8	-5.335e-41
11	0x00000e74	5.185e-42
12	0x00001369	6.963e-42
13	0x00009ed1	5.6973e-41
14	0x00001529	7.591e-42
15	0x80001953	-9.085e-42
16	0x8f8c1dde	-1.381657e-29
17	0x95f6d027	-9.9687015e-26
18	0x000007c8	2.791e-42
19	0x800003c8	-1.356e-42
20	0x00002a39	1.5147e-41
21	0x80002a31	-1.5135e-41
22	0x80000e13	-5.049e-42
23	0x80002b0c	-1.5442e-41
24	0x000017aa	8.489e-42
25	0x000007bb	2.773e-42
26	0x800022ad	-1.244e-41
27	0x80001ae1	-9.642e-42
28	0x800028b4	-1.4602e-41
29	0x80000710	-2.534e-42
30	0x0000a14b	5.7861e-41
31	0x00008e03	5.0944e-41
32	0x800088cb	-4.9072e-41
33	0x00005535	3.0567e-41
34	0x00008266	4.6778e-41
35	0x000012a1	6.683e-42
36	0x800013eb	-7.145e-42
37	0x0000a119	5.7791e-41
38	0x00000a73	3.748e-42
39	0x00007710	4.2712e-41
40	0x000094b0	5.3339e-41
41	0x80009795	-5.4377e-41
42	0x00001366	6.959e-42
43	0x000006e1	2.468e-42
44	0x00001810	8.632e-42
45	0x0000647f	3.6051e-41
46	0x0000170e	8.27e-42
47	0x800019c6	-9.246e-42
48	0x0ce9d060	3.6024745e-31
49	0x80002186	-1.2026e-41
50	0x800008ad	-3.112e-42
51	0x00000fdb	5.688e-42
52	0x00001d96	1.0613e-41
53	0x800020e7	-1.1803e-41
54	0x00008a3c	4.9589e-41
55	0x80007c42	-4.4575e-41
56	0x000011bd	6.363e-42
57	0x00000887	3.059e-42
58	0x8000616a	-3.4946e-41
59	0x00000081	1.81e-43
60	0x800055cd	-3.078e-41
61	0x000099f1	5.5224e-41
62	0x8000a5cb	-5.9475e-41
63	0x8000172c	-8.313e-42
64	0x80009b53	-5.572e-41
65	0x0000a667	5.9694e-41
66	0x00002fe1	1.7176e-41
67	0x00001413	7.201e-42
68	0x80004017	-2.2991e-41
69	0x00000c59	4.43e-42
70	0x8000a416	-5.8863e-41
71	0x00000ae5	3.908e-42
72	0x80008d31	-5.065e-41
73	0x00002ca9	1.6021e-41
74	0x000007c9	2.793e-42
75	0x000019ee	9.302e-42
76	0x00002190	1.204e-41
77	0x80000613	-2.179e-42
78	0x80000bdd	-4.256e-42
79	0x80001983	-9.152e-42
80	0x00006b41	3.8475e-41
81	0x00000103	3.63e-43
82	0x8000154c	-7.64e-42
83	0x00000595	2.002e-42
84	0x800008d5	-3.168e-42
85	0x00007c85	4.4669e-41
86	0x00000953	3.345e-42
87	0x80001060	-5.874e-42
88	0x80001470	-7.332e-42
89	0x8000101d	-5.78e-42
90	0x00005837	3.1646e-41
91	0x8000570e	-3.123e-41
92	0x800003ca	-1.359e-42
93	0x00006bb2	3.8634e-41
94	0x80000ac9	-3.869e-42
95	0x000003d1	1.369e-42
96	0x80000080	-1.8e-43
97	0x80001e94	-1.097e-41
98	0x800023be	-1.2822e-41
99	0x00000090	2.02e-43
100	0x80000359	-1.201e-42
101	0x800017b8	-8.509e-42
102	0x800013da	-7.121e-42
103	0x800014a2	-7.402e-42
104	0x80000f0b	-5.396e-42
105	0x00000f41	5.472e-42
106	0x00000b84	4.131e-42
107	0x00000764	2.651e-42
108	0x8000165e	-8.024e-42
109	0x00000279	8.87e-43
110	0x80004791	-2.5673e-41
111	0x00000aa5	3.819e-42
112	0x0000a267	5.8259e-41
113	0x80001355	-6.935e-42
114	0x000013d5	7.114e-42
115	0x00000761	2.647e-42
116	0x0000418d	2.3515e-41
117	0x800022d7	-1.2498e-41
118	0x800014d8	-7.477e-42
119	0x11368bf1	1.4400391e-28
120	0x000015fc	7.887e-42
121	0x00009f32	5.7109e-41
122	0x0000011e	4.01e-43
123	0x0000136d	6.969e-42
124	0x00000f47	5.48e-42
125	0x0000a4dc	5.914e-41
126	0x80000f05	-5.388e-42
127	0x80005644	-3.0946e-41
128	0x80008d0e	-5.0601e-41
129	0x00000899	3.084e-42
130	0x800013c2	-7.088e-42
131	0x000097b5	5.4422e-41
132	0x00003cfb	2.1876e-41
133	0x00008f38	5.1377e-41
134	0x00000838	2.948e-42
135	0x0000a6aa	5.9788e-41
136	0x80008def	-5.0916e-41
137	0x800079a7	-4.364e-41
138	0x80008fee	-5.1632e-41
139	0x80001e8d	-1.096e-41
140	0x80004a44	-2.6641e-41
141	0x80003901	-2.0449e-41
142	0x00002a3a	1.5148e-41
143	0x00001447	7.274e-42
144	0x80000fff	-5.738e-42
145	0x00007881	4.3229e-41
146	0x0000603c	3.4522e-41
147	0x00001d7c	1.0577e-41
148	0x80003730	-1.9798e-41
149	0x000003d6	1.376e-42
150	0x8000ac82	-6.1884e-41
151	0x000089f1	4.9484e-41
152	0x8000163c	-7.976e-42
153	0x00001e71	1.092e-41
154	0x0000011e	4.01e-43
155	0x8000009d	-2.2e-43
156	0x00009775	5.4333e-41
157	0x80001585	-7.72e-42
158	0x000087e9	4.8755e-41
159	0x00001389	7.008e-42
160	0x0000a1bf	5.8024e-41
161	0x80000d0a	-4.678e-42
162	0x00006bd3	3.868e-41
163	0x9a415060	-3.997639e-23
164	0x800008b8	-3.128e-42
165	0x0000042d	1.498e-42
166	0x00007dea	4.517e-41
167	0x0000152a	7.592e-42
168	0x000096ae	5.4054e-41
169	0x0000876a	4.8577e-41
170	0x0000037c	1.25e-42
171	0x000086ea	4.8398e-41
172	0x80000049	-1.02e-43
173	0x8000ac39	-6.1782e-41
174	0x0000177f	8.429e-42
175	0x000050cf	2.8989e-41
176	0x8000a2f3	-5.8455e-41
177	0x000096ba	5.407e-41
178	0x940bb674	-7.053689e-27
179	0x00000de3	4.982e-42
180	0x00003a79	2.0976e-41
181	0x00000068	1.46e-43
182	0x00009d87	5.651e-41
183	0x0000151b	7.571e-42
184	0x80000e71	-5.18e-42
185	0x0000041c	1.474e-42
186	0x0000150b	7.549e-42
187	0x8000a0c3	-5.767e-41
188	0x00001667	8.036e-42
189	0x80000166	-5.02e-43
190	0x800022b7	-1.2453e-41
191	0x8000a5e5	-5.9512e-41
192	0x80000e3a	-5.104e-42
193	0x800096ac	-5.4051e-41
194	0x00000d6e	4.818e-42
195	0x80003ece	-2.253e-41
196	0x80009aa3	-5.5473e-41
197	0x00002f51	1.6974e-41
198	0x80000891	-3.073e-42
199	0x00000a57	3.709e-42
200	0x8000a48c	-5.9028e-41
201	0x800013d8	-7.119e-42
202	0x000082ce	4.6924e-41
203	0x80008955	-4.9265e-41
204	0x80002746	-1.4089e-41
205	0x000004a7	1.669e-42
206	0x0000a2c4	5.839e-41
207	0x800007ee	-2.845e-42
208	0x000077cc	4.2975e-41
209	0x000024e8	1.324e-41
210	0x000018a0	8.834e-42
211	0x8000179c	-8.47e-42
212	0x8000081e	-2.912e-42
213	0x80001ed5	-1.106e-41
214	0x800007f7	-2.857e-42
215	0x00000c5b	4.432e-42
216	0x80002ef2	-1.6841e-41
217	0x00009219	5.241e-41
218	0x00000a5c	3.716e-42
219	0x800030ca	-1.7502e-41
220	0x80006c57	-3.8865e-41
221	0x000013e1	7.131e-42
222	0x00000747	2.61e-42
223	0x800013ae	-7.06e-42
224	0x00000d73	4.825e-42
225	0x80000043	-9.4e-44
226	0x00008cf3	5.0563e-41
227	0x0000013d	4.44e-43
228	0x80000835	-2.944e-42
229	0x80009de9	-5.6647e-41
230	0x80004fbc	-2.8603e-41
231	0x00000488	1.626e-42
232	0x00002ab5	1.532e-41
233	0x80004a7d	-2.6721e-41
234	0x00001979	9.138e-42
235	0x80002d3b	-1.6226e-41
236	0x0000141d	7.215e-42
237	0x0000177f	8.429e-42
238	0x80002ef1	-1.684e-41
239	0x00001601	7.894e-42
240	0x8000145c	-7.304e-42
241	0x80000f7b	-5.553e-42
242	0x000011aa	6.337e-42
243	0x000017be	8.517e-42
244	0x0000297f	1.4886e-41
245	0x80000c41	-4.396e-42
246	0x0000154f	7.644e-42
247	0x00002f7a	1.7031e-41
248	0x00006d2f	3.9168e-41
249	0x00000ff2	5.72e-42
250	0x80000793	-2.717e-42
251	0x00004ff7	2.8686e-41
252	0x80008234	-4.6708e-41
253	0x000012f7	6.803e-42
254	0x80000f63	-5.52e-42
255	0x8000149c	-7.393e-42
