Models/checkpoint10.pth (torch, 547023 bytes, 8 tensors)

0.weight f4 [256, 13]
0.03525279 -0.43100235 0.12677917 0.4864002 -0.38437164 0.046616286 -0.19938554 0.0075959554
-0.124567926 -0.04713436 0.039161537 0.17464615 0.088864416 -0.017111352 0.004774851 0.084426604
0.09891361 0.097386055 0.45006812 -0.22342762 -1.3719085 -0.19320485 0.008735098 -0.0653719
0.015825724 -0.031509943 0.01893992 0.10568204 -0.19044615 0.2162826 0.13941406 0.11020925
0.1492224 -0.964886 -0.4524184 -0.16233696 0.009327161 -0.05363732 0.18073551 -0.027567474
0.16816418 -0.04975231 0.046987645 0.028380701 -0.08633052 0.17561631 0.6482939 0.2979952
-0.10721131 -0.11702155 -0.29259816 -0.14922677 0.0025043383 -0.0036349716 0.14352779 0.18291576
-0.037762333 -0.03442528 0.08212788 0.40972033 -0.1579511 0.10210874 0.047154464 0.12731335
-0.0476351 -0.021109313 -0.012391651 -0.012404058 0.021935746 -0.44435224 0.35822418 -0.12642771
-0.04057022 -0.17667818 0.17334798 0.03962393 0.030527545 -0.0046589966 -0.24343103 0.26175037
-0.15108846 -0.17033389 -0.18302387 -0.012760851 0.3824902 -1.1004139 -1.2240663 -0.0943329
0.021847222 0.2514627 0.037100382 -0.47645956 0.15550758 0.07491917 -0.21770349 -0.05866867
0.34121624 -0.23367526 -0.34683105 1.2896901 0.038479853 -0.025296053 0.005978597 -0.09994114
-0.062008806 -0.41230834 0.29635993 -0.08933895 0.25729567 0.05061686 0.13350637 1.1695791
0.66042745 -0.5631885 -0.22193198 0.18485335 0.2183914 0.005565517 -0.47487214 -0.36300787
-0.29517105 -0.052507963 0.19484274 -0.09421093 1.1324313 0.25821415 -0.18435125 0.0883292
0.23652807 0.33421403 -0.004358569 0.2327029 0.24014314 0.29434776 0.26055688 0.22819497
0.05581406 0.7839322 -0.9027239 0.031568173 -0.12151081 -0.14727452 -0.158705 -0.021473104
0.08254386 -0.0014569019 -0.096657075 -0.008749496 0.14341477 0.28274536 -1.040428 0.008840613
0.015465455 0.047036275 -0.5054481 0.07580994 -0.11621202 -0.22383972 0.2562759 -0.5690527
-0.4007108 -0.055142608 0.07392704 0.50583243 0.004801425 -0.10377187 -0.0595271 -0.11535694
-0.35154405 -0.07457656 -0.056997683 0.015919968 0.06504035 0.03420845 0.2598731 0.47540197
0.7830918 -0.32250196 -0.26981077 0.49158773 -0.12261519 -0.16671644 -0.34799138 -0.11255696
-0.24811189 0.23393597 -0.3149543 -0.40047896 -0.113647394 -1.3810954 -0.13768327 -0.30232504
-0.17448702 -0.051662315 0.13938515 -0.22754726 0.12682067 0.12620641 0.29012764 -0.3381051
0.13742094 -0.2661305 1.0948757 -0.39453596 0.08101559 0.18911429 0.14188826 0.014693865
0.007293715 0.09924206 0.0071813823 -0.20578913 -0.53176236 0.39646086 0.111553006 0.5349172
1.0409225 -0.16714443 -0.024081016 -0.0029969816 0.037873976 0.036634106 -0.5681333 -0.4736546
0.41880372 -0.40798688 -0.109509595 0.28361022 0.115997374 0.21023586 -0.03994792 0.012405757
0.028460452 -0.017410321 -0.035801742 0.17408861 -0.1007998 0.23401533 0.11792241 -0.2139183
-0.26547107 -0.64334595 -0.52702135 0.09908784 -0.072946586 0.010637098 -0.2756935 -0.33410805
-0.17556156 0.330444 0.37640145 -0.20417497 0.3083482 0.2250964 -0.7001323 -0.36591664
00000000: 3b65 103d 57ac dcbe 66d2 013e 7209 f93e
00000010: 5ccc c4be b8f0 3e3d b92b 4cbe 7ee7 f83b
00000020: 781d ffbd f50f 41bd d967 203d 71d6 323e
00000030: 8cfe b53d 1b2d 8cbc 5a76 9c3b dbe7 ac3d
00000040: 3893 ca3d 5772 c73d 546f e63e 36ca 64be
00000050: b39a afbf 7ed7 45be a81d 0f3c b4e1 85bd
00000060: f3a4 813c 9210 01bd e427 9b3c d36f d83d
00000070: 5104 43be 3079 5d3e 8fc2 0e3e 63b5 e13d
00000080: c2cd 183e c502 77bf 62a3 e7be a93b 26be
00000090: f3d0 183c ceb2 5bbd bb12 393e 2fd5 e1bc
000000a0: 3b33 2c3e 14c9 4bbd 1e76 403d a57e e83c
000000b0: 0ece b0bd c3d4 333e 97f6 253f d492 983e
000000c0: 9a91 dbbd ffa8 efbd 6dcf 95be e7ce 18be
000000d0: d31f 243b b438 6ebb f3f8 123e 454e 3b3e
000000e0: adac 1abd 8601 0dbd a932 a83d ddc6 d13e
000000f0: efbd 21be 631e d13d 0a25 413d 6e5e 023e
00000100: 061d 43bd 70ed acbc 5a06 4bbc 643a 4bbc
00000110: 98b2 b33c 2382 e3be 2969 b73e 4476 01be
00000120: f62c 26bd 20eb 34be 2282 313e b44c 223d
00000130: e714 fa3c 7faa 98bb fc45 79be 2504 863e
00000140: efb6 1abe 026c 2ebe 9c6a 3bbe e312 51bc
00000150: c1d5 c33e 5dda 8cbf 34ae 9cbf 9c31 c1bd
00000160: f2f8 b23c b8bf 803e 92f6 173d 82f2 f3be
00000170: 613d 1f3e 396f 993d aaed 5ebe 8f4e 70bd
00000180: e5b3 ae3e 9148 6fbe d793 b1be 9114 a53f
00000190: 0d9d 1d3d ab39 cfbc 1be8 c33b f1ad ccbd
000001a0: f2fc 7dbd 141a d3be 7dbc 973e 57f7 b6bd
000001b0: 42bc 833e a053 4f3d e5b5 083e c5b4 953f
000001c0: c611 293f 1f2d 10bf 2342 63be 324a 3d3e
000001d0: ffa1 5f3e f15e b63b 7122 f3be 2bdc b9be
000001e0: a920 97be 9712 57bd db84 473e a9f1 c0bd
000001f0: 82f3 903f a534 843e 93c6 3cbe f1e5 b43d
00000200: 6a34 723e 1a1e ab3e 54d2 8ebb ab49 6e3e
00000210: 15e8 753e c0b4 963e b667 853e f1ab 693e
00000220: 499d 643d c8af 483f ea18 67bf a14d 013d
00000230: a9da f8bd 22cf 16be 9083 22be 5de8 afbc
00000240: c10c a93d 84f5 beba 25f4 c5bd 0c5a 0fbc
00000250: 52db 123e 00c4 903e bf2c 85bf 38d8 103c
00000260: d262 7d3c 1ca9 403d 0c65 01bf 3e42 9b3d
00000270: 9100 eebd 3d36 65be 9836 833e 70ad 11bf
00000280: f729 cdbe 37dd 61bd 0f67 973d 3c7e 013f
00000290: 4655 9d3b 5986 d4bd b0d2 73bd 4240 ecbd
000002a0: 95fd b3be 98bb 98bd 6776 69bd 986a 823c
000002b0: e033 853d 291e 0c3d 160e 853e e367 f33e
000002c0: b478 483f fa1e a5be a324 8abe 63b1 fb3e
000002d0: ac1d fbbd b7b7 2abe ed2b b2be 4384 e6bd
000002e0: 0b11 7ebe e98c 6f3e b141 a1be 940b cdbe
000002f0: f7bf e8bd bcc7 b0bf d8fc 0cbe 59ca 9abe
00000300: baac 32be dd9b 53bd fbba 0e3e 2602 69be
00000310: 47dd 013e 413c 013e 9c8b 943e 1d1c adbe
00000320: 13b8 0c3e 4242 88be e324 8c3f 9e00 cabe
00000330: 80eb a53d 2da7 413e 284b 113e 89be 703c
00000340: 1e00 ef3b 6c3f cb3d cd51 eb3b 63ba 52be
00000350: 9421 08bf ebfc ca3e e775 e43d 55f0 083f
00000360: f33c 853f e927 2bbe 8d45 c5bc 0269 44bb
00000370: be21 1b3d a50d 163d 2f71 11bf db82 f2be
00000380: 716d d63e a8e3 d0be 9146 e0bd 5c35 913e
00000390: 0890 ed3d 1248 573e 6ea0 23bd 8441 4b3c
000003a0: e525 e93c 17a0 8ebc d9a4 12bd 4944 323e
000003b0: 2070 cebd b7a1 6f3e 4e81 f13d 660d 5bbe
000003c0: d3eb 87be 52b2 24bf dfea 06bf 91ee ca3d
000003d0: 0565 95bd 3947 2e3c b327 8dbe 3610 abbe
000003e0: 69c6 33be f52f a93e b1b7 c03e 3e13 51be
000003f0: d1df 9d3e ac7f 663e df3b 33bf 6d59 bbbe

0.bias f4 [256]
-0.14483526 0.1377331 -0.85138994 -0.67221045 0.47964844 0.015585636 0.24794018 0.17463005
-0.18587948 -0.2552074 -0.25864395 -0.42127147 -0.19051054 -0.3871534 0.059057478 -0.33695835
0.1485221 -0.6038322 -0.14081381 0.41597742 0.30150285 0.18853763 -0.20430984 0.23216759
0.52012795 -0.08559754 -0.014539044 -0.21435869 -0.80466783 0.6028251 0.119076476 -0.11788622
-0.25176442 -0.9067713 -0.2606575 0.53019625 0.51817995 -0.88579893 -0.3453263 0.39155555
0.021291882 0.658464 -0.021951497 -0.26980168 -0.24852459 -0.31858972 0.2889317 0.01989835
-1.0379266 0.41154954 -0.122206554 0.41334724 -0.12064951 0.28386518 0.38427445 -0.27495942
-0.6250522 -0.5233612 0.31636277 0.040172108 0.045583654 -0.82329386 0.17913067 0.18615451
0.25296798 -0.014149815 -0.625749 0.022977713 -0.6147542 -1.0445014 -0.68279326 -0.5117092
-0.3645235 0.38349622 -0.46448264 0.13987607 -0.65097946 -0.3379868 -0.4704761 0.12335078
-0.22000326 0.23462968 0.2837229 0.29204547 0.6852772 -0.7010484 -0.52336913 0.21347687
-0.119040504 -0.3616393 0.72834647 0.5337951 0.32138085 0.2556348 -0.013526391 0.19802433
0.60787493 0.33923152 -0.17906049 -0.31983384 -0.752555 -0.15347399 0.3033656 -0.5723022
-0.18036072 0.22934031 -0.5704301 -0.18117495 0.7791775 0.69343066 -0.27941024 0.16012113
0.07067327 -0.6709283 -0.1899308 -0.3617144 0.39830104 0.8110412 -0.41405246 0.17857338
0.5689873 -0.24165258 0.5539371 -0.23981565 0.095018394 0.4931462 -0.063190274 -0.8428436
-0.14357518 -0.99105227 -0.27077675 0.83004105 -0.42590573 -0.07839627 0.25270903 0.29120624
-0.8162449 -0.029918183 -0.50826275 -0.9402772 0.52243197 -0.6711714 0.319944 -0.113171674
0.55923074 0.09753769 -0.3890046 0.07620712 0.09353839 0.06465788 0.044690147 0.32545048
-0.5824843 -0.99203604 -1.0262601 0.36961883 -0.24059945 0.539663 -0.82323635 -0.42340827
-0.23207319 -0.9763275 -0.34449276 -0.31823006 0.051294353 -0.2551039 -0.9773472 0.6416689
0.15102775 -0.1514494 0.29651254 0.75953305 0.6685836 -0.26719558 -0.639896 0.2398913
-0.42627499 0.32073042 0.46978712 -0.13209185 0.2599556 0.045831267 0.4214294 -0.3386787
0.39905357 -0.31542242 0.09794883 0.58287734 0.3842123 0.17335793 0.75184876 0.7052669
-1.1644439 -0.5201428 0.0059397486 0.12156812 0.13705172 -0.00485178 0.27168873 -0.42045695
-0.3993847 0.4321395 -0.026360422 -0.40535837 0.28381777 -0.3448365 -0.15826055 0.34598756
-0.37431973 -0.2002409 0.1301524 0.26914683 -0.17556505 0.061076846 0.12449837 0.07517672
-1.0382262 -0.6144705 -0.11132354 0.9265158 -0.15806516 -0.15116747 0.5822522 -0.28356177
0.38487676 -0.5169962 0.94823015 0.4847186 -0.2018769 -0.06879045 -0.10819143 -0.028677022
0.23201236 -0.043203007 -0.7924267 -0.59121794 0.2225158 0.34711403 0.7529559 -0.22456585
-0.59846246 -0.36772937 -0.2829897 -0.9024052 0.11320718 0.12161473 0.06522347 -0.2974284
-0.96094173 -0.88000077 -0.86835515 -0.87528145 -0.92759097 0.4986808 -0.519543 -0.14585835
00000000: b24f 14be e809 0d3e b1f4 59bf fc15 2cbf
00000010: 7b94 f53e e55a 7f3c 08e4 7d3e 38d2 323e
00000020: 3157 3ebe 8baa 82be fb6c 84be e5b0 d7be
00000030: 3215 43be f838 c6be 41e6 713d ce85 acbe
00000040: 2d16 183e bf94 1abf 7f31 10be fefa d43e
00000050: 955e 9a3e 0210 413e 9936 51be 57bd 6d3e
00000060: 1b27 053f c34d afbd 2c35 6ebc d880 5bbe
00000070: b6fe 4dbf bf52 1a3f 5ede f33d 556e f1bd
00000080: 44e7 80be 2a22 68bf e674 85be f1ba 073f
00000090: 71a7 043f b8c3 62bf 9cce b0be f879 c83e
000000a0: 506c ae3c 1991 283f a0d3 b3bc 7223 8abe
000000b0: 3b7d 7ebe 311e a3be dbee 933e dd01 a33c
000000c0: c7da 84bf 9fb6 d23e 6e47 fabd 40a2 d33e
000000d0: 1717 f7bd c756 913e 9fbf c43e 7bc7 8cbe
000000e0: 6c03 20bf 00fb 05bf 4dfa a13e 828b 243d
000000f0: edb5 3a3d 63c3 52bf 086e 373e 4a9f 3e3e
00000100: 0585 813e a0d4 67bc 1631 20bf c23b bc3c
00000110: 8860 1dbf 39b2 85bf 8acb 2ebf 60ff 02bf
00000120: d3a2 babe 9e59 c43e abd0 edbe ac3b 0f3e
00000130: 97a6 26bf 9b0c adbe 3ee2 f0be 559f fc3d
00000140: 8948 61be c342 703e 2144 913e fc86 953e
00000150: 546e 2f3f e877 33bf 85fb 05bf ae99 5a3e
00000160: 82cb f3bd c928 b9be ea74 3a3f cca6 083f
00000170: 088c a43e 91e2 823e cc9d 5dbc e4c6 4a3e
00000180: b19d 1b3f c1af ad3e a25b 37be 43c1 a3be
00000190: 72a7 40bf 4928 1dbe bc52 9b3e 6682 12bf
000001a0: 7bb0 38be 30d8 6a3e b507 12bf ed85 39be
000001b0: 2d78 473f ac84 313f dc0e 8fbe cbf6 233e
000001c0: 26bd 903d f5c1 2bbf 387d 42be a132 b9be
000001d0: 1dee cb3e 65a0 4f3f affe d3be f1db 363e
000001e0: 27a9 113f c673 77be d2ce 0d3f 3c92 75be
000001f0: 0199 c23d a97d fc3e e769 81bd 99c4 57bf
00000200: 5f05 13be 9ab5 7dbf 40a3 8abe 927d 543f
00000210: 5110 dabe 398e a0bd 1463 813e fc18 953e
00000220: 6df5 50bf fa16 f5bc 821d 02bf 02b6 70bf
00000230: 1abe 053f e4d1 2bbf b3cf a33e 8dc6 e7bd
00000240: bf29 0f3f d7c1 c73d 9c2b c7be 7b12 9c3d
00000250: 0e91 bf3d 5a6b 843d 040d 373d 72a1 a63e
00000260: b11d 15bf 13f6 7dbf 7e5c 83bf ae3e bd3e
00000270: b45f 76be 5b27 0a3f 9ebf 52bf f8c8 d8be
00000280: 98a4 6dbe 99f0 79bf 5b61 b0be 0def a2be
00000290: 071a 523d fa9c 82be 6d33 7abf 6a44 243f
000002a0: 05a7 1a3e 8d15 1bbe 7ed0 973e c270 423f
000002b0: 4b28 2b3f dccd 88be 39d0 23bf 11a6 753e
000002c0: b740 dabe c736 a43e f087 f03e 1643 07be
000002d0: e718 853e 91b9 3b3d 98c5 d73e 4b67 adbe
000002e0: c050 cc3e 0c7f a1be 6599 c83d 7337 153f
000002f0: 79b7 c43e be84 313e 2979 403f 5f8c 343f
00000300: 7f0c 95bf 1428 05bf 39a2 c23b b5f8 f83d
00000310: 4957 0c3e aefb 9ebb c91a 8b3e 2246 d7be
00000320: 277c ccbe 6341 dd3e d0f1 d7bc 228b cfbe
00000330: 9050 913e 698e b0be 0e0f 22be 4825 b13e
00000340: d6a6 bfbe f30b 4dbe ac46 053e 9dcd 893e
00000350: 53c7 33be b72b 7a3d 00f9 fe3d 41f6 993d
00000360: 99e4 84bf f04d 1dbf 99fd e3bd 2430 6d3f
00000370: d5db 21be a5cb 1abe 7b0e 153f 022f 91be
00000380: 910e c53e dd59 04bf 36bf 723f 092d f83e
00000390: d1b8 4ebe 02e2 8cbd 7893 ddbd 13ec eabc
000003a0: a694 6d3e a3f5 30bd 7adc 4abf 0f5a 17bf
000003b0: 2fdb 633e eeb8 b13e b8c1 403f 97f4 65be
000003c0: d634 19bf 0647 bcbe 07e4 90be 0704 67bf
000003d0: 2ad9 e73d 2511 f93d e293 853d 8948 98be
000003e0: 4700 76bf bb47 61bf 864c 5ebf 7212 60bf
000003f0: 9a76 6dbf 1753 ff3e c500 05bf e45b 15be

2.weight f4 [256, 256]
-0.08730304 -0.021334758 0.091102555 0.011768367 0.11477657 0.16213025 -0.032067284 -0.07075341
0.06663876 0.21540748 -0.15730943 0.1334204 0.2711828 -0.13296692 -0.0030214463 -0.12838925
0.028015355 -0.114296824 -0.09620798 -0.28063738 0.023343107 0.07262449 -0.3793975 0.19206095
-0.5410777 -0.2432921 -0.04024384 -0.050843578 0.11150175 0.120696224 0.08047566 -0.04192025
-0.1362843 0.018658463 -0.2608873 0.105434895 0.21332867 -0.3566957 0.010799239 -0.03612133
-0.1793649 0.08904589 -0.1923233 0.20784435 0.14200987 0.06828175 -0.025393741 -0.0051417043
0.036310934 -0.10517396 -0.281376 0.0001487578 -0.060080312 0.14518951 0.046012376 0.26943552
-0.033360474 0.03579155 0.024797851 -0.13030063 0.033382315 -0.0074220193 -0.041357923 -0.13628085
0.16287279 -0.5663996 -0.11378328 0.041991647 -0.043169554 0.2002652 0.030765928 0.09451983
-0.051710635 0.085553795 -0.28322628 -0.18428725 -0.13723944 -0.23026551 0.19756886 -0.23895626
-0.089536436 0.042488635 -0.046862982 0.15143013 -0.38130832 0.053638533 -0.074709535 0.08689651
0.18454787 -0.14781155 -0.09000959 0.026329761 0.038301926 0.13253956 -0.09629701 -0.009222501
-0.16363473 -0.0144238155 -0.3513984 0.056468006 -0.31780797 0.091083735 -0.023409987 0.1935323
0.08352563 -0.1036247 0.060234033 -0.67910457 -0.06598305 0.1153783 0.14614834 -0.116532885
-0.032714088 -0.2112482 -0.03637375 0.06015003 0.026526274 -0.3530361 0.061773103 -0.017990928
0.1164402 0.051132232 -0.01201958 -0.11175771 0.11708368 -0.059689134 -0.33949196 -0.096286245
0.057461485 0.0988156 -0.012936096 0.061134767 0.12912846 0.0656456 -0.072204925 -0.4444144
0.04537499 -0.2001021 -0.065526634 -0.080656804 -0.0084747225 0.07217166 -0.39372274 0.34981653
0.045401033 0.0066872844 -0.21558017 -0.015850183 0.078393586 -0.2605923 -0.08613932 0.025832903
0.05799601 0.19384445 -0.03271378 0.014296029 -0.20684831 0.054031808 0.013231943 0.016245246
-0.10724726 0.07593465 0.17939734 0.098761335 0.0020014439 0.053859565 0.059664357 0.057970595
-0.525248 0.09472598 -0.013531922 0.08618499 0.11597899 -0.25205147 0.034298614 -0.25351557
0.1699592 0.08909826 0.085771196 -0.07678841 -0.04449401 0.053862117 0.038469907 0.09309172
0.11818525 -0.67127687 -0.041048955 -0.14190486 -0.0060127466 0.18665063 -0.21367042 0.14018396
-0.098149434 0.099985994 -0.2708123 -0.2079566 -0.16762078 0.03875023 0.047781225 -0.124287985
0.1296612 0.07588334 -0.08823425 0.11279517 -0.24329588 -0.043109506 -0.43820336 0.1190024
0.25339708 -0.15295 0.04219585 -0.17852288 -0.24876046 0.13358204 0.13191894 -0.20775478
0.07849766 0.032330357 -0.046102393 -0.030608904 -0.21186668 -0.249242 -0.32976374 0.0033048838
-0.21642381 -0.00919383 0.04047073 0.027305737 -0.06333872 -0.049031086 -0.20144486 0.065168366
-0.3456929 -0.2928717 -0.15699148 0.133522 0.41084737 0.023045298 0.06354714 0.07891629
0.02731874 -0.20453943 -0.74462664 0.30672607 -0.0005066148 -0.13868016 -0.042853724 -0.13607234
0.03100303 0.116584465 0.0339892 0.06882228 -0.008127082 -0.079094954 -0.18810761 -0.08441514
00000000: f0cb b2bd 3bc6 aebc fa93 ba3d 1cd0 403c
00000010: fa0f eb3d 7905 263e fc58 03bd 2ae7 90bd
00000020: e779 883d c793 5c3e b915 21be 5b9f 083e
00000030: 79d8 8a3e 7b28 08be 7503 46bb 7978 03be
00000040: 7580 e53c 7414 eabd b008 c5bd b4af 8fbe
00000050: 0b3a bf3c 26bc 943d 6440 c2be a0ab 443e
00000060: 1184 0abf 9021 79be bad6 24bd 5b41 50bd
00000070: 085b e43d 952f f73d 6cd0 a43d 91b4 2bbd
00000080: 1d8e 0bbe a2d9 983c 0593 85be 40ee d73d
00000090: d572 5a3e d2a0 b6be 4bef 303c f6f3 13bd
000000a0: 6fab 37be b15d b63d 66f0 44be 26d5 543e
000000b0: 096b 113e 4dd7 8b3d 8906 d0bc be7b a8bb
000000c0: c6ba 143d 7265 d7bd 8410 90be defb 1b39
000000d0: c616 76bd 8fac 143e 7977 3c3d 74f3 893e
000000e0: fea4 08bd 299a 123d dd24 cb3c 876d 05be
000000f0: e5bb 083d 6934 f3bb ed66 29bd 358d 0bbe
00000100: 20c8 263e 90ff 10bf 3507 e9bd 6fff 2b3d
00000110: 8fd2 30bd 5212 4d3e d408 fc3c 9d93 c13d
00000120: 88ce 53bd d436 af3d 0903 91be ccb5 3cbe
00000130: 7f88 0cbe b9ca 6bbe 7e4f 4a3e f3b0 74be
00000140: e15e b7bd 9008 2e3d 66f3 3fbd 8010 1b3e
00000150: d83a c3be 14b4 5b3d 5001 99bd ccf6 b13d
00000160: 1efa 3c3e e95b 17be f356 b8bd 83b1 d73c
00000170: 7be2 1c3d 73b8 073e 5e37 c5bd f919 17bc
00000180: dd8f 27be de51 6cbc 7eea b3be ff4a 673d
00000190: bab7 a2be 1c8a ba3d 4dc6 bfbc 552d 463e
000001a0: 7c0f ab3d 3039 d4bd f6b7 763d ccd9 2dbf
000001b0: 1f22 87bd 754b ec3d e9a7 153e cba8 eebd
000001c0: 35ff 05bd 7351 58be a4fc 14bd e15f 763d
000001d0: a14d d93c 26c1 b4be cb05 7d3d b661 93bc
000001e0: 3378 ee3d 0870 513d c6ed 44bc 3ae1 e4bd
000001f0: 92c9 ef3d 987c 74bd e4d1 adbe b931 c5bd
00000200: bc5c 6b3d d55f ca3d ebf1 53bc 7368 7a3d
00000210: 403a 043e 3371 863d 2de0 93bd 498a e3be
00000220: 20db 393d 91e7 4cbe d432 86bd 652f a5bd
00000230: 90d9 0abc bcce 933d 0796 c9be 271b b33e
00000240: 6ff6 393d 0221 db3b 0cc1 5cbe 3ed8 81bc
00000250: d18c a03d 5b6c 85be d069 b0bd 869f d33c
00000260: 398d 6d3d 297f 463e e2fe 05bd e439 6a3c
00000270: 0bd0 53be 7550 5d3d cbca 583c c014 853c
00000280: 74a4 dbbd a083 9b3d f0b3 373e 6243 ca3d
00000290: a82a 033b d99b 5c3d 9d62 743d 9372 6d3d
000002a0: a776 06bf b2ff c13d ffb4 5dbc c281 b03d
000002b0: 6586 ed3d e40c 81be b47c 0c3d cbcc 81be
000002c0: c909 2e3e 2679 b63d cfa8 af3d 3e43 9dbd
000002d0: 5a3f 36bd 869e 5c3d 9f92 1d3d dfa6 be3d
000002e0: 1c0b f23d cdd8 2bbf f322 28bd 824f 11be
000002f0: 9306 c5bb 5821 3f3e 6bcc 5abe 628c 0f3e
00000300: 9202 c9bd 75c5 cc3d e9a7 8abe 93f2 54be
00000310: c8a4 2bbe 90b8 1e3d 3fb6 433d b38a febd
00000320: e8c5 043e b968 9b3d 29b4 b4bd 2701 e73d
00000330: 8e22 79be 9893 30bd 315c e0be 88b7 f33d
00000340: 43bd 813e ed9e 1cbe 8ed5 2c3d b4ce 36be
00000350: 10bb 7ebe bbc9 083e c215 073e abbd 54be
00000360: 62c3 a03d d66c 043d ddd5 3cbd 86bf fabc
00000370: 94f3 58be 4b39 7fbe cbd6 a8be c096 583b
00000380: 349e 5dbe b8a1 16bc a3c4 253d 48b0 df3c
00000390: bbb7 81bd d2d4 48bd 9047 4ebe fe76 853d
000003a0: a9fe b0be 48f3 95be 60c2 20be feb9 083e
000003b0: 965a d23e 7ec9 bc3c 0125 823d dd9e a13d
000003c0: 8dcb df3c c972 51be da9f 3ebf 330b 9d3e
000003d0: 58ce 04ba 2c02 0ebe 6387 2fbd 8c56 0bbe
000003e0: 11fa fd3c d6c3 ee3d 4238 0b3d b2f2 8c3d
000003f0: 7427 05bc 89fc a1bd 489f 40be d8e1 acbd

2.bias f4 [256]
-0.043682892 -0.45576584 -0.1170944 -0.23334192 -0.13025647 0.03969231 0.3982105 0.18792537
-0.046578903 -0.1053519 -0.21777123 0.098502815 -0.2889414 -0.10976268 0.0876692 0.2961775
-0.087010056 -0.038083125 -0.0072051818 -0.2499806 0.62652254 0.17824319 0.24719572 0.031842664
0.05914097 0.5047687 -0.004321394 0.43652663 0.0833456 0.32847732 0.14492309 -0.099399075
0.18309368 0.43390915 0.023728946 -0.0064038015 0.28021 1.2872895 0.12933922 0.10240843
-0.29255852 0.18198292 0.5211146 0.27918866 -0.3890338 -0.11147944 -0.08058481 0.48990238
0.16944367 -0.4593251 -0.13546212 0.2529823 -0.02110955 0.049857836 0.5037639 0.069091454
0.13813671 0.09415539 1.0444386 0.059180044 -0.16721143 0.16741075 0.2427248 -0.36257672
1.1684393 -0.11946162 -0.025696041 -0.10593337 -0.1545902 -0.046411484 0.32045108 -0.093529
0.21096942 0.22715792 0.63576484 0.10060619 -0.016474279 1.0435092 -0.3050835 -0.15410727
-0.13070874 0.49821222 0.1157788 -0.43069023 0.038934354 0.31678474 -0.038430948 -0.121093735
-0.09660002 -0.19001018 -0.3245104 -0.5123162 -0.05442658 -0.07382938 -0.2486149 0.68154246
0.113874964 -0.3154358 0.41485554 0.3605803 -0.08494613 0.27737957 -0.13626601 0.24601996
-0.040935364 -0.22918478 0.10459806 -0.14440443 -0.2639172 -0.03326516 0.016625876 1.220398
-0.20688036 0.12989904 -0.049694274 0.23541437 -0.414393 -0.031403206 0.5539824 -0.21334223
0.1946836 0.2542927 -0.0067321677 0.20849407 -0.055423964 0.08365646 -0.25505194 0.39813364
0.1430414 -0.7066796 -0.11738558 0.39861286 0.23014936 0.33441776 -0.53593427 -0.1803652
0.121067606 0.012041764 -0.6588542 0.3175569 0.4548624 -0.4532715 0.0110349115 0.12783143
0.08173718 0.42265886 0.44801483 -0.28048986 -0.11906366 -0.34240398 -0.26292625 -0.008247753
0.2130719 -0.040598676 0.10389983 -0.20779781 -0.32754973 0.13883749 0.46346816 0.06504383
-0.22235528 -0.4042332 0.08890627 -0.07086252 -0.34087378 0.29029164 -0.14665462 0.15447327
0.089427866 0.15667468 -0.52298146 -0.45774645 0.5206056 0.031036412 0.4485466 -0.02091965
-0.771895 -0.4932331 -0.45198172 0.22842373 0.012772704 0.397711 0.107239254 -0.5265014
-0.13734567 0.12814619 0.32477546 -0.22532243 0.032044917 0.016730733 -0.24043891 0.41992608
-0.14378615 -0.3198189 0.4160166 -0.38829914 -0.18451059 0.32409042 -0.13202125 -0.04070819
-0.65711194 -0.13664004 0.15702288 -0.07660974 -0.0149961645 -0.15789883 0.12279652 -0.0968838
0.38651675 0.1520194 -0.60518634 0.32276857 -0.327386 -0.12280778 -0.14830095 -0.050431564
0.21388735 0.17491955 -0.19463529 0.3457632 0.6715602 -0.1618973 -0.15368013 0.2505785
-0.33824152 -0.11562475 -0.3302967 -0.3799329 -1.0748318 0.5361365 -0.17435008 -0.036248203
-0.04379956 -0.28552827 -0.70705837 -0.37512392 0.4016918 0.06920759 -0.12371627 0.33122584
0.4966571 0.027080074 0.49603453 0.06544877 0.3574238 0.06975182 -0.040418178 0.16675067
0.34316978 0.067059845 -0.18851812 0.6000346 -0.21135925 -0.6565227 0.51480055 0.15262513
00000000: d5ec 32bd 245a e9be 30cf efbd 2ff1 6ebe
00000010: f461 05be 6794 223d 3fe2 cb3e 826f 403e
00000020: 85c9 3ebd bdc2 d7bd 6cff 5ebe d8bb c93d
00000030: 21f0 93be 42cb e0bd e98b b33d 94a4 973e
00000040: 5432 b2bd 0dfd 1bbd 7219 ecbb eafa 7fbe
00000050: c863 203f 6285 363e e020 7d3e 746d 023d
00000060: cd3d 723d 8638 013f 7b9a 8dbb 6b80 df3e
00000070: 19b1 aa3d 2e2e a83e b866 143e be91 cbbd
00000080: e97c 3b3e 5729 de3e 3563 c23c fbd6 d1bb
00000090: af77 8f3e e7c5 a43f 8071 043e 83bb d13d
000000a0: 3bca 95be bb59 3a3e c467 053f d1f1 8e3e
000000b0: 702f c7be 554f e4bd a609 a5bd 7cd4 fa3e
000000c0: a482 2d3e a92c ebbe 95b6 0abe e586 813e
000000d0: efed acbc bb37 4c3d acf6 003f d27f 8d3d
000000e0: b673 0d3e 8bd4 c03d 2ab0 853f c666 723d
000000f0: 7939 2bbe b96d 2b3e da8c 783e a8a3 b9be
00000100: 6b8f 953f 4ba8 f4bd 8180 d2bc 98f3 d8bd
00000110: e54c 1ebe f819 3ebd 2a12 a43e 228c bfbd
00000120: 5e08 583e 169c 683e 7cc1 223f 9e0a ce3d
00000130: 11f5 86bc b691 853f e833 9cbe 4cce 1dbe
00000140: 83d8 05be ac15 ff3e 6f1d ed3d 6e83 dcbe
00000150: a179 1f3d 9c31 a23e c569 1dbd feff f7bd
00000160: 3bd6 c5bd 0792 42be 3a26 a6be 2827 03bf
00000170: 68ee 5ebd dc33 97bd e894 7ebe 9179 2e3f
00000180: 4737 e93d cd80 a1be f267 d43e fb9d b83e
00000190: 3df8 adbd b204 8e3e 5189 0bbe a8ec 7b3e
000001a0: d7ab 27bd 6aaf 6abe 8237 d63d c1de 13be
000001b0: 2820 87be 0c41 08bd fd32 883c 0036 9c3f
000001c0: 72d8 53be 4104 053e 398c 4bbd 7710 713e
000001d0: 522b d4be a6a0 00bd cad1 0d3f 6376 5abe
000001e0: 235b 473e a732 823e 8499 dcbb 787f 553e
000001f0: 3d04 63bd 1454 ab3d 2b96 82be 2cd8 cb3e
00000200: 7279 123e f4e8 34bf da67 f0bd fc16 cc3e
00000210: 46ac 6b3e ce38 ab3e fd32 09bf a8b1 38be
00000220: 4bf2 f73d d24a 453c abaa 28bf d196 a23e
00000230: b9e3 e83e 3413 e8be c6cb 343c 3ee6 023e
00000240: d365 a73d be66 d83e 3362 e53e 5e9c 8fbe
00000250: a6d7 f3bd 934f afbe 459e 86be 9521 07bc
00000260: 852f 5a3e cc4a 26bd 6fc9 d43d f3c8 54be
00000270: 99b4 a7be 6a2b 0e3e b34b ed3e b335 853d
00000280: 1ab1 63be a7f7 cebe 7e14 b63d 5e20 91bd
00000290: 0287 aebe 1ba1 943e a12c 16be 3e2e 1e3e
000002a0: f525 b73d 546f 203e 1de2 05bf be5d eabe
000002b0: 6946 053f 1340 fe3c e6a7 e53e b05f abbc
000002c0: e99a 45bf 0d89 fcbe 266a e7be e9e7 693e
000002d0: 9a44 513c c7a0 cb3e 41a0 db3d ccc8 06bf
000002e0: 58a4 0cbe c138 033e f848 a63e ecba 66be
000002f0: 8841 033d e40e 893c 9e35 76be 8d00 d73e
00000300: ad3c 13be 4ebf a3be 2100 d53e 25cf c6be
00000310: 58f0 3cbe 2eef a53e 9430 07be a2bd 26bd
00000320: 7d38 28bf 5eeb 0bbe 9bca 203e 91e5 9cbd
00000330: 79b2 75bc 3bb0 21be be7c fb3d 046b c6bd
00000340: 86e5 c53e f9aa 1b3e 7eed 1abf ec41 a53e
00000350: 239f a7be a582 fbbd 34dc 17be 5491 4ebd
00000360: 4905 5b3e 1c1e 333e 794e 47be e007 b13e
00000370: 5feb 2b3f 68c8 25be 535e 1dbe d34b 803e
00000380: fe2d adbe abcc ecbd a61c a9be 9186 c2be
00000390: 1794 89bf 3e40 093f d488 32be ff78 14bd
000003a0: 2b67 33bd c330 92be c701 35bf 3e10 c0be
000003b0: 8caa cd3e b5bc 8d3d f55e fdbd 6f96 a93e
000003c0: d749 fe3e 08d7 dd3c 3df8 fd3e 010a 863d
000003d0: 4100 b73e 0bda 8e3d 888d 25bd b0c0 2a3e
000003e0: f3b3 af3e ac56 893d e50a 41be de9b 193f
000003f0: 8f6e 58be df11 28bf f8c9 033f c349 1c3e

4.weight f4 [256, 256]
0.010076952 -0.09599619 -0.123686865 -0.033888444 -0.004009779 -0.016139649 -0.004888592 0.014835913
-0.028477985 0.03771794 -0.027894 0.10350755 -0.15361682 0.017461492 0.04313328 0.045089997
0.0065125832 -0.07168808 0.06538141 -0.06367347 0.013031766 -0.10323342 -0.073748626 0.06740583
0.015227185 -0.1247382 0.1012297 -0.028066974 -0.08162537 0.112976246 0.08145023 0.0006201101
-0.03586796 -0.114452414 -0.022985958 0.07840471 -0.04336722 0.10246071 -0.03360213 0.07013534
-0.09865879 -0.03282503 -0.02435088 0.046945315 0.008301891 0.024197798 -0.010011717 0.06931694
-0.0293096 -0.11002564 0.07320708 0.10049294 0.03534771 0.042425893 -0.04929336 0.07486183
-0.061721962 0.0021002474 0.13880841 -0.10667973 -0.079159655 0.07936804 -0.015957719 -0.11968003
0.12541518 -0.07327932 0.06512732 -0.008628536 0.01802756 0.12409911 0.07764626 0.0059859683
-0.09339621 0.10647031 0.041106537 -0.0355822 0.10041958 0.08653615 0.062399376 0.012882172
-0.037108507 -0.060631786 0.01012383 -0.0088359015 0.14879201 0.07078479 0.11559351 0.15359004
-0.06894194 0.021684526 -0.11977327 -0.028512588 0.010143717 -0.036708724 -0.0049528275 -0.030269053
-0.02578028 0.0757577 0.061088074 0.07684543 0.11248322 0.1731223 -0.014508639 0.062439125
-0.04699454 0.040734403 0.014113826 -0.09697317 0.031778928 -0.04501209 0.02544815 0.052025028
0.021984499 0.04936969 -0.021287432 0.097197756 -0.0326248 0.13760659 0.017425539 0.052534807
-0.0042381664 -0.037385058 -0.10867939 -0.07918507 -0.1467259 0.056264337 -0.04469969 -0.008332432
0.05839086 -0.15875317 0.047520403 -0.026451273 -0.0120146535 0.056587506 -0.06738111 0.055994637
0.048144717 0.0307377 -0.05366554 0.031695977 -0.035421845 -0.010436641 0.0008672145 0.041937407
-0.09445681 0.02166238 0.016155222 -0.053684954 0.00944335 0.0036670398 0.03655151 0.08562583
0.032335527 -0.14820293 -0.0035310972 -0.032052584 -0.014145865 -0.1671793 -0.025506727 -0.02024559
-0.056765582 0.0028255284 0.08607234 0.08214387 -0.17590186 0.051945534 -0.037924815 0.08859646
0.03758058 0.06862326 0.10723205 -0.08566759 0.06955242 0.021914877 0.06908337 0.12057361
-0.13201451 -0.14032958 -0.21026374 0.043556523 0.029476173 0.040552832 -0.022219425 -0.13992427
0.10214957 0.027028222 0.027566034 0.08837031 0.048828475 -0.08875436 0.06759833 0.09783516
-0.06736211 -0.20530334 0.031496074 0.052616414 -0.09401275 -0.04664283 -0.020842085 -0.019127466
-0.034713622 -0.076060064 0.08034007 0.108104184 -0.0038072781 0.054902136 0.0008665553 0.005795222
0.03755772 0.047863528 -0.11071214 0.01800639 -0.15014482 -0.02818354 0.098172 0.020631557
0.03460154 -0.035402223 -0.09567494 0.04319582 0.10898988 0.061905846 0.029070131 0.06527481
0.048295576 0.046589117 -0.11355708 -0.06602417 0.022758996 0.0929996 -0.12176623 -0.02304132
-0.0012658965 -0.021684216 -0.09474543 0.06444569 0.024259804 -0.0068112495 0.06232694 0.080214895
0.03921213 0.086959526 0.024004882 0.03542865 0.02510958 -0.14752392 0.118474826 0.02814552
-0.022742512 0.02522658 0.01244573 0.11002873 -0.034397475 -0.0297802 0.012622806 0.0801379
00000000: cd19 253c a799 c4bd 8a4f fdbd 9cce 0abd
00000010: 7764 83bb 4c37 84bc 7b30 a0bb 5412 733c
00000020: aa4a e9bc 207e 1a3d f581 e4bc c4fb d33d
00000030: ba4d 1dbe 670b 8f3c 86ac 303d 4ab0 383d
00000040: 8267 d53b 33d1 92bd b0e6 853d 3c67 82bd
00000050: 3083 553c 0b6c d3bd 8509 97bd 110c 8a3d
00000060: 717b 793c be76 ffbd 8451 cf3d b6ec e5bc
00000070: 342b a7bd 1760 e73d 61cf a63d e28e 223a
00000080: 48ea 12bd 0766 eabd 0c4d bcbc a692 a03d
00000090: d3a1 31bd ecd6 d13d 63a2 09bd 1ea3 8f3d
000000a0: 9f0d cabd 8a73 06bd 7f7b c7bc bb49 403d
000000b0: a804 083c 763a c63c 2f08 24bc 0af6 8d3d
000000c0: b01a f0bc 1f55 e1bd 98ed 953d 3ecf cd3d
000000d0: c3c8 103d c6c6 2d3d d6e7 49bd 2951 993d
000000e0: 2bd0 7cbd 4ea4 093b cb23 0e3e e77a dabd
000000f0: 751e a2bd b68b a23d c3b9 82bc ce1a f5bd
00000100: d66c 003e 7813 96bd 7961 853d b45e 0dbc
00000110: 89ae 933c ad27 fe3d 0105 9f3d f125 c43b
00000120: 8346 bfbd 1b0d da3d 545f 283d a4be 11bd
00000130: c8a8 cd3d dd39 b13d 7d96 7f3d bf0f 533c
00000140: 17ff 17bd 0959 78bd 6cde 253c 75c4 10bc
00000150: ef5c 183e 9ef7 903d 4abc ec3d b546 1d3e
00000160: 6f31 8dbd bfa3 b13c b04b f5bd 3b93 e9bc
00000170: d531 263c e35b 16bd 544b a2bb cef6 f7bc
00000180: 2a31 d3bc da26 9b3d 7d37 7a3d 2361 9d3d
00000190: 9a5d e63d f946 313e a5b5 6dbc 2bc0 7f3d
000001a0: 597d 40bd 1ed9 263d ad3d 673c df99 c6bd
000001b0: 9f2a 023d 995e 38bd a378 d03c 3218 553d
000001c0: d618 b43c df37 4a3d fb62 aebc 9e0f c73d
000001d0: 95a1 05bd bee8 0c3e 01c0 8e3c bd2e 573d
000001e0: 51e0 8abb 1321 19bd 4d93 debd c82b a2bd
000001f0: 503f 16be 6f75 663d 0617 37bd c184 08bc
00000200: 412b 6f3d 3190 22be c1a4 423d 57b0 d8bc
00000210: 1cd9 44bc 4dc8 673d 1bff 89bd a25a 653d
00000220: 6533 453d a1cd fb3c 66d0 5bbd a4d3 013d
00000230: 7f16 11bd 72fe 2abc c855 633a 8fc6 2b3d
00000240: 9272 c1bd 4e75 b13c f557 843c c1e4 5bbd
00000250: 48b8 1a3c b852 703b 09b7 153d 985c af3d
00000260: 4272 043d 82c2 17be fb69 67bb 9249 03bd
00000270: 0fc4 67bc 0d31 2bbe 7cf3 d0bc 14da a5bc
00000280: 0783 68bd 802c 393b b246 b03d 0c3b a83d
00000290: 9e1f 34be d7c4 543d 0d57 1bbd 1072 b53d
000002a0: 18ee 193d 5a8a 8c3d 7a9c db3d 7d72 afbd
000002b0: 8071 8e3d d486 b33c 957b 8d3d 4cef f63d
000002c0: d02e 07be 8fb2 0fbe 614f 57be 5368 323d
000002d0: 0478 f13c ba1a 263d 8305 b6bc 4f48 0fbe
000002e0: cb33 d13d 4a6a dd3c 2ad2 e13c 7efb b43d
000002f0: 5e00 483d d9c4 b5bd fe70 8a3d cd5d c83d
00000300: 25f5 89bd 0a3b 52be 0702 013d 4f84 573d
00000310: c289 c0bd 8d0c 3fbd 05bd aabc 34b1 9cbc
00000320: df2f 0ebd 61c5 9bbd 5689 a43d ba65 dd3d
00000330: 8783 79bb 10e1 603d 8b29 633a d8e5 bd3b
00000340: 20d6 193d 8c0c 443d 0cbd e2bd 2382 933c
00000350: 90bf 19be 2be1 e6bc 670e c93d 8303 a93c
00000360: 58ba 0d3d ec01 11bd 39f1 c3bd 1aee 303d
00000370: 1636 df3d fc90 7d3d 7c24 ee3c cdae 853d
00000380: 95d1 453d 3bd4 3e3d 9d90 e8bd ae37 87bd
00000390: 1371 ba3c 9376 be3d 9360 f9bd 26c1 bcbc
000003a0: 70ec a5ba 19a3 b1bc e409 c2bd 1afc 833d
000003b0: 7fbc c63c e730 dfbb 894a 7f3d b547 a43d
000003c0: e69c 203d d617 b23d e3a5 c43c a21d 113d
000003d0: 9bb2 cd3c 8310 17be eea2 f23d 6f91 e63c
000003e0: 814e babc f9a7 ce3c 2de9 4b3c be56 e13d
000003f0: 5ee4 0cbd 9bf5 f3bc e3cf 4e3c 571f a43d

4.bias f4 [256]
0.77946436 0.38619497 -0.4649876 0.41757253 -0.28113398 0.6172932 -0.021494484 -0.13072762
0.52547914 0.7340796 -0.5666178 0.15786117 0.6486337 0.735195 0.028978437 -0.22247066
-0.21743594 0.64003235 -0.66013014 -0.28487706 -0.15938397 -0.3170925 -0.51914257 0.6509148
0.8064432 0.085922 -0.33072153 0.48357597 -0.18768398 0.68864375 0.23929258 0.18264434
0.2653631 0.098258734 -0.50907767 -0.09677257 0.30744588 -0.25701308 0.15911295 0.75488645
-0.4092106 -0.5022305 0.31315798 0.05950063 0.82758194 -0.605682 -0.13402626 0.71782064
-0.13162103 0.05988508 -0.64736015 -0.7660098 0.49851122 0.25124016 0.7620663 -0.3265211
0.57560843 0.18573731 0.2803069 0.7258032 -0.51759315 0.6911299 -0.43427086 -0.012526555
0.70393044 0.5433368 -0.5303562 0.20280774 -0.10622048 0.68370765 0.061447337 0.7662652
0.17944492 0.36212775 0.69021094 0.2226827 -0.7038592 -0.4777254 -0.23892777 -0.3222518
0.02102296 0.298536 -0.07392297 0.7333149 -0.11995114 0.18267687 0.45628855 0.71873045
-0.45970377 0.6403678 0.70300496 0.7516298 0.27104056 0.11027155 0.6080655 -0.20793557
-0.72954804 0.75611573 0.22271726 0.17307264 0.35628593 -0.088893086 0.7215896 -0.1970425
0.8013946 -0.16569124 0.66903806 0.29505953 -0.45979244 0.1092685 0.69453824 -0.3374963
-0.27222416 0.7318234 -0.11267476 0.27768916 -0.33316195 -0.11539352 -1.141357 -0.22151649
0.21230838 -0.04375308 0.6394966 0.40474913 0.4222625 0.5453318 0.42253253 0.11401775
0.49808413 -0.008915027 0.6812236 -0.037478432 -0.7001569 -0.17188092 0.6737043 -0.23627092
0.39313436 0.7898302 0.027299095 0.25986022 0.766955 0.11311141 0.6771017 -0.27987236
-0.24630445 0.0073277634 0.06121928 0.17451078 0.55997914 -0.27957726 0.7937276 -0.7657155
-0.47730416 -0.40930584 0.13173512 0.7599595 -0.42738712 -0.440012 -0.1982361 -0.09880383
-0.29343274 0.0958383 0.7319045 0.05237372 -0.19587515 0.03717186 0.7905571 0.7813965
0.67223316 -0.32952622 -0.6099389 -0.6891765 -0.39256898 0.5055832 -0.26137996 0.7044475
-0.17331488 0.26910585 -0.13912047 0.5619704 -0.36861527 0.679122 0.56896526 0.64889723
-0.31510022 0.68560714 0.17282774 -0.43222126 0.7009758 0.014709395 -0.4410045 0.7664811
-1.2742584 -0.25717825 -0.021565977 0.6955101 -0.33096963 0.45538542 -0.03436012 0.65818185
0.33496946 0.6926353 0.013453505 0.19561863 -1.2046187 0.0816173 0.4552528 0.037122287
0.79391575 -0.2867649 -0.35788673 0.27113596 0.18237679 -0.47742492 0.6386719 -0.5444619
-0.4350256 -0.31955954 0.4058533 0.17866445 -0.44169584 0.16318153 -0.01271567 -0.17359078
0.6905918 0.1340109 0.6932637 -0.3068861 0.69882613 0.58033144 -0.60414493 0.70559746
0.28930092 0.062167168 0.5536918 0.64704794 0.5821358 0.4112799 -0.31747955 0.7134676
0.07980999 -1.5350343 0.23747478 -0.114191726 0.7530082 -0.023546351 0.5739302 -0.4999848
0.49285746 0.18722609 0.59241515 0.11898307 0.18555145 0.22270906 0.662737 0.009831498
00000000: fa8a 473f 59bb c53e db12 eebe 11cc d53e
00000010: cbf0 8fbe ed06 1e3f 3315 b0bc 76dd 05be
00000020: cd85 063f a4ec 3b3f dd0d 11bf 5ca6 213e
00000030: dc0c 263f bd35 3c3f 3064 ed3c 59cf 63be
00000040: 87a7 5ebe 29d9 233f 4afe 28bf 68db 91be
00000050: 8d35 23be f359 a2be 87e6 04bf 5aa2 263f
00000060: 1073 4e3f e0f7 af3d 5554 a9be 4597 f73e
00000070: 3b30 40be f54a 303f 1d09 753e 1e07 3b3e
00000080: acdd 873e e03b c93d ea52 02bf b230 c6bd
00000090: 8c69 9d3e 3897 83be 81ee 223e 3d40 413f
000000a0: 0d84 d1be 2e92 00bf 3e56 a03e efb6 733d
000000b0: 69dc 533f fa0d 1bbf 2e3e 09be 18c3 373f
000000c0: aac7 06be 0f4a 753d 65b9 25bf 3819 44bf
000000d0: dd3c ff3e 8da2 803e c716 433f c62d a7be
000000e0: 135b 133f ec31 3e3e 6384 8f3e 3dce 393f
000000f0: fc80 04bf e4ed 303f c058 debe 2e3c 4dbc
00000100: c934 343f 1f18 0b3f 6dc5 07bf d5ac 4f3e
00000110: 1f8a d9bd 7707 2f3f 34b0 7b3d f529 443f
00000120: 69c0 373e cf68 b93e aab1 303f ef06 643e
00000130: 1e30 34bf 6c98 f4be 7ba9 74be 30fe a4be
00000140: 5838 ac3c b6d9 983e ed64 97bd 86ba 3b3f
00000150: f1a8 f5bd a50f 3b3e a79e e93e b8fe 373f
00000160: 4b5e ebbe 25ef 233f 22f8 333f d06a 403f
00000170: d4c5 8a3e 0dd6 e13d 2eaa 1b3f 10ed 54be
00000180: a9c3 3abf cd90 413f fe0f 643e f439 313e
00000190: 1c6b b63e 940d b6bd 19ba 383f 82c5 49be
000001a0: 3228 4d3f f7aa 29be 1446 2b3f 0b12 973e
000001b0: ea69 ebbe 2ac8 df3d 42cd 313f 51cc acbe
000001c0: f760 8bbe c758 3b3f 06c2 e6bd 462d 8e3e
000001d0: 3494 aabe 7053 ecbd fc17 92bf 38d5 62be
000001e0: 5e67 593e 6e36 33bd 0db6 233f 473b cf3e
000001f0: ca32 d83e dd9a 0b3f 2f56 d83e 2382 e93d
00000200: e204 ff3e 5510 12bc ab64 2e3f fc82 19bd
00000210: 7c3d 33bf 8d01 30be e377 2c3f 01f1 71be
00000220: e848 c93e 5032 4a3f 5aa2 df3c 660c 853e
00000230: 2a57 443f f4a6 e73d 8956 2d3f 6e4b 8fbe
00000240: 3c37 7cbe bc1d f03b 11c1 7a3d f4b2 323e
00000250: cb5a 0f3f c024 8fbe bb31 4b3f ee05 44bf
00000260: 3661 f4be 8990 d1be 92e5 063e b58c 423f
00000270: 7cd2 dabe 4149 e1be 67fe 4abe aa59 cabd
00000280: d13c 96be df46 c43d 185e 3b3f d385 563d
00000290: 7f93 48be 8541 183d f361 4a3f 9a09 483f
000002a0: 7917 2c3f a9b7 a8be f524 1cbf df6d 30bf
000002b0: cdfe c8be e76d 013f 98d3 85be ac56 343f
000002c0: 7579 31be 3ec8 893e 9975 0ebe 4bdd 0f3f
000002d0: 24bb bcbe f0da 2d3f b5a7 113f 211e 263f
000002e0: d154 a1be f383 2f3f c1f9 303e 1b4c ddbe
000002f0: 2673 333f adff 703c 58cb e1be 1b38 443f
00000300: e61a a3bf deac 83be 22ab b0bc f30c 323f
00000310: da74 a9be 4728 e93e 32bd 0cbd 9b7e 283f
00000320: 1e81 ab3e 8c50 313f 176c 5c3c 4050 483e
00000330: f230 9abf f926 a73d e516 e93e 8a0d 183d
00000340: 103e 4b3f d9d2 92be ee3c b7be 55d2 8a3e
00000350: fbc0 3a3e 0a71 f4be 0080 233f db61 0bbf
00000360: adbb debe 4f9d a3be 01cc cf3e d0f3 363e
00000370: f525 e2be 0f19 273e 6355 50bc c8c1 31be
00000380: a0ca 303f 273a 093e bb79 313f 2d20 9dbe
00000390: 45e6 323f 9a90 143f 3ea9 1abf 09a2 343f
000003a0: 401f 943e 00a3 7e3d bfbe 0d3f efa4 253f
000003b0: da06 153f 4793 d23e ae8c a2be d0a5 363f
000003c0: 6c73 a33d 017c c4bf 972c 733e 5add e9bd
000003d0: 25c5 403f 47e4 c0bc 17ed 123f 02fe ffbe
000003e0: d057 fc3e 32b8 3f3e 85a8 173f 65ad f33d
000003f0: 3301 3e3e d80d 643e 22a9 293f 4b14 213c

6.weight f4 [4, 256]
0.001865038 0.011866365 -0.005222592 0.011468626 0.0036988556 -0.0019931342 -0.00052780367 0.00226039
0.0009994421 0.0009060824 -0.03348093 -0.00046495628 0.00032191904 0.00040320182 -0.0025058612 0.003429596
0.0012026381 0.001690098 0.000525613 -0.0049431403 0.023213873 0.004214118 -0.00067345897 0.00023628814
0.004177427 -2.182008e-05 0.0029266123 -0.017387582 0.00062638964 -0.0014226858 -0.2162877 0.002219732
-0.0006699525 -0.0013702604 0.006710337 -5.0037663e-05 -0.00038847156 0.0067713303 0.0027333277 0.00017859224
-0.02046979 0.04321112 -0.00035125486 -0.0029450627 -0.0014871446 -0.022748524 -0.0017605497 0.0045894585
-0.0466657 0.0005192002 0.025691483 0.05262812 0.004436485 0.025810858 0.0100201 0.02013994
0.000104546416 4.0961764e-05 0.04314794 -5.6394756e-06 0.00029125228 -0.019064002 -0.010342245 0.0036452303
-0.0017907014 0.0018019207 -0.057815988 0.0007715245 -0.001130919 0.00065992575 0.00085726805 -0.0073019485
0.0010120298 -5.5224886e-05 0.0010913583 -0.0048485394 -0.05168306 0.077769935 -0.0037572708 -0.0013791523
0.0011551884 -0.0040195575 0.0019438115 -0.0011821173 0.0019167659 -0.00019959014 0.00015526924 -0.00086111453
-0.006488126 0.00015996966 0.0023066795 -0.0002507885 -0.05853504 0.002605318 -0.0017689468 -0.0101259295
-0.0063615213 -0.0030546575 -0.032300726 -0.00089998235 0.002292428 -0.005105967 -0.0008070635 -0.03010761
-0.006380974 -0.03196333 0.014567939 -0.0012873746 -0.0015671465 0.23313184 -0.0011746852 -0.0006209153
-0.005942004 -3.012798e-05 -0.0001466094 -0.00032920277 0.0037745954 -0.0014830007 0.0007097656 -0.003990418
-0.00050651777 -0.0027488598 0.0018660945 0.033228867 0.0031131376 0.005198514 -0.006624834 -0.0064978725
-0.0044331267 -0.0034545618 0.0012862872 0.004298031 0.03892666 -0.0071164346 0.0035329838 0.04337768
0.018162422 0.0047592195 0.0022443614 -0.00018399264 -0.005089237 0.00050692965 0.0030714304 0.03899498
0.0023222496 0.0010373375 -0.0009603375 0.0056279516 -0.002445746 0.060497556 -0.008808356 0.0014838983
-0.013723233 0.001298287 0.00024262561 -0.0035031643 0.002165425 -0.003318741 -0.005444311 0.0032969012
-0.00014076523 0.0038843998 0.012103626 -0.002424798 0.0018285015 0.00025754157 -0.00096689694 0.00093578064
0.00946631 -0.00075928913 0.0764496 0.03764959 -0.0035711732 -0.0025100647 -0.000500724 -0.00851295
0.005741056 -0.046948798 1.6907643e-06 -0.010647575 0.038517043 -0.0077481386 0.008816184 -9.226909e-05
0.0042722696 -0.0011187909 0.0017124779 -0.013841144 -0.0007346175 -0.0009883122 0.0040694955 -0.017439641
0.00025151702 0.0013974531 -0.00053216907 -0.0016398199 0.0016747584 -0.019108268 0.0025050489 -0.0078312615
-0.0006068841 0.005383556 0.0009530498 -0.027485361 -0.0010713971 0.002066277 -0.0023372248 -0.00017636546
-0.0010455505 -0.0030959998 0.030752562 -0.0020170761 -0.0018043052 -0.026918001 0.00065328134 -0.0033314377
0.00072628073 -0.04782247 -0.0018178531 -0.0004742385 0.09829143 -0.0012183692 0.0017880158 0.018973088
-0.0013271422 -9.269937e-05 -0.001563115 0.042573273 -0.002280207 0.0026091333 0.002461561 0.012686964
-0.011968431 -0.009632274 0.0027375156 0.0011351199 0.009848613 -0.007706734 0.045159157 0.001061769
-0.0002024798 -0.00024578732 0.00089493766 0.0004019272 -0.0012397659 -0.0034042948 0.0009433994 -0.002580959
-0.013982763 -0.00038104306 -0.000443589 -0.002861923 -0.00015492763 -0.013412233 0.008422839 0.0064210105
00000000: 4a74 f43a 246b 423c 4722 abbb e7e6 3b3c
00000010: 8068 723b 3e9f 02bb 4e5c 0aba 0d23 143b
00000020: b6ff 823a 2986 6d3a 4d23 09bd 60c5 f3b9
00000030: 3ec7 a839 d564 d339 6039 24bb 13c3 603b
00000040: d7a1 9d3a 4786 dd3a 4bc9 093a 11fa a1bb
00000050: 052b be3c 9516 8a3b 118b 30ba 1dc4 7739
00000060: cce2 883b 440a b7b7 68cc 3f3b 6770 8ebc
00000070: 4c34 243a 6a79 baba 867a 5dbe ec78 113b
00000080: c09f 2fba 4f9a b3ba 63e2 db3b 88df 51b8
00000090: c5ab cbb9 09e2 dd3b a121 333b 7d44 3b39
000000a0: 43b0 a7bc 25fe 303d a128 b8b9 f401 41bb
000000b0: 4bec c2ba 1d5b babc 3fc2 e6ba 2b63 963b
000000c0: 8824 3fbd f01a 083a f276 d23c 9590 573d
000000d0: ef5f 913b 4b71 d33c 582b 243c 84fc a43c
000000e0: ee3f db38 5cce 2b38 e5bb 303d ba3a bdb6
000000f0: 38b3 9839 1c2c 9cbc 8572 29bc d1e4 6e3b
00000100: f8b5 eaba 6d2e ec3a 75d0 6cbd 2240 4a3a
00000110: 583b 94ba defe 2c3a 49ba 603a 2f45 efbb
00000120: 16a6 843a 45a1 67b8 e80b 8f3a 7fe0 9ebb
00000130: 9eb1 53bd d845 9f3d 8b3c 76bb acc4 b4ba
00000140: b169 973a 7eb6 83bb 7ec7 fe3a 46f1 9aba
00000150: fe3b fb3a 1249 51b9 c5cf 2239 6bbc 61ba
00000160: 589a d4bb 87bd 2739 a92b 173b 437c 83b9
00000170: 70c2 6fbd fcbd 2a3b 01dc e7ba 3ae7 25bc
00000180: 4f74 d0bb a630 48bb c44d 04bd cbec 6bba
00000190: 8f3c 163b f54f a7bb 1d91 53ba 3ca4 f6bc
000001a0: 7d17 d1bb fbeb 02bd 5dae 6e3c 20bd a8ba
000001b0: b668 cdba 1dba 6e3e e5f7 99ba ecc4 22ba
000001c0: 24b5 c2bb 58bb fcb7 29bb 19b9 d998 acb9
000001d0: 345f 773b 3f61 c2ba 900f 3a3a 0dc2 82bb
000001e0: d5c7 04ba 3726 34bb be97 f43a fe1a 083d
000001f0: c805 4c3b 4c58 aa3b 2315 d9bb 1bec d4bb
00000200: c343 91bb ee65 62bb a398 a83a 7fd6 8c3b
00000210: 9071 1f3d fb30 e9bb a289 673b cbac 313d
00000220: 5cc9 943c 3af3 9b3b 2316 133b 26ee 40b9
00000230: 9dc3 a6bb 79e3 043a 0d4a 493b 33b9 1f3d
00000240: e230 183b 45f7 873a 29bf 7bba ae6a b83b
00000250: cf48 20bb 49cc 773d ec50 10bc 5d7f c23a
00000260: 69d7 60bc 482b aa3a 5169 7e39 5895 65bb
00000270: cee9 0d3b 3c7f 59bb 3166 b2bb d310 583b
00000280: 619a 13b9 6a91 7e3b 494e 463c 5ce9 1ebb
00000290: 54aa ef3a a506 8739 5b77 7dba 2d4f 753a
000002a0: 9518 1b3c 080b 47ba 9c91 9c3d 7536 1a3d
000002b0: 580a 6abb e67f 24bb 0543 03ba e679 0bbc
000002c0: 781f bc3b 624d 40bd 38ee e235 2b73 2ebc
000002d0: 0cc4 1d3d 19e4 fdbb c171 103c 9780 c1b8
000002e0: 65fe 8b3b 65a4 92ba 3975 e03a f7c5 62bc
000002f0: 5993 40ba 418a 81ba 6759 853b 94dd 8ebc
00000300: 0bde 8339 bf2a b73a 4381 0bba 3aef d6ba
00000310: 9183 db3a f188 9cbc bf2b 243b b14e 00bc
00000320: 4d17 1fba 8a68 b03b 17d6 793a fb28 e1bc
00000330: 1f6e 8cba 606a 073b 202c 19bb beee 38b9
00000340: da0a 89ba 42e6 4abb ccec fb3c ec30 04bb
00000350: 707e ecba 2483 dcbc f840 2b3a 4054 5abb
00000360: e063 3e3a 7fe1 43bd 0745 eeba 37a3 f8b9
00000370: 044d c93d b0b1 9fba db5b ea3a 736d 9b3c
00000380: 81f3 adba 9867 c2b8 70e1 ccba 5061 2e3d
00000390: 866f 15bb fefd 2a3b 2452 213b fcdc 4f3c
000003a0: 3d17 44bc afd0 1dbc e467 333b 4ec8 943a
000003b0: 145c 213c c588 fcbb cff8 383d 0e2b 8b3a
000003c0: c250 54b9 04dd 80b9 409a 6a3a c1b9 d239
000003d0: a47f a2ba 971a 5fbb 764e 773a 4e25 29bb
000003e0: f517 65bc bcc6 c7b9 8291 e8b9 1a8f 3bbb
000003f0: 1274 22b9 fcbe 5bbc f3ff 093c 5767 d23b

6.bias f4 [4]
0.0037662627 -0.0008315914 0.0063409 0.83452076
00000000: 67d3 763b 27ff 59ba 53c7 cf3b 27a3 553f
