Models/checkpoint_vel_final_1000_900.pth (torch, 353077 bytes, 16 tensors)

0.weight f4 [32, 9]
00000000: f8ab f93d d57a fbbd 5a52 bdbe 2733 b33e
00000010: aeaa 41bf a934 ba3e 3351 493c 8a8a 663e
00000020: 7e60 bbbd 4d6f 1cbe c42f d43d ff0a e03d
00000030: 6f6b 55be 3cf0 593f afb0 30be 49e3 9ebd
00000040: a365 eb3a 5aee 02be eff4 b63e 7a12 e43a
00000050: 9bb0 4abc cb6c a6be e050 10bf f1b9 92bd
00000060: 1027 35be ad74 1d3d ae87 323e 990a c93d
00000070: 143e a5be 97d7 603e 488b b13e 386e fb3e
00000080: 188f 6f3e f12a 76be 3aeb 2fbe c51f 99bd
00000090: 2a86 123e 3ce8 52bd 6ee0 503e ba2f 5cbe
000000a0: dbf7 8d3f aedf 21be 2911 203e 5d34 2e3b
000000b0: af5e 72be dbd8 e23d 6895 44be c0b7 933d
000000c0: 249f 7bbf 84ce 793d 6e53 dcbe 9b16 ddbd
000000d0: 2810 e03d 5e5a cfbd ede0 7c3e 4f6c dfbb
000000e0: 51f9 b03e 2e7d 96be 9750 6cbe fbc9 253e
000000f0: 338b 87be 5288 5c3e e4bc 923e b9ab bb3d
00000100: 9c70 93be 514e bcbe 5ecb 813e 01b1 7fbd
00000110: b6d3 d7bd bd1a acbd 8466 873d ae6b ef3c
00000120: ebcd 0d3e 0e9b 1d3e 2d5c 433e 6d82 21bf
00000130: d18b cabd 5414 da3d f3e0 8bbe a94b 653d
00000140: 8a35 16be b8d8 3abe 40c2 d03c 12ea 19bf
00000150: e677 cabe 0421 e43d c0a4 54be 1142 133e
00000160: d03d 8dbd 6e8d 3b3d 7e3d db3c e597 89be
00000170: e886 55bd aca8 993f 3506 62bf 711f 0ebe
00000180: 8a23 f73d ea02 fb3d c30f 08be 8871 2cbd
00000190: b97c 933e 32ce a73d e01e cc3e e186 8cbe
000001a0: e39f 65be 4c51 8ebe f6e6 953e 02e3 10bd
000001b0: 604a 443e 656e 49bd 8542 8bbd a962 e53e
000001c0: cef4 a53f 0ff7 17be fc94 043d 2e15 633e
000001d0: 01ab f83d 78f8 993d 7cd4 97be 1d1a 96bc
000001e0: 3ad8 a9bd 5a73 6f3d a520 a03e 4123 0ebe
000001f0: 01b7 3d3e 0d53 18be ef5c 7abe 80ad 593d
00000200: 4233 613e 3007 663e 3611 64bf 2f23 09bc
00000210: 6da9 3e3e d986 bc3d dda8 063e f8d3 8e3e
00000220: 8a44 ae3e dcbb 993e fffe 1abe 0f24 71bf
00000230: cfab 03be 9c38 c83c 89b5 5bbe 676f 2f3d
00000240: b902 abbd 27bb 0ebe 365f df3c 101d 803d
00000250: 18c0 a83b 172c a43f 7935 cdbd d754 0c3d
00000260: 2fd1 f8bc 978f 9d3b a422 d0be f425 21be
00000270: a2b3 18bf faaa ccbd f5bf a73d ed63 83bd
00000280: f169 5fbe a8b7 403e d82d 353e 7a95 bf3c
00000290: 2515 d4be 5ee8 c93e d9bb 273f 5381 70bd
000002a0: 7a38 47be a8de b4bd 6698 13be b099 883d
000002b0: 14a7 5f3e 0927 ea3e c2e2 563e f37a 093e
000002c0: 8fdb 183e eb72 753d b6a6 3fbe 7fe6 973e
000002d0: dd7b 80bd 4c43 98bd 55c6 9cbe 5fb3 05be
000002e0: d4ed 8abf 7c08 d43d 9158 80be 7399 d5bd
000002f0: 813c 73bd 7c1b 91be 7bf3 b63c dd44 0cbe
00000300: 2b6c dabd d230 843e b4a2 313f ebce 41be
00000310: c195 ae3d 6186 2a3e 3aac 8d3e 8904 97be
00000320: 1372 9d3e 4254 35bf 15c8 63be c201 14bc
00000330: 6d8b df3d 982a bdbd dd3e 2ebc 7f11 dcbc
00000340: f66e 513d d674 3c3c 538c 4d3e 3258 0e3e
00000350: ba7b 96be b587 623e e718 283e 9578 ac3e
00000360: 6d81 113e 7a44 86be ad95 87be fa18 263f
00000370: 96ea df3e b504 393e 4eaa 39be 41f4 5cbd
00000380: 094f 773d 74bd 02be 124f 14be 9dbf 673d
00000390: 68c0 d93e 7e86 643f 7aa4 a0bd 10b4 f2bd
000003a0: 29c6 773e 922a 82bd 8ae4 d9bd dc91 d1bc
000003b0: c69a b2be b7ce 0fbd 0d7b eb3e d8b9 35be
000003c0: b1ee acbe f4aa e43c d806 0e3e c975 b8bc
000003d0: a054 12bd 0db1 113e 1558 09bf 1635 fd3d
000003e0: 82e8 10be eef3 9e3e 4fc6 953e 1cf6 3ebd
000003f0: 069b a53e a268 de3e 9a1f 10be 58fc 64bf
0.121910036 -0.12279288 -0.36976892 0.34999964 -0.7565106 0.36368302 0.012287426 0.22513786
-0.09149264 -0.15276833 0.10360673 0.10939597 -0.20841764 0.85132194 -0.172549 -0.07758195
0.0017959367 -0.12786236 0.35733745 0.0017400526 -0.012371208 -0.32504877 -0.56373405 -0.07164372
-0.17690682 0.03844135 0.1743457 0.098164745 -0.32273924 0.21957241 0.34676576 0.49107528
0.2339443 -0.24039818 -0.17179576 -0.07476763 0.14308992 -0.051491007 0.20398113 -0.21502581
1.1091264 -0.15807983 0.15631546 0.0026581504 -0.23668931 0.11076518 -0.19197619 0.07212782
-0.98289704 0.060987964 -0.43032402 -0.10795327 0.109405816 -0.10124658 0.24695177 -0.0068183313
0.34565213 -0.2939238 -0.23077618 0.1619033 -0.26473388 0.21536377 0.28659737 0.09163613
-0.28796852 -0.367785 0.2535047 -0.062424663 -0.105384275 -0.084035374 0.0661135 0.02922615
0.13848083 0.1539118 0.19078131 -0.6308964 -0.09889949 0.106484085 -0.2732006 0.05598036
-0.14668861 -0.18246734 0.02548325 -0.6012279 -0.395446 0.1113911 -0.20765972 0.14380671
-0.068965554 0.045789175 0.02676272 -0.268737 -0.05213061 1.20046 -0.8829072 -0.13879181
0.120673254 0.12256415 -0.13287263 -0.04210046 0.28806093 0.081936255 0.39867306 -0.27446654
-0.22424273 -0.277964 0.29277772 -0.03537274 0.19168997 -0.049177546 -0.06799797 0.44801834
1.2965333 -0.14840339 0.032368645 0.22176048 0.121419914 0.07518095 -0.296543 -0.018322999
-0.08293195 0.058459617 0.31274906 -0.13880636 0.18526842 -0.14875431 -0.24449514 0.053143978
0.2199221 0.2246368 -0.8908876 -0.008370205 0.18619318 0.09205408 0.13150354 0.27896094
0.34036666 0.30026138 -0.15136336 -0.94195646 -0.12858509 0.024441056 -0.21455969 0.04283085
-0.08350129 -0.1393858 0.02726708 0.06255543 0.0051498525 1.2825955 -0.10019965 0.034260597
-0.030373184 0.004808377 -0.4065143 -0.15737134 -0.596491 -0.09993549 0.0819091 -0.06415544
-0.21817757 0.1882006 0.17693269 0.023386706 -0.41422382 0.39435095 0.6552101 -0.058717083
-0.19455138 -0.08831531 -0.14413604 0.066699386 0.21841079 0.45732906 0.20984939 0.13425808
0.14927505 0.059924047 -0.18715939 0.29668042 -0.06273625 -0.07434711 -0.30620065 -0.13056706
-1.0853829 0.10353181 -0.2506757 -0.10429659 -0.059383873 -0.2834128 0.022332897 -0.13698144
-0.10665163 0.25818497 0.6938889 -0.18926589 0.08524657 0.16652824 0.2767046 -0.29495648
0.30751094 -0.7083169 -0.22244294 -0.009033622 0.10915265 -0.0923664 -0.010635105 -0.026863812
0.05113121 0.011502465 0.2007306 0.13900831 -0.2939127 0.2212208 0.1641575 0.33685747
0.14209528 -0.26224118 -0.2648138 0.6488186 0.43733662 0.18068202 -0.18131372 -0.053943876
0.06037811 -0.12767583 -0.14483288 0.05657922 0.42529607 0.8926772 -0.078438714 -0.118507504
0.24196686 -0.06355776 -0.106392935 -0.025582246 -0.34883708 -0.035109248 0.45992318 -0.17746675
-0.33775857 0.027913548 0.13869798 -0.022517102 -0.035725236 0.14227696 -0.5365003 0.12363641
-0.14151195 0.3104548 0.2925286 -0.046621427 0.32344836 0.43439204 -0.14074555 -0.89447546

0.bias f4 [32]
00000000: 2a30 963d 2578 213e 6861 e3bc 2aba d1bc
00000010: 4d66 473e 34b9 793e 9991 513c 148c d5bc
00000020: b84f 173c 740a 103e 091c fdbe 1702 1c3c
00000030: 5bab 793e 7ae6 41bd 7530 00b9 d957 76bd
00000040: 1951 ce3e 65fd 383d 09d5 9fbc c0d0 0a3f
00000050: be32 73bd d795 e93e b205 433e 6150 6f3e
00000060: d3ab 74be c5f4 3dbe 4264 793e 1660 17be
00000070: 2db1 833d 74b5 7e3d 0ac6 7bbd ef83 69be
0.07333405 0.15768488 -0.027756408 -0.025601465 0.19472618 0.24387056 0.012791061 -0.026067771
0.009235315 0.14066488 -0.49435452 0.009521983 0.24381773 -0.04733894 -0.00012225083 -0.06014237
0.40296248 0.04516353 -0.019510763 0.5422478 -0.059374563 0.4562213 0.19045141 0.23370506
-0.2389367 -0.18550403 0.24354652 -0.14782748 0.06430278 0.062184766 -0.06146816 -0.22804235

2.weight f4 [64, 32]
00000000: eafc d63d ea56 433e 4ff0 b1bd f493 ecbd
00000010: 9749 0e3e c5fc 34be e70c a3bd 9768 36bd
00000020: 29a6 30be bdd9 fbbd 95ee 68bd 6371 513e
00000030: 0a7a 2abc 5922 69be 86bf 083d 764a 453c
00000040: 2868 2f3d b824 0f3d d03d 023e 32ad 5f3d
00000050: 9c88 c0bc 9318 b3bd 44c8 a9bd 2837 ca3d
00000060: 51b0 243d 1ea3 1cbe 22cf 5e3d 4b9c 8dbc
00000070: df4c f1bd bb81 bd3b 3c17 133e c1aa 033c
00000080: 7218 94be 561e 143d 0604 dbbb 4ff3 483e
00000090: 7fcb 603e 8eee cc3d fa5b abbd d938 c03d
000000a0: 5b36 a7bc 52cb b5be d9d7 113e 3f2d 5d3d
000000b0: a4e5 033e 4638 1fbd 17ac 5abe 4b3e 9dbe
000000c0: 84b8 19be d951 dabd a954 10be 26cc 0f3e
000000d0: 1a53 9dba 7432 66bd 3ddf a23c 50e2 f03d
000000e0: 4b3c 023d e548 813e e034 753d 149c d83c
000000f0: da00 a53e 4174 38bd 267a ae3d 1170 023e
00000100: a073 1abe db20 92bd 688e 8b3d 72ea b43d
00000110: d303 96bd d186 abbd afaf 09bd 597e 0e3e
00000120: 310b 0bbc 32eb d9bc eb0f c93e 2191 02bd
00000130: 2389 bb3e ba78 9fbc 4e1b 773e 2028 bfbd
00000140: 34b5 87bd 2c59 a13c bdeb 083e 9bf2 a1be
00000150: c1d2 0f3e d7f5 3d3d 6bb2 51be b274 08bd
00000160: 777f 873e d679 bfbd 75a1 033c 5ea0 583e
00000170: 07d7 79bc 3f4c 6bbd 0b3c 5c3e 9b83 853e
00000180: f63a c6bd 888c e73d f9fc 2b3d e1f8 89bd
00000190: 4b0a 2dbe df24 6b3e 4bf1 103e 6ae0 953b
000001a0: e4a5 383e 1f2b 213e 6efb 3cbd fd50 cfbd
000001b0: bfe0 3c3d 7979 9d3d adc3 723d 293a 3abe
000001c0: fea7 43be 3b31 923e 5857 a73b ea60 adbd
000001d0: 89e1 0dbb 008c 63be 7ced 143e d490 15bd
000001e0: afa7 1ebe 40e7 363e 4c1e 78be f10c cd3c
000001f0: a03a 7ebd 643e aa3c e1f0 57be c418 47be
00000200: d100 e43d 9ac1 85bc 669b 0a3e 1be3 d8bc
00000210: 12ab 1ebd bdc6 71be 163d 5a3e 7c64 913d
00000220: 476d 61be 4a2a d1bc 166b 013e 8be2 1dbe
00000230: 6468 12bc a115 1fbc 2eef 8c3d 616d a6bd
00000240: 23a1 3f3e 6ca0 f23d 93ed 4cbe 640f d2bc
00000250: f965 f83d c0bb 45be 8cc5 013d 594a aebd
00000260: d7e8 cf3d 8461 623d f5ca 1ebc 3eb2 693e
00000270: 948b 26bd 99eb 533d 7462 d93d 2e0e 82be
00000280: b7a7 483d eecb ac3d 1182 8ebc 9401 a93d
00000290: ab6c 543e 2186 3cbe c435 21bd 27e5 45be
000002a0: 8b5a 753d 4ae6 af3c 2d00 203d 70d3 ed3d
000002b0: 90f4 203c 5955 a13b 9358 593d b305 833e
000002c0: c5c2 e33d 22aa 2b3d 1d21 c0bd 8793 a23d
000002d0: 8aa6 5dbd f148 813d ba06 8abe dea2 a73d
000002e0: 801f 28be 3868 17be 0ff0 67be 06e8 1cbe
000002f0: 8d95 253d fb20 0c3e b4e6 573c 3ca0 993d
00000300: 8ece 533e 91c8 30b8 dcd9 713e 3aa5 f2bd
00000310: faad 38be 813d 7dbe 695c 2dbe ff8a 853d
00000320: 9826 b1bd 3bfa 0ebe 7a79 933e e4ef 0cbe
00000330: 3d7c b0be e9ab 0fbe 0301 e33c 98b8 9b3e
00000340: 5f7f 96bd a136 5fbd 1999 813d d3c5 df3d
00000350: 7a0c a63d 9297 f9bc f711 763d 6d4d cabd
00000360: 61ea ea3d 6d21 a1bc f64c 24be 9212 46bc
00000370: a82e 1bbe 4b67 04bd a9f7 3a3d a7b3 9cbd
00000380: 2ad1 9f3c 8dd1 59bd 90a7 51bd e776 453e
00000390: 7a63 82bd 8f96 40be fe1b 453e 28a8 b4bd
000003a0: b686 d53d c8de 6bbd 6acf c4bd 88c3 0dbe
000003b0: afa2 a23e 3965 f03d 9522 03be dd16 31be
000003c0: 47c9 de3e 654b 0b3d 3a2a 1cbd ed7c ce3d
000003d0: e189 02bd de9e f3bc 2684 22bd 66b8 113d
000003e0: 397f c63d 29be 4dbe 49e2 043d 7e6e 82bd
000003f0: 4ecf b63d 950a 5c3d 56a2 cbbd 4f57 37bd
0.10497458 0.19076124 -0.08688413 -0.11551657 0.1389526 -0.17674549 -0.07961445 -0.04453334
-0.17250885 -0.1229739 -0.056868155 0.2045341 -0.010405073 -0.22767009 0.033385776 0.012041679
0.04282394 0.034947127 0.12718892 0.05460853 -0.02350264 -0.087449215 -0.08290151 0.098738015
0.04020721 -0.152966 0.054396756 -0.01728644 -0.1178224 0.0057832873 0.14364332 0.008036316
-0.289249 0.036161743 -0.0066838292 0.19624065 0.21952628 0.10006438 -0.083671525 0.09385843
-0.02041166 -0.35506684 0.14242496 0.05399823 0.1288057 -0.038872026 -0.2135471 -0.30711588
-0.15011793 -0.106601425 -0.14094795 0.1404272 -0.0012002916 -0.05620046 0.019881839 0.11761916
0.03179578 0.25250927 0.05986488 0.026441611 0.32227212 -0.045032743 0.08519392 0.12738062
-0.1508317 -0.07135173 0.06814271 0.088337794 -0.07324948 -0.083753236 -0.03361481 0.13915385
-0.008486555 -0.026601408 0.39269957 -0.031876687 0.36628065 -0.019466747 0.2413151 -0.09333825
-0.06626359 0.01969584 0.13371177 -0.31630406 0.1404524 0.04637703 -0.20478217 -0.033314414
0.26464435 -0.0934941 0.0080341 0.21154925 -0.01524902 -0.05744576 0.2150728 0.2607697
-0.09679215 0.11306101 0.0419893 -0.06736923 -0.16898458 0.22963284 0.14154546 0.0045738714
0.18032032 0.15739106 -0.04613822 -0.10122869 0.046112772 0.07689185 0.059268642 -0.18186249
-0.19107053 0.28553185 0.0051068477 -0.084657505 -0.0021649322 -0.22221375 0.14543718 -0.036515072
-0.15493654 0.17861652 -0.24230307 0.025030585 -0.062067628 0.020781703 -0.21087982 -0.19443041
0.11132968 -0.016327668 0.13535842 -0.02647548 -0.038737364 -0.23610969 0.21312365 0.07099244
-0.22014342 -0.02553286 0.12638506 -0.1541845 -0.0089360215 -0.009709747 0.068815574 -0.08126331
0.18713813 0.11847004 -0.20012502 -0.025642104 0.12128825 -0.19309902 0.031682536 -0.085102744
0.101518326 0.05526878 -0.009691943 0.228219 -0.040660456 0.051738355 0.106144816 -0.25401443
0.04898807 0.08437334 -0.017396005 0.08252254 0.20744579 -0.18410541 -0.039357916 -0.19325696
0.0599008 0.021472115 0.039062668 0.11612594 0.009823933 0.0049235043 0.053062987 0.25590286
0.11121134 0.0419103 -0.09381316 0.07938295 -0.054113902 0.063127406 -0.26958257 0.08185361
-0.16418266 -0.1478585 -0.22650169 -0.15322885 0.040425826 0.13684456 0.0131775625 0.075012654
0.20684263 -4.2148462e-05 0.23618263 -0.11847921 -0.18035117 -0.24730493 -0.16929783 0.06520652
-0.08649939 -0.13962643 0.28803617 -0.13763386 -0.34469786 -0.14030422 0.027710443 0.3041427
-0.07348513 -0.054495458 0.06328029 0.10926404 0.081078485 -0.030467782 0.060075726 -0.09878049
0.114704855 -0.019669259 -0.16044983 -0.012089388 -0.15154517 -0.03232507 0.045646343 -0.076514535
0.019508917 -0.05317836 -0.05118519 0.19283639 -0.0636663 -0.18807434 0.1924896 -0.08821136
0.10426085 -0.057585508 -0.096098736 -0.1384412 0.31764743 0.11738057 -0.12806161 -0.17293878
0.43512937 0.03400745 -0.038126208 0.100824215 -0.031869773 -0.02973884 -0.039676808 0.035576247
0.096922345 -0.20092072 0.032442365 -0.06368731 0.08926259 0.05372103 -0.099430725 -0.044761

2.bias f4 [64]
00000000: 9d0b 3d3e 4d4b 07be 0863 bdbe a27e df3d
00000010: fd8d 213e f867 26bb aa92 95be 7996 6cbc
00000020: e8ad 0bbe c0cd 863d af2a eb3d 02ff 353d
00000030: ec6c 03be 13f4 fdbd 99c0 78be 6980 78be
00000040: 6ed3 ba3e c302 8fbe 4163 2d3d 8a1c 80be
00000050: e0f4 6e3e 1941 de3c 06dd 253d 95a7 bfbd
00000060: c5d5 edbd 391d 3ebe 47f8 9d3d 8d3a 45bd
00000070: 3814 983d aaaf d6bd c752 90be e8af 05bd
00000080: bbcc fbbd c463 3d3e 6ad0 5a3e f927 fb3d
00000090: a12b 58bc a9af 6bbe d644 1fbc b3aa 33bd
000000a0: 411c f1bc e744 52be cb2e 1b3e 8a8d 0e3e
000000b0: 75cd 16be d7ff db3d 027c 493d b043 813b
000000c0: 1c2b 12bd a63c a43d b619 783c 7a7d 653e
000000d0: 61cf 2e3e 90b0 623e 5101 e7bd 94a5 973e
000000e0: 1c3b a33d 66b5 233d 797c 80bd 9be4 1ebc
000000f0: ff42 3dbd 4831 c93d 2145 72be 2dd5 dfbd
0.18461461 -0.13212319 -0.36989617 0.10912825 0.1577682 -0.002539156 -0.29213458 -0.014440172
-0.13640559 0.065822124 0.114827506 0.044432648 -0.12834519 -0.12400069 -0.2429222 -0.24267735
0.36489433 -0.27931795 0.042330984 -0.25021774 0.233356 0.02713065 0.040493988 -0.093581356
-0.11613039 -0.18565835 0.07713371 -0.04815154 0.074257314 -0.10482724 -0.28188154 -0.03263846
-0.122949086 0.18495089 0.21368566 0.122634836 -0.013193996 -0.23016228 -0.009721002 -0.043863963
-0.029432418 -0.20534097 0.15154569 0.1392118 -0.14726813 0.10742157 0.04919053 0.0039448366
-0.035685644 0.0801938 0.015142849 0.22411147 0.17071296 0.22137666 -0.11279548 0.29618514
0.079702586 0.039967917 -0.06273741 -0.0096980585 -0.04620647 0.09823853 -0.23659183 -0.10929332

4.weight f4 [128, 64]
00000000: 801b 273e ed38 d0bd 0611 2bbd 5715 2b3c
00000010: cb7a 28bc e3b6 b53d c691 8e3d dc15 6abd
00000020: 7f9f 173d f8b2 1dbe 0cc7 8d3d 3540 14bd
00000030: 352f 0ebe c511 31bd 5887 24bd 867a 75bd
00000040: b1ee 03bc 0528 e7bd cff6 3abd 2123 66bd
00000050: c142 013e 205b d93d a970 c4bb 46b0 993d
00000060: 3b22 e23d 7e7e 52bd 6e78 9cbd cd3f f83c
00000070: 1aca 7bbd cb67 ed3b 2ef8 b13d fc6b 04bd
00000080: 6e04 c73d abbd 7c3d aec6 1bbe f024 56bd
00000090: 2c15 89bc a2a4 f7bc 9df4 c93d 113e da3c
000000a0: 4c5d b13d 39d4 40be db98 923d d1b4 88bd
000000b0: de91 88bd cd16 c4bd c15b 08bd 4126 6fbb
000000c0: a2f1 d13d fe9e 013e 9cb0 f0bc 3cde 963d
000000d0: 41b1 debd cfa5 c23c 9375 5ebd 5554 d3bc
000000e0: 22e0 ec3d a817 cb3d 28a5 f73c dafb 183d
000000f0: 0ee1 003e 4cbe 3dbd 0cac 26be 6d4b 323d
00000100: b115 0000 e305 0000 1303 0080 d00d 0080
00000110: 6812 0000 3815 0000 3717 0080 c001 0000
00000120: b50a 0000 2304 0080 660b 0080 d20d 0000
00000130: b609 0000 a313 0080 7103 0000 b40d 0080
00000140: be12 0000 cb09 0080 b408 0080 7906 0080
00000150: 910b 0080 4516 0000 5b03 0000 f00f 0000
00000160: 3507 0080 4615 0080 cf05 0080 fa0b 0000
00000170: 9e0e 0080 1301 0080 a105 0080 960f 0080
00000180: 9e83 2889 bc1a 0080 0405 0080 2806 0080
00000190: a213 0000 c306 0000 c307 0000 cd08 0000
000001a0: 5506 0000 fe08 0080 7f0a 0000 8078 2088
000001b0: 8b0c 0080 ce02 0000 da07 0000 d404 0000
000001c0: 0012 0000 d204 0080 7622 0000 0210 0000
000001d0: 5b10 0080 9322 0000 8907 0000 cf69 0880
000001e0: 7313 0000 120d 0000 0f0b 0000 c00c 0080
000001f0: 2206 0080 f006 0000 2501 0080 650f 0080
00000200: fe29 473d 387c a63d 5b18 b5bd 0da5 88bc
00000210: 67fc f1bc 962c e6bc 6e7f 173a 8cc7 7b3d
00000220: da96 7abc 021d d43a 7e0d 8a3d e96e db3c
00000230: 3a0c c9bd 9984 81bb aa69 0bbe 2bec 88bd
00000240: b164 cc3d f9a2 1d3c a210 1dbe 608d f8bc
00000250: d471 0ebd ae8f b9bc 62a1 863d ca36 b7bd
00000260: 5cc9 5cbd 2585 75bc c8a8 a7bd 0876 87bd
00000270: 169d b2bc eeda 0e3d dee5 f1bd fac6 8bbd
00000280: d32e c93c 54f3 5d3c 3cc1 dabd 561b 4abc
00000290: 5913 61bd 8dd9 f83c c61e af3c 6d20 b3bc
000002a0: 0673 87bd 65d4 1fbd c3a4 29bd cee5 d6bd
000002b0: c09e 0b3e 028f 683d 064c 9e3d 5f39 d7bd
000002c0: d4bc 91bd 121f 24be 31c6 813d b7c4 0d3e
000002d0: 5a1a 3d3d 88a8 403e df5b 42be 89d9 86bd
000002e0: 908c adbd 202c 9bbd 4efd e43b 0c86 d3bd
000002f0: 11cd 543d f28e 40bc 2f76 e13d fa23 78bd
00000300: 8793 b03c 35cf dabc 6b8c 08bc 187b fb3d
00000310: 126f a03d c3b3 ab3c 85bc 493c 6051 aabc
00000320: ff35 9abd ddd0 27be fd1a 4e3e 98c3 9dbd
00000330: 41b0 a1ba dde2 93be 1710 4e3b 8533 e7bd
00000340: 9655 afbd 740a bf3c a77a c73c b0e2 2c3d
00000350: e735 563d 8d02 59bd 28cc 9bbd ca95 3a3d
00000360: 8557 0a3d 4d61 be3d 4b77 de3d 8026 bebd
00000370: 78b5 e93d 3932 db3d 58f5 2fbd 70cd 10bd
00000380: 5293 0cbe a09c c5bd 3dcb ac3d d0e6 303e
00000390: 8a90 173e 4667 d33d 4dcd b63c ba20 073d
000003a0: 0000 b9ba b027 ab3c 374f bc3b 406f 1d3e
000003b0: 6d3c 04bd 199f d1bd 483e 56bd f52a 4bbe
000003c0: 7fa5 8e3d bdd8 4fbb 1c06 943c bd44 33b9
000003d0: 248b c53d 1ccb 46bc c53c 8f3d 5414 acbd
000003e0: c12e 3e3c d2b7 80bd 3969 f4bd 1429 a33d
000003f0: 4794 123c eafe 26bd 838a f2bd f551 ae3c
0.16319084 -0.10167108 -0.04176428 0.0104420995 -0.010283182 0.088727735 0.06961398 -0.057149753
0.03701734 -0.15400302 0.06922731 -0.036194045 -0.13885196 -0.043229837 -0.040168136 -0.0599313
-0.008052514 -0.1128693 -0.04564553 -0.056185845 0.12623121 0.10613084 -0.0059948754 0.075043246
0.11041685 -0.051390164 -0.07640158 0.03030386 -0.061472036 0.007245039 0.08689915 -0.032329544
0.09717642 0.06170432 -0.15212509 -0.05228132 -0.016733728 -0.03022987 0.098611094 0.026640924
0.08660373 -0.18830957 0.07158061 -0.06675113 -0.06668447 -0.095746614 -0.03329063 -0.0036491307
0.10251166 0.12658307 -0.029381089 0.073666066 -0.10873652 0.023760704 -0.054311346 -0.025797049
0.115661874 0.099166214 0.03023012 0.03734956 0.12585852 -0.04632406 -0.16276568 0.043528963
7.781e-42 2.112e-42 -1.103e-42 -4.955e-42 6.603e-42 7.612e-42 -8.328e-42 6.28e-43
3.841e-42 -1.484e-42 -4.089e-42 4.958e-42 3.484e-42 -7.044e-42 1.235e-42 -4.916e-42
6.723e-42 -3.513e-42 -3.122e-42 -2.322e-42 -4.149e-42 7.989e-42 1.204e-42 5.717e-42
-2.585e-42 -7.631e-42 -2.084e-42 4.296e-42 -5.244e-42 -3.85e-43 -2.019e-42 -5.591e-42
-2.028415e-33 -9.59e-42 -1.799e-42 -2.208e-42 7.043e-42 2.426e-42 2.784e-42 3.157e-42
2.272e-42 -3.226e-42 3.765e-42 -4.8289896e-34 -4.5e-42 1.006e-42 2.817e-42 1.732e-42
6.457e-42 -1.729e-42 1.2362e-41 5.743e-42 -5.867e-42 1.2403e-41 2.703e-42 -7.72641e-40
6.977e-42 4.689e-42 3.967e-42 -4.574e-42 -2.2e-42 2.489e-42 -4.1e-43 -5.523e-42
0.04862403 0.081291616 -0.08842536 -0.016680265 -0.0295393 -0.028097432 0.00057791814 0.0614696
-0.015294755 0.0016182961 0.06740855 0.026786285 -0.09816785 -0.0039525745 -0.13614526 -0.066856705
0.09980143 0.009621375 -0.15338376 -0.03034085 -0.034776524 -0.02265152 0.0657375 -0.08945997
-0.05390297 -0.014985357 -0.08186489 -0.066143095 -0.02180342 0.034876756 -0.11811422 -0.06825061
0.02455846 0.0135467835 -0.10681388 -0.012335619 -0.054950092 0.030377174 0.021376979 -0.021866048
-0.06613736 -0.039020915 -0.041416895 -0.104930505 0.13634777 0.056777008 0.07729344 -0.105089895
-0.07116094 -0.16027477 0.0633663 0.13844572 0.04616771 0.1881429 -0.18980359 -0.0658446
-0.08474076 -0.075767756 0.006988204 -0.10328302 0.05195338 -0.011752831 0.1100887 -0.060581185
0.021554722 -0.026710132 -0.0083342595 0.12279338 0.07833685 0.02095974 0.012313013 -0.020790756
-0.0752983 -0.16388269 0.20127483 -0.07703322 -0.0012335853 -0.2888402 0.0031442696 -0.112891234
-0.08561246 0.023320414 0.024350477 0.042208374 0.0522975 -0.05298095 -0.07607299 0.045553006
0.03377487 0.092959024 0.10862597 -0.09284687 0.114115655 0.107029386 -0.042958587 -0.03535217
-0.13728073 -0.096490145 0.08437202 0.17275548 0.14801231 0.10322432 0.022314692 0.032990195
-0.001411438 0.020892948 0.005746748 0.1537447 -0.03228419 -0.102354236 -0.05230549 -0.19840606
0.069651596 -0.003171488 0.01806932 -0.00017096377 0.096456796 -0.012133386 0.06994013 -0.08402315
0.011607827 -0.06285061 -0.11934132 0.079668194 0.008946485 -0.04077045 -0.11842825 0.021279315

4.bias f4 [128]
00000000: 91d0 3a3c 3f90 b495 48cd 2b3e 2ce6 2a3d
00000010: a1e8 4b3d 34fe 40be 7891 9c3d adf1 cabd
00000020: 18c2 8ebd 3874 12bd 8fe1 ecba e26d 833d
00000030: 8c13 0bbe 18bb a93d f9b2 fb3c bac8 02b1
00000040: 17d2 0a3d 1289 713d 1d5c 493d 0d14 d7bd
00000050: 59dc 953c 2ef8 0fbc b132 14be 816a 22bd
00000060: 0ef3 f4bd 5560 063d 96a8 21bb 1cbb 833c
00000070: 9b49 073d 6b2b a73c 1d09 be3d 38b3 a7bc
00000080: 0c2c 023e c81d c7bd c18d 86b8 3844 99bd
00000090: ee2a 373d 9c0a dcbd 7093 abbc a508 38bd
000000a0: 5571 10bd 51d9 2f3d fd61 5a3d d14d 2cbd
000000b0: 8371 873e 6721 913c cc77 79bd e79a aaba
000000c0: 8495 563d a606 a4bd 933d 783c bc33 e53d
000000d0: 7965 363d 596d 9b3d e648 533c b925 503d
000000e0: e5f4 bdbd 95df 0bbc 49df ee3d a561 28bd
000000f0: 93b6 9bbd f216 fcbd 9d68 4ebd 3d90 aebd
00000100: a123 99bc 9c29 73bc 3c81 b2ba 10f8 87bd
00000110: 3bc0 9b3c f322 683d 3e38 7e3c d14b aebc
00000120: e8fa 38ba a6c8 c7bd 353d e43c 11b8 363c
00000130: 74a6 f9a1 e33c 753d e07a 10be ca57 08bc
00000140: 3924 863d 0a06 c03d 03a7 bbbd 1dce 703d
00000150: 3ad5 3dbd bac2 043d 005a 33bd 786d 483e
00000160: 23fa 003e d205 b09e 8d2a b13c e342 52bd
00000170: 7985 133e c9ef 3f3e 4b25 713c b525 2ebd
00000180: 7c22 c8b6 4ece 4abe 6ec3 953c b6e2 723d
00000190: 91f0 843d f25c 11bc df09 9e3d d9b9 1b3e
000001a0: 6c91 00be 6ade c33d 4122 cfa8 3abf 4abd
000001b0: 4c80 183d 67eb 773d 2d00 e0bc ae73 8dbc
000001c0: a4a3 49bd 53e3 893c bf4f babc bc52 7abd
000001d0: 7143 2b3d 4157 cc3d 76e9 633a ffcb c73c
000001e0: 049c 393d 4bee 433b d61c 8e3d 2b8a 64bd
000001f0: da0b 4e3d 660b 9f3d 7749 023d d18d 15be
0.011402265 -7.2929e-26 0.16777527 0.041723415 0.0497824 -0.18846971 0.076449335 -0.09909377
-0.06970614 -0.035755366 -0.0018072593 0.06417443 -0.13581675 0.082876384 0.03072499 -1.903159e-09
0.033891764 0.05896861 0.04916011 -0.10501871 0.018293547 -0.008787198 -0.14472462 -0.03965235
-0.119604215 0.032806713 -0.0024667135 0.016080432 0.03302918 0.020406445 0.09279082 -0.0204712
0.12712115 -0.09722477 -6.416022e-05 -0.07483715 0.044718675 -0.10744211 -0.020944327 -0.04493012
-0.03526433 0.04293186 0.053316105 -0.0420664 0.2645379 0.017716123 -0.060905263 -0.0013016135
0.052388683 -0.080090806 0.015151399 0.11191508 0.044530366 0.07589216 0.012895798 0.050817225
-0.092752255 -0.008537193 0.11663682 -0.041108746 -0.07603183 -0.12309064 -0.050392736 -0.08523605
-0.018693747 -0.014841463 -0.0013618837 -0.06639111 0.019012561 0.056673955 0.015516339 -0.021276386
-0.0007056431 -0.097550675 0.027861217 0.011152283 -1.6916956e-18 0.05987252 -0.14109373 -0.008321712
0.06549878 0.09376152 -0.09162714 0.058790315 -0.046345927 0.03241227 -0.043787003 0.19573009
0.1259542 -1.8637132e-20 0.021626735 -0.05133332 0.14406385 0.18743815 0.014718364 -0.04251643
-5.964479e-06 -0.19805261 0.018281665 0.05929824 0.06491197 -0.008872258 0.077167265 0.15207614
-0.12555474 0.095639065 -2.2996472e-14 -0.049498774 0.03723173 0.06052723 -0.027343834 -0.017267074
-0.049228325 0.01683203 -0.022743104 -0.061114058 0.041812364 0.0997758 0.0008694151 0.024389265
0.045314804 0.0029896672 0.06939094 -0.05579583 0.05030427 0.07765846 0.031808343 -0.1460488

6.weight f4 [256, 128]
00000000: 6668 403b e19e 0080 1012 28bb 4233 a0bb
00000010: 7c5d 803b 9d36 79bb f5fc 123b 921e 28bb
00000020: 1d6e 873b 612a 77bb 8424 47bb 82a0 03bc
00000030: d1fe df3a a0bd 61bb 4029 aebb db70 0080
00000040: 0f68 a2bb 3fa7 bebb f875 8dbb 3f82 133a
00000050: 10b9 ccbb 10c9 5ab6 155e a0bb df14 b7bb
00000060: f6f7 a839 8385 b9bb c817 0080 4d4b f7bb
00000070: 605b 993b 97c3 dcbb 40fb 72bb 80e4 adb8
00000080: 096d 0a3a 0531 a5bb 076d 42bb 45a3 c0bb
00000090: 6147 f2ba 6f73 b53a fc88 88bb f39e 19bb
000000a0: b51e 85bb 63b1 d4bb b864 b5bb 4ef5 a7b9
000000b0: c92e 77bb cdbc b23b 9b3d ffbb 035d 0a3b
000000c0: bbab a1bb 97d0 99bb 0f31 aabb 86e4 e2ba
000000d0: 5ebc 873b bda5 ffbb 0900 89bb ed53 61bb
000000e0: ca53 073b 7deb 2c3a 1f8c d0bb 1705 2dba
000000f0: c8fa dcba e45d c0ba 8102 263a 8eb5 103b
00000100: 24c5 82ba 7bdf 3cbb b20e d83b 440f c23a
00000110: a72b a1bb 4b3c f9bb d069 9fbb 49ce 0abb
00000120: d856 acab 46aa 90bb e5c6 74bb fbc9 573a
00000130: 456c 0000 2598 0dbb 203e cbbb 5f4a a2ba
00000140: d0b0 01bc 893d 99ba c17b ce3b 7a6d 28bb
00000150: f9ac f5ba b363 0039 6d9e d7bb e542 df39
00000160: f2a7 1fb9 cd01 0000 6bd0 e9bb 257a 7e3a
00000170: 2356 353b fba7 313b 455f c1bb 5c7d 1b39
00000180: 6d2e 0000 b47b 72bb 85ad 9cbb d081 353b
00000190: 19ac bfba 67f2 91bb 4753 f1bb 2f71 87ba
000001a0: b34f 9cba e22f 5cbb 52ea b51b af2e 01bb
000001b0: 3919 e6bb 60cf 9cbb d7e3 0fbc 05e8 68bb
000001c0: b28f b63b 9ece 33ba 5670 86bb bf1c 3ebb
000001d0: bdf3 d9ba 6412 58bb 7107 9dbb 1f53 49ba
000001e0: acf3 19bb 5670 d2ba 3329 98ba 2127 9bba
000001f0: 6eff 5dbb 5ed7 9cbb 2847 5cbb b913 31bb
00000200: 6215 0080 777f 0000 c930 0000 2807 0000
00000210: 1c0e 0080 441b 0080 381b 0000 b20e 0000
00000220: d81c 0080 ec19 0000 6f0c 0000 1e08 0000
00000230: 5b12 0000 f204 0000 d20d 0000 c141 0000
00000240: f21b 0080 030c 0000 f001 0000 9c0d 0080
00000250: 481b 0000 7c03 0080 b608 0080 0b17 0080
00000260: a218 0080 aa01 0080 6997 0000 ac08 0080
00000270: 212d 0000 b314 0000 3607 0080 9802 0000
00000280: ce15 0080 5c1b 0080 4f05 0000 4e0a 0080
00000290: 9205 0080 b718 0080 6b25 0080 3807 0080
000002a0: a41f 0000 e519 0000 2218 0080 591c 0080
000002b0: 8008 0080 0114 0080 1a04 0000 941b 0000
000002c0: f71a 0000 2f0a 0000 4807 0000 d91a 0080
000002d0: 7419 0000 de2f 0080 1c07 0080 a807 0080
000002e0: 4d1d 0080 652a 0080 9a01 0080 b018 0000
000002f0: c528 0080 9002 0000 8c19 0080 840f 0000
00000300: cd1c 0000 3502 0000 4d2d 0080 1c0c 0080
00000310: cb05 0000 613f 0000 b504 0080 430e 0000
00000320: 1182 0080 b901 0080 f417 0000 dc5a 0080
00000330: 4558 0000 2017 0000 5b0b 0080 131c 0080
00000340: fe10 0000 c418 0080 710c 0080 0315 0000
00000350: f01b 0080 fe05 0000 1f08 0000 b603 0000
00000360: d218 0080 ed45 0000 7206 0000 4e39 0000
00000370: fb17 0080 092e 0080 a801 0000 ae0a 0000
00000380: a24b 0000 9d09 0080 4711 0000 cf01 0080
00000390: 7c08 0000 9908 0080 371b 0080 6302 0000
000003a0: 5503 0080 c50b 0000 ef9d 0080 3d0c 0080
000003b0: 6b0d 0000 ae1a 0080 4c00 0000 3501 0000
000003c0: c40e 0000 4f03 0000 8715 0000 ca16 0000
000003d0: c603 0000 f405 0000 8512 0080 331b 0000
000003e0: 3e0b 0000 fd03 0080 6306 0000 6d1d 0000
000003f0: 3a16 0080 d40d 0080 520b 0000 4419 0080
0.0029359101 -5.6995e-41 -0.0025645532 -0.004888923 0.003917394 -0.0038026937 0.0022428606 -0.0025652987
0.0041329996 -0.0037714469 -0.0030386755 -0.0080338735 0.0017089491 -0.00344453 -0.005314976 -4.0485e-41
-0.0049562524 -0.005818277 -0.0043170415 0.0005627013 -0.006247647 -3.2601565e-06 -0.004894028 -0.005587205
0.00032228202 -0.005661668 -8.531e-42 -0.0075468183 0.004680082 -0.0067371833 -0.0037076026 -8.291844e-05
0.000528053 -0.005041244 -0.0029667036 -0.0058788382 -0.0018484407 0.0013843606 -0.0041667204 -0.0023440688
-0.0040624985 -0.0064908727 -0.0055356883 -0.00032035488 -0.0037717095 0.0054546357 -0.0077893264 0.0021112568
-0.004933802 -0.0046940553 -0.0051938365 -0.0017310537 0.004142328 -0.00780174 -0.0041809124 -0.00343823
0.0020649307 0.000659637 -0.00636436 -0.0006600185 -0.0016859407 -0.0014676419 0.00063327706 0.0022080871
-0.0009976965 -0.0028819728 0.0065935487 0.0014805575 -0.004918534 -0.0076060644 -0.0048649088 -0.0021180084
-1.2245439e-12 -0.0044148294 -0.0037349996 0.00082316966 3.884e-41 -0.0021605578 -0.0062024742 -0.0012381783
-0.007915691 -0.0011691313 0.0063013737 -0.0025700019 -0.0018743566 0.00012244172 -0.006580165 0.00042583715
-0.00015225986 6.46e-43 -0.007135441 0.0009707532 0.002766975 0.002710818 -0.0059012496 0.00014828652
1.6654e-41 -0.0037000002 -0.0047814273 0.0027695782 -0.0014623433 -0.0044539454 -0.0073646638 -0.0010333414
-0.0011925608 -0.0033597876 3.0095364e-22 -0.0019711663 -0.0070220497 -0.004785463 -0.008782349 -0.0035538685
0.005571329 -0.00068590965 -0.004102747 -0.0029008833 -0.0016628426 -0.0032969946 -0.004792147 -0.00076799275
-0.0023491187 -0.0016055207 -0.0011608958 -0.0011837223 -0.0033874172 -0.004786416 -0.0033611748 -0.0027019812
-7.671e-42 4.5726e-41 1.7501e-41 2.567e-42 -5.061e-42 -9.781e-42 9.764e-42 5.272e-42
-1.0347e-41 9.299e-42 4.46e-42 2.912e-42 6.585e-42 1.774e-42 4.958e-42 2.3588e-41
-1.0025e-41 4.309e-42 6.95e-43 -4.882e-42 9.787e-42 -1.25e-42 -3.125e-42 -8.266e-42
-8.837e-42 -5.97e-43 5.4316e-41 -3.111e-42 1.6189e-41 7.425e-42 -2.587e-42 9.3e-43
-7.822e-42 -9.815e-42 1.904e-42 -3.697e-42 -1.998e-42 -8.866e-42 -1.3423e-41 -2.59e-42
1.135e-41 9.289e-42 -8.657e-42 -1.0169e-41 -3.049e-42 -7.176e-42 1.471e-42 9.893e-42
9.673e-42 3.653e-42 2.612e-42 -9.631e-42 9.131e-42 -1.7172e-41 -2.55e-42 -2.747e-42
-1.0511e-41 -1.5208e-41 -5.75e-43 8.856e-42 -1.4625e-41 9.19e-43 -9.164e-42 5.566e-42
1.0332e-41 7.92e-43 -1.6251e-41 -4.344e-42 2.078e-42 2.2736e-41 -1.689e-42 5.116e-42
-4.6659e-41 -6.18e-43 8.593e-42 -3.2594e-41 3.1665e-41 8.296e-42 -4.074e-42 -1.0071e-41
6.096e-42 -8.884e-42 -4.463e-42 7.538e-42 -1.0022e-41 2.15e-42 2.913e-42 1.331e-42
-8.904e-42 2.5085e-41 2.312e-42 2.0557e-41 -8.603e-42 -1.6514e-41 5.94e-43 3.831e-42
2.7132e-41 -3.449e-42 6.198e-42 -6.49e-43 3.044e-42 -3.084e-42 -9.763e-42 8.56e-43
-1.195e-42 4.222e-42 -5.6656e-41 -4.39e-42 4.813e-42 -9.571e-42 1.06e-43 4.33e-43
5.297e-42 1.187e-42 7.723e-42 8.175e-42 1.354e-42 2.136e-42 -6.644e-42 9.757e-42
4.033e-42 -1.431e-42 2.291e-42 1.0556e-41 -7.973e-42 -4.96e-42 4.061e-42 -9.064e-42

6.bias f4 [256]
00000000: d2d4 ccbb fc39 e28e 6f2d 16bd a8d0 87b0
00000010: 7063 bdb9 3d01 493d 90cd 003d 5225 27bb
00000020: 1883 f93b 09ec 45a6 17b4 5aba 07e9 00b3
00000030: 2c02 cda3 4f63 ddb1 b596 29af ee36 ccba
00000040: 930e 25bd 4836 2fbd 3f1e 22bb 3558 b3b6
00000050: 88be 81b9 7530 47ba 5047 fbb1 a4bc 6cbb
00000060: 9429 5d3b 4b0d 73ba 9532 36b8 11b7 5e9f
00000070: f85d 02bb b3a4 5fab c74d 3ab3 ceaf 7ab8
00000080: 45fb 13bb 7ea2 12b1 d5a9 56ba 6555 0bbd
00000090: b886 64bc 9b1d 25a7 b599 acb4 a6e1 02ae
000000a0: 012f 0aaf 90d2 0cbb 4235 fa9e ff20 d43a
000000b0: 8daa b1b8 ffe4 9db9 db57 33ba 6a63 9eb6
000000c0: d033 d23b e6fa cdba 6b27 93b4 6fe1 0abb
000000d0: 5c37 e1b5 9204 84b7 6fe6 f5a8 126d b2a0
000000e0: 7d24 cfba 42b2 e6ac bf82 27bb c9bc 07bd
000000f0: 6ff6 3292 d1fa d4ad 1316 0da6 8c6e dbba
00000100: e489 24b6 acac 08b9 a29f a8af 9521 5d3b
00000110: 656f 99ba 08d7 a8bb fb62 039b d983 fdb9
00000120: 471a 52bb 0cdc c6ba 7e0e 77b8 19be 06ad
00000130: 0c4f 9abb 81a6 03bd 55c0 75bb 5e1a a9a4
00000140: 9ffe 34b2 1140 c7b9 1a20 0cbb e77e aeb6
00000150: 9357 97bd 33ee 2ab9 9f59 e6ba 1f3e 91a9
00000160: 2a20 3b8d 48c5 31ab a39b 6abb 33bb b2b9
00000170: e258 843c 7ad4 f0b8 e418 739d b983 c2b9
00000180: d38c 2aba fd54 96b9 1b68 95ba 7e2b 0ebe
00000190: a1f9 df3c 2b0b 04bb 3161 d7b5 e27b 883c
000001a0: 0039 0cbd e59c 76b3 0f72 83bd acb0 f2b2
000001b0: a730 c03b 94a2 923a 0bf8 11b9 0e39 e1b3
000001c0: 3a39 98a1 1042 17bb e1ab 91b5 9262 583d
000001d0: 6a27 40bb fdde c2b5 7c78 e5b2 0978 bf3b
000001e0: d2d6 ebab 8522 9aba 958f 96bb 7708 e1b8
000001f0: e589 7cb2 bc17 0fbb 3d4b 20b4 b406 7eba
00000200: d99c 31a8 f837 46b5 10f2 dbb6 787f 85b7
00000210: 0679 c1ba 740b 05bb 26d1 51be bc4e 41a6
00000220: a390 aa9f bf6b 11bb 3630 e4b8 a2a5 db9f
00000230: c0d9 eeb8 da5e 8cb7 61ef 253c 3246 9a3c
00000240: 704f 77bb f972 80bb 8206 e5b7 1400 16b4
00000250: 3eb0 31b9 fb0f 38b8 8979 7ab9 b0c5 8abb
00000260: 6e14 873c fe5b 8ebb b8fd bc3d 893a 103d
00000270: 3cfd 95a4 f9f4 a9b7 a982 c398 bd27 d53c
00000280: 4178 87ac 3454 3aba 23ca 46bb e03e 90bd
00000290: 3354 99b9 d665 ccae 8b1d 7dbb be0b 06bb
000002a0: 8cd3 31bb f858 349a b792 7fbd dec3 05ba
000002b0: ec65 b0bb 9d5d 79ba a69b 0895 993c 15a2
000002c0: 56ac 58a7 c66d beba 1bc0 b3bc 0a32 fabc
000002d0: 79fe 9eba 7ce5 bbb1 fd06 29ab feb5 2ab9
000002e0: 676b 913b 772d c0aa 60c7 8d3c 4b49 44bb
000002f0: bd1e 49ae 061a d4ba a50e ddba 4cfe 12b9
00000300: 45fd eba8 df2f 04b7 b7a3 0abb 9296 45b2
00000310: 7776 7ebb bca5 73bb 9370 2abc e478 76b1
00000320: fd59 37bb 99f3 04bb 5b82 f43a f725 e2af
00000330: 8d8d f3ba 5825 d0b9 a969 78ba 74a8 11bb
00000340: ce9f cdbb 0b02 65b3 f8d0 77b3 192f a53c
00000350: b38d be3b 971e 4c99 4d0c b1b9 7778 38bb
00000360: 4b61 07bc e8a0 a6ba 9e7b 52a9 f4c5 6fb2
00000370: 14f9 1fb7 9037 1fba c50c 48b7 ecc1 4eb2
00000380: 5e78 7bab 892f 763c 4ef0 dd9e a2ab 553d
00000390: b80a b7bb e4f8 82ba 2727 62bb 7f05 25b1
000003a0: 8e9e daba ae0e 19bc 663f 1fb8 c598 ecba
000003b0: d733 1dbb 55fc dcbc 26b7 1eba b76d 01bb
000003c0: 1196 6fb7 a59a e3ba a3e8 ec3c da2b 393b
000003d0: 6f14 2888 a8ae 92bd 2421 963c eb53 09ba
000003e0: 4afe 8dab 9992 7aa2 9b03 fda6 449f c3b6
000003f0: 34ea a8bb 4fb9 1fb8 5025 04bb 3bd4 1e3d
-0.006250956 -5.576914e-30 -0.036664423 -9.881846e-10 -0.00036122976 0.049073447 0.03144604 -0.0025504422
0.0076145045 -6.866799e-16 -0.00083428755 -3.001426e-08 -2.2227064e-17 -6.4432366e-09 -1.5424002e-10 -0.0015580335
-0.040297102 -0.042776376 -0.0024737266 -5.3448844e-06 -0.00024746754 -0.0007598468 -7.3131687e-09 -0.003612318
0.0033746706 -0.0009271695 -4.343929e-05 -4.7161758e-20 -0.0019892436 -7.945408e-13 -4.3377238e-08 -5.9768376e-05
-0.0022580188 -2.1338162e-09 -0.0008188759 -0.034016985 -0.013948135 -2.29144e-15 -3.2149333e-07 -2.9758994e-11
-1.2567726e-10 -0.002148781 -2.6491807e-20 0.001618415 -8.471785e-05 -0.0003011599 -0.00068413996 -4.7203403e-06
0.006414868 -0.0015715032 -2.7409564e-07 -0.0021191498 -1.6779918e-06 -1.5737754e-05 -2.7300399e-14 -3.022655e-19
-0.0015803721 -6.5567838e-12 -0.0025560108 -0.033139024 -5.647065e-28 -2.4212994e-11 -4.894912e-16 -0.001674132
-2.4518167e-06 -0.00013034296 -3.0672448e-10 0.003374194 -0.0011706172 -0.005152587 -1.0868048e-22 -0.00048354155
-0.003205912 -0.001517178 -5.8902886e-05 -7.659228e-12 -0.00470913 -0.032141212 -0.0037498672 -7.3336735e-17
-1.0535273e-08 -0.0003800397 -0.0021381439 -5.2003775e-06 -0.0738975 -0.000163012 -0.0017574317 -6.45007e-14
-5.766254e-31 -6.3156815e-13 -0.0035798333 -0.0003409028 0.016155664 -0.00011483669 -3.217365e-21 -0.00037100705
-0.000650597 -0.0002867355 -0.0011398824 -0.13883778 0.027340712 -0.0020148258 -1.6047035e-06 0.016660634
-0.034234047 -5.7419033e-08 -0.06418239 -2.8252849e-08 0.005865175 0.0011187368 -0.00013920681 -1.0487757e-07
-1.0315068e-18 -0.0023080148 -1.0853365e-06 0.05282838 -0.0029320368 -1.4519024e-06 -2.6713899e-08 0.0058431667
-1.6757379e-12 -0.0011759555 -0.004594753 -0.00010730413 -1.4699684e-08 -0.0021834215 -1.4928533e-07 -0.000969033
-9.859485e-15 -7.3842193e-07 -6.5548884e-06 -1.5914193e-05 -0.0014760799 -0.0020301016 -0.2048994 -6.706703e-16
-7.223708e-20 -0.0022189466 -0.00010880867 -9.3024124e-20 -0.000113892835 -1.673347e-05 0.010127873 0.0188323
-0.0037736557 -0.003919956 -2.7301958e-05 -1.3969867e-07 -0.00016945691 -4.38839e-05 -0.00023887133 -0.004234992
0.016489234 -0.0043444624 0.092280805 0.035212073 -6.5047445e-17 -2.0260444e-05 -5.053825e-24 0.026019925
-3.8502816e-12 -0.0007107884 -0.0030332885 -0.070432425 -0.00029245167 -9.294936e-11 -0.0038622345 -0.0020453776
-0.0027134148 -3.7294996e-23 -0.062395778 -0.0005102734 -0.005383244 -0.00095125457 -2.7587766e-26 -2.0225346e-18
-3.0069445e-15 -0.0014528565 -0.021942189 -0.030541439 -0.0012130282 -5.4685056e-09 -6.005056e-13 -0.00016280261
0.004437852 -3.41376e-13 0.017306983 -0.0029950913 -4.572941e-11 -0.0016182072 -0.0016865326 -0.00014018378
-2.620008e-14 -7.878959e-06 -0.002115471 -1.1501145e-08 -0.0038827935 -0.0037177643 -0.010402816 -3.586643e-09
-0.0027977221 -0.0020286797 0.0018654572 -4.1136136e-10 -0.0018581614 -0.00039700675 -0.0009476194 -0.002222565
-0.0062751537 -5.3320075e-08 -5.7699225e-08 0.02016406 0.0058152317 -1.055273e-23 -0.00033769236 -0.0028147975
-0.008262943 -0.0012712749 -4.6736588e-14 -1.395664e-08 -9.5351315e-06 -0.0006073648 -1.1923902e-05 -1.2034871e-08
-8.9340156e-13 0.015025982 -2.3498673e-20 0.052165635 -0.0055859946 -0.0009992388 -0.00345082 -2.4013784e-09
-0.0016679333 -0.009341879 -3.79676e-05 -0.00180509 -0.0023987198 -0.02697579 -0.0006054513 -0.0019749233
-1.428045e-05 -0.0017364813 0.028919524 0.0028254897 -5.057968e-34 -0.07162219 0.01832635 -0.000523864
-1.0089232e-12 -3.3958926e-18 -1.7556379e-15 -5.829994e-06 -0.0051548723 -3.8081136e-05 -0.0020163842 0.038776617

8.weight f4 [128, 256]
00000000: a869 0000 3670 0000 1a13 0000 7407 0080
00000010: b828 0080 6faf 4f9f f130 3b9b 3748 0080
00000020: fa0f 0080 4495 0000 9f02 0000 303f 0080
00000030: 0135 0000 ce63 0000 3636 0080 808e 0080
00000040: 2d27 b8a8 bb6e 6dae 09a1 0000 7d23 0000
00000050: 5f2c 0000 fd0a 0000 5864 0080 a1ad 0080
00000060: a102 0000 5ba0 0000 2092 0080 a9a3 0080
00000070: e034 0000 df05 0080 f996 0080 9112 0080
00000080: b69a 0080 37a0 0000 d4ab 0000 8e01 0080
00000090: f717 0000 ba51 0000 4108 0000 c98f 0000
000000a0: fc18 0080 2d14 0080 b29f 0080 b8c1 1b85
000000b0: 069f 0080 b4a2 0080 6d32 0080 672f 0000
000000c0: 1f02 0000 b759 0000 da79 0080 f69f 0080
000000d0: 939f 0000 e301 0000 c40d 0000 c56e 0080
000000e0: e025 0080 6cac 0000 879f 0000 b47e 6718
000000f0: e198 0000 809c 0080 0c26 0080 109b 0080
00000100: 51a5 0000 7231 0080 0d1c 0000 de14 0080
00000110: ce29 0080 87ab 0080 6635 0080 993c 0000
00000120: 0e10 0000 f096 0000 ee2b 0000 226d 0000
00000130: a2a6 0080 8136 0080 0796 0080 7441 0080
00000140: 1c35 0000 8698 0080 ac50 0080 71a7 0080
00000150: d20e 0000 e82c 0000 8f8c 0000 f76d 0000
00000160: 7699 0080 3a20 0080 7c58 0080 9521 0080
00000170: f114 0000 6718 0000 f90b 0080 dd2e 0000
00000180: 4227 0000 1a2a 0000 9902 0000 ee08 6213
00000190: cc12 0080 d4a1 0080 2710 0080 8111 0080
000001a0: 0fe0 c69c 3407 0000 0804 0000 9384 0080
000001b0: ad07 0080 8993 0080 3a9c 0000 729e 0000
000001c0: 7990 0000 5082 0080 1e10 0080 ab12 0000
000001d0: 2321 0080 9995 0080 8f85 0000 f5b6 e685
000001e0: 4a0b 0000 f901 0000 0345 0080 cd9a 0000
000001f0: 597c 0080 c7a9 0080 ed95 0000 862d 0080
00000200: d722 0080 1f9b 0000 f161 0080 762a 0080
00000210: 0b10 0000 831f 0080 aa13 21a7 59ab 0000
00000220: 5d4a 0080 a68e 0000 e539 0080 8495 0080
00000230: aa0a 0000 100b 0080 0013 0080 8601 0000
00000240: a3a5 0000 c38a 0080 00ab 0000 6413 0080
00000250: 199f 0080 6f3b 0000 c20e 0080 8022 0080
00000260: f406 0080 7989 0080 286e 8686 030c 0000
00000270: b398 0080 af96 0000 38a2 0000 6210 0000
00000280: 588d 0000 d654 0080 fc02 0000 9479 8fa9
00000290: 583b 0080 6358 0000 5935 0000 04a8 0000
000002a0: 735d 0000 837c 0000 770f 0000 a824 0000
000002b0: 380c 0080 4b9e 0080 fc3e 0080 0790 0080
000002c0: b197 0000 7136 0080 6213 f5a6 5e10 0080
000002d0: 8909 0000 8954 0000 da33 0080 0d6a 0080
000002e0: ce0c 0080 ee2d 0000 d4d0 2787 8e91 0080
000002f0: d091 0000 de6d 0000 4460 0000 ea9e 0080
00000300: 319e 0000 066d 0000 2d10 0080 c39e 0080
00000310: 0e33 0080 d3a2 0080 530c 0000 4a34 0080
00000320: 1c97 0080 5da2 0000 fd31 0000 f902 0080
00000330: 5f05 0080 231e 0080 0f7a 0000 e29c 0000
00000340: 2c6a 0080 fd01 0000 5222 0000 2b09 0080
00000350: 0a0f 0080 0f4b 0080 862b 0080 c317 0080
00000360: 7d03 0000 821e 0080 c507 0080 dfa8 0080
00000370: 5b02 0080 b610 0000 0c94 0080 99a1 0080
00000380: 2408 0080 0f14 0000 b68f 0000 a10e 0080
00000390: 1308 0080 9eaa 0000 1f10 0080 4424 0000
000003a0: dc06 0000 9519 0000 a824 0080 7b9c 0080
000003b0: 1a8d 0080 d20c 0000 fa04 0080 cda4 0000
000003c0: f40a 0080 2629 0080 51c2 0100 2f0a 0080
000003d0: 9da1 0000 480e 0080 7c1a 0080 8a2b 0000
000003e0: dc6d 0080 f501 0000 3f10 0080 485f 0080
000003f0: ef7b 0080 dc00 0000 737a 0000 a4f0 1281
3.7902e-41 4.0254e-41 6.852e-42 -2.674e-42 -1.4607e-41 -4.397907e-20 -1.5484091e-22 -2.5906e-41
-5.731e-42 5.3546e-41 9.4e-43 -2.2667e-41 1.9014e-41 3.5803e-41 -1.9447e-41 -5.112e-41
-2.0445093e-14 -5.398591e-11 5.7769e-41 1.2731e-41 1.5917e-41 3.942e-42 -3.5997e-41 -6.2286e-41
9.43e-43 5.7525e-41 -5.242e-41 -5.871e-41 1.8968e-41 -2.106e-42 -5.4159e-41 -6.66e-42
-5.55e-41 5.7474e-41 6.164e-41 -5.58e-43 8.597e-42 2.9318e-41 2.961e-42 5.158e-41
-8.963e-42 -7.238e-42 -5.7288e-41 -7.3236455e-36 -5.7047e-41 -5.8367e-41 -1.809e-41 1.7005e-41
7.61e-43 3.2184e-41 -4.3712e-41 -5.7383e-41 5.7244e-41 6.77e-43 4.938e-42 -3.9737e-41
-1.3587e-41 6.1853e-41 5.7228e-41 2.9920019e-24 5.4843e-41 -5.6142e-41 -1.3649e-41 -5.5626e-41
5.9304e-41 -1.7738e-41 1.0063e-41 -7.486e-42 -1.4997e-41 -6.1532e-41 -1.9156e-41 2.1738e-41
5.76e-42 5.4146e-41 1.5759e-41 3.915e-41 -5.9777e-41 -1.9552e-41 -5.382e-41 -2.348e-41
1.9052e-41 -5.4715e-41 -2.894e-41 -6.0067e-41 5.317e-42 1.611e-41 5.0423e-41 3.9448e-41
-5.5051e-41 -1.1561e-41 -3.1742e-41 -1.2047e-41 7.512e-42 8.754e-42 -4.295e-42 1.6811e-41
1.4083e-41 1.5103e-41 9.32e-43 2.8529613e-27 -6.743e-42 -5.8053e-41 -5.794e-42 -6.279e-42
-1.3160459e-21 2.584e-42 1.446e-42 -4.7559e-41 -2.754e-42 -5.2926e-41 5.6044e-41 5.684e-41
5.1827e-41 -4.6747e-41 -5.782e-42 6.697e-42 -1.1887e-41 -5.3666e-41 4.7912e-41 -2.1696304e-35
4.05e-42 7.08e-43 -2.4757e-41 5.5532e-41 -4.4608e-41 -6.0905e-41 5.3783e-41 -1.6331e-41
-1.2498e-41 5.5647e-41 -3.5135e-41 -1.5232e-41 5.755e-42 -1.1304e-41 -2.2353898e-15 6.1468e-41
-2.6677e-41 5.1173e-41 -2.0769e-41 -5.3636e-41 3.826e-42 -3.968e-42 -6.816e-42 5.47e-43
5.9419e-41 -4.9778e-41 6.1343e-41 -6.956e-42 -5.7073e-41 2.1321e-41 -5.294e-42 -1.2376e-41
-2.494e-42 -4.9316e-41 -5.056706e-35 4.309e-42 -5.4778e-41 5.4055e-41 5.8193e-41 5.877e-42
5.0705e-41 -3.0433e-41 1.07e-42 -6.371566e-14 -2.1289e-41 3.1707e-41 1.9138e-41 6.0273e-41
3.3523e-41 4.4666e-41 5.548e-42 1.315e-41 -4.383e-42 -5.6785e-41 -2.2595e-41 -5.1667e-41
5.4417e-41 -1.953e-41 -1.7005544e-15 -5.871e-42 3.42e-42 3.0326e-41 -1.8601e-41 -3.8044e-41
-4.593e-42 1.6476e-41 -1.2625053e-34 -5.2215e-41 5.2308e-41 3.9413e-41 3.4534e-41 -5.7008e-41
5.6748e-41 3.911e-41 -5.803e-42 -5.6953e-41 -1.8315e-41 -5.841e-41 4.421e-42 -1.8758e-41
-5.4208e-41 5.8245e-41 1.7932e-41 -1.066e-42 -1.927e-42 -1.0811e-41 4.3786e-41 5.6279e-41
-3.8087e-41 7.13e-43 1.2312e-41 -3.289e-42 -5.395e-42 -2.6926e-41 -1.5613e-41 -8.524e-42
1.251e-42 -1.0944e-41 -2.787e-42 -6.058e-41 -8.45e-43 5.995e-42 -5.3109e-41 -5.797e-41
-2.92e-42 7.196e-42 5.1554e-41 -5.248e-42 -2.896e-42 6.1206e-41 -5.783e-42 1.301e-41
2.46e-42 9.177e-42 -1.315e-41 -5.6135e-41 -5.0618e-41 4.599e-42 -1.785e-42 5.912e-41
-3.929e-42 -1.4761e-41 1.61543e-40 -3.653e-42 5.7976e-41 -5.123e-42 -9.501e-42 1.5619e-41
-3.941e-41 7.02e-43 -5.828e-42 -3.418e-41 -4.4459e-41 3.08e-43 4.3927e-41 -2.6988616e-38

8.bias f4 [128]
00000000: fef8 42b9 3609 c8b9 9054 17b9 2bf1 d5b8
00000010: 967f e3b0 222a ab3d 30f0 00b5 29b9 57b6
00000020: a4b5 1f3e 90f3 b3b9 2223 b3b1 e83c bcb5
00000030: f031 87ba bdf9 c93d 1b0b 26a3 7c19 85b9
00000040: 292a a63d 34c6 31b1 57a1 93ad 5117 d1ba
00000050: 7c85 6d3d a902 aeac 3e9e 593d fb55 a19f
00000060: 885e f9a6 2fe0 33b1 8550 69b1 31ed c2ba
00000070: 1b4a 693e 69bf 11b8 b220 e6b5 294d 4eab
00000080: 32e1 5c3e 9b68 0c8a aa22 a29f f2cd d6b9
00000090: b65a 8cb7 1bcc 97a8 ad84 403e 84f1 4ab9
000000a0: 5362 ce3d b7e9 d09a 3bf4 17b4 b2d9 f2b8
000000b0: 6726 98b9 b96c a93d 91d0 77b9 67e5 133c
000000c0: ca3a 1fa9 5de4 b0ac 7386 89b3 3f02 06bb
000000d0: fd75 3398 c8fe 3f3e db3e 6c3e ed7f a0b2
000000e0: 7545 969f b50e 95b9 6b2f 26ba 64b9 27bb
000000f0: bf13 e28e 412c f9b6 0bdd 9fb7 b192 a1a2
00000100: 0e20 bb80 77fd a1b7 44c8 1fbb 6b65 0ab9
00000110: 6445 843e adca 16ba db2d a2b8 3e43 3fbb
00000120: cc92 8cb3 f7e7 efaf 8e94 39a2 cee1 85b9
00000130: bc59 21af a3b5 85b6 3890 00ba e2e1 2aab
00000140: 469e 80ba 870b 0ab9 1914 3ab2 db76 ac3d
00000150: 8a3b fdb9 9c33 76a5 737c e4b7 e82a c9ba
00000160: 7b1f 0393 a2ff 988b 64ff 2ab9 7921 fab9
00000170: c918 d4b6 f477 74b6 e260 12ba e151 8939
00000180: ef85 97b2 1c69 a39f cf3f 82b6 2801 16ad
00000190: 42dc 2ba9 90bc 37a4 883d 963d cf18 d4b2
000001a0: c679 50a9 9707 a03d e45d c7ab 5fc6 04bb
000001b0: 431d 809f 49ad 8cb1 3626 12b4 1e0a 633e
000001c0: 72f2 883e 2c32 8989 2374 513e 5863 3a3e
000001d0: d3a4 fa84 4b07 013e 48f6 1e3e 13ed 81b7
000001e0: 4782 0abb af0d 1fba 16ac 378c bf9e 11b4
000001f0: 1049 bcb3 ec2e 23b6 2f64 053e d10f c5b5
-0.00018594039 -0.00038153835 -0.00014431984 -0.000102015525 -1.6552686e-09 0.083576456 -4.8033235e-07 -3.2145274e-06
0.15596634 -0.0003432301 -5.21358e-09 -1.4024818e-06 -0.0010314565 0.09862087 -9.00123e-18 -0.00025386724
0.0811351 -2.5869555e-09 -1.6783614e-11 -0.0015952383 0.05798863 -4.9456728e-12 0.053129427 -6.8328395e-20
-1.7303469e-15 -2.6175362e-09 -3.3951733e-09 -0.0014871714 0.22782175 -3.474896e-05 -1.7145851e-06 -7.3292983e-13
0.2157028 -6.760429e-33 -6.8667016e-20 -0.00040970702 -1.6731541e-05 -1.6852884e-14 0.18800612 -0.00019354193
0.100773476 -8.640437e-23 -1.4151821e-07 -0.00011580008 -0.0002902031 0.0827269 -0.00023633453 0.009026862
-3.5356084e-14 -5.0275743e-12 -6.404016e-08 -0.0020448116 -2.3194777e-24 0.18749535 0.23070852 -1.8684625e-08
-6.364238e-20 -0.00028430452 -0.0006339463 -0.002559268 -5.5732316e-30 -7.42593e-06 -1.9057208e-05 -4.3794453e-18
-1.7184737e-38 -1.9310724e-05 -0.0024380842 -0.00013198487 0.2583419 -0.0005752247 -7.733303e-05 -0.0029184367
-6.54596e-08 -4.3638668e-10 -2.515082e-18 -0.00025535974 -1.4674745e-10 -3.984854e-06 -0.0004904303 -6.070961e-13
-0.0009812794 -0.00013165 -1.0831195e-08 0.084211074 -0.0004830028 -2.1354585e-16 -2.723767e-05 -0.001534787
-1.6550046e-27 -5.8932904e-32 -0.00016307604 -0.00047708655 -6.3209777e-06 -3.6428655e-06 -0.00055838947 0.0002619168
-1.763962e-08 -6.9207074e-20 -3.88173e-06 -8.52677e-12 -3.816067e-14 -3.9841518e-17 0.07335955 -2.469133e-08
-4.62909e-14 0.07813948 -1.416586e-12 -0.002025984 -5.425852e-20 -4.0942365e-09 -1.361121e-07 0.22171828
0.2674747 -3.302873e-33 0.20454459 0.18201959 -5.8926085e-36 0.12600438 0.15523636 -1.5488395e-05
-0.002113478 -0.00060674077 -1.4149592e-31 -1.3561929e-07 -8.767722e-08 -2.4316205e-06 0.13026498 -1.4682247e-06
