Models/checkpoint_vel_D2_1000_700.pth (torch, 353077 bytes, 16 tensors)

0.weight f4 [32, 9]
0.11281884 -0.11830724 -0.2742991 0.016102811 -1.2845719 0.2134567 0.011945311 0.28684023
-0.034307193 -0.073918715 0.13306546 0.2625239 -0.032653082 1.4738159 -0.023558771 -0.0269184
-0.10399347 -0.050327133 0.3976121 -0.019050268 -0.017029254 -0.046992753 -0.29410943 0.04596539
-0.13683118 0.03034348 0.08542053 0.10465127 -0.23292558 0.33092597 0.16321354 0.29100686
0.262023 -0.246453 -0.16750334 -0.08687284 0.1071126 -0.12111254 0.117697895 -0.2126
0.95713717 -0.11212465 0.19437474 0.0096913455 -0.19354062 0.024663035 -0.082993716 0.09982849
-1.3476328 0.07509615 -0.48176643 -0.0410383 0.06734106 -0.054671563 0.16743505 -0.013082054
0.38613585 -0.32817307 -0.14684206 0.12032782 -0.26320165 0.22772738 0.2626837 0.08951455
-0.3672281 -0.4005296 0.33073652 -0.053806227 -0.09176109 -0.05250207 0.053910322 0.038521003
0.13113709 0.14301847 0.17700239 -0.48801845 -0.1184701 0.08498323 -0.18117431 0.077134654
-0.15556352 -0.16171922 0.058794487 -0.6694026 -0.6041068 0.20619743 -0.18610376 0.14204635
-0.056322183 0.008630592 0.020725999 -0.28173876 -0.037790537 1.4022795 -1.207527 -0.21088627
0.075947866 0.11876644 -0.11768592 -0.03919325 0.24878553 0.083562486 0.7632777 -0.0606671
-0.15929402 -0.21694018 0.32547143 -0.072815925 0.14401436 -0.0051051523 -0.09352805 0.04498727
1.5426363 -0.06949703 0.00383319 0.273684 0.034157824 -0.003742396 -0.39791444 -0.009520464
0.027573515 0.16149211 0.40389404 -0.026660617 0.27513906 -0.26849136 -0.2611769 0.010158175
0.23570347 -0.040229946 -0.96046126 0.038313262 0.18197359 0.1070693 0.09913297 0.22235265
0.31436646 0.26821536 -0.12990631 -1.5052125 -0.13436522 0.09201836 -0.21179974 -0.002278768
-0.0040716836 -0.19435123 -0.052110564 0.084335975 -0.11718489 1.4094937 -0.03540727 -0.0066280556
-0.05339047 -0.0128135765 -0.38054675 -0.14944354 -0.91112816 0.045126416 -0.0012108576 0.016803227
-0.16326022 0.1803431 0.24056642 0.0492698 -0.37941757 0.065155305 0.79891104 -0.08190176
-0.20265865 -0.12808286 -0.16970941 0.048817493 0.26110402 0.40660763 -0.27976033 -0.012322742
0.1136031 0.018268598 -0.25500497 0.31212285 -0.04820664 -0.06527877 -0.24472193 -0.27290717
-1.1188455 0.017519591 -0.29013905 -0.19573286 -0.005669153 -0.23243813 0.017433656 -0.025764251
-0.2623128 0.31003773 0.8213061 -0.08774472 0.039016638 0.054014955 0.28469762 -0.32699057
0.3787665 -0.5582405 -0.02082314 0.12384955 0.17157872 -0.06419433 -0.017529413 -0.018483873
0.036405694 0.041000865 0.2415493 0.69888973 -0.23663972 0.3328321 0.15792112 0.33066136
0.11974126 -0.221776 -0.22270653 0.468796 0.47681338 0.11987484 -0.14243913 -0.03765556
0.029200898 -0.12571694 -0.20632394 0.012148331 0.50048476 1.0905071 -0.121787585 -0.08242952
0.2794432 -0.054236356 -0.031680822 -0.035206895 -0.31304038 -0.1553096 0.5153378 -0.085826255
-0.2375716 0.055109974 0.03644486 -0.05891565 0.10499546 0.21458323 -0.6185546 -0.11702991
-0.06688425 0.32190457 0.3530589 -0.1209724 0.38975257 0.43294638 -0.19905709 -0.83264536
00000000: 900d e73d 114b f2bd ee70 8cbe 0bea 833c
00000010: da6c a4bf 6594 5a3e 44b6 433c b9dc 923e
00000020: b385 0cbd b262 97bd 5042 083e 8869 863e
00000030: 3dbf 05bd 00a6 bc3f 53fe c0bc fa83 dcbc
00000040: 87fa d4bd d323 4ebd d093 cb3e 4f0f 9cbc
00000050: ef80 8bbc 797b 40bd 8395 96be 3446 3c3d
00000060: 791d 0cbe e492 f83c f5f0 ae3d 6853 d63d
00000070: 0b84 6ebe 216f a93e 7321 273e dafe 943e
00000080: e127 863e 2d5e 7cbe ff85 2bbe 63ea b1bd
00000090: da5d db3d da09 f8bd 980b f13d d0b3 59be
000000a0: f106 753f 9ca1 e5bd 2c0a 473e 73c8 1e3c
000000b0: 832f 46be 220a ca3c 9cf8 a9bd e172 cc3d
000000c0: 3b7f acbf 03cc 993d 17aa f6be c717 28bd
000000d0: 1cea 893d 4aef 5fbd 1874 2b3e 1d56 56bc
000000e0: 99b3 c53e 4d06 a8be c45d 16be 6f6e f63d
000000f0: 5ec2 86be 5e31 693e 7a7e 863e 6853 b73d
00000100: 5205 bcbe 3712 cdbe 4c56 a93e eb63 5cbd
00000110: 3ded bbbd 690c 57bd 12d1 5c3d 33c8 1d3d
00000120: cd48 063e 6f73 123e 1d40 353e 8edd f9be
00000130: 74a0 f2bd b00b ae3d c285 39be c6f8 9d3d
00000140: 0b4c 1fbe b999 25be 7dd2 703d f85d 2bbf
00000150: bea6 1abf 6b25 533e fc91 3ebe 9974 113e
00000160: 17b2 66bd 5467 0d3c 92c9 a93c 1040 90be
00000170: 40ca 1abd e57d b33f 3f90 9abf 92f2 57be
00000180: 8e8a 9b3d d23b f33d 5105 f1bd 1a89 20bd
00000190: a2c1 7e3e cf22 ab3d 2b66 433f 117e 78bd
000001a0: f91d 23be 9125 5ebe 31a4 a63e 8420 95bd
000001b0: 8078 133e 1f49 a7bb a28b bfbd 9244 383d
000001c0: 1b75 c53f 7554 8ebd 4236 7b3b 4f20 8c3e
000001d0: 13e9 0b3d fc42 75bb 71bb cbbe b8fb 1bbc
000001e0: dae1 e13c 305e 253e 33cb ce3e 5e67 dabc
000001f0: 07df 8c3e b377 89be fbb8 85be 796e 263c
00000200: 405c 713e 28c8 24bd cae0 75bf 5eee 1c3d
00000210: 4957 3a3e 2647 db3d 3a06 cb3d 6ab0 633e
00000220: a4f4 a03e 8653 893e 2906 05be ceaa c0bf
00000230: 0997 09be 1f74 bc3d 08e2 58be 6257 15bb
00000240: c26b 85bb 0204 47be e371 55bd 57b8 ac3d
00000250: a2fe efbd 4a6a b43f 3707 11bd 2930 d9bb
00000260: f7af 5abd 09f0 51bc 06d7 c2be ba07 19be
00000270: b23f 69bf 7ad6 383d a4b5 9eba eca6 893c
00000280: b02d 27be ddab 383e 0b57 763e 21cf 493d
00000290: 0543 c2be 2570 853d 6f85 4c3f 1cbc a7bd
000002a0: c085 4fbe 2728 03be 4ec8 2dbe daf4 473d
000002b0: 6daf 853e e02e d03e bf3c 8fbe 53e5 49bc
000002c0: bea8 e83d 07a8 953c 0390 82be 91ce 9f3e
000002d0: 5374 45bd e0b0 85bd 6398 7abe 7dba 8bbe
000002e0: 5436 8fbf 3f85 8f3c 1b8d 94be 326e 48be
000002f0: 4dc4 b9bb 4304 6ebe 07d1 8e3c 8d0f d3bc
00000300: dd4d 86be 44bd 9e3e 1e41 523f 81b3 b3bd
00000310: e9cf 1f3d c93e 5d3d e3c3 913e 4f6b a7be
00000320: afed c13e d9e8 0ebf 4a95 aabc d5a4 fd3d
00000330: 55b2 2f3e 5178 83bd d899 8fbc 7e6b 97bc
00000340: 231e 153d 86f0 273d b358 773e 70ea 323f
00000350: af51 72be f868 aa3e 13b6 213e 724c a93e
00000360: e83a f53d 3f19 63be 2e0d 64be 0806 f03e
00000370: e220 f43e f180 f53d 90db 11be b73c 1abd
00000380: b936 ef3c f1bb 00be 9546 53be cb09 473c
00000390: c51f 003f bd95 8b3f c56b f9bd cfd0 a8bd
000003a0: 2e13 8f3e f126 5ebd c0c3 01bd 1b35 10bd
000003b0: d446 a0be 7b09 1fbe 2eed 033f adc5 afbd
000003c0: f845 73be ffba 613d 3547 153d 8951 71bd
000003d0: dc07 d73d b5bb 5b3e 9859 1ebf 61ad efbd
000003e0: 9cfa 88bd add0 a43e 23c4 b43e 61c0 f7bd
000003f0: a68d c73e 26ab dd3e 9fd5 4bbe 3f28 55bf

0.bias f4 [32]
-0.100149915 -0.010201968 0.02715835 -0.009722319 0.2196078 0.42140695 0.04461809 0.019627763
0.04819213 0.1574078 -0.5763365 0.08915807 0.5234674 0.033864975 0.06309229 -0.2506173
0.55502033 0.09019357 -0.0026335344 0.5045273 -0.0065638013 0.5129966 0.49787158 0.12269143
-0.18784748 -0.12176493 0.06056917 -0.0070013516 0.21607956 0.16853726 -0.16134608 -0.15462667
00000000: 661b cdbd 2826 27bc 307b de3c 5d4a 1fbc
00000010: dee0 603e a7c2 d73e 75c1 363d 67ca a03c
00000020: 1c65 453d 832f 213e ca8a 13bf 8298 b63d
00000030: f601 063f 00b6 0a3d 8836 813d e950 80be
00000040: d015 0e3f 68b7 b83d 6097 2cbb b328 013f
00000050: 2815 d7bb bf53 033f 06e9 fe3e a545 fb3d
00000060: 175b 40be e45f f9bd 6117 783d 986b e5bb
00000070: f643 5d3e 0895 2c3e e837 25be 7456 1ebe

2.weight f4 [64, 32]
0.016121406 0.3644747 0.043521598 -0.06992352 0.07310434 -0.109172836 -0.15064597 -0.037342377
-0.1425339 -0.23986594 5.244605e-05 0.3235182 0.06359842 -0.20709021 0.06111313 0.05565611
0.017738545 -0.23809391 0.021710383 -0.013907757 -0.091151 -0.016526999 0.02513104 0.092650235
-0.029765591 -0.07830363 0.009124796 -0.102196336 -0.11747675 -0.13995531 0.2659112 -0.06301493
-0.4099303 0.04820834 -0.059487578 0.22611935 0.17261668 0.08960991 -0.14389081 0.21167086
-0.0881467 -0.44802794 0.22253542 0.07793093 0.054466464 0.07716246 -0.32373732 -0.2950387
-0.29873213 -0.05426335 0.0366178 0.20980167 -0.005294519 -0.2693074 0.12207905 0.16404262
0.11055837 0.2619057 0.14804374 0.105828375 0.37717453 -0.16640274 0.016304946 0.007900931
-0.11916658 -0.2804654 0.09656142 0.1535692 -0.21680017 -0.22321476 -0.08542965 0.10807598
-0.07422891 0.02044284 0.5491309 -0.11696932 0.3672244 -0.10646364 0.058946818 -0.0643163
-0.021613723 0.013780274 0.105797514 -0.27738217 0.1709406 0.116350986 -0.09056168 0.12697992
0.23900124 -0.044295415 0.048286226 0.20054244 -0.12708552 -0.027458275 0.14918675 0.12634419
-0.03949946 0.009408328 0.13842891 -0.09694611 -0.09768127 0.061673865 0.12372585 -0.08050747
0.19599247 0.19714828 -0.0155585995 -0.24858347 -0.02223619 0.09137832 0.058461845 -0.29867193
-0.17845766 0.22276045 -0.07987756 -0.014239967 0.10491616 -0.35925186 0.2283556 -0.013266827
-0.050104417 0.110757574 -0.14110078 0.06412003 -0.104654714 0.031245572 -0.22564453 -0.10093208
0.33576548 0.09820646 0.057146076 -0.103518516 0.16563682 -0.21529947 0.22980022 0.1536043
-0.13167208 0.21302062 0.008000883 -0.18673827 -0.08951856 -0.012169209 0.15458359 0.058616847
0.38867158 0.034047235 -0.31922475 -0.14734428 0.32186398 -0.18826641 -0.05780512 -0.07183168
-0.08816335 -0.14204678 -0.024314666 0.07350648 -0.08408925 -0.078871556 0.38877317 -0.3469277
0.06998917 0.23974192 -0.049867198 0.07277797 0.22120121 -0.26402184 -0.052188873 -0.16763236
0.07966834 -0.04315857 0.009915328 0.26497295 -0.028582256 0.025207698 0.10330298 0.39326212
0.09138895 0.06584604 0.072072156 -0.030654738 -0.29000145 -0.059571177 -0.48451135 0.24127817
-0.029493729 -0.058394954 -0.21818294 -0.1391978 0.06741567 0.15745027 -0.08301156 0.04873915
0.42768866 0.056202643 0.2092539 -0.0014880357 -0.16149548 -0.20227705 -0.19402577 0.05108048
-0.054472193 0.084197596 0.081438616 -0.1505357 -0.72063255 -0.16839279 0.16532901 0.586783
-0.09850739 -0.008525639 -0.05356306 -0.06407064 0.12762022 -0.01930755 -0.028869601 -0.34253526
0.103348665 0.040733557 -0.07203274 -0.052391842 -0.028566495 -0.057136618 0.0829558 0.11223246
0.07912262 0.024092454 0.024709616 0.17632762 -0.13091762 -0.27304286 0.20882593 -0.03229076
0.028324965 -0.20024277 -0.026915697 -0.27600923 0.50379896 0.047426812 0.015867531 -0.17442957
0.5798869 -0.033351947 0.039439343 0.1828268 -0.09304631 -0.07747519 -0.09946496 0.06501617
-0.0040932903 -0.23707485 -0.04799502 -0.12139481 -0.09854796 0.024883268 -0.14470091 -0.09742508
00000000: 0a11 843c 6e9c ba3e b443 323d 1034 8fbd
00000010: bab7 953d 0296 dfbd f042 1abe 52f4 18bd
00000020: 68f4 11be 6b9f 75be 84f9 5b38 2da4 a53e
00000030: e33f 823d 750f 54be c351 7a3d a9f7 633d
00000040: 6d50 913c e4ce 73be f9d9 b13c 5cdd 63bc
00000050: 60ad babd a163 87bc 9cdf cd3c 68bf bd3d
00000060: f8d6 f3bc a75d a0bd 2b80 153c 504c d1bd
00000070: a697 f0bd 7250 0fbe 8325 883e f90d 81bd
00000080: 62e2 d1be 1c76 453d 3fa9 73bd d58b 673e
00000090: 6dc2 303e 6785 b73d 1d58 13be 3fc0 583e
000000a0: 4286 b4bd eb63 e5be 53e0 633e 409a 9f3d
000000b0: 3a18 5f3d 5a07 9e3d e6c0 a5be 500f 97be
000000c0: 6bf3 98be 3f43 5ebd 8cfc 153d 40d6 563e
000000d0: a57d adbb a9e2 89be 9504 fa3d cafa 273e
000000e0: 6d6c e23d 8118 863e c798 173e 8cbc d83d
000000f0: 051d c13e 7b65 2abe f391 853c e872 013c
00000100: 9c0d f4bd 2999 8fbe fec1 c53d 3f41 1d3e
00000110: dd00 5ebe 6992 64be bef5 aebd f056 dd3d
00000120: 5405 98bd be77 a73c d893 0c3f 9c8d efbd
00000130: d604 bc3e 9c09 dabd 3872 713d 44b8 83bd
00000140: 430f b1bc a9c6 613c 5eac d83d 0905 8ebe
00000150: 0d0b 2f3e 6d49 ee3d 6778 b9bd 0607 023e
00000160: bebc 743e 1c6f 35bd c7c7 453d ff5a 4d3e
00000170: b522 02be 2df0 e0bc 69c4 183e 5f60 013e
00000180: 30ca 21bd 6325 1a3c 4fc0 0d3e af8b c6bd
00000190: 1e0d c8bd bc9d 7c3d fa63 fd3d 1ae1 a4bd
000001a0: 40b2 483e 3de1 493e 7fe9 7ebc aa8c 7ebe
000001b0: ac28 b6bc 8e24 bb3d b075 6f3d 87eb 98be
000001c0: 9bbd 36be 511b 643e d996 a3bd c04e 69bc
000001d0: 49de d63d dcef b7be 0dd6 693e 1b5d 59bc
000001e0: 4a3a 4dbd ded4 e23d b97c 10be 5d51 833d
000001f0: 3655 d6bd b7f6 ff3c 5c0f 67be 7ab5 cebd
00000200: 74e9 ab3e 7820 c93d 0112 6a3d 8401 d4bd
00000210: b39c 293e 7777 5cbe c050 6b3e 724a 1d3e
00000220: 0cd5 06be 1422 5a3e 2316 033c 5138 3fbe
00000230: 8255 b7bd 5d61 47bc 294b 1e3e 3818 703d
00000240: f6ff c63e 1d75 0b3d 6d71 a3be 6be1 16be
00000250: 5bcb a43e e9c8 40be 10c5 6cbd 7d1c 93bd
00000260: fd8e b4bd b674 11be 8d2f c7bc 918a 963d
00000270: fc36 acbd 6987 a1bd 470d c73e 82a0 b1be
00000280: 7b56 8f3d e87e 753e 8c41 4cbd 9e0c 953d
00000290: 9282 623e df2d 87be 00c4 55bd d1a7 2bbe
000002a0: 2829 a33d 0ac7 30bd e673 223c 89aa 873e
000002b0: 5625 eabc 6080 ce3c 8390 d33d a759 c93e
000002c0: 212a bb3d 4ada 863d 919a 933d a51f fbbc
000002d0: 127b 94be e800 74bd df11 f8be a011 773e
000002e0: d59c f1bc 8c2f 6fbd 596b 5fbe de89 0ebe
000002f0: 3a11 8a3d a53a 213e f701 aabd b4a2 473d
00000300: 02fa da3e be34 663d a846 563e 310a c3ba
00000310: 125f 25be b721 4fbe b1ae 46be c439 513d
00000320: 3c1e 5fbd ca6f ac3d 4ac9 a63d 0826 1abe
00000330: 607b 38bf 296f 2cbe 024c 293e 6937 163f
00000340: 3ebe c9bd 1faf 0bbc f064 5bbd 7837 83bd
00000350: e0ae 023e de2a 9ebc f17f ecbc c860 afbe
00000360: 77a8 d33d 3bd8 263d e785 93bd d498 56bd
00000370: 4804 eabc 1608 6abd bbe4 a93d 22da e53d
00000380: 0a0b a23d 8a5d c53c d26b ca3c 3a8f 343e
00000390: 450f 06be 46cc 8bbe 77d6 553e 5143 04bd
000003a0: c209 e83c 710c 4dbe 4f7e dcbc 1551 8dbe
000003b0: f8f8 003f 9e42 423d a0fc 813c aa9d 32be
000003c0: 7873 143f 0d9c 08bd 268b 213d f336 3b3e
000003d0: 108f bebd 50ab 9ebd 49b4 cbbd 3327 853d
000003e0: 0221 86bb c0c3 72be 6d96 44bd d89d f8bd
000003f0: 83d3 c9bd ffd7 cb3c 7a2c 14be cd86 c7bd

2.bias f4 [64]
0.096443094 -0.057633717 -0.25538874 0.17192058 -0.13222976 -0.05877202 -0.86255574 0.09954611
-0.1491045 0.10204475 -0.0041282875 0.27381122 -0.505363 -0.18329033 -0.15567417 -0.7372823
0.44415978 -0.3977873 0.14559995 -0.56090444 0.521693 0.1475805 -0.49971628 0.04585332
-0.44076005 -0.7533289 0.020082088 0.18509227 0.28278786 -0.25808826 -0.820863 -0.1865893
0.07953937 0.16162883 0.5203146 0.09968151 -0.03926458 -0.71175677 0.1984048 0.36066857
-0.28932595 -0.24738482 -0.001658574 0.31105018 -0.13283055 0.31388816 0.30350298 -0.44038993
-0.22239995 0.15291286 0.15847637 0.34412083 0.06603403 0.42038378 -0.010565568 0.2731603
0.021570554 0.24457213 -0.5690268 0.0082342895 -0.16034673 0.2978093 -0.34560794 -0.059940144
00000000: f583 c53d 5511 6cbd 50c2 82be f30b 303e
00000010: 3d67 07be eeba 70bd 74d0 5cbf d5de cb3d
00000020: daae 18be d6fc d03d 9646 87bb fc30 8c3e
00000030: 785f 01bf 76b0 3bbe 0d69 1fbe 88be 3cbf
00000040: e968 e33e c7aa cbbe 2718 153e 6f97 0fbf
00000050: ac8d 053f 581f 173e d0da ffbe b1d0 3b3d
00000060: 4dab e1be 2ada 40bf 3183 a43c d488 3d3e
00000070: 92c9 903e 2524 84be 1424 52bf 4411 3fbe
00000080: 8ae5 a23d 0782 253e 5633 053f d225 cc3d
00000090: e5d3 20bd b135 36bf a12a 4b3e 8da9 b83e
000000a0: 8822 94be 7252 7dbe 8264 d9ba f841 9f3e
000000b0: bb04 08be f3b5 a03e be64 9b3e ca7a e1be
000000c0: d0bc 63be 3095 1c3e a147 223e 9b30 b03e
000000d0: d93c 873d 8b3c d73e 341b 2dbc abdb 8b3e
000000e0: bbb4 b03c 1e71 7a3e beab 11bf 1de9 063c
000000f0: ef31 24be 767a 983e 86f3 b0be cc83 75bd

4.weight f4 [128, 64]
0.062141337 -0.07545077 -0.06061045 -0.012586953 0.030794336 0.16091515 0.024106244 0.054793533
0.07539039 -0.08781136 0.13252185 0.048465744 0.016404875 0.050100014 -0.090597965 -0.036606375
-0.038995955 -0.1386413 -0.0146416435 -0.010407019 0.018493421 0.08623487 -0.06928813 -0.010110842
0.043179292 0.0078221755 -0.12553404 0.12883915 -0.05968865 -0.059974827 0.017028853 -0.10575831
0.14004843 0.09379829 -0.06972723 -0.07733928 0.12849191 -0.13165939 0.19654271 0.105776705
0.057727493 -0.21918657 0.042240802 -0.06484332 -0.10941015 -0.096948765 -0.005334198 -0.050149452
0.096290566 0.034703054 0.02993748 0.09398102 -0.15304749 0.014376028 0.038774125 -0.1212947
0.11392568 0.15635483 0.024142634 -0.012292477 0.124281794 -0.12426257 -0.055072162 -0.13390465
-0.004459093 -0.00090416387 -0.0033346682 0.00026315742 -0.004528439 -0.0028973874 -0.0018720995 -0.0042009605
-0.0042579384 -0.00067170034 0.0005674925 -0.0016296471 0.0009004882 -0.009427844 -0.00036684625 -0.004571634
0.0017457729 -0.00016717106 -0.0045295204 7.6294484e-05 -0.0021699604 -0.0039779083 -0.0019310566 0.0020251244
-0.003277887 0.0011651476 -0.00312917 -0.0044361646 -0.0019687936 -0.0012348583 0.00012852455 -0.0033162327
-0.001596399 -0.0046610534 -0.0029301178 0.0010393853 0.00061768387 -0.0015252756 0.0024585587 -0.0024504904
-0.00020920782 -0.0019371943 -0.001331154 -0.002159034 -0.00040110128 -0.00250521 -0.0015249365 -0.0016074468
0.0012142862 -0.001044859 -0.00011976275 -0.002501944 -0.0005789968 -0.002020408 0.0037274032 -0.0023196093
-0.0004345895 -0.004422754 -0.0012089377 0.0068582296 -0.0017558603 -0.004053289 -0.0042099003 -0.0015999414
0.022810148 0.1573927 -0.18234222 -0.023821456 0.0025462057 0.04468599 -0.13927487 0.16031104
-0.09313931 -0.10501687 0.09870755 0.038121425 0.0336044 -0.006210767 -0.089216925 0.05276437
0.08089243 0.039252006 -0.17852984 -0.25410473 -0.1563337 -0.012960485 -0.11213298 -0.016261855
-0.09645419 -0.18343353 0.019452648 -0.12655754 0.08458588 0.06961904 -0.23283356 0.045047935
-0.13246031 -0.005824943 -0.021533662 -0.085997164 -0.12851289 -0.03269114 0.011168855 0.18145804
-0.03175359 -0.030766474 -0.08722694 -0.12650831 0.15632838 0.05649992 0.028953347 0.008039585
-0.07183424 -0.13481002 0.01643885 0.09964764 0.037754457 0.12281249 -0.107335515 -0.0537889
-0.21273589 -0.04216343 -0.05109822 -0.049979243 0.15767054 0.031698227 0.07380525 -0.1786761
0.05235622 -0.07718286 0.030341407 0.07157578 0.060016792 0.035322964 -0.050378513 -0.14038168
-0.1427693 -0.20022564 0.19353242 -0.063219145 0.06401877 -0.11045411 0.042690884 -0.0067387624
-0.08388698 0.020355422 -0.07882365 0.064734094 0.023327384 0.04278431 -0.07050419 0.10949876
0.026459435 -0.09360718 0.18698621 -0.0023465792 0.11608073 0.07012951 0.11732532 -0.06463275
-0.05066357 0.01718113 0.020512834 0.09206975 0.12334629 0.01335896 0.035434287 0.010483133
0.042306736 -0.033600725 0.056030072 0.104872316 0.0722981 -0.08139085 -0.21055958 -0.038599953
-0.0132463975 0.08464384 0.0061545605 0.06415985 0.08778544 -0.0036547824 -0.0378297 -0.0692541
-0.11529954 -0.03132579 -0.079387136 0.01663276 -0.14187393 -0.08050711 -0.15286683 0.09457259
00000000: ea87 7e3d ef85 9abd aa42 78bd 8239 4ebc
00000010: 6744 fc3c f1c6 243e 757a c53c 2f6f 603d
00000020: 4766 9a3d 71d6 b3bd cfb3 073e 0484 463d
00000030: 8463 863c ac35 4d3d 6d8b b9bd 91f0 15bd
00000040: 39ba 1fbd fcf7 0dbe 81e3 6fbc 3482 2abc
00000050: 847f 973c e89b b03d efe6 8dbd f2a7 25bc
00000060: c5dc 303d 9528 003c ff8b 00be 69ee 033e
00000070: 167c 74bd 2aa8 75bd 1880 8b3c d097 d8bd
00000080: db68 0f3e 5119 c03d 26cd 8ebd 0e64 9ebd
00000090: 6293 033e b8d1 06be 7e42 493e 75a1 d83d
000000a0: aa73 6c3d 7272 60be b104 2d3d 93cc 84bd
000000b0: 6e12 e0bd 138d c6bd 7fca aebb 8369 4dbd
000000c0: fd33 c53d ca24 0e3d 723f f53c 1f79 c03d
000000d0: 7bb8 1cbe 6f89 6b3c 9ed1 1e3d 5b69 f8bd
000000e0: de51 e93d 7b1b 203e c6c6 c53c 6366 49bc
000000f0: 7487 fe3d 607d febd 5993 61bd 4d1e 09be
00000100: 951d 92bb 6905 6dba 738a 5abb 64f8 8939
00000110: 4d63 94bb 18e2 3dbb 3c61 f5ba 36a8 89bb
00000120: 2d86 8bbb 0c15 30ba c7c3 143a e299 d5ba
00000130: bd0e 6c3a 3e77 1abc 4555 c0b9 a5cd 95bb
00000140: 6bd2 e43a a44a 2fb9 5f6c 94bb 4a00 a038
00000150: e535 0ebb 1d59 82bb 821b fdba f3b7 043b
00000160: d1d1 56bb deb7 983a c312 4dbb 3f5d 91bb
00000170: e006 01bb f8da a1ba 8cc4 0639 2755 59bb
00000180: 433e d1ba c0bb 98bb 3807 40bb fc3b 883a
00000190: 10ec 213a c2eb c7ba c51f 213b 6898 20bb
000001a0: cc5e 5bb9 74e9 fdba 1e7a aeba 947e 0dbb
000001b0: e74a d2b9 732e 24bb 61e0 c7ba f7b0 d2ba
000001c0: af28 9f3a a6f3 88ba 2329 fbb8 a8f7 23bb
000001d0: d1c7 17ba d268 04bb 7347 743b 9604 18bb
000001e0: 9ed9 e3b9 c0ec 90bb 3875 9eba 00bb e03b
000001f0: e524 e6ba 74d1 84bb 34f3 89bb 20b5 d1ba
00000200: 59dc ba3c 8d2b 213e ebb7 3abe 3725 c3bc
00000210: 3ede 263b a808 373d 129e 0ebe 9428 243e
00000220: d3bf bebd 1613 d7bd 2f27 ca3d 3625 1c3d
00000230: c4a4 093d b183 cbbb 5db7 b6bd 741f 583d
00000240: eeaa a53d b6c6 203d 87d0 36be 041a 82be
00000250: f115 20be 3758 54bc faa5 e5bd 9537 85bc
00000260: c689 c5bd 00d6 3bbe 295b 9f3c 4d98 01be
00000270: 5d3b ad3d 6d94 8e3d ec6b 6ebe 2f84 383d
00000280: ada3 07be 2adf bebb 5d67 b0bc 481f b0bd
00000290: e298 03be 25e7 05bd 93fd 363c 23d0 393e
000002a0: 0d10 02bd f909 fcbc 0aa4 b2bd 658b 01be
000002b0: 8c14 203e 766c 673d 922f ed3c 77b8 033c
000002c0: d41d 93bd a30b 0abe c4aa 863c 1014 cc3d
000002d0: 6ba4 1a3d 1d85 fb3d b9d2 dbbd c051 5cbd
000002e0: 70d7 59be 90b3 2cbd 5e4c 51bd 09b7 4cbd
000002f0: 6374 213e 00d6 013d 3527 973d def6 36be
00000300: 7a73 563d 0c12 9ebd 8b8e f83c 5396 923d
00000310: 2bd4 753d d0ae 103d b359 4ebd 37c0 0fbe
00000320: 1e32 12be f307 4dbe 5d2d 463e 0a79 81bd
00000330: 461c 833d c435 e2bd a3dc 2e3d d6d0 dcbb
00000340: f0cc abbd 6ac0 a63c 4b6e a1bd 4f93 843d
00000350: 1219 bf3c 9a3e 2f3d 8064 90bd e340 e03d
00000360: 75c1 d83c 1fb5 bfbd 5079 3f3e 11c9 19bb
00000370: bcbb ed3d 0fa0 8f3d 4248 f03d 2d5e 84bd
00000380: 9b84 4fbd 71bf 8c3c 880a a83c 118f bc3d
00000390: fb9c fc3d 8adf 5a3c 8b23 113d 72c1 2b3c
000003a0: d449 2d3d eaa0 09bd ca7f 653d 4cc7 d63d
000003b0: 0711 943d 3fb0 a6bd ee9c 57be fc1a 1ebd
000003c0: 6b07 59bc c059 ad3d 32ac c93b 3d66 833d
000003d0: dac8 b33d 1385 6fbb 51f3 1abd 18d5 8dbd
000003e0: 2a22 ecbd 794f 00bd b995 a2bd 6d41 883c
000003f0: 6647 11be e9e0 a4bd 1f89 1cbe 46af c13d

4.bias f4 [128]
0.00461243 -0.00727203 0.10993669 0.015503146 0.06556675 -0.07841201 -0.004969233 -0.35504848
-0.0017642342 -0.14437322 -0.0046084663 -0.010758884 -0.19607705 0.108815685 -0.047793407 -3.6334092e-07
0.22055446 0.14711496 -0.17068493 0.032958135 -0.05149187 -0.18576975 -0.13126127 -0.05834408
-0.2384418 -0.08742959 -0.0001566031 0.22084813 -0.008079373 0.03719931 0.47843853 -0.08001859
0.1933612 -0.10371004 -0.043988094 -0.11190449 -0.5190049 -0.13620773 -0.21047439 -0.3389674
-0.2288717 0.000495664 -0.12444611 -0.025588498 0.25093356 -0.051107492 -0.06426268 0.1733177
0.14282648 -0.118840076 0.016553396 0.18709622 -0.029632153 0.28433678 -0.67467684 0.15627415
-0.18659595 -0.12189895 -0.03622012 -0.24158643 0.073244326 -0.15893695 -0.12577784 -0.3001863
-0.5301508 -0.069258176 0.001758963 -0.07956885 0.11572366 0.07149912 0.01404204 0.04942837
-0.00026861668 -0.20147978 0.038083434 -0.010005553 -0.0070147533 0.082278766 -0.10810838 -0.26422298
-0.12380643 0.28115743 0.003655951 0.13761097 -0.15667066 0.2130852 -0.24059711 0.30600986
0.28907984 -0.00032840765 0.023497995 -0.14195532 0.18851921 0.18499494 -0.1001928 -0.07569141
-0.003029964 -0.39840138 -0.42166498 0.096636385 0.2392017 -0.012441748 0.083735906 0.122915745
-0.34862736 -0.08222462 -2.1255536e-12 -0.16706228 0.050211806 -0.10882268 -0.36542928 -0.17911078
-0.08952239 -0.09715781 -0.0037125929 -0.08623502 0.07934182 0.002777501 0.09289436 0.010675785
0.04888245 -0.03350091 0.12331848 -0.053293966 0.14566933 -0.05301622 0.1463302 -0.20620832
00000000: de23 973b 364a eebb 7d26 e13d e800 7e3c
00000010: dc47 863d 7a96 a0bd f3d4 a2bb eac8 b5be
00000020: e03d e7ba 93d6 13be 9e02 97bb 0846 30bc
00000030: 6cc8 48be c2da de3d 05c3 43bd 3211 c3b4
00000040: 07d9 613e 4ea5 163e 08c8 2ebe 1cff 063d
00000050: 24e9 52bd 6d3a 3ebe 5b69 06be 34fa 6ebd
00000060: 162a 74be 490e b3bd d335 24b9 0326 623e
00000070: 595f 04bc 4e5e 183d e5f5 f43e c9e0 a3bd
00000080: 7a00 463e ee65 d4bd dc2c 34bd 2e2e e5bd
00000090: 81dd 04bf 0a7a 0bbe 9986 57be 238d adbe
000000a0: 585d 6abe 73ef 013a 9add febd f89e d1bc
000000b0: 5d7a 803e 1756 51bd 279c 83bd 327a 313e
000000c0: 1b41 123e 6d62 f3bd fd9a 873c 2796 3f3e
000000d0: 21bf f2bc 9794 913e 9fb7 2cbf 5506 203e
000000e0: 0213 3fbe 28a6 f9bd 8c5b 14bd 6f62 77be
000000f0: 1f01 963d 5ec0 22be e8cb 00be 05b2 99be
00000100: f6b7 07bf 3bd7 8dbd 018d e63a fef4 a2bd
00000110: 8700 ed3d 216e 923d 9610 663c 6775 4a3d
00000120: 1fd5 8cb9 b750 4ebe 60fd 1b3d 55ee 23bc
00000130: 04dc e5bb c581 a83d ed67 ddbd 3c48 87be
00000140: 3a8e fdbd def3 8f3e ae98 6f3b e4e9 0c3e
00000150: 466e 20be 0233 5a3e 175f 76be 53ad 9c3e
00000160: 4602 943e 212e acb9 de7e c03c bc5c 11be
00000170: 2e0b 413e 506f 3d3e e231 cdbd 1904 9bbd
00000180: 5c92 46bb 44fb cbbe 79e4 d7be 4ce9 c53d
00000190: 4af1 743e 79d8 4bbc bb7d ab3d 40bb fb3d
000001a0: 497f b2be 6265 a8bd 9292 15ac 6012 2bbe
000001b0: e5aa 4d3d 6dde debd 8c19 bbbe d168 37be
000001c0: 8457 b7bd adfa c6bd f94e 73bb fc9b b0bd
000001d0: f77d a23d bc06 363b 663f be3d 7de9 2e3c
000001e0: f738 483d 4038 09bd 668e fc3d c64a 5abd
000001f0: 572a 153e 8927 59bd 95d7 153e 4628 53be

6.weight f4 [256, 128]
-5.094e-42 1.5053e-41 -1.0337e-41 -2.747e-42 -1.93e-42 -5.703e-42 2.263e-42 2.616e-42
6.258e-42 -3.289e-42 2.978e-42 2.176e-42 -5.232e-42 -5.699e-42 7.093e-42 3.493e-42
-1.073e-42 2.703e-42 -3.243e-42 -7.78e-43 2.276e-42 -6.28e-43 -2.412e-42 3.956e-42
-6.864e-42 -2.538e-42 -3.4479e-41 -3.802e-42 -6.027e-42 -2.625e-42 9.02e-43 -4.764e-42
3.646e-42 4.37e-42 7.477e-42 3.152e-42 7.685e-42 -1.403e-42 -7.434e-42 -6.341e-42
1.211e-42 -3.035e-42 -8.025e-42 2.937e-42 -6.4e-43 6.658e-42 -3.917e-42 -6.443e-42
-1.1e-42 3.374e-42 -9.4e-44 -1.823e-42 -5.878e-42 1.19e-43 -2.094e-42 7.262e-42
6.013e-42 5.986e-42 -2.64e-42 5.98e-43 4.474e-42 4.417e-42 7.13e-42 6.72e-42
-5.761e-42 -5.591e-42 6.35e-43 3.216e-42 -1.684e-42 5.252e-42 8.286e-42 6.56e-43
-2.118e-41 -3.45e-42 8.164e-42 -1.616e-42 -2.8998e-41 -4.986e-42 1.064e-42 5.706e-42
4.072e-42 -5.21e-43 4.624e-42 7.445e-42 -7.674e-42 -6.649e-42 2.683e-42 4.043e-42
-6.54e-42 1.1803e-41 7.06e-43 -3.286e-42 -3.15e-42 7.452e-42 -6.663e-42 -4.002e-42
3.5984e-41 1.104e-42 3.468e-42 6.117e-42 4.79e-42 -6.939e-42 -3.446e-42 6.48e-42
-5.404711e-38 -6.524e-42 -2.7713e-41 4.752e-42 -4.062e-42 3.512e-42 6.644e-42 2.829e-42
-3.181e-42 6.588e-42 -8.217e-42 -1.09e-42 -7.71e-43 -1.288e-42 -5.878e-42 3.639e-42
1.718e-42 1e-42 -5.437e-42 -3.877e-42 1.75e-43 -3.06e-42 2.092e-42 9.42e-42
-0.0018530424 5.92e-41 -0.0049397475 -0.0010096038 -0.0005271219 -0.005514986 -0.0035145713 -0.0012239066
-0.0021156867 0.0015037606 -0.0012888027 -0.003140161 0.0012716304 0.00034110082 -0.0018893941 2.0619e-41
-0.008220741 -0.004606426 0.00011319785 0.0005511944 -0.00037780343 -0.0012655406 0.0010103333 -0.0024408337
0.003215076 0.00083882915 -1.8075e-41 -0.0028436086 -0.0010680266 -0.0065005 -0.004987629 -0.0014547287
-0.0049265334 -0.0032021755 0.00028596877 0.0037810162 -0.00082603085 0.00031762948 -0.002417573 -0.0049387077
0.0022797745 -0.0003408715 0.0022857706 -0.0009391361 -0.006191409 -0.0018682684 0.0010481519 -0.0022835196
-0.006636257 -0.001653235 -0.002923414 -0.0040584905 -0.00067451654 -0.0045275977 -0.003292653 0.002623302
-0.002743405 -0.0013828855 -0.00021108566 -0.0047140173 -0.00014762506 -0.0005322212 -0.0028004604 -0.003418476
-0.0032726238 -0.004089935 0.000105621955 0.002853263 -0.001100717 -0.0068431115 -0.0017600064 -0.0015084397
-1.4885e-41 -0.0032552648 -0.0014054159 -0.00092796655 2.4178e-41 -0.0020701687 -0.0005808464 -0.0018048347
0.0009636071 -0.0050760056 -0.003996487 -0.0035676924 0.0012036592 -0.002138274 -0.0005437594 -0.0051002824
-0.005563294 -1.187e-41 -0.0061759483 -0.0016042348 -0.0049975603 -0.0003929542 0.00012851505 -0.00083367655
-2.4378989e-24 -0.003992618 -0.0011633199 -0.0014089049 -0.00022436412 0.00035625158 -0.0018713261 -0.001651839
-0.0034326687 -0.0049464796 -3.3086e-41 0.0015992231 2.2190214e-05 -0.002600543 -0.0016245075 -0.003942982
-0.0007467055 -0.0031496373 -0.0006914338 -0.0023141399 0.0011745389 -0.0018655586 -0.0004987668 -0.00058452185
-0.0035961329 0.0015603154 -0.0030406546 -0.0011094051 6.572747e-05 -0.00021306647 0.0028633235 -0.0010910325
00000000: 330e 0080 f629 0000 d11c 0080 a807 0080
00000010: 6105 0080 e60f 0080 4f06 0000 4b07 0000
00000020: 7211 0000 2b09 0080 4d08 0000 1106 0000
00000030: 960e 0080 e30f 0080 c613 0000 bd09 0000
00000040: fe02 0080 8907 0000 0a09 0080 2b02 0080
00000050: 5806 0000 c001 0080 b906 0080 070b 0000
00000060: 2213 0080 1307 0080 1d60 0080 990a 0080
00000070: cd10 0080 5107 0080 8402 0000 480d 0080
00000080: 2a0a 0000 2f0c 0000 d814 0000 c908 0000
00000090: 6c15 0000 e903 0080 b914 0080 ad11 0080
000000a0: 6003 0000 7608 0080 5f16 0080 3008 0000
000000b0: c901 0080 8f12 0000 eb0a 0080 f611 0080
000000c0: 1103 0080 6809 0000 4300 0080 1505 0080
000000d0: 6310 0080 5500 0000 d605 0080 3e14 0000
000000e0: c310 0000 b010 0000 5c07 0080 ab01 0000
000000f0: 790c 0000 500c 0000 e013 0000 bc12 0000
00000100: 0f10 0080 960f 0080 c501 0000 f708 0000
00000110: b204 0080 a40e 0000 1917 0000 d401 0000
00000120: 0b3b 0080 9e09 0080 c216 0000 8104 0080
00000130: d650 0080 e60d 0080 f702 0000 e80f 0000
00000140: 5a0b 0000 7401 0080 e40c 0000 c114 0000
00000150: 6415 0080 8912 0080 7b07 0000 450b 0000
00000160: 3b12 0080 e720 0000 f801 0000 2909 0080
00000170: c808 0080 c614 0000 9312 0080 280b 0080
00000180: 4f64 0000 1403 0000 ab09 0000 0d11 0000
00000190: 5a0d 0000 5813 0080 9b09 0080 1012 0000
000001a0: 5721 9381 3012 0080 414d 0080 3f0d 0000
000001b0: 530b 0080 ca09 0000 8512 0000 e307 0000
000001c0: de08 0080 5d12 0000 e816 0080 0a03 0080
000001d0: 2602 0080 9703 0080 6310 0080 250a 0000
000001e0: ca04 0000 ca02 0000 280f 0080 cf0a 0080
000001f0: 7d00 0000 8808 0080 d505 0000 421a 0000
00000200: c9e1 f2ba 07a5 0000 9bdd a1bb af54 84ba
00000210: 8d2e 0aba 0eb7 b4bb b954 66bb 7e6b a0ba
00000220: 55a7 0abb d519 c53a 0bed a8ba 29cb 4dbb
00000230: d6ac a63a c7d5 b239 8ca5 f7ba 7a39 0000
00000240: 49b0 06bc 81f1 96bb a264 ed38 087e 103a
00000250: eb13 c6b9 7fe0 a5ba 296d 843a 65f6 1fbb
00000260: 06b4 523b dfe4 5b3a 6332 0080 d65b 3abb
00000270: 07fd 8bba 2502 d5bb 446f a3bb 98ac beba
00000280: c26e a1bb 97db 51bb 14ee 9539 edca 773b
00000290: fe89 58ba 8287 a639 2570 1ebb e2d4 a1bb
000002a0: 4568 153b 00b7 b2b9 decc 153b 5b30 76ba
000002b0: 4ee1 cabb afe0 f4ba 2462 893a 1aa7 15bb
000002c0: f574 d9bb 5db1 d8ba c096 3fbb 16fd 84bb
000002d0: 0ad2 30ba 3e5c 94bb 8dc9 57bb b4eb 2b3b
000002e0: b3ca 33bb f041 b5ba e056 5db9 0b78 9abb
000002f0: cdcb 1ab9 c384 0bba ee87 37bb 8308 60bb
00000300: 8479 56bb dd04 86bb 5b81 dd38 cffd 3a3b
00000310: ef45 90ba 2e3c e0bb 04b0 e6ba d6b6 c5ba
00000320: 7e29 0080 4856 55bb ef35 b8ba c842 73ba
00000330: 6643 0000 abab 07bb f143 18ba 3490 ecba
00000340: 949a 7c3a 9f54 a6bb f6f4 82bb f2cf 69bb
00000350: 1ac4 9d3a 4922 0cbb 138b 0eba 4520 a7bb
00000360: 4b4c b6bb 1721 0080 9c5f cabb 3045 d2ba
00000370: 93c2 a3bb 6c05 ceb9 ffc1 0639 168b 5aba
00000380: 909f 3c98 82d4 82bb 8a7a 98ba 01ab b8ba
00000390: 4943 6bb9 47c7 ba39 4947 f5ba 8582 d8ba
000003a0: a0f6 60bb 1416 a2bb 3b5c 0080 069d d13a
000003b0: 1f25 ba37 df6d 2abb 6ded d4ba 2134 81bb
000003c0: 8fbe 43ba 256a 4ebb 5641 35ba d3a8 17bb
000003d0: fcf2 993a c285 f4ba acbf 02ba 993a 19ba
000003e0: 19ad 6bbb 7f83 cc3a b845 47bb 7569 91ba
000003f0: 2bd7 8938 986a 5fb9 99a6 3b3b fa00 8fba

6.bias f4 [256]
-4.081214e-15 -0.00212625 -0.029466351 -0.00061047066 -1.036374e-06 0.0039254697 -0.02201384 -0.002839136
0.012750727 -0.0045644706 -2.7910535e-05 -0.0029023688 -0.13843311 -9.302825e-24 -0.14087522 -0.30054453
0.02798301 0.035853527 -5.9299065e-08 -0.281634 -0.00018086749 -2.465309e-07 -0.34979835 -0.06490803
0.0094241025 -2.055874e-31 -0.0019695177 0.09222689 -0.2531507 -0.066278405 -0.003444449 -0.0037294822
-7.27059e-17 -0.00010419077 -0.0039939606 -0.014285175 -0.10475826 -0.005101842 -0.03227388 -0.00557109
-3.8213002e-05 -2.1866196e-14 -4.5772816e-10 -0.05250393 -6.797789e-07 -5.856519e-12 -1.3268583e-12 -0.09739085
-0.030998155 -5.090523e-10 -0.06456262 -0.16867387 -0.0069877645 -0.18634748 -0.0011835619 -1.1928789e-11
-0.090519175 -0.025894322 -0.00042553348 -0.08629515 -2.7386353e-34 -0.0049790577 -0.005370258 0.067097686
-0.0013435693 -0.0044478397 -0.001873988 0.038357064 -2.1244609e-19 -0.05622115 -6.740198e-07 0.00987579
-0.00264132 -0.0021217302 -9.983365e-07 -0.121803895 9.69714e-19 -0.025985634 0.008281531 0.0050416053
-0.0032513256 -1.5458809e-14 -0.093549006 -0.001900208 -0.06900505 -0.0007147477 -0.029912762 -0.02252164
-0.08570306 -3.6615114e-05 -0.0013300664 -0.0014072207 0.017059507 -0.0027700535 -0.0031433834 -0.00027832625
-0.03802391 -4.7038797e-05 -0.06311139 -0.13317269 0.027705457 -0.12120099 -0.054703 0.06908235
0.05678431 -0.003715753 -0.020615583 -2.9387734e-26 -0.028494282 -0.03940107 -0.0003779602 -0.11185999
-0.0033482797 -0.07632072 -0.0016311519 0.007467531 -3.4503459e-19 -0.15610105 -0.002471793 -0.117892995
-0.0003158645 -6.1495555e-16 -0.002050682 -4.231624e-22 -0.0049885088 -0.003820471 -0.088882536 -0.0022004887
-0.0040419535 -0.006965525 -0.21573511 -4.9665675e-12 -0.00076313235 -2.5412324e-05 -0.23574248 -1.6384551e-14
-0.0016634666 -0.0003314764 -0.0035924474 -0.0030523892 -0.0001770027 -7.40426e-05 -0.0024544196 0.010542148
-0.0020183937 -0.0009071744 -0.0035014737 -0.0031217618 -0.0034144905 -0.3870787 -2.7844192e-15 -0.0014399881
0.009743017 -0.13965161 0.034227155 0.06836791 -0.0037638238 -0.12210201 -0.00017942012 0.027564166
-0.00024675357 -0.003210297 -1.7307465e-06 -0.033297725 -0.033871077 0.05303652 -0.0015362779 -0.11523812
-0.008466237 -0.0062926 -0.048422344 -3.5942196e-07 -0.013353367 -2.5667192e-11 0.0060419445 -0.0035882299
-3.37087e-05 -0.0016378001 0.0022936298 -0.15161188 -0.003375537 0.010576203 -0.0056640795 -0.22335738
-0.07810137 -0.08793232 -0.006393506 -0.006497783 -0.27446496 -0.3065416 -0.042399116 -4.4776134e-05
0.042725135 -0.001778531 -4.60265e-05 -0.009282481 -1.9475317e-06 -0.00019440426 -0.1131513 -0.21841058
-0.0068232063 -0.03110132 -0.0025726014 0.01259451 -1.7125906e-15 -0.1567648 -2.510399e-07 -0.11808257
-0.004354217 -0.006041549 -0.21408202 0.032588977 -0.07202217 -0.00710575 -0.0032626044 -0.2090111
-3.8697517e-11 -4.4135603e-18 -0.2536367 -0.003531541 -0.0045442167 -0.33126935 -0.0051610908 -0.11455986
-0.2129138 -0.5023653 -3.5983717e-17 0.055216264 -0.022608843 -0.0018137572 -0.0003943356 -0.0062508476
-5.1099596e-26 -1.6465498e-09 0.024548009 -1.8080435e-11 -0.09599404 -0.05741049 -0.048907652 -0.09453271
-0.14552855 -0.02987537 0.034976564 -0.09413348 -0.001839414 -0.118669 0.04494429 -0.00079136115
-0.0023170402 -4.8747795e-10 -0.046836432 -7.037323e-21 -6.828112e-06 0.07213104 -1.4798054e-19 0.09071115
00000000: 8e0a 93a7 8e58 0bbb 6b63 f1bc fe07 20ba
00000010: 8a19 8bb5 3aa1 803b 5e56 b4bc cc10 3abb
00000020: 6de8 503c 8e91 95bb 6b21 eab7 ab35 3ebb
00000030: 69c1 0dbe 5cf1 3399 9841 10be f9e0 99be
00000040: a03c e53c 26db 123d 03b0 7eb3 5532 90be
00000050: 3fa7 3db9 f35a 84b4 c518 b3be 80ee 84bd
00000060: 8d67 1a3c 116f 858c 0613 01bb 74e1 bc3d
00000070: f89c 81be f9bc 87bd 44bc 61bb 546a 74bb
00000080: fda5 a7a4 fe80 dab8 c5df 82bb 5e0c 6abc
00000090: 808b d6bd 5a2d a7bb 9e31 04bd b18d b6bb
000000a0: e646 20b8 04f4 c4a8 83a3 fbaf 5c0e 57bd
000000b0: 0d7a 36b5 d50e ceac 1cbd baab db74 c7bd
000000c0: d8ef fdbc 5fed 0bb0 6839 84bd d8b8 2cbe
000000d0: 9ef9 e4bb e0d1 3ebe bf21 9bba 7dda 51ad
000000e0: 1e62 b9bd 5420 d4bc 231a dfb9 83bb b0bd
000000f0: 7703 b687 5d27 a3bb fdf8 afbb 836a 893d
00000100: b41a b0ba 2fbf 91bb 9aa0 f5ba 4c1c 1d3d
00000110: e4cf 7aa0 2648 66bd 4aee 34b5 11ce 213c
00000120: ff19 2dbb ba0c 0bbb 95fe 85b5 5274 f9bd
00000130: c21a 8f21 d3df d4bc 42af 073c 0d34 a53b
00000140: 3114 55bb 963d 8ba8 9f96 bfbd 6610 f9ba
00000150: 8552 8dbd e85d 3bba 9c0b f5bc 4d7f b8bc
00000160: 1685 afbd 2e93 19b8 9f55 aeba 7e72 b8ba
00000170: 61c0 8b3c c989 35bb 3901 4ebb 51ec 91b9
00000180: f6be 1bbd 864b 45b8 8b40 81bd 6c5e 08be
00000190: 8ef6 e23c 3a38 f8bd 4110 60bd 0c7b 8d3d
000001a0: aa96 683d fe83 73bb 03e2 a8bc 6185 1195
000001b0: d76c e9bc 0463 21bd f628 c6b9 da16 e5bd
000001c0: d06e 5bbb 0a4e 9cbd 60cc d5ba 31b2 f43b
000001d0: 27ac cba0 f4d8 1fbe cefd 21bb e271 f1bd
000001e0: 9e9a a5b9 b63f 31a6 bc64 06bb 36c9 ff9b
000001f0: a576 a3bb de60 7abb 0c08 b6bd 1336 10bb
00000200: 5d72 84bb 0f3f e4bb aae9 5cbe ddbe aeac
00000210: f20c 48ba 8d2c d5b7 7a66 71be 3494 93a8
00000220: ad08 daba 02ca adb9 446f 6bbb 980a 48bb
00000230: cd99 39b9 5147 9bb8 54da 20bb f9b8 2c3c
00000240: 0747 04bb 72cf 6dba fb78 65bb 7996 4cbb
00000250: a5c5 5fbb 2e2f c6be 78a3 48a7 fcbd bcba
00000260: 2da1 1f3c d500 0fbe c631 0c3d 7a04 8c3d
00000270: 7caa 76bb 9e10 fabd b922 3cb9 3fce e13c
00000280: b45e 81b9 d963 52bb ff4b e8b5 3263 08bd
00000290: 66bc 0abd d23c 593d ef5c c9ba f701 ecbd
000002a0: f9b5 0abc 2832 cebb 8256 46bd 94f6 c0b4
000002b0: 15c8 5abc 61c5 e1ad 81fb c53b 8228 6bbb
000002c0: 7162 0db8 74ab d6ba b950 163b 2540 1bbe
000002d0: 1d38 5dbb d047 2d3c be99 b9bb ccb7 64be
000002e0: 9cf3 9fbd dc15 b4bd 9e80 d1bb 5beb d4bb
000002f0: ac86 8cbe 05f3 9cbe b2aa 2dbd 02ce 3bb8
00000300: 8d00 2f3d 991d e9ba 940c 41b8 8c15 18bc
00000310: 57b2 02b6 ffd8 4bb9 debb e7bd 06a7 5fbe
00000320: 3495 dfbb 32c8 febc 1799 28bb 3459 4e3c
00000330: 71cf f6a6 f486 20be a9c6 86b4 46d5 f1bd
00000340: d2ad 8ebb 30f8 c5bb 5138 5bbe 057c 053d
00000350: 5c80 93bd 5ad7 e8bb 6bd1 55bb 0107 56be
00000360: 8831 2aae e6d4 a2a2 abdc 81be 6d71 67bb
00000370: a7e7 94bb 239c a9be 5e1e a9bb 5c9e eabd
00000380: 1306 5abe 039b 00bf 13f2 25a4 732a 623d
00000390: 2e36 b9bc 98bb edba d4be ceb9 e9d3 ccbb
000003a0: 6f08 7d95 d24c e2b0 e818 c93c 8509 9fad
000003b0: 8698 c4bd 4327 6bbd 6453 48bd 5e9a c1bd
000003c0: 7005 15be 31bd f4bc 9643 0f3d 0ec9 c0bd
000003d0: 7e18 f1ba bc08 f3bd 8117 383d 5973 4fba
000003e0: 7cd9 17bb 36ff 05b0 8fd7 3fbd 68ee 049e
000003f0: 091d e5b6 70b9 933d 60b4 2ea0 c4c6 b93d

8.weight f4 [128, 256]
-8.897e-42 5.763e-41 -3.1474155e-25 -5.5173e-41 5.2533e-41 -1.121632e-24 -1.8121845e-25 5.2298e-41
-1.1362595e-25 1.526e-41 1.1935e-41 -1.0023e-41 7.3392645e-27 -2.714e-42 -1.9127545e-27 -5.051818e-32
-1.0538205e-24 -1.0099203e-24 -8.007e-42 -5.1790494e-27 -5.6624e-41 5.2397e-41 -6.7566355e-28 4.7992133e-27
-6.828953e-26 -8.734e-42 -6.089e-41 -8.470184e-27 -2.0195725e-27 -2.8024684e-27 -2.6107043e-36 -3.377e-42
-4.836e-42 -4.0207e-41 -2.5858912e-27 7.879319e-26 -1.2450333e-26 -4.661e-42 -2.2241016e-27 2.9822e-41
-1.8646e-41 3.8904e-41 5.0494e-41 -3.4214638e-25 1.962e-41 7.201e-42 2.5463e-41 1.4981704e-26
2.4738126e-25 -1.848e-41 -5.6797773e-27 1.0538176e-26 3.4445e-41 -6.106611e-30 -4.9467e-41 -1.3472e-41
-7.425794e-28 -2.6371592e-26 5.1394e-41 -2.837532e-25 -3.38e-42 1.7867259e-26 -2.266333e-39 3.0085716e-26
5.211e-41 -4.9357e-41 5.3451e-41 -2.6196028e-26 -5.8444e-41 -1.0743392e-25 3.255e-42 -6.183095e-26
-5.554e-41 1.782e-42 5.8982e-41 -3.7055533e-26 -5.27e-43 2.2782845e-25 1.9177384e-26 -1.3470254e-26
1.3517561e-36 5.2284e-41 -9.235136e-27 -2.5149966e-26 -7.763861e-25 5.4005e-41 -9.943338e-30 -1.559724e-26
1.7311957e-27 -5.1918e-41 -1.9002e-41 -1.2016e-41 6.4857087e-26 -3.7199e-41 -3.243e-42 1.7351e-41
1.6743134e-26 -1.002e-42 -1.6658292e-31 -3.5977042e-25 7.7670024e-26 8.6698225e-27 -1.4056833e-26 -2.1683393e-25
-6.267425e-25 1.73179e-39 -1.5552683e-24 -6.61e-43 -1.1883648e-25 1.1426904e-26 -4.6827e-41 8.661245e-26
-7.383e-42 8.5822705e-27 5.7857e-41 -1.1128955e-25 1.7952e-41 -1.3548648e-29 -2.4985601e-25 1.4979464e-26
5.588e-41 -5.5358e-41 1.215e-41 -4.2511e-41 -1.923e-42 2.6133e-41 1.4867201e-26 1.1065e-41
-4.079e-42 -4.542217e-26 -5.9381603e-25 -5.1544e-41 -1.1723e-41 4.6913e-41 -1.357489e-24 -1.5999e-41
2.685e-41 -1.175e-41 3.3435e-41 -2.5909e-41 -5.2148e-41 -4.6283e-41 3.2437e-41 1.8162604e-26
2.631792e-32 5.084e-41 -6.1045e-41 -2.52529e-36 1.5595677e-27 3.545193e-28 2.9881e-41 -1.3217e-41
-6.66677e-26 1.1780602e-27 9.75272e-26 -1.719604e-25 -2.472e-41 1.2440391e-26 -3.1409e-41 1.3924487e-27
2.4587e-41 -9.76e-42 5.8696e-41 -1.2591437e-24 -7.704132e-27 7.250308e-29 5.9066e-41 1.070261e-28
-8.695e-42 -7.377006e-35 -4.669346e-25 -5.3832e-41 4.1489508e-27 2.939e-42 -1.9787719e-26 2.5707e-41
1.0137e-41 5.7233e-41 -9.648048e-25 -1.2183716e-26 4.1135e-41 8.2414594e-27 6.0079e-41 -1.1704608e-27
-7.6323876e-26 8.227981e-27 3.2054405e-26 -3.1542e-41 -5.7056738e-27 -3.7476825e-27 2.320435e-26 -5.6044e-41
4.019665e-26 2.616e-41 -3.8048e-41 -9.325196e-39 5.6149e-41 -8.597e-42 -1.2286205e-25 -1.1298698e-28
3.7884e-41 -5.1021283e-26 4.0816e-41 -2.204206e-27 5.9111e-41 -1.3949885e-26 -5.8391e-41 7.5783726e-27
-2.79e-41 -2.1694e-41 -2.056288e-27 4.6240296e-26 -6.385577e-26 -1.990733e-31 -1.5842e-41 2.0926034e-27
-4.64e-41 3.071e-41 1.1278044e-26 4.9e-44 4.51152e-40 8.018037e-27 -5.9534463e-34 -1.6968662e-27
5.202612e-27 1.805726e-27 -5.0496e-41 -7.4098543e-25 6.721335e-26 4.763e-41 -5.2273e-41 -5.6244e-32
-6.0842e-41 -5.6925e-41 8.414187e-27 -1e-43 -4.620296e-25 -2.9244524e-27 -2.52708e-26 -1.7671896e-26
-9.348066e-27 -2.5657018e-26 -3.1811324e-25 -3.3082938e-25 2.2858e-41 -1.9574861e-25 3.965894e-26 -4.872e-42
-5.1575e-41 1.3074e-41 1.7125682e-25 5.2687e-41 3.6864e-41 8.283374e-28 8.576e-42 2.2761068e-25
00000000: cd18 0080 a6a0 0000 cad0 c296 cd99 0080
00000010: 7192 0000 6c90 ad97 6b56 6096 c991 0000
00000020: 80a9 0c96 8a2a 0000 4521 0000 f11b 0080
00000030: 7e5e 1114 9107 0080 458b 1793 1727 838b
00000040: 2212 a397 1147 9c97 5216 0080 cd29 cd93
00000050: d89d 0080 1092 0000 5720 5692 ce1d be13
00000060: a213 a995 5918 0080 bda9 0080 efc4 2794
00000070: cc01 2093 d008 5e93 1b18 5e84 6a09 0080
00000080: 7b0d 0080 1570 0080 1be0 4c93 1e15 c315
00000090: b09a 7694 fe0c 0080 2436 3093 2253 0000
000000a0: fa33 0080 736c 0000 c28c 0000 42c7 d396
000000b0: b136 0000 1314 0000 fb46 0000 225f 9414
000000c0: 201f 9916 8433 0080 c9ff e093 e7ba 5014
000000d0: 0560 0000 adb6 f78e e589 0080 8e25 0080
000000e0: 3355 6b92 f795 0295 448f 0000 7da2 af96
000000f0: 6c09 0080 e2f2 b014 9dad 1880 2dfa 1415
00000100: 4391 0000 9689 0080 0095 0000 69b7 0195
00000110: eba2 0080 2bff 0496 1309 0000 0516 9995
00000120: d39a 0080 f804 0000 6ba4 0000 787d 3795
00000130: 7801 0080 dc04 8d16 72ec bd14 2767 8594
00000140: 48fd e503 bf91 0000 b4eb 3694 bd12 f994
00000150: a547 7097 8b96 0000 c3ac 498f b477 9a94
00000160: d228 0913 ba90 0080 f834 0080 7f21 0080
00000170: 1094 a015 b267 0080 0a09 0080 5e30 0000
00000180: e3d0 a514 cb02 0080 ac3c 588c e6af de96
00000190: 3a4d c015 39b9 2b14 4e36 8b94 b536 8696
000001a0: a8f7 4197 87db 1200 86aa f097 d801 0080
000001b0: c91c 1396 4955 6214 8982 0080 2a71 d615
000001c0: 9514 0080 48fd 2914 48a1 0000 11c5 0996
000001d0: 0b32 0000 4d66 898f 44a7 9a96 7459 9414
000001e0: c59b 0000 519a 0080 df21 0000 8176 0080
000001f0: 5c05 0080 d948 0000 d53c 9314 d81e 0000
00000200: 5f0b 0080 71eb 6095 f4c6 3797 af8f 0080
00000210: ae20 0080 c682 0000 ae0f d297 992c 0080
00000220: d94a 0000 c120 0080 345d 0000 3948 0080
00000230: 5e91 0080 0581 0080 6c5a 0000 acdf b314
00000240: 84a6 080b b98d 0000 2baa 0080 f2d3 5684
00000250: 951f f712 0cb4 e011 4c53 0000 d824 0080
00000260: ad0f a595 cdab ba12 3577 f115 6de0 5496
00000270: e944 0080 4768 7614 8e57 0080 6ea4 dc12
00000280: 8a44 0000 351b 0080 9fa3 0000 d2d7 c297
00000290: 9798 1894 30d1 b710 a7a4 0000 f5ab 0711
000002a0: 3d18 0080 4d1d c486 5f82 1097 1096 0080
000002b0: 5c5b a413 3108 0000 d4f7 c394 a947 0000
000002c0: 421c 0000 8b9f 0000 db4b 9597 c852 7194
000002d0: ab72 0000 2a3d 2314 7aa7 0000 8877 b992
000002e0: 01f8 bc95 d2f8 2214 c9b9 1e15 ed57 0080
000002f0: 6806 e293 0476 9493 04ce e514 3a9c 0080
00000300: 4f0b 4715 ec48 0000 106a 0080 da8a 6580
00000310: 859c 0000 f717 0080 8a18 1896 5f3a 0f91
00000320: 9b69 0000 29a5 7c95 c771 0000 9ca2 2e93
00000330: c7a4 0000 2927 8a94 c5a2 0080 ea1a 1614
00000340: c64d 0080 793c 0080 7aea 2293 8af8 6415
00000350: 6719 9e95 ba34 818c 292c 0080 0acb 2513
00000360: 5881 0080 9b55 0000 7a62 5f14 2300 0000
00000370: a1e9 0400 47d0 1e14 52d6 4588 8970 0693
00000380: c118 ce13 7910 0f13 c38c 0080 ea52 6597
00000390: 8669 a615 c684 0000 b791 0080 8d04 928b
000003a0: 9aa9 0080 af9e 0080 ffa8 2614 4700 0080
000003b0: c2fd 0e97 f1b2 6793 1745 fa94 9403 af94
000003c0: 5328 3994 4518 fe94 0ee7 c496 02c6 cc96
000003d0: b83f 0000 3653 7296 ae61 4415 950d 0080
000003e0: c58f 0080 7224 0000 7401 5416 df92 0000
000003f0: c366 0000 5b41 8312 e817 0000 5ae2 8c16

8.bias f4 [128]
-1.6951472e-25 -1.5229058e-22 -3.735511e-09 -0.00092753966 -2.434073e-15 0.06752923 -3.1240994e-05 -0.00517444
0.05452446 -3.8524053e-05 -1.9086195e-12 -7.269313e-11 -5.52197e-12 0.060790304 -0.0005833721 -0.00033179324
0.04485226 -0.00021837141 -0.00080063246 -0.00040164814 -4.3870907e-17 -1.0188417e-34 -0.0007382343 -0.0019838293
-0.0024496485 -2.0124717e-33 -9.600955e-14 -5.367486e-07 0.115102515 -1.4548031e-14 -5.4401207e-06 -6.0207885e-16
0.13899788 0.00048543164 -0.004143348 -0.0008726916 -0.0036078473 -0.0034755112 -1.3615864e-10 -5.868314e-11
-0.00029302394 -2.7687983e-07 -9.604281e-07 -0.0001426311 -8.8788103e-32 0.017900983 -0.00024678608 -2.3166341e-23
-5.655522e-07 0.0035824792 -0.0020111986 -0.0014637742 -1.1511718e-06 0.087647274 0.10420813 -0.0017524007
-4.3601078e-11 -4.0333236e-15 -2.1236471e-07 -1.2468287e-06 -0.002629437 -1.3703615e-09 -0.0025413437 -2.5907834e-28
-0.00026866735 -0.0032182601 -0.0007077968 -1.3483134e-22 0.14979173 -7.2779113e-07 -2.695424e-11 -0.0003792598
-5.9011537e-12 -0.00245714 -7.231269e-06 -2.7388385e-06 -0.00047906456 -0.02938951 -0.0098788 -1.396017e-08
-0.0012801043 -6.6000013e-16 1.5143052e-35 -0.00019281468 -0.00027941057 -1.472042e-22 -2.9536652e-06 -1.1895147e-15
-3.843216e-08 -2.0329153e-06 -7.7247637e-07 -0.0018931902 -0.00077417365 -0.000305711 -0.0068626623 -2.0364046e-13
-1.2535263e-09 -2.4470246e-18 -0.000600127 -7.5119795e-05 -1.1645908e-20 -0.0027871851 0.054520197 -0.00042570045
-4.094859e-05 0.041894335 -0.0010285939 -4.6134976e-10 -0.012520991 -4.9924874e-05 -0.0008576085 0.06500603
0.15990503 -0.0003299917 -1.1449417e-24 0.37426308 -5.3718908e-05 0.14940399 -0.004734864 -1.8963491e-06
-0.0007939809 -0.0005802094 -4.585397e-09 -0.0001273839 -3.9854208e-16 -0.0005225033 -0.0044893404 -0.007176285
00000000: 5cd9 5196 a71b 389b e759 80b1 2226 73ba
00000010: b964 2fa7 c44c 8a3d c308 03b8 598e a9bb
00000020: 0a55 5f3d e394 21b8 a24e 06ac 98da 9fae
00000030: 7c49 c2ac 41ff 783d 70ed 18ba 89f4 adb9
00000040: 01b7 373d a1fa 64b9 89e1 51ba 4d94 d2b9
00000050: a051 4aa4 636d 0787 1186 41ba 2203 02bb
00000060: 488a 20bb 8a30 2789 bd31 d8a9 1515 10b5
00000070: deba eb3d 7a09 83a8 488a b6b6 9489 2da6
00000080: 7655 0e3e 8881 fe39 ecc4 87bb 58c5 64ba
00000090: a271 6cbb 67c5 63bb 40b5 15af ac0b 81ae
000000a0: 02a1 99b9 13a6 94b4 0fe8 80b5 3f8f 15b9
000000b0: d181 e68b 15a5 923c 1163 81b9 150d e099
000000c0: 74d0 17b5 07c8 6a3b 50ce 03bb 1ddc bfba
000000d0: f681 9ab5 6a80 b33d 126b d53d cfb0 e5ba
000000e0: 73c2 3fae d850 91a7 5e06 64b4 b558 a7b5
000000f0: a252 2cbb 4f57 bcb0 ac8c 26bb dd35 a491
00000100: ecdb 8cb9 72e9 52bb 708b 39ba 4700 239b
00000110: 0163 193e 6d5d 43b5 8d17 edad 64d7 c6b9
00000120: dea0 cfac f807 21bb 21a4 f2b6 e3cc 37b6
00000130: f52a fbb9 45c2 f0bc b1da 21bc 7ad5 6fb2
00000140: 2cc9 a7ba 6a3b 3ea6 4f07 a105 4c2e 4ab9
00000150: da7d 92b9 7ef5 319b 9537 46b6 596d aba6
00000160: 9b10 25b3 386d 08b6 2c5c 4fb5 ec24 f8ba
00000170: eaf1 4aba d647 a0b9 2fe0 e0bb 5e47 65aa
00000180: 8948 acb0 fd8e 34a2 d751 1dba a289 9db8
00000190: 28fc 5b9e 35a9 36bb 9250 5f3d 8c30 dfb9
000001a0: 37c0 2bb8 6599 2b3d e2d1 86ba 35a1 fdaf
000001b0: d824 4dbc 6d66 51b8 22d1 60ba e221 853d
000001c0: 25be 233e bc02 adb9 d02b b197 699f bf3e
000001d0: 3d50 61b8 5cfd 183e eb26 9bbb 0f86 feb5
000001e0: 2823 50ba 3219 18ba 948d 9db1 5b92 05b9
000001f0: 6ebe e5a5 9af8 08ba 511b 93bb 0b27 ebbb
