Models/checkpoint_vel_D2_1000_1000.pth (torch, 353077 bytes, 16 tensors)

0.weight f4 [32, 9]
0.11452815 -0.13214642 -0.24507876 -0.013940681 -1.335305 0.21493296 0.007015165 0.29550466
-0.035601564 -0.07972656 0.117815346 0.26135352 -0.0016497349 1.54165 -0.022972163 -0.022492083
-0.113157235 -0.039637942 0.41590396 -0.025572114 -0.01585574 -0.024783077 -0.2541322 0.060289882
-0.12765706 0.03226968 0.08098166 0.11244309 -0.24182487 0.33049464 0.14219688 0.3007708
0.2800107 -0.23973885 -0.16489209 -0.07906878 0.101645954 -0.12746368 0.14059593 -0.15096696
0.8988341 -0.10158717 0.19515756 0.00024586447 -0.18040237 0.018795189 -0.0812313 0.1164351
-1.3967611 0.031618908 -0.47132388 -0.03658685 0.05876602 -0.04864432 0.15984045 -0.015988294
0.40225986 -0.3583908 -0.074555434 0.12143165 -0.25605237 0.21924591 0.24805067 0.088166624
-0.36286324 -0.39560813 0.3336531 -0.033512034 -0.09283313 -0.055690702 0.055781104 0.04281697
0.12614164 0.13174772 0.16939789 -0.49233836 -0.09897268 0.0759567 -0.16893001 0.084652014
-0.15658839 -0.16168174 0.046406437 -0.6822536 -0.638355 0.2056718 -0.18102421 0.13945654
-0.05116193 0.002007864 0.016660733 -0.2961152 -0.03653129 1.3780886 -1.1874319 -0.21616979
0.07630399 0.11594178 -0.11988865 -0.040902924 0.24662997 0.07360829 0.7701225 -0.054576013
-0.16616446 -0.21320629 0.32358813 -0.0730141 0.14344122 -0.005864177 -0.084120244 -0.035330974
1.6033896 -0.044563565 0.013100763 0.2817466 0.02360303 -0.0074425186 -0.4104084 0.0006253723
-0.02915393 0.120991945 0.38920212 -0.019579025 0.27267474 -0.2709655 -0.24885087 0.0044005266
0.24279805 -0.05841213 -0.94289446 0.060042858 0.17352553 0.09962592 0.099609666 0.20175526
0.2935863 0.25952077 -0.11413963 -1.5804101 -0.140588 0.09862959 -0.21071169 -0.004719857
-0.0021876425 -0.19156818 -0.049667273 0.12497858 -0.14570826 1.3816481 -0.02530944 -0.004921649
-0.046324924 -0.012258627 -0.3887166 -0.14202945 -0.91754514 0.04074505 0.02046422 0.012658806
-0.16588229 0.17782855 0.2332896 0.04435393 -0.37339306 0.024075536 0.7884937 -0.08599848
-0.2033669 -0.13685225 -0.17047024 0.048368357 0.26129386 0.4078787 -0.30540115 -0.025241204
0.11145703 0.017327026 -0.2613156 0.30534044 -0.047469035 -0.07180453 -0.23554243 -0.26128078
-1.1139861 0.011051875 -0.27910605 -0.20134106 -0.0060625053 -0.23324035 0.027878549 -0.012072493
-0.30183223 0.24992558 0.8595929 -0.07855689 0.026336344 0.041097615 0.2826895 -0.32969025
0.38634473 -0.53395355 -0.0005877674 0.1486705 0.16761418 -0.062319733 -0.018754521 -0.02267123
0.02006277 0.0004354248 0.2060342 0.6769985 -0.2355423 0.31664363 0.151126 0.31413633
0.10626781 -0.21664502 -0.22310044 0.45909852 0.4535116 0.10865829 -0.13827609 -0.03589492
0.03673138 -0.12450379 -0.2163287 0.015406663 0.47311935 1.0724614 -0.12811694 -0.082643576
0.27351955 -0.05093072 -0.029365202 -0.035968747 -0.29993063 -0.15734467 0.48260736 -0.10633583
-0.21953206 0.053659864 0.038872864 -0.059121963 0.11088193 0.2248584 -0.58604157 -0.1144429
-0.053994093 0.30927855 0.3426534 -0.11982 0.38978687 0.4295149 -0.20136644 -0.82651067
00000000: bc8d ea3d 6451 07be edf5 7abe 7467 64bc
00000010: 46eb aabf 6317 5c3e 78df e53b 634c 973e
00000020: f2d2 11bd ae47 a3bd 2c49 f13d 21d0 853e
00000030: eb3b d8ba ca54 c53f 1e30 bcbc 5141 b8bc
00000040: fbbe e7bd 655b 22bd 5df1 d43e 9c7c d1bc
00000050: e6e3 81bc e105 cbbc 9e1d 82be 86f2 763d
00000060: 88b8 02be 362d 043d b6d9 a53d 9048 e63d
00000070: f0a0 77be 9836 a93e 0f9c 113e a1fe 993e
00000080: 905d 8f3e 1a7e 75be 79d9 28be d0ee a1bd
00000090: c12b d03d d785 02be 61f8 0f3e 1597 1abe
000000a0: fe19 663f ef0c d0bd 62d7 473e 5fe7 8039
000000b0: 66bb 38be 5ef8 993c 995c a6bd 8775 ee3d
000000c0: 11c9 b2bf d482 013d 5d51 f1be 18dc 15bd
000000d0: a3b4 703d 443f 47bd 37ad 233e e2f9 82bc
000000e0: 01f5 cd3e 007f b7be 85b0 98bd 28b1 f83d
000000f0: 4c19 83be 0082 603e ff00 7e3e b490 b43d
00000100: 36c9 b9be 268d cabe 94d4 aa3e ea43 09bd
00000110: 4c1f bebd ef1b 64bd ba7a 643d d960 2f3d
00000120: 462b 013e e0e8 063e a476 2d3e c613 fcbe
00000130: 30b2 cabd 308f 9b3d fdfb 2cbe 095e ad3d
00000140: b558 20be e68f 25be ad14 3e3d 2ca8 2ebf
00000150: 3c6b 23bf a19b 523e 695e 39be b2cd 0e3e
00000160: 2c8f 51bd 5e96 033b 177c 883c 699c 97be
00000170: d5a1 15bd 3565 b03f c5fd 97bf 9d5b 5dbe
00000180: 4445 9c3d e272 ed3d 2e88 f5bd d389 27bd
00000190: 918c 7c3e f1bf 963d c026 453f 198b 5fbd
000001a0: 0427 2abe c052 5abe 58ad a53e 6b88 95bd
000001b0: 41e2 123e 4828 c0bb 3c47 acbd 36b7 10bd
000001c0: df3b cd3f 4988 36bd 95a4 563c 1741 903e
000001d0: 245b c13c 5fe0 f3bb 0d21 d2be 06f0 233a
000001e0: 39d4 eebc a0ca f73d 8045 c73e 3164 a0bc
000001f0: 069c 8b3e fdbb 8abe c3d2 7ebe 4b32 903b
00000200: 0da0 783e 8f41 6fbd 8861 71bf 80ef 753d
00000210: adb0 313e ad08 cc3d 2700 cc3d ee98 4e3e
00000220: f250 963e e8df 843e 0ac2 e9bd e14a cabf
00000230: 4df6 0fbe 4ffe c93d cec4 57be 08a9 9abb
00000240: 8d5e 0fbb 732a 44be e96f 4bbd c5f4 ff3d
00000250: 8c34 15be d8d9 b03f be55 cfbc c945 a1bb
00000260: 34bf 3dbd 69d8 48bc dd05 c7be 2b70 11be
00000270: 3de4 6abf 48e4 263d 94a4 a73c e166 4f3c
00000280: 0cdd 29be b018 363e 78e3 6e3e 77ac 353d
00000290: 602d bfbe 0f3a c53c b9da 493f f91f b0bd
000002a0: 6a3f 50be ff22 0cbe c08f 2ebe e61d 463d
000002b0: 4fc8 853e 7ad5 d03e 8a5d 9cbe a4c6 cebc
000002c0: 9543 e43d 68f1 8d3c 29cb 85be 9555 9c3e
000002d0: e46e 42bd 410e 93bd 0932 71be 98c6 85be
000002e0: 1997 8ebf ec12 353c fde6 8ebe 5a2c 4ebe
000002f0: fba7 c6bb 8fd6 6ebe 8e61 e43c b5cb 45bc
00000300: c189 9abe 7eec 7f3e 480e 5c3f 6fe2 a0bd
00000310: 51bf d73c f955 283d aebc 903e 29cd a8be
00000320: face c53e 2eb1 08bf 6714 1aba 143d 183e
00000330: 0da3 2b3e fa42 7fbd 15a3 99bc 04b9 b9bc
00000340: ae5a a43c ba49 e439 a1fa 523e c64f 2d3f
00000350: 0032 71be 1d1f a23e c6c0 1a3e 7ad6 a03e
00000360: f0a2 d93d 31d8 5dbe 7174 64be f60e eb3e
00000370: ac32 e83e 3d88 de3d 3f98 0dbe 8d06 13bd
00000380: a573 163d d8fb febd 4585 5dbe 3a6c 7c3c
00000390: b33c f23e 6a46 893f 1631 03be 0941 a9bd
000003a0: c10a 8c3e bb9c 50bd 4b8f f0bc f753 13bd
000003b0: 8290 99be f61e 21be 5018 f73e 9ac6 d9bd
000003c0: 03cd 60be 72ca 5b3d 2739 1f3d df29 72bd
000003d0: 1116 e33d 4841 663e d206 16bf 0a61 eabd
000003e0: e928 5dbd c259 9e3e 4470 af3e 3064 f5bd
000003f0: 2592 c73e 61e9 db3e 0133 4ebe 3496 53bf

0.bias f4 [32]
-0.11402914 -0.05996192 0.047382016 -0.04211018 0.22138989 0.42233762 0.03691704 0.022173228
0.04097191 0.17270072 -0.58055484 0.086187065 0.5675748 0.0030129142 0.053760216 -0.29676807
0.5484826 0.09925355 -0.006877003 0.49428558 -0.008563483 0.47961167 0.5166929 0.110097975
-0.17585613 -0.11294837 0.04070415 0.00017683032 0.21701235 0.17771886 -0.16055103 -0.14172806
00000000: 1c88 e9bd a19a 75bd a513 423d b97b 2cbd
00000010: 08b4 623e a33c d83e 5236 173d a1a4 b53c
00000020: 29d2 273d 75d8 303e 3e9f 14bf d882 b03d
00000030: 954c 113f 5074 453b ac33 5c3d fcf1 97be
00000040: 5b69 0c3f 7245 cb3d 7b58 e1bb 0013 fd3e
00000050: da4d 0cbc a98f f53e fc45 043f 0c7b e13d
00000060: a113 34be 7a51 e7bd 65b9 263d 876b 3939
00000070: 7c38 5e3e effb 353e 7d67 24be 2921 11be

2.weight f4 [64, 32]
0.01841012 0.34492344 0.035090804 -0.053781096 0.05600969 -0.10886445 -0.17463276 -0.057703268
-0.15087008 -0.22900337 -0.015054207 0.35336244 0.06744322 -0.18797421 0.047374602 0.089048
0.012878506 -0.2378352 0.012437508 -0.004506046 -0.07506098 -0.01041009 0.0143364845 0.10333264
-0.036788125 -0.09822011 -0.013409129 -0.07747215 -0.14597675 -0.120090105 0.2583518 -0.06992565
-0.41783404 0.029493932 -0.090023644 0.20694128 0.17122744 0.09789534 -0.12754987 0.22857733
-0.06749756 -0.44949752 0.23801196 0.074598804 0.08258101 0.0751761 -0.32059026 -0.28071734
-0.32027778 -0.074254036 0.06884025 0.23723143 -0.020293508 -0.2366574 0.15559904 0.16521154
0.11740979 0.25210992 0.106058665 0.092972584 0.35779104 -0.19952843 0.07027987 -0.02187063
-0.099630855 -0.28811908 0.09020547 0.13507509 -0.21391739 -0.2099114 -0.10751731 0.091018945
-0.06767172 0.020460993 0.5339056 -0.09475491 0.32179764 -0.107168406 0.07326968 -0.026116459
-0.01788598 0.035319157 0.08422505 -0.2685388 0.14610676 0.120998554 -0.099524766 0.15378226
0.24451087 -0.04461483 0.07670849 0.17001176 -0.1437826 -0.0029467903 0.15212634 0.117322676
-0.003752323 0.0014522363 0.14236757 -0.1049168 -0.07672891 0.07070117 0.10110241 -0.06924969
0.16037594 0.19423226 -0.034596905 -0.23693006 -0.062802754 0.07811893 0.03770898 -0.3205747
-0.20176528 0.2019017 -0.096158236 -0.014744097 0.10775586 -0.3530335 0.20772018 0.018437585
-0.07381797 0.0946313 -0.1140342 0.06257525 -0.102804855 0.052113198 -0.22781081 -0.10934895
0.39393428 0.1268567 0.03482036 -0.06646847 0.16817069 -0.18225312 0.18377948 0.14307547
-0.14682339 0.21374074 -0.016848998 -0.15120512 -0.0360819 -0.03324993 0.1882863 0.0691336
0.37834245 0.05838996 -0.30601186 -0.13802509 0.33114937 -0.21504588 -0.043768562 -0.0706322
-0.042410325 -0.1280943 -0.023361392 0.04511744 -0.09523169 -0.099320084 0.38465363 -0.34706163
0.029736094 0.21901351 -0.050326765 0.046680134 0.23685797 -0.2573244 -0.072640374 -0.1514963
0.059911735 -0.056030236 -0.015100115 0.29616424 -0.03181852 0.04138866 0.10971595 0.39582178
0.058295112 0.06839606 0.06280326 -0.0040760143 -0.26830375 -0.05377849 -0.46935382 0.2343967
-0.019411474 -0.05790906 -0.22872794 -0.12285505 0.10424226 0.17089428 -0.06483011 0.036183346
0.43842235 0.09167725 0.19807187 0.02204348 -0.13440536 -0.19033642 -0.20506872 0.061143335
-0.05000729 0.11459147 0.04793305 -0.17200774 -0.7593389 -0.16087122 0.14614359 0.6228079
-0.0847066 -0.016256189 -0.05286692 -0.07387937 0.11798789 -0.08189808 -0.033175256 -0.34168077
0.093333684 0.074505374 -0.029155808 -0.054463197 -0.003621721 -0.056334905 0.09479224 0.13728881
0.10564139 0.0076907296 0.03126355 0.18135092 -0.12424499 -0.29323307 0.20095116 -0.053895045
0.015439908 -0.19569023 -0.06808078 -0.26338184 0.48036712 0.06776707 0.048981313 -0.17778733
0.56185186 -0.026794132 0.032984003 0.16579877 -0.061060116 -0.09328322 -0.09908364 0.06098636
-0.014674896 -0.2309034 -0.045695838 -0.1373249 -0.106694765 0.043988124 -0.15036128 -0.061293304
00000000: d2d0 963c ce99 b03e 60bb 0f3d 9149 5cbd
00000010: 6b6a 653d 53f4 debd eed2 32be 435a 6cbd
00000020: b07d 1abe dc7f 6abe eca5 76bc eceb b43e
00000030: ac1f 8a3d 507c 40be df0b 423d cc5e b63d
00000040: 5f00 533c 128b 73be b1c6 4b3c 74a7 93bb
00000050: 92b9 99bd 158f 2abc 93e3 6a3c 10a0 d33d
00000060: 25af 16bd a027 c9bd f7b1 5bbc b8a9 9ebd
00000070: ee7a 15be cdf1 f5bd b046 843e 2e35 8fbd
00000080: 58ee d5be 429d f13c 515e b8bd 6ae8 533e
00000090: 3f56 2f3e 5a7d c83d 6f9c 02be 2d10 6a3e
000000a0: 293c 8abd 8a24 e6be 68b9 733e 42c7 983d
000000b0: 3c20 a93d edf5 993d 6824 a4be 2fba 8fbe
000000c0: 73fb a3be 8012 98bd 1efc 8c3d ccec 723e
000000d0: 923e a6bc 5156 72be 5b55 1f3e 372d 293e
000000e0: 8b74 f03d 8d14 813e 4935 d93d 6968 be3d
000000f0: 6330 b73e 2e51 4cbe e4ee 8f3d 092a b3bc
00000100: 430b ccbd 5884 93be a5bd b83d 2051 0a3e
00000110: 290d 5bbe 04f3 56be 0932 dcbd 2468 ba3d
00000120: 7997 8abd d09d a73c 0aae 083f dd0e c2bd
00000130: a9c2 a43e 1c7b dbbd 6a0e 963d 2ff2 d5bc
00000140: 9e85 92bc d2aa 103d 2f7e ac3d eb7d 89be
00000150: 039d 153e 17ce f73d a4d3 cbbd 1979 1d3e
00000160: 0f61 7a3e 0abe 36bd 5719 9d3d 9017 2e3e
00000170: bf3b 13be f01e 41bb 02c7 1b3e df46 f03d
00000180: 89e9 75bb f758 be3a cec8 113e 9fde d6bd
00000190: 0c24 9dbd c6cb 903d c80e cf3d c8d2 8dbd
000001a0: 9739 243e d2e4 463e 7cb5 0dbd cb9d 72be
000001b0: bb9e 80bd d1fc 9f3d bb74 1a3d 5e22 a4be
000001c0: 8f9b 4ebe 52bf 4e3e 9cee c4bd 3a91 71bc
000001d0: 1baf dc3d cfc0 b4be 99b4 543e 6b0a 973c
000001e0: e02d 97bd 0ece c13d c38a e9bd 7427 803d
000001f0: 5a8b d2bd a674 553d 3d47 69be 58f2 dfbd
00000200: c1b1 c93e b9e6 013e cb9f 0e3d 9f20 88bd
00000210: f034 2c3e 90a0 3abe b030 3c3e 6082 123e
00000220: df58 16be dade 5a3e e906 8abc 84d5 1abe
00000230: 9dca 13bd 1431 08bd 20ce 403e eb95 8d3d
00000240: 1ab6 c13e 502a 6f3d 96ad 9cbe 7356 0dbe
00000250: 698c a93e fd34 5cbe aa46 33bd 9da7 90bd
00000260: 73b6 2dbd 272b 03be 6460 bfbc 11cd 383d
00000270: d508 c3bd 5468 cbbd 52f1 c43e 10b2 b1be
00000280: 1c99 f33c 1445 603e 7023 4ebd ab33 3f3d
00000290: e58a 723e 06c0 83be 7ac4 94bd d921 1bbe
000002a0: 0266 753d f67f 65bd 7966 77bc d7a2 973e
000002b0: 2354 02bd 2887 293d c2b2 e03d 27a9 ca3e
000002c0: dbc6 6e3d 3c13 8c3d ff9e 803d 1690 85bb
000002d0: 1c5f 89be d546 5cbd 254f f0be b005 703e
000002e0: d004 9fbc 0d32 6dbd a837 6abe 6e9b fbbd
000002f0: f77c d53d e9fe 2e3e a6c5 84bd fd34 143d
00000300: e578 e03e 48c1 bb3d 5ad3 4a3e 8794 b43c
00000310: 8fa1 09be 8de7 42be 89fd 51be 6f71 7a3d
00000320: 72d4 4cbd efae ea3d 7255 443d cc22 30be
00000330: 0964 42bf 6dbb 24be aaa6 153e 5770 1f3f
00000340: a77a adbd b32b 85bc fc8a 58bd 114e 97bd
00000350: a3a3 f13d 2eba a7bd c7e2 07bd c8f0 aebe
00000360: bb25 bf3d 4696 983d 29d8 eebc cd14 5fbd
00000370: 655a 6dbb 6ebf 66bd 6f22 c23d 7095 0c3e
00000380: 835a d83d 8402 fc3b 350e 003d 0eb4 393e
00000390: 2874 febd a522 96be 24c6 4d3e 0dc1 5cbd
000003a0: abf7 7c3c 0563 48be f06d 8bbd fcd9 86be
000003b0: aef2 f53e 76c9 8a3d a1a0 483d e20d 36be
000003c0: 86d5 0f3f 5e7f dbbc 3c1a 073d 27c7 293e
000003d0: 2c1a 7abd 460b bfbd 5dec cabd d5cc 793d
000003e0: fa6e 70bc f171 6cbe 8f2b 3bbd e69e 0cbe
000003f0: c982 dabd e42c 343d 4ff8 19be b00e 7bbd

2.bias f4 [64]
0.06808363 -0.09634287 -0.2622017 0.16105649 -0.19963038 -0.06240791 -0.92072195 0.073515624
-0.1631682 0.09208233 -0.025962723 0.30018118 -0.5193459 -0.17237344 -0.13362524 -0.7767627
0.45199367 -0.4019082 0.15695213 -0.54933876 0.52315193 0.128603 -0.562842 0.056056958
-0.4500521 -0.804754 0.05370559 0.18158838 0.2582936 -0.27631676 -0.8676547 -0.20341069
0.09932722 0.14118168 0.5093716 0.12155136 0.0027305852 -0.82479525 0.15668799 0.36643994
-0.31554484 -0.2361064 0.002679668 0.31689793 -0.13561757 0.28194466 0.32034522 -0.5247857
-0.1847501 0.1421974 0.19553964 0.3298346 0.032248594 0.41371405 -0.03225021 0.27391383
0.033355728 0.2538958 -0.5723252 -0.0056582675 -0.15675355 0.28587508 -0.3339582 -0.0068276897
00000000: 6e6f 8b3d 694f c5bd 4d3f 86be feeb 243e
00000010: e86b 4cbe 709f 7fbd 6fb4 6bbf 5c8f 963d
00000020: 9115 27be a995 bc3d c7af d4bc 59b1 993e
00000030: daf3 04bf aa82 30be 0ed5 08be ecd9 46bf
00000040: b76b e73e e9c6 cdbe 0fb8 203e 77a1 0cbf
00000050: 49ed 053f 81b0 033e 6a16 10bf fb9b 653d
00000060: 3b6d e6be 5c04 4ebf 65fa 5b3d 4ef2 393e
00000070: 0f3f 843e 6479 8dbe 9e1e 5ebf e44a 50be
00000080: 126c cb3d ee91 103e 2d66 023f ebef f83d
00000090: 9ef3 323b c825 53bf d172 203e 049e bb3e
000000a0: 188f a1be e0c5 71be 5e9d 2f3b 7240 a23e
000000b0: 55df 0abe 0d5b 903e 4a04 a43e 5b58 06bf
000000c0: 212f 3dbe 329c 113e 8b3b 483e 15e0 a83e
000000d0: 1a17 043d 54d2 d33e cc18 04bd 6f3e 8c3e
000000e0: 04a0 083d a1fe 813e e883 12bf fd68 b9bb
000000f0: 0184 20be 385e 923e 92fc aabe d0ba dfbb

4.weight f4 [128, 64]
0.08922521 -0.09239522 -0.056542248 0.017936386 0.028634636 0.15514855 0.009846334 0.062024128
0.074118495 -0.08436113 0.11609335 0.04075552 0.05451155 0.03743319 -0.07825117 -0.06110803
-0.008557023 -0.12812278 -0.05068005 0.029417664 0.03434721 0.09890772 -0.08874208 0.030103507
0.045505896 0.0011077598 -0.074196756 0.1658786 -0.05035903 -0.041874908 0.0126426825 -0.112147115
0.124513 0.08462721 -0.079007134 -0.07313345 0.11597483 -0.12755023 0.19430815 0.11569573
0.07947954 -0.19663835 0.0024802545 -0.09072334 -0.10014691 -0.09249734 -0.008311939 -0.047630806
0.09175162 0.028061828 0.049674924 0.08437256 -0.18474363 0.010096389 0.05683986 -0.14814836
0.10091361 0.14949512 0.044381388 -0.041210406 0.12239578 -0.08356799 -0.03598546 -0.10476697
1.5750672e-36 -1.3831165e-06 -1.6762272e-07 -1.0585601e-17 -8.934844e-07 -5.5878073e-11 -8.820239e-18 6.400566e-08
-3.3652417e-10 -2.9006093e-05 1.2958963e-21 1.551e-42 1.3959243e-16 -2.3348202e-06 2.6150271e-06 -8.416548e-14
-2.3622764e-08 -3.4214335e-33 -6.2776515e-08 8.84102e-08 -4.571e-42 7.0119612e-09 -8.7142614e-14 -2.0863335e-11
-9.079206e-26 -1.53114e-16 -1.965303e-16 -4.4700988e-07 -1.18617464e-07 6.937301e-08 -3.3776944e-06 8.4417714e-08
-2.149749e-08 -8.432798e-26 -1.813042e-10 -1.0359145e-14 3.606e-42 -1.0281228e-09 -2.5822034e-11 -1.5016035e-07
6.4e-44 -3.5059737e-12 -2.3448468e-10 -1.15753855e-05 3.0440992e-14 -1.38157275e-05 8.2430415e-06 -5.5626575e-08
5.265e-42 1.0240871e-11 2.435769e-07 -2.2142029e-23 -1.2194995e-06 3.215259e-07 -1.4736575e-07 -1.9024096e-08
-8.711897e-10 1.6051933e-37 -5.0861154e-10 5.743395e-31 -1.78976e-09 -6.446583e-17 -1.147998e-06 -2.1942617e-12
-0.0007238103 0.13722318 -0.2068859 -0.090640634 -0.054873 0.016892828 -0.111034945 0.15931724
-0.05126491 -0.072973154 0.08250692 0.03321853 0.03995649 0.011809847 -0.08494244 0.048418913
0.07798713 0.04497495 -0.16546181 -0.2620086 -0.17941682 -0.039251857 -0.1069803 -0.06704241
-0.062842235 -0.17147483 0.057088263 -0.099871896 0.1093455 0.09640963 -0.17879562 0.024132567
-0.09713016 0.050066072 0.014891533 0.013835688 -0.12142083 -0.03430633 -0.024416924 0.16395468
-0.03171282 -0.06865928 -0.112535425 -0.13433705 0.13007508 0.07060641 0.06675375 -0.0015699839
-0.08718974 -0.08512682 0.020132106 0.13073282 0.04461516 0.09495076 -0.10963357 -0.00584026
-0.23828171 -0.05021882 -0.14123303 -0.07232179 0.14325473 0.024149168 0.07658596 -0.14840941
0.017615689 -0.07681336 0.032899827 0.096087575 0.073875405 0.027335629 -0.059087623 -0.14002334
-0.14641362 -0.20181426 0.2045183 -0.044224426 0.015266854 -0.11985806 0.023005845 0.0058379425
-0.04599073 0.06497259 -0.061765358 0.08110726 0.02225434 0.04803102 -0.09088662 0.08314489
-0.005749494 -0.096873865 0.1770428 0.013752857 0.09936499 0.08880794 0.09748951 -0.04582399
-0.06282193 0.0386343 -0.0028501942 0.11178617 0.09649536 0.024456086 0.05304839 0.04603323
-0.009341791 0.021947797 0.06381038 0.09813019 0.065646686 -0.08019019 -0.19303481 -0.0325801
-0.02068767 0.082921475 0.023644933 0.04491388 0.08748372 -0.0040957443 -0.058151692 -0.07489104
-0.15749353 -0.012942923 -0.052666716 0.0027209152 -0.13250265 -0.11938347 -0.15994804 0.093596004
00000000: b5bb b63d b539 bdbd d898 67bd 54ef 923c
00000010: 2f93 ea3c 43df 1e3e 8552 213c 030d 7e3d
00000020: 70cb 973d 87c5 acbd 5ac2 ed3d 43ef 263d
00000030: 8147 5f3d 8b53 193d 2642 a0bd 6a4c 7abd
00000040: c132 0cbc 9e32 03be e295 4fbd 50fd f03c
00000050: a9af 0c3d 2190 ca3d 68be b5bd a19b f63c
00000060: 6464 3a3d 4032 913a 78f4 97bd 14dc 293e
00000070: 4545 4ebd 0685 2bbd 4123 4f3c 63ad e5bd
00000080: ac00 ff3d 0851 ad3d 7ece a1bd fdc6 95bd
00000090: 3684 ed3d 879c 02be b7f8 463e e2f1 ec3d
000000a0: 2bc6 a23d 905b 49be c48b 223b 29cd b9bd
000000b0: d319 cdbd 3f6f bdbd cd2e 08bc 8518 43bd
000000c0: 46e8 bb3d ebe1 e53c ef77 4b3d 85cb ac3d
000000d0: 6f2d 3dbe 536b 253c ead0 683d 34b4 17be
000000e0: cbab ce3d 4015 193e 42c9 353d 3ecc 28bd
000000f0: a4aa fa3d b225 abbd 7d65 13bd 1190 d6bd
00000100: edfd 0504 85a3 b9b5 c8fb 33b4 1645 43a3
00000110: c8d7 6fb5 1ec1 75ae 67b4 22a3 7c73 8933
00000120: 9101 b9af 1c52 f3b7 8fd4 c31c 5304 0000
00000130: 6af0 2025 e8af 1cb6 d37d 2f36 1986 bda9
00000140: 02eb cab2 ec1e 8e89 c1cf 86b3 05dc bd33
00000150: be0c 0080 dded f031 4c3a c4a9 0e84 b7ad
00000160: 4eca e095 4787 30a5 8295 62a5 92fc efb4
00000170: a4ba feb3 37fa 9433 59ac 62b6 2149 b533
00000180: 7ba9 b8b2 35c9 d095 9858 47af 209d 3aa8
00000190: 0d0a 0000 db4d 8db0 0d22 e3ad c33b 21b4
000001a0: 2e00 0000 02b6 76ac c9e8 80af e733 42b7
000001b0: 1318 0929 19ca 67b7 984b 0a37 11ea 6eb3
000001c0: ad0e 0000 c828 342d f4c4 8234 0225 d699
000001d0: afad a3b5 2f9e ac34 973b 1eb4 6e6a a3b2
000001e0: 8678 6fb0 d37c 5a02 5bce 0bb0 4262 3a0d
000001f0: 95fb f5b0 e9a5 94a4 e914 9ab5 4e68 1aac
00000200: 16be 3dba 3c84 0c3e e6d9 53be cca1 b9bd
00000210: 83c2 60bd d462 8a3c 4a66 e3bd 0f24 233e
00000220: 27fb 51bd f372 95bd 63f9 a83d 2710 083d
00000230: 6ba9 233d 177e 413c 4df6 adbd e952 463d
00000240: b7b7 9f3d a737 383d d26e 29be fe25 86be
00000250: 0bb9 37be 8ec6 20bd 7d18 dbbd 884d 89bd
00000260: 6eb3 80bd 1997 2fbe 62d5 693d a389 ccbd
00000270: 89f0 df3d 6972 c53d 3316 37be a9b1 c53c
00000280: 2dec c6bd 1512 4d3d 9efb 733c 15af 623c
00000290: 7cab f8bd cb84 0cbd 0006 c8bc bce3 273e
000002a0: 4de5 01bd 3d9d 8cbd f978 e6bd a78f 09be
000002b0: 6732 053e 189a 903d 31b6 883d ebc7 cdba
000002c0: 8990 b2bd f856 aebd 16ec a43c d3de 053e
000002d0: 63be 363d 8b75 c23d 9187 e0bd a75f bfbb
000002e0: 1f00 74be 40b2 4dbd 649f 10be 721d 94bd
000002f0: 5eb1 123e 7ad4 c53c 1ad9 9c3d a3f8 17be
00000300: c74e 903c 5350 9dbd f8c1 063d 90c9 c43d
00000310: fd4b 973d f8ee df3c dd05 72bd 4762 0fbe
00000320: 74ed 15be 66a8 4ebe 3f6d 513e ac24 35bd
00000330: d421 7a3c 2478 f5bd c176 bc3c 364c bf3b
00000340: c760 3cbd 5910 853d acfd 7cbd 901b a63d
00000350: bc4e b63c 2dbc 443d c422 babd de47 aa3d
00000360: 4066 bcbb ce65 c6bd b54a 353e aa53 613c
00000370: df7f cb3d f0e0 b53d 95a8 c73d f0b1 3bbd
00000380: c9a8 80bd 003f 1e3d 53ca 3abb 26f0 e43d
00000390: 5c9f c53d 2158 c83c 4549 593d 578d 3c3d
000003a0: 500e 19bc decb b33c 04af 823d 7bf8 c83d
000003b0: c571 863d c13a a4bd ebaa 45be b672 05bd
000003c0: 3079 a9bc bcd2 a93d 05b3 c13c 9ef7 373d
000003d0: aa2a b33d 9835 86bb 7830 6ebd 7960 99bd
000003e0: fc45 21be 8e0e 54bc 0eb9 57bd 6251 323b
000003f0: c6ae 07be 527f f4bd 6bc9 23be 43af bf3d

4.bias f4 [128]
-0.006731563 -6.865089e-06 0.07292422 -9.551528e-05 0.07509937 -0.09948199 -0.009429624 -0.37013087
0.04430269 -0.19119194 0.019306948 -0.019239547 -0.17583463 0.11057957 -0.08171129 -0.0040581543
0.19948375 0.12709183 -0.1601681 0.1034475 -0.0738055 -0.18313019 -0.09353397 -0.08359792
-0.27015698 -0.06976494 -5.858681e-19 0.23882923 -0.022380896 0.0052185575 0.5254344 -0.030613426
0.19901957 -0.14910027 -0.06332221 -0.10116039 -0.52761453 -0.08805474 -0.19743647 -0.33220023
-0.2120728 -0.036239356 -0.072664544 -0.03216493 0.25381216 -0.059349075 -0.047491413 0.19649033
0.08808643 -0.16273111 -0.029723227 0.18282923 -0.038862396 0.26409712 -0.7658893 0.14117678
-0.2014134 -0.113540865 -0.041036446 -0.21569818 0.09937255 -0.15939243 -0.12940599 -0.29755253
-0.5373032 -0.03566898 -0.02663819 -0.09955549 0.115965575 0.0554945 0.053505555 0.04616787
-0.0061165183 -0.17297266 0.023498217 0.016098088 -2.5194651e-14 0.0616037 -0.098316036 -0.24448219
-0.10589631 0.2892308 -0.0013976799 0.15612388 -0.14364906 0.19793811 -0.2709434 0.28644186
0.29013854 -0.00022910719 -0.00054173975 -0.110692196 0.16421685 0.17509492 -0.100381136 -0.0785289
-0.004329115 -0.41434112 -0.53784883 0.09823749 0.23300783 -0.010542185 0.08730228 0.07462175
-0.3580977 -0.10937732 -0.0033301981 -0.16827141 0.007308608 -0.09768759 -0.4322112 -0.1484648
-0.08248943 -0.12073806 -0.019000852 -0.06043511 0.051779583 0.026829965 0.07096534 -0.0012087242
0.047638003 -0.006647309 0.1259596 -0.047905307 0.15618105 -0.07745445 0.15692978 -0.19743632
00000000: 7194 dcbb aa5a e6b6 4b59 953d 604f c8b8
00000010: b3cd 993d 37bd cbbd b67e 1abc cb81 bdbe
00000020: bd76 353d d2c7 43be 9b29 9e3c 419c 9dbc
00000030: fe0d 34be 8b77 e23d 4058 a7bd 44fa 84bb
00000040: 7845 4c3e 5c24 023e 1b03 24be 48dc d33d
00000050: 5727 97bd 7b86 3bbe bd8e bfbd 6335 abbd
00000060: 0452 8abe ece0 8ebd f1ea 2ca1 a68f 743e
00000070: 2458 b7bc 6f00 ab3b de82 063f 02c9 fabc
00000080: c9cb 4b3e bead 18be 13af 81bd 2e2d cfbd
00000090: bf11 07bf 0b56 b4bd c92c 4abe 2616 aabe
000000a0: 9d29 59be b86f 14bd 26d1 94bd 60bf 03bd
000000b0: abf3 813e 0418 73bd 5b86 42bd c334 493e
000000c0: a966 b43d fca2 26be 207e f3bc 9637 3b3e
000000d0: 2d2e 1fbd bd37 873e 5211 44bf a590 103e
000000e0: 503f 4ebe 1d88 e8bd d515 28bd fcdf 5cbe
000000f0: d683 cb3d c537 23be 0183 04be ce58 98be
00000100: b48c 09bf a319 12bd 5538 dabc c0e3 cbbd
00000110: 5c7f ed3d 334e 633d a428 5b3d 851a 3d3d
00000120: 136d c8bb bf1f 31be 557f c03c 23e0 833c
00000130: e9ee e2a8 2954 7c3d eb59 c9bd 8a59 7abe
00000140: 2ae0 d8bd 0f16 943e 5b32 b7ba f0de 1f3e
00000150: bd18 13be 4ab0 4a3e 18b9 8abe 82a8 923e
00000160: 0a8d 943e 7e3c 70b9 8a03 0eba 97b2 e2bd
00000170: 7628 283e 154c 333e a094 cdbd c3d3 a0bd
00000180: 40db 8dbb 8524 d4be 76b0 09bf bd30 c93d
00000190: 9b99 6e3e 21b9 2cbc 8acb b23d 4ad3 983d
000001a0: 9558 b7be 3701 e0bd 743f 5abb 574f 2cbe
000001b0: 0c7d ef3b 6e10 c8bd c94a ddbe 2807 18be
000001c0: 38f0 a8bd 8445 f7bd ada7 9bbc ce8a 77bd
000001d0: d416 543d 84ca db3c 4756 913d 0e6e 9eba
000001e0: 1120 433d abd1 d9bb 8efb 003e 5b38 44bd
000001f0: eded 1f3e 70a0 9ebd 33b2 203e bf2c 4abe

6.weight f4 [256, 128]
1.6120568e-05 4.113e-42 -8.573819e-08 -1.1279294e-06 -1.1725756e-07 -7.2074357e-07 -1.4305735e-08 1.5305967e-06
-6.438752e-16 -6.4752625e-09 -2.0981153e-07 -5.9215077e-09 6.0093384e-06 1.25221025e-08 -2.0810732e-11 1.6607e-41
-3.019985e-08 -1.019444e-06 2.648072e-05 -9.6682153e-32 1.6909813e-06 4.486081e-05 -5.0264497e-08 -2.028746e-06
-7.748228e-10 -1.6833727e-08 1.9017e-41 -2.0486832e-08 -2.6143239e-06 -9.4780276e-08 -7.2637346e-07 -5.7867645e-22
-2.0354689e-07 2.0525272e-26 -7.9660795e-26 -2.4081567e-10 1.4963592e-13 -1.3932842e-23 -1.0962343e-06 -1.211107e-07
1.2735568e-05 -7.789914e-08 9.419963e-09 8.965804e-09 -2.0584502e-10 -1.9838057e-08 2.8143553e-05 -1.284852e-06
-1.085891e-06 -4.431554e-09 -4.9801448e-11 -1.8070156e-09 -2.94403e-23 -1.4757304e-08 1.053871e-05 -7.827545e-08
-2.3462326e-06 -6.450591e-09 -1.4490959e-07 -1.4988148e-08 -1.7019953e-19 2.0599034e-08 -5.735272e-09 -7.190075e-06
-2.3339521e-07 -5.509422e-07 -1.1508288e-29 -4.4899743e-08 9.702646e-08 -1.6919131e-12 -1.4009688e-17 7.8524276e-10
1.0578e-41 -4.8298455e-07 -4.930188e-16 6.278486e-17 5.995e-42 -1.4546016e-07 -6.619727e-07 -4.6135136e-07
-1.5887291e-07 -1.959415e-06 -5.667345e-09 -8.597799e-09 5.009659e-08 -1.3450824e-14 -2.9790852e-05 -1.7549967e-09
-2.4650437e-06 5.8049e-41 -7.053786e-08 -1.2736369e-10 -7.053029e-07 -6.5436694e-08 -4.6462126e-10 -1.1389893e-08
5.799e-42 3.483018e-05 8.875395e-09 -7.7291105e-08 -3.0036376e-06 -6.5423995e-15 -3.8454634e-12 2.5383974e-06
-6.2261074e-06 -1.4953946e-06 2.9335e-41 -2.0970192e-09 -3.4590566e-12 1.1950759e-07 -7.620361e-07 3.6329759e-12
-1.4225627e-19 -8.756097e-07 -2.6743272e-08 3.4122618e-08 -2.5710563e-07 -1.6391597e-08 2.6599622e-17 -2.6440463e-07
-6.9597e-12 -1.6629363e-06 -2.2110406e-15 -2.3448343e-10 7.2545613e-06 2.4349424e-08 1.0643106e-14 -1.6234237e-14
-4.9311046e-05 -4.2318e-41 -0.00090800365 -1.1848833e-05 -4.29703e-05 -0.0019293892 -0.0005831427 -0.0013567057
-0.00057951716 1.0969728e-06 -4.853613e-07 -7.278823e-05 -0.0011272228 0.00016949227 -0.00025331037 1.5814e-41
-8.471305e-05 -0.0013184502 1.6653226e-05 0.0007853442 0.00010775766 -0.00034349956 -0.0013027414 0.00057646853
-8.342409e-05 -0.0008672296 1.0634e-41 -8.4783815e-06 0.00042646946 -0.00029056377 0.00096770644 -0.00029617315
-2.431132e-05 -0.00020702381 2.3916184e-06 -1.228569e-05 -1.8341179e-16 -3.7209567e-05 -0.0005895462 -0.0005422336
-0.0029781808 -1.650262e-05 -1.4580119e-06 1.1415615e-07 -0.001022138 -0.0013799564 -0.0022195778 -7.6405115e-05
-0.0005725166 -0.0012878866 -1.1392053e-05 -6.5004697e-06 1.2741359e-07 -0.00053349277 -0.00079633424 -0.00021544569
-0.00029425538 -3.9427297e-05 -0.00040474124 -0.00088786124 0.00091973436 -0.0012660733 -3.4782643e-05 -0.00029926444
-0.0011280399 -0.0011369039 -4.5768198e-17 -2.2887463e-05 -7.6888074e-07 -9.726299e-07 -5.1787893e-06 -0.0016453308
8.467e-42 -0.00047377762 8.750932e-07 4.9140135e-07 -4.632e-41 -7.274113e-06 -0.0010345972 -0.0013693012
0.00022190083 -0.0014635149 -2.7166256e-05 -1.33904205e-05 -2.8186492e-05 0.0005932451 -0.00072447903 -0.00015906164
-0.000114863346 -6.1346e-41 -0.0008977905 -0.00049351976 3.2567846e-06 7.97009e-05 -0.00023395175 -0.0007982425
-2.8498e-41 -0.0011707266 -7.109886e-05 -0.00022970646 -0.0003986348 -2.9980914e-08 -0.0005616483 0.00019239716
-0.00078033906 -0.00044917283 -4.8439e-41 -0.00043979613 3.798092e-11 -0.0025654237 -0.0020547889 -0.0002928171
3.5522413e-07 -0.0012754078 -0.00075774395 -3.294583e-06 -5.389106e-06 -0.000141048 -8.3096245e-15 -1.9036073e-05
1.2679949e-05 -2.886358e-05 -7.214252e-05 0.00012297205 -2.050194e-06 -8.9669e-07 -0.00094696286 -0.0006419632
00000000: a83a 8737 770b 0000 121f b8b3 5c63 97b5
00000010: 06cf fbb3 1f79 41b5 4ac5 75b2 e76e cd35
00000020: 9b95 39a6 037d deb1 8e48 61b4 2276 cbb1
00000030: d3a3 c936 ca20 5732 9a0d b7ad 4b2e 0000
00000040: 16b5 01b3 d4d3 88b5 ea22 de37 5000 fb8b
00000050: adf5 e235 ee28 3c38 66e2 57b3 9725 08b6
00000060: 4ffb 54b0 c299 90b2 0335 0000 05fb afb2
00000070: be71 2fb6 028a cbb3 01fc 42b5 ece4 2e9c
00000080: 8b8e 5ab4 bf45 cb14 073b c595 cb63 84af
00000090: 9e79 282a 0cc0 8699 5322 93b5 a80a 02b4
000000a0: d9aa 5537 8149 a7b3 6fd5 2132 0608 1a32
000000b0: 3954 62af 5968 aab2 d215 ec37 2e73 acb5
000000c0: eebe 91b5 5c44 98b1 7207 5bae b65a f8b0
000000d0: 535d 0e9a 4f87 7db2 6acf 3037 6218 a8b3
000000e0: f873 1db6 00a4 ddb1 7298 1bb4 49bf 80b2
000000f0: a7ef 48a0 c1f1 b032 fc0f c5b1 4642 f1b6
00000100: 309b 7ab4 76e4 13b5 736a 698f cad7 40b3
00000110: dc5c d033 981d eeab 7137 81a3 8cd8 5730
00000120: 7d1d 0000 72a6 01b5 5e1a 0ea6 a4c5 9024
00000130: b610 0000 c92f 1cb4 6bb2 31b5 a6af f7b4
00000140: a796 2ab4 7e7e 03b6 7eba c2b1 85b5 13b2
00000150: c929 5733 fa4e 72a8 5ee7 f9b7 7534 f1b0
00000160: 216d 25b6 d1a1 0000 997a 97b3 b109 0caf
00000170: 0c54 3db5 3486 8cb3 a16d ffaf 47ad 43b2
00000180: 2a10 0000 9f16 1238 667a 1832 3cfb a5b3
00000190: 1a92 49b6 fcb6 eba7 db4c 87ac 5659 2a36
000001a0: dbe9 d0b6 5eb5 c8b5 c651 0000 271b 10b1
000001b0: d368 73ac ff51 0034 b98e 4cb5 e0a5 7f2c
000001c0: 52f2 27a0 710b 6bb5 14b9 e5b2 378e 1233
000001d0: 5408 8ab4 81cd 8cb2 9556 f523 7ff3 8db4
000001e0: 68df f4ac 0e32 dfb5 8052 1fa7 9ce8 80af
000001f0: 356c f336 f328 d132 aaba 3f28 9a39 92a8
00000200: 55d3 4eb8 f775 0080 1807 6eba 5aca 46b7
00000210: 023b 34b8 8fe3 fcba 0bde 18ba 7dd3 b1ba
00000220: bdea 17ba b33b 9335 c649 02b5 e2a5 98b8
00000230: 52bf 93ba bcb9 3139 bece 84b9 152c 0000
00000240: f9a7 b1b8 d9cf acba 88b2 8b37 8fdf 4d3a
00000250: f4fb e138 bb17 b4b9 bfc0 aaba 261e 173a
00000260: f8f3 aeb8 cb56 63ba a51d 0000 5f3e 0eb7
00000270: c397 df39 cf56 98b9 aead 7d3a b047 9bb9
00000280: 2af0 cbb7 8814 59b9 b17f 2036 a31e 4eb7
00000290: 9b75 53a5 7811 1cb8 c78b 1aba ae24 0eba
000002a0: 952d 43bb 1b6f 8ab7 e8b0 c3b5 0226 f533
000002b0: 43f9 85ba a7df b4ba 5676 11bb af3b a0b8
000002c0: f014 16ba 4ece a8ba 7f20 3fb7 9c1e dab6
000002d0: 2ecf 0834 18da 0bba 16c1 50ba 43e9 61b9
000002e0: 4a46 9ab9 bd5e 25b8 7333 d4b9 5cbf 68ba
000002f0: 541a 713a 5ff2 a5ba 94e3 11b8 98e6 9cb9
00000300: bdda 93ba 2a04 95ba 8d11 53a4 74fe bfb7
00000310: 1565 4eb5 4f8b 82b5 76c5 adb6 24a8 d7ba
00000320: 9a17 0000 5b65 f8b9 f2e7 6a35 d8e8 0335
00000330: 1f81 0080 2814 f4b6 529b 87ba 207a b3ba
00000340: 0dae 6839 69d3 bfba 17e3 e3b7 6ba7 60b7
00000350: 0872 ecb7 0184 1b3a f7ea 3dba c9c9 26b9
00000360: cae2 f0b8 02ab 0080 b359 6bba 8d5f 01ba
00000370: 228f 5a36 1825 a738 f250 75b9 2641 51ba
00000380: 714f 0080 1173 99ba e91a 95b8 5cdd 70b9
00000390: dbff d0b9 5dc4 00b3 943b 13ba 38be 4939
000003a0: ab8f 4cba f57e ebb9 0787 0080 7094 e6b9
000003b0: b70a 272e ab20 28bb a3a9 06bb 3f85 99b9
000003c0: a2b5 be34 962b a7ba 56a3 46ba 8118 5db6
000003d0: 11d4 b4b6 49e6 13b9 61b1 15a8 a8af 9fb7
000003e0: f7bb 5437 1120 f2b7 384b 97b8 0ff2 0039
000003f0: 1196 09b6 11b4 70b5 9a3d 78ba 6c49 28ba

6.bias f4 [256]
-0.0013518799 -0.0037472884 -0.03293985 -0.004974163 -0.0031947426 0.011766936 -0.023448817 -1.7692494e-07
0.02155104 -0.019870026 -0.005338402 -1.5956579e-19 -0.15107746 -0.0035599428 -0.15237369 -0.28385305
0.032231104 0.041281417 -0.0039351024 -0.26295483 -0.0022368433 -1.5783973e-08 -0.32020223 -0.07123234
0.0065180194 -7.187475e-05 -1.7876068e-12 0.1003131 -0.298674 -0.05860494 -2.295825e-05 -0.0013260278
-1.7326657e-09 -5.082196e-18 -2.6648156e-08 -0.0053602443 -0.10064504 -9.290474e-22 -0.029988935 -0.0036882125
-1.9524595e-24 -2.566901e-26 -8.4645526e-19 -0.03927782 -1.9943602e-19 -0.006414373 -0.0046401876 -0.097805835
-0.032143883 -0.0064323363 -0.101740584 -0.1975176 -0.010418467 -0.2037577 -0.0057642017 -0.0039821174
-0.12626238 -0.03440016 -0.0035642087 -0.063884 -0.00072240323 -0.007742691 -0.0021438233 0.03612764
-0.0010384654 -0.0022454527 -4.68062e-06 0.036932595 -0.005108491 -0.046449915 -0.00047845813 0.0026739258
-0.0008717984 -1.1602731e-20 -0.0032013876 -0.11887958 -8.22358e-11 -0.031613924 0.0074227965 -0.0066290777
-7.013984e-07 -0.0032720023 -0.07573052 -0.016329939 -0.082042456 -0.0075542936 -0.007536292 -0.03158095
-0.07367332 -6.9794416e-17 -0.0044539087 -0.0022322803 0.014497027 -4.220206e-11 -1.8476541e-13 -2.614465e-07
-0.038242336 -0.007245834 -0.04784469 -0.1359042 0.023320504 -0.11382183 -0.0627735 0.064004555
0.05443414 -2.3613588e-14 -0.028505517 -0.00383107 -0.025142286 -0.04511861 -1.5185197e-12 -0.12539728
-2.9594245e-09 -0.06791683 -0.0027544112 0.007245277 -3.721648e-05 -0.14504063 -6.567701e-23 -0.11842927
-2.1042997e-05 -1.0395732e-15 -1.9968195e-10 -1.0824022e-05 -1.0787107e-07 -2.6829737e-13 -0.065973245 -1.1385441e-11
-0.0025485333 -0.007312806 -0.21460712 -0.00037816731 -1.2323276e-27 -2.3284809e-26 -0.23861827 -5.012851e-16
-0.0063082874 -4.4933027e-10 -0.00091975706 -0.0049745366 -0.00024103736 -7.1151863e-16 -5.802915e-05 -0.00336192
-4.7709786e-05 -0.006956758 -9.168125e-17 -0.0018405752 -0.0044195945 -0.36966532 -0.0005995171 -6.39241e-16
0.011298065 -0.1585061 0.0363695 0.06904606 -3.879618e-21 -0.12325556 -0.0033435116 0.020527782
-0.000858289 -0.0037189426 -1.3802803e-06 -0.030463211 -0.018489422 0.037396915 -1.301794e-28 -0.09845629
-0.0001779116 -0.0015428092 -0.035902657 -5.0022155e-18 -0.006980542 -0.0031484314 0.01227185 -0.0006331249
-0.005295824 -0.007035103 0.0013880429 -0.13902119 -1.8200468e-05 0.0045568943 -0.00036914763 -0.22999169
-0.07461456 -0.08155189 -0.022000557 -0.007989825 -0.29884163 -0.31621367 -0.03980404 -0.0043408605
0.047847383 -1.518825e-05 -0.00013441428 -2.0808737e-18 -0.00544918 -0.004636121 -0.13699466 -0.22396834
-0.0017945429 -0.048130613 -1.821722e-15 -0.0029908593 -2.556255e-12 -0.13071729 -2.5242147e-24 -0.122128144
-0.002927676 -0.0008267956 -0.22385208 0.04084591 -0.069617845 -0.002360631 -0.0027163448 -0.18533589
-3.0289325e-08 -0.0052618384 -0.24295415 -2.8095308e-06 -0.00067874545 -0.33073813 -0.0023430248 -0.09424429
-0.25071204 -0.51674634 -5.6866234e-10 0.051675756 -0.0092842365 -0.0036745847 -0.004160434 -0.0008049192
-0.0036838271 -0.0011031855 0.019839944 -3.7201553e-05 -0.099765874 -0.053543616 -0.03439027 -0.09969534
-0.1429221 -0.039212067 0.03563285 -0.08639597 -0.0020716838 -0.10657801 0.041143768 -1.1905204e-18
-0.0007778176 -0.0045032804 -0.053375855 -0.00012176809 -3.2875116e-05 0.054780338 -0.0035439942 0.094746575
00000000: 9031 b1ba 1195 75bb f0eb 06bd 4efe a2bb
00000010: e35e 51bb 1bca 403c bc17 c0bc c2f8 3db4
00000020: ce8b b03c 77c6 a2bc c3ed aebb cd61 3ca0
00000030: 0db4 1abe ee4d 69bb d907 1cbe 3055 91be
00000040: c304 043d b416 293d 08f2 80bb 04a2 86be
00000050: 0198 12bb 5395 87b2 8cf1 a3be 43e2 91bd
00000060: 1c95 d53b 76bb 96b8 5395 fbab f470 cd3d
00000070: cceb 98be bc0b 70bd 7796 c0b7 1cce adba
00000080: c122 eeb0 fc7f bba2 eae7 e4b2 fda4 afbb
00000090: fd1e cebd c864 8c9c 5bab f5bc f0b5 71bb
000000a0: 7210 1798 ac36 fe94 5ad4 79a1 c8e1 20bd
000000b0: d773 6ba0 a92f d2bb b70c 98bb 6d4e c8bd
000000c0: 4ea9 03bd 59c6 d2bb 5e5d d0bd 0e42 4abe
000000d0: 38b2 2abc dca5 50be a1e1 bcbb 6c7c 82bb
000000e0: ed4a 01be 2fe7 0cbd 8095 69bb 9dd5 82bd
000000f0: a95f 3dba 66b6 fdbb 637f 0cbb 94fa 133d
00000100: 1e1d 88ba 7228 13bb 380e 9db6 a246 173d
00000110: 2165 a7bb 4442 3ebd 90d9 fab9 083d 2f3b
00000120: 6689 64ba 5d2b 5b9e 5fce 51bb 2377 f3bd
00000130: a4d6 b4ae 9a7d 01bd ee3a f33b bc38 d9bb
00000140: bb47 3cb5 176f 56bb 9a18 9bbd 5dc6 85bc
00000150: e005 a8bd 028a f7bb 00f3 f6bb 075b 01bd
00000160: 0ae2 96bd 5aef a0a4 18f2 91bb 734b 12bb
00000170: f084 6d3c 4c9b 39ae 0107 50aa ef5c 8cb4
00000180: ffa3 1cbd 766e edbb cbf8 43bd 782a 0bbe
00000190: a40a bf3c 6b1b e9bd 658f 80bd d214 833d
000001a0: 55f6 5e3d 3ab1 d4a8 6784 e9bc b012 7bbb
000001b0: 32f7 cdbc 4bce 38bd 70b6 d5ab 2568 00be
000001c0: bf5e 4bb1 fb17 8bbd 5a83 34bb ca69 ed3b
000001d0: e418 1cb8 8885 14be 1acc 9e9a 0c8b f2bd
000001e0: 7e85 b0b7 7bd1 95a6 798d 5baf d298 35b7
000001f0: bfa6 e7b3 ba09 97aa fb1c 87bd 784b 48ad
00000200: 4b05 27bb 43a0 efbb f8c1 5bbe c244 c6b9
00000210: 2545 c392 019a e694 5958 74be 507c 10a6
00000220: c0b5 cebb 9d05 f7af da1b 71ba 7001 a3bb
00000230: f9be 7cb9 cf14 4da6 5364 73b8 a853 5cbb
00000240: fe1b 48b8 84f5 e3bb 0f67 d3a4 753f f1ba
00000250: 3fd2 90bb c644 bdbe e928 1dba a93f 38a6
00000260: 851b 393c 6c4f 22be 2ff8 143d 0568 8d3d
00000270: 5d91 929d 696d fcbd d11e 5bbb e129 a83c
00000280: cdfe 60ba 81b9 73bb 1242 b9b5 fc8d f9bc
00000290: 2177 97bc 822d 193d a105 2591 74a3 c9bd
000002a0: c88d 3ab9 1638 caba aa0e 13bd 978c b8a2
000002b0: 08bd e4bb ea55 4ebb df0f 493c 4bf8 25ba
000002c0: 9788 adbb b986 e6bb feee b53a 925b 0ebe
000002d0: 35ad 98b7 0052 953b 288a c1b9 f182 6bbe
000002e0: 85cf 98bd ad04 a7bd 833a b4bc c1e7 02bc
000002f0: c501 99be c2e6 a1be 9009 23bd c73d 8ebb
00000300: 9efb 433d 09d1 7eb7 8ff1 0cb9 988a 19a2
00000310: 098f b2bb 9aea 97bb 5448 0cbe f557 65be
00000320: de36 ebba 9b24 45bd d744 03a7 4b02 44bb
00000330: 65e1 33ac c1da 05be 394d 4398 521e fabd
00000340: 41de 3fbb 50bd 58ba 7b39 65be 0a4e 273d
00000350: cd93 8ebd d1b4 1abb b404 32bb b1c8 3dbe
00000360: 7717 02b3 806b acbb f9c8 78be 5f8b 3cb6
00000370: d6ed 31ba 8256 a9be 6f8d 19bb 2603 c1bd
00000380: 545d 80be 7d49 04bf 0e50 1cb0 f5a9 533d
00000390: e91c 18bc 4dd1 70bb 4054 88bb 3701 53ba
000003a0: 5d6c 71bb c398 90ba 6187 a23c dd08 1cb8
000003b0: 0d52 ccbd 8d50 5bbd d0dc 0cbd 122d ccbd
000003c0: 2c5a 12be d59c 20bd c0f3 113d 5ff0 b0bd
000003d0: 16c5 07bb 9245 dabd 5e86 283d 97b0 afa1
000003e0: 75e6 4bba 4190 93bb a4a0 5abd bf5d ffb8
000003f0: 63e3 09b8 5961 603d 5b42 68bb 7e0a c23d

8.weight f4 [128, 256]
3.2373e-41 2.7052e-41 3.702e-42 5.755e-41 -6.014e-41 1.1555352e-38 3.53e-42 -7.993e-42
-1.459e-42 -6.22e-43 6.0606e-41 -3.3141e-41 -1.066e-42 -4.9644e-41 -1.2834e-41 -2.61e-42
-1.3103275e-26 -2.664549e-36 1.044e-42 2.199e-42 -3.067e-41 -5.0656e-41 -7.645e-42 -9.857e-42
1.1027e-41 4.621e-42 -1.1704e-41 -5.915e-42 -1.2717e-41 1.714e-41 6.288e-42 -5.7033e-41
-1.5756e-41 5.579e-41 4.6138e-41 1.0584e-41 -3.43e-42 -1.632e-41 -3.296e-42 -1.9055e-41
-2.9207e-41 -1.5056e-41 -2.09e-42 1.967e-42 -5.317e-41 1.4616e-41 5.0883e-41 -7.624e-42
-3.5e-43 -3.1131e-41 -1.988e-42 -1.2602e-41 6.0512e-41 4.53e-42 -3.5257e-41 -4.1827e-41
-2.975e-42 1.4204e-41 4.6093e-41 3.367e-42 3.876e-42 5.646e-41 -5.2204e-41 1.925e-42
-6.0916e-41 -5.76e-42 -3.8806e-41 1.305e-42 -7.205e-42 5.79e-42 5.3227e-41 2.637e-42
5.2861e-41 -4.2131e-41 -2.0452e-41 -1.708e-42 -2.5756e-41 -2.45e-42 -2.521e-42 -3.152e-42
4.365e-41 -1.9907e-41 -8.835e-42 5.626e-42 -6.445e-42 5.913e-41 -2.108e-42 5.479e-42
6.761e-42 5.8279e-41 -1.3098e-41 -5.776e-42 9.006e-42 -6.0753e-41 -6.1427e-41 -3.0337e-41
5.06e-43 -2.3644e-41 -6.475e-42 -3.926e-42 7.095e-42 8.269e-42 5.464e-42 -3.835e-42
-7.071e-42 -6.964e-42 6.71e-42 -1.4206e-41 4.945e-42 3.5e-44 4.6516e-41 -8.251e-42
-3.8005e-41 -8.915e-42 5.3642e-41 -6.426e-42 5.3333e-41 9.225e-42 5.542e-42 -4.117e-42
-5.51e-41 2.0638e-41 -5.8983e-41 6.0048e-41 3.0508e-41 1.2295e-41 -2.51e-43 -6.0511e-41
-5.3269e-41 -1.3793e-41 3.528e-42 -5.7564e-41 3.1332e-41 -1.0286e-41 -1.3e-42 -5.6282e-41
2.9118e-41 -4.3488e-41 -5.1125e-41 3.39e-43 -2.5654e-41 -1.664e-41 5.6594e-41 -7.24e-42
-2.1256e-41 -5.0525e-41 3.514e-41 -5.575e-41 -4.6913e-41 -2.084e-42 1.3244e-41 1.872e-42
-1.0333e-41 -1.136e-42 7.772e-42 2.357e-42 -1.1465e-41 -6.547e-42 -5.787e-41 1.2357e-41
3.004e-42 2.2593e-41 -3.1765e-41 1.6159385e-33 -2.861e-42 4.72e-43 -3.8666e-41 -1.705e-42
-5.1488e-41 1.2305e-41 6.761e-42 -9.326e-42 5.136e-42 -4.0552e-41 -6.044e-42 -4.194e-42
1.532e-41 -5.6067e-41 -4.4512443e-25 -7e-45 5.7738e-41 7.688e-42 -3.166e-42 1.1203e-41
-5.93e-43 4.086e-42 2.66e-43 -8.03e-43 -7.504e-42 1.5588e-41 9.352e-42 -1.1248e-41
5.235e-42 -5.1966e-41 4.8653e-41 5.7382e-41 4.231e-41 -5.8054e-41 5.014e-42 3.994e-42
5.914e-41 8.984e-42 5.0943e-41 7.724e-42 3.0485e-41 1.086e-42 -5.248e-41 1.7253e-41
1.0108e-41 -5.4578e-41 6.677e-42 -8.353e-42 6.167e-42 2.83e-42 5.8068e-41 -1.0852e-41
5.4883e-41 3.4508e-41 -1.3928e-41 -1.4438e-41 1.7844e-41 5.115e-42 -4.4218e-41 -6.971e-42
1.3332e-41 6.739e-42 5.0513e-41 3.079e-42 2.266e-42 -4.2143e-41 -1.5107e-41 -4.5842e-41
-5.4913e-41 6.103e-42 -1.1905e-41 -6.645e-42 -1.446e-42 -4.205e-42 -1.1366e-41 -2.007e-42
2.581e-42 -1.4422e-41 1.752e-42 7.61e-43 -4.4522e-41 -3.43e-42 1.0197e-41 -4.984e-42
-4.34e-43 2.4025e-41 1.0431e-41 1.7862e-41 4.3e-43 8.425e-42 4.4551e-41 -4.623e-42
00000000: 3e5a 0000 694b 0000 520a 0000 6da0 0000
00000010: a5a7 0080 9fd3 7d00 d709 0000 4816 0080
00000020: 1104 0080 bc01 0080 f2a8 0000 625c 0080
00000030: f902 0080 638a 0080 c723 0080 4707 0080
00000040: c0c4 8194 bdac 6284 e902 0000 2106 0000
00000050: 7f55 0080 358d 0080 5015 0080 7a1b 0080
00000060: bd1e 0000 e20c 0000 a020 0080 7d10 0080
00000070: 7323 0080 c82f 0000 8711 0000 fc9e 0080
00000080: ec2b 0080 859b 0000 9d80 0000 811d 0000
00000090: 9009 0080 7e2d 0080 3009 0080 1e35 0080
000000a0: 6b51 0080 f829 0080 d305 0080 7c05 0000
000000b0: 3794 0080 be28 0000 d78d 0000 4115 0080
000000c0: fa00 0080 c856 0080 8b05 0080 2123 0080
000000d0: afa8 0000 a10c 0000 4862 0080 9974 0080
000000e0: 4b08 0080 9827 0000 7d80 0000 6309 0000
000000f0: ce0a 0000 639d 0000 8691 0080 5e05 0000
00000100: cfa9 0080 0e10 0080 2d6c 0080 a303 0000
00000110: 1614 0080 2410 0000 6094 0000 5a07 0000
00000120: 5b93 0000 7275 0080 0339 0080 c304 0080
00000130: cc47 0080 d406 0080 0707 0080 c908 0080
00000140: ae79 0000 7e37 0080 a118 0080 af0f 0000
00000150: f711 0080 d5a4 0000 e005 0080 460f 0000
00000160: d912 0000 75a2 0000 8324 0080 1a10 0080
00000170: 1b19 0000 5ba9 0080 3cab 0080 9154 0080
00000180: 6901 0000 e941 0080 0d12 0080 f20a 0080
00000190: c713 0000 0d17 0000 3b0f 0000 b10a 0080
000001a0: b613 0080 6a13 0080 b412 0000 9a27 0080
000001b0: c90d 0000 1900 0000 ab81 0000 0017 0080
000001c0: f169 0080 da18 0080 8895 0000 ea11 0080
000001d0: ac94 0000 b719 0000 730f 0000 7a0b 0080
000001e0: 9999 0080 8839 0000 6ca4 0080 64a7 0000
000001f0: 0b55 0000 4622 0000 b300 0080 aea8 0080
00000200: 7e94 0080 7326 0080 d609 0000 77a0 0080
00000210: 5757 0000 ac1c 0080 a003 0080 e49c 0080
00000220: 2b51 0000 3a79 0080 848e 0080 f200 0000
00000230: 8347 0080 632e 0080 c39d 0000 2f14 0080
00000240: 413b 0080 d88c 0080 f561 0000 699b 0080
00000250: c682 0080 cf05 0080 eb24 0000 3805 0000
00000260: ce1c 0080 2b03 0080 aa15 0000 9206 0000
00000270: f61f 0080 4012 0080 51a1 0080 7222 0000
00000280: 6008 0000 fb3e 0000 8c58 0080 363f 0609
00000290: fa07 0080 5101 0000 c96b 0080 c104 0080
000002a0: 878f 0080 4d22 0000 d912 0000 ff19 0080
000002b0: 510e 0000 0b71 0080 d910 0080 b10b 0080
000002c0: b52a 0000 4b9c 0080 64c2 0997 0500 0080
000002d0: f3a0 0000 6e15 0000 d308 0080 3b1f 0000
000002e0: a701 0080 640b 0000 be00 0000 3d02 0080
000002f0: eb14 0080 742b 0000 121a 0000 5b1f 0080
00000300: 980e 0000 dc90 0080 a087 0000 f59f 0000
00000310: f175 0000 d5a1 0080 fa0d 0000 220b 0000
00000320: dca4 0000 0b19 0000 028e 0000 8815 0000
00000330: fb54 0000 0703 0000 4b92 0080 1830 0000
00000340: 2d1c 0000 2498 0080 9d12 0000 4917 0080
00000350: 3111 0000 e407 0000 dfa1 0000 401e 0080
00000360: fe98 0000 3260 0000 d326 0080 3f28 0080
00000370: be31 0000 420e 0000 437b 0080 6f13 0080
00000380: 2a25 0000 c912 0000 cf8c 0000 9508 0000
00000390: 5106 0000 7a75 0080 1d2a 0080 ca7f 0080
000003a0: 1399 0080 0311 0000 3021 0080 8612 0080
000003b0: 0804 0080 b90b 0080 af1f 0080 9805 0080
000003c0: 3207 0000 3428 0080 e204 0000 1f02 0000
000003d0: 1c7c 0080 9009 0080 6d1c 0000 e50d 0080
000003e0: 3601 0080 f942 0000 141d 0000 cb31 0000
000003f0: 3301 0000 7c17 0000 317c 0000 e30c 0080

8.bias f4 [128]
-1.796444e-05 -8.0235935e-08 -0.0025611646 -0.0039762007 -1.07499445e-13 0.07400645 -4.675844e-05 -0.0007789492
0.059571825 -7.7269615e-05 -0.00088177214 -0.0037581483 -9.875995e-05 0.05973468 -1.9854602e-09 -1.8033667e-11
0.046700507 -5.501979e-07 -0.0021155002 -1.7128548e-06 -2.7903222e-29 -0.0004078558 -0.0059235194 -4.9612177e-28
-1.3513403e-05 -2.4081424e-07 -0.0018028318 -0.0016301295 0.10928952 -4.1273865e-21 -0.003879828 -0.0015177066
0.144564 -2.0112928e-10 -0.003303044 -0.004006582 -0.006300495 -0.00016316459 -1.2756618e-09 -0.0001985097
-1.7050801e-05 -1.4832206e-37 -0.0005397971 -1.1024563e-06 -8.453939e-05 -0.000962492 -0.0043821344 -5.7606253e-06
-8.1693715e-06 -0.006295067 -7.0320784e-05 -0.0013644953 -0.0002455317 0.08104226 0.09867104 -8.8818e-06
-1.6262679e-07 -1.8301561e-27 -6.486023e-16 -5.784398e-15 -3.603439e-08 -8.0981944e-24 -5.8874132e-09 -6.0333947e-35
-9.028144e-05 -0.004315882 -0.006312693 -2.672219e-22 0.15150025 -0.0034343782 -0.00029901403 -0.0035309733
-0.0007772096 -0.00012260166 -0.00016742431 -0.0021971213 -9.718338e-06 -0.03714962 -0.0143926665 -2.3510941e-17
-6.5142314e-13 -2.3888944e-07 -1.0341802e-31 -0.00025131516 -0.001708324 -3.283553e-07 -0.0031842652 -5.384117e-16
-5.5681694e-06 -0.0028359129 0.0001790846 -0.0041623353 -2.2556437e-15 -1.1330098e-05 -0.00029563534 0.00015604742
-0.0013371367 -0.0020115501 -2.2402123e-13 -0.00041165666 -0.0008065677 -2.8523704e-07 0.052310407 -0.0015983626
-2.0506619e-05 0.026021032 -1.0193344e-06 -0.0030095023 -0.016733756 -0.0032376451 -5.9662503e-18 0.043396596
0.16717441 -0.0010847826 -1.5449923e-11 0.3667836 -0.0005141526 0.15157732 -2.3217256e-18 -1.8207567e-18
-0.0038036997 -0.005941583 -0.0003261257 -0.0023233446 -1.7874652e-05 -0.0018167896 -3.5752998e-06 -0.0049375743
00000000: 57b2 96b7 2c4e acb3 36d9 27bb ca4a 82bb
00000010: 3611 f2a9 b290 973d 7e1e 44b8 6532 4cba
00000020: 9601 743d cf0b a2b8 ba26 67ba 444b 76bb
00000030: 581d cfb8 5aac 743d 9670 08b1 35a0 9ead
00000040: 0849 3f3d 50b1 13b5 34a4 0abb 3ee5 e5b5
00000050: 747c 0d90 7bd5 d5b9 151a c2bb 2e3a 1d92
00000060: a0b7 62b7 4249 81b4 ff4c ecba 12aa d5ba
00000070: 2fd3 df3d a2ed 9b9d b644 7ebb c8ed c6ba
00000080: 9608 143e dc24 5daf e277 58bb a549 83bb
00000090: 6274 cebb 2917 2bb9 5c53 afb0 0b27 50b9
000000a0: 5108 8fb7 b2e2 4982 2c81 0dba 1cf8 93b5
000000b0: bd4a b1b8 bf4f 7cba 0298 8fbb 654b c1b6
000000c0: 2f0f 09b7 d946 cebb 2f79 93b8 ddd8 b2ba
000000d0: b5ba 80b9 7cf9 a53d 0b14 ca3d 0a03 15b7
000000e0: 839e 2eb4 faff 1093 67f2 3aa6 a867 d0a7
000000f0: 3bc4 1ab3 51a4 1c99 3c4a cab1 2865 a086
00000100: 7b55 bdb8 3e6c 8dbb b5da cebb 9686 a19b
00000110: e222 1b3e 4e13 61bb fcc4 9cb9 e767 67bb
00000120: a7bd 4bba a28e 00b9 9f8e 2fb9 94fd 0fbb
00000130: f20b 23b7 332a 18bd 38cf 6bbc a4d9 d8a3
00000140: fc5b 37ab b740 80b4 883e 068c f3c2 83b9
00000150: d7e9 dfba cf48 b0b4 1baf 50bb c52f 1ba6
00000160: 36d6 bab6 b9da 39bb a8c8 3b39 3364 88bb
00000170: 4889 22a7 6616 3eb7 81ff 9ab9 a9a0 2339
00000180: dd42 afba 36d4 03bb b939 7caa 9fd3 d7b9
00000190: d86f 53ba ae22 99b4 7043 563d 2680 d1ba
000001a0: a105 acb7 0f2a d53c 10d0 88b5 123b 45bb
000001b0: 3b15 89bc ac2e 54bb a41d dca2 a1c0 313d
000001c0: c52f 2b3e 442f 8eba 22e6 87ad 0fcb bb3e
000001d0: 32c8 06ba 1637 1b3e 2850 2ba2 1f59 06a2
000001e0: 7e47 79bb 9cb1 c2bb dafb aab9 4143 18bb
000001f0: 86f1 95b7 5821 eeba 2fef 6fb6 60cb a1bb
