Models/checkpoint_vel_D1_1000_900.pth (torch, 353077 bytes, 16 tensors)

0.weight f4 [32, 9]
0	0x3dfdf37a	0.12399955
1	0xbdec3a14	-0.11534515
2	0xbec5008c	-0.3847698
3	0x3e889bf5	0.26681486
4	0xbf7fed42	-0.999714
5	0x3e92be8f	0.2866101
6	0x3c69667a	0.014245624
7	0x3e848328	0.25881314
8	0xbd6c1f82	-0.057647236
9	0xbe0eb21e	-0.13935134
10	0x3e1cd4b9	0.15315522
11	0x3e6cd6ed	0.23128863
12	0xbe209755	-0.15682729
13	0x3f8eaf1a	1.1147187
14	0xbe0f32ec	-0.13984269
15	0xbda6ab96	-0.08138196
16	0xbd2bbdc2	-0.041929014
17	0xbdeb678b	-0.11494359
18	0x3ec375d9	0.38175848
19	0xbc13608b	-0.008995186
20	0xbc824cb9	-0.015905725
21	0xbe674904	-0.22586447
22	0xbeebbc00	-0.4604187
23	0xbc7f39ba	-0.015577728
24	0xbe39f4d8	-0.18159807
25	0x3d461119	0.04835615
26	0x3e05f456	0.13081488
27	0x3dd05429	0.10172302
28	0xbe8b4e2a	-0.27208072
29	0x3e981f1f	0.29711244
30	0x3eacd6a8	0.3375752
31	0x3ea3549f	0.31900498
32	0x3e944325	0.28957477
33	0xbe88a9da	-0.26692086
34	0xbe419e61	-0.18908073
35	0xbdd6eb1d	-0.10494063
36	0x3e0b39aa	0.13596216
37	0xbdb483d5	-0.088142075
38	0x3e2973bf	0.1654806
39	0xbe77fd4f	-0.24217723
40	0x3f8bbc8f	1.0916919
41	0xbdf10da5	-0.117701806
42	0x3e37a812	0.17935207
43	0x3c8de0d0	0.017319113
44	0xbe7d7f07	-0.24755488
45	0x3d4915e6	0.04909315
46	0xbe1ae2eb	-0.15125625
47	0x3d18f8fe	0.037346832
48	0xbf988d42	-1.1918108
49	0x3e3f8e6f	0.18706678
50	0xbf01d587	-0.5071644
51	0xbdbb74e7	-0.09153157
52	0x3dc2f821	0.09519983
53	0xbdd56ce4	-0.1042116
54	0x3e58f44b	0.2118694
55	0xbd18b66a	-0.03728334
56	0x3ec420e1	0.38306335
57	0xbeded910	-0.4352498
58	0xbe9050c1	-0.2818661
59	0x3e16edbb	0.14739124
60	0xbea35e36	-0.31907815
61	0x3e6de6d3	0.23232584
62	0x3ea9cdd8	0.3316486
63	0x3dfe275c	0.12409851
64	0xbeb5f846	-0.3554098
65	0xbee215e8	-0.44157338
66	0x3eb246b4	0.34819567
67	0xbdb018d7	-0.08598488
68	0xbdd47ace	-0.10374986
69	0xbdb13c2a	-0.086540535
70	0x3da23ff9	0.07922358
71	0x3d5f349d	0.054493535
72	0x3e1b08fa	0.15140143
73	0x3e34566e	0.17611095
74	0x3e4f5755	0.20248158
75	0xbf0a8754	-0.54112744
76	0xbe42662f	-0.18984292
77	0x3da4fee9	0.08056433
78	0xbe76d624	-0.24105126
79	0x3d938a95	0.07204167
80	0xbe249fdc	-0.16076607
81	0xbe4f4187	-0.2023984
82	0x3d63af2d	0.055586983
83	0xbf32f8b6	-0.6991075
84	0xbf0fc1e3	-0.5615522
85	0x3e05d8d3	0.13070993
86	0xbe34fc99	-0.17674483
87	0x3e217361	0.1576667
88	0xbdae8afc	-0.08522603
89	0xbb4a68e6	-0.0030885278
90	0x3d014d02	0.03156758
91	0xbe9614dd	-0.29312792
92	0xbd618ac5	-0.05506398
93	0x3fb75ef8	1.4325857
94	0xbf8b29fb	-1.0872186
95	0xbe26e6b7	-0.16298948
96	0x3de06ac1	0.10957862
97	0x3e1183b0	0.14210391
98	0xbe11176a	-0.14169088
99	0xbd31549e	-0.043293588
100	0x3e9cf0fe	0.30652612
101	0x3de80dd4	0.113307625
102	0x3f2303cc	0.6367767
103	0xbe3c6941	-0.18399526
104	0xbe769af6	-0.2408255
105	0xbe8734dc	-0.26407516
106	0x3eb606e1	0.35552123
107	0xbd6eae30	-0.058271587
108	0x3e34c800	0.17654419
109	0xbcd58e2c	-0.02606877
110	0xbdb077b1	-0.08616579
111	0x3e8f4fe2	0.27990633
112	0x3fae0039	1.3593818
113	0xbddbf2d3	-0.107396744
114	0xbc26f71d	-0.010190752
115	0x3e804b68	0.2505753
116	0x3d8ec278	0.06970686
117	0xbb825432	-0.003977322
118	0xbeda073f	-0.42583653
119	0xbddd42f1	-0.10803784
120	0x3ddc298b	0.10750111
121	0x3e05d3f7	0.1306914
122	0x3eea0bef	0.4571223
123	0xbd6dc502	-0.05804921
124	0x3e83baf2	0.25728565
125	0xbe86a8d9	-0.26300696
126	0xbe87b042	-0.26501662
127	0x3d26a334	0.040682986
128	0x3e4b1544	0.19832331
129	0x3dc8ac48	0.09798485
130	0xbf7b5baf	-0.98186773
131	0x3cf3d538	0.029764757
132	0x3e5a6153	0.21326189
133	0x3dcdfca9	0.10057957
134	0x3db7b3c5	0.08969835
135	0x3e94e8a8	0.29083753
136	0x3ed52ad9	0.41634253
137	0x3eade70d	0.3396534
138	0xbd800ba4	-0.0625222
139	0xbf90debc	-1.1317973
140	0xbde5e518	-0.11225337
141	0x3d35d01c	0.04438792
142	0xbe62ec73	-0.2216051
143	0x3ce1dc61	0.027570905
144	0xbd0329f6	-0.03202244
145	0xbe3c31d8	-0.18378389
146	0xbca88db3	-0.02057538
147	0x3d60f11d	0.054917444
148	0xbddbd1cd	-0.10733376
149	0x3fbf2ed1	1.4936162
150	0xbd852ee7	-0.065030865
151	0x3b746076	0.003728894
152	0xbd557678	-0.052114934
153	0xbc64b7c1	-0.013959826
154	0xbed0648a	-0.40701705
155	0xbe5d81ca	-0.21631542
156	0xbf4a2f45	-0.7897838
157	0xbd61198b	-0.054956
158	0x3d5f5d9e	0.05453264
159	0xbca223c8	-0.019792452
160	0xbe470d62	-0.19438699
161	0x3e63bd97	0.22240292
162	0x3e56ca11	0.2097552
163	0x3d48994b	0.048974317
164	0xbed59bcf	-0.41720435
165	0x3e9cced2	0.3062654
166	0x3f522b72	0.8209754
167	0xbd58ff98	-0.05297813
168	0xbe66fd90	-0.22557664
169	0xbe074ef4	-0.13213712
170	0xbe380158	-0.17969263
171	0x3d4f6d77	0.050641503
172	0x3e8e439e	0.27785963
173	0x3effd7e7	0.49969408
174	0xbdec35db	-0.115337096
175	0x3dee2791	0.116286404
176	0x3e13b838	0.14425743
177	0x3ce77970	0.028256148
178	0xbe808c03	-0.2510682
179	0x3eac8bbc	0.3370036
180	0xbd7cf448	-0.061756402
181	0xbd802d25	-0.06258611
182	0xbe9faf45	-0.31188408
183	0xbe751fca	-0.23937908
184	0xbf8adb8e	-1.0848253
185	0x3d27a760	0.040931106
186	0xbea2181a	-0.31659013
187	0xbe13ce03	-0.14434056
188	0xbc5c6807	-0.013452536
189	0xbe8bc8ec	-0.2730173
190	0x3d11acc5	0.035565156
191	0xbd880973	-0.06642427
192	0xbe6a7fed	-0.22900362
193	0x3e93d9cc	0.28877103
194	0x3f476ce6	0.7790054
195	0xbe23be72	-0.15990618
196	0x3dcb7cb5	0.09935895
197	0x3ddb09fd	0.106952645
198	0x3e93fc70	0.28903532
199	0xbe9b97bc	-0.30389202
200	0x3ec197ea	0.37811214
201	0xbf25626e	-0.64603317
202	0xbe15f0df	-0.14642666
203	0x3db19187	0.08670335
204	0x3e339d8b	0.17540567
205	0xbdbc6ea1	-0.09200788
206	0xbc026005	-0.007957463
207	0xbcc526b7	-0.024066312
208	0x3cb8212a	0.022476751
209	0xbb871fa6	-0.004123646
210	0x3e8e48e8	0.27789998
211	0x3f1313e8	0.5745225
212	0xbe90fa99	-0.2831619
213	0x3ec2c4bb	0.38040718
214	0x3e319b90	0.17344499
215	0x3eca6348	0.3952887
216	0x3e079d64	0.13243634
217	0xbe65663e	-0.22402284
218	0xbe4f8763	-0.2026649
219	0x3f101675	0.56284267
220	0x3ee98ac1	0.45613673
221	0x3e21077a	0.15725508
222	0xbe167043	-0.14691262
223	0xbd5471ef	-0.051866468
224	0x3cfcf533	0.030878639
225	0xbdfd1e96	-0.123593494
226	0xbe46a725	-0.19399698
227	0x3c952d3f	0.018210052
228	0x3f25e001	0.6479493
229	0x3f84ff61	1.0390435
230	0xbdc464b7	-0.09589522
231	0xbdbb2b80	-0.09139156
232	0x3e958616	0.29203862
233	0xbd736df3	-0.059431028
234	0xbd9fa78b	-0.07795628
235	0xbd419747	-0.04726341
236	0xbec78280	-0.3896675
237	0xbd4655d8	-0.04842171
238	0x3ef4539e	0.47720045
239	0xbe0db06f	-0.13836835
240	0xbeadb540	-0.33927345
241	0x3d2c6ed5	0.042097885
242	0x3d58aab8	0.052897185
243	0xbd787827	-0.06066146
244	0x3db2678e	0.08711158
245	0x3e25dfb4	0.16198617
246	0xbf383a4a	-0.7196394
247	0xbda1f6ee	-0.07908426
248	0xbdb9aabb	-0.090657674
249	0x3e9b44e3	0.30325994
250	0x3eb2e237	0.34938213
251	0xbdc6d6de	-0.097089514
252	0x3eca2d94	0.39487898
253	0x3ee1456f	0.43998286
254	0xbe81058e	-0.2519955
255	0xbf607dfa	-0.87692225

0.bias f4 [32]
0	0x3d4eb06e	0.050461225
1	0x3e1a50b0	0.15069842
2	0x3b8996c1	0.0041988795
3	0x3d5010d8	0.050797313
4	0x3e664fa4	0.22491318
5	0x3eb0160e	0.34391826
6	0x3d9b98dd	0.07597516
7	0x3ce4f678	0.027949557
8	0x3d13899d	0.03601991
9	0x3dfdd4e8	0.12394124
10	0xbf1ba199	-0.60793453
11	0x3d9d9fc7	0.07696491
12	0x3eb1a289	0.34694317
13	0x3c3ce57d	0.011529324
14	0x3d64d41c	0.055866346
15	0xbcb4b695	-0.022059718
16	0x3efd34c2	0.49454314
17	0x3dc8fd3b	0.09813925
18	0xbd8e5d4b	-0.06951388
19	0x3f107956	0.56435144
20	0xbcaf0c69	-0.021368222
21	0x3f08824b	0.5332381
22	0x3eda1847	0.42596647
23	0x3dd75674	0.105145365
24	0xbe6bd4e5	-0.23030432
25	0xbe48c696	-0.19607005
26	0x3e22524e	0.15851709
27	0xbb8cfc59	-0.004302543
28	0x3e106fe3	0.14105181
29	0x3c851e1f	0.016249714
30	0xbddac82f	-0.10682713
31	0xbe2b1c0f	-0.16709922

2.weight f4 [64, 32]
0	0x3aef1244	0.0018239697
1	0x3e867162	0.2625838
2	0xbd27de38	-0.04098341
3	0xbe0a7b86	-0.13523683
4	0x3e1d94c0	0.15388775
5	0xbe064e85	-0.1311589
6	0xbd8a32d1	-0.06747974
7	0xb9ccfb90	-0.0003909734
8	0xbd48da79	-0.049036477
9	0xbe198f32	-0.14996031
10	0x3d5f3d7b	0.05450199
11	0x3e6c337a	0.23066512
12	0x3bb7031d	0.005585088
13	0xbe59b2bd	-0.2125959
14	0x3dab556f	0.083659045
15	0xbcea6027	-0.028610302
16	0x3da1d671	0.079022296
17	0xbd9b0e3b	-0.075710736
18	0x3dee3d31	0.11632765
19	0x3d224172	0.039613195
20	0xbc8b6aa1	-0.017018618
21	0xbd725202	-0.05916024
22	0xbce68bb1	-0.028142782
23	0x3e126af7	0.14298616
24	0xbd2b8203	-0.041872036
25	0xbd752c41	-0.059856657
26	0x3d52e987	0.05149224
27	0xbe32cbf7	-0.17460619
28	0xbd8f8508	-0.070077956
29	0xbe108982	-0.14114955
30	0x3dfd2f97	0.12362593
31	0xbd6b8864	-0.05750312
32	0xbec3de9b	-0.38255772
33	0x3d54d3bb	0.051959734
34	0x3bcaf7bc	0.006194083
35	0x3e30383c	0.17208952
36	0x3e7695f9	0.24080648
37	0x3def0453	0.11670747
38	0xbe024f34	-0.12725526
39	0x3df869d4	0.1212956
40	0xbd300094	-0.0429693
41	0xbee0b3b5	-0.43887106
42	0x3e0ce9d2	0.1376107
43	0x3da4f699	0.08054847
44	0x3db38826	0.08766203
45	0xbc72ce19	-0.014819645
46	0xbe9e2ae3	-0.30892095
47	0xbe7f3ee9	-0.24926342
48	0xbe6271cb	-0.22113721
49	0xbc952b81	-0.01820922
50	0xbe06b659	-0.13155498
51	0x3e3af3ee	0.18257114
52	0x3c326f49	0.01089079
53	0xbe8b2709	-0.2717822
54	0xbc545f6e	-0.012962205
55	0x3e2300f4	0.15918332
56	0x3debf2d4	0.11520925
57	0x3ead76e4	0.3387977
58	0x3deae3e5	0.11469249
59	0x3d7c9b72	0.06167168
60	0x3ec810b8	0.39075255
61	0xbd3366e9	-0.043799315
62	0xba5d3b5b	-0.00084393256
63	0x3dd9422f	0.10608327
64	0xbe5e105f	-0.21685933
65	0xbe1b34fa	-0.15156928
66	0x3e07894e	0.13235971
67	0x3e115851	0.14193846
68	0xbe477188	-0.19476902
69	0xbe17d232	-0.14826277
70	0xbdcb7102	-0.09933664
71	0x3e283b88	0.1642896
72	0xbd8d0c55	-0.06887118
73	0xbc06ee1e	-0.0082354825
74	0x3efb9fa6	0.4914524
75	0xbdf95f15	-0.121763386
76	0x3e9ac7fe	0.30230707
77	0xbd932183	-0.07184126
78	0x3e3198a9	0.17343391
79	0xbd5fbf5b	-0.05462585
80	0xbd229e9c	-0.039702043
81	0x3cfaf58c	0.030634664
82	0x3e13fac5	0.1445113
83	0xbeb4ad9d	-0.35288706
84	0x3e26b2e4	0.16279179
85	0x3dfab826	0.12242155
86	0xbe21703e	-0.15765473
87	0x3db0735d	0.08615754
88	0x3ea822cd	0.3283905
89	0xbd828648	-0.06373268
90	0x3c4d2dc8	0.012523122
91	0x3e84badd	0.25923815
92	0xbd95ee92	-0.07320894
93	0x3b803a8c	0.0039132293
94	0x3e3dc8f1	0.18533684
95	0x3e7bde05	0.24596412
96	0xbdded7a7	-0.10880976
97	0x3d9a3375	0.07529346
98	0x3de23895	0.110459484
99	0xbd419321	-0.047259454
100	0xbe63699c	-0.22208256
101	0x3e470793	0.19436483
102	0x3e0a5c49	0.13511766
103	0xbda3edce	-0.08004342
104	0x3e7cef4f	0.24700664
105	0x3e1972d4	0.1498521
106	0x3ca4a322	0.020097319
107	0xbe7a444b	-0.24440114
108	0x3db5d69c	0.08878824
109	0x3dec7fa9	0.11547787
110	0x3d9d8efd	0.076932885
111	0xbe7cefda	-0.24700871
112	0xbe1650e8	-0.14679301
113	0x3e7818fd	0.24228282
114	0xbd969e77	-0.073544435
115	0xbdaf0876	-0.08546536
116	0x3cb21e51	0.021742972
117	0xbeb00013	-0.34375057
118	0x3e7a6de1	0.24455978
119	0xbb54b875	-0.0032458578
120	0xbe05607f	-0.13025092
121	0x3e3e64a5	0.1859308
122	0xbe162396	-0.14662012
123	0x3c50b79e	0.01273909
124	0xbd893c73	-0.06700983
125	0xb9953249	-0.0002845696
126	0xbe5d9dcd	-0.21642227
127	0xbe189e27	-0.1490408
128	0x3e467ec5	0.19384296
129	0x3da79f79	0.08184714
130	0x3e164dfc	0.14678186
131	0xbdbca1db	-0.09210559
132	0x3e1adb89	0.15122809
133	0xbe9d0490	-0.30667543
134	0x3e76a477	0.24086176
135	0x3e28289c	0.16421741
136	0xbe2360e5	-0.15954931
137	0x3d872d99	0.06600494
138	0x3d541aef	0.0517835
139	0xbe80ef5f	-0.25182626
140	0xbdd18695	-0.102307476
141	0xbc9db138	-0.019249544
142	0x3dca4370	0.09876144
143	0xbca3a395	-0.019975463
144	0x3ea9c08b	0.3315471
145	0x3dadd65c	0.084881514
146	0xbeabc66b	-0.33549818
147	0xbe05564c	-0.13021201
148	0x3e86a5bc	0.2629832
149	0xbe39f31b	-0.18159144
150	0xbd3a1b3a	-0.04543612
151	0xbce55421	-0.027994217
152	0xbe09bed7	-0.13451706
153	0xbb64b81b	-0.0034899774
154	0xbd9efa12	-0.07762541
155	0x3dddb144	0.10824826
156	0xbd96e35c	-0.07367584
157	0xbcf8b270	-0.030358523
158	0x3eab9482	0.3351174
159	0xbed38731	-0.4131408
160	0x3e3e4187	0.18579684
161	0x3e48ea1e	0.19620559
162	0xbd3a4f46	-0.045485757
163	0x3d73c847	0.05951717
164	0x3e86e029	0.26342896
165	0xbe8b7bc5	-0.27242866
166	0xbdbf6b91	-0.093466885
167	0xbe343b7c	-0.17600816
168	0x3de58059	0.11206121
169	0xbd4268b4	-0.047463134
170	0xbc14b274	-0.00907575
171	0x3e5ad6ef	0.21371053
172	0x3d998c17	0.07497423
173	0xbb1b6bab	-0.0023715298
174	0x3de6df09	0.11273009
175	0x3e8e8b9d	0.2784089
176	0x3e0f3388	0.13984501
177	0x3daa7161	0.083224066
178	0xbcb18fd3	-0.021675026
179	0x3d54e00c	0.05197148
180	0xbe2a0a1c	-0.16605419
181	0xbb09f334	-0.0021049501
182	0xbee8ba81	-0.4545479
183	0x3e560392	0.208998
184	0xbccd21c2	-0.025040511
185	0xbdaa3d16	-0.083124325
186	0xbe9610b5	-0.2930962
187	0xbe2fb1b5	-0.17157634
188	0x3c8bd9a6	0.017071556
189	0x3e5a004d	0.21289177
190	0xbd294d43	-0.04133345
191	0x3e0755f5	0.13216384
192	0x3ea81d48	0.3283484
193	0xbd329b59	-0.043605182
194	0x3e63458d	0.221945
195	0xbe0667b2	-0.13125494
196	0xbe3d7946	-0.18503293
197	0xbe659f62	-0.22424081
198	0xbe5b9a54	-0.2144559
199	0x3d09ca08	0.033639938
200	0xbd956618	-0.072948635
201	0xbd90317c	-0.070406884
202	0x3e5107b8	0.204131
203	0xbe02338e	-0.12714979
204	0xbf031ffa	-0.5122067
205	0xbe299655	-0.16561253
206	0x3e3a8971	0.18216492
207	0x3ee583d2	0.44827133
208	0xbdf511da	-0.119662955
209	0xbd18a43c	-0.037266
210	0xbd8a2895	-0.06746022
211	0x3bf23aeb	0.0073922775
212	0x3e42beb8	0.19018066
213	0x3c95fae8	0.018308118
214	0x3d5812d2	0.052752323
215	0xbe8b4b41	-0.27205852
216	0x3dcafdb5	0.09911672
217	0xbda513a5	-0.080603875
218	0xbe70a87b	-0.2350177
219	0xbd43d2ad	-0.047808338
220	0xbde98ca6	-0.1140378
221	0xbb38204c	-0.0028095422
222	0x3db5303e	0.08847092
223	0x3c1886a8	0.009309448
224	0x3dd2dad6	0.10295646
225	0xbc9e180c	-0.019298576
226	0x3c0ffd00	0.008788347
227	0x3e6b9a8c	0.23008174
228	0xbd4962de	-0.049166553
229	0xbe8633a3	-0.2621127
230	0x3e04b0bd	0.12958045
231	0xbc90c1f4	-0.017670609
232	0x3d9d6e7b	0.07687088
233	0xbe3ae30b	-0.18250673
234	0xbd349ecd	-0.044096757
235	0xbe3f4e8a	-0.18682304
236	0x3eedb263	0.4642516
237	0x3d9f2260	0.077702284
238	0xbe23fcc2	-0.16014388
239	0xbe448098	-0.1918968
240	0x3f19be5b	0.60056084
241	0x3a98313a	0.001161135
242	0x3bcf9cb2	0.006335818
243	0x3e3bc67a	0.18337432
244	0xbddc488d	-0.107560255
245	0xbd2b4343	-0.041812193
246	0xbd954b1c	-0.072897166
247	0x3dfca2cd	0.12335739
248	0x3d8f5245	0.069981135
249	0xbe572426	-0.21009883
250	0x3d56293d	0.05228542
251	0xbe077d3a	-0.13231364
252	0xbb6c4b39	-0.0036055578
253	0xbd78c203	-0.0607319
254	0xbe138c16	-0.14408907
255	0xbdf82386	-0.121161506

2.bias f4 [64]
0	0x3dca3bbe	0.09874676
1	0xbdb62954	-0.088946015
2	0xbea71b1e	-0.32637876
3	0x3e215341	0.15754415
4	0x3df4a18e	0.119448766
5	0xbd9c2b25	-0.07625417
6	0xbf02d372	-0.5110389
7	0x3ccf422f	0.025300113
8	0xbd33a993	-0.04386289
9	0x3d7d29f3	0.061807584
10	0x3cf8a73f	0.030353187
11	0x3e01b7b5	0.12667735
12	0xbe974d8f	-0.2955136
13	0xbe2a0316	-0.1660274
14	0xbe762ac9	-0.24039759
15	0xbed6569f	-0.41862962
16	0x3ec84712	0.39116722
17	0xbea5965c	-0.32341278
18	0x3de327c0	0.11091566
19	0xbecea64c	-0.4036125
20	0x3ebc579a	0.36785585
21	0x3d2985aa	0.041387238
22	0xbe511ca4	-0.20421082
23	0x3ccb479b	0.024814418
24	0xbe8a7b5a	-0.27047235
25	0xbefab624	-0.48967087
26	0x3de54d28	0.11196357
27	0x3e277c78	0.16356075
28	0x3e758375	0.23975928
29	0xbe3f7eff	-0.18700789
30	0xbf060e1b	-0.52365273
31	0xbe38adc7	-0.18035041
32	0xbd55cbe6	-0.052196406
33	0x3e542168	0.20715868
34	0x3ed65540	0.41861916
35	0x3e40b776	0.18819985
36	0xbd51c53c	-0.051213488
37	0xbeb6e73c	-0.35723293
38	0x3e2bba7c	0.16770357
39	0x3e46a747	0.19399749
40	0xbe1b9058	-0.15191782
41	0xbe4a09c5	-0.1973029
42	0x3dbb5c26	0.09148435
43	0x3e5a9b26	0.21348247
44	0xbe2c29c1	-0.16812803
45	0x3e5ee071	0.21765305
46	0x3e420821	0.18948413
47	0xbdc34f5d	-0.09536622
48	0xbdb3722a	-0.087620094
49	0x3e37673f	0.17910479
50	0x3e1f6be2	0.15568498
51	0x3eb10471	0.345737
52	0x3c8eb566	0.017420482
53	0x3ec98589	0.39359692
54	0xbd980cd8	-0.07424325
55	0x3e8082f6	0.25099915
56	0x3df5f738	0.12010044
57	0x3e5250a3	0.20538573
58	0xbeb09db1	-0.3449531
59	0x3d5337c8	0.05156687
60	0xbdef5ee8	-0.11688024
61	0x3e6d921a	0.23200265
62	0xbeab9878	-0.33514762
63	0xbe064bce	-0.13114855

4.weight f4 [128, 64]
0	0x3dce95b6	0.10087149
1	0xbdc3057b	-0.0952253
2	0xbdd952fa	-0.1061153
3	0x3d20dc30	0.039272487
4	0x3b1da4f4	0.0024054619
5	0x3e2e4820	0.17019701
6	0x3da2dd52	0.0795237
7	0xbd4020fa	-0.04690645
8	0x3bcf296d	0.006322077
9	0xbe21c769	-0.15798725
10	0x3d83d5eb	0.06437286
11	0xbc7d012f	-0.015442177
12	0xbd8ff302	-0.07028772
13	0x3d675b92	0.056483813
14	0xbcae878b	-0.021304866
15	0xbc0e9130	-0.008701608
16	0xbcfc2d82	-0.030783419
17	0xbe17ac81	-0.14811899
18	0xbd942819	-0.072342105
19	0xbb29f61a	-0.0025934041
20	0x3dcbd5d8	0.09952897
21	0x3dd17f5f	0.10229372
22	0xbd87e011	-0.06634534
23	0x3d6f9d4e	0.058499627
24	0xbd2224fa	-0.039586045
25	0xbcaf92c6	-0.021432292
26	0xbe2dde2a	-0.1697928
27	0xbcd57c67	-0.026060296
28	0xbd9a1a3a	-0.075245336
29	0xbe0c1d49	-0.13683046
30	0x3d94ebd5	0.07271544
31	0xbbc29e91	-0.0059393127
32	0x3da59c26	0.080864236
33	0x3dc175f9	0.094463296
34	0xbd4775e9	-0.048696432
35	0xbd4b4636	-0.049627505
36	0x3bf8ebc9	0.007596467
37	0xbdbb3c33	-0.091423415
38	0x3e0dafad	0.13836546
39	0x3da1cd26	0.07900457
40	0xba62cbbb	-0.0008651574
41	0xbe3e7a89	-0.18601431
42	0x3db70f10	0.0893842
43	0xbd1c4781	-0.03815413
44	0xbdb3ca79	-0.08778853
45	0xbe29bc66	-0.16575775
46	0x3d1b93f9	0.037982915
47	0xbc93c9b3	-0.018040514
48	0x3cf06d29	0.029348927
49	0x3cda1471	0.026621075
50	0x3ce68056	0.028137367
51	0x3de52767	0.11189156
52	0xbd6d7545	-0.057973165
53	0x3e5e7d9a	0.217276
54	0x3c49c48b	0.012314926
55	0xbd5c7cc6	-0.05382993
56	0x3de8fcfc	0.11376378
57	0x3e4741f7	0.19458757
58	0xbcbd41bd	-0.023102636
59	0x3d2ee462	0.04269827
60	0x3e02d8d8	0.12778032
61	0xbde8f621	-0.1137507
62	0xbde7cc73	-0.113182925
63	0xbe2ab45b	-0.16670363
64	0xa2478ab5	-2.704296e-18
65	0x20f51d73	4.1524102e-19
66	0xaf05060f	-1.2098432e-10
67	0xa892b2d4	-1.628681e-14
68	0xb72a6231	-1.0155652e-05
69	0x22608e3b	3.0432957e-18
70	0xa28e404d	-3.855726e-18
71	0x2b1d714d	5.593484e-13
72	0xa1535bcd	-7.161108e-19
73	0xa3d5af2e	-2.3167698e-17
74	0xa0b27627	-3.023256e-19
75	0x218ac320	9.402893e-19
76	0x218d8021	9.588447e-19
77	0xb8348810	-4.3042062e-05
78	0xb4ce2639	-3.83983e-07
79	0xa9cbd36a	-9.0516855e-14
80	0x230f9e39	7.7855505e-18
81	0xa171f789	-8.1981586e-19
82	0xa2c1c921	-5.252571e-18
83	0xb33f4c52	-4.4540066e-08
84	0x220266b5	1.7672658e-18
85	0x208327dd	2.2218643e-19
86	0x20c56423	3.3439363e-19
87	0x1dfba017	6.6604676e-21
88	0xa01b82bb	-1.3172266e-19
89	0xa2fdfbdf	-6.8842466e-18
90	0x1edc6fb7	2.333961e-20
91	0xb7bc02f8	-2.2412729e-05
92	0x22fa3fe1	6.783027e-18
93	0x2816b825	8.366603e-15
94	0x281fdf02	8.87463e-15
95	0xb17723f1	-3.596366e-09
96	0xb6c176c7	-5.7656757e-06
97	0xaf7ca0f9	-2.2976455e-10
98	0xa1b2060f	-1.2063353e-18
99	0xb51d68a8	-5.863935e-07
100	0xa0415e0c	-1.6378853e-19
101	0xa19e5098	-1.0727829e-18
102	0x202dae35	1.471131e-19
103	0x1f9fd258	6.7687104e-20
104	0xa2a36ec8	-4.4298533e-18
105	0x22583ac8	2.9304577e-18
106	0x1ecc5ad2	2.1636903e-20
107	0xade407ae	-2.592401e-11
108	0xa1f652a1	-1.669148e-18
109	0x284ea487	1.1470973e-14
110	0x275d9f87	3.075639e-15
111	0x21f4a1c2	1.65769e-18
112	0x1e52d500	1.1161355e-20
113	0xb4a79ff0	-3.1222544e-07
114	0x220f3ec3	1.941334e-18
115	0xa866c14b	-1.28094785e-14
116	0x2672007a	8.396126e-16
117	0xa69aa9f0	-1.0731958e-15
118	0xb1aec03c	-5.085921e-09
119	0x2804fb12	7.381914e-15
120	0x2293b13a	4.0032076e-18
121	0x1f2f715a	3.7151454e-20
122	0x2781b161	3.5997007e-15
123	0x21ebc5b9	1.5976556e-18
124	0xb089a61d	-1.0015274e-09
125	0xa6a6ef2e	-1.1583394e-15
126	0xad0b46ed	-7.916984e-12
127	0x2257708d	2.9197517e-18
128	0xbc382359	-0.011238896
129	0x3e075d52	0.13219193
130	0xbd485a72	-0.04891438
131	0xbcaf015f	-0.021362958
132	0x3cca0baa	0.024663765
133	0x3d5cf645	0.0539458
134	0xbde35f1c	-0.11102125
135	0x3de9b51d	0.11411498
136	0xbe13615a	-0.14392605
137	0xbdac564f	-0.084148996
138	0x3d83d45c	0.06436989
139	0x3d847954	0.06468454
140	0x3dae5fbc	0.08514354
141	0xbcc07054	-0.023491062
142	0xbde9bbde	-0.11412786
143	0xbd15e184	-0.03659202
144	0x3da1ae14	0.07894531
145	0x3d142d8e	0.036176257
146	0xbe46120a	-0.19342819
147	0xbde2b715	-0.110700764
148	0xbd96754c	-0.07346591
149	0xbd8fb5e3	-0.07017114
150	0xbc9f5dc3	-0.019453889
151	0xbdc890ab	-0.09793218
152	0xbdee9d6f	-0.11651122
153	0xbd4154eb	-0.047200125
154	0x3d18cbf4	0.03730388
155	0x3b922580	0.0044600368
156	0x3d8d5d4b	0.0690256
157	0xba1de96f	-0.0006023859
158	0xbe2240fe	-0.15845105
159	0x3cb31664	0.021861263
160	0xbd982c0d	-0.07430277
161	0xbda65895	-0.081223644
162	0xbc936c25	-0.017995903
163	0xbd42644c	-0.04745893
164	0xbddcef49	-0.107878275
165	0xbc648167	-0.013946868
166	0x3cbada64	0.022809215
167	0x3e4a64cb	0.19765012
168	0xbc95e5d2	-0.018298063
169	0xbcc65e96	-0.024215024
170	0xbd7b4719	-0.0613471
171	0xbdf38dbb	-0.11892267
172	0x3e4dd83c	0.20102018
173	0x3c56b16f	0.013103827
174	0x3d13fe0d	0.036130954
175	0xbda1eb1f	-0.07906174
176	0xbe170aa9	-0.1475016
177	0xbdbf75d0	-0.09348643
178	0x3c4b6e8b	0.012416492
179	0x3dd3bfe3	0.10339334
180	0x3d4ec1c3	0.050477754
181	0x3e0f7f45	0.14013393
182	0xbe0e8286	-0.13916978
183	0xbe07be08	-0.13256085
184	0xbe3904b3	-0.18068199
185	0xbd8c625e	-0.068546996
186	0xbd13efc5	-0.036117334
187	0xbdb6ffd9	-0.08935518
188	0x3d470ee3	0.04859818
189	0xbe084e2d	-0.13311072
190	0x3d86af1b	0.065763675
191	0xbdddaca8	-0.10823947
192	0x3dbed0ad	0.093171455
193	0xbcf2f49d	-0.029657656
194	0x3aeae34a	0.0017920521
195	0x3de055dc	0.109538764
196	0x3cd2faaf	0.0257543
197	0x3d52321b	0.051317316
198	0xba614a4d	-0.00085941405
199	0xbe16b2ba	-0.14716616
200	0xbc5f5d0d	-0.013633025
201	0xbe5c9678	-0.21541774
202	0x3e280700	0.1640892
203	0xbd87bcbb	-0.06627794
204	0x3c99922a	0.018746454
205	0xbe05cbef	-0.13066076
206	0x3cf6bc4e	0.030119088
207	0xbdb702f5	-0.08936111
208	0xbd95ffc9	-0.07324178
209	0xbc87a0a9	-0.0165561
210	0xbd14de41	-0.03634477
211	0x3ddb9746	0.107222125
212	0x3d833f60	0.06408572
213	0x3ca09941	0.019604327
214	0xbdb547b5	-0.08851568
215	0x3da09cd4	0.078424126
216	0xbccc7203	-0.024956709
217	0xbce57f26	-0.02801473
218	0x3e358c65	0.17729338
219	0xbdcda3fb	-0.100410424
220	0x3dd7855b	0.105234824
221	0x3d2d0177	0.042237725
222	0x3d880f3a	0.06643529
223	0xbd9641bd	-0.07336757
224	0xbe1d9989	-0.153906
225	0xbc950d44	-0.018194802
226	0x3d2bd431	0.04195041
227	0x3da04a7a	0.07826705
228	0x3e4b9d2f	0.1988418
229	0x3cb37998	0.021908566
230	0xbbc5ca54	-0.0060360823
231	0x3a4ebddd	0.0007886568
232	0x3e077481	0.13228036
233	0xbdd3289f	-0.10310482
234	0x3d6c0fb0	0.05763215
235	0x3df8e668	0.121533215
236	0x3d834e9f	0.0641148
237	0xbe117f50	-0.14208722
238	0xbe472f04	-0.19451529
239	0xbe0d2638	-0.1378411
240	0xbc2bb64c	-0.010480475
241	0xbcdab6a8	-0.026698425
242	0x3d249130	0.040177524
243	0x3d729b31	0.059230033
244	0x3d837163	0.06418111
245	0xbc90c66c	-0.01767274
246	0x3d49c9d9	0.049264763
247	0xbd9b6eb6	-0.07589476
248	0xbdc3329a	-0.09531136
249	0xbda84f72	-0.08218278
250	0xbd957a36	-0.072987005
251	0x3e1f82a7	0.15577184
252	0xbe304f56	-0.17217764
253	0x3d528a57	0.051401462
254	0xbe15cc4d	-0.14628716
255	0x3cad7aa2	0.02117664

4.bias f4 [128]
0	0x3c47ee44	0.012202803
1	0xb4fb5268	-4.6812352e-07
2	0x3e2f4b37	0.17118536
3	0x3d8f99e2	0.07011773
4	0xbca671b9	-0.020317899
5	0xbe1055fd	-0.14095302
6	0xbc249b56	-0.010046801
7	0xbe6151e2	-0.22003892
8	0xbd1ed51f	-0.038777467
9	0xbdc3d4fd	-0.09562109
10	0xbd5e136a	-0.054217733
11	0x3d438c19	0.04774103
12	0xbdd9c35b	-0.10632964
13	0x3daa1a13	0.083057545
14	0xbd48f28b	-0.049059432
15	0xaf4f1595	-1.8834208e-10
16	0x3dc9c2fa	0.09851642
17	0x3da4abd1	0.08040584
18	0xbda403cd	-0.080085374
19	0xbd5a1fc2	-0.053252943
20	0xbba58a8a	-0.0050519155
21	0xbdd76ba5	-0.105185784
22	0xbe0feaac	-0.14054364
23	0xbd01ffa1	-0.031737927
24	0xbde70618	-0.11280459
25	0xbd09ab48	-0.033610612
26	0xa4336214	-3.8897513e-17
27	0x3d9edd6f	0.07757079
28	0x3d00794c	0.031365678
29	0x3d9dd235	0.077061094
30	0x3e860c72	0.2618137
31	0xbc8d4dd5	-0.017249027
32	0x3e36199c	0.17783207
33	0xbdc7b68c	-0.09751615
34	0xbcc55646	-0.02408899
35	0xbdd08166	-0.10180931
36	0xbeb2d710	-0.34929705
37	0xbe2d224b	-0.16907613
38	0xbde3b43c	-0.11118361
39	0xbe8e237d	-0.2776145
40	0xbe285359	-0.16438045
41	0x3d3f5c58	0.046718925
42	0xbd1ba71e	-0.038001172
43	0xbb1278b5	-0.002234978
44	0x3e963cdc	0.29343307
45	0x3d5bd755	0.053672154
46	0xbd414662	-0.047186263
47	0x3da4eae7	0.080526166
48	0x3e32101f	0.17388962
49	0xbce5dca4	-0.028059311
50	0x3d12b6af	0.035818752
51	0x3e13192c	0.14365071
52	0xbd8960ac	-0.06707892
53	0x3e1c7a09	0.15280928
54	0xbe9d62eb	-0.3073953
55	0x3e3c6c7b	0.18400757
56	0xbe53ab98	-0.20670927
57	0xbde8e34a	-0.11371477
58	0x3d85ad62	0.06527211
59	0xbe43e119	-0.19128837
60	0x3caeeef5	0.021354178
61	0xbe58585e	-0.2112746
62	0xbdc93607	-0.09824758
63	0xbdc2b353	-0.0950686
64	0xbe96e9c9	-0.2947524
65	0xbd8121db	-0.063052855
66	0x3b9c9e61	0.0047796224
67	0xbd8114c8	-0.06302792
68	0xbb332d6d	-0.0027340308
69	0x3d8e170b	0.06937989
70	0x3db6df49	0.08929307
71	0xbcb4c02b	-0.02206429
72	0x9fd6e92b	-9.101827e-20
73	0xbe314da1	-0.1731477
74	0x3da29aa1	0.079396494
75	0xbd8755ba	-0.06608148
76	0xbb9e4287	-0.004829708
77	0x3d9685f2	0.07349767
78	0xbe2ac084	-0.16675001
79	0xbe26d59b	-0.16292422
80	0xbdb393ff	-0.087684624
81	0x3e4d7c41	0.2006693
82	0x3c25949e	0.010106234
83	0x3d5dc80e	0.054145865
84	0xbe247402	-0.16059878
85	0x3dee5ab6	0.116383955
86	0xbdfb54f4	-0.12272063
87	0x3e84c6b8	0.2593286
88	0x3e546410	0.20741296
89	0xbb4b4d1c	-0.0031021303
90	0x3d83c471	0.064339526
91	0xbdd38fc3	-0.10330155
92	0x3e1012e8	0.14069712
93	0x3e535122	0.20636418
94	0xbcccbd96	-0.024992745
95	0xbdc79fc4	-0.0974727
96	0xbb22245d	-0.0024740912
97	0xbe4b4336	-0.19849858
98	0xbde73811	-0.11289991
99	0x3d67d991	0.056603972
100	0x3e2b02ab	0.16700236
101	0xbd2767b4	-0.040870383
102	0x3ced929a	0.02900057
103	0x3dab403c	0.08361861
104	0xbe919828	-0.28436399
105	0x3d276cd2	0.040875264
106	0xa112aa15	-4.9691826e-19
107	0xbe304b93	-0.1721633
108	0x3c8a4260	0.016877353
109	0xbcdbcc75	-0.026830891
110	0xbe1664b5	-0.14686854
111	0xbe6e66bc	-0.23281378
112	0xbd5399b1	-0.051660243
113	0xbda05efa	-0.07830615
114	0x3bd3156b	0.006441762
115	0xbd9748c4	-0.07386926
116	0x3d0b1745	0.03395774
117	0x3d1297ac	0.035789177
118	0xbc9d878c	-0.019229673
119	0x3ce270a6	0.027641606
120	0x3d20b54d	0.039235402
121	0xbaf921aa	-0.0019007225
122	0x3d8e47e3	0.06947305
123	0xbcdab62f	-0.0266982
124	0x3cc4a5f7	0.02400492
125	0x3d7ba68a	0.06143812
126	0x3d451d74	0.04812379
127	0xbe7730d3	-0.24139719

6.weight f4 [256, 128]
0	0x00000c0a	4.319e-42
1	0x80004605	-2.5118e-41
2	0x00000c5d	4.435e-42
3	0x800006c8	-2.433e-42
4	0x00000146	4.57e-43
5	0x80001184	-6.283e-42
6	0x80000163	-4.97e-43
7	0x00000874	3.032e-42
8	0x80001478	-7.343e-42
9	0x000012cf	6.747e-42
10	0x80000045	-9.7e-44
11	0x0000045f	1.568e-42
12	0x00000077	1.67e-43
13	0x80000b48	-4.047e-42
14	0x80000675	-2.316e-42
15	0x00003e54	2.2359e-41
16	0x000002c4	9.92e-43
17	0x80001241	-6.548e-42
18	0x000011ea	6.426e-42
19	0x80000b4b	-4.051e-42
20	0x80000ac4	-3.862e-42
21	0x80000a0c	-3.604e-42
22	0x800008e3	-3.188e-42
23	0x8000097f	-3.407e-42
24	0x800005d2	-2.088e-42
25	0x000009be	3.495e-42
26	0x8000a2b0	-5.8361e-41
27	0x800008e7	-3.194e-42
28	0x00000553	1.91e-42
29	0x80001316	-6.847e-42
30	0x00000ddd	4.973e-42
31	0x80000094	-2.07e-43
32	0x80000308	-1.087e-42
33	0x80001125	-6.15e-42
34	0x00000841	2.961e-42
35	0x000013d9	7.12e-42
36	0x000001a7	5.93e-43
37	0x000014f0	7.511e-42
38	0x0000019d	5.79e-43
39	0x800005e4	-2.113e-42
40	0x000009f2	3.568e-42
41	0x80000af6	-3.932e-42
42	0x00000f88	5.572e-42
43	0x80000e36	-5.098e-42
44	0x00000039	8e-44
45	0x800004ee	-1.768e-42
46	0x80000bb5	-4.2e-42
47	0x00000527	1.848e-42
48	0x80000ede	-5.333e-42
49	0x000015b4	7.786e-42
50	0x00000ec1	5.293e-42
51	0x00000ceb	4.634e-42
52	0x00000eb0	5.269e-42
53	0x80000ec4	-5.297e-42
54	0x00001239	6.537e-42
55	0x80001084	-5.925e-42
56	0x80000514	-1.822e-42
57	0x8000127a	-6.628e-42
58	0x020407e0	9.700088e-38
59	0x0000010d	3.77e-43
60	0x80000867	-3.014e-42
61	0x8000107b	-5.912e-42
62	0x80000941	-3.32e-42
63	0x00000134	4.32e-43
64	0x000007e9	2.838e-42
65	0x80000127	-4.13e-43
66	0x80000c48	-4.406e-42
67	0x00001380	6.995e-42
68	0x0000044e	1.544e-42
69	0x000008f4	3.212e-42
70	0x000009fc	3.582e-42
71	0x800013fc	-7.169e-42
72	0x000082c6	4.6913e-41
73	0x00000436	1.51e-42
74	0x80001297	-6.669e-42
75	0x00000f71	5.54e-42
76	0x00009651	5.3923e-41
77	0x800002a8	-9.53e-43
78	0x0000041f	1.478e-42
79	0x00000d3b	4.746e-42
80	0x00000540	1.883e-42
81	0x800005b1	-2.042e-42
82	0x80000979	-3.398e-42
83	0x80001079	-5.909e-42
84	0x00000c9d	4.525e-42
85	0x00000ac3	3.86e-42
86	0x222eabe6	2.36724e-18
87	0x800008f1	-3.208e-42
88	0x0000061d	2.193e-42
89	0x00002aa4	1.5297e-41
90	0x00000e83	5.206e-42
91	0x00001403	7.179e-42
92	0x80000de7	-4.987e-42
93	0x800014c5	-7.451e-42
94	0x80000ff0	-5.717e-42
95	0x000003f9	1.425e-42
96	0x00005a1e	3.2328e-41
97	0x00000d86	4.851e-42
98	0x00000035	7.4e-44
99	0x80000ebe	-5.289e-42
100	0x800004c4	-1.71e-42
101	0x00000bcc	4.232e-42
102	0x000005e7	2.117e-42
103	0x80000c81	-4.486e-42
104	0x8000108e	-5.939e-42
105	0x80000015	-3e-44
106	0x800074d1	-4.1906e-41
107	0x00000c9e	4.526e-42
108	0x80000f46	-5.479e-42
109	0x00000a78	3.755e-42
110	0x00001431	7.243e-42
111	0x00000059	1.25e-43
112	0x000006ba	2.413e-42
113	0x000008f6	3.215e-42
114	0x00000c3d	4.39e-42
115	0x00000154	4.76e-43
116	0x80000a12	-3.613e-42
117	0x000009e5	3.55e-42
118	0x00000678	2.32e-42
119	0x80000dba	-4.924e-42
120	0x00001846	8.708e-42
121	0x80000668	-2.298e-42
122	0x00000724	2.562e-42
123	0x80001026	-5.793e-42
124	0x800000ea	-3.28e-43
125	0x00001293	6.663e-42
126	0x00000ca5	4.536e-42
127	0x0000088b	3.065e-42
128	0x8000095d	-3.359e-42
129	0x00002b7d	1.56e-41
130	0x00000800	2.87e-42
131	0x800016a9	-8.129e-42
132	0x8000011e	-4.01e-43
133	0x00001fa5	1.1352e-41
134	0x800000aa	-2.38e-43
135	0x0000121f	6.5e-42
136	0x00001202	6.46e-42
137	0x000002d1	1.01e-42
138	0x0000173c	8.335e-42
139	0x800017be	-8.517e-42
140	0x80000b4b	-4.051e-42
141	0x80000579	-1.963e-42
142	0x00001037	5.817e-42
143	0x80007749	-4.2791e-41
144	0x00000480	1.614e-42
145	0x8000100d	-5.758e-42
146	0x00001c0b	1.006e-41
147	0x800009de	-3.54e-42
148	0x00000783	2.695e-42
149	0x8f68eab1	-1.1483683e-29
150	0x00000f5c	5.51e-42
151	0x00000e81	5.203e-42
152	0x0000237f	1.2734e-41
153	0x80000608	-2.164e-42
154	0x800047ba	-2.573e-41
155	0x00000f28	5.437e-42
156	0x0000107d	5.915e-42
157	0x000006ff	2.51e-42
158	0x00000519	1.829e-42
159	0x80001721	-8.297e-42
160	0x000003ef	1.411e-42
161	0x800015a6	-7.766e-42
162	0x00000c1f	4.348e-42
163	0x0000081e	2.912e-42
164	0x80001047	-5.839e-42
165	0x80001ede	-1.1073e-41
166	0x00001826	8.663e-42
167	0x000005db	2.1e-42
168	0x9d1ddf18	-2.0894114e-21
169	0x8000144f	-7.285e-42
170	0x800012fe	-6.813e-42
171	0x000007ac	2.752e-42
172	0x00001cef	1.038e-41
173	0x80000cf9	-4.654e-42
174	0x8000128c	-6.653e-42
175	0x80000f27	-5.436e-42
176	0x00000746	2.609e-42
177	0x80001752	-8.366e-42
178	0x80001247	-6.557e-42
179	0x800012ea	-6.785e-42
180	0x00000f69	5.528e-42
181	0x0000072b	2.571e-42
182	0x00000eb7	5.279e-42
183	0x00001a91	9.53e-42
184	0x0000052a	1.853e-42
185	0x000005e6	2.116e-42
186	0x800001b7	-6.15e-43
187	0x000004e2	1.752e-42
188	0x80001691	-8.095e-42
189	0x000011aa	6.337e-42
190	0x80001b0f	-9.707e-42
191	0x000016fd	8.247e-42
192	0x8000189b	-8.827e-42
193	0x80000fdb	-5.688e-42
194	0x80002125	-1.189e-41
195	0x0000154c	7.64e-42
196	0x00000831	2.939e-42
197	0x80001b72	-9.846e-42
198	0x00003c3d	2.161e-41
199	0x80000f17	-5.413e-42
200	0x0000a12f	5.7822e-41
201	0x8000003b	-8.3e-44
202	0x00002890	1.4551e-41
203	0x80000ab0	-3.834e-42
204	0x000001af	6.04e-43
205	0x0000127d	6.632e-42
206	0x800015c6	-7.811e-42
207	0x80000c6c	-4.456e-42
208	0x000015c3	7.807e-42
209	0x80000a39	-3.667e-42
210	0x00000d53	4.78e-42
211	0x80000c3b	-4.387e-42
212	0x0000014f	4.7e-43
213	0x80000b63	-4.085e-42
214	0x80000538	-1.872e-42
215	0x8000081e	-2.912e-42
216	0x80001ac3	-9.6e-42
217	0x00003541	1.9104e-41
218	0x00000e2e	5.087e-42
219	0x800001a8	-5.94e-43
220	0x80000e6d	-5.175e-42
221	0x80000b30	-4.013e-42
222	0x00000a50	3.7e-42
223	0x80000b82	-4.128e-42
224	0x0000a919	6.0661e-41
225	0x80002159	-1.1963e-41
226	0x000013a8	7.051e-42
227	0x8000149c	-7.393e-42
228	0x00000a79	3.757e-42
229	0x80001580	-7.713e-42
230	0x000000c4	2.75e-43
231	0x00000894	3.077e-42
232	0x899fd1d7	-3.847519e-33
233	0x80001130	-6.166e-42
234	0x80004640	-2.5201e-41
235	0x800002db	-1.024e-42
236	0x800012bf	-6.725e-42
237	0x000002c5	9.94e-43
238	0x0000155a	7.66e-42
239	0x000006db	2.459e-42
240	0x00001e61	1.0898e-41
241	0x80001224	-6.508e-42
242	0x8000081a	-2.906e-42
243	0x000020cf	1.177e-41
244	0x80001461	-7.31e-42
245	0x80000ef1	-5.36e-42
246	0x800017c8	-8.531e-42
247	0x80000af9	-3.936e-42
248	0x80001f57	-1.1243e-41
249	0x92851919	-8.399667e-28
250	0x0000008d	1.98e-43
251	0x00000bc7	4.225e-42
252	0x000003b6	1.331e-42
253	0x000014e6	7.497e-42
254	0x800017f3	-8.591e-42
255	0x00000f86	5.569e-42

6.bias f4 [256]
0	0xa8aa47da	-1.8904952e-14
1	0x98a371a3	-4.2249256e-24
2	0xbd347366	-0.044055365
3	0xbba23d2b	-0.0049511394
4	0xb1395e4a	-2.697464e-09
5	0xba95d86e	-0.0011432299
6	0xbb7e5545	-0.0038808149
7	0xb313f6f3	-3.4450704e-08
8	0x3cb9dc06	0.022687923
9	0xbbf35c07	-0.007426742
10	0xa4e98f55	-1.01290456e-16
11	0xba2ed0eb	-0.00066687044
12	0xbda2837a	-0.079352334
13	0xbb232e48	-0.0024899412
14	0xbdbeed5e	-0.09322618
15	0xbe86fcf9	-0.26364878
16	0x3adfdd3c	0.0017079483
17	0x3ca618d7	0.020275516
18	0xba013e73	-0.0004930265
19	0xbe8721c2	-0.26392943
20	0xbb905311	-0.0044044335
21	0xbaaf646f	-0.0013381372
22	0xbe53dc8f	-0.20689605
23	0xbb38cda1	-0.0028198736
24	0x3c65ae47	0.014018602
25	0xbb355635	-0.0027669792
26	0x89f0ca68	-5.796824e-33
27	0xbd04fb4b	-0.032466214
28	0xbe14d59c	-0.1453461
29	0xbd6688ea	-0.056282915
30	0xb7eb6ad6	-2.8063932e-05
31	0xbb456e84	-0.0030125687
32	0xa2b4f93e	-4.9052993e-18
33	0xbc0bb7bf	-0.008527695
34	0xbb7f2364	-0.0038931007
35	0xbcfc3145	-0.030785212
36	0xbd819d83	-0.06328871
37	0xb6f321df	-7.2459075e-06
38	0xbd1cb0db	-0.0382546
39	0xab9fba29	-1.1349299e-12
40	0xba49652f	-0.0007682619
41	0xba8c587d	-0.0010707524
42	0xb486056d	-2.4963393e-07
43	0x3c565815	0.013082524
44	0xbbdc27df	-0.00671862
45	0xb8196b73	-3.6578112e-05
46	0xbbf15ad9	-0.007365566
47	0xbd82782d	-0.06370578
48	0xbcde969d	-0.027171427
49	0xa31501be	-8.077675e-18
50	0xbd02e2fb	-0.031954747
51	0xbe08fe4a	-0.13378254
52	0xb61afab5	-2.309372e-06
53	0xbe2702a5	-0.16309603
54	0xb2facc66	-2.919678e-08
55	0xb2acfe01	-2.0138943e-08
56	0xbdae7736	-0.085188314
57	0xbcf54999	-0.02994232
58	0xba0026f1	-0.0004888615
59	0xbda3608f	-0.079774015
60	0xaff50ecc	-4.4575754e-10
61	0xaebc6bbf	-8.56839e-11
62	0xa5b84b83	-3.197008e-16
63	0x3c40fd7e	0.011779187
64	0x951e2818	-3.1939474e-26
65	0xb402a1d7	-1.216607e-07
66	0xbb966d84	-0.004590692
67	0x3d43c310	0.047793448
68	0xbb805f84	-0.0039176363
69	0xbd6d2778	-0.05789897
70	0xb40beaab	-1.3030755e-07
71	0xbcc666a1	-0.02421886
72	0xbba31f1b	-0.0049780733
73	0xbb8dff04	-0.0043333787
74	0xb6d2c1e0	-6.2810577e-06
75	0xbd6cc82e	-0.057808094
76	0xbbd703cc	-0.006561732
77	0xbb1205cd	-0.002228129
78	0x3bfc02ae	0.007690749
79	0xaac83392	-3.556292e-13
80	0xba810c88	-0.0009845654
81	0x9bbd94d3	-3.1363603e-22
82	0xbde260a2	-0.110535875
83	0xbd3a644b	-0.045505803
84	0xbdb6268c	-0.08894071
85	0xbac4ddbf	-0.0015019699
86	0xbc892868	-0.0167429
87	0xbdc5fd3e	-0.09667443
88	0xbd62eaed	-0.055399824
89	0xbbbbed8d	-0.0057351054
90	0x9299be4d	-9.70257e-28
91	0xb6a00787	-4.769248e-06
92	0x3ce09b93	0.027417934
93	0xba1b04fd	-0.0005913524
94	0xb92e7320	-0.0001663682
95	0xb719cdb3	-9.167404e-06
96	0xbc1ef208	-0.009701259
97	0xb17363f8	-3.541798e-09
98	0xbcbe325a	-0.023217369
99	0xbe04b60d	-0.12960072
100	0x3c5b0d5c	0.013369884
101	0xbd2d291c	-0.042275533
102	0xbcf227b0	-0.02955994
103	0x3d2ec19e	0.042665116
104	0x3d03b787	0.032157447
105	0xb7f2b990	-2.8935057e-05
106	0xbce5dc98	-0.028059289
107	0xba462eaf	-0.0007560057
108	0xbcd791d9	-0.026314663
109	0xbd7287ef	-0.059211668
110	0xb89945d2	-7.3086136e-05
111	0xbdbc4ece	-0.09194718
112	0x904c970f	-4.0348277e-29
113	0xbd6c81be	-0.05774092
114	0xb8732805	-5.7972986e-05
115	0x3d30c644	0.04315783
116	0xba4e3468	-0.00078660855
117	0xbdd446d5	-0.10365073
118	0xbb178369	-0.0023119098
119	0xbd976584	-0.073924094
120	0xbb8295a4	-0.0039851237
121	0xb313d578	-3.4420253e-08
122	0xbb0c2599	-0.0021384715
123	0xb7040990	-7.87004e-06
124	0x9d04c9a4	-1.75743e-21
125	0xbbd223d9	-0.006412965
126	0xbdd4c103	-0.103883766
127	0xb4d7750b	-4.013203e-07
128	0xbb7f32b7	-0.003894014
129	0xa913df45	-3.2834212e-14
130	0xbe3ec7d3	-0.18630914
131	0xbaf68163	-0.0018806871
132	0xb7fe6de1	-3.0330326e-05
133	0xbb9319bb	-0.0044891513
134	0xbe411942	-0.18857291
135	0xbbfbdeeb	-0.007686486
136	0xb8fd9600	-0.0001209192
137	0xa8fbdd55	-2.7962585e-14
138	0xbb808d1e	-0.0039230725
139	0xbad0f02a	-0.0015940715
140	0xbb04d22c	-0.0020266874
141	0xb3465354	-4.6176254e-08
142	0xbb572843	-0.0032830394
143	0x3c886fd7	0.016654892
144	0x9b0bb1e8	-1.1555295e-22
145	0xbadd42bc	-0.001688085
146	0xaca6db0d	-4.7423233e-12
147	0xb46a8574	-2.1841498e-07
148	0xbb0e7c40	-0.002174154
149	0xbe731ff8	-0.23742664
150	0xb380f591	-6.005133e-08
151	0xb0c31216	-1.4193258e-09
152	0x3bf7cac9	0.0075620157
153	0xbe00922a	-0.12555757
154	0x3d499ea9	0.049223576
155	0x3db3cc41	0.08779193
156	0xbb7eb998	-0.0038867947
157	0xbd58149d	-0.052754033
158	0xbae36a03	-0.001735032
159	0xb949ef82	-0.00019258077
160	0xa6b70750	-1.2700158e-15
161	0xa7e74b2d	-6.4196885e-15
162	0xbb00b411	-0.0019638578
163	0xbd2726d5	-0.040808517
164	0xbc98aadf	-0.018636165
165	0xbb08e521	-0.0020888525
166	0xba8df440	-0.0010830238
167	0xbd904fe9	-0.07046492
168	0xbb8144c3	-0.0039449646
169	0xbb0614ac	-0.0020459099
170	0xbd86932c	-0.065710396
171	0xaae6aa4b	-4.0974372e-13
172	0xbbce2f68	-0.0062922724
173	0xb59d0e8a	-1.1701643e-06
174	0x3cf2c8be	0.029636737
175	0xb68c9284	-4.189382e-06
176	0xb75c7326	-1.3139832e-05
177	0xbb96a138	-0.0045968555
178	0xbbb400eb	-0.0054932735
179	0xbe01979a	-0.12655488
180	0xbb985471	-0.004648738
181	0xbc7d10f7	-0.015445939
182	0xbb121c44	-0.002229468
183	0xbe3637d1	-0.1779473
184	0xbdb59123	-0.08865573
185	0xbd7e46ab	-0.062079113
186	0xbca84d42	-0.020544652
187	0xb38bf092	-6.5164514e-08
188	0xbe33cc4f	-0.17558406
189	0xbe6ed18a	-0.2332212
190	0xbd122dcc	-0.035688207
191	0xbabc0018	-0.001434329
192	0x3b4903fb	0.0030672539
193	0xb47169e3	-2.2483395e-07
194	0xae06fc6f	-3.069228e-11
195	0xac86d195	-3.8317773e-12
196	0xaf73ca0a	-2.21725e-10
197	0xb82331e2	-3.8908685e-05
198	0xbdce65d9	-0.1007802
199	0xbe0c75f2	-0.13716868
200	0xb3efc7bb	-1.11656355e-07
201	0xbd048655	-0.03235467
202	0xb701a958	-7.728428e-06
203	0xb4a86616	-3.1366716e-07
204	0xb286cf5c	-1.569395e-08
205	0xbe2104ab	-0.15724437
206	0xba28e56b	-0.00064428773
207	0xbd740399	-0.059573743
208	0xbb7906e0	-0.0037998483
209	0xbb721faa	-0.0036945143
210	0xbdebb6c7	-0.115094714
211	0x3c461aae	0.012091322
212	0xbc89c090	-0.016815454
213	0xbafd8f00	-0.0019344985
214	0xb70ed5a0	-8.513598e-06
215	0xbe1dc10b	-0.15405671
216	0xbbbf9d7b	-0.0058476306
217	0x9ef461c1	-2.5874935e-20
218	0xbe357258	-0.177194
219	0xbb7f0414	-0.0038912343
220	0xbb2eb354	-0.002665718
221	0xbe6f9b8b	-0.23399179
222	0xba73f9e8	-0.0009306953
223	0xbd45a33b	-0.04825137
224	0xbe0424f2	-0.12904719
225	0xbeab922c	-0.33509958
226	0xbb416683	-0.0029510565
227	0x3d765fcc	0.060149953
228	0xbd15b54f	-0.036549862
229	0xbb4ec829	-0.003155241
230	0xbbbafa01	-0.0057060723
231	0xbb68156f	-0.0035413166
232	0x9af65ab2	-1.0188974e-22
233	0xa95f51f6	-4.9587037e-14
234	0x3cf168d6	0.029468935
235	0xb253ae2c	-1.23214186e-08
236	0xbcc8b704	-0.024501331
237	0xbce508c8	-0.027958289
238	0xa5a62bab	-2.8826e-16
239	0xbdf8c013	-0.1214601
240	0xbda99b02	-0.082815185
241	0xbd30015d	-0.04297005
242	0x3d8ba8aa	0.068192795
243	0xbd3eabad	-0.04655044
244	0xa1ad64d5	-1.1749626e-18
245	0xbdd62ec8	-0.104581416
246	0xbb8cb4a9	-0.0042939973
247	0xb30ee431	-3.326949e-08
248	0xb5dcf5e1	-1.6462837e-06
249	0xbbff89c1	-0.007798404
250	0xbb4d624b	-0.0031339105
251	0xbb399545	-0.0028317731
252	0xbb30edfa	-0.0026997314
253	0x3ccf9068	0.025337413
254	0xbbc0f6a5	-0.0058887773
255	0x3d99ed3a	0.075159505

8.weight f4 [128, 256]
0	0x8000a78f	-6.0109e-41
1	0x000030e4	1.7539e-41
2	0x00001608	7.903e-42
3	0x8000aaac	-6.1226e-41
4	0x0000418b	2.3512e-41
5	0x800012d7	-6.758e-42
6	0x00000b2a	4.005e-42
7	0x0000350f	1.9034e-41
8	0x00000f9b	5.598e-42
9	0x8000acbc	-6.1965e-41
10	0x800084af	-4.7598e-41
11	0x00000e70	5.179e-42
12	0x80000b02	-3.949e-42
13	0x800090f6	-5.2002e-41
14	0x80000eb9	-5.281e-42
15	0x80000be4	-4.266e-42
16	0x80000a28	-3.643e-42
17	0x800005b6	-2.049e-42
18	0x000000e7	3.24e-43
19	0x0000190b	8.984e-42
20	0x80000596	-2.004e-42
21	0x8000044e	-1.544e-42
22	0x800008f3	-3.21e-42
23	0x0000a6bb	5.9812e-41
24	0x8000079c	-2.73e-42
25	0x800057bf	-3.1477e-41
26	0x000034f7	1.9e-41
27	0x00000c54	4.422e-42
28	0x800039db	-2.0755e-41
29	0x80001252	-6.572e-42
30	0x8000a3e2	-5.879e-41
31	0x00000932	3.299e-42
32	0x80004c40	-2.7353e-41
33	0x000078aa	4.3286e-41
34	0x000022f0	1.2533e-41
35	0x00002757	1.4112e-41
36	0x00002325	1.2607e-41
37	0x0000a871	6.0425e-41
38	0x800001f5	-7.02e-43
39	0x80000957	-3.35e-42
40	0x80009195	-5.2225e-41
41	0x8000224c	-1.2303e-41
42	0x00000d8a	4.857e-42
43	0x80000124	-4.09e-43
44	0x00000fca	5.664e-42
45	0x00008af2	4.9844e-41
46	0x00004aa0	2.677e-41
47	0x000017c4	8.525e-42
48	0x000000cd	2.87e-43
49	0x0000a6b8	5.9807e-41
50	0x00000b6a	4.095e-42
51	0x00000a4a	3.691e-42
52	0x8000418c	-2.3514e-41
53	0x000013d3	7.112e-42
54	0x0000a1ac	5.7997e-41
55	0x800011ce	-6.387e-42
56	0x00001ab6	9.582e-42
57	0x80000f7d	-5.556e-42
58	0x80009730	-5.4236e-41
59	0x800004c7	-1.714e-42
60	0x80009ac2	-5.5517e-41
61	0x00007187	4.0726e-41
62	0x80000afb	-3.939e-42
63	0x00000482	1.617e-42
64	0x00009f24	5.7089e-41
65	0x00008962	4.9284e-41
66	0x80005861	-3.1704e-41
67	0x00001631	7.961e-42
68	0x800013e0	-7.13e-42
69	0x8000067a	-2.323e-42
70	0x00008b5f	4.9997e-41
71	0x0000131a	6.852e-42
72	0x0000a229	5.8172e-41
73	0x000029f2	1.5047e-41
74	0x000005cc	2.08e-42
75	0x000021c1	1.2109e-41
76	0x80005957	-3.2049e-41
77	0x8000155d	-7.664e-42
78	0x80000952	-3.343e-42
79	0x0000073b	2.594e-42
80	0x800020db	-1.1786e-41
81	0x00001d24	1.0454e-41
82	0x80002487	-1.3104e-41
83	0x800014fd	-7.529e-42
84	0x80001156	-6.219e-42
85	0x8000a2c5	-5.8391e-41
86	0x800000bf	-2.68e-43
87	0x00001908	8.98e-42
88	0x00000254	8.35e-43
89	0x80007981	-4.3587e-41
90	0x80008f5e	-5.143e-41
91	0x00008770	4.8586e-41
92	0x8000122a	-6.516e-42
93	0x000079ac	4.3648e-41
94	0x00006fc6	4.0097e-41
95	0x00000def	4.998e-42
96	0x800019e8	-9.293e-42
97	0x80009f76	-5.7204e-41
98	0x00000fc9	5.663e-42
99	0x0000061b	2.19e-42
100	0x00001ae5	9.648e-42
101	0x00002001	1.1481e-41
102	0x800010d6	-6.04e-42
103	0x8000022b	-7.78e-43
104	0x000013fb	7.168e-42
105	0x800096a6	-5.4042e-41
106	0x8000076a	-2.66e-42
107	0x00001191	6.302e-42
108	0x80001111	-6.122e-42
109	0x80001a70	-9.484e-42
110	0x00002d7f	1.6321e-41
111	0x00001c34	1.0117e-41
112	0x000096f9	5.4159e-41
113	0x80000e3e	-5.109e-42
114	0x80008bf4	-5.0206e-41
115	0x000010ee	6.073e-42
116	0x8000a984	-6.0811e-41
117	0x80000e11	-5.046e-42
118	0x000010ce	6.028e-42
119	0x00001560	7.668e-42
120	0x80004d80	-2.7802e-41
121	0x000071b0	4.0783e-41
122	0x0000383a	2.017e-41
123	0x0000a4a1	5.9058e-41
124	0x8000a252	-5.823e-41
125	0x80008e36	-5.1016e-41
126	0x80001c22	-1.0092e-41
127	0x80008deb	-5.091e-41
128	0x00006087	3.4627e-41
129	0x800008cc	-3.156e-42
130	0x8000180c	-8.626e-42
131	0x00008ebe	5.1206e-41
132	0x80001014	-5.768e-42
133	0x00000e3e	5.109e-42
134	0x000016db	8.199e-42
135	0x00001c2f	1.011e-41
136	0x80004f4a	-2.8444e-41
137	0x800007af	-2.756e-42
138	0x8000895b	-4.9274e-41
139	0x0000a6a1	5.9775e-41
140	0x800004f6	-1.78e-42
141	0x8000437d	-2.421e-41
142	0x00001109	6.111e-42
143	0x80000312	-1.101e-42
144	0x0000601b	3.4476e-41
145	0x80008bf3	-5.0204e-41
146	0x8000a1f3	-5.8096e-41
147	0x80008b3b	-4.9946e-41
148	0x8000593f	-3.2015e-41
149	0x80001534	-7.606e-42
150	0x00003381	1.8476e-41
151	0x00008afc	4.9858e-41
152	0x00000bbb	4.208e-42
153	0x00001499	7.389e-42
154	0x00000bab	4.186e-42
155	0x00000f87	5.57e-42
156	0x0000a158	5.7879e-41
157	0x80001604	-7.898e-42
158	0x8000a571	-5.9349e-41
159	0x00000037	7.7e-44
160	0x80001ff3	-1.1461e-41
161	0x80002ddf	-1.6455e-41
162	0x80003ab7	-2.1063e-41
163	0x80000ddb	-4.97e-42
164	0x00000ea9	5.259e-42
165	0x00001f27	1.1175e-41
166	0x00000622	2.2e-42
167	0x80002519	-1.3308e-41
168	0x00000b1f	3.99e-42
169	0x80009e28	-5.6736e-41
170	0x00001d7b	1.0576e-41
171	0x80009416	-5.3123e-41
172	0x800015ce	-7.822e-42
173	0x80002eb8	-1.676e-41
174	0x8000088e	-3.069e-42
175	0x00000817	2.902e-42
176	0x00008768	4.8575e-41
177	0x8000192a	-9.027e-42
178	0x8000007f	-1.78e-43
179	0x80001fff	-1.1478e-41
180	0x8000581e	-3.161e-41
181	0x000013c0	7.085e-42
182	0x80002524	-1.3324e-41
183	0x8000046d	-1.588e-42
184	0x8000117a	-6.27e-42
185	0x00000937	3.306e-42
186	0x00000fb5	5.635e-42
187	0x0000478c	2.5666e-41
188	0x800016e7	-8.216e-42
189	0x000015cf	7.823e-42
190	0x00002100	1.1838e-41
191	0x00008279	4.6805e-41
192	0x80000a46	-3.685e-42
193	0x8000725f	-4.1029e-41
194	0x80006a0b	-3.8041e-41
195	0x00004c63	2.7402e-41
196	0x80009cca	-5.6245e-41
197	0x80009132	-5.2086e-41
198	0x800015f0	-7.87e-42
199	0x80000e44	-5.118e-42
200	0x000065a8	3.6467e-41
201	0x0000160c	7.909e-42
202	0x80009a2c	-5.5306e-41
203	0x80008c11	-5.0246e-41
204	0x00002f15	1.689e-41
205	0x00001916	8.999e-42
206	0x800037de	-2.0041e-41
207	0x00001bc9	9.967e-42
208	0x00001bef	1.002e-41
209	0x00008d66	5.0724e-41
210	0x800010de	-6.051e-42
211	0x80001e4a	-1.0866e-41
212	0x80001206	-6.466e-42
213	0x80000e50	-5.134e-42
214	0x80002d4f	-1.6254e-41
215	0x00000bb1	4.194e-42
216	0x8000a80b	-6.0282e-41
217	0x80003890	-2.0291e-41
218	0x80002299	-1.2411e-41
219	0x00006494	3.608e-41
220	0x0000aca3	6.193e-41
221	0x00000388	1.267e-42
222	0x80004395	-2.4244e-41
223	0x00000662	2.29e-42
224	0x80000c2b	-4.365e-42
225	0x000009bd	3.493e-42
226	0x00005413	3.016e-41
227	0x80000d07	-4.673e-42
228	0x80000565	-1.935e-42
229	0x80008b85	-5.005e-41
230	0x80001ad2	-9.621e-42
231	0x0000686c	3.746e-41
232	0x00006733	3.7021e-41
233	0x80006c95	-3.8952e-41
234	0x00001517	7.566e-42
235	0x8000a4f8	-5.918e-41
236	0x80000a78	-3.755e-42
237	0x000011e8	6.424e-42
238	0x000070bc	4.0441e-41
239	0x0000191b	9.006e-42
240	0x00001d4a	1.0507e-41
241	0x80000750	-2.623e-42
242	0x80001853	-8.726e-42
243	0x80000dd6	-4.963e-42
244	0x800003d9	-1.38e-42
245	0x80001dce	-1.0692e-41
246	0x00000fc7	5.66e-42
247	0x00007d98	4.5055e-41
248	0x0000adce	6.235e-41
249	0x000091b9	5.2275e-41
250	0x00001ab6	9.582e-42
251	0x8000061a	-2.189e-42
252	0x8000a08b	-5.7592e-41
253	0x800003fa	-1.427e-42
254	0x00005035	2.8773e-41
255	0x80001012	-5.765e-42

8.bias f4 [128]
0	0xa8da41eb	-2.423145e-14
1	0xba7fe0c8	-0.0009760973
2	0xbbacc6f8	-0.0052727424
3	0xaf69eb5c	-2.1274843e-10
4	0xbb914ab6	-0.004433955
5	0x3d7b0762	0.061286338
6	0xbb828715	-0.003983388
7	0xb86aea2a	-5.600803e-05
8	0x3dace28b	0.08441647
9	0xb88275cd	-6.220825e-05
10	0xbb493636	-0.0030702478
11	0xb9ae1ed7	-0.00033210844
12	0xb065bd4e	-8.3578733e-10
13	0x3d764a6f	0.06012958
14	0xb51b3bf7	-5.782926e-07
15	0x19d4260f	2.1935658e-23
16	0x3d532a4a	0.051554002
17	0xb2d32108	-2.4578654e-08
18	0xb9fbe00f	-0.00048041387
19	0xb2aa69ff	-1.9838806e-08
20	0xbac44340	-0.0014973655
21	0xbaef0ac7	-0.0018237465
22	0xbbbd20be	-0.0057717254
23	0xb726e054	-9.9466015e-06
24	0xbb268e68	-0.002541447
25	0xba721083	-0.0009234028
26	0xb85c3f60	-5.251111e-05
27	0xbb210115	-0.0024567295
28	0x3e4ef47f	0.20210455
29	0xbb645f97	-0.0034847015
30	0xbbd32f89	-0.0064448756
31	0x9c45d0c9	-6.545168e-22
32	0x3e199bbb	0.15000813
33	0xb8dce49f	-0.000105330015
34	0x9fd2edf0	-8.9332094e-20
35	0x24981424	6.595361e-17
36	0xbb8293e9	-0.0039849174
37	0xbaefdf55	-0.0018300811
38	0x3d97cb7e	0.0741186
39	0xba523301	-0.00080184644
40	0xbba53acd	-0.00504241
41	0xb7ecc042	-2.822292e-05
42	0x8cb46346	-2.779314e-31
43	0xbb43f717	-0.0029901916
44	0xb9508735	-0.00019886794
45	0x3d300c3c	0.042980418
46	0x9b068f21	-1.1130468e-22
47	0xb6deeb00	-6.643473e-06
48	0xb9be36b0	-0.0003628037
49	0xba68428e	-0.0008860015
50	0xa7cc1789	-5.664689e-15
51	0x8b606941	-4.3220015e-32
52	0xb96e7714	-0.00022741809
53	0x3e0e8a25	0.13919885
54	0x3df9a979	0.121905275
55	0xae4080f5	-4.3770283e-11
56	0xba655e54	-0.0008749713
57	0xbb07282d	-0.0020623312
58	0xbab600f9	-0.0013885788
59	0xba84ea6e	-0.0010140666
60	0xafb0a388	-3.213041e-10
61	0xbb0eb4e2	-0.0021775295
62	0x935e54f7	-2.806223e-27
63	0xb797da1f	-1.8102173e-05
64	0xb0864342	-9.768899e-10
65	0x301567ce	5.43534e-10
66	0xb38f1a7d	-6.6637746e-08
67	0xba991cc6	-0.0011681549
68	0x3e544ed6	0.20733199
69	0xaf1c5dd8	-1.4221457e-10
70	0xb31b9304	-3.622246e-08
71	0xba73bc3b	-0.0009297763
72	0xbac2d568	-0.0014864625
73	0xbbabb470	-0.0052400157
74	0xa1e8deb5	-1.5779882e-18
75	0xa430d9c8	-3.8348384e-17
76	0x98e017b8	-5.7926593e-24
77	0xbd5ca37f	-0.05386686
78	0xbc84c5f6	-0.016207676
79	0xba7b1bbe	-0.0009579024
80	0xb667ced6	-3.4542077e-06
81	0xbbde84e6	-0.006790745
82	0xb5cd6b14	-1.5304854e-06
83	0xa4413559	-4.189539e-17
84	0x9ea8d7fd	-1.7877023e-20
85	0xb16a2464	-3.4072167e-09
86	0xb50bb50d	-5.2045e-07
87	0xa00e02ee	-1.2028837e-19
88	0xbbb4db5e	-0.0055193147
89	0xbb8e0fd6	-0.004335384
90	0xb2b71f13	-2.1318135e-08
91	0xab944b6b	-1.0536965e-12
92	0xb7f95978	-2.9724775e-05
93	0xa1ad3449	-1.1736776e-18
94	0xb761b03f	-1.3452081e-05
95	0xaba896f3	-1.1979015e-12
96	0xbb3c39eb	-0.0028721045
97	0xba365547	-0.00069554563
98	0x9973c358	-1.2602255e-23
99	0xae7ec0cb	-5.7924148e-11
100	0xb9d078ad	-0.00039762762
101	0xbb7437c0	-0.0037264675
102	0x3d84505a	0.06460638
103	0xb35b5a23	-5.107189e-08
104	0xa39e2089	-1.7144173e-17
105	0x3d517414	0.05113609
106	0xba920836	-0.0011141363
107	0xb2b12552	-2.0622483e-08
108	0xbc90e04c	-0.017685078
109	0xa53d9da3	-1.6446546e-16
110	0xb84255be	-4.6333058e-05
111	0x3de2cddb	0.1107442
112	0x3e2eda6b	0.17075507
113	0xae5dcfea	-5.0434247e-11
114	0xbadb3d6f	-0.0016726683
115	0x3ea7e475	0.32791486
116	0xa9399f6b	-4.1216525e-14
117	0x3de0cedc	0.10976955
118	0xaf555b51	-1.9404679e-10
119	0xb91be61c	-0.00014867674
120	0x9c624dd1	-7.4877703e-22
121	0xba563444	-0.00081712403
122	0xb8a856e9	-8.0270525e-05
123	0xabbd4a67	-1.3449909e-12
124	0xb66e1c52	-3.5481248e-06
125	0xbb35379e	-0.0027651559
126	0xb88e0c88	-6.773422e-05
127	0xbc6b7b11	-0.014372603
