Models/checkpoint_vel_D1_1000_600.pth (torch, 353077 bytes, 16 tensors)

0.weight f4 [32, 9]
00000000: ad4a f63d ea6a e3bd a5b0 c1be 60e3 883e
00000010: e135 7abf 4e7a 943e 4015 963c 6c17 813e
00000020: 1cb1 78bd 30b9 13be efda 1a3e fc43 583e
00000030: f073 1abe 323b 893f 34ea 19be 1d6c a9bd
00000040: 6192 f9bc 4d23 efbd 02ca bf3e ae82 1abb
00000050: 4c49 b1bc eea4 7ebe c857 f7be 5b47 ddbc
00000060: 9759 3dbe e6d7 403d 4886 053e 9034 d63d
00000070: 5042 8ebe f0d8 973e 6461 b23e 5237 b83e
00000080: 3797 903e 0175 89be a7f3 3dbe 6a90 d5bd
00000090: 5b29 0e3e 6f51 acbd b01f 293e 8287 69be
000000a0: 0d43 8d3f a247 f5bd d5b1 343e a784 853c
000000b0: add1 81be 7d7d 5d3d b2df 1fbe 8d34 1d3d
000000c0: 6a8e 95bf 2d8c 393e d9a7 fabe 2d6b b9bd
000000d0: e167 cd3d 1422 e3bd e77a 5b3e c567 f4bc
000000e0: 4b3c c63e 6e63 e4be 6601 8dbe bca9 1c3e
000000f0: 68ad a2be bca4 6b3e 671a a83e 281a f53d
00000100: c511 b2be c0e9 debe e9aa ae3e aebf acbd
00000110: df3f e2bd b18e b4bd 4cc3 a43d 1113 5c3d
00000120: 7578 183e c370 313e 1f60 3c3e d149 13bf
00000130: 8948 46be c9c1 a33d 3103 82be 0145 8a3d
00000140: 1273 32be 441e 4cbe 0edc 5e3d ff48 31bf
00000150: 1e45 12bf 6227 233e e2a4 37be 772e 213e
00000160: c61d a8bd efbc f9ba 2e97 ff3c 9c51 92be
00000170: 9a14 5fbd 7154 b23f b6e7 87bf 61f0 1ebe
00000180: acde e63d 9f41 0f3e fc38 11be a53a 36bd
00000190: 8ef8 9c3e 02bd dc3d ffba 283f 068e 40be
000001a0: a4ec 71be beb8 89be 1e4d bb3e e1b1 86bd
000001b0: 7b75 323e 0211 e8bc a1fa b5bd d6ea 9b3e
000001c0: 7180 ac3f b471 d9bd 0d38 8bbb 0c42 803e
000001d0: f1bf 873d d265 1eba 97c6 cfbe 8799 f2bd
000001e0: 02e8 f13d 780f 1c3e ac3b de3e 667e 6fbd
000001f0: f564 823e 8e09 85be 1442 87be cc97 583d
00000200: f341 513e 758b b23d 4181 77bf c84c 143c
00000210: 2035 503e 6ff7 cd3d 18ed cc3d b73a 963e
00000220: 83e9 cf3e e59b a93e f460 a4bd e97e 8cbf
00000230: f407 edbd 1325 1c3d bc5c 62be a38b d03c
00000240: a339 14bd 57ce 29be 33b9 9f3a 771a 383d
00000250: 0037 babd 0231 bc3f e1d4 95bd 0bfa 193c
00000260: 7577 4fbd ae09 82bc b050 cebe 3165 5cbe
00000270: 435c 4bbf 3afe 77bd 716d 343d 2614 c5bc
00000280: fb3d 44be 5eb5 5d3e 002c 553e 4415 503d
00000290: a2e8 d0be b908 993e fb0b 523f 6bdd 4fbd
000002a0: be4a 65be 4966 f9bd a805 37be 232f 653d
000002b0: 1284 8b3e fb0e 003f 8fd6 cebd 2ed4 033e
000002c0: 364b 0f3e 8720 193d 2363 73be 010f a93e
000002d0: a990 83bd 2ebc 65bd 0ced a3be f1ac 5fbe
000002e0: 1333 89bf 90c1 2d3d e292 a0be cc11 07be
000002f0: 1d56 84bc 09ce 8abe c700 f03c 822d 9abd
00000300: 342b 56be 884f 913e 1c2d 423f 3c4e 21be
00000310: 022e d53d 71f9 e63d 17b3 913e 4214 9abe
00000320: 052c c03e 6125 2abf 7043 06be ec50 943d
00000330: 2c74 2b3e 45d6 c4bd 48ab c8bb c94b dabc
00000340: b256 a53c 1c73 3dbc e936 823e 6778 073f
00000350: c160 8ebe 15d6 bc3e 9b57 263e e7c2 ce3e
00000360: 7fed 033e 90f9 62be 52b5 5bbe 5aaf 113f
00000370: ea1b eb3e 75df 243e d415 18be 1cc6 50bd
00000380: caea e23c d354 fdbd a589 3cbe 8ac7 993c
00000390: 414f 213f 2dc3 823f 9c98 cdbd 1efc c0bd
000003a0: b211 943e 3c3f 79bd b5b6 a4bd c76a f4bc
000003b0: 9c45 c8be 491b 82bd 1e00 f33e d11f 10be
000003c0: 00ee afbe 9415 0f3d 5070 893d 1393 5fbd
000003d0: 6021 a43d 6200 2f3e f997 39bf e35e 5cbd
000003e0: 4786 ddbd ed14 973e 4ceb af3e 43cf b9bd
000003f0: 583e c53e 8dd7 dd3e 713a 70be 51da 64bf
0.12025962 -0.111043766 -0.37830082 0.26735973 -0.9773846 0.2899956 0.01832068 0.25213182
-0.06071578 -0.14426112 0.15122579 0.21119684 -0.15083289 1.072119 -0.15030748 -0.08272574
-0.030465307 -0.11676655 0.37458807 -0.0023576426 -0.021641396 -0.24867603 -0.4830916 -0.027011564
-0.18491207 0.047080897 0.13039505 0.10459244 -0.27784967 0.29657698 0.34839928 0.35979706
0.28240368 -0.2684708 -0.18549977 -0.104279354 0.13882963 -0.0841397 0.16515994 -0.22805598
1.1036087 -0.119765535 0.17645963 0.016298605 -0.25355282 0.054074753 -0.15612677 0.038380194
-1.1684086 0.18119879 -0.48956183 -0.09053645 0.10029579 -0.11090484 0.21433602 -0.029834637
0.38717875 -0.4460711 -0.2754013 0.15299124 -0.31772923 0.2301206 0.32832643 0.119678795
-0.34779182 -0.43537712 0.3411477 -0.084349975 -0.11047339 -0.08816279 0.080450624 0.05372912
0.148897 0.17328171 0.18396042 -0.5753451 -0.19363607 0.07995946 -0.2539306 0.06751443
-0.17426708 -0.1993342 0.05440908 -0.6925201 -0.57136714 0.15932992 -0.17933992 0.15740381
-0.08208804 -0.0019053499 0.031200018 -0.28577888 -0.054463007 1.393202 -1.0617588 -0.15521385
0.1127294 0.13989876 -0.14181894 -0.04448952 0.30658382 0.10778238 0.65910333 -0.18804178
-0.23625427 -0.2689876 0.36582273 -0.065768965 0.17427628 -0.028328422 -0.08885694 0.30452603
1.3476697 -0.1061739 -0.004248625 0.2505039 0.06628407 -0.0006042394 -0.405812 -0.11845689
0.1181183 0.15240276 0.434049 -0.058470152 0.2546765 -0.25983852 -0.264176 0.05287914
0.20435314 0.087180056 -0.966816 0.009051509 0.20332766 0.1005696 0.100061595 0.2934167
0.40607843 0.3312675 -0.08026305 -1.097623 -0.115737826 0.038121294 -0.22105688 0.025457209
-0.03618778 -0.16582619 0.0012185931 0.044947114 -0.09092522 1.4702456 -0.07315994 0.009397994
-0.050651032 -0.015873756 -0.40295935 -0.21522976 -0.79437655 -0.060545184 0.044049684 -0.02405746
-0.19164269 0.21651217 0.20817566 0.05080153 -0.40802485 0.29889467 0.8204953 -0.05074827
-0.22391793 -0.121777125 -0.17873251 0.055953156 0.272492 0.5002286 -0.100995176 0.12873909
0.13993534 0.037384536 -0.23768286 0.3301926 -0.06424076 -0.056087665 -0.3201679 -0.21843316
-1.0718712 0.042420924 -0.31362063 -0.13190383 -0.016154343 -0.27110317 0.029297246 -0.07528211
-0.20914918 0.2838099 0.7585008 -0.157525 0.10409166 0.11278046 0.28456947 -0.3009358
0.37533584 -0.66463286 -0.13111663 0.07241997 0.16743535 -0.09611181 -0.006123934 -0.026647465
0.020182941 -0.011563089 0.25432518 0.52918094 -0.27808192 0.36882082 0.16244356 0.40383074
0.12883566 -0.22165513 -0.21455887 0.5690819 0.45919734 0.16100867 -0.14852077 -0.05097018
0.027699847 -0.123696946 -0.18411882 0.018771905 0.63011557 1.0215813 -0.100388736 -0.094230875
0.2891975 -0.06085132 -0.08042661 -0.029836072 -0.39115608 -0.063528605 0.47461027 -0.14074637
-0.34361267 0.034932688 0.06710875 -0.05458362 0.08014178 0.1708999 -0.72497517 -0.05380143
-0.10816627 0.29508153 0.34359205 -0.09072735 0.38524127 0.43328515 -0.23459794 -0.89395624

0.bias f4 [32]
00000000: 87d7 8b3d 1942 1a3e 9c68 323b 3bad e93c
00000010: bb29 633e d4c3 aa3e 0237 c53d 0d8b e83c
00000020: 2860 663c 146d 093e 35fe 13bf 65e3 883d
00000030: 45e0 af3e a07c 48bc f13e 763d 339f 16bd
00000040: 946e ff3e 5f87 e13d 2f81 48bd bd61 113f
00000050: 1256 cbbb 20c2 053f 3e87 d13e ed35 f13d
00000060: 72ca 74be e5f0 4ebe f25e 3f3e 2f50 c1bc
00000070: da3a 063e ab2c 473d 53e8 ddbd 848f 39be
0.06828218 0.15064277 0.0027222997 0.028524986 0.22183888 0.3335253 0.096296325 0.028386617
0.014061011 0.13420516 -0.57809764 0.06683997 0.34350792 -0.012236744 0.06011862 -0.036772918
0.49889052 0.11012148 -0.048951324 0.5678976 -0.0062053287 0.52249336 0.40923494 0.11777864
-0.23905352 -0.20209081 0.18688563 -0.023597805 0.13108388 0.048626583 -0.10835328 -0.18121153

2.weight f4 [64, 32]
00000000: 6ea2 a93b 01bc 7a3e e694 93bd 24d9 0ebe
00000010: 35ac 253e a974 14be 7482 afbd ed94 533b
00000020: f548 44bd c97d 13be d6a5 223d c04c 6e3e
00000030: fe56 dbbc fe60 52be 4dda bd3d bf12 cebc
00000040: 2c6f 823d 6ddf 6bbd de36 003e 124d 083d
00000050: 9fcc 95ba d334 97bd 9cb2 8cbc b970 213e
00000060: 832e 1fbc d2e0 8cbd 8afa 463d 32f3 2dbe
00000070: 2da4 96bd 020a 12be 1f80 d43d 9731 1fbd
00000080: d078 b9be 4030 313d 91c9 053a 202a 303e
00000090: d574 863e 7df6 f53d 07f3 09be d5e1 fd3d
000000a0: 7684 09bd a5df e1be bd5a f23d afe2 b53d
000000b0: 9e10 c03d 0048 3dbd bb9d 96be 4693 81be
000000c0: ecaf 74be bd37 60bc 02d7 0ebe fc08 333e
000000d0: d6c9 133d d47a 64be bdb7 eeba 97a5 313e
000000e0: cff3 e53d be63 b53e f29e bd3d 3e93 2b3d
000000f0: 9257 cd3e c3ad 39bd 469d df3c 3588 ee3d
00000100: 5714 5abe ed02 01be a16d 0b3e 38f2 023e
00000110: a9dd 27be a615 08be 5686 b6bd 95b6 1b3e
00000120: 2bf7 99bd 8b2e b4bc d85b fa3e 46d0 ecbd
00000130: 56a3 a23e df00 72bd b8f7 3a3e b1f8 94bd
00000140: 7611 bdbc 64a9 ee3c 270c 203e 0f68 a8be
00000150: e35d 2d3e 4791 de3d 3952 33be 91d2 803d
00000160: 17fa 9d3e ee05 8fbd 1cab f13b 7b47 893e
00000170: dd4a 8fbd 1d03 c9bb e599 463e b0b1 773e
00000180: e266 d5bd a170 c43d c643 b73d 2925 6bbd
00000190: fc3a 6dbe d8a5 3b3e 8469 f23d f719 61bd
000001a0: fffd 863e 4a7e 0f3e 8829 fd3c d300 4ebe
000001b0: d94e c93d 7532 bc3d 97b5 973d 6d3d 83be
000001c0: 951a 2abe 45c5 8b3e 827a 89bd 0c52 cbbd
000001d0: 3745 b93c 3981 acbe 2db3 823e 340e 70bc
000001e0: c4d4 febd d45b 363e ceab 1fbe 15e7 b4ba
000001f0: 45bf 7abd d2c1 78bc 6793 67be b1d9 38be
00000200: 21c5 323e eae7 7a3d 0982 263e ebad b8bd
00000210: df04 093e f15a a0be 258a 6c3e 7427 1e3e
00000220: 4728 19be a72b 863d 49a7 973d 11de 82be
00000230: 8ed9 bebd e73c e3bc 0950 c43d 92e5 0dbd
00000240: a58c a43e f066 f23d bdd1 a6be e283 02be
00000250: 5393 703e a5b1 3ebe 6a05 29bd d4c6 c2bc
00000260: 2ac7 cbbd 9463 46bc 2063 aebd 0dbe 063e
00000270: 53c2 a5bd 1ed5 00bd 65c9 a03e c99b d2be
00000280: 8a38 333e a583 483e bed3 22bd b011 633d
00000290: 057a 853e b221 88be dbc2 debd e37e 3ebe
000002a0: 68eb b33d 28db 4ebd 7a84 4a3c 314c 663e
000002b0: 0ef5 c33d 8f2a 98bc 6c73 e53d ab31 8a3e
000002c0: d39c 293e 2d06 833d eb19 32bd 8d20 a13d
000002d0: 5f63 07be 9d13 053c c52c dcbe e515 353e
000002e0: d6ac 5ebd 1173 d7bd f5e9 99be 2a8e 4dbe
000002f0: e159 ab3c ff1b 553e d155 95bd 52b0 fe3d
00000300: ee19 a13e 22c4 1cbd 1b21 673e 0e82 07be
00000310: 0eeb 42be 35e4 7bbe de91 5abe 9385 1b3d
00000320: 9e8c a3bd bba4 7dbd a2cc 613e 6f6c 07be
00000330: 2708 01bf 5da3 2dbe 1692 263e e9fb d53e
00000340: 0562 f0bd 1e66 23bd c973 ffbc bc04 f73c
00000350: 222f 2b3e 6cf3 0b3d 167f 713d 2a06 79be
00000360: 7f7a c13d 1b7c aabd c3e1 63be 9c3c f7bc
00000370: 6f8f febd 5aa0 9b3a 9886 bb3d 2065 59bc
00000380: 4eb6 bd3d 0f4c cebc 2b21 9b3b bc84 653e
00000390: f8fc 76bd bafe 85be 52ce 103e 0ea6 c4bb
000003a0: b149 973d bf32 32be 7a3b 7ebd 4b5a 3ebe
000003b0: 5bc4 dd3e be09 d03d c93c 3abe 6c9b 4fbe
000003c0: e817 103f f3ea adbc 9cff 603a 4811 383e
000003d0: 0348 c1bd 96a8 dbbc 403b 9abd b086 133e
000003e0: 9832 a73d 6213 50be b095 513d ea79 0bbe
000003f0: 8ff1 963c 049c 19bd 45c8 0abe 9615 03be
0.005176834 0.2448578 -0.072061345 -0.1395002 0.16178973 -0.14497627 -0.08569804 0.0032284812
-0.04792114 -0.14403452 0.039708935 0.23271465 -0.02677488 -0.20544812 0.09270153 -0.025155423
0.063688606 -0.057586122 0.1252093 0.033276625 -0.001142878 -0.07383122 -0.017175011 0.15765657
-0.009715679 -0.068788186 0.048578776 -0.16987303 -0.07355533 -0.1426163 0.10376 -0.038865652
-0.36224985 0.043258905 0.0005103583 0.1720357 0.2626101 0.120099045 -0.13471614 0.1239659
-0.03357359 -0.4411594 0.11833713 0.08881127 0.093781695 -0.046211243 -0.29417214 -0.25307673
-0.23895234 -0.013685164 -0.13949206 0.17483896 0.036081158 -0.2231248 -0.0018212717 0.17348324
0.112281434 0.3542766 0.09258832 0.041888468 0.40105873 -0.045331728 0.027296674 0.11647073
-0.21296822 -0.12598772 0.13616039 0.12787712 -0.1639315 -0.13289508 -0.08912341 0.15206368
-0.07517847 -0.02199485 0.48898196 -0.115631625 0.3176524 -0.059082862 0.1825856 -0.072739966
-0.023079615 0.029133506 0.15629636 -0.3289189 0.16930346 0.10867553 -0.17511834 0.06290162
0.30854866 -0.06983553 0.007375134 0.26812348 -0.06996701 -0.0061344043 0.19394644 0.24188876
-0.10420014 0.09591795 0.08948474 -0.057408486 -0.23167032 0.18324983 0.11836532 -0.054956403
0.2636566 0.14013019 0.030903593 -0.20117502 0.09829492 0.091893114 0.074076824 -0.25632802
-0.16611703 0.27298942 -0.0671282 -0.099277586 0.022616012 -0.3369234 0.25527325 -0.014651824
-0.124429256 0.17808467 -0.15592882 -0.0013801778 -0.061217565 -0.015182929 -0.22614823 -0.18051793
0.17458011 0.061256327 0.16260542 -0.09017547 0.13380764 -0.31319383 0.23099573 0.15444738
-0.14956771 0.06551295 0.07404954 -0.25560048 -0.09318839 -0.027739001 0.09585578 -0.034642763
0.32138553 0.1183604 -0.32581893 -0.12745622 0.234937 -0.18622454 -0.04126493 -0.02377645
-0.09950097 -0.012108702 -0.08515 0.13158436 -0.08093705 -0.031453244 0.31403652 -0.4113448
0.17502037 0.19581468 -0.039752714 0.05543679 0.26069656 -0.26588207 -0.108770095 -0.18603091
0.087851346 -0.050501972 0.012360686 0.22490002 0.09568225 -0.018574981 0.112036556 0.2699102
0.1656373 0.06397662 -0.04348175 0.07867537 -0.13221501 0.008122352 -0.43002906 0.17684133
-0.054364048 -0.10519994 -0.30061308 -0.20073763 0.020916881 0.20811461 -0.07291759 0.12435974
0.31465095 -0.038272984 0.22571222 -0.13233206 -0.19034979 -0.24598773 -0.21344706 0.037969183
-0.07985805 -0.061924677 0.22050717 -0.13224958 -0.50403064 -0.1695685 0.16266665 0.41793755
-0.11737446 -0.03989231 -0.03118314 0.030153625 0.16717198 0.034167692 0.05895909 -0.24318758
0.094471924 -0.083244525 -0.2225409 -0.030180268 -0.124297015 0.001187335 0.09156531 -0.013268739
0.092632875 -0.025182752 0.0047341785 0.22413915 -0.060299844 -0.26170903 0.14141205 -0.0060012406
0.073871024 -0.1740217 -0.06206844 -0.18589132 0.4331387 0.10158108 -0.1818725 -0.20274132
0.5628648 -0.021230197 0.00085830106 0.17975342 -0.09437563 -0.026813786 -0.07530832 0.14406848
0.08163947 -0.20319894 0.051168144 -0.13620725 0.018425731 -0.037502304 -0.1355296 -0.12801203

2.bias f4 [64]
00000000: 25f3 ec3d c8f9 e2bd 8711 bcbe 335c 303e
00000010: d6cf f93d 851f 9fbd 167d f7be 7756 b33c
00000020: f176 88bd b3c3 8b3d 07be 3c3d 3a77 9c3d
00000030: cfc2 89be d754 3abe f3bc 78be d4a0 cfbe
00000040: 976d c33e d952 a4be 916f ed3d 6c7a c0be
00000050: d8bf ab3e 3d2a 3e3d d836 12be b6e0 69bc
00000060: e0e7 92be e8ce dcbe 93e7 ed3d 198d cc3d
00000070: 55aa 633e fdf5 2dbe 090a f9be ed54 3dbe
00000080: 57c9 95bd bd90 543e c3e1 bb3e 4df3 423e
00000090: 1828 b5bc cc5e a4be 3e0d 133e 2fbe 033e
000000a0: 1f10 e9bd 36b8 54be 4a32 e23d 1d63 483e
000000b0: 6d5c 2cbe b700 573e 1cf1 1d3e 31d9 82bd
000000c0: 0ce2 9abd 50d8 2f3e c5ea 133e 9d22 be3e
000000d0: 101a 4d3d 0fbe be3e ad70 acbd fa02 893e
000000e0: 5d8d fd3d 948e 2e3e f1a0 9cbe 158a 173d
000000f0: 450b 03be f536 4a3e a246 a8be 335b 13be
0.11569814 -0.11082798 -0.36732122 0.17222671 0.12197845 -0.07769684 -0.4833762 0.021891816
-0.06663311 0.06824436 0.04607966 0.07639928 -0.2690644 -0.18196426 -0.24290828 -0.4055239
0.38169548 -0.32094458 0.11593545 -0.375934 0.33544803 0.046427 -0.14278734 -0.014274767
-0.28692532 -0.43126607 0.11616435 0.0998785 0.22232945 -0.16988368 -0.4864047 -0.18489428
-0.07313793 0.20758338 0.3669568 0.19038124 -0.022113845 -0.32103574 0.1436052 0.12865518
-0.11380028 -0.20773396 0.11044748 0.19569059 -0.16832133 0.20996366 0.15424007 -0.06389082
-0.07562646 0.1717236 0.14445026 0.37135783 0.050073683 0.37254378 -0.08419929 0.26760083
0.123804785 0.17046577 -0.3059154 0.03699692 -0.12797268 0.19747527 -0.3286639 -0.14390258

4.weight f4 [128, 64]
00000000: eabf b83d e0de 9fbd 65d7 e0bd f483 693d
00000010: e155 89bc 2dcb 403e 41f9 643d 655b 1ebd
00000020: 2539 293c ffbb 35be fa38 a73d 812f 24bd
00000030: 0f3b 9abd 3b08 423d 10c4 753b 9d18 3bbb
00000040: a7c4 aebc 909e e6bd 3b5c 55bd 7301 abbb
00000050: ab37 e53d 2fdc 9c3d 5d8b 19bd f5d3 663d
00000060: 8c1c 7c3b 4564 bbbc 4487 41be 9b63 6fbc
00000070: ce99 42bd 0f2c 2cbe 265e c73d f9dd 61bc
00000080: 4528 693d a6b3 403d 6092 42bd 3f8e 5dbd
00000090: 3f48 8abb 49fa 96bd cb55 1d3e 7042 c93d
000000a0: 82ec d63c 2e6b 50be 5740 a13d c420 f5bb
000000b0: fa87 41bd 77a4 3fbe 505c 3d3d f2cd 8cbc
000000c0: cc91 9c3d fab2 ce3c bc5f 853c 2eba cf3d
000000d0: 59e5 50bd 1755 6c3e e9bf e0bc 5cd6 24bd
000000e0: de8d 033e e33d 423e f0cc cdbc a2b8 ca3c
000000f0: ab6e 213e 7623 e9bd d1e4 17be a57b 0bbe
00000100: 4f6a b3b3 0201 92ac 776c 06b3 972f a5a5
00000110: c6f7 79a3 fcde 4234 740a 0080 b745 4135
00000120: 85b1 1aad 275f dcb3 a7a3 c6b2 8117 fab5
00000130: 7ab9 89b3 3a98 9834 61f5 c0a8 f410 19a0
00000140: d0da 24b5 2ea1 84b1 a375 2aa4 f134 4187
00000150: ac69 0c34 7c18 f1b0 c4b1 469f d3aa 01ab
00000160: 678b e8b1 e18f 3eb5 5293 d0ad 5583 0da5
00000170: ae83 caab ae2c 9db4 7179 f6b1 9b70 61b2
00000180: 389a 3cb0 148c c1aa 46d6 f6aa 8ee3 5497
00000190: d513 0037 9c67 2a36 6805 0080 b077 c2a6
000001a0: dfa3 9190 bba8 7aaa 239a ad35 f78e 1db5
000001b0: bd1f 2f33 5054 4437 e006 1331 fd4a d5b7
000001c0: dfed 8fa5 dd8d cfa3 5ae7 928d f03e d531
000001d0: 99d5 67b4 5fce e7a4 2df6 58ad b745 05b2
000001e0: 005f f1af 688c d9a5 de12 0000 e50c 3eab
000001f0: 80d8 f8aa 2387 be34 7e9b 40a0 eb28 82a7
00000200: 4979 0a3c 2ec9 a73d 34e0 7bbd 551d 82bc
00000210: 74bb fa3b 0044 3c3d 0d48 dfbd b26d e93d
00000220: c1e8 e8bd 37ac a9bd a9ef 903d fcb8 443d
00000230: c2a5 873d 47c8 51bc b651 ebbd e0a5 27bd
00000240: a81f af3d 8329 553d f140 42be fd58 90bd
00000250: 171e abbd f9bb 98bd 9d4a f63c 4a97 73bd
00000260: 9d3d fdbd 3266 b1bc d3b0 9f3a 0aca ae3c
00000270: a83d b83c 266f 983c 3d46 42be d0b3 583b
00000280: 2332 74bd e195 acbd 731c fcbb 933c a43c
00000290: d107 03be b602 78bc f7fe 173d 4ff1 2f3e
000002a0: 37f9 15bd c81e eebc 4061 99bd aa5d 03be
000002b0: e142 503e 166c 0c3d c8b1 183d b83f 8dbd
000002c0: cba8 16be a445 d8bd 846f d53c 277f fe3d
000002d0: 8345 3f3d c966 293e 27c3 2fbe 15df 08be
000002e0: 3b20 4dbe 7cd8 a9bd e187 62bd c5d8 bebd
000002f0: a8ae d63c 49ac abbd b9c4 383d 13ce a6bd
00000300: b430 e43d 0570 10bd 3a01 cd3a 5265 ff3d
00000310: cb0d 413d 106b 543d 986b cb3c 4348 21be
00000320: 6b56 25bc 36c6 5abe 494a 293e 01dd abbd
00000330: dee2 3a3c 9c2b 09be d338 843d a048 ebbd
00000340: 504e 90bd a214 ebbc 4f41 16bc 076f 903d
00000350: b313 9e3d dce8 313d 701e 7dbd 2a36 8d3d
00000360: a9fb 21bd 4178 5a3c 8c80 4a3e bb27 ecbd
00000370: 66de b63d 8e3f 883d 97f2 563d 13db 81bd
00000380: aebc 22be 0878 84bd 5f8d 6f3d cfb8 db3d
00000390: ee3e 543e 2d83 883d ce33 8a3c e2cf e73b
000003a0: dfdb 003e 5d66 cbbd f423 ee3c bff5 e23d
000003b0: acb6 393d 6cc5 12be 5aa3 48be 53b9 16be
000003c0: a900 063d b901 65bb 7260 0b3d 8abe 563d
000003d0: b5d2 6f3d 8edd 58bc 619f 6a3d be0a 6fbd
000003e0: fee4 f9bd 9e77 c1bd 5d38 d9bd 9611 173e
000003f0: 1202 34be 45f2 fa3c fe7d 04be a126 783d
0.0902098 -0.07806182 -0.10978583 0.057010606 -0.016764583 0.18827505 0.05590177 -0.03866138
0.010328566 -0.17747496 0.08165164 -0.040084366 -0.07530796 0.04737113 0.0037500896 -0.0028548606
-0.021334006 -0.11260712 -0.05208991 -0.0052186786 0.111922584 0.07659184 -0.037486423 0.05635448
0.0038469164 -0.02287496 -0.18899256 -0.01461115 -0.04750996 -0.16813682 0.09734754 -0.013785833
0.05692317 0.047046326 -0.047502875 -0.054090735 -0.004220038 -0.07371957 0.15364759 0.09827125
0.026235823 -0.20353386 0.078736 -0.0074807126 -0.047248818 -0.18715082 0.046230614 -0.017188046
0.07644996 0.025231827 0.016281001 0.10142933 -0.050999973 0.23079334 -0.02743526 -0.04024349
0.12847087 0.1896892 -0.025122136 0.024746243 0.15764873 -0.11383717 -0.1483338 -0.13621385
-8.3546745e-08 -4.1496815e-12 -3.1297954e-08 -2.8655185e-16 -1.3550785e-17 1.8148779e-07 -3.75e-42 7.199955e-07
-8.793304e-12 -1.02618564e-07 -2.3124654e-08 -1.8633292e-06 -6.4132976e-08 2.8422966e-07 -2.1422698e-14 -1.2965213e-19
-6.1413175e-07 -3.8600296e-09 -3.6962516e-17 -1.4535264e-34 1.3076959e-07 -1.7542017e-09 -4.2075175e-20 -4.606707e-13
-6.767937e-09 -7.0989887e-07 -2.3712286e-11 -1.2274298e-16 -1.4389512e-12 -2.9276038e-07 -7.1733486e-09 -1.3122327e-08
-6.861316e-10 -3.4380886e-13 -4.384706e-13 -6.878811e-25 7.634012e-06 2.5392283e-06 -1.94e-42 -1.3493896e-15
-5.74449e-29 -2.2263e-13 1.2934364e-06 -5.86951e-07 4.077423e-08 1.1702141e-05 2.1395223e-09 -2.5426498e-05
-2.4967733e-16 -2.2503066e-17 -9.053641e-31 6.206271e-09 -2.1591258e-07 -1.0052989e-16 -1.23328405e-11 -7.75747e-09
-4.3905146e-10 -3.7738642e-16 6.768e-42 -6.7519455e-13 -4.4203877e-13 3.5488583e-07 -1.631448e-19 -3.612661e-15
0.008451768 0.08192669 -0.061493114 -0.015883127 0.0076517407 0.045963287 -0.109024145 0.11397876
-0.11372519 -0.082848005 0.070769615 0.048027977 0.06623413 -0.0128040975 -0.114901945 -0.040929675
0.0855096 0.05204154 -0.18970086 -0.07048223 -0.083553486 -0.07457728 0.030064875 -0.059470452
-0.123652674 -0.021655176 0.0012183435 0.021336574 0.022490337 0.018607687 -0.18972106 0.003306616
-0.059618127 -0.08427025 -0.007693821 0.020048415 -0.1279595 -0.015137365 0.037108388 0.17181896
-0.036614623 -0.029067412 -0.07489252 -0.12828699 0.20338012 0.034282766 0.03727892 -0.06896919
-0.14712827 -0.10560158 0.026054151 0.12426596 0.04669715 0.16543116 -0.17164288 -0.13366349
-0.20031826 -0.08293244 -0.055305365 -0.09318689 0.02620633 -0.0838247 0.045109484 -0.08144774
0.11142102 -0.03526308 0.0015640624 0.12470497 0.047132295 0.051859915 0.024831578 -0.15750222
-0.010091404 -0.21364674 0.16532244 -0.083917625 0.011406628 -0.13395542 0.06456151 -0.114884615
-0.07046187 -0.028696362 -0.009170844 0.07052427 0.07718601 0.043434963 -0.061796606 0.068950966
-0.039546642 0.013334335 0.19775599 -0.115310155 0.08929138 0.06652747 0.052477445 -0.06340613
-0.15892288 -0.06468207 0.05848443 0.10728609 0.20727131 0.06665645 0.016870406 0.007074342
0.12583874 -0.099316336 0.029069878 0.110820286 0.045340225 -0.14333123 -0.19593564 -0.14719133
0.032715473 -0.0034943654 0.034027524 0.052427806 0.058550555 -0.0132364165 0.0572809 -0.058359854
-0.1220188 -0.09446643 -0.106064536 0.14752802 -0.17578915 0.030633101 -0.12938687 0.060583714

4.bias f4 [128]
00000000: ba91 56ba 5869 44b8 9a1b 523e de82 833d
00000010: 0179 67bb 0345 13be b7aa 983b 909a 6bbe
00000020: 14b8 a6bd 3ab6 aebd 5520 ddbc 6811 483d
00000030: 4df2 cfbd 2c46 813d 14b0 47bd 2474 ecbb
00000040: 69ba 893d 74d9 b63d b491 bfbd b421 9bbd
00000050: 3b4e 3abb 08f3 01be d8ac 28be f28f f0bc
00000060: b210 f1bd 2d33 90bc 5ee0 25bb fdbe 5f3d
00000070: a9ae fb3c 0d55 c63d 06cc 7a3e 59c6 393b
00000080: f10e 373e c33e eabd 4785 81bc 1ef5 b4bd
00000090: c696 95be fb56 43be fbf5 b3bd 89d2 82be
000000a0: a85b 04be 65fa 693d b93b c6bc 4f52 8eba
000000b0: c066 993e 900a 943d 16ab 21bd 6054 953d
000000c0: 4b18 303e b929 f0bc d9bd 4a3c 4605 1a3e
000000d0: 9c7d 37bd 1834 0c3e 75de 7cbe 0503 503e
000000e0: 85a6 46be 4f63 edbd ab4e a83d 53de 3bbe
000000f0: 9800 183d b7b0 74be ff57 d1bd e83e cabd
00000100: 3d01 75be cffb a4bd 6296 f3bb 9dcf 95bd
00000110: 1d27 04bb b684 a43d b9c6 9a3d 92d0 80bc
00000120: 77fc e5b9 3462 21be 0783 843d 6d75 9bbd
00000130: 95b4 53a0 24e6 713d 2452 2bbe 646e 11be
00000140: eb19 0bbd 84b8 383e 2173 9ebc d3c5 963d
00000150: 98ef 30be eb33 003e c154 c9bd e899 873e
00000160: 33cc 523e e280 b5b7 5f60 753d 2e69 d0bd
00000170: 8d13 203e 1018 623e 9e0a 73bb e1fe 92bd
00000180: 3caa 87bb 00df 58be a3da f6bd ccfa 813d
00000190: 536c 2e3e ba33 e2bc a8fc 0c3d 57ba fc3d
000001a0: 1245 84be b6fd 3a3d bb96 83b9 d31f 2cbe
000001b0: 1b9f dcbb 1073 4abc ab02 17be e45d 3dbe
000001c0: 7a73 3abd 6300 b2bd bc42 013c bd36 4ebd
000001d0: d4ac ce3c 69fc 0d3d 1b55 8dbb c1b0 fa3c
000001e0: e3c5 323d 7e10 45bc e1c9 403d d98f 11bd
000001f0: 9aec 153d 4fac 893d 3ad5 993c 8425 65be
-0.0008185167 -4.682815e-05 0.20518342 0.06421445 -0.0035319927 -0.14381795 0.0046590227 -0.2300818
-0.08140579 -0.08530851 -0.026992956 0.048844725 -0.10153637 0.06312212 -0.048751906 -0.0072159935
0.06725008 0.08928195 -0.093539625 -0.07574788 -0.0028427977 -0.12690365 -0.16472185 -0.029365513
-0.117707625 -0.017602528 -0.0025310735 0.0546255 0.030722933 0.09684191 0.24491891 0.0028346984
0.17876793 -0.11437752 -0.015810622 -0.08835815 -0.29216594 -0.19076149 -0.087871514 -0.2555125
-0.12925589 0.05712356 -0.0241984 -0.001085827 0.29961205 0.07228577 -0.0394698 0.07291484
0.17196767 -0.02931677 0.012374365 0.15041074 -0.044797525 0.13691747 -0.24694236 0.20313652
-0.1939946 -0.11591207 0.0821813 -0.18346529 0.03710994 -0.23895536 -0.10221862 -0.0987528
-0.23926254 -0.08055841 -0.0074336985 -0.0731499 -0.0020164915 0.08033125 0.075574346 -0.015724454
-0.00043866385 -0.15760118 0.06470304 -0.075907566 -1.7932145e-19 0.05905737 -0.16730553 -0.14202267
-0.033960264 0.18039137 -0.019342007 0.07361951 -0.17278898 0.12519805 -0.09830619 0.2648461
0.20585708 -2.1636897e-05 0.05990636 -0.101763114 0.15632458 0.22079492 -0.0037085186 -0.071775205
-0.0041401666 -0.21178818 -0.120534204 0.06346664 0.1703351 -0.027612556 0.03442064 0.12340229
-0.25833946 0.045652114 -0.0002509857 -0.16809015 -0.006732834 -0.012356535 -0.14747111 -0.18492848
-0.045520283 -0.0869148 0.007889446 -0.05034517 0.025228895 0.034664545 -0.004313124 0.030601861
0.04364575 -0.012027858 0.047067527 -0.035537574 0.036602594 0.067223184 0.018778432 -0.22377592

6.weight f4 [256, 128]
00000000: f729 cfab 1254 0080 3813 0000 424a ad20
00000010: dde7 8292 ad0b 69aa 4002 0080 8384 d823
00000020: bec6 2ba0 df12 0080 9622 3aa6 b33a 0400
00000030: 1aec cd2e a606 0080 92b3 14a0 9892 0000
00000040: 402f 139f a403 0000 9ef3 4010 0bc1 01ae
00000050: b181 0080 f1d4 0180 2908 06ae 1b5b 852a
00000060: 7b93 52a0 17bf 2aa9 5b58 0000 cc06 0080
00000070: d214 019d 9692 2408 50c2 4fa8 7393 05a0
00000080: fb05 0080 4d12 0080 4901 0000 73b2 aaa2
00000090: 9d13 0080 c038 281e 2d9f e62c bcca 95a9
000000a0: c48a ea9e 9aec 33a6 873b 7b81 6703 0000
000000b0: 9644 1fa5 0b13 0700 149b 36a3 e2c6 9ca8
000000c0: 063e 44b3 1a6b 169e 510e 0000 cff3 42a5
000000d0: e604 0080 f7ed 94af eea8 9b9e 7907 0000
000000e0: 8b07 84a1 b306 0080 ed0c 23af d60f 0000
000000f0: 56af 6f00 5899 081c e60c 0000 606a a9a9
00000100: 6b21 919e f526 dda4 8d08 0000 7bf0 cb04
00000110: 8ee8 d496 670d 0000 c906 0080 a6cf 80a4
00000120: e851 0000 b88a 4b99 a4f0 daa1 1810 0080
00000130: a390 0080 cb9b 0480 e836 1eaf f860 81a9
00000140: 4667 11ab c1f4 20ad 49a9 189d c61e eb9b
00000150: 0814 0000 c1e0 a4a2 841f c205 51b9 70af
00000160: 19c6 49a6 3455 0080 c9bd 282c da0f 0000
00000170: 58fc 6bb1 6bf5 4794 0e1d fc21 dab1 b885
00000180: cb38 0000 1bc9 d7b3 17ff 0da7 f20b 0000
00000190: 6c29 ef97 410f 0080 a09c 2cae 1181 7b1f
000001a0: b958 f6ae 2845 b1a8 b0a0 0000 7aa9 1d9d
000001b0: 9e47 3d9f 85b2 47a5 6a1a c4aa f404 1e95
000001c0: 3a13 0080 68ef 00a9 01e8 a10a 9789 1e80
000001d0: 08e4 239c c3df 9503 eb04 0000 3a00 0000
000001e0: 0c05 0080 b16b a6a7 cbd0 13a7 08d8 a926
000001f0: 7606 0080 e623 78a8 0286 c7a8 a060 43a4
00000200: 1cc3 78b5 7ca8 0080 feaf aeab a032 4732
00000210: 6734 0ca9 96cb a031 d4ad 07b1 4bf9 05b2
00000220: fec6 a0b0 a365 71b1 6736 7738 83fe ba33
00000230: f802 1035 5e2b 5ab2 f2f7 d42b 488b 0080
00000240: 77ae d4b2 f949 342b 6aff ed2a 70c6 bcad
00000250: cb7a 212e c46f b9ad c0f2 be35 e861 8637
00000260: c308 feaa 2ef8 84ae bca1 0080 5092 24a9
00000270: 95b0 30b5 86ab a9ac 22b8 4ab7 a996 11a6
00000280: 4498 95b6 d48d 4ea7 e46f 8bae 63e2 0dad
00000290: fe08 0000 04d0 9a34 ad1d d0a2 85b7 aab1
000002a0: 280b c4b0 474b 3fb5 ce6a 66ae 60f5 689c
000002b0: 172f ebac 8439 85b0 00d0 16b1 782e b1b5
000002c0: 0ef4 1db5 2476 63a9 78b8 37af d386 35b0
000002d0: 1db3 97b0 5446 31b6 8d60 e7a4 243a f6b4
000002e0: 4a1b 58b6 ae80 e21b ebcf 11b6 4655 3aa8
000002f0: 1255 2034 463f 72b0 5c4b 192c 41af 16b3
00000300: 7892 72ac 6e76 27b0 f7ff 1da9 cc58 d2b3
00000310: 27ff 4eab 3e8d 31ab a8c7 c42f ba80 9db1
00000320: 4029 0000 e11e e8af 0ce2 15a3 1802 0000
00000330: b266 0000 9897 0baf 694c b936 17c4 37af
00000340: 28f8 37b4 4857 b8b7 fc1b 438a 123f 37b3
00000350: 7f33 b4a6 bb18 a0b1 652c 80b3 1f88 73b7
00000360: 14cf 3cb7 b014 0080 284a 80b4 f2dd d316
00000370: 1ab5 35b6 4444 edb2 e1af b534 9be5 01a5
00000380: bd92 0080 ce2b 9bb1 22e1 1faa 822b 64ac
00000390: 8068 05b6 e87f 16aa d1af 03b0 09e3 6136
000003a0: 5a4e a8b5 f27d f237 37a1 0000 649f 4cb1
000003b0: 8ed5 659e 9904 4db6 ba5b 23ae b439 14b5
000003c0: 5f73 25aa e895 aab2 d999 80b6 1876 869f
000003d0: 8bcf c4ad 49c4 6ab3 53cc 9029 a099 4eab
000003e0: 3fbe eeaa 6633 85b6 18a0 4098 b635 90b4
000003f0: c96e dda8 546c ffb2 c2ca ceae bec1 3a2c
-1.4719882e-12 -3.0159e-41 6.894e-42 2.935648e-19 -8.261312e-28 -2.0698608e-13 -8.07e-43 2.3474888e-17
-1.4550022e-19 -6.77e-42 -6.4578586e-16 3.88399e-40 9.364261e-11 -2.385e-42 -1.2595502e-19 5.2588e-41
-3.1167545e-20 1.306e-42 3.8053e-29 -2.950266e-11 -4.6525e-41 -1.68224e-40 -3.047532e-11 2.3688763e-13
-1.7836489e-19 -3.7913327e-14 3.1696e-41 -2.438e-42 -1.7083772e-21 4.9524266e-34 -1.1532943e-14 -1.1314325e-19
-2.145e-42 -6.565e-42 4.61e-43 -4.6267533e-18 -7.036e-42 8.9055816e-21 6.5546652e-12 -6.652098e-14
-2.4833106e-20 -6.2423755e-16 -4.6144128e-38 1.22e-42 -1.381429e-16 6.4968e-40 -9.899079e-18 -1.7405731e-14
-4.5691216e-08 -7.963082e-21 5.136e-42 -1.6909423e-16 -1.757e-42 -2.7090127e-10 -1.6481131e-20 2.68e-42
-8.946665e-19 -2.403e-42 -1.4829356e-10 5.681e-42 1.0256639e-38 4.5196817e-22 4.627e-42 -7.523561e-14
-1.5366294e-20 -9.590947e-17 3.067e-42 4.7945917e-36 -3.439721e-25 4.808e-42 -2.434e-42 -5.586292e-17
2.9382e-41 -1.0522868e-23 -1.4835952e-18 -5.773e-42 -5.1886e-41 -4.2323e-40 -1.4389523e-10 -5.745572e-14
-5.165767e-13 -9.149293e-12 -2.020455e-21 -3.8897376e-22 7.186e-42 -4.4690257e-18 1.825525e-35 -2.189371e-10
-7.0004356e-16 -3.0565e-41 2.3979588e-12 5.686e-42 -3.4340442e-09 -1.0095333e-26 1.7083875e-18 -1.7368609e-35
2.0373e-41 -1.00482985e-07 -1.9705965e-15 4.285e-42 -1.5455469e-24 -5.472e-42 -3.9247383e-11 5.325808e-20
-1.1202545e-10 -1.968094e-14 5.7644e-41 -2.0866394e-21 -4.0081547e-20 -1.7320983e-16 -3.4834922e-13 -3.1911753e-26
-6.897e-42 -2.862936e-14 1.5591006e-32 -2.804423e-39 -5.42269e-22 8.808806e-37 1.764e-42 8.1e-44
-1.81e-42 -4.6191015e-15 -2.0513535e-15 1.1785286e-15 -2.318e-42 -1.377455e-14 -2.2151555e-14 -4.236573e-17
-9.267112e-07 -6.0441e-41 -1.2412291e-12 1.1594835e-08 -3.1131696e-14 4.679758e-09 -1.9743895e-09 -7.798302e-09
-1.1698089e-09 -3.512789e-09 5.8940055e-05 8.7075954e-08 5.36485e-07 -1.2699131e-08 1.5132325e-12 -4.9965e-41
-2.4759386e-08 6.4051504e-13 4.2276886e-13 -2.146125e-11 3.6716224e-11 -2.1081699e-11 1.4226753e-06 1.6019636e-05
-4.5125543e-13 -6.0467506e-11 -5.802e-41 -3.654222e-14 -6.582207e-07 -4.822312e-12 -1.208301e-05 -5.0511163e-16
-4.458272e-06 -2.8665128e-15 -6.340864e-11 -8.06519e-12 3.226e-42 2.8836087e-07 -5.6409933e-18 -4.968515e-09
-1.4264048e-09 -7.126259e-07 -5.2390807e-11 -7.70795e-22 -6.6843297e-12 -9.69337e-10 -2.1946107e-09 -1.3201052e-06
-5.8842204e-07 -5.0506596e-14 -1.670929e-10 -6.6039013e-10 -1.1037603e-09 -2.6415992e-06 -1.00343844e-16 -4.5863374e-07
-3.2202393e-06 3.747172e-22 -2.1727708e-06 -1.0343565e-14 1.493211e-07 -8.8129004e-10 2.178444e-12 -3.508399e-08
-3.4471575e-12 -6.0922545e-10 -3.5083017e-14 -9.795039e-08 -7.3539997e-13 -6.3079045e-13 3.5794057e-10 -4.583936e-09
1.4798e-41 -4.2222495e-10 -8.1251735e-18 7.51e-43 3.684e-41 -1.2695833e-10 5.522325e-06 -1.6713418e-10
-1.7133482e-07 -2.1975153e-05 -9.394172e-33 -4.266537e-08 -1.2503967e-15 -4.6594244e-09 -5.96854e-08 -1.4515622e-05
-1.1253887e-05 -7.421e-42 -2.3895814e-07 3.4228956e-25 -2.7076517e-06 -2.7621475e-08 3.3841846e-07 -1.126676e-16
-5.264e-41 -4.5160737e-09 -1.4200146e-13 -3.24249e-12 -1.9879371e-06 -1.3367053e-13 -4.790737e-10 3.3659765e-06
-1.2539779e-06 2.8907296e-05 5.7833e-41 -2.977651e-09 -1.2167321e-20 -3.0550057e-06 -3.714338e-11 -5.5218266e-07
-1.4694971e-13 -1.9858774e-08 -3.8326075e-06 -5.694658e-20 -2.2374788e-11 -5.466089e-08 6.430329e-14 -7.33991e-13
-4.2409303e-13 -3.9696924e-06 -2.4896245e-24 -2.686117e-07 -2.4583974e-14 -2.9735169e-08 -9.4038125e-11 2.6539738e-12

6.bias f4 [256]
00000000: 8e6b 80b7 95ac 96ba 9bc4 2abd 0c37 9b93
00000010: b87e e2bb 31b9 3aba 85b9 97bc dcf0 48bb
00000020: aec1 023c 2d0c 18b7 3956 b4b5 2e7d e5b4
00000030: c5b5 7ebd 58dc 0ab7 2b1b e3bd e933 8abe
00000040: f1a9 0b3c 0874 2f3b d74a 87bb fe64 82be
00000050: 6c16 02b7 0827 3eb6 de06 41be 884a 0abb
00000060: 8717 393c 1097 b8bb 6d16 0693 df10 09bd
00000070: e652 04be bea4 55bd 648a 93b7 418d b8b6
00000080: 1e61 68ab 5b74 09bb a995 20ba 3a34 09bd
00000090: f10c 8fbd 4a72 10ba 47ab 13bd 9be9 dcb9
000000a0: 54a6 078f e2b8 b4bb cbc7 67a3 3e3e 123c
000000b0: c1d4 acba 79f5 95ba 3407 519f 775d 76bd
000000c0: 2934 d2bc eb94 35bb 11b6 60bd 1886 ecbd
000000d0: 33c9 77bb e696 18be 3558 9bb9 0f63 f3b4
000000e0: 254d 92bd c874 45bc 804d a2b5 d5b6 adbd
000000f0: a8de 92bb 56fb 0aba f70d 14b8 5341 133b
00000100: 8284 22b6 7239 8f97 e344 8fbb f6a3 2b3d
00000110: 548f 6eba c413 57bd 186a 3cad c685 93bb
00000120: 2183 5ab9 95ce dfba 2cb9 32b9 4aff 95bd
00000130: 8e2c 8aa0 fc21 cebc aba3 ad3c a5b9 52b1
00000140: 5f63 f6bb 97eb 81b4 6b72 f0bd 7795 84bd
00000150: a0af c8bd 79ae b5a0 5075 fcbc 507f a7bd
00000160: ae58 57bd 35a3 45b4 9b77 19bb c638 31b8
00000170: 048d b23c 9083 31bb 7b2c 2abe 07c4 73b8
00000180: 43bf e73a 3144 0795 fa34 18bd 477b 03be
00000190: a4dd 9b3b 8f3e 16bd 18d7 04bd 91ac 1a3d
000001a0: 9cf9 543c 6138 299d 3511 f8bc 5498 84b7
000001b0: ff42 f5bb 9379 8fbd 87d7 faba 48d4 9cbd
000001c0: 7bcb 83bb c19d 4cbd d581 e7b3 c266 103d
000001d0: e6c2 f0ba 01ca 4abd 3395 8cb7 c1c7 6fbd
000001e0: a121 33bb 54b5 f9ac 59fb 00b6 8a53 57b8
000001f0: 622a dfb5 03bb 0399 ba56 07be 93f6 1fb7
00000200: 9b56 1fae 88c1 e5b9 5a92 1abe 0cb1 24ad
00000210: 557f 5bb3 7d04 a0b7 6c73 47be 8f9c f1ba
00000220: c526 a194 bf87 3dbb 4b87 1795 edfa 82bd
00000230: 1c33 3cb6 39e8 b7a9 3117 2fba 330c 8b3c
00000240: 5972 11b9 8b55 e1a5 ae30 218a 1d3c 6faf
00000250: 710d a9bb b3b3 52be f604 86bb d366 50bb
00000260: ef92 8b3c 2a0f d7bd 0b00 473d 7d1c bd3d
00000270: 28b8 baa5 0cd3 59bd 9fd4 21bb fac0 6cbc
00000280: 8d31 fcb9 ea3e 18ba ded9 b0bb 1659 3dbd
00000290: 9c9d 9fbc 3e49 7bbc c5d6 beb1 fc5b b4bd
000002a0: 69af d3bb e650 3296 afec 7abd 7a27 a1bb
000002b0: 9aa1 7abb 09da 55b4 1a18 863c 2e3d bfba
000002c0: 1c12 0ba1 a874 1985 e95c 26bc d2ad cebd
000002d0: 1a45 61a7 6386 743b 1b8b 2baf b4ea 24be
000002e0: 4f4a cbbd f4db b1bd 90af d3bc 30bf 68a8
000002f0: ac63 1bbe 7da4 54be 2ecd 44bd 1d5f b5bb
00000300: 0fc2 843a a116 b9bb 30d3 d5b9 31b6 e5bb
00000310: ec10 3fba 301a 82bb 3d6b bdbd 10f2 2abe
00000320: 16f5 0f89 5d21 1cbd fac4 f3ba fbe2 9bba
00000330: 93dd 48ba 82c9 1dbe 5fe1 20bb e8e6 22bd
00000340: 271d 29bb 6d6d 3eb9 0915 e2bd dcd9 713b
00000350: f2bf bcbc e00c 97bb 491e 698c 2a9e 17be
00000360: ca82 90bb 5813 fda4 e920 35be 29f3 8aba
00000370: 3be3 e2bb c0be 4cbe 468c e5b8 ec08 9dbd
00000380: c5c0 00be 58e9 98be f8c0 9dbb 3c4a 743d
00000390: efb8 e5bc 5d09 9eae 4af4 76bb 8737 c2bd
000003a0: 8b4e 33ac 8599 89ad 2fdb e83c 6551 49bb
000003b0: a221 30bd 780b d1bc 8624 05bb b3ae debd
000003c0: 9f0a 92bd 78b7 5cbd e919 943d dd39 0dbd
000003d0: 1c6c 0dbb c9dd 00be 02fc ad3c 5217 f2b9
000003e0: 4cc7 2bbb 7924 4fbb b521 75bc 9d57 75b9
000003f0: 8ca4 63b7 4766 803c 21d9 a9a9 0c56 743d
-1.5308873e-05 -0.0011495525 -0.041691404 -3.918178e-27 -0.0069120787 -0.00071229326 -0.01852108 -0.0030661141
0.007980747 -9.062741e-06 -1.3436139e-06 -4.2745654e-07 -0.062185068 -8.276744e-06 -0.11089166 -0.2699273
0.008524404 0.002677204 -0.0041287947 -0.25467676 -7.753824e-06 -2.8334925e-06 -0.18850276 -0.0021101553
0.011297113 -0.0056332424 -1.6924235e-27 -0.033463355 -0.12922248 -0.052159064 -1.7588209e-05 -5.5000714e-06
-8.2557735e-13 -0.0020973894 -0.0006125817 -0.033497073 -0.0698489 -0.00055101945 -0.036052015 -0.0004213572
-6.6880475e-30 -0.005515204 -1.2564843e-17 0.0089259725 -0.0013185964 -0.0011440954 -4.426343e-20 -0.06014773
-0.025659638 -0.002770717 -0.054861132 -0.11549014 -0.0037809133 -0.14901313 -0.00029629623 -4.5334352e-07
-0.071436204 -0.012051769 -1.2092496e-06 -0.08482138 -0.004482109 -0.0005301734 -3.5298955e-05 0.0022469356
-2.421701e-06 -9.25566e-25 -0.0043722256 0.041904412 -0.0009100337 -0.052509084 -1.071012e-11 -0.004502031
-0.0002083895 -0.0017075116 -0.00017044385 -0.07324083 -2.3407593e-19 -0.02516269 0.021196207 -3.0664549e-09
-0.00751917 -2.4199537e-07 -0.117405735 -0.06473821 -0.09799123 -3.077805e-19 -0.030817658 -0.0817858
-0.052574806 -1.8406429e-07 -0.0023417238 -4.2252963e-05 0.021795757 -0.0027086474 -0.1661853 -5.811828e-05
0.0017680902 -2.7316826e-26 -0.037159897 -0.12839995 0.004756646 -0.036680754 -0.032431692 0.03776223
0.012998965 -2.239611e-21 -0.030281642 -1.580656e-05 -0.007484793 -0.0700561 -0.0019137718 -0.07657677
-0.0040220595 -0.049955133 -1.0780392e-07 0.035254247 -0.0018368631 -0.049509052 -1.6758777e-05 -0.05854011
-0.0027333277 -7.097137e-12 -1.921979e-06 -5.1337796e-05 -1.662713e-06 -6.810308e-24 -0.13216677 -9.534549e-06
-3.6229336e-11 -0.00043822476 -0.15094891 -9.361633e-12 -5.110572e-08 -1.9075576e-05 -0.19477624 -0.0018433499
-1.6272137e-26 -0.0028920022 -3.0600934e-26 -0.063955165 -2.8043933e-06 -8.167117e-14 -0.0006679176 0.01697359
-0.00013870875 -3.9089244e-16 -7.761024e-33 -2.175828e-10 -0.005159073 -0.20576362 -0.004089947 -0.003179957
0.017037837 -0.10500939 0.048584025 0.09233949 -3.2390646e-16 -0.053179786 -0.0024693382 -0.014450306
-0.00048102104 -0.0005807715 -0.0053970655 -0.046227537 -0.019484334 -0.0153372865 -5.5541443e-09 -0.08806607
-0.0064601195 -1.4404253e-25 -0.061260875 -0.004918036 -0.0038243295 -1.9916492e-07 0.016368914 -0.0014590377
-4.7119e-19 -7.215452e-36 -0.010153987 -0.10091747 -3.1262483e-15 0.0037311546 -1.560178e-10 -0.16105157
-0.099262826 -0.08684531 -0.02584055 -1.2920044e-14 -0.1517474 -0.20765872 -0.048047237 -0.00553502
0.0010128635 -0.0056484495 -0.00040783873 -0.0070102443 -0.00072885933 -0.003970407 -0.0924897 -0.16693902
-1.7328238e-33 -0.038117755 -0.0018598132 -0.0011893207 -0.00076624117 -0.154089 -0.0024548394 -0.03977099
-0.002580473 -0.00018160576 -0.110391684 0.0036903536 -0.023040745 -0.004609689 -1.7958781e-31 -0.14806429
-0.0044101225 -1.0975403e-16 -0.17688335 -0.0010601032 -0.0069240606 -0.1999464 -0.00010945699 -0.07667717
-0.12573536 -0.29865527 -0.0048142634 0.059641108 -0.028042285 -7.1866714e-11 -0.0037682229 -0.09483247
-2.548103e-12 -1.5643273e-11 0.028424827 -0.003071868 -0.043000825 -0.025518164 -0.002031596 -0.10873165
-0.07130932 -0.053885907 0.072315045 -0.03447901 -0.002157933 -0.12584604 0.02123833 -0.00046175212
-0.002621132 -0.0031607433 -0.01496165 -0.00023397659 -1.3568566e-05 0.01567377 -7.5427735e-14 0.059652373

8.weight f4 [128, 256]
00000000: 5e6f 0000 4491 0000 7f19 0000 3f61 0080
00000010: e056 0000 6304 0000 cf0a 0000 6c2a 0080
00000020: bb17 0000 ea07 0000 3279 0000 7827 0080
00000030: 1916 0000 58ad 0080 e712 0000 cd1b 0080
00000040: 5407 0080 cb02 0080 55a9 0080 df0d 0000
00000050: b001 0080 c902 0000 7503 0080 0e42 0000
00000060: 7810 0000 e905 0080 6ca3 0080 7f02 0000
00000070: 0d05 0000 0a01 0000 e126 0000 81a8 0000
00000080: 5336 0080 2250 0080 932c 0080 e319 0080
00000090: c101 0080 62ab 0000 4b1e 0080 a319 0080
000000a0: 8f96 0080 196c 0080 0d96 0080 f30c 0000
000000b0: 619a 0080 ca10 0080 4d84 0000 7103 0080
000000c0: 2c0d 0080 8b35 0000 910a 0080 2b0c 0000
000000d0: 189f 0080 a910 0080 4e92 0000 6603 0000
000000e0: f512 0000 f20c 0080 6086 0080 b30b 0000
000000f0: 9e0f 0000 2a69 0080 b051 0000 261b 0000
00000100: 8f7f 0080 ff9c 0080 6006 0000 2019 0000
00000110: db84 0080 410b 0000 7f76 0080 3414 0000
00000120: 7417 0080 1104 0080 206e 0000 970b 0080
00000130: 3486 0000 3302 0000 1d25 0080 c980 0080
00000140: ab07 0080 3a51 0080 0605 0080 4108 0080
00000150: 9212 0000 eca3 0080 4d1c 0000 a205 0000
00000160: 5915 0080 0b51 0080 ce68 0080 7474 0080
00000170: 780a 0080 2727 0080 fb13 0000 0194 0000
00000180: 7720 0000 b266 0080 db00 0000 b90e 0000
00000190: 8903 0080 251b 0080 4019 0000 271a 0080
000001a0: 9513 0000 d0ab 0000 6c0f 0080 6237 0080
000001b0: b504 0000 cc15 0080 4c9f 0080 7924 0000
000001c0: 3186 0080 cb05 0000 3a29 0000 fa13 0000
000001d0: 6c45 0080 ef2c 0000 5f07 0080 9417 0080
000001e0: 229e 0000 0e63 0000 2c60 0080 3b37 0080
000001f0: 9371 0080 69ab 0080 1504 0080 8b13 0000
00000200: 1b96 0080 4ba8 0080 f707 0080 cc23 0000
00000210: 3e4b 0000 4f10 0000 0210 0080 639b 0000
00000220: 1204 0000 b06e 0000 3391 0080 0210 0000
00000230: b311 0000 ec03 0000 735c 0000 3b0f 0080
00000240: 2511 0080 2122 0000 c116 0000 2f31 0080
00000250: f5a4 0080 6c05 0000 770c 0080 6b4c 0080
00000260: 390d 0080 1924 0080 cf00 0080 b70c 0080
00000270: 9246 0080 1d0e 0000 fc3a 0080 1308 0080
00000280: df0e 0000 1468 0080 fa00 0000 540f 0080
00000290: 7d09 0000 9f1d 0080 0712 0080 c314 0080
000002a0: 6fab 0000 fc8d 0080 f31a 0080 2395 0080
000002b0: 5903 0080 2fa1 0080 1305 0000 1220 0000
000002c0: 8b3c 0080 0c2f 0000 8005 0000 cd02 0000
000002d0: 1ba5 0000 4815 0000 67aa 0080 bf1c 0000
000002e0: 0818 0000 632b 0000 8a17 0080 a398 0000
000002f0: 7605 0080 ca21 0080 9d15 0000 ad24 0080
00000300: c120 0080 38a6 0080 4584 0000 5881 0080
00000310: 3f3d 0000 f5a2 0080 5b14 0000 6d17 0080
00000320: fc05 0080 261a 0080 142e 0080 267e 0080
00000330: 7703 0000 ff0a 0080 3da3 0080 6b1f 0000
00000340: e41e 0000 c4a5 0080 1f0e 0080 a91a 0000
00000350: d703 0080 6b04 0080 4d94 0000 c219 0000
00000360: 4788 0000 d46e 0080 2710 0000 b64a 0000
00000370: d028 0080 0917 0080 2d66 0080 8a07 0000
00000380: fa12 0080 d917 0000 d394 0000 680c 0080
00000390: 451d 0000 be92 0080 899f 0080 7b03 0080
000003a0: 3e07 0080 e89c 0000 bc37 0000 918a 0000
000003b0: 5f15 0080 0c1f 0080 d96b 0080 6e0d 0000
000003c0: 2c1c 0000 d704 0000 3511 0080 0704 0080
000003d0: cf06 0080 1104 0080 d41d 0000 058d 0080
000003e0: 9e93 0080 f353 0080 8402 0080 7a97 0000
000003f0: 788c 0000 230c 0000 ca39 0000 d218 0000
3.9951e-41 5.2111e-41 9.146e-42 -3.4885e-41 3.1165e-41 1.574e-42 3.877e-42 -1.5218e-41
8.513e-42 2.839e-42 4.3477e-41 -1.4159e-41 7.927e-42 -6.2184e-41 6.781e-42 -9.973e-42
-2.629e-42 -1.002e-42 -6.0745e-41 4.976e-42 -6.05e-43 9.99e-43 -1.24e-42 2.3696e-41
5.908e-42 -2.12e-42 -5.8625e-41 8.95e-43 1.812e-42 3.73e-43 1.3947e-41 6.0448e-41
-1.9488e-41 -2.8746e-41 -1.599e-41 -9.286e-42 -6.29e-43 6.148e-41 -1.0867e-41 -9.197e-42
-5.401e-41 -3.8778e-41 -5.3828e-41 4.645e-42 -5.5381e-41 -6.023e-42 4.746e-41 -1.235e-42
-4.725e-42 1.9208e-41 -3.79e-42 4.365e-42 -5.7072e-41 -5.977e-42 5.2484e-41 1.219e-42
6.8e-42 -4.644e-42 -4.8205e-41 4.197e-42 5.602e-42 -3.7726e-41 2.9304e-41 9.739e-42
-4.576e-41 -5.632e-41 2.287e-42 9.013e-42 -4.766e-41 4.037e-42 -4.2508e-41 7.248e-42
-8.413e-42 -1.459e-42 3.9505e-41 -4.158e-42 4.8143e-41 7.89e-43 -1.3314e-41 -4.62e-41
-2.751e-42 -2.9139e-41 -1.802e-42 -2.961e-42 6.662e-42 -5.8804e-41 1.0152e-41 2.02e-42
-7.658e-42 -2.9073e-41 -3.7597e-41 -4.1776e-41 -3.755e-42 -1.4045e-41 7.168e-42 5.3094e-41
1.1646e-41 -3.684e-41 3.07e-43 5.281e-42 -1.268e-42 -9.738e-42 9.058e-42 -9.382e-42
7.025e-42 6.1635e-41 -5.532e-42 -1.9868e-41 1.689e-42 -7.819e-42 -5.7145e-41 1.3084e-41
-4.8139e-41 2.078e-42 1.479e-41 7.166e-42 -2.4904e-41 1.6119e-41 -2.644e-42 -8.458e-42
5.6727e-41 3.5534e-41 -3.45e-41 -1.9813e-41 -4.0743e-41 -6.149e-41 -1.464e-42 7.01e-42
-5.3848e-41 -6.0372e-41 -2.857e-42 1.2841e-41 2.6992e-41 5.85e-42 -5.743e-42 5.5742e-41
1.46e-42 3.9707e-41 -5.2088e-41 5.743e-42 6.349e-42 1.407e-42 3.3165e-41 -5.464e-42
-6.15e-42 1.2243e-41 8.163e-42 -1.7644e-41 -5.9175e-41 1.945e-42 -4.472e-42 -2.7414e-41
-4.743e-42 -1.295e-41 -2.9e-43 -4.561e-42 -2.5316e-41 5.063e-42 -2.116e-41 -2.896e-42
5.335e-42 -3.7336e-41 3.5e-43 -5.499e-42 3.404e-42 -1.0626e-41 -6.467e-42 -7.448e-42
6.1499e-41 -5.0934e-41 -9.668e-42 -5.35e-41 -1.201e-42 -5.7822e-41 1.82e-42 1.1505e-41
-2.1719e-41 1.6877e-41 1.973e-42 1.005e-42 5.9229e-41 7.634e-42 -6.1129e-41 1.0312e-41
8.621e-42 1.5564e-41 -8.444e-42 5.4756e-41 -1.959e-42 -1.2121e-41 7.753e-42 -1.3157e-41
-1.175e-41 -5.9628e-41 4.745e-41 -4.64e-41 2.1971e-41 -5.8458e-41 7.302e-42 -8.404e-42
-2.147e-42 -9.38e-42 -1.653e-41 -4.5254e-41 1.243e-42 -3.945e-42 -5.8559e-41 1.127e-41
1.1081e-41 -5.9466e-41 -5.066e-42 9.564e-42 -1.377e-42 -1.585e-42 5.32e-41 9.24e-42
4.8887e-41 -3.9758e-41 5.794e-42 2.6801e-41 -1.4641e-41 -8.263e-42 -3.6654e-41 2.705e-42
-6.808e-42 8.555e-42 5.3388e-41 -4.45e-42 1.05e-41 -5.2641e-41 -5.723e-41 -1.249e-42
-2.598e-42 5.6287e-41 1.9994e-41 4.9708e-41 -7.667e-42 -1.1138e-41 -3.8688e-41 4.818e-42
1.0106e-41 1.736e-42 -6.173e-42 -1.445e-42 -2.442e-42 -1.459e-42 1.07e-41 -5.0588e-41
-5.2955e-41 -3.0115e-41 -9.02e-43 5.434e-41 5.039e-41 4.354e-42 2.0731e-41 8.904e-42

8.bias f4 [128]
00000000: 892a eda2 f2d9 8cb0 039d 05a4 75c2 c6ad
00000010: e7b3 cfaf 37e6 653d e489 118a fcfe 36b4
00000020: 47ab d73d 525c 48b8 fb71 c7b0 d416 40b8
00000030: b41c 8398 a190 6d3d 425e 8d8f e6d7 12b8
00000040: 735d 593d 68a6 4cbb 7e86 329c 9d49 8bbb
00000050: fb57 a1ba 940d c9af b5d4 aaba 2ac1 cdb0
00000060: 4fcf 25b8 efa6 0fbb 002d 7dba b29c 88ba
00000070: ffe9 4a3e 242c f2aa c2f3 80b6 d25a 23ae
00000080: 956a 083e d132 74b6 9123 bfb8 67ae b7ba
00000090: c899 c2b8 8a88 e5ba 1a73 db3d 811e 10ae
000000a0: 1f76 73b9 ce7f 96b9 678a 4c88 be34 f0b7
000000b0: 9050 63a9 b047 433d 8020 87ba ec33 16b7
000000c0: 2d50 0fb0 492f 9390 49af 38b4 e01e 5bbb
000000d0: 99f7 73b2 10f7 153e c561 043e 4283 eda4
000000e0: 15d9 bbb7 c0b3 30a4 681a dfa2 2623 90b8
000000f0: 64b1 3cb9 0dcb c7b6 df5e 7fba c45a b6b0
00000100: 6942 f28c b83f 25af be01 6eb9 5d95 2aab
00000110: ee46 533e 6d1e 6eb7 f918 3fb9 5c16 01ba
00000120: 57a1 e4b7 0339 ddbb 6ad7 aeb6 94df 84ba
00000130: 67d6 8491 d7fd 70bd 94ba 85bc 13c7 10b7
00000140: b311 98b9 ca48 37ba ecc8 d1b7 da12 7db7
00000150: b068 e8ba 7d48 73a2 d0a4 25bb edf1 23b1
00000160: 40de 15b4 a5f1 56ba 15c5 c1b7 4c9d b0a9
00000170: f1b3 2cb8 4a9f 85bb cfcd edba 71f4 23bb
00000180: 0bda 5da3 7ed1 9aba 84ea b53a 7720 79bb
00000190: 67a1 37bb 0665 a4b9 ce7b 993d 04c4 6cbb
000001a0: 9ade e6a0 0920 4c3d c5d0 04bb f3bc 4fb8
000001b0: 3037 8dbc b959 cbbb abc1 02a4 7e8e f53d
000001c0: c97b 353e a4c0 31a4 278f e93d d961 8c3e
000001d0: 19d5 09b7 0cab e13d 4bd3 9aae d2bf 20b8
000001e0: e357 edba 9b8a bba7 578e 9bba b1a9 17bb
000001f0: c54f 3ea5 7fcd acb6 8856 f2ba 6f6e 81bc
-6.4284015e-18 -1.0248284e-09 -2.8972772e-17 -2.259635e-11 -3.778091e-10 0.056127753 -7.0074304e-33 -1.7042834e-07
0.105307154 -4.7769696e-05 -1.4511551e-09 -4.5797628e-05 -3.389169e-24 0.057999257 -1.393998e-29 -3.5010184e-05
0.053067636 -0.0031227116 -5.9069087e-22 -0.0042507187 -0.0012309545 -3.6571335e-10 -0.0013033362 -1.4970614e-09
-3.9532137e-05 -0.0021919569 -0.00096578896 -0.0010422675 0.19815825 -4.3018464e-13 -3.8430744e-06 -3.7142574e-11
0.13321908 -3.6388412e-06 -9.1142145e-05 -0.0014013768 -9.279285e-05 -0.0017512005 0.10715313 -3.2768902e-11
-0.0002321829 -0.0002870545 -6.155171e-34 -2.863479e-05 -5.0474002e-14 0.04767579 -0.0010309368 -8.952786e-06
-5.2137034e-10 -5.805413e-29 -1.7200104e-07 -0.003343515 -1.4200759e-08 0.14645028 0.12927921 -1.03004725e-16
-2.2393224e-05 -3.831617e-17 -6.047223e-18 -6.873002e-05 -0.0001799516 -5.9543004e-06 -0.0009741615 -1.326804e-09
-3.7325973e-31 -1.50293e-10 -0.00022698098 -6.0603416e-13 0.20632526 -1.41929895e-05 -0.00018224482 -0.0004924291
-2.7254848e-05 -0.006751181 -5.2106816e-06 -0.0010137432 -2.0958064e-28 -0.05883583 -0.016324319 -8.629419e-06
-0.00029004886 -0.00069917424 -2.5008303e-05 -1.5084364e-05 -0.0017731395 -3.2971016e-18 -0.0025275238 -2.385714e-09
-1.395756e-07 -0.000819946 -2.3099166e-05 -7.843257e-14 -4.117558e-05 -0.0040778266 -0.0018143001 -0.0025017525
-1.2026606e-17 -0.0011811701 0.0013879095 -0.0038013735 -0.0028019787 -0.00031355786 0.07494317 -0.0036127577
-3.911082e-19 0.04983524 -0.0020266038 -4.952862e-05 -0.01723823 -0.006205764 -2.83533e-17 0.11990069
0.17723002 -3.854393e-17 0.11404257 0.27418402 -8.215452e-06 0.11018953 -7.0406424e-11 -3.832562e-05
-0.0018107857 -5.2053203e-15 -0.0011867982 -0.0023141915 -1.65069e-16 -5.1499223e-06 -0.0018488923 -0.01579973
