Models/checkpoint_vel_D2_1000_200.pth (torch, 353077 bytes, 16 tensors)

0.weight f4 [32, 9]
000000 27 36 d9 3d 99 b2 f0 bd db 4b af be 45 0a 0f 3e
       0.10606032 -0.11752815 -0.3423756 0.13968761
000010 4e 10 91 bf a9 f4 80 3e f0 60 87 3c 49 f2 88 3e
       -1.1333101 0.2518666 0.016525716 0.2674735
000020 78 70 2c bd f1 a7 c9 bd b4 83 23 3e aa 5e 83 3e
       -0.042099446 -0.098464854 0.1596821 0.2565816
000030 5f 4b a6 bd 0f a6 a2 3f 95 89 9a bd ef 2c 36 bd
       -0.08119845 1.2706927 -0.07545773 -0.044476446
000040 b9 9e a2 bd 9d 89 93 bd 43 30 be 3e 71 63 20 bc
       -0.0794043 -0.07203982 0.37146196 -0.009789334
000050 20 6c 00 3b be 1d fc bd 03 af ca be ff 6d 81 3c
       0.0019595698 -0.1231036 -0.39586648 0.01579952
000060 7c a3 2b be 5f f4 32 3d bc d3 ea 3d 71 fe d4 3d
       -0.16761583 0.04369008 0.114661664 0.10400093
000070 47 b8 69 be 3a df a9 3e e1 b3 79 3e eb 74 9c 3e
       -0.22824202 0.3317812 0.24385025 0.3055795
000080 66 65 8e 3e 26 d6 83 be 83 fa 30 be 0c 7d c8 bd
       0.27811736 -0.2574932 -0.17283063 -0.09789476
000090 db 19 f9 3d 9e 8e f3 bd 2a 25 13 3e 2c 4d a1 be
       0.12163135 -0.118924364 0.14369646 -0.3150419
0000a0 25 04 82 3f 83 ee e5 bd aa 37 42 3e 7f c8 10 3c
       1.0157515 -0.11227133 0.18966547 0.0088368645
0000b0 41 16 5a be 58 ca 12 3d bd 08 ef bd bc f2 5e 3d
       -0.21297552 0.0358375 -0.116715886 0.05443071
0000c0 56 88 a2 bf c1 67 09 3e 37 54 02 bf 66 c1 98 bd
       -1.2697856 0.13418485 -0.5090975 -0.07458763
0000d0 c0 2c 9f 3d f8 9e a5 bd ac b4 3b 3e 8d 7c 68 bd
       0.07772207 -0.080869615 0.1833064 -0.056759406
0000e0 16 5c b5 3e bd 73 ac be b2 80 6f be 15 2e 09 3e
       0.35421818 -0.3368205 -0.23388937 0.13396485
0000f0 be d6 8f be e3 64 6b 3e 89 54 91 3e 4e 94 df 3d
       -0.28093523 0.22987704 0.28384808 0.10916959
000100 d0 76 b2 be 5d 3b dc be 7e 6f ab 3e e8 71 ef bc
       -0.34856272 -0.4301404 0.334835 -0.02922912
000110 de d0 d0 bd 09 b8 83 bd 41 4a 80 3d 1d 5e 2f 3d
       -0.10196088 -0.06431586 0.06264163 0.042814363
000120 c3 96 0c 3e bd a7 1a 3e 25 ee 3d 3e 79 4b 02 bf
       0.13729386 0.1510305 0.18547876 -0.5089641
000130 f0 04 2e be a9 bd c6 3d b1 80 4c be 60 75 a9 3d
       -0.16994071 0.097041436 -0.19970967 0.08274341
000140 bf d4 20 be 2c 98 2c be 6d 5d 81 3d cc 2f 2c bf
       -0.15706156 -0.16854924 0.06316648 -0.6726043
000150 d7 2b 15 bf e6 dd 07 3e 26 9d 41 be 14 ad 22 3e
       -0.5827002 0.13268241 -0.18907604 0.15886337
000160 de df a1 bd 42 17 76 3c ae f4 fc 3c a0 e2 8c be
       -0.079040274 0.0150201935 0.030878391 -0.2751665
000170 85 00 56 bd 5b 8f b5 3f 8f d2 97 bf 43 ce 43 be
       -0.05224659 1.4184374 -1.1861132 -0.19121651
000180 1c 22 ba 3d 20 f6 0c 3e 08 6b fe bd 90 2b 1e bd
       0.09088537 0.13765764 -0.12422758 -0.038615763
000190 21 9a 8c 3e b2 73 d7 3d b5 95 38 3f e6 67 8d bd
       0.2746134 0.10520114 0.72103435 -0.06904583
0001a0 ac 1d 2b be 4d 97 73 be fa 0f ac 3e 39 ed a2 bd
       -0.16710538 -0.23788185 0.3360594 -0.07955403
0001b0 4e 51 26 3e 7c 39 52 bc a0 08 9d bd 1e 50 22 3e
       0.16241953 -0.012831088 -0.07667661 0.15850875
0001c0 05 ef b6 3f 44 58 bb bd 18 7d 8e bb 42 71 82 3e
       1.4291693 -0.09147695 -0.0043484084 0.25477034
0001d0 df e0 64 3d f7 b3 7a 3a e0 4c d1 be 27 05 88 bd
       0.055878516 0.000956356 -0.40878963 -0.06641608
0001e0 15 60 dd 3d 7c 24 01 3e 7c 96 d8 3e 4f fb 19 bd
       0.10809342 0.12611574 0.4230231 -0.037593182
0001f0 63 10 8f 3e c0 91 87 be ec 48 85 be 6e b4 b2 3c
       0.2794219 -0.26478386 -0.26032197 0.021814551
000200 67 c9 59 3e be 84 11 3d 32 77 7b bf 92 06 39 3d
       0.21268235 0.035526983 -0.9822875 0.04517228
000210 d4 d2 46 3e ab 3b cc 3d b7 56 be 3d 4b 73 86 3e
       0.19416362 0.09972318 0.09293883 0.26259837
000220 90 be b7 3e cb 38 9c 3e d9 22 03 be 31 67 a8 bf
       0.35887575 0.3051208 -0.12806262 -1.3156492
000230 02 61 f8 bd 10 28 99 3d bd b2 50 be 90 6b 03 3c
       -0.12127878 0.074783444 -0.20380683 0.00802125
000240 f6 d0 7b bc fd 21 44 be 49 4a 27 bd 4b 04 51 3d
       -0.015369644 -0.1915359 -0.04084233 0.051029485
000250 59 49 b9 bd 4b d5 b8 3f 5d 5f 36 bd c4 5b df ba
       -0.09047193 1.4440092 -0.04452454 -0.0017040898
000260 8b 55 5a bd 78 cd 5b bc c0 45 ca be b7 b4 20 be
       -0.053304236 -0.013415687 -0.3950634 -0.15693937
000270 06 ca 60 bf 85 b4 53 3b 22 c3 1d 3d 79 14 ee 3b
       -0.87808263 0.0032303643 0.03851617 0.007265624
000280 d8 ee 40 be 34 3d 4f 3e 90 61 72 3e bf 20 53 3d
       -0.18841112 0.20238191 0.2367003 0.0515449
000290 af 49 ce be 7e b2 20 3e 8e 5e 4d 3f 77 24 4c bd
       -0.4029059 0.1569309 0.80222404 -0.049839463
0002a0 3b c7 54 be 08 a5 07 be 3d 91 2b be f6 a0 4e 3d
       -0.20779125 -0.13246548 -0.16754623 0.050446473
0002b0 c6 cb 89 3e ba a9 e5 3e 4e b8 5f be b9 45 12 3c
       0.2691328 0.44856054 -0.2184765 0.008927756
0002c0 a2 c6 f9 3d a1 08 8e 3c 14 e5 81 be ed 35 a9 3e
       0.12196089 0.017338099 -0.25370085 0.33048955
0002d0 e0 08 49 bd 1c 46 85 bd 53 99 7c be ed bc 8e be
       -0.04908073 -0.06507513 -0.24667864 -0.27878514
0002e0 47 b7 8e bf b8 7f 08 3d 78 ca 99 be be 64 3e be
       -1.1149682 0.033324927 -0.30037284 -0.18593118
0002f0 c1 c4 1e bc 75 1b 73 be 82 d4 12 3d 17 8a e9 bc
       -0.0096904645 -0.23740943 0.035847194 -0.02850823
000300 3e 1a 93 be d6 6a c0 3e 9e 6b 44 3f ff 4f ef bd
       -0.2873096 0.3758151 0.7672671 -0.1168518
000310 80 73 92 3d b7 51 a1 3d b3 02 91 3e 04 08 a3 be
       0.07150936 0.07876914 0.28322372 -0.31842053
000320 e4 ee bb 3e d4 13 10 bf 90 ea 3c bd d0 b1 ab 3d
       0.36705697 -0.56280255 -0.046122134 0.083835244
000330 ef 65 34 3e 45 b3 89 bd 58 13 80 bc 98 22 a7 bc
       0.1761701 -0.06723646 -0.015634224 -0.020402238
000340 d5 de 3c 3d bb 2c 37 3d 6c 5b 89 3e 41 29 32 3f
       0.046110947 0.044720393 0.26827562 0.695942
000350 0b 49 7b be 0c 1c b2 3e 22 af 2b 3e 91 d0 b3 3e
       -0.24539582 0.34787023 0.16766027 0.3512006
000360 07 00 01 3e 4f 40 5f be 7b f9 51 be 72 42 00 3f
       0.12597667 -0.21801876 -0.20505325 0.5010139
000370 67 27 ed 3e 76 cf 11 3e df 1f 15 be cd 24 2e bd
       0.46319124 0.14239296 -0.14562939 -0.042515565
000380 4d da d1 3c ef 1e f7 bd 32 e4 4c be 0a ca f1 3c
       0.02561679 -0.12066447 -0.20008925 0.029515285
000390 9e 2c 1b 3f a5 b2 8c 3f 78 e3 d2 bd f1 5e ab bd
       0.60614955 1.0992018 -0.102972925 -0.08367718
0003a0 1b ee 8f 3e e7 19 7d bd 72 d6 58 bd ab 07 11 bd
       0.28111348 -0.06179228 -0.052938886 -0.035407703
0003b0 8a 71 a9 be 22 37 46 bd c3 23 01 3f 6d 79 da bd
       -0.33094436 -0.048392422 0.50445193 -0.106676914
0003c0 7a 10 8c be eb 0b 61 3d 74 e1 78 3d 5f f3 5e bd
       -0.2735632 0.054943006 0.060761884 -0.054431316
0003d0 26 f2 d3 3d 40 74 42 3e 1c 8d 2c bf 23 0c d9 bd
       0.103489205 0.18989658 -0.67402816 -0.10598018
0003e0 3e b6 80 bd dc 12 a0 3e 86 20 b8 3e c5 c3 e2 bd
       -0.0628476 0.3126439 0.35962313 -0.11072496
0003f0 c8 85 ca 3e d3 33 de 3e 90 1f 5e be 77 47 57 bf
       0.39555192 0.43398914 -0.21691728 -0.8409342

0.bias f4 [32]
000000 20 7d d0 bc 1f 91 6e 3d a2 ea 85 3c 78 f3 27 3d
       -0.02545029 0.058243867 0.016347233 0.041003674
000010 56 0d 6d 3e 3e ae bf 3e 2d 45 32 3d 7d cf 41 3c
       0.23149619 0.37437624 0.043523002 0.011829254
000020 0a b5 14 3d 8d 78 f0 3d 1d e0 14 bf d9 48 b2 3d
       0.036305465 0.11741743 -0.5815447 0.08705301
000030 c7 53 d7 3e 23 60 ce 3c 6c 90 2b 3d ce b3 09 be
       0.42056105 0.025192326 0.04188578 -0.13447496
000040 67 03 12 3f 77 ec cb 3d 66 30 8c ba 56 ea 07 3f
       0.5703644 0.099572115 -0.0010695576 0.53091943
000050 7c 70 8a bc 1b 25 15 3f 49 af e7 3e 9d 48 e5 3d
       -0.01689934 0.58259743 0.4525092 0.111954905
000060 c3 94 45 be ce e6 3a be b7 39 14 3e 5a 2b ff 3c
       -0.1929503 -0.18252108 0.14475141 0.031148601
000070 fc d5 49 3e f0 a1 c9 3d 98 58 02 be a0 db 43 be
       0.19710535 0.0984534 -0.12729108 -0.19126749

2.weight f4 [64, 32]
000000 7b e9 12 3d 23 34 ab 3e 70 b1 81 3c ca 24 0a be
       0.035867196 0.33438215 0.01583168 -0.13490596
000010 6b ce 04 3e ec 18 1e be 80 5e ba bd 8d bc 91 bd
       0.12969367 -0.15439194 -0.09100056 -0.07116041
000020 46 1f 01 be 8c 50 69 be 1a 57 ce 3d 1b 13 84 3e
       -0.12609586 -0.22784632 0.10075207 0.25795826
000030 71 5d 41 3d ac a8 70 be 6b b4 8c 3d 1c ea cb 3c
       0.047208253 -0.23501843 0.068703495 0.024891905
000040 60 f5 ba 3d 28 35 16 be 2a 75 38 3d 19 dd d7 3c
       0.09128833 -0.14668715 0.04503361 0.026350545
000050 75 24 ce bd 29 6e 18 bd 29 99 29 bd 2d 49 03 3e
       -0.100655474 -0.037214432 -0.04140583 0.12820883
000060 f5 99 9f bc 8d dd 6d bd 47 f0 36 3d 31 cb 39 be
       -0.019482592 -0.058072615 0.04466274 -0.18143918
000070 30 d5 c9 bd d7 99 b1 bd 4a a1 22 3e 3e 55 eb bc
       -0.098551154 -0.08671921 0.1588184 -0.02872717
000080 67 e1 bd be 80 75 6d 3d d6 c6 b5 bc 0b af 42 3e
       -0.3708603 0.057973385 -0.022189539 0.19012086
000090 11 3c 60 3e 33 13 e8 3d 49 af dd bd 89 fb 0c 3e
       0.21897914 0.11331787 -0.108244486 0.13767828
0000a0 a1 5e 75 bd 5b 05 fa be c1 82 4e 3e fe 25 66 3d
       -0.0599047 -0.4883221 0.20167066 0.056188576
0000b0 b8 3b 99 3d d4 fa 2f 3d e4 7a a0 be 65 f2 98 be
       0.074820936 0.042963818 -0.31343758 -0.29872432
0000c0 0d b2 89 be 50 10 23 bc ac 47 1b bd fd 36 4b 3e
       -0.26893654 -0.00995262 -0.03791015 0.19845195
0000d0 66 ab 4d 3c dc b0 a4 be fd 9e ca 3c 6e 6a 31 3e
       0.012553072 -0.32166183 0.024734015 0.17325756
0000e0 fd 09 ee 3d 50 76 86 3e af 70 05 3e a3 22 c9 3d
       0.11622999 0.2626214 0.13031267 0.098210596
0000f0 a8 16 c8 3e ba 19 df bd 7d df 4e 3c 08 ce 7b 3d
       0.39079785 -0.10893579 0.012626526 0.061475784
000100 bf 97 38 be 94 16 46 be 2e 47 ef 3d 99 e4 10 3e
       -0.18026637 -0.1934455 0.11683498 0.14149703
000110 9c 29 46 be 0d 94 30 be 2b 1d b8 bd de da 20 3e
       -0.1935181 -0.17243977 -0.08989938 0.15708491
000120 3b 54 97 bd d7 d2 5f 3c b5 64 05 3f b3 3d 10 be
       -0.073891126 0.013661108 0.5210679 -0.14086036
000130 b2 2d b1 3e a8 c5 c1 bd eb c5 09 3e 50 b9 9a bd
       0.34605175 -0.09461528 0.13454406 -0.07554877
000140 9f 6e fb bc c0 c0 19 bc 53 9c cd 3d a4 5c b1 be
       -0.030692397 -0.009384334 0.10039582 -0.34640992
000150 a8 00 4d 3e 57 75 fd 3d e6 c1 c2 bd 6e 92 de 3d
       0.20019782 0.123758964 -0.095096394 0.10867773
000160 7a cf 88 3e 7b 9a 70 bd 15 91 36 3d 7c 57 52 3e
       0.26720792 -0.058741074 0.044571955 0.20541185
000170 f9 ff c6 bd 21 7b b0 3a 73 98 30 3e 98 ef 45 3e
       -0.09716792 0.001346443 0.17245655 0.19329679
000180 ab 46 ca bd de a2 ff 3c de c4 11 3e dd 2a be bd
       -0.0987676 0.03120559 0.14235255 -0.09285519
000190 76 ae 42 be 4f fe 1f 3e 6d c8 fd 3d 69 20 73 bd
       -0.19011864 0.15624355 0.12391744 -0.05935708
0001a0 44 aa 67 3e e4 e0 36 3e 92 e1 b3 39 e5 5c 7d be
       0.22623545 0.17859226 0.00034309604 -0.24742468
0001b0 c2 0b 0f 3d a2 e2 04 3e 75 03 01 3e 1c 4f 9e be
       0.034923322 0.12977079 0.12598975 -0.3091973
0001c0 88 df 06 be 4d 00 7a 3e 82 88 7f bd 10 dc 99 bc
       -0.13171208 0.24414177 -0.062386043 -0.018781692
0001d0 da d0 80 3d b6 45 bd be 6a 3c 64 3e aa e4 99 bc
       0.06289835 -0.36967248 0.22288671 -0.018785793
0001e0 38 87 a1 bd b0 58 21 3e 48 9b 40 be 20 8b 2a 3d
       -0.07887119 0.15756488 -0.18809235 0.041636586
0001f0 9e 01 b2 bd cb dd ed 3b 23 9c 5f be 80 82 03 be
       -0.08691715 0.007259106 -0.21836905 -0.1284275
000200 8d ab 7a 3e ec 5b 85 3d 02 4e f6 3d e4 0e 02 be
       0.24479504 0.06511673 0.120265976 -0.12700993
000210 77 8e 19 3e f6 b7 95 be 7b ba 80 3e 69 f0 15 3e
       0.14995752 -0.29241914 0.25142273 0.1464249
000220 cc 9c 12 be 3c c8 28 3e b0 8b a6 3c b9 b5 6f be
       -0.14317626 0.16482633 0.02033028 -0.23409165
000230 7b 48 ec bd 46 18 b6 bc bb b8 2a 3e 4c 0e 45 3c
       -0.11537262 -0.022228371 0.16672032 0.012027334
000240 21 75 c3 3e a6 bc 9d 3d f7 01 a2 be c0 3f 05 be
       0.381753 0.077019975 -0.31642124 -0.130126
000250 e1 3a a2 3e 7e c3 4c be 9a 3f 76 bd d0 e3 b2 bd
       0.31685546 -0.1999645 -0.06011925 -0.08734858
000260 be c7 13 be 37 52 d5 bd 55 15 ea bc 8e 74 ba 3d
       -0.14431664 -0.10416072 -0.028574625 0.09104262
000270 20 6c 95 bd 05 d5 3a bd 0e e3 bc 3e 4d e4 c0 be
       -0.07296014 -0.045613308 0.3689198 -0.3767418
000280 2f c5 1c 3e 8a 90 50 3e 41 48 81 bd 16 48 fd 3d
       0.15309595 0.20367637 -0.063126095 0.12367265
000290 ea 0f 6c 3e 62 63 8b be a8 67 d8 bd ff 15 16 be
       0.23052946 -0.2722426 -0.10566646 -0.14656828
0002a0 0e b1 5f 3d 0e ca 1d bd c0 85 2b 3c 43 cf 7b 3e
       0.054612212 -0.038522772 0.0104689 0.24590783
0002b0 82 ce 9a 3d 37 0e e5 3c fd 6b ec 3d 08 df a9 3e
       0.075589195 0.02796088 0.11544035 0.33177972
0002c0 83 61 d4 3d 9f 5a 81 3d dc 42 93 3d 8b a6 ef bc
       0.103701614 0.06316113 0.07190487 -0.029254219
0002d0 6f 5e 6a be f7 0f 74 bd 5c d9 f9 be 52 c9 6b 3e
       -0.22887586 -0.059585538 -0.48798645 0.23026016
0002e0 9f 21 6c bd 59 f9 86 bd 19 87 6e be ed 46 3e be
       -0.05764925 -0.06590528 -0.23293723 -0.18581744
0002f0 3c 4c 66 3d 49 a4 15 3e 1a 21 db bd 47 42 91 3d
       0.056225047 0.14613451 -0.10699673 0.070927195
000300 e3 04 c3 3e 03 9b 88 bb d1 a2 66 3e 2e 2a 4f bd
       0.38089666 -0.0041688695 0.22523047 -0.050577335
000310 1c 57 32 be cd a0 5a be f4 77 4e be 8b 72 3f 3d
       -0.17416042 -0.21350403 -0.20162946 0.046740096
000320 44 18 51 bd 12 95 a7 bc 8e 8f 1c 3e 50 4c 18 be
       -0.051048532 -0.020456824 0.15289137 -0.14872861
000330 69 a4 1a bf 21 fc 2d be 71 ab 39 3e 5f 3d fd 3e
       -0.6040712 -0.16990711 0.18131806 0.49460885
000340 64 64 ec bd 13 a5 96 bc cb 5e 6b bd f9 f9 1b bd
       -0.115425855 -0.01838926 -0.05746345 -0.03808019
000350 12 a1 24 3e 3b 8e 3b 3d 3c 27 00 3c cb f5 9e be
       0.16077068 0.04578994 0.007821854 -0.310469
000360 7e 17 db 3d 2d fd d2 bc 14 79 2e be 36 9f 3f bd
       0.1069784 -0.02575549 -0.17038375 -0.046782695
000370 db d5 95 bd d2 c0 47 bd 47 23 43 3d 8e 1e 8f 3d
       -0.0731618 -0.048767872 0.047641065 0.0698825
000380 66 3f b7 3d 00 55 2c 3d 12 bc 95 3c d2 54 5c 3e
       0.08947639 0.04207325 0.018278155 0.21516731
000390 48 30 cb bd ac cc 73 be e3 6a 1e 3e bc 0f 87 bb
       -0.09921318 -0.23808545 0.15470462 -0.0041217487
0003a0 54 d9 61 3d 2e 03 46 be 9d 05 49 39 37 bd 61 be
       0.0551389 -0.1933715 0.00019170945 -0.22044836
0003b0 98 a5 04 3f 13 dd 47 3d 9c 9b 8b bd 81 51 37 be
       0.51815176 0.048794817 -0.068167895 -0.17902185
0003c0 53 31 1b 3f 5f 1b 22 bd 74 92 11 3c f5 91 3b 3e
       0.6062214 -0.039576884 0.008885015 0.18317397
0003d0 95 11 e7 bd 8d 58 b1 bd b8 94 a7 bd 6b 1c b6 3d
       -0.112826504 -0.08659468 -0.08182663 0.08892139
0003e0 d3 52 2e 3d 34 9c 81 be 32 09 ed 3c 27 3a 24 be
       0.042559456 -0.25314486 0.028935049 -0.16037808
0003f0 e1 56 0b bd 84 18 86 bd d4 d6 19 be 4b 74 0a be
       -0.0340184 -0.06547645 -0.15023357 -0.13520925

2.bias f4 [64]
000000 c0 6c d7 3d 49 fa 82 bd 0a 7c 9e be 78 be 35 3e
       0.10518789 -0.06395394 -0.3095401 0.1774844
000010 d0 9e 53 ba ff c0 85 bd 7b f5 2d bf 7c 1e ba 3d
       -0.0008072676 -0.06530952 -0.679527 0.09087846
000020 f8 56 89 bd 7b 12 88 3d de 6e 17 bc f8 64 63 3e
       -0.06706041 0.0664415 -0.009242741 0.22206485
000030 a3 5a c9 be 78 c6 3e be d5 b1 5a be b7 4d 0c bf
       -0.39326963 -0.18630397 -0.213569 -0.54806083
000040 d1 cb de 3e be 62 c4 be e0 bc 06 3e e7 b5 03 bf
       0.43514875 -0.38356584 0.13157988 -0.51449436
000050 60 08 e0 3e 60 34 76 3d 89 4d b0 be 18 1c 83 3d
       0.4375639 0.060108542 -0.34434155 0.06401843
000060 74 82 ad be 58 54 1f bf 45 12 84 3d af 13 7a 3e
       -0.3388859 -0.62238073 0.06448797 0.24421571
000070 ee 4a 90 3e 80 f2 6d be 21 9d 33 bf a1 10 40 be
       0.28182167 -0.23237038 -0.70161635 -0.18756343
000080 35 6e 16 3d 2f b0 4e 3e de 2a 06 3f 72 dc 11 3e
       0.036726195 0.20184396 0.5240916 0.1424425
000090 b7 7c 9d bd b1 fa ff be 05 cd 68 3e 06 6c a5 3e
       -0.07689803 -0.4999595 0.22734459 0.32308978
0000a0 0d 65 81 be cb 78 66 be d3 e9 e9 3c d0 5c 86 3e
       -0.25272408 -0.22507016 0.028553879 0.26242685
0000b0 1c 55 3d be 8f 9a 9b 3e 15 11 73 3e c9 5b 7c be
       -0.18489498 0.30391356 0.23736985 -0.24644388
0000c0 1e 15 27 be 26 97 34 3e 91 ad 21 3e df 04 aa 3e
       -0.1631665 0.17635784 0.15788867 0.3320684
0000d0 6a b1 ae 3d 93 3e d3 3e 76 99 a4 bc 2f 04 8d 3e
       0.08529933 0.41258678 -0.020092707 0.27542254
0000e0 32 69 56 3d 68 72 7a 3e 8e c1 f6 be cd 42 21 3d
       0.052346416 0.24457705 -0.48194546 0.039370347
0000f0 6d b0 24 be 29 d7 a7 3e 54 f7 af be b2 60 16 be
       -0.16082926 0.32781342 -0.34368384 -0.14685324

4.weight f4 [128, 64]
000000 36 13 ad 3d e7 a7 d3 bd a1 d2 c7 bd 81 d3 57 3d
       0.0845093 -0.10334759 -0.09756971 0.05269194
000010 e6 a9 45 3d 97 4f 19 3e fa 83 82 3d 73 b4 a6 bc
       0.04825773 0.14971767 0.06372829 -0.020349717
000020 47 be 91 3d ad e5 cc bd a1 12 37 3d 69 15 94 3c
       0.07116371 -0.10004745 0.0446955 0.018076615
000030 a5 74 b3 bd c3 67 63 3d 74 3d 7c bd 5b e2 82 b9
       -0.087624826 0.055518877 -0.061582044 -0.0002496418
000040 76 aa 36 bd aa 66 4f be 0b 4e 5d bd c3 eb be 3c
       -0.044596158 -0.20254007 -0.054029506 0.02330578
000050 06 1e 92 3d 8d eb fe 3d 2c 44 0a bd c7 41 0e 3d
       0.07134633 0.124472715 -0.03375642 0.0347307
000060 37 c7 dd bc 2a 59 8b 3d 41 84 1c be 80 cd b2 3b
       -0.027072532 0.06804116 -0.15284826 0.0054566264
000070 37 ab 12 bd f8 ed fb bd 41 99 13 3d c1 e0 01 bd
       -0.035807814 -0.12301248 0.036034826 -0.031708483
000080 4e 07 1a 3e 5b 83 f1 3d 51 9e 95 bd 82 3a 49 bd
       0.15041849 0.11792632 -0.07305587 -0.049128063
000090 5b 62 99 3d 1a f4 7b bd 36 a4 21 3e 12 64 49 3d
       0.07489463 -0.06151209 0.15785298 0.0491677
0000a0 07 20 09 3b c9 4a 77 be 19 a0 7e 3d 14 fb 92 bd
       0.002092363 -0.24149622 0.0621644 -0.071767956
0000b0 c6 6b b5 bd 83 84 af bd de b4 17 3d 9c 09 57 bd
       -0.08858447 -0.085701965 0.037037723 -0.0524994
0000c0 c7 ea 78 3d e2 02 14 3d 8c 3a 8c 3d d4 df 90 3d
       0.060770776 0.03613556 0.068471044 0.07073942
0000d0 7d aa ce bd 44 b1 ee 3d c3 d5 64 3d 1f 04 e6 bd
       -0.10091112 0.116549045 0.05586792 -0.11231255
0000e0 3d 6f 8e 3d 54 5d 4f 3e f3 10 02 bd 2d e9 48 3d
       0.06954811 0.20250446 -0.031754445 0.0490505
0000f0 75 7f b5 3d a0 4c 47 be 1d 84 b7 bd 82 61 17 be
       0.08862201 -0.19462824 -0.089607455 -0.1478329
000100 0e 8d 97 b8 c9 05 c5 ba 07 d7 46 b9 44 bc 2c ba
       -7.2265146e-05 -0.0015031631 -0.00018962855 -0.0006589333
000110 85 23 59 ba 68 2d 32 ba c6 2d 4f 38 98 c8 b6 39
       -0.0008283186 -0.0006796927 4.9395276e-05 0.000348632
000120 6a bc 46 ba be 1d 0c 39 e3 4f 8d 38 7f 8a 61 b7
       -0.00075811765 0.0001336252 6.738284e-05 -1.3443291e-05
000130 3b 79 1f 3a 87 65 e9 b9 57 f4 31 b6 79 f3 80 b9
       0.00060834334 -0.00044516867 -2.651728e-06 -0.00024595464
000140 f3 f5 81 3a 25 94 3e b9 ab 72 3f ba 0c 17 c6 b8
       0.0009915218 -0.00018175 -0.00073031586 -9.4456685e-05
000150 36 8f a2 ba 12 2c 5c 38 e2 e1 68 b9 04 d2 6b 36
       -0.0012402299 5.249313e-05 -0.00022209392 3.5139974e-06
000160 d7 aa 18 ba a1 8a 02 ba 67 71 22 3a 24 ce 46 b9
       -0.0005823797 -0.0004979764 0.0006196708 -0.00018959545
000170 2c 08 4c ba 1f 21 db b9 d5 64 98 39 75 b4 97 ba
       -0.00077832 -0.00041795612 0.00029066825 -0.0011574166
000180 5d 8d 1a b9 24 08 0c b9 4e 27 38 ba 29 cd f9 b9
       -0.00014739246 -0.00013354473 -0.00070249 -0.00047645837
000190 e3 99 95 39 de 8e 31 ba 65 62 aa 3a d1 97 88 3a
       0.0002853415 -0.0006773303 0.0012999295 0.0010421221
0001a0 f3 37 14 b6 e2 29 df b8 d8 4e 7b 39 31 38 15 b8
       -2.2086285e-06 -0.0001064127 0.00023966597 -3.55767e-05
0001b0 e6 cb a6 b3 54 6d 18 ba 9a 9a 78 b9 7d b2 13 bb
       -7.767066e-08 -0.0005814631 -0.00023708717 -0.0022536807
0001c0 e1 ff 9e b5 2b 06 73 b3 05 28 a5 a8 3a f8 46 ba
       -1.1846388e-06 -5.6583456e-08 -1.8336036e-14 -0.0007590089
0001d0 2b 10 08 bb a7 3e 02 b5 c4 d2 06 ba 64 56 3e ba
       -0.002076159 -4.8519945e-07 -0.0005143101 -0.0007260798
0001e0 ec 78 d8 ba 6b d0 95 ba 8b 34 4d ba 16 4e b1 3a
       -0.001651553 -0.0011429911 -0.0007827959 0.00135273
0001f0 b6 ec 81 b8 fa f8 4b b9 a0 e0 6b b9 ea 8e 48 b8
       -6.19529e-05 -0.0001945234 -0.00022495026 -4.7816815e-05
000200 04 06 08 3c c1 0e 13 3e 34 b6 d2 bd 2c b0 a6 bc
       0.0083022155 0.14361097 -0.10288659 -0.020347677
000210 69 8e e8 3c 17 73 ef 3c 36 72 e4 bd ed 1c 38 3e
       0.028388219 0.029229684 -0.111545965 0.17979784
000220 bf 76 cb bd 88 e1 df bd 25 dd 04 3e e2 37 2b 3d
       -0.099347584 -0.109316885 0.12974985 0.04180134
000230 a7 a6 ad 3c f5 15 16 bd e9 09 db bd 20 11 61 3d
       0.02119763 -0.036642034 -0.106952496 0.054947972
000240 48 ce 88 3d 8c e7 11 3c 46 4d 19 be 38 e9 4b be
       0.0667997 0.008905303 -0.14970884 -0.19913185
000250 8b 12 22 be 14 10 38 bd 35 ee b4 bd 60 dd 07 bc
       -0.15827386 -0.04493721 -0.08834497 -0.008292526
000260 7a 23 85 bd 43 63 e6 bd c2 59 c5 bc ee 55 3a bd
       -0.06500907 -0.112494014 -0.024090651 -0.045492105
000270 58 b4 aa 3d b5 13 48 3d b4 4e 84 be be 4e 66 3d
       0.08335179 0.04884692 -0.25841296 0.05622744
000280 8d ce ce bd 50 5b 91 bd cc ed 46 bd 47 66 f6 bd
       -0.1009799 -0.070974946 -0.048566625 -0.120312266
000290 fa ee 0c bd a5 43 04 bd 56 8d 91 3d c1 7f 28 3e
       -0.034407593 -0.032291073 0.07107036 0.16454984
0002a0 27 f7 28 bb df d1 13 3c 9f d8 99 bd 2e 7f 0f be
       -0.002578208 0.009022205 -0.0751202 -0.14013359
0002b0 b9 2a 2b 3e ec ab 5d 3d 77 cd 80 3b 30 90 ec bc
       0.16715516 0.054119036 0.0039307433 -0.028877348
0002c0 36 41 e5 bd 85 0b cf bd 6f 31 ed 3c 70 27 a2 3d
       -0.111940786 -0.10109619 0.028954236 0.07917678
0002d0 21 05 25 3d 61 37 41 3e 4b 2d ed bd 38 1d ea bd
       0.040288094 0.18868782 -0.115809046 -0.11431354
0002e0 98 9e 87 be 36 0f 97 bd 50 8a 3d bc ad a7 08 bd
       -0.26488185 -0.07375948 -0.011568621 -0.033363033
0002f0 b5 1d ea 3d ec 53 9d bd 5d 11 53 3d e0 40 30 be
       0.114314474 -0.076820225 0.05153023 -0.17212248
000300 1a f4 90 3d 83 2e 8b bd de d4 08 3c 39 cb e6 3d
       0.07077809 -0.06795981 0.008351533 0.112692304
000310 81 32 55 3d bd 69 8c 3d db 42 84 bb 21 37 ba bd
       0.052050117 0.068561055 -0.00403629 -0.09092546
000320 fc 97 2c be f4 0c 51 be 96 24 1a 3e 70 c5 51 bd
       -0.16854852 -0.20415097 0.15053019 -0.05121368
000330 15 92 e3 3d 3c 3f c1 bd 24 6d e7 3c f1 40 57 bd
       0.11111847 -0.09435889 0.028250284 -0.052552167
000340 44 91 1e be ac 02 55 bd 66 80 ae bd 55 34 e3 3d
       -0.15485102 -0.0520045 -0.08520584 0.11093966
000350 b9 c5 2c 3d a4 ee 46 3d 30 c5 99 bd 72 d4 a6 3d
       0.04218075 0.04856743 -0.07508314 0.081459895
000360 c8 4f 89 3d ec 65 ad bd de 58 42 3e 29 97 d8 bc
       0.0670467 -0.08466706 0.18979213 -0.026439266
000370 e6 50 11 3e 4b 3a ac 3d 33 c5 ce 3d 78 75 73 bd
       0.14191017 0.08409556 0.100962065 -0.0594382
000380 95 09 b1 bd a6 76 ae 3a 76 0e c2 3d 39 6e a9 3d
       -0.08644406 0.0013310506 0.094754145 0.082729764
000390 1a 2b 3f 3e 2d 8c 14 3b 52 93 0a bc 2f 2a b0 3c
       0.18668786 0.002266656 -0.008457975 0.02150449
0003a0 06 7a a1 3d 79 d9 f7 bd 0a a9 61 3d ff 6e ee 3d
       0.07884602 -0.121020265 0.05509285 0.116422646
0003b0 53 7e 83 3d 40 57 cd bd 27 00 4f be a6 d8 c2 bd
       0.06420579 -0.10026407 -0.20214902 -0.09513979
0003c0 ca 42 6f bc fa 17 80 3d a1 84 30 3d 6d dd 7c 3d
       -0.014603326 0.06254573 0.043095235 0.061734606
0003d0 48 7d a4 3d 30 c2 79 bd cb a1 a1 bd 4c a7 af bd
       0.08031708 -0.060976207 -0.07892188 -0.08576831
0003e0 61 95 47 bd 86 5d c0 bd 10 59 6f bd fa 6a f9 3d
       -0.048726443 -0.09392838 -0.058434546 0.12178607
0003f0 81 0c 16 be e7 3c 0d bd 2c 5e 2c be 1c 3d 47 3d
       -0.14653207 -0.03448191 -0.16832799 0.048642263

4.bias f4 [128]
000000 4d d9 49 3c 49 4b 3c bb bd da 19 3e e7 85 3c 3d
       0.012319875 -0.0028731397 0.15024848 0.046026137
000010 86 22 10 3d 88 df fc bd ba 73 92 bc 23 ba a0 be
       0.035189174 -0.12347323 -0.017877448 -0.3139201
000020 21 1d 47 bd a6 c1 de bd d3 1d f0 bc 09 00 83 3c
       -0.048611764 -0.10876779 -0.029311096 0.015991228
000030 d7 46 1b be 7b fe b3 3d 1d 6a 5f bc 90 1e 56 b9
       -0.15163742 0.08788773 -0.013636139 -0.00020420016
000040 6a be 5f 3e 79 9c 14 3e 3f 7b 06 be d2 a0 b5 bc
       0.21849981 0.14512815 -0.13132952 -0.022171412
000050 ed 56 8e bb 4b e6 1c be 41 70 26 be 4b 13 6e bd
       -0.0043438585 -0.15322225 -0.16253759 -0.058123868
000060 1c 11 3c be f3 fa 9e bd fb 5e 61 9b 2e c7 25 3e
       -0.18365902 -0.077627085 -1.8642254e-22 0.16189262
000070 c5 7f 4e 3c eb 68 a5 3d 0c 53 b8 3e f1 09 e8 bd
       0.012603705 0.08076652 0.3600086 -0.11330021
000080 09 e1 47 3e a9 58 ba bd 85 13 32 bc f2 b8 04 be
       0.19519438 -0.09098942 -0.010868912 -0.12961176
000090 57 08 ef be 15 05 08 be 93 48 4c be 58 32 ae be
       -0.4668605 -0.13283189 -0.1994956 -0.34022784
0000a0 77 48 53 be b0 5d 3f 3d 74 ef e4 bd 6a 8a 46 bd
       -0.20633112 0.046720207 -0.111784846 -0.048471846
0000b0 cd 15 8c 3e d9 79 53 3c e4 45 8a bd dd a4 f7 3d
       0.27360383 0.012907469 -0.06751612 0.12091992
0000c0 43 61 61 3e 7d dc 98 bd cd 7c 31 3d 26 e5 3b 3e
       0.22009759 -0.0746393 0.04333191 0.18349132
0000d0 d9 7a 33 bd 84 56 89 3e 13 64 f7 be 1a f5 45 3e
       -0.04381833 0.2682382 -0.48318538 0.1933178
0000e0 6a 5f 64 be 73 48 a9 bd 1e 07 13 3b 3a 97 72 be
       -0.22302023 -0.08265772 0.0022434662 -0.23690501
0000f0 73 0f 34 3d e6 64 70 be 02 38 23 be 9e 0d 52 be
       0.043960046 -0.2347599 -0.15939334 -0.20513007
000100 2f bf e0 be 70 d1 c5 bd e8 8d 98 3c cb ad 63 bd
       -0.43895862 -0.09659088 0.018622354 -0.055585664
000110 9a 0f 00 3d 84 4b 83 3d 26 6a 73 3d 9c 29 88 3d
       0.03126488 0.06410888 0.059427403 0.06648561
000120 79 ee 2b b0 60 f3 71 be 5c 06 8e 3d f7 73 a1 bd
       -6.254833e-10 -0.23627996 0.06934807 -0.07883447
000130 0d a5 19 94 a0 45 bc 3d d7 0b 2b be 22 b4 77 be
       -7.7570765e-27 0.091929674 -0.16703735 -0.24189809
000140 9e c4 10 be 05 08 82 3e 81 14 5f 3c a9 5e 86 3d
       -0.14137504 0.25396743 0.013615728 0.06561024
000150 82 2a 3f be 7c 4c 27 3e a1 ff 47 be 5e 41 90 3e
       -0.18668559 0.1633777 -0.19531108 0.2817487
000160 eb e8 8a 3e 02 d2 fe ad f4 97 15 3d 83 77 16 be
       0.27130827 -2.8969719e-11 0.036521867 -0.14694028
000170 55 2d 3b 3e 9a e0 5d 3e 61 dc 6d bd 61 a7 c0 bd
       0.18279012 0.2166771 -0.058071498 -0.09406925
000180 bf ee 20 a2 f3 f6 9b be 03 84 29 be 91 8c 8f 3d
       -2.1810435e-18 -0.30461845 -0.16554265 0.07009233
000190 a5 bb 5b 3e 03 d4 a7 bd 08 02 8a 3d b2 b1 10 3e
       0.214583 -0.08194735 0.06738669 0.14130285
0001a0 56 9c a5 be b4 98 ed bc 84 24 34 b9 db 55 3c be
       -0.32345837 -0.029003479 -0.00017179741 -0.18392126
0001b0 01 9e 47 3d c7 6e 90 bd ce 85 85 be c0 24 73 be
       0.04873467 -0.07052379 -0.26078647 -0.23744488
0001c0 15 4d bd bd 66 c7 79 bd 69 30 a1 3c 83 bc e8 bd
       -0.09243218 -0.060981177 0.019676404 -0.11364081
0001d0 dd 8b 8e 3d c5 c5 84 3c c2 07 17 3d 2e 8e 91 3c
       0.069602706 0.016207585 0.036872633 0.017767992
0001e0 24 88 b3 3d a0 d7 ef bc 43 75 cc 3d 45 ef a9 bc
       0.08766201 -0.029277623 0.099833034 -0.020743975
0001f0 be ec c3 3d 09 ad 22 3d 7c f7 08 3e 38 d6 79 be
       0.09566639 0.0397158 0.13375658 -0.24398124

6.weight f4 [256, 128]
000000 f0 0e 84 9d 05 2b 00 00 00 58 47 a9 11 07 00 00
       -3.4955554e-21 1.5432e-41 -4.4263204e-14 2.535e-42
000010 bb 44 01 05 67 44 00 00 e1 82 f2 a7 f6 db f5 b0
       6.078175e-36 2.4538e-41 -6.7310392e-15 -1.7888613e-09
000020 15 b8 4b 88 6b a1 14 b4 ae 04 00 80 09 14 00 00
       -6.130448e-34 -1.3842298e-07 -1.679e-42 7.187e-42
000030 ba 6f cc b0 3e 0f 00 80 7d 0a 00 80 9b 8b 00 80
       -1.4874708e-09 -5.468e-42 -3.762e-42 -5.0081e-41
000040 5a ce 29 a9 a7 af 35 91 e1 41 9c ae ea 0b 00 00
       -3.770452e-14 -1.433251e-28 -7.105761e-11 4.274e-42
000050 52 d2 c5 9e 02 a7 90 b1 2e 1f 0d aa 85 0b ad a3
       -2.0945173e-20 -4.209938e-09 -1.2534133e-13 -1.8761576e-17
000060 71 a4 f3 8b 53 36 8d 05 89 98 00 80 f7 2e 61 ac
       -9.384762e-32 1.3279532e-35 -5.472e-41 -3.2000494e-12
000070 49 97 81 a8 6e 1b 81 ab 62 10 41 b2 dc b2 0f 0f
       -1.4387486e-14 -9.173615e-13 -1.1237804e-08 7.0848914e-30
000080 c2 04 00 80 e3 cd 00 80 69 09 00 00 c3 02 0f ac
       -1.707e-42 -7.3858e-41 3.376e-42 -2.0323055e-12
000090 03 0e 00 80 ef c0 b1 a2 70 66 d3 a9 a3 04 00 00
       -5.026e-42 -4.8180223e-18 -9.3880524e-14 1.663e-42
0000a0 a4 73 86 ac 6e 6d 9c a3 07 56 0f b6 b3 5a bf 94
       -3.8213478e-12 -1.6959899e-17 -2.1358735e-06 -1.9321846e-26
0000b0 c9 54 36 b1 44 13 00 80 c4 65 fc af 7a df 9d a8
       -2.653268e-09 -6.911e-42 -4.5910842e-10 -1.7527419e-14
0000c0 20 ea 40 b1 ce fc 8c ac e8 01 00 00 56 d1 de a6
       -2.8072762e-09 -4.0071063e-12 6.84e-43 -1.5461085e-15
0000d0 bc 11 00 00 84 e7 02 b6 26 c8 5b 26 e8 99 b0 12
       6.362e-42 -1.950627e-06 7.625214e-16 1.1145102e-27
0000e0 20 49 bb b4 6d b5 f5 1f 48 65 db b5 0b 72 44 9d
       -3.488467e-07 1.0406168e-19 -1.6346248e-06 -2.5999343e-21
0000f0 04 6c 2f b4 5f d7 3a ad e3 12 00 00 95 a1 c1 b1
       -1.6337441e-07 -1.0620698e-11 6.775e-42 -5.635409e-09
000100 08 04 00 80 c8 15 cb b1 21 16 00 80 df 9e dd a3
       -1.446e-42 -5.910554e-09 -7.938e-42 -2.4028153e-17
000110 72 50 8b b0 d0 fa 90 b1 c1 a7 fa b2 87 34 f5 af
       -1.0136445e-09 -4.2194657e-09 -2.9180116e-08 -4.4602563e-10
000120 28 92 00 00 ae 41 9a b2 ce 01 00 80 c0 13 00 00
       5.2431e-41 -1.7957827e-08 -6.47e-43 7.085e-42
000130 cb 78 00 00 7f fe 13 a1 7a a4 5a a9 d2 48 76 a3
       4.3332e-41 -5.014236e-19 -4.8548385e-14 -1.3351107e-17
000140 50 4f 56 b2 a5 e9 59 b1 21 13 00 00 ae 0c 00 00
       -1.2474473e-08 -3.1710468e-09 6.862e-42 4.549e-42
000150 d1 4e b0 a3 3f f6 a8 b0 3e d4 c8 b8 53 25 fe b3
       -1.9115338e-17 -1.2293596e-09 -9.576276e-05 -1.1834586e-07
000160 90 05 18 a3 5f 0d 00 00 71 55 60 a1 b8 3c 9b a7
       -8.2411144e-18 4.797e-42 -7.6007233e-19 -4.3086974e-15
000170 8f e8 6a ad 57 43 76 ad 1e 46 f1 b5 0a 13 14 a4
       -1.3352998e-11 -1.39984335e-11 -1.7976306e-06 -3.210851e-17
000180 fb 5c 00 00 b5 68 ae b1 b3 1f 37 ac b7 1e 99 0a
       3.3355e-41 -5.0759703e-09 -2.602346e-12 1.4744918e-32
000190 5f 58 59 b4 89 f8 b7 ad 01 12 00 00 18 0c 97 9f
       -2.0241849e-07 -2.0915063e-11 6.459e-42 -6.3970995e-20
0001a0 51 0f 9b b5 85 97 cc ad b0 1d 00 00 69 ff 8c 16
       -1.1552858e-06 -2.3259403e-11 1.065e-41 2.2779406e-25
0001b0 7e 72 c2 ae c5 3d e2 b3 50 2c 18 b4 e6 17 00 00
       -8.8424365e-11 -1.0535181e-07 -1.4172224e-07 8.573e-42
0001c0 e1 03 00 00 d3 1d 2e 9f 3c 9c 04 2d d0 51 d6 9d
       1.391e-42 -3.6870603e-20 7.538022e-12 -5.672992e-21
0001d0 01 ca 03 80 ef 16 64 ab 3c 0f 00 80 1c 85 44 a0
       -3.47972e-40 -8.10337e-13 -5.465e-42 -1.6645888e-19
0001e0 08 14 00 00 1a 69 2e b7 e2 0b 8b a4 00 c2 27 a9
       7.186e-42 -1.0395679e-05 -6.030177e-17 -3.7249717e-14
0001f0 c7 97 fa 2a bf ea 46 b5 70 f1 ab a0 a5 0d 00 00
       4.4514238e-13 -7.410235e-07 -2.9128297e-19 4.895e-42
000200 71 73 5a 3a 42 61 00 00 c5 72 40 37 8e c0 50 b6
       0.0008333242 3.489e-41 1.1470814e-05 -3.1106497e-06
000210 71 95 3f 37 66 5c 1d b7 3d da 68 b8 f5 0d eb b8
       1.1419282e-05 -9.379442e-06 -5.551636e-05 -0.00011208273
000220 a8 3d a6 b5 45 aa dd b6 34 8a a3 b6 65 9c a1 b8
       -1.2385908e-06 -6.6061352e-06 -4.8738675e-06 -7.706209e-05
000230 db f5 0b b9 bf 31 49 b8 92 a7 dd b9 a1 43 00 00
       -0.00013347661 -4.7968464e-05 -0.00042277254 2.426e-41
000240 bf bc 28 ba 36 42 2b b7 36 6f ac b3 b3 1f 91 b9
       -0.0006436817 -1.020781e-05 -8.029603e-08 -0.00027680173
000250 f6 78 40 b9 ab 39 01 ba 27 71 27 b9 b6 f0 7f b7
       -0.00018355608 -0.00049295527 -0.00015968514 -1.5255229e-05
000260 f1 9c cb b1 e6 6e 90 a8 51 53 00 00 e2 5d de b7
       -5.9259198e-09 -1.6035306e-14 2.9888e-41 -2.650818e-05
000270 cb 1b f0 b7 04 b8 d9 38 b0 22 87 ba 0f 30 db b8
       -2.8623172e-05 0.00010381642 -0.001031002 -0.000104516854
000280 2f c4 26 b9 12 d5 92 b3 c6 69 2d b8 92 75 f0 37
       -0.00015904078 -6.837412e-08 -4.1344923e-05 2.8664977e-05
000290 2d 8c 15 10 64 8b e6 b3 63 b3 bf b8 fe 4f 7d b7
       2.9493056e-29 -1.07355646e-07 -9.141003e-05 -1.50986e-05
0002a0 ca 98 c4 b8 fe 92 0f ba e8 c9 3c b4 08 12 97 b2
       -9.3744675e-05 -0.00054769206 -1.7582317e-07 -1.7586913e-08
0002b0 30 83 72 b9 38 71 35 b6 c2 4a d2 37 d2 6e 09 b9
       -0.0002312779 -2.7037004e-06 2.5068763e-05 -0.00013106622
0002c0 77 9c 8e 39 ea 17 e9 b7 c2 44 1d b9 7f 6c cd b9
       0.00027200926 -2.77869e-05 -0.00014998301 -0.00039181483
0002d0 b9 56 2e a8 bb 92 d6 b9 ae e5 3a b6 cb fc d7 b8
       -9.677745e-15 -0.00040926583 -2.784985e-06 -0.00010299085
0002e0 cb 2b 0f ba 0a 92 e0 35 4d 86 9b b9 82 64 1f b8
       -0.0005461543 1.6731803e-06 -0.00029663966 -3.800216e-05
0002f0 c3 3f c8 30 af c1 1a ba 0b 16 23 b9 e1 3e 9f b9
       1.4570037e-09 -0.0005903495 -0.00015553103 -0.00030373692
000300 a8 18 28 af af 0d 1e 2d 07 06 41 19 fd 3f f1 b8
       -1.528827e-10 8.9842985e-12 9.979083e-24 -0.00011503694
000310 e2 e5 45 b8 9b e5 59 b9 3f 82 9f b6 0c 96 24 b4
       -4.7182555e-05 -0.00020780267 -4.753732e-06 -1.5328277e-07
000320 02 60 00 00 4d 52 01 b8 22 0d 32 b8 40 4b 82 90
       3.4441e-41 -3.0832645e-05 -4.2450738e-05 -5.13919e-29
000330 33 09 00 80 a6 de 00 b9 7e aa 33 b7 f9 aa dc b8
       -3.3e-42 -0.00012289974 -1.0708927e-05 -0.000105222636
000340 9c f5 94 3a f4 92 d8 ba 9d d0 8e b6 fd 1c cd 38
       0.0011364701 -0.0016523288 -4.2562156e-06 9.780561e-05
000350 4e 21 00 b5 a8 50 99 b8 52 cc 21 ba db 7a e9 b9
       -4.773218e-07 -7.310632e-05 -0.00061721087 -0.00044532758
000360 d1 ad 01 ba e4 79 00 80 c0 6b 02 ba 7f 20 dd b9
       -0.000494686 -4.3726e-41 -0.00049751624 -0.00042176616
000370 60 b7 69 b9 60 08 ea b9 c3 88 a5 b3 cf 01 81 b7
       -0.00022288924 -0.00044638198 -7.708288e-08 -1.537884e-05
000380 4d 9b 00 80 c2 56 14 ba 02 2b e9 b6 8a 43 2c b7
       -5.5711e-41 -0.000565868 -6.948948e-06 -1.0267724e-05
000390 08 14 30 39 a0 8a 07 b9 c8 15 92 38 fb 16 32 ba
       0.0001679213 -0.00012926245 6.9658796e-05 -0.00067935855
0003a0 c8 fb ca ba 67 50 20 b4 56 3d 00 00 61 df 8b b9
       -0.0015486414 -1.4930411e-07 2.2003e-41 -0.00026678576
0003b0 ea fc 0e b8 fa 1e f7 30 aa 36 e4 af d8 bd 95 b9
       -3.4090983e-05 1.7980419e-09 -4.15118e-10 -0.0002856094
0003c0 21 fa f8 b7 0d fc 42 b9 8c 78 94 37 4f f1 9c b8
       -2.968038e-05 -0.00018595178 1.7699109e-05 -7.483607e-05
0003d0 1c f7 48 b7 99 97 b0 b5 e3 24 da 37 f2 0a 87 36
       -1.1978464e-05 -1.3157143e-06 2.6004802e-05 4.0245877e-06
0003e0 f2 1c ec b6 3d a3 de b9 13 2c 00 b7 67 b5 c9 b9
       -7.0367178e-06 -0.00042464762 -7.639656e-06 -0.00038472863
0003f0 70 d8 9f 35 8c e7 8c b9 aa af d0 b6 cf 61 52 b1
       1.1909415e-06 -0.00026875397 -6.219333e-06 -3.061462e-09

6.bias f4 [256]
000000 af 07 a8 b9 dd 8d b5 ba af 91 20 bd 36 53 fa b8
       -0.00032049182 -0.0013851483 -0.039201435 -0.00011936428
000010 7d e6 ad a0 16 f1 91 bc be 0a ad bb 4f 98 0e 90
       -2.9459864e-19 -0.017815154 -0.0052808216 -2.8121896e-29
000020 79 d7 90 3b 3f 0d c3 b9 6d 58 3f bb 74 5d 86 ad
       0.0044202176 -0.00037203167 -0.0029196993 -1.5275538e-11
000030 76 c5 f8 bd 7d 10 32 ba 66 a3 f0 bd 43 cb 94 be
       -0.12147038 -0.0006792618 -0.11749916 -0.29061326
000040 54 c4 88 bb 5f 8b a7 3c 24 bf 67 ba 6a 67 94 be
       -0.0041737948 0.0204522 -0.0008840433 -0.2898515
000050 67 74 ae 9b ab 81 5c bb 58 ea 96 be 89 79 86 91
       -2.8861109e-22 -0.0033646624 -0.29475665 -2.1216374e-28
000060 d3 aa 03 bb cd 5e 69 af c6 29 e0 ba 6f a7 a8 3c
       -0.0020090833 -2.1224907e-10 -0.0017102293 0.020587651
000070 32 1b 54 be 0b 72 8e bd 0e d6 83 af 66 c7 10 bb
       -0.20713499 -0.06955346 -2.3980856e-10 -0.0022091507
000080 99 d3 af a0 c3 b7 18 98 09 cb 55 ba 01 eb d3 bc
       -2.9786177e-19 -1.9738316e-24 -0.000815556 -0.025868895
000090 33 7c 81 bd fc 5a 73 b9 35 ac e6 bc d4 d2 a4 bb
       -0.06322517 -0.0002320818 -0.028158287 -0.0050300155
0000a0 12 80 53 ba 22 74 dd bb f5 95 28 b6 b2 8c 05 bd
       -0.0008068095 -0.006758229 -2.5121237e-06 -0.03260488
0000b0 e0 56 dd a3 bc 20 32 bb a8 5f 69 ba c1 50 aa bd
       -2.3997661e-17 -0.0027180156 -0.00089024985 -0.08316184
0000c0 50 0b 16 bd 09 ee c8 b3 60 47 0b bd 2c c5 23 be
       -0.036631882 -9.356524e-08 -0.034003615 -0.15993184
0000d0 99 09 0b bb 43 37 44 be a3 49 79 b0 39 40 e3 bb
       -0.0021215437 -0.19161706 -9.0690316e-10 -0.006935146
0000e0 01 fa a0 bd 3f 22 b1 bc 9d f1 1f aa 12 bf cc bd
       -0.078601845 -0.021622775 -1.4205863e-13 -0.09997381
0000f0 47 a5 1b b9 ef 4e a4 b6 4e 5b 71 bb b0 00 82 3d
       -0.00014843523 -4.89677e-06 -0.0036828103 0.063477874
000100 49 b0 13 a5 9a be 10 bc 62 0d c4 ad ec c1 30 3d
       -1.2809945e-16 -0.008834505 -2.2288563e-11 0.04315369
000110 21 6c 1b b9 a3 06 6b bd be ab 1e b9 f6 8c b2 3c
       -0.00014822233 -0.057379376 -0.00015132033 0.021795731
000120 64 87 72 b6 e6 c8 1e b1 e2 cb b1 bb ac 09 ff bd
       -3.6139618e-06 -2.3106224e-09 -0.005425916 -0.12453017
000130 46 a2 9f b3 dd bd d5 3b a5 9d 2a 3c 67 99 ae b8
       -7.433532e-08 0.0065228776 0.010413562 -8.32554e-05
000140 63 c2 c8 bb 06 77 c8 ba df 57 bd bd 0d f2 83 bd
       -0.0061266883 -0.0015294261 -0.09245276 -0.06442652
000150 da 74 8b bd 39 47 70 bb f1 db 49 bd 20 36 e6 bc
       -0.06809397 -0.0036663546 -0.049282018 -0.02810198
000160 7b 8a d4 bd 8e 33 55 bb 75 40 2b bb 82 4b a3 bb
       -0.103779756 -0.003253195 -0.0026130949 -0.0049833665
000170 8a 52 ba 3b a0 7a 97 b7 b6 81 06 bc 8c ad ac bb
       0.005686109 -1.8057704e-05 -0.008209636 -0.005269712
000180 03 38 ea bc cc 94 27 b3 97 44 14 bd e7 09 08 be
       -0.028591162 -3.9018047e-08 -0.036198225 -0.13285027
000190 c0 a6 cc 3c 5a bc b6 bd 9b 74 2a bd 42 d5 49 3d
       0.024981856 -0.08922644 -0.04161511 0.049275644
0001a0 2a 7d 16 3d e4 5a a0 bb cc 8d f6 bc d4 56 9b a7
       0.03674046 -0.0048936475 -0.03009691 -4.311528e-15
0001b0 95 33 07 bd 61 a1 8e bd 6c b3 02 bb 6c a6 b3 bd
       -0.033008177 -0.06964374 -0.001994337 -0.08771977
0001c0 00 e2 6d bb 13 ed d1 bd 1b bc 8c bb 0c e1 90 3c
       -0.0036298037 -0.102502964 -0.004294885 0.017685436
0001d0 90 16 bf bb 32 7c 10 be f3 f1 15 b8 9a b2 be bd
       -0.005831547 -0.14109877 -3.57497e-05 -0.09311409
0001e0 44 f2 83 b7 d8 76 de b5 3d 73 8a bb 62 fd 5b b7
       -1.572923e-05 -1.6574877e-06 -0.0042251633 -1.31124125e-05
0001f0 ee ec 1d b9 3f 1e 29 b7 dd b3 d0 bd 97 4e 11 b9
       -0.0001506095 -1.0080227e-05 -0.10190556 -0.00013857555
000200 5b e7 8a ba a5 00 af b8 27 4e 75 be 8c 37 86 b6
       -0.0010597514 -8.34477e-05 -0.23955594 -3.9999777e-06
000210 07 7e e1 ba c3 a3 df ba d1 92 50 be 9f 89 a1 bb
       -0.0017203697 -0.0017062355 -0.20368506 -0.004929736
000220 a4 44 c0 b8 cd 7d 25 b2 fd 6b 57 bb 71 c9 00 bb
       -9.168059e-05 -9.632868e-09 -0.0032870763 -0.0019651318
000230 49 f2 6e ba 41 28 e4 b4 cf 75 24 b8 62 96 f8 3c
       -0.0009115083 -4.2497598e-07 -3.9210365e-05 0.030345146
000240 58 5a 98 bb 1a 95 c5 bb b3 aa 82 9f 3b 12 9b a3
       -0.0046494417 -0.006029737 -5.533954e-20 -1.6812855e-17
000250 ee 56 b3 ba 97 52 a9 be 70 2a 04 b5 84 79 47 8d
       -0.0013682523 -0.33070824 -4.9235587e-07 -6.146788e-31
000260 d1 1d eb 3c 39 9e 06 be 2e 5f 87 3d 34 1a c5 3d
       0.028700741 -0.13146295 0.06609951 0.096241385
000270 2c 2f 8c b4 2b ed a9 bd 1c 19 61 bb dc d8 e7 3c
       -2.6111354e-07 -0.08297189 -0.0034347242 0.028301649
000280 2d 5c 2e 88 3a 8c 82 b9 ce b9 bb 9c ba 6c 06 bd
       -5.2469572e-34 -0.0002490001 -1.2422651e-21 -0.032818533
000290 be e4 b6 bb b0 85 e3 3c c8 72 55 bb 3b 9a d9 bd
       -0.0055814674 0.027773708 -0.0032569636 -0.1062512
0002a0 cf fa 11 b3 32 f5 26 b7 27 08 94 bd c6 4d 3c a2
       -3.3988552e-08 -9.95146e-06 -0.072281174 -2.5519924e-18
0002b0 c4 02 72 ba ae bc 96 ba 9b d0 91 3c e3 9a a0 bb
       -0.00092319795 -0.0011500323 0.017799666 -0.0049012764
0002c0 96 cb be bb ae bc 68 ba a4 27 cb 3b 44 2c 27 be
       -0.005822609 -0.0008878213 0.006199794 -0.1632548
0002d0 cf 72 ab 8e 7b 4d 18 bb 7b f6 11 bb c7 fc 8c be
       -4.226531e-30 -0.0023239541 -0.0022272158 -0.27536604
0002e0 79 65 ad bd 25 21 8a bd 5b cf 18 bd ab b2 13 bb
       -0.0846662 -0.06744603 -0.037307125 -0.0022536914
0002f0 c7 8f 6e be bd 0b 8e be c2 d4 37 bd 3f 69 7b b3
       -0.23297034 -0.2774333 -0.044880636 -5.8536212e-08
000300 76 d7 db 3c 1b 2a 7f b2 96 dd 58 a9 08 e0 a2 bb
       0.026836138 -1.4852527e-08 -4.815383e-14 -0.0049705543
000310 14 64 c8 bb d2 91 d4 bb 41 f6 de bd 00 2c 49 be
       -0.006115446 -0.0064871097 -0.10886813 -0.19645691
000320 c3 e9 e1 b9 08 2d 23 bd df ae 35 b7 6a 7a a5 3c
       -0.0004308951 -0.039837867 -1.0829156e-05 0.020199973
000330 8e 46 95 8f 09 c9 0b be ea a7 b9 bb 41 c4 2e be
       -1.4719711e-29 -0.13650908 -0.005665769 -0.17067052
000340 86 b4 61 3b c9 3d 65 b9 b2 bb 43 be 28 97 d2 3c
       0.0034439876 -0.00021862159 -0.19114569 0.025706843
000350 43 e0 ad bd 6a 6f 99 ba 9c ad 2c bb 80 23 5f be
       -0.0849004 -0.0011706178 -0.0026348596 -0.21790886
000360 65 ed 75 bb 6c fa 9f 9e 10 b3 76 be df 45 4d 9d
       -0.0037525531 -1.6938352e-20 -0.24091744 -2.7167647e-21
000370 e8 06 3d b9 9a 73 92 be c0 18 92 bb 56 9e 41 bd
       -0.00018027017 -0.28603822 -0.004458517 -0.04727014
000380 fc 5e 31 be 0e a7 d8 be 0d ba 8f 9e c5 b7 88 3d
       -0.1732139 -0.42314953 -1.5217663e-20 0.06675676
000390 21 79 2e bd e5 0c fa ba d1 af ce bb 0e 8d 5a bb
       -0.042595986 -0.0019077329 -0.00630758 -0.0033348235
0003a0 03 45 15 bb 66 d7 32 ba 52 a5 32 3c 68 01 00 bb
       -0.002277673 -0.0006822258 0.010903673 -0.0019532088
0003b0 60 16 98 bd a8 9b 61 bd eb 50 9b bd 4d a3 00 be
       -0.07426143 -0.055080086 -0.07583793 -0.12562294
0003c0 cf dc 0f be e7 86 57 bd 79 f6 4b 3d 38 d0 52 bd
       -0.14049076 -0.052618887 0.0497956 -0.051468104
0003d0 80 b1 34 bc d1 cd ce bd bf 90 57 3c 3f 73 89 b9
       -0.011028647 -0.1009785 0.013157069 -0.0002621654
0003e0 d9 bf f7 ba d5 04 8a bb d9 09 bf bc 24 2c 48 b5
       -0.001890178 -0.004212002 -0.023320125 -7.457004e-07
0003f0 a9 7f d0 a0 a6 a3 2c 3d a3 b7 a0 b9 af 8e c7 3d
       -3.532105e-19 0.042148255 -0.00030654398 0.097440116

8.weight f4 [128, 256]
000000 60 97 00 00 d0 89 00 00 49 bb 8a 86 b5 80 00 80
       5.4303e-41 4.9438e-41 -5.218502e-35 -4.6171e-41
000010 41 49 00 00 94 6c 23 29 92 12 00 00 91 0c 00 80
       2.6279e-41 3.6287447e-14 6.662e-42 -4.508e-42
000020 47 db 9c 1f 32 7a 00 00 04 27 00 80 88 1c 00 00
       6.6431334e-20 4.3835e-41 -1.3996e-41 1.0235e-41
000030 c4 22 4c a3 58 35 00 80 24 0e 00 80 57 11 00 80
       -1.1066224e-17 -1.9136e-41 -5.073e-42 -6.22e-42
000040 47 8c 17 b2 2b 1f e5 b0 bf 53 00 80 8d 09 00 80
       -8.821252e-09 -1.6670801e-09 -3.0042e-41 -3.426e-42
000050 14 20 00 80 f3 38 00 80 42 0b 00 80 32 9c 00 00
       -1.1507e-41 -2.043e-41 -4.039e-42 5.6032e-41
000060 b1 08 00 00 70 19 00 80 1b 15 00 80 c2 05 00 00
       3.118e-42 -9.125e-42 -7.571e-42 2.066e-42
000070 ff 12 00 80 cf 0c 00 80 cb 30 00 80 bb 47 00 00
       -6.815e-42 -4.595e-42 -1.7504e-41 2.5732e-41
000080 e9 90 00 80 ae a9 00 00 f9 2d 00 80 d6 09 00 00
       -5.1984e-41 6.087e-41 -1.6492e-41 3.528e-42
000090 82 b4 86 96 7d 34 00 00 50 04 00 80 2d 26 00 00
       -2.1762784e-25 1.8829e-41 -1.547e-42 1.3695e-41
0000a0 d2 82 00 00 b6 28 00 80 76 2c 00 00 4f 46 33 18
       4.693e-41 -1.4604e-41 1.595e-41 2.3170705e-24
0000b0 f3 8d 00 80 81 49 00 00 57 18 00 00 4b 09 00 80
       -5.0922e-41 2.6368e-41 8.731e-42 -3.334e-42
0000c0 9d 9e 5d 12 cc a0 00 80 64 07 00 00 12 00 00 00
       6.993081e-28 -5.7683e-41 2.651e-42 2.5e-44
0000d0 5d 00 00 00 60 0c 00 00 ea ac 00 80 87 36 00 80
       1.3e-43 4.44e-42 -6.203e-41 -1.9561e-41
0000e0 99 11 00 00 4d 07 00 80 9d 03 00 00 56 0b 00 80
       6.313e-42 -2.619e-42 1.296e-42 -4.067e-42
0000f0 05 9d 00 00 d0 2e 00 80 d7 7e 00 00 28 13 00 00
       5.6328e-41 -1.6793e-41 4.5502e-41 6.872e-42
000100 6e a3 00 80 6d 17 00 80 e7 2b 00 00 70 0d 00 00
       -5.8628e-41 -8.404e-42 1.5749e-41 4.82e-42
000110 99 91 00 00 f0 de da 9f f3 0d 00 80 ac 12 00 80
       5.223e-41 -9.269541e-20 -5.004e-42 -6.698e-42
000120 06 45 00 00 25 2a 00 00 7d 71 00 80 8a 0e 00 80
       2.4761e-41 1.5119e-41 -4.0712e-41 -5.216e-42
000130 31 9c 00 00 08 04 00 80 23 04 00 80 a2 8d 00 80
       5.6031e-41 -1.446e-42 -1.484e-42 -5.0808e-41
000140 89 36 00 00 5b 71 00 00 e7 08 00 00 e1 0e 00 00
       1.9564e-41 4.0664e-41 3.194e-42 5.338e-42
000150 9a ca 97 90 1e 92 00 00 c0 03 00 80 2b b3 1a 06
       -5.9871155e-29 5.2417e-41 -1.345e-42 2.9095813e-35
000160 0c 00 00 00 21 7c 00 80 31 8f 00 80 8c a1 00 80
       1.7e-44 -4.4529e-41 -5.1367e-41 -5.7952e-41
000170 00 10 00 00 67 8a 00 00 eb 0a 00 80 64 a5 00 00
       5.74e-42 4.965e-41 -3.917e-42 5.9331e-41
000180 1d 02 00 80 91 4f 00 80 bf 10 00 00 84 d3 43 a4
       -7.58e-43 -2.8543e-41 6.007e-42 -4.2463045e-17
000190 7f 00 00 00 56 0c 00 00 4a 08 00 80 ae ae 3d 16
       1.78e-43 4.425e-42 -2.974e-42 1.5322418e-25
0001a0 87 72 35 a1 6e 86 00 00 3b da 3b af a3 93 00 00
       -6.147676e-19 4.8224e-41 -1.7085082e-10 5.2962e-41
0001b0 cb dc 84 a0 25 10 00 00 b3 54 00 80 3a 13 00 80
       -2.2507778e-19 5.792e-42 -3.0384e-41 -6.897e-42
0001c0 0d 0b 00 00 da a4 10 9e ca 07 00 80 8f 03 00 00
       3.964e-42 -7.657387e-21 -2.794e-42 1.277e-42
0001d0 fd 04 00 80 8c 2d 00 00 6c 32 00 00 39 74 d3 98
       -1.79e-42 1.6339e-41 1.8088e-41 -5.4659577e-24
0001e0 01 53 00 00 1f 5f 00 00 73 4f 00 80 73 3c 00 80
       2.9776e-41 3.4123e-41 -2.8501e-41 -2.1685e-41
0001f0 b4 8c 00 00 68 9a 00 00 86 09 00 80 01 55 00 80
       5.0475e-41 5.539e-41 -3.416e-42 -3.0494e-41
000200 d4 4c 00 80 67 85 00 80 08 0a 00 00 a8 62 00 00
       -2.7561e-41 -4.7856e-41 3.599e-42 3.5391e-41
000210 e8 2a 00 80 9e 8a 00 80 cb 15 10 1b 7e a2 00 80
       -1.5392e-41 -4.9726e-41 1.1918443e-22 -5.8291e-41
000220 19 71 00 80 76 a5 00 00 58 2e 00 80 2f 58 00 00
       -4.0572e-41 5.9356e-41 -1.6625e-41 3.1634e-41
000230 fb 6f 00 00 9e 3a 00 80 f5 82 00 80 b8 00 00 00
       4.0171e-41 -2.1028e-41 -4.6979e-41 2.58e-43
000240 c2 81 00 80 58 13 00 80 ef 13 00 00 cd 6c 00 00
       -4.6548e-41 -6.939e-42 7.151e-42 3.903e-41
000250 85 9e 00 00 0b 00 00 00 61 7e 00 80 25 6b 00 00
       5.6866e-41 1.5e-44 -4.5336e-41 3.8436e-41
000260 39 14 00 00 5a 0e 00 80 bf 01 00 80 b2 20 e3 80
       7.255e-42 -5.148e-42 -6.26e-43 -2.0858386e-38
000270 bf 7a 00 00 79 08 00 00 8a 08 00 80 3d 01 00 00
       4.4033e-41 3.04e-42 -3.063e-42 4.44e-43
000280 94 0e 00 00 a6 0a 00 00 b9 95 00 00 3a 64 ab b0
       5.23e-42 3.82e-42 5.371e-41 -1.2470374e-09
000290 78 0b 00 80 9f 07 00 80 21 92 00 80 04 09 00 80
       -4.114e-42 -2.734e-42 -5.2421e-41 -3.234e-42
0002a0 a7 2f 00 80 0c 5a 00 80 ad 12 00 00 26 93 00 80
       -1.7094e-41 -3.2303e-41 6.7e-42 -5.2787e-41
0002b0 aa 02 00 00 2f 90 00 80 ee 0b 00 80 b5 3e 00 80
       9.56e-43 -5.1723e-41 -4.28e-42 -2.2495e-41
0002c0 cb 23 00 80 4c 51 00 80 17 f6 7a b0 af 14 00 00
       -1.284e-41 -2.9164e-41 -9.1299185e-10 7.42e-42
0002d0 6a 71 00 00 1a 13 00 80 70 00 00 80 08 13 00 80
       4.0685e-41 -6.852e-42 -1.57e-43 -6.827e-42
0002e0 bb 0c 00 00 93 15 00 00 83 06 00 80 3e 14 00 00
       4.567e-42 7.74e-42 -2.336e-42 7.262e-42
0002f0 bf 03 00 80 89 13 00 80 17 0c 00 80 2a 35 00 00
       -1.344e-42 -7.008e-42 -4.337e-42 1.9072e-41
000300 88 0d 00 00 bb 26 00 80 b3 8d 00 80 a7 76 00 80
       4.854e-42 -1.3894e-41 -5.0832e-41 -4.2564e-41
000310 6a 19 00 80 05 8d 00 80 b7 fd 00 80 7e 01 00 00
       -9.117e-42 -5.0588e-41 -9.1016e-41 5.35e-43
000320 17 8a 00 00 ab 12 00 80 e0 63 00 80 32 17 00 80
       4.9537e-41 -6.697e-42 -3.5828e-41 -8.321e-42
000330 53 3f 00 80 1b 01 00 80 a8 80 00 80 1d 0c 00 00
       -2.2716e-41 -3.97e-43 -4.6153e-41 4.345e-42
000340 d2 97 00 00 5b 5d 00 00 cf 17 00 80 f5 0f 00 80
       5.4463e-41 3.349e-41 -8.541e-42 -5.724e-42
000350 bb 15 00 00 26 41 00 80 62 43 00 80 1d 07 00 80
       7.795e-42 -2.3371e-41 -2.4172e-41 -2.552e-42
000360 17 2a 00 80 bb 1b 00 00 61 0e 00 00 0c 01 00 80
       -1.5099e-41 9.948e-42 5.158e-42 -3.76e-43
000370 8d 9a 00 80 64 06 00 00 71 03 00 80 33 00 00 80
       -5.5442e-41 2.293e-42 -1.235e-42 -7.1e-44
000380 bd 02 00 80 c5 10 00 00 d3 a9 00 00 03 dc e6 8e
       -9.82e-43 6.016e-42 6.0921e-41 -5.691124e-30
000390 35 ca 91 03 e3 32 00 00 87 08 00 80 3b 53 00 80
       8.5687585e-37 1.8255e-41 -3.059e-42 -2.9857e-41
0003a0 97 21 00 80 fe 2e 00 80 70 11 00 00 03 04 00 80
       -1.205e-41 -1.6858e-41 6.255e-42 -1.439e-42
0003b0 53 7e cc 05 94 00 00 00 00 06 00 80 27 09 00 00
       1.9230472e-35 2.07e-43 -2.152e-42 3.283e-42
0003c0 4a 10 00 00 89 02 00 80 ee 04 00 00 07 db 68 81
       5.843e-42 -9.1e-43 1.768e-42 -4.2768815e-38
0003d0 47 9e 00 00 3a 87 bf 9a 50 0c 00 00 6c 94 00 80
       5.6779e-41 -7.921422e-23 4.417e-42 -5.3244e-41
0003e0 f4 77 00 80 ab 6f 00 80 45 0a 00 00 18 a3 00 00
       -4.3031e-41 -4.0059e-41 3.684e-42 5.8507e-41
0003f0 25 23 00 80 70 0e 92 8d 99 1a 00 80 4d 03 00 80
       -1.2607e-41 -9.00142e-31 -9.541e-42 -1.184e-42
