Models/checkpoint_vel_final_1000_1000.pth (torch, 353077 bytes, 16 tensors)

0.weight f4 [32, 9]
000000 f0 fd fb 3d 78 9e fb bd 75 90 bb be 67 d7 b5 3e
       0.12304294 -0.12286085 -0.3663365 0.355159
000010 42 a3 42 bf 08 f2 b9 3e ec 70 c0 3b f9 5d 6a 3e
       -0.7603036 0.36317468 0.0058728363 0.2288741
000020 84 88 c3 bd e6 cf 1d be e8 b7 d8 3d f9 87 e7 3d
       -0.09547523 -0.15411338 0.10581952 0.113052316
000030 62 ec 57 be 69 b4 5a 3f 4d b6 35 be f1 30 a1 bd
       -0.21086267 0.85431534 -0.17745323 -0.07870663
000040 24 d8 66 3a 66 ed 03 be 92 0c b9 3e 5a 8e 72 bb
       0.0008806011 -0.12883529 0.36142403 -0.0037011118
000050 18 bf 9e bc 3a 6c a6 be 51 9d 0e bf 97 bf 92 bd
       -0.01937823 -0.32504445 -0.55708796 -0.07165449
000060 67 f3 36 be 6f 64 3b 3d b7 50 2d 3e 88 e4 c9 3d
       -0.17866288 0.045750078 0.16925322 0.09858042
000070 6c 71 a4 be e4 1f 5c 3e 06 a1 b0 3e df e3 f8 3e
       -0.32117784 0.2149654 0.3449785 0.48611352
000080 13 21 70 3e 7c ef 7a be d4 0b 33 be 57 38 97 bd
       0.23450117 -0.24505419 -0.17484981 -0.07383793
000090 11 9c 13 3e 84 db 42 bd cb 56 50 3e 76 b4 57 be
       0.14415003 -0.047572628 0.20345609 -0.21064934
0000a0 88 14 8b 3f a7 44 26 be 0b b9 1e 3e 5a 60 c4 3a
       1.0865641 -0.16237126 0.15500276 0.0014982328
0000b0 10 e0 6d be 9b a3 dd 3d f9 7c 43 be 80 ea 76 3d
       -0.23230004 0.10822221 -0.19090642 0.06028223
0000c0 8b 75 7b bf 5e 83 93 3d fe 17 e5 be e0 ee d9 bd
       -0.9822623 0.07202791 -0.44744867 -0.10641265
0000d0 8a ca e4 3d 24 e1 c7 bd c0 92 74 3e 31 54 83 bc
       0.11171444 -0.09759739 0.23884106 -0.016031357
0000e0 08 d2 b7 3e 2f 6e 8e be 1b 24 5c be 4d 9c 26 3e
       0.3590243 -0.27818438 -0.21498148 0.16270562
0000f0 17 9d 8a be 90 37 67 3e 79 b4 90 3e 0e 7a ba 3d
       -0.27072975 0.22579789 0.2826269 0.09105311
000100 ac f4 95 be 6b 97 be be 2a 83 7c 3e 15 c3 59 bd
       -0.29288232 -0.37224898 0.2465941 -0.05316456
000110 c2 db d2 bd 5e 8c a6 bd 1b cd 93 3d 55 de 15 3d
       -0.10295822 -0.08132242 0.07216855 0.036588985
000120 d4 0e 0a 3e 0f 48 1e 3e 70 49 41 3e bb 13 21 bf
       0.13482219 0.15457176 0.1887567 -0.6292073
000130 55 35 f9 bd 17 14 d5 3d 72 c8 89 be d5 3d 63 3d
       -0.121683754 0.104042225 -0.2691074 0.05547889
000140 10 79 14 be 5e dc 40 be 01 32 e9 3c 88 18 1a bf
       -0.14499307 -0.18834063 0.028466227 -0.6019368
000150 e5 38 cd be 53 5c fa 3d a2 e8 57 be 29 fc 10 3e
       -0.4008247 0.12224641 -0.21084836 0.14158691
000160 63 57 8f bd 08 0d 42 3d 3e 04 d3 3c 50 59 8a be
       -0.069990896 0.04737571 0.025758859 -0.27021265
000170 d0 28 6f bd 8d 48 9d 3f 66 9d 69 bf 7c 5d 0e be
       -0.05838853 1.2287766 -0.91255796 -0.13902849
000180 f3 cd ef 3d f3 b2 00 3e 86 03 07 be 11 bf 1f bd
       0.117092036 0.12568264 -0.13184938 -0.039000574
000190 f8 f8 94 3e 6c 90 bf 3d 7e b8 cf 3e 04 7e 83 be
       0.29096198 0.09353718 0.40570444 -0.2568208
0001a0 4b 56 6c be b9 e2 8b be da 1a 95 3e 56 44 05 bd
       -0.23079793 -0.27321413 0.2912205 -0.032535873
0001b0 77 b2 40 3e 39 98 58 bd 5a 45 99 bd c3 ac df 3e
       0.18818079 -0.052879546 -0.07483931 0.43686494
0001c0 96 51 a3 3f 38 16 10 be cb 80 e4 3c 2b 14 5e 3e
       1.2759273 -0.14070976 0.027893445 0.21687381
0001d0 93 8b f7 3d 87 7e 32 3d ce 10 9b be ac e0 63 bd
       0.120871685 0.043577697 -0.30286258 -0.055634186
0001e0 5a 5c 13 bd fa 21 75 3d 07 3f a4 3e 36 a1 07 be
       -0.035976745 0.059846856 0.32079336 -0.13245091
0001f0 1c d8 3d 3e c3 33 1d be 62 ec 76 be 2a c2 5b 3d
       0.1853947 -0.15351777 -0.2411361 0.053651966
000200 5a 46 60 3e 0f df 51 3e ee 7a 62 bf 07 96 5a bc
       0.21901837 0.20495246 -0.88468826 -0.013341433
000210 db 71 3b 3e e2 aa b6 3d 46 e5 01 3e 26 00 90 3e
       0.18305151 0.08919312 0.12685117 0.28125113
000220 a9 dd ae 3e e8 5d 99 3e 68 ae 18 be 64 c1 72 bf
       0.34153488 0.29954457 -0.1491028 -0.9482634
000230 ed 39 07 be bd 0d b5 3c ed 2d 5d be 8d aa 34 3d
       -0.1320569 0.022101277 -0.2159955 0.044107962
000240 53 e8 aa bd 2d b2 11 be a0 e9 d3 3c 94 1b 43 3d
       -0.083450936 -0.14228125 0.025868237 0.047633722
000250 62 27 05 3b f3 b3 a7 3f f6 94 d1 bd 21 fb 08 3d
       0.0020317663 1.3101791 -0.1023349 0.03344262
000260 1a 1a e4 bc d0 bb c7 3b a7 6f d4 be 49 2b 1d be
       -0.027844477 0.006095387 -0.41491434 -0.15348543
000270 9f ee 18 bf c2 44 c6 bd 58 fa a9 3d f3 55 7e bd
       -0.59739107 -0.09681083 0.082997024 -0.062093686
000280 9e 33 5e be 74 03 41 3e a5 6d 36 3e 26 52 cc 3c
       -0.21699378 0.18848974 0.17815264 0.024941515
000290 ab f7 d4 be 61 a2 cb 3e b5 d9 26 3f 6f b4 70 bd
       -0.41595206 0.39772323 0.65175945 -0.058765825
0002a0 fe c0 48 be 65 23 b6 bd 79 be 15 be 0d 55 80 3d
       -0.1960487 -0.0889347 -0.14623441 0.06266222
0002b0 0b 0a 5c 3e 1b af ec 3e 8e d8 44 3e 8e 06 02 3e
       0.21488206 0.46227345 0.19223234 0.12697813
0002c0 8d 93 18 3e a8 33 83 3d 0b ff 38 be c5 da 97 3e
       0.14900036 0.06406337 -0.18066041 0.29659095
0002d0 5f 66 79 bd 60 33 87 bd 16 d7 99 be a8 60 0c be
       -0.060888644 -0.06601596 -0.3004691 -0.13708746
0002e0 32 93 8c bf 40 0f c4 3d f2 dd 79 be 05 7a d8 bd
       -1.098242 0.09573221 -0.24401072 -0.105701484
0002f0 2b b2 6e bd 0d cb 90 be 9a 71 e0 3c 64 e0 05 be
       -0.058275383 -0.28279915 0.02739792 -0.1307388
000300 22 42 c2 bd e0 8d 86 3e e2 e3 31 3f 5a 52 45 be
       -0.0948527 0.26280117 0.69488347 -0.19269696
000310 75 28 b6 3d d0 f2 26 3e 49 3c 8d 3e 22 b2 96 be
       0.08894435 0.16303563 0.27585056 -0.2943278
000320 13 f8 9d 3e b5 16 33 bf b7 28 6c be 8d ad 2f 3b
       0.30853328 -0.69956523 -0.23062406 0.0026806325
000330 19 93 e2 3d 29 84 c2 bd e3 70 45 bc 47 e9 c2 bc
       0.11063213 -0.09497864 -0.01205084 -0.023792876
000340 af 28 3c 3d bf 08 64 3c 05 03 46 3e fb 93 03 3e
       0.045937236 0.013918101 0.1933709 0.12849419
000350 1d 1c 94 be d5 05 6a 3e fa d1 2a 3e a1 3d af 3e
       -0.289277 0.22853787 0.16681662 0.34226707
000360 36 60 0f 3e 1d 4b 82 be a1 53 85 be 97 52 21 3f
       0.14001545 -0.25447932 -0.26040366 0.6301665
000370 da d4 df 3e 7f 22 32 3e 4a d7 33 be f8 19 51 bd
       0.4371708 0.17395972 -0.17562595 -0.051050156
000380 29 73 77 3d 2d a9 00 be 29 86 18 be b3 fb 50 3d
       0.06041256 -0.12564535 -0.14894928 0.05102129
000390 32 75 db 3e c2 2a 64 3f 4d cd a3 bd d5 c2 ed bd
       0.4286285 0.89127743 -0.079981424 -0.11609427
0003a0 11 95 74 3e 8b 55 82 bd 4e 62 d5 bd 56 40 93 bc
       0.2388499 -0.06363972 -0.10419141 -0.017975014
0003b0 f9 6b b3 be 3c 40 15 bd cf 29 e8 3e 8e c1 36 be
       -0.35043314 -0.03643821 0.45344397 -0.17847273
0003c0 28 67 ae be a6 5e e1 3c 4a cb 09 3e 5b ed af bc
       -0.34063077 0.027510952 0.13456455 -0.021475485
0003d0 9a 4c 11 bd 1c 57 15 3e dc 33 06 bf f2 bb 00 3e
       -0.035473444 0.14584011 -0.5242288 0.12571695
0003e0 76 82 02 be 92 3f 9e 3e 0f fe 97 3e be 08 55 bd
       -0.1274508 0.30907875 0.2968602 -0.05201029
0003f0 7f 4b aa 3e 1f 0a e4 3e ae 4e 14 be dd 64 66 bf
       0.33260724 0.44538972 -0.14483139 -0.89997655

0.bias f4 [32]
000000 72 fc a4 3d c1 3b 26 3e 83 f2 f7 bc 97 bf cc bc
       0.080559626 0.16233732 -0.030267006 -0.0249937
000010 0d fb 43 3e d5 ce 7a 3e 77 f9 70 3c 4c 5b 4f bc
       0.19138737 0.24492963 0.014707915 -0.012656044
000020 ae ea 44 3c 50 1f 18 3e 0d 9b 04 bf c5 67 ad 3c
       0.012018843 0.14855695 -0.5179909 0.021167645
000030 7c 90 83 3e c7 ec 48 bd 18 de 59 3a ad 0d 74 bd
       0.2569617 -0.049053933 0.00083109876 -0.059583355
000040 be 38 d0 3e d5 7e 59 3d c4 4a 7b bc e5 d4 09 3f
       0.4066829 0.053099472 -0.01533765 0.53840476
000050 fb 89 82 bd d4 f3 ed 3e 13 79 43 3e 86 3d 6b 3e
       -0.06373974 0.4647509 0.19089155 0.22972688
000060 65 df 69 be 13 5c 45 be 41 48 6c 3e 46 3d 0d be
       -0.22839125 -0.19273405 0.23074438 -0.13792905
000070 e4 42 99 3d f3 b1 74 3d db 6a b3 bd a1 d1 72 be
       0.074834615 0.059740018 -0.087606154 -0.2371278

2.weight f4 [64, 32]
000000 9e d6 cb 3d 7f 3d 3c 3e 6c 76 af bd 6d 25 db bd
       0.09953044 0.18382834 -0.08567509 -0.10700498
000010 ca ac 10 3e 04 87 30 be c7 29 aa bd 26 d9 1c bd
       0.14128414 -0.17239004 -0.0830875 -0.038293026
000020 a4 7e 29 be e7 c9 fc bd f5 f2 68 bd 85 ac 5c 3e
       -0.16552216 -0.12343197 -0.056872327 0.21550186
000030 26 8e 96 bb 47 46 61 be 2a c2 0b 3d 8b 46 27 3c
       -0.004594582 -0.21999465 0.034120716 0.01020969
000040 95 19 0b 3d 88 bb cb 3c c9 a2 0a 3e d7 9d 15 3d
       0.033959944 0.024869695 0.1353866 0.03652748
000050 f7 4b 64 bc 09 4f c4 bd 36 0a 9a bd 19 0d bc 3d
       -0.013934127 -0.09585387 -0.07521479 0.09182186
000060 38 c9 ba 3c c7 1a 1b be fc ea 3e 3d bc 14 60 bc
       0.022801027 -0.15146933 0.046610817 -0.013676818
000070 52 03 e9 bd e5 9d 2f bc f8 a2 05 3e 45 ff 4c bc
       -0.113775864 -0.010718797 0.13050449 -0.012512033
000080 6e 4d 94 be b1 0c 53 3d 0d 49 60 bc 01 15 4f 3e
       -0.28965324 0.051525775 -0.013689292 0.20222856
000090 b0 22 5b 3e 1f b4 de 3d ec 29 cb bd e0 b0 d3 3d
       0.21399951 0.10874199 -0.09920105 0.103364706
0000a0 51 c7 9b bc c4 23 b6 be fb d3 03 3e 2d 11 75 3d
       -0.01901594 -0.35574162 0.12873833 0.059830833
0000b0 de 9e 07 3e 6c 66 07 bd 1a 24 56 be 8a cd 9f be
       0.13244197 -0.03305666 -0.20912209 -0.312115
0000c0 e1 8f 1b be 86 fe d9 bd 6b 42 11 be b9 f0 10 3e
       -0.15191604 -0.106442496 -0.14185493 0.14154328
0000d0 dc d1 40 3b 08 aa 85 bd cb 07 99 3c 93 72 e3 3d
       0.002942196 -0.065265715 0.018680474 0.11105838
0000e0 33 c7 24 3d b6 ca 83 3e d5 e1 43 3d 00 97 b4 3c
       0.040229034 0.25740594 0.047822792 0.022044659
0000f0 f0 10 a5 3e 5a 38 11 bd 0b f0 98 3d d6 6a 0a 3e
       0.32239485 -0.03545413 0.074676596 0.13517317
000100 c6 9e 27 be fa 59 99 bd 6c 88 9c 3d 7e a1 b6 3d
       -0.16369161 -0.07487865 0.07643208 0.08917521
000110 9b bf 93 bd 82 bb a5 bd e0 1e 19 bd 50 b5 0e 3e
       -0.0721428 -0.08092405 -0.03738296 0.13936353
000120 66 38 21 bc ef 41 ed bc 8a 6d cb 3e 38 b5 15 bd
       -0.009840107 -0.028962104 0.3973201 -0.036549777
000130 d9 10 ba 3e 3e 5b a2 bc 13 15 7a 3e f9 5e c1 bd
       0.3634098 -0.019818898 0.24422102 -0.09441943
000140 0c 96 5c bd f9 20 04 3c 00 a4 0c 3e 1c 17 9f be
       -0.053854033 0.008064502 0.13734436 -0.3107232
000150 7c e6 1a 3e 34 a8 50 3d ec ff 56 be a0 af cd bc
       0.15126985 0.05094166 -0.20996064 -0.025108159
000160 a0 17 8a 3e c3 0e b8 bd 1a 7c f3 3b 12 94 5c 3e
       0.2697115 -0.089871906 0.0074305655 0.2154086
000170 55 0e 0e bc ee 09 56 bd 7f 41 64 3e 49 9e 8c 3e
       -0.008670409 -0.052255563 0.2229061 0.27464512
000180 8f 18 c1 bd 01 00 dc 3d a5 4e 41 3d 6d aa 87 bd
       -0.09428512 0.10742188 0.047194142 -0.06624303
000190 37 b9 2f be f5 c4 61 3e f9 b6 07 3e 89 b4 04 bc
       -0.17160498 0.2204779 0.13253392 -0.008099684
0001a0 58 b0 40 3e a1 4e 2c 3e 91 43 37 bd 06 f1 c5 bd
       0.1881727 0.1682687 -0.04474217 -0.09665112
0001b0 57 d3 25 3d e2 8e 96 3d 8e 10 6c 3d 7c 47 43 be
       0.040484753 0.073514715 0.057632975 -0.19070238
0001c0 75 3b 56 be 60 1a 95 3e 64 ad 3c 3b 67 01 98 bd
       -0.20921119 0.29121685 0.0028789872 -0.074221425
0001d0 59 5e c0 bb 95 1b 69 be 5c 2c 1a 3e af 1b 25 bd
       -0.005870622 -0.22764428 0.15055984 -0.040309604
0001e0 e2 a3 14 be 98 ec 34 3e 4f 60 6e be d8 49 91 3c
       -0.14515641 0.17668378 -0.23278926 0.017735407
0001f0 1a 67 8c bd 78 a5 8e 3c 8a 20 58 be f2 ff 44 be
       -0.068556026 0.017412886 -0.21106163 -0.1923826
000200 55 3f 06 3e 42 f1 54 bc b8 d4 0e 3e 3e 89 20 bd
       0.13110097 -0.0129969735 0.13948333 -0.039193384
000210 7b 31 43 bd de 3f 71 be d0 80 48 3e 36 bc 95 3d
       -0.04765461 -0.2355952 0.19580388 0.07311289
000220 b6 60 5b be 21 af a2 bc 4c 9c 02 3e a4 1b 33 be
       -0.21423611 -0.019858899 0.12754935 -0.17491013
000230 42 8f 3c bc 56 bf 94 bb f5 d5 56 3d d6 40 b3 bd
       -0.011508765 -0.0045394106 0.05245014 -0.08752601
000240 3f f9 4e 3e de f5 dc 3d 6c 0a 4a be bd a4 d4 bc
       0.20212267 0.10789083 -0.19730538 -0.02595746
000250 92 23 ff 3d 72 c4 4c be 33 11 21 3d 2c bc 8a bd
       0.124579564 -0.19996813 0.039323043 -0.06774172
000260 84 3f b9 3d cb b5 52 3d 64 c2 2d 3c ea da 56 3e
       0.09045318 0.051442903 0.010605428 0.20981947
000270 04 61 2b bd 38 0f d5 3c ba 33 dc 3d 83 09 80 be
       -0.04184057 0.026008233 0.107520536 -0.25007257
000280 81 29 57 3d 0a 80 9f 3d c4 6d 8f bc cc 99 a3 3d
       0.052529816 0.077880934 -0.017508395 0.07988319
000290 15 88 59 3e 86 63 47 be 86 e0 0b bd 37 74 45 be
       0.21243317 -0.19471559 -0.03414967 -0.19282614
0002a0 d1 b3 50 3d 44 79 8a 3c 18 52 45 3d f4 fc f9 3d
       0.050952736 0.016903527 0.048173994 0.1220645
0002b0 cc c3 e9 3b 81 49 6a 3c 93 26 5d 3d e1 e2 7e 3e
       0.0071339365 0.014299751 0.053991865 0.24891235
0002c0 1b 98 f4 3d 95 ba 19 3d c5 87 c1 bd 78 68 87 3d
       0.11943074 0.037531454 -0.09449724 0.06611723
0002d0 5b e0 64 bd 1e 83 3c 3d 46 ac 83 be 38 25 9e 3d
       -0.055878025 0.04602348 -0.25717372 0.07721943
0002e0 95 63 1d be f2 cb 14 be 65 52 6d be f8 01 19 be
       -0.15370019 -0.14530924 -0.23175962 -0.14942157
0002f0 2d fd 39 3d 0f fb f1 3d d0 8e 6e 3c a3 07 9c 3d
       0.045407463 0.11815464 0.014560416 0.07618644
000300 e1 4f 5a 3e 17 c9 24 3c d0 c8 72 3e 0b 38 f3 bd
       0.21319534 0.010057709 0.23709416 -0.11875924
000310 29 01 26 be bc 09 81 be 26 49 2f be 2a f8 86 3d
       -0.1621138 -0.2520274 -0.17117748 0.06590302
000320 6a 11 af bd 90 24 14 be 6c fb 90 3e ed 37 07 be
       -0.08548243 -0.14467072 0.2831682 -0.13204928
000330 08 1d b3 be 2d 7a 18 be d2 97 eb 3c 92 9c 9e 3e
       -0.34983087 -0.14890356 0.028758917 0.3097883
000340 8b de 90 bd 5e e7 45 bd c5 55 86 3d 26 fa d5 3d
       -0.07073697 -0.048316352 0.06559328 0.10448103
000350 90 f7 a2 3d af 1e 84 bc fe d6 7a 3d 06 1a bf bd
       0.07957375 -0.016127912 0.06124019 -0.093311355
000360 e3 f8 e1 3d a8 b6 47 bc f9 96 1e be 58 11 cc bb
       0.110337995 -0.012189545 -0.15487279 -0.0062276535
000370 06 a4 1d be 0c 98 19 bd bf b9 70 3d ff f9 9b bd
       -0.15394601 -0.03749852 0.05877089 -0.07616042
000380 83 63 be 3c 1c 22 48 bd c0 b6 41 bd 69 0e 40 3e
       0.02324081 -0.048860654 -0.047293425 0.18755497
000390 41 a9 4f bd 57 50 6d be 46 7a 4f 3e 12 90 b1 bd
       -0.050698522 -0.23175178 0.20261487 -0.08670057
0003a0 85 25 dd 3d f0 96 9a bd b0 dd b2 bd 69 90 0a be
       0.10798172 -0.0754832 -0.0873369 -0.1353165
0003b0 8f 78 97 3e 9b 6a 08 3e 46 47 14 be a6 c2 31 be
       0.29584166 0.13321917 -0.14480314 -0.17359409
0003c0 cc f9 ec 3e e9 d0 0f 3d f2 24 38 bd d8 60 ed 3d
       0.4628433 0.03511134 -0.04495711 0.11590737
0003d0 3c bd d8 bc 5d 84 95 bc e0 2f 23 bd db c8 1a 3d
       -0.026457421 -0.018251592 -0.03984058 0.037789207
0003e0 9f 8b c3 3d a5 24 50 be 40 03 ee 3c be d6 57 bd
       0.09548115 -0.20326479 0.029054284 -0.05269503
0003f0 da f3 df 3d 94 57 88 3d 1f cf e4 bd 13 86 67 bd
       0.10935183 0.06657329 -0.11172318 -0.056524348

2.bias f4 [64]
000000 4a 78 3c 3e 47 34 fd bd 8e 8f c1 be b7 a1 dc 3d
       0.18405262 -0.12363487 -0.37804836 0.10773032
000010 a7 34 1e 3e ed f1 86 3b 6c 4f 98 be 1d 51 0d bc
       0.15449773 0.0041181953 -0.29748094 -0.008625296
000020 0c f6 0f be 88 f2 44 3d 2a 1d fe 3d 97 18 29 3d
       -0.14058703 0.04808286 0.12407906 0.041283216
000030 b9 ed f6 bd 86 e8 e6 bd 57 1c 7e be 35 97 6d be
       -0.12057061 -0.11274819 -0.24815498 -0.23202212
000040 50 b9 b5 3e be 87 85 be 3b 72 3e 3d 34 3a 7e be
       0.35492945 -0.26080126 0.046495657 -0.2482689
000050 5b 12 6b 3e 67 4a bb 3c 18 b7 06 3d f1 41 b4 bd
       0.22956221 0.022862626 0.032889456 -0.0880164
000060 e1 79 e3 bd d3 3f 49 be 6e a2 9c 3d 2d 5e 36 bd
       -0.11107231 -0.19653253 0.076481685 -0.044523407
000070 fa 68 98 3d 60 50 e6 bd 51 ba 90 be 67 4b 16 bd
       0.07441898 -0.11245799 -0.28267148 -0.036693003
000080 3f 05 ff bd 14 c1 45 3e de 38 55 3e c7 c7 fa 3d
       -0.124521725 0.19311935 0.20822474 0.12245136
000090 17 44 b4 bc 75 fe 65 be 02 ee 0a bc 78 7f 2e bd
       -0.022005124 -0.22460349 -0.008479597 -0.042602032
0000a0 15 c8 bd bc 84 a8 4f be 23 33 1c 3e 49 7b 11 3e
       -0.023166696 -0.20279127 0.15253882 0.14207186
0000b0 76 aa 12 be 1d 44 df 3d 31 a2 f9 3c 3c 7d 9b ba
       -0.14322838 0.109016635 0.030472847 -0.0011862884
0000c0 99 11 d6 bc 74 23 b7 3d 0e 03 90 3c 63 bb 64 3e
       -0.026131438 0.08942309 0.017579582 0.22337107
0000d0 f3 6a 1e 3e 32 d6 5f 3e cc be da bd bf 85 92 3e
       0.15470485 0.21859053 -0.10680923 0.28617665
0000e0 97 c6 a6 3d 49 5a 60 3d 37 05 9f bd 69 ad 95 bb
       0.08143347 0.054773603 -0.077646665 -0.0045677912
0000f0 da c4 17 bd 0f e2 c8 3d 55 c1 80 be b8 17 ef bd
       -0.037052967 0.09808742 -0.251475 -0.11674446

4.weight f4 [128, 64]
000000 46 14 21 3e 48 ad b9 bd f5 29 1e bd 38 7d e2 3c
       0.1573039 -0.09066254 -0.038614232 0.0276476
000010 50 4a a0 bb 4f bf b1 3d 99 e8 50 3d 3a f1 84 bd
       -0.0048916712 0.08679067 0.051003072 -0.06491323
000020 ec b1 3b 3d d3 f3 19 be 1b fa a9 3d 4d e7 0a bd
       0.045823976 -0.15034418 0.08299657 -0.033911992
000030 0e c3 17 be 53 95 40 bd 2e 49 0a bd 8c 93 7d bd
       -0.14820501 -0.047017407 -0.033761196 -0.06190829
000040 2c 63 d3 bc cf 18 e6 bd 69 f5 1f bd 66 4b 3d bd
       -0.025804125 -0.112352006 -0.0390524 -0.046214484
000050 09 97 0e 3e bc 9d e2 3d 81 93 49 bc 63 23 a8 3d
       0.13924803 0.11065242 -0.012303234 0.082098745
000060 14 2f e9 3d 9e dc 36 bd 94 d0 b2 bd 47 52 e0 3c
       0.113859326 -0.04464399 -0.08731189 0.027382983
000070 ba 68 62 bd dc a6 c1 bc 33 59 a0 3d ea 0b d5 bc
       -0.055275656 -0.023639135 0.078295134 -0.026006658
000080 7a a2 ec 3d 78 35 94 3d 5c 0e 19 be aa 39 4c bd
       0.115544274 0.07236761 -0.14946884 -0.04985968
000090 68 93 64 bc d2 3c 00 bd 89 7d b7 3d 76 dc c4 3c
       -0.01395116 -0.031308003 0.08959491 0.024030905
0000a0 d8 4c a4 3d 0e 24 35 be 6c b5 86 3d 3f aa 84 bd
       0.08022469 -0.17689535 0.06577572 -0.06477784
0000b0 ee 9a 7c bd 17 d2 c6 bd 87 23 01 bc 37 b0 4a bb
       -0.06167119 -0.0970804 -0.007882006 -0.0030927786
0000c0 fc 46 ae 3d 23 0d e8 3d cc e6 e3 bc ea 3b ab 3d
       0.08509633 0.11330631 -0.027820013 0.08361037
0000d0 ac ff d9 bd 31 8e 1b 3d f2 a1 21 bd f9 5a 09 bd
       -0.10644469 0.0379774 -0.039461084 -0.033534024
0000e0 8c bd ef 3d 2a 77 b2 3d 98 a7 0e 3d cc a3 07 3d
       0.11706075 0.08714135 0.0348278 0.033115193
0000f0 1f 4e e5 3d 41 d7 24 bd 37 3d 2a be 57 50 f6 3c
       0.11196541 -0.040244345 -0.16624914 0.030067606
000100 a6 cd 89 b0 54 a7 d3 ad 8c eb 58 ab 4e 90 1c 29
       -1.0026511e-09 -2.4062231e-11 -7.70655e-13 3.4764123e-14
000110 2e 0d 14 8d 09 79 5e ae d1 09 00 80 9e 8c 75 aa
       -4.5621886e-31 -5.0584457e-11 -3.521e-42 -2.1809158e-13
000120 74 63 1e 8b 37 f9 ce b1 a1 06 ac 2f fa ab eb a9
       -3.0504513e-32 -6.0237215e-09 3.1291328e-10 -1.04659296e-13
000130 fa c6 da 32 1d 05 47 a6 e9 70 1d a9 41 a3 25 90
       2.5469024e-08 -6.9048924e-16 -3.4958937e-14 -3.266628e-29
000140 f1 93 ab b2 3a 74 8a aa 36 13 3a ab 67 b7 47 a7
       -1.9974296e-08 -2.4594373e-13 -6.6107135e-13 -2.771622e-15
000150 82 c9 44 b1 fd 6c 2e ae 57 47 1f a2 b7 ce e1 2a
       -2.8636298e-09 -3.965982e-11 -2.1586285e-18 4.0111466e-13
000160 00 4b 15 af 8c e6 32 a9 dc 3b 2e a9 45 af 58 ae
       -1.3578116e-10 -3.9723907e-14 -3.868768e-14 -4.9268385e-11
000170 94 7d 0a b1 56 46 9e ac 77 08 52 a1 e6 b8 bf 9e
       -2.0153026e-09 -4.498439e-12 -7.116197e-19 -2.0299384e-20
000180 ce 3c 1f ac cb d3 e0 a9 9c cf aa 93 b4 4f 10 ac
       -2.2629012e-12 -9.9843385e-14 -4.311875e-27 -2.0507875e-12
000190 88 e5 0f a8 d1 cd f0 a6 0a 03 00 00 0f e8 e1 94
       -7.987866e-15 -1.6709132e-15 1.09e-42 -2.2810725e-26
0001a0 57 21 06 00 c9 e5 08 a6 41 09 43 b0 89 c3 85 ac
       5.62973e-40 -4.7495896e-16 -7.095374e-10 -3.801796e-12
0001b0 7c a3 a4 1f 4a 5c f9 b2 ea 1d a8 a9 24 4b 89 aa
       6.9727164e-20 -2.9029383e-08 -7.465888e-14 -2.4388228e-13
0001c0 63 11 00 00 64 af ca 9b aa 91 9b 8f a7 e4 88 ab
       6.237e-42 -3.353144e-22 -1.5340288e-29 -9.726845e-13
0001d0 dd db fd b3 cc 56 16 a2 d9 a8 b6 a3 48 7a 81 b4
       -1.18212235e-07 -2.037474e-18 -1.980399e-17 -2.4117094e-07
0001e0 8d 30 a3 aa 46 12 00 00 e5 6d bd 2b 9c 4f d1 24
       -2.8988305e-13 6.555e-42 1.345976e-12 9.0774165e-17
0001f0 ca 07 00 80 1f 10 00 80 64 0e 00 80 9e 67 7b aa
       -2.794e-42 -5.783e-42 -5.162e-42 -2.2329228e-13
000200 20 e1 2f 3d e9 32 95 3d 3a ab ae bd e5 5c 95 bc
       0.042939305 0.07285101 -0.085287526 -0.018232772
000210 cf 5d f1 bc cc fc 0b bd ec fc 1e bc ba 24 a7 3d
       -0.029463677 -0.034176633 -0.009703856 0.08161302
000220 62 19 94 bc ad 6b 22 bc 49 19 9e 3d 01 7f dd 3c
       -0.01807851 -0.009913367 0.077196665 0.0270381
000230 25 ff b2 bd 6d b4 a7 39 3b 42 03 be 8e 31 4d bd
       -0.08740071 0.0003198715 -0.12818234 -0.050096087
000240 f9 a8 bf 3d 98 c7 d6 3a a0 df 20 be 22 94 07 bd
       0.09358401 0.0016386388 -0.15710306 -0.033100255
000250 70 aa 25 bd 2a 8f 10 bd 81 62 a9 3d cb 99 d0 bd
       -0.040445745 -0.035292782 0.08270741 -0.10185584
000260 91 03 48 bd 9e 56 e8 bc 75 e7 97 bd d1 e2 88 bd
       -0.048831526 -0.028361615 -0.07417194 -0.06683887
000270 f6 da 39 bc cd 5b c5 3c de 27 05 be 3c c1 94 bd
       -0.011343708 0.024091626 -0.1300349 -0.07263419
000280 9d 29 da 3c cc 1b 68 3c 40 5f e9 bd 46 37 06 bc
       0.02663117 0.014166784 -0.113951206 -0.008191889
000290 2e c3 47 bd cb 52 b8 3c 1a b6 f5 3b c1 64 fa b9
       -0.048770122 0.022500416 0.007498515 -0.00047758783
0002a0 78 23 8e bd c6 11 17 bd b8 c7 16 bd 7d 1e e9 bd
       -0.06940359 -0.036882184 -0.03681156 -0.11382768
0002b0 f7 1d 06 3e c7 a3 5e 3d 41 55 8c 3d 9c 5b d2 bd
       0.13097368 0.05435541 0.068521984 -0.10271379
0002c0 87 4a 7a bd fb 4f 24 be 9d e8 95 3d 57 a5 16 3e
       -0.06110623 -0.16046135 0.07319758 0.1471151
0002d0 c5 10 2d 3d df 7a 3a 3e d2 0b 36 be e9 bf 8a bd
       0.04225232 0.18210934 -0.17777947 -0.06774885
0002e0 34 1b 9f bd fa 02 4b bd 0c b8 62 bc b7 4c c3 bd
       -0.077688605 -0.049563386 -0.0138378255 -0.095361166
0002f0 33 35 eb 3c a5 4c 83 3a 80 ef f4 3d ff c5 71 bd
       0.02871189 0.0010017349 0.119597435 -0.059026714
000300 76 72 eb 3c 06 04 9f bc 58 53 ac bc e1 a8 fa 3d
       0.028741103 -0.019411098 -0.021035835 0.12239242
000310 30 56 70 3d e5 c7 94 3c 4c 4c 0c 3c 40 b0 b7 bc
       0.058675945 0.018161723 0.0085631125 -0.02242291
000320 31 c6 73 bd 10 bc 29 be 2b 79 40 3e 0b 50 98 bd
       -0.059515182 -0.16575646 0.18796222 -0.07437142
000330 d8 52 c2 3b 51 c6 8c be d0 3e 53 3c d3 d5 ec bd
       0.005930286 -0.27495053 0.012893394 -0.11564221
000340 af 40 9d bd 5b 9d b8 3c 83 17 0b 3d ee 76 25 3d
       -0.07678353 0.02253597 0.03395797 0.040396623
000350 81 e4 51 3d fd df 3f bd 8d bd 7f bd 25 44 57 3d
       0.05124331 -0.04684447 -0.06243663 0.052555222
000360 a2 76 ce 3c 77 65 b5 3d e9 31 d7 3d 27 60 c4 bd
       0.025203053 0.088572435 0.105075665 -0.09588652
000370 d5 f9 d3 3d eb 14 e0 3d c8 e2 29 bd 76 d8 f6 bc
       0.10350386 0.1094149 -0.04147604 -0.030132513
000380 f7 47 08 be 5e f6 ca bd 19 53 d5 3d 21 81 23 3e
       -0.13308702 -0.09910272 0.1041624 0.15967228
000390 8c 3c 1f 3e 52 d8 c5 3d 90 4c e9 3c 61 ad fd 3c
       0.1555044 0.096604005 0.02847889 0.030966463
0003a0 99 11 5c bb bf 4d 98 3c af 23 bf 3b 4c 8c 14 3e
       -0.0033579825 0.01859176 0.0058331112 0.14506644
0003b0 6a 89 13 bd 5a 24 c0 bd 45 c9 0c bd aa 44 52 be
       -0.03601972 -0.093819335 -0.034371633 -0.20534006
0003c0 a0 6d 58 3d a9 7f 86 bb d5 79 4f 3c 9e 3a 18 bc
       0.05283892 -0.0041045737 0.012663324 -0.009291319
0003d0 14 83 ba 3d 70 00 6e bb 0b 5e 95 3d ce 79 b4 bd
       0.091070324 -0.0036316179 0.07293328 -0.08812295
0003e0 c1 a2 f1 bb f9 f0 6e bd 65 27 e4 bd 09 5e 8e 3d
       -0.007374138 -0.05833528 -0.111403264 0.069515295
0003f0 b5 ad 98 3c e7 ff 4f bd 12 79 f3 bd 8c e8 ef 3c
       0.018637517 -0.050781157 -0.11888327 0.029285692

4.bias f4 [128]
000000 15 8b 68 3b 04 85 58 b7 6a 8b 2f 3e 0e 7e 27 3d
       0.003548329 -1.2905573e-05 0.17143026 0.0408917
000010 35 40 29 3d 32 3b 47 be 7c 0f ac 3d 90 87 c6 bd
       0.041321 -0.19456175 0.08401391 -0.09693825
000020 a5 59 84 bd 87 24 02 bd 0c d3 98 b9 16 c7 7e 3d
       -0.06462411 -0.031773116 -0.0002914894 0.062201582
000030 3a cc 08 be 55 e1 a5 3d 4d 31 ae 3c 6a b2 f5 9b
       -0.13359156 0.08099619 0.021263743 -4.0647147e-22
000040 71 38 fc 3c a6 e5 6b 3d ae e2 51 3d 0d 46 d3 bd
       0.030788632 0.057592057 0.05124157 -0.103160955
000050 66 20 72 3c 6a 3f 2b bc cf 6e 08 be 5e f8 2f bd
       0.014778232 -0.010452131 -0.1332352 -0.04296147
000060 a7 05 ea bd 89 cd 10 3d 9b b4 92 9e bb 59 03 3d
       -0.11426859 0.035352264 -1.5533048e-20 0.032067996
000070 5f b2 11 3d e7 84 8b 3c 6c e7 b9 3d 7d 12 a4 bc
       0.0355705 0.017031146 0.09077343 -0.020028347
000080 1f 8d 00 3e 39 ac c7 bd ea 22 0a 3c 53 55 9f bd
       0.12553833 -0.09749646 0.008431176 -0.07779946
000090 9d 63 14 3d 17 48 e3 bd 45 2f a6 bc 49 ab 7c bd
       0.03622781 -0.110977344 -0.020286212 -0.061686788
0000a0 49 e0 07 bd 04 08 08 3d ea ec 30 3d 35 f3 29 bd
       -0.03317288 0.03321077 0.04319469 -0.041491706
0000b0 e9 bf 84 3e 02 01 83 3c 27 e0 81 bd f5 86 56 3a
       0.25927666 0.015991691 -0.06341582 0.00081835623
0000c0 bd 08 4d 3d 35 da 9e bd 42 3b 25 3c f2 07 f9 3d
       0.05005716 -0.077564634 0.010084929 0.121597186
0000d0 fa 17 0e 3d 01 dd 87 3d 0e 74 12 3c 12 79 56 3d
       0.034690835 0.0663395 0.008938802 0.052361555
0000e0 4d c8 cc bd 56 32 83 ba 14 5c f0 3d f7 7b 3c bd
       -0.09999142 -0.0010009508 0.117363125 -0.04601666
0000f0 c4 8c a3 bd ee 50 05 be f3 5f 52 bd a4 39 9f bd
       -0.07985833 -0.13019153 -0.051361036 -0.07774666
000100 1d 5f b5 bc 2a 3d 46 bc f8 ec 07 3c 51 6e 6e bd
       -0.02214008 -0.012099544 0.008296244 -0.058210675
000110 bc 0d fc 3b e5 fd 66 3d 9d b0 a2 3c 5f db 9d bc
       0.007692067 0.056394476 0.019859606 -0.019269643
000120 09 73 a5 8c d1 17 cc bd 1a e2 20 3d 27 d0 e3 bc
       -2.549151e-31 -0.0996548 0.039278127 -0.027809216
000130 b7 53 59 ae 38 77 65 3d 59 6d 0a be 83 b2 4a bb
       -4.941444e-11 0.0560219 -0.13518275 -0.0030929155
000140 21 6c 7e 3d 61 99 a3 3d a7 6c bd bd 4f af 93 3d
       0.06211484 0.07988239 -0.092492394 0.07211172
000150 88 67 38 bd c4 9c 11 3d 04 a8 34 bd 64 22 44 3e
       -0.04502061 0.035549894 -0.044105545 0.19153744
000160 7d 56 00 3e 90 3e 28 b9 5a 01 ac 3c 6e 6a 61 bd
       0.12532993 -0.00016045035 0.020996738 -0.05503314
000170 18 f4 0c 3e ac 36 38 3e f9 c0 67 3c 8a 60 2d bd
       0.1376499 0.17989606 0.014145129 -0.042328395
000180 e8 ca dc 86 c6 cd 4e be c7 c7 f5 3b 28 72 42 3d
       -8.3052946e-35 -0.20195684 0.007500622 0.04747215
000190 b5 29 a0 3d ef 27 19 bc ef 89 9c 3d 13 41 20 3e
       0.07820455 -0.0093479 0.07643496 0.15649824
0001a0 f3 7c 07 be 36 e6 c2 3d e4 51 22 a0 a7 30 3d bd
       -0.13231258 0.095165655 -1.3749029e-19 -0.046188977
0001b0 5a d9 1d 3d 35 92 62 3d 29 43 9a bc a0 99 e0 bc
       0.03853736 0.055315215 -0.018830853 -0.027417004
0001c0 c4 aa 53 bd 5a 85 19 3c 91 f4 c6 bc 3b d4 89 bd
       -0.051676527 0.009370172 -0.02428654 -0.06729933
0001d0 a7 b2 f7 3c 0b a7 cb 3d 04 49 ae 3a 78 02 19 bb
       0.030236555 0.0994397 0.0013296907 -0.0023347419
0001e0 f3 0b 4d 3d 54 03 9f 3b c8 e8 4b 3d 6c 43 62 bd
       0.050060224 0.0048526917 0.049782544 -0.05524008
0001f0 1d a2 5e 3d 27 c5 95 3d 4f 8d 08 3d fe ae 11 be
       0.054353822 0.073129945 0.033337887 -0.1422691

6.weight f4 [256, 128]
000000 5f 14 00 80 f7 13 00 00 f8 0c 00 80 00 08 00 00
       -7.308e-42 7.162e-42 -4.652e-42 2.87e-42
000010 f2 11 00 80 9d 11 00 80 c1 0b 00 80 0e 0e 00 80
       -6.438e-42 -6.318e-42 -4.217e-42 -5.042e-42
000020 e8 12 00 00 3c 0c 00 00 22 0c 00 80 34 08 00 00
       6.782e-42 4.389e-42 -4.352e-42 2.943e-42
000030 6a 01 00 80 6b 0a 00 00 6b 13 00 80 7f 46 00 00
       -5.07e-43 3.737e-42 -6.966e-42 2.5289e-41
000040 96 09 00 00 5b 07 00 00 a9 01 00 00 11 15 00 00
       3.439e-42 2.639e-42 5.96e-43 7.557e-42
000050 dd 09 00 00 fe 13 00 00 36 0c 00 80 ca 13 00 00
       3.538e-42 7.172e-42 -4.38e-42 7.099e-42
000060 d4 0c 00 80 4d 0f 00 80 32 03 00 00 5e 10 00 80
       -4.602e-42 -5.489e-42 1.146e-42 -5.871e-42
000070 1b 0b 00 00 f7 07 00 00 b5 00 00 80 ac 05 00 00
       3.984e-42 2.857e-42 -2.54e-43 2.035e-42
000080 f6 10 00 00 c1 0c 00 00 23 22 00 80 b5 12 00 80
       6.084e-42 4.575e-42 -1.2246e-41 -6.711e-42
000090 dc 01 00 80 61 0d 00 00 d7 0c 00 00 46 04 00 80
       -6.67e-43 4.8e-42 4.606e-42 -1.533e-42
0000a0 b7 06 00 00 2d 08 00 80 78 01 00 00 fe 12 00 00
       2.409e-42 -2.933e-42 5.27e-43 6.813e-42
0000b0 9c 0c 00 80 c3 02 00 80 12 14 00 00 53 10 00 80
       -4.523e-42 -9.91e-43 7.2e-42 -5.856e-42
0000c0 f1 00 00 00 86 03 00 80 63 03 00 80 14 06 00 80
       3.38e-43 -1.264e-42 -1.215e-42 -2.18e-42
0000d0 55 0e 00 80 28 07 00 00 94 12 00 80 de 09 00 00
       -5.141e-42 2.567e-42 -6.665e-42 3.54e-42
0000e0 e4 04 00 00 26 08 00 00 e6 9f 63 8d 66 14 00 80
       1.754e-42 2.923e-42 -7.0142246e-31 -7.318e-42
0000f0 3e 08 00 00 24 0c 00 00 c2 09 00 00 89 0d 00 00
       2.957e-42 4.355e-42 3.5e-42 4.855e-42
000100 4b 19 00 00 f8 0d 00 80 ab 06 00 80 d2 0b 00 00
       9.073e-42 -5.011e-42 -2.392e-42 4.24e-42
000110 91 0b 00 80 7f 12 00 80 5a 16 00 00 68 00 00 80
       -4.149e-42 -6.635e-42 8.018e-42 -1.46e-43
000120 56 18 00 00 39 02 00 80 09 01 00 00 aa 18 00 80
       8.73e-42 -7.97e-43 3.71e-43 -8.848e-42
000130 fd 40 00 00 eb 0d 00 80 bf e4 cc 16 b1 10 00 80
       2.3313e-41 -4.993e-42 3.3102337e-25 -5.988e-42
000140 19 02 00 80 43 09 00 00 87 0f 00 80 82 12 00 00
       -7.52e-43 3.322e-42 -5.57e-42 6.64e-42
000150 70 0b 00 00 da 0f 00 80 3e 0c 00 80 f9 05 00 00
       4.103e-42 -5.686e-42 -4.392e-42 2.143e-42
000160 32 14 00 80 4c 8b 00 00 59 05 00 80 38 12 00 00
       -7.245e-42 4.997e-41 -1.918e-42 6.536e-42
000170 83 0e 00 80 6a 07 00 00 4d 11 00 80 75 2b 00 80
       -5.206e-42 2.66e-42 -6.206e-42 -1.559e-41
000180 2d 3a 00 00 41 0c 00 80 db 0d 00 00 02 1a 00 00
       2.087e-41 -4.396e-42 4.97e-42 9.33e-42
000190 41 0a 00 00 25 15 00 80 64 0b 00 80 7f 13 00 80
       3.678e-42 -7.585e-42 -4.086e-42 -6.994e-42
0001a0 96 13 00 80 b1 11 00 00 12 37 00 80 68 14 00 00
       -7.026e-42 6.346e-42 -1.9756e-41 7.32e-42
0001b0 2a 06 00 80 f4 12 00 00 63 06 00 80 0a 0e 00 80
       -2.211e-42 6.799e-42 -2.291e-42 -5.036e-42
0001c0 93 0c 00 80 4b 13 00 80 9a 02 00 80 5c 07 00 80
       -4.511e-42 -6.921e-42 -9.33e-43 -2.64e-42
0001d0 c0 0d 00 80 52 0c 00 00 bd 04 00 00 a8 0a 00 00
       -4.933e-42 4.42e-42 1.7e-42 3.823e-42
0001e0 a1 10 00 80 f9 0a 00 00 d9 08 00 80 0d 0e 00 00
       -5.965e-42 3.936e-42 -3.174e-42 5.04e-42
0001f0 28 0c 00 00 5c 0e 00 00 25 12 00 00 d6 0d 00 80
       4.361e-42 5.151e-42 6.509e-42 -4.963e-42
000200 f6 19 00 80 0e 48 00 80 f8 27 00 00 95 03 00 00
       -9.313e-42 -2.5848e-41 1.4338e-41 1.285e-42
000210 9a 04 00 00 ff 1b 00 00 6f 1c 00 80 2d 0d 00 80
       1.651e-42 1.0043e-41 -1.02e-41 -4.727e-42
000220 8c 1a 00 80 b3 09 00 00 5d 16 00 00 c9 07 00 80
       -9.523e-42 3.48e-42 8.022e-42 -2.793e-42
000230 d6 11 00 80 e1 16 00 80 85 07 00 80 d5 25 00 00
       -6.398e-42 -8.207e-42 -2.697e-42 1.3572e-41
000240 91 1e 00 00 6b 12 00 00 aa 09 00 80 7a 00 00 80
       1.0965e-41 6.607e-42 -3.467e-42 -1.71e-43
000250 3e 18 00 80 63 0e 00 00 78 10 00 00 0c 17 00 00
       -8.696e-42 5.161e-42 5.908e-42 8.268e-42
000260 ac 18 00 00 3d 24 00 80 41 34 00 00 83 15 00 80
       8.85e-42 -1.3e-41 1.8745e-41 -7.717e-42
000270 c6 10 00 80 8d 02 00 80 eb 15 00 00 c2 0a 00 80
       -6.017e-42 -9.15e-43 7.863e-42 -3.859e-42
000280 05 0c 00 80 8c 14 00 80 c5 20 00 00 f1 10 00 00
       -4.312e-42 -7.371e-42 1.1755e-41 6.077e-42
000290 f2 21 00 80 a6 18 00 80 4c 17 00 00 62 15 00 80
       -1.2177e-41 -8.842e-42 8.357e-42 -7.671e-42
0002a0 9b 1e 00 00 02 00 00 00 20 15 00 80 48 02 00 00
       1.0979e-41 3e-45 -7.578e-42 8.18e-43
0002b0 3d 03 00 00 7c 1a 00 80 5a 19 00 00 6c 03 00 00
       1.162e-42 -9.501e-42 9.094e-42 1.228e-42
0002c0 72 1a 00 80 95 16 00 80 7a 02 00 00 8a 01 00 80
       -9.487e-42 -8.101e-42 8.88e-43 -5.52e-43
0002d0 7c 09 00 80 2a 07 00 00 df 25 00 80 00 0e 00 80
       -3.402e-42 2.57e-42 -1.3586e-41 -5.022e-42
0002e0 9b 07 00 00 19 02 00 80 74 05 00 80 a8 17 00 80
       2.728e-42 -7.52e-43 -1.956e-42 -8.486e-42
0002f0 76 18 00 80 27 12 00 80 a0 15 00 00 b8 11 00 80
       -8.775e-42 -6.512e-42 7.758e-42 -6.356e-42
000300 27 15 00 80 23 14 00 00 c9 03 00 80 25 0b 00 80
       -7.588e-42 7.224e-42 -1.358e-42 -3.998e-42
000310 4d 1c 00 00 46 0a 00 00 fe 25 00 80 cb 0c 00 80
       1.0152e-41 3.685e-42 -1.3629e-41 -4.589e-42
000320 a1 a5 00 80 f7 07 00 80 05 03 00 00 5a 12 00 80
       -5.9416e-41 -2.857e-42 1.083e-42 -6.583e-42
000330 e5 71 00 80 53 06 00 00 3e 0e 00 00 82 03 00 00
       -4.0858e-41 2.269e-42 5.109e-42 1.258e-42
000340 09 1e 00 80 68 03 00 00 cb 00 00 00 16 17 00 00
       -1.0775e-41 1.222e-42 2.84e-43 8.282e-42
000350 2b 07 00 80 4f 02 00 80 80 13 00 00 50 09 00 80
       -2.571e-42 -8.28e-43 6.995e-42 -3.34e-42
000360 04 07 00 00 9a 43 00 80 38 11 00 00 4f 0e 00 80
       2.517e-42 -2.4251e-41 6.177e-42 -5.133e-42
000370 70 15 00 80 51 18 00 00 dd 0f 00 00 ea 19 00 00
       -7.69e-42 8.723e-42 5.69e-42 9.296e-42
000380 16 99 00 00 18 06 00 80 81 11 00 00 d5 22 00 00
       5.4917e-41 -2.186e-42 6.279e-42 1.2495e-41
000390 07 0c 00 80 8d 0e 00 80 a3 0c 00 80 48 10 00 80
       -4.315e-42 -5.22e-42 -4.533e-42 -5.84e-42
0003a0 6f 14 00 00 fb 0b 00 80 f5 29 00 00 30 1c 00 00
       7.33e-42 -4.298e-42 1.5051e-41 1.0112e-41
0003b0 06 14 00 00 51 0d 00 00 23 0e 00 80 bc 17 00 00
       7.183e-42 4.777e-42 -5.071e-42 8.514e-42
0003c0 5d 1b 00 80 8d 04 00 00 6f 10 00 00 50 12 00 00
       -9.816e-42 1.633e-42 5.895e-42 6.569e-42
0003d0 78 11 00 80 9d 12 00 80 d8 0d 00 80 34 a7 00 80
       -6.267e-42 -6.677e-42 -4.966e-42 -5.9981e-41
0003e0 b9 17 00 00 15 15 00 00 5a 12 00 80 11 16 00 00
       8.51e-42 7.563e-42 -6.583e-42 7.916e-42
0003f0 b3 0e 00 80 ac 04 00 80 99 10 00 00 65 05 00 80
       -5.273e-42 -1.676e-42 5.954e-42 -1.935e-42

6.bias f4 [256]
000000 1d ad ce ae 94 56 4b 8a 52 5b 02 bd 5a d8 ed b9
       -9.3985465e-11 -9.790378e-33 -0.03182537 -0.00045365357
000010 3e 64 a8 b0 e7 5a 3f 3d 19 51 21 3d d6 aa e4 a5
       -1.2252099e-09 0.04671755 0.03938398 -3.9667458e-16
000020 cd c6 e2 3b e8 f8 25 9c 7c 61 94 b1 5d 60 1c a0
       0.0069206716 -5.4915624e-22 -4.3184496e-09 -1.3245598e-19
000030 67 71 26 ba d2 91 26 bb 47 91 a2 ba 7a 41 5f bb
       -0.0006349296 -0.0025416506 -0.0012402915 -0.0034066127
000040 20 a9 f5 bc 74 05 1c bd ba 58 08 a5 6a f1 b3 b5
       -0.029987872 -0.038091138 -1.1826181e-16 -1.34068e-06
000050 bd 6b 8d b8 13 91 c8 bb 82 19 78 bb c6 e8 35 ba
       -6.743472e-05 -0.00612081 -0.0037857 -0.0006939288
000060 99 51 11 3c e7 40 b3 b9 3c bf 70 af da 89 11 3b
       0.008869552 -0.00034189897 -2.1895813e-10 0.002220741
000070 2c 45 6f 9a 6c 40 fd aa f3 19 4d a1 34 95 41 bb
       -4.9479918e-23 -4.498653e-13 -6.9491045e-19 -0.0029538395
000080 06 d9 0c bb f7 f9 81 b9 4d 3d 89 b3 f2 1a cf bc
       -0.002149166 -0.00024791036 -6.39071e-08 -0.025281403
000090 59 26 aa bc 8c fe 7c ba ab 95 8a ba 77 9a 18 86
       -0.020770239 -0.00096509675 -0.0010573169 -2.8701505e-35
0000a0 d2 dc 83 b8 f0 d3 11 bb 57 7f 89 a0 59 74 b8 3b
       -6.287698e-05 -0.0022251569 -2.329297e-19 0.005629104
0000b0 ba 8d 9d ba bf 2a 14 b4 f8 25 a1 b9 b4 c1 70 b9
       -0.0012020387 -1.3799125e-07 -0.00030736602 -0.00022960344
0000c0 4b 1c 29 3c 9d 22 97 b9 10 41 b1 b6 3f 84 83 b2
       0.010321687 -0.00028826753 -5.2825853e-06 -1.5310546e-08
0000d0 17 6f 8c ba 9b a0 53 bb 66 62 e9 b7 2d 2e 11 b9
       -0.001071426 -0.0032291773 -2.7821585e-05 -0.0001384548
0000e0 48 83 8e bb 04 8e 82 bb d1 44 31 b8 c8 34 1a bd
       -0.004349146 -0.0039842147 -4.226418e-05 -0.037647992
0000f0 ba b9 27 ad 48 35 59 ba e4 d5 a6 b9 11 82 5d bb
       -9.5340905e-12 -0.00082858326 -0.00031821348 -0.003379945
000100 f0 f8 3f b3 94 49 10 bb bc 5d 13 b9 70 02 1c 3c
       -4.469706e-08 -0.0022016512 -0.00014053931 0.0095220655
000110 93 24 00 aa 7f 9e 41 b9 c7 b4 e6 b8 54 94 0c bb
       -1.1381373e-13 -0.00018464959 -0.00011000927 -0.0021450715
000120 f1 cb 34 3a e3 fe f0 b2 9e a7 c2 95 ba e2 d9 b1
       0.0006896845 -2.8055586e-08 -7.862043e-26 -6.341307e-09
000130 da e4 db b8 40 7c bb bc 35 26 5a bb 11 fe 69 bb
       -0.00010485361 -0.022886395 -0.0033286933 -0.0035704414
000140 89 a4 a9 ba 73 b4 11 a6 d0 98 5c b9 a0 05 7b 98
       -0.0012942712 -5.0551535e-16 -0.00021037762 -3.244383e-24
000150 78 05 90 bd b7 4b a2 bb ef 88 e4 ba 97 62 01 b9
       -0.07032293 -0.0049528736 -0.0017435829 -0.00012339126
000160 bc b5 d6 ba a1 08 70 b9 9e 35 24 bb 36 43 57 b3
       -0.0016381065 -0.00022891398 -0.0025056372 -5.0119716e-08
000170 1a df fc 3b e6 3a 03 b0 d9 8a 8f b3 e5 59 2a bb
       0.0077170255 -4.774122e-10 -6.684213e-08 -0.0025993523
000180 63 1e e5 aa 72 05 64 9e f5 30 b4 ba 0b 74 11 be
       -4.0699657e-13 -1.20713456e-20 -0.00137475 -0.14204423
000190 80 2e fc 3c ec 8d 8c ba b3 8d b7 b6 68 40 73 3c
       0.030783892 -0.0010723448 -5.470321e-06 0.014846899
0001a0 59 d4 b1 bc 62 01 2d 83 03 b6 87 bd 9c a5 ee a3
       -0.0217077 -5.084172e-37 -0.06626513 -2.587415e-17
0001b0 51 3c 81 3b 80 46 08 b2 c0 72 0c b9 98 82 17 ad
       0.003943958 -7.932272e-09 -0.00013394188 -8.612354e-12
0001c0 11 de 09 bb 0b 6d 18 b8 ba b2 1f ad f0 8d 42 3d
       -0.0021036903 -3.634118e-05 -9.077789e-12 0.047498643
0001d0 f8 04 08 b4 d0 85 9a b4 ae 7e 92 ba d8 74 02 3c
       -1.2667795e-07 -2.8782097e-07 -0.001117667 0.007962428
0001e0 1e cb bb bb 6c dc 53 98 d7 ec 04 a1 1f 1a 3d b8
       -0.0057310006 -2.7382395e-24 -4.5036795e-19 -4.508544e-05
0001f0 5e e5 18 ba 2f 5c 85 94 fe 30 f1 aa 0c 97 d5 ae
       -0.0005832518 -1.3465928e-26 -4.2844195e-13 -9.71295e-11
000200 28 7e 0d b6 61 62 88 ba 57 3e ec ba a8 21 df ab
       -2.108407e-06 -0.0010405296 -0.001802395 -1.5854444e-12
000210 14 9a c6 ac 54 b8 f1 ba 56 2c 52 be d8 93 93 b8
       -5.6446046e-12 -0.0018441775 -0.20524725 -7.037044e-05
000220 58 bc 6f bb 2e fb 38 b1 4b 04 a5 ba ed da 53 b7
       -0.0036580767 -2.6918303e-09 -0.001258978 -1.2627553e-05
000230 45 b2 83 91 e2 48 49 ad 4f 61 13 bb 03 94 9f 3c
       -2.0778023e-28 -1.144171e-11 -0.002248842 0.019479757
000240 39 af f9 b9 b4 c4 e9 af f4 13 04 ba e6 96 12 b4
       -0.00047623532 -4.252222e-10 -0.00050383736 -1.3652206e-07
000250 2d 6b d9 ba 4a cf 07 ba 5d 6b 4d b7 fc 5a aa ba
       -0.0016587727 -0.000518073 -1.224395e-05 -0.0012997086
000260 66 f9 84 3c b2 80 81 bb 48 6c bd 3d 72 ca 06 3d
       0.016232204 -0.0039521093 0.09249169 0.03290791
000270 b8 a3 4a bb 29 a8 22 a1 af af 29 af 80 d7 e0 3c
       -0.0030920338 -5.5110293e-19 -1.5432876e-10 0.027446508
000280 3f 4d 14 a4 7e 27 8c b8 4b 95 4c b0 85 e1 86 bd
       -3.2157814e-17 -6.683076e-05 -7.4426926e-10 -0.06585983
000290 5c 95 bc ba 2f c6 96 ba d3 5c 68 8d 52 39 a0 b5
       -0.0014387774 -0.0011503155 -7.1602253e-31 -1.1937611e-06
0002a0 f9 0b 0f ac 26 10 f6 ba f8 9a 6f bd d2 ac ad b7
       -2.0328168e-12 -0.0018773123 -0.0584974 -2.0703683e-05
0002b0 ac 4f fb bb 0a 23 6b ba b5 3c f7 bb 79 f5 db 82
       -0.0076694097 -0.000896976 -0.0075450786 -3.2320052e-37
0002c0 b4 89 c5 b9 48 da 4a bb 8f d1 9f bc e0 77 e3 bc
       -0.00037677365 -0.003095286 -0.019509105 -0.027767122
0002d0 b6 94 91 bb c2 70 7c 98 80 c1 0c bb 23 be 90 b6
       -0.0044427766 -3.2627165e-24 -0.002147764 -4.3136693e-06
0002e0 ec d7 b6 3b a7 a5 dd b8 b2 40 03 3c dd b9 45 ba
       0.005579939 -0.00010568956 0.00801103 -0.00075426494
0002f0 87 4e 43 b6 2a e5 a4 ab c7 77 03 ba 93 4c bd ae
       -2.9102973e-06 -1.1716507e-12 -0.00050151016 -8.608327e-11
000300 60 25 c8 a2 76 ed 8c b2 5c 01 6c ba 32 d4 11 9d
       -5.424968e-18 -1.640613e-08 -0.0009002888 -1.9300293e-21
000310 c5 47 ab 94 c4 69 d0 b1 73 fa 0f bc 52 63 47 ba
       -1.7294896e-26 -6.065621e-09 -0.008787739 -0.00076060474
000320 25 a3 73 98 cf 82 12 b0 04 da e0 ad 3c 09 93 aa
       -3.148938e-24 -5.330038e-10 -2.556267e-11 -2.6118853e-13
000330 65 70 83 b3 2a 6f b4 bb e4 12 bf 9d 18 d9 82 b1
       -6.120607e-08 -0.005506416 -5.057681e-21 -3.8081787e-09
000340 f4 18 cd aa ca 18 5c ad a8 12 87 b8 e8 ab 90 3c
       -3.643263e-13 -1.2511056e-11 -6.4407766e-05 0.017660096
000350 ad 8d 0c 3c 40 6e 31 ba 4f c0 80 b8 20 b9 2d ba
       0.0085787 -0.00067684427 -6.139336e-05 -0.0006627012
000360 be b6 0e b3 a2 bd fe b9 fa 73 36 b3 14 78 98 b7
       -3.3228154e-08 -0.00048587943 -4.2480657e-08 -1.8175728e-05
000370 72 34 c4 ba f6 46 df ba 65 c6 f8 9e 87 24 6b b5
       -0.0014969243 -0.0017034698 -2.6340075e-20 -8.7597476e-07
000380 02 96 ba ad 4e 19 53 3c 90 63 22 9e f6 b5 5a 3d
       -2.1212369e-11 0.012884451 -8.596798e-21 0.053396188
000390 40 91 95 bb 5d 2e a6 b9 73 f5 ae bb 12 b8 e1 b9
       -0.0045644343 -0.0003169653 -0.0053393184 -0.00043052487
0003a0 f1 9d 72 bb 43 12 fb b8 3f 4a d0 ba e1 45 d7 ba
       -0.003702041 -0.00011972014 -0.0015891268 -0.0016424024
0003b0 01 d0 51 95 71 6c e8 bc db 38 cb bb 10 dc 4c 99
       -4.23713e-26 -0.028372021 -0.006201846 -1.0590994e-23
0003c0 ff 56 d5 b0 2a fc 3a bb 6a a7 1b 3d b5 1b 94 3b
       -1.5522515e-09 -0.002853165 0.038001455 0.0045199045
0003d0 d7 b0 8b 9e 7a 30 9f bd 04 8f a0 3c e8 97 71 af
       -1.4790337e-20 -0.07772918 0.019599445 -2.197279e-10
0003e0 13 90 f1 a7 be 81 34 9e bd 47 2e 90 81 28 ac ba
       -6.7047143e-15 -9.555951e-21 -3.4370715e-29 -0.001313463
0003f0 2d 77 60 b9 5d 7e da 84 d1 67 99 a9 4f 99 18 3d
       -0.00021406701 -5.13676e-36 -6.812574e-14 0.03725558

8.weight f4 [128, 256]
000000 ca 66 00 00 ab 2b 00 80 fa 04 00 00 43 41 00 00
       3.6874e-41 -1.5665e-41 1.785e-42 2.3411e-41
000010 8b 21 00 80 0d 15 00 80 7c b5 9c 05 ff 60 00 00
       -1.2033e-41 -7.552e-42 1.4736836e-35 3.4796e-41
000020 ef 02 00 80 bd 52 00 80 9b 21 00 80 12 19 00 80
       -1.052e-42 -2.9681e-41 -1.2055e-41 -8.994e-42
000030 85 2a 00 80 f4 43 00 00 6c 18 00 00 8e 59 00 80
       -1.5253e-41 2.4377e-41 8.761e-42 -3.2126e-41
000040 36 11 00 80 b8 08 00 00 1f 47 00 00 0b 1d 00 80
       -6.174e-42 3.128e-42 2.5513e-41 -1.0419e-41
000050 48 85 00 00 3e 77 00 80 94 ab 00 00 27 89 00 80
       4.7812e-41 -4.2776e-41 6.155e-41 -4.9201e-41
000060 05 15 00 80 24 10 00 80 74 50 00 80 57 04 00 00
       -7.54e-42 -5.79e-42 -2.8861e-41 1.557e-42
000070 4d ad 00 00 27 87 00 80 b4 22 00 80 ce 0a 00 80
       6.2169e-41 -4.8484e-41 -1.2449e-41 -3.876e-42
000080 fa 87 00 00 bc 0f 00 00 91 5b 00 80 66 0e 00 00
       4.8779e-41 5.644e-42 -3.2848e-41 5.165e-42
000090 05 15 00 80 8e 86 00 00 61 3f 00 00 3a a8 00 80
       -7.54e-42 4.8269e-41 2.2736e-41 -6.0348e-41
0000a0 99 8f 00 00 8e 70 00 80 13 62 00 80 a6 10 00 80
       5.1513e-41 -4.0377e-41 -3.5182e-41 -5.972e-42
0000b0 91 9c 00 00 b6 2a 00 80 ee 99 00 80 8c 77 00 80
       5.6165e-41 -1.5322e-41 -5.522e-41 -4.2885e-41
0000c0 eb 04 00 80 01 6a 00 00 2a 95 00 00 8a 3e 00 80
       -1.764e-42 3.8027e-41 5.351e-41 -2.2435e-41
0000d0 9c 69 00 00 7a 5f 00 00 04 23 00 00 80 ad 00 80
       3.7886e-41 3.425e-41 1.2561e-41 -6.224e-41
0000e0 4b 9f 00 00 81 89 00 80 d9 2c 00 80 e7 03 00 80
       5.7144e-41 -4.9327e-41 -1.6088e-41 -1.4e-42
0000f0 c3 3c 00 80 09 43 00 00 82 01 00 00 3c 39 00 80
       -2.1797e-41 2.4048e-41 5.41e-43 -2.0532e-41
000100 fa 66 00 80 0b 09 00 80 80 29 00 00 9b 1d 00 00
       -3.6941e-41 -3.244e-42 1.4887e-41 1.062e-41
000110 d4 9f 00 80 f6 1d 00 80 fe 97 00 00 37 92 00 80
       -5.7336e-41 -1.0748e-41 5.4525e-41 -5.2452e-41
000120 2e aa 00 80 cb 68 00 80 ab 72 00 80 fe a2 00 80
       -6.1049e-41 -3.7593e-41 -4.1135e-41 -5.847e-41
000130 02 5a 00 00 a7 17 00 80 ba 8c 00 00 1d 57 00 00
       3.2289e-41 -8.485e-42 5.0483e-41 3.125e-41
000140 4a 1b 00 80 b6 98 00 80 ff 9e 00 00 49 47 00 00
       -9.79e-42 -5.4782e-41 5.7037e-41 2.5572e-41
000150 ca 0c 00 00 ea 93 00 80 10 68 00 00 46 0e 00 00
       4.588e-42 -5.3062e-41 3.733e-41 5.12e-42
000160 40 02 00 80 78 1b 00 80 bc 07 00 80 34 33 00 80
       -8.07e-43 -9.854e-42 -2.775e-42 -1.8368e-41
000170 e9 14 00 00 0d 28 00 00 1c 27 00 00 91 a0 00 00
       7.501e-42 1.4368e-41 1.403e-41 5.76e-41
000180 70 4e 00 00 1a 89 00 00 f2 15 00 00 2a 15 00 80
       2.8138e-41 4.9183e-41 7.872e-42 -7.592e-42
000190 c2 14 00 00 35 24 00 00 31 2f 00 00 57 0a 00 80
       7.447e-42 1.2989e-41 1.6929e-41 -3.709e-42
0001a0 06 11 00 80 e6 4f 00 00 72 07 00 00 a2 3e 00 00
       -6.107e-42 2.8662e-41 2.671e-42 2.2468e-41
0001b0 e3 09 00 80 f7 a3 00 00 b8 65 00 80 10 1a 00 80
       -3.547e-42 5.882e-41 -3.649e-41 -9.35e-42
0001c0 6e 14 00 00 fd 9b 00 80 f3 29 00 80 2b 19 00 00
       7.329e-42 -5.5958e-41 -1.5049e-41 9.029e-42
0001d0 d6 10 00 00 8d 0c 00 00 2b 46 00 00 22 13 00 00
       6.04e-42 4.502e-42 2.5172e-41 6.864e-42
0001e0 e5 68 00 00 b2 82 00 00 18 17 00 80 29 42 00 00
       3.7629e-41 4.6885e-41 -8.284e-42 2.3734e-41
0001f0 2e 8d 00 00 3f 35 00 80 60 90 00 80 7d 98 00 00
       5.0646e-41 -1.9101e-41 -5.1792e-41 5.4702e-41
000200 4e 21 00 00 b3 a9 00 80 04 6d 00 80 4d 33 00 00
       1.1947e-41 -6.0877e-41 -3.9107e-41 1.8403e-41
000210 d3 91 00 80 0c 7c 00 00 ea 0c 00 80 02 8f 00 00
       -5.2312e-41 4.45e-41 -4.633e-42 5.1302e-41
000220 71 5b 00 00 04 a0 00 80 d4 87 00 00 e9 12 00 80
       3.2803e-41 -5.7403e-41 4.8726e-41 -6.784e-42
000230 9c a4 00 00 a2 67 00 00 73 2e 00 80 de 16 00 00
       5.9051e-41 3.7176e-41 -1.6663e-41 8.203e-42
000240 44 15 00 80 b7 5f 00 00 1e 56 00 00 67 51 00 80
       -7.629e-42 3.4336e-41 3.0893e-41 -2.9202e-41
000250 46 9a 00 80 93 37 00 00 73 aa 00 00 da 94 00 00
       -5.5343e-41 1.9936e-41 6.1146e-41 5.3398e-41
000260 f2 07 00 80 67 5b 00 00 12 19 00 00 1f 01 00 80
       -2.85e-42 3.2789e-41 8.994e-42 -4.02e-43
000270 7d 4e 00 80 cc ab 00 00 ed a7 00 00 87 15 00 80
       -2.8156e-41 6.1629e-41 6.024e-41 -7.723e-42
000280 7b 6a 00 80 13 a2 00 00 35 5f 00 00 ce 10 00 00
       -3.8198e-41 5.8141e-41 3.4154e-41 6.028e-42
000290 24 62 00 80 b5 30 00 80 9d 68 00 80 57 1e 00 00
       -3.5206e-41 -1.7473e-41 -3.7528e-41 1.0884e-41
0002a0 f6 11 00 80 c0 07 00 80 2f 10 00 80 39 07 00 00
       -6.443e-42 -2.78e-42 -5.806e-42 2.591e-42
0002b0 bb 03 00 00 63 a1 00 00 41 28 00 80 5c 0a 00 00
       1.338e-42 5.7895e-41 -1.444e-41 3.716e-42
0002c0 f1 7c 00 00 48 a5 00 00 08 12 00 00 df 0d 00 80
       4.482e-41 5.9292e-41 6.468e-42 -4.976e-42
0002d0 f8 09 00 80 5a 75 00 00 0e 1c 00 00 d4 97 00 80
       -3.576e-42 4.2098e-41 1.0064e-41 -5.4466e-41
0002e0 1d 16 00 80 65 45 00 80 b4 00 00 80 99 2b 00 80
       -7.933e-42 -2.4894e-41 -2.52e-43 -1.564e-41
0002f0 7c 60 00 80 dc 96 00 80 49 a8 00 80 7f 59 00 80
       -3.4612e-41 -5.4118e-41 -6.037e-41 -3.2105e-41
000300 07 8f 00 80 cd 0a 00 00 b4 6c 00 00 35 01 00 00
       -5.1309e-41 3.875e-42 3.8995e-41 4.33e-43
000310 57 96 00 80 1b 50 00 80 0f 14 00 80 a5 71 00 80
       -5.3932e-41 -2.8736e-41 -7.196e-42 -4.0768e-41
000320 ff 57 00 00 8c 94 00 00 14 8a 00 80 3f 91 00 00
       3.1567e-41 5.3289e-41 -4.9533e-41 5.2104e-41
000330 7c 56 00 80 56 a7 00 00 23 53 00 80 29 6e 00 00
       -3.1025e-41 6.0029e-41 -2.9824e-41 3.9518e-41
000340 9f 98 00 80 3d 4f 00 00 90 8a 00 80 27 1d 00 80
       -5.475e-41 2.8425e-41 -4.9707e-41 -1.0458e-41
000350 e8 0d 00 80 e7 9e 00 80 75 23 00 00 fa 1e 00 80
       -4.989e-42 -5.7003e-41 1.272e-41 -1.1112e-41
000360 ba 6e 00 80 7b 98 00 00 5c 22 00 80 ca 09 00 80
       -3.9721e-41 5.47e-41 -1.2326e-41 -3.512e-42
000370 b0 89 00 80 c9 07 00 00 d8 91 00 80 a6 03 00 00
       -4.9393e-41 2.793e-42 -5.2319e-41 1.309e-42
000380 08 a0 00 00 ad 0d 00 80 26 21 00 80 da 0c 00 80
       5.7408e-41 -4.906e-42 -1.1891e-41 -4.61e-42
000390 dc 13 00 80 26 5c 00 80 11 0b 00 80 bc 09 00 80
       -7.124e-42 -3.3057e-41 -3.97e-42 -3.492e-42
0003a0 f9 a0 00 00 c8 9e 00 80 89 3d 00 80 c5 97 00 80
       5.7746e-41 -5.696e-41 -2.2075e-41 -5.4445e-41
0003b0 a2 73 00 80 ed 1b 00 80 01 a2 00 80 a6 78 00 00
       -4.1481e-41 -1.0018e-41 -5.8116e-41 4.328e-41
0003c0 45 57 00 00 bc 35 00 80 0f 11 00 00 50 04 00 00
       3.1306e-41 -1.9276e-41 6.12e-42 1.547e-42
0003d0 c1 7b 00 00 8f 09 00 80 30 1d 00 80 89 ab 00 00
       4.4395e-41 -3.429e-42 -1.047e-41 6.1535e-41
0003e0 51 07 00 00 30 ab 00 00 da 90 00 80 cb 04 00 00
       2.625e-42 6.141e-41 -5.1963e-41 1.72e-42
0003f0 ef 35 00 00 39 09 00 80 b5 97 00 80 72 19 00 00
       1.9348e-41 -3.308e-42 -5.4422e-41 9.128e-42
