Models/checkpoint_vel_final_1000_400.pth (torch, 353077 bytes, 16 tensors)

0.weight f4 [32, 9]
00000000: 8931 023e 246f fcbd 36c1 aabe 2809 933e
00000010: ca8b 43bf 5f50 a23e 8d5d 833c 0f93 5e3e
00000020: d3a8 aabd dbce 0ebe 366b 973d 8ea6 b13d
00000030: 6a4f 3fbe a0bd 363f 4f33 10be b9e7 8dbd
00000040: cc53 eebb b1b7 e7bd 4740 ab3e 340f e53c
00000050: 69dc e83c 22c3 98be 20f5 0dbf f11d a6bd
00000060: 40a0 21be 411d 7a3c 0f6a 2e3e ce55 d13d
00000070: e351 b6be 3f9f 5d3e 6acb 9d3e 46b2 dc3e
00000080: 6b53 533e bede 6dbe 9522 36be 4488 6fbd
00000090: b0e6 193e 7dc5 95bd 9a1b 503e 6f16 64be
000000a0: 39e7 983f 4f50 1dbe b93b 2c3e 6f56 883b
000000b0: 5249 7bbe c73c f83d 8738 37be 9aac fc3d
000000c0: 9570 64bf 54d2 173d 3e10 c7be 2ef8 d4bd
000000d0: 397e bb3d 956b c8bd 6943 7f3e 5b63 e43c
000000e0: 9df7 a63e fe0f c3be 9d54 56be 3117 133e
000000f0: 6743 83be a533 4e3e e95a 903e 4a2c e03d
00000100: 2b31 6dbe 97de 97be 9267 493e 8ac8 0ebe
00000110: 5df8 18be 2e1b d1bd 8868 bf3d ac14 15bc
00000120: fe78 0d3e 6406 163e 4372 3d3e 1885 24bf
00000130: 3600 aa3b b917 d63d df78 97be 0909 7f3d
00000140: edea 12be 03ff 41be bb95 76bc 0e33 0fbf
00000150: 0029 98be 9411 253d 46cd 52be e3e0 213e
00000160: 0beb a3bd ff37 9a3d 3cee 193d 35a7 82be
00000170: 294c 4ebc 6e3f 7d3f cc3a 29bf c34f 06be
00000180: ed53 093e 7483 dc3d 20ba 0bbe e957 85bd
00000190: c5d2 673e 5149 773c ac5e d23e 2397 aebe
000001a0: 0891 4bbe 0f2d 96be 8dff 953e 7582 9cbc
000001b0: 4c25 5b3e 0dff fbbc e9b8 19bd 7e14 093f
000001c0: bfa9 aa3f adaa 2dbe 1308 0a3d 3845 713e
000001d0: 45a7 0a3e 5e17 a33d 8945 7ebe f3b2 e3bc
000001e0: 27eb 40be c52a 863d 6242 623e 0697 10be
000001f0: 12da 3b3e 0701 23be 31a3 82be f89e 0e3d
00000200: f580 603e 9511 d63e 347b 73bf 2a56 483c
00000210: f44e 563e 8d7b fe3d 60f9 153e c867 853e
00000220: 5064 a23e d821 913e 55e1 42be f577 62bf
00000230: ab4d 0ebe 3967 a03c 378b 52be 7726 2b3d
00000240: bc04 5bbd f51f fdbd 5c44 5c3d d38c 343e
00000250: 45f8 463d 92f7 8e3f af7b 95bd c71e 313d
00000260: 7a71 a6bc d134 f1bb 9b81 b3be 8975 55be
00000270: e476 25bf adb0 1fbe bf59 7c3d 19d2 8ebd
00000280: 394c 4cbe 128d 133e 1f7a 2a3e 3ebf f53c
00000290: 6173 cfbe df3a eb3e f653 1f3f b0e9 acbd
000002a0: d468 5bbe 047e 9dbd 323c f9bd 2299 8a3d
000002b0: bd9f 493e decb cb3e 2fb3 9c3e eee9 123e
000002c0: a7cc 2a3e 4f13 2a3d 3cbe 2ebe dee5 933e
000002d0: 0cac 8cbd 5c69 9cbd 72d2 9dbe 7885 92bd
000002e0: 1461 81bf 6aa8 193e eb43 8abe ea27 01be
000002f0: 6490 89bd 55cf 8dbe ad17 1d3c 1853 29be
00000300: 7ae5 b8bd 5895 943e 2bfd 333f 218c 3ebe
00000310: 1d1e b73d b166 213e f2ec 8d3e 9bbc 96be
00000320: 8978 963e e6d1 32bf ea86 1abe 0d02 b2bd
00000330: e7b1 d83d 0436 9fbd 851b 4ebb 6b75 9abc
00000340: e82d 633d 7f57 3a3d 7cae 853e 6c30 5b3e
00000350: 7afb 8abe c1ec 653e 2b61 343e b46c a13e
00000360: b85c 353e 4fd1 9ebe f8ca 94be 6702 343f
00000370: 7099 e53e c851 513e f319 62be 5a12 99bd
00000380: 3a40 923d bd0a 14be 6c7e 0fbe 78b2 ab3d
00000390: d357 c83e 73a4 793f 9d59 83bd fc3c 12be
000003a0: e4f7 763e 946c 69bd b341 c9bd 0dde e0bb
000003b0: b972 a2be 3475 0cbd 6210 d43e 2212 47be
000003c0: 3860 9cbe a661 e63c eaf5 1e3e 6f15 c4bb
000003d0: f673 0abd d10c c83d bef8 13bf f16a 7b3e
000003e0: ef48 48be 68c7 8d3e 0366 8c3e e329 82bd
000003f0: f52d 8b3e 2f33 bb3e fbe9 0dbe fe2c 4ebf
0.12714209 -0.12325886 -0.33350533 0.28717923 -0.76385176 0.31701943 0.01603582 0.21735786
-0.08332982 -0.13946097 0.07393496 0.08674346 -0.18682638 0.71383095 -0.14082073 -0.06928963
-0.007273173 -0.11314333 0.33447477 0.027961351 0.028425412 -0.29836375 -0.55452156 -0.081111796
-0.15783787 0.015265764 0.17032646 0.10221444 -0.3560935 0.21642779 0.30819255 0.43104762
0.2063729 -0.232295 -0.1778663 -0.058479562 0.15029407 -0.073130585 0.20323029 -0.22274183
1.1945564 -0.15362667 0.16819657 0.0041606943 -0.24539688 0.12120967 -0.17892657 0.12337609
-0.89234287 0.03706582 -0.3887958 -0.10398899 0.091549344 -0.09786145 0.24928059 0.027879408
0.3261079 -0.3809814 -0.20930715 0.14364316 -0.2563736 0.20136888 0.2819436 0.109459475
-0.23163287 -0.2966201 0.19668415 -0.13943687 -0.14938493 -0.10210262 0.0934611 -0.009099167
0.13815686 0.14650875 0.18500619 -0.64265585 0.0051880134 0.104537435 -0.29584405 0.062264476
-0.1434743 -0.18944936 -0.015050347 -0.5593728 -0.2971878 0.040299967 -0.20586118 0.15808444
-0.08003815 0.07530212 0.037580714 -0.25518194 -0.0125914 0.9892491 -0.6610534 -0.13116364
0.13410921 0.1076726 -0.1364522 -0.06510908 0.22638996 0.015093164 0.41087854 -0.34099683
-0.19879544 -0.29331252 0.29296532 -0.019105176 0.21400946 -0.030761266 -0.03752986 0.53546894
1.3333052 -0.16959639 0.033699106 0.23561561 0.13540371 0.07963441 -0.24831213 -0.02779529
-0.18839704 0.065511264 0.22095636 -0.14120111 0.18344906 -0.1591836 -0.2551513 0.034819573
0.21924193 0.4181029 -0.9510987 0.012227574 0.20928556 0.12425909 0.1464591 0.2605574
0.31717157 0.28346133 -0.1903127 -0.8846429 -0.13896815 0.01958047 -0.20560919 0.04178473
-0.053471312 -0.12359611 0.05377613 0.17631845 0.048576612 1.1169302 -0.072989814 0.043242242
-0.020317782 -0.0073610325 -0.3505982 -0.20845617 -0.6463454 -0.1559474 0.061609026 -0.06973667
-0.19950952 0.14409283 0.16648148 0.029998418 -0.40517715 0.45943353 0.6223749 -0.0844301
-0.21426708 -0.07690051 -0.121696845 0.06767489 0.19689842 0.39803976 0.30605456 0.1434705
0.16679631 0.04152232 -0.17064756 0.28886312 -0.06868753 -0.07637283 -0.3082462 -0.071543634
-1.0107751 0.15005651 -0.27004942 -0.12612882 -0.067169935 -0.27697244 0.009588164 -0.16535604
-0.09028144 0.2902019 0.7030818 -0.18608142 0.089412905 0.1576183 0.27719837 -0.2944077
0.29388836 -0.6985153 -0.15090528 -0.086917974 0.10580807 -0.077739745 -0.0031449508 -0.018854817
0.0554637 0.0454936 0.26109684 0.2140519 -0.27144986 0.22453596 0.17615192 0.31528246
0.1771115 -0.31019065 -0.29061103 0.70316166 0.44843626 0.20441353 -0.22080211 -0.074742034
0.071411565 -0.14457221 -0.1401307 0.083836496 0.39129505 0.97516555 -0.06413577 -0.14281076
0.24118 -0.056988314 -0.09826984 -0.006862408 -0.3172815 -0.03429146 0.4141875 -0.19440511
-0.3054216 0.028122734 0.15523496 -0.0059840004 -0.033801995 0.097680695 -0.57801425 0.24552514
-0.19559072 0.27691197 0.2742158 -0.063556455 0.271835 0.36562487 -0.13858788 -0.805374

0.bias f4 [32]
00000000: 206e a93b d141 ff3d 799f 00bd 43f8 89bd
00000010: da37 6b3e 8696 7c3e d768 293d d247 99bd
00000020: d2df f8bc 3cb5 e83d 878d bcbe cd30 f8bd
00000030: d5e2 4a3e 4f1b 22bd 9a8d 063d 7fe0 97bd
00000040: b5ad a33e d3aa 8a3c 505b 9fbd e1b9 023f
00000050: 6348 57bd 6053 f03e 2bc9 2f3e 0bad 663e
00000060: 9d09 a6be c25c 0fbe bba9 8a3e 3695 46be
00000070: 67ab ab3c 6e82 a63d a77a 123d 36eb 06be
0.0051705986 0.12463725 -0.031402085 -0.06736805 0.22970524 0.24666795 0.04135975 -0.07484402
-0.030380163 0.11362693 -0.36826727 -0.12118683 0.19813092 -0.039576825 0.032849886 -0.07415866
0.31968465 0.016927158 -0.07781088 0.5106488 -0.052559268 0.4693861 0.17166583 0.22526948
-0.3242921 -0.14000228 0.2708262 -0.19392857 0.020955754 0.08130346 0.0357615 -0.13175663

2.weight f4 [64, 32]
00000000: fced e23d 27cd 413e 0f86 fdbd b33c 10be
00000010: 3248 263e e6f5 1fbe 1b35 e2bd 3b25 91bd
00000020: d196 debd 0625 e0bd eb7b 90bd 533e 223e
00000030: a138 5cbd 510f 6dbe 98a1 073d b825 6c3c
00000040: b081 81bc 4981 30ba c974 d33d 0a36 8e3d
00000050: 5f09 12bc 5be8 9abc 17f3 bfbd 83d0 ed3d
00000060: d97a 4a3d c87a 13be 8ccf 5f3d e3a9 95bd
00000070: 5d21 60be cff4 8bbc dbf8 163e 57a7 d33c
00000080: ecf5 8bbe f64d 74bc 9a55 503c 7df7 213e
00000090: eeb4 553e 62bc 773d 844e 633a 0158 933d
000000a0: 147f 65bd 963a 9bbe d1e1 353e 6364 ac3c
000000b0: 6a07 f33d 2e29 aebc 9d19 4cbe 01af 82be
000000c0: 9ce5 b2bd 8d3b f0bd 47c4 07be 6f46 f73d
000000d0: 7753 b93c c60b 45bd c8b2 443d 7d13 fe3d
000000e0: 2e19 6dbc 7d07 6a3e 3247 0d3e 8e8e 763d
000000f0: 318c 993e 5979 dbbd 836b 233e e97d cc3d
00000100: fa78 dcbd d2e0 e4bc 0a59 4e3d 432a 953d
00000110: 2e9d d7bd 8f67 a4bd 1691 83bc 7eeb 0c3e
00000120: 6573 94bc ce6a 2dbd 578f b53e 4dc1 c7bc
00000130: 4603 9a3e e270 893b ef45 893e 4e65 33bd
00000140: d3dd f9bd 0185 363d d0e9 be3d 34f5 95be
00000150: cc28 b03d 7c7b 853c 1385 22be fb28 10bd
00000160: b3eb 543e 553a 94bd 0efc f63c ed67 663e
00000170: a1cc 983b 5248 b7bd 7183 0e3e 6cd6 573e
00000180: 2908 08be c422 2d3e 9652 463c f2c3 a5bd
00000190: 5c46 26be e77d 863e d642 083e 5903 cf3d
000001a0: c79e 0c3e 63d3 033e 3e92 85bd cd14 01be
000001b0: c743 353c 377b 8d3d ec3e ee3c d514 02be
000001c0: 9d2b 52bd cb1f 723e 4493 30bd 128a 80bd
000001d0: 286d 863c ee6c 63be e2b4 1c3e 5870 133d
000001e0: 48d7 43be 11fe 363e 69fd 89be ca23 0f3d
000001f0: aef7 51bd 3f29 d73d 00f1 21be 4ec3 ebbd
00000200: 0d27 a03d 4912 a2bd d6d9 263e 879a 15bd
00000210: 828d 9f3d cb61 4fbe 6ea0 433e 9b12 d83c
00000220: c2c9 a0be 1f08 2fbd 8ad2 9f3d 1b7d fdbd
00000230: e001 633d 685f fabc 88e2 ef3d 30a2 efbc
00000240: 789d 503e 68de cf3d ede5 29be 4b23 cbbc
00000250: af34 263e c476 2fbe d29b 55bd 0d14 f7bd
00000260: f2cc 0e3e dc56 833d 54f0 2dbc 13a9 3c3e
00000270: 7d93 1bbe b0ff c43d 843c 893d 7224 82be
00000280: eded 833d 18e7 c63d 2165 5b3c fb9a 983d
00000290: 563b 2c3e ee35 d4bd 1365 cbbd 59ca d8bc
000002a0: de0b 543d 2b87 d93c 7481 923d 268e 893d
000002b0: 2f72 003d f5be f8bd 88ef 193c 5ff4 753e
000002c0: a88c 453e dd23 e3bc 5bec 1ebe cbc4 183e
000002d0: 8d2c d6bd 505d c23c 9d5f 63be 845a 813d
000002e0: a303 7dbe 77ac f8bd 2dff 2cbe 4e5c 05be
000002f0: bb42 4e3a fcd3 0c3e 77ae 3d3c 644a dd3d
00000300: ff17 2b3e 451a fcbc 445f 6e3e 7c05 d2bd
00000310: f35d 32be 4df0 37be a1f4 17be eead 853d
00000320: 0b6a aebd ff50 abbd d431 8b3e 650b a0bd
00000330: 8caa 98be dc89 e9bd 56b5 14bc e34d 673e
00000340: 0840 5ebe 0a72 cabd 0486 a43d b381 e63d
00000350: ffdb 3b3d 09b5 5cbd d450 293d aeb7 6abd
00000360: 4b5f 0f3e 1c04 2bbc 2ca5 13be c59d 2dbd
00000370: bdce 18be d597 abbc 9b2f 58bc 4abe 8fbd
00000380: 4710 ad3c fd58 a7bc 6d39 76bd afaa 373e
00000390: efb0 e1bd b4ac 2ebc 19da 253e 9c2f 9dbd
000003a0: 121b 983d 6f9e 2abc 3a85 d4bd eaa8 9fbd
000003b0: 7df2 b33e b119 f13b b191 b0bd cf74 1ebe
000003c0: 8cbc 573e b06e bfbc 50a8 babc 03db 84bc
000003d0: b279 25bd ae72 34bd 14ff 64bd 743e 6fbd
000003e0: ac96 ec3d 6e5d 7ebd 6722 da3d 49fb 3dbd
000003f0: e4fa 633c c876 83bd b3e6 44bd 1523 9b3b
0.11080548 0.18925916 -0.12379085 -0.14085655 0.16238478 -0.15621147 -0.11045285 -0.07087179
-0.1086861 -0.10944562 -0.070548855 0.15844087 -0.053764943 -0.23150374 0.033113092 0.01441329
-0.01580891 -0.0006733132 0.103250094 0.06943901 -0.008913367 -0.018909624 -0.093725376 0.11612036
0.049433563 -0.14402306 0.05464129 -0.07307794 -0.21887727 -0.017084507 0.14743368 0.02583663
-0.2733606 -0.014911165 0.0127157215 0.15817066 0.208698 0.06048239 0.00086710625 0.0719452
-0.056029394 -0.30318135 0.17761923 0.021043962 0.118666485 -0.02125987 -0.19931646 -0.25524142
-0.08735201 -0.117301084 -0.13258468 0.12073981 0.022622807 -0.04810693 0.04802206 0.12406061
-0.014471335 0.22854419 0.1379669 0.060194544 0.2998977 -0.107165046 0.15958981 0.09984953
-0.10765262 -0.027939234 0.050377883 0.072834514 -0.105280265 -0.08027565 -0.016060393 0.13761708
-0.01812143 -0.042338185 0.35460922 -0.024384165 0.30080622 0.004194365 0.26811168 -0.043797784
-0.12200513 0.044560436 0.0932194 -0.29288638 0.086015314 0.016294234 -0.15871076 -0.035195332
0.20793037 -0.072376885 0.030149486 0.22500582 0.0046630655 -0.08949341 0.13917328 0.21077889
-0.13284363 0.16907793 0.012104651 -0.08094014 -0.16237777 0.2626793 0.13306746 0.101080604
0.13732444 0.12873606 -0.06522034 -0.12605591 0.011063523 0.06908267 0.029082738 -0.1270326
-0.051311124 0.2364494 -0.043109193 -0.06276335 0.016409472 -0.22209522 0.15303376 0.03599581
-0.19125092 0.17870356 -0.2695115 0.03494624 -0.051261596 0.10505914 -0.1581459 -0.11511861
0.07819948 -0.07913644 0.16294035 -0.036524322 0.07790662 -0.20252149 0.19104168 0.02637606
-0.3140393 -0.042732354 0.07803829 -0.123773776 0.05542171 -0.030563071 0.11713129 -0.029252142
0.2037257 0.101498425 -0.16591616 -0.024797102 0.16231035 -0.17135149 -0.052150555 -0.12064371
0.13945368 0.064130515 -0.010616381 0.18423872 -0.15192981 0.09619081 0.067009956 -0.2541843
0.06441865 0.097120464 0.01339081 0.07451435 0.1681951 -0.10361849 -0.09931388 -0.026463674
0.05176913 0.02655371 0.071535975 0.06716566 0.031358894 -0.12145797 0.009395488 0.24019001
0.19291937 -0.027727062 -0.1551985 0.1491882 -0.10457716 0.023726135 -0.22204442 0.063160926
-0.24708419 -0.1214227 -0.16894217 -0.13023493 0.000786822 0.1375274 0.01157724 0.108052045
0.16708373 -0.030774245 0.23278528 -0.10254952 -0.17418651 -0.17962761 -0.14839412 0.06527315
-0.0851632 -0.08365058 0.27186453 -0.07814673 -0.29817617 -0.11403248 -0.009076437 0.22588305
-0.21704113 -0.098850325 0.08033374 0.11255207 0.0458641 -0.053883586 0.04133685 -0.057304077
0.14001195 -0.0104379915 -0.14418477 -0.04238679 -0.14922614 -0.020946423 -0.013194944 -0.07018717
0.021125926 -0.020428175 -0.06011336 0.17936204 -0.110200755 -0.010661293 0.16196479 -0.076750964
0.07427038 -0.01041375 -0.103769735 -0.0779589 0.3514594 0.007357799 -0.086215384 -0.15474246
0.21068019 -0.02336821 -0.022785336 -0.016217714 -0.04039926 -0.04405468 -0.055907324 -0.05840917
0.11552176 -0.06210082 0.10651093 -0.046382222 0.013914797 -0.0641914 -0.048071574 0.0047344067

2.bias f4 [64]
00000000: d9a9 813e 599c 4cbe ce6a a0be b8db 153d
00000010: b154 413e f3f1 903c 9a3e 3fbe 53d7 473d
00000020: b0c1 8dbd 1e91 153e 97fd d33d 0df8 753d
00000030: 230b f6bd 9c7d 27be a18f 0cbe 40c5 59be
00000040: a3d8 c33e 22bc 9fbe 2615 723d 2239 6ebe
00000050: 8566 683e b53a 4c3c b0c1 d23d 6973 a9bd
00000060: 3c74 e7bd cdf2 a4bd 8ec8 b43d c7d8 9ebc
00000070: 4d07 9c3d e4b1 70bd 3f19 71be f230 523d
00000080: 5b6e bfbd abf4 283e ed6c 063e 08c6 0a3e
00000090: ffc6 d63d de39 57be 6f78 89bd eaeb 63bd
000000a0: 5868 06bc 08da 34be 3a6d 233e a111 e53d
000000b0: 422d 34be e9fe 153e 3b82 243e 2bd9 1d3d
000000c0: 42ce 6ebd 212f 6f3d 76a6 3bbd dff0 763e
000000d0: 7586 403e 5202 ff3d 8ad6 02be ac50 8f3e
000000e0: d316 1d3c 6056 4e3c 6186 963c f053 83bc
000000f0: 6267 b0bd 327d 443e 99cd 0fbe 700a e0bd
0.25324896 -0.19981517 -0.31331486 0.036586493 0.18879963 0.017693495 -0.18676224 0.048789334
-0.069217086 0.14606139 0.10351103 0.060051013 -0.12013843 -0.1635651 -0.13726665 -0.21266651
0.38251218 -0.3119822 0.0591022 -0.23263982 0.22695358 0.012465169 0.10290849 -0.08273966
-0.11301467 -0.08054123 0.08827315 -0.019390477 0.0761858 -0.0587634 -0.23544787 0.05131621
-0.093472205 0.16499583 0.1312749 0.13552105 0.10487174 -0.21018168 -0.06712424 -0.055644907
-0.008203588 -0.17661297 0.15959635 0.11185003 -0.1759539 0.14648022 0.16065304 0.038537186
-0.05830217 0.058394555 -0.045813046 0.24115323 0.18801291 0.124516144 -0.12777153 0.27991235
0.009587961 0.012593836 0.018374624 -0.016031235 -0.08613469 0.19188383 -0.14043273 -0.10939491

4.weight f4 [128, 64]
00000000: c2bb 2e3e a0e4 15be 5ccc ffbc 2314 c0bc
00000010: c276 d83c 3c62 e83d a598 d53d a89d 95bd
00000020: 7926 7cbd 61c9 02be 47c5 323d 429b 273d
00000030: 3f2d f3bd 0365 d6bc cffb 9bbd 0979 ccbd
00000040: 3e8b 1d3d 7187 23be f14e 83bd 1922 49bd
00000050: fb4c 2a3d 332b 663d d1b1 db3a 92d2 8b3d
00000060: eed5 173d 7d24 77bd 71a1 4dbd 079d 4f3d
00000070: 4831 71bd d0fb 54bd 0400 bf3d ac8d d7bc
00000080: 670a 913d 67eb 803d 6e07 2fbe d5e6 aabc
00000090: f530 56bc 6835 583c 8caf 063e 19cf fabc
000000a0: e2d7 cc3d 9de9 2abe be65 793d 5621 bbbd
000000b0: 6577 93bd fd0a a6bd 0b01 86bd a829 903c
000000c0: 6ced 033e 580a ef3d 81d1 fbbc b969 82bc
000000d0: 692f 9ebd b672 5a3d d088 5bbd 7e61 44bd
000000e0: 14c3 d03d 381f 233e fdc4 ff3c 2558 103d
000000f0: 0299 1b3e 8edf a2bd 2938 3cbe 10e1 6e3d
00000100: e30d 0000 59ca 0880 a538 bc14 4407 0000
00000110: 9f04 0080 7b17 0000 8e0f 0080 1300 0080
00000120: 430d 0000 ce06 0000 0b04 0000 0606 0080
00000130: ae10 0000 bb2b 0187 e112 0000 acd5 9e09
00000140: ca09 0000 8f0d 0080 2003 0000 300e 0080
00000150: 2a00 0080 e515 0080 7f08 0000 f404 0000
00000160: 4613 0080 c60c 0000 7634 9803 ac09 0080
00000170: f80a 0080 e012 0000 0b0e 0000 7417 0080
00000180: 360d 0080 7e0b 0080 760b 0080 470c 0000
00000190: 0213 0000 0304 0080 1819 0080 2105 0000
000001a0: 0215 0080 4f00 0080 0606 0080 9c11 0000
000001b0: f207 0080 7eee 0e99 f100 0080 2b11 0000
000001c0: 3b1b 0000 910b 0080 d508 0080 c80d 0000
000001d0: 920d 0080 7114 0080 f758 0080 5003 0000
000001e0: 2602 0080 662d 0080 8c0e 0080 e40f 0000
000001f0: 0508 0080 f502 0080 d813 0080 a712 0080
00000200: 2520 893c d136 733c db61 dcbd 4750 8abb
00000210: 3f02 61bc 6466 133d ba0e 95bc 842d 733c
00000220: 3720 003d 726d 843d c59f 8a3c a4b2 263d
00000230: 0917 cebd 49b0 9a3c 7f34 02be b054 06bd
00000240: 241c d23d 6e98 133c cfe6 a1bd 3f55 34bd
00000250: 1579 cf3c 597b e3bc d703 673d a093 38bd
00000260: 4cfa ffbb 1742 0e3d 3cb5 bebc 080a 32bd
00000270: 1796 56bd 728d 8b3c 9432 a3bd 60f5 aebd
00000280: 9e55 f33c 241f 593d e918 efbd 6ff3 873c
00000290: 418c 28bd 9138 c63c 0690 3cbc 303e ffbc
000002a0: a9fe 01bd 6fad 5abd 2e7e d53b 6095 17be
000002b0: 7b75 de3d 6068 ee3c e560 f93c de1a bdbd
000002c0: b932 82bd 95a2 04be 4fb3 a33c 545d d83d
000002d0: 8fc6 94bc 44f3 1a3e 181c 4fbe aad2 82bd
000002e0: 7712 1ebe c4c9 e5bd 0232 c13c 8174 0dbe
000002f0: 4928 cc3d 0464 8cbd e09a da3d 34d2 f4bb
00000300: 828d 0abd 6f73 a4ba 26cf 123d 9c5d 0f3e
00000310: b4d2 c93d e686 513d 9fa0 923c adb1 6ebd
00000320: 4220 94bd e318 2ebe 012c 093e e493 c8bd
00000330: d917 92bc e3c0 7bbe c729 34bd e970 0bbd
00000340: 7930 c1bd 0447 993c 4064 e33c 0f8d af3c
00000350: ad52 1e3d bb7d fe3b 0622 80bd f635 b03c
00000360: 35d9 073c 58c7 493d 2550 8e3d fb9b b7bd
00000370: e9e7 5e3d 86ea 8a3d bb3a 14bd 65cc c9bd
00000380: b98c 32be 031e 043d 031c df3c b89b 1e3e
00000390: 85f4 bc3d 1e03 833d 1344 f73c dd58 d63d
000003a0: c9ef 8bbc 70ec 5e3d d10c 683c c3b8 103e
000003b0: edae 3fbc ec4a cdbd 737f 84bd 8fc2 03be
000003c0: 6125 013c 77fc 01bd fdc7 ad3c 9570 263d
000003d0: b015 233e 06ff 6cbd 56f6 f6bb 6f4d 96bd
000003e0: c2ed 813c aaf9 82bd e2dd 99bd d914 823d
000003f0: 995a 94bd 29b8 00bd 85bf 16be 5709 0c3d
0.17063811 -0.14637995 -0.031225376 -0.023447102 0.026423816 0.11346862 0.10429505 -0.07305461
-0.061560128 -0.12772132 0.04364517 0.04091955 -0.118738644 -0.026171213 -0.07616388 -0.09984023
0.03846287 -0.15969636 -0.06411541 -0.049104784 0.04157732 0.05619354 0.0016761367 0.068272725
0.037069254 -0.060337532 -0.05020279 0.050686862 -0.05888489 -0.05199796 0.09326175 -0.026312672
0.07082062 0.062948994 -0.17092678 -0.020862022 -0.013073196 0.013196327 0.13152903 -0.03061633
0.10002114 -0.16690679 0.060888045 -0.09137218 -0.07200507 -0.081075646 -0.06543168 0.017597988
0.12883538 0.11671895 -0.030739548 -0.015919553 -0.077238865 0.053332053 -0.05359727 -0.04794454
0.10193458 0.15929878 0.031221861 0.03524031 0.15195087 -0.07952796 -0.18380798 0.058320105
4.982e-42 -8.07273e-40 1.9005491e-26 2.606e-42 -1.658e-42 8.423e-42 -5.58e-42 -2.7e-44
4.757e-42 2.441e-42 1.45e-42 -2.161e-42 5.984e-42 -9.717733e-35 6.772e-42 3.8238052e-33
3.512e-42 -4.864e-42 1.121e-42 -5.09e-42 -5.9e-44 -7.854e-42 3.048e-42 1.777e-42
-6.914e-42 4.582e-42 8.9458015e-37 -3.47e-42 -3.935e-42 6.771e-42 5.038e-42 -8.413e-42
-4.739e-42 -4.123e-42 -4.111e-42 4.404e-42 6.819e-42 -1.439e-42 -9.002e-42 1.84e-42
-7.536e-42 -1.11e-43 -2.161e-42 6.317e-42 -2.85e-42 -7.389391e-24 -3.38e-43 6.159e-42
9.768e-42 -4.149e-42 -3.168e-42 4.944e-42 -4.868e-42 -7.333e-42 -3.1915e-41 1.188e-42
-7.71e-43 -1.6286e-41 -5.218e-42 5.7e-42 -2.877e-42 -1.061e-42 -7.119e-42 -6.691e-42
0.01673896 0.014844612 -0.10760852 -0.0042209956 -0.013733446 0.03598632 -0.018195499 0.014842395
0.031280722 0.064661875 0.016921887 0.04069771 -0.10062987 0.018882887 -0.12715338 -0.032795608
0.10259274 0.00900851 -0.07905351 -0.04402661 0.025326291 -0.027768778 0.056400146 -0.04506266
-0.00781182 0.034730997 -0.023279779 -0.043466598 -0.05238923 0.01703522 -0.079686314 -0.08542895
0.029703911 0.053008214 -0.11674673 0.01659557 -0.04114938 0.024196895 -0.011508947 -0.031157583
-0.031737003 -0.053388055 0.006515286 -0.14803076 0.10862251 0.029102504 0.03044171 -0.0923364
-0.06357331 -0.12952645 0.019982962 0.10564676 -0.018161086 0.15131861 -0.2022556 -0.06387837
-0.15436731 -0.11220124 0.023583416 -0.13813974 0.09968621 -0.06855014 0.10674071 -0.007471347
-0.03382636 -0.0012546609 0.035842083 0.14000553 0.098546416 0.05115404 0.017898856 -0.058274914
-0.07232715 -0.17001681 0.13395692 -0.09793833 -0.017833637 -0.24585299 -0.043985154 -0.034043226
-0.094330736 0.01871062 0.027757764 0.021429567 0.038653065 0.007766453 -0.062564895 0.021510106
0.008291532 0.049262375 0.0694888 -0.08965298 0.054420386 0.06783013 -0.036188822 -0.09853438
-0.17436494 0.032255184 0.027235037 0.1548909 0.09226326 0.06397079 0.030183828 0.10466168
-0.017082112 0.054424703 0.014163212 0.14132981 -0.01169942 -0.10024056 -0.064696215 -0.12867187
0.007882447 -0.03173491 0.021213526 0.04063471 0.15926242 -0.057860397 -0.0075366898 -0.07338988
0.015860442 -0.06395276 -0.07513024 0.063516326 -0.07243843 -0.03142563 -0.14721496 0.034188595

4.bias f4 [128]
00000000: b964 1d3d 1ace 3e97 e2b2 2e3e 51f8 813d
00000010: 9365 5c3d 265a 1abe 1d2a 513d 3e85 eabd
00000020: f599 13bd 9741 a8bd 481f 453d d7f6 633d
00000030: fc7c fabd 6b78 c23d 26c9 573d 73f7 8eba
00000040: 9fe2 823d b4db 883d 8dac 453d 0389 b7bd
00000050: 1663 283c b3a0 a83c 3366 2fbe e3d9 b43c
00000060: 500f c0bd e5f0 323c b998 183d 22fd bcbc
00000070: 2dab 4b3d c478 663d 2bef af3d dfe2 acbc
00000080: 0f26 063e 1ec5 cbbd 3c74 793b 2db2 cabd
00000090: a9b3 c53d e64d 70bd b2d1 46bd d9fa e53c
000000a0: 1341 9ebc 542b 673d a348 a53d 4d73 38bd
000000b0: 3eff 823e edf5 793c bbbd 3dbd 727b 82bb
000000c0: c0ef 373d 69ee b2bd a330 083d 67bb 143d
000000d0: c62a db3d 962e ce3d 131f 183e 645b 80bc
000000e0: cf85 33bd 2fb6 e13c dc9f eb3d 31c4 083b
000000f0: f4fe 52bd d9d7 81bd f7f8 1a3d e7be 0ebe
00000100: 3dbd 2ebc 67b2 a93c 0d91 293d 52dc 69bd
00000110: bc2e 9b3d 31f9 a23d a32d 22bc a319 053d
00000120: 7a44 ba9c fc01 19bd ef66 47bd 00d7 173d
00000130: fdd1 b0bb ce4e 973d 96b4 10be 3b3f 83bd
00000140: 2d96 d43d ccb5 063e d7eb 7bbd a2f1 5b3d
00000150: dee5 f8bc f8b4 153d e6a9 57bd 27b6 4f3e
00000160: 7a03 203e 1dc7 9fac 2d91 1b3c 36e2 2a3c
00000170: df48 223e 46f4 4f3e 2764 683c 92d6 c1bc
00000180: 452b a23d 2bda 45be b962 883d db35 423d
00000190: b4e9 683d 224e 313d 63a9 9e3d 8447 ff3d
000001a0: f157 b3bd 4f63 cc3d fe0f a3bc e4de d9bc
000001b0: e291 89bc a127 133d d3c6 5abd 01a6 513d
000001c0: 0de3 d4bc e55e bd3c 2440 e33c 0352 013b
000001d0: 9621 923d 97e1 9d3d 8bf1 413c 2f3d a43c
000001e0: fdf7 ee3d 92aa 753c 6b1d 163e b336 1abd
000001f0: b3d4 653d 6526 a93d a4b2 a33d 8dae 05be
0.038426135 -6.165245e-25 0.17060426 0.06346191 0.053807806 -0.15073451 0.051065553 -0.11451195
-0.036035497 -0.08215635 0.048125535 0.055655327 -0.1223087 0.09495624 0.052682064 -0.0010907486
0.06390881 0.0668253 0.04826026 -0.0896168 0.01027753 0.02058444 -0.1712883 0.022076553
-0.09377921 0.010921692 0.037255023 -0.023069922 0.049723793 0.056267515 0.085905395 -0.021104274
0.13100456 -0.099497065 0.0038063666 -0.098972656 0.09653408 -0.05866804 -0.048539825 0.028073715
-0.01931814 0.056437805 0.08070495 -0.045031834 0.2558536 0.015256387 -0.04632352 -0.003982001
0.044906378 -0.087368794 0.03324951 0.036311533 0.10701518 0.10067479 0.14855604 -0.015668578
-0.04382878 0.027552692 0.115051 0.0020868892 -0.051512673 -0.06339998 0.037835088 -0.13940011
-0.010665235 0.020714952 0.041398097 -0.05709488 0.07577273 0.07957686 -0.009898576 0.032495152
-1.2326148e-21 -0.037355408 -0.04868215 0.037070274 -0.0053961263 0.07388078 -0.14131388 -0.06408545
0.10380206 0.13155288 -0.06150421 0.053697236 -0.030383047 0.03654954 -0.052652262 0.2028433
0.15626326 -4.541158e-12 0.009495062 0.010429909 0.1584811 0.20308027 0.014184034 -0.023661885
0.07918409 -0.19321506 0.06659455 0.04741464 0.0568635 0.043287404 0.07747152 0.124648124
-0.08757008 0.09979879 -0.019905087 -0.02659554 -0.016793195 0.035926465 -0.05341227 0.051183704
-0.025987172 0.023116538 0.027740546 0.001973272 0.07135312 0.077090435 0.0118373735 0.020048706
0.11668394 0.01499428 0.1465966 -0.03764982 0.05611105 0.08259276 0.07993057 -0.13054867

6.weight f4 [256, 128]
00000000: d33e 0100 6537 0000 cc44 2280 419d efa6
00000010: 19ec 6f08 4f33 55a7 d427 2aa4 5023 dfa2
00000020: 4365 810e 3365 00ae 45cb 58a3 569b eaa5
00000030: b63c 12b2 4036 e5ae d2f6 91b0 f516 0080
00000040: 7f49 0180 5307 0080 8b00 0c8e e99f 0f2f
00000050: e5a1 5e20 de0c 130c 4b79 d629 dd69 2103
00000060: bd93 f0a3 edb6 0c2c b581 68ac aa72 8e92
00000070: b103 0080 024b 4da6 1e0b 98a7 05b8 0d2d
00000080: 5dd1 2c89 db41 5b8e 50e8 5d8e b0bc 1708
00000090: 300c 0000 dede bb9c f609 0000 d58b be92
000000a0: 6d09 0000 dd49 23a8 1160 c7ac b31c f69e
000000b0: a204 0080 e916 f089 b40b 0080 ace3 99a5
000000c0: b036 9881 e500 0000 3e13 0000 fb0f 1922
000000d0: d924 f994 a07c a612 2178 1faf c4b5 41a6
000000e0: d409 0000 ef0c 0000 2c19 64b5 79a4 7099
000000f0: 0f31 e09e b406 0080 b10e 0080 39e8 0596
00000100: 8713 0080 f14e 948c 1f03 0000 ff82 a690
00000110: 5901 0080 1113 0000 8b09 0080 add7 448c
00000120: 4445 0000 cee4 8096 020b 0080 4161 d784
00000130: ea13 0000 8911 0080 ed24 c5a7 fc6f 138f
00000140: d26e 0000 9c4e 0530 1e45 66a1 cba0 339e
00000150: 490c 0000 d86e 2eaf c4d6 f420 ec7e 6133
00000160: 63d5 812e 7696 0000 0c42 91b2 7f03 0000
00000170: aa22 1229 334c 1611 3c00 19ae da15 0080
00000180: 3764 de93 33d4 0eaf 32a6 11ac 1e13 0000
00000190: 5709 1f13 411d 3eab 76ee 12b1 bd1c 8a9d
000001a0: 486f 9ea5 ca69 c3a8 e044 9d2c e6c6 3212
000001b0: 7e0c 0080 3b4a 0fab 5c3a 09ab 7bdf 0f9d
000001c0: 6727 9f10 2aee 9727 bece 3720 6206 0000
000001d0: 55d1 cf04 4fbd a4a7 96b7 959f 026d dd98
000001e0: 89a2 188e 288f 6ea8 1b48 c527 3311 0080
000001f0: 3c1c 9e80 cb1a c7a2 8cb6 ebac 3741 c211
00000200: 2d0e 0080 fe3a 0000 3604 0000 8712 0000
00000210: 85ce 8022 5715 5f93 eb06 0000 c762 809c
00000220: 95c0 bd09 3e23 40a0 05cf 9d09 e672 a691
00000230: cba0 09a2 cb19 d31a 08a1 82b0 b096 0000
00000240: f8fc ad94 f707 0080 6007 0080 ad62 20a4
00000250: 0941 4504 fec5 ff97 0c52 4e98 4d03 0000
00000260: ef2d 39a6 f711 0000 ede7 c2a4 a907 a512
00000270: 6804 0080 f0f7 c008 7aef 899e ea39 2faa
00000280: 22ff 3927 3414 0080 d98a 0100 2d04 5a98
00000290: 2909 0080 9122 3512 3e11 0080 9107 0000
000002a0: b913 0080 1075 d094 5af5 8d27 dcbb f796
000002b0: d005 0080 25b1 ef9b 5ff4 4e28 1b0b 0080
000002c0: 96dd 000d 4173 0000 8615 0000 6e89 8397
000002d0: 143e c911 dd06 0000 f21b dcad 9a35 05a8
000002e0: 94ca 8580 b605 0080 81de 60b1 959c 0200
000002f0: 6cce 1c80 1d12 0080 bf07 0080 9d2c 9c23
00000300: 0a01 0000 7705 0000 8010 0000 4d86 999a
00000310: fc11 0080 8e0c 0080 910f 0000 750b 0080
00000320: 2871 0080 2401 0000 c406 0000 100b 0000
00000330: d558 0080 bd02 0080 a7b5 c0a7 1a0f 0000
00000340: 6809 0080 c7c8 8a2c 271a 0000 9712 0080
00000350: 3f09 0000 ec0c ae98 d815 391f 04c0 81aa
00000360: ee09 2baa e708 0080 fe5f beb1 0813 0000
00000370: d3cd 202e a3c0 0c9a 84e9 7e98 4d07 0000
00000380: 500a 0000 b1b4 e2a9 edd4 411f 42d6 9fa3
00000390: d206 0080 79b6 8091 33d5 33b3 664c 4b05
000003a0: af36 f3ad 0efa c71b 4dfe 0da9 8504 008e
000003b0: e106 0080 dc20 0d2f 9efe 14aa 93e9 3b81
000003c0: bcce 0980 fb8a 37a3 384c 3904 2f04 0000
000003d0: e70e 0000 ff06 5c9d 2613 0080 a712 0000
000003e0: 8012 0000 e74d 51a4 d09f 1191 010e 0000
000003f0: 2b32 6a00 895e 62a7 96b1 0a9f 3101 0000
1.14373e-40 1.9872e-41 -3.147087e-39 -1.662658e-15 7.219898e-34 -2.9587502e-15 -3.689661e-17 -6.048166e-18
3.1898467e-30 -2.9193713e-11 -1.17524275e-17 -4.069779e-16 -8.512123e-09 -1.0423351e-10 -1.0620289e-09 -8.235e-42
-1.18201e-40 -2.627e-42 -1.7256594e-30 1.3062586e-10 1.8857698e-19 1.132834e-31 9.52455e-14 4.7435173e-37
-2.6083422e-17 1.999674e-12 -3.3041185e-12 -8.989727e-28 -1.324e-42 -7.1225317e-16 -4.220053e-15 8.055783e-12
-2.0802189e-33 -2.7025542e-30 -2.7352208e-30 4.566171e-34 4.372e-42 -1.2432232e-21 3.573e-42 -1.2025157e-27
3.381e-42 -9.064334e-15 -5.6665857e-12 -2.6058133e-20 -1.662e-42 -5.7799443e-33 -4.198e-42 -2.6695546e-16
-5.5914454e-38 3.21e-43 6.903e-42 2.0743827e-18 -2.5157109e-26 1.0506795e-27 -1.4503644e-10 -6.7206665e-16
3.526e-42 4.64e-42 -8.497325e-07 -1.2440924e-23 -2.3737213e-20 -2.405e-42 -5.27e-42 -1.0816931e-25
-7.005e-42 -2.2850522e-31 1.12e-42 -6.5677287e-29 -4.83e-43 6.84e-42 -3.423e-42 -1.5164193e-31
2.4848e-41 -2.0823911e-25 -3.949e-42 -5.063557e-36 7.144e-42 -6.29e-42 -5.471852e-15 -7.269227e-30
3.9755e-41 4.849683e-10 -7.8018507e-19 -9.509432e-21 4.407e-42 -1.5864587e-10 4.1477328e-19 5.250233e-08
5.904146e-11 5.3975e-41 -1.6910256e-08 1.254e-42 3.244858e-14 1.1856394e-28 -3.478838e-11 -7.839e-42
-5.61395e-27 -1.2990213e-10 -2.0697996e-12 6.858e-42 2.0073226e-27 -6.754216e-13 -2.1381346e-09 -3.655801e-21
-2.7484038e-16 -2.1695228e-14 4.469855e-12 5.641206e-28 -4.481e-42 -5.090682e-13 -4.875317e-13 -1.904143e-21
6.277515e-29 4.2169137e-15 1.5569108e-19 2.29e-42 4.8857707e-36 -4.5724393e-15 -6.340767e-20 -5.723723e-24
-1.8813704e-30 -1.3242696e-14 5.475666e-15 -6.17e-42 -1.4520137e-38 -5.3967426e-18 -6.6993685e-12 3.0647995e-28
-5.085e-42 2.1162e-41 1.51e-42 6.646e-42 3.491313e-18 -2.8157078e-27 2.482e-42 -8.495863e-22
4.56812e-33 -1.6274693e-19 3.7991055e-33 -2.6260994e-28 -1.8652085e-18 8.7309225e-23 -9.504513e-10 5.4056e-41
-1.7568314e-26 -2.857e-42 -2.646e-42 -3.477805e-17 2.3187101e-36 -1.6528969e-24 -2.66663e-24 1.184e-42
-6.424702e-16 6.445e-42 -8.4526986e-17 1.0414852e-27 -1.58e-42 1.16138695e-33 -1.4604484e-20 -1.5563215e-13
2.5812215e-15 -7.248e-42 1.41645e-40 -2.8177948e-24 -3.286e-42 5.7156136e-28 -6.185e-42 2.714e-42
-7.075e-42 -2.1048806e-26 3.9401372e-15 -4.0023558e-25 -2.085e-42 -3.965371e-22 1.1488287e-14 -3.984e-42
3.970977e-31 4.1345e-41 7.721e-42 -8.500369e-25 3.1750467e-28 2.462e-42 -2.5023515e-11 -7.394606e-15
-1.2286792e-38 -2.049e-42 -3.272277e-09 2.39842e-40 -2.645444e-39 -6.498e-42 -2.779e-42 1.6932448e-17
3.73e-43 1.96e-42 5.919e-42 -6.349629e-23 -6.452e-42 -4.504e-42 5.584e-42 -4.11e-42
-4.0593e-41 4.09e-43 2.427e-42 3.968e-42 -3.1867e-41 -9.82e-43 -5.3487653e-15 5.417e-42
-3.374e-42 3.9444867e-12 9.382e-42 -6.669e-42 3.317e-42 -4.4990994e-24 3.9193343e-20 -2.304824e-13
-1.5191296e-13 -3.194e-42 -5.540641e-09 6.827e-42 3.6562597e-11 -2.9106932e-23 -3.2946626e-24 2.619e-42
3.7e-42 -1.0067761e-13 4.1045468e-20 -1.7329556e-17 -2.447e-42 -2.0307297e-28 -4.187059e-08 9.559046e-36
-2.7650186e-11 3.3083382e-22 -3.152886e-14 -1.5779394e-30 -2.468e-42 1.2835549e-10 -1.3233379e-13 -3.4514057e-38
-9.00682e-40 -9.94988e-18 2.1781643e-36 1.501e-42 5.346e-42 -2.9120374e-21 -6.869e-42 6.691e-42
6.637e-42 -4.5385637e-17 -1.1487729e-28 5.024e-42 9.75256e-39 -3.1415048e-15 -2.9369532e-20 4.27e-43

6.bias f4 [256]
00000000: 2628 b6b8 6799 81b7 0e4c eebc 29d6 4cb9
00000010: 8d06 5db4 a235 953d b9dd 853c 6f2b 949f
00000020: 2830 afba b9f4 edb9 3d01 33bb 9d0b eea2
00000030: bcc3 61b7 d47c 94b3 2f3a 04bb cf3c dfb9
00000040: 8421 92bd 3e1e 96bd eadb 0a3c da1a a7ba
00000050: 7a11 a4b8 0449 2abb c14b 35a6 c00d 71a3
00000060: 11c6 923c 0a84 ebba ec08 9ab9 64f6 a3b0
00000070: 2763 27bb f438 55bb a2e8 0bb8 8033 9faf
00000080: b122 3caf 3b26 f0b5 d614 aabc a7b4 6bbc
00000090: 1628 f2bb 1d6b b9b7 b645 2cae 3944 06af
000000a0: c86b e0bc 70d5 96bd 4bf2 abba 6e32 40bc
000000b0: c193 dcb4 7fb7 09bb 0374 b8b9 04b3 27ad
000000c0: 5af5 21bc 169f e4ba 7a28 35ab 2906 00bb
000000d0: cb7f d4ba a38d 123c 479a 13a7 08f9 c6b6
000000e0: 8e26 89bb e6bc 1db9 42b3 56ba 5a36 33bd
000000f0: 7967 beb9 ac60 ebbb 5c54 8eb8 1d4b 8092
00000100: 65b2 84bb b402 0cb4 32ec 9aba bb3e 303b
00000110: 9ec5 43b3 9c98 74b4 3721 80af ec3d 0a9e
00000120: eda0 69ad b454 30a7 757d f3ba 8ad8 db3b
00000130: fb04 d391 2dfb fcbc f1d5 38b2 ad0a 81bb
00000140: 973e b1af 8cb2 f7b3 ccf8 a2bb fbb1 9db6
00000150: b73d a2bd 42b0 ff3c a403 3dbd 87c4 7ab5
00000160: b028 e6aa 81dc b9bb 8f45 04bc 5e1f 129e
00000170: ddfc 723d 1cb1 f9b8 d0fe e4ba 058b a8ac
00000180: 481d bf94 641c f1ba 72d5 8d3c a74a dbbd
00000190: 7bec 963c 7154 88aa 7537 bbba 713d a0bc
000001a0: 4a42 83bd 62a3 adb6 25a4 a9bd 88c1 86ab
000001b0: 47b2 be3c 98e3 34b7 b875 61ba 190c 12bb
000001c0: faa3 aa8c 6e2c 2ba6 1686 bdbb 8aed 823d
000001d0: 20e5 8bb3 cd02 cd3c 37ea a9ba 2d5b f83b
000001e0: d461 3cbb aea3 d4bb 5194 c793 60f8 8ab9
000001f0: 80d2 d2ba ce90 4cba 162a 10bb dc2a 0099
00000200: dc14 9339 d1a0 9fab 96de 1cab 90a9 1bad
00000210: 448b 57b5 028f d8ba 90ee 0fbe a832 5bb8
00000220: 8a0e ef3c 50b5 0ebb 81f5 07bb 2adc b399
00000230: 3b8d 94b1 1673 cd90 d636 b43d edc8 ca3c
00000240: 5cf7 b8ba c0b7 6bbb 4d97 2ea0 5e1c 90b9
00000250: 3473 7089 6bec 8bbb fdf6 38b4 f127 a9ba
00000260: b9ed ed3c 313f f79d 0a45 a83d 441e 073d
00000270: 249b 1ea7 841f 77ad ab55 be3c c9f2 5fbb
00000280: 1038 47bb 724e 70bb c4ba 06bb 4c77 d7bd
00000290: e6c6 45b3 21cb beb9 2918 91a6 dcbc f99b
000002a0: 8e60 3f9f bd1a a6ba c910 8cbd dad6 103c
000002b0: bbc3 6c3b b081 3aba 08b0 16bb b11c b0b4
000002c0: 438e 60b8 47d8 52ba e869 9dbd 9762 26bd
000002d0: ebee e4b7 1b12 0bbb b1b9 06b8 6016 70b9
000002e0: b47e 223c 5474 35a6 5db6 efbb ce33 a0bb
000002f0: 3f53 baba a36a 98ba 3420 bdb1 9b8c 44bb
00000300: 0c21 ddb5 2844 30ba c825 433d af37 13b0
00000310: fea8 21bb bc21 f0b9 e92b 90bc b4d8 bbb4
00000320: d187 d7ba ebcd 0cb7 dcb5 693a 0322 ffb6
00000330: 8201 97b9 885f 81bb af20 1fba 6808 489a
00000340: 73f8 dbb6 430e 5dba d10f 01b7 8b03 a43d
00000350: e51d 96bb 1c6b 4fbb 6724 e6b6 98f5 e4bc
00000360: 8d3e b1ba 706a ebb6 f6f6 31ba 4317 393d
00000370: 0c03 613c 57e0 88bb 2074 24ae d4d2 45b9
00000380: d18a 69bb 95dc e43b 1501 16b5 3673 833d
00000390: ff3b fdbc 4f05 99aa 7745 70ba f1ef 0bbb
000003a0: 1e9c 93b9 1824 f0bc b6d1 d8b9 1fd4 8cb9
000003b0: 3b4d 7ab2 e069 37ba 69fc 20bb 8c39 4fbb
000003c0: 5312 57ba 5bbd 1d3c faf3 073d 5aee 07bc
000003d0: 9bc2 22bb 36d2 c5bc dad5 0e3d 7f7e 63b7
000003e0: 8f00 91aa 0d24 abbc 4355 36ac 4ca8 c5b7
000003f0: 771e 77b7 4e67 643c 3482 91a4 bffb 3d3d
-8.6859145e-05 -1.5449432e-05 -0.029089 -0.00019534737 -2.0584612e-07 0.0728562 0.016341077 -6.275229e-20
-0.0013365792 -0.00045386495 -0.002731397 -6.4522325e-18 -1.3456618e-05 -6.914493e-08 -0.0020176282 -0.0004257918
-0.07135299 -0.07329987 0.008475283 -0.0012749091 -7.823385e-05 -0.0025983462 -6.2899656e-16 -1.3067548e-17
0.017916711 -0.0017968428 -0.00029379816 -1.1929839e-09 -0.0025541277 -0.0032535167 -3.335684e-05 -2.8958524e-10
-1.7110825e-10 -1.789252e-06 -0.020761888 -0.014386333 -0.0073900325 -2.2103597e-05 -3.9170188e-11 -1.2211467e-10
-0.027395144 -0.07364929 -0.0013118474 -0.011730773 -4.1085698e-07 -0.0021013913 -0.0003518165 -9.5326e-12
-0.0098851565 -0.0017442431 -6.436029e-13 -0.0019534922 -0.0016212402 0.008944902 -2.0483982e-15 -5.929851e-06
-0.0041855043 -0.00015043057 -0.00081901636 -0.043753006 -0.00036316717 -0.007183155 -6.786801e-05 -8.096453e-28
-0.0040495866 -1.30395e-07 -0.0011819659 0.002689286 -4.5581707e-08 -2.277979e-07 -2.3306665e-10 -7.318464e-21
-1.3280249e-11 -2.4470824e-15 -0.0018576818 0.006709163 -3.3293e-28 -0.030881489 -1.0758854e-08 -0.00393804
-3.2240585e-10 -1.1534311e-07 -0.0049735066 -4.6996843e-06 -0.079219274 0.031211976 -0.04614605 -9.341824e-07
-4.088444e-13 -0.005672038 -0.008073225 -7.735662e-21 0.05932318 -0.000119062344 -0.001747096 -4.7902815e-12
-1.9297621e-26 -0.0018395302 0.017313693 -0.10707598 0.01842331 -2.4217046e-13 -0.0014283495 -0.019560548
-0.06409128 -5.174822e-06 -0.08283261 -9.574988e-13 0.023278369 -1.0781827e-05 -0.00086006103 -0.0022285043
-2.6291337e-31 -5.9387756e-16 -0.0057838066 0.06392963 -6.5143695e-08 0.02502575 -0.0012963478 0.0075792284
-0.0028744834 -0.0064892387 -5.0380914e-27 -0.00026506465 -0.0016084462 -0.000780356 -0.0021997741 -6.6261e-24
0.00028053566 -1.1342265e-12 -5.5731233e-13 -8.84838e-12 -8.02964e-07 -0.0016522112 -0.14055848 -5.2260846e-05
0.029181737 -0.002177555 -0.0020745697 -1.859709e-23 -4.323423e-09 -8.103556e-29 0.087995216 0.024754012
-0.0014111805 -0.0035967678 -1.4788435e-19 -0.00027486956 -2.8943117e-33 -0.0042701266 -1.7226189e-07 -0.001290558
0.029044019 -6.5445694e-21 0.08216293 0.032987848 -2.2011007e-15 -1.4047322e-11 0.023234209 -0.003417181
-0.0030398406 -0.003666785 -0.0020558098 -0.10520801 -4.6048534e-08 -0.00036390967 -1.0067945e-15 -4.1315642e-22
-4.052569e-20 -0.0012672764 -0.06839139 0.008840287 0.0036127407 -0.0007114662 -0.0022993106 -3.280343e-07
-5.3538253e-05 -0.0008043092 -0.07686216 -0.040621366 -2.7290973e-05 -0.0021220508 -3.212103e-05 -0.00022896519
0.009917904 -6.2954644e-16 -0.0073154406 -0.004888988 -0.0014215483 -0.001162846 -5.504285e-09 -0.0029991034
-1.6475401e-06 -0.0006724023 0.047643453 -5.355742e-10 -0.0024667378 -0.000458015 -0.017599063 -3.4989137e-07
-0.0016443675 -8.392594e-06 0.0008915344 -7.6035517e-06 -0.00028802088 -0.003948156 -0.0006070239 -4.136582e-23
-6.555632e-06 -0.0008432606 -7.692682e-06 0.08008488 -0.0045812004 -0.0031649536 -6.858772e-06 -0.02794914
-0.001352267 -7.0159367e-06 -0.0006788814 0.0451882 0.013733637 -0.004177134 -3.7392422e-11 -0.00018865924
-0.003563572 0.0069843032 -5.588093e-07 0.06418459 -0.030912397 -2.7181943e-13 -0.00091656245 -0.0021352733
-0.0002815434 -0.029314086 -0.00041354977 -0.00026860923 -1.4569475e-08 -0.00069966726 -0.002456451 -0.0031619994
-0.00082043296 0.009627665 0.03319166 -0.008296574 -0.0024835232 -0.024148088 0.034871913 -1.35597065e-05
-2.5757562e-13 -0.020891214 -2.5911085e-12 -2.35626e-05 -1.472944e-05 0.013940645 -6.31043e-17 0.046382662

8.weight f4 [128, 256]
00000000: 8019 0080 d0ab 0080 7e07 0000 4191 0000
00000010: 9c63 0080 4034 42ac 2419 a2aa 4d5d 0080
00000020: eeab c49e 9e89 0000 4233 0080 fa8b 0080
00000030: 8630 0000 e72f 0080 7148 0080 5085 0080
00000040: 7f2a 67b6 55db 10b7 040f 0000 ce17 0000
00000050: 637d 0000 8591 0000 6ba1 0080 0194 0000
00000060: d307 0000 b02e 0080 679f 0000 fcac 0000
00000070: 9633 0000 c433 0000 901f 0000 a48b 0080
00000080: f525 0000 5b89 0000 e813 0000 160d 0080
00000090: 7456 af05 d844 0000 7850 0000 8ba8 0080
000000a0: b007 1cad 7bd3 bba3 7a8c 0000 d2e5 17a4
000000b0: c694 0000 fd2e 0080 0069 0080 0779 0080
000000c0: 7e03 b7a8 5d8d 0080 c7ac 0080 cfa5 0080
000000d0: 350e 0000 9d0f 0080 2920 0000 775d 0000
000000e0: 51a1 0000 9458 0000 ee12 0000 e200 2a8c
000000f0: cc93 0000 a704 0080 a653 0080 162b 0000
00000100: 9709 0080 9ca5 0000 ca43 0080 c212 0080
00000110: 478e 0000 f575 0000 5218 0080 458a 0080
00000120: 5c15 0080 84ac 0000 65ad 0000 4b0e 0080
00000130: 2b25 0000 51ab ad9a 76a9 0080 1890 0080
00000140: 482b 0080 265b 0000 5613 0000 a731 0080
00000150: 9c09 0000 3d01 0000 1705 0080 579d 0000
00000160: 199a 0080 df77 0080 8a05 0000 5520 0000
00000170: b310 0080 ad42 0000 0406 0080 930f 0080
00000180: 238c 0080 c576 0080 1e04 0080 553a 1893
00000190: 4812 0000 f66f 0080 7224 0080 0da3 0d09
000001a0: c435 5eb4 e730 0000 a9c5 72b3 e1a6 0000
000001b0: 4b70 9084 7c9d 0080 7e0b 0000 a138 0080
000001c0: 6f2f 0080 44ac 0080 d391 0080 f610 0000
000001d0: 3c3a 0080 6aef f302 204d 0080 26a4 62aa
000001e0: 2775 0080 ca93 0080 525e 0000 569f 0080
000001f0: 207d 0080 61a8 0000 d58e 0000 c704 0080
00000200: db1d 0080 bd77 0080 605d 0080 149f 0080
00000210: d29e 0000 4a19 0000 00c9 d996 8900 0080
00000220: 3b09 0000 4512 0080 721c 0000 32a8 0000
00000230: 183e 0080 773b 0000 6adf 8b2b 07b5 0d83
00000240: 7e94 0000 0798 0080 8a4b 0000 b0a7 0000
00000250: 8b00 0080 1e67 0000 f948 0080 e897 0080
00000260: be11 0000 c364 0080 49e3 6b8d 2613 0080
00000270: d636 0080 629e 0000 6e64 b19e fe23 0080
00000280: 0c70 0000 917d 0080 5c08 0000 3004 f6b5
00000290: ba1c 0080 e57b 0080 59a4 0080 7d54 0000
000002a0: c92d 0080 6819 0080 580a 0080 220d 0000
000002b0: daba b70c 9706 0000 b41b 0080 aa3a 0080
000002c0: 5034 0000 f48a 0000 aa2a 60b6 3010 0080
000002d0: 2397 0080 b537 0000 5e6f 0000 3591 0000
000002e0: d928 010c e09d 0000 8126 ebab da3d 0000
000002f0: 8431 0000 b802 0080 cf97 0080 fe8c 0000
00000300: 102f 0000 a67b 0080 8be4 7aa2 651b 0080
00000310: 4f9b 0080 f19a 0080 3576 909c ba8e 0000
00000320: c648 0000 6d9c 0000 7123 0000 0599 0000
00000330: e944 0000 529e 0080 fb5e 0080 3601 0000
00000340: e92a 0080 460d 0080 988c 0080 c9ab ff90
00000350: 6b07 0080 779d 0080 2b44 0000 b516 0080
00000360: c104 0000 f0a5 0080 5134 0080 949b 75a5
00000370: 4807 0000 9a52 0080 5594 0080 18a7 0000
00000380: 5338 0000 5900 0000 775f 0080 5364 5da3
00000390: ea6d 0000 833a 0000 043a 0080 e948 0000
000003a0: 8d99 0080 c30a 0080 510e 0080 ea09 0080
000003b0: 825e 0000 5308 0000 89a4 0080 c18c 0080
000003c0: b773 0000 b103 0000 17c4 4cac c607 0080
000003d0: 0428 0000 480f 0080 5905 0080 9276 0080
000003e0: 0f3a 0000 d630 0000 477e 0000 164c 0000
000003f0: 219d 0000 f00d 0000 a5a0 0000 7f76 6405
-9.148e-42 -6.1635e-41 2.688e-42 5.2107e-41 -3.5733e-41 -2.7598063e-12 -2.8794426e-13 -3.347e-41
-2.0823416e-20 4.9368e-41 -1.8388e-41 -5.0214e-41 1.7407e-41 -1.7184e-41 -2.5987e-41 -4.7824e-41
-3.4446418e-06 -8.634136e-06 5.387e-42 8.54e-42 4.498e-41 5.2203e-41 -5.7906e-41 5.3094e-41
2.807e-42 -1.6748e-41 5.7183e-41 6.2055e-41 1.8506e-41 1.857e-41 1.1322e-41 -5.0094e-41
1.3616e-41 4.9274e-41 7.141e-42 -4.694e-42 1.6488679e-35 2.4696e-41 2.8867e-41 -6.0462e-41
-8.86928e-12 -2.0364146e-17 5.0393e-41 -3.293757e-17 5.337e-41 -1.6856e-41 -3.7667e-41 -4.3416e-41
-2.0318596e-14 -5.0712e-41 -6.1981e-41 -5.9481e-41 5.097e-42 -5.601e-42 1.1537e-41 3.3529e-41
5.787e-41 3.1776e-41 6.79e-42 -1.3096589e-31 5.302e-41 -1.669e-42 -3.0007e-41 1.5456e-41
-3.44e-42 5.941e-41 -2.4318e-41 -6.729e-42 5.104e-41 4.2315e-41 -8.724e-42 -4.9602e-41
-7.662e-42 6.1887e-41 6.2202e-41 -5.127e-42 1.3333e-41 -7.18279e-23 -6.0791e-41 -5.1691e-41
-1.5526e-41 3.2698e-41 6.936e-42 -1.7812e-41 3.447e-42 4.44e-43 -1.826e-42 5.6443e-41
-5.528e-41 -4.3002e-41 1.987e-42 1.1599e-41 -5.99e-42 2.3919e-41 -2.158e-42 -5.587e-42
-5.0272e-41 -4.2606e-41 -1.477e-42 -1.9213857e-27 6.558e-42 -4.0164e-41 -1.3074e-41 1.7048924e-33
-2.0694921e-07 1.7543e-41 -5.6524787e-08 5.9865e-41 -3.3957362e-36 -5.6495e-41 4.123e-42 -2.0315e-41
-1.7016e-41 -6.1797e-41 -5.2312e-41 6.084e-42 -2.089e-41 3.5843058e-37 -2.7667e-41 -2.0129783e-13
-4.2026e-41 -5.3017e-41 3.3836e-41 -5.7159e-41 -4.4886e-41 6.0403e-41 5.1238e-41 -1.714e-42
-1.071e-41 -4.2954e-41 -3.3497e-41 -5.7066e-41 5.6974e-41 9.072e-42 -3.518509e-25 -1.92e-43
3.311e-42 -6.554e-42 1.0204e-41 6.0337e-41 -2.2275e-41 2.1332e-41 9.938554e-13 -4.1643985e-37
5.3269e-41 -5.4537e-41 2.7098e-41 6.0155e-41 -1.95e-43 3.6991e-41 -2.6178e-41 -5.4494e-41
6.365e-42 -3.6146e-41 -7.268855e-31 -6.869e-42 -1.9671e-41 5.6817e-41 -1.878214e-20 -1.2912e-41
4.0195e-41 -4.5045e-41 2.999e-42 -1.8329647e-06 -1.0305e-41 -4.4445e-41 -5.8957e-41 3.0309e-41
-1.6425e-41 -9.114e-42 -3.71e-42 4.711e-42 2.8308072e-31 2.364e-42 -9.938e-42 -2.1045e-41
1.8766e-41 4.9847e-41 -3.3403435e-06 -5.807e-42 -5.4218e-41 1.9984e-41 3.9951e-41 5.209e-41
9.950091e-32 5.6635e-41 -1.6708441e-12 2.2188e-41 1.7763e-41 -9.75e-43 -5.4459e-41 5.0578e-41
1.6883e-41 -4.4357e-41 -3.4002308e-18 -9.827e-42 -5.5714e-41 -5.5583e-41 -9.559676e-22 5.12e-41
2.6106e-41 5.6115e-41 1.2714e-41 5.4893e-41 2.472e-41 -5.6795e-41 -3.4073e-41 4.34e-43
-1.5393e-41 -4.762e-42 -5.0436e-41 -1.0084444e-28 -2.661e-42 -5.6488e-41 2.4454e-41 -8.146e-42
1.705e-42 -5.9527e-41 -1.8768e-41 -2.1303074e-16 2.612e-42 -2.9632e-41 -5.3212e-41 5.9942e-41
2.0205e-41 1.25e-43 -3.4246e-41 -1.20016785e-17 3.943e-41 2.099e-41 -2.0812e-41 2.6155e-41
-5.5084e-41 -3.86e-42 -5.136e-42 -3.556e-42 3.3903e-41 2.986e-42 -5.9024e-41 -5.0493e-41
4.151e-41 1.324e-42 -2.9098995e-12 -2.789e-42 1.4355e-41 -5.482e-42 -1.918e-42 -4.2535e-41
2.0827e-41 1.7519e-41 4.53e-41 2.7294e-41 5.6367e-41 5e-42 5.7628e-41 1.0742273e-35

8.bias f4 [128]
00000000: b08b ddb8 03cc 3d92 d305 8cb5 3415 acb8
00000010: 6623 8ab1 d10a b03d 9a01 37ba b912 bebb
00000020: 561f de3d 83f1 683e f6e9 f63d a877 0ea4
00000030: 971b 89ba 74e4 e03d 8f5a baa8 fcba 1a90
00000040: 3718 ad3d 56ac 463e 2c9a 2ab4 c146 813d
00000050: aca0 643e 082a f53d 8abd 5f3e 240a 0dab
00000060: 03f1 d7ac 9d3b 213d 5222 5eba 401a 5f19
00000070: eef8 283e 3923 2dba d9dc a3ba 91c4 99b6
00000080: 706f 3e3e 0a53 47b3 4a71 048f 64ab 2fbb
00000090: 46ef d43d ffde c9af a679 3e3e 4090 7cae
000000a0: cbf0 193e d966 8ab1 0de8 93b9 633e 08af
000000b0: a734 5eaf 569e bc3d 238a 16a5 24e5 043e
000000c0: a092 7995 63ea 83ad 459a 0d8e d4e2 b5b3
000000d0: 5dd8 b33d 6346 233e 8f61 263e 88e8 6b9a
000000e0: 12e7 9a8d c771 5faa c350 89b9 cbc6 cf3d
000000f0: 958b 8cb7 026c 6db9 3fa5 edac 33b8 37a8
00000100: fb82 fcb3 1917 bdba 3455 2a37 d349 f0ba
00000110: 8354 6b3e 8d91 83ba c9f0 f7b7 50df bdb0
00000120: 6d30 8bba 0120 843d 1125 bf3d 44f1 0c8a
00000130: cfc1 33a4 aec6 a5bb 9117 69b9 e441 60bb
00000140: 2d0a 808b d181 2cb9 7433 9039 14a1 e13d
00000150: 5027 15b8 bd47 abb6 eb02 96b6 a165 1fbb
00000160: f580 86b0 4ec7 cfb5 c875 f1ba 0e04 2dba
00000170: b9d6 ddb1 e577 c7b3 2f4c f7b9 c365 253d
00000180: 2356 0db8 3b13 4cb3 f78a 9caf 05b6 dfba
00000190: 3be1 fe3d dee4 963d ddb7 a23d 58e8 0a88
000001a0: 4972 4cb3 a95a ad3d 6247 66a7 a299 c491
000001b0: c5de 52b9 0c42 07b6 bfd7 75b5 2f71 213e
000001c0: 1caa 323e 97e9 b0b6 77a5 0e3e b43b 6c3e
000001d0: d2d2 6ba3 0826 a93d 0192 063e 4317 ef3c
000001e0: df63 c2b8 0226 5bb3 7369 1b90 91fb b0a7
000001f0: 6a2f 26b8 45e5 97b6 40b3 503e 5cc0 153e
-0.0001056412 -5.988935e-28 -1.0432508e-06 -8.2055485e-05 -4.020353e-09 0.08595813 -0.00069811346 -0.0058005718
0.108458206 0.2274838 0.12056343 -3.0892694e-17 -0.0010460493 0.10981074 -2.0689422e-14 -3.0515192e-29
0.08451884 0.19401678 -1.5888571e-07 0.06312323 0.22326916 0.119709074 0.21849647 -5.0107336e-13
-6.137425e-12 0.039363492 -0.0008473742 1.1534131e-23 0.16501209 -0.0006604675 -0.0012501731 -4.5826387e-06
0.18597198 -4.640882e-08 -6.529921e-30 -0.0026805038 0.103972 -3.6720135e-10 0.18601093 -5.7426286e-11
0.15033261 -4.028021e-09 -0.00028210916 -1.2391292e-10 -2.0209488e-10 0.09209888 -1.3057229e-16 0.12978035
-5.0400816e-26 -1.4997064e-11 -1.745387e-30 -8.469729e-08 0.087815024 0.15944819 0.16248153 -4.8784698e-23
-9.546611e-31 -1.9845853e-13 -0.00026190848 0.101453386 -1.6754298e-05 -0.00022642317 -6.754291e-12 -1.01984825e-14
-1.175849e-07 -0.0014426439 1.01526275e-05 -0.0018332548 0.22981457 -0.0010037884 -2.9556819e-05 -1.3815029e-09
-0.001061929 0.06451417 0.09333242 -6.786132e-33 -3.89786e-17 -0.005059085 -0.00022229391 -0.0034218961
-4.931912e-32 -0.00016451559 0.00027504156 0.11017051 -3.556098e-05 -5.1045486e-06 -4.470688e-06 -0.002432205
-9.786435e-10 -1.5480707e-06 -0.0018421942 -0.00066000305 -6.4563577e-09 -9.288468e-08 -0.00047168272 0.04038025
-3.369724e-05 -4.751494e-08 -2.8474975e-10 -0.0017067796 0.12445303 0.07367872 0.079452254 -4.1800983e-34
-4.7601393e-08 0.08464558 -3.1957609e-15 -3.101803e-28 -0.00020110149 -2.0155012e-06 -9.1583564e-07 0.15765832
0.17447704 -5.272402e-06 0.13930307 0.2306965 -1.27840185e-17 0.08259207 0.13141634 0.029185897
-9.269243e-05 -5.102448e-08 -3.0649595e-29 -4.912256e-15 -3.9621642e-05 -4.526841e-06 0.20380878 0.1462416
