Models/checkpoint_vel_D1_1000_700.pth (torch, 353077 bytes, 16 tensors)

0.weight f4 [32, 9]
0.120695956 -0.11315962 -0.3814202 0.26734665 -0.98316956 0.2854625 0.01681009 0.25484294
-0.059971415 -0.14329635 0.1533771 0.2168176 -0.15735582 1.0857139 -0.14782685 -0.08332095
-0.035181765 -0.11700587 0.37543312 -0.0040499694 -0.017017175 -0.23505647 -0.47360957 -0.022013599
-0.18404211 0.047999036 0.12973197 0.10658315 -0.27435592 0.2923759 0.33669096 0.3358478
0.28507894 -0.27031124 -0.18334682 -0.10761106 0.13748276 -0.086281724 0.16385888 -0.23665124
1.1044322 -0.118083335 0.17683153 0.020113768 -0.25243425 0.053200968 -0.15743248 0.039662454
-1.1743652 0.18861616 -0.49907604 -0.08660314 0.10067104 -0.110883735 0.2126095 -0.038231414
0.3883675 -0.44063115 -0.28170565 0.15205438 -0.31591678 0.23232758 0.3294506 0.12617007
-0.35444847 -0.43879637 0.3341789 -0.08557956 -0.11335164 -0.0902571 0.08127707 0.05576466
0.15658568 0.17100629 0.18801017 -0.56387883 -0.18646769 0.08548699 -0.24988493 0.06711298
-0.17183724 -0.19738603 0.055967685 -0.69357616 -0.5658415 0.15059562 -0.17814003 0.15810114
-0.08099582 -0.004270491 0.031157404 -0.2892004 -0.05552451 1.40815 -1.0668552 -0.15860781
0.1120302 0.14126562 -0.14164515 -0.04192364 0.31287944 0.11157323 0.65164185 -0.18555464
-0.23583737 -0.26551798 0.36843145 -0.064530335 0.17758356 -0.027535949 -0.08785327 0.2865661
1.3506898 -0.103098944 -0.0049314774 0.24727356 0.06913339 -0.0042163287 -0.40675095 -0.11506715
0.11010993 0.1416915 0.43973294 -0.060046215 0.25347185 -0.26592392 -0.26240525 0.050343845
0.20134637 0.08787635 -0.9827323 0.012824913 0.2072112 0.099576294 0.09560036 0.2937003
0.40657896 0.33737713 -0.07346019 -1.1093787 -0.120234944 0.039721537 -0.21914448 0.026010178
-0.03828912 -0.16806968 -0.004049795 0.045811854 -0.10030093 1.4771177 -0.07212791 0.009100777
-0.05300607 -0.016328575 -0.4050497 -0.21240228 -0.79690146 -0.06375925 0.050093193 -0.022098428
-0.19446605 0.21369113 0.20792525 0.05030885 -0.40575254 0.29618436 0.82901716 -0.050190613
-0.22606325 -0.12781921 -0.18207762 0.054695126 0.27379048 0.5040059 -0.1157269 0.12332384
0.14159231 0.035759076 -0.24146524 0.3308843 -0.06215589 -0.06045454 -0.32257134 -0.22854279
-1.0734249 0.043156657 -0.3155556 -0.13722861 -0.015239889 -0.27050123 0.032132704 -0.07135941
-0.21644804 0.2789751 0.76451164 -0.15760115 0.102795854 0.11383722 0.2844102 -0.3037519
0.37602714 -0.65508384 -0.13613388 0.07506705 0.17266886 -0.09761427 -0.005183718 -0.027509604
0.021298852 -0.010283479 0.2627655 0.5428154 -0.27958617 0.37273055 0.16875038 0.40079927
0.13116838 -0.22389014 -0.20523228 0.5759422 0.45878273 0.15997714 -0.15084603 -0.051158704
0.02707496 -0.12417013 -0.18824333 0.018748082 0.6392944 1.0290273 -0.098228835 -0.09313367
0.29231828 -0.058734015 -0.07925551 -0.031118082 -0.3923675 -0.06333742 0.4818709 -0.14185199
-0.343444 0.036467176 0.06598489 -0.05805212 0.08719226 0.17977965 -0.7326303 -0.059708726
-0.103167705 0.301539 0.3397036 -0.095957994 0.3868861 0.43846622 -0.24426138 -0.8889241
00000000: 712f f73d 3bc0 e7bd 8249 c3be a9e1 883e
00000010: 00b1 7bbf 2428 923e 50b5 893c c67a 823e
00000020: 96a4 75bd 47bc 12be e30e 1d3e 6f05 5e3e
00000030: e221 21be acf8 8a3f ec5f 17be 2da4 aabd
00000040: c11a 10bd c6a0 efbd c538 c03e 9bb5 84bb
00000050: 9a67 8bbc a5b2 70be f47c f2be dd55 b4bc
00000060: 8975 3cbe a39a 443d 75d8 043e 4448 da3d
00000070: 6178 8cbe 4bb2 953e c262 ac3e 3ef4 ab3e
00000080: def5 913e 3c66 8abe 45bf 3bbe 3063 dcbd
00000090: 48c8 0c3e 79b4 b0bd 9fca 273e b454 72be
000000a0: 095e 8d3f add5 f1bd 5313 353e a1c5 a43c
000000b0: 103f 81be 42e9 593d fb35 21be 1975 223d
000000c0: 9951 96bf 9824 413e e586 ffbe fd5c b1bd
000000d0: 9e2c ce3d 0317 e3bd 4eb6 593e 8b98 1cbd
000000e0: 1bd8 c63e 689a e1be b93b 90be 25b4 1b3e
000000f0: d8bf a1be 48e7 6d3e c0ad a83e ba32 013e
00000100: 457a b5be eba9 e0be 7f19 ab3e 5644 afbd
00000110: e824 e8bd b7d8 b8bd 9874 a63d 7c69 643d
00000120: ff57 203e 461c 2f3e bd85 403e 5d5a 10bf
00000130: 63f1 3ebe ce13 af3d d6e1 7fbe 8872 893d
00000140: 1af6 2fbe 901f 4abe 5f3e 653d 358e 31bf
00000150: fdda 10bf bd35 1a3e 576a 36be 44e5 213e
00000160: 23e1 a5bd 7aef 8bbb d03d ff3c 1312 94be
00000170: ab6d 63bd 423e b43f b68e 88bf 166a 22be
00000180: 1770 e53d efa7 103e 6d0b 11be 1fb8 2bbd
00000190: bc31 a03e 8180 e43d 00d2 263f 0902 3ebe
000001a0: 5a7f 71be f9f1 87be 0ca3 bc3e 7b28 84bd
000001b0: 77d8 353e 1293 e1bc 6aec b3bd cbb8 923e
000001c0: 67e3 ac3f 8a25 d3bd 3b98 a1bb 4835 7d3e
000001d0: cf95 8d3d 2129 8abb a941 d0be 53a8 ebbd
000001e0: 5181 e13d 9417 113e ad24 e13e 05f3 75bd
000001f0: 10c7 813e 2e27 88be fb59 86be 5935 4e3d
00000200: be2d 4e3e 84f8 b33d 5894 7bbf 951f 523c
00000210: 2c2f 543e a8ee cb3d 1fca c33d e35f 963e
00000220: 1e2b d03e b2bc ac3e 4c72 96bd 1f00 8ebf
00000230: bd3d f6bd 0db3 223d 6967 60be 4c13 d53c
00000240: 0dd5 1cbd 751a 2cbe 25b4 84bb 36a5 3b3d
00000250: 936a cdbd 3112 bd3f ccb7 93bd 6d1b 153c
00000260: e51c 59bd 81c3 85bc ad62 cfbe fc7f 59be
00000270: bc01 4cbf 3694 82bd 852e 4d3d c307 b5bc
00000280: 1c22 47be d9d1 5a3e 5bea 543e a710 4e3d
00000290: ccbe cfbe 7aa5 973e 783a 543f ac94 4dbd
000002a0: 207d 67be 0ae3 02be 8e72 3abe ff07 603d
000002b0: 442e 8c3e 8806 013f 3a02 edbd 3691 fc3d
000002c0: 93fd 103e 1c78 123d aa42 77be ab69 a93e
000002d0: 2d97 7ebd 2e9f 77bd 1228 a5be 1f07 6abe
000002e0: fd65 89bf 09c5 303d 8190 a1be a885 0cbe
000002f0: bab0 79bc 237f 8abe 959d 033d e224 92bd
00000300: 8ea4 5dbe d3d5 8e3e 09b7 433f 3262 21be
00000310: a286 d23d 7d23 e93d 379e 913e 5e85 9bbe
00000320: a186 c03e 93b3 27bf ae66 0bbe c1bc 993d
00000330: 1bd0 303e fee9 c7bd 2edc a9bb d25b e1bc
00000340: ee7a ae3c 097c 28bc 3389 863e f3f5 0a3f
00000350: eb25 8fbe 8ad6 be3e e6cc 2c3e 9035 cd3e
00000360: 0151 063e 7543 65be 6928 52be f370 133f
00000370: 92e5 ea3e 0cd1 233e 6277 1abe ca8b 51bd
00000380: 4ecc dd3c e94c febd dcc2 40be 9495 993c
00000390: cca8 233f 2bb7 833f 332c c9bd debc bebd
000003a0: beaa 953e 1493 70bd b650 a2bd 59eb febc
000003b0: 65e4 c8be 0db7 81bd c8b7 f63e a641 11be
000003c0: e4d7 afbe 9b5e 153d 1623 873d 0fc8 6dbd
000003d0: db91 b23d 2818 383e a98d 3bbf 2391 74bd
000003e0: 9749 d3bd 5263 9a3e a1ed ad3e a085 c4bd
000003f0: ef15 c63e a57e e03e a81f 7abe 8890 63bf

0.bias f4 [32]
0.054923046 0.15141791 0.0038375934 0.040460724 0.22435647 0.3345037 0.090616934 0.024834126
0.01795698 0.13408121 -0.58917004 0.062694445 0.34460288 -0.005656879 0.056396455 -0.02590391
0.5008584 0.095248856 -0.064085975 0.56565845 -0.015093351 0.5264885 0.4182929 0.107667096
-0.23911954 -0.20190373 0.17983985 -0.012641005 0.13286729 0.035160657 -0.108160354 -0.17590731
00000000: fdf6 603d 4c0d 1b3e 2280 7b3b 25ba 253d
00000010: b4bd 653e 1244 ab3e 5f95 b93d f070 cb3c
00000020: 841a 933c 964c 093e d9d3 16bf f265 803d
00000030: ca6f b03e 575d b9bb f8ff 663d 7034 d4bc
00000040: 4238 003f d511 c33d 823f 83bd fece 103f
00000050: 1a4a 77bc f3c7 063f 7d2a d63e 9180 dc3d
00000060: c1db 74be dabf 4ebe f027 383e 381c 4fbc
00000070: 5d0e 083e 9f04 103d 2d83 ddbd 0c21 34be

2.weight f4 [64, 32]
0.0046043284 0.25305656 -0.06646001 -0.14094521 0.162439 -0.13776784 -0.08253456 0.008812932
-0.05012786 -0.1428447 0.03610428 0.23059395 -0.016230907 -0.20869592 0.09081461 -0.03049543
0.06889598 -0.064018026 0.11983648 0.035477147 -0.006330332 -0.07632767 -0.020823073 0.1563485
-0.0011445592 -0.06685339 0.052214373 -0.1677314 -0.07729013 -0.14141233 0.11417177 -0.05218463
-0.37378287 0.052923765 0.0038833804 0.16852516 0.25722554 0.11182887 -0.13451907 0.124634884
-0.037097987 -0.44141743 0.12474972 0.08918696 0.08768081 -0.02695153 -0.2944015 -0.2523648
-0.23347017 -0.015036052 -0.13679127 0.1790683 0.030239483 -0.23818491 -0.006125355 0.16995892
0.11692244 0.3495687 0.10397055 0.049044315 0.39674655 -0.04914569 0.009502186 0.10772561
-0.20988886 -0.13110626 0.14042729 0.13094363 -0.17144217 -0.13875297 -0.0990054 0.15396427
-0.069369726 -0.016066086 0.49238372 -0.118864216 0.30970836 -0.06670396 0.18242967 -0.06636406
-0.02514584 0.036352646 0.15748107 -0.33050656 0.16391566 0.11699707 -0.17379951 0.06859769
0.31841895 -0.066450916 0.013564923 0.26556742 -0.0788115 -0.0025577857 0.18833299 0.24875207
-0.1079296 0.09130821 0.09649983 -0.054978356 -0.22663191 0.18956526 0.12198095 -0.05999307
0.25775295 0.13931294 0.03572307 -0.21236038 0.09240454 0.09854287 0.07646019 -0.25321
-0.16001649 0.26801813 -0.06951426 -0.09083267 0.02634661 -0.34047905 0.25961128 -0.01192322
-0.12364753 0.17955036 -0.15406346 0.005156033 -0.06747128 -0.009411732 -0.22830619 -0.17338109
0.1829467 0.068415254 0.15755484 -0.08967773 0.13817036 -0.3055128 0.22870459 0.15671712
-0.15004455 0.06807102 0.06606419 -0.25720972 -0.09449001 -0.019316927 0.09625933 -0.038684346
0.32418224 0.11248137 -0.33188608 -0.13133578 0.2394707 -0.1892155 -0.042655665 -0.021537127
-0.10967744 -0.0025078517 -0.08680308 0.11908004 -0.080352984 -0.026888806 0.31889096 -0.41731617
0.17698742 0.19496904 -0.04101333 0.05321435 0.2655324 -0.26763535 -0.10171486 -0.17702736
0.10793916 -0.05186121 0.007976271 0.21833728 0.086371124 -0.020336606 0.115968265 0.2732363
0.15887745 0.06435427 -0.03928268 0.07105108 -0.1471334 0.0069156494 -0.4346273 0.18563953
-0.039314583 -0.10014177 -0.29687124 -0.19101723 0.02060336 0.21563731 -0.05710266 0.12558548
0.32069004 -0.027772097 0.22433102 -0.1354248 -0.187562 -0.23601328 -0.21721616 0.039099313
-0.079742014 -0.06241601 0.21621937 -0.13022125 -0.5079293 -0.16549855 0.1717249 0.42778218
-0.11893743 -0.04441521 -0.04152542 0.02850086 0.17161432 0.025246967 0.054572023 -0.25496402
0.09712502 -0.07936786 -0.223077 -0.043184284 -0.12086566 -0.0023572708 0.09253836 -0.0014694021
0.09436094 -0.029819865 0.011059612 0.22600225 -0.0579774 -0.2662765 0.13938935 -0.008528515
0.07007261 -0.17601375 -0.06046351 -0.19266875 0.44744572 0.09351875 -0.17502558 -0.19546986
0.576625 -0.013578982 0.0064376723 0.17703103 -0.095966354 -0.034825932 -0.0744037 0.13603146
0.08033566 -0.20493042 0.051452298 -0.12783536 0.01018381 -0.039855693 -0.14450046 -0.12468435
00000000: e8df 963b a190 813e 301c 88bd f153 10be
00000010: 6956 263e 0313 0dbe e107 a9bd 1e64 103c
00000020: df52 4dbd e245 12be 15e2 133d d220 6c3e
00000030: aef6 84bc 62b4 55be 03fd b93d 8dd1 f9bc
00000040: 5619 8d3d e21b 83bd d46c f53d 7c50 113d
00000050: ac6e cfbb ae51 9cbd 2695 aabc d219 203e
00000060: 0905 96ba 6eea 88bd bdde 553d c8c1 2bbe
00000070: 4a4a 9ebd 65ce 10be e4d2 e93d 8dbf 55bd
00000080: 7860 bfbe 97c6 583d 5080 7e3b dc91 2c3e
00000090: 11b3 833e 8906 e53d 5ebf 09be 9340 ff3d
000000a0: 0ff4 17bd 7701 e2be c87c ff3d a7a7 b63d
000000b0: ff91 b33d 74c9 dcbc cbbb 96be f635 81be
000000c0: ce12 6fbe c659 76bc 0313 0cbe ae5d 373e
000000d0: cbb8 f73c bfe6 73be 34b7 c8bb b609 2e3e
000000e0: 0875 ef3d abfa b23e 83ee d43d b1e2 483d
000000f0: 5d22 cb3e fe4c 49bd 0faf 1b3c 3f9f dc3d
00000100: 1bed 56be b840 06be 2ccc 0f3e 1616 063e
00000110: 898e 2fbe 4215 0ebe 58c3 cabd cfa8 1d3e
00000120: b711 8ebd 069d 83bc b819 fc3e 156f f3bd
00000130: 1892 9e3e 169c 88bd d8ce 3a3e e1e9 87bd
00000140: a6fe cdbc 83e6 143d b842 213e 2838 a9be
00000150: 82d9 273e 299c ef3d 80f8 31be f27c 8c3d
00000160: cf07 a33e 6b17 88bd 693f 5e3c 74f8 873e
00000170: ec67 a1bd 86a0 27bb 5dda 403e ddb8 7e3e
00000180: 320a ddbd ccff ba3d b4a1 c53d fc30 61bd
00000190: 3212 68be 651d 423e 26d1 f93d 4bbb 75bd
000001a0: 32f8 833e 0da8 0e3e 5b52 123d 0075 59be
000001b0: 973e bd3d d8d0 c93d 2997 9c3d bea4 81be
000001c0: 5ddb 23be ac39 893e 7e5d 8ebd 7b06 babd
000001d0: d9d4 d73c 4553 aebe c5eb 843e 9c59 43bc
000001e0: eb3a fdbd 0ddc 373e d0c2 1dbe f1f3 a83b
000001f0: 622e 8abd aa33 1abc 19c9 69be d08a 31be
00000200: 6156 3b3e 4c1d 8c3d 0e56 213e f5a8 b7bd
00000210: 887c 0d3e 2c6c 9cbe 8931 6a3e 747a 203e
00000220: 47a5 19be d268 8b3d a94c 873d feb0 83be
00000230: fa83 c1bd 883e 9ebc 9d23 c53d 7a73 1ebd
00000240: 37fb a53e a25c e63d f9ec a9be e37c 06be
00000250: cf37 753e b5c1 41be b5b7 2ebd a16e b0bc
00000260: 919e e0bd c55a 24bb d0c5 b1bd 3ce0 f33d
00000270: 1b90 a4bd ea45 dcbc ad45 a33e 77aa d5be
00000280: 313c 353e f7a5 473e 98fd 27bd 4af7 593d
00000290: ddf3 873e 8007 89be e14f d0bd a946 35be
000002a0: 350f dd3d 6c6c 54bd e8ae 023c cf93 5f3e
000002b0: 58e3 b03d f498 a6bc c580 ed3d a1e5 8b3e
000002c0: c5b0 223e 2ccc 833d e0e6 20bd 3b83 913d
000002d0: 23aa 16be ac9c e23b 7887 debe 4a18 3e3e
000002e0: 5408 21bd 2117 cdbd 82ff 97be 059a 43be
000002f0: 61c8 a83c 07d0 5c3e 7be4 69bd 7b99 003e
00000300: 7c31 a43e 4f82 e3bc 08b7 653e ccac 0abe
00000310: 4110 40be 77ad 71be ea6d 5ebe 9a26 203d
00000320: c84f a3bd eea7 7fbd 9c68 5d3e b858 05be
00000330: a807 02bf 7478 29be a7d8 2f3e 4406 db3e
00000340: 7895 f3bd b9ec 35bd 8f16 2abd a37a e93c
00000350: aabb 2f3e bad2 ce3c ea86 5f3d a58a 82be
00000360: 7ce9 c63d 9e8b a2bd 4c6e 64be 01e2 30bd
00000370: 6a88 f7bd 717c 1abb c084 bd3d f498 c0ba
00000380: 4f40 c13d ca48 f4bc 6033 353c 226d 673e
00000390: b679 6dbd 6555 88be 15bc 0e3e 2fbb 0bbc
000003a0: 3b82 8f3d f33c 34be 96a8 77bd f54a 45be
000003b0: 9b17 e53e c286 bf3d e839 33be 4029 48be
000003c0: b29d 133f 617a 5ebc 1cf3 d23b 9f47 353e
000003d0: 028a c4bd a3a5 0ebd f860 98bd d54b 0b3e
000003e0: 0687 a43d 48d9 51be a5bf 523d 46e7 02be
000003f0: ffd9 263c b93f 23bd eef7 13be 825a ffbd

2.bias f4 [64]
0.11011646 -0.1071331 -0.35499504 0.16771305 0.1175476 -0.07853118 -0.4990992 0.018400839
-0.051228326 0.06589911 0.038058314 0.08942175 -0.2784323 -0.17001599 -0.2421602 -0.40647346
0.38602886 -0.31975394 0.11833751 -0.38511586 0.3507624 0.041078094 -0.16801526 0.00015119708
-0.27713376 -0.4563273 0.11621793 0.12517342 0.22985137 -0.18032248 -0.4998364 -0.17783222
-0.07044145 0.20227753 0.38452905 0.18738376 -0.025076982 -0.3358403 0.15661922 0.1425671
-0.12385816 -0.20535804 0.10302498 0.20421211 -0.16623281 0.2096309 0.16872804 -0.07448985
-0.07965447 0.17095497 0.15647438 0.36620346 0.036134087 0.38708 -0.084371634 0.26234707
0.12271979 0.18632056 -0.32206523 0.03780168 -0.12497285 0.21689717 -0.32921475 -0.13378847
00000000: bd84 e13d 9968 dbbd e9c1 b5be f8bc 2b3e
00000010: ccbc f03d f5d4 a0bd ee89 ffbe 5bbd 963c
00000020: cbd4 51bd 1df6 863d 09e3 1b3d c022 b73d
00000030: ae8e 8ebe ac18 2ebe d8f8 77be 4a1d d0be
00000040: 93a5 c53e cab6 a3be f05a f23d e82d c5be
00000050: 2197 b33e 8141 283d 310c 2cbe a88a 1e39
00000060: 7ae4 8dbe bba3 e9be ab03 ee3d 762d 003e
00000070: 285e 6b3e 75a6 38be 8eea ffbe a619 36be
00000080: 9b43 90bd d721 4f3e fee0 c43e 87e1 3f3e
00000090: 3e6e cdbc 43f3 abbe ca60 203e 1cfd 113e
000000a0: 59a9 fdbd 6149 52be c3fe d23d fb1c 513e
000000b0: ef38 2abe 7ca9 563e 0bc7 2c3e 228e 98bd
000000c0: e221 a3bd d20e 2f3e d23a 203e 057f bb3e
000000d0: 5601 143d 5a2f c63e 09cb acbd 5b52 863e
000000e0: 8354 fb3d d1ca 3e3e bce5 a4be efd5 1a3d
000000f0: c4f1 ffbd 4b1a 5e3e d68e a8be d8ff 08be

4.weight f4 [128, 64]
0.08342084 -0.079305686 -0.10667024 0.040804904 -0.011753869 0.1794135 0.058730554 -0.032829627
0.008175749 -0.17308635 0.070080824 -0.027133318 -0.06759382 0.051768642 0.0007670837 0.000990138
-0.025357714 -0.1300414 -0.06365823 0.00051396445 0.10467745 0.087544255 -0.04880068 0.052038565
0.00066762633 -0.014640788 -0.17701967 -0.009827301 -0.06404881 -0.15654325 0.085385844 -0.007746353
0.057312492 0.06993453 -0.036844485 -0.052732892 -0.00246845 -0.07789882 0.1573905 0.093930975
0.013991702 -0.19218759 0.085789375 -0.021395367 -0.067198776 -0.18812819 0.039843783 -0.021649782
0.051949065 0.01746257 0.023692667 0.10212012 -0.061838046 0.23214395 -0.013073711 -0.05283834
0.120665506 0.18817711 -0.016406544 0.032225884 0.14481117 -0.11773217 -0.12730335 -0.13791203
3.004e-42 2.3937245e-36 -1.2775714e-27 6.983e-42 -5.59e-43 -3.827e-42 7.333e-42 7.557e-42
-4.902e-42 -7.099e-42 -2.255672e-36 2.721e-42 -2.286e-42 -1.523e-42 8.056e-42 3.778e-42
-3.48e-43 -5.535e-42 -3.118e-42 6.033e-42 -8.455e-42 2.726e-42 -5.7e-42 -5.5e-44
8.418e-42 7.95e-43 -6.197e-42 -7.748e-42 1.054e-42 7.466e-42 -1.485e-42 5.897e-42
-7.149623e-21 -6.153e-42 8.048e-42 -3.91e-42 -8.038e-42 -9.9e-43 -2.287e-42 -2.878e-42
-2.625e-42 4.184e-42 9.61e-42 3.608e-42 2.62e-42 -5.376777e-30 7.061e-42 8.233e-42
-6.39e-43 -2.363e-42 4.46e-43 6.126e-42 -3.5092636e-19 8.516e-42 -4.041e-42 -7.839261e-27
-1.823e-42 -4.997e-42 -1.25888e-40 -5.764e-42 6.487e-42 -7.895e-42 6.666e-42 6.111e-42
-0.00384894 0.095374644 -0.057123836 -0.022380693 0.016224166 0.056387402 -0.09774749 0.11075029
-0.11926136 -0.08396148 0.064727925 0.04783773 0.08431062 -0.008377755 -0.115033746 -0.03527917
0.07881028 0.049160838 -0.2070481 -0.089093454 -0.085079156 -0.07555837 -0.012144242 -0.0647196
-0.11648397 -0.031242542 0.014924601 0.012617824 0.03683648 0.012232075 -0.18450268 0.025614398
-0.06090913 -0.086612456 -0.014479133 -0.0037430453 -0.11408466 -0.012551071 0.0054796417 0.18387106
-0.04994651 -0.02885897 -0.07060739 -0.123459324 0.20259832 0.028454512 0.039287437 -0.061740667
-0.14621405 -0.098865144 0.03071935 0.10884361 0.046454135 0.15175354 -0.16627106 -0.13640133
-0.2041614 -0.07207649 -0.052020427 -0.088431425 0.023366084 -0.10345736 0.04634561 -0.08947056
0.1078454 -0.03188245 -0.007157846 0.122619785 0.0327916 0.05414474 0.0029363795 -0.16014436
0.005897418 -0.20434384 0.16938305 -0.06859945 0.006116573 -0.12942557 0.04786694 -0.109647855
-0.06725482 -0.0274809 -0.015125527 0.09038577 0.067514084 0.024162885 -0.07241555 0.07153576
-0.030510979 -0.004885991 0.19511214 -0.10098544 0.10341849 0.06489152 0.058645163 -0.068499014
-0.1623028 -0.06454518 0.051677052 0.10409902 0.21077982 0.04807989 0.0071403305 0.003951988
0.11917441 -0.0982744 0.039193235 0.11667617 0.0523779 -0.15109569 -0.19194855 -0.138703
0.004551473 0.0033131333 0.040747903 0.058768272 0.061194267 -0.0160628 0.046955716 -0.06991656
-0.10772151 -0.081601255 -0.08724722 0.14594963 -0.1672787 0.039185088 -0.13672104 0.05336947
00000000: 8cd8 aa3d 056b a2bd ed75 dabd 0b23 273d
00000010: 4d93 40bc 2cb8 373e 738f 703d 5c78 06bd
00000020: 94f3 053c 8c3d 31be 8986 8f3d b146 debc
00000030: a16e 8abd 5b0b 543d 1e16 493a 85c7 813a
00000040: fbba cfbc 9329 05be 3f5f 82bd 92bb 063a
00000050: 2261 d63d 674a b33d 39e3 47bd 6426 553d
00000060: a503 2f3a eadf 6fbc a544 35be b002 21bc
00000070: 062c 83bd e04c 20be c6de ae3d 1ed5 fdbb
00000080: 81c0 6a3d d639 8f3d 3eea 16bd 72fe 57bd
00000090: b8c5 21bb 6b89 9fbd fa2a 213e e25e c03d
000000a0: 743d 653c d3cc 44be 57b2 af3d 5645 afbc
000000b0: 839f 89bd ada4 40be 3c33 233d e25a b1bc
000000c0: 8bc8 543d aa0d 8f3c 2017 c23c 5a24 d13d
000000d0: e449 7dbd 25b7 6d3e 1e33 56bc 046d 58bd
000000e0: 7a1f f73d 80b1 403e 0467 86bc 4aff 033d
000000f0: 6149 143e 901d f1bd cf5b 02be d038 0dbe
00000100: 6008 0000 b4a2 4b04 7470 ca92 7713 0000
00000110: 8f01 0080 ab0a 0080 7114 0000 1115 0000
00000120: aa0d 0080 ca13 0080 30e4 3f84 9607 0000
00000130: 5f06 0080 3f04 0080 7516 0000 880a 0000
00000140: f800 0080 6e0f 0080 b108 0080 d110 0000
00000150: 9217 0080 9907 0000 e40f 0080 2700 0080
00000160: 7717 0000 3702 0000 4611 0080 9915 0080
00000170: f002 0000 d014 0000 2404 0080 7010 0000
00000180: 750d 079e 2711 0080 6f16 0000 e60a 0080
00000190: 6816 0080 c202 0080 6006 0080 0608 0080
000001a0: 5107 0080 aa0b 0000 ca1a 0000 0f0a 0000
000001b0: 4e07 0000 a51b da8e af13 0000 f316 0000
000001c0: c801 0080 9606 0080 3e01 0000 1411 0000
000001d0: 7e26 cfa0 bd17 0000 440b 0080 c745 1b94
000001e0: 1505 0080 ee0d 0080 ed5e 0180 1110 0080
000001f0: 1512 0000 0216 0080 9512 0000 0911 0000
00000200: 7f3e 7cbb c853 c33d affa 69bd b757 b7bc
00000210: 8be8 843c 7af6 663d d62f c8bd 0cd1 e23d
00000220: 4d3f f4bd fff3 abbd 1390 843d 7ff1 433d
00000230: 0cab ac3d da42 09bc d096 ebbd e480 10bd
00000240: 4967 a13d e05c 493d 6b04 54be a176 b6bd
00000250: fb3d aebd 59be 9abd a5f8 46bc b68b 84bd
00000260: 268f eebd 5cf0 ffbc 5086 743c fdba 4e3c
00000270: d9e1 163d 0b69 483c 45ee 3cbe 49d5 d13c
00000280: da7b 79bd df61 b1bd e339 6dbc e14d 75bb
00000290: 38a5 e9bd 02a3 4dbc 918e b33b b248 3c3e
000002a0: b694 4cbd a669 ecbc 9b9a 90bd 3ed8 fcbd
000002b0: ef75 4f3e 7019 e93c ddeb 203d c8e3 7cbd
000002c0: 23b9 15be cf79 cabd 25a7 fb3c 66e9 de3d
000002d0: b146 3e3d 4865 1b3e f642 2abe caac 0bbe
000002e0: b00f 51be d79c 93bd 5f13 55bd 891b b5bd
000002f0: 3b6a bf3c 74e1 d3bd e5d4 3d3d 573c b7bd
00000300: 0dde dc3d 2c97 02bd 5d8c eabb 1520 fb3d
00000310: 7c50 063d e0c6 5d3d 4670 403b e2fc 23be
00000320: 213f c13b 833f 51be c072 2d3e de7d 8cbd
00000330: 886d c83b 2388 04be 2010 443d 0e8f e0bd
00000340: e5bc 89bd a01f e1bc 0fd1 77bc 2d1c b93d
00000350: d344 8a3d 3ef1 c53c 9b4e 94bd 5781 923d
00000360: 29f2 f9bc aa1a a0bb 7acb 473e 74d1 cebd
00000370: 13cd d33d d8e5 843d e935 703d 3649 8cbd
00000380: b532 26be 4330 84bd 51ab 533d de31 d53d
00000390: aad6 573e 6bef 443d 6ff9 e93b ae7f 813b
000003a0: b711 f43d 1744 c9bd 1689 203d eaf3 ee3d
000003b0: 358a 563d d4b8 1abe 298e 44be 2908 0ebe
000003c0: 8624 953b 2721 593b 46e7 263d 00b7 703d
000003d0: d7a6 7a3d 2296 83bc a354 403d 6a30 8fbd
000003e0: 189d dcbd 8f1e a7bd acae b2bd d273 153e
000003f0: 1c4b 2bbe 8b80 203d 9a00 0cbe f299 5a3d

4.bias f4 [128]
0.0023052697 -1.579274e-27 0.19695431 0.062711194 -0.009756744 -0.1441207 -0.00047858158 -0.23242459
-0.06773723 -0.08783833 -0.030409561 0.048424624 -0.10192667 0.069682546 -0.04907184 -0.0034310697
0.07402843 0.08840048 -0.087521784 -0.066882856 -0.0037667467 -0.11702408 -0.14725378 -0.032157235
-0.11033159 -0.025270946 -6.443681e-05 0.065604985 0.031728063 0.09088581 0.24933952 -0.0016109468
0.17705393 -0.10035643 -0.025476422 -0.093363345 -0.30975834 -0.18351471 -0.09310144 -0.25502953
-0.13915367 0.052983742 -0.031689044 0.0042582816 0.30336985 0.06829475 -0.044764657 0.078219056
0.17120475 -0.03813163 0.016913814 0.14116642 -0.049526986 0.14579767 -0.2670925 0.19682756
-0.19575119 -0.115092576 0.07600295 -0.18115172 0.03381519 -0.23306368 -0.10080876 -0.09810361
-0.2598794 -0.073491424 -0.0036569017 -0.06554255 0.0017615474 0.079153255 0.076587714 -0.011351403
-1.1159594e-09 -0.16159731 0.06551609 -0.076168835 -0.0028339613 0.064272135 -0.16759288 -0.1502556
-0.05334404 0.18653558 -0.0075217797 0.06203727 -0.17111772 0.12027746 -0.11169485 0.26513445
0.2108558 -0.0048831166 0.05970221 -0.095383525 0.15430883 0.21923655 -0.010913156 -0.08495414
-0.0001642869 -0.20112671 -0.12145446 0.062428348 0.16599211 -0.04073168 0.032406118 0.11115449
-0.273858 0.043437656 -2.3889952e-17 -0.1614802 -0.0004311872 -0.017529003 -0.14926042 -0.19674917
-0.051328294 -0.08815328 0.0082473885 -0.0669428 0.02539529 0.030825585 -0.010219089 0.032586426
0.040713783 -0.010258838 0.048792582 -0.029492224 0.030694988 0.06368033 0.03342676 -0.23125911
00000000: 0214 173b f73e fa92 64ae 493e ba6e 803d
00000010: c0da 1fbc 6094 13be 22ea fab9 b600 6ebe
00000020: d1b9 8abd 95e4 b3bd 791d f9bc e658 463d
00000030: eebe d0bd b9b5 8e3d 8eff 48bd ccdb 60bb
00000040: 389c 973d 500b b53d 9f3e b3bd e1f9 88bd
00000050: 86db 76bb 52aa efbd b2c9 16be 4eb7 03bd
00000060: 87f5 e1bd 0405 cfbc 4022 87b8 e85b 863d
00000070: 49f5 013d 5722 ba3d dc52 7f3e 6826 d3ba
00000080: a04d 353e ac87 cdbd eeb3 d0bc 4835 bfbd
00000090: a598 9ebe 48eb 3bbe f8ab bebd 3b93 82be
000000a0: 4d7e 0ebe 7b05 593d 5fcc 01bd 0e89 8b3b
000000b0: 4b53 9b3e 1ede 8b3d 255b 37bd 5031 a03d
000000c0: 4c50 2f3e e92f 1cbd d78e 8a3c ee8d 103e
000000d0: cfdc 4abd fc4b 153e 59c0 88be 2a8d 493e
000000e0: 0073 48be a8b5 ebbd 6fa7 9b3d d67f 39be
000000f0: cc81 0a3d 3fa8 6ebe d374 cebd 8cea c8bd
00000100: ea0e 85be ac82 96bd a1a8 6fbb 2c3b 86bd
00000110: b9e3 e63a 1a1b a23d 05da 9c3d 3cfb 39bc
00000120: 5560 99b0 c479 25be 4d2d 863d 68fe 9bbd
00000130: fbb9 39bb 1ca1 833d 789d 2bbe 9bdc 19be
00000140: 487f 5abd 2f03 3f3e 4379 f6bb cb1a 7e3d
00000150: 7c39 2fbe 0754 f63d 45c0 e4bd b4bf 873e
00000160: 95ea 573e 8d02 a0bb 4e8a 743d 7058 c3bd
00000170: 2203 1e3e 8c7f 603e 18cd 32bc 70fc adbd
00000180: 6e44 2cb9 29f4 4dbe 1ebd f8bd deb4 7f3d
00000190: d6f9 293e 43d6 26bd 47bc 043d f7a4 e33d
000001a0: 1e37 8cbe afeb 313d 8e58 dca3 115b 25be
000001b0: f710 e2b9 fc98 8fbc b9d7 18be 9d78 49be
000001c0: 9e3d 52bd b589 b4bd 0e20 073c 4f19 89bd
000001d0: c909 d03c f085 fc3c f76d 27bc 5879 053d
000001e0: 7fc3 263d af14 28bc bbda 473d ad99 f1bc
000001f0: 0e74 fb3c d56a 823d 80ea 083d 30cf 6cbe

6.weight f4 [256, 128]
-5.165e-42 7.819e-42 1.0608e-41 -6.31e-42 8.23e-43 -1.0371e-41 4.378e-42 4.31e-42
5.9e-42 -8.248e-42 7.919e-42 3.83e-42 -6.06e-42 -2.979e-42 6.652e-42 -4.0713e-41
-4.315e-42 -9.387e-42 -3.921e-42 7.25e-42 -4.11e-42 -6.613e-42 -6.949e-42 8.297e-42
4.005e-42 -8.328e-42 -4.4539e-41 -6.062e-42 -5.23e-43 2.552e-42 -7.584e-42 -2.193e-42
5.244e-42 -1.0236e-41 2.609e-42 -6.927e-42 9.494e-42 -6.153e-42 7.477e-42 -3.257e-42
-4.208e-42 6.426e-42 -2.211e-42 -1.4267e-41 -1.578e-42 -2.035e-42 -4.127e-42 -1.061e-42
-2.06e-42 -7.176e-42 3.921e-42 -4.648e-42 -6.183e-42 2.763e-42 -5.377e-42 6.042e-42
-4.239e-42 1.258e-41 3.32e-43 8.775e-42 6.54e-42 -1.153e-42 -7.909e-42 7.49e-42
-4.424e-42 5.054e-42 -1.0772e-41 -4.177e-42 -7.976e-42 7.24e-43 -1.024e-41 -7.564e-42
9.257e-42 -4.753e-42 6.984e-42 -1.8204e-41 6.666e-42 3.568e-42 -4.839e-42 2.164e-42
7.026e-42 -3.028e-42 1.0061e-41 4.794e-42 -5.468e-42 -3.405e-42 -4.375e-42 7.538e-42
7.197e-42 3.2999e-41 -4.55e-43 5.004e-42 1.324e-42 2.926e-42 -7.915e-42 -9.15e-42
-6.1286e-41 3.608e-42 -1.02e-43 -7.008e-42 -5.922e-42 8.439e-42 4.718e-42 7.1e-43
2.811e-42 -8.76e-43 1.7477e-41 8.391e-42 -5.13e-43 7.77e-42 1.895e-42 -2.912e-42
-7.049e-42 -2.587e-42 6.555e-42 -4.373e-42 -6.174e-42 2.573e-42 -5.949e-42 7.046e-42
5e-42 3.037e-42 -2.259e-42 2.38e-43 9.483e-42 -5.978e-42 3.866e-42 8.272e-42
-5.56e-42 -1.24e-41 -2.342e-42 -1.125e-42 -7.814e-42 6.002e-42 -3.031e-42 2.067e-42
-2.978e-42 5.073e-42 -2.386e-42 8.192e-42 -4.414e-42 -6.578e-42 -7.183e-42 2.4273e-41
-3.194e-42 7.929e-42 -3.704e-42 4.969e-42 -6.719e-42 3.809e-42 5.625e-42 7.18e-42
5.675e-42 -7.182e-42 3.981e-41 3.23e-42 -5.312e-42 7.786e-42 -4.839e-42 3.362e-42
6.586e-42 4.334e-42 -3.653e-42 -7.466e-42 3.338e-42 4.95e-43 -4.912e-42 1.148e-42
-2.647e-42 -6.665e-42 5.794e-42 4.616e-42 6.126e-42 7.445e-42 -3.555e-42 7.875e-42
3.314e-42 -6.48e-42 -7.264e-42 7.393e-42 7.812e-42 -6.656e-42 1.955e-42 -7.518e-42
9.22e-43 -3.418e-42 -5.209e-42 2.553e-42 6.082e-42 -1.36e-43 -6.844e-42 5.097e-42
6.981e-42 -2.891e-42 -8.785e-42 -2.417e-42 -8.65e-43 -5.7e-44 -2.295e-42 4.053e-42
-1.8346e-41 2.28e-42 -6.788e-42 -4.065e-42 -3.1156e-41 -6.809e-42 -4.549e-42 -3.865e-42
-2.728e-42 3.59e-42 4.78e-42 -5.105e-42 1.034e-42 -4.197e-42 -6.983e-42 -6.034e-42
-6.503e-42 5.604e-41 -1.387e-42 5.82e-42 4.977e-42 -2.639e-42 6.63e-43 -1.358e-42
-2.86e-43 -2.957e-42 -5.926e-42 -7.166e-42 -7.128e-42 6.11e-43 -6.393e-42 4.012e-42
6.2487965e-25 -5.448e-42 5.7567e-41 4.217e-42 8.339e-42 -6.732e-42 -1.794e-42 3.512e-42
1.0763e-41 -6.808e-42 -1.2e-43 -9.229e-42 -6.715e-42 -1.377e-42 4.65e-43 9.662e-42
-4.08e-42 1.504e-42 4.537e-42 -4.65e-43 2.424e-42 -1.704e-42 4.643e-42 1.481e-42
00000000: 660e 0080 cc15 0000 921d 0000 9711 0080
00000010: 4b02 0000 e91c 0080 340c 0000 040c 0000
00000020: 7210 0000 fe16 0080 1316 0000 ad0a 0000
00000030: e510 0080 4e08 0080 8b12 0000 7e71 0080
00000040: 070c 0080 2b1a 0080 ee0a 0080 3614 0000
00000050: 750b 0080 6f12 0080 5f13 0080 2117 0000
00000060: 2a0b 0000 3717 0080 287c 0080 e610 0080
00000070: 7501 0080 1d07 0000 2415 0080 1d06 0080
00000080: 9e0e 0000 891c 0080 4607 0000 4f13 0080
00000090: 771a 0000 2711 0080 d814 0000 1409 0080
000000a0: bb0b 0080 ea11 0000 2a06 0080 c527 0080
000000b0: 6604 0080 ac05 0080 810b 0080 f502 0080
000000c0: be05 0080 0114 0080 ee0a 0000 f50c 0080
000000d0: 3c11 0080 b407 0000 fd0e 0080 d810 0000
000000e0: d10b 0080 1123 0000 ed00 0000 7618 0000
000000f0: 3b12 0000 3703 0080 0c16 0080 e114 0000
00000100: 550c 0080 170e 0000 071e 0080 a50b 0080
00000110: 3c16 0080 0502 0000 8c1c 0080 1615 0080
00000120: ce19 0000 400d 0080 7813 0000 bf32 0080
00000130: 9512 0000 f209 0000 7d0d 0080 0806 0000
00000140: 9613 0000 7108 0080 0c1c 0000 5d0d 0000
00000150: 3e0f 0080 7e09 0080 320c 0080 0315 0000
00000160: 1014 0000 fd5b 0000 4501 0080 f30d 0000
00000170: b103 0000 2808 0000 1016 0080 8219 0080
00000180: d7aa 0080 0f0a 0000 4900 0080 8913 0080
00000190: 8210 0080 8617 0000 270d 0000 fb01 0000
000001a0: d607 0000 7102 0080 b830 0000 6417 0000
000001b0: 6e01 0080 a915 0000 4805 0000 1e08 0080
000001c0: a613 0080 3607 0080 4612 0000 310c 0080
000001d0: 3611 0080 2c07 0000 9510 0080 a413 0000
000001e0: f00d 0000 7708 0000 4c06 0080 aa00 0000
000001f0: 6f1a 0000 aa10 0080 c70a 0000 0f17 0000
00000200: 800f 0080 9122 0080 8706 0080 2303 0080
00000210: c815 0080 bb10 0000 7308 0080 c305 0000
00000220: 4d08 0080 240e 0000 a706 0080 d616 0000
00000230: 4e0c 0080 5612 0080 0614 0080 aa43 0000
00000240: e708 0080 1a16 0000 530a 0080 da0d 0000
00000250: bb12 0080 9e0a 0000 ae0f 0000 0414 0000
00000260: d20f 0000 0514 0080 f96e 0000 0109 0000
00000270: cf0e 0080 b415 0000 7d0d 0080 5f09 0000
00000280: 5c12 0000 150c 0000 2f0a 0080 d014 0080
00000290: 4e09 0000 6101 0000 b10d 0080 3303 0000
000002a0: 6107 0080 9412 0080 2710 0000 de0c 0000
000002b0: 1411 0000 c114 0000 e909 0080 f415 0000
000002c0: 3d09 0000 1012 0080 4014 0080 9c14 0000
000002d0: c715 0000 8e12 0080 7305 0000 f514 0080
000002e0: 9202 0000 8709 0080 850e 0080 1e07 0000
000002f0: f410 0000 6100 0080 1413 0080 350e 0000
00000300: 7613 0000 0f08 0080 7d18 0080 bd06 0080
00000310: 6902 0080 2900 0080 6606 0080 4c0b 0000
00000320: 2433 0080 5b06 0000 ec12 0080 550b 0080
00000330: da56 0080 fb12 0080 ae0c 0080 c60a 0080
00000340: 9b07 0080 020a 0000 530d 0000 3b0e 0080
00000350: e202 0000 b30b 0080 7713 0080 d210 0080
00000360: 2112 0080 379c 0000 de03 0080 3910 0000
00000370: e00d 0000 5b07 0080 d901 0000 c903 0080
00000380: cc00 0080 3e08 0080 8510 0080 fa13 0080
00000390: df13 0080 b401 0000 d211 0080 2f0b 0000
000003a0: 1164 4117 300f 0080 79a0 0000 c10b 0000
000003b0: 3f17 0000 c412 0080 0005 0080 ca09 0000
000003c0: 011e 0000 fa12 0080 5600 0080 ba19 0080
000003d0: b812 0080 d703 0080 4c01 0000 ef1a 0000
000003e0: 600b 0080 3104 0000 a60c 0000 4c01 0080
000003f0: c206 0000 c004 0080 f10c 0000 2104 0000

6.bias f4 [256]
-5.734829e-34 -1.2073594e-18 -0.04121265 -3.273973e-33 -0.0017455124 -0.0014664206 -0.011964213 -0.0004190605
0.012947438 -0.0042501404 -4.4954655e-24 -0.0040317955 -0.0648749 -0.0069411225 -0.101828255 -0.2719854
0.0040979926 0.008203668 -3.68518e-10 -0.26060688 -0.0024618395 -0.00017197168 -0.20051262 -4.1005527e-17
0.018648846 -2.9681632e-10 -1.8118873e-06 -0.034489684 -0.1344077 -0.052590225 -0.003701909 -7.914424e-08
-1.5696743e-13 -0.00035595006 -4.5030814e-05 -0.023556853 -0.06749412 -0.00083130924 -0.034287345 -3.845482e-06
-0.0035531505 -0.002971386 -0.000924776 0.007908319 -5.595572e-18 -1.2246138e-11 -4.1492118e-08 -0.058193885
-0.029799916 -5.1057965e-17 -0.051145215 -0.12090908 -5.2681685e-07 -0.15882635 -0.0046615875 -0.0052952743
-0.072518416 -0.021510882 -0.003945013 -0.08016576 -0.00013422398 -0.006315505 -0.0013611963 0.004543458
-1.1150678e-05 -3.67604e-06 -0.0009819499 0.045747906 -1.5550838e-18 -0.056324914 -4.565225e-15 -0.01087841
-0.0050787544 -0.00016827368 -1.4954168e-05 -0.06697716 -9.2212926e-10 -0.021252684 0.017706454 -1.734941e-31
-6.1957343e-15 -1.2884279e-17 -0.11883702 -0.062366616 -0.09696369 -9.144411e-19 -0.019419923 -0.08542158
-0.054635596 -1.7646764e-06 -6.469421e-08 -0.0039110035 0.02265915 -0.0036799104 -0.14542624 -0.001494442
-0.002918568 -3.9364957e-22 -0.03190765 -0.12525375 0.008135912 -0.03917405 -0.03309656 0.037340667
0.0249622 -2.0678224e-06 -0.026692323 -0.005363316 -0.011800882 -0.06755103 -1.678807e-13 -0.08909829
-2.100388e-23 -0.052394923 -1.3848131e-16 0.035378993 -0.0003944737 -0.071939856 -0.00338995 -0.06342395
-1.0833031e-28 -9.3060604e-05 -0.00015116042 -9.016053e-05 -0.0018142498 -0.005342151 -0.12279646 -2.8079769e-05
-1.6642911e-11 -0.004936944 -0.16324842 -0.0020839162 -2.9827082e-18 -0.0001501753 -0.18796507 -4.083423e-08
-0.00584498 -0.0016940514 -0.0017288858 -1.4718192e-25 -0.0010645058 -1.2067389e-05 -0.0027239225 0.014933211
-0.0059888884 -8.2833096e-05 -0.006545563 -0.0002199469 -5.8038586e-23 -0.21710633 -3.2040947e-07 -1.0160498e-10
0.009634459 -0.111900814 0.04828199 0.091974385 -2.7434102e-19 -0.05703451 -1.1196895e-21 -0.010039983
-0.0019976664 -2.5533495e-06 -5.3634804e-23 -0.046897966 -0.019057684 -0.008062356 -3.8316433e-18 -0.087071896
-0.0068623945 -0.006162747 -0.060874593 -1.0616771e-08 -0.00874216 -0.0004681222 0.022671599 -0.00794167
-9.4243505e-06 -0.002347382 -0.0067377305 -0.11844332 -0.00045624757 -0.00062522443 -0.00017176472 -0.17115729
-0.08954211 -0.07685262 -0.02579179 -0.00053579593 -0.15709463 -0.21625933 -0.04117564 -0.0015506154
0.0059606084 -0.0008484903 -6.4534993e-06 -0.002975687 -1.8466698e-13 -5.7003556e-13 -0.09548867 -0.16373855
-0.0038470898 -0.036850665 -0.0035886525 -0.0020144233 -0.0027724437 -0.15509129 -0.003808448 -0.053304926
-0.001209411 -0.006064318 -0.117714345 0.008127734 -0.02321732 -1.0006305e-26 -2.0956511e-19 -0.14707221
-4.3164134e-24 -0.0037417612 -0.1777446 -0.003543904 -0.0018583052 -0.2122647 -1.5648087e-08 -0.072126985
-0.123380475 -0.316451 -0.0042013433 0.06198403 -0.03155257 -1.002573e-10 -1.7340724e-09 -0.084666364
-0.00038574848 -8.1303014e-19 0.026784265 -0.0046105753 -0.041079562 -0.018590936 -0.0030604696 -0.1142526
-0.075103246 -0.0415238 0.07089444 -0.03231998 -0.0020134125 -0.115011826 0.0055557736 -0.00058034644
-4.580245e-19 -0.004133706 -0.0022099512 -2.2511258e-19 -0.0025435563 0.019228144 -1.0721148e-09 0.061228286
00000000: 8892 3e88 c02c b2a1 98ce 28bd dafe 8789
00000010: adc9 e4ba e934 c0ba 8c05 44bc 59b5 dbb9
00000020: 7e21 543c c344 8bbb efe8 ad98 271d 84bb
00000030: 22dd 84bd 5b72 e3bb 558b d0bd ac41 8bbe
00000040: 7448 863b ad68 063c 4c98 caaf 446e 85be
00000050: d056 21bb 4c53 34b9 2e53 4dbe c81a 3da4
00000060: 77c5 983c 2f2d a3af f92f f3b5 0e45 0dbd
00000070: 2ca2 09be d968 57bd ba9b 72bb 02f6 a9b3
00000080: c8ba 30aa cf9e bab9 78df 3cb8 4dfa c0bc
00000090: 5b3a 8abd 38ec 59ba e370 0cbd 7008 81b6
000000a0: f9db 68bb 96bb 42bb ab6c 72ba e591 013c
000000b0: af70 cea2 b46f 57ad 1135 32b3 b65c 6ebd
000000c0: f41e f4bc 9b76 6ba4 a57d 51bd 2e9f f7bd
000000d0: 946a 0db5 60a3 22be 3bc0 98bb fb83 adbb
000000e0: 8984 94bd 9737 b0bc 2b45 81bb f22d a4bd
000000f0: 7abe 0cb9 4cf2 cebb 2b6a b2ba 4ae1 943b
00000100: cc13 3bb7 e3b1 76b6 c5b4 80ba 2862 3b3d
00000110: 687d e5a1 f4b4 66bd c57a a4a7 5c3b 32bc
00000120: ae6b a6bb 9f72 30b9 aae3 7ab7 522b 89bd
00000130: 1479 7db0 1c1a aebc 200d 913c 4e35 618c
00000140: 9039 dfa7 4aac 6da3 d360 f3bd 2374 7fbd
00000150: e694 c6bd 9cf2 86a1 8816 9fbc 82f1 aebd
00000160: 93c9 5fbd d2d9 ecb5 05ee 8ab3 e027 80bb
00000170: af9f b93c a72a 71bb 9eea 14be 27e1 c3ba
00000180: 7245 3fbb 52f2 ed9b 99b1 02bd 8542 00be
00000190: 7d4c 053c f874 20bd 4290 07bd 87f2 183d
000001a0: 877d cc3c ebc4 0ab6 dca9 dabc c1be afbb
000001b0: 7d58 41bc 3258 8abd 5104 3daa 2a79 b6bd
000001c0: 1723 cb99 0f9c 56bd 78a8 1fa5 90e9 103d
000001d0: 5dd1 ceb9 3455 93bd ec29 5ebb 6ae4 81bd
000001e0: 3253 0991 8829 c3b8 d180 1eb9 9114 bdb8
000001f0: 1fcc edba 360d afbb b67c fbbd d88c ebb7
00000200: 8164 92ad 17c6 a1bb 982a 27be 5092 08bb
00000210: c415 5ca2 6078 1db9 ea79 40be b661 2fb3
00000220: 3f87 bfbb ef0a deba c89b e2ba d033 3696
00000230: e386 8bba 0b75 4ab7 d683 32bb 6daa 743c
00000240: 703e c4bb aeb6 adb8 2a7c d6bb 8ca1 66b9
00000250: 2554 8c9a 1f51 5ebe be04 acb4 856e dfae
00000260: dad9 1d3c 412c e5bd 56c3 453d 115d bc3d
00000270: 3ef1 a1a0 059d 69bd e433 a99c be7e 24bc
00000280: 48eb 02bb 365a 2bb6 56ae 819a 1518 40bd
00000290: dc1e 9cbc f917 04bc d95c 8da2 c052 b2bd
000002a0: f0dd e0bb def0 c9bb a357 79bd 0d65 36b2
000002b0: 473b 0fbc 4c6e f5b9 cab9 b93c c71d 02bc
000002c0: 471d 1eb7 89d6 19bb 2ec8 dcbb 6992 f2bd
000002d0: 8334 efb9 1ae6 23ba be1b 34b9 db43 2fbe
000002e0: db61 b7bd e864 9dbd 4e49 d3bc a874 0cba
000002f0: 6add 20be 1673 5dbe caa7 28bd 053e cbba
00000300: 3551 c33b 386d 5eba 238b d8b6 be03 43bb
00000310: a2ea 4faa 6473 20ab 908f c3bd 14ab 27be
00000320: 751f 7cbb b9f0 16bd 992f 6bbb 6a04 04bb
00000330: e3b1 35bb 40d0 1ebe 2897 79bb 4456 5abd
00000340: 1985 9eba 30b7 c6bb 3814 f1bd 302a 053c
00000350: 4032 bebc ff31 4694 2b69 77a0 199a 16be
00000360: b0fb a698 5638 75bb ae02 36be d840 68bb
00000370: 6092 f3ba eb5b 59be 826a 86b2 50b7 93bd
00000380: e7ae fcbd de05 a2be 6cab 89bb f7e2 7d3d
00000390: 453d 01bd d877 dcae 4054 eeb0 8f65 adbd
000003a0: 493e cab9 d2f6 6fa1 ad6a db3c 4f14 97bb
000003b0: 0b43 28bd 054c 98bc 2992 48bb 44fd e9bd
000003c0: bbcf 99bd dc14 2abd 1b31 913d f561 04bd
000003d0: 75f3 03bb 528b ebbd 350d b63b 6422 18ba
000003e0: 5a2f 07a1 0a74 87bb d4d4 10bb 0de2 84a0
000003f0: cbb1 26bb 5784 9d3c b059 93b0 83ca 7a3d

8.weight f4 [128, 256]
-2.3316e-41 4.9729e-41 -1.057e-42 1.041e-42 3.3996e-41 -4.002e-42 6.775e-42 -5.2551e-41
-4.694e-42 -1.7602e-41 -3.5933e-41 -4.9379e-41 -3.27e-42 -5.8497e-41 7.018e-42 1.0735e-41
-2.2551989e-27 -9.07469e-28 5.2757e-41 -2.723e-42 9.726e-42 -4.3245e-41 3.1538e-41 4.6537e-41
-7.236e-42 3.5573e-41 1.2364e-41 4.916e-42 -7.588e-42 -6.906e-42 4.0768e-41 2.7831e-41
1.6385e-41 4.5354e-41 5.538e-42 4.655e-42 1.5308e-41 -6.0678e-41 7.741e-42 5.186e-41
1.299e-41 -6.0666e-41 -5.3652e-41 -1.658e-42 -2.8586e-41 1.6143e-41 -5.8504e-41 -2.733e-41
1.956e-42 2.4956e-41 -7.97e-43 2.4195e-41 1.241e-41 -8.504e-42 5.922e-41 6.7e-42
1.0214e-41 -4.584e-42 5.7411e-41 6.222e-42 -2.5721e-41 -5.986e-42 -1.64e-41 8.4e-42
1.0976e-41 -3.963e-42 -8.957e-42 3.122e-42 -3.0432e-41 -5e-43 -3.3903e-41 -5.803e-42
-2.637e-42 4.6197e-41 -1.1332e-41 -2.6039e-41 -5.347e-41 -1.0088e-41 1.548e-42 -2.4336e-41
-3.7315e-41 -5.452e-42 -7.96e-42 1.1107e-41 -3.555e-42 -5.5012e-41 -1.5647e-41 -1.5952e-41
2.536e-42 -3.2263e-41 -5.2566e-41 3.2499e-41 7.353e-42 -5.142e-41 1.8377e-41 -4.6705e-41
1.1819e-41 4.3069e-41 -2.871e-42 -9.516228e-29 -3.762e-42 3.321e-42 6.955e-42 -6.236e-42
5.601e-42 3.3092e-41 -4.00099e-40 -3.04e-43 -1.003741e-31 4.742e-42 2.875e-41 1.0927e-41
4.2548e-41 -7.916e-42 4.7316e-41 -9.98e-43 4.8893e-41 -2.377e-42 4.1654e-41 -1.05e-43
1.5218e-41 1.3581e-41 -1.0389e-41 -5.8934e-41 -3.0952e-41 3.2275e-41 -2.0062e-41 5.6278e-41
-5.1075e-41 -3.0023e-41 -1e-43 -5.3996e-41 6.2031e-41 4.9567e-41 -2.008e-42 -9.796e-42
-5.1894e-41 -1.118e-41 1.0075e-41 5.361e-41 -1.1708e-41 -2.7224e-41 5.5696e-41 4.563e-42
-1.8035e-41 3.797e-41 -6.0005e-41 -6.1937e-41 -2.539e-42 -3.8435e-41 2.5725e-41 -1.7847e-41
1.1593e-41 -3.3348e-41 5.93e-42 -2.867e-42 1.1065e-41 4.123e-42 7.245e-42 -3.48e-43
5.6526e-41 3.027e-42 -3.0726e-41 -7.975396e-21 9.249e-42 -3.827e-42 -1.7889e-41 7.542e-42
-3.1501e-41 -5.8721e-41 1.253e-42 8.575e-42 1.668e-42 5.735e-41 -5.813e-42 5.2844e-41
-5.6416e-41 -5.8515e-41 -3.655181e-21 -3.135e-42 2.8495e-41 3.254e-42 9.539e-42 -1.532e-42
7.196e-42 1.309e-42 1.575e-42 -6.1001e-41 -1.3576e-41 1.2274e-41 -3.107e-42 -6.1391e-41
1.833e-42 5.9217e-41 -4.9822e-41 5.7471e-41 -5.855e-42 -6.117e-41 9.171e-42 1.0805e-41
-2.5072e-41 -8.036e-42 -6.2058e-41 3.3226e-41 3.6316e-41 -2.664e-42 2.4149e-41 2.578e-42
7.264e-42 5.601e-42 -3.2654e-41 5.42e-43 9.33e-42 -1.1933e-41 1.3619e-41 6.52e-42
1.286e-42 5.1171e-41 -1.963e-42 3.362e-42 5.4712e-41 1.7181e-41 -1.4555e-41 4.853e-42
-4.13e-43 4.148e-42 -5.4019e-41 2.63e-42 -1.188e-42 5.7158e-41 2.4771e-41 8.831e-42
4.3908e-41 -5.8549e-41 -2.555e-42 5.7471e-41 -5.541e-42 -4.847e-42 -1.4547e-41 2.17e-43
-1.2501e-41 -3.468e-42 4.819e-42 6.827e-42 -5.8562e-41 -3.741e-42 -7.169e-42 -1.123e-41
-3.9689e-41 -2.7432e-41 1.1939e-41 -2.944e-42 4.1448e-41 9.138e-42 -3.778e-41 -5.217e-42
00000000: ff40 0080 a08a 0000 f202 0080 e702 0000
00000010: c45e 0000 280b 0080 e312 0000 7e92 0080
00000020: 160d 0080 1131 0080 2b64 0080 a689 0080
00000030: 1e09 0080 11a3 0080 9013 0000 ed1d 0000
00000040: deac 3293 51cb 8f92 1193 0000 9707 0080
00000050: 1d1b 0000 8d78 0080 ea57 0000 ba81 0000
00000060: 2c14 0080 2a63 0000 7722 0000 b40d 0000
00000070: 2715 0080 4013 0080 a571 0000 954d 0000
00000080: ad2d 0000 6e7e 0000 700f 0000 fa0c 0000
00000090: ac2a 0000 25a9 0080 9415 0000 9190 0000
000000a0: 3624 0000 1da9 0080 8f95 0080 9f04 0080
000000b0: b04f 0080 002d 0000 16a3 0080 2f4c 0080
000000c0: 7405 0000 9145 0000 3902 0080 7243 0000
000000d0: 9822 0000 b517 0080 15a5 0000 ad12 0000
000000e0: 791c 0000 c70c 0080 0aa0 0000 5811 0000
000000f0: b347 0080 b010 0080 b72d 0080 6a17 0000
00000100: 991e 0000 0c0b 0080 f818 0080 b408 0000
00000110: d554 0080 6501 0080 825e 0080 2d10 0080
00000120: 5a07 0080 c780 0000 971f 0080 9648 0080
00000130: 0d95 0080 1f1c 0080 5104 0000 d743 0080
00000140: 0568 0080 330f 0080 3016 0080 f61e 0000
00000150: e909 0080 5a99 0080 9e2b 0080 782c 0080
00000160: 1207 0000 f059 0080 8892 0080 985a 0000
00000170: 7f14 0000 578f 0080 3a33 0000 3282 0080
00000180: f220 0000 0f78 0000 0108 0080 da43 f190
00000190: 7d0a 0080 4209 0000 6313 0000 6211 0080
000001a0: 9d0f 0000 3f5c 0000 505b 0480 d900 0080
000001b0: 044b 028c 380d 0000 2550 0000 761e 0000
000001c0: 9b76 0000 1116 0080 e683 0000 c802 0080
000001d0: 4b88 0000 a006 0080 1d74 0000 4b00 0080
000001e0: 6c2a 0000 dc25 0000 f61c 0080 49a4 0080
000001f0: 4856 0080 f859 0000 ed37 0080 e19c 0000
00000200: 608e 0080 b153 0080 4700 0080 8596 0080
00000210: ebac 0000 2c8a 0000 9905 0080 4f1b 0080
00000220: a990 0080 2a1f 0080 161c 0000 7195 0000
00000230: a320 0080 e44b 0080 429b 0000 b80c 0000
00000240: 4632 0080 d869 0000 45a7 0080 a8ac 0080
00000250: 1407 0080 246b 0080 b647 0000 c031 0080
00000260: 5120 0000 f65c 0080 8810 0000 fe07 0080
00000270: d81e 0000 7e0b 0000 3214 0000 f800 0080
00000280: 929d 0000 7008 0000 a755 0080 a6a6 169e
00000290: c819 0000 ab0a 0080 de31 0080 0615 0000
000002a0: d057 0080 b1a3 0080 7e03 0000 e717 0000
000002b0: a604 0000 de9f 0000 3410 0080 4f93 0000
000002c0: 449d 0080 1ea3 0080 be16 8a9d bd08 0080
000002d0: 6f4f 0000 1209 0000 971a 0000 4504 0080
000002e0: 0f14 0000 a603 0000 6404 0000 0caa 0080
000002f0: d825 0080 3722 0000 a908 0080 22ab 0080
00000300: 1c05 0000 13a5 0000 e28a 0080 35a0 0000
00000310: 5210 0080 84aa 0080 9119 0000 1f1e 0000
00000320: e445 0080 6716 0080 feac 0080 9f5c 0000
00000330: 3c65 0000 6d07 0080 5143 0000 3007 0000
00000340: 4014 0000 9d0f 0000 075b 0080 8301 0000
00000350: 021a 0000 4421 0080 f725 0000 2d12 0000
00000360: 9603 0000 a58e 0000 7905 0080 5f09 0000
00000370: 8498 0000 e52f 0000 9328 0080 870d 0000
00000380: 2701 0080 900b 0000 9596 0080 5507 0000
00000390: 5003 0080 559f 0000 0d45 0000 9e18 0000
000003a0: 667a 0000 36a3 0080 1f07 0080 35a0 0000
000003b0: 720f 0080 830d 0080 8d28 0080 9b00 0000
000003c0: d922 0080 ab09 0080 6f0d 0000 0813 0000
000003d0: 3fa3 0080 6e0a 0080 fc13 0080 4e1f 0080
000003e0: a36e 0080 784c 0080 4821 0000 3508 0080
000003f0: 8a73 0000 7919 0000 5169 0080 8b0e 0080

8.bias f4 [128]
-2.0866285e-06 -8.524239e-20 -1.0605568e-14 -2.551452e-29 -1.2497937e-18 0.057387695 -1.1722652e-05 -6.531963e-12
0.0992051 -0.0014055488 -0.0012024172 -0.0020375324 -7.4460936e-06 0.059490148 -0.00022025227 -3.9194856e-05
0.05183094 -0.0010744055 -3.4931372e-06 -1.11491e-08 -6.122479e-05 -0.00029908438 -5.374382e-05 -1.3301237e-09
-5.9327147e-05 -0.0015673281 -4.1397855e-31 -0.004404773 0.20151989 -0.0012836185 -7.0666345e-26 -2.8539269e-09
0.13465028 -6.793204e-33 -0.0011100044 -1.0234455e-08 -3.8545998e-09 -4.4489894e-05 0.09762874 -0.0007649458
-1.8382808e-07 -0.0025522273 -1.3916069e-09 -0.00066040136 -3.2265498e-20 0.04478098 -2.1427154e-17 -0.00028455918
-0.00029425928 -5.548934e-12 -0.0007320711 -0.0017925808 -2.1425508e-06 0.14387102 0.12645592 -0.0010884205
-0.0025819086 -2.3054434e-09 -0.00011281862 -8.527046e-13 -0.00022704953 -4.309173e-15 -2.2226261e-07 -2.8981368e-15
-4.4045783e-12 -5.727107e-05 -1.8397488e-07 -0.0034676255 0.2068587 -0.0033576917 -0.0017590483 -4.7708904e-06
-3.8380008e-14 -0.0016857706 -7.521059e-05 -2.467168e-28 -1.0106948e-25 -0.056091618 -0.017691255 -0.0029974047
-1.527709e-10 -0.00046466873 -3.9044207e-19 -0.0018084163 -6.360133e-26 -1.06415106e-10 -6.934869e-06 -2.916655e-26
-0.00054889626 -8.20839e-05 -0.00012250153 -8.184596e-06 -6.244385e-06 -1.3311295e-16 -0.0027819264 -0.0006636321
-1.006427e-06 -3.828478e-19 -0.0015141645 -1.9585903e-20 -0.0006558265 -0.0029031294 0.07239012 -0.0004554167
-0.0005252666 0.051481377 -7.530348e-07 -3.9740455e-20 -0.018738389 -1.1826149e-05 -5.055316e-11 0.11664541
0.17536868 -1.8262464e-35 0.08152926 0.29329747 -1.8411473e-06 0.11007081 -0.0011638257 -0.0019922005
-3.98013e-08 -0.00234945 -0.0029803335 -0.001444145 -0.0024209819 -0.0035895063 -1.3175849e-14 -0.018519478
00000000: 0108 0cb6 dd45 c99f 8d0d 3fa8 be5f 0190
00000010: df6f b8a1 5c0f 6b3d 68ac 44b7 b1d2 e5ac
00000020: 0b2c cb3d 643a b8ba 6d9a 9dba 1f88 05bb
00000030: 75d9 f9b6 f1ab 733d 85f3 66b9 2865 24b8
00000040: ae4c 543d 11d3 8cba a46b 6ab6 438a 3fb2
00000050: cf65 80b8 6dce 9cb9 fd6a 61b8 91cf b6b0
00000060: 0ad6 78b8 ce6e cdba fe57 068d ea55 90bb
00000070: 3b5b 4e3e 173f a8ba 1ef6 ae95 d01e 44b1
00000080: c3e1 093e de16 0d8a 917d 91ba 9cd3 2fb2
00000090: 6b71 84b1 a99a 3ab8 94f1 c73d a586 48ba
000000a0: 4762 45b4 4543 27bb d142 bfb0 c91e 2dba
000000b0: 985e 189f 436c 373d 70a1 c5a3 e330 95b9
000000c0: d046 9ab9 5b3c c3ac 76e8 3fba 08f5 eaba
000000d0: bec8 0fb6 ed52 133e a97d 013e 55a9 8eba
000000e0: 3d35 29bb ca6d 1eb1 0999 ecb8 d803 70ab
000000f0: 2514 6eb9 1b41 9ba7 15a7 6eb4 30d5 50a7
00000100: eaf8 9aac 5836 70b8 a18a 45b4 1a41 63bb
00000110: c4d2 533e b80c 5cbb de8f e6ba a315 a0b6
00000120: 23d9 2ca9 13f5 dcba 61ba 9db8 1760 9c91
00000130: 653c fa95 53c0 65bd 40ed 90bc 1b70 44bb
00000140: 2ff9 27af c89e f3b9 f079 e6a0 6208 edba
00000150: 2278 9d95 6102 eaae 12b2 e8b6 ff6c 1095
00000160: cee3 0fba 7524 acb8 c173 00b9 9250 09b7
00000170: dc86 d1b6 0278 19a5 fb50 36bb 99f7 2dba
00000180: 9214 87b5 53fe e1a0 ee76 c6ba cffb b89e
00000190: c5eb 2bba 6e42 3ebb 4541 943d ffc4 eeb9
000001a0: 0bb2 09ba 23de 523d 2824 4ab5 43ab 3b9f
000001b0: 4081 99bc ec68 46b7 cc55 5eae cae3 ee3d
000001c0: d993 333e 2833 c285 d0f8 a63d 162b 963e
000001d0: 571d f7b5 ce6c e13d 838b 98ba 948f 02bb
000001e0: fef1 2ab3 3bf9 19bb b351 43bb 7749 bdba
000001f0: 56a9 1ebb ec3d 6bbb e15a 6da8 29b6 97bc
