Models/checkpoint_vel_D1_1000_500.pth (torch, 353077 bytes, 16 tensors)

0.weight f4 [32, 9]
00000000: 0d4a f93d a93a ddbd f985 c4be 6c91 8e3e
00000010: acc9 77bf c838 983e 6189 a03c 2ab1 7e3e
00000020: 2eb4 7fbd 6522 14be a2e0 193e ffa4 4d3e
00000030: 3c8c 14be c2c2 863f 06a9 1dbe 1dbc a6bd
00000040: 987a f2bc 5b46 f1bd 05ef bd3e 401a dbbb
00000050: 5cd3 d6bc 029f 7ebe 95ef fcbe c532 e2bc
00000060: 497a 42be 4770 413d 4dde 063e 8f3f cf3d
00000070: 8980 91be 77ed 953e e9bb b53e c267 ba3e
00000080: cdc7 913e dfff 85be 9f67 39be 27f1 e1bd
00000090: 4327 0d3e e5f5 9fbd 1c80 2d3e dc35 64be
000000a0: 016d 8d3f aa6b f5bd d30a 303e b718 873c
000000b0: 035e 83be 6948 5e3d ca69 21be 8bfa 063d
000000c0: a8dd 93bf ad29 2f3e c031 f6be 68eb c2bd
000000d0: 86f5 d23d 42e1 ebbd 9964 613e e805 00bd
000000e0: 5c2b c63e b0dc dfbe 1919 86be 39d7 1d3e
000000f0: a891 a1be 465b 6a3e 9aeb a73e d168 f63d
00000100: f377 aebe 775c e1be 9e10 a73e 665c bdbd
00000110: debf e2bd 3ab1 b8bd 4c0d a13d cad6 5e3d
00000120: aa74 1b3e d3c1 2f3e b5ce 383e 13dc 13bf
00000130: 4804 46be d02f a23d 9be4 80be e114 873d
00000140: 427c 2dbe ca14 48be 6dee 4d3d 6a61 30bf
00000150: fe6f 12bf 0d99 223e ca80 32be 4b10 1f3e
00000160: 8673 a6bd 3410 dfb9 5412 fa3c a5c6 90be
00000170: 4856 58bd 951a b03f ca64 86bf 10cd 1cbe
00000180: d9ed e53d ad14 0d3e 1b04 12be a02a 3bbd
00000190: 60a1 9d3e c0e0 c93d 1b37 293f 148c 45be
000001a0: 4824 72be dec1 89be f6d2 ba3e 8995 82bd
000001b0: abdb 313e 57eb bdbc baab babd 7583 a33e
000001c0: 7e69 ab3f 2000 d9bd 3a8d 2cbb e7e3 7e3e
000001d0: 6fb4 893d 3f7b 323a 5242 c9be 7d4e f1bd
000001e0: 2e53 f63d ca9c 233e 804c d93e 89f1 63bd
000001f0: 04be 7f3e 80e8 82be 0482 86be b5de 4f3d
00000200: 09fe 4c3e 460c c13d 667d 73bf 41c4 013c
00000210: 63f4 4f3e faff cf3d a440 c93d 8b64 963e
00000220: 9bc3 cc3e 3df4 a53e d953 acbd 3a17 8bbf
00000230: 5343 f2bd e643 053d 7208 62be bcf3 ca3c
00000240: ad11 25bd a609 2abe 77d2 8539 eca1 1a3d
00000250: dfd9 a8bd 54bc ba3f 15a5 93bd 7be8 2f3c
00000260: ec58 4fbd 5d91 1cbc 5fab cdbe 9378 5cbe
00000270: fe50 49bf 27a9 69bd 112d 183d f5c4 dfbc
00000280: 3ca8 46be eab0 603e 6d18 523e 523f 4c3d
00000290: 9325 cfbe 7f5f a03e b807 4f3f 96f5 68bd
000002a0: 550b 64be a342 f5bd d8a2 33be 66b1 643d
000002b0: ac60 8f3e 52e0 fd3e a39c c3bd 69b9 023e
000002c0: 4303 0e3e 4ae8 1c3d ac55 6fbe 1c07 a73e
000002d0: d009 88bd d6a8 6abd e7c8 a2be 0848 59be
000002e0: caa9 88bf ad33 293d dc89 a0be bbf1 03be
000002f0: b1d2 7fbc 2406 8abe c4fb e53c e4e1 a4bd
00000300: 2b0c 4dbe 117c 903e 45df 3f3f 0d24 22be
00000310: da38 dc3d a330 f13d 2803 903e ccb7 99be
00000320: b8b8 be3e 5803 2cbf 1323 fcbd a701 803d
00000330: 06cc 293e f25e bdbd 729b c0bb 0b8a dabc
00000340: b362 943c 817e 73bc e776 783e 3984 023f
00000350: ec2d 8ebe 0334 b93e d57f 263e e0bc ca3e
00000360: 4c60 043e 5474 65be 20c6 59be caa9 143f
00000370: 82b6 ec3e b164 283e 0071 19be dbde 53bd
00000380: 0a8f ba3c 789f ffbd facd 39be 8219 713c
00000390: e241 203f dd92 813f 807a d1bd 9630 bebd
000003a0: 54ba 923e 5c29 78bd 2954 a8bd 2576 ebbc
000003b0: 1158 c4be 4c55 8ebd ccff f03e 95b8 11be
000003c0: a49e b0be c631 ff3c 60d3 8f3d b171 59bd
000003d0: 3714 953d 277d 283e a27e 3abf 5288 53bd
000003e0: 5386 efbd dff6 953e 28d3 aa3e 1d58 a3bd
000003f0: c3a7 c13e d8a7 db3e ec0b 6bbe 55e6 67bf
0.12172327 -0.10802204 -0.38383463 0.27845323 -0.967921 0.2973082 0.019596757 0.2487227
-0.062427692 -0.14466245 0.15027097 0.20082472 -0.1450662 1.0528185 -0.15396509 -0.081413485
-0.029599473 -0.11780997 0.3709642 -0.006686479 -0.02622383 -0.24865344 -0.49401537 -0.0276121
-0.1899196 0.047226217 0.13170739 0.10119545 -0.28418377 0.29282734 0.35494927 0.36407286
0.28472748 -0.26171777 -0.18105935 -0.11032324 0.13784508 -0.078105725 0.16943401 -0.2228617
1.104889 -0.11983426 0.17191629 0.016491277 -0.25657663 0.054268274 -0.15763012 0.03295378
-1.1552019 0.17105742 -0.4808483 -0.095175564 0.10300736 -0.11517574 0.22011031 -0.031255633
0.38704956 -0.4372306 -0.26191023 0.15414132 -0.3155644 0.2288638 0.32796937 0.12031711
-0.3407589 -0.44015858 0.32629865 -0.09246139 -0.11071752 -0.09018178 0.07863864 0.054404058
0.15181223 0.17163782 0.18047602 -0.5775768 -0.1933757 0.07919276 -0.25174412 0.06595779
-0.16941932 -0.1953918 0.05027621 -0.6889864 -0.57202137 0.15878697 -0.17431942 0.15533559
-0.08127503 -0.00042545947 0.030526318 -0.28276554 -0.05281666 1.3758112 -1.0499508 -0.153126
0.112270065 0.13777418 -0.14259379 -0.045694947 0.30787182 0.09857321 0.6609971 -0.19291717
-0.23646653 -0.2690572 0.36489075 -0.06376178 0.17368953 -0.023183508 -0.091147855 0.3193623
1.3391569 -0.10595727 -0.0026329295 0.24891625 0.06723868 0.0006808526 -0.3930841 -0.117825486
0.12027584 0.15977779 0.42441177 -0.055650268 0.24974829 -0.25568008 -0.2627107 0.0507495
0.20018782 0.09426169 -0.9511322 0.007920326 0.2030807 0.101562455 0.09826782 0.29373583
0.39992985 0.32412902 -0.0841443 -1.0866463 -0.11829247 0.032535456 -0.22073534 0.024774425
-0.04030006 -0.16605243 0.00025524545 0.037752077 -0.082446806 1.4588723 -0.07209221 0.01073658
-0.050621912 -0.009556142 -0.40169808 -0.2153037 -0.7863921 -0.057046082 0.037152354 -0.027315596
-0.19400114 0.21942487 0.2051713 0.049865074 -0.40458354 0.31322858 0.8087115 -0.056874834
-0.22269948 -0.119756006 -0.17542589 0.055833243 0.28003442 0.49585205 -0.095513605 0.12766041
0.13868432 0.038307466 -0.23372525 0.32622612 -0.066424966 -0.05728992 -0.317939 -0.21218884
-1.0676816 0.041309047 -0.31355178 -0.12885182 -0.015614198 -0.2695781 0.028074153 -0.08050898
-0.20024173 0.28219655 0.7495006 -0.15834065 0.10753031 0.11776855 0.28127408 -0.30023038
0.37250304 -0.671926 -0.123113774 0.06250315 0.16581735 -0.09246625 -0.0058779055 -0.026677152
0.01811347 -0.014861704 0.24264108 0.50983006 -0.2776941 0.36172494 0.16259702 0.39597225
0.1292736 -0.22407657 -0.21266985 0.5807158 0.46232992 0.1644466 -0.14984512 -0.051726203
0.022773284 -0.12481588 -0.1814498 0.014715554 0.6260053 1.0122944 -0.10228443 -0.09286611
0.28657782 -0.06058632 -0.08219177 -0.02874286 -0.3834844 -0.06949863 0.47070158 -0.14230569
-0.34496033 0.031151664 0.070227385 -0.05308694 0.07279246 0.16453992 -0.72849476 -0.051643677
-0.11695542 0.2928991 0.33364224 -0.07975791 0.37823305 0.42901492 -0.22953767 -0.90585834

0.bias f4 [32]
00000000: c931 a33d 798d 133e c11d f6bb 10bf 8d3c
00000010: 0c64 633e 63fc a53e 9408 c73d 4178 e73c
00000020: f972 6e3c 5a20 073e 9039 12bf 5cfd 6e3d
00000030: 9f69 af3e 04d5 b0bc 1a32 5b3d 2a4d 20bd
00000040: a7d4 fb3e 883a f13d fd82 0ebd 3dbf 103f
00000050: 3495 32bb c8c7 043f fe31 cb3e 71c8 083e
00000060: 53e8 74be 4c26 55be ef5b 493e 69ba 2cbd
00000070: 93c4 023e 680b 503d 2188 e7bd 71d7 3abe
0.0796848 0.14409436 -0.007510871 0.01730302 0.22206134 0.32419118 0.09718433 0.028255584
0.014553779 0.13195935 -0.57119083 0.05834709 0.3426027 -0.021585949 0.053514577 -0.03913609
0.49185678 0.11778742 -0.03479289 0.56541806 -0.0027249577 0.5186734 0.3968658 0.13357712
-0.2391675 -0.2081539 0.19663976 -0.042169962 0.127703 0.050792128 -0.113052614 -0.18246247

2.weight f4 [64, 32]
00000000: 85c5 193c 11f3 713e ce0a 98bd 5a4e 0cbe
00000010: daa6 283e 4ebf 14be f187 acbd 786d 67bb
00000020: 13fd 79bd 9337 12be ea50 de3c 3c67 733e
00000030: 9fe5 04bd ca41 4cbe 2ce7 b93d fa36 05bd
00000040: 9ee4 383d 546b 1abd 31f0 063e 9d61 133d
00000050: acc0 023c f4df 73bd 0ed0 92bc 9303 203e
00000060: 6f99 1fbc b24f 8ebd 0d0f 553d b80f 22be
00000070: fd64 86bd a5ee 0dbe 9e32 d03d 57fc f2bc
00000080: 1a67 b8be d12a 123d 556d 0ebc 41ff 303e
00000090: 1961 853e 51da 013e 4f48 0dbe f796 003e
000000a0: 3774 01bd 0224 e6be ad35 f73d b073 b13d
000000b0: 22cb c83d c383 52bd 6168 97be 199a 85be
000000c0: 5a59 72be 53ed 02bc bba5 0fbe ea22 323e
000000d0: 57da e93c bcba 50be 7af4 06bc 666e 343e
000000e0: 1ac8 ec3d 9f5d b73e 066a 9e3d bc47 253d
000000f0: 2545 ce3e 9d16 32bd 45da 2c3d 9297 f33d
00000100: 6fed 56be d274 eebd 9346 053e af99 f83d
00000110: 3060 20be 14e5 02be a2bf a1bd 40f5 163e
00000120: 5e75 95bd f3b1 b8bc ba2d f83e 1dfa d9bd
00000130: 98e1 a63e 0970 59bd 33c6 413e d24c a3bd
00000140: c67a c0bc f3c0 ff3c baa1 1e3e c90d a7be
00000150: 4f32 3d3e 54bd ca3d 48f8 36be aaf8 483d
00000160: a521 993e 537c 8abd c0bc 523b 9bf6 8a3e
00000170: c0ae 60bd d461 10bc a451 4f3e 5f27 743e
00000180: c603 ddbd 60c9 c03d 5a2d a93d 9f74 5bbd
00000190: 6868 6bbe a959 3c3e b278 f43d 2b0a 54bd
000001a0: 8ce8 833e aee9 0b3e 2482 d63c 92ea 42be
000001b0: 7a80 cd3d 3b32 ad3d 25b2 813d 304a 80be
000001c0: 2d9e 37be 2c28 8c3e 3346 6dbd ab14 d3bd
000001d0: 4786 983c f494 a7be bf4c 873e a66c 8cbc
000001e0: d734 0abe 5950 3e3e 8fd4 28be 8023 72bb
000001f0: 52d1 5abd 6fe1 40bc 7de1 61be 1839 38be
00000200: ac4d 2e3e 24b3 533d 26c4 2a3e 42b3 9bbd
00000210: e4c0 fc3d 23f1 a1be ccfc 663e a910 173e
00000220: 3836 12be 90a2 7e3d 8a06 a93d 890d 80be
00000230: 1167 b3bd c8b7 7bbc 85dc cb3d 9233 0cbd
00000240: 4a77 a03e f5e7 f03d c83c a3be f435 06be
00000250: f33a 713e 1b22 3ebe 0b90 37bd 698a e6bc
00000260: 6b29 a2bd f77a 86bb a598 b5bd 3134 143e
00000270: b785 a8bd 913f 01bd 28a8 9c3e 7db2 d2be
00000280: 61d5 273e 816c 453e 33af 17bd 3cef 8d3d
00000290: 2f9b 823e 56b7 87be 3696 e3bd e4de 44be
000002a0: a161 973d b297 2bbd 535d b63c 764d 6c3e
000002b0: 5546 e33d 7787 c8bc d7c2 e73d 4f9b 8a3e
000002c0: 3beb 333e 33b2 433d 00a7 f3bc 6744 ae3d
000002d0: 28db f0bd 7c71 823c f315 d5be cb9f 263e
000002e0: dcc8 75bd e75a e0bd 4116 9bbe 2a32 4bbe
000002f0: f1b7 063d a8b4 553e 9303 a1bd b7a8 013e
00000300: ae55 9d3e f0e4 64bd 8602 693e 64f9 03be
00000310: c94e 3ebe cb93 7cbe 3eed 58be 0130 223d
00000320: 76f0 a3bd 088d 69bd cdc2 653e 48d6 03be
00000330: bfe7 fabe e562 2dbe 1f51 153e f9cf cf3e
00000340: c915 e1bd 158a 19bd e22d 77bc 73a4 1e3d
00000350: f6df 213e b79b 0e3d f9c2 723d a94f 71be
00000360: d514 ce3d c319 b6bd 4ace 62be 0a48 a4bc
00000370: 1eff 03be 6c55 26ba 0fbf b13d 8a48 86bc
00000380: 3d77 af3d 8d0e febc f3bd 113b d45a 623e
00000390: 6186 82bd 6a4a 82be 44af 113e fdec eabb
000003a0: 92ef 993d 0d63 36be c002 87bd 0ec3 46be
000003b0: 5707 da3e 0222 e03d 516e 3cbe c63e 50be
000003c0: 397e 0b3f a573 00bd 5025 e8bb 8ae8 313e
000003d0: ae71 afbd 80ff 4ebc 743e a0bd 50a7 123e
000003e0: 88ec be3d fd33 4fbe d005 4a3d 789a 06be
000003f0: 41de cf3c 3490 09bd 1602 f9bd aad3 03be
0.009385471 0.23627879 -0.07423936 -0.13701764 0.16469899 -0.14526102 -0.08424366 -0.0035313051
-0.061032366 -0.14279012 0.027138192 0.2376985 -0.032445546 -0.19946972 0.09077296 -0.032523133
0.0451399 -0.037700012 0.13177563 0.035981763 0.007980507 -0.05953975 -0.017921474 0.15626363
-0.009741171 -0.069487944 0.052016307 -0.15826309 -0.06562231 -0.13860567 0.101659045 -0.02966134
-0.3601616 0.035685364 -0.008693059 0.17284872 0.26050642 0.12680937 -0.13797115 0.12557589
-0.03160497 -0.44949347 0.12070785 0.08664644 0.098043695 -0.05139519 -0.29571822 -0.2609413
-0.23666897 -0.007991153 -0.14028065 0.17396131 0.028546495 -0.20383734 -0.008236999 0.17620239
0.11561604 0.35813615 0.07735066 0.040351614 0.40287128 -0.043478597 0.042200346 0.11894144
-0.20989011 -0.116433755 0.13015203 0.12138688 -0.15661693 -0.12782699 -0.07897879 0.14741993
-0.07297777 -0.02254579 0.48472387 -0.106434084 0.3259399 -0.05308536 0.18923263 -0.07973637
-0.023496043 0.031219935 0.15491381 -0.32627705 0.18476222 0.09899393 -0.1786815 0.04906527
0.2990848 -0.06761994 0.003215596 0.2714127 -0.054854155 -0.008812387 0.20245987 0.23843144
-0.10791735 0.09413409 0.08260603 -0.053578015 -0.22989047 0.18393578 0.11937083 -0.05176751
0.25763357 0.1366336 0.026185103 -0.19034794 0.100342706 0.08456846 0.063328065 -0.250566
-0.17931433 0.273744 -0.057928275 -0.103066765 0.018618716 -0.3273083 0.2642574 -0.017141651
-0.1349672 0.18585338 -0.16487335 -0.003694743 -0.05342228 -0.011772498 -0.22058673 -0.1799053
0.17021817 0.051684514 0.16676387 -0.0760255 0.123414785 -0.31629285 0.22557372 0.14752449
-0.14278495 0.06216675 0.082532 -0.25010327 -0.08759893 -0.015363641 0.0995417 -0.03422887
0.3134101 0.11762992 -0.3188231 -0.13106519 0.23557644 -0.18567698 -0.044815104 -0.028142171
-0.07918056 -0.004104014 -0.08867005 0.14473034 -0.08228629 -0.031554762 0.30597043 -0.411518
0.16389991 0.19279672 -0.037032317 0.06930396 0.2550902 -0.26507062 -0.11112635 -0.19225651
0.07391668 -0.041892715 0.022261297 0.23076424 0.11097399 -0.024478657 0.113164596 0.27071616
0.17570202 0.047777366 -0.029742718 0.085091405 -0.11760551 0.015923254 -0.41618308 0.16271894
-0.060006008 -0.10954838 -0.30290416 -0.19843355 0.032890264 0.20869696 -0.0786201 0.12662016
0.3072943 -0.055882394 0.22754869 -0.12888104 -0.18584742 -0.24665754 -0.2118425 0.03959656
-0.08004849 -0.057019264 0.22437592 -0.1287471 -0.49004933 -0.16932257 0.14581726 0.40588358
-0.10990483 -0.0374852 -0.015086623 0.03873105 0.1580809 0.03481647 0.05926797 -0.23565544
0.10062567 -0.088916324 -0.22149006 -0.020053882 -0.12890288 -0.00063451263 0.0867902 -0.016392011
0.08567665 -0.031012798 0.0022238463 0.2210496 -0.06373287 -0.25447398 0.14227015 -0.0071693645
0.075163975 -0.17811222 -0.065923214 -0.19410345 0.42583725 0.109439865 -0.18401457 -0.20336446
0.54489475 -0.031360287 -0.007084526 0.17373863 -0.085666046 -0.012634158 -0.07824412 0.14321637
0.093224585 -0.20234676 0.04932195 -0.13144863 0.025374534 -0.03358479 -0.12158601 -0.12873712

2.bias f4 [64]
00000000: 7967 f43d fd4e e7bd 0223 c0be a225 353e
00000010: 7683 053e b395 98bd 49d5 f0be cd90 593c
00000020: fd37 a5bd 8513 8b3d d91f 5e3d a126 803d
00000030: 010f 83be 6df7 3fbe c659 7dbe 5391 ccbe
00000040: 792c c33e 9142 a4be 1d75 ea3d 4f1a bdbe
00000050: 88e0 a53e afaf 4d3d e05d e2bd c627 bdbc
00000060: 43b0 91be 92c0 cfbe f3d9 f13d 78fc a23d
00000070: e62e 583e 638c 1dbe 1282 f0be 4d7c 3dbe
00000080: 43a8 9abd f0bf 5c3e a3dc b23e 942a 373e
00000090: d54a 5cbc ef0f 9fbe 5583 033e c52b e03d
000000a0: 8b60 c7bd 3b6e 60be c18d 013e a43d 413e
000000b0: f7d0 2ebe f6d9 513e 87fb 0b3e 0fa4 50bd
000000c0: 9fed 87bd fea7 2c3e 6cbe 053e 1d2c bb3e
000000d0: d574 803d 51a3 b63e d039 aebd ba21 8f3e
000000e0: 0751 ff3d 6505 183e ce31 92be 5359 073d
000000f0: 5aa4 06be ce9b 393e efca a5be 2130 1abe
0.11933798 -0.11294363 -0.3752671 0.17690137 0.1303843 -0.07450428 -0.47037724 0.013279152
-0.080673195 0.067908324 0.05422959 0.06257368 -0.25597385 -0.18746729 -0.24741277 -0.39954624
0.38119867 -0.32082036 0.11448119 -0.36934134 0.32397866 0.050216373 -0.110530615 -0.023090255
-0.2845479 -0.40576607 0.11809149 0.07958311 0.2111164 -0.15385585 -0.46974236 -0.18504448
-0.075516246 0.21557593 0.34933957 0.17887336 -0.013445576 -0.31066844 0.12843068 0.109458484
-0.09735211 -0.2191705 0.12651731 0.1887117 -0.17071901 0.20493302 0.13670169 -0.05093771
-0.066371195 0.16860959 0.13060921 0.36557093 0.06272284 0.35671476 -0.085071206 0.2795542
0.124666266 0.14845808 -0.28553623 0.03304417 -0.13148633 0.18125841 -0.3238139 -0.15057422

4.weight f4 [128, 64]
00000000: d847 c63d 02ab 88bd 4e8a fdbd 9ea7 643d
00000010: c55b c5bc 8b45 463e e289 343d 91e7 6ebc
00000020: 39e7 6b3c 06bd 3fbe 80ab b93d 9811 89bd
00000030: 7c41 95bd 9802 133d 6161 57bc 40a9 4c39
00000040: f4b4 00bd 831a c7bd d047 5cbd 488d 8f3a
00000050: e405 f73d 0e5b 8a3d 30e4 03bd 36ca 143d
00000060: fbbc 8b3c fee3 d3bc cb02 35be 77b7 ecbc
00000070: b9d9 e4bc 8f90 32be 4644 b63d a966 3dbc
00000080: 88b0 283d e654 ed3c 9651 4abd df53 4fbd
00000090: b570 84bc 706f 9bbd 624c 173e f6fe c93d
000000a0: 8970 d53c a803 62be 9d34 973d 4475 3abc
000000b0: 8fdd 84bd f5fe 41be 15b0 683d 1f98 3dbc
000000c0: 4f4f cd3d 744d 213d 2857 e33b 9d70 c93d
000000d0: 82be e8bc d081 6a3e 79f8 08bd 09e7 02bd
000000e0: 4b19 073e a3cd 483e c085 aabc 4031 813c
000000f0: 9225 363e 9d96 b2bd b18d 14be d8c2 afbd
00000100: b1b2 883a 8530 89b9 2f20 89ba f194 c1bb
00000110: 6a89 853a b330 973b f1a3 1fbb 53af 51bb
00000120: 896f 2bbb 7b0b e7ba b03e f2ba 118f 223b
00000130: 0ce6 e3ba b1ca 5bba c193 c4b9 59c6 cb38
00000140: eb0e bebb 09d3 d3bb be86 e239 c6d6 c4bb
00000150: b026 24ba 00f5 0ebb 8152 88bb 17f9 adba
00000160: 3dae 9339 67fb 91bb 0e91 b8bb bb74 67bb
00000170: f741 5c3a 1c5f 84b9 50f6 43bb de4e efb9
00000180: 3586 88bb 0cad 333a 0c4d 96ba 4f80 a0b9
00000190: bdff acbb ce86 57bb a8f4 42bb 8cb2 92bb
000001a0: e6cd 13bb 61e9 aebb de8c 10bb 744d ca3a
000001b0: 3095 adb9 9be2 2bbb 1e81 64bb 7019 fdb9
000001c0: cb13 40ba 9135 0f3c e9a7 c73b d617 44bb
000001d0: c459 13ba 9b0e c3bb d08c 35bb 06d1 84bb
000001e0: 6bfd 2d3b 6ac0 d23a c0eb 60bb e7d5 89bb
000001f0: b6ab ba3b 1afc a9b9 039b e4ba 05ef b639
00000200: bd2d ac3c b8a5 863d f845 92bd 7af9 08bd
00000210: 0105 cf3c 6c88 cb3c 4ad6 ccbd 7137 fd3d
00000220: dffe d9bd e98e b0bd c5cc 923d 6340 6a3d
00000230: 632d 423d 8822 53bc eea5 c0bd cb6d 0abd
00000240: 4a1a ac3d 09ca 423d 059c 3cbe 90ff 99bd
00000250: 1d4b a2bd 9d69 8dbd 073e 093d 2f57 90bd
00000260: 5a6e 15be f89b 1cbd fc8b 24bc 1ddb 303c
00000270: b488 9f3c d0b2 843c 4ee7 3bbe 9ded 31bc
00000280: c5f0 52bd 3e1f a9bd 3a77 70bc ff82 1c3d
00000290: 1bc8 01be 3ffd 82bc e4fb 543d 121d 293e
000002a0: 152a 0cbd cb49 16bd e779 b3bd 034e 15be
000002b0: 5c30 573e dcd8 053d 8d3c 2a3d 4674 a7bd
000002c0: 9ebe 16be 347c efbd 1d76 193d 640a 0e3e
000002d0: 7762 513d cb79 2a3e 75d9 33be d051 fbbd
000002e0: ddf7 61be 0624 a3bd d568 48bd cc86 adbd
000002f0: 8ebb e13c af34 5bbd fa29 5f3d ae80 9dbd
00000300: bf78 e13d 76db 49bd 8a02 003c 0b78 083e
00000310: 8f3f 4a3d 0b3d 5f3d c18e 603d 604c 1dbe
00000320: 672b 8dbb c62f 61be 4e26 273e 421a c8bd
00000330: 5214 35bb 621d 19be a087 923d e99f 01be
00000340: 3752 84bd 6854 c7bc d527 ea3a 95ab 463d
00000350: 6a46 b73d ca0b 773d a8ed 07bd 9b02 943d
00000360: e26a 59bd 6a68 bb3c b748 4e3e 4834 d1bd
00000370: e61c a63d 64ba 9f3d c89f 393d ea59 93bd
00000380: 023a 2abe bee4 7dbd 455f b73d 4e68 ea3d
00000390: 77a7 573e 1f67 b03d babe 643d 7a65 67ba
000003a0: de4f f93d cd34 f5bd 4fcc d43c 5100 ec3d
000003b0: 5af0 d13c 152f 14be 42d6 47be 7ecc 17be
000003c0: b049 1b3d 52e3 b73b e4bc 1f3d b1e7 f83c
000003d0: ce18 913d 36ae 68bc 8468 973d 3bf6 6bbd
000003e0: b9af fbbd 12da aebd b6e1 fabd a28a 143e
000003f0: 2c52 38be 1ec0 b93c 818e f4bd e602 903d
0.09681672 -0.06673242 -0.12379895 0.055823915 -0.02409161 0.19362466 0.044076808 -0.014581577
0.0143983895 -0.1872445 0.09065914 -0.06692809 -0.07287881 0.035891145 -0.0131457755 0.00019518007
-0.03142257 -0.097218536 -0.053779423 0.0010952139 0.120616704 0.067556486 -0.03220004 0.036325656
0.017057886 -0.025865551 -0.17676847 -0.028896077 -0.02793585 -0.17437957 0.08899741 -0.011560121
0.04118398 0.028971147 -0.049394213 -0.050617095 -0.016167024 -0.075896144 0.14775231 0.09863083
0.026054638 -0.22071707 0.07383082 -0.011380497 -0.064875714 -0.18944915 0.05680855 -0.011571913
0.100248925 0.039380506 0.00693788 0.098359324 -0.028411154 0.22901082 -0.033440087 -0.031958614
0.13193242 0.19609694 -0.02081573 0.015770555 0.1778777 -0.087201335 -0.14507176 -0.08582085
0.0010429231 -0.00026166826 -0.0010461862 -0.005907648 0.0010188047 0.0046139597 -0.0024359191 -0.003199537
-0.002615901 -0.0017627323 -0.0018481817 0.0024804513 -0.0017387285 -0.00083843904 -0.00037494118 9.7167394e-05
-0.005800118 -0.0064643663 0.0004320647 -0.0060070483 -0.00062618684 -0.0021813512 -0.004160226 -0.0013273087
0.00028167843 -0.0044550183 -0.0056325262 -0.003531738 0.00084021635 -0.00025247864 -0.0029901452 -0.00045644393
-0.0041663893 0.0006854094 -0.0011467054 -0.00030613175 -0.00527951 -0.0032886746 -0.0029747877 -0.004476851
-0.0022553145 -0.0053378795 -0.002205662 0.001543446 -0.00033108285 -0.0026227597 -0.0034867 -0.00048274873
-0.0007327168 0.008740799 0.0060930145 -0.0029921434 -0.0005620981 -0.005952669 -0.002770234 -0.004053238
0.0026548754 0.0016079072 -0.0034320205 -0.0042064073 0.005696739 -0.00032422022 -0.0017441217 0.0003489183
0.021017903 0.06574577 -0.07142252 -0.033441044 0.02527094 0.024845324 -0.1000181 0.1236409
-0.10644316 -0.08621008 0.07167963 0.05719031 0.047406565 -0.012886651 -0.094066486 -0.033796113
0.08403452 0.047555957 -0.18418892 -0.07519448 -0.07924483 -0.0690491 0.03350642 -0.07047879
-0.14592877 -0.03823468 -0.0100431405 0.010794428 0.019474365 0.016198546 -0.18349954 -0.010859874
-0.051499147 -0.08257912 -0.014676863 0.038210865 -0.1267399 -0.015989898 0.051998034 0.16514996
-0.03421982 -0.03669147 -0.087634854 -0.1458054 0.21014541 0.032677516 0.041561652 -0.08176474
-0.14721152 -0.11693612 0.037466157 0.13871151 0.051119294 0.16648023 -0.17563422 -0.12271464
-0.22067209 -0.07965855 -0.0489281 -0.08472976 0.027555253 -0.05351704 0.05448339 -0.07690559
0.110093586 -0.04928156 0.007813105 0.13327043 0.04937702 0.054501574 0.05482364 -0.15361166
-0.0043081525 -0.2199088 0.16323206 -0.09770633 -0.002763052 -0.14952615 0.07154775 -0.12658657
-0.06460994 -0.02433224 0.0017864654 0.048503477 0.08948977 0.060313977 -0.03318563 0.072270595
-0.053080447 0.022876937 0.20144926 -0.1021505 0.08110981 0.07799223 0.045318395 -0.07194884
-0.1662369 -0.061985724 0.08953718 0.11445676 0.21059977 0.08613419 0.055845954 -0.0008827072
0.121734366 -0.119729616 0.025976328 0.11523498 0.025627304 -0.14471085 -0.19515327 -0.14824101
0.03791207 0.0056118155 0.0389985 0.030383917 0.07084809 -0.014201691 0.07392982 -0.05760787
-0.12289376 -0.08537687 -0.12250082 0.14506009 -0.18000096 0.022674616 -0.11941243 0.07031803

4.bias f4 [128]
00000000: 2f1b 02bc 3a8d c6bb f008 593e 35ea 893d
00000010: 45fd cb3a 42c5 19be 9917 1c3c 4d43 61be
00000020: 7423 b1bd d27e aabd 0a53 86bc bd34 333d
00000030: 6de0 cebd ef1e 513d 8bdb 33bd 984e 88ad
00000040: 848e 7e3d af30 b33d 997c b6bd 067a a4bd
00000050: 757a a3bb 83ae 05be c561 3dbe 94a1 abbc
00000060: 46d7 03be b9c6 16bc 2e6c 30bb 4cf8 603d
00000070: 1c7f fb3c 46e7 bc3d 413f 743e 722e 8a3b
00000080: 4fa9 373e e60b f1bd c700 2abc b197 b6bd
00000090: d67d 8cbe 091e 47be a07f 98bd 8b9f 78be
000000a0: 7e1e fabd fe5d 5e3d c47c acbc 11af c5bc
000000b0: b219 973e 7a78 843d 241b 10bd e32e 923d
000000c0: 2976 2d3e 542b b0bc e3f2 f43b 3c33 193e
000000d0: 30f4 11bd 9768 f83d 5394 6cbe a1dc 4c3e
000000e0: 57ad 4abe 22c4 e4bd 1b8a ac3d 62f1 35be
000000f0: 9877 0f3d 611c 72be 4530 c7bd 4d7d d2bd
00000100: 2afe 5abe bf9e b2bd be52 a0bb db6e 9fbd
00000110: 59f2 e8bb 6ecf a73d 13a9 8c3d ca7d 9abc
00000120: 43ae 29bb cbab 28be 3b54 783d 94a1 8bbd
00000130: 33fd 4fbb 1781 3a3d 6ddb 2abe 30d8 07be
00000140: a3d8 9dbc a40c 3e3e 8b6c f4bc 26ec 9b3d
00000150: 194f 37be bc24 f83d 20d4 bcbd 9256 873e
00000160: 9c77 553e 61aa b8bb 1f48 723d d7de e6bd
00000170: f924 243e 2389 653e b285 22ba 985b 64bd
00000180: aad3 c1bb b194 57be 33de efbd 2eab 7c3d
00000190: 156c 2b3e caa6 adbc c5b8 153d 908b 113e
000001a0: 98a4 78be d9f6 503d 22ca a0ba f0cb 2cbe
000001b0: 2a7e fabb e7db 1739 9a68 16be 2440 32be
000001c0: 5509 2cbd dda8 aabd c3d4 a43b 5859 1dbd
000001d0: 91f3 b53c 0e05 f63c cf66 01bb 0bc7 cd3c
000001e0: 1ca0 223d eac9 60bc 7da7 2d3d f23b 2bbd
000001f0: faed 353d d677 883d 7a78 5d3b a1d2 56be
-0.007941051 -0.006059316 0.21194816 0.067341246 0.0015563151 -0.15016654 0.0095271105 -0.2199833
-0.0864934 -0.0832497 -0.016397018 0.043751467 -0.101013996 0.05105489 -0.043910544 -1.5496313e-11
0.062147632 0.0874952 -0.08910484 -0.080310866 -0.0049889633 -0.13054852 -0.18494327 -0.02095107
-0.12875089 -0.009202653 -0.002691995 0.054924294 0.030700259 0.092237994 0.23852254 0.0042169625
0.1793568 -0.117698476 -0.010376162 -0.089156516 -0.27439755 -0.19445051 -0.074462175 -0.24279611
-0.12212847 0.054288857 -0.021055587 -0.02413133 0.2951179 0.064682916 -0.035182133 0.07137849
0.16939606 -0.021505035 0.0074752434 0.1496095 -0.035633266 0.12129324 -0.23103456 0.20006038
-0.19792686 -0.11170222 0.08424779 -0.17767861 0.035026163 -0.23643638 -0.097260036 -0.102778055
-0.21386018 -0.08721685 -0.004892676 -0.07784816 -0.007108968 0.08193861 0.06868186 -0.018858809
-0.0025891222 -0.16471784 0.060627203 -0.06817928 -0.0031736612 0.045533266 -0.16685267 -0.13266063
-0.01926834 0.1855951 -0.029836914 0.07613401 -0.17901267 0.121163815 -0.09220147 0.26433235
0.20846409 -0.005635545 0.05915081 -0.11272972 0.16029729 0.22415595 -0.0006199732 -0.055751413
-0.005915125 -0.21052815 -0.11712303 0.061686687 0.16740449 -0.021197695 0.036553163 0.14213395
-0.24281538 0.051016662 -0.0012267272 -0.16874671 -0.0076444345 0.00014482402 -0.1468834 -0.1740728
-0.042001087 -0.08332989 0.005030246 -0.038415283 0.022210868 0.030031707 -0.0019745117 0.025119325
0.039703473 -0.013720015 0.042396057 -0.041805215 0.044416405 0.06663482 0.0033793733 -0.20978786

6.weight f4 [256, 128]
00000000: f43e ab3a 53a7 2e1b 413e 6cb8 5e3e 3434
00000010: 4fdb d239 b09d 22b9 ccdd ae38 68b9 ef38
00000020: 37c1 63b9 6409 84b8 892d 30b8 dcb2 a6b8
00000030: f5d0 1c39 870c 30ba f063 1db9 e75d 0000
00000040: e44a 02ba e7ab e9b7 a9c3 6d36 49b9 90ba
00000050: 4ff3 7cb8 b073 523a 542a e3ba 42e1 5ab9
00000060: 1c75 6538 c9a1 9835 be19 0080 6265 9237
00000070: c412 8ebb bd23 f7b8 909c 5abb ec28 33b7
00000080: 8702 a2b7 01dd edb8 366a dc33 6563 38b8
00000090: e026 e0b9 5e7b d337 c16c 3636 d3bc 22bb
000000a0: 4a33 20ba 3e20 fab8 2bca 90b9 d1db 9338
000000b0: 1428 84b8 05e7 4cb8 45f7 6139 dfe3 2fba
000000c0: 48b2 deba 1d3e 0fb9 c4a2 5239 5707 7fba
000000d0: 308b 80b9 b6c0 07bb 90a1 8eb9 be48 d2b8
000000e0: 66ef 6bb7 4eaf 2737 c3fc 46bb 5eb2 ac39
000000f0: 17b0 02b9 c6c8 7fb7 d4d1 a3b8 ffcb 10ba
00000100: b38f e9b9 2920 2eba 72e7 0732 3b92 4839
00000110: 34ee 98b8 0a0b 40b7 86ae e6b6 d44d 8ab8
00000120: ae96 0000 2a21 63b8 d5d2 21b8 d005 3427
00000130: 774d 0080 03a7 75b9 1df8 18bb 003f c2b9
00000140: d92c a6ba 3d39 ceba a378 6639 f262 c1b9
00000150: 8e65 773a 9036 0eba 1ad0 09ba 756e edba
00000160: a228 1eba ea12 0000 031f d3ba e0eb 2639
00000170: cdda 49ba 02e9 78ba 39e8 25b9 6eb3 8838
00000180: 6ca5 0000 8ffc 7aba a058 0eba 2252 7e37
00000190: 2026 c3ba 3ff5 c5b8 153f 73b8 3f69 acb9
000001a0: 3914 2bba d3ca d3ba b8a1 0080 01ac eaba
000001b0: 013c e336 5c4d 8939 5150 8db8 bae9 1ab9
000001c0: 47ae 5e38 b5c2 35ba 3151 d639 7853 6bb4
000001d0: 4bbc 60b6 136f ceb8 92b7 36ad e3d2 e1b9
000001e0: 2236 a3b8 6f24 583a 7a48 14ba 1d36 ce39
000001f0: f2b6 3c39 95a5 9fb9 d480 06b7 87e7 a6b6
00000200: c261 d1b6 8119 0000 8863 f1b6 1901 cab5
00000210: a636 6a36 36ef a334 26c1 99b4 1dc6 6fb6
00000220: b1d1 9234 6795 6337 aced b0b6 c1c4 dcb7
00000230: e425 b935 4b74 38b7 c69a b2b6 d349 0080
00000240: 1a46 c5b6 7dea bab6 5840 64b6 32df 2438
00000250: f544 8bb6 7a11 1eb7 2ac8 11b6 0b9f 2eb6
00000260: d729 a0b5 aeaf adb6 2307 0000 48f1 79b5
00000270: e188 4638 1ba3 a736 c23e 5536 7e5d 42b7
00000280: ce4f c5b6 c4b9 2936 4f34 f234 ae9f 4ab5
00000290: 0b41 cfb5 efda de36 4cb9 1535 3179 9735
000002a0: 9049 33b6 55a4 1c36 ce2a 6db5 7cc2 b1b6
000002b0: b79a cdb5 2603 d8b5 bc3e 76b5 11de aeb7
000002c0: 8f90 8cb8 ab04 e7b7 c6be d8b7 4e4a e9b7
000002d0: 8f29 2434 3a16 6c37 64e7 2836 ab58 b7b7
000002e0: cc72 0d38 f0c7 d435 4421 3138 4bec ce36
000002f0: a202 deb3 b75d 4f37 0738 9ab7 5f4f 45b6
00000300: 8ec5 b8b4 f4d2 d2b4 d4a3 e336 a958 c734
00000310: 4b59 6fb7 cb41 54b7 f31e 4137 b69a 4634
00000320: 5698 0080 8110 5b36 4cd1 92b6 5a36 fbb2
00000330: 8c06 0000 45aa aab7 3dd1 5036 fcb5 8fb7
00000340: d522 8b36 5310 e7b7 ae46 4636 1732 f2b7
00000350: 7495 abb6 2f2f 4cb7 6363 90b7 628b 1cb9
00000360: 1138 1f38 a627 0000 90e7 3738 c469 1b36
00000370: 87ae 2238 7506 c2b7 ba38 04b5 4025 cd35
00000380: 6110 0000 9c52 99b7 7e3d 86b6 c493 8db4
00000390: dccf c7b7 4483 a737 229a 4b38 22d9 8937
000003a0: 1f3d 6d36 0407 6fb6 0e35 0080 fde5 9a36
000003b0: 9da5 2db6 d5b0 df36 ac87 1237 e67b d2b7
000003c0: ec34 f8b3 b9fa ea37 e53e 33b7 18b4 2bb7
000003d0: 2daf 0db6 78ea 3ab6 0896 8933 a99d bcb6
000003e0: 4c2b d736 23e0 f537 b0db b037 bdfe 8ab7
000003f0: 4f10 8d36 5170 d0b6 2a5c 4c37 a563 5931
0.0013065026 1.4447008e-22 -5.6324763e-05 1.6786495e-07 0.0004021772 -0.00015508267 8.3382794e-05 0.00011430943
-0.00021720385 -6.2959996e-05 -4.2004078e-05 -7.948812e-05 0.00014955162 -0.0006715734 -0.00015009916 3.3686e-41
-0.0004970266 -2.7855813e-05 3.5429641e-06 -0.0011041547 -6.030808e-05 0.0008028103 -0.001733134 -0.00020874015
5.470692e-05 1.1371968e-06 -9.235e-42 1.7451766e-05 -0.004335733 -0.000117845346 -0.0033357479 -1.0678759e-05
-1.9313082e-05 -0.00011342206 1.0263868e-07 -4.3961587e-05 -0.00042753574 2.5210607e-05 2.7183416e-06 -0.0024831786
-0.0006111158 -0.000119269345 -0.00027616447 7.05045e-05 -6.3017156e-05 -4.8852544e-05 0.00021549787 -0.00067096757
-0.0016990388 -0.00013660682 0.00020087796 -0.0009728572 -0.00024517765 -0.002071423 -0.00027204724 -0.000100271296
-1.4062831e-05 9.994792e-06 -0.003036306 0.0003293929 -0.00012463365 -1.5245931e-05 -7.811529e-05 -0.0005523562
-0.00044548287 -0.00066423655 7.910659e-09 0.00019127961 -7.2922936e-05 -1.1446662e-05 -6.8748514e-06 -6.5948494e-05
5.4054e-41 -5.4151904e-05 -3.8581744e-05 2.498317e-15 -2.7789e-41 -0.00023427237 -0.0023341246 -0.00037049502
-0.001267816 -0.0015733611 0.0002197945 -0.0003688555 0.0009437435 -0.00054250006 -0.0005257145 -0.0018114584
-0.00060332764 6.785e-42 -0.0016107265 0.00015918864 -0.00077001454 -0.000949517 -0.00015822136 6.518407e-05
5.9342e-41 -0.00095743773 -0.0005430076 1.5158703e-05 -0.0014888681 -9.439373e-05 -5.7994464e-05 -0.0003288481
-0.0006526146 -0.0016158469 -5.8014e-41 -0.0017904044 6.7721126e-06 0.00026188313 -6.738364e-05 -0.00014773654
5.3091233e-05 -0.00069336157 0.00040877753 -2.1916446e-07 -3.3488202e-06 -9.843535e-05 -1.0386263e-11 -0.00043072467
-7.782529e-05 0.0008245175 -0.0005656552 0.000393317 0.0001799723 -0.00030450211 -8.0170175e-06 -4.974139e-06
-6.240066e-06 9.149e-42 -7.1939467e-06 -1.5050492e-06 3.4900527e-06 3.0535165e-07 -2.8639005e-07 -3.5729092e-06
2.734719e-07 1.356504e-05 -5.2728774e-06 -2.6317664e-05 1.3794602e-06 -1.0994331e-05 -5.3228314e-06 -2.6483e-41
-5.8792184e-06 -5.57053e-06 -3.40121e-06 3.9308514e-05 -4.1505505e-06 -9.421603e-06 -2.1723195e-06 -2.6020596e-06
-1.1933106e-06 -5.1762536e-06 2.56e-42 -9.311084e-07 4.7334357e-05 4.995976e-06 3.1776003e-06 -1.1585069e-05
-5.880348e-06 2.5291092e-06 4.5114072e-07 -7.548323e-07 -1.5441632e-06 6.641603e-06 5.577647e-07 1.1285648e-06
-2.6715898e-06 2.3341465e-06 -8.835167e-07 -5.297652e-06 -1.5318718e-06 -1.609417e-06 -9.173343e-07 -2.0845824e-05
-6.702646e-05 -2.753952e-05 -2.5838042e-05 -2.7810365e-05 1.5288809e-07 1.4071871e-05 2.5168638e-06 -2.185659e-05
3.3723933e-05 1.585342e-06 4.223107e-05 6.1667865e-06 -1.03381595e-07 1.2359981e-05 -1.838432e-05 -2.9401488e-06
-3.441641e-07 -3.9269037e-07 6.7841993e-06 3.7131147e-07 -1.42663e-05 -1.2651503e-05 1.1510902e-05 1.849647e-07
-5.4648e-41 3.264315e-06 -4.3755044e-06 -2.9244962e-08 2.349e-42 -2.0344867e-05 3.1116208e-06 -1.7131671e-05
4.146578e-06 -2.7544947e-05 2.954544e-06 -2.8871973e-05 -5.1135958e-06 -1.2170333e-05 -1.7212418e-05 -0.00014929243
3.796077e-05 1.4223e-41 4.384626e-05 2.3158364e-06 3.878635e-05 -2.3129609e-05 -4.925638e-07 1.5284531e-06
5.876e-42 -1.827749e-05 -4.00067e-06 -2.637081e-07 -2.381944e-05 1.9969077e-05 4.854252e-05 1.6432783e-05
3.535133e-06 -3.561786e-06 -1.9032e-41 4.616332e-06 -2.5875408e-06 6.666504e-06 8.733867e-06 -2.5091646e-05
-1.15580264e-07 2.8011726e-05 -1.0683875e-05 -1.0234326e-05 -2.1112603e-06 -2.7852639e-06 6.40685e-08 -5.6211907e-06
6.4125397e-06 2.9310648e-05 2.1083135e-05 -1.6569504e-05 4.204026e-06 -6.2119584e-06 1.2180806e-05 3.1634297e-09

6.bias f4 [256]
00000000: f4ba 8cbb bec1 97ba 8c43 1fbd f457 8fba
00000010: a3f0 35bb ee47 c93a 8683 52bc 135e 2fbb
00000020: 3377 733a 1f15 21ae b40f b1b9 0961 8fbb
00000030: a83b 81bd e26d 52a2 df68 e7bd 9cee 89be
00000040: b967 313c 4a81 00bb 330a 81bb a633 7bbe
00000050: d361 a0a0 0a5f 198f 0dc5 32be 141a fcba
00000060: 218b d23b e251 52bb b70e 28bb 2c85 fbbc
00000070: 8037 ffbd 82b1 62bd 1ee8 30b8 942f 3fbb
00000080: 487d ceb4 1655 ecbb cc6d a7bb 2b84 3ebd
00000090: 4af9 8dbd b1e0 8eb4 178c 0cbd 8b49 9294
000000a0: 339a 21b6 0b62 97a9 3085 3bba 84ca 963b
000000b0: d7d3 1ebb 7d7f d8bb e411 49ba 0d92 70bd
000000c0: 296c a7bc fe1e 9ea0 64c0 85bd c6d8 e9bd
000000d0: 2a2d 279d 03a2 05be 3e21 a3b0 953a d79c
000000e0: 9d52 8dbd 7b35 f0bb 6492 8bba f70c b1bd
000000f0: bad7 82a5 8c9a 9dbb 09e4 9bbb 5bcd d9b9
00000100: 273d fbb8 8f5f 5fb9 6ae0 37ba 1b15 293d
00000110: 6cd9 e8ba 5df6 36bd 5eb7 51bb e2e7 bdbb
00000120: 3c2b 88af d67d 233a 50de e1ba 16ce 91bd
00000130: fa51 24bb a70b cebc 7ee4 9f3c 179c 5096
00000140: 65e5 adb8 9150 5bb5 dbf7 e5bd 0a2a 86bd
00000150: 435c d2bd 6242 70b0 b149 15bd 3342 b2bd
00000160: 2c49 47bd d9c0 30b3 e7ff f5b0 ca30 bfb7
00000170: aa2d cf3c cce0 82bb 17e8 2ebe 928a b3b8
00000180: f024 b13b 9f26 4cbb 606f 3ebd 839d 04be
00000190: 2143 b53b 040f 02bd b846 fdbc 2e4b 0f3d
000001a0: 4ea6 113c 02da c897 90f0 1fbd 9faf 93bb
000001b0: b3ce c6b7 63e0 83bd d57a a9ba b117 91bd
000001c0: 6b56 84ba 1e4d 59bd fafa d4b1 40f8 063d
000001d0: 608f 3bb7 f6ec 1ebd 44b7 f689 f2fd 59bd
000001e0: f7bd 08bc ada2 2abb db84 a6b5 e387 f0b4
000001f0: d05c 69bb 1e9b 39ba d410 00be d301 5ebb
00000200: 6b1b d8bb da78 31bb 5475 08be f3f2 9398
00000210: 13aa 7cae 0496 86b7 40c3 4cbe adc3 e5a1
00000220: 9989 19ba 1ed8 b0ba bfa2 6fac 26ff a6bd
00000230: 2a25 8dba 443c dcb1 de9f bbbb f759 813c
00000240: 9949 91bb 1663 0f86 b365 6dbb 69ac 9ab6
00000250: 7e52 38bb bb9f 47be 4a19 6bbb 6d1b 99a9
00000260: 5982 ab3c 810b c3bd 42d2 403d 4b32 ba3d
00000270: 2bba 18bb d405 4cbd f94f 249b cdaa bcbc
00000280: 29b8 90b7 dcaf fab0 1e34 feb3 b9a2 43bd
00000290: 003d cfbc 6853 75bc b35e e2bb 8578 aabd
000002a0: 128a 32b9 92ae 1bbb 83c1 80bd 0f7b 87a8
000002b0: e1e0 afbb e2dd dcb3 fa23 1f3c 32d8 feba
000002c0: 8090 e9bb 3362 dcba 51d8 78bc 3e59 bfbd
000002d0: 8b91 648f d660 4fbc 0413 96b2 1ec9 1cbe
000002e0: 3023 d8bd ee4f c2bd 58e5 bcbc 159b 79b1
000002f0: 4957 0fbe 8041 4abe 4509 63bd 528d 1ebb
00000300: d646 5639 e8ec 3aba a3cb 6aa0 41c2 89b9
00000310: 2d2f 74bb 5bf9 56bb e557 bbbd 2cd3 2cbe
00000320: f83c 8bbb 7445 2cbd c1ea 8cbb d8f2 21b3
00000330: 0a2c 80b9 563a 1dbe 29f9 67af 79f2 1ebd
00000340: e1c9 27bc 2208 c1b0 a36d d3bd b120 d4bb
00000350: dc67 fdbc 8618 71bb 96bb 02bb e34f 0ebe
00000360: d68d 15bb 10ab 04bc eae2 30be edd2 5a98
00000370: 19c6 eeaa 1574 40be d17c 09b9 497d a7bd
00000380: b54c 02be 0ce2 90be c1f5 96ba 514b 723d
00000390: 0033 b2bc f87f 9639 3204 7ebb cfd9 cebd
000003a0: 5058 3abb f881 70bb 272f d53c 7b63 74ba
000003b0: fb2c 37bd 40bf debc 24c7 66a2 22c9 d5bd
000003c0: 68f2 94bd ce9c 43bd 3979 923d b15a d8bc
000003d0: 0fcf 9796 e70e 0dbe 3c08 f43c 9c90 2bb0
000003e0: f984 46ba fdb9 b6b8 ec4d d9bc 68a1 87b8
000003f0: d11c 9bb7 a8a7 503c 5c2d adac 9d39 633d
-0.0042947475 -0.0011578125 -0.038882777 -0.0010936246 -0.002776184 0.001535652 -0.01284874 -0.0026758953
0.00092874764 -3.662592e-11 -0.0003377177 -0.004375581 -0.06310207 -2.8518479e-18 -0.112992994 -0.26939857
0.010827952 -0.0019608312 -0.0039379834 -0.24531421 -2.716979e-19 -7.561786e-30 -0.17457981 -0.0019233846
0.006425277 -0.0032092263 -0.0025643536 -0.03070315 -0.12461758 -0.055345066 -4.2177846e-05 -0.0029172646
-3.8461644e-07 -0.0072122915 -0.0051095244 -0.046512764 -0.06932314 -2.6613046e-07 -0.034313288 -1.477124e-26
-2.4080625e-06 -6.722755e-14 -0.00071533304 0.0046017785 -0.0024235153 -0.0066069947 -0.00076702074 -0.058733035
-0.020437317 -2.678675e-19 -0.06530836 -0.114182994 -2.2125615e-21 -0.13050084 -1.1869259e-09 -1.424265e-21
-0.06900523 -0.007330594 -0.0010648486 -0.08645051 -2.2697587e-16 -0.004809683 -0.0047574085 -0.00041542467
-0.00011980003 -0.00021302536 -0.00070143363 0.041279893 -0.0017764992 -0.044668544 -0.0032000165 -0.005795465
-2.4768976e-10 0.00062367076 -0.0017232392 -0.07119386 -0.0025073276 -0.02515204 0.019518133 -1.685136e-25
-8.292011e-05 -8.1701097e-07 -0.11228915 -0.06550987 -0.10271504 -8.7405827e-10 -0.03644723 -0.08704033
-0.048653767 -4.1153587e-08 -1.7898828e-09 -2.2791693e-05 0.025290329 -0.003994083 -0.17080723 -8.561196e-05
0.0054060146 -0.003115095 -0.046492934 -0.12950711 0.005531684 -0.0317526 -0.03091751 0.034983806
0.008889748 -1.297973e-24 -0.039047778 -0.0045070197 -2.3699691e-05 -0.06439283 -0.0012930284 -0.07084597
-0.0010096555 -0.05305206 -6.198545e-09 0.032951593 -1.1179451e-05 -0.038800202 -5.9394688e-33 -0.053220697
-0.008346072 -0.0026036904 -1.240663e-06 -4.4802354e-07 -0.00356083 -0.0007080304 -0.1250642 -0.00338756
-0.0065950654 -0.002708009 -0.13326007 -3.8243925e-24 -5.7449222e-11 -1.6043901e-05 -0.19996357 -1.5569439e-18
-0.00058569905 -0.0013492142 -3.4054285e-12 -0.081541345 -0.0010768522 -6.409694e-09 -0.0057258448 0.015789969
-0.0044338224 -2.6968108e-35 -0.0036223948 -4.609629e-06 -0.002812534 -0.19494526 -0.0035873228 -6.7993225e-14
0.020936178 -0.095236786 0.047075517 0.09091624 -0.0023304324 -0.049810246 -1.3591603e-22 -0.023030663
-1.7251894e-05 -1.8239876e-09 -1.1837277e-07 -0.047762606 -0.025297642 -0.014973499 -0.0069082617 -0.083237685
-0.00017026838 -0.0023755175 -0.062869094 -1.5041379e-14 -0.005367384 -1.02849086e-07 0.009713167 -0.0019443093
-0.0071278214 -0.0016813934 -0.015188293 -0.093431935 -1.12692985e-29 -0.012657365 -1.7470946e-08 -0.15311095
-0.105535865 -0.09487902 -0.023058578 -3.6322423e-09 -0.1399814 -0.19751549 -0.055428762 -0.002419312
0.00020435019 -0.00071306387 -1.9887949e-19 -0.00026275407 -0.0037259564 -0.0032802436 -0.09147624 -0.1687743
-0.0042492114 -0.042058423 -0.004300446 -3.77066e-08 -0.00024446874 -0.15354285 -2.1097847e-10 -0.03880546
-0.010241003 -1.404491e-09 -0.10323646 -0.0064736237 -0.030933313 -0.0036788299 -0.0019948236 -0.13897662
-0.0022820137 -0.008097425 -0.17274061 -2.828233e-24 -4.241475e-13 -0.18794282 -0.00013111836 -0.08178193
-0.12724574 -0.2829746 -0.0011517332 0.05915386 -0.021752834 0.00028705574 -0.0038759825 -0.101001374
-0.0028433986 -0.003669856 0.02602346 -0.0009322685 -0.04472063 -0.027190804 -3.1276237e-18 -0.10438754
-0.07272798 -0.047756962 0.07152028 -0.026410433 -2.4526038e-25 -0.13775216 0.029789083 -6.241494e-10
-0.0007572915 -8.713079e-05 -0.026526414 -6.467366e-05 -1.8490859e-05 0.012735285 -4.9219916e-12 0.055474866

8.weight f4 [128, 256]
00000000: 6a2e 0080 ff6d 0000 94ce fe28 a276 0080
00000010: 002d 0000 4204 76ba 69a3 e2b6 b08a 0080
00000020: b6b4 d337 fe0e 0080 9c7f 0000 789a 0080
00000030: 9909 6639 cca3 0000 35f9 5ab8 7248 0db0
00000040: 368e b3ba 1f55 64ba 0223 0000 9cc1 76b1
00000050: 9391 0000 1c8f 0000 3200 a0b7 aa5a dca9
00000060: 002d a4b7 3d04 0000 d13e 0080 6cbe aab1
00000070: 316d 71b5 81fa f628 3e33 0000 4407 0000
00000080: c030 ca92 fe1d ea23 0666 b490 9c1d 7039
00000090: 3182 6137 0572 0080 75c5 9733 1d71 0000
000000a0: 0c76 0080 e78b 0000 a436 0080 de3a 4d36
000000b0: b59a 0000 53d8 8922 ef15 0080 6114 f82e
000000c0: e01d 1bba 7696 0000 9c43 bdb7 6039 6926
000000d0: 4aaa 0000 53cd 00b9 ce9a 0080 cd03 0080
000000e0: 2d08 14b9 dff0 85b4 089f 60ac 6175 1db8
000000f0: 1e96 0080 1308 1694 f9e0 5d25 fe9a 11b1
00000100: cd56 0080 93a2 0000 71b7 2022 7d86 803a
00000110: faaa 0080 7449 30ba 427f aaa2 cb90 93b9
00000120: 6009 0080 dc79 0080 9304 0000 96a6 92b5
00000130: 6b16 11a2 38b0 b139 acd1 ed37 de48 0000
00000140: b573 0080 dd10 0080 dbc1 dbb5 0a12 b9b5
00000150: 9148 25b7 0809 0000 727d bf38 88fb 6838
00000160: b67b 5635 b274 0080 0289 0080 1777 0000
00000170: 1a3f 743a 5ea3 0080 93f7 c3a5 de2f 0000
00000180: ecc7 5626 f8a6 0000 7651 42b3 ed04 8f3b
00000190: ebf5 6338 ffa6 bba4 5a13 96b8 2bed 34b9
000001a0: 49fd 083a 3f99 0080 bca4 83bb 5fc3 f71d
000001b0: fbc3 a43a 8a95 c026 a12e 0000 6029 06b3
000001c0: ed35 0000 3545 69b7 0d8f 0000 e821 1838
000001d0: 38a9 0080 c0fe 88b1 5e51 0080 bc6f 1837
000001e0: 88c5 812f c41f 0080 218d 0080 f12e 0000
000001f0: 98f0 aea0 2190 0080 c4b6 ce24 b134 0000
00000200: 1077 71a4 6a92 0000 4a5a cc36 8616 0000
00000210: 949e 0080 9b98 0080 4f8d baba ec3f 0000
00000220: 760a 0080 2d52 0000 6e1e 0000 1aec 28ab
00000230: d341 0000 6998 0000 2293 0080 6871 5eb3
00000240: f64e 0080 5b89 0080 9da0 802e d08b 0080
00000250: 99ac 0000 03ef 6ab8 aa45 0000 daa4 0080
00000260: 420b 06b6 6a0c 97b2 c159 0bb8 92a3 b1b9
00000270: d3e2 2627 b424 0438 601b 0080 1213 11b4
00000280: 5b8d 0080 a274 0080 870c 0000 4b0a 28bb
00000290: 53ca 0437 7e09 912b cc14 0080 55bd 11b7
000002a0: 0201 0000 6913 dda1 18da 4f37 5a07 0080
000002b0: b4c4 d6b5 a649 0080 e71d dbb2 a59b 0000
000002c0: 3f24 0080 c145 0000 d5d6 25ba bd8d dab3
000002d0: 9e1a 0000 4c8f c434 7313 0080 4872 9ab5
000002e0: d88c 4bb9 6839 da25 5dcd f6b3 f498 0000
000002f0: 9f23 87b7 dded 39b8 e4fd 3826 ae1b 0080
00000300: d11f 7fb4 9011 0000 bba3 0000 c055 0000
00000310: 2de5 1021 7a7e 0000 bb07 1d38 3f20 f4b7
00000320: 93d4 eaa3 752b 2d36 0ae7 2726 118b 0000
00000330: 6087 0080 4840 90b9 e480 0000 5972 84af
00000340: cbb9 d0a5 ba93 0080 0cc5 00b8 3321 22b5
00000350: 0d44 5ab4 25ad 0000 6993 0080 c750 85b1
00000360: adff 5fa2 10a6 0080 0af0 56ad 9f60 0080
00000370: f92d 0000 3287 512b 39a6 0000 fb4d 84b5
00000380: c631 2eb4 55d0 4cba 72a5 0080 809b 58b7
00000390: e403 35b7 6a7c 0000 334e 0080 08d6 a62d
000003a0: 2209 0080 9200 0080 1f86 a02d d1a7 0000
000003b0: fbb4 86b7 c867 4136 810a 0080 351c 2c31
000003c0: 1e3f 8da5 8b9f 3db4 5862 7bb7 bcab 3ab7
000003d0: 3a95 0080 aee7 55b9 bd76 3237 0123 0080
000003e0: d154 0080 2e95 0000 d2c4 f0b7 bb94 0080
000003f0: e08b 0080 7140 f138 209a 0080 1034 9638
-1.665e-41 3.9459e-41 2.8289254e-14 -4.2557e-41 1.6143e-41 -0.000938479 -6.7543483e-06 -4.9752e-41
2.523731e-05 -5.378e-42 4.5778e-41 -5.5413e-41 0.00021938085 5.8759e-41 -5.2207342e-05 -5.139845e-10
-0.0013698998 -0.0008710194 1.2558e-41 -3.5907766e-09 5.2222e-41 5.1338e-41 -1.9073577e-05 -9.78569e-14
-1.9571278e-05 1.52e-42 -2.2534e-41 -4.9692996e-09 -8.993839e-07 2.7420125e-14 1.8382e-41 2.606e-42
-1.276001e-27 2.5383033e-17 -7.1154673e-29 0.00022899214 1.3441358e-05 -4.0903e-41 7.067403e-08 4.0577e-41
-4.2347e-41 5.0188e-41 -1.9601e-41 3.0581646e-06 5.5498e-41 3.7362967e-18 -7.868e-42 1.1281354e-10
-0.00059172325 5.3975e-41 -2.2562039e-05 8.091587e-16 6.1088e-41 -0.0001228352 -5.5533e-41 -1.363e-42
-0.00014117426 -2.4948437e-07 -3.1920595e-12 -3.7541035e-05 -5.3852e-41 -7.574657e-27 1.9244918e-16 -2.118838e-09
-3.1138e-41 5.832e-41 2.1781157e-18 0.0009805706 -6.1335e-41 -0.00067248126 -4.621333e-18 -0.00028145904
-3.363e-42 -4.3715e-41 1.641e-42 -1.092633e-06 -1.9663032e-18 0.00033891364 2.8350238e-05 2.614e-41
-4.1508e-41 -6.05e-42 -1.6373191e-06 -1.3788824e-06 -9.851662e-06 3.24e-42 9.130956e-05 5.5547367e-05
7.9901235e-07 -4.1862e-41 -4.9149e-41 4.2721e-41 0.0009317264 -5.8605e-41 -3.399487e-16 1.7172e-41
7.451711e-16 5.9897e-41 -4.5243233e-08 0.004364601 5.4350046e-05 -8.1381225e-17 -7.156162e-05 -0.0001725449
0.0005225731 -5.4974e-41 -0.0040174406 6.5582365e-21 0.0012570614 1.3363209e-15 1.6727e-41 -3.1236937e-08
1.9345e-41 -1.3903996e-05 5.1317e-41 3.62712e-05 -6.0704e-41 -3.9870827e-09 -2.9189e-41 9.085921e-06
2.3605318e-10 -1.1395e-41 -5.0628e-41 1.684e-41 -2.9635958e-19 -5.1704e-41 8.9647876e-17 1.8902e-41
-5.2359395e-17 5.2523e-41 6.090185e-06 8.08e-42 -5.6887e-41 -5.4745e-41 -0.0014232787 2.2931e-41
-3.753e-42 2.9479e-41 1.0916e-41 -6.0013247e-13 2.3613e-41 5.4674e-41 -5.2781e-41 -5.1791545e-08
-2.8326e-41 -4.9274e-41 5.849297e-11 -5.0155e-41 6.1916e-41 -5.6012545e-05 2.4991e-41 -5.9138e-41
-1.997411e-06 -1.7584359e-08 -3.3223772e-05 -0.0003388194 2.316009e-15 3.1505435e-05 -9.82e-42 -1.3511115e-07
-5.0709e-41 -4.184e-41 4.494e-42 -0.00256409 7.91492e-06 1.0305504e-12 -7.46e-42 -8.686756e-06
3.62e-43 -1.498068e-18 1.238894e-05 -2.637e-42 -1.6001491e-06 -2.642e-41 -2.5508553e-08 5.5835e-41
-1.3003e-41 2.5023e-41 -0.0006326263 -1.0177198e-07 9.548e-42 3.6612107e-07 -6.977e-42 -1.1507154e-06
-0.00019412057 3.7855872e-16 -1.1492623e-07 5.4869e-41 -1.6109841e-05 -4.4328965e-05 6.418191e-16 -9.93e-42
-2.37603e-07 6.3e-42 5.8735e-41 3.0761e-41 4.909241e-19 4.5371e-41 3.7438916e-05 -2.9102082e-05
-2.546036e-17 2.5804304e-06 5.825288e-16 4.9888e-41 -4.8563e-41 -0.00027513714 4.6237e-41 -2.409191e-10
-3.6208147e-16 -5.2994e-41 -3.0701092e-05 -6.0398014e-07 -2.0327589e-07 6.2113e-41 -5.2881e-41 -3.8799928e-09
-3.035749e-18 -5.9572e-41 -1.2217791e-11 -3.4661e-41 1.6492e-41 7.4439337e-13 5.963e-41 -9.857462e-07
-1.622312e-07 -0.00078130263 -5.935e-41 -1.2910808e-05 -1.0789347e-05 4.4631e-41 -2.8053e-41 1.8967064e-11
-3.276e-42 -2.05e-43 1.8249456e-11 6.0201e-41 -1.605832e-05 2.881965e-06 -3.768e-42 2.5045328e-09
-2.450237e-16 -1.7660038e-07 -1.4983663e-05 -1.1126449e-05 -5.3532e-41 -0.0002039957 1.0637273e-05 -1.2557e-41
-3.0426e-41 5.3516e-41 -2.8701881e-05 -5.3354e-41 -5.0178e-41 0.00011503779 -5.529e-41 7.162255e-05

8.bias f4 [128]
00000000: 633e 38bb 4178 22b9 479d 56b5 f16c a3b4
00000010: 6f12 04b2 dd10 663d d6fc 70b9 aaaa 2fbb
00000020: eec2 e43d b032 e5ba 3de9 21b6 75eb 23bb
00000030: d66c 7fb0 8695 683d 5e5e 7fba f27e 53ba
00000040: 591f 603d 9e78 93ba bbe7 1bb8 df0c d0a6
00000050: 3103 e4a8 c38d b8b9 a058 aab2 392c a5ba
00000060: ea4c 76ba 4f42 b9ba bf62 8ea8 a351 61ba
00000070: d8bc 463e d227 e4b0 f013 09a0 498b afbb
00000080: 4b41 0c3e d9fb 0fba 51ba 9bad 57c0 6cac
00000090: 3e03 fcb4 8046 35ba 92c7 ed3d 8e0c 7ba3
000000a0: 92d1 0491 8c60 32ba 6546 7883 4c85 ec94
000000b0: 1e02 40bb 67b8 503d 5f6a 0bbb a090 65a9
000000c0: d8e6 31b9 4eb3 6e8a 38b5 86aa f196 d991
000000d0: f778 9abb ea28 193e 96a4 063e 8e08 ec9d
000000e0: c0aa 01b2 a4b8 5597 52d2 71ab 6715 3681
000000f0: 0900 4eba 2ece 8991 81e6 c9ad 9166 7aba
00000100: f8aa 89bc 04a0 17bb cd50 07b2 b877 a13a
00000110: 674d 543e 9632 80ba f4c8 a8b9 3fc8 199a
00000120: 8fdb 14bb e76f 61bc f9c9 29ba 28ae c1b9
00000130: 5ed6 a1ac 4ef9 67bd bd7e 8fbc 7ae0 528a
00000140: f259 a9bb 13a5 9bb5 6f7d 5a92 aea6 25bb
00000150: 3490 abba 7277 75b8 096a 42ba 0a24 05b9
00000160: 2cc5 f2b8 6193 9eb5 d929 94ba 3794 06b8
00000170: 0810 4caf e3df 8bbb 425e a7b8 95a0 52b7
00000180: 97f6 a8a9 fa16 0bb9 064a 069b 8776 bfae
00000190: 1134 78bb a4d6 87af 6f26 9b3d 9901 d697
000001a0: f5ac dcb8 efe0 4b3d ebcc 44bb 967f e0b6
000001b0: fce9 93bc 8d4e 75a6 d037 1097 be1a fb3d
000001c0: 1ac5 353e b14a f69f f3f4 013e 05bb 7c3e
000001d0: 5ce6 7fb8 6467 e23d c2fe 67bb dd22 b391
000001e0: 02e3 d0ba a115 a2b5 7766 1cbb 58a2 59b0
000001f0: c79c 94bb 323d dcb8 9b0b 88ba 07ec 7bbc
-0.0028113357 -0.00015494322 -7.995008e-07 -3.044038e-07 -7.6876026e-09 0.056168426 -0.00022982372 -0.0026804605
0.111699924 -0.001748642 -2.4126632e-06 -0.002501217 -9.2923125e-10 0.05678322 -0.000974154 -0.00080679276
0.054717395 -0.0011251157 -3.7170696e-05 -1.4436388e-15 -2.5314469e-14 -0.00035200836 -1.9830907e-08 -0.001260168
-0.00093956164 -0.0014134141 -1.5807991e-14 -0.00085952337 0.19407976 -1.6600501e-09 -1.1610948e-19 -0.0053571803
0.13696782 -0.00054925453 -1.7704201e-11 -3.3644387e-12 -4.6941017e-07 -0.00069151074 0.11610331 -1.3609396e-17
-1.0477543e-28 -0.0006804548 -7.296146e-37 -2.3882487e-26 -0.0029298137 0.05095711 -0.002127312 -5.0973657e-14
-0.00016966031 -1.1493007e-32 -2.3928927e-13 -3.4329588e-28 -0.004714127 0.14957014 0.13148722 -6.2477525e-21
-7.547612e-09 -6.905706e-25 -8.591228e-13 -3.3443476e-38 -0.00078582816 -2.1741857e-28 -2.2953419e-11 -0.0009552027
-0.016805157 -0.0023136148 -7.876406e-09 0.0012319004 0.20732652 -0.0009780701 -0.0003219318 -3.1801416e-23
-0.0022713875 -0.01375959 -0.00064769346 -0.00036941585 -4.5996948e-12 -0.05663424 -0.017516488 -1.01533516e-32
-0.005168193 -1.1596443e-06 -6.894328e-28 -0.002527635 -0.001308924 -5.8523794e-05 -0.0007416313 -0.00012697294
-0.00011576185 -1.181481e-06 -0.0011303975 -3.2086125e-05 -1.8559387e-10 -0.0042686327 -7.9807374e-05 -1.2554364e-05
-7.503475e-14 -0.00013264632 -1.1108138e-22 -8.706729e-11 -0.003787283 -2.4708868e-10 0.0757569 -1.3829829e-24
-0.00010522633 0.04977506 -0.0030029367 -6.690573e-06 -0.018055908 -8.5107906e-16 -4.6599355e-25 0.1226096
0.1775097 -1.0430862e-19 0.12691097 0.24680717 -6.1011277e-05 0.110548764 -0.003539965 -2.8262707e-28
-0.0015936794 -1.2076235e-06 -0.0023864785 -7.9174844e-10 -0.004535291 -0.00010501816 -0.0010379435 -0.0153760975
