Models/checkpoint_vel_final_1000_200.pth (torch, 353077 bytes, 16 tensors)

0.weight f4 [32, 9]
0.12707876 -0.11170897 -0.30685577 0.24712788 -0.72287667 0.27743748 0.022049895 0.21101865
-0.09482596 -0.12242234 0.051978122 0.07451982 -0.15608442 0.58855397 -0.118098855 -0.06080874
-0.019016962 -0.088244125 0.31995842 0.04539954 0.041374486 -0.2799197 -0.5267149 -0.0914875
-0.15216517 0.01664684 0.1638521 0.11555412 -0.36522195 0.2325806 0.27005163 0.43497282
0.16048412 -0.24102958 -0.17354028 -0.07362887 0.16321237 -0.07363084 0.22283588 -0.25515178
1.1672431 -0.16828534 0.17127141 -0.0035568352 -0.24759904 0.13052954 -0.18556902 0.14968154
-0.7773476 0.018581148 -0.37132218 -0.10306468 0.08753848 -0.088301994 0.25023732 0.03620485
0.2877972 -0.41330606 -0.14253692 0.14674774 -0.25369653 0.21267816 0.25890368 0.12846604
-0.2230727 -0.28880793 0.19742234 -0.19721673 -0.18575464 -0.10827803 0.120690554 -0.04270344
0.1460435 0.12631564 0.1731712 -0.5658582 0.11146359 0.13046129 -0.29754284 0.08405285
-0.16583423 -0.19634975 -0.042234346 -0.48079512 -0.2103498 -0.11360175 -0.19530228 0.176404
-0.07009479 0.078907184 0.054199744 -0.24617013 0.0029038198 0.83381516 -0.5286142 -0.12551178
0.13595083 0.094407305 -0.13631797 -0.07306874 0.20097932 -0.028256495 0.4377498 -0.29068667
-0.21061304 -0.3031661 0.29880273 -0.011861991 0.2200472 -0.009628879 -0.006567843 0.5351401
1.2420057 -0.20348656 0.03182687 0.23820683 0.14423567 0.09928526 -0.25264674 -0.04764531
-0.23944014 0.09901004 0.20804304 -0.16675074 0.18233886 -0.15159069 -0.2656436 0.027024722
0.23213637 0.50850415 -0.9964665 0.042168666 0.22482145 0.13541049 0.1470529 0.25970766
0.2929829 0.25334305 -0.219996 -0.81901085 -0.14572945 0.0046858354 -0.21144094 0.052547198
-0.026409717 -0.10731179 0.057550583 0.16923694 0.015553384 0.8917312 -0.08224466 0.09233286
-0.0121928165 -0.009737384 -0.3241818 -0.21807581 -0.65361315 -0.20194902 0.07181947 -0.07167132
-0.21095148 0.120793924 0.1548517 0.04673397 -0.38413334 0.4431857 0.5918025 -0.110567205
-0.21119057 -0.06653018 -0.10534264 0.06716171 0.1751808 0.3478337 0.3727623 0.2383184
0.16542625 0.032047093 -0.16967565 0.27461687 -0.07519167 -0.07691146 -0.31235564 -0.033178132
-0.8688306 0.16226228 -0.2948914 -0.13590293 -0.042627975 -0.25038543 0.010577955 -0.15399821
-0.10475105 0.33549884 0.6134361 -0.17695661 0.089044005 0.14742635 0.29343417 -0.3074473
0.26547593 -0.6579681 -0.0844434 -0.12884052 0.099162355 -0.07037206 -0.00078192935 -0.018398667
0.08010917 0.10899996 0.22759266 0.0589646 -0.26704448 0.22471978 0.18041903 0.29017776
0.19435246 -0.32864088 -0.27911663 0.68612444 0.36806682 0.23002936 -0.2256593 -0.09927634
0.06986029 -0.15988243 -0.131019 0.117416605 0.37555245 0.9716503 -0.079453014 -0.16080572
0.24594566 -0.057932727 -0.10090339 0.0077512115 -0.31388587 -0.011204977 0.34476894 -0.19696239
-0.28852794 0.007148417 0.15992081 0.007834859 -0.06720266 0.06754993 -0.57244784 0.25512698
-0.20470588 0.28648487 0.2632883 -0.06383812 0.24816507 0.32148147 -0.124101564 -0.6988271
00000000: ef20 023e acc7 e4bd 331c 9dbe 170f 7d3e
00000010: 720e 39bf 490c 8e3e fba1 b43c 4615 583e
00000020: 1d34 c2bd 90b8 fabd 03e7 543d d99d 983d
00000030: 98d4 1fbe 79ab 163f d0dd f1bd 9612 79bd
00000040: 76c9 9bbc 56b9 b4bd 97d1 a33e def4 393d
00000050: 4b78 293d a351 8fbe cad6 06bf cc5d bbbd
00000060: 30d1 1bbe f45e 883c d8c8 273e a3a7 ec3d
00000070: 5ffe babe 9c29 6e3e 3544 8a3e c2b4 de3e
00000080: f355 243e 75d0 76be 8bb4 31be bcca 96bd
00000090: 2521 273e c4cb 96bd 172f 643e 41a3 82be
000000a0: 3968 953f fe52 2cbe c661 2f3e cb19 69bb
000000b0: 9a8a 7dbe 89a9 053e ce05 3ebe 1e46 193e
000000c0: 4100 47bf 7e37 983c f11d bebe 9313 d3bd
000000d0: 6047 b33d add7 b4bd 1b1f 803e 894b 143d
000000e0: 285a 933e da9c d3be 33f5 11be 0a45 163e
000000f0: 83e4 81be 4ec8 593e 068f 843e 9a8c 033e
00000100: 2b6d 64be a2de 93be 1529 4a3e 2ff3 49be
00000110: 7736 3ebe dfc0 ddbd 9c2c f73d cde9 2ebd
00000120: 6d8c 153e e358 013e cb53 313e 15dc 10bf
00000130: 0647 e43d a597 053e 8957 98be e723 ac3d
00000140: 73d0 29be e90f 49be ecfd 2cbd c72a f6be
00000150: f065 57be 09a8 e8bd 52fd 47be 40a3 343e
00000160: db8d 8fbd 179a a13d 8d00 5e3d 0614 7cbe
00000170: 034e 3e3b e974 553f 4353 07bf 2986 00be
00000180: b236 0b3e 9e58 c13d f096 0bbe 10a5 95bd
00000190: 86cd 4d3e 2a7a e7bc be20 e03e e2d4 94be
000001a0: f2aa 57be 9638 9bbe acfc 983e cc58 42bc
000001b0: 0e54 613e 72c2 1dbc 0f37 d7bb f1fe 083f
000001c0: 0bfa 9e3f c85e 50be e45c 023d 7eec 733e
000001d0: 84b2 133e 1256 cb3d ea5a 81be bb27 43bd
000001e0: cc2f 75be c7c5 ca3d 3c09 553e b5c0 2abe
000001f0: 0ab7 3a3e 973a 1bbe 7002 88be f362 dd3c
00000200: 28b5 6d3e 542d 023f 6e18 7fbf 0db9 2c3d
00000210: 9837 663e 0ca9 0a3e 0995 163e 67f8 843e
00000220: db01 963e 2eb6 813e a246 61be b2aa 51bf
00000230: 1a3a 15be a38b 993b f983 58be bb3b 573d
00000240: 3159 d8bc 49c6 dbbd 29ba 6b3d 734c 2d3e
00000250: 9fd3 7e3c 7f48 643f e36f a8bd 0319 bd3d
00000260: 61c4 47bc 8c89 1fbc 28fb a5be 444f 5fbe
00000270: 3153 27bf b9cb 4ebe 1616 933d 6ac8 92bd
00000280: aa03 58be ce62 f73d 7291 1e3e 1f6c 3f3d
00000290: 20ad c4be 3ce9 e23e 5e80 173f 0f71 e2bd
000002a0: 5742 58be fa40 88bd e2bd d7bd 148c 893d
000002b0: 9862 333e 4217 b23e b3da be3e bd09 743e
000002c0: 8065 293e d043 033d 74bf 2dbe 959a 8c3e
000002d0: 17fe 99bd c183 9dbd 14ed 9fbe cbe5 07bd
000002e0: af6b 5ebf 1528 263e 01fc 96be 232a 0bbe
000002f0: ac9a 2ebd 8532 80be 294f 2d3c b5b1 1dbe
00000300: b887 d6bd 81c6 ab3e 260a 1d3f 1d34 35be
00000310: b45c b63d eff6 163e 013d 963e bc69 9dbe
00000320: 76ec 873e 9970 28bf a9f0 acbd c5ee 03be
00000330: a215 cb3d 3a1f 90bd 64fa 4cba cdb8 96bc
00000340: 4710 a43d 5f3b df3d 0d0e 693e dd84 713d
00000350: 0eba 88be f11c 663e c4bf 383e 2e92 943e
00000360: 5504 473e 9e43 a8be 60e8 8ebe daa5 2f3f
00000370: 4173 bc3e d18c 6b3e 3b13 67be 6551 cbbd
00000380: e912 8f3d 38b8 23be d829 06be 1e78 f03d
00000390: 6948 c03e 13be 783f 43b8 a2bd 41aa 24be
000003a0: 2ed9 7b3e de4a 6dbd 70a6 cebd e0fd fd3b
000003b0: a6b5 a0be 1495 37bc 8e85 b03e 82b0 49be
000003c0: efb9 93be 453d ea3b 48c2 233e c85d 003c
000003d0: 8ca1 89bd 9e57 8a3d f18b 12bf 01a0 823e
000003e0: 6b9e 51be 25ae 923e b9cd 863e 8fbd 82bd
000003f0: fc1e 7e3e 3899 a43e f628 febd 55e6 32bf

0.bias f4 [32]
-0.013304311 0.090331905 -0.016258426 -0.13482657 0.25856423 0.24878308 0.039119415 -0.1250541
-0.05162291 0.11728338 -0.29571864 -0.14904565 0.13020693 -0.031958636 0.068768375 -0.07544474
0.25126103 0.009015016 -0.1119911 0.47225574 -0.014996272 0.476138 0.15190281 0.18548322
-0.35577905 -0.15927646 0.29169536 -0.23074098 0.013150175 0.10591695 0.07010839 -0.060202762
00000000: 53fa 59bc efff b83d 6430 85bc fa0f 0abe
00000010: 8862 843e fec0 7e3e ae3b 203d 2f0e 00be
00000020: 8b72 53bd 4532 f03d 6f68 97be 6c9f 18be
00000030: f754 053e 0fe7 02bd 6fd6 8c3d c682 9abd
00000040: 49a5 803e b8b3 133c 975b e5bd 81cb f13e
00000050: ecb2 75bc 5cc8 f33e 698c 1b3e 50ef 3d3e
00000060: ac28 b6be 5e19 23be 1859 953e 5d47 6cbe
00000070: d573 573c fcea d83d fd94 8f3d 2c97 76bd

2.weight f4 [64, 32]
0.102602 0.15549296 -0.09961047 -0.13963199 0.18628477 -0.15930933 -0.10722615 -0.069887646
-0.057421245 -0.09604583 -0.022411834 0.15766466 -0.09147158 -0.23503181 0.0116875125 0.01140312
0.0041126893 -0.0044307187 0.11834023 0.069687545 -0.021237727 -0.016778361 -0.120226674 0.12717712
0.07925959 -0.094497114 0.017748823 -0.083612666 -0.2936924 -0.07126523 0.12895098 0.0338401
-0.22212099 -0.06683591 0.04186626 0.13530003 0.18390818 0.062599175 0.01643938 0.05291825
-0.08861863 -0.2576889 0.17856121 0.022532523 0.12166215 -0.016512213 -0.16912733 -0.1972709
-0.025273593 -0.11371698 -0.13550873 0.1183677 0.032109153 -0.083482005 0.04567449 0.1224423
-0.03836595 0.20267557 0.1411837 0.10751765 0.28367049 -0.12682223 0.18341386 0.087666884
-0.07208612 0.0012964538 0.04861482 0.06510642 -0.11083654 -0.074265584 -0.0007887629 0.15147984
-0.011008084 -0.045429848 0.31807792 0.0073113083 0.25552234 0.026676714 0.2748457 -0.0034494572
-0.10579201 0.056479245 0.045740932 -0.25024825 0.03776158 -0.016953314 -0.1315039 -0.052814525
0.17621276 -0.039228167 0.017535819 0.21720771 0.0454225 -0.092401996 0.103306636 0.17741038
-0.14359476 0.17653075 -0.018854063 -0.08611502 -0.16916786 0.24275433 0.105641514 0.1457021
0.08688585 0.10801787 -0.07726501 -0.13941875 0.025245514 0.061055783 -0.002716118 -0.101903275
0.00046484225 0.17339958 -0.01961818 -0.105289795 0.039410874 -0.17119302 0.16514266 0.09649442
-0.15063605 0.1533594 -0.24241081 0.078519434 -0.039655667 0.12599243 -0.13050579 -0.06750545
0.08099286 -0.099792905 0.14939828 -0.039013736 0.10689645 -0.15509298 0.18272027 0.031129919
-0.26522338 -0.046377815 0.037613016 -0.049299523 0.028490178 -0.03451266 0.12932196 -0.0125756115
0.07714478 0.1199547 -0.19033797 -0.01386078 0.12898101 -0.20440634 -0.09444955 -0.084747925
0.17607321 0.074581794 0.02616798 0.1455483 -0.15483615 0.036503594 0.03083122 -0.22801818
0.09683334 0.06513134 0.028061386 0.09280966 0.1899147 -0.111376956 -0.116310716 0.031021971
0.06495678 0.08522304 0.05782124 0.043973513 0.07270635 -0.20300639 0.00417165 0.19351998
0.21962148 -0.025295766 -0.16503982 0.14807446 -0.12156537 -0.013906505 -0.1873238 0.06715519
-0.22558099 -0.09328753 -0.09221983 -0.15769476 -0.057136606 0.07905397 -0.0259766 0.08100721
0.13217168 -0.05701558 0.2184351 -0.09750982 -0.14371724 -0.12644961 -0.12884544 0.06730688
-0.11623136 -0.10789497 0.24160422 -0.0396066 -0.24564832 -0.08694406 -0.028750252 0.16458783
-0.29500118 -0.10572322 0.07113119 0.09104732 0.05206534 0.012436872 0.03164772 0.021968985
0.13377419 -0.004267648 -0.17477548 -0.071159065 -0.11953406 -0.020341339 -0.023450403 -0.072902024
-0.038716234 0.032571632 -0.07300333 0.1479242 -0.07991929 0.064215586 0.14189035 -0.05187828
0.06026533 -0.019051429 -0.11140009 -0.01195784 0.30787367 0.0022016251 -0.030708976 -0.12562457
0.153368 -0.0005775179 0.0014560892 -0.009224168 -0.028126061 -0.041151017 -0.0718062 -0.101560876
0.12606514 -0.064662546 0.13670358 -0.15574622 -0.0043723956 -0.07125095 -0.06946632 -0.0006945016
00000000: ff20 d23d 8c39 1f3e 9300 ccbd b0fb 0ebe
00000010: 6fc1 3e3e fc21 23be 6299 dbbd 4121 8fbd
00000020: 8a32 6bbd adb3 c4bd 0699 b7bc d872 213e
00000030: 7455 bbbd 2eac 70be fb7c 3f3c 27d4 3a3c
00000040: bdc3 863b 902f 91bb 5d5c f23d 58b8 8e3d
00000050: befa adbc c672 89bc 6739 f6bd b83a 023e
00000060: da52 a23d b487 c1bd fb65 913c 1e3d abbd
00000070: da5e 96be 81f3 91bd ba0b 043e eb9b 0a3d
00000080: af73 63be 44e1 88bd f57b 2b3d 178c 0a3e
00000090: 6d52 3c3e ff33 803d e1ab 863c cfc0 583d
000000a0: af7d b5bd cdef 83be c0d8 363e 2096 b83c
000000b0: 012a f93d 9f44 87bc b72f 2dbe 6201 4abe
000000c0: 910a cfbc 73e4 e8bd cdc2 0abe c46a f23d
000000d0: e384 033d 9df8 aabd 2d15 3b3d 07c3 fa3d
000000e0: 9d25 1dbd 2f8a 4f3e 7692 103e 3732 dc3d
000000f0: 423d 913e b0dd 01be d8d0 3b3e b28a b33d
00000100: e3a1 93bd c5ed a93a 5520 473d 8456 853d
00000110: 45fe e2bd 8e18 98bd fbc4 4eba 881d 1b3e
00000120: 405b 34bc a614 3abd 1cdb a23e b393 ef3b
00000130: d3d3 823e 2089 da3c 93b8 8c3e 4a10 62bb
00000140: 7ba9 d8bd c856 673d d85a 3b3d 8a20 80be
00000150: e3ab 1a3d ade1 8abc f5a8 06be 0b54 58bd
00000160: 1e71 343e b7ad 20bd 47a7 8f3c b36b 5e3e
00000170: f20c 3a3d 423d bdbd 6e92 d33d 11ab 353e
00000180: 810a 13be 7ac4 343e d673 9abc 125d b0bd
00000190: 573a 2dbe 9794 783e 945a d83d ee32 153e
000001a0: 35f1 b13d 7938 dd3d 1e3d 9ebd cac3 0ebe
000001b0: aecf ce3c a115 7a3d e600 32bb aab2 d0bd
000001c0: 12b6 f339 a98f 313e 4eb6 a0bc 2da2 d7bd
000001d0: 4c6d 213d 394d 2fbe 281b 293e de9e c53d
000001e0: 5640 1abe 3f0a 1d3e 8a3a 78be ccce a03d
000001f0: fb6d 22bd 2904 013e 4fa3 05be 4c40 8abd
00000200: 96df a53d 3960 ccbd ddfb 183e decc 1fbd
00000210: 87ec da3d b2d0 1ebe 061b 3b3e 2c04 ff3c
00000220: 5ccb 87be aaf6 3dbd 1b10 1a3d 4cee 49bd
00000230: 3c64 e93c 265d 0dbd fa6c 043e f009 4ebc
00000240: 15fe 9d3d cfaa f53d f5e7 42be 5318 63bc
00000250: 9913 043e e54f 51be c46e c1bd 5290 adbd
00000260: 894c 343e 57be 983d 3b5e d63c 9d0a 153e
00000270: 5e8d 1ebe cb84 153d c191 fc3c 997d 69be
00000280: 8f50 c63d 9463 853d fee0 e53c fe12 be3d
00000290: 0079 423e 9a19 e4bd 5034 eebd ca21 fe3c
000002a0: 0f08 853d 6b89 ae3d f7d5 6c3d 921d 343d
000002b0: 11e7 943d e8e0 4fbe 56b2 883b 1a2a 463e
000002c0: 74e4 603e 1139 cfbc 3300 29be d5a0 173e
000002d0: 44f7 f8bd 1cd8 63bc cfd1 3fbe a988 893d
000002e0: b4fe 66be 880d bfbd c0dd bcbd bc7a 21be
000002f0: 1308 6abd 0ce7 a13d e1cc d4bc 1ce7 a53d
00000300: 0358 073e 2b89 69bd 73ad 5f3e 3ab3 c7bd
00000310: 9d2a 13be 027c 01be 0ff0 03be 31d8 893d
00000320: b50a eebd 0af8 dcbd 1967 773e 883a 22bd
00000330: 3c8b 7bbe ba0f b2bd a685 ebbc b689 283e
00000340: 650a 97be 6a85 d8bd 3bad 913d 0477 ba3d
00000350: 7742 553d 06c4 4b3c 0aa1 013d 4df8 b33c
00000360: 1afc 083e a0d7 8bbb 58f8 32be d8bb 91bd
00000370: 46ce f4bd e1a2 a6bc 0f1b c0bc a84d 95bd
00000380: ea94 1ebd d569 053d c582 95bd 7179 173e
00000390: baac a3bd 7683 833d b44b 113e 527e 54bd
000003a0: c7d8 763d be11 9cbc bb25 e4bd d1ea 43bc
000003b0: 9ea1 9d3e 2449 103b 6491 fbbc baa3 00be
000003c0: 800c 1d3e 9264 17ba 3fda be3a f720 17bc
000003d0: a068 e6bc f88d 28bd 210f 93bd 26ff cfbd
000003e0: 3817 013e cc6d 84bd 06fc 0b3e f07b 1fbe
000003f0: 5046 8fbb 05ec 91bd 5c44 8ebd 370f 36ba

2.bias f4 [64]
0.2785632 -0.22206725 -0.27819446 0.018082732 0.17798595 0.061958864 -0.08098033 0.016621402
-0.038693797 0.15776628 0.1341717 0.039966516 -0.10412565 -0.124751836 -0.040436897 -0.16462842
0.35983622 -0.2638977 0.13791846 -0.20096917 0.18732361 0.0018155236 0.113003284 -0.06927288
-0.108625576 -0.0077253208 0.11545865 -0.026854329 0.09346355 -0.05956059 -0.15563582 0.124309145
-0.06597714 0.15257482 0.10861499 0.11614766 0.15785237 -0.18039735 -0.11947337 -0.034241464
0.012223895 -0.14853764 0.17854369 0.09703224 -0.1554869 0.14757785 0.1849683 0.05547778
-0.08326443 0.050118595 -0.07021267 0.19783539 0.17383318 0.04101711 -0.12627827 0.25066632
-0.014285751 -0.009270397 0.07500435 -0.021355914 -0.061248623 0.23260598 -0.07646853 -0.07818761
00000000: d69f 8e3e 9965 63be 816f 8ebe 3d22 943c
00000010: f341 363e 94c8 7d3d 04d9 a5bd 9b29 883c
00000020: 637d 1ebd 7c8d 213e 4e64 093e eeb3 233d
00000030: d43f d5bd e47d ffbd 29a1 25bd 5a94 28be
00000040: 743c b83e 991d 87be 7f3a 0d3e ddca 4dbe
00000050: c3d1 3f3e ddf6 ed3a 446e e73d f1de 8dbd
00000060: 1677 debd b024 fdbb 9675 ec3d 9cfd dbbc
00000070: d169 bf3d cef5 73bd ff5e 1fbe cb95 fe3d
00000080: 061f 87bd 933c 1c3e 8971 de3d d3de ed3d
00000090: 0da4 213e 15ba 38be 74ae f4bd c740 0cbd
000000a0: bb46 483c 401a 18be 28d4 363e d7b8 c63d
000000b0: f537 1fbe a61e 173e 5468 3d3e ab3c 633d
000000c0: 8b86 aabd 2849 4d3d a9cb 8fbd 5c95 4a3e
000000d0: 5301 323e 8f01 283d 174f 01be 5657 803e
000000e0: c80e 6abc dde2 17bc e19b 993d 99f2 aebc
000000f0: d6df 7abd 4330 6e3e 889b 9cbd d320 a0bd

4.weight f4 [128, 64]
0.19596873 -0.20793746 -0.043704864 -0.08450766 0.028579263 0.11223672 0.099422485 -0.0122429915
-0.005616633 -0.05467969 0.002354201 0.035033338 -0.069021694 -0.06728125 -0.065385304 -0.13593124
0.057931527 -0.14579077 -0.13895221 -0.049929127 -0.015561268 0.087812185 -0.043851756 0.13471201
-0.03460818 -0.07462783 0.016671576 -0.0028978793 -0.046930183 -0.045197666 0.04902728 0.04562572
0.09669022 0.05726579 -0.1303448 -0.064895205 -0.011978692 0.03431535 0.13688092 -0.047032572
0.102838494 -0.13739459 0.05274081 -0.06439644 -0.11632566 -0.08544731 -0.09211085 -0.0015060927
0.14193895 0.09732783 -0.041691095 -0.05286151 -0.064972796 0.071097 -0.07916782 -0.072743796
0.10377124 0.16834341 0.02577767 0.06992328 0.12795502 -0.10508206 -0.20667516 0.048270013
-0.0009299994 -0.0013432669 -0.0021304376 -0.0009699822 -0.00021750618 -0.00016366248 -8.360885e-13 -0.00032800803
-0.0001480335 -0.0006807174 -0.0009444294 -0.0012544179 -0.0005385933 -0.0015985159 -0.000112323905 -0.001332512
-4.6106583e-05 -0.00015028515 -0.00051576534 -0.00074793847 -0.0005514577 -3.8251002e-09 -1.4969836e-05 -0.00046969354
-0.00026642616 -0.00020038706 -0.0015145992 -0.00081780774 -0.00095035485 -0.0010484693 -0.00029228593 -3.240812e-05
-0.0014319194 -0.00022437268 -0.00041163285 -0.00015816979 -0.0006155052 -0.0018434509 9.008e-42 -0.00032619102
-0.00026653835 -0.0012934756 -9.413185e-06 -0.0013706489 -0.00080135156 -0.0019017238 -0.0017946435 -0.0010699625
-2.9808966e-08 -7.211054e-05 -3.118535e-06 -0.0009449535 -0.001781045 -3.63e-43 -0.0012348581 -0.0010004367
-0.0005245815 -6.0947594e-05 -0.00013932171 -0.00082413334 -0.00014900144 -0.0011219988 -0.00047532143 -7.186365e-05
0.022264306 -0.029234609 -0.10393349 0.0069870083 -0.013714185 0.010610587 -0.012763135 -0.021784093
0.025760317 0.12159229 0.0124832885 0.0015427355 -0.10188944 -0.0011655812 -0.026819708 -0.051281802
0.0457705 0.04414393 -0.06285569 -0.045159917 0.0051700696 -0.020440256 0.07571046 -0.024923155
-0.01488462 0.088853605 0.0015923022 -0.024739439 -0.008207173 0.010059249 -0.07031309 -0.06260629
0.07549519 0.066120684 -0.14470275 0.024365606 -0.0158335 0.013925432 -0.034025207 -0.008181904
-0.0833194 -0.08507679 0.0383339 -0.11647576 0.08603897 -0.024033042 0.0029460785 -0.0537
-0.055213563 -0.098785326 0.058729306 0.05615356 -0.0665569 0.052495968 -0.20979924 -0.05426825
-0.21522099 -0.06570902 -0.024653556 -0.10342132 0.12003774 -0.042560853 0.12676862 -0.045375165
0.024267158 -0.004849112 0.025370048 -0.0029920896 0.061370887 -0.014152542 0.042388894 -0.065034784
-0.067017 -0.03578194 0.07375098 -0.095862605 -0.062068295 -0.17785701 -0.061755992 -0.020198712
-0.052517023 0.008052226 -0.07456346 -0.0350355 0.030409208 -0.06853264 -0.045876056 0.02741462
-0.0068838196 0.007632494 0.03981434 -0.102467954 0.021614715 0.054002497 -0.027602436 -0.07282249
-0.12227239 0.062486596 -0.018162869 0.068683505 0.08795233 0.04943329 0.04712586 0.15303935
0.061860055 -0.00090911397 -0.04405429 0.07156632 0.0049637253 -0.16406222 -0.071047544 -0.010620382
0.03660097 -0.005460648 0.016388228 -0.052883305 0.15760452 -0.0045023067 -0.0784036 -0.015043219
0.02777731 -0.06412975 0.007925926 -0.013072571 0.029998448 0.01368465 -0.120249264 0.03372351
00000000: 07ac 483e 8fed 54be df03 33bd 5a12 adbd
00000010: 0f1f ea3c 5edc e53d 049e cb3d d496 48bc
00000020: bc0b b8bb d0f7 5fbd f048 1a3b 1e7f 0f3d
00000030: 3f5b 8dbd c1ca 89bd bbe8 85bd 8f31 0bbe
00000040: 9c49 6d3d 2d4a 15be 7d49 0ebe 7c82 4cbd
00000050: b0f4 7ebc e0d6 b33d e69d 33bd f2f1 093e
00000060: 4fc1 0dbd 7ad6 98bd d492 883c 59ea 3dbb
00000070: dd39 40bd 3021 39bd d4d0 483d 09e2 3a3d
00000080: 8605 c63d 888f 6a3d 1b79 05be c7e7 84bd
00000090: 4742 44bc 418e 0c3d 832a 0c3e 3aa5 40bd
000000a0: fd9c d23d 2bb1 0cbe bf06 583d 48e2 83bd
000000b0: 263c eebd 00ff aebd 9da4 bcbd 1668 c5ba
000000c0: 7258 113e d053 c73d 48c4 2abd 5085 58bd
000000d0: 7510 85bd 4e9b 913d bd22 a2bd b3fa 94bd
000000e0: 0486 d43d 3762 2c3e b12b d33c f033 8f3d
000000f0: a406 033e 4335 d7bd a7a2 53be c7b6 453d
00000100: 34cb 73ba 8f10 b0ba d09e 0bbb 6746 7eba
00000110: 5f12 64b9 d09c 2bb9 8756 6bab 7ef8 abb9
00000120: 7139 1bb9 2c72 32ba 9693 77ba 486b a4ba
00000130: 6230 0dba 4b85 d1ba 708f ebb8 afa7 aeba
00000140: 9162 41b8 dd95 1db9 6d34 07ba 4d11 44ba
00000150: b38f 10ba f06d 83b1 f526 7bb7 3341 f6b9
00000160: 1daf 8bb9 fe1e 52b9 8485 c6ba 2662 56ba
00000170: 3c21 79ba cb6c 89ba f43d 99b9 f4ed 07b8
00000180: 3eaf bbba 9545 6bb9 6dd0 d7b9 61da 25b9
00000190: db59 21ba f39f f1ba 1c19 0000 9e04 abb9
000001a0: 2cbe 8bb9 d789 a9ba 52ed 1db7 58a7 b3ba
000001b0: cb11 52ba 4343 f9ba 3e3a ebba fc3d 8cba
000001c0: 4e07 00b3 0d3a 97b8 0648 51b6 c2b6 77ba
000001d0: f471 e9ba 0301 0080 f6da a1ba 1621 83ba
000001e0: 1284 09ba fba1 7fb8 e316 12b9 a70a 58ba
000001f0: 453d 1cb9 0810 93ba 9034 f9b9 81b5 96b8
00000200: a263 b63c 6b7d efbc 15db d4bd 46f3 e43b
00000210: 76b1 60bc 07d8 2d3c 781c 51bc 8e74 b2bc
00000220: 4d07 d33c 6105 f93d b586 4c3c 9d35 ca3a
00000230: 69ab d0bd 6ac6 98ba 01b5 dbbc de0c 52bd
00000240: d979 3b3d 44d0 343d 7cba 80bd 9bf9 38bd
00000250: b069 a93b 5372 a7bc 160e 9b3d a52b ccbc
00000260: 9fde 73bc e1f8 b53d ccb4 d03a 5daa cabc
00000270: 6177 06bc 8ccf 243c 4f00 90bd ba37 80bd
00000280: 399d 9a3d 486a 873d f52c 14be 619a c73c
00000290: 42b5 81bc 7f27 643c 045e 0bbd 650d 06bc
000002a0: 5da3 aabd bd3c aebd 0204 1d3d d88a eebd
000002b0: 3335 b03d f1e0 c4bc ff12 413b 88f4 5bbd
000002c0: 9e27 62bd f64f cabd 248e 703d 4601 663d
000002d0: fc4e 88bd 0306 573d 9dd5 56be 6248 5ebd
000002e0: e462 5cbe 7392 86bd 41f6 c9bc 8fce d3bd
000002f0: 59d6 f53d 4a54 2ebd a2cf 013e 4fdb 39bd
00000300: ebcb c63c 4de5 9ebb d9d4 cf3c ef16 44bb
00000310: 0a60 7b3d 10e0 67bc fa9f 2d3d f530 85bd
00000320: 3540 89bd 1590 12bd c10a 973d 9d53 c4bd
00000330: 533b 7ebd 2620 36be daf3 7cbd c577 a5bc
00000340: 171c 57bd 7ced 033c bab4 98bd 6281 0fbd
00000350: bb1c f93c d75a 8cbd 88e8 3bbd a094 e03c
00000360: aa91 e1bb 001a fa3b 5d14 233d b8da d1bd
00000370: 5811 b13c b931 5d3d 811e e2bc f523 95bd
00000380: f269 fabd f2f1 7f3d 4cca 94bc f0a9 8c3d
00000390: 5a20 b43d 907a 4a3d 0c07 413d 59b6 1c3e
000003a0: f860 7d3d 9b51 6eba 4572 34bd 5d91 923d
000003b0: bfa6 a23b edff 27be 6081 91bd 1c01 2ebc
000003c0: e6ea 153d 3cef b2bb 9b40 863c 2a9c 58bd
000003d0: 1463 213e 1688 93bb 1192 a0bd d577 76bc
000003e0: 3e8d e33c 7556 83bd bedb 013c 562e 56bc
000003f0: 4ebf f53c 9535 603c 3f45 f6bd aa21 0a3d

4.bias f4 [128]
0.04463707 -0.0025136007 0.18276256 0.081337474 0.0480899 -0.13059 0.080430485 -0.09488139
-0.041714866 -0.09684817 0.014287778 0.024273181 -0.102618605 0.08488962 0.0406859 0.0071464893
0.11982928 0.05108396 0.042136993 -0.07810971 0.005755384 0.08753871 -0.16940895 0.06401998
-0.004424685 -0.010218904 0.037087504 0.009079563 0.09028133 0.11209415 0.090533435 -0.0009589208
0.13452251 -0.06243733 0.030845892 -0.087306395 0.1023622 -0.052555233 -0.06198658 0.09292621
0.017588275 0.037137818 0.07114456 -0.032426395 0.23971437 0.043964624 -0.025631007 -0.00062770996
0.08326028 -0.065567896 -0.019909004 -0.0074381945 0.092508934 0.08169449 0.14964549 -0.041933138
-0.0073288293 0.03583066 0.11858375 0.03506203 -0.0660429 -0.047101874 0.060969166 -0.121447876
0.025876604 0.03171104 0.006086483 -0.015100094 0.13052885 0.07760043 0.028118964 0.06877843
-0.0003818461 0.017225416 -0.003632029 0.043670695 -3.4381712e-05 0.05983529 -0.11241239 -0.024418406
0.1349298 0.12867638 -0.052213654 0.070548326 -0.03761228 0.045816645 -0.08484289 0.17071967
0.15073009 -2.6855503e-05 -0.02869677 0.019483155 0.17131935 0.19423543 0.0033318924 -0.025973374
0.10038588 -0.1846259 0.07675714 0.045540065 0.016081281 0.058900997 0.07947195 0.061739556
-0.047807287 0.097547404 -0.025426537 -0.059768267 0.035388354 0.039020672 -0.031912126 0.05694919
-0.022777822 0.016330218 0.08925063 0.06485558 0.044979736 0.034508787 0.019588437 0.02489078
0.14907356 0.018376537 0.18932387 -0.018146303 0.056111716 0.090899274 0.08997207 -0.11818805
00000000: 5cd5 363d 39bb 24bb 1c26 3b3e 4394 a63d
00000010: eaf9 443d 63b9 05be bdb8 a43d 2d51 c2bd
00000020: 35dd 2abd 5558 c6bd 4917 6a3c 8dd8 c63c
00000030: b429 d2bd 9cda ad3d 42a6 263d 192d ea3b
00000040: 0e69 f53d 6a3d 513d d797 2c3d fcf7 9fbd
00000050: a997 bc3b 7f47 b33d 8a79 2dbe e81c 833d
00000060: f3fc 90bb 316d 27bc 11e9 173d 73c2 143c
00000070: 6be5 b83d 9e91 e53d 9869 b93d 1660 7bba
00000080: 45c0 093e 49be 7fbd 86b0 fc3c b2cd b2bd
00000090: 46a3 d13d 2844 57bd a4e5 7dbd 1950 be3d
000000a0: 4915 903c d31d 183d 3db4 913d 8ad1 04bd
000000b0: af77 753e 4014 343d 1ef8 d1bc e78c 24ba
000000c0: 5e84 aa3d 7648 86bd 3518 a3bc 19bc f3bb
000000d0: 5375 bd3d 714f a73d ab3c 193e 15c2 2bbd
000000e0: ad26 f0bb 2cc3 123d 0adc f23d 349d 0f3d
000000f0: 8041 87bd e5ed 40bd ceba 793d aab9 f8bd
00000100: 2cfb d33c 6fe3 013d 1f71 c73b 6266 77bc
00000110: 5ba9 053e f9ec 9e3d be59 e63c b5db 8c3d
00000120: 8432 c8b9 511c 8d3c 5607 6ebb 0be0 323d
00000130: 1535 10b8 d915 753d 7838 e6bd 1c09 c8bc
00000140: 0a2b 0a3e bec3 033e fcdd 55bd a47b 903d
00000150: 560f 1abd 3caa 3b3d 1cc2 adbd 23d1 2e3e
00000160: fd58 1a3e c147 e1b7 7d15 ebbc 239b 9f3c
00000170: 576e 2f3e a7e5 463e e15b 5a3b 1dc6 d4bc
00000180: 1d97 cd3d 920e 3dbe d932 9d3d 3888 3a3d
00000190: e4bc 833c 2c42 713d 31c2 a23d 9ee2 7c3d
000001a0: 93d1 43bd efc6 c73d 504b d0bc 92cf 74bd
000001b0: 61f3 103d 24d4 1f3d 4ab6 02bd 8e43 693d
000001c0: 8e98 babc f3c6 853c 09c9 b63d 01d3 843d
000001d0: ac3c 383d 1659 0d3d ee77 a03c c0e7 cb3c
000001e0: bda6 183e 648a 963c 1ede 413e 8ea7 94bc
000001f0: 66d5 653d 6629 ba3d 4743 b83d 940c f2bd

6.weight f4 [256, 128]
-0.0005167051 5.5706e-41 2.6462653e-06 -0.00016227712 -0.0001963479 0.00025171548 -0.0009567375 -0.001262138
-4.113915e-05 -0.0010018183 4.6982997e-08 -0.00093960343 -0.00049316377 -0.0006078858 -0.0008682467 -7.469923e-12
-0.0006020709 -0.00050751615 -1.859299e-05 0.00017915809 -0.00017386276 -0.00050157227 -0.0015120996 -5.4868756e-06
-0.0010016559 -8.259201e-05 -0.0002839332 -0.00050904026 1.9013016e-05 -0.0002736357 -6.185776e-05 -0.0017151862
-0.0006601473 -9.135663e-08 1.377522e-06 -0.00029201867 -4.016043e-06 -2.1231197e-05 -0.00011828523 -8.384021e-06
-0.00024376332 8.1727677e-07 -0.00025951484 -0.00016455023 1.3183768e-05 -6.55569e-05 -0.0001746802 -5.995607e-06
-0.00020884772 5.598554e-08 -0.0011621682 -7.7387835e-05 0.00020505377 -9.597298e-08 -0.00094101386 -0.0005557426
8.817453e-06 -0.0002551453 -0.0015987619 -2.325558e-06 -0.00033070683 -0.0001472786 -0.00023535766 -0.0007761781
-3.9061997e-05 -0.00082368735 1.5767848e-06 -2.6133148e-07 6.312132e-05 4.7042384e-08 -9.936705e-08 -1.0288641e-06
2.1639381e-11 -0.00022207912 3.8675913e-07 -5.489558e-06 -5.4946e-41 -0.0007848509 1.47689625e-05 -0.00013392075
-0.00014093677 -0.00095475995 -0.0002413756 -0.00011394868 1.2250692e-06 -4.48437e-06 -0.0007810122 0.000443077
-0.0015321493 5.5454e-41 -0.0005045557 -2.92437e-11 -0.0006102019 0.00016930452 -0.0010795856 -5.215189e-21
-0.00037008256 -0.001214762 -0.0015850147 2.0996817e-08 -6.545124e-05 -8.41217e-05 -0.00089480577 -3.6219933e-06
0.0004654616 -0.00015872486 -0.001544323 -0.0010744443 -0.00034883275 -0.0001981997 -0.0005055771 -0.00040718532
-5.989583e-05 -0.00033899877 -0.0004920193 -5.5354656e-05 -4.3015552e-05 0.00046909222 2.2904753e-07 4.2799384e-05
-5.5990233e-07 -0.0005825372 0.0004104852 -0.0006033345 1.8146731e-05 -0.0009373736 -0.00040867567 -8.017357e-05
-4.7307294e-05 -1.7782e-41 3.8494163e-09 -2.2538775e-06 -1.0961674e-06 2.5240579e-05 -0.0003789823 -0.0001042342
-9.539003e-07 -1.966942e-05 2.7520507e-08 -3.5128014e-05 -0.00010099031 -0.00011506616 -0.00032151976 -6.165798e-16
-0.0002901459 -8.8899657e-07 -2.3639442e-09 -0.00060100155 -0.00090998504 -1.3910166e-05 1.916474e-06 -1.4983279e-05
6.8834893e-06 -2.6458251e-06 4.7831054e-05 -2.0441219e-05 -4.7631743e-06 3.3348013e-05 -2.7759157e-05 0.00042145778
-0.00016261383 -2.4557698e-09 3.2712946e-05 -2.3209604e-06 7.3343875e-10 -2.031477e-05 -4.304823e-05 -3.246759e-05
3.2994566e-07 -4.930615e-05 -0.0006600721 -1.5360278e-05 -0.000103685124 -8.838397e-06 4.569461e-05 9.644879e-07
-0.00039616285 1.6113605e-06 -9.831251e-05 -1.7483634e-06 1.4318198e-05 -5.1790966e-10 -0.00091076683 -4.7309088e-05
-3.1546428e-05 1.0327218e-06 -0.00069462135 -0.00013067291 -6.217908e-06 -2.5501877e-06 -2.5654565e-05 -0.00026502475
-1.7237638e-06 -0.00018979228 -6.779157e-08 4.6879616e-09 -2.9208236e-06 1.4380427e-09 -5.59295e-10 -6.829205e-05
-8.83056e-14 -9.749377e-06 4.9028404e-07 -0.00021219403 2.693e-42 -9.2054244e-05 -0.00015801693 7.253021e-05
-9.753219e-06 3.7188365e-05 -3.699469e-05 -3.9438748e-07 -3.4001872e-07 -0.00031760967 0.0001505132 -0.00029459252
-0.0007595181 5.5903e-41 -0.00014934468 -2.6580744e-07 -0.0005483391 1.509614e-05 -0.00021158626 2.7663632e-10
-0.00014972674 2.1612548e-05 4.828549e-05 -8.0053734e-11 -0.00042873147 1.0210755e-05 -0.00063751376 -3.3632411e-06
0.00014111327 -8.4146144e-05 3.50404e-05 4.032928e-06 -2.826652e-14 -0.00080952514 -0.00036747602 -0.00013722312
7.44473e-08 -6.597668e-06 -0.00022801405 -1.5978019e-06 -6.8304244e-06 -0.00043516757 3.1444294e-09 -6.2441945e-06
-7.9272024e-05 -0.0003422174 -3.6252462e-05 -6.874005e-05 -3.697654e-05 -0.00023632511 1.8783796e-05 -4.1333365e-06
00000000: 7e73 07ba 499b 0000 7e96 3136 ef28 2ab9
00000010: bde2 4db9 aef8 8339 91cd 7aba 536e a5ba
00000020: d38c 2cb8 724f 83ba 5aca 4933 b84f 76ba
00000030: a947 01ba 875a 1fba 0d9b 63ba 8b69 03ad
00000040: 4bd4 1dba d50a 05ba 24f8 9bb7 62dc 3b39
00000050: ee4e 36b9 f27b 03ba a531 c6ba e71b b8b6
00000060: ff49 83ba 3f35 adb8 dedc 94b9 1d71 05ba
00000070: 247e 9f37 c376 8fb9 a2b9 81b8 19d0 e0ba
00000080: bc0d 2dba d72f c4b3 4ce3 b835 151a 99b9
00000090: 8cc1 86b6 a619 b2b7 e60f f8b8 19a9 0cb7
000000a0: b89a 7fb9 d562 5b35 7e0f 88b9 1e8b 2cb9
000000b0: da2f 5d37 987b 89b8 5c2a 37b9 df2d c9b6
000000c0: 22fe 5ab9 c174 7033 e553 98ba 474b a2b8
000000d0: b403 5739 b419 ceb3 5fae 76ba 41af 11ba
000000e0: acee 1337 06c5 85b9 8c8d d1ba c810 1cb6
000000f0: b862 adb9 cc6e 1ab9 57ca 76b9 6e78 4bba
00000100: 80d6 23b8 b9ec 57ba eaa1 d335 204d 8cb4
00000110: 0060 8438 a60b 4a33 9d63 d5b3 8017 8ab5
00000120: 8e57 be2d e9dd 68b9 c5a3 cf34 f232 b8b6
00000130: 2b99 0080 74be 4dba 36c8 7737 146d 0cb9
00000140: 6dc8 13b9 db48 7aba c519 7db9 bbf7 eeb8
00000150: 0f6d a435 7278 96b6 d7bc 4cba ca4c e839
00000160: 66d2 c8ba 959a 0000 2944 04ba 7b9d 00ae
00000170: f5f5 1fba 5687 3139 e280 8dba 3706 c59d
00000180: a407 c2b9 a638 9fba 45c0 cfba 7d5c b432
00000190: de42 89b8 7e6a b0b8 6691 6aba 5f11 73b6
000001a0: 3309 f439 616f 26b9 e26a caba 5ed4 8cba
000001b0: 8ae3 b6b9 d4d3 4fb9 b488 04ba 7d7b d5b9
000001c0: a838 7bb8 a5bb b1b9 dbfa 00ba 9c2c 68b8
000001d0: 996b 34b8 7ef0 f539 1bf0 7534 7d83 3338
000001e0: 324c 16b5 69b5 18ba 6436 d739 1829 1eba
000001f0: cf39 9837 14ba 75ba 8543 d6b9 dc22 a8b8
00000200: d26b 46b8 9231 0080 d343 8431 5241 17b6
00000210: 0620 93b5 bbbb d337 25b2 c6b9 4f98 dab8
00000220: c407 80b5 c2ff a4b7 3c66 ec32 6b56 13b8
00000230: c3ca d3b8 ad4f f1b8 a791 a8b9 8fb7 31a6
00000240: b91e 98b9 61a3 6eb5 f272 22b1 888c 1dba
00000250: 108c 6eba b55f 69b7 c69c 0036 b160 7bb7
00000260: b9f8 e636 ee8e 31b6 349e 4838 2f79 abb7
00000270: 5bd3 9fb6 28df 0b38 56dc e8b7 1bf7 dc39
00000280: 5183 2ab9 5cc2 28b1 4235 0938 ccc1 1bb6
00000290: 2a9b 4930 a369 aab7 af8e 34b8 cf2d 08b8
000002a0: 6323 b134 13ce 4eb8 b008 2dba f2d9 80b7
000002b0: 8771 d9b8 a048 14b7 37a8 3f38 8d73 8135
000002c0: 14b4 cfb9 ed45 d835 202d ceb8 4fa9 eab5
000002d0: 3138 7037 a75c 0eb0 87c0 6eba bf6d 46b8
000002e0: b850 04b8 0d9c 8a35 4017 36ba 3e05 09b9
000002f0: 6ca3 d0b6 e423 2bb6 c234 d7b7 05f3 8ab9
00000300: 135c e7b5 fa02 47b9 cf94 91b3 bf13 a131
00000310: 5e03 44b6 a1a4 c530 e3bc 19b0 0438 8fb8
00000320: b6d8 c6a9 4191 23b7 109c 0335 6780 5eb9
00000330: 8207 0000 3f0d c1b8 59b1 25b9 5c1b 9838
00000340: c2a1 23b7 b4fa 1b38 bf2a 1bb8 34bc d3b4
00000350: d18b b6b4 d984 a6b9 14d3 1d39 8a73 9ab9
00000360: 661a 47ba d69b 0000 6899 1cb9 4cb4 8eb4
00000370: 6abe 0fba 6d45 7d37 41dd 5db9 1a15 982f
00000380: f7ff 1cb9 984c b537 2686 4a38 3f0a b0ae
00000390: 5dc7 e0b9 dc4e 2b37 d31e 27ba 0bb4 61b6
000003a0: cef7 1339 9e77 b0b8 58f8 1238 9652 8736
000003b0: 289a fea8 5036 54ba cca9 c0b9 8de3 0fb9
000003c0: d6df 9f33 8961 ddb6 0e17 6fb9 0e74 d6b5
000003d0: e630 e5b6 3427 e4b9 6315 5831 3985 d1b6
000003e0: d83e a6b8 a46b b3b9 c90d 18b8 8928 90b8
000003f0: 4217 1bb8 0ace 77b9 e591 9d37 17b1 8ab6

6.bias f4 [256]
-0.004137947 -0.0030348543 0.008482519 -0.00014292685 -1.3561614e-13 0.0695573 0.027931737 -0.0026398737
0.016524639 -0.0024899563 -1.326429e-06 -0.0020919482 -0.0007444604 -1.981185e-10 -7.9918365e-29 -0.00012788219
-0.09543484 -0.098987944 0.01501421 -0.0016914511 -0.001714986 -0.0024404463 7.949659e-08 -0.00016081432
0.017059803 -0.00097363075 -0.0013211179 -0.00071732554 -1.7196867e-11 -3.266794e-22 -0.000590731 -0.0015344718
-0.00081413804 -0.00237421 -0.004827236 0.00014384111 0.0017602403 -0.002574964 -4.967935e-05 -2.818098e-05
-0.059920445 -0.12285312 -8.8871417e-07 -0.0010398664 -0.0057620644 -7.225039e-07 -1.36947265e-05 -0.0011887816
0.014412008 -2.8378465e-06 -1.3211103e-16 -9.6833355e-24 -1.5165048e-10 0.020735549 -0.0009169537 -0.0016029627
-0.00010187535 -7.364411e-05 -0.0007023126 0.010624158 -1.1611069e-25 -0.009712463 -1.131039e-15 -0.004132417
-2.2431493e-06 -0.001754082 -0.0017303113 -0.00013349627 -0.000575018 -5.498473e-06 -6.065444e-05 -2.633725e-05
-0.0010578427 -1.128358e-06 -0.0027783052 -0.022212049 -0.0012922834 -0.06361718 -0.0003960647 -0.001950872
-3.5998817e-06 -2.6728974e-25 -0.07046879 -1.5421109e-10 -0.06070831 0.041490313 -0.012808951 -0.0019049766
-0.0020594248 -0.030183315 0.025363227 -2.85107e-26 0.06454813 -4.7700345e-05 -0.0014742626 -2.2214154e-11
-0.00025240448 0.028558988 0.051829256 -0.07650907 0.0074629947 -0.00016389601 -0.0004813238 0.035089735
-0.08360975 -1.4473762e-33 -0.09913921 -3.888629e-05 0.03611013 -6.312365e-08 -0.00096513407 -0.0013256895
-1.5566964e-31 -4.5306014e-16 -1.9084455e-29 0.06435362 -9.160939e-19 0.023949219 -8.093326e-05 0.021356639
-0.004923561 -2.4816147e-06 -1.9432103e-22 -0.0009727133 -9.7414086e-05 -0.0031039533 -2.9767925e-05 -3.802064e-08
-0.0027418095 -0.0011872251 -9.995928e-06 -2.9124784e-14 -1.0281443e-12 0.123587966 -0.111736946 -9.243259e-20
0.055424046 -0.0031946204 -1.4870966e-30 -1.35021184e-20 0.1608403 -0.0021008893 0.17118295 -0.021490635
-3.1870379e-12 -7.7365286e-07 -0.0016563021 -0.0010094636 -0.00032996075 -4.763382e-07 -8.07626e-28 -0.0012926729
0.01610801 -4.7730916e-13 0.07705522 0.039973255 -4.4575416e-05 -1.919707e-21 0.029459173 -0.025693575
-6.4599953e-07 0.030274946 -0.00048575015 -0.13482277 -2.069611e-25 -3.1012198e-05 -1.078694e-16 -8.6389565e-07
-0.0025432296 -4.2748495e-29 -0.059123807 0.05789433 -1.3434819e-12 -2.3402066e-24 -2.628913e-20 -0.0020783897
-2.2810853e-10 -1.55474e-14 -0.11050804 -0.030475503 -0.0018952879 -6.2150497e-07 -2.3771252e-09 -0.00013674372
0.11093055 -0.002520516 -0.03623739 0.040909573 -0.002589801 -0.003395289 -3.3994323e-07 0.019772299
0.00015183078 -2.3846825e-12 0.065827176 -3.2049618e-07 -2.979593e-18 -0.0012818114 -0.006719294 -7.6922515e-05
-3.764696e-07 -0.0020234473 -0.0010853213 -0.0010847314 -0.00075546297 0.023358863 -0.00020469625 -4.4741684e-34
-7.763909e-05 -0.00017038049 -0.00052471884 0.10302368 0.047878753 -0.0033780027 -0.000114726055 -0.015566681
-2.7650938e-14 -7.009147e-05 -5.6441985e-07 0.037086084 0.044184815 -1.525693e-09 -3.0071747e-05 -0.00090889505
-0.00016188319 0.022299655 -1.3792011e-07 0.07623318 -0.027911056 -1.28968156e-11 -5.7628116e-30 -0.0006455844
-5.4642925e-07 -0.007366209 -1.1203425e-05 -0.0019331288 -3.7767617e-08 0.022925552 -0.00026998608 -0.00181878
-7.9950674e-08 0.009721882 0.053901404 -0.029904945 -0.0018707454 0.023278935 0.06476327 -2.2612092e-09
-1.769454e-05 -0.11120196 -0.00048228484 -1.4127491e-07 -2.2728012e-05 0.044199977 0.06714389 0.03038945
00000000: 9e97 87bb 68e4 46bb 43fa 0a3c a2de 15b9
00000010: b1b0 18aa 0f74 8e3d 19d1 e43c bb01 2dbb
00000020: ae5e 873c 892e 23bb c107 b2b5 1119 09bb
00000030: e427 43ba 66d5 59af fc9d ca90 1d18 06b9
00000040: 5773 c3bd 31ba cabd 29fe 753c aeb3 ddba
00000050: 62c9 e0ba e5ef 1fbb b6b7 aa33 44a0 28b9
00000060: 00c1 8b3c 413b 7fba 5c29 adba e70a 3cba
00000070: e743 97ad 3077 c59b 49db 1aba 5420 c9ba
00000080: e16b 55ba a298 1bbb ca2d 9ebb 0ed4 1639
00000090: ddb7 e63a bac0 28bb cc5e 50b8 3266 ecb7
000000a0: 246f 75bd 6b9a fbbd f98f 6eb5 204c 88ba
000000b0: b3cf bcbb 17f2 41b5 67c2 65b7 e4d0 9bba
000000c0: 5820 6c3c d571 3eb6 4b50 18a5 8e4d 3b99
000000d0: d1bd 26af 99dd a93c b95f 70ba 811a d2ba
000000e0: e9a5 d5b8 6171 9ab8 671b 38ba f310 2e3c
000000f0: f2bc 0f96 0621 1fbc f9ff a2a6 3a69 87bb
00000100: 0389 16b6 3ae9 e5ba 9dcb e2ba 22fb 0bb9
00000110: cebc 16ba 867f b8b6 3667 7eb8 d0ee dcb7
00000120: 50a7 8aba 1672 97b5 3a14 36bb 0bf6 b5bc
00000130: d661 a9ba b949 82bd e7a6 cfb9 67b4 ffba
00000140: 7f95 71b6 c071 a596 f151 90bd 908e 29af
00000150: 47a9 78bd bff1 293d a2dc 51bc 68b0 f9ba
00000160: 6af7 06bb 0043 f7bc 8bc6 cf3c 9b2d 0d95
00000170: cf31 843d db11 48b8 0b3c c1ba d465 c3ad
00000180: 2855 84b9 8af4 e93c ea4a 543d cab0 9cbd
00000190: 238c f43b 80db 2bb9 305a fcb9 41ba 0f3d
000001a0: 973b abbd 937c f088 8009 cbbd d619 23b8
000001b0: 37e8 133d 988e 87b3 0d01 7dba c2c2 adba
000001c0: 1c12 4a8c f095 02a6 148a c18f d5cb 833d
000001d0: 0d31 87a1 2731 c43c b7ba a9b8 1ef4 ae3c
000001e0: d355 a1bb d189 26b6 72eb 6a9b affd 7eba
000001f0: ca4a ccb8 b26b 4bbb 22b6 f9b7 234c 23b3
00000200: eeaf 33bb aa9c 9bba 2fb4 27b7 972a 03a9
00000210: cdb2 90ab b01b fd3d 57d6 e4bd 1340 da9f
00000220: 5304 633d d65c 51bb 934b f18d 3d0c 7f9e
00000230: 52b3 243e 13af 09bb 954a 2f3e 210d b0bc
00000240: 9244 60ac 05ad 4fb5 4718 d9ba fa4f 84ba
00000250: 95fe acb9 6cbb ffb4 68f2 7f92 e86e a9ba
00000260: f2f4 833c c059 06ab 21cf 9d3d ffba 233d
00000270: 7df6 3ab8 890c 119d 5d54 f13c 557b d2bc
00000280: c068 2db5 2a03 f83c 48ac feb9 fb0e 0abe
00000290: 4c1a 8096 1813 02b8 dbba f8a4 75e6 67b5
000002a0: 50ac 26bb b8c2 5890 ce2b 72bd 9b22 6d3d
000002b0: 0914 bdab 9110 3598 374b f89e 9835 08bb
000002c0: d8ce 7aaf dd09 8ca8 0a52 e2bd c3a7 f9bc
000002d0: 4f6b f8ba 7fd5 26b5 d45a 23b1 dd62 0fb9
000002e0: 8e2f e33d 3e2f 25bb a86d 14bd cc90 273d
000002f0: a7b9 29bb 7f83 5ebb 7181 b6b4 84f9 a13c
00000300: c434 1f39 9fce 27ac 66d0 863d a910 acb4
00000310: ecda 5ba2 7402 a8ba 862d dcbb 7651 a1b8
00000320: 961d cab4 d09b 04bb 5741 8eba 8c2d 8eba
00000330: 430a 46ba 165b bf3c bba3 56b9 04ae 1488
00000340: 2bd2 a2b8 2aa8 32b9 498d 09ba 14fe d23d
00000350: 831c 443d 7b61 5dbb 1599 f0b8 640b 7fbc
00000360: b90e f9a8 12fe 92b8 a382 17b5 94e7 173d
00000370: 23fb 343d 8db0 d1b0 9642 fcb7 ea42 6eba
00000380: 30bf 29b9 c4ad b63c 3117 14b4 2420 9c3d
00000390: baa5 e4bc 18e2 62ad 75c4 e98e 703c 29ba
000003a0: 55ae 12b5 3d60 f1bb 58f6 3bb7 0a61 fdba
000003b0: ef35 22b3 5ece bb3c eb8c 8db9 2164 eeba
000003c0: 59b1 abb3 8748 1f3c b8c7 5c3d 37fb f4bc
000003d0: cd33 f5ba 77b3 be3c 9ba2 843d 9d63 1bb1
000003e0: bc6e 94b7 dabd e3bd 2ddb fcb9 5ab1 17b4
000003f0: 09a8 beb7 090b 353d bc82 893d 4cf3 f83c

8.weight f4 [128, 256]
2.3616e-41 -4.1979e-41 -9.434e-42 -4.7875e-41 -5.0549e-41 4.89e-43 -6.143e-42 -5.8304e-41
-6.04e-42 -5.1548e-41 2.5326e-41 6.2072e-41 1.1056e-41 4.9763e-41 1.5252e-41 5.0521e-41
6.697e-42 4.299e-42 1.2085e-41 1.1806e-41 4.7581e-41 5.5636e-41 1.2111e-41 3.2381e-41
-1.073e-42 5.5312e-41 4.7997e-41 2.6493e-41 4.8206e-41 -3.2788e-41 -5.8576e-41 8.87e-42
-8.925e-42 -2.5917e-41 -1.0578e-41 1.2153e-41 6.002e-42 3.2558e-41 1.157e-42 1.0773e-41
7.8e-43 -1.991e-42 -4.6155e-41 1.1917e-41 2.189e-42 5.452e-42 1.793e-41 -5.4907e-41
-3.129e-42 -6.777e-42 -4.1868e-41 2.142e-41 1.28e-41 1.5395e-41 3.3251e-41 -1.2899e-41
-4.2717e-41 3.508e-41 6.1993e-41 -1.0423e-41 5.1632e-41 -1.2418e-41 -5.8075e-41 -5.1484e-41
-1.048e-41 -4.4249e-41 1.3345e-41 5.102e-42 2.4789e-41 -8.7e-44 4.149e-41 5.5598e-41
4.5252e-41 -1.0922e-41 -7.898e-42 -1.5454e-41 -4.7214e-41 -1.256e-41 7.833e-42 5.393e-41
-3.9738e-41 -1.6888e-41 -1.33e-43 -1.6629e-41 1.4439e-41 -8.039e-42 1.3066e-41 -3.6898e-41
5.5539e-41 -8.75e-42 -1.6807e-41 5.6905e-41 -8.937e-42 1.1056e-41 5.0864e-41 5.1345e-41
-5.862e-42 -1.2442e-41 2.236e-42 6.237e-42 -2.913e-42 5.3817e-41 -5.9963e-41 -7.451e-42
-2.598e-42 5.4148e-41 7.022e-42 -6.0364e-41 3.034e-42 3.9156e-41 3.0293e-41 1.4883e-41
-5.7407e-41 -5.4369e-41 5.4875e-41 -3.662e-42 4.1655e-41 9.211e-42 -1.5336e-41 6.23e-42
-5.577e-41 -4.8666e-41 4.6739e-41 -1.4297e-41 -3.7527e-41 2.8434e-41 -4.3788e-41 1.1276e-41
4.9076e-41 -3.1364e-41 1.477e-42 5.2805e-41 -5.3179e-41 -7.7e-44 2.59e-42 5.9171e-41
9.56e-42 3.309e-41 1.5234e-41 -9.775e-42 -7.49e-42 -3.8991e-41 4.437e-42 4.033e-42
-4.8952e-41 -2.6653e-41 5.5256e-41 -3.9888e-41 -2.7758e-41 -1.142e-41 -5.0581e-41 5.7513e-41
-9.949e-42 -3.245e-42 -8.838e-42 1.3364e-41 2.0581e-41 -3.4095e-41 -9.439e-42 8.31e-42
-3.5592e-41 5.242e-42 1.247e-42 2.405e-42 -2.887e-42 1.1194e-41 -5.766e-42 -1.39e-42
5.5783e-41 -6.042e-42 1.9408e-41 4.619e-42 5.6077e-41 -5.4202e-41 2.6447e-41 -1.467e-41
1.6765e-41 5.6548e-41 -7.051e-42 1.0478e-41 8.24e-42 5.018e-42 2.4519e-41 3.123e-41
8.654e-42 -2.6716e-41 3.119e-42 2.2873e-41 5.3618e-41 1.7031e-41 5.28e-41 -1.4526e-41
2.1999e-41 5.1774e-41 1.0542e-41 -3.2334e-41 4.2e-44 4.648e-42 8.82e-42 5.3908e-41
5.6548e-41 -5.9666e-41 1.3953e-41 5.5985e-41 -4.564e-41 -1.791e-42 -5.7896e-41 9.98e-42
5.4045e-41 -5.2743e-41 -5.171e-42 9.42e-42 -5.552e-42 5.1786e-41 2.6081e-41 7.552e-42
-6.0889e-41 -6.1656e-41 6.0319e-41 -3.338e-42 -1.1076e-41 4.1305e-41 3.5897e-41 2.475e-42
6.1884e-41 1.525e-41 -6.1982e-41 -2.6e-43 8.666e-42 5.3524e-41 5.05e-42 3.6016e-41
-4.4748e-41 1.2006e-41 5.7116e-41 2.419e-42 -5.329e-42 -4.855e-42 -5.849e-42 2.3498e-41
4.0698e-41 5e-42 9.766e-42 -1.69e-41 -5.785e-42 -1.3639e-41 -4.236e-42 -4.6631e-41
2.8593e-41 -3.904e-42 -5.7095e-41 2.7194e-41 -4.6872e-41 -2.766e-42 9.274e-42 -3.713e-42
00000000: d541 0000 0575 0080 4c1a 0080 7585 0080
00000010: e98c 0080 5d01 0000 2011 0080 87a2 0080
00000020: d610 0080 b28f 0080 9946 0000 08ad 0000
00000030: d21e 0000 b88a 0000 842a 0000 d58c 0000
00000040: ab12 0000 fc0b 0000 b021 0000 e920 0000
00000050: a384 0000 179b 0000 c321 0000 445a 0000
00000060: fe02 0080 309a 0000 cc85 0000 da49 0000
00000070: 6186 0000 665b 0080 49a3 0080 ba18 0000
00000080: e118 0080 3f48 0080 7d1d 0080 e121 0000
00000090: bb10 0000 c25a 0000 3a03 0000 081e 0000
000000a0: 2d02 0000 8d05 0080 a980 0080 3821 0000
000000b0: 1a06 0000 330f 0000 fb31 0000 0f99 0080
000000c0: b908 0080 e412 0080 b674 0080 b63b 0000
000000d0: ae23 0000 ea2a 0000 b15c 0000 f523 0080
000000e0: 1477 0080 ca61 0000 d0ac 0000 0e1d 0080
000000f0: ee8f 0000 9e22 0080 e4a1 0080 848f 0080
00000100: 371d 0080 597b 0080 3325 0000 390e 0000
00000110: 1a45 0000 3e00 0080 a873 0000 fc9a 0000
00000120: 257e 0000 721e 0080 0416 0080 142b 0080
00000130: 9d83 0080 0323 0080 d615 0000 5696 0000
00000140: c66e 0080 142f 0080 5f00 0080 5b2e 0080
00000150: 4028 0000 6916 0080 6c24 0000 db66 0080
00000160: d29a 0000 6418 0080 da2e 0080 a19e 0000
00000170: ea18 0080 d21e 0000 ca8d 0000 218f 0000
00000180: 5710 0080 af22 0080 3c06 0000 6311 0000
00000190: 1f08 0080 0596 0000 27a7 0080 c514 0080
000001a0: 3e07 0080 f196 0000 9313 0000 45a8 0080
000001b0: 7508 0000 276d 0000 7254 0000 7d29 0000
000001c0: 07a0 0080 8f97 0080 f898 0000 350a 0080
000001d0: 1e74 0000 ad19 0000 c02a 0080 5e11 0000
000001e0: 779b 0080 a987 0080 4a82 0000 db27 0080
000001f0: 9c68 0080 434f 0000 107a 0080 6f1f 0000
00000200: ce88 0000 6e57 0080 1e04 0000 3393 0000
00000210: 3e94 0080 3700 0080 3807 0000 f2a4 0000
00000220: a61a 0000 3e5c 0000 772a 0000 401b 0080
00000230: e114 0080 b16c 0080 5e0c 0000 3e0b 0000
00000240: 7588 0080 4c4a 0080 089a 0000 316f 0080
00000250: 614d 0080 d61f 0080 008d 0080 53a0 0000
00000260: bc1b 0080 0c09 0080 a318 0080 4125 0000
00000270: 5f39 0000 0b5f 0080 501a 0080 2a17 0000
00000280: 3763 0080 9d0e 0000 7a03 0000 b406 0000
00000290: 0c08 0080 341f 0000 1310 0080 e003 0080
000002a0: 809b 0000 d810 0080 1a36 0000 e00c 0000
000002b0: 529c 0000 1897 0080 b949 0000 e528 0080
000002c0: bc2e 0000 a29d 0000 a813 0080 351d 0000
000002d0: f816 0000 fd0d 0000 5944 0000 0e57 0000
000002e0: 2018 0000 794a 0080 b208 0000 c33f 0000
000002f0: 7795 0000 7a2f 0000 2f93 0000 7e28 0080
00000300: 533d 0000 5390 0000 631d 0000 225a 0080
00000310: 1e00 0000 f50c 0000 9618 0000 4696 0000
00000320: a29d 0000 53a6 0080 e526 0000 109c 0000
00000330: 3a7f 0080 fe04 0080 64a1 0080 d21b 0000
00000340: a896 0000 0793 0080 6a0e 0080 421a 0000
00000350: 7a0f 0080 5c90 0000 b448 0000 0d15 0000
00000360: bca9 0080 dfab 0080 25a8 0000 4e09 0080
00000370: e01e 0080 2473 0000 1164 0000 e606 0000
00000380: 82ac 0000 832a 0000 c8ac 0080 ba00 0080
00000390: 2818 0000 3495 0000 140e 0000 6664 0000
000003a0: bd7c 0080 7821 0000 379f 0000 be06 0000
000003b0: db0e 0080 890d 0080 4e10 0080 8141 0000
000003c0: 7371 0000 f00d 0000 391b 0000 1c2f 0080
000003d0: 2010 0080 0526 0080 cf0b 0080 fd81 0080
000003e0: b54f 0000 e20a 0080 289f 0080 ce4b 0000
000003f0: a982 0080 b607 0080 da19 0000 5a0a 0080

8.bias f4 [128]
-3.469069e-27 -6.498092e-26 -0.00043288508 -1.4100414e-07 -6.823819e-07 0.06251814 -4.2606474e-20 -0.0013667966
0.08914583 0.2066688 0.14263606 -7.3240614e-07 0.115350135 0.09944422 -0.001872854 -7.302608e-33
0.06968294 0.19423927 -5.8310462e-08 0.14972138 0.2147326 0.1468345 0.2069181 -1.8514353e-13
-2.1111512e-06 0.09837461 -8.0695e-05 0.050130248 0.13115455 -2.322952e-33 0.039712444 -1.3811274e-07
0.12876597 -1.2795605e-05 0.07909989 -1.3940375e-10 0.13224296 0.12898819 0.16267459 -1.92489e-07
0.11513591 -0.00048025002 0.05505493 -5.235483e-09 -2.587406e-30 0.061482605 0.13284701 0.14606434
-0.0007075135 -7.939919e-11 -7.879774e-06 -0.0025447132 0.08529736 0.15408862 0.108631864 0.10491365
-0.0027139878 -4.796002e-11 -8.922916e-05 0.16922489 0.00018851159 -2.0554493e-14 -8.1806934e-07 -1.7273046e-09
0.0001940341 0.0027155764 -0.0040144455 -0.0020343196 0.19032636 0.07986681 -8.520845e-09 -0.0010166034
-4.468553e-17 0.09738113 0.13274206 0.098148555 -2.2320414e-10 0.09467963 -2.6782702e-06 0.1459422
0.121189654 0.04198727 -2.1286222e-24 0.11366371 -1.1853158e-08 -0.0007047608 -1.2784175e-28 -9.020166e-06
-5.9268665e-13 -0.0016652446 0.027384821 -2.9264334e-06 -9.3363514e-33 -5.5389568e-11 -0.0007190433 0.15297817
-1.671766e-14 -0.002999073 -6.200752e-32 -1.003123e-06 0.10679671 0.091521345 0.11809546 -7.909167e-11
-0.0009028368 0.06784177 -3.011719e-12 -1.0129657e-09 -2.6286343e-06 -2.3674087e-05 -0.00023550258 0.095248014
0.077876225 0.018077714 0.019770427 0.21710071 -9.129871e-06 0.09200542 0.12092296 0.09550612
0.09627082 -0.0003096432 -9.888382e-06 0.101104714 9.3144245e-06 -1.3530196e-05 0.19435617 0.17677763
00000000: 8a6c 8993 8de2 a095 daf4 e2b9 ec66 17b4
00000010: ed2c 37b5 8309 803d 1134 499f 1526 b3ba
00000020: 1792 b63d fca0 533e 300f 123e 919a 44b5
00000030: b13c ec3d 69a9 cb3d 8d7a f5ba 53ab 178a
00000040: eeb5 8e3d a9e6 463e 0871 7ab3 9050 193e
00000050: dde2 5b3e c85b 163e 57e2 533e fd73 50aa
00000060: 4dad 0db6 a178 c93d cc3a a9b8 6055 4d3d
00000070: 614d 063e bafb 4089 84a9 223d 244c 14b4
00000080: 3adb 033e b4ac 56b7 20ff a13d ab46 19af
00000090: b36a 073e 7b15 043e 2b94 263e f9ae 4eb4
000000a0: 60cc eb3d 11ca fbb9 4781 613d cce3 b3b1
000000b0: 52ea 518e 2fd5 7b3d 0c09 083e e491 153e
000000c0: 6d78 39ba c599 aeae 5f33 04b7 34c5 26bb
000000d0: 62b0 ae3d 68c9 1d3e 627a de3d f8dc d63d
000000e0: 29dd 31bb 2fee 52ae 8a20 bbb8 4a49 2d3e
000000f0: 32ab 4539 6f23 b9a8 4c99 5bb5 2166 edb0
00000100: a275 4b39 d0f7 313b 9c8b 83bb 3852 05bb
00000110: eae4 423e 3691 a33d 1363 12b2 8d3f 85ba
00000120: 5d13 4ea4 c26f c73d 89ed 073e 1c02 c93d
00000130: 616a 75af 65e7 c13d 55bc 33b6 df71 153e
00000140: 4832 f83d d8fa 2b3d b5b1 2498 85c8 e83d
00000150: bda2 4bb2 b2bf 38ba 050f 2291 5155 17b7
00000160: 93d3 26ab 5644 daba 2256 e03c be63 44b6
00000170: 8fe8 418a 1c9b 73ae 2e7e 3cba 4fa6 1c3e
00000180: 4d94 96a8 188c 44bb 11fb a08b 0ba3 86b5
00000190: 3cb8 da3d 8b6f bb3d 08dc f13d a7ec adae
000001a0: 5aac 6cba a0f0 8a3d 4eee 53ac 9038 8bb0
000001b0: 9867 30b6 b797 c6b7 3ef1 76b9 6411 c33d
000001c0: 927d 9f3d b717 943c 97f5 a13c a64f 5e3e
000001d0: 7f2c 19b7 566d bc3d 75a6 f73d b698 c33d
000001e0: a329 c53d 9b57 a2b9 47e6 25b7 fd0f cf3d
000001f0: 2645 1c37 c0ff 62b7 4e05 473e 3205 353e
