Models/checkpoint_vel_final_1000_800.pth (torch, 353077 bytes, 16 tensors)

0.weight f4 [32, 9]
000000 20 c5 00 3e c6 41 ff bd 5c f3 b9 be c2 1e a9 3e
       0.12575197 -0.12463717 -0.3631848 0.3303128
000010 ba 70 45 bf 0d 02 b7 3e 29 2e 3a 3c c7 e8 65 3e
       -0.7712513 0.35743752 0.0113635445 0.22452079
000020 e8 3d bc bd c5 54 1b be 12 b4 c9 3d e5 72 da 3d
       -0.09191495 -0.15169056 0.09848799 0.10666446
000030 7d 4f 55 be 5d 91 58 3f 63 4d 2e be bc 03 9f bd
       -0.20831104 0.84596807 -0.17021708 -0.07764384
000040 32 5b c5 b8 5e de 00 be 3a cd b5 3e ae 22 82 3b
       -9.4106785e-05 -0.12584826 0.35508138 0.0039714193
000050 0a c6 29 bc 1d 3b a7 be 31 e1 12 bf 95 99 97 bd
       -0.010362158 -0.32662287 -0.57374865 -0.0740234
000060 d1 3c 32 be e1 75 18 3d aa eb 31 3e 0c b0 c6 3d
       -0.17406012 0.037221793 0.17375055 0.09701547
000070 ef e1 a5 be 72 50 68 3e d1 2d b2 3e 3f f3 fc 3e
       -0.32398936 0.22686937 0.3480058 0.49404332
000080 34 d3 71 3e 44 2d 76 be ac 0a 30 be 45 67 96 bd
       0.23615724 -0.24040705 -0.17191571 -0.07343916
000090 ba fd 11 3e 98 5f 51 bd 9c d8 4d 3e c4 d8 5e be
       0.14256945 -0.051116556 0.20102161 -0.21762377
0000a0 70 22 8f 3f e6 7b 1a be a4 1c 1f 3e 43 c3 9e 3a
       1.1182384 -0.15086326 0.1553827 0.0012112636
0000b0 ed eb 71 be f8 d8 e9 3d f3 fd 40 be 87 93 9c 3d
       -0.23625155 0.11418337 -0.18846874 0.07645326
0000c0 ff 4b 7a bf 0c d0 66 3d 2a ca d5 be 70 22 dd bd
       -0.9777221 0.056350753 -0.417558 -0.10797584
0000d0 1d 4d dc 3d 6a 86 d5 bd 0f b7 7e 3e a1 fe bd 39
       0.10756896 -0.10426028 0.24874519 0.00036238602
0000e0 be d6 ab 3e ff bc 9d be 33 84 78 be ec df 22 3e
       0.33562273 -0.30808255 -0.2426918 0.15905732
0000f0 45 0e 88 be 20 42 5b 3e 67 20 93 3e 59 67 c0 3d
       -0.26573387 0.21411943 0.2873566 0.09394712
000100 d9 f9 8f be c1 45 bb be d7 76 7b 3e ca 6c 8d bd
       -0.28120306 -0.36576656 0.24557053 -0.069055155
000110 d9 b4 db bd a1 19 b5 bd 14 07 85 3d 67 c3 d5 3c
       -0.10727853 -0.08842779 0.06495491 0.026094152
000120 92 1f 0f 3e 10 c8 1b 3e d2 46 44 3e e8 7e 24 bf
       0.13976887 0.15213037 0.19167641 -0.64256144
000130 b7 65 a9 bd ec f7 d0 3d a7 ca 8c be 06 97 6e 3d
       -0.08271354 0.10203537 -0.2749836 0.058249496
000140 1f 7c 14 be 20 de 39 be c9 cc 83 3c 4d 55 17 bf
       -0.14500473 -0.1815114 0.01608886 -0.59114534
000150 48 2a c3 be 96 1c e5 3d ad 0e 54 be 1d 54 17 3e
       -0.38118196 0.11187093 -0.20708723 0.1477818
000160 10 60 91 bd cb ec 4e 3d 97 6b da 3c 16 6e 88 be
       -0.070984006 0.050518792 0.026662631 -0.2664649
000170 f1 c7 3b bd c1 6d 95 3f 04 4a 59 bf e9 01 0f be
       -0.045844976 1.1674119 -0.84878564 -0.13965572
000180 5e b9 fb 3d a3 63 fb 3d 32 8e 0b be 89 e1 42 bd
       0.12291215 0.122748636 -0.13628462 -0.04757837
000190 0c 93 91 3e fa 58 94 3d 78 41 c5 3e a4 7b 9c be
       0.284325 0.072435334 0.3852651 -0.3056308
0001a0 d3 bf 5c be 9d 91 93 be fe b2 95 3e e5 48 11 bd
       -0.2155755 -0.28822032 0.29238123 -0.03546991
0001b0 f1 a6 49 3e 9a 88 4f bd e3 50 92 bd 88 96 f2 3e
       0.1969259 -0.050667383 -0.07144334 0.4738047
0001c0 79 0b a6 3f d7 a1 16 be 6a 93 05 3d cb cf 63 3e
       1.2972251 -0.14710175 0.032611288 0.22247235
0001d0 86 d2 fc 3d b6 3b 9f 3d d1 a9 91 be b0 f1 51 bc
       0.12344842 0.07775061 -0.28449872 -0.01281397
0001e0 df 7c ce bd 20 f7 8d 3d 3c be 96 3e e7 91 0e be
       -0.10082411 0.06931901 0.29442012 -0.13922845
0001f0 84 5e 3b 3e 98 95 1f be c3 58 7a be 36 c4 4b 3d
       0.18297774 -0.15584409 -0.24447922 0.04974767
000200 48 bd 69 3e 56 4e 81 3e a7 ab 66 bf 2b cf 48 bb
       0.22826111 0.25255078 -0.9010567 -0.003064106
000210 78 bd 43 3e 01 1d c6 3d 4b 91 05 3e 5a b2 8d 3e
       0.19115245 0.09673501 0.13043706 0.27675134
000220 fd 84 ac 3e fc be 97 3e 9a 33 20 be 62 dc 6e bf
       0.33695212 0.29637897 -0.15644684 -0.9330503
000230 31 17 02 be 20 22 cf 3c 30 4f 58 be 57 56 27 3d
       -0.1270416 0.025284827 -0.21123958 0.040853824
000240 4c 9d a3 bd 84 07 0e be 7f d3 f0 3c fb 16 a4 3d
       -0.079889864 -0.13870054 0.029397724 0.08012196
000250 34 5a 1f 3c 08 8e a2 3f 2d 85 be bd c8 d7 10 3d
       0.009726096 1.2699594 -0.09302745 0.035362035
000260 38 2c 03 bd 1f 03 94 3b 51 98 ce be 7f 48 23 be
       -0.032024592 0.0045169736 -0.40350583 -0.15945624
000270 48 5f 18 bf df d0 d4 bd 26 66 a0 3d 9c e3 86 bd
       -0.5952039 -0.103914015 0.07831983 -0.06586382
000280 9b 4d 5b be c2 a8 3c 3e a0 66 37 3e 2d 93 e4 3c
       -0.21416323 0.18423751 0.17910242 0.02790221
000290 7a 37 d2 be 5c 1e cf 3e 9d c9 28 3f d8 71 76 bd
       -0.4105795 0.4045285 0.6593264 -0.060167164
0002a0 d2 3f 4b be eb f8 b5 bd a2 d4 10 be de 50 89 3d
       -0.19848564 -0.08885368 -0.14143613 0.06704877
0002b0 55 34 60 3e ca ef e6 3e 67 b4 6d 3e bd 4e fc 3d
       0.21894963 0.4510482 0.2321335 0.12319706
0002c0 9c e8 21 3e b1 a4 72 3d b7 e0 3d be a3 16 96 3e
       0.1581139 0.059239093 -0.18542753 0.29314145
0002d0 e4 b5 7d bd fc ef 9c bd 8a f6 9f be b8 0a f9 bd
       -0.061941043 -0.07662961 -0.31242782 -0.121602476
0002e0 18 da 89 bf 15 e3 e1 3d 2b 83 7f be 24 d7 dc bd
       -1.0769682 0.110296406 -0.2495238 -0.10783222
0002f0 57 c9 7e bd 44 68 91 be 32 eb bd 3c bf 69 0b be
       -0.06220373 -0.2839986 0.023183439 -0.13614558
000300 1d 5e df bd 11 bb 87 3e b3 01 32 3f 49 a8 41 be
       -0.109066226 0.26509908 0.6953384 -0.18911852
000310 0a b4 ac 3d f0 cd 28 3e fe 5b 8e 3e 15 cd 95 be
       0.08432777 0.16484809 0.2780456 -0.29258028
000320 b0 27 9b 3e 5d a6 35 bf c8 1f 5b be 1a 0b c6 bc
       0.30303717 -0.70956975 -0.21398842 -0.024175216
000330 11 6c e4 3d 53 78 b9 bd e7 f4 1e bc b8 e5 b8 bc
       0.111534245 -0.09056153 -0.009701944 -0.022570476
000340 ae ec 50 3d 36 db cb 3c ea 5f 65 3e b4 5b 31 3e
       0.051006965 0.024884801 0.2239987 0.17320138
000350 0b a2 93 be 6e cd 65 3e 49 6a 29 3e 46 5d aa 3e
       -0.28834566 0.22441646 0.16544451 0.33274287
000360 a4 a3 16 3e 6c c0 89 be 67 57 89 be 4b 94 29 3f
       0.14710861 -0.2690462 -0.26824495 0.662419
000370 1a 8d e5 3e a8 d2 3c 3e 05 4a 42 be c4 78 74 bd
       0.44834214 0.18439734 -0.18973549 -0.059685484
000380 9d 10 82 3d 37 7c 06 be 35 9f 13 be e7 9e 80 3d
       0.06350825 -0.13133322 -0.14416201 0.06280308
000390 74 03 d6 3e 9d fb 64 3f 7e 3c 9c bd 34 75 ff bd
       0.4179951 0.8944643 -0.076287255 -0.124735266
0003a0 44 1d 78 3e e8 15 87 bd 69 53 d9 bd f5 31 dc bc
       0.24229914 -0.06595975 -0.10611612 -0.02687929
0003b0 13 7d b0 be 4f b5 2f bd 1b a0 f3 3e bc 29 35 be
       -0.34470424 -0.04289752 0.47583088 -0.17691702
0003c0 42 13 aa be 4a f3 d4 3c e8 cc 0d 3e c8 42 a2 bc
       -0.33217818 0.025994916 0.13847697 -0.019807234
0003d0 8f ef 00 bd b9 24 15 3e 7b 7a 0a bf 65 0e 08 3e
       -0.03147846 0.1456479 -0.5409314 0.13286741
0003e0 55 6b 16 be 2c b0 9a 3e 94 3b 93 3e 01 d1 4c bd
       -0.14689381 0.30212533 0.28756392 -0.05000401
0003f0 27 5a a0 3e b1 0e d7 3e 7e 91 0e be 6d 4b 63 bf
       0.3131878 0.42003396 -0.13922688 -0.88786966

0.bias f4 [32]
000000 26 f2 67 3d 1e b8 1e 3e d4 cd e1 bc 34 ab b0 bc
       0.056627415 0.15499923 -0.027563967 -0.021566011
000010 03 ff 4c 3e 52 8e 75 3e 53 2a 34 3c 27 5a 2b bd
       0.20019154 0.23980072 0.010996419 -0.041834023
000020 2f 97 d1 3b a0 90 11 3e 00 e9 f0 be 86 41 24 bc
       0.0063961963 0.14215326 -0.47052765 -0.010025388
000030 c2 ea 76 3e 52 c1 38 bd b1 25 06 3a 1e 15 85 bd
       0.2411299 -0.04510624 0.0005117311 -0.064981684
000040 c0 79 c6 3e 8e 87 2d 3d 3e 29 b5 bc 24 c4 0b 3f
       0.38764763 0.042365603 -0.022114392 0.5459616
000050 c1 02 7b bd 5b e3 ec 3e bb d6 3d 3e bd db 5e 3e
       -0.061281923 0.46267208 0.18538944 0.21763511
000060 7b 80 80 be aa d6 39 be 73 87 81 3e cf 8f 16 be
       -0.25098023 -0.18148294 0.25298652 -0.14703296
000070 63 5f 49 3d d9 3c 5f 3d f3 2f 26 bd 53 5b 63 be
       0.049163233 0.05450139 -0.04057307 -0.22202806

2.weight f4 [64, 32]
000000 76 ca df 3d 9a 99 45 3e 92 2e c9 bd 7f f1 fb bd
       0.10927288 0.19296876 -0.09823336 -0.12301921
000010 15 97 15 3e ef 50 2f be 1d 22 b8 bd c9 6c 3f bd
       0.14608414 -0.17120717 -0.089908816 -0.046734605
000020 3a 54 2b be 4b ed f5 bd f0 45 7c bd f5 1b 45 3e
       -0.16731349 -0.12008151 -0.061590135 0.19248946
000030 02 84 f3 bc 89 e1 6c be 97 6c 16 3d 32 86 b2 3c
       -0.029726032 -0.2313291 0.036724653 0.021792505
000040 31 28 da 3c 66 2a ee 3c 12 c8 00 3e 06 d1 7b 3d
       0.026630493 0.029072952 0.12576321 0.061478637
000050 78 58 fc bc a9 52 98 bd 94 5d 9e bd 9f d5 c5 3d
       -0.030803904 -0.07437641 -0.07732692 0.096598856
000060 ab 2c 54 3d bf 77 1e be f9 5f 67 3d 4c 43 db bc
       0.05180041 -0.15475367 0.05648801 -0.026765488
000070 84 5d 04 be 0d 33 41 3c 11 91 18 3e 6a 3a 82 3c
       -0.12926298 0.011791957 0.14899088 0.015896995
000080 69 eb 93 be 2c 51 b9 3c 1a 26 41 ba ad c7 47 3e
       -0.2889054 0.022621714 -0.00073680433 0.19509764
000090 ca d4 66 3e d8 25 bc 3d df 8a 88 bd 4c 7f b3 3d
       0.2254211 0.091869056 -0.066671126 0.08764514
0000a0 f3 af a4 bc d1 92 b6 be 19 78 25 3e 8b 7e 36 3d
       -0.02010343 -0.35658887 0.16159095 0.044554275
0000b0 ca 2d 02 3e 0c 4a 4d bd 7c 14 5e be 3e e5 99 be
       0.1271278 -0.050119445 -0.21687502 -0.3005771
0000c0 2f f3 17 be 66 a5 d0 bd b2 72 11 be d4 ff 11 3e
       -0.14838861 -0.10187797 -0.14203909 0.14257747
0000d0 00 aa 44 bb 55 2e 55 bd f5 62 a4 3c 0f dd 01 3e
       -0.0030008554 -0.05204614 0.020066718 0.12681983
0000e0 e1 31 c2 3c 90 ac 7b 3e 33 eb 99 3d 54 39 c6 3c
       0.023705425 0.24577546 0.07515564 0.024197258
0000f0 9d 75 a4 3e 47 fe 5e bd 20 63 d1 3d 44 d2 ef 3d
       0.32120982 -0.054441717 0.10223985 0.11710027
000100 91 a0 18 be 9b 71 8d bd b2 41 86 3d d5 c0 b1 3d
       -0.14905001 -0.06906434 0.06555499 0.08679358
000110 6d 51 9b bd 57 75 aa bd aa ff c0 bc 43 05 11 3e
       -0.0758389 -0.08323162 -0.02355941 0.14162163
000120 35 73 fa bb b9 f7 d0 bc 19 ae c5 3e 25 97 e7 bc
       -0.0076431283 -0.025508748 0.38609388 -0.028270314
000130 65 6c bc 3e 35 02 89 bc 57 41 76 3e a1 73 b9 bd
       0.36801448 -0.016724685 0.24048363 -0.090552576
000140 ef 89 96 bd 39 da ff 3c fa 2b 04 3e ce 23 a3 be
       -0.073505275 0.031231986 0.129074 -0.31863254
000150 9a 49 03 3e 7d 09 20 3d 35 10 4b be 93 b8 fc bc
       0.12821046 0.03907155 -0.19830401 -0.03084973
000160 ce 92 84 3e 3c 1f c6 bd b7 c9 f9 3b 87 07 55 3e
       0.25893253 -0.09673926 0.0076229232 0.20803653
000170 6b f7 59 bc 23 ae 7e bd d6 2b 51 3e e5 fd 7f 3e
       -0.013303618 -0.06217779 0.20426878 0.24999197
000180 5c c3 c0 bd 3c b2 03 3e c7 42 20 3d c8 db 89 bd
       -0.09412262 0.1286096 0.039126184 -0.06731373
000190 31 c3 26 be f5 ba 6f 3e d8 6a 19 3e 80 4d 91 3c
       -0.16285397 0.23411162 0.14982164 0.01773715
0001a0 dd 13 31 3e 06 66 15 3e 32 30 43 bd df ee d2 bd
       0.17292733 0.145897 -0.047653385 -0.10299467
0001b0 d1 fe 24 3d 3a d0 a5 3d 21 27 4e 3d e9 9f 3b be
       0.040282074 0.08096357 0.050330285 -0.1832272
0001c0 d7 d7 3a be b8 51 8d 3e 2c 80 20 bc e7 21 b8 bd
       -0.18246399 0.2760141 -0.009796184 -0.08990841
0001d0 b1 a9 de 3b 0b 6d 6d be da 8e 13 3e f3 1e 03 bd
       0.006795131 -0.23186128 0.14409962 -0.032011937
0001e0 ef 98 23 be 17 47 37 3e e4 75 7e be 93 3c be 3c
       -0.15976308 0.17898212 -0.24849659 0.023222243
0001f0 2d f7 64 bd b2 2f 1e 3d 20 40 49 be 1c e0 4c be
       -0.055899788 0.038619705 -0.19653368 -0.20007366
000200 9d d1 e0 3d 96 ac a2 bc 6c be 0f 3e 86 70 eb bc
       0.109774806 -0.019857686 0.14037484 -0.028740179
000210 9b 22 9b bc e0 d6 7c be 10 1e 69 3e 0d 65 8a 3d
       -0.0189374 -0.24691343 0.22765374 0.06757555
000220 6f bd 6b be 78 94 05 bd a2 ce ea 3d 7a a1 18 be
       -0.23021482 -0.032612294 0.11465193 -0.14905348
000230 fb 51 08 3c cd f0 5e bc 4e b8 94 3d d6 03 a0 bd
       0.008320327 -0.013607216 0.07261716 -0.07813232
000240 29 dd 3e 3e c7 a4 e3 3d 51 d8 3c be 8f 37 de bc
       0.18639053 0.11115413 -0.18441893 -0.027126102
000250 78 ab 02 3e 42 7a 3c be cb e7 b8 3c 52 65 cb bd
       0.12760723 -0.18406013 0.022571465 -0.09931435
000260 61 15 d8 3d 15 72 79 3d 8d 70 26 bc 48 49 69 3e
       0.10550953 0.060899813 -0.01015867 0.22781861
000270 a6 8c 2f bd 87 61 93 3d 37 68 c2 3d 8d be 85 be
       -0.042858742 0.07196336 0.09492534 -0.2612194
000280 24 d2 5f 3d f6 76 bb 3d e7 87 5d bc 1e c9 9e 3d
       0.054643765 0.091535494 -0.013521171 0.07753204
000290 b0 5a 50 3e ca 87 26 be d9 69 59 bd bc 06 38 be
       0.20347095 -0.16262737 -0.05307946 -0.17971319
0002a0 6b 33 68 3d c6 bc ae 3c 2f 20 1c 3d 8b 34 da 3d
       0.05668966 0.021330249 0.03811663 0.10654553
0002b0 4b 92 56 3c 9c 02 55 bc b5 43 49 3d c7 77 83 3e
       0.013096402 -0.01300111 0.049136836 0.2567732
0002c0 7d a8 f6 3d 70 3a 13 3d 4e 4f d9 bd f9 d4 b5 3d
       0.12043855 0.035944402 -0.10610829 0.08878512
0002d0 b1 db 93 bd 01 f9 3d 3d 12 dd 8e be 2b b5 99 3d
       -0.07219637 0.046380047 -0.27903038 0.07505258
0002e0 5f 48 3f be 59 d6 23 be 6c 16 6b be 45 9c 17 be
       -0.18679951 -0.15999736 -0.22957772 -0.14805706
0002f0 19 80 fc 3c f5 fa 15 3e a0 d3 b9 3c 48 e4 a8 3d
       0.0308228 0.14646514 0.022683918 0.08246666
000300 9a a2 4e 3e 04 4e 2f bc d8 25 74 3e 1e 67 ec bd
       0.20179215 -0.010699753 0.23842561 -0.115431055
000310 e9 ae 3c be 57 28 77 be 06 8e 27 be 26 d7 7c 3d
       -0.18426098 -0.24136482 -0.16362771 0.06172862
000320 ef a1 af bd de 3c 03 be 68 3b 94 3e 86 9b fd bd
       -0.08575808 -0.12816188 0.28951573 -0.12383179
000330 35 b8 ad be dc 49 0c be 85 73 d0 3c 01 cf 98 3e
       -0.339296 -0.1370005 0.025445709 0.2984543
000340 ea f1 c1 bd a6 31 7a bd 8f cd 88 3d 25 4e ed 3d
       -0.094699696 -0.061082505 0.06679832 0.115871705
000350 e6 b2 9e 3d 5a 60 9c bc 51 24 73 3d 83 97 da bd
       0.07748966 -0.019088913 0.059360806 -0.1067343
000360 89 19 f7 3d 50 a6 b3 bb 59 2c 2b be 11 02 4f bc
       0.12065417 -0.0054824725 -0.16716136 -0.01263477
000370 ea 65 16 be b6 c0 d1 bc 2f 55 0e 3d 2e d9 98 bd
       -0.14687315 -0.025604587 0.034749206 -0.07463299
000380 b8 3e 65 3c 3d cf 9f bd 67 df 61 bd 66 d4 4c 3e
       0.013992004 -0.078031994 -0.055144694 0.20002899
000390 7d 15 99 bd 75 d7 1b be 56 6c 3d 3e f8 f8 bc bd
       -0.07474802 -0.15218909 0.18498358 -0.092271745
0003a0 f3 17 c9 3d b7 c2 55 bd 73 09 d1 bd 5d 3d 0b be
       0.09819021 -0.052187648 -0.102068804 -0.13597627
0003b0 22 ae ab 3e d1 40 d4 3d e1 db e3 bd 5c 87 2f be
       0.3353129 0.10363925 -0.11125923 -0.17141479
0003c0 48 f7 d2 3e 42 bc d4 3c a7 89 1d bd 9b 2f 9c 3d
       0.41204286 0.025968675 -0.038461354 0.076262675
0003d0 4f 77 41 bd 9a 33 db bc 81 97 07 bd 32 07 ae 3c
       -0.047232922 -0.026758004 -0.03310347 0.021243665
0003e0 af ed bd 3d ca 11 31 be 3b 5c 37 3d 59 06 90 bd
       0.0927385 -0.17291942 0.044765692 -0.07032461
0003f0 a9 1f 57 3d 5e 2e 49 3d 11 03 b7 bd a1 64 2d bd
       0.052520428 0.049116485 -0.08936132 -0.042332295

2.bias f4 [64]
000000 e7 ea 42 3e 66 a1 15 be d5 02 ba be ac 62 df 3d
       0.1903492 -0.1461235 -0.36330286 0.10907492
000010 17 5a 1d 3e 2d da 03 bc 58 75 8f be 86 38 d9 bb
       0.15366398 -0.008047623 -0.28019214 -0.0066290526
000020 8d 61 04 be 73 92 a2 3d 6d 56 e3 3d e1 7d 5b 3d
       -0.12927838 0.07938089 0.11100469 0.053586844
000030 8f 76 00 be 2e d8 09 be 86 c7 73 be 6c cb 82 be
       -0.12545227 -0.13461372 -0.23806581 -0.25545824
000040 07 10 bd 3e f7 0c 9a be 2f 10 35 3d 65 28 7e be
       0.3692629 -0.30088016 0.044204887 -0.24820097
000050 6c e5 6e 3e c1 84 0d 3d 88 41 50 3d 6c a6 c4 bd
       0.23329705 0.034550432 0.050843745 -0.09602055
000060 79 36 f4 bd 70 88 2d be 65 a3 83 3d 60 59 53 bd
       -0.11924452 -0.16946578 0.064276494 -0.051598907
000070 47 6e 99 3d 3a bd c4 bd a9 93 90 be d8 2d de bc
       0.07491737 -0.096064046 -0.28237656 -0.02712147
000080 29 3f fe bd 19 17 33 3e bf 2f 50 3e da 75 fe 3d
       -0.124143906 0.1748928 0.20330714 0.12424822
000090 c4 54 21 bc a7 09 6b be e5 4c 6d bc bf 0f 49 bd
       -0.00984687 -0.22952901 -0.014483665 -0.049087282
0000a0 5d 33 d7 bc 83 cb 57 be 01 29 1c 3e de 81 07 3e
       -0.02626961 -0.21073727 0.15250017 0.13233134
0000b0 8b 44 19 be 76 62 dd 3d ab 37 a2 3d 9e c5 1f 3c
       -0.14967553 0.108097956 0.07920774 0.009751705
0000c0 b1 29 1c bd 83 96 9c 3d 3a c3 ec 3b 4b cf 69 3e
       -0.038125698 0.07645895 0.0072254213 0.22832982
0000d0 ad 52 40 3e 67 02 6a 3e a2 78 ee bd 3b 43 99 3e
       0.18781538 0.22852479 -0.11644103 0.29934105
0000e0 da 64 92 3d 75 e8 f4 3c 8e 35 42 bd 22 c2 93 bc
       0.07148142 0.029896 -0.047414355 -0.018036906
0000f0 b0 10 67 bd 40 80 d6 3d 79 8c 60 be e7 39 d8 bd
       -0.0564124 0.104736805 -0.21928586 -0.10557919

4.weight f4 [128, 64]
000000 59 c2 1f 3e bf f1 f5 bd d6 63 56 bd 11 ae 89 3b
       0.15601481 -0.12009 -0.052341305 0.0042016585
000010 3d e8 0e bc d0 93 ce 3d b2 1e aa 3d bc 9b f5 bc
       -0.008722362 0.10086787 0.08306636 -0.029981486
000020 4a a0 4e 3c c4 b9 1e be 25 62 6b 3d 3e b0 e8 bc
       0.012611458 -0.15500551 0.057466645 -0.028404351
000030 ac 6e 04 be 66 26 24 bd 91 7c 59 bd 23 40 7f bd
       -0.12932843 -0.040075682 -0.05309731 -0.062317025
000040 47 15 71 3b 51 3a fb bd 4e b0 17 bd 55 ec 40 bd
       0.0036786364 -0.12266982 -0.03703337 -0.047100384
000050 98 ce ea 3d 0c 26 e6 3d 42 f2 52 bc 49 c7 83 3d
       0.11465186 0.112377256 -0.012875142 0.06434495
000060 78 0c b9 3d 84 39 56 bd 8d 28 84 bd a7 95 0d 3d
       0.09035581 -0.052300945 -0.06453047 0.034566548
000070 57 ab 86 bd 4a 90 8d 3b 95 04 d0 3d 44 9a 2b bd
       -0.06575649 0.004320179 0.10157124 -0.041895166
000080 e2 a3 cd 3d dc 91 62 3d af 36 28 be 1d 67 6e bd
       0.10041024 0.055314884 -0.1642711 -0.058203805
000090 4d d2 4a bc f7 0a a6 bc 30 b6 da 3d 4b 37 e5 3c
       -0.012379241 -0.0202689 0.10679281 0.027980467
0000a0 58 b8 c6 3d f2 2a 44 be e9 53 97 3d 6d 63 96 bd
       0.097031295 -0.19157007 0.073890515 -0.07343183
0000b0 68 94 99 bd 1b fe bb bd 1b 4d 34 bd 92 25 0c bc
       -0.07499009 -0.09179326 -0.044018846 -0.008553879
0000c0 e8 dc e7 3d 57 a4 07 3e 10 b4 29 bd 4b 20 76 3d
       0.113214314 0.13246284 -0.041431487 0.06008939
0000d0 e5 99 eb bd 2a 51 9e 3c 06 12 76 bd d2 ed 22 bd
       -0.115039624 0.019325811 -0.060075782 -0.039777584
0000e0 db 7d d7 3d d1 f5 d1 3d f8 bb b4 3c 4d be 32 3d
       0.10522052 0.10251964 0.022062287 0.043638516
0000f0 78 71 0a 3e c0 23 72 bd c2 25 21 be 73 61 22 3d
       0.13519847 -0.059116125 -0.1573706 0.039643716
000100 c1 3d dd ba 68 13 69 ba 16 1a a1 ba c4 12 b5 ba
       -0.0016879366 -0.00088911364 -0.0012291099 -0.0013814797
000110 a0 75 b1 b9 fb 0c 5e ba aa 5b f6 38 99 27 c8 3a
       -0.00033847708 -0.0008470562 0.00011747268 0.001527059
000120 1f a5 ea 38 38 d4 15 bb 84 ac 96 ba dd a8 7d b9
       0.00011188746 -0.0022862088 -0.0011495505 -0.00024190867
000130 58 3c b1 38 e5 66 b8 3a 42 5a 73 39 68 15 25 39
       8.4512576e-05 0.0014068751 0.0002320791 0.000157436
000140 88 84 35 38 c4 ff 2f bb 88 9b 41 ba d8 93 6a ba
       4.3277192e-05 -0.002685533 -0.00073855417 -0.0008948422
000150 bd 74 47 bb ac 0d d4 b5 01 50 7e ba c9 d2 6d ba
       -0.0030434572 -1.579921e-06 -0.00097012526 -0.0009072242
000160 0f d4 14 3a e3 3b 87 b7 ea 8f 83 bb 3a 33 cf b9
       0.0005677351 -1.6121141e-05 -0.0040149586 -0.00039520283
000170 16 e6 4b bb f8 f2 08 bb e2 62 c6 ba 69 94 11 ba
       -0.0031112484 -0.0020896774 -0.001513567 -0.0005553426
000180 ad e1 32 bb e2 f7 5c ba 68 09 b4 b8 46 a2 d8 ba
       -0.0027295158 -0.00084292714 -8.584821e-05 -0.0016527853
000190 86 f4 fd ba 09 ec 0f bb cc 82 99 37 e0 cb 6b ba
       -0.0019375242 -0.0021960756 1.8299928e-05 -0.00089949183
0001a0 50 a6 ff ba 01 bd 56 bb f0 18 3b ba a2 1a 89 ba
       -0.0019504521 -0.0032766464 -0.00071372 -0.0010460208
0001b0 c8 9d 5d 3a 8a fd 9d b9 4e 6f 2e 3a 8d a9 57 b9
       0.0008453992 -0.00030134275 0.0006654159 -0.0002056716
0001c0 02 39 ce b7 54 45 3d ba 34 3f b9 b7 ac 57 96 b9
       -2.458366e-05 -0.00072201085 -2.208315e-05 -0.0002867555
0001d0 24 22 c6 ba e0 62 c5 b6 51 d9 3d 3a 48 b4 23 bb
       -0.0015116376 -5.882568e-06 0.00072421605 -0.0024979282
0001e0 64 b6 eb ba 49 96 f5 b8 e9 2a 6e 38 74 c8 29 bb
       -0.0017983434 -0.00011710503 5.6783585e-05 -0.0025906833
0001f0 f8 12 58 ba b3 b8 6e ba 75 ee ce b9 30 e0 28 b9
       -0.00082425727 -0.0009106502 -0.00039469046 -0.00016105245
000200 12 ef 28 3d 89 2c 90 3d aa 7e b6 bd d1 ae 16 bd
       0.04124362 0.070397444 -0.08910878 -0.03678781
000210 aa 71 19 bd f7 c8 73 bc 2f d1 11 3c f2 84 75 3d
       -0.037461914 -0.014879457 0.008899971 0.05994124
000220 2f 59 5d bc d2 af a7 3c 45 eb 7e 3d 71 54 04 3d
       -0.013510033 0.02046958 0.06223609 0.032307092
000230 79 5f cd bd d4 6d 50 3b 25 f7 05 be 74 09 7d bd
       -0.100279756 0.0031803744 -0.1308256 -0.061776593
000240 11 27 bb 3d 9e c2 87 3c 50 57 01 be c7 e2 2f bd
       0.09138311 0.016572293 -0.12630963 -0.04294088
000250 40 db ba bc 7b 89 59 bc db f3 8d 3d 5a 87 b0 bd
       -0.022809625 -0.013277407 0.06931277 -0.08619566
000260 dd 6f 50 bd 28 1c 33 bc 7f f0 93 bd 96 5f 8c bd
       -0.05088793 -0.010932006 -0.07223605 -0.06854169
000270 56 25 c9 bc 31 e6 03 3d be 35 d3 bd 83 35 86 bd
       -0.024553936 0.03220195 -0.10312985 -0.06553175
000280 a2 1d af 3c 9f 9e b0 3c b2 52 e8 bd d0 91 50 bc
       0.021376435 0.021560011 -0.11343898 -0.012730077
000290 90 bb 6f bd c5 d5 0c 3d 81 3f d5 3c 72 36 a6 bc
       -0.058528483 0.034383554 0.026031258 -0.020289633
0002a0 a9 ff 7b bd ea 5a 1b bd 6f b9 3c bd 40 79 e6 bd
       -0.061523113 -0.0379285 -0.04607528 -0.11253595
0002b0 c5 09 05 3e d3 13 7a 3d 43 2d b9 3d 9a 2a c7 bd
       0.12992008 0.061054062 0.09041836 -0.097249225
0002c0 59 de 83 bd ce f7 1a be 0a 02 54 3d e3 17 09 3e
       -0.06438894 -0.15133592 0.051759757 0.13388018
0002d0 bd 88 33 3d 2d 4c 3f 3e 70 1d 48 be 55 80 7a bd
       0.043831576 0.18681403 -0.1954248 -0.061157543
0002e0 bd f3 bc bd 0e 7a a8 bd e3 90 c1 3c b1 c0 eb bd
       -0.09226177 -0.08226405 0.023628658 -0.11511362
0002f0 f5 44 57 3d fd 1a 6a bc 29 54 bf 3d 90 36 37 bd
       0.052555997 -0.014288661 0.09342224 -0.04472977
000300 b6 f2 41 3c 4d c3 f6 bc 21 38 1c 3a 93 07 08 3e
       0.011837652 -0.030122424 0.00059592916 0.1328414
000310 82 51 9c 3d 53 09 65 3c 2b 73 96 3c 0e fc 72 bc
       0.07632734 0.013979274 0.018365463 -0.014830602
000320 86 e1 b3 bd c8 d2 33 be 68 00 55 3e 6d a8 a0 bd
       -0.087832496 -0.17560875 0.20800936 -0.07844625
000330 33 ae 03 bc a9 f0 97 be 90 45 8a ba 5e 42 cc bd
       -0.008037138 -0.29675797 -0.0010549296 -0.09973596
000340 aa ac a9 bd 7e e2 99 3c 0c 74 76 3c b4 d2 4a 3d
       -0.08284886 0.018784758 0.015042316 0.04951735
000350 5b fd 60 3d 60 95 1a bd 1a 08 a3 bd 2a e3 1d 3d
       0.05492912 -0.03774011 -0.079605296 0.03854672
000360 06 4f 17 3d ca d6 a3 3d d6 35 d1 3d bd 6b ba bd
       0.036940597 0.07999952 0.102153465 -0.09102581
000370 e1 3c e4 3d 91 c7 bc 3d 0d 33 46 bd 72 03 1a bd
       0.11144424 0.09217752 -0.04838853 -0.037600942
000380 7b 71 0a be 3f 92 9e bd 23 c6 82 3d d8 2a 3a 3e
       -0.13519852 -0.07742738 0.06385448 0.18180406
000390 b1 eb 0c 3e 65 89 eb 3d f7 5b a9 3c dc ea 2e 3d
       0.13761784 0.11500815 0.020673735 0.042704448
0003a0 8b f9 47 3b a8 a5 0d 3d b0 71 30 3c 0a be 25 3e
       0.003051373 0.03458181 0.010769293 0.16185775
0003b0 a9 a1 14 bd ed 66 d7 bd 51 4e 8e bd 21 6f 4e be
       -0.036286984 -0.105176784 -0.069485314 -0.2015958
0003c0 be 18 92 3d 17 a3 37 bb 85 25 89 3c de 8a c6 3a
       0.071336254 -0.0028020793 0.016741524 0.0015147587
0003d0 3c fc df 3d 46 70 a8 bc 65 b7 8f 3d 43 4c b1 bd
       0.10936782 -0.020561349 0.070174016 -0.08657124
0003e0 a4 9d c9 3c 8a 2d 93 bd 32 7b f5 bd 3f 38 b6 3d
       0.024611302 -0.0718642 -0.11986388 0.08897447
0003f0 6c 1f 12 38 b7 48 3a bd 9b 5a f8 bd 19 7f 96 3c
       3.4838376e-05 -0.045479503 -0.121266566 0.018371152

4.bias f4 [128]
000000 3c d6 81 3c 05 8d 8c bb 7a 48 28 3e d2 2a 36 3d
       0.015849225 -0.004289272 0.16433898 0.04447443
000010 c0 a4 5e 3d 04 59 39 be 9e 0d 9f 3d da ff c0 bd
       0.054356337 -0.18100363 0.07766269 -0.094238
000020 04 b1 7c bd 52 3a fe bc 6e 30 57 bb c0 10 92 3d
       -0.061692253 -0.031033669 -0.0032835263 0.07132101
000030 bd 67 0e be 5e 98 b2 3d ef bd 1d 3d e5 1a 0b ba
       -0.1390676 0.08720468 0.038511213 -0.0005306437
000040 76 c1 0a 3d c9 9b 6b 3d 03 56 46 3d 98 21 dc bd
       0.033875905 0.057521615 0.04842187 -0.10748595
000050 78 a7 b5 3c 9b 96 4c bc b0 bf 19 be 4a e2 07 bd
       0.022174582 -0.012487079 -0.15014529 -0.03317479
000060 f4 bb f9 bd 8a f7 ff 3c ab 5e a9 bc 53 21 98 ba
       -0.12194052 0.031245966 -0.020675024 -0.0011606611
000070 03 9a 11 3d ef 8b b4 3c 0b 9e c4 3d de 37 e6 bc
       0.035547268 0.022039382 0.09600457 -0.028102811
000080 32 19 03 3e 3e 96 cf bd 9d 6c 85 bc 64 82 8c bd
       0.1280258 -0.10136078 -0.016287142 -0.068608075
000090 3f 7c 42 3d d7 7d e0 bd 36 d6 cd bc fb 64 33 bd
       0.04748177 -0.10961502 -0.025126558 -0.043797474
0000a0 02 4f 19 bd 78 57 5b 3d f2 ba 6e 3d 6f 24 29 bd
       -0.037428863 0.053550214 0.058283754 -0.04129451
0000b0 a4 91 88 3e 5b 9e 5d 3c 21 d1 72 bd eb 76 9b bb
       0.26673615 0.013526524 -0.059281472 -0.0047444007
0000c0 d4 cd 63 3d dc e4 97 bd 60 d2 4d 3c 7e 0a d0 3d
       0.055616215 -0.07416698 0.012562364 0.10158251
0000d0 f4 4c 80 3d fd a4 99 3d 40 0b d8 3c 99 f7 12 3d
       0.06264678 0.07502172 0.026372552 0.03588066
0000e0 66 c8 af bd 57 a4 ed bb 53 1f ee 3d c5 19 07 bd
       -0.08583145 -0.007252257 0.11627068 -0.03298356
0000f0 d9 f7 96 bd 2a 33 e7 bd 6a 98 1f bd 8b c5 cc bd
       -0.07371492 -0.11289056 -0.038963713 -0.09998616
000100 5b 6d 7b bc 85 1f 45 bc 1c f0 80 3b 88 80 a6 bd
       -0.015345897 -0.012031441 0.0039348733 -0.08129984
000110 cc a9 b0 3c 9c c6 89 3d 1e 31 8d 3c bb 9f 7c bc
       0.02156534 0.06727335 0.017235335 -0.015418942
000120 52 ff 0e bb 04 ea cd bd 8b 0d 90 3c 31 47 0e 3d
       -0.0021819663 -0.100544006 0.017584583 0.034735862
000130 d6 c7 2c a6 45 f7 7a 3d 21 0d 17 be 8e f9 69 bc
       -5.9945316e-16 0.06127097 -0.14751102 -0.01428069
000140 59 15 8f 3d 89 e4 cd 3d 0a 9e b6 bd 21 74 4c 3d
       0.069864936 0.10053355 -0.08916862 0.049915437
000150 60 9b 55 bd 23 18 14 3d 6e 3b 48 bd c8 5a 4c 3e
       -0.05215013 0.03615583 -0.0488848 0.19956505
000160 8c 4b 05 3e 37 1c 4b b5 5e c3 af 3c 7f 06 3e bd
       0.130171 -7.566445e-07 0.021455463 -0.046392914
000170 25 66 18 3e fb 31 44 3e 34 f6 6d 3c 4c ef 2b bd
       0.14882715 0.19159691 0.014524031 -0.04197626
000180 d0 7c ea b1 70 b1 42 be 88 6a ed 3c 43 8c 7a 3d
       -6.824486e-09 -0.19013 0.028981462 0.06116892
000190 8c 67 8d 3d f9 a8 e4 bb 08 22 9e 3d 38 40 1e 3e
       0.069045156 -0.006978151 0.07721335 0.15454185
0001a0 47 6f f9 bd 6d bd be 3d 27 25 2c bb bf f2 5b bd
       -0.121794276 0.09313474 -0.0026267262 -0.053698298
0001b0 db 2b 08 3d 5a 1a 74 3d 8d a7 d2 bc 1a 97 99 ba
       0.03324495 0.059595443 -0.02571466 -0.0011718005
0001c0 b6 a4 43 bd 18 c6 d8 3c 28 8c 9a bc 4b e7 5b bd
       -0.047764502 0.026461646 -0.01886566 -0.053687375
0001d0 29 92 3a 3d 2e f7 d2 3d 11 89 3d bb 9a 1f fb 3c
       0.045549545 0.10301052 -0.002892081 0.030654717
0001e0 ab bf 45 3d fd 64 24 3c 32 8d 8c 3d 83 1d 60 bd
       0.048278492 0.010033843 0.06862868 -0.054715645
0001f0 37 37 57 3d e2 0e a2 3d d6 c3 05 3d d2 75 13 be
       0.05254289 0.07912995 0.032657467 -0.14400414

6.weight f4 [256, 128]
000000 f5 01 00 00 2f ab 00 00 19 0d 00 00 27 0a 00 80
       7.02e-43 6.1409e-41 4.699e-42 -3.642e-42
000010 94 09 00 80 56 0f 00 00 63 0f 00 80 c1 0f 00 80
       -3.436e-42 5.501e-42 -5.52e-42 -5.651e-42
000020 29 0f 00 80 a4 00 00 80 08 06 00 80 bf 0f 00 00
       -5.438e-42 -2.3e-43 -2.164e-42 5.649e-42
000030 75 10 00 00 19 07 00 80 25 0c 00 80 6f 0b 00 00
       5.904e-42 -2.546e-42 -4.357e-42 4.102e-42
000040 10 13 00 80 ef 02 00 00 de 14 00 00 55 00 00 80
       -6.838e-42 1.052e-42 7.486e-42 -1.19e-43
000050 e8 11 00 00 5b 15 00 80 b8 00 00 00 c7 0a 00 00
       6.424e-42 -7.661e-42 2.58e-43 3.866e-42
000060 0a 07 00 00 b3 0b 00 80 b8 20 00 80 17 08 00 00
       2.525e-42 -4.197e-42 -1.1737e-41 2.902e-42
000070 8d 14 00 80 0c 09 00 80 b6 0f 00 00 36 05 00 00
       -7.372e-42 -3.245e-42 5.636e-42 1.87e-42
000080 5e 05 00 00 de 08 00 00 a8 13 00 00 35 17 00 00
       1.925e-42 3.181e-42 7.051e-42 8.325e-42
000090 0a 18 00 80 1d 16 00 80 1b 1c 00 80 9b 04 00 00
       -8.624e-42 -7.933e-42 -1.0082e-41 1.652e-42
0000a0 b7 11 00 80 35 07 00 80 78 0a 00 00 ca 15 00 80
       -6.355e-42 -2.585e-42 3.755e-42 -7.816e-42
0000b0 c4 01 00 80 62 06 00 00 3d 0b 00 00 c3 12 00 00
       -6.33e-43 2.29e-42 4.032e-42 6.73e-42
0000c0 6f 18 00 00 6e 02 00 00 59 10 00 80 5d 17 00 00
       8.765e-42 8.72e-43 -5.864e-42 8.381e-42
0000d0 65 10 00 00 02 1a 00 00 c2 12 00 80 37 0f 00 80
       5.881e-42 9.33e-42 -6.729e-42 -5.458e-42
0000e0 39 10 00 00 da 03 00 00 1b 12 00 80 31 13 00 80
       5.82e-42 1.382e-42 -6.495e-42 -6.885e-42
0000f0 76 08 00 80 99 06 00 00 1b 17 00 00 4d 0b 00 00
       -3.035e-42 2.367e-42 8.289e-42 4.054e-42
000100 06 19 00 00 7a 10 00 00 bd 01 00 00 a1 10 00 80
       8.977e-42 5.91e-42 6.24e-43 -5.965e-42
000110 4b 1f 00 00 c9 08 00 00 77 0a 00 00 70 10 00 00
       1.1226e-41 3.152e-42 3.754e-42 5.897e-42
000120 cf 11 00 80 77 02 00 00 ad 17 00 80 95 1e 00 80
       -6.389e-42 8.84e-43 -8.493e-42 -1.0971e-41
000130 70 5d 00 80 4d 12 00 00 62 0d 00 80 ab 07 00 00
       -3.3519e-41 6.565e-42 -4.801e-42 2.751e-42
000140 a4 02 00 00 62 11 00 80 c0 07 00 00 53 01 00 80
       9.47e-43 -6.236e-42 2.78e-42 -4.75e-43
000150 f6 1c 00 80 44 11 00 00 c9 09 00 80 e2 04 00 80
       -1.0389e-41 6.194e-42 -3.51e-42 -1.752e-42
000160 22 14 00 00 b4 ab 00 80 c4 12 00 80 5a 14 00 00
       7.222e-42 -6.1595e-41 -6.732e-42 7.301e-42
000170 e5 0a 00 00 f1 05 00 80 e9 0c 00 00 d7 1a 00 80
       3.908e-42 -2.131e-42 4.631e-42 -9.628e-42
000180 0d 9e 00 00 30 13 00 80 bb 03 00 80 33 1f 00 80
       5.6698e-41 -6.883e-42 -1.338e-42 -1.1192e-41
000190 bd 12 00 00 58 04 00 00 a3 0e 00 80 05 11 00 00
       6.722e-42 1.558e-42 -5.25e-42 6.105e-42
0001a0 d2 14 00 00 63 12 00 80 24 6a 00 80 30 0f 00 00
       7.469e-42 -6.596e-42 -3.8076e-41 5.448e-42
0001b0 ef 25 00 80 b6 11 00 80 db 02 00 00 4e 00 00 80
       -1.3608e-41 -6.353e-42 1.024e-42 -1.1e-43
0001c0 b8 13 00 80 d6 0f 00 80 3d 02 00 80 28 00 00 00
       -7.074e-42 -5.681e-42 -8.03e-43 5.6e-44
0001d0 fc 08 00 80 a6 03 00 80 16 01 00 80 69 19 00 80
       -3.223e-42 -1.309e-42 -3.9e-43 -9.115e-42
0001e0 74 07 00 80 28 01 00 00 a7 16 00 00 8a 09 00 80
       -2.674e-42 4.15e-43 8.126e-42 -3.422e-42
0001f0 07 03 00 80 19 12 00 80 5d 00 00 80 9d 0b 00 00
       -1.086e-42 -6.492e-42 -1.3e-43 4.166e-42
000200 b7 0b 00 80 0b 0a 00 00 83 05 00 00 e1 12 00 80
       -4.202e-42 3.603e-42 1.977e-42 -6.772e-42
000210 c5 56 26 03 6c 3d 43 19 24 0f 00 00 b9 2e 1a 08
       4.888262e-37 1.0093668e-23 5.431e-42 4.639761e-34
000220 25 ac 57 81 01 11 00 80 dd 31 c1 a7 37 c4 27 92
       -3.961277e-38 -6.1e-42 -5.3622323e-15 -5.293776e-28
000230 19 48 36 31 d6 e4 4e 9b fa a5 28 a9 bd 53 00 80
       2.6525468e-09 -1.7113861e-22 -3.7447455e-14 -3.004e-41
000240 68 b6 e5 90 b8 02 00 80 25 bc 84 1a 16 1b 30 9d
       -9.0605615e-29 -9.75e-43 5.4897884e-23 -2.330741e-21
000250 a6 cb 25 8d 4a 69 c7 1f eb bb 73 a2 19 db 75 27
       -5.1089683e-31 8.4453964e-20 -3.3032124e-18 3.4119353e-15
000260 20 35 0e 80 d0 12 00 80 2c 10 00 00 eb 07 00 00
       -1.304755e-39 -6.749e-42 5.801e-42 2.84e-42
000270 48 02 00 00 d1 25 00 80 72 e2 b2 2c 82 f3 91 a9
       8.18e-43 -1.3566e-41 5.0842048e-12 -6.4815354e-14
000280 9b 47 68 9d df 06 8b 80 b0 0c 00 00 81 0e 00 80
       -3.0741963e-21 -1.2767599e-38 4.551e-42 -5.203e-42
000290 87 0b 00 80 06 ab 5f 98 d8 07 00 80 6d ba 72 a4
       -4.135e-42 -2.890842e-24 -2.814e-42 -5.2633294e-17
0002a0 2d 03 00 00 67 6f 39 9e 99 97 b3 21 b8 0e 98 9e
       1.139e-42 -9.816856e-21 1.2169639e-18 -1.6099714e-20
0002b0 a8 12 00 00 27 90 ea 13 5e 07 00 80 36 3e 72 0a
       6.693e-42 5.921205e-27 -2.643e-42 1.1663577e-32
0002c0 5c 00 00 00 26 13 00 00 c0 0c 00 00 11 11 12 90
       1.29e-43 6.869e-42 4.574e-42 -2.880657e-29
0002d0 cd 06 00 80 c2 0c 00 00 54 03 00 80 72 96 09 00
       -2.44e-42 4.577e-42 -1.194e-42 8.80489e-40
0002e0 63 a8 d3 a4 81 07 00 80 73 13 14 b2 03 11 00 80
       -9.179192e-17 -2.692e-42 -8.619156e-09 -6.103e-42
0002f0 45 10 87 95 a0 d5 fb 97 45 bc 3b a4 43 10 d4 ac
       -5.4551735e-26 -1.6274421e-24 -4.0708632e-17 -6.027208e-12
000300 c7 07 00 80 ba 11 9a 81 6f 06 00 00 8a e4 1a 9d
       -2.79e-42 -5.65961e-38 2.308e-42 -2.0499882e-21
000310 00 13 00 80 ac 04 00 00 69 c1 b5 13 1f c3 ca 04
       -6.816e-42 1.676e-42 4.588154e-27 4.7669162e-36
000320 f7 0b 00 00 fb 1f 00 00 79 09 00 80 55 44 b9 0e
       4.292e-42 1.1472e-41 -3.398e-42 4.5671822e-30
000330 77 76 00 80 ba f7 8e 07 cf eb a2 af 09 2b c6 84
       -4.2497e-41 2.1511386e-34 -2.963518e-10 -4.6589098e-36
000340 60 11 00 80 db 7b 0e 27 e3 72 8f 1d 1d 03 00 00
       -6.233e-42 1.97736e-15 3.7970575e-21 1.117e-42
000350 6c 07 00 00 21 d4 81 23 8c c9 62 a5 87 79 c8 a9
       2.662e-42 1.4076048e-17 -1.9670662e-16 -8.902866e-14
000360 d5 3c 4d 2b 45 78 00 80 25 e1 c0 a7 60 0d 00 80
       7.291505e-13 -4.3145e-41 -5.3534807e-15 -4.798e-42
000370 91 5b 1c a3 f4 75 a4 10 ea ef 29 a8 84 06 00 80
       -8.476167e-18 6.486833e-29 -9.433408e-15 -2.337e-42
000380 05 82 00 00 5d 89 53 b0 89 78 ff 9f e7 01 00 00
       4.6642e-41 -7.695656e-10 -1.0819611e-19 6.82e-43
000390 f0 9d d4 07 20 75 00 00 87 a0 0c aa bb c0 3e 2b
       3.1991042e-34 4.2017e-41 -1.2490192e-13 6.7769027e-13
0003a0 76 cd 80 ac 13 0c 1c 9f 63 7f 00 00 e4 d9 a0 83
       -3.6607896e-12 -3.3044273e-20 4.5698e-41 -9.45398e-37
0003b0 8e 00 00 80 2e 27 f6 16 e0 08 00 00 a1 7b e0 8c
       -1.99e-43 3.976817e-25 3.184e-42 -3.458707e-31
0003c0 db 02 00 00 e7 e8 e5 a0 71 89 49 30 fd 01 00 00
       1.024e-42 -3.894823e-19 7.331869e-10 7.13e-43
0003d0 9a b2 22 0b 62 3f 89 aa 8f 0f 00 00 cc 60 33 1e
       3.133443e-32 -2.438007e-13 5.581e-42 9.496198e-21
0003e0 cc 11 00 00 c1 05 14 a3 9b 56 a9 8c fc c1 29 1c
       6.384e-42 -8.0243145e-18 -2.6090697e-31 5.616813e-22
0003f0 58 08 00 00 38 64 5e a3 c2 f7 89 8f c2 1f 2e 98
       2.993e-42 -1.2055866e-17 -1.3604676e-29 -2.2505007e-24

6.bias f4 [256]
000000 ce 61 65 a1 09 2d 23 b8 be 42 30 bd 1e 47 8a 9c
       -7.771766e-19 -3.890417e-05 -0.0430324 -9.150457e-22
000010 43 f6 a1 9f 9d 0b 4f 3d 4b e6 bd 3c 72 3d c7 b5
       -6.859356e-20 0.050548185 0.023181101 -1.4844538e-06
000020 9e 2b d7 3b fc 43 a5 ba a5 82 27 bb c7 ed 91 b7
       0.006566479 -0.0012608762 -0.0025560048 -1.739607e-05
000030 99 c4 10 a8 3f e4 13 a7 7a 07 52 9d 50 e8 b1 ba
       -8.036236e-15 -2.052408e-15 -2.7797134e-21 -0.0013573263
000040 6f b5 4a bd 29 43 36 bd 0d c7 e8 b0 85 d9 11 bb
       -0.049489435 -0.044497643 -1.6936795e-09 -0.0022254896
000050 c9 be 98 b6 d6 ac 2f ba 4d dc 68 b9 78 f8 05 b5
       -4.5521633e-06 -0.0006701475 -0.00022207313 -4.990793e-07
000060 89 96 8d 3a c2 a7 07 b0 38 a7 90 bb a2 e2 4a b2
       0.0010802309 -4.935111e-10 -0.0044144653 -1.1809478e-08
000070 04 c4 4c bb ce b9 2a b7 ef 4d c8 b9 86 c8 a7 b9
       -0.0031244764 -1.0176051e-05 -0.00038205038 -0.00032002124
000080 1d ca fa b8 8b eb 33 b7 d1 c9 97 bb 4e 03 12 bd
       -0.000119585755 -1.0724073e-05 -0.0046322127 -0.035647683
000090 e6 e3 04 bc 45 94 bb ae 62 b3 85 a7 16 e0 04 b5
       -0.008110976 -8.5301134e-11 -3.7109403e-15 -4.949992e-07
0000a0 7c b1 39 bb 02 66 99 ba 71 ae 79 b0 ff d9 39 bc
       -0.0028334549 -0.0011703374 -9.083357e-10 -0.011343478
0000b0 83 37 73 ba 3e 0d bc ba dc 80 d5 91 d2 30 33 a4
       -0.0009277986 -0.0014347208 -3.368489e-28 -3.885579e-17
0000c0 df 87 5c bb 5a 70 f4 ba d9 f8 a4 b4 38 12 6e bb
       -0.0033650321 -0.0018649206 -3.072844e-07 -0.0036326777
0000d0 92 d4 ce b0 d1 2c c9 ba 81 ef ab bb 96 50 9b ad
       -1.5048889e-09 -0.0015348439 -0.005247057 -1.7657247e-11
0000e0 91 57 85 bb 61 31 51 ba 3a 87 f1 ae e7 9d fc bc
       -0.0040692766 -0.00079800753 -1.0983432e-10 -0.030837012
0000f0 bd c8 22 97 ea 7e 18 8f a4 7e 10 94 05 b5 19 b5
       -5.259839e-25 -7.518621e-30 -7.2951176e-27 -5.726036e-07
000100 7f ac 92 b8 f0 9e 5f 91 9e b8 19 bb 3f 64 25 bb
       -6.9939524e-05 -1.7640575e-28 -0.0023455988 -0.0025236753
000110 d0 72 81 b7 dc 08 cd ba ef 0c 83 ba 92 38 90 bb
       -1.5431462e-05 -0.0015642899 -0.0009998361 -0.004401275
000120 bc 2e d3 ab 85 b8 9e ab 3b 62 a2 95 3e 6b e6 a5
       -1.5005423e-12 -1.127779e-12 -6.558626e-26 -3.997131e-16
000130 63 3b 51 bb f4 d5 1e bd a8 39 ef b3 56 91 01 ba
       -0.0031926266 -0.03877826 -1.11397924e-07 -0.0004942616
000140 a4 cc 18 ae 07 fa 0c b9 23 9e 45 ba c9 d9 75 bb
       -3.4742556e-11 -0.00013444583 -0.0007538518 -0.0037513843
000150 c1 38 a3 bd 28 c5 31 bb d9 e2 94 ad 54 e5 8c bb
       -0.07969809 -0.002712557 -1.6926393e-11 -0.004299799
000160 c3 39 d4 b5 e1 52 65 bb f1 ea 07 ae 12 dd 51 bb
       -1.5812042e-06 -0.0034992027 -3.0904116e-11 -0.0032022637
000170 a9 f9 a4 3c 00 55 49 ba d0 8a ed ba 5e 18 73 a8
       0.020138578 -0.00076802075 -0.0018123034 -1.34944935e-14
000180 f7 fd 07 87 aa fe 1f a3 c2 65 f3 ad 90 4d 03 be
       -1.0230905e-34 -8.6733345e-18 -2.7671091e-11 -0.12822556
000190 21 0f ea 3c e6 06 b6 b0 ee ec 1c b2 e4 4d 8f 3c
       0.028571667 -1.3244204e-09 -9.134267e-09 0.017493196
0001a0 d3 62 10 bd fb 5a 0a bb 14 97 83 bd 62 18 22 bb
       -0.035250496 -0.0021111357 -0.064253 -0.0024733772
0001b0 4b f5 3c 3c 19 18 08 9e d1 25 c2 b8 50 56 8b bb
       0.011533092 -7.204763e-21 -9.257685e-05 -0.0042522326
0001c0 e9 d4 e1 ba 8b 7e a6 b9 4f d0 58 bb 0e 81 75 3d
       -0.001722959 -0.0003175627 -0.0033083146 0.05993753
0001d0 fb cf 81 ba ad 5b 55 ba 90 93 18 a7 b8 50 31 b9
       -0.0009903902 -0.0008138966 -2.1174231e-15 -0.00016910105
0001e0 91 f5 df ba 52 70 28 ac a3 94 4c 99 b5 06 28 a0
       -0.0017086734 -2.3936586e-12 -1.057657e-23 -1.4232373e-19
0001f0 ae c9 0b ba 22 65 06 94 78 25 3d aa a4 99 01 b9
       -0.0005332482 -6.785216e-27 -1.6799572e-13 -0.00012359634
000200 16 16 22 ba d6 91 03 b7 fc 6a fb ad d4 31 dd b3
       -0.00061831006 -7.8421635e-06 -2.8582907e-11 -1.0300178e-07
000210 ba 49 f3 b7 f5 ac 02 a3 c0 12 4e be b2 4b e6 ad
       -2.9002189e-05 -7.083939e-18 -0.2012434 -2.6181588e-11
000220 da a4 00 bb 7e 3b 4e b7 9d 70 b4 b7 a2 2e 1e b8
       -0.001962951 -1.2292408e-05 -2.1510112e-05 -3.7713566e-05
000230 98 e0 3f 9c bf c1 65 ba 50 83 1e 3c c4 2e 8b 3c
       -6.348688e-22 -0.0008764527 0.009674862 0.016990073
000240 da 18 78 bb 77 38 39 86 8b 39 b0 b4 87 a8 ba 8d
       -0.003785661 -3.4836117e-35 -3.2824423e-07 -1.15037065e-30
000250 5b da 22 bb 6a e9 3a b9 66 21 15 bb a2 fb 65 b9
       -0.0024849388 -0.00017825296 -0.0022755503 -0.00021932882
000260 b2 16 81 3c 94 9b c9 b8 be cc b9 3d 7d 1a 36 3d
       0.015757892 -9.6134056e-05 0.090722546 0.044458855
000270 02 51 48 ba 04 46 40 b2 5f 51 4e bb e0 f6 bc 3c
       -0.00076414656 -1.1191791e-08 -0.0031481606 0.023066938
000280 0e fa f0 39 14 e1 cb ba 50 cb d4 ba 43 5f 94 bd
       0.00045962672 -0.0015554749 -0.0016234908 -0.07244732
000290 e4 95 47 9c 2f 9b 27 b9 e6 1c 6d b8 3b e7 b6 bb
       -6.6037306e-22 -0.00015984171 -5.6532117e-05 -0.005581764
0002a0 d3 10 14 b2 73 b2 d4 ae c6 7a 85 bd 3b 01 15 bc
       -8.618559e-09 -9.672343e-11 -0.06517558 -0.009094532
0002b0 47 1c 2c bb 41 39 aa b0 f2 f7 a1 bb b8 3c be b5
       -0.0026261972 -1.23854e-09 -0.0049428875 -1.4173775e-06
0002c0 b7 21 7e bb 74 ef 48 b3 dc 41 cd bc e7 20 15 bd
       -0.003877742 -4.678391e-08 -0.025055818 -0.03640833
0002d0 96 47 b2 bb 19 52 c8 aa 99 cb 35 ba e6 1e 44 a6
       -0.0054406626 -3.5584103e-13 -0.00069349405 -6.8043035e-16
0002e0 04 c2 02 3c 21 ad b6 ba af 6f 8b 3c db 34 80 b9
       0.007980827 -0.0013937094 0.017021028 -0.00024453443
0002f0 61 2c 41 ba 73 9f cf ba b2 6e e4 8b 0f 20 23 b8
       -0.00073689787 -0.0015840366 -8.798896e-32 -3.8892085e-05
000300 81 67 4b bb 64 80 e1 b6 c8 83 4a bb 32 72 7a bb
       -0.0031037035 -6.720469e-06 -0.0030901302 -0.0038215038
000310 e9 c2 3f ba b3 12 f7 b8 f1 95 60 bc 91 f0 72 b9
       -0.00073151157 -0.00011781361 -0.013707624 -0.00023168536
000320 9a 1e 0c b9 9e e9 a5 b9 dc a3 df a6 2a 6c 20 b6
       -0.0001336284 -0.0003164531 -1.5518148e-15 -2.3904818e-06
000330 d4 de 38 b1 e4 fc 58 aa 9c 5f b3 b7 7b 2a 87 b8
       -2.6902187e-09 -1.9272393e-13 -2.1382984e-05 -6.445214e-05
000340 7f f9 8d ba 8c a9 26 bb 67 12 60 9b 98 76 ce 3c
       -0.0010831802 -0.0025430648 -1.8534792e-22 0.025203034
000350 c1 c3 df 3b fa d8 ea b9 3b f8 ad a1 08 25 14 a4
       0.0068287556 -0.00044793618 -1.1788642e-18 -3.212375e-17
000360 6f 5e c5 bb c6 c6 0a 8f 0e 9c 7e bb 87 8d e8 3c
       -0.0060232203 -6.842208e-30 -0.003885034 0.028387798
000370 74 6c 2f b9 1e b8 66 b0 8a bd 10 b8 4d c9 55 2e
       -0.00016729702 -8.393516e-10 -3.4508797e-05 4.8609384e-11
000380 d9 2e 8c b8 61 95 2b 3c b1 25 fb b7 2f d2 49 3d
       -6.684446e-05 0.010472626 -2.9939083e-05 0.049272712
000390 a1 44 40 bc 49 43 45 ba 76 61 32 9b ba 92 02 ac
       -0.011735112 -0.000752498 -1.4755306e-22 -1.855556e-12
0003a0 4f 31 51 9d 8e 87 71 bc 59 dc f5 b9 12 91 06 b9
       -2.7686412e-21 -0.014741791 -0.00046894213 -0.00012833279
0003b0 f8 e8 0c bb 77 b7 d8 bc c3 c6 a0 ba f8 c0 41 bb
       -0.0021501165 -0.02645467 -0.0012266267 -0.0029564481
0003c0 a3 87 3d bb f5 c1 d5 b9 f0 f0 f3 3c d3 ef 55 ba
       -0.0028919957 -0.00040771035 0.029777974 -0.0008161042
0003d0 25 3f 22 b9 15 97 7b bd f4 38 8b 3c 8d 24 1b bb
       -0.00015473047 -0.06142338 0.01699493 -0.002367291
0003e0 62 84 1d 99 a4 5b 84 bb 71 39 04 b8 3d dd 3a 99
       -8.143444e-24 -0.0040392447 -3.152475e-05 -9.660653e-24
0003f0 32 f2 a4 b4 e7 59 dc b8 08 5c 9e 94 2c 60 1d 3d
       -3.07236e-07 -0.00010507163 -1.5990223e-26 0.038421795

8.weight f4 [128, 256]
000000 2c 22 00 80 58 17 00 00 92 ab 67 36 60 15 00 00
       -1.2259e-41 8.374e-42 3.452155e-06 7.668e-42
000010 01 1f 00 80 9c 85 f6 b8 9a 87 10 b8 ef 0a 00 00
       -1.1122e-41 -0.00011755081 -3.4458564e-05 3.922e-42
000020 a3 46 ec b5 93 19 00 00 94 c7 f3 2a b0 aa 00 00
       -1.7603928e-06 9.174e-42 4.3303956e-13 6.1231e-41
000030 14 1d 00 80 5b 9b 00 80 89 20 00 80 79 07 00 00
       -1.0431e-41 -5.5731e-41 -1.1671e-41 2.68e-42
000040 28 95 dc b8 8b ba 0c b9 62 05 00 80 be 62 8b 10
       -0.000105182 -0.00013420933 -1.931e-42 5.497797e-29
000050 53 8b 00 00 cb 5f 00 00 a9 02 00 80 f2 8c 00 80
       4.998e-41 3.4364e-41 -9.54e-43 -5.0562e-41
000060 60 c7 24 b7 a8 9e 00 00 9c 24 00 00 ea 22 00 00
       -9.821582e-06 5.6915e-41 1.3133e-41 1.2525e-41
000070 4a 2c 92 12 28 eb 04 30 eb 8f 00 80 41 5d 4d b7
       9.224813e-28 4.83555e-10 -5.1628e-41 -1.2240665e-05
000080 d5 ca 02 10 4c 20 00 80 b1 77 af 1e 2f 35 94 b5
       2.5794236e-29 -1.1586e-41 1.8578349e-20 -1.1042338e-06
000090 b8 d2 5a 33 6e 68 00 00 b2 b0 de 86 8a 00 00 00
       5.0948728e-08 3.7462e-41 -8.376675e-35 1.93e-43
0000a0 16 27 00 00 34 09 00 80 a8 3f 00 00 f1 ef 45 b5
       1.4021e-41 -3.301e-42 2.2836e-41 -7.373738e-07
0000b0 8d 05 00 80 8a da 13 19 d7 32 00 80 89 91 00 00
       -1.991e-42 7.6438555e-24 -1.8238e-41 5.2208e-41
0000c0 bd 8d 21 b6 5d 06 00 80 48 79 00 80 36 43 00 00
       -2.4073372e-06 -2.283e-42 -4.3508e-41 2.4111e-41
0000d0 13 3f 00 00 2b ba ad b5 32 e4 4f 34 1f 9a fe 8c
       2.2627e-41 -1.2943686e-06 1.9361394e-07 -3.9227655e-31
0000e0 07 16 00 00 9e ad 00 80 15 4a 00 80 41 ef ab b6
       7.902e-42 -6.2282e-41 -2.6576e-41 -5.12405e-06
0000f0 bf 3c 00 00 40 a8 00 00 73 9a 00 80 66 56 00 80
       2.1792e-41 6.0357e-41 -5.5406e-41 -3.0994e-41
000100 76 2d 00 80 f4 97 00 00 ed 05 00 00 64 68 ea 35
       -1.6308e-41 5.451e-41 2.126e-42 1.746474e-06
000110 b4 6a 00 80 85 97 00 00 62 09 00 80 5a 81 e0 31
       -3.8278e-41 5.4355e-41 -3.366e-42 6.5339636e-09
000120 ff ab 00 00 1a 53 00 00 d4 24 2b 8e ce 3e 00 80
       6.17e-41 2.9811e-41 -2.109511e-30 -2.253e-41
000130 b0 d0 00 00 6c 03 84 b4 c2 2a 00 00 a9 96 00 00
       7.4863e-41 -2.4589406e-07 1.5339e-41 5.4047e-41
000140 b6 19 00 80 b1 6e 00 00 77 1d 00 80 62 c1 df a0
       -9.223e-42 3.9709e-41 -1.057e-41 -3.790564e-19
000150 4e ad ea b6 0d 01 00 00 82 a5 00 00 9e f5 02 32
       -6.9939188e-06 3.77e-43 5.9373e-41 7.622843e-09
000160 c7 05 00 80 9c 1a 00 80 f4 91 00 80 4e a4 0b 85
       -2.073e-42 -9.546e-42 -5.2358e-41 -6.5659266e-36
000170 67 f5 b9 b6 ec 9f 00 00 32 47 00 00 92 3a 22 22
       -5.5419982e-06 5.7369e-41 2.554e-41 2.19861e-18
000180 b8 3b 00 00 44 02 00 80 61 11 00 00 0b 67 94 36
       2.1423e-41 -8.13e-43 6.234e-42 4.4227395e-06
000190 f5 e9 19 b7 f0 a2 00 00 d7 22 00 00 ba 47 4a b6
       -9.173983e-06 5.8451e-41 1.2498e-41 -3.0142096e-06
0001a0 52 77 f5 35 01 98 1b 8f c7 10 5e b5 a8 3b 0b 8b
       1.8288649e-06 -7.671365e-30 -8.272586e-07 -2.6815307e-32
0001b0 84 43 57 36 8e 67 00 00 4f 45 00 80 eb ab f5 a0
       3.2076796e-06 3.7148e-41 -2.4863e-41 -4.161838e-19
0001c0 9b 0e 00 00 4e 04 00 00 08 2a 00 80 67 8f 20 b7
       5.24e-42 1.544e-42 -1.5078e-41 -9.570132e-06
0001d0 07 80 00 80 63 22 84 36 7d 4b 00 00 33 0b 0c b7
       -4.5928e-41 3.9379097e-06 2.708e-41 -8.347258e-06
0001e0 18 54 00 80 20 55 00 80 ba 9e 00 80 a2 3f 00 00
       -3.0167e-41 -3.0537e-41 -5.694e-41 2.2827e-41
0001f0 44 84 00 00 84 a2 00 80 ff 3c 00 80 fc 03 00 80
       4.7448e-41 -5.83e-41 -2.1881e-41 -1.43e-42
000200 f9 58 00 00 2d 05 00 00 cd 9f 00 80 e1 05 00 00
       3.1917e-41 1.857e-42 -5.7326e-41 2.109e-42
000210 9f 42 00 00 28 29 00 00 63 7b 8b b6 e2 6c 00 00
       2.3899e-41 1.4764e-41 -4.156887e-06 3.906e-41
000220 df a4 9e 1e 25 73 61 9e 61 74 00 80 11 a2 00 00
       1.679709e-20 -1.1935212e-20 -4.1749e-41 5.8138e-41
000230 04 11 00 00 6a 13 00 80 7e 47 79 b4 47 b5 b4 b6
       6.104e-42 -6.964e-42 -2.3215941e-07 -5.3855215e-06
000240 eb de 43 9f ae 94 00 80 5e 15 00 00 b7 26 00 80
       -4.147725e-20 -5.3336e-41 7.665e-42 -1.3888e-41
000250 3e 32 af a9 dc a2 00 00 c7 08 00 80 c4 76 b0 1d
       -7.780277e-14 5.8423e-41 -3.149e-42 4.6709613e-21
000260 bf 3b e2 b6 40 25 00 80 bf 79 e1 b7 17 95 01 b7
       -6.74228e-06 -1.3363e-41 -2.6878783e-05 -7.723712e-06
000270 9d e6 83 b3 f5 3e 96 29 43 02 00 00 78 b2 ee b6
       -6.142111e-08 6.6722595e-14 8.11e-43 -7.113729e-06
000280 16 b6 15 34 0c 05 00 00 ef 0c 00 80 9a ab 89 b8
       1.3942949e-07 1.81e-42 -4.64e-42 -6.564632e-05
000290 62 48 00 80 83 39 00 80 82 05 00 00 ce 7f 26 9f
       -2.5966e-41 -2.0631e-41 1.976e-42 -3.5257585e-20
0002a0 6e a0 00 00 cf 48 00 00 cb 8e 3a b6 a5 5f 13 b2
       5.7551e-41 2.6119e-41 -2.7799276e-06 -8.578273e-09
0002b0 7c 81 37 b6 57 ad 00 00 d8 51 a6 35 58 87 00 00
       -2.7344495e-06 6.2183e-41 1.2391783e-06 4.8552e-41
0002c0 7b 93 03 0c 77 73 8c 9e a3 3a d1 b8 19 4a 1f b7
       1.0136254e-31 -1.4870832e-20 -9.9768185e-05 -9.494391e-06
0002d0 fb 42 35 0c eb a1 00 80 a8 ac 00 00 52 a2 00 00
       1.3963889e-31 -5.8085e-41 6.1937e-41 5.823e-41
0002e0 0e 0c d8 b6 22 a1 00 00 3a ed 34 36 c7 91 00 00
       -6.438705e-06 5.7804e-41 2.6960174e-06 5.2295e-41
0002f0 bc c9 d8 ae 70 11 04 9a 80 89 00 80 f7 a1 00 00
       -9.858378e-11 -2.7311046e-23 -4.9326e-41 5.8102e-41
000300 31 4c 91 04 b4 0f 00 00 b8 18 ff ab 8a e4 e5 35
       3.4159307e-36 5.633e-42 -1.8125701e-12 1.7128343e-06
000310 f8 3e 00 00 c9 ac 00 80 bd 82 03 b5 fa 99 d5 34
       2.2589e-41 -6.1984e-41 -4.899155e-07 3.9786374e-07
000320 da 44 00 80 3f dc 47 b1 01 3e 00 00 f8 21 00 00
       -2.4699e-41 -2.9083507e-09 2.2243e-41 1.2186e-41
000330 52 0f 00 00 5b 79 00 80 34 72 00 00 48 93 00 00
       5.496e-42 -4.3534e-41 4.0968e-41 5.2835e-41
000340 61 08 00 80 a6 01 00 80 86 23 00 80 e2 1e 1d b6
       -3.006e-42 -5.91e-43 -1.2743e-41 -2.34128e-06
000350 5e f9 88 b6 03 86 00 80 50 ac 00 00 72 1a 00 80
       -4.082146e-06 -4.8074e-41 6.1814e-41 -9.487e-42
000360 da 1c e1 2b b3 45 00 80 75 06 00 80 5f 5b 01 b7
       1.599522e-12 -2.5003e-41 -2.316e-42 -7.710273e-06
000370 38 13 00 80 af 7c 00 00 53 94 00 80 6f 20 4a a5
       -6.894e-42 4.4728e-41 -5.3209e-41 -1.7531696e-16
000380 0b 4d 00 00 20 f4 6d 36 3a 6e 0a 04 73 0a bc 36
       2.7638e-41 3.5457851e-06 1.6272436e-36 5.604053e-06
000390 d6 dd 1e b7 21 2e 00 80 f2 1f 00 00 32 59 00 80
       -9.469184e-06 -1.6548e-41 1.146e-41 -3.1997e-41
0003a0 1f a2 00 80 52 ce f6 b5 29 38 00 00 7e 98 00 00
       -5.8158e-41 -1.8388475e-06 2.0146e-41 5.4704e-41
0003b0 c9 10 f3 34 57 92 22 35 0b 26 00 80 8d 9b 4a b7
       4.527449e-07 6.0562655e-07 -1.3647e-41 -1.2076355e-05
0003c0 61 21 00 00 94 24 00 00 76 61 1b b6 18 68 b3 b6
       1.1974e-41 1.3122e-41 -2.315353e-06 -5.346734e-06
0003d0 ad 2b 00 00 33 54 aa b5 84 7b 10 b6 bd 88 37 ac
       1.5668e-41 -1.2690492e-06 -2.1529568e-06 -2.608177e-12
0003e0 00 31 00 00 c3 3d ae aa b3 00 00 00 78 99 00 00
       1.7578e-41 -3.0951465e-13 2.51e-43 5.5054e-41
0003f0 c0 94 00 80 66 7d 00 00 84 08 00 80 b3 75 80 b7
       -5.3361e-41 4.4984e-41 -3.055e-42 -1.5313597e-05
