Models/checkpoint_vel_final_1000_100.pth (torch, 353077 bytes, 16 tensors)

0.weight f4 [32, 9]
0.123338334 -0.10490055 -0.27142984 0.24920666 -0.6728685 0.29810256 0.025882268 0.17571576
-0.10047416 -0.11030201 0.031878132 0.06447862 -0.12714408 0.47765473 -0.108003244 -0.05649636
-0.020308727 -0.06483038 0.31517214 0.06103996 0.028185276 -0.25792286 -0.49474433 -0.10733514
-0.1452681 0.012616162 0.1613355 0.13026583 -0.36681762 0.25943995 0.1942756 0.40955403
0.13314442 -0.26691127 -0.18554492 -0.08983744 0.1685305 -0.074610904 0.22970606 -0.24366428
1.080052 -0.18726282 0.19282141 -0.0065524774 -0.24282339 0.1312572 -0.19619732 0.15965514
-0.6470224 0.010487663 -0.3680007 -0.11267852 0.09048315 -0.09290084 0.2690763 0.07338523
0.24600948 -0.39660588 -0.08532952 0.13321292 -0.26743597 0.22048621 0.24770986 0.1628228
-0.23425943 -0.25000706 0.14354655 -0.2597602 -0.2352477 -0.13098468 0.14323005 -0.06449139
0.15387578 0.108510956 0.1744284 -0.45935982 0.15516914 0.15390188 -0.30192047 0.11048737
-0.17826664 -0.20977397 -0.06458082 -0.42124042 -0.120026864 -0.21165192 -0.19860701 0.19710961
-0.066370524 0.09835034 0.06037933 -0.24358872 0.016897738 0.71384543 -0.45868036 -0.13197395
0.13696764 0.086919576 -0.13944532 -0.08433459 0.18463573 -0.056665257 0.4277731 -0.23507208
-0.2164176 -0.3380475 0.31243706 0.00062421506 0.2284839 0.0040292987 -0.0015721392 0.48659527
1.1310112 -0.23392823 0.04202709 0.21801609 0.15392148 0.11344986 -0.2735517 -0.0750655
-0.28775495 0.12672828 0.2376516 -0.18358462 0.1855942 -0.18055251 -0.27418754 -0.007146872
0.26530433 0.5424005 -0.9299406 0.06390144 0.25078744 0.14879788 0.14848094 0.2634051
0.25945783 0.22531831 -0.23921183 -0.72656745 -0.15598224 -0.0062388033 -0.22576575 0.07795075
0.00930062 -0.10782272 0.05902466 0.17193198 0.0166518 0.6664272 -0.08947115 0.17401387
-0.024095973 -0.018365042 -0.33658123 -0.20139202 -0.5791699 -0.20056103 0.07735671 -0.0938211
-0.25092152 0.1046215 0.14697646 0.08495673 -0.34123406 0.39348298 0.4985481 -0.13088831
-0.21461552 -0.08519544 -0.083559945 0.07303105 0.13031061 0.31681472 0.38843122 0.28590208
0.18905415 0.036482073 -0.18214333 0.27287194 -0.0825844 -0.04199024 -0.3091743 -0.036889125
-0.73468256 0.18189289 -0.3323735 -0.1498321 -0.031473555 -0.22670093 0.02816277 -0.1667429
-0.12354264 0.34643614 0.44723204 -0.16717276 0.09257927 0.16060907 0.30017263 -0.3044088
0.24425705 -0.6108703 -0.009537995 -0.14810789 0.104387045 -0.06422906 -0.017013943 -0.03235256
0.087912 0.19755544 0.23041576 -0.031455968 -0.27042478 0.22935122 0.17465147 0.2694302
0.20757198 -0.31862906 -0.28242087 0.6237374 0.27459785 0.24757572 -0.23440851 -0.13190323
0.068884246 -0.18477714 -0.13891292 0.1375772 0.3472983 0.9501297 -0.096543364 -0.16936623
0.23631893 -0.044441454 -0.108313285 0.01012558 -0.28292114 0.03516707 0.2659265 -0.210114
-0.2913559 -0.019327758 0.17679343 0.010462432 -0.115368165 0.0537923 -0.54349244 0.31833285
-0.2099118 0.28227967 0.2688343 -0.058055572 0.23492602 0.28762892 -0.11315141 -0.61952555
00000000: cf98 fc3d 19d6 d6bd daf8 8abe 0830 7f3e
00000010: 1c41 2cbf e6a0 983e 0d07 d43c d5ee 333e
00000020: 65c5 cdbd 05e6 e1bd a592 023d 5e0d 843d
00000030: 0f32 02be 298f f43e ce30 ddbd ba68 67bd
00000040: 7d5e a6bc cac5 84bd 3e5e a13e 0905 7a3d
00000050: cfe4 e63c 770e 84be 214f fdbe 87d2 dbbd
00000060: 29c1 14be 05b4 4e3c 2235 253e 6864 053e
00000070: 85cf bbbe 50d5 843e 2ff0 463e 11b1 d13e
00000080: 0357 083e 98a8 88be 7dff 3dbe b1fc b7bd
00000090: 4293 2c3e 9acd 98bd 1138 6b3e 2183 79be
000000a0: 253f 8a3f d3c1 3fbe fa72 453e 2ab6 d6bb
000000b0: b2a6 78be 4a68 063e f3e7 48be a37c 233e
000000c0: 43a3 25bf 72d4 2b3c 966a bcbe ffc3 e6bd
000000d0: 3b4f b93d cc42 bebd 5ec4 893e ff4a 963d
000000e0: e9e9 7b3e ed0f cbbe 3ec1 aebd f868 083e
000000f0: 5eed 88be 23c7 613e a7a7 7d3e 05bb 263e
00000100: b4e1 6fbe ed00 80be defd 123e 4aff 84be
00000110: c6e4 70be d920 06be e6aa 123e 1014 84bd
00000120: 9d91 1d3e fe3a de3d 5c9d 323e 3631 ebbe
00000130: a9e4 1e3e 7498 1d3e 5295 9abe 3447 e23d
00000140: 888b 36be fdce 56be f342 84bd d3ac d7be
00000150: a5d0 f5bd 48bb 58be a35f 4bbe 1ad7 493e
00000160: 45ed 87bd e76b c93d 5150 773d 526f 79be
00000170: 206d 8a3c 93be 363f 27d8 eabe 2e24 07be
00000180: 3f41 0c3e e402 b23d c1ca 0ebe 9db7 acbd
00000190: 2611 3d3e d419 68bd 1305 db3e bcb6 70be
000001a0: 939c 5dbe 9014 adbe c0f7 9f3e 5da2 233a
000001b0: aff7 693e 3508 843b 3d10 ceba 0423 f93e
000001c0: fac4 903f e28a 6fbe 9924 2c3d 9c3f 5f3e
000001d0: 989d 1d3e 6658 e83d f80e 8cbe f1bb 99bd
000001e0: 9e54 93be 0fc5 013e f15a 733e 9bfd 3bbe
000001f0: 680c 3e3e c2e2 38be 4f62 8cbe 4f30 eabb
00000200: f8d5 873e c2da 0a3f 9610 6ebf c2de 823d
00000210: 3667 803e 795e 183e 630b 183e 09dd 863e
00000220: a8d7 843e d8b9 663e f2f3 74be 5300 3abf
00000230: cfb9 1fbe e06e ccbb 232f 67be a5a4 9f3d
00000240: a161 183c 29d2 dcbd d8c3 713d f00e 303e
00000250: 5b69 883c f99a 2a3f a63c b7bd b130 323e
00000260: eb64 c5bc 4972 96bc 6054 acbe b639 4ebe
00000270: 7b44 14bf df5f 4dbe 326d 9e3d 4725 c0bd
00000280: c978 80be cc43 d63d ff80 163e cbfd ad3d
00000290: 3bb6 aebe 9a76 c93e b241 ff3e 9607 06be
000002a0: 2cc4 5bbe f27a aebd 7a21 abbd 4e91 953d
000002b0: 2570 053e 8a35 a23e 75e0 c63e c261 923e
000002c0: 6997 413e 3a6e 153d c883 3abe dfb5 8b3e
000002d0: 0322 a9bd f5fd 2bbd 184c 9ebe 0d19 17bd
000002e0: 2814 3cbf 2142 3a3e dc2c aabe 966d 19be
000002f0: 6aea 00bd 4a24 68be 9cb5 e63c a7be 2abe
00000300: ec03 fdbd 1460 b13e 99fb e43e 562f 2bbe
00000310: 339a bd3d b476 243e 3ab0 993e 78db 9bbe
00000320: 851e 7a3e ff61 1cbf 4045 1cbc 98a9 17be
00000330: e0c8 d53d 878a 83bd d360 8bbc 1e84 04bd
00000340: 350b b43d f94b 4a3e 1cf2 6b3e f9d7 00bd
00000350: 1e75 8abe 0cdb 6a3e d6d7 323e c1f2 893e
00000360: c08d 543e 5923 a3be 7899 90be 41ad 1f3f
00000370: 1798 8c3e 7d84 7d3e c908 70be a411 07be
00000380: 2f13 8d3d 3836 3dbe 303f 0ebe 0ae1 0c3e
00000390: 15d1 b13e b33b 733f 87b8 c5bd 576e 2dbe
000003a0: 97fd 713e 3e08 36bd 5bd3 ddbd c3e5 253c
000003b0: 0adb 90be 580b 103d 8527 883e 2028 57be
000003c0: 9a2c 95be 3f55 9ebc 5609 353e 9f6a 2b3c
000003d0: 2546 ecbd 5155 5c3d 5222 0bbf 86fc a23e
000003e0: 1ef3 56be f686 903e a6a4 893e aecb 6dbd
000003f0: 7290 703e 1944 933e edbb e7bd 3a99 1ebf

0.bias f4 [32]
0.0077997865 0.07947194 -0.020013975 -0.17053054 0.25577238 0.24126704 0.02731828 -0.15907887
-0.101207264 0.13681093 -0.2380802 -0.1403426 0.09648794 -0.053769704 0.090171196 -0.07936984
0.1643642 -0.008150597 -0.16800305 0.44926488 0.026669646 0.47257477 0.13713348 0.14925815
-0.35747805 -0.1764395 0.31075105 -0.25641572 0.020310642 0.13074356 0.1455171 -0.00019731445
00000000: 5a95 ff3b 2fc2 a23d 59f4 a3bc 8f9f 2ebe
00000010: 99f4 823e b50e 773e 96ca df3c 92e5 22be
00000020: c145 cfbd 2a18 0c3e 4ccb 73be f8b5 0fbe
00000030: 789b c53d 9f3d 5cbd adab b83d a88c a2bd
00000040: 174f 283e 158a 05bc fe08 2cbe 0c06 e63e
00000050: 4d7a da3c 52f5 f13e b86c 0c3e 21d7 183e
00000060: 5d07 b7be 8eac 34be c31a 9f3e ec48 83be
00000070: 8162 a63c a4e1 053e 6f02 153e 32e6 4eb9

2.weight f4 [64, 32]
0.09944162 0.126773 -0.10892611 -0.11761924 0.17460047 -0.13415824 -0.10405459 -0.023679169
-0.03990601 -0.076955274 0.019588232 0.17232607 -0.09283088 -0.22134764 0.0010939263 0.010019797
-0.020155434 -0.021404753 0.123954184 0.086402744 -0.031252675 -0.0078794025 -0.11099261 0.13238439
0.07723051 -0.040198475 0.01020696 -0.10374917 -0.35461393 -0.07522394 0.09366745 0.023207504
-0.17458637 -0.06563484 0.06926174 0.12968229 0.17899323 0.059572324 0.040356047 0.033423547
-0.10401519 -0.22050925 0.16272564 0.026260024 0.11857456 -0.013923351 -0.1416157 -0.15221256
0.00035850302 -0.09485252 -0.13359776 0.105915055 0.0012274311 -0.08589544 0.032787837 0.115134
-0.051562477 0.20373364 0.1546325 0.08979959 0.25098258 -0.1495646 0.1819065 0.062160425
-0.09490263 0.03613368 0.042586528 0.06514858 -0.10003086 -0.06635641 -0.0005131282 0.15673198
0.01299033 -0.04702832 0.28957203 0.047720984 0.21542744 0.025215682 0.26817578 0.017178454
-0.09029481 0.049247276 0.017375894 -0.25032535 -0.005953778 -0.046746958 -0.123934194 -0.06680127
0.15070118 -0.008287774 0.016685259 0.18980822 0.05091339 -0.09354284 0.09938473 0.15451421
-0.13953407 0.16700344 -0.045018937 -0.09454833 -0.16901954 0.2154203 0.084917 0.14716995
0.032478683 0.09912115 -0.07357032 -0.16790837 0.052951023 0.037820753 -0.0197181 -0.08763406
0.016447436 0.14678861 -0.014938647 -0.13603373 0.046795126 -0.11750813 0.16294695 0.11419935
-0.14158377 0.14878596 -0.2244799 0.044945948 -0.055292126 0.10780306 -0.12978287 -0.016615009
0.052623075 -0.11623009 0.13181853 -0.0015384861 0.10836284 -0.114558674 0.18533526 0.038647655
-0.15677902 -0.0523994 0.025205642 -0.036812212 -0.02780602 -0.07445047 0.13060102 -0.0039426023
-0.011586468 0.10014688 -0.20594838 -0.01472488 0.08421285 -0.19730932 -0.1092506 -0.0640045
0.17858617 0.07578289 0.04681751 0.11045717 -0.15592194 0.036412533 0.00451923 -0.23894224
0.13139676 0.063436195 0.03474625 0.10137223 0.19524755 -0.10988606 -0.11577856 0.070559844
0.09609127 0.10419943 0.04869753 0.028862622 0.078019276 -0.24244736 0.013735515 0.15179099
0.16893004 -0.09264464 -0.15947698 0.16408803 -0.06963072 -0.06181796 -0.18824056 0.054429237
-0.16646828 -0.08828446 -0.058353595 -0.12794283 -0.08332873 0.040177055 -0.04449104 0.065699175
0.09349689 -0.15017682 0.20040382 -0.08675471 -0.12431866 -0.09762898 -0.11447081 0.06179595
-0.13950972 -0.11440183 0.21549211 -0.035444517 -0.21720533 -0.07247221 -0.024822257 0.12363994
-0.187711 -0.10719058 0.07141188 0.07318951 0.05105441 0.10081286 0.031603564 0.0033157538
0.13299008 -0.0050053536 -0.19366175 -0.029156543 -0.09241064 -0.014259545 -0.02520247 -0.06683117
-0.09401256 0.059029073 -0.08343036 0.1479869 -0.0469991 0.10929184 0.10799129 -0.059127565
0.13813068 -0.03922574 -0.141271 -0.012146377 0.26052597 0.0009635088 -0.07476845 -0.09058509
0.069575444 -0.0091974735 0.00044670617 0.013927681 -0.015398134 0.016836995 -0.06897048 -0.1521212
0.11275089 -0.07434618 0.14299881 -0.09239276 -0.021395324 -0.084887534 -0.081945226 -0.04525556
00000000: 0ca8 cb3d c8d0 013e a714 dfbd 5be2 f0bd
00000010: 77ca 323e c760 09be 931a d5bd d1fa c1bc
00000020: 7c74 23bd ba9a 9dbd 8077 a03c 3f76 303e
00000030: 1e1e bebd f5a8 62be 1362 8f3a 132a 243c
00000040: 021d a5bc 0559 afbc b1db fd3d ecf3 b03d
00000050: ce02 00bd 9c18 01bc 1850 e3bd c68f 073e
00000060: 082b 9e3d 28a7 24bd 183b 273c 727a d4bd
00000070: f58f b5be 020f 9abd b8d4 bf3d aa1d be3c
00000080: c5c6 32be 8f6b 86bd 19d9 8d3d 6fcb 043e
00000090: 004a 373e 1c02 743d 624c 253d 21e7 083d
000000a0: ea05 d5bd 2dcd 61be 8da1 263e 431f d73c
000000b0: 38d7 f23d c41e 64bc b503 11be 9cdd 1bbe
000000c0: 76f5 bb39 0a42 c2bd dacd 08be fee9 d83d
000000d0: c1e1 a03a f3e9 afbd 8a4c 063d 60cb eb3d
000000e0: 2d33 53bd 8d9f 503e fb57 1e3e d9e8 b73d
000000f0: ca80 803e 7627 19be b345 3a3e ee9b 7e3d
00000100: 4f5c c2bd e900 143d 366f 2e3d 9e6c 853d
00000110: fbdc ccbd dfe5 87bd 7383 06ba 597e 203e
00000120: 65d5 543c c5a0 40bd c942 943e 1477 433d
00000130: 0399 5c3e 1e91 ce3c 564e 893e d4b9 8c3c
00000140: 7cec b8bd 83b7 493d e457 8e3c a52a 80be
00000150: e917 c3bb bd79 3fbd 36d1 fdbd 1bcf 88bd
00000160: 6951 1a3e 72c9 07bc 86af 883c 165d 423e
00000170: 8f8a 503d 6393 bfbd 398a cb3d f938 1e3e
00000180: 05e2 0ebe f302 2b3e c765 38bd 8ea2 c1bd
00000190: 7513 2dbe 2497 5c3e f7e8 ad3d b8b3 163e
000001a0: 5e08 053d 0800 cb3d 09ac 96bd 2cf0 2bbe
000001b0: 2ce3 583d efe9 1a3d da87 a1bc 7c79 b3bd
000001c0: c6bc 863c c14f 163e 3ac1 74bc 6d4c 0bbe
000001d0: 3fac 3f3d 1aa8 f0bd 91db 263e 59e1 e93d
000001e0: 56fb 10be 595b 183e 0fde 65be 3e19 383d
000001f0: ff79 62bd dac7 dc3d cde5 04be 331c 88bc
00000200: 4b8b 573d 0b0a eebd 70fb 063e 07a7 c9ba
00000210: 56ed dd3d bd9d eabd 87c8 3d3e 014d 1e3d
00000220: ae8a 20be c1a0 56bd 107c ce3c 67c8 16bd
00000230: 73c9 e3bc 7d79 98bd 46bc 053e f230 81bb
00000240: 2bd5 3dbc cf19 cd3d 22e4 52be a040 71bc
00000250: c977 ac3d 740b 4abe c7be dfbd cb14 83bd
00000260: 4bdf 363e 0f34 9b3d b8c3 3f3d 5e37 e23d
00000270: 00aa 1fbe 4f25 153d 0d16 943b 46ad 74be
00000280: df8c 063e d6ea 813d 1552 0e3d 3e9c cf3d
00000290: f9ee 473e f10b e1bd 4f1d edbd ae81 903d
000002a0: 80cb c43d 8366 d53d 1077 473d 4e71 ec3c
000002b0: 92c8 9f3d 1f44 78be ed0a 613c 196f 1b3e
000002c0: fffb 2c3e 79bc bdbd ef4d 23be b106 283e
000002d0: 8d9a 8ebd d434 7dbd 22c2 40be 31f1 5e3d
000002e0: a976 2abe 7cce b4bd 2e04 6fbd 7203 03be
000002f0: 41a8 aabd b290 243d 3d3c 36bd 4a8d 863d
00000300: 4c7b bf3d f4c7 19be a936 4d3e 74ac b1bd
00000310: c89a febd b4f1 c7bd ac6f eabd c01d 7d3d
00000320: a3db 0ebe 824b eabd f7a9 5c3e 452e 11bd
00000330: 136b 5ebe 4f6c 94bd 0c58 cbbc f036 fd3d
00000340: 5037 40be bc86 dbbd 6440 923d 62e4 953d
00000350: 6e1e 513d f976 ce3d bd72 013d 1e4d 593b
00000360: 8d2e 083e f303 a4bb 444f 46be b4d9 eebc
00000370: ca41 bdbd dea0 69bc 6975 cebc c8de 88bd
00000380: a889 c0bd 78c8 713d 89dd aabd e189 173e
00000390: 2182 40bd 66d4 df3d 8a2a dd3d bf2f 72bd
000003a0: 2172 0d3e 2bab 20bd 58a9 10be 9901 47bc
000003b0: a963 853e fb93 7c3a 3320 99bd ad84 b9bd
000003c0: 927d 8e3d 00b1 16bc e333 ea39 ee30 643c
000003d0: 7448 7cbc bded 893c 6540 8dbd a9c5 1bbe
000003e0: f0e9 e63d cf42 98bd 486e 123e 6a38 bdbd
000003f0: 3f45 afbc 84d9 adbd e6d2 a7bd e55d 39bd

2.bias f4 [64]
0.2629938 -0.22364518 -0.24639069 0.024304498 0.18328327 0.076533034 0.001935323 0.013687548
-0.06631408 0.14433636 0.13754411 0.02331234 -0.11624508 -0.086780556 0.0011779648 -0.1271222
0.32834217 -0.21864223 0.149638 -0.1620747 0.13926654 0.0069982386 0.11445419 -0.08312305
-0.10444491 0.01675377 0.13990678 -0.034335453 0.13112015 -0.055251066 -0.11351434 0.116522476
-0.04785527 0.12568252 0.13137528 0.11629563 0.17667356 -0.15393174 -0.1523678 0.0099652475
0.019836072 -0.13220921 0.1843035 0.09105171 -0.13892594 0.1703079 0.18183397 0.066246964
-0.08065276 0.050381586 -0.06553975 0.16002016 0.14740193 0.0065731863 -0.1232619 0.21487264
-0.024622893 -0.022100467 0.100585215 -0.039095335 -0.019181969 0.22574112 -0.038256343 -0.05041916
00000000: 20a7 863e 3e03 65be d74d 7cbe 3a1a c73c
00000010: 9cae 3b3e 5abd 9c3d aaaa fd3a bd41 603c
00000020: adcf 87bd e9cc 133e 5dd8 0c3e 85f9 be3c
00000030: e711 eebd 01ba b1bd f165 9a3a 522c 02be
00000040: 771c a83e c0e3 5fbe b43a 193e e9f6 25be
00000050: e39b 0e3e 7b51 e53b f566 ea3d 6b3c aabd
00000060: 37e7 d5bd 343f 893c b943 0f3e 55a3 0cbd
00000070: 5c44 063e f14e 62bd 357a e8bd 56a3 ee3d
00000080: e303 44bd ebb2 003e 3e87 063e 672c ee3d
00000090: eae9 343e 48a0 1dbe 4e06 1cbe 4745 233c
000000a0: 427f a23c da61 07be 0fba 3c3e 5279 ba3d
000000b0: 9a42 0ebe 3265 2e3e af32 3a3e 7dac 873d
000000c0: 462d a5bd ec5c 4e3d b439 86bd 53dc 233e
000000d0: 88f0 163e e263 d73b bc70 fcbd 9307 5c3e
000000e0: f3b5 c9bc 0a0c b5bc 9fff cd3d 6e22 20bd
000000f0: 8123 9dbc ae28 673e afb2 1cbd 5284 4ebd

4.weight f4 [128, 64]
0.19458184 -0.1687828 -0.0338447 -0.14084457 0.02544751 0.09512182 0.026228983 -0.06336313
0.020819519 -0.013113973 0.02795203 0.034446727 -0.111018285 -0.05634566 -0.043037347 -0.156279
0.064525776 -0.19188073 -0.13313402 -0.08113658 -0.058722377 0.06988146 -0.15821928 0.09535143
0.032790802 -0.08015528 0.0032087814 -0.0036683343 -0.029350638 -0.014916918 0.03208587 0.06931879
0.08534196 0.0773028 -0.09963818 -0.031332664 -0.014745351 0.037499435 0.15917663 -0.0432185
0.091991894 -0.1301502 0.05795118 -0.061000932 -0.048868854 -0.071467206 -0.06430299 -0.055056144
0.07606627 0.11085404 -0.023833876 -0.029640835 -0.033555154 0.046577614 -0.05828465 -0.091703005
0.09425087 0.17959967 0.06623533 0.088381335 0.13375813 -0.065765984 -0.19041891 0.097062215
-0.00032768145 0.00024838466 -0.00019992252 -0.00059341756 3.918107e-05 -0.0015630374 -3.8779202e-05 -0.0014081978
-0.0008300624 -0.0006942638 0.0004305124 -4.793729e-05 -0.0003412011 -0.0016489907 -0.0017807202 -0.00015573135
-0.0018133784 0.0008866669 -0.0025307196 -0.0022998636 0.0007691422 -6.019714e-05 -0.00027539322 4.5691624e-05
-0.00039664377 4.466484e-05 -0.0008625081 0.0005426177 0.0003223883 -0.0007066332 -0.0012465375 -9.980799e-05
0.00017217129 -0.00043496257 -0.00017532878 -0.0009948883 0.00024258465 -0.00034524073 -6.9112086e-16 -0.0011125429
0.0003504986 0.0011159935 -0.00042876697 -0.00076295226 -0.00095661654 -0.0024729779 -0.0019038118 -0.00014931441
-4.0633063e-11 -0.00091213326 -0.0001460766 -0.0016560548 -0.0013300868 -5.1795065e-05 -0.0013725967 -0.0014537142
-0.00085040595 -9.49652e-05 -6.019329e-05 1.576451e-05 -2.0184857e-06 -0.001104242 -4.1327177e-05 -0.00046079492
0.05023189 -0.012535606 -0.010658618 0.03283312 0.015342975 -0.025053738 0.013545168 0.015217148
-0.018395789 0.12058954 0.023683295 -0.0043625725 -0.09957028 -0.03177664 0.013980059 -0.06127759
0.005697527 0.045023184 -0.07396418 -0.04554648 0.018499376 0.014672324 0.046213854 -0.09354614
0.010769253 0.08418465 0.009818089 0.0087773455 0.026640173 -0.024488643 -0.10032631 0.022109933
0.072843544 0.067006096 -0.09587917 0.03661746 -0.025066005 0.009575561 -0.024155919 -0.039762978
-0.041751884 -0.08265694 0.07722549 -0.09401235 0.09583519 -0.08036739 0.015069983 -0.0005113649
-0.0327679 -0.0546245 0.044994738 0.055359118 -0.07181575 0.09608484 -0.14082561 -0.05366537
-0.22223435 -0.057102934 -0.023486616 -0.09453042 0.08350403 -0.013579013 0.118690126 -0.06371715
0.060852285 0.07182886 0.014555444 -0.06237938 0.09264079 -0.06562933 0.03948943 -0.0139096
-0.054332495 0.028358698 0.06491725 -0.056384996 -0.05659029 -0.13201275 -0.042928718 -0.06963926
-0.11084575 -0.02239294 -0.11755063 -0.06704789 0.042561512 -0.097117454 -0.06842672 0.04154472
0.0010307247 -0.03794514 0.046170603 -0.094741724 0.041105554 0.04583264 0.033163242 0.011294002
-0.12861578 0.009730644 0.053579446 0.016464371 0.07643151 0.06812415 0.025805755 0.14876802
0.09074724 0.014726262 -0.02497913 0.003423182 0.04114897 -0.16966648 0.0082071265 -0.013518212
-0.06318967 -0.035825208 0.01277071 -0.047083393 0.1448225 -0.00036757597 -0.07808958 0.023839923
0.051409055 -0.0020036546 0.035984688 -0.052855954 0.0533601 -0.004339731 -0.09938491 -0.017048653
00000000: 7640 473e 66d5 2cbe bda0 0abd 8f39 10be
00000010: 4c77 d03c 3bcf c23d 2ade d63c 87c4 81bd
00000020: b28d aa3c fddb 56bc a8fb e43c 0318 0d3d
00000030: 8e5d e3bd b5ca 66bd ee47 30bd 9a07 20be
00000040: 1726 843d 627c 44be 4954 08be ef2a a6bd
00000050: e086 70bd 031e 8f3d 3c04 22be 9c47 c33d
00000060: a64f 063d 7428 a4bd 6b4a 523b 7068 70bb
00000070: c070 f0bc 1766 74bc 796c 033d 03f7 8d3d
00000080: c4c7 ae3d ee50 9e3d 1a0f ccbd ae56 00bd
00000090: 7c96 71bc 0299 193d 33ff 223e e205 31bd
000000a0: 3f66 bc3d 1846 05be 375e 6d3d 1ddc 79bd
000000b0: b52a 48bd 665d 92bd 49b1 83bd 8d82 61bd
000000c0: a2c8 9b3d 7107 e33d 433f c3bc 56d1 f2bc
000000d0: 2171 09bd 2bc8 3e3d e3bb 6ebd c9ce bbbd
000000e0: 9a06 c13d fae8 373e 64a6 873d 4601 b53d
000000f0: e4f7 083e 51b0 86bd 2dfd 42be 8ec8 c63d
00000100: a9cc abb9 a039 8239 4ba2 51b9 948f 1bba
00000110: 5b56 2438 d5de ccba daa6 22b8 4793 b8ba
00000120: 8b98 59ba 41ff 35ba 65b6 e139 4610 49b8
00000130: 3de3 b2b9 f222 d8ba 0e67 e9ba d14b 23b9
00000140: e2ae edba 356f 683a 6eda 25bb 4fb9 16bb
00000150: 42a0 493a 307c 7cb8 a762 90b9 02a5 3f38
00000160: a0f4 cfb9 8256 3b38 f019 62ba 753e 0e3a
00000170: 3a06 a939 5a3d 39ba dc62 a3ba 0250 d1b8
00000180: e188 3439 b00b e4b9 76d8 37b9 e966 82ba
00000190: 525e 7e39 6d01 b5b9 b833 47a6 bfd2 91ba
000001a0: 20c3 b739 8746 923a 21cc e0b9 dc00 48ba
000001b0: 73c5 7aba af11 22bb 5389 f9ba 4891 1cb9
000001c0: c3b4 32ae 3a1c 6fba 242c 19b9 fa0f d9ba
000001d0: 4f56 aeba 873e 59b8 b4e8 b3ba 8e8a beba
000001e0: c7ed 5eba 0e28 c7b8 0e78 7cb8 073e 8437
000001f0: 5275 07b6 37bc 90ba b856 2db8 d996 f1b9
00000200: f4bf 4d3d 2462 4dbc 7ca1 2ebc 067c 063d
00000210: 1a61 7b3c 7f3d cdbc 8dec 5d3c 5851 793c
00000220: c4b2 96bc a6f7 f63d 7803 c23c e9f3 8ebb
00000230: 81eb cbbd 3928 02bd 9e0c 653c 36fe 7abd
00000240: 52b2 ba3b 3b6a 383d 887a 97bd f28e 3abd
00000250: 018c 973c 3064 703c bd4a 3d3d 1e95 bfbd
00000260: 8571 303c 0069 ac3d 0ddc 203c dbce 0f3c
00000270: 7e3c da3c 689c c8bc e177 cdbd e41f b53c
00000280: ff2e 953d 7e3a 893d 4c5c c4bd 31fc 153d
00000290: 3957 cdbc d0e2 1c3c a2e2 c5bc 81de 22bd
000002a0: 0604 2bbd 0b48 a9bd 6628 9e3d 8c89 c0bd
000002b0: 3d45 c43d a897 a4bd 17e8 763c 1e0d 06ba
000002c0: a237 06bd f1bd 5fbd 674c 383d 3ec0 623d
000002d0: 2314 93bd 21c8 c43d 9734 10be 38d0 5bbd
000002e0: 6791 63be c4e4 69bd 0167 c0bc 2a99 c1bd
000002f0: 2904 ab3d 827a 5ebc cf13 f33d 237e 82bd
00000300: 3f40 793d 021b 933d f579 6e3c 8581 7fbd
00000310: 74ba bd3d ac68 86bd abbf 213d 17e5 63bc
00000320: c08b 5ebd 8050 e83c 56f3 843d f4f3 66bd
00000330: 38cb 67bd 5a2e 07be 06d6 2fbd 079f 8ebd
00000340: 1903 e3bd 6671 b7bc 62be f0bd 6750 89bd
00000350: fb54 2e3d 84e5 c6bd 4f23 8cbd cc2a 2a3d
00000360: 6219 873a 5d6c 1bbd 631d 3d3d f307 c2bd
00000370: 4c5e 283d 02bb 3b3d 2ed6 073d 7a0a 393c
00000380: dbb3 03be 476d 1f3c 1f76 5b3d 4ae0 863c
00000390: 2088 9c3d ad84 8b3d 9766 d33c a556 183e
000003a0: b0d9 b93d 6b46 713c 08a1 ccbc 7757 603b
000003b0: d38b 283d 0dbd 2dbe 2f77 063c 7e7b 5dbc
000003c0: 9669 81bd 74bd 12bd 3d3c 513c 84da 40bd
000003d0: 594c 143e 36b7 c0b9 6eed 9fbd f14b c33c
000003e0: 4d92 523d bf4f 03bb ae64 133d 7c7f 58bd
000003f0: 1f90 5a3d 4d34 8ebb 518a cbbd 9ea9 8bbc

4.bias f4 [128]
0.026965562 -0.0018596381 0.16366367 0.048549153 0.052682582 -0.11468187 0.12546273 -0.053045247
-0.052521214 -0.10990394 0.0540358 0.001364377 -0.08060403 0.073764525 0.029780192 0.036927063
0.13114542 0.023382325 0.080848284 -0.09016716 0.021035092 0.09166099 -0.10207412 0.11455113
0.1067775 -0.0046663946 0.01957937 0.017482469 0.14484394 0.14462762 0.12754528 0.0013820399
0.14185968 -0.08329807 0.0624065 -0.10394178 0.067890726 -0.0427743 -0.06655254 0.11808988
0.054974508 0.044414073 0.06580925 -0.022832526 0.22025055 0.05799321 -0.03548397 -0.018456062
0.11702009 -0.0711935 -0.020056138 -0.007830801 0.058056433 0.12377758 0.1425846 -0.07398243
0.016370794 0.013874046 0.11613559 0.0632025 -0.07759238 -0.0770286 0.05422551 -0.102590084
0.06419785 0.019349912 -0.036823846 0.018923694 0.13923958 0.11428961 0.060412154 0.09619951
0.08270902 0.11044824 -0.009416752 0.043680463 -2.2602368e-14 0.057250515 -0.10579062 0.025221217
0.13055184 0.11846318 -0.048871618 0.1068882 -0.003012943 0.03539838 -0.117068715 0.15176277
0.13283019 -0.0010800831 -0.07028002 0.10336443 0.16503975 0.19427443 -0.03795962 -0.0054734484
0.09081361 -0.14206168 0.065519534 0.084761396 0.06738249 0.061868493 0.07000043 0.05325088
-0.015320906 0.12656695 -0.0038765285 -0.06115216 0.0383106 0.020363843 -0.027954599 0.0293671
0.11074286 0.020747317 0.13849846 0.098966226 0.028541362 -0.001546774 0.02632687 0.030596083
0.10773456 0.0034705515 0.19949031 -0.004980138 0.035640456 0.092112705 0.088317044 -0.0963846
00000000: e2e6 dc3c 1abf f3ba 7397 273e 7adb 463d
00000010: b1c9 573d 54de eabd 4d79 003e f945 59bd
00000020: 7c20 57bd 5115 e1bd a554 5d3d e5d4 b23a
00000030: ba13 a5bd db11 973d 97f5 f33c d540 173d
00000040: fc4a 063e 4a8c bf3c c993 a53d 8fa9 b8bd
00000050: c951 ac3c c2b8 bb3d 3c0c d1bd c899 ea3d
00000060: 29ae da3d 8ee8 98bb ea64 a03c 6537 8f3c
00000070: f851 143e 4319 143e 3b9b 023e 9025 b53a
00000080: aa43 113e 2e98 aabd f59d 7f3d 6edf d4bd
00000090: 4b0a 8b3d 1b34 2fbd b34c 88bd 1bd9 f13d
000000a0: f32c 613d 88eb 353d 00c7 863d 470b bbbc
000000b0: 5c89 613e 4a8a 6d3d a457 11bd 2b31 97bc
000000c0: 3ba8 ef3d e6cd 91bd c54c a4bc c34c 00bc
000000d0: 95cc 6d3d 1a7f fd3d b301 123e 1a84 97bd
000000e0: 0b1c 863c f74f 633c 7fd8 ed3d 5070 813d
000000f0: c1e8 9ebd 2cc1 9dbd 921b 5e3d c01a d2bd
00000100: 2a7a 833d b583 9e3c 9ad4 16bd dd05 9b3c
00000110: d294 0e3e ac10 ea3d bc72 773d 4004 c53d
00000120: 5963 a93d b032 e23d b848 1abc 49ea 323d
00000130: 8395 cba8 847f 6a3d c1a8 d8bd ba9c ce3c
00000140: 62af 053e d39c f23d 9b2d 48bd 33e8 da3d
00000150: cc74 45bb e4fd 103d b9c1 efbd b367 1b3e
00000160: a304 083e 9391 8dba f9ee 8fbd bbb0 d33d
00000170: 2e00 293e e0ef 463e 8c7b 1bbd 9d5a b3bb
00000180: 7cfc b93d 9e78 11be 1b2f 863d 6297 ad3d
00000190: d5ff 893d d169 7d3d 635c 8f3d 981d 5a3d
000001a0: 8a04 7bbc c49a 013e 5b0d 7ebb b07a 7abd
000001b0: 93eb 1c3d 13d2 a63c 0b01 e5bc 4693 f03c
000001c0: 27cd e23d 47f6 a93c 8ad2 0d3e ceae ca3d
000001d0: 93cf e93c 1fbd caba 73ab d73c a3a4 fa3c
000001e0: f0a3 dc3d 3172 633b 3047 4c3e 6d30 a3bb
000001f0: bafb 113d 96a5 bc3d 91df b43d 4a65 c5bd

6.weight f4 [256, 128]
-7.151e-42 -5.1863e-41 2.333e-42 5.72e-43 6.686e-42 -1.747e-42 -2.2794028e-30 5.076e-42
6.897e-42 -1.4809596e-21 -3.9355446e-30 8.117458e-28 -2.07e-43 4.871e-42 -9.6248156e-29 2.672e-42
2.5342444e-35 6.844e-42 -1.571e-42 1.23e-43 3.7e-43 -2.0928253e-33 -5.6773274e-32 -2.2497218e-38
4.0633726e-35 -2.714e-42 4.4153015e-21 5.595e-42 -6.58e-42 -7.249e-30 2.8141075e-38 9.8093405e-18
6.492e-42 4.556e-42 -5.628e-42 -4.819e-42 2.783e-42 -1.391e-42 5.1173794e-29 -5.998e-42
-7.4e-43 -9.6147e-40 -4.133576e-31 -8.086964e-39 5.933e-42 -6.642e-42 -5.91e-43 6.16e-42
3.49e-42 -2.21e-42 -7.8699665e-28 1.208e-42 -5.473e-42 4.7e-43 -6.438071e-26 1.7502e-41
7.702e-42 -5.395e-42 -3.251783e-14 4.721e-42 3.648e-42 1.5059e-40 -6.957e-42 4.687e-42
9.33e-43 -1.0993143e-38 3.747e-42 -7.281e-42 1.899e-42 3.065e-42 9.2853926e-38 -6.257e-42
-3.296015e-20 5.553e-42 4.948848e-33 2.227e-42 1.3986e-41 -5.647e-42 -7.215e-42 -5.27e-42
-6.621e-42 5.97e-42 -5.765e-42 -1.18e-42 -3.631e-42 5.642e-42 -1.2154791e-35 -1.372e-42
-1.5550226e-25 -5.8685e-41 1.8412e-41 -6.808e-42 -4.305412e-31 -2.168e-42 -1.0463872e-27 2.76e-43
-1.1972613e-19 2.6775406e-34 6.0278735e-19 -4.28e-42 6.44e-42 -2.06e-42 -1.8335062e-24 -4.469e-42
-2.022655e-39 -2.78e-42 2.5762166e-29 -6.026585e-16 8.14e-43 1.389e-42 6.744e-42 -5.015e-42
-3.977e-42 -5.483e-42 1.761e-42 5.35e-42 3.343e-42 -7.549087e-28 4.725e-42 1.1e-42
3.067e-42 -5.124925e-29 1.3159428e-35 -2.6893405e-26 -5.677e-42 -5.745373e-30 3.75e-42 5.035e-42
1.1371799e-30 2.0434e-41 -4.086e-42 3.112e-42 2.005e-42 1.321e-42 -6.7102426e-24 3.92e-43
3.33e-42 -1.404582e-24 3.367e-42 6.67e-42 -4.9069513e-27 4.8367193e-32 2.293e-42 4.515e-42
-4.524274e-39 3.77e-43 -5.507e-42 2.7547076e-35 -1.208e-42 1.0129205e-30 -8.529495e-26 8.7865764e-32
4.73792e-40 4.801e-42 4.321004e-36 6.747e-42 -4.74e-43 4.03e-42 8.3963275e-29 4.163e-42
-1.95e-43 1.033e-42 -8.27e-42 5.23e-43 -4.71e-43 5.703e-42 2.3481828e-35 -2.392e-42
-2.835e-42 -2.7309647e-30 6.698152e-36 -1.1768694e-30 -2.975e-42 5.96e-42 8.18e-43 2.882e-42
-2.1650721e-33 -8.16e-43 3.2e-42 -9.71e-43 -6.241e-42 3.701e-42 1.0066701e-20 -1.103e-42
-6.69e-42 -6.875e-42 -3.3789478e-15 3.945e-42 3.0408318e-37 6.26e-43 6.809e-42 5.374e-42
3.5e-44 5.265963e-39 4.963e-42 -6.313e-42 -1.086e-42 -4.571e-42 -4.446e-42 3.762e-42
-2.8016236e-14 6.323e-42 6.704e-42 -8.182474e-34 -5.79e-41 5.754e-42 -6.836095e-24 -4.3147358e-32
-2.217e-42 1.40545e-40 5.049e-42 -9.07e-43 -5.891e-42 -2.0646828e-35 4.061e-42 -2.0817854e-25
1.0468709e-21 4.0942e-41 6.76e-42 2.545e-42 1.2106089e-26 -5.133e-42 6.57e-42 1.0639e-41
-5.919904e-21 9.9286734e-36 -1.065886e-28 -8.392e-42 -2.166e-42 -6.625e-42 -4.953523e-32 3.004e-42
-5.137e-42 -1.46e-42 -3.926524e-39 -4.229309e-24 6.946e-42 1.4727031e-32 2.902e-42 4.68e-42
4.24e-42 4.05e-42 4.02101e-40 5.778e-42 1.24e-42 2.7874774e-35 7.1e-42 -6.662e-42
-6.95e-43 -4.202e-42 -3.5977558e-28 -2.8979146e-29 -4.4e-43 1.2660684e-36 -8.56e-43 3.611e-42
00000000: ef13 0080 9390 0080 8106 0000 9801 0000
00000010: a312 0000 df04 0080 58ed 388e 260e 0000
00000020: 3a13 0000 d9cb df9c 08a5 9f8e 52a0 8012
00000030: 9400 0080 940d 0000 a004 f490 7307 0000
00000040: 59be 0606 1413 0000 6104 0080 5800 0000
00000050: 0801 0000 79dd 2d89 5064 938b 17f9 f480
00000060: c30b 5806 9107 0080 2dce a61d 990f 0000
00000070: 5812 0080 f606 138f ef36 1901 4df3 3423
00000080: 1912 0000 b30c 0000 b00f 0080 6f0d 0080
00000090: c207 0000 e103 0080 b1bd 8110 b810 0080
000000a0: 1002 0080 3078 0a80 6824 068d 2a0f 5880
000000b0: 8a10 0000 8412 0080 a601 0080 2c11 0000
000000c0: bb09 0000 2906 0080 c168 7992 5e03 0000
000000d0: 420f 0080 4f01 0000 1f66 9f95 ca30 0000
000000e0: 7815 0000 0a0f 0080 8172 12a9 290d 0000
000000f0: 2b0a 0000 c9a3 0100 6513 0080 110d 0000
00000100: 9a02 0000 69b4 7780 720a 0000 4c14 0080
00000110: 4b05 0000 8b08 0000 bec5 fc01 7111 0080
00000120: 60a6 1b9f 7b0f 0000 2e91 cd09 3506 0000
00000130: fd26 0000 be0f 0080 1d14 0080 b10e 0080
00000140: 7512 0080 a410 0000 1210 0080 4a03 0080
00000150: 1f0a 0080 ba0f 0000 7d40 8185 d303 0080
00000160: a280 4096 97a3 0080 5333 0000 fa12 0080
00000170: f7b7 0b8d 0b06 0080 82ce a592 c500 0000
00000180: 0159 0da0 fef3 b107 53e9 3121 ee0b 0080
00000190: f411 0000 be05 0080 55dc 0d98 750c 0080
000001a0: 5706 1680 c007 0080 34a1 0210 59b4 2da6
000001b0: 4502 0000 df03 0000 cd12 0000 fb0d 0080
000001c0: 160b 0080 490f 0080 e904 0000 ea0e 0000
000001d0: 5209 0000 783d 6f92 2c0d 0000 1103 0000
000001e0: 8d08 0000 aaee 8190 5fef 8b05 712b 0595
000001f0: d30f 0080 5d0f e98e 740a 0000 090e 0000
00000200: 9b84 b80d f638 0000 640b 0080 ad08 0000
00000210: 9705 0000 af03 0000 83cb 0199 1801 0000
00000220: 4809 0000 3a59 d997 6309 0000 9812 0000
00000230: 6662 c293 0723 7b0b 6406 0000 960c 0000
00000240: d643 3180 0d01 0000 5a0f 0080 2377 1206
00000250: 5e03 0080 125b a40d 192e d395 d11c e40b
00000260: bd28 0500 620d 0000 91cb b704 cf12 0000
00000270: 5201 0080 3c0b 0000 48df d410 9b0b 0000
00000280: 8b00 0080 e102 0000 0e17 0080 7501 0000
00000290: 5001 0080 e60f 0000 9eb3 f905 ab06 0080
000002a0: e707 0080 eb8f 5d8e 3574 0e05 3ef5 be8d
000002b0: 4b08 0080 9d10 0000 4802 0000 0908 0000
000002c0: fedd 3389 4602 0080 ec08 0000 b502 0080
000002d0: 6611 0080 510a 0000 9427 3e1e 1303 0080
000002e0: a612 0080 2a13 0080 967a 73a7 ff0a 0000
000002f0: c3f2 ce02 bf01 0000 fb12 0000 fb0e 0000
00000300: 1900 0000 5d57 3900 d60d 0000 9911 0080
00000310: 0703 0080 be0c 0080 650c 0080 7d0a 0000
00000320: 0b59 fca8 a011 0000 b012 0000 65f4 8788
00000330: 67a1 0080 0a10 0000 b43a 0499 ad08 608b
00000340: 2e06 0080 c887 0100 130e 0000 8702 0080
00000350: 6c10 0080 038e db85 520b 0000 35db 8096
00000360: db32 9e1c 2172 0000 d812 0000 1807 0000
00000370: 2ac9 6f14 4f0e 0080 5112 0000 a81d 0000
00000380: cca5 df9d d728 5305 fa1d 0791 6517 0080
00000390: 0a06 0080 7812 0080 cf99 808b 6008 0000
000003a0: 520e 0080 1204 0080 8dc1 2a80 0c9d a398
000003b0: 5d13 0000 2aef 980a 1708 0000 0c0d 0000
000003c0: d20b 0000 4a0b 0000 e560 0400 1b10 0000
000003d0: 7503 0000 2d35 1406 cb13 0000 9212 0080
000003e0: f001 0080 b70b 0080 ed08 e491 15f1 1290
000003f0: 3a01 0080 0e69 d703 6302 0080 110a 0000

6.bias f4 [256]
-1.4479964e-07 -2.6097436e-07 0.028049013 0.13543062 -0.002151228 0.048024368 0.026121346 0.011369106
0.04625404 -0.00031449852 -5.4600787e-06 -0.0013664124 -2.30523e-31 -7.813352e-09 0.06417348 -0.0024019948
-0.108836114 -0.124616206 0.13206974 -2.3932252e-18 -0.003207182 -2.2630594e-13 0.020219935 -1.9936201e-14
0.0015798836 -0.00011217865 0.04012503 0.03880582 -0.00089654396 -0.0023873355 -6.453094e-14 0.01908073
-8.122422e-08 -0.002927462 -0.0010688523 0.07574195 6.1450914e-06 -4.7873932e-08 -0.00015803265 0.13752033
-0.08091082 -0.13276385 -0.0024917077 -0.0040826346 -0.00049866707 -4.6888278e-08 -6.219056e-24 -7.4929137e-32
0.030770056 -3.1493227e-13 -0.00018944447 -5.867609e-06 -0.002344487 0.012410067 -0.0014114312 0.11830114
0.15257204 -0.00057404273 -0.0011894996 0.08282851 -4.2909444e-19 -0.0049467576 -0.00038261092 -0.00092054426
-7.946805e-16 0.09307196 -3.204355e-10 0.0080753695 0.063586384 -0.0001432211 -8.4740356e-07 -0.0001129525
-4.0304712e-07 -1.6707327e-27 -0.04017359 -0.024924677 -0.017921332 -0.12896158 -0.0005094271 -8.60587e-14
0.11488142 -5.294448e-20 -0.097285435 -0.00012699362 0.011533263 0.05781073 0.024707993 -0.00035693275
-0.00013811178 -0.029186113 0.10161169 -0.0010854262 0.053905133 -2.222733e-16 0.015969874 -0.00045149078
0.09681597 0.046096932 0.050765906 -0.054827683 -0.0068604248 -6.574311e-08 -6.236637e-08 0.06083813
-0.09483408 0.100425124 -0.104070365 -2.2342165e-06 0.019624671 -0.0010114731 -0.0013710192 -0.00011822256
-6.7907444e-05 -3.6394526e-11 -0.0028193595 0.060679913 0.018484667 0.028602501 -3.095385e-05 0.036041074
-0.0020366719 -0.00047715305 -0.0020187527 0.10714874 -1.11155245e-07 -0.0010747802 -2.5907815e-08 -1.2936722e-34
0.0021234378 0.023941632 0.065620534 -6.356902e-05 -1.8340274e-05 0.11700069 -0.092382826 -0.0014561942
0.06422142 -0.00011035902 -0.00075823104 -2.3157842e-09 0.19424099 -0.0025483689 0.15675598 0.0006457696
-5.993942e-05 -2.3949847e-06 -2.602415e-29 -3.7037262e-07 0.011181754 0.102293864 -1.805155e-15 -2.1051198e-07
0.05172759 -7.989587e-05 0.046293695 0.03446569 -8.4455576e-05 -8.773115e-09 0.0298923 -0.00043644983
0.0026512 0.01833842 -0.00149705 -0.1573357 0.083860844 -0.0019907216 -2.3826249e-06 -4.5674958e-17
-0.004266264 -2.1419267e-26 -0.015796522 0.034006942 -0.00078494824 -0.0014493753 -7.708359e-07 -4.010686e-11
-2.6728125e-07 -1.0029485e-07 -0.13910794 0.016994849 0.09904131 -0.0002639602 -0.07380389 -5.104567e-05
0.1698214 -6.3194574e-07 -0.06563448 0.09707615 0.0063188802 -2.2967524e-07 -6.198544e-05 0.05869392
0.09365654 0.090937115 0.0657587 -0.0001958015 0.07862566 -1.3437405e-17 0.007474698 -0.00027569127
-0.00012240809 0.13441232 0.026095033 0.08849829 -3.147294e-12 0.023878831 -0.0011018001 -3.986772e-15
-2.7738865e-37 0.03210616 -0.0017068852 0.078032516 0.060957003 -3.197066e-05 -0.0018920648 -0.0028576842
-4.4695e-05 0.007763066 -0.0053253495 0.030472964 0.07200887 0.08295659 0.17318588 0.12680277
-6.0706586e-09 0.031091366 -4.9732576e-13 0.08679692 -0.017945845 -3.9563916e-18 -0.0022805398 0.0029198523
-0.0010801322 0.042949926 0.04021494 -0.0026679148 -6.8877445e-11 0.048243478 -0.0028269156 -2.114919e-17
-0.0009789595 0.00091868703 0.05590647 -0.024456507 -0.0035352241 0.05821342 0.07113518 -0.003627954
0.13856727 -0.13997714 -1.8765013e-13 -4.8707235e-28 -6.704324e-06 0.045089517 0.14376336 0.04742575
00000000: 397a 1bb4 0b1c 8cb4 0bc7 e53c 53ae 0a3e
00000010: 9efb 0cbb 33b5 443d 6ffc d53c 7d45 3a3c
00000020: e074 3d3d 47e3 a4b9 b835 b7b6 3119 b3ba
00000030: 349e 958c 7c3b 06b2 636d 833d c96a 1dbb
00000040: 78e5 debd c836 ffbd 4a3d 073e bf96 30a2
00000050: 962f 52bb 3fcc 7eaa 47a4 a53c c091 b3a8
00000060: 1914 cf3a 7441 ebb8 255a 243d daf2 1e3d
00000070: 0c06 6bba d874 1cbb 8e4f 91a9 314f 9c3c
00000080: 7d6d aeb3 aada 3fbb bb18 8cba 981e 9b3d
00000090: ef31 ce36 f29d 4db3 91b5 25b9 21d2 0c3e
000000a0: 92b4 a5bd 3ff3 07be eb4b 23bb 9fc7 85bb
000000b0: fbb8 02ba 3562 49b3 8c96 f098 f486 c28b
000000c0: 7c11 fc3c 864a b1aa 9da5 46b9 61e2 c4b6
000000d0: f7a5 19bb 9853 4b3c c6ff b8ba de47 f23d
000000e0: d83b 1c3e 5b7b 16ba fce8 9bba fea1 a93d
000000f0: eb4a fda0 6918 a2bb 2b99 c8b9 ae50 71ba
00000100: 120d 65a6 839c be3d 4a29 b0af 8e4e 043c
00000110: 9439 823d 9f2d 16b9 2179 63b5 e9e0 ecb8
00000120: 6062 d8b4 7c5e 0493 108d 24bd d62e ccbc
00000130: c2cf 92bc 810e 04be 138b 05ba 77c9 c1a9
00000140: f346 eb3d f305 7a9f 963d c7bd 9729 05b9
00000150: 03f6 3c3c f2ca 6c3d 6b68 ca3c b422 bbb9
00000160: 19d2 10b9 b717 efbc ca19 d03d dc44 8eba
00000170: a1cb 5c3d c021 80a5 41d3 823c 11b6 ecb9
00000180: 7447 c63d 23d0 3c3d e9ef 4f3d fe92 60bd
00000190: 6acd e0bb a82e 8db3 46ee 85b3 6731 793d
000001a0: 5f38 c2bd b0ab cd3d d822 d5bd 8cef 15b6
000001b0: ebc3 a03c 6893 84ba c5b3 b3ba 41ee f7b8
000001c0: 8869 8eb8 9810 20ae 01c5 38bb 808b 783d
000001d0: 286d 973c cb4f ea3c 71d4 01b8 ce9f 133d
000001e0: af79 05bb 662a fab9 0d4d 04bb cc70 db3d
000001f0: 3eb4 eeb3 a4df 8cba e38b deb2 62f5 2b87
00000200: 6029 0b3b 3e21 c43c 0f64 863d 5c50 85b8
00000210: 70d9 99b7 0f9e ef3d 3533 bdbd c5dd beba
00000220: 8586 833d 8c70 e7b8 06c4 46ba b523 1fb1
00000230: 1ce7 463e 8902 27bb a484 203e dd48 293a
00000240: 7667 7bb8 86b9 20b6 47f5 0390 a0d7 c6b4
00000250: ad33 373c 727f d13d 3b13 02a7 1809 62b4
00000260: 4fe0 533d c58d a7b8 759e 3d3d e52b 0d3d
00000270: be1d b1b8 91b8 16b2 b2e0 f43c 4ed3 e4b9
00000280: c1bf 2d3b 743a 963c aa38 c4ba 9c1c 21be
00000290: 3cbf ab3d c476 02bb 2fe5 1fb6 79a3 52a4
000002a0: 04cc 8bbb 4b20 d494 b567 81bc dd4a 0b3d
000002b0: fcc4 4dba f7f8 bdba 71eb 4eb5 4f64 30ae
000002c0: db7e 8fb4 ad61 d7b3 5072 0ebe c838 8b3c
000002d0: 2cd6 ca3d 2364 8ab9 7e26 97bd df19 56b8
000002e0: a9e5 2d3e fba2 29b5 5f6b 86bd dccf c63d
000002f0: 9c0e cf3b a69c 76b4 2efe 81b8 0969 703d
00000300: 00cf bf3d 3d3d ba3d 7fac 863d 1150 4db9
00000310: 7d06 a13d 5ae0 77a3 50ee f43b a88a 90b9
00000320: ac5a 00b9 62a3 093e 40c5 d53c 973e b53d
00000330: 9c78 5dac 8a9d c33c 476a 90ba 7ba3 8fa7
00000340: ebc7 bc82 c081 033d 90b9 dfba 83cf 9f3d
00000350: 0dae 793d 3c18 06b8 29ff f7ba fc47 3bbb
00000360: e476 3bb8 5161 fe3b 4580 aebb 70a2 f93c
00000370: 6379 933d 25e5 a93d a457 313e 96d8 013e
00000380: 1496 d0b1 52b3 fe3c 19fc 0bab 95c2 b13d
00000390: 2a03 93bc 10f7 91a2 1c75 15bb fe5a 3f3b
000003a0: 3993 8dba 43ec 2f3d 6cb8 243d 2fd8 2ebb
000003b0: 8e76 97ae f49a 453d c643 39bb 1d11 c3a3
000003c0: 6e50 80ba 0bd4 703a 2ffe 643d 0359 c8bc
000003d0: 38af 67bb 3271 6e3d 52af 913d f8c2 6dbb
000003e0: 94e4 0d3e 2b56 0fbe 7846 53aa 015c 1a92
000003f0: b4f5 e0b6 c9af 383d b436 133e 8141 423d

8.weight f4 [128, 256]
3.9011e-41 6.279e-42 3.387e-42 -5.8416e-41 5.5284e-41 -1.8684205e-20 -1.3371952e-06 -6.195e-42
2.1815704e-13 5.8517e-41 5.4824e-41 3.2601e-41 -5.0192e-41 4.8076e-41 -3.922415e-14 1.0527e-41
-7.400406e-08 -3.251727e-06 5.12e-42 5.0671e-41 -5.868e-41 -4.9907e-41 -3.924e-42 5.195e-42
-5.2978313e-19 -5.4048e-41 6.931e-42 -4.0961265e-28 3.4211e-41 -5.8611e-41 4.8226e-41 -6.726e-42
-1.8441e-41 4.142e-41 2.2249833e-22 4.065e-42 9.04716e-37 -4.966e-41 -4.2574e-41 -1.2830035e-05
-3.869601e-09 -8.675793e-11 1.18e-43 -3.262064e-15 -6.1971e-41 5.6859e-41 6.57e-43 -5.8618e-41
-5.5055416e-10 -1.7e-44 -1.0755e-41 -1.904e-41 -3.7396e-41 5.101e-42 3.893e-42 -4.1086457e-07
-2.5668808e-06 -5.4241e-41 -2.8717e-41 4.144e-42 4.4598e-41 -5.084e-42 -4.0053e-41 -5.5294e-41
5.99e-41 2.7976795e-33 8.104e-42 -1.8962e-41 4.14e-42 3.367e-42 -5.2923e-41 7.97e-42
-4.3833e-41 4.436e-41 -1.6384183e-13 4.235e-42 3.56e-42 -4.4277808e-16 -5.1346e-41 -4.4176e-41
-1.0669e-06 -4.5877e-41 -1.3007969e-09 -7.177e-42 -1.586e-42 6.3987e-41 8.589e-42 -5.7407e-41
5.066e-41 -1.6962497e-07 -1.65e-42 4.9085e-41 6.711e-42 -5.2093e-41 -7.253e-42 -5.2634e-41
-5.419359e-14 -3.3780983e-13 3.7534942e-26 5.737e-42 7.711e-42 -2.0504e-41 4.3077e-41 -2.0712142e-07
-2.10641e-07 -7.1704216e-09 -2.2845845e-07 4.2976e-41 -2.1914457e-36 -5.1031e-41 -2.7423e-41 -3.98e-43
-5.525e-41 -3.4033e-41 -4.1187e-41 -9.229531e-36 2.0249729e-33 -1.7033199e-17 6.0718e-41 -8.7456165e-13
-5.7501e-41 4.6642e-41 1.5496e-41 -4.442506e-06 -5.803e-42 1.67e-42 -5.3496e-41 4.99e-41
1.347e-42 5.494e-42 -3.44671e-11 -1.2734e-41 4.65e-43 -2.3990465e-06 -1.2746629e-08 5.654e-41
-4.3752288e-10 -5.3381e-41 -1.8371e-41 -5.9083e-41 -3.7009177e-05 -5.664e-42 -1.7490485e-05 4.405574e-25
5.4445e-41 5.3342e-41 -3.9808e-41 -2.0462e-41 2.943e-42 -9.7143634e-08 5.1472e-41 2.494e-41
-1.04705293e-22 4.4763e-41 2.1333365e-31 7.397e-42 2.053e-42 -2.0647e-41 -2.2449715e-06 6.5954915e-25
5.855e-42 -7.972e-42 -6.1148e-41 -1.7875897e-06 -1.2207745e-10 -5.6984e-41 -1.7413e-41 -6.0693e-41
4.131e-42 -4.3498e-41 -3.252e-42 -6.45e-43 6.1489e-41 3.0453e-41 3.195e-42 -5.9006e-41
6.536e-42 3.363e-42 -2.684125e-06 -6.808e-42 -4.6552063e-06 -5.8578e-41 -1.2147118e-13 -5.8654e-41
-2.7314763e-05 -4.9323e-41 -7.8464416e-13 -1.866476e-25 6.736e-42 4.3785e-41 -2.0947e-41 3.9561204e-25
-1.4170054e-12 -2.1296754e-07 -1.0251899e-06 -3.433e-41 -3.6917898e-17 5.0536e-41 -3.315e-42 -4.2923e-41
-1.963e-42 -1.102852e-06 5.7505283e-25 3.2580737e-25 -5.4883e-41 2.4956953e-35 1.9328e-41 5.4988e-41
-6.0898e-41 3.48e-43 7.735e-42 6.502088e-35 4.355e-42 1.9507e-41 8.359e-42 4.3828e-41
-2.824e-42 -4.155e-42 -5.476e-42 -4.5537882e-07 -8.670379e-12 -4.7038924e-14 -6.45629e-06 -1.6291677e-05
5.0073e-41 -5.853e-42 4.8635e-41 2.713846e-28 8.500289e-25 5.7156e-41 5.5107e-41 -7.065e-42
-1.4276e-41 -2.2098117e-22 -1.8078654e-31 -3.8363e-41 -5.9576e-41 -3.67e-42 -5.6943e-41 -4.971e-41
-4.479e-42 7.703526e-37 -1.2857384e-07 -4.039e-42 -9.302e-42 -7.21e-42 4.134e-42 -3.219e-42
-5.2165337e-06 -3.283005e-07 -1.5388e-41 5.2983e-41 2.3807e-41 -3.6716632e-14 -5.468427e-06 3.05e-42
00000000: bf6c 0000 8111 0000 7109 0000 d7a2 0080
00000010: 1c9a 0000 a377 b09e ad79 b3b5 4511 0080
00000020: 7c9f 752a 1fa3 0000 d498 0000 e15a 0000
00000030: ea8b 0080 0486 0000 5ea6 30a9 581d 0000
00000040: 2aec 9eb3 3f38 5ab6 460e 0000 408d 0000
00000050: 93a3 0080 1f8b 0080 f00a 0080 7b0e 0000
00000060: 485d 1ca1 aa96 0080 5213 0000 bacf 0192
00000070: 5e5f 0000 62a3 0080 6f86 0000 c012 0080
00000080: 6833 0080 7673 0000 f37d 861b 550b 0000
00000090: f0ed 9903 6f8a 0080 ae76 0080 9540 57b7
000000a0: 5ff5 84b1 5fc8 beae 5400 0000 760e 6ba7
000000b0: c0ac 0080 809e 0000 d501 0000 67a3 0080
000000c0: ce55 17b0 0c00 0080 fb1d 0080 1335 0080
000000d0: 3f68 0080 380e 0000 da0a 0000 cc94 dcb4
000000e0: ad42 2cb6 3497 0080 0d50 0080 8d0b 0000
000000f0: 527c 0000 2c0e 0080 a76f 0080 239a 0080
00000100: faa6 0000 106c 6809 9716 0000 dc34 0080
00000110: 8a0b 0000 6309 0000 8793 0080 3816 0000
00000120: 307a 0080 a87b 0000 3178 38aa ce0b 0000
00000130: ed09 0000 833e ffa5 228f 0080 257b 0080
00000140: 6832 8fb5 e37f 0080 b9c7 b2b0 0214 0080
00000150: 6c04 0080 5fb2 0000 f117 0000 07a0 0080
00000160: 388d 0000 2822 36b4 9904 0080 d488 0000
00000170: b512 0000 3791 0080 3814 0080 b992 0080
00000180: f510 74a9 872b beaa 31dd 3915 fe0f 0000
00000190: 7f15 0000 2839 0080 1578 0000 1a65 5eb4
000001a0: 8f2c 62b4 b25f f6b1 2e4e 75b4 cd77 0000
000001b0: 766d 3a84 418e 0080 724c 0080 1c01 0080
000001c0: 049a 0080 df5e 0080 d072 0080 594a 4485
000001d0: 693a 2809 811a 9da3 42a9 0000 cf2a 76ab
000001e0: 4aa0 0080 0582 0000 322b 0000 d610 95b6
000001f0: 2d10 0080 a804 0000 2095 0080 1a8b 0000
00000200: c103 0000 510f 0000 8196 17ae 7f23 0080
00000210: 4c01 0000 4eff 20b6 44fc 5ab2 9c9d 0000
00000220: df87 f0af ce94 0080 3633 0080 b3a4 0080
00000230: 4d3a 1bb8 ca0f 0080 88b8 92b7 8e58 0817
00000240: c597 0000 b294 0000 f86e 0080 0a39 0080
00000250: 3408 0000 479d d0b3 7c8f 0000 8645 0000
00000260: 7029 fd9a c87c 0000 2276 8a0c 9f14 0000
00000270: b905 0000 8e39 0080 51a8 16b6 de1e 4c17
00000280: 5210 0000 3916 0080 75aa 0080 1ded efb5
00000290: bf39 06af d99e 0080 8a30 0080 30a9 0080
000002a0: 840b 0000 4179 0080 1109 0080 cc01 0080
000002b0: 68ab 0000 e454 0000 e808 0000 7ca4 0080
000002c0: 3812 0000 6009 0000 eb20 34b6 fa12 0080
000002d0: eb33 9cb6 4ba3 0080 afc3 08aa 81a3 0080
000002e0: 0222 e5b7 7e89 0080 92db 5cab fc0e 6796
000002f0: c712 0000 0e7a 0000 643a 0080 3bdf f416
00000300: 006d c7ab 12ac 64b4 4299 89b5 b35f 0080
00000310: f640 2aa4 e08c 0000 3e09 0080 a777 0080
00000320: 7905 0080 b505 94b5 61f8 3117 3daa c916
00000330: fe98 0080 a5b1 0406 e135 0000 4999 0000
00000340: c2a9 0080 f800 0000 9015 0000 ebda ac06
00000350: 240c 0000 6136 0000 4d17 0000 2d7a 0000
00000360: df07 0080 950b 0080 440f 0080 ca7a f4b4
00000370: ea87 18ad 30d8 53a9 1ca3 d8b6 1caa 88b7
00000380: 958b 0000 5110 0080 9387 0000 ab02 ac11
00000390: 1d89 8317 549f 0000 9e99 0000 b213 0080
000003a0: cc27 0080 2e93 859b a2ac 6a8c f16a 0080
000003b0: 13a6 0080 3b0a 0080 bc9e 0080 928a 0080
000003c0: 7c0c 0080 9711 8303 1c0e 0ab4 420b 0080
000003d0: ee19 0080 1914 0080 860b 0000 f908 0080
000003e0: af09 afb6 4741 b0b4 e52a 0080 b293 0000
000003f0: 5d42 0000 655b 25a9 6e7d b7b6 8108 0000

8.bias f4 [128]
-0.00080775894 -2.8220311e-30 0.049715314 4.24936e-05 -1.5980379e-16 0.050232194 0.08582465 -9.491444e-09
0.033040356 0.15953824 0.12993546 -1.6472733e-05 0.123362556 0.10855414 -3.810634e-05 -0.0013010608
0.0725312 0.15559593 -0.00023497226 0.11850926 0.1797269 0.13691893 0.17674308 -1.5401629e-12
-0.0006678864 0.088337176 -2.0767197e-25 0.05836364 0.10415429 -0.008015247 0.03189708 -3.3399188e-12
0.055808913 -8.6504486e-05 0.08592481 -0.00011811484 0.123403504 0.11168007 0.13495298 -0.0024589954
0.050430007 0.00042829406 0.07017916 -1.7311296e-08 -3.4513779e-09 0.028649136 0.11797276 0.13636374
-8.963342e-15 0.0744792 -0.0024923275 -0.014126687 0.052843433 0.13695605 0.13568257 0.10666259
-4.4061147e-24 -3.578478e-05 0.06104971 0.14356941 -4.651578e-13 -1.2547866e-36 -2.0133901e-11 -2.7045364e-05
-0.0028960472 -0.06877519 -0.0009237738 0.00029239504 0.16190143 0.09857434 -0.00040455878 -2.9327784e-05
0.067366384 0.07793083 0.11368162 0.10482444 0.08998658 0.12078042 -1.7644064e-29 0.12892836
0.11117219 0.09403244 -5.62878e-06 0.096217066 -1.2860236e-29 -0.0010501482 -6.66108e-33 -0.000113808695
-1.1623409e-06 -2.5967736e-08 -0.009572186 -2.1131707e-05 -0.0005016393 -0.0017330432 -1.5363153e-08 0.13176255
-6.488476e-07 -1.4449437e-13 -5.637047e-29 -6.8619142e-12 0.064149655 0.102228425 0.108457714 -1.3208647e-08
-0.0007326579 0.05910025 -0.00096390117 -3.8419783e-27 -3.4187303e-26 -0.00037660677 -0.00015326336 0.1020888
0.094662204 0.08655363 -0.005207612 0.178328 -3.1003108e-27 0.08915254 0.10523087 0.07472822
0.10400074 -1.6628189e-18 -0.00085185247 0.10907907 -0.0021823982 -2.1428474e-05 0.1570461 0.14128086
00000000: c9bf 53ba 4bf3 648e 49a2 4b3d 283b 3238
00000010: c13d 38a5 46c0 4d3d d6c4 af3d d00f 23b2
00000020: 5355 073d fe5d 233e cd0d 053e ed2e 8ab7
00000030: 82a5 fc3d a251 de3d 5fd4 1fb8 5b88 aaba
00000040: 3d8b 943d 8a54 1f3e e362 76b9 fcb4 f23d
00000050: 540a 383e 7a34 0c3e 23fc 343e 37c2 d8ab
00000060: 1915 2fba 1fea b43d f08a 8096 b60e 6f3d
00000070: d84e d53d 6252 03bc 83a6 023d a106 6bac
00000080: e397 643d be69 b5b8 59f9 af3d 6cb4 f7b8
00000090: faba fc3d 85b8 e43d 1d31 0a3e 1927 21bb
000000a0: b28f 4e3d a88c e039 17ba 8f3d f1b3 94b2
000000b0: 482d 6db1 98b1 ea3c b49b f13d f0a2 0b3e
000000c0: 1e78 21a8 8d88 983d 5156 23bb 9f73 67bc
000000d0: 5b72 583d 353e 0c3e 5ff0 0a3e ea71 da3d
000000e0: 0c74 aa98 9d17 16b8 430f 7a3d dc03 133e
000000f0: 27ee 02ab aa7d d583 8419 b1ad 7adf e2b7
00000100: 9ccb 3dbb 02da 8cbd 6929 72ba 994c 9939
00000110: 7dc9 253e 58e1 c93d f61a d4b9 f004 f6b7
00000120: 63f7 893d 339a 9f3d e9d1 e83d 32ae d63d
00000130: e24a b83d ba5b f73d 9cee b28f cc05 043e
00000140: 3fae e33d 1494 c03d dade bcb6 740d c53d
00000150: 156b 828f 20a5 89ba 6058 0a8a 94ac eeb8
00000160: bb01 9cb5 a80f dfb2 a8d4 1cbc ff43 b1b7
00000170: 7280 03ba 4827 e3ba eef7 83b2 c3ec 063e
00000180: 782c 2eb5 abaf 22aa 87ea 8e90 a16e f1ac
00000190: e560 833d 235d d13d 141f de3d 3eec 62b2
000001a0: d70f 40ba 1b13 723d 50ae 7cba 4a32 9893
000001b0: 8e49 2995 4e73 c5b9 52b5 20b9 ef13 d13d
000001c0: 42de c13d 0843 b13d 9ea4 aabb 9d9b 363e
000001d0: c6a1 7593 9b95 b63d 4883 d73d 1c0b 993d
000001e0: 57fe d43d 8663 f5a1 da4e 5fba d964 df3d
000001f0: 9106 0fbb 4cc1 b3b7 b1d0 203e eeab 103e
