Models/checkpoint_vel_D2_1000_900.pth (torch, 353077 bytes, 16 tensors)

0.weight f4 [32, 9]
0	0x3dea6d8d	0.114466764
1	0xbe06e1c8	-0.13172066
2	0xbe82a152	-0.25513703
3	0xbc47cbd9	-0.012194597
4	0xbfa8d268	-1.3189211
5	0x3e5daad7	0.21647201
6	0x3c0f6a6e	0.008753402
7	0x3e94a25d	0.29030123
8	0xbd162c23	-0.036663186
9	0xbd9c97ce	-0.07646142
10	0x3dfa2077	0.122132234
11	0x3e8535b1	0.26017526
12	0xbc34cd9e	-0.011035351
13	0x3fc2c3df	1.5216025
14	0xbcc1aa21	-0.023640694
15	0xbcd77532	-0.026301
16	0xbddffba1	-0.10936666
17	0xbd31ad40	-0.043378115
18	0x3ed1ffcc	0.4101547
19	0xbcbd8cd1	-0.023138436
20	0xbcce555b	-0.025187185
21	0xbcb88d3c	-0.022528283
22	0xbe8bf9a5	-0.273389
23	0x3d5fc6fa	0.05463312
24	0xbe07e7f3	-0.13272075
25	0x3d00ee83	0.031477463
26	0x3db18445	0.086678065
27	0x3dde687a	0.10859771
28	0xbe7a6cc3	-0.24455552
29	0x3ea49b23	0.3214961
30	0x3e16a75a	0.14712277
31	0x3e974032	0.29541165
32	0x3e8896e5	0.26677623
33	0xbe783941	-0.2424059
34	0xbe237cd7	-0.15965591
35	0xbda0ab51	-0.07845176
36	0x3dd48163	0.10376241
37	0xbe010020	-0.12597704
38	0x3e079358	0.13239801
39	0xbe2a80b3	-0.16650657
40	0x3f6bba0f	0.9208078
41	0xbdd6cb5d	-0.10488007
42	0x3e46e9c9	0.1942512
43	0x3ba701a7	0.0050966325
44	0xbe3ccc8e	-0.18437406
45	0x3cbb278e	0.02284601
46	0xbda6375a	-0.08116026
47	0x3de3109a	0.11087151
48	0xbfb0047c	-1.3751369
49	0x3d519bca	0.051173963
50	0xbef3df06	-0.4763109
51	0xbd2b8e5d	-0.041883815
52	0x3d7844ac	0.060612366
53	0xbd55f809	-0.052238498
54	0x3e268778	0.16262615
55	0xbc2d9320	-0.010594159
56	0x3ecdde6c	0.40208757
57	0xbeb9633c	-0.36208522
58	0xbdda57ba	-0.10661264
59	0x3df4e52d	0.11957774
60	0xbe844b55	-0.25838724
61	0x3e67ca26	0.22635707
62	0x3e807b88	0.25094247
63	0x3db932c2	0.090428844
64	0xbebad4f1	-0.36490586
65	0xbec9c78f	-0.39410064
66	0x3eab355b	0.33439144
67	0xbd3f5a3c	-0.046716914
68	0xbdc595de	-0.096477255
69	0xbd532b4f	-0.051554974
70	0x3d513e62	0.051084884
71	0x3d248269	0.04016343
72	0x3e00f317	0.12592731
73	0x3e08b531	0.13350369
74	0x3e2c5a6b	0.16831367
75	0xbefa44da	-0.48880655
76	0xbdd6067b	-0.10450455
77	0x3d9d1c48	0.0767141
78	0xbe328e7b	-0.17437164
79	0x3da5e4e6	0.081002995
80	0xbe1fadc2	-0.15593627
81	0xbe26506c	-0.16241616
82	0x3d513e46	0.05108478
83	0xbf2c2d85	-0.6725696
84	0xbf225349	-0.63408333
85	0x3e50e31b	0.20399134
86	0xbe3d0804	-0.18460089
87	0x3e0f64ca	0.14003292
88	0xbd506712	-0.050879546
89	0x3b6b740b	0.0035927321
90	0x3c933ad1	0.017972382
91	0xbe9704e8	-0.2949593
92	0xbd1c80e8	-0.038208872
93	0x3fb1bd99	1.3885986
94	0xbf97f6f0	-1.1872234
95	0xbe5b1331	-0.2139404
96	0x3d9f09f0	0.07765567
97	0x3deb194d	0.11479435
98	0xbdf4c7b6	-0.11952154
99	0xbd31691d	-0.043313134
100	0x3e7c3772	0.24630526
101	0x3d97af43	0.074064754
102	0x3f43713a	0.76344645
103	0xbd7db6f6	-0.061942063
104	0xbe2abbac	-0.16673154
105	0xbe5dd0fa	-0.2166175
106	0x3ea5408f	0.32275817
107	0xbd940e07	-0.07229238
108	0x3e12b490	0.14326692
109	0x3ac1a2f4	0.0014773295
110	0xbdb4bfa9	-0.08825619
111	0xbcc64bd3	-0.024206078
112	0x3fcae23e	1.5850294
113	0xbd52ae5f	-0.051435824
114	0x3c56f891	0.013120786
115	0x3e8ea64b	0.27861246
116	0x3cce64d1	0.025194557
117	0xbbf6f2c4	-0.007536264
118	0xbecf11af	-0.4044318
119	0xbb85db6e	-0.004084996
120	0xbc012a36	-0.007883599
121	0x3e03a3a6	0.12855396
122	0x3ec9643e	0.3933429
123	0xbcbb0b57	-0.022832556
124	0x3e8c089e	0.27350324
125	0xbe8b2dc3	-0.2718335
126	0xbe811fb0	-0.25219488
127	0x3c4ab223	0.012371573
128	0x3e79ec69	0.2440659
129	0xbd5ba774	-0.053626493
130	0xbf7252bb	-0.94657487
131	0x3d49ff61	0.049315814
132	0x3e3748c1	0.17898847
133	0x3dcad853	0.09904542
134	0x3dcae35a	0.09906645
135	0x3e55fb8b	0.20896737
136	0x3e9935ff	0.29924008
137	0x3e843b4d	0.25826493
138	0xbdff6417	-0.124702625
139	0xbfc763af	-1.5577296
140	0xbe0d6dec	-0.13811463
141	0x3dc609e4	0.09669855
142	0xbe57df7f	-0.2108135
143	0xbba2f08e	-0.004972524
144	0xbb8aade4	-0.004232155
145	0xbe48b0b7	-0.19598661
146	0xbd51e292	-0.051241465
147	0x3ded1b9b	0.11577531
148	0xbe112699	-0.1417488
149	0x3fb29ab8	1.3953466
150	0xbcdaaea6	-0.026694607
151	0xbbc305a1	-0.0059515988
152	0xbd45cdfa	-0.048292138
153	0xbc4f86d3	-0.012666422
154	0xbec5b43f	-0.3861408
155	0xbe198d1e	-0.14995238
156	0xbf69cbe7	-0.91326755
157	0x3d2cea0b	0.04221539
158	0x3bfdb230	0.007742189
159	0x3c1f911b	0.009739186
160	0xbe29dc92	-0.16588047
161	0x3e3701d6	0.17871794
162	0x3e70a70d	0.23501225
163	0x3d3ecaea	0.046580233
164	0xbebbfddb	-0.36717114
165	0x3d0589be	0.032602064
166	0x3f4ca5e5	0.79940635
167	0xbdaeea1e	-0.08540748
168	0xbe4fe9d7	-0.20304047
169	0xbe097cc5	-0.13426502
170	0xbe30fba1	-0.17283489
171	0x3d4b47d7	0.04962906
172	0x3e84cf06	0.25939196
173	0x3ed0a2a1	0.40749076
174	0xbe9f03c3	-0.31057557
175	0xbca2a809	-0.019855516
176	0x3dee1b6d	0.11626325
177	0x3c8b3f25	0.016997883
178	0xbe850657	-0.259814
179	0x3e9fa52a	0.31180698
180	0xbd49dd6d	-0.049283434
181	0xbd8a5c22	-0.06755854
182	0xbe703bef	-0.23460363
183	0xbe88bd15	-0.26706758
184	0xbf8f1bd2	-1.1180365
185	0x3c77643b	0.01509958
186	0xbe90f00c	-0.2830814
187	0xbe4d1291	-0.20026614
188	0xbbae159c	-0.0053126346
189	0xbe6eb4ad	-0.2331111
190	0x3cb5c6b4	0.022189476
191	0xbca60298	-0.020264909
192	0xbe920652	-0.28520447
193	0x3e875aed	0.26436558
194	0x3f58abf9	0.8463741
195	0xbda3858b	-0.07984456
196	0x3cf43efa	0.029815186
197	0x3d40f334	0.047106937
198	0x3e911b6f	0.28341243
199	0xbea74c6d	-0.32675496
200	0x3ec51c68	0.38498235
201	0xbf0a4bd7	-0.5402197
202	0xbc2944fc	-0.010331389
203	0x3e0ef3f5	0.1396025
204	0x3e2d47a4	0.1692186
205	0xbd7eb151	-0.06218082
206	0xbc812c6a	-0.015768249
207	0xbcb48c02	-0.022039417
208	0x3ca8dde0	0.02061361
209	0x3c1c14d9	0.009526455
210	0x3e608136	0.2192429
211	0x3f2d672f	0.6773557
212	0xbe715371	-0.23566987
213	0x3ea44dea	0.32090694
214	0x3e1c3204	0.15253454
215	0x3ea3a047	0.3195822
216	0x3de09343	0.10965588
217	0xbe629651	-0.22127654
218	0xbe67ed80	-0.22649193
219	0x3ee95893	0.4557539
220	0x3eee4c30	0.465425
221	0x3deaf9dd	0.11473439
222	0xbe133044	-0.1437388
223	0xbd13e9d8	-0.036111683
224	0x3d081ee3	0.03323258
225	0xbe0087de	-0.12551829
226	0xbe548796	-0.20754847
227	0x3c1ea47c	0.009682771
228	0x3ef5e0bb	0.48023018
229	0x3f89e135	1.0771853
230	0xbe03eaf6	-0.12882599
231	0xbda5c2c2	-0.08093788
232	0x3e8e1744	0.27752125
233	0xbd4c8754	-0.049933746
234	0xbcecff38	-0.028930292
235	0xbd03c84b	-0.032173436
236	0xbe9cd463	-0.30630788
237	0xbe1b6de8	-0.15178645
238	0x3ef78779	0.48345545
239	0xbdd7b94b	-0.10533389
240	0xbe6ae047	-0.22937118
241	0x3d5997a0	0.053123116
242	0x3d1ca1e2	0.03824032
243	0xbd6ac82b	-0.0573198
244	0x3dde625b	0.108586036
245	0x3e65b38b	0.22431771
246	0xbf1774f1	-0.59162813
247	0xbde43772	-0.11143388
248	0xbd5254f2	-0.05135054
249	0x3ea006dc	0.31255233
250	0x3eb243c3	0.34817323
251	0xbdf7eca6	-0.12105684
252	0x3ec493a3	0.38393888
253	0x3edb1bce	0.4279465
254	0xbe4c28fa	-0.19937506
255	0xbf55d507	-0.8352818

0.bias f4 [32]
0	0xbddb1cef	-0.10698878
1	0xbd329d15	-0.043606836
2	0x3d2dba7e	0.04241418
3	0xbd23f51d	-0.04002868
4	0x3e6058f3	0.21908931
5	0x3ed8d272	0.42348057
6	0x3d2685af	0.040654834
7	0x3ccd2d64	0.025046058
8	0x3d3244ab	0.043522518
9	0x3e2afc06	0.16697702
10	0xbf13d0a4	-0.57740235
11	0x3dad3319	0.08457012
12	0x3f0f0a02	0.55874646
13	0x3c40c2f6	0.011765232
14	0x3d5dc6e2	0.054144748
15	0xbe92eb5a	-0.28695184
16	0x3f0c430c	0.54789805
17	0x3dca537a	0.09879203
18	0xbafb11f3	-0.001915513
19	0x3f005ec3	0.50144595
20	0xbc03efb6	-0.008052757
21	0x3efcc62f	0.49369952
22	0x3f0295cc	0.5100982
23	0x3df1e16d	0.11810575
24	0xbe3154d6	-0.17317519
25	0xbdf7a561	-0.120920904
26	0x3d4325e3	0.047643553
27	0x3b2234bd	0.0024750673
28	0x3e5f27a2	0.21792462
29	0x3e3678d3	0.17819528
30	0xbe22ef91	-0.159117
31	0xbe11a3bf	-0.1422262

2.weight f4 [64, 32]
0	0x3cc509da	0.02405255
1	0x3eb6cec8	0.35704637
2	0x3d2b163d	0.041769255
3	0xbd77b370	-0.06047386
4	0x3d7cf2c9	0.061754975
5	0xbdda0668	-0.10645753
6	0xbe25873f	-0.16164874
7	0xbd4c977a	-0.049949147
8	0xbe0d9114	-0.13824874
9	0xbe706b25	-0.23478372
10	0xbc20567a	-0.009786243
11	0x3eaf805e	0.34277624
12	0x3d8dee68	0.06930238
13	0xbe3a4d0c	-0.18193454
14	0x3d5bee25	0.05369391
15	0x3db29e5b	0.0872161
16	0x3c5ffef0	0.013671622
17	0xbe751a2f	-0.2393577
18	0x3c1e2d95	0.009654422
19	0xbc8001eb	-0.015625915
20	0xbd9a7eac	-0.07543692
21	0xbc4649e4	-0.012102578
22	0x3cbe5fce	0.023239043
23	0x3dd37836	0.10325663
24	0xbd0d52c4	-0.03450276
25	0xbdc7f398	-0.09763259
26	0xbb52ae2b	-0.003214727
27	0xbda99d02	-0.082819
28	0xbe0edd3e	-0.13951585
29	0xbdff1257	-0.1245467
30	0x3e88793e	0.26655
31	0xbd80e6fa	-0.06294055
32	0xbed517a3	-0.41619596
33	0x3d087140	0.03331113
34	0xbda30b04	-0.079610854
35	0x3e5d1189	0.2158872
36	0x3e32b80a	0.17453018
37	0x3dc5a0d0	0.09649813
38	0xbe0b2f95	-0.1359237
39	0x3e67d1db	0.22638647
40	0xbd86686e	-0.06562887
41	0xbee5577a	-0.44793302
42	0x3e7055f9	0.23470296
43	0x3db027b5	0.086013235
44	0x3d93056f	0.07178771
45	0x3dae37ed	0.08506761
46	0xbea116cc	-0.31462705
47	0xbe92e952	-0.28693634
48	0xbea23466	-0.31680602
49	0xbd922368	-0.071356595
50	0x3d6e50a9	0.058182392
51	0x3e6840b6	0.22680935
52	0xbc8bc1dd	-0.017060215
53	0xbe7b2305	-0.24525078
54	0x3e1a54c2	0.15071395
55	0x3e250755	0.16116078
56	0x3de6ae63	0.112637304
57	0x3e844950	0.25837183
58	0x3df03e60	0.11730647
59	0x3dc48da1	0.09597326
60	0x3eba7eea	0.36424953
61	0xbe4a6ee0	-0.19768858
62	0x3d4fca5a	0.050730087
63	0xbc9dca79	-0.019261586
64	0xbdc6e0f7	-0.097108774
65	0xbe922046	-0.28540248
66	0x3dad4a9c	0.08461496
67	0x3e176d10	0.14787698
68	0xbe5b86d5	-0.21438153
69	0xbe5fd1ed	-0.21857424
70	0xbdd258fd	-0.102708794
71	0x3dcd5135	0.10025255
72	0xbd96809a	-0.073487476
73	0x3cb5acc5	0.02217711
74	0x3f08cdfd	0.53439313
75	0xbdc8adc4	-0.09798768
76	0x3eab549a	0.33462983
77	0xbdd83a09	-0.10557944
78	0x3d78edf4	0.060773805
79	0xbd1ad34e	-0.037799172
80	0xbcce3c11	-0.025175126
81	0x3d27dcd7	0.040982094
82	0x3db7cf88	0.0897513
83	0xbe8c22c8	-0.27370286
84	0x3e1ed633	0.15511398
85	0x3df43b55	0.11925379
86	0xbdcac81b	-0.09901448
87	0x3e113c7c	0.14183229
88	0x3e75170c	0.23934573
89	0xbd4429d1	-0.04789144
90	0x3d7466d0	0.059668362
91	0x3e39d48f	0.18147491
92	0xbe0f33db	-0.13984625
93	0xbc4a350c	-0.012341749
94	0x3e1692df	0.14704464
95	0x3df16d86	0.11788468
96	0xbc915d2e	-0.017744627
97	0x3b44aef3	0.0030011504
98	0x3e1488d7	0.14505325
99	0xbddcdcab	-0.107842766
100	0xbdafb22b	-0.08578905
101	0x3d866178	0.065615594
102	0x3de24ffe	0.110504135
103	0xbda07405	-0.07834629
104	0x3e32f408	0.17475903
105	0x3e482e97	0.19549023
106	0xbcb132a7	-0.021630598
107	0xbe75063c	-0.2392816
108	0xbd47e3ad	-0.048801113
109	0x3da395cb	0.07987555
110	0x3d2c5b58	0.0420793
111	0xbe9f8cf6	-0.31162232
112	0xbe42332f	-0.18964837
113	0x3e50a160	0.2037406
114	0xbdaca588	-0.0843001
115	0xbc71b81f	-0.014753371
116	0x3de45aff	0.11150169
117	0xbeb8a09a	-0.3606003
118	0x3e5d391f	0.21603821
119	0x3c2714b0	0.010197803
120	0xbd846bef	-0.06465899
121	0x3dd4b148	0.10385376
122	0xbdf45fb5	-0.11932317
123	0x3d8852f9	0.06656451
124	0xbdcc4dcd	-0.09975777
125	0x3d51aea9	0.05119196
126	0xbe65a53e	-0.22426316
127	0xbdd63d62	-0.104609266
128	0x3ebfd5d5	0.37467828
129	0x3df90841	0.121597774
130	0x3d22113c	0.039567217
131	0xbda35732	-0.079756156
132	0x3e2c7c22	0.16844228
133	0xbe44e793	-0.19228964
134	0x3e4bf293	0.19916753
135	0x3e159812	0.14608791
136	0xbe14dec2	-0.145381
137	0x3e5b4a29	0.21415009
138	0xbc34d190	-0.011036292
139	0xbe297d4d	-0.16551705
140	0xbd440afb	-0.047862034
141	0xbcc33d41	-0.02383292
142	0x3e30be11	0.17260005
143	0x3d8b8183	0.06811812
144	0x3ec411b9	0.3829477
145	0x3d539207	0.051652934
146	0xbea12905	-0.31476608
147	0xbe0e2f20	-0.13885164
148	0x3ea83309	0.32851437
149	0xbe4fd09d	-0.20294423
150	0xbd54de54	-0.05196984
151	0xbd95711e	-0.07296966
152	0xbd7023fd	-0.05862807
153	0xbe06fe91	-0.13183047
154	0xbd171be7	-0.036891844
155	0x3d79565e	0.06087338
156	0xbdbdbea2	-0.09264876
157	0xbdc8a377	-0.097968034
158	0x3ec48cdf	0.38388726
159	0xbeafd189	-0.3433955
160	0x3d323582	0.04350806
161	0x3e6a5a16	0.22885928
162	0xbd55e685	-0.052221794
163	0x3d58e496	0.05295237
164	0x3e6f0075	0.23340018
165	0xbe85f42b	-0.26162848
166	0xbd89002b	-0.06689485
167	0xbe206e3e	-0.15667054
168	0x3d876565	0.06611136
169	0xbd495d52	-0.049161263
170	0xbc67a5e2	-0.014138671
171	0x3e9331b6	0.28748864
172	0xbcc3467f	-0.023837326
173	0x3cf5211f	0.02992302
174	0x3ddc4c9d	0.107568
175	0x3ecbcca8	0.39804578
176	0x3d905c6b	0.07048877
177	0x3d9084e4	0.07056597
178	0x3d90636a	0.07050212
179	0xbb9c9a91	-0.004779168
180	0xbe8d9bd5	-0.27657953
181	0xbd8028c9	-0.06257779
182	0xbef2f5da	-0.47453195
183	0x3e73cdc7	0.23808967
184	0xbc959cdb	-0.018263271
185	0xbd63b0a1	-0.05558837
186	0xbe685ee0	-0.22692442
187	0xbdfc604c	-0.12323055
188	0x3db862ea	0.09003241
189	0x3e2e3ad0	0.17014623
190	0xbd5ed90d	-0.054406215
191	0x3d3c5355	0.04597791
192	0x3edffe72	0.43748814
193	0x3da7a5d1	0.08185924
194	0x3e4d3e7f	0.20043372
195	0x3c78d6d2	0.015187936
196	0xbe097f4d	-0.13427468
197	0xbe483380	-0.19550896
198	0xbe4fe53a	-0.20302287
199	0x3d6cce58	0.057813972
200	0xbd5a02c1	-0.053225283
201	0x3dd9b036	0.10629313
202	0x3d533a81	0.051569466
203	0xbe2c4d43	-0.16826348
204	0xbf40121e	-0.75027645
205	0xbe256efc	-0.16155618
206	0x3e1cfd06	0.15330896
207	0x3f1caf38	0.6120486
208	0xbdbc2389	-0.09186465
209	0xbc5d69b4	-0.013513971
210	0xbd543a4e	-0.051813416
211	0xbd92e174	-0.07171908
212	0x3dfefaaf	0.12450158
213	0xbd97fa71	-0.07420815
214	0xbd03d422	-0.032184727
215	0xbead125e	-0.33803076
216	0x3dc5cdcc	0.09658393
217	0x3d73826b	0.05945055
218	0xbd260a4e	-0.04053717
219	0xbd53f15d	-0.051743854
220	0xbc77aa14	-0.015116233
221	0xbd7ea923	-0.06217302
222	0x3db59c47	0.08867698
223	0x3e0d962c	0.13826817
224	0x3dc294be	0.095010266
225	0x3c655eec	0.013999682
226	0x3cf92612	0.030413661
227	0x3e391847	0.18075667
228	0xbe05a834	-0.13052446
229	0xbe8f3893	-0.2797285
230	0x3e5a7f3e	0.21337602
231	0xbd31fd19	-0.043454263
232	0x3c8f5b37	0.01749955
233	0xbe4cbcb2	-0.19993857
234	0xbd7144d9	-0.05890355
235	0xbe8a19c8	-0.26972795
236	0x3ef98815	0.48736635
237	0x3d7a7c45	0.06115367
238	0x3d126a53	0.03574593
239	0xbe2d13d0	-0.16902089
240	0x3f1073ce	0.56426704
241	0xbcfb8214	-0.030701675
242	0x3d0cdca3	0.034390103
243	0x3e2c9019	0.16851844
244	0xbd9d62bb	-0.07684847
245	0xbdaca428	-0.08429748
246	0xbdd3d03a	-0.103424504
247	0x3d7b1027	0.0612947
248	0xbc3d4d03	-0.011554006
249	0xbe6e3c1f	-0.23265122
250	0xbd2ce7d0	-0.04221326
251	0xbe028125	-0.12744577
252	0xbddb2d4e	-0.107020006
253	0x3d2f0533	0.042729568
254	0xbe183fcc	-0.14868087
255	0xbd80b880	-0.062851906

2.bias f4 [64]
0	0x3d99891d	0.074968554
1	0xbda67188	-0.08127123
2	0xbe838334	-0.25686038
3	0x3e2b171c	0.16708034
4	0xbe34db75	-0.17661841
5	0xbd8e8034	-0.069580466
6	0xbf66fef9	-0.9023281
7	0x3da846f6	0.0821666
8	0xbe1e3a6f	-0.15451978
9	0x3dbcf91e	0.09227203
10	0xbcc8c7dc	-0.024509363
11	0x3e97c0fe	0.2963943
12	0xbf0536eb	-0.52036923
13	0xbe3a00eb	-0.18164413
14	0xbe0e24da	-0.13881245
15	0xbf45d0a2	-0.77271473
16	0x3ee10bd4	0.43954337
17	0xbed0579e	-0.40691847
18	0x3e1e8e49	0.15483965
19	0xbf0efa53	-0.55850714
20	0x3f0693a7	0.5256905
21	0x3e0dc157	0.13843285
22	0xbf0b3144	-0.5437205
23	0x3d62f803	0.055412304
24	0xbee69656	-0.45036572
25	0xbf49703c	-0.7868688
26	0x3d1ecfc6	0.038772367
27	0x3e3a1af3	0.18174343
28	0x3e862cf0	0.2620616
29	0xbe891877	-0.26776478
30	0xbf5bb795	-0.85827
31	0xbe4ccd28	-0.20000136
32	0x3dbebe51	0.09313644
33	0x3e17b301	0.14814378
34	0x3f023f77	0.5087809
35	0x3de2ba63	0.11070707
36	0xbc11c7e0	-0.008897752
37	0xbf4aaa5c	-0.791662
38	0x3e2bc146	0.16772947
39	0x3eba7ee7	0.36424944
40	0xbea0cb40	-0.31405067
41	0xbe7555e4	-0.23958546
42	0x3a96c414	0.0011502528
43	0x3ea153bd	0.315092
44	0xbe101f70	-0.14074492
45	0x3e966fc3	0.29382142
46	0x3ea2ff9b	0.31835636
47	0xbf0066d4	-0.50156903
48	0xbe4ed979	-0.20200147
49	0x3e176156	0.14783224
50	0x3e34fe6a	0.17675176
51	0x3eab71c5	0.33485237
52	0x3d2fba19	0.042902086
53	0x3ed80792	0.42193276
54	0xbd176706	-0.036963485
55	0x3e8b1fe2	0.27172762
56	0x3cdd222c	0.026993833
57	0x3e80e0f0	0.25171614
58	0xbf12e409	-0.57379204
59	0x3b7df7de	0.0038752477
60	0xbe2081a9	-0.15674461
61	0x3e9120d7	0.28345367
62	0xbeace34f	-0.33767173
63	0xbcbe1f91	-0.023208411

4.weight f4 [128, 64]
0	0x3db5827d	0.08862779
1	0xbdb7d23d	-0.08975647
2	0xbd557bcf	-0.052120026
3	0x3a1dbc37	0.0006017121
4	0x3cc97c6d	0.024595464
5	0x3e233e4f	0.15941738
6	0x3c94b406	0.018152248
7	0x3d6d3487	0.057911422
8	0x3d84254d	0.06452427
9	0xbd9c993f	-0.07646417
10	0x3df6da05	0.12053303
11	0x3d17b354	0.037036255
12	0x3d1994aa	0.037495293
13	0x3d24c50e	0.04022699
14	0xbda8fb38	-0.08251041
15	0xbd532f35	-0.051558692
16	0xbc549652	-0.012975292
17	0xbe09bafb	-0.13450234
18	0xbd1c1936	-0.03810998
19	0x3ca5ba1a	0.020230342
20	0x3cfac04e	0.030609276
21	0x3dc6c9fc	0.09706494
22	0xbd981741	-0.0742631
23	0x3c5d984e	0.013525082
24	0x3d69ecd5	0.057110626
25	0x3a1e6d84	0.0006043541
26	0xbdaddc99	-0.08489341
27	0x3e2c7c21	0.16844226
28	0xbd585e8c	-0.052824542
29	0xbd2593d2	-0.040424176
30	0x3c8ff36a	0.017572124
31	0xbdef3885	-0.11680702
32	0x3e0564c4	0.1302672
33	0x3daae988	0.08345324
34	0xbd93aca8	-0.07210666
35	0xbd9b878b	-0.07594212
36	0x3df4f6d9	0.11961145
37	0xbdf7ab2e	-0.12093197
38	0x3e4c954a	0.19978824
39	0x3ddcd780	0.10783291
40	0x3d8bd772	0.06828202
41	0xbe57d951	-0.21078993
42	0x3cf0b0cc	0.029381178
43	0xbdaf8d56	-0.085718796
44	0xbdd8f8af	-0.10594308
45	0xbdc4a0c4	-0.09600976
46	0x3acc5008	0.0015587816
47	0xbd3493df	-0.044086333
48	0x3db3a900	0.087724686
49	0x3d0fe602	0.035131462
50	0x3d62c075	0.055359323
51	0x3da60f30	0.081083655
52	0xbe3f403a	-0.18676844
53	0x3b9b216b	0.0047342083
54	0x3d372033	0.044708442
55	0xbe183948	-0.14865601
56	0x3dd84803	0.1056061
57	0x3e113f02	0.14184192
58	0x3d13cee1	0.036085967
59	0xbd15adb0	-0.036542594
60	0x3dfc6746	0.12324385
61	0xbdc0e055	-0.09417788
62	0xbd1afb31	-0.03783721
63	0xbdd36ab1	-0.10323084
64	0xba92ef9c	-0.0011210325
65	0xba4596cf	-0.0007537426
66	0xba185f22	-0.0005812516
67	0x3b472681	0.003038794
68	0xba00ba29	-0.00049105525
69	0x3acca8fe	0.0015614328
70	0xb8df01b7	-0.00010633788
71	0xbb2d86f8	-0.0026478153
72	0xbafdeee4	-0.0019373563
73	0xb9e6f946	-0.00044054742
74	0x39b6ea4c	0.0003488831
75	0xba96e19c	-0.0011511329
76	0xba1ba54f	-0.00059374137
77	0xbb8fd048	-0.0043888427
78	0xbaac6a8e	-0.0013154314
79	0xbae6ce4a	-0.0017609086
80	0x3aaf2464	0.0013362286
81	0xbae7acb7	-0.0017675374
82	0xb8a028aa	-7.636969e-05
83	0xb9618c1c	-0.00021509867
84	0xbacba34a	-0.0015536335
85	0xbb31bba3	-0.0027119897
86	0xbb162bee	-0.0022914368
87	0x3b3f0481	0.0029146972
88	0xb9ce383f	-0.00039333288
89	0xba7f49dd	-0.00097384845
90	0xbb35b540	-0.0027726442
91	0xba5f4b21	-0.000851797
92	0xbb1a7169	-0.0023566133
93	0xba9d1c46	-0.0011986576
94	0x3a8b9113	0.0010648094
95	0xbaf80047	-0.0018920981
96	0xbaf8ec5f	-0.0018991343
97	0xba6ef6b9	-0.0009115744
98	0xb96b7b7d	-0.0002245735
99	0xba778594	-0.0009442207
100	0x399dd49b	0.00030103777
101	0xbad31cb1	-0.0016106573
102	0x39ef6bfe	0.00045666093
103	0x3799850f	1.8300982e-05
104	0x38f55536	0.00011698382
105	0xbb037eb1	-0.0020064528
106	0xbab16514	-0.0013534152
107	0x38de084c	0.0001058733
108	0xba6a8e10	-0.00089475606
109	0xb93c110b	-0.00017935426
110	0xb8ee6748	-0.00011367962
111	0xbb19781d	-0.002341754
112	0x3ab9c8a6	0.0014174178
113	0xba5e37a6	-0.000847692
114	0xb855fc41	-5.1018087e-05
115	0xb9992e9d	-0.00029217164
116	0x3a390ef5	0.0007059419
117	0xbab4b2ec	-0.0013786233
118	0xbafae2f9	-0.001914113
119	0xbb159013	-0.002282147
120	0xbaef7ba5	-0.0018271102
121	0xb9a940db	-0.00032282513
122	0x394fe659	0.0001982687
123	0x3ac82baf	0.0015271808
124	0xbaca382a	-0.0015428115
125	0xba8c1767	-0.0010688127
126	0xbb5a9cdb	-0.0033357653
127	0xbb47ae76	-0.0030468977
128	0x3c79cbb0	0.015246317
129	0x3e1824ff	0.14857863
130	0xbe554ede	-0.20830867
131	0xbda50548	-0.08057648
132	0xbcde9e97	-0.02717523
133	0x3c5446f6	0.0129563715
134	0xbe038913	-0.12845258
135	0x3e20aa74	0.15690023
136	0xbd82ac53	-0.063805245
137	0xbdaa54ca	-0.083169535
138	0x3da63b87	0.08116823
139	0x3cd8be4b	0.026457926
140	0x3d0ba82e	0.034095936
141	0x3c56615a	0.013084734
142	0xbdb9a0b1	-0.090638526
143	0x3d2f61df	0.042817947
144	0x3da30391	0.079596646
145	0x3d08b0f4	0.03337188
146	0xbe2e54df	-0.17024563
147	0xbe800c32	-0.25009304
148	0xbe2812c6	-0.16413411
149	0xbcfa587a	-0.030559767
150	0xbda0f626	-0.07859449
151	0xbd6efd5b	-0.058347087
152	0xbd83e426	-0.0644
153	0xbe38a7c9	-0.18032755
154	0x3d2a7f88	0.04162553
155	0xbdda5563	-0.106608175
156	0x3dd848ca	0.105607584
157	0x3db18a09	0.08668906
158	0xbe4ea2bc	-0.20179266
159	0x3cea77d4	0.028621592
160	0xbdee3777	-0.11631673
161	0x3cf367ac	0.02971252
162	0xba0707ee	-0.0005151023
163	0xbd395289	-0.045244727
164	0xbdfd9d5a	-0.12383528
165	0xbd1f719f	-0.038926717
166	0xbb971e7b	-0.004611788
167	0x3e2bc754	0.16775256
168	0xbcd8326d	-0.026391232
169	0xbd58dfd8	-0.05294785
170	0xbdd0478e	-0.10169898
171	0xbe0a9d82	-0.13536647
172	0x3e1faabc	0.15592474
173	0x3d81d0f8	0.06338686
174	0x3d682add	0.056681503
175	0x3b8e22f3	0.0043376624
176	0xbd9f5eeb	-0.07781776
177	0xbdcfc28b	-0.10144528
178	0x3cc39260	0.023873508
179	0x3dfaf12b	0.122530304
180	0x3d20b519	0.03923521
181	0x3db719bf	0.089404576
182	0xbdc98ac6	-0.09840922
183	0xbccef8ee	-0.025265183
184	0xbe5fa9e9	-0.2184216
185	0xbd442948	-0.04789093
186	0xbdeec867	-0.116593175
187	0xbd8d499e	-0.06898807
188	0x3e1664b6	0.14686856
189	0x3d05afa5	0.03263821
190	0x3d7e6334	0.062106326
191	0xbe28cb7b	-0.16483872
192	0x3cfe5726	0.031047415
193	0xbd9e7adf	-0.077382796
194	0x3d0d1c14	0.034450606
195	0x3daf9f16	0.08575265
196	0x3d8043f7	0.06262963
197	0x3d0f26fc	0.034949288
198	0xbd4a1cda	-0.04934392
199	0xbe05c5ff	-0.13063811
200	0xbe1b8e63	-0.15191035
201	0xbe5399af	-0.20664094
202	0x3e5850f5	0.21124633
203	0xbd3be858	-0.045875877
204	0x3cd85967	0.026409818
205	0xbdcf5e5c	-0.101254195
206	0x3d16571b	0.036704164
207	0x3b51b712	0.0031999988
208	0xbd3f3c0e	-0.046688132
209	0x3d53eaf4	0.05173774
210	0xbd841d2f	-0.06450879
211	0x3d7a342f	0.061084922
212	0x3ca4d5df	0.020121513
213	0x3cdb3642	0.02675927
214	0xbdae00cc	-0.08496246
215	0x3db80895	0.08986012
216	0x3c2126b5	0.009835889
217	0xbdbde820	-0.0927279
218	0x3e369455	0.17830022
219	0x3c069301	0.008213759
220	0x3dbd9319	0.09256572
221	0x3dafb4a5	0.08579377
222	0x3dcdbfc3	0.10046341
223	0xbd82f516	-0.06394403
224	0xbd6de361	-0.058078174
225	0x3cdd8332	0.027040098
226	0xbad52a7f	-0.0016263275
227	0x3de641bb	0.11243006
228	0x3de07cc5	0.10961298
229	0x3cc009b2	0.023442123
230	0x3d61d8e7	0.055138495
231	0x3d4327bb	0.04764531
232	0xbb3da770	-0.0028938912
233	0x3c4c3e61	0.012466044
234	0x3d7bbecd	0.06146126
235	0x3dc49d73	0.096003436
236	0x3d7b8382	0.061404712
237	0xbda3f711	-0.080061086
238	0xbe545829	-0.20736755
239	0xbd106bee	-0.03525918
240	0xbc65ccfb	-0.014025922
241	0x3db92914	0.09041038
242	0x3d100481	0.035160545
243	0x3d336365	0.043795962
244	0x3db38269	0.08765108
245	0xbbdcfbd8	-0.0067438893
246	0xbd7ac521	-0.061223153
247	0xbd9041e8	-0.070438206
248	0xbe1d4b7c	-0.15360826
249	0xbc49b384	-0.012310866
250	0xbd7052e8	-0.058672816
251	0x3b8ea8e2	0.0043536285
252	0xbdf46b5f	-0.11934542
253	0xbded5fcc	-0.115905374
254	0xbe280edf	-0.16411923
255	0x3dc6712b	0.09689554

4.bias f4 [128]
0	0xba048d87	-0.00050564896
1	0xbb6d51fc	-0.0036212197
2	0x3db3983b	0.0876927
3	0xba047a75	-0.0005053648
4	0x3d9628ea	0.073320225
5	0xbdbaf704	-0.09129146
6	0xbc822506	-0.015886795
7	0xbebbaba0	-0.36654377
8	0x3cd3d749	0.025859492
9	0xbe37e3f9	-0.17958058
10	0x3c272523	0.010201725
11	0xbc86e954	-0.016468681
12	0xbe3c5bc7	-0.18394385
13	0x3df28eea	0.11843665
14	0xbd9204c7	-0.071298175
15	0xbaabf9cc	-0.001312071
16	0x3e54ef0a	0.20794311
17	0x3e08c9f2	0.13358286
18	0xbe2c85ad	-0.16847868
19	0x3da5705b	0.08078071
20	0xbd921123	-0.07132175
21	0xbe3a573e	-0.18197343
22	0xbdd64175	-0.10461704
23	0xbd8fc708	-0.07020384
24	0xbe82da53	-0.25557193
25	0xbd9ec952	-0.077532426
26	0xb744382f	-1.1695592e-05
27	0x3e775456	0.24153265
28	0xbc8a84ff	-0.01690912
29	0x3c8ca494	0.01716832
30	0x3f03db64	0.5150664
31	0xbd3bf609	-0.045888934
32	0x3e451436	0.19245991
33	0xbe0eff84	-0.13964659
34	0xbd6a72fa	-0.057238556
35	0xbdd09e24	-0.10186413
36	0xbf072c1a	-0.5280167
37	0xbdd502da	-0.104009345
38	0xbe49ee99	-0.19719924
39	0xbeab1947	-0.33417723
40	0xbe60020c	-0.21875781
41	0xbccd53c4	-0.025064357
42	0xbdc20f5b	-0.09475585
43	0xbcd396cb	-0.02582874
44	0x3e8276a0	0.2548113
45	0xbd57c67e	-0.05267953
46	0xbd5e5ea1	-0.054289464
47	0x3e456663	0.19277339
48	0x3dd5d0b2	0.10440196
49	0xbe160f78	-0.14654338
50	0xbc884f3a	-0.01663934
51	0x3e3d4183	0.18482022
52	0xbd03e540	-0.03220105
53	0x3e897bd7	0.26852295
54	0xbf3c89e2	-0.7364789
55	0x3e16b2ee	0.14716694
56	0xbe449df2	-0.19200876
57	0xbdde70be	-0.108613476
58	0xbd16baf3	-0.036799382
59	0xbe6949d7	-0.22782074
60	0x3dc0ee0e	0.09420405
61	0xbe1803a1	-0.14845134
62	0xbdf51c45	-0.119682826
63	0xbe9c129e	-0.30482954
64	0xbf09eca2	-0.538767
65	0xbd4b0500	-0.049565315
66	0xbc88df32	-0.01670799
67	0xbdba05f6	-0.09083168
68	0x3defb6c5	0.117047824
69	0x3d5ab367	0.053393748
70	0x3d402220	0.046907544
71	0x3d41e99d	0.04734193
72	0xbb93faee	-0.004515997
73	0xbe3921da	-0.1807932
74	0x3d183e5d	0.03716885
75	0x3c3d1c20	0.01154235
76	0xbad6aeda	-0.0016379014
77	0x3d8e1e03	0.06939318
78	0xbdd6e732	-0.10493316
79	0xbe84a1f9	-0.25904825
80	0xbddb3758	-0.10703915
81	0x3e97da8b	0.29658923
82	0xbbd62765	-0.006535458
83	0x3e17c1bf	0.14820002
84	0xbe145e21	-0.14489032
85	0x3e50c1a7	0.20386373
86	0xbe858f4b	-0.26085886
87	0x3e98413a	0.29737264
88	0x3e95fbcb	0.29293665
89	0xba95f09a	-0.0011439503
90	0x3bbf1a20	0.0058319718
91	0xbdf8eeee	-0.12154947
92	0x3e2db1bf	0.16962336
93	0x3e39f9ae	0.18161651
94	0xbdcd2378	-0.10016531
95	0xbda29894	-0.07939258
96	0xb9723fd1	-0.00023102692
97	0xbed25e40	-0.41087532
98	0xbf01d5f8	-0.50717115
99	0x3dc45a77	0.09587567
100	0x3e711522	0.23543218
101	0xbc6525de	-0.013986079
102	0x3daba78e	0.08381568
103	0x3dc9fe90	0.09863007
104	0xbeb4575c	-0.352229
105	0xbddd81a5	-0.10815743
106	0xbb5ee499	-0.0034010767
107	0xbe2e2973	-0.17007999
108	0x3ca76725	0.020434925
109	0xbdc81b77	-0.097708635
110	0xbed12af4	-0.40853083
111	0xbe1cf771	-0.15328766
112	0xbda7a14c	-0.08185062
113	0xbdf12b13	-0.11775794
114	0xbc5ea245	-0.013588493
115	0xbd8026b5	-0.06257383
116	0x3d8765cc	0.06611213
117	0x3cc45e78	0.023970827
118	0x3da048a8	0.07826358
119	0x3baa4a69	0.0051968587
120	0x3d2514e3	0.040303122
121	0xbc88d6f7	-0.016704066
122	0x3df625dd	0.120189406
123	0xbd54ca5d	-0.0519508
124	0x3e1de401	0.15419008
125	0xbd928e2d	-0.07156024
126	0x3e246d3e	0.16057298
127	0xbe4484e9	-0.19191326

6.weight f4 [256, 128]
0	0xbaafe3c1	-0.0013419316
1	0x80004b16	-2.6936e-41
2	0xb9b65429	-0.0003477645
3	0xb815ce56	-3.5716534e-05
4	0xb9dc91d8	-0.00042070332
5	0x386fff4e	5.721981e-05
6	0x388e7538	6.792921e-05
7	0xb9e1a9da	-0.00043041894
8	0xbaa8ad61	-0.0012869054
9	0x39f78c77	0.00047216166
10	0xbaa5f62f	-0.0012661869
11	0xb91703a7	-0.00014401843
12	0x39c59261	0.0003768383
13	0x3af4efed	0.0018687226
14	0xbae7c652	-0.0017683005
15	0x0000a258	5.8238e-41
16	0xbb3f84d1	-0.0029223452
17	0xba6c49d4	-0.0009013687
18	0xba904a28	-0.0011008428
19	0xba78ac96	-0.00094861665
20	0xbb52e1f5	-0.0032178138
21	0x3a177235	0.0005777211
22	0xbae6b4a7	-0.0017601446
23	0x3b1472bb	0.0022651393
24	0xb9c43454	-0.0003742302
25	0x3ae36bc0	0.0017350838
26	0x8000015c	-4.88e-43
27	0xb9f5ce78	-0.00046883873
28	0xb973b567	-0.00023241864
29	0xbb144e17	-0.0022629553
30	0xbb5c3a25	-0.0033603993
31	0xba6fd023	-0.0009148141
32	0xba9de765	-0.001204711
33	0xb97b3ee6	-0.00023960657
34	0xb9e902de	-0.0004444336
35	0xba845534	-0.0010096193
36	0xb9cf508a	-0.00039542123
37	0xb89dc77b	-7.5234995e-05
38	0xba699742	-0.0008910784
39	0x3a945589	0.0011316995
40	0xb9a12c0a	-0.00030741125
41	0x3a9304be	0.0011216623
42	0x3ac8b9cd	0.0015314162
43	0xb9818bb7	-0.00024708893
44	0xba820d39	-0.0009922154
45	0xbadafb93	-0.0016707055
46	0x39cea507	0.00039414337
47	0xbb2bfe62	-0.0026244153
48	0xbb267729	-0.0025400615
49	0xbb1217e5	-0.0022292074
50	0xb8dab704	-0.000104291394
51	0xbaa03df0	-0.001222549
52	0x370e17c6	8.469395e-06
53	0xbb225e29	-0.0024775362
54	0x38fbd410	0.000120081124
55	0xbb40a88d	-0.002939734
56	0xb88873b7	-6.506539e-05
57	0x3b181dc6	0.0023211106
58	0xbb0527c8	-0.00203179
59	0xbae02bcb	-0.0017102895
60	0x3ae8ff40	0.0017776266
61	0xbb0c4989	-0.0021406135
62	0xb782ffc8	-1.5616315e-05
63	0xb98a9395	-0.00026431368
64	0xbafc94d8	-0.0019270433
65	0xbaae1126	-0.0013280257
66	0xb4b31717	-3.3358148e-07
67	0xb9e5eb40	-0.0004385356
68	0xbaecce61	-0.0018066877
69	0xba53b407	-0.00080758374
70	0xba63a5c1	-0.0008684062
71	0xba6b3d03	-0.000897363
72	0x00003f8c	2.2796e-41
73	0xbb398b68	-0.0028311852
74	0x366cd0cb	3.5288274e-06
75	0x3a07d761	0.0005181935
76	0x80001bfe	-1.0042e-41
77	0xba9b62e3	-0.0011855032
78	0xbad64e29	-0.0016350198
79	0xba0ee7e9	-0.00054514274
80	0xb9982905	-0.0002902226
81	0xba39c638	-0.0007086727
82	0xb8525975	-5.0151215e-05
83	0x391bc022	0.00014853527
84	0xbaafa55d	-0.0013400723
85	0xba7960c5	-0.0009513016
86	0xbb817b6e	-0.0039514815
87	0xbb9e68d9	-0.004834276
88	0xbb042e7a	-0.0020169304
89	0x00003581	1.9194e-41
90	0xbb848959	-0.0040446934
91	0x39b5d8e8	0.00034684618
92	0xbb3f9f72	-0.0029239324
93	0xbae7b1d2	-0.0017676896
94	0xbb2ac643	-0.0026058115
95	0xb96c1605	-0.00022514917
96	0x0000a396	5.8684e-41
97	0xbad303c8	-0.0016099149
98	0xba085c6c	-0.000520176
99	0xba8cb84e	-0.001073608
100	0xbb3bdb58	-0.0028664675
101	0xba2a587c	-0.00064981706
102	0xb9ef4be1	-0.00045642167
103	0xbae49da3	-0.0017441999
104	0x3a22b3ef	0.0006206622
105	0xb782b0d8	-1.5579557e-05
106	0x80003a83	-2.099e-41
107	0x3a4ffdde	0.00079342525
108	0xbad7c79e	-0.0016462689
109	0xbb0d5c72	-0.0021569994
110	0xb9d7e54b	-0.00041178832
111	0xb9c09db0	-0.0003673858
112	0xba2a4c71	-0.0006496376
113	0xba65620e	-0.0008750268
114	0xbb013545	-0.001971559
115	0xba5cfd7b	-0.00084301055
116	0xb9a52e46	-0.0003150573
117	0xba2b4920	-0.0006534029
118	0xb84c5ed7	-4.8725717e-05
119	0xbac4953a	-0.0014998086
120	0x3a3fcc43	0.0007316509
121	0xb974195d	-0.00023279102
122	0xba579c4a	-0.0008224888
123	0xbaf81243	-0.0018926341
124	0xbb25f6f5	-0.00253242
125	0xba413a28	-0.00073710317
126	0xb95d3122	-0.00021094506
127	0xb9cd3a1f	-0.0003914395
128	0x00000f92	5.586e-42
129	0x8000a33f	-5.8562e-41
130	0x0000086d	3.023e-42
131	0x00001185	6.285e-42
132	0x80000769	-2.658e-42
133	0x00000e70	5.179e-42
134	0x0000006a	1.49e-43
135	0x80000bc6	-4.224e-42
136	0x000001e7	6.82e-43
137	0x00563e9d	7.920314e-39
138	0x80001363	-6.955e-42
139	0x00000fe6	5.703e-42
140	0x80000f15	-5.41e-42
141	0x0226d9cd	1.225826e-37
142	0x09fe4898	6.1216543e-33
143	0x0000002c	6.2e-44
144	0x800011f4	-6.44e-42
145	0x000013e7	7.14e-42
146	0x800004b6	-1.69e-42
147	0x8000087d	-3.045e-42
148	0x8000147a	-7.346e-42
149	0x1ac0bf9c	7.97189e-23
150	0x00000cb7	4.561e-42
151	0x8000129b	-6.674e-42
152	0x80000ad4	-3.884e-42
153	0x00000ed7	5.324e-42
154	0x000041fc	2.3671e-41
155	0x0000045a	1.561e-42
156	0x0000110a	6.112e-42
157	0x09afb875	4.230318e-33
158	0xa03c4617	-1.594741e-19
159	0x80000f85	-5.567e-42
160	0x000011e0	6.412e-42
161	0x000009e3	3.547e-42
162	0x8000016a	-5.07e-43
163	0x00000bc0	4.215e-42
164	0x80000396	-1.286e-42
165	0x00000189	5.51e-43
166	0x80000d05	-4.67e-42
167	0x0000132d	6.879e-42
168	0x92ac0e3f	-1.0858238e-27
169	0x800012c6	-6.735e-42
170	0x80000f7c	-5.555e-42
171	0x00000882	3.052e-42
172	0x800000ad	-2.42e-43
173	0x00000346	1.174e-42
174	0x800000b5	-2.54e-43
175	0x80043c8e	-3.89065e-40
176	0x0b9e1787	6.0894786e-32
177	0x0000109f	5.963e-42
178	0x80001503	-7.538e-42
179	0x80001345	-6.913e-42
180	0x80000cef	-4.64e-42
181	0x824e2cb6	-1.5147321e-37
182	0x9e223350	-8.58682e-21
183	0x80001003	-5.744e-42
184	0x267520fe	8.5046163e-16
185	0x00000515	1.823e-42
186	0x0000033a	1.157e-42
187	0x00000970	3.386e-42
188	0x80001349	-6.918e-42
189	0x00001139	6.178e-42
190	0x00000bda	4.252e-42
191	0x800000e6	-3.22e-43
192	0x000008b3	3.12e-42
193	0x000003d3	1.372e-42
194	0x0000143c	7.259e-42
195	0x8000097b	-3.401e-42
196	0x800002c7	-9.96e-43
197	0x00000658	2.276e-42
198	0x0000151f	7.577e-42
199	0x0000090f	3.25e-42
200	0x0000a122	5.7804e-41
201	0x000005ad	2.036e-42
202	0x80000cd3	-4.6e-42
203	0x8000155b	-7.661e-42
204	0x80000926	-3.282e-42
205	0x800010ee	-6.073e-42
206	0x83566f91	-6.301702e-37
207	0x8ca8931a	-2.5973032e-31
208	0x800002af	-9.63e-43
209	0x9336f13b	-2.3090565e-27
210	0x8000071a	-2.548e-42
211	0x800000c7	-2.79e-43
212	0x000013c5	7.092e-42
213	0x80000f69	-5.528e-42
214	0x9e6a59bb	-1.2406413e-20
215	0x993e104d	-9.826062e-24
216	0x016cd5f1	4.349985e-38
217	0x00000364	1.216e-42
218	0x0e915a7f	3.5832404e-30
219	0x000006b5	2.406e-42
220	0x0de51578	1.4118383e-30
221	0x003e884c	5.742695e-39
222	0x80003141	-1.7669e-41
223	0x000011c8	6.379e-42
224	0x80000ed6	-5.322e-42
225	0x8a3a2550	-8.962592e-33
226	0x80000b0f	-3.967e-42
227	0x0421bc72	1.9011989e-36
228	0x0303f1cb	3.8775005e-37
229	0x0000126c	6.609e-42
230	0x8ad70713	-2.0706408e-32
231	0x00000240	8.07e-43
232	0xaad8adc8	-3.8489893e-13
233	0x80000571	-1.952e-42
234	0x00009716	5.42e-41
235	0x00000dbe	4.93e-42
236	0x80000e05	-5.029e-42
237	0x00000d94	4.871e-42
238	0x9a1e817d	-3.2778234e-23
239	0x80000e17	-5.054e-42
240	0x000004de	1.746e-42
241	0x0deb3359	1.4495355e-30
242	0x00000682	2.335e-42
243	0x80001389	-7.008e-42
244	0x80001048	-5.84e-42
245	0x800005cf	-2.084e-42
246	0x00000c71	4.463e-42
247	0x0000129e	6.679e-42
248	0x800011b4	-6.35e-42
249	0x989a43ef	-3.9876662e-24
250	0x800000f2	-3.39e-43
251	0x828c7626	-2.0638965e-37
252	0x0000016f	5.14e-43
253	0x80000eef	-5.357e-42
254	0x8000025e	-8.49e-43
255	0x00000e22	5.07e-42

6.bias f4 [256]
0	0xbbbca58e	-0.0057570403
1	0xb244dc88	-1.14588445e-08
2	0xbcf7bb32	-0.030240629
3	0xbbbc46b8	-0.005745735
4	0xbb3f78cd	-0.002921629
5	0x3ba11c9c	0.0049167406
6	0xbcc78165	-0.024353692
7	0xba83877f	-0.0010034888
8	0x3c35832a	0.011078635
9	0xb76f0b6b	-1.4248169e-05
10	0xa5fe47a7	-4.411053e-16
11	0xb43ed97a	-1.7774246e-07
12	0xbe17d67b	-0.14827912
13	0xbb909359	-0.0044120965
14	0xbe1b5a57	-0.1517118
15	0xbe94fcee	-0.2909922
16	0x3ce7bf82	0.02828956
17	0x3d1f7816	0.038932882
18	0xba81e6d0	-0.0009910706
19	0xbe8bca15	-0.27302614
20	0xb7b47bbe	-2.1515294e-05
21	0xba975d82	-0.0011548253
22	0xbeaa7644	-0.33293355
23	0xbd81e1bf	-0.06341886
24	0x3beb46e7	0.007180083
25	0xae28b86c	-3.8362577e-11
26	0xbbaf3e5d	-0.0053480105
27	0x3dc32ef2	0.095304385
28	0xbe9440bb	-0.28955635
29	0xbd72be69	-0.05926362
30	0xba12889f	-0.0005589816
31	0xb95924e6	-0.00020708478
32	0xba665551	-0.0008786517
33	0xba06593a	-0.000512499
34	0xbb5f61e0	-0.0034085438
35	0xbbcd6386	-0.0062679676
36	0xbdd89297	-0.10574835
37	0xba1657d8	-0.00057351356
38	0xbd042c17	-0.03226861
39	0xbba1ae29	-0.0049340916
40	0xb79d1943	-1.8727622e-05
41	0xb75dfedd	-1.32319665e-05
42	0xaa1d52e8	-1.3973165e-13
43	0xbd2355b8	-0.03987667
44	0xba1c5877	-0.000596411
45	0xbb700ea4	-0.003662982
46	0xbb905a35	-0.0044052848
47	0xbdc8f711	-0.09812749
48	0xbd0022f9	-0.031283353
49	0xbb0116b5	-0.0019697372
50	0xbdba2329	-0.090887375
51	0xbe4175dc	-0.18892616
52	0xa5b12762	-3.0731292e-16
53	0xbe4d613a	-0.2005662
54	0xb991f454	-0.00027838594
55	0xbb86cfe0	-0.004114136
56	0xbded3056	-0.11581485
57	0xbcbe49b0	-0.023228496
58	0xabda9148	-1.5530155e-12
59	0xbd9c7291	-0.07639039
60	0xaecd99a8	-9.3496155e-11
61	0xb368c443	-5.419521e-08
62	0x93da84c3	-5.516185e-27
63	0x3d35fff6	0.044433556
64	0xb646498d	-2.9547111e-06
65	0xa0071211	-1.1440922e-19
66	0xb78a56c1	-1.649128e-05
67	0x3d306e8f	0.043074187
68	0xadac7af5	-1.960874e-11
69	0xbd4834bb	-0.048878413
70	0xa90a1a5a	-3.0665012e-14
71	0x3b075301	0.002064884
72	0xbbe56142	-0.0070001194
73	0xb8dfba28	-0.00010668143
74	0xbb887876	-0.0041647507
75	0xbdfab185	-0.122408904
76	0xbb86a853	-0.0041094213
77	0xbd090a9a	-0.033457376
78	0x3c1a0917	0.009401581
79	0xbb4ecf25	-0.0031556573
80	0xbb1f9c4b	-0.0024354632
81	0x8fa1064f	-1.5878256e-29
82	0xbda5a3af	-0.08087861
83	0xbc0583b9	-0.008149081
84	0xbd9d1358	-0.07669705
85	0xb91ae6c9	-0.00014772559
86	0xbc012447	-0.007882184
87	0xbcf9db45	-0.030500064
88	0xbd9ffa59	-0.07811422
89	0xb6e515a2	-6.82725e-06
90	0xbad30576	-0.001609965
91	0xb0345fb6	-6.561963e-10
92	0x3c956278	0.01823543
93	0xaa650f69	-2.0344632e-13
94	0xbabaed2d	-0.0014261358
95	0xb993ad6e	-0.0002816724
96	0xbd190767	-0.037360575
97	0xbb707049	-0.003668802
98	0xbd2d5667	-0.042318728
99	0xbe0ac177	-0.13550363
100	0x3c9451a4	0.018105336
101	0xbdf3b982	-0.11900617
102	0xbd5a8221	-0.053346757
103	0x3d86017f	0.06543254
104	0x3d74d226	0.059770726
105	0xb8f87b70	-0.000118485535
106	0xbcc8b8ba	-0.024502147
107	0xba2c55e7	-0.000657408
108	0xbcce4982	-0.025181536
109	0xbd523e91	-0.0513292
110	0xb9b4fa20	-0.00034518633
111	0xbdf0c444	-0.11756185
112	0xb997d20e	-0.00028957467
113	0xbd95a16c	-0.073061794
114	0xbbbc56d2	-0.0057476545
115	0x3c057ddc	0.008147683
116	0x9b493a7e	-1.664523e-22
117	0xbe1b8c0b	-0.15190141
118	0xb2c51897	-2.2945e-08
119	0xbdee5674	-0.116375834
120	0xbb9690fd	-0.0045949207
121	0xbc0cadd3	-0.008586365
122	0xb955b9be	-0.00020382457
123	0xabb75900	-1.3027635e-12
124	0x9b2422cb	-1.3577004e-22
125	0xbbba3013	-0.0056820004
126	0xbd938f93	-0.07205119
127	0xbbadb3a4	-0.005300956
128	0xb8ab305b	-8.162922e-05
129	0xbbb70af2	-0.0055860216
130	0xbe5fee64	-0.21868283
131	0xbb63a897	-0.0034737939
132	0xbb15b86f	-0.0022845527
133	0xb58f23c1	-1.0664736e-06
134	0xbe759872	-0.23983935
135	0xb0514794	-7.6135476e-10
136	0xbb849758	-0.004046362
137	0xbbb9957e	-0.005663573
138	0xa627ae4f	-5.8175996e-16
139	0xbb0af1f5	-0.0021201347
140	0xbbd67786	-0.00654501
141	0xbb2ff062	-0.002684616
142	0xb0d8c8cc	-1.5773138e-09
143	0xbaeae471	-0.0017920864
144	0xbc008392	-0.007843869
145	0xbb5777cb	-0.0032877799
146	0x9222c0b3	-5.1355707e-28
147	0x995a4240	-1.1283715e-23
148	0xbc0cae6b	-0.008586506
149	0xbec24ee7	-0.37950823
150	0x9f98916d	-6.461509e-20
151	0xbbd64edc	-0.0065401625
152	0x3c6149e6	0.013750529
153	0xbe1f3a71	-0.15549637
154	0x3d0c2f39	0.034224723
155	0x3d975c87	0.07390695
156	0xbb8dfbe3	-0.0043330058
157	0xbdf4d3c9	-0.11954457
158	0xa96b496a	-5.224416e-14
159	0x3cbb0259	0.022828268
160	0xbb6126d2	-0.0034355414
161	0xb11461c4	-2.1592408e-09
162	0xb9d84e14	-0.00041256903
163	0xbd03ad0c	-0.032147452
164	0xbc817f42	-0.015807752
165	0x3d1b985b	0.037987094
166	0xbbb6104d	-0.0055561424
167	0xbdd0455a	-0.10169478
168	0xbaea1d7f	-0.0017861574
169	0xbb35abaa	-0.0027720728
170	0xbd0c3cd7	-0.03423771
171	0x95b6968d	-7.374674e-26
172	0xbbf92d31	-0.007604264
173	0xb5f0c9f9	-1.7940175e-06
174	0x3c1a2a0a	0.009409437
175	0xb8132c4d	-3.508879e-05
176	0xbb242057	-0.002504369
177	0xb9666b31	-0.00021974441
178	0xba9173f0	-0.0011097174
179	0xbe11d35a	-0.1424078
180	0xb88df328	-6.768695e-05
181	0x3bce2489	0.0062909764
182	0xa278d818	-3.3724666e-18
183	0xbe677998	-0.22604978
184	0xbda6ce33	-0.08144798
185	0xbdb84308	-0.0899716
186	0xbc611366	-0.013737535
187	0xbb2885a9	-0.0025714433
188	0xbe945da5	-0.28977695
189	0xbea07afd	-0.31343833
190	0xbd2a936e	-0.041644506
191	0xbadce960	-0.0016854219
192	0x3d3abe6e	0.045591764
193	0xb9bfa8ea	-0.0003655621
194	0xbae5d9bd	-0.0017536205
195	0xba4529a9	-0.00075211615
196	0xbb64d6d7	-0.0034918094
197	0xbb2c42f4	-0.0026285024
198	0xbe01caf5	-0.12675078
199	0xbe678721	-0.22610141
200	0xbb324e39	-0.002720727
201	0xbd20c248	-0.03924778
202	0xb8e05919	-0.00010697748
203	0x39bff1c1	0.0003661048
204	0xbbab3f47	-0.005226049
205	0xbe19a730	-0.15005183
206	0xb8862f83	-6.398468e-05
207	0xbdfbb7fd	-0.12290952
208	0xa6742c88	-8.4714857e-16
209	0xbb800db6	-0.0039078845
210	0xbe5f2b04	-0.21793753
211	0x3d34cba9	0.044139538
212	0xbd8f2739	-0.06989903
213	0xba4d2bad	-0.00078266376
214	0xb9963a6e	-0.00028653763
215	0xbe48b7fd	-0.19601436
216	0xb81ab427	-3.688424e-05
217	0xbb10e248	-0.002210753
218	0xbe7eb1eb	-0.24872558
219	0xb456220d	-1.994269e-07
220	0xb12bff66	-2.5028952e-09
221	0xbeac3fd9	-0.33642462
222	0x8bf8eb54	-9.588021e-32
223	0xbdbe165b	-0.09281608
224	0xbe75cbf7	-0.24003588
225	0xbf0331ef	-0.5124807
226	0xbb03679f	-0.0020050777
227	0x3d5c9f59	0.053862903
228	0xbc4a1851	-0.012334899
229	0xb93fdcc9	-0.00018297428
230	0xbb7e9228	-0.003884444
231	0xbb847b52	-0.0040430212
232	0xba938ea1	-0.0011257717
233	0xbbb684d2	-0.0055700326
234	0x3c93dc32	0.018049333
235	0xa207d95d	-1.8410983e-18
236	0xbdc74adb	-0.097310744
237	0xbd5fe77a	-0.054664113
238	0xbd1cbdf0	-0.038267076
239	0xbdc8f385	-0.09812073
240	0xbe151126	-0.14557323
241	0xbcd4dc0b	-0.02598383
242	0x3d02010b	0.031739276
243	0xbdc01e90	-0.09380829
244	0xbb42527f	-0.0029651222
245	0xbddb1190	-0.10696709
246	0x3d23194e	0.039819054
247	0xb58017d9	-9.543684e-07
248	0xbb28b1f0	-0.0025740825
249	0xbb1cf494	-0.002394949
250	0xbd51cdc8	-0.05122164
251	0xbbda9b44	-0.006671341
252	0xbb5e7c4d	-0.00339486
253	0x3d73e65b	0.059545856
254	0xb8a22f92	-7.7336226e-05
255	0x3dbc5100	0.09195137

8.weight f4 [128, 256]
0	0x00008a2b	4.9565e-41
1	0x00002a97	1.5278e-41
2	0x80000c4c	-4.411e-42
3	0x800093d0	-5.3025e-41
4	0x000029c6	1.4985e-41
5	0x00000ba8	4.181e-42
6	0x80000a0c	-3.604e-42
7	0x0000164b	7.997e-42
8	0x800000c8	-2.8e-43
9	0x00000aed	3.92e-42
10	0x80009415	-5.3122e-41
11	0x80000fc0	-5.65e-42
12	0x800010d8	-6.042e-42
13	0x00000577	1.96e-42
14	0x800002ba	-9.78e-43
15	0x000011b3	6.349e-42
16	0x9fcc5f4d	-8.655502e-20
17	0x1e5d3db7	1.1712405e-20
18	0x800001f2	-6.98e-43
19	0x00000743	2.605e-42
20	0x0000035a	1.202e-42
21	0x00000bd6	4.246e-42
22	0x800011db	-6.405e-42
23	0x80000e17	-5.054e-42
24	0x000015fc	7.887e-42
25	0x80007aa8	-4.4001e-41
26	0x00008614	4.8098e-41
27	0x800017c6	-8.528e-42
28	0x800013eb	-7.145e-42
29	0x8000078b	-2.706e-42
30	0x80003c05	-2.1531e-41
31	0x0000198f	9.169e-42
32	0x8000a90e	-6.0645e-41
33	0x800019a8	-9.204e-42
34	0x80005921	-3.1973e-41
35	0x00001df5	1.0747e-41
36	0x000004bd	1.7e-42
37	0x8000a6c2	-5.9821e-41
38	0x0000067c	2.326e-42
39	0x0000963a	5.3891e-41
40	0x00002562	1.341e-41
41	0x0000904a	5.1761e-41
42	0x0000046e	1.589e-42
43	0x000004bd	1.7e-42
44	0x0000250a	1.3287e-41
45	0x00004239	2.3756e-41
46	0x800052eb	-2.9745e-41
47	0x80000915	-3.258e-42
48	0x800013f5	-7.159e-42
49	0x80005fe6	-3.4402e-41
50	0x00000a7c	3.761e-42
51	0x00000cec	4.635e-42
52	0x000004ec	1.766e-42
53	0x0000140c	7.191e-42
54	0x00002eb9	1.6761e-41
55	0x00002577	1.344e-41
56	0x80000b32	-4.016e-42
57	0x800016b4	-8.144e-42
58	0x800013ec	-7.147e-42
59	0x8000107d	-5.915e-42
60	0x8000a596	-5.9401e-41
61	0x0000916f	5.2172e-41
62	0x8000041a	-1.471e-42
63	0x00000c1e	4.347e-42
64	0x80002ad6	-1.5367e-41
65	0x00002046	1.1578e-41
66	0x80001ceb	-1.0374e-41
67	0x80000231	-7.86e-43
68	0x80005740	-3.13e-41
69	0x000011e0	6.412e-42
70	0x00000f09	5.394e-42
71	0x802dc477	-4.203076e-39
72	0x00006ecb	3.9745e-41
73	0x80007f84	-4.5744e-41
74	0x80001a7b	-9.5e-42
75	0x0000198c	9.164e-42
76	0x000016bf	8.16e-42
77	0x00000183	5.42e-43
78	0x00000139	4.39e-43
79	0x800014ff	-7.532e-42
80	0x00006e64	3.96e-41
81	0x000078d5	4.3346e-41
82	0x00001518	7.567e-42
83	0x80001347	-6.915e-42
84	0x80000c2e	-4.369e-42
85	0x00006cbe	3.901e-41
86	0x80001647	-7.992e-42
87	0x80000a11	-3.611e-42
88	0x0000172d	8.314e-42
89	0x000030a8	1.7455e-41
90	0x00000f1f	5.424e-42
91	0x800021d9	-1.2142e-41
92	0x0000054d	1.902e-42
93	0x0000a464	5.8972e-41
94	0x80004817	-2.5861e-41
95	0x00005a4a	3.239e-41
96	0x00002b42	1.5518e-41
97	0x800088e7	-4.9111e-41
98	0x80002063	-1.1618e-41
99	0x800008ee	-3.203e-42
100	0x8000053a	-1.875e-42
101	0x800004df	-1.747e-42
102	0x000006ac	2.393e-42
103	0x80000120	-4.04e-43
104	0x000001c6	6.36e-43
105	0x80007330	-4.1321e-41
106	0x99ddbcc6	-2.292711e-23
107	0x80002238	-1.2275e-41
108	0x0000064d	2.26e-42
109	0x00001356	6.936e-42
110	0x00009e1f	5.6723e-41
111	0x00001072	5.9e-42
112	0x00004007	2.2969e-41
113	0x000004cd	1.722e-42
114	0x00009d69	5.6468e-41
115	0x00000a94	3.795e-42
116	0x8000a8e1	-6.0582e-41
117	0x00000255	8.37e-43
118	0x8000ab70	-6.15e-41
119	0x00000844	2.965e-42
120	0x00005dd3	3.3658e-41
121	0x80008e8f	-5.114e-41
122	0x80009b73	-5.5765e-41
123	0x80006657	-3.6713e-41
124	0x80008e14	-5.0968e-41
125	0x00001e58	1.0885e-41
126	0x800017df	-8.563e-42
127	0x8000a32d	-5.8536e-41
128	0x80001d14	-1.0431e-41
129	0x00001a3c	9.411e-42
130	0x0000034b	1.181e-42
131	0x0000976b	5.4319e-41
132	0x0000a46c	5.8983e-41
133	0x80006f1a	-3.9856e-41
134	0x80000862	-3.007e-42
135	0x800007b5	-2.765e-42
136	0x800012a8	-6.693e-42
137	0x000098b6	5.4782e-41
138	0x800015e5	-7.854e-42
139	0x000003d0	1.368e-42
140	0x0000974a	5.4272e-41
141	0x8000a8a6	-6.05e-41
142	0x000012e0	6.771e-42
143	0x80001698	-8.105e-42
144	0x8000a7a7	-6.0142e-41
145	0x800055cb	-3.0777e-41
146	0x80002da1	-1.6369e-41
147	0x8000a92f	-6.0692e-41
148	0x8000aa18	-6.1018e-41
149	0x8000012e	-4.23e-43
150	0x0000a883	6.045e-41
151	0x00009f70	5.7195e-41
152	0x80000ed6	-5.322e-42
153	0x80001b59	-9.81e-42
154	0x000017a0	8.475e-42
155	0x000013d3	7.112e-42
156	0x0000a5be	5.9457e-41
157	0x0000004c	1.06e-43
158	0x00003a55	2.0926e-41
159	0x80001d5c	-1.0532e-41
160	0x00005c65	3.3145e-41
161	0x0000895f	4.928e-41
162	0x800073fc	-4.1607e-41
163	0x22352c2a	2.4553454e-18
164	0x00000ea4	5.252e-42
165	0x80001672	-8.052e-42
166	0x000098ff	5.4885e-41
167	0x800002d5	-1.016e-42
168	0x80008e34	-5.1013e-41
169	0x00000cbf	4.572e-42
170	0x800002e9	-1.044e-42
171	0x80001bb3	-9.937e-42
172	0x00000578	1.962e-42
173	0x00000f29	5.438e-42
174	0x00000452	1.55e-42
175	0x000014fe	7.53e-42
176	0x00001bbe	9.952e-42
177	0x0000a715	5.9938e-41
178	0x21f55e58	1.6626818e-18
179	0x80000434	-1.508e-42
180	0x00001890	8.811e-42
181	0x000000bf	2.68e-43
182	0x00003d0a	2.1897e-41
183	0x80001382	-6.998e-42
184	0x80001278	-6.625e-42
185	0x80000974	-3.391e-42
186	0x800010be	-6.006e-42
187	0x000009cb	3.513e-42
188	0x8000035a	-1.202e-42
189	0x800010d9	-6.044e-42
190	0x0000110f	6.12e-42
191	0x0000876f	4.8584e-41
192	0x80001685	-8.078e-42
193	0x0000aa90	6.1186e-41
194	0x00004b20	2.695e-41
195	0x000097dc	5.4477e-41
196	0x00005f24	3.413e-41
197	0x80009861	-5.4663e-41
198	0x8000183c	-8.694e-42
199	0x80000416	-1.466e-42
200	0x00004725	2.5522e-41
201	0x80001236	-6.533e-42
202	0x800092c6	-5.2652e-41
203	0x00000880	3.049e-42
204	0x80002bc9	-1.5707e-41
205	0x000008cb	3.154e-42
206	0x80000a73	-3.748e-42
207	0x00000957	3.35e-42
208	0x0000919c	5.2235e-41
209	0x0000029c	9.36e-43
210	0x0000149d	7.395e-42
211	0x00001555	7.652e-42
212	0x80001878	-8.778e-42
213	0x8000a308	-5.8485e-41
214	0x00001ac2	9.599e-42
215	0x80001320	-6.861e-42
216	0x80004a08	-2.6557e-41
217	0x00009ddd	5.663e-41
218	0x80001518	-7.567e-42
219	0x00003e13	2.2268e-41
220	0x00003473	1.8815e-41
221	0x8000020d	-7.36e-43
222	0x80000a15	-3.617e-42
223	0x800006b2	-2.402e-42
224	0x0000004a	1.04e-43
225	0x00000b3f	4.034e-42
226	0x0000656b	3.6382e-41
227	0x00000ebc	5.286e-42
228	0x0000191b	9.006e-42
229	0x00005ccc	3.3289e-41
230	0x00000032	7e-44
231	0x00003289	1.8129e-41
232	0x00007dfc	4.5195e-41
233	0x80001803	-8.614e-42
234	0x80000de5	-4.984e-42
235	0x0000162c	7.954e-42
236	0x000013b4	7.068e-42
237	0x000000f9	3.49e-43
238	0x8000030d	-1.094e-42
239	0x80001680	-8.071e-42
240	0x000009f7	3.575e-42
241	0x80001a6b	-9.477e-42
242	0x00000bce	4.235e-42
243	0x0000152c	7.595e-42
244	0x00006b86	3.8572e-41
245	0x00001070	5.897e-42
246	0x80000cd1	-4.598e-42
247	0x80001d7c	-1.0577e-41
248	0x8000986b	-5.4677e-41
249	0x00008020	4.5963e-41
250	0x80001f02	-1.1124e-41
251	0x0000ac8f	6.1902e-41
252	0x00001e5b	1.089e-41
253	0x80001952	-9.083e-42
254	0x8000a508	-5.9202e-41
255	0x80000c64	-4.445e-42
