Models/vel_1000.pth (torch, 88257 bytes, 12 tensors)

0.weight f4 [32, 9]
0	0x3dc21278	0.09476179
1	0xbce7178e	-0.028209474
2	0x3c8a143a	0.016855348
3	0xbe8ee53c	-0.27909267
4	0xbf6907b4	-0.9102738
5	0x3d1979ae	0.03746956
6	0xbd9c9844	-0.0764623
7	0x3d499258	0.04921183
8	0xbd8407f0	-0.064468265
9	0x3cd3804a	0.025818009
10	0x3e427cc5	0.18992908
11	0x3d90eb83	0.0707617
12	0x3f7353bd	0.9504965
13	0xbf1ffdde	-0.62496746
14	0xbd906758	-0.07050961
15	0x3d2ca6a7	0.04215112
16	0xbc860f0b	-0.016364595
17	0x3d42f1ab	0.047593754
18	0x3f452502	0.77009594
19	0xbcc51b01	-0.024060728
20	0xbcdb82e9	-0.026795821
21	0xbd4bb30f	-0.04973131
22	0xbefd5104	-0.49475873
23	0x3e4178fd	0.1889381
24	0xba47e620	-0.0007625539
25	0x3d60e010	0.054901183
26	0x3d7563f2	0.05990977
27	0x3e50bf03	0.20385365
28	0xbec652ca	-0.38735038
29	0x3ed9fb16	0.42574376
30	0xbdc7c10b	-0.09753617
31	0x3ecba0bc	0.39771068
32	0x3df2dffb	0.11859127
33	0xbd778dfd	-0.060438145
34	0xbd821777	-0.06352132
35	0xbe11575d	-0.14193483
36	0x3dd52dcf	0.10409128
37	0x3d45837f	0.048221108
38	0x3ea949e3	0.33064184
39	0xbe828781	-0.25494006
40	0x3dfbb7ce	0.12290917
41	0x3c494bb8	0.012286119
42	0x3e099ec7	0.13439475
43	0xbdb87ca9	-0.09008152
44	0xbddac7df	-0.10682654
45	0x3e86a2e6	0.26296157
46	0xbea2aeae	-0.31773895
47	0x3d521ed0	0.051298916
48	0xbe4dfa4d	-0.20115013
49	0xbedf68df	-0.43634698
50	0xbdadae84	-0.08480552
51	0x3ced8020	0.028991759
52	0x3dff70ec	0.1247271
53	0x3db8bbd7	0.090202026
54	0x3e1b44f5	0.15163024
55	0x3e71ba4d	0.23606224
56	0x3ddadec7	0.10687023
57	0xbef2c929	-0.47419098
58	0x3ee62fb9	0.44958284
59	0x3e3cabec	0.18424958
60	0xbd942606	-0.07233815
61	0x3e1cecba	0.15324679
62	0x3c0ef486	0.008725291
63	0x3e82e3ee	0.25564522
64	0xbea1748e	-0.31534237
65	0xbbaac514	-0.005211482
66	0x3f0eef4e	0.558339
67	0x3ed38385	0.4131128
68	0xbe103a77	-0.14084803
69	0xbd665a7c	-0.056238636
70	0x3d933b0f	0.07188999
71	0x3baeefea	0.0053386586
72	0xbc18b4ea	-0.009320477
73	0x3b3cc817	0.0028805786
74	0x3ca534f9	0.02016686
75	0x3f2233fd	0.6336058
76	0x3f4d601e	0.8022479
77	0x3d3aee14	0.045637205
78	0x3aff1b28	0.0019463049
79	0x3ddb4eb0	0.10708368
80	0xbe0013b0	-0.1250751
81	0xbdfb0722	-0.1225722
82	0x3ac366f6	0.0014908004
83	0xbeba2135	-0.3635346
84	0xbe0926b8	-0.13393676
85	0x3eb05279	0.34437922
86	0x3e99ac69	0.3001435
87	0x3e252cdb	0.16130392
88	0xbd1a6188	-0.03769067
89	0x3d2aa678	0.041662663
90	0x3e07bf63	0.13256602
91	0xbeae4c3d	-0.3404254
92	0x3e80080f	0.25006148
93	0x3d894aef	0.067037456
94	0xbec4d0a5	-0.38440433
95	0xbea85e8f	-0.32884642
96	0x3deee70e	0.11665164
97	0x3dc40913	0.09572043
98	0xbd70738c	-0.058703944
99	0xbe2b6db0	-0.16741061
100	0x3ddf8b4e	0.10915242
101	0xbdb2433e	-0.08704232
102	0x3e036678	0.12832057
103	0xbeaa3c9f	-0.33249375
104	0x3d722139	0.059113715
105	0xbe194d93	-0.14970998
106	0x3d7fd007	0.06245425
107	0xbdd43773	-0.103621386
108	0x3e642781	0.22280695
109	0x3e58af13	0.21160536
110	0xbea91af2	-0.3302837
111	0xbaabbe3d	-0.001310296
112	0x3eb976a3	0.36223325
113	0xbd502877	-0.05081984
114	0xbd884050	-0.06652892
115	0x3e1bb7b5	0.15206797
116	0x3d37621d	0.044771302
117	0xbc5e3566	-0.013562536
118	0xbeeca693	-0.46220836
119	0xbeeb7375	-0.45986524
120	0x3d6c7a98	0.057734102
121	0x3dcedfb4	0.10101262
122	0xbd1d4c74	-0.03840299
123	0xbd2a7d77	-0.04162356
124	0x3d0cb856	0.034355484
125	0x3d2a67f5	0.041603047
126	0xbe9c326b	-0.30507216
127	0xbb966a1a	-0.004590285
128	0x3c75d8f4	0.015005339
129	0x3de9390f	0.11387836
130	0xbf6be477	-0.92145485
131	0xbca3c7bc	-0.019992702
132	0x3c697a66	0.0142503735
133	0xbd1fcb75	-0.03901239
134	0x3d4e4b99	0.050365064
135	0x3e9aa9c1	0.30207637
136	0x3ebe3d3a	0.37156087
137	0xbdba838d	-0.091071226
138	0xbf223518	-0.63362265
139	0xbe18618d	-0.14880963
140	0xbe0c9d3f	-0.1373186
141	0xbca4a10b	-0.020096323
142	0xbca7dbfc	-0.020490639
143	0x3e0349de	0.12821147
144	0xbc993e0f	-0.01870635
145	0xbcb1bebf	-0.0216974
146	0x3e5ef62b	0.21773593
147	0x3e2d1fa1	0.16906597
148	0xbe7d7411	-0.24751307
149	0x3ef255e8	0.47331166
150	0xbdfadc2c	-0.12249026
151	0x3de6b9f7	0.11265939
152	0x3d910ed0	0.070829034
153	0xba96d61c	-0.0011507901
154	0xbe5aba80	-0.21360207
155	0x3db25989	0.08708484
156	0xbf0ba173	-0.54543227
157	0xbf261b82	-0.64885724
158	0x3dd3d45c	0.10343239
159	0x3bfe6709	0.0077637476
160	0xbe1d980a	-0.1539003
161	0x3c9e5fb9	0.019332753
162	0x3e0b9553	0.13631181
163	0x3e3c7df0	0.18407416
164	0xbe7a7b18	-0.24461019
165	0xbd9334f8	-0.07187837
166	0x3f00fba2	0.5038396
167	0xbe9bf34d	-0.3045906
168	0xbd998d44	-0.074976474
169	0xbd90a9fc	-0.07063672
170	0xbe27fbbf	-0.16404627
171	0x3e2cdd13	0.16881208
172	0xbbed0e3a	-0.007234362
173	0x3e82a29b	0.25514683
174	0x3e7083e5	0.23487814
175	0x3f135b22	0.5756093
176	0x3e37614b	0.17908208
177	0x3d454283	0.048159134
178	0xbd905258	-0.07046956
179	0x3e38412d	0.17993613
180	0x3d025975	0.031823594
181	0xbe353f63	-0.17699961
182	0xbf193374	-0.59844136
183	0x3e04fd94	0.12987357
184	0xbe8692c3	-0.26283845
185	0x3d4a027b	0.04931877
186	0x3c2b7d95	0.010466953
187	0xbcc487d5	-0.023990551
188	0xbdad165d	-0.08451531
189	0xbdcc25fd	-0.09968183
190	0xbda36422	-0.07978083
191	0x3e133e4b	0.14379232
192	0xbf307d58	-0.6894126
193	0x3f46af66	0.77611387
194	0x3d8219f6	0.06352608
195	0xbd84ce16	-0.0648462
196	0x3d1779a9	0.03698126
197	0x3dc0a69b	0.094067775
198	0x3e9aeac0	0.30257225
199	0xbead0246	-0.33790797
200	0x3d357149	0.04429749
201	0xbe76bcaf	-0.24095415
202	0x3ebf33bb	0.37344155
203	0x3de737c6	0.11289935
204	0x3e1e0c72	0.15434435
205	0xbc962ff7	-0.018333418
206	0xbd0c52dd	-0.034258712
207	0x3d914c70	0.070946574
208	0xbd53be9e	-0.05169546
209	0x3e357c2f	0.17723154
210	0x3d9d2bb1	0.07674349
211	0x3de40d54	0.11135355
212	0xbe29fd59	-0.1660055
213	0x3df21ee0	0.11822295
214	0x3e58b800	0.2116394
215	0x3e597e29	0.21239533
216	0x3df900b4	0.12158337
217	0xbebdae2b	-0.37046942
218	0x3dbdb00b	0.09262093
219	0x3f452144	0.77003884
220	0xbe34a6c7	-0.17641746
221	0x3e9aa6c3	0.30205354
222	0x3b52da20	0.003217347
223	0xbc678874	-0.014131654
224	0x3b65b413	0.003504996
225	0xbeb19280	-0.34682083
226	0xbdb19028	-0.08670074
227	0x3efccd9c	0.49375618
228	0xbd854bad	-0.06508575
229	0x3d5828ae	0.05277317
230	0xbeaef691	-0.3417249
231	0x3cadb5ce	0.021204855
232	0x3da6e528	0.08149177
233	0xbd88f4d1	-0.0668732
234	0xbef1c297	-0.47218773
235	0x3d538249	0.05163792
236	0xbdf95963	-0.12175252
237	0x3e71774a	0.23580661
238	0x3ed52a0f	0.4163365
239	0xbe1b5a63	-0.15171199
240	0xbd4cd47b	-0.050007325
241	0xbd476065	-0.048675913
242	0x3b3b651c	0.0028594201
243	0xbd14d50d	-0.036335994
244	0x3d79367f	0.060842987
245	0x3ca2f7d3	0.019893562
246	0xbf3024b8	-0.6880603
247	0xbea31fe9	-0.31860283
248	0xbe957e82	-0.2919808
249	0x3dc8baa6	0.09801225
250	0x3e27e9fe	0.16397855
251	0xbe464b87	-0.19364749
252	0xbd910ca1	-0.07082487
253	0x3c626223	0.013817343
254	0xbd211a37	-0.03933164
255	0x3e141c0c	0.14463824

0.bias f4 [32]
0	0x3b8f5ebf	0.0043753083
1	0x3dcf773c	0.10130164
2	0x3b8f112b	0.0043660603
3	0xbd631aa6	-0.055445336
4	0xbcd471de	-0.025933202
5	0x3e0f7c41	0.14012243
6	0xbb5c5665	-0.003362083
7	0x3db203ff	0.086921684
8	0xbe0dc195	-0.13843377
9	0xbe64d6f8	-0.22347629
10	0xbc831784	-0.016002424
11	0x3bac79b5	0.005263532
12	0x3d9ddab5	0.07707731
13	0xbd455026	-0.04817214
14	0x3e1ffd81	0.15624048
15	0x3af0285c	0.0018322575
16	0xbd1febcc	-0.039043233
17	0xbbeb3e57	-0.0071790623
18	0xbdb1bb0c	-0.086782545
19	0x3d8de744	0.06928876
20	0x3e93ccdc	0.28867233
21	0x3d9e186e	0.07719503
22	0xbe186dbb	-0.14885609
23	0xbe016a9b	-0.12638323
24	0xbcb04871	-0.021518918
25	0xbd8133f5	-0.06308738
26	0x3db314f3	0.0874423
27	0xbe6edd89	-0.23326696
28	0xbe1792e1	-0.14802124
29	0xbe360b42	-0.17777732
30	0x3e0126d6	0.12612471
31	0xbd864ac6	-0.06557231

2.weight f4 [64, 32]
0	0x3dc98b6f	0.09841048
1	0xbd46c6e1	-0.04852951
2	0x3e1cc961	0.15311195
3	0x3dac994d	0.08427677
4	0xbb469053	-0.0030298426
5	0x3d27c9db	0.04096399
6	0x3ca40b93	0.02002505
7	0xbdd70414	-0.10498825
8	0xbe2e728a	-0.1703588
9	0x3cbc995a	0.023022342
10	0x3b2d7e6c	0.0026473058
11	0x3db29364	0.08719519
12	0x3d3bfa78	0.045893162
13	0xbcf91622	-0.030406062
14	0x3d64a5d4	0.05582221
15	0xbd5ec6f6	-0.054388963
16	0xbcd80991	-0.02637175
17	0xbe0229a0	-0.12711191
18	0x3dd848f0	0.10560787
19	0x3d736bcd	0.05942898
20	0x3d7b790c	0.061394736
21	0x3dcc3134	0.09970322
22	0xbeaedafa	-0.3415144
23	0xbb32feb0	-0.002731245
24	0xbd7ee4d8	-0.06222996
25	0xbdb7f8d4	-0.08983007
26	0x3d6577cf	0.05602246
27	0xbd31f823	-0.043449532
28	0xbdd87b42	-0.105703846
29	0xbde36c7f	-0.11104678
30	0x3e0eca91	0.1394446
31	0xbd4badf1	-0.04972643
32	0xbd97fe7f	-0.07421588
33	0xbc44027d	-0.011963484
34	0x3dbda8d6	0.092607185
35	0x3d8dd1c2	0.06924774
36	0x3b90be35	0.0044172057
37	0xbde7fb22	-0.11327197
38	0x3d74a73c	0.0597298
39	0xbdbb4622	-0.09144236
40	0xbde0fcd0	-0.1098572
41	0xbcbb84b7	-0.022890432
42	0x3d5dc55b	0.05414329
43	0xbe26fe94	-0.16308051
44	0xbd52e57f	-0.051488396
45	0xbc6e1687	-0.014531738
46	0xbd5cb874	-0.053886846
47	0x3c087614	0.008328933
48	0x3db9db62	0.09075047
49	0x3dbe2c43	0.09285786
50	0x3e209523	0.15681891
51	0xbd61e575	-0.055150468
52	0xbd747a38	-0.05968687
53	0x3e396851	0.181062
54	0xbd6a80dd	-0.0572518
55	0xbe1120ec	-0.14172715
56	0xbb975302	-0.0046180496
57	0x3dff5c47	0.124687724
58	0x3c0bd123	0.008533749
59	0xbe40aec0	-0.18816662
60	0x3d518f44	0.05116202
61	0x3cdd0d80	0.026983976
62	0x3df0519d	0.117343165
63	0xbe62e8a4	-0.22159058
64	0xbda3503e	-0.07974289
65	0xbc363f0e	-0.011123432
66	0xbdbc9771	-0.09208573
67	0x3d8870e1	0.06662155
68	0xbe028d6d	-0.12749262
69	0xbdc97220	-0.09836221
70	0x3dc4d0db	0.096101485
71	0x3d278c87	0.0409055
72	0x3e192708	0.14956295
73	0xbe1c94e1	-0.15291168
74	0x3d0534fc	0.032521233
75	0xbd82bad6	-0.063832924
76	0x3c904a74	0.017613627
77	0x3dc514c4	0.09623101
78	0x3dd49ca0	0.10381436
79	0xbd25482f	-0.040352043
80	0xbdda817b	-0.10669228
81	0x3bad76b1	0.00529369
82	0x3dfccc30	0.12343633
83	0x3d4b3d4d	0.049619008
84	0xbe538073	-0.20654468
85	0xbe21a470	-0.15785384
86	0x3ca8e670	0.020617694
87	0x3e10a189	0.14124121
88	0xbb185a4a	-0.0023247176
89	0x3e8da930	0.27668142
90	0x3de1f07f	0.11032199
91	0xba2c8697	-0.0006581335
92	0x3b45a53c	0.0030158302
93	0xbdb52df2	-0.08846654
94	0x3c33c1a7	0.010971463
95	0x3d6cd55f	0.057820674
96	0x3cf6014b	0.030029913
97	0xbe1154c8	-0.14192498
98	0xbe914083	-0.2836953
99	0x3d37740a	0.044788398
100	0xbe565924	-0.20932442
101	0xbbb52f0a	-0.005529289
102	0x3cf95861	0.03043765
103	0x3d96d964	0.07365683
104	0x3d392806	0.045204185
105	0x3dbc6cd1	0.092004426
106	0xbd4a483b	-0.04938529
107	0xbe1e97ba	-0.15487567
108	0xbd828d87	-0.063746504
109	0xbe11c193	-0.14233999
110	0x3e1056ea	0.14095655
111	0x3dd8abee	0.10579668
112	0x3ddab880	0.10679722
113	0x3e160124	0.14648873
114	0x3d6ef8af	0.058342632
115	0xbc7d04ea	-0.015443066
116	0xbc99676c	-0.018726073
117	0x3e1bec07	0.15226756
118	0x3df5217b	0.119692765
119	0x3d7ca95c	0.06168495
120	0xbc6bb67f	-0.014386772
121	0x3e00059f	0.12502144
122	0xbe196267	-0.14978944
123	0x3ca0c7d5	0.019626537
124	0xbe2bbae9	-0.1677052
125	0xbd12027c	-0.0356469
126	0xbca7e538	-0.020495042
127	0xbd2d98dc	-0.042382106
128	0xbd4505e1	-0.04810131
129	0xbe81e56c	-0.25370347
130	0xbe99e246	-0.30055445
131	0xbb8d2ffd	-0.004308699
132	0x3d1e64ed	0.03867047
133	0x3b8c2d44	0.004277857
134	0x3e61cfc7	0.22051917
135	0x3cf21907	0.02955295
136	0xbb4c03a9	-0.0031130111
137	0xbe719ce0	-0.23595
138	0xbd53903e	-0.051651232
139	0xbd8c7022	-0.06857325
140	0xbd7d827e	-0.061892025
141	0xbd22b332	-0.039721675
142	0x3e0832f1	0.13300683
143	0x3e915ca5	0.28390995
144	0x3d238ab2	0.039927192
145	0x3d4b186e	0.049583845
146	0xb9a25d65	-0.00030968632
147	0x3db73c67	0.08947068
148	0xbd01998c	-0.031640574
149	0xbe3d137a	-0.18464461
150	0x3ca97e28	0.020690039
151	0xbc17aedb	-0.009257997
152	0x3eb26c30	0.34848166
153	0x3d8e0da0	0.069361925
154	0xbd02d08a	-0.03193716
155	0x3e248be3	0.16068988
156	0xbd8d0bce	-0.06887017
157	0x3d8aac4f	0.067711465
158	0x3dfefcb2	0.124505416
159	0xbd900f98	-0.07034224
160	0xbe72bd7c	-0.23705095
161	0x3e71a164	0.23596722
162	0x3dafb36d	0.085791446
163	0xbd694c81	-0.056957725
164	0x3e30643d	0.17225738
165	0xbddb5487	-0.10709482
166	0x3c9f33a5	0.019433806
167	0x3bd8bf01	0.0066145663
168	0x3e1ccbd4	0.1531213
169	0x3d30898d	0.04309993
170	0x3d077a81	0.033075813
171	0xbda44de7	-0.08022671
172	0x3d9e029a	0.0771534
173	0xbe200b16	-0.15629229
174	0x3d2600dd	0.040528167
175	0xbd72837f	-0.059207436
176	0xbd0783b9	-0.033084605
177	0x3c46b7b6	0.012128761
178	0xbda69a22	-0.08134867
179	0xbd5c7895	-0.053825933
180	0xb8b6b911	-8.7129076e-05
181	0xbdfd858f	-0.1237899
182	0x3d546b83	0.051860344
183	0x3e2fe716	0.17177996
184	0x3dbf0537	0.093271665
185	0xbd3a90b9	-0.045548175
186	0x38e0db76	0.0001072203
187	0xbccbef3c	-0.02489435
188	0xbd252df3	-0.040327024
189	0xbd553f9e	-0.052062623
190	0xbe21aada	-0.15787831
191	0x3d923f16	0.07140939
192	0x3db5db17	0.08879679
193	0x3ee21b90	0.44161654
194	0x3dce8c9c	0.10085413
195	0x3d909e03	0.07061388
196	0xbdad5327	-0.08463126
197	0xbd817fb1	-0.06323183
198	0xbd45eb53	-0.048320126
199	0x3ccdee7c	0.025138132
200	0x3de70a77	0.11281293
201	0xbcb2dab1	-0.021832796
202	0xbe02df81	-0.12780572
203	0xbd1fd52a	-0.03902165
204	0x3d862b58	0.06551236
205	0xbc9c8f9b	-0.019111445
206	0xbcbd25ac	-0.023089252
207	0xbd5cb37d	-0.05388211
208	0xbc45e6ae	-0.012078924
209	0x3d976028	0.07391387
210	0xbe18f0e1	-0.14935638
211	0xbe5fe5e1	-0.21865036
212	0x3c67bdda	0.014144385
213	0xbdbef7e9	-0.09324629
214	0xbdd29d6e	-0.102839336
215	0xbc5e3299	-0.013561868
216	0x3d7cc4f8	0.06171128
217	0x3d0a760c	0.033803985
218	0xbe21e3b7	-0.15809523
219	0x3de44c1a	0.11147328
220	0xbce1a4f3	-0.027544474
221	0x3c7fe0a8	0.015617527
222	0x3e2f3646	0.17110547
223	0xbe7d2104	-0.24719626
224	0xbddcd3c3	-0.10782578
225	0x3e53a0bc	0.20666784
226	0xbcdee1fa	-0.027207363
227	0x3e8788b2	0.26471478
228	0xbe482dad	-0.19548674
229	0xbddf0883	-0.10890295
230	0x3cee5f61	0.029098215
231	0x3e8a1481	0.26968768
232	0x3dc202e7	0.0947321
233	0xbc598bdb	-0.013277973
234	0xbe44790e	-0.19186804
235	0x3dbd0437	0.092293195
236	0x3d903516	0.07041375
237	0x3ca49472	0.020090315
238	0xbcb5a83f	-0.022174953
239	0xbd4ac7ce	-0.049506955
240	0x3c949795	0.018138686
241	0xbc8b8f70	-0.01703617
242	0xbc876241	-0.016526343
243	0xbcde216e	-0.02711555
244	0xbd37ff1b	-0.044921022
245	0xbdad51b2	-0.08462848
246	0xbe3b70aa	-0.18304697
247	0x3e4497cf	0.19198535
248	0xbd874b8b	-0.066062056
249	0xbd0affd8	-0.033935398
250	0x3d1e35c4	0.038625494
251	0x3b6c7e56	0.0036086044
252	0xbe46af16	-0.19402727
253	0xbe33ef38	-0.17571723
254	0x3d37658b	0.044774573
255	0x3e046218	0.12928045

2.bias f4 [64]
0	0xbd79f9f1	-0.06102938
1	0xbe09ea08	-0.13468182
2	0xbd14ea7f	-0.036356445
3	0x3e15cfd9	0.14630069
4	0x3d9688d3	0.07350316
5	0x3b94a045	0.004535707
6	0xbec8dbfb	-0.39230332
7	0xbca4b7b0	-0.02010712
8	0xbe6eb4c1	-0.2331114
9	0x3c2dc922	0.010607036
10	0xbc6e4108	-0.014541872
11	0xbe292789	-0.16518988
12	0xbd806141	-0.0626855
13	0x3d96a330	0.07355344
14	0x3df1959b	0.11796113
15	0x3d8a6ba8	0.06758815
16	0x3ee4b8cc	0.4467224
17	0xbd064483	-0.03278018
18	0x3da39c26	0.07988767
19	0xbeab22fb	-0.33425125
20	0x3e1fa31d	0.15589567
21	0xbda40eab	-0.0801061
22	0x3ea14077	0.31494495
23	0xbb9d9ef0	-0.0048102066
24	0xbb5ce86c	-0.003370787
25	0xbb766cfb	-0.0037601579
26	0x3dae15c9	0.08500249
27	0xbd6666de	-0.056250446
28	0xbd0fb540	-0.035084963
29	0x3da4d468	0.08048326
30	0xbdc23835	-0.09483377
31	0x3dced94f	0.10100042
32	0x3cefd3ab	0.029275736
33	0x3d144520	0.036198735
34	0xbf0f86df	-0.5606517
35	0xbdf8fd21	-0.121576555
36	0x3d335c76	0.04378935
37	0xbd82b425	-0.06382016
38	0xbe42e540	-0.19032764
39	0xbd7b521c	-0.061357602
40	0x3bff8d18	0.007798802
41	0xbc1c7b7e	-0.009550927
42	0x3da0856f	0.078379504
43	0x3ced72ad	0.028985346
44	0x3d955c00	0.07292938
45	0x3d63cee4	0.05561723
46	0x3e20bdb3	0.15697365
47	0xbe5424a7	-0.20717107
48	0xbe29e4d2	-0.16591194
49	0x3c2694b7	0.010167292
50	0xbc9fd0d6	-0.01950876
51	0x3db77dc3	0.08959534
52	0x3da9d7fd	0.082931496
53	0x3c93da25	0.018048355
54	0xbdaea32e	-0.08527218
55	0x3e59d835	0.21273883
56	0x3c8f3f6c	0.017486297
57	0xbc716620	-0.014733821
58	0xbd16cee3	-0.036818396
59	0x3bd6cbe1	0.006555066
60	0xbdf7552b	-0.120767914
61	0x3e0dd156	0.13849387
62	0xbdd8ddf2	-0.10589208
63	0x3ddf26c9	0.108960696

4.weight f4 [128, 64]
0	0xbdf1c796	-0.11805646
1	0xbce7a45b	-0.028276613
2	0x3d19d533	0.03755684
3	0x3c9a4ebf	0.018836377
4	0x3e28d17c	0.16486162
5	0xbc127f82	-0.008941533
6	0xbd26de62	-0.040739425
7	0xbcf1b05f	-0.029503046
8	0x3c93770d	0.018001104
9	0x3d49e846	0.04929378
10	0xbd92a6dc	-0.07160732
11	0x3a0910a3	0.00052286143
12	0xbc95e44e	-0.01829734
13	0x3c2b700f	0.010463729
14	0x3c83a2f7	0.016068919
15	0x3c2b6901	0.010462047
16	0xbd50326c	-0.050829336
17	0x3caeee11	0.021353753
18	0x3ca1fcf5	0.01977394
19	0xbe1b1bb5	-0.15147288
20	0xbd21d555	-0.03951009
21	0xb86664d5	-5.493018e-05
22	0xbe7ad6f1	-0.24496056
23	0xbd1ad1db	-0.03779779
24	0xbb1e3047	-0.0024137662
25	0x3c21c8ce	0.009874536
26	0x3d23cd05	0.039990444
27	0xbae59b71	-0.0017517639
28	0xbd0ad892	-0.033897944
29	0x3d3f14de	0.04665076
30	0xbba0cba7	-0.0049070898
31	0xbce935a1	-0.028467955
32	0x3dd6f5bd	0.104960896
33	0xbdcc2f98	-0.09970015
34	0xbd8a4d56	-0.06753032
35	0x3dd15c7b	0.102227174
36	0x3cc7334d	0.024316454
37	0xbdbd17bf	-0.09233045
38	0x3d1d4bbe	0.03840231
39	0xbd4367b5	-0.047706325
40	0xbd6edda5	-0.058316845
41	0xbaaaf21a	-0.0013042123
42	0xbd042cce	-0.03226929
43	0xbd62e553	-0.055394482
44	0x3c112373	0.008858549
45	0xbcd69bd5	-0.026197353
46	0xbdf28430	-0.11841619
47	0xbc44c920	-0.012010843
48	0x3d45cf26	0.048293255
49	0xbd11d98a	-0.035607852
50	0x3cc4d324	0.024026461
51	0xbd88f000	-0.06686401
52	0x3dda461e	0.10657905
53	0x3d9dfce3	0.0771425
54	0x3d3d6507	0.046238925
55	0x3ce8f000	0.028434753
56	0x3cb3b867	0.021938516
57	0xbabd2af3	-0.0014432356
58	0x3d1d215a	0.038361885
59	0x3d8cd994	0.06877437
60	0xbb693678	-0.0035585444
61	0x3d9c8a65	0.07643584
62	0x3c8314a9	0.016001062
63	0xbde17e01	-0.110103615
64	0x381c4585	3.7258043e-05
65	0x37a344a1	1.9463072e-05
66	0xbb18b6b4	-0.002330226
67	0xb90fcf7b	-0.00013714835
68	0xb9b010f5	-0.0003358197
69	0xb98d464f	-0.00026946
70	0x37f69ba4	2.9397961e-05
71	0xb9fd6563	-0.0004833146
72	0xb8fcc650	-0.00012053235
73	0xb8f8e7dd	-0.000118687494
74	0x388558c8	6.358471e-05
75	0xbb53d3ac	-0.0032322211
76	0xb72436e2	-9.78794e-06
77	0xb96985c6	-0.00022270446
78	0xb7c8407d	-2.3871888e-05
79	0xb61d9147	-2.3479386e-06
80	0x36e18d5f	6.7219803e-06
81	0xba8f45bc	-0.0010930817
82	0xb6f22c6c	-7.2173334e-06
83	0xba3896b3	-0.0007041499
84	0xba9c3f1b	-0.0011920662
85	0x390baa7c	0.00013319583
86	0xb7284946	-1.0030641e-05
87	0xbaa8f0d7	-0.0012889159
88	0xbad2ac84	-0.0016073142
89	0x37321bf2	1.0616133e-05
90	0xbb20284c	-0.0024438081
91	0x355d6266	8.2472104e-07
92	0x37473c23	1.1875326e-05
93	0x37e89b7f	2.7728964e-05
94	0xba48c386	-0.000765853
95	0xbb11a6e4	-0.0022224719
96	0xba1598ac	-0.0005706649
97	0x384e7689	4.922462e-05
98	0xba0fdc19	-0.0005487814
99	0xb8c2fb7d	-9.297484e-05
100	0xb8adfae0	-8.296012e-05
101	0xb8b7acf0	-8.758332e-05
102	0xb992364e	-0.0002788775
103	0x391f73e9	0.00015206602
104	0xb89dc7df	-7.523572e-05
105	0xb996ac3d	-0.00028738557
106	0x370bfa6e	8.343353e-06
107	0xbafa6a8a	-0.0019105237
108	0x353f57dd	7.12809e-07
109	0x39344d27	0.00017194879
110	0xbae21a5e	-0.001725029
111	0xbb0bb9d2	-0.0021320474
112	0x35bf3ff0	1.4249217e-06
113	0xb72a8233	-1.0163104e-05
114	0x389c2b03	7.446671e-05
115	0xba9bf4d1	-0.0011898522
116	0xb7e14ff5	-2.6859323e-05
117	0xb7d1a29c	-2.4990462e-05
118	0xb9d33cb5	-0.00040290286
119	0xb9d08df0	-0.00039778603
120	0xbb23449e	-0.0024912725
121	0xba0b2d07	-0.0005309139
122	0xba09c2af	-0.00052551454
123	0xb9d4db46	-0.00040599162
124	0xba2f61a4	-0.000669027
125	0xba18bbc6	-0.000582632
126	0xbabf6823	-0.0014603179
127	0xb86f69c7	-5.7080553e-05
128	0x80000b9a	-4.162e-42
129	0x000017e7	8.575e-42
130	0x80001535	-7.608e-42
131	0x80000157	-4.8e-43
132	0x800001d7	-6.6e-43
133	0x000014d3	7.47e-42
134	0x8000102f	-5.806e-42
135	0x00001046	5.838e-42
136	0x00000c0c	4.322e-42
137	0x8000187b	-8.782e-42
138	0x000001c4	6.33e-43
139	0x000014ce	7.463e-42
140	0x000024be	1.318e-41
141	0x80000d0c	-4.68e-42
142	0x0000126b	6.607e-42
143	0x80000125	-4.1e-43
144	0x80001388	-7.006e-42
145	0x80000f66	-5.524e-42
146	0x0000016d	5.11e-43
147	0x800001d7	-6.6e-43
148	0x000015f6	7.878e-42
149	0x80000bbf	-4.214e-42
150	0x00001805	8.617e-42
151	0x80000fa2	-5.608e-42
152	0x80001502	-7.536e-42
153	0x8000020a	-7.31e-43
154	0x800013f9	-7.165e-42
155	0x800003e3	-1.394e-42
156	0x000005bd	2.059e-42
157	0x800016dd	-8.202e-42
158	0x8000193b	-9.051e-42
159	0x800000df	-3.12e-43
160	0x00000921	3.275e-42
161	0x80000709	-2.524e-42
162	0x00000a5a	3.713e-42
163	0x8000177a	-8.422e-42
164	0x800000f8	-3.48e-43
165	0x80000a39	-3.667e-42
166	0x80001587	-7.723e-42
167	0x80001b3e	-9.773e-42
168	0x80000ee4	-5.342e-42
169	0x00000db0	4.91e-42
170	0x00000f53	5.497e-42
171	0x00001cd9	1.0349e-41
172	0x80000baf	-4.191e-42
173	0x00001981	9.149e-42
174	0x80000afe	-3.943e-42
175	0x800014c6	-7.452e-42
176	0x00001319	6.851e-42
177	0x80002182	-1.202e-41
178	0x000030bd	1.7484e-41
179	0x0000163e	7.979e-42
180	0x000017c0	8.52e-42
181	0x000002f4	1.06e-42
182	0x0000049a	1.651e-42
183	0x00000687	2.342e-42
184	0x00000b76	4.111e-42
185	0x000005bd	2.059e-42
186	0x00001829	8.667e-42
187	0x80000d3c	-4.748e-42
188	0x800018eb	-8.939e-42
189	0x00001768	8.397e-42
190	0x0000003d	8.5e-44
191	0x00000965	3.37e-42
192	0x800012d9	-6.761e-42
193	0x00000dd9	4.968e-42
194	0x0b17ef1a	2.9261422e-32
195	0x0988db14	3.294683e-33
196	0xa1cc1c6d	-1.3831102e-18
197	0x000012a4	6.687e-42
198	0x800017d4	-8.548e-42
199	0x8000094f	-3.339e-42
200	0x9ba33506	-2.7000354e-22
201	0x800009ce	-3.517e-42
202	0x000008be	3.136e-42
203	0x800005db	-2.1e-42
204	0x80000c3f	-4.393e-42
205	0x800009c3	-3.502e-42
206	0x80000f78	-5.549e-42
207	0x800003d3	-1.372e-42
208	0xa908e8d5	-3.0400016e-14
209	0x8000145d	-7.305e-42
210	0x80000605	-2.16e-42
211	0xaa07d271	-1.206342e-13
212	0x1d59f124	2.8844378e-21
213	0x800008ba	-3.13e-42
214	0x02104414	1.0598987e-37
215	0x00000cda	4.61e-42
216	0x05fd7525	2.3835038e-35
217	0x8431e6b6	-2.0912187e-36
218	0x8704fc9a	-1.0004809e-34
219	0x00000602	2.155e-42
220	0x800013be	-7.082e-42
221	0x800c648d	-1.138097e-39
222	0x14d92002	2.1924025e-26
223	0x80000c6c	-4.456e-42
224	0x0bef6aa7	9.2219924e-32
225	0x00000888	3.06e-42
226	0x80000643	-2.246e-42
227	0x800002c3	-9.91e-43
228	0x800010f8	-6.087e-42
229	0x00000861	3.006e-42
230	0x8b8bc788	-5.3841074e-32
231	0x80000033	-7.1e-44
232	0x06ac16b6	6.473258e-35
233	0x80070742	-6.45452e-40
234	0x000012ed	6.789e-42
235	0x000014df	7.487e-42
236	0x0001620e	1.27011e-40
237	0x000008d5	3.168e-42
238	0x80000fa3	-5.61e-42
239	0x00001011	5.764e-42
240	0x800000d6	-3e-43
241	0x80000cf3	-4.645e-42
242	0x80000a7a	-3.758e-42
243	0x8000113a	-6.18e-42
244	0x80000bbb	-4.208e-42
245	0x202d9361	1.4702434e-19
246	0x13dbb1c1	5.545865e-27
247	0x8dd84d5d	-1.3330652e-30
248	0x0000061f	2.196e-42
249	0x00000d9b	4.881e-42
250	0x0000028b	9.12e-43
251	0x98fb6236	-6.4981147e-24
252	0x8000107b	-5.912e-42
253	0x000002f6	1.062e-42
254	0x80001327	-6.87e-42
255	0x8b48a619	-3.8643557e-32

4.bias f4 [128]
0	0x3d533a92	0.05156953
1	0xb9e9b0ca	-0.0004457294
2	0x9783a930	-8.508386e-25
3	0xb6158b1f	-2.228371e-06
4	0xb3032271	-3.053214e-08
5	0x3e4b3d2d	0.19847555
6	0xb2645530	-1.3290716e-08
7	0xbb560ff2	-0.0032663313
8	0x3e62e89c	0.22159046
9	0xaa2fcaf8	-1.5613541e-13
10	0xb689e79b	-4.1098806e-06
11	0xbb8d08a7	-0.00430401
12	0xa6f22c93	-1.6804205e-15
13	0x3da92b5b	0.082602225
14	0xbc4727ac	-0.012155455
15	0xae2cf532	-3.932605e-11
16	0xab4a9c76	-7.198195e-13
17	0xbb0df7f2	-0.002166268
18	0xae9c5ec4	-7.1108924e-11
19	0xb60cadd2	-2.0962802e-06
20	0x3e25c7f4	0.16189557
21	0x8ddb2ef7	-1.3508223e-30
22	0xab24f3bf	-5.860277e-13
23	0xba7fe2af	-0.00097612565
24	0xab3c73ed	-6.6951897e-13
25	0xb68bf7a7	-4.1713533e-06
26	0xa4ab21ca	-7.421667e-17
27	0x8b98cf4b	-5.886017e-32
28	0xbb5ee381	-0.0034010115
29	0xb0ab6246	-1.2469819e-09
30	0xb911d763	-0.00013908515
31	0x3c99e979	0.018788086
32	0xbd055c6b	-0.03255884
33	0xafd9af56	-3.9596654e-10
34	0x3e377e38	0.17919242
35	0xb589fb12	-1.0280366e-06
36	0xa5e3d9c4	-3.9525787e-16
37	0x9914e5b8	-7.697812e-24
38	0xbad3c0cd	-0.0016155482
39	0xbacb4639	-0.0015508599
40	0xb160fb60	-3.273918e-09
41	0xbb3c1a3f	-0.0028702167
42	0xbbd868b7	-0.00660428
43	0xb8d0a59d	-9.949061e-05
44	0x9600ec4e	-1.0414322e-25
45	0xbb1a10b6	-0.0023508496
46	0xb635c7a3	-2.7087306e-06
47	0x3e1c2b86	0.15250978
48	0xb2d76cf2	-2.5078837e-08
49	0xbc510746	-0.012758082
50	0xb48d6d7f	-2.6342965e-07
51	0xb5bd9d33	-1.4127348e-06
52	0xbd343d14	-0.04400356
53	0xb6a2b9ad	-4.8495917e-06
54	0xa250a9fb	-2.8279243e-18
55	0xaf6f16e2	-2.1745053e-10
56	0xb0503fea	-7.5760787e-10
57	0xbc90b658	-0.017665073
58	0xbb509c68	-0.0031831507
59	0xa317bc9a	-8.225664e-18
60	0xbc85ed39	-0.016348468
61	0x934ce5ff	-2.5861817e-27
62	0xbc717063	-0.014736268
63	0xbcc87659	-0.024470495
64	0xb1428e9c	-2.831178e-09
65	0xabb67a9d	-1.296591e-12
66	0x9dceb89a	-5.471862e-21
67	0xa7b649b3	-5.0595052e-15
68	0xac061a0f	-1.905701e-12
69	0x3da42491	0.08014787
70	0xa31d8374	-8.538823e-18
71	0x9e4fb214	-1.09953144e-20
72	0xb62afa44	-2.5477648e-06
73	0xa644710e	-6.815438e-16
74	0xb82e2276	-4.1516927e-05
75	0x96c6c6f7	-3.211419e-25
76	0xaf1bda31	-1.4174685e-10
77	0xa3840070	-1.4311654e-17
78	0x3dd1bac2	0.10240699
79	0xac2206c2	-2.3025336e-12
80	0x3e02e947	0.127843
81	0xb45dcf52	-2.0657652e-07
82	0x3d6312c2	0.05543781
83	0xbafd6648	-0.001933285
84	0xb8439fa4	-4.66403e-05
85	0xaba8cff8	-1.1994841e-12
86	0xb466b4f2	-2.1486247e-07
87	0x943ae8c1	-9.436503e-27
88	0x3e3dc28a	0.18531242
89	0xafafe8b0	-3.199765e-10
90	0xb6af07de	-5.2163223e-06
91	0x3e4dfc26	0.20115718
92	0xb714520c	-8.84059e-06
93	0xb76af1c5	-1.4003778e-05
94	0xb24c6127	-1.1896453e-08
95	0xb61e86e5	-2.3622354e-06
96	0xbb139d56	-0.00225242
97	0xbc9c9c15	-0.019117394
98	0xb48122ac	-2.405335e-07
99	0x9e2adbec	-9.045204e-21
100	0x3c8344e4	0.01602406
101	0xb613b25b	-2.2008524e-06
102	0xaab594aa	-3.2255215e-13
103	0xb2347326	-1.0503561e-08
104	0x979e629d	-1.0235404e-24
105	0x9b87867f	-2.2420793e-22
106	0xafa9a8fd	-3.0860994e-10
107	0xbba36e17	-0.004987489
108	0xb40a5ea7	-1.2886686e-07
109	0xbc01be50	-0.007918909
110	0xa43d5896	-4.1057877e-17
111	0x3e35f19f	0.17767952
112	0x3e3952b1	0.1809795
113	0x3e020758	0.12698114
114	0xa29764b3	-4.103525e-18
115	0x907224ff	-4.7754586e-29
116	0xb7f18fa7	-2.8796332e-05
117	0x9a9eef15	-6.5733526e-23
118	0xaf00f2d7	-1.1727806e-10
119	0xba48538f	-0.0007641846
120	0xb8a65f49	-7.933245e-05
121	0x3de2b24f	0.11069166
122	0xaaa3ccea	-2.9096804e-13
123	0xbc19ef98	-0.0093955025
124	0x9fe1b1c5	-9.55853e-20
125	0xac098013	-1.9539966e-12
126	0xa94f24b1	-4.5995058e-14
127	0xa1e68153	-1.5619638e-18

6.weight f4 [64, 128]
0	0x2e43764b	4.4442932e-11
1	0xa8c35b8b	-2.168905e-14
2	0x2f42f222	1.773022e-10
3	0x34709f43	2.2409681e-07
4	0xad309528	-1.0037561e-11
5	0xaf08f529	-1.2456226e-10
6	0xad2f4147	-9.962093e-12
7	0xb49e267c	-2.9457794e-07
8	0xadac0511	-1.9556386e-11
9	0x2973fbcf	5.4175248e-14
10	0x38143bf2	3.5341778e-05
11	0x06bff71f	7.2209327e-35
12	0xb13f9682	-2.7879712e-09
13	0x2f070490	1.22798e-10
14	0xb91717d0	-0.00014409353
15	0xad396df8	-1.05404505e-11
16	0xafd96541	-3.9544015e-10
17	0xab06364b	-4.768171e-13
18	0xa7fecd2b	-7.0721606e-15
19	0x2e665bd9	5.2377522e-11
20	0x2e5210e4	4.7763474e-11
21	0x31e40d21	6.637166e-09
22	0xb0842beb	-9.616746e-10
23	0x288970f9	1.525905e-14
24	0xb38f0dfa	-6.661499e-08
25	0x338164fd	6.0254e-08
26	0x2ebab782	8.490898e-11
27	0x385df11c	5.2915057e-05
28	0x2bb4c3c4	1.2844105e-12
29	0xafd78b14	-3.9207093e-10
30	0xb055cd4e	-7.7780704e-10
31	0xaf1fd281	-1.4535752e-10
32	0x2f6aac64	2.1343421e-10
33	0xacd3a41b	-6.0152e-12
34	0xad14a74d	-8.449974e-12
35	0xa91962b7	-3.4058446e-14
36	0x2ac7fc44	3.5524546e-13
37	0x2f6cb908	2.1529811e-10
38	0x3752e2dc	1.2569795e-05
39	0x33c19b21	9.0154806e-08
40	0xab6945c5	-8.2875053e-13
41	0xb00ab1d1	-5.04568e-10
42	0x35879c0b	1.0103698e-06
43	0x2f302b45	1.6022479e-10
44	0x37a50ff8	1.9676969e-05
45	0x29a1cd47	7.185446e-14
46	0x2c3e40a4	2.7036507e-12
47	0xaf01cf7c	-1.1806195e-10
48	0xaf2902f7	-1.5371514e-10
49	0x2e8d2ed9	6.4202595e-11
50	0x2db3aed4	2.0427583e-11
51	0x373952a8	1.1046104e-05
52	0x317bd41e	3.6645882e-09
53	0xb7c3966c	-2.3315857e-05
54	0xb297eff9	-1.768784e-08
55	0xae1910d4	-3.480312e-11
56	0xa9d419a6	-9.4191405e-14
57	0x965c3765	-1.7788938e-25
58	0x3512c9fb	5.468316e-07
59	0xaaa33b2d	-2.8995678e-13
60	0xb48e5417	-2.6510745e-07
61	0x2f01b122	1.1795412e-10
62	0xb3994eea	-7.138972e-08
63	0xb35b0980	-5.099855e-08
64	0x318c6b41	4.0867296e-09
65	0x2faf184a	3.1849573e-10
66	0x354823d7	7.455796e-07
67	0xad137fce	-8.384361e-12
68	0xb62a154a	-2.5344366e-06
69	0xaef21c4e	-1.1009914e-10
70	0x3498feea	2.849768e-07
71	0x33fa3e57	1.1652872e-07
72	0x2d4daee9	1.1691739e-11
73	0x3896b874	7.1869144e-05
74	0x2d7b5c8f	1.428825e-11
75	0x28b9f241	2.0644187e-14
76	0x3074cc57	8.905707e-10
77	0xb71e89e1	-9.449636e-06
78	0xadda354f	-2.4807404e-11
79	0xabedc58c	-1.6894693e-12
80	0x2dab6eb2	1.9489608e-11
81	0xb45230a7	-1.9575474e-07
82	0x2f358d82	1.6512128e-10
83	0x356a0c44	8.718964e-07
84	0xaf416c94	-1.7591822e-10
85	0xafc7b719	-3.6327988e-10
86	0x30236a66	5.9450256e-10
87	0xaa233422	-1.4495395e-13
88	0x2ea29679	7.3936364e-11
89	0x29d39b1c	9.3971895e-14
90	0x2a9811d6	2.7013e-13
91	0xacf03a65	-6.8276934e-12
92	0x339af21a	7.215222e-08
93	0x29d998c7	9.6632385e-14
94	0x2a1d92ec	1.3995375e-13
95	0xb15e8dd0	-3.2385863e-09
96	0xb4c0d5d0	-3.5918356e-07
97	0x344b87c1	1.8955235e-07
98	0xb5e29869	-1.6882669e-06
99	0xaa748999	-2.1719292e-13
100	0xaed5af2c	-9.7172353e-11
101	0x36939c72	4.399154e-06
102	0xa1203703	-5.4282916e-19
103	0x2bbedd22	1.3561689e-12
104	0x36f224a0	7.2164257e-06
105	0xaa4cf54a	-1.8203942e-13
106	0x30822bc6	9.471186e-10
107	0xb54ff8f5	-7.747579e-07
108	0xab98223e	-1.0809754e-12
109	0x2c604e81	3.1875893e-12
110	0xb7cf4660	-2.4709094e-05
111	0xaec28202	-8.8451926e-11
112	0x2cb2b4b9	5.0791285e-12
113	0xae5a8474	-4.9685103e-11
114	0xb652cce6	-3.1411705e-06
115	0xaa5328d8	-1.8754735e-13
116	0xb402b4ff	-1.217304e-07
117	0xaf42e295	-1.7724695e-10
118	0x2c8e13c7	4.0380785e-12
119	0x00003c1c	2.1563e-41
120	0x2f9277ea	2.664245e-10
121	0xaee331f5	-1.0331639e-10
122	0x06cf1cbe	7.790698e-35
123	0x2759cee1	3.0226949e-15
124	0x2e42ea50	4.4318604e-11
125	0xb69a3f98	-4.596961e-06
126	0xa8c48767	-2.1819093e-14
127	0xae917c0d	-6.6158724e-11
128	0xad97a1bd	-1.7238539e-11
129	0x2919cb8e	3.414938e-14
130	0xaa271523	-1.4839913e-13
131	0xb91bd11b	-0.0001485985
132	0x2e57a568	4.903225e-11
133	0x2dde7d63	2.529416e-11
134	0x2b31b5da	6.31354e-13
135	0xac1ae57b	-2.2012104e-12
136	0x2f775fca	2.249855e-10
137	0x29bd8eba	8.418045e-14
138	0xb0660a41	-8.3688084e-10
139	0xae0b0940	-3.1613157e-11
140	0xafb0d962	-3.2168673e-10
141	0xaf813a06	-2.3506191e-10
142	0x3383260a	6.107082e-08
143	0x24173876	3.279073e-17
144	0xab02d7d3	-4.6484794e-13
145	0xb8d1f202	-0.00010010974
146	0x2ef2eefa	1.1047337e-10
147	0xb6fc90da	-7.527048e-06
148	0xaf7b059f	-2.2830314e-10
149	0x2457dc43	4.6807262e-17
150	0xaa17e3aa	-1.3490481e-13
151	0xa58a1fd4	-2.3960752e-16
152	0xac945eec	-4.2169514e-12
153	0x2beeea7f	1.6976003e-12
154	0x34f0e21f	4.4868008e-07
155	0xaea01f6a	-7.281538e-11
156	0xb2a30858	-1.8979492e-08
157	0xa689bee1	-9.558022e-16
158	0xa95e6375	-4.9380168e-14
159	0x2f8f0ec1	2.6022032e-10
160	0x2e443dcc	4.4620127e-11
161	0xb20dc192	-8.251293e-09
162	0x2f34c7ba	1.6441862e-10
163	0xb35feade	-5.2134844e-08
164	0x2ee8704f	1.05700886e-10
165	0x2ad46d1f	3.7734483e-13
166	0x2d5077c8	1.1850028e-11
167	0xae55c8c6	-4.8608916e-11
168	0xad92e8e7	-1.6701708e-11
169	0x314bfae9	2.9683014e-09
170	0xb6789031	-3.703881e-06
171	0x2a166c73	1.3360302e-13
172	0xb28749ff	-1.5749718e-08
173	0xaeb8b9cb	-8.400355e-11
174	0x801ec274	-2.824822e-39
175	0xacf86a9b	-7.0604195e-12
176	0x2bac2de9	1.2234078e-12
177	0xad18dca9	-8.689196e-12
178	0xaf000ed5	-1.1646802e-10
179	0x2b7015fa	8.5295627e-13
180	0xb80cb2e2	-3.35452e-05
181	0x2d3175b4	1.00874205e-11
182	0xad266ca5	-9.4601315e-12
183	0x30359d87	6.6071276e-10
184	0x36bf2747	5.696816e-06
185	0x34d2aa14	3.9239296e-07
186	0x2e57b37a	4.9044747e-11
187	0xb64dbeaa	-3.0658362e-06
188	0xb214018a	-8.615084e-09
189	0x34b9a3e7	3.457819e-07
190	0xaadceee1	-3.9245606e-13
191	0xb34452cd	-4.5710113e-08
192	0x314f8a61	3.0201124e-09
193	0x31c9f3d7	5.8775913e-09
194	0xa9e6fbfc	-1.0257764e-13
195	0x37c691dc	2.367136e-05
196	0xaf8e5bfc	-2.5895008e-10
197	0xaf9983eb	-2.792427e-10
198	0x320a0532	8.0338385e-09
199	0xadbcaf58	-2.1450994e-11
200	0xadf3ce95	-2.7717642e-11
201	0x298f0d21	6.352753e-14
202	0xb54409ce	-7.302996e-07
203	0xb144238b	-2.8541958e-09
204	0xa9cfbe7a	-9.225689e-14
205	0x2f06dc60	1.2265522e-10
206	0xad62d103	-1.2893023e-11
207	0xb2cc1fc6	-2.3763175e-08
208	0xae741433	-5.5497117e-11
209	0xafafccb6	-3.197777e-10
210	0x2e27dddc	3.8168455e-11
211	0x9a15e5f2	-3.0998226e-23
212	0x32a5ae0a	1.9287672e-08
213	0xb72b1ae3	-1.0198654e-05
214	0x000011e7	6.422e-42
215	0x37e24f9b	2.6978369e-05
216	0xaec688ee	-9.028321e-11
217	0xa98703b0	-5.995844e-14
218	0xae1f4b05	-3.6219045e-11
219	0xaf7cdebf	-2.2998402e-10
220	0xad2b67c5	-9.743266e-12
221	0xb6172e2d	-2.2527631e-06
222	0x2c2c8bc9	2.4520266e-12
223	0x362fc327	2.6190626e-06
224	0xa2c7c9d3	-5.4152748e-18
225	0x338f1170	6.662128e-08
226	0x304aae4e	7.3734874e-10
227	0x376ef051	1.42418585e-05
228	0x2ea24abd	7.380183e-11
229	0xab1dacbb	-5.6017316e-13
230	0x268c5c1b	9.739417e-16
231	0xb6e5ce28	-6.8487316e-06
232	0x00007ef1	4.5538e-41
233	0xafa6101f	-3.020668e-10
234	0xa9131c69	-3.26652e-14
235	0xaf767af8	-2.2417257e-10
236	0xb1a43832	-4.779417e-09
237	0x2325607e	8.965101e-18
238	0xaaa38445	-2.9046397e-13
239	0xadc5128f	-2.2404549e-11
240	0xaf13e4fe	-1.3450926e-10
241	0xae74cfb8	-5.5663668e-11
242	0x37b7029d	2.1816517e-05
243	0x3480e5de	2.4009108e-07
244	0xade96e46	-2.6538004e-11
245	0x2fff47df	4.6435297e-10
246	0x364a2e4c	3.0127294e-06
247	0xb4f54bd0	-4.5689967e-07
248	0xa9ceae02	-9.178423e-14
249	0x2cfa1ec6	7.108844e-12
250	0x2635724e	6.29519e-16
251	0x2e6c00a2	5.366075e-11
252	0xacde6cb0	-6.3216862e-12
253	0xb2bd226e	-2.2018153e-08
254	0xa9bfcd23	-8.5176895e-14
255	0xaa3a3b6e	-1.6540737e-13

6.bias f4 [64]
0	0xb48c927a	-2.6183608e-07
1	0xb223ed70	-9.541836e-09
2	0xba7a3a17	-0.0009545399
3	0xb99816d1	-0.000290087
4	0xb4a55529	-3.0795607e-07
5	0xb402895c	-1.2157165e-07
6	0x3e7df0ea	0.24798933
7	0xb9ec6680	-0.00045089796
8	0xb2cc8ac8	-2.3811836e-08
9	0xb9a222f6	-0.00030925096
10	0xb43dd197	-1.7678245e-07
11	0x37a28875	1.9375448e-05
12	0xb1d53cd4	-6.2060312e-09
13	0xb9cf5f36	-0.00039553054
14	0xad080d58	-7.733668e-12
15	0xbc338f3a	-0.010959441
16	0xb4979094	-2.8231136e-07
17	0xbbda3602	-0.0066592703
18	0x3eb18357	0.34670517
19	0xb7809bfc	-1.5331425e-05
20	0xafd6b1fd	-3.9052842e-10
21	0xbb70112f	-0.0036631336
22	0x3e96cbf7	0.29452488
23	0xb5b6650b	-1.3589464e-06
24	0xb1855ea9	-3.881571e-09
25	0xb413a579	-1.375064e-07
26	0xad18f4c8	-8.694552e-12
27	0xac927661	-4.1627123e-12
28	0xb5b7b448	-1.3687031e-06
29	0xb649a147	-3.004521e-06
30	0xa9b500bf	-8.038144e-14
31	0xb0bdb037	-1.3801643e-09
32	0x3e8efc14	0.27926695
33	0xb4823513	-2.4253004e-07
34	0xada9046b	-1.9215038e-11
35	0xb3b82d79	-8.576439e-08
36	0xbbcde6b3	-0.006283605
37	0xb11d7c22	-2.2917068e-09
38	0xb6327cc1	-2.6596683e-06
39	0xb1c808a1	-5.821747e-09
40	0xaf13adfb	-1.3431382e-10
41	0xb27a93ec	-1.4585549e-08
42	0xb09ffa06	-1.1639834e-09
43	0xb6ae19f1	-5.188624e-06
44	0xba508cbd	-0.0007955542
45	0x3e8c91ad	0.27454892
46	0x2a82f154	2.3260094e-13
47	0xb13eedf9	-2.778391e-09
48	0xae8462e0	-6.020229e-11
49	0xb788524f	-1.6250791e-05
50	0xb7b4452f	-2.1489888e-05
51	0xb71c6870	-9.322641e-06
52	0x301986c0	5.5852567e-10
53	0xb4bb5565	-3.4893597e-07
54	0xbacfea15	-0.0015862609
55	0xb4de8f4e	-4.145499e-07
56	0xb4a393f2	-3.046876e-07
57	0xb2587b18	-1.2600843e-08
58	0xb737f7ea	-1.0965372e-05
59	0xb416a229	-1.4028832e-07
60	0x3e8a2ab1	0.26985696
61	0xb99807cb	-0.00028997505
62	0xb98da9dd	-0.00027020174
63	0xb022c9a7	-5.922182e-10

8.weight f4 [32, 64]
0	0xae8ac614	-6.310699e-11
1	0xb059a276	-7.917501e-10
2	0x346582a6	2.1374817e-07
3	0xb0ba0bbb	-1.3536615e-09
4	0xa9b70963	-8.128461e-14
5	0xaa8328f0	-2.329868e-13
6	0xb5acab3d	-1.2864836e-06
7	0x383207f4	4.2445914e-05
8	0x2f82ad30	2.376992e-10
9	0x3195a769	4.355503e-09
10	0xb103133e	-1.9073947e-09
11	0x388e44b3	6.783884e-05
12	0xb610c7b0	-2.1573906e-06
13	0xb6d67752	-6.3915877e-06
14	0x2d0f601f	8.149952e-12
15	0xb3c81268	-9.316574e-08
16	0x38a9fe03	8.105861e-05
17	0x33887903	6.3550054e-08
18	0x356e5590	8.878642e-07
19	0xae19a645	-3.493585e-11
20	0x294d2e3e	4.5559253e-14
21	0x344ac1fb	1.8883286e-07
22	0xb5fa0960	-1.862918e-06
23	0x36b3487a	5.343053e-06
24	0x31bb25f2	5.44673e-09
25	0xab6567d5	-8.150124e-13
26	0xb68d9612	-4.219598e-06
27	0x2f44cfd9	1.7899938e-10
28	0xafae2e61	-3.168337e-10
29	0x338e0b6b	6.614467e-08
30	0xb28c97bf	-1.6367151e-08
31	0xa4b0171d	-7.636699e-17
32	0xb5f68978	-1.8368437e-06
33	0xb0a06b1f	-1.1671978e-09
34	0x3803b581	3.1401873e-05
35	0x29788ceb	5.518929e-14
36	0xb8304b23	-4.2031646e-05
37	0xb6774764	-3.6847423e-06
38	0x319c7edd	4.5546202e-09
39	0x2f7d3d00	2.3031888e-10
40	0x27fc2097	6.9979385e-15
41	0x3765075e	1.3651179e-05
42	0xb7026126	-7.771223e-06
43	0xb6ad9f93	-5.1743787e-06
44	0x2fac6d56	3.1364306e-10
45	0xb5fbfbd5	-1.877425e-06
46	0xb25c7ade	-1.2833622e-08
47	0xac25c2a2	-2.3555953e-12
48	0xb8915d96	-6.9315705e-05
49	0x2957780b	4.784371e-14
50	0xb7b2fa3f	-2.1335783e-05
51	0x2da11998	1.8314947e-11
52	0x369f9b4b	4.7566477e-06
53	0xaeb8f069	-8.410057e-11
54	0xb1c27d43	-5.6603837e-09
55	0xaee664cf	-1.0477096e-10
56	0xb2dac58b	-2.5468372e-08
57	0xb28cd30b	-1.6394116e-08
58	0xb586b458	-1.0036265e-06
59	0xa7453f57	-2.7373579e-15
60	0xb5f8c9f8	-1.853622e-06
61	0x380e4be0	3.3926102e-05
62	0xae99a4ac	-6.986886e-11
63	0x2e83e68f	5.998146e-11
64	0xae88eca7	-6.226602e-11
65	0x2d428b0b	1.1058497e-11
66	0xb7943ec4	-1.7672202e-05
67	0x97beb2cc	-1.2323597e-24
68	0xaeb95dfb	-8.42952e-11
69	0xb2a3e5a3	-1.9080124e-08
70	0x3e146c35	0.14494403
71	0xa9a06493	-7.122874e-14
72	0xb495493d	-2.78067e-07
73	0xb7d5427b	-2.5422536e-05
74	0x315de9cd	3.2292633e-09
75	0x37f586eb	2.9269102e-05
76	0xaf227124	-1.477401e-10
77	0xb8c47c95	-9.3692135e-05
78	0x2cd5762f	6.066945e-12
79	0xbe4862f7	-0.19569002
80	0x348ef4c3	2.662765e-07
81	0xb971f04a	-0.00023073066
82	0x3ece0396	0.4023711
83	0xb65a10a7	-3.2494224e-06
84	0xb0d1c172	-1.5261732e-09
85	0xa0b03760	-2.9852204e-19
86	0x3e2b1b0c	0.16709536
87	0x2b0b4a11	4.948551e-13
88	0x2e83b426	5.989191e-11
89	0xa8a6e3e1	-1.8528529e-14
90	0xaaefd34f	-4.2601553e-13
91	0x29b42adc	8.001041e-14
92	0x346bac6e	2.194881e-07
93	0xb1e8cfc6	-6.7757098e-09
94	0x23105c83	7.825846e-18
95	0x313eb305	2.77504e-09
96	0x3e117e4e	0.14208338
97	0x28bb77c5	2.0813112e-14
98	0xaab9c7f8	-3.3001358e-13
99	0xadc168ae	-2.1988047e-11
100	0xb1837273	-3.825613e-09
101	0xb44867c6	-1.8664204e-07
102	0xb2e449df	-2.6576286e-08
103	0x3193a505	4.2970236e-09
104	0xb1e4c9e0	-6.658624e-09
105	0x261fb98a	5.541566e-16
106	0xaf737c7b	-2.2144946e-10
107	0x80000b8f	-4.146e-42
108	0xa6321d55	-6.179591e-16
109	0x3dcc320b	0.099704824
110	0xad5cf2d1	-1.2559468e-11
111	0x2e93cca1	6.7211355e-11
112	0x2cd2fd3d	5.996674e-12
113	0x80001260	-6.592e-42
114	0x84934d8b	-3.4630746e-36
115	0x919f761e	-2.5158572e-28
116	0xb1e8fe30	-6.7809864e-09
117	0x0a5b1bec	1.0549718e-32
118	0x2aceeae1	3.675593e-13
119	0x33cb664a	9.4715304e-08
120	0x2e949f2e	6.758537e-11
121	0x306fc6a8	8.723e-10
122	0xb45bc5df	-2.046795e-07
123	0x268169d5	8.979859e-16
124	0x3dd33b32	0.10314025
125	0xb60f4eca	-2.1354522e-06
126	0xb831f5f6	-4.2429157e-05
127	0x302a7c68	6.202243e-10
128	0xaee5517f	-1.0428191e-10
129	0xadc49667	-2.2349412e-11
130	0x38160e8d	3.577634e-05
131	0x98b67545	-4.716431e-24
132	0xaeb9f418	-8.456186e-11
133	0x32b7b80c	2.1387699e-08
134	0x3e93f368	0.28896642
135	0x2ade1d88	3.9455613e-13
136	0xb49b496c	-2.892442e-07
137	0x381aea4f	3.6934678e-05
138	0xb2b1db15	-2.0705139e-08
139	0x37ff1618	3.0408657e-05
140	0xaf0a88b8	-1.2599599e-10
141	0x391f625f	0.00015200068
142	0xac2f9ce4	-2.4956088e-12
143	0xbec2e817	-0.38067695
144	0x3433c53a	1.6742425e-07
145	0x39e0823c	0.00042821642
146	0x3f4d1a45	0.8011821
147	0x369d30db	4.684652e-06
148	0xb1482fd1	-2.913101e-09
149	0xa5fbf3ad	-4.370668e-16
150	0x3eaa3d24	0.33249772
151	0x3101df66	1.8898958e-09
152	0xae7d5f2f	-5.761008e-11
153	0xac2c19f1	-2.445707e-12
154	0x2ac7e7b4	3.5510277e-13
155	0xabedc28a	-1.6893858e-12
156	0xb4a92eed	-3.1512846e-07
157	0x319d1f8f	4.572889e-09
158	0xa334aab2	-9.793966e-18
159	0x312cde8f	2.5155804e-09
160	0x3e912aae	0.28352875
161	0x29052096	2.9560196e-14
162	0x2b1ea93f	5.636775e-13
163	0xabb699bd	-1.2974549e-12
164	0xb0943cf9	-1.0785747e-09
165	0xb44fecfe	-1.9364595e-07
166	0x2fe8ce67	4.2347212e-10
167	0x30a3f268	1.1928707e-09
168	0xb2000ccb	-7.453489e-09
169	0xa670dcda	-8.3566037e-16
170	0x2ed22a9b	9.5572626e-11
171	0x8000148e	-7.374e-42
172	0xa732c608	-2.4809815e-15
173	0x3e4ded46	0.20110044
174	0x2b7bf7ab	8.951682e-13
175	0x2fe7b8cd	4.2149964e-10
176	0xabaa1eea	-1.2087807e-12
177	0x1424c094	8.3178634e-27
178	0x0c49e43c	1.5553159e-31
179	0x922dced3	-5.4844105e-28
180	0xb202f834	-7.623431e-09
181	0x0a772dfe	1.19012676e-32
182	0x2aba746d	3.3121024e-13
183	0x34da77cb	4.0692825e-07
184	0xad14ce07	-8.458573e-12
185	0xb0c97c8d	-1.4660074e-09
186	0xb4fd46ce	-4.717644e-07
187	0x278339fb	3.6422667e-15
188	0x3e5540e3	0.20825534
189	0xb8fd227d	-0.00012070404
190	0xb8efa81b	-0.0001142772
191	0x302394be	5.951043e-10
192	0x2e7ac2d2	5.7016454e-11
193	0x2b896b57	9.764228e-13
194	0x328361ac	1.5294823e-08
195	0x32194b73	8.922927e-09
196	0x336d82cc	5.529982e-08
197	0x300b456f	5.0666576e-10
198	0xadfb7ff1	-2.8592214e-11
199	0x3493b0f4	2.7509634e-07
200	0xae27cffb	-3.8156128e-11
201	0x31554636	3.103549e-09
202	0xb0017816	-4.710058e-10
203	0x2e24c78d	3.746652e-11
204	0x2b766a83	8.754457e-13
205	0xa80386ba	-7.301175e-15
206	0xb7412ced	-1.15141565e-05
207	0xad00b9d9	-7.317224e-12
208	0xb0155e2d	-5.4339716e-10
209	0x26051d8a	4.618368e-16
210	0x2d60f51f	1.2787354e-11
211	0x37fb3a40	2.9948656e-05
212	0x2b8fc9cd	1.0216772e-12
213	0xb1fa232c	-7.279956e-09
214	0xae616f4f	-5.125794e-11
215	0xb1c16a3c	-5.6291167e-09
216	0x31006962	1.8686355e-09
217	0x34ae2968	3.2440153e-07
218	0x37df1899	2.6595126e-05
219	0x333e8ceb	4.4365986e-08
220	0xb18fae37	-4.1816537e-09
221	0xad402120	-1.0921292e-11
222	0xafcb3aed	-3.6967354e-10
223	0xb2971069	-1.7586176e-08
224	0xae580843	-4.9120052e-11
225	0xb24482bd	-1.1438428e-08
226	0x9b9be7a4	-2.5792293e-22
227	0x2b1ab556	5.4963445e-13
228	0x36cbb60d	6.071065e-06
229	0x3212705b	8.523865e-09
230	0xaf84555b	-2.407131e-10
231	0xb4a25328	-3.0235356e-07
232	0xae2cb949	-3.927284e-11
233	0x2adac15e	3.8858755e-13
234	0xb7eb87ee	-2.807748e-05
235	0xb39d540c	-7.32617e-08
236	0x31438a10	2.8454714e-09
237	0xae5045a4	-4.7355578e-11
238	0xaa15d93d	-1.3309228e-13
239	0xabcb00e4	-1.4424265e-12
240	0x2ba39808	1.1624044e-12
241	0x371022a4	8.591134e-06
242	0xb3d52f24	-9.92716e-08
243	0x3478b902	2.3164105e-07
244	0x2e056ec7	3.033909e-11
245	0x347b18c3	2.3385205e-07
246	0x341d3258	1.464008e-07
247	0x3065ca0e	8.359685e-10
248	0x2f80c694	2.3424163e-10
249	0x2dd66e37	2.4377928e-11
250	0xb1c39b17	-5.6928786e-09
251	0xb71e3480	-9.4297575e-06
252	0xae4bc836	-4.633468e-11
253	0x2c4eb524	2.9374914e-12
254	0x3796dd3d	1.7984416e-05
255	0xb758a741	-1.2913545e-05

8.bias f4 [32]
0	0xb6ae597b	-5.196021e-06
1	0x3d82d840	0.06388903
2	0x3e130b4f	0.14359783
3	0xaef2c1fb	-1.1039344e-10
4	0xb08ebe40	-1.0385932e-09
5	0x30b47785	1.3130693e-09
6	0x3e1c6d74	0.15276128
7	0x30e0ce05	1.6356699e-09
8	0xafa8a115	-3.0673478e-10
9	0xb18dca6f	-4.126654e-09
10	0x3e3ea242	0.18616584
11	0x3e27c1e9	0.16382565
12	0xb318e95b	-3.5602493e-08
13	0xb59ac42b	-1.1530987e-06
14	0x31b6409b	5.304242e-09
15	0xb12631c2	-2.4184463e-09
16	0x3855d46d	5.0980994e-05
17	0x3e2a6a7d	0.16642185
18	0xb3e4aaee	-1.0648169e-07
19	0xb107db8f	-1.976989e-09
20	0x3e166019	0.14685096
21	0x36d2f38f	6.2868417e-06
22	0xb79fa5da	-1.9031508e-05
23	0x3e267e03	0.16259007
24	0xb14e2d91	-3.0002847e-09
25	0x3e291fdd	0.16516061
26	0xb9c5a681	-0.00037698823
27	0xb282b5cb	-1.5216662e-08
28	0xb9973a5c	-0.00028844445
29	0x3e133b9f	0.14378212
30	0x3e28ad12	0.16472271
31	0xb1c80b24	-5.8220326e-09

10.weight f4 [4, 32]
0	0xb60fcdb6	-2.14284e-06
1	0xba80d414	-0.0009828829
2	0xba214b39	-0.00061528716
3	0x2d1e7e4c	9.009304e-12
4	0x2f4bb19b	1.852584e-10
5	0xb169e42a	-3.4035659e-09
6	0xb80856fc	-3.2505937e-05
7	0xb18fa4d3	-4.180586e-09
8	0xae918055	-6.616633e-11
9	0xafc70ecd	-3.6208406e-10
10	0x38f76f0f	0.00011798564
11	0xb9bbc3d1	-0.00035813314
12	0x31982f8b	4.4291872e-09
13	0x343c4de7	1.7537205e-07
14	0xb29611ac	-1.7470335e-08
15	0xb016e6db	-5.489775e-10
16	0xb7b78d40	-2.1881075e-05
17	0xba82e74d	-0.0009987146
18	0x32755a1e	1.4281367e-08
19	0xaffcab13	-4.5960089e-10
20	0xb885072b	-6.343269e-05
21	0xb616bf44	-2.2463073e-06
22	0xb754e39f	-1.2689182e-05
23	0xb7b01239	-2.098932e-05
24	0xafcb9ac7	-3.703546e-10
25	0xb90d24a2	-0.00013460455
26	0xb8f2d6bc	-0.000115794566
27	0xb05fda7c	-8.143741e-10
28	0xb680d4b6	-3.83946e-06
29	0xba881403	-0.001038194
30	0xba86a36d	-0.0010272093
31	0x314ecc2b	3.0093001e-09
32	0xb554fbd8	-7.9342635e-07
33	0xb9529cfd	-0.00020085643
34	0xb8c5551c	-9.409545e-05
35	0xb024bbaf	-5.9929567e-10
36	0x2f5fd015	2.0355657e-10
37	0x305a17b9	7.934165e-10
38	0x39925340	0.00027909316
39	0xafa5ee59	-3.018268e-10
40	0xae73670c	-5.5343327e-11
41	0xb0234a4d	-5.940464e-10
42	0x39c9001e	0.00038337795
43	0x3846b4ff	4.7375444e-05
44	0x311cc6b2	2.2813933e-09
45	0xb3ce4a6e	-9.606161e-08
46	0x31b2f016	5.2077764e-09
47	0x303c7b4c	6.8569217e-10
48	0xb88ecea5	-6.809578e-05
49	0xb9b19145	-0.00033868305
50	0x3300a96f	2.995642e-08
51	0xb02f29b3	-6.372389e-10
52	0x398737c5	0.00025790758
53	0xb5c1d09c	-1.4440334e-06
54	0x378999bb	1.6403259e-05
55	0x39919248	0.00027765543
56	0xb0ecf985	-1.7242178e-09
57	0x39486d34	0.00019114168
58	0x392f45a7	0.00016715248
59	0x31443b67	2.855552e-09
60	0x3728d748	1.0063704e-05
61	0xb9b11a89	-0.0003377984
62	0xb9bb8ba5	-0.00035771463
63	0x315b92db	3.1952172e-09
64	0x356dbad7	8.856127e-07
65	0x3988d6f1	0.00026100085
66	0x39c50d5b	0.0003758472
67	0xad406f1a	-1.0938606e-11
68	0x2f17151b	1.3740868e-10
69	0xaf6e6fd9	-2.168571e-10
70	0x374c7089	1.2185549e-05
71	0xb0646acc	-8.3097684e-10
72	0x2e615ba2	5.1240463e-11
73	0xadbed52f	-2.1695172e-11
74	0xb8a16384	-7.6956145e-05
75	0x39b0dc62	0.00033733534
76	0x30dfb003	1.6275411e-09
77	0x34999ddf	2.8613337e-07
78	0xb13f2b99	-2.781894e-09
79	0xb01d7079	-5.72761e-10
80	0x38c3eefa	9.3428374e-05
81	0x39ea447f	0.00044682992
82	0x307dfffb	9.2404634e-10
83	0xb0816529	-9.414737e-10
84	0x38032acd	3.1272695e-05
85	0x35a1bf3c	1.2051091e-06
86	0x381e34ed	3.7719426e-05
87	0x3810a9dc	3.449047e-05
88	0x30a4d16e	1.1992094e-09
89	0x3943e7c8	0.00018682994
90	0xb8a267a2	-7.744065e-05
91	0xb18f8b9c	-4.1777195e-09
92	0xb702b982	-7.791796e-06
93	0x39d7654f	0.00041083476
94	0x39e7c40f	0.00044205828
95	0xb1303430	-2.5641036e-09
96	0xb60d68e1	-2.1071685e-06
97	0x3f0992a7	0.537394
98	0x3f896291	1.0733205
99	0x2c2c9e2b	2.453047e-12
100	0xb01c2b34	-5.6813865e-10
101	0x2ec7f28a	9.092556e-11
102	0x3f7d76a3	0.9900915
103	0x3128baea	2.4553466e-09
104	0xadd4e4e5	-2.420326e-11
105	0xb0cc1fbd	-1.4851974e-09
106	0x3f976250	1.1826878
107	0x3f95b603	1.169617
108	0x32f5d927	2.8620503e-08
109	0x360a636d	2.0621476e-06
110	0x3184ac12	3.8612677e-09
111	0xb1a837b5	-4.8957767e-09
112	0x38c5c092	9.429561e-05
113	0x3fa8974f	1.3171176
114	0xb3a01006	-7.453495e-08
115	0x30e704f1	1.6808867e-09
116	0x3f750b7b	0.9572064
117	0x3708244c	8.114683e-06
118	0x37f35218	2.9006085e-05
119	0x3f88688e	1.0656908
120	0xb132d6dd	-2.6024545e-09
121	0x3f902920	1.126255
122	0xba176918	-0.0005775853
123	0x32e70f21	2.689882e-08
124	0x3b3de396	0.0028974763
125	0x3f93acee	1.1537149
126	0x3fa7a9ef	1.3098735
127	0xb3036132	-3.0589213e-08

10.bias f4 [4]
0	0x3a8d1fcc	0.0010766922
1	0x39357e39	0.00017308527
2	0xba8c1e26	-0.0010690137
3	0x3d3afcb7	0.045651164
